#loc = loc("/home/yuhao/T_RVV/benchmark/src/triton/matmul.py":24:0)
module {
  tt.func public @matmul_kernel(%arg0: !tt.ptr<f32> {tt.divisibility = 16 : i32} loc("/home/yuhao/T_RVV/benchmark/src/triton/matmul.py":24:0), %arg1: !tt.ptr<f32> {tt.divisibility = 16 : i32} loc("/home/yuhao/T_RVV/benchmark/src/triton/matmul.py":24:0), %arg2: !tt.ptr<f32> {tt.divisibility = 16 : i32} loc("/home/yuhao/T_RVV/benchmark/src/triton/matmul.py":24:0), %arg3: i32 {tt.divisibility = 16 : i32} loc("/home/yuhao/T_RVV/benchmark/src/triton/matmul.py":24:0), %arg4: i32 {tt.divisibility = 16 : i32} loc("/home/yuhao/T_RVV/benchmark/src/triton/matmul.py":24:0), %arg5: i32 {tt.divisibility = 16 : i32} loc("/home/yuhao/T_RVV/benchmark/src/triton/matmul.py":24:0), %arg6: i32 {tt.divisibility = 16 : i32} loc("/home/yuhao/T_RVV/benchmark/src/triton/matmul.py":24:0), %arg7: i32 {tt.divisibility = 16 : i32} loc("/home/yuhao/T_RVV/benchmark/src/triton/matmul.py":24:0), %arg8: i32 {tt.divisibility = 16 : i32} loc("/home/yuhao/T_RVV/benchmark/src/triton/matmul.py":24:0)) attributes {noinline = false} {
    %c255 = arith.constant 255 : index loc(#loc1)
    %c254 = arith.constant 254 : index loc(#loc1)
    %c253 = arith.constant 253 : index loc(#loc1)
    %c252 = arith.constant 252 : index loc(#loc1)
    %c251 = arith.constant 251 : index loc(#loc1)
    %c250 = arith.constant 250 : index loc(#loc1)
    %c249 = arith.constant 249 : index loc(#loc1)
    %c248 = arith.constant 248 : index loc(#loc1)
    %c247 = arith.constant 247 : index loc(#loc1)
    %c246 = arith.constant 246 : index loc(#loc1)
    %c245 = arith.constant 245 : index loc(#loc1)
    %c244 = arith.constant 244 : index loc(#loc1)
    %c243 = arith.constant 243 : index loc(#loc1)
    %c242 = arith.constant 242 : index loc(#loc1)
    %c241 = arith.constant 241 : index loc(#loc1)
    %c240 = arith.constant 240 : index loc(#loc1)
    %c239 = arith.constant 239 : index loc(#loc1)
    %c238 = arith.constant 238 : index loc(#loc1)
    %c237 = arith.constant 237 : index loc(#loc1)
    %c236 = arith.constant 236 : index loc(#loc1)
    %c235 = arith.constant 235 : index loc(#loc1)
    %c234 = arith.constant 234 : index loc(#loc1)
    %c233 = arith.constant 233 : index loc(#loc1)
    %c232 = arith.constant 232 : index loc(#loc1)
    %c231 = arith.constant 231 : index loc(#loc1)
    %c230 = arith.constant 230 : index loc(#loc1)
    %c229 = arith.constant 229 : index loc(#loc1)
    %c228 = arith.constant 228 : index loc(#loc1)
    %c227 = arith.constant 227 : index loc(#loc1)
    %c226 = arith.constant 226 : index loc(#loc1)
    %c225 = arith.constant 225 : index loc(#loc1)
    %c224 = arith.constant 224 : index loc(#loc1)
    %c223 = arith.constant 223 : index loc(#loc1)
    %c222 = arith.constant 222 : index loc(#loc1)
    %c221 = arith.constant 221 : index loc(#loc1)
    %c220 = arith.constant 220 : index loc(#loc1)
    %c219 = arith.constant 219 : index loc(#loc1)
    %c218 = arith.constant 218 : index loc(#loc1)
    %c217 = arith.constant 217 : index loc(#loc1)
    %c216 = arith.constant 216 : index loc(#loc1)
    %c215 = arith.constant 215 : index loc(#loc1)
    %c214 = arith.constant 214 : index loc(#loc1)
    %c213 = arith.constant 213 : index loc(#loc1)
    %c212 = arith.constant 212 : index loc(#loc1)
    %c211 = arith.constant 211 : index loc(#loc1)
    %c210 = arith.constant 210 : index loc(#loc1)
    %c209 = arith.constant 209 : index loc(#loc1)
    %c208 = arith.constant 208 : index loc(#loc1)
    %c207 = arith.constant 207 : index loc(#loc1)
    %c206 = arith.constant 206 : index loc(#loc1)
    %c205 = arith.constant 205 : index loc(#loc1)
    %c204 = arith.constant 204 : index loc(#loc1)
    %c203 = arith.constant 203 : index loc(#loc1)
    %c202 = arith.constant 202 : index loc(#loc1)
    %c201 = arith.constant 201 : index loc(#loc1)
    %c200 = arith.constant 200 : index loc(#loc1)
    %c199 = arith.constant 199 : index loc(#loc1)
    %c198 = arith.constant 198 : index loc(#loc1)
    %c197 = arith.constant 197 : index loc(#loc1)
    %c196 = arith.constant 196 : index loc(#loc1)
    %c195 = arith.constant 195 : index loc(#loc1)
    %c194 = arith.constant 194 : index loc(#loc1)
    %c193 = arith.constant 193 : index loc(#loc1)
    %c192 = arith.constant 192 : index loc(#loc1)
    %c191 = arith.constant 191 : index loc(#loc1)
    %c190 = arith.constant 190 : index loc(#loc1)
    %c189 = arith.constant 189 : index loc(#loc1)
    %c188 = arith.constant 188 : index loc(#loc1)
    %c187 = arith.constant 187 : index loc(#loc1)
    %c186 = arith.constant 186 : index loc(#loc1)
    %c185 = arith.constant 185 : index loc(#loc1)
    %c184 = arith.constant 184 : index loc(#loc1)
    %c183 = arith.constant 183 : index loc(#loc1)
    %c182 = arith.constant 182 : index loc(#loc1)
    %c181 = arith.constant 181 : index loc(#loc1)
    %c180 = arith.constant 180 : index loc(#loc1)
    %c179 = arith.constant 179 : index loc(#loc1)
    %c178 = arith.constant 178 : index loc(#loc1)
    %c177 = arith.constant 177 : index loc(#loc1)
    %c176 = arith.constant 176 : index loc(#loc1)
    %c175 = arith.constant 175 : index loc(#loc1)
    %c174 = arith.constant 174 : index loc(#loc1)
    %c173 = arith.constant 173 : index loc(#loc1)
    %c172 = arith.constant 172 : index loc(#loc1)
    %c171 = arith.constant 171 : index loc(#loc1)
    %c170 = arith.constant 170 : index loc(#loc1)
    %c169 = arith.constant 169 : index loc(#loc1)
    %c168 = arith.constant 168 : index loc(#loc1)
    %c167 = arith.constant 167 : index loc(#loc1)
    %c166 = arith.constant 166 : index loc(#loc1)
    %c165 = arith.constant 165 : index loc(#loc1)
    %c164 = arith.constant 164 : index loc(#loc1)
    %c163 = arith.constant 163 : index loc(#loc1)
    %c162 = arith.constant 162 : index loc(#loc1)
    %c161 = arith.constant 161 : index loc(#loc1)
    %c160 = arith.constant 160 : index loc(#loc1)
    %c159 = arith.constant 159 : index loc(#loc1)
    %c158 = arith.constant 158 : index loc(#loc1)
    %c157 = arith.constant 157 : index loc(#loc1)
    %c156 = arith.constant 156 : index loc(#loc1)
    %c155 = arith.constant 155 : index loc(#loc1)
    %c154 = arith.constant 154 : index loc(#loc1)
    %c153 = arith.constant 153 : index loc(#loc1)
    %c152 = arith.constant 152 : index loc(#loc1)
    %c151 = arith.constant 151 : index loc(#loc1)
    %c150 = arith.constant 150 : index loc(#loc1)
    %c149 = arith.constant 149 : index loc(#loc1)
    %c148 = arith.constant 148 : index loc(#loc1)
    %c147 = arith.constant 147 : index loc(#loc1)
    %c146 = arith.constant 146 : index loc(#loc1)
    %c145 = arith.constant 145 : index loc(#loc1)
    %c144 = arith.constant 144 : index loc(#loc1)
    %c143 = arith.constant 143 : index loc(#loc1)
    %c142 = arith.constant 142 : index loc(#loc1)
    %c141 = arith.constant 141 : index loc(#loc1)
    %c140 = arith.constant 140 : index loc(#loc1)
    %c139 = arith.constant 139 : index loc(#loc1)
    %c138 = arith.constant 138 : index loc(#loc1)
    %c137 = arith.constant 137 : index loc(#loc1)
    %c136 = arith.constant 136 : index loc(#loc1)
    %c135 = arith.constant 135 : index loc(#loc1)
    %c134 = arith.constant 134 : index loc(#loc1)
    %c133 = arith.constant 133 : index loc(#loc1)
    %c132 = arith.constant 132 : index loc(#loc1)
    %c131 = arith.constant 131 : index loc(#loc1)
    %c130 = arith.constant 130 : index loc(#loc1)
    %c129 = arith.constant 129 : index loc(#loc1)
    %c128 = arith.constant 128 : index loc(#loc1)
    %cst = arith.constant dense<0.000000e+00> : vector<256xf32> loc(#loc1)
    %c127 = arith.constant 127 : index loc(#loc1)
    %c126 = arith.constant 126 : index loc(#loc1)
    %c125 = arith.constant 125 : index loc(#loc1)
    %c124 = arith.constant 124 : index loc(#loc1)
    %c123 = arith.constant 123 : index loc(#loc1)
    %c122 = arith.constant 122 : index loc(#loc1)
    %c121 = arith.constant 121 : index loc(#loc1)
    %c120 = arith.constant 120 : index loc(#loc1)
    %c119 = arith.constant 119 : index loc(#loc1)
    %c118 = arith.constant 118 : index loc(#loc1)
    %c117 = arith.constant 117 : index loc(#loc1)
    %c116 = arith.constant 116 : index loc(#loc1)
    %c115 = arith.constant 115 : index loc(#loc1)
    %c114 = arith.constant 114 : index loc(#loc1)
    %c113 = arith.constant 113 : index loc(#loc1)
    %c112 = arith.constant 112 : index loc(#loc1)
    %c111 = arith.constant 111 : index loc(#loc1)
    %c110 = arith.constant 110 : index loc(#loc1)
    %c109 = arith.constant 109 : index loc(#loc1)
    %c108 = arith.constant 108 : index loc(#loc1)
    %c107 = arith.constant 107 : index loc(#loc1)
    %c106 = arith.constant 106 : index loc(#loc1)
    %c105 = arith.constant 105 : index loc(#loc1)
    %c104 = arith.constant 104 : index loc(#loc1)
    %c103 = arith.constant 103 : index loc(#loc1)
    %c102 = arith.constant 102 : index loc(#loc1)
    %c101 = arith.constant 101 : index loc(#loc1)
    %c100 = arith.constant 100 : index loc(#loc1)
    %c99 = arith.constant 99 : index loc(#loc1)
    %c98 = arith.constant 98 : index loc(#loc1)
    %c97 = arith.constant 97 : index loc(#loc1)
    %c96 = arith.constant 96 : index loc(#loc1)
    %c95 = arith.constant 95 : index loc(#loc1)
    %c94 = arith.constant 94 : index loc(#loc1)
    %c93 = arith.constant 93 : index loc(#loc1)
    %c92 = arith.constant 92 : index loc(#loc1)
    %c91 = arith.constant 91 : index loc(#loc1)
    %c90 = arith.constant 90 : index loc(#loc1)
    %c89 = arith.constant 89 : index loc(#loc1)
    %c88 = arith.constant 88 : index loc(#loc1)
    %c87 = arith.constant 87 : index loc(#loc1)
    %c86 = arith.constant 86 : index loc(#loc1)
    %c85 = arith.constant 85 : index loc(#loc1)
    %c84 = arith.constant 84 : index loc(#loc1)
    %c83 = arith.constant 83 : index loc(#loc1)
    %c82 = arith.constant 82 : index loc(#loc1)
    %c81 = arith.constant 81 : index loc(#loc1)
    %c80 = arith.constant 80 : index loc(#loc1)
    %c79 = arith.constant 79 : index loc(#loc1)
    %c78 = arith.constant 78 : index loc(#loc1)
    %c77 = arith.constant 77 : index loc(#loc1)
    %c76 = arith.constant 76 : index loc(#loc1)
    %c75 = arith.constant 75 : index loc(#loc1)
    %c74 = arith.constant 74 : index loc(#loc1)
    %c73 = arith.constant 73 : index loc(#loc1)
    %c72 = arith.constant 72 : index loc(#loc1)
    %c71 = arith.constant 71 : index loc(#loc1)
    %c70 = arith.constant 70 : index loc(#loc1)
    %c69 = arith.constant 69 : index loc(#loc1)
    %c68 = arith.constant 68 : index loc(#loc1)
    %c67 = arith.constant 67 : index loc(#loc1)
    %c66 = arith.constant 66 : index loc(#loc1)
    %c65 = arith.constant 65 : index loc(#loc1)
    %c64 = arith.constant 64 : index loc(#loc1)
    %c63 = arith.constant 63 : index loc(#loc1)
    %c62 = arith.constant 62 : index loc(#loc1)
    %c61 = arith.constant 61 : index loc(#loc1)
    %c60 = arith.constant 60 : index loc(#loc1)
    %c59 = arith.constant 59 : index loc(#loc1)
    %c58 = arith.constant 58 : index loc(#loc1)
    %c57 = arith.constant 57 : index loc(#loc1)
    %c56 = arith.constant 56 : index loc(#loc1)
    %c55 = arith.constant 55 : index loc(#loc1)
    %c54 = arith.constant 54 : index loc(#loc1)
    %c53 = arith.constant 53 : index loc(#loc1)
    %c52 = arith.constant 52 : index loc(#loc1)
    %c51 = arith.constant 51 : index loc(#loc1)
    %c50 = arith.constant 50 : index loc(#loc1)
    %c49 = arith.constant 49 : index loc(#loc1)
    %c48 = arith.constant 48 : index loc(#loc1)
    %c47 = arith.constant 47 : index loc(#loc1)
    %c46 = arith.constant 46 : index loc(#loc1)
    %c45 = arith.constant 45 : index loc(#loc1)
    %c44 = arith.constant 44 : index loc(#loc1)
    %c43 = arith.constant 43 : index loc(#loc1)
    %c42 = arith.constant 42 : index loc(#loc1)
    %c41 = arith.constant 41 : index loc(#loc1)
    %c40 = arith.constant 40 : index loc(#loc1)
    %c39 = arith.constant 39 : index loc(#loc1)
    %c38 = arith.constant 38 : index loc(#loc1)
    %c37 = arith.constant 37 : index loc(#loc1)
    %c36 = arith.constant 36 : index loc(#loc1)
    %c35 = arith.constant 35 : index loc(#loc1)
    %c34 = arith.constant 34 : index loc(#loc1)
    %c33 = arith.constant 33 : index loc(#loc1)
    %c32 = arith.constant 32 : index loc(#loc1)
    %c31 = arith.constant 31 : index loc(#loc1)
    %c30 = arith.constant 30 : index loc(#loc1)
    %c29 = arith.constant 29 : index loc(#loc1)
    %c28 = arith.constant 28 : index loc(#loc1)
    %c27 = arith.constant 27 : index loc(#loc1)
    %c26 = arith.constant 26 : index loc(#loc1)
    %c25 = arith.constant 25 : index loc(#loc1)
    %c24 = arith.constant 24 : index loc(#loc1)
    %c23 = arith.constant 23 : index loc(#loc1)
    %c22 = arith.constant 22 : index loc(#loc1)
    %c21 = arith.constant 21 : index loc(#loc1)
    %c20 = arith.constant 20 : index loc(#loc1)
    %c19 = arith.constant 19 : index loc(#loc1)
    %c18 = arith.constant 18 : index loc(#loc1)
    %c17 = arith.constant 17 : index loc(#loc1)
    %c16 = arith.constant 16 : index loc(#loc1)
    %c15 = arith.constant 15 : index loc(#loc1)
    %c14 = arith.constant 14 : index loc(#loc1)
    %c13 = arith.constant 13 : index loc(#loc1)
    %c12 = arith.constant 12 : index loc(#loc1)
    %c11 = arith.constant 11 : index loc(#loc1)
    %c10 = arith.constant 10 : index loc(#loc1)
    %c9 = arith.constant 9 : index loc(#loc1)
    %c8 = arith.constant 8 : index loc(#loc1)
    %c7 = arith.constant 7 : index loc(#loc1)
    %c6 = arith.constant 6 : index loc(#loc1)
    %c5 = arith.constant 5 : index loc(#loc1)
    %c4 = arith.constant 4 : index loc(#loc1)
    %c3 = arith.constant 3 : index loc(#loc1)
    %c2 = arith.constant 2 : index loc(#loc1)
    %c1 = arith.constant 1 : index loc(#loc1)
    %c127_i32 = arith.constant 127 : i32 loc(#loc1)
    %cst_0 = arith.constant dense<0.000000e+00> : vector<4x256xf32> loc(#loc1)
    %c255_i32 = arith.constant 255 : i32 loc(#loc1)
    %c3_i32 = arith.constant 3 : i32 loc(#loc1)
    %c1_i32 = arith.constant 1 : i32 loc(#loc1)
    %c128_i32 = arith.constant 128 : i32 loc(#loc1)
    %c0_i32 = arith.constant 0 : i32 loc(#loc1)
    %c1_i64 = arith.constant 1 : i64 loc(#loc1)
    %c256_i32 = arith.constant 256 : i32 loc(#loc1)
    %c4_i32 = arith.constant 4 : i32 loc(#loc1)
    %c8_i32 = arith.constant 8 : i32 loc(#loc1)
    %0 = tt.get_program_id x : i32 loc(#loc2)
    %1 = arith.addi %arg3, %c3_i32 : i32 loc(#loc31)
    %2 = arith.divsi %1, %c4_i32 : i32 loc(#loc32)
    %3 = arith.addi %arg4, %c255_i32 : i32 loc(#loc33)
    %4 = arith.divsi %3, %c256_i32 : i32 loc(#loc34)
    %5 = arith.muli %4, %c8_i32 : i32 loc(#loc7)
    %6 = arith.divsi %0, %5 : i32 loc(#loc8)
    %7 = arith.muli %6, %c8_i32 : i32 loc(#loc9)
    %8 = arith.subi %2, %7 : i32 loc(#loc10)
    %9 = arith.minsi %8, %c8_i32 : i32 loc(#loc11)
    %10 = arith.remsi %0, %9 : i32 loc(#loc12)
    %11 = arith.addi %7, %10 : i32 loc(#loc13)
    %12 = arith.remsi %0, %5 : i32 loc(#loc14)
    %13 = arith.divsi %12, %9 : i32 loc(#loc15)
    %14 = arith.muli %11, %c4_i32 : i32 loc(#loc16)
    %15 = arith.muli %13, %c256_i32 : i32 loc(#loc17)
    %16 = arith.extsi %arg3 : i32 to i64 loc(#loc18)
    %17 = arith.extsi %arg5 : i32 to i64 loc(#loc18)
    %18 = arith.extsi %arg6 : i32 to i64 loc(#loc18)
    %19 = tt.make_tensor_ptr %arg0, [%16, %17], [%18, %c1_i64], [%14, %c0_i32] {order = array<i32: 1, 0>} : <tensor<4x128xf32>> loc(#loc18)
    %20 = arith.extsi %arg4 : i32 to i64 loc(#loc19)
    %21 = arith.extsi %arg7 : i32 to i64 loc(#loc19)
    %22 = tt.make_tensor_ptr %arg1, [%17, %20], [%21, %c1_i64], [%c0_i32, %15] {order = array<i32: 1, 0>} : <tensor<128x256xf32>> loc(#loc19)
    %23 = arith.addi %arg5, %c127_i32 : i32 loc(#loc35)
    %24 = arith.divsi %23, %c128_i32 : i32 loc(#loc36)
    %25:6 = scf.for %arg9 = %c0_i32 to %24 step %c1_i32 iter_args(%arg10 = %19, %arg11 = %22, %arg12 = %cst, %arg13 = %cst, %arg14 = %cst, %arg15 = %cst) -> (!tt.ptr<tensor<4x128xf32>>, !tt.ptr<tensor<128x256xf32>>, vector<256xf32>, vector<256xf32>, vector<256xf32>, vector<256xf32>)  : i32 {
      %34 = triton_cpu.extract_memref %arg10 : <tensor<4x128xf32>> -> memref<?x?xf32, strided<[?, 1]>> loc(#loc22)
      %35:2 = triton_cpu.extract_indices %arg10 : <tensor<4x128xf32>> -> index, index loc(#loc22)
      %36 = triton_cpu.extract_memref %arg11 : <tensor<128x256xf32>> -> memref<?x?xf32, strided<[?, 1]>> loc(#loc23)
      %37:2 = triton_cpu.extract_indices %arg11 : <tensor<128x256xf32>> -> index, index loc(#loc23)
      %38 = arith.addi %35#1, %c128 : index loc(#loc24)
      %39 = arith.addi %37#0, %c128 : index loc(#loc24)
      %40 = vector.load %36[%37#0, %37#1] : memref<?x?xf32, strided<[?, 1]>>, vector<256xf32> loc(#loc24)
      %41 = arith.addi %37#0, %c1 : index loc(#loc24)
      %42 = vector.load %36[%41, %37#1] : memref<?x?xf32, strided<[?, 1]>>, vector<256xf32> loc(#loc24)
      memref.prefetch %36[%39, %37#1], read, locality<1>, data : memref<?x?xf32, strided<[?, 1]>> loc(#loc24)
      %43 = memref.load %34[%35#0, %35#1] : memref<?x?xf32, strided<[?, 1]>> loc(#loc24)
      %44 = vector.broadcast %43 : f32 to vector<256xf32> loc(#loc24)
      %45 = arith.addi %35#0, %c1 : index loc(#loc24)
      %46 = memref.load %34[%45, %35#1] : memref<?x?xf32, strided<[?, 1]>> loc(#loc24)
      %47 = vector.broadcast %46 : f32 to vector<256xf32> loc(#loc24)
      memref.prefetch %34[%35#0, %38], read, locality<3>, data : memref<?x?xf32, strided<[?, 1]>> loc(#loc24)
      %48 = vector.fma %40, %44, %arg12 : vector<256xf32> loc(#loc24)
      %49 = arith.addi %35#0, %c2 : index loc(#loc24)
      %50 = memref.load %34[%49, %35#1] : memref<?x?xf32, strided<[?, 1]>> loc(#loc24)
      %51 = vector.broadcast %50 : f32 to vector<256xf32> loc(#loc24)
      memref.prefetch %34[%45, %38], read, locality<3>, data : memref<?x?xf32, strided<[?, 1]>> loc(#loc24)
      %52 = vector.fma %40, %47, %arg13 : vector<256xf32> loc(#loc24)
      %53 = arith.addi %35#0, %c3 : index loc(#loc24)
      %54 = memref.load %34[%53, %35#1] : memref<?x?xf32, strided<[?, 1]>> loc(#loc24)
      %55 = vector.broadcast %54 : f32 to vector<256xf32> loc(#loc24)
      memref.prefetch %34[%49, %38], read, locality<3>, data : memref<?x?xf32, strided<[?, 1]>> loc(#loc24)
      %56 = vector.fma %40, %51, %arg14 : vector<256xf32> loc(#loc24)
      memref.prefetch %34[%53, %38], read, locality<3>, data : memref<?x?xf32, strided<[?, 1]>> loc(#loc24)
      %57 = vector.fma %40, %55, %arg15 : vector<256xf32> loc(#loc24)
      %58 = arith.addi %37#0, %c2 : index loc(#loc24)
      %59 = vector.load %36[%58, %37#1] : memref<?x?xf32, strided<[?, 1]>>, vector<256xf32> loc(#loc24)
      %60 = arith.addi %37#0, %c129 : index loc(#loc24)
      memref.prefetch %36[%60, %37#1], read, locality<1>, data : memref<?x?xf32, strided<[?, 1]>> loc(#loc24)
      %61 = arith.addi %35#1, %c1 : index loc(#loc24)
      %62 = memref.load %34[%35#0, %61] : memref<?x?xf32, strided<[?, 1]>> loc(#loc24)
      %63 = vector.broadcast %62 : f32 to vector<256xf32> loc(#loc24)
      %64 = memref.load %34[%45, %61] : memref<?x?xf32, strided<[?, 1]>> loc(#loc24)
      %65 = vector.broadcast %64 : f32 to vector<256xf32> loc(#loc24)
      %66 = vector.fma %42, %63, %48 : vector<256xf32> loc(#loc24)
      %67 = memref.load %34[%49, %61] : memref<?x?xf32, strided<[?, 1]>> loc(#loc24)
      %68 = vector.broadcast %67 : f32 to vector<256xf32> loc(#loc24)
      %69 = vector.fma %42, %65, %52 : vector<256xf32> loc(#loc24)
      %70 = memref.load %34[%53, %61] : memref<?x?xf32, strided<[?, 1]>> loc(#loc24)
      %71 = vector.broadcast %70 : f32 to vector<256xf32> loc(#loc24)
      %72 = vector.fma %42, %68, %56 : vector<256xf32> loc(#loc24)
      %73 = vector.fma %42, %71, %57 : vector<256xf32> loc(#loc24)
      %74 = arith.addi %37#0, %c3 : index loc(#loc24)
      %75 = vector.load %36[%74, %37#1] : memref<?x?xf32, strided<[?, 1]>>, vector<256xf32> loc(#loc24)
      %76 = arith.addi %37#0, %c130 : index loc(#loc24)
      memref.prefetch %36[%76, %37#1], read, locality<1>, data : memref<?x?xf32, strided<[?, 1]>> loc(#loc24)
      %77 = arith.addi %35#1, %c2 : index loc(#loc24)
      %78 = memref.load %34[%35#0, %77] : memref<?x?xf32, strided<[?, 1]>> loc(#loc24)
      %79 = vector.broadcast %78 : f32 to vector<256xf32> loc(#loc24)
      %80 = memref.load %34[%45, %77] : memref<?x?xf32, strided<[?, 1]>> loc(#loc24)
      %81 = vector.broadcast %80 : f32 to vector<256xf32> loc(#loc24)
      %82 = vector.fma %59, %79, %66 : vector<256xf32> loc(#loc24)
      %83 = memref.load %34[%49, %77] : memref<?x?xf32, strided<[?, 1]>> loc(#loc24)
      %84 = vector.broadcast %83 : f32 to vector<256xf32> loc(#loc24)
      %85 = vector.fma %59, %81, %69 : vector<256xf32> loc(#loc24)
      %86 = memref.load %34[%53, %77] : memref<?x?xf32, strided<[?, 1]>> loc(#loc24)
      %87 = vector.broadcast %86 : f32 to vector<256xf32> loc(#loc24)
      %88 = vector.fma %59, %84, %72 : vector<256xf32> loc(#loc24)
      %89 = vector.fma %59, %87, %73 : vector<256xf32> loc(#loc24)
      %90 = arith.addi %37#0, %c4 : index loc(#loc24)
      %91 = vector.load %36[%90, %37#1] : memref<?x?xf32, strided<[?, 1]>>, vector<256xf32> loc(#loc24)
      %92 = arith.addi %37#0, %c131 : index loc(#loc24)
      memref.prefetch %36[%92, %37#1], read, locality<1>, data : memref<?x?xf32, strided<[?, 1]>> loc(#loc24)
      %93 = arith.addi %35#1, %c3 : index loc(#loc24)
      %94 = memref.load %34[%35#0, %93] : memref<?x?xf32, strided<[?, 1]>> loc(#loc24)
      %95 = vector.broadcast %94 : f32 to vector<256xf32> loc(#loc24)
      %96 = memref.load %34[%45, %93] : memref<?x?xf32, strided<[?, 1]>> loc(#loc24)
      %97 = vector.broadcast %96 : f32 to vector<256xf32> loc(#loc24)
      %98 = vector.fma %75, %95, %82 : vector<256xf32> loc(#loc24)
      %99 = memref.load %34[%49, %93] : memref<?x?xf32, strided<[?, 1]>> loc(#loc24)
      %100 = vector.broadcast %99 : f32 to vector<256xf32> loc(#loc24)
      %101 = vector.fma %75, %97, %85 : vector<256xf32> loc(#loc24)
      %102 = memref.load %34[%53, %93] : memref<?x?xf32, strided<[?, 1]>> loc(#loc24)
      %103 = vector.broadcast %102 : f32 to vector<256xf32> loc(#loc24)
      %104 = vector.fma %75, %100, %88 : vector<256xf32> loc(#loc24)
      %105 = vector.fma %75, %103, %89 : vector<256xf32> loc(#loc24)
      %106 = arith.addi %37#0, %c5 : index loc(#loc24)
      %107 = vector.load %36[%106, %37#1] : memref<?x?xf32, strided<[?, 1]>>, vector<256xf32> loc(#loc24)
      %108 = arith.addi %37#0, %c132 : index loc(#loc24)
      memref.prefetch %36[%108, %37#1], read, locality<1>, data : memref<?x?xf32, strided<[?, 1]>> loc(#loc24)
      %109 = arith.addi %35#1, %c4 : index loc(#loc24)
      %110 = memref.load %34[%35#0, %109] : memref<?x?xf32, strided<[?, 1]>> loc(#loc24)
      %111 = vector.broadcast %110 : f32 to vector<256xf32> loc(#loc24)
      %112 = memref.load %34[%45, %109] : memref<?x?xf32, strided<[?, 1]>> loc(#loc24)
      %113 = vector.broadcast %112 : f32 to vector<256xf32> loc(#loc24)
      %114 = vector.fma %91, %111, %98 : vector<256xf32> loc(#loc24)
      %115 = memref.load %34[%49, %109] : memref<?x?xf32, strided<[?, 1]>> loc(#loc24)
      %116 = vector.broadcast %115 : f32 to vector<256xf32> loc(#loc24)
      %117 = vector.fma %91, %113, %101 : vector<256xf32> loc(#loc24)
      %118 = memref.load %34[%53, %109] : memref<?x?xf32, strided<[?, 1]>> loc(#loc24)
      %119 = vector.broadcast %118 : f32 to vector<256xf32> loc(#loc24)
      %120 = vector.fma %91, %116, %104 : vector<256xf32> loc(#loc24)
      %121 = vector.fma %91, %119, %105 : vector<256xf32> loc(#loc24)
      %122 = arith.addi %37#0, %c6 : index loc(#loc24)
      %123 = vector.load %36[%122, %37#1] : memref<?x?xf32, strided<[?, 1]>>, vector<256xf32> loc(#loc24)
      %124 = arith.addi %37#0, %c133 : index loc(#loc24)
      memref.prefetch %36[%124, %37#1], read, locality<1>, data : memref<?x?xf32, strided<[?, 1]>> loc(#loc24)
      %125 = arith.addi %35#1, %c5 : index loc(#loc24)
      %126 = memref.load %34[%35#0, %125] : memref<?x?xf32, strided<[?, 1]>> loc(#loc24)
      %127 = vector.broadcast %126 : f32 to vector<256xf32> loc(#loc24)
      %128 = memref.load %34[%45, %125] : memref<?x?xf32, strided<[?, 1]>> loc(#loc24)
      %129 = vector.broadcast %128 : f32 to vector<256xf32> loc(#loc24)
      %130 = vector.fma %107, %127, %114 : vector<256xf32> loc(#loc24)
      %131 = memref.load %34[%49, %125] : memref<?x?xf32, strided<[?, 1]>> loc(#loc24)
      %132 = vector.broadcast %131 : f32 to vector<256xf32> loc(#loc24)
      %133 = vector.fma %107, %129, %117 : vector<256xf32> loc(#loc24)
      %134 = memref.load %34[%53, %125] : memref<?x?xf32, strided<[?, 1]>> loc(#loc24)
      %135 = vector.broadcast %134 : f32 to vector<256xf32> loc(#loc24)
      %136 = vector.fma %107, %132, %120 : vector<256xf32> loc(#loc24)
      %137 = vector.fma %107, %135, %121 : vector<256xf32> loc(#loc24)
      %138 = arith.addi %37#0, %c7 : index loc(#loc24)
      %139 = vector.load %36[%138, %37#1] : memref<?x?xf32, strided<[?, 1]>>, vector<256xf32> loc(#loc24)
      %140 = arith.addi %37#0, %c134 : index loc(#loc24)
      memref.prefetch %36[%140, %37#1], read, locality<1>, data : memref<?x?xf32, strided<[?, 1]>> loc(#loc24)
      %141 = arith.addi %35#1, %c6 : index loc(#loc24)
      %142 = memref.load %34[%35#0, %141] : memref<?x?xf32, strided<[?, 1]>> loc(#loc24)
      %143 = vector.broadcast %142 : f32 to vector<256xf32> loc(#loc24)
      %144 = memref.load %34[%45, %141] : memref<?x?xf32, strided<[?, 1]>> loc(#loc24)
      %145 = vector.broadcast %144 : f32 to vector<256xf32> loc(#loc24)
      %146 = vector.fma %123, %143, %130 : vector<256xf32> loc(#loc24)
      %147 = memref.load %34[%49, %141] : memref<?x?xf32, strided<[?, 1]>> loc(#loc24)
      %148 = vector.broadcast %147 : f32 to vector<256xf32> loc(#loc24)
      %149 = vector.fma %123, %145, %133 : vector<256xf32> loc(#loc24)
      %150 = memref.load %34[%53, %141] : memref<?x?xf32, strided<[?, 1]>> loc(#loc24)
      %151 = vector.broadcast %150 : f32 to vector<256xf32> loc(#loc24)
      %152 = vector.fma %123, %148, %136 : vector<256xf32> loc(#loc24)
      %153 = vector.fma %123, %151, %137 : vector<256xf32> loc(#loc24)
      %154 = arith.addi %37#0, %c8 : index loc(#loc24)
      %155 = vector.load %36[%154, %37#1] : memref<?x?xf32, strided<[?, 1]>>, vector<256xf32> loc(#loc24)
      %156 = arith.addi %37#0, %c135 : index loc(#loc24)
      memref.prefetch %36[%156, %37#1], read, locality<1>, data : memref<?x?xf32, strided<[?, 1]>> loc(#loc24)
      %157 = arith.addi %35#1, %c7 : index loc(#loc24)
      %158 = memref.load %34[%35#0, %157] : memref<?x?xf32, strided<[?, 1]>> loc(#loc24)
      %159 = vector.broadcast %158 : f32 to vector<256xf32> loc(#loc24)
      %160 = memref.load %34[%45, %157] : memref<?x?xf32, strided<[?, 1]>> loc(#loc24)
      %161 = vector.broadcast %160 : f32 to vector<256xf32> loc(#loc24)
      %162 = vector.fma %139, %159, %146 : vector<256xf32> loc(#loc24)
      %163 = memref.load %34[%49, %157] : memref<?x?xf32, strided<[?, 1]>> loc(#loc24)
      %164 = vector.broadcast %163 : f32 to vector<256xf32> loc(#loc24)
      %165 = vector.fma %139, %161, %149 : vector<256xf32> loc(#loc24)
      %166 = memref.load %34[%53, %157] : memref<?x?xf32, strided<[?, 1]>> loc(#loc24)
      %167 = vector.broadcast %166 : f32 to vector<256xf32> loc(#loc24)
      %168 = vector.fma %139, %164, %152 : vector<256xf32> loc(#loc24)
      %169 = vector.fma %139, %167, %153 : vector<256xf32> loc(#loc24)
      %170 = arith.addi %37#0, %c9 : index loc(#loc24)
      %171 = vector.load %36[%170, %37#1] : memref<?x?xf32, strided<[?, 1]>>, vector<256xf32> loc(#loc24)
      %172 = arith.addi %37#0, %c136 : index loc(#loc24)
      memref.prefetch %36[%172, %37#1], read, locality<1>, data : memref<?x?xf32, strided<[?, 1]>> loc(#loc24)
      %173 = arith.addi %35#1, %c8 : index loc(#loc24)
      %174 = memref.load %34[%35#0, %173] : memref<?x?xf32, strided<[?, 1]>> loc(#loc24)
      %175 = vector.broadcast %174 : f32 to vector<256xf32> loc(#loc24)
      %176 = memref.load %34[%45, %173] : memref<?x?xf32, strided<[?, 1]>> loc(#loc24)
      %177 = vector.broadcast %176 : f32 to vector<256xf32> loc(#loc24)
      %178 = arith.addi %35#1, %c136 : index loc(#loc24)
      memref.prefetch %34[%35#0, %178], read, locality<3>, data : memref<?x?xf32, strided<[?, 1]>> loc(#loc24)
      %179 = vector.fma %155, %175, %162 : vector<256xf32> loc(#loc24)
      %180 = memref.load %34[%49, %173] : memref<?x?xf32, strided<[?, 1]>> loc(#loc24)
      %181 = vector.broadcast %180 : f32 to vector<256xf32> loc(#loc24)
      memref.prefetch %34[%45, %178], read, locality<3>, data : memref<?x?xf32, strided<[?, 1]>> loc(#loc24)
      %182 = vector.fma %155, %177, %165 : vector<256xf32> loc(#loc24)
      %183 = memref.load %34[%53, %173] : memref<?x?xf32, strided<[?, 1]>> loc(#loc24)
      %184 = vector.broadcast %183 : f32 to vector<256xf32> loc(#loc24)
      memref.prefetch %34[%49, %178], read, locality<3>, data : memref<?x?xf32, strided<[?, 1]>> loc(#loc24)
      %185 = vector.fma %155, %181, %168 : vector<256xf32> loc(#loc24)
      memref.prefetch %34[%53, %178], read, locality<3>, data : memref<?x?xf32, strided<[?, 1]>> loc(#loc24)
      %186 = vector.fma %155, %184, %169 : vector<256xf32> loc(#loc24)
      %187 = arith.addi %37#0, %c10 : index loc(#loc24)
      %188 = vector.load %36[%187, %37#1] : memref<?x?xf32, strided<[?, 1]>>, vector<256xf32> loc(#loc24)
      %189 = arith.addi %37#0, %c137 : index loc(#loc24)
      memref.prefetch %36[%189, %37#1], read, locality<1>, data : memref<?x?xf32, strided<[?, 1]>> loc(#loc24)
      %190 = arith.addi %35#1, %c9 : index loc(#loc24)
      %191 = memref.load %34[%35#0, %190] : memref<?x?xf32, strided<[?, 1]>> loc(#loc24)
      %192 = vector.broadcast %191 : f32 to vector<256xf32> loc(#loc24)
      %193 = memref.load %34[%45, %190] : memref<?x?xf32, strided<[?, 1]>> loc(#loc24)
      %194 = vector.broadcast %193 : f32 to vector<256xf32> loc(#loc24)
      %195 = vector.fma %171, %192, %179 : vector<256xf32> loc(#loc24)
      %196 = memref.load %34[%49, %190] : memref<?x?xf32, strided<[?, 1]>> loc(#loc24)
      %197 = vector.broadcast %196 : f32 to vector<256xf32> loc(#loc24)
      %198 = vector.fma %171, %194, %182 : vector<256xf32> loc(#loc24)
      %199 = memref.load %34[%53, %190] : memref<?x?xf32, strided<[?, 1]>> loc(#loc24)
      %200 = vector.broadcast %199 : f32 to vector<256xf32> loc(#loc24)
      %201 = vector.fma %171, %197, %185 : vector<256xf32> loc(#loc24)
      %202 = vector.fma %171, %200, %186 : vector<256xf32> loc(#loc24)
      %203 = arith.addi %37#0, %c11 : index loc(#loc24)
      %204 = vector.load %36[%203, %37#1] : memref<?x?xf32, strided<[?, 1]>>, vector<256xf32> loc(#loc24)
      %205 = arith.addi %37#0, %c138 : index loc(#loc24)
      memref.prefetch %36[%205, %37#1], read, locality<1>, data : memref<?x?xf32, strided<[?, 1]>> loc(#loc24)
      %206 = arith.addi %35#1, %c10 : index loc(#loc24)
      %207 = memref.load %34[%35#0, %206] : memref<?x?xf32, strided<[?, 1]>> loc(#loc24)
      %208 = vector.broadcast %207 : f32 to vector<256xf32> loc(#loc24)
      %209 = memref.load %34[%45, %206] : memref<?x?xf32, strided<[?, 1]>> loc(#loc24)
      %210 = vector.broadcast %209 : f32 to vector<256xf32> loc(#loc24)
      %211 = vector.fma %188, %208, %195 : vector<256xf32> loc(#loc24)
      %212 = memref.load %34[%49, %206] : memref<?x?xf32, strided<[?, 1]>> loc(#loc24)
      %213 = vector.broadcast %212 : f32 to vector<256xf32> loc(#loc24)
      %214 = vector.fma %188, %210, %198 : vector<256xf32> loc(#loc24)
      %215 = memref.load %34[%53, %206] : memref<?x?xf32, strided<[?, 1]>> loc(#loc24)
      %216 = vector.broadcast %215 : f32 to vector<256xf32> loc(#loc24)
      %217 = vector.fma %188, %213, %201 : vector<256xf32> loc(#loc24)
      %218 = vector.fma %188, %216, %202 : vector<256xf32> loc(#loc24)
      %219 = arith.addi %37#0, %c12 : index loc(#loc24)
      %220 = vector.load %36[%219, %37#1] : memref<?x?xf32, strided<[?, 1]>>, vector<256xf32> loc(#loc24)
      %221 = arith.addi %37#0, %c139 : index loc(#loc24)
      memref.prefetch %36[%221, %37#1], read, locality<1>, data : memref<?x?xf32, strided<[?, 1]>> loc(#loc24)
      %222 = arith.addi %35#1, %c11 : index loc(#loc24)
      %223 = memref.load %34[%35#0, %222] : memref<?x?xf32, strided<[?, 1]>> loc(#loc24)
      %224 = vector.broadcast %223 : f32 to vector<256xf32> loc(#loc24)
      %225 = memref.load %34[%45, %222] : memref<?x?xf32, strided<[?, 1]>> loc(#loc24)
      %226 = vector.broadcast %225 : f32 to vector<256xf32> loc(#loc24)
      %227 = vector.fma %204, %224, %211 : vector<256xf32> loc(#loc24)
      %228 = memref.load %34[%49, %222] : memref<?x?xf32, strided<[?, 1]>> loc(#loc24)
      %229 = vector.broadcast %228 : f32 to vector<256xf32> loc(#loc24)
      %230 = vector.fma %204, %226, %214 : vector<256xf32> loc(#loc24)
      %231 = memref.load %34[%53, %222] : memref<?x?xf32, strided<[?, 1]>> loc(#loc24)
      %232 = vector.broadcast %231 : f32 to vector<256xf32> loc(#loc24)
      %233 = vector.fma %204, %229, %217 : vector<256xf32> loc(#loc24)
      %234 = vector.fma %204, %232, %218 : vector<256xf32> loc(#loc24)
      %235 = arith.addi %37#0, %c13 : index loc(#loc24)
      %236 = vector.load %36[%235, %37#1] : memref<?x?xf32, strided<[?, 1]>>, vector<256xf32> loc(#loc24)
      %237 = arith.addi %37#0, %c140 : index loc(#loc24)
      memref.prefetch %36[%237, %37#1], read, locality<1>, data : memref<?x?xf32, strided<[?, 1]>> loc(#loc24)
      %238 = arith.addi %35#1, %c12 : index loc(#loc24)
      %239 = memref.load %34[%35#0, %238] : memref<?x?xf32, strided<[?, 1]>> loc(#loc24)
      %240 = vector.broadcast %239 : f32 to vector<256xf32> loc(#loc24)
      %241 = memref.load %34[%45, %238] : memref<?x?xf32, strided<[?, 1]>> loc(#loc24)
      %242 = vector.broadcast %241 : f32 to vector<256xf32> loc(#loc24)
      %243 = vector.fma %220, %240, %227 : vector<256xf32> loc(#loc24)
      %244 = memref.load %34[%49, %238] : memref<?x?xf32, strided<[?, 1]>> loc(#loc24)
      %245 = vector.broadcast %244 : f32 to vector<256xf32> loc(#loc24)
      %246 = vector.fma %220, %242, %230 : vector<256xf32> loc(#loc24)
      %247 = memref.load %34[%53, %238] : memref<?x?xf32, strided<[?, 1]>> loc(#loc24)
      %248 = vector.broadcast %247 : f32 to vector<256xf32> loc(#loc24)
      %249 = vector.fma %220, %245, %233 : vector<256xf32> loc(#loc24)
      %250 = vector.fma %220, %248, %234 : vector<256xf32> loc(#loc24)
      %251 = arith.addi %37#0, %c14 : index loc(#loc24)
      %252 = vector.load %36[%251, %37#1] : memref<?x?xf32, strided<[?, 1]>>, vector<256xf32> loc(#loc24)
      %253 = arith.addi %37#0, %c141 : index loc(#loc24)
      memref.prefetch %36[%253, %37#1], read, locality<1>, data : memref<?x?xf32, strided<[?, 1]>> loc(#loc24)
      %254 = arith.addi %35#1, %c13 : index loc(#loc24)
      %255 = memref.load %34[%35#0, %254] : memref<?x?xf32, strided<[?, 1]>> loc(#loc24)
      %256 = vector.broadcast %255 : f32 to vector<256xf32> loc(#loc24)
      %257 = memref.load %34[%45, %254] : memref<?x?xf32, strided<[?, 1]>> loc(#loc24)
      %258 = vector.broadcast %257 : f32 to vector<256xf32> loc(#loc24)
      %259 = vector.fma %236, %256, %243 : vector<256xf32> loc(#loc24)
      %260 = memref.load %34[%49, %254] : memref<?x?xf32, strided<[?, 1]>> loc(#loc24)
      %261 = vector.broadcast %260 : f32 to vector<256xf32> loc(#loc24)
      %262 = vector.fma %236, %258, %246 : vector<256xf32> loc(#loc24)
      %263 = memref.load %34[%53, %254] : memref<?x?xf32, strided<[?, 1]>> loc(#loc24)
      %264 = vector.broadcast %263 : f32 to vector<256xf32> loc(#loc24)
      %265 = vector.fma %236, %261, %249 : vector<256xf32> loc(#loc24)
      %266 = vector.fma %236, %264, %250 : vector<256xf32> loc(#loc24)
      %267 = arith.addi %37#0, %c15 : index loc(#loc24)
      %268 = vector.load %36[%267, %37#1] : memref<?x?xf32, strided<[?, 1]>>, vector<256xf32> loc(#loc24)
      %269 = arith.addi %37#0, %c142 : index loc(#loc24)
      memref.prefetch %36[%269, %37#1], read, locality<1>, data : memref<?x?xf32, strided<[?, 1]>> loc(#loc24)
      %270 = arith.addi %35#1, %c14 : index loc(#loc24)
      %271 = memref.load %34[%35#0, %270] : memref<?x?xf32, strided<[?, 1]>> loc(#loc24)
      %272 = vector.broadcast %271 : f32 to vector<256xf32> loc(#loc24)
      %273 = memref.load %34[%45, %270] : memref<?x?xf32, strided<[?, 1]>> loc(#loc24)
      %274 = vector.broadcast %273 : f32 to vector<256xf32> loc(#loc24)
      %275 = vector.fma %252, %272, %259 : vector<256xf32> loc(#loc24)
      %276 = memref.load %34[%49, %270] : memref<?x?xf32, strided<[?, 1]>> loc(#loc24)
      %277 = vector.broadcast %276 : f32 to vector<256xf32> loc(#loc24)
      %278 = vector.fma %252, %274, %262 : vector<256xf32> loc(#loc24)
      %279 = memref.load %34[%53, %270] : memref<?x?xf32, strided<[?, 1]>> loc(#loc24)
      %280 = vector.broadcast %279 : f32 to vector<256xf32> loc(#loc24)
      %281 = vector.fma %252, %277, %265 : vector<256xf32> loc(#loc24)
      %282 = vector.fma %252, %280, %266 : vector<256xf32> loc(#loc24)
      %283 = arith.addi %37#0, %c16 : index loc(#loc24)
      %284 = vector.load %36[%283, %37#1] : memref<?x?xf32, strided<[?, 1]>>, vector<256xf32> loc(#loc24)
      %285 = arith.addi %37#0, %c143 : index loc(#loc24)
      memref.prefetch %36[%285, %37#1], read, locality<1>, data : memref<?x?xf32, strided<[?, 1]>> loc(#loc24)
      %286 = arith.addi %35#1, %c15 : index loc(#loc24)
      %287 = memref.load %34[%35#0, %286] : memref<?x?xf32, strided<[?, 1]>> loc(#loc24)
      %288 = vector.broadcast %287 : f32 to vector<256xf32> loc(#loc24)
      %289 = memref.load %34[%45, %286] : memref<?x?xf32, strided<[?, 1]>> loc(#loc24)
      %290 = vector.broadcast %289 : f32 to vector<256xf32> loc(#loc24)
      %291 = vector.fma %268, %288, %275 : vector<256xf32> loc(#loc24)
      %292 = memref.load %34[%49, %286] : memref<?x?xf32, strided<[?, 1]>> loc(#loc24)
      %293 = vector.broadcast %292 : f32 to vector<256xf32> loc(#loc24)
      %294 = vector.fma %268, %290, %278 : vector<256xf32> loc(#loc24)
      %295 = memref.load %34[%53, %286] : memref<?x?xf32, strided<[?, 1]>> loc(#loc24)
      %296 = vector.broadcast %295 : f32 to vector<256xf32> loc(#loc24)
      %297 = vector.fma %268, %293, %281 : vector<256xf32> loc(#loc24)
      %298 = vector.fma %268, %296, %282 : vector<256xf32> loc(#loc24)
      %299 = arith.addi %37#0, %c17 : index loc(#loc24)
      %300 = vector.load %36[%299, %37#1] : memref<?x?xf32, strided<[?, 1]>>, vector<256xf32> loc(#loc24)
      %301 = arith.addi %37#0, %c144 : index loc(#loc24)
      memref.prefetch %36[%301, %37#1], read, locality<1>, data : memref<?x?xf32, strided<[?, 1]>> loc(#loc24)
      %302 = arith.addi %35#1, %c16 : index loc(#loc24)
      %303 = memref.load %34[%35#0, %302] : memref<?x?xf32, strided<[?, 1]>> loc(#loc24)
      %304 = vector.broadcast %303 : f32 to vector<256xf32> loc(#loc24)
      %305 = memref.load %34[%45, %302] : memref<?x?xf32, strided<[?, 1]>> loc(#loc24)
      %306 = vector.broadcast %305 : f32 to vector<256xf32> loc(#loc24)
      %307 = arith.addi %35#1, %c144 : index loc(#loc24)
      memref.prefetch %34[%35#0, %307], read, locality<3>, data : memref<?x?xf32, strided<[?, 1]>> loc(#loc24)
      %308 = vector.fma %284, %304, %291 : vector<256xf32> loc(#loc24)
      %309 = memref.load %34[%49, %302] : memref<?x?xf32, strided<[?, 1]>> loc(#loc24)
      %310 = vector.broadcast %309 : f32 to vector<256xf32> loc(#loc24)
      memref.prefetch %34[%45, %307], read, locality<3>, data : memref<?x?xf32, strided<[?, 1]>> loc(#loc24)
      %311 = vector.fma %284, %306, %294 : vector<256xf32> loc(#loc24)
      %312 = memref.load %34[%53, %302] : memref<?x?xf32, strided<[?, 1]>> loc(#loc24)
      %313 = vector.broadcast %312 : f32 to vector<256xf32> loc(#loc24)
      memref.prefetch %34[%49, %307], read, locality<3>, data : memref<?x?xf32, strided<[?, 1]>> loc(#loc24)
      %314 = vector.fma %284, %310, %297 : vector<256xf32> loc(#loc24)
      memref.prefetch %34[%53, %307], read, locality<3>, data : memref<?x?xf32, strided<[?, 1]>> loc(#loc24)
      %315 = vector.fma %284, %313, %298 : vector<256xf32> loc(#loc24)
      %316 = arith.addi %37#0, %c18 : index loc(#loc24)
      %317 = vector.load %36[%316, %37#1] : memref<?x?xf32, strided<[?, 1]>>, vector<256xf32> loc(#loc24)
      %318 = arith.addi %37#0, %c145 : index loc(#loc24)
      memref.prefetch %36[%318, %37#1], read, locality<1>, data : memref<?x?xf32, strided<[?, 1]>> loc(#loc24)
      %319 = arith.addi %35#1, %c17 : index loc(#loc24)
      %320 = memref.load %34[%35#0, %319] : memref<?x?xf32, strided<[?, 1]>> loc(#loc24)
      %321 = vector.broadcast %320 : f32 to vector<256xf32> loc(#loc24)
      %322 = memref.load %34[%45, %319] : memref<?x?xf32, strided<[?, 1]>> loc(#loc24)
      %323 = vector.broadcast %322 : f32 to vector<256xf32> loc(#loc24)
      %324 = vector.fma %300, %321, %308 : vector<256xf32> loc(#loc24)
      %325 = memref.load %34[%49, %319] : memref<?x?xf32, strided<[?, 1]>> loc(#loc24)
      %326 = vector.broadcast %325 : f32 to vector<256xf32> loc(#loc24)
      %327 = vector.fma %300, %323, %311 : vector<256xf32> loc(#loc24)
      %328 = memref.load %34[%53, %319] : memref<?x?xf32, strided<[?, 1]>> loc(#loc24)
      %329 = vector.broadcast %328 : f32 to vector<256xf32> loc(#loc24)
      %330 = vector.fma %300, %326, %314 : vector<256xf32> loc(#loc24)
      %331 = vector.fma %300, %329, %315 : vector<256xf32> loc(#loc24)
      %332 = arith.addi %37#0, %c19 : index loc(#loc24)
      %333 = vector.load %36[%332, %37#1] : memref<?x?xf32, strided<[?, 1]>>, vector<256xf32> loc(#loc24)
      %334 = arith.addi %37#0, %c146 : index loc(#loc24)
      memref.prefetch %36[%334, %37#1], read, locality<1>, data : memref<?x?xf32, strided<[?, 1]>> loc(#loc24)
      %335 = arith.addi %35#1, %c18 : index loc(#loc24)
      %336 = memref.load %34[%35#0, %335] : memref<?x?xf32, strided<[?, 1]>> loc(#loc24)
      %337 = vector.broadcast %336 : f32 to vector<256xf32> loc(#loc24)
      %338 = memref.load %34[%45, %335] : memref<?x?xf32, strided<[?, 1]>> loc(#loc24)
      %339 = vector.broadcast %338 : f32 to vector<256xf32> loc(#loc24)
      %340 = vector.fma %317, %337, %324 : vector<256xf32> loc(#loc24)
      %341 = memref.load %34[%49, %335] : memref<?x?xf32, strided<[?, 1]>> loc(#loc24)
      %342 = vector.broadcast %341 : f32 to vector<256xf32> loc(#loc24)
      %343 = vector.fma %317, %339, %327 : vector<256xf32> loc(#loc24)
      %344 = memref.load %34[%53, %335] : memref<?x?xf32, strided<[?, 1]>> loc(#loc24)
      %345 = vector.broadcast %344 : f32 to vector<256xf32> loc(#loc24)
      %346 = vector.fma %317, %342, %330 : vector<256xf32> loc(#loc24)
      %347 = vector.fma %317, %345, %331 : vector<256xf32> loc(#loc24)
      %348 = arith.addi %37#0, %c20 : index loc(#loc24)
      %349 = vector.load %36[%348, %37#1] : memref<?x?xf32, strided<[?, 1]>>, vector<256xf32> loc(#loc24)
      %350 = arith.addi %37#0, %c147 : index loc(#loc24)
      memref.prefetch %36[%350, %37#1], read, locality<1>, data : memref<?x?xf32, strided<[?, 1]>> loc(#loc24)
      %351 = arith.addi %35#1, %c19 : index loc(#loc24)
      %352 = memref.load %34[%35#0, %351] : memref<?x?xf32, strided<[?, 1]>> loc(#loc24)
      %353 = vector.broadcast %352 : f32 to vector<256xf32> loc(#loc24)
      %354 = memref.load %34[%45, %351] : memref<?x?xf32, strided<[?, 1]>> loc(#loc24)
      %355 = vector.broadcast %354 : f32 to vector<256xf32> loc(#loc24)
      %356 = vector.fma %333, %353, %340 : vector<256xf32> loc(#loc24)
      %357 = memref.load %34[%49, %351] : memref<?x?xf32, strided<[?, 1]>> loc(#loc24)
      %358 = vector.broadcast %357 : f32 to vector<256xf32> loc(#loc24)
      %359 = vector.fma %333, %355, %343 : vector<256xf32> loc(#loc24)
      %360 = memref.load %34[%53, %351] : memref<?x?xf32, strided<[?, 1]>> loc(#loc24)
      %361 = vector.broadcast %360 : f32 to vector<256xf32> loc(#loc24)
      %362 = vector.fma %333, %358, %346 : vector<256xf32> loc(#loc24)
      %363 = vector.fma %333, %361, %347 : vector<256xf32> loc(#loc24)
      %364 = arith.addi %37#0, %c21 : index loc(#loc24)
      %365 = vector.load %36[%364, %37#1] : memref<?x?xf32, strided<[?, 1]>>, vector<256xf32> loc(#loc24)
      %366 = arith.addi %37#0, %c148 : index loc(#loc24)
      memref.prefetch %36[%366, %37#1], read, locality<1>, data : memref<?x?xf32, strided<[?, 1]>> loc(#loc24)
      %367 = arith.addi %35#1, %c20 : index loc(#loc24)
      %368 = memref.load %34[%35#0, %367] : memref<?x?xf32, strided<[?, 1]>> loc(#loc24)
      %369 = vector.broadcast %368 : f32 to vector<256xf32> loc(#loc24)
      %370 = memref.load %34[%45, %367] : memref<?x?xf32, strided<[?, 1]>> loc(#loc24)
      %371 = vector.broadcast %370 : f32 to vector<256xf32> loc(#loc24)
      %372 = vector.fma %349, %369, %356 : vector<256xf32> loc(#loc24)
      %373 = memref.load %34[%49, %367] : memref<?x?xf32, strided<[?, 1]>> loc(#loc24)
      %374 = vector.broadcast %373 : f32 to vector<256xf32> loc(#loc24)
      %375 = vector.fma %349, %371, %359 : vector<256xf32> loc(#loc24)
      %376 = memref.load %34[%53, %367] : memref<?x?xf32, strided<[?, 1]>> loc(#loc24)
      %377 = vector.broadcast %376 : f32 to vector<256xf32> loc(#loc24)
      %378 = vector.fma %349, %374, %362 : vector<256xf32> loc(#loc24)
      %379 = vector.fma %349, %377, %363 : vector<256xf32> loc(#loc24)
      %380 = arith.addi %37#0, %c22 : index loc(#loc24)
      %381 = vector.load %36[%380, %37#1] : memref<?x?xf32, strided<[?, 1]>>, vector<256xf32> loc(#loc24)
      %382 = arith.addi %37#0, %c149 : index loc(#loc24)
      memref.prefetch %36[%382, %37#1], read, locality<1>, data : memref<?x?xf32, strided<[?, 1]>> loc(#loc24)
      %383 = arith.addi %35#1, %c21 : index loc(#loc24)
      %384 = memref.load %34[%35#0, %383] : memref<?x?xf32, strided<[?, 1]>> loc(#loc24)
      %385 = vector.broadcast %384 : f32 to vector<256xf32> loc(#loc24)
      %386 = memref.load %34[%45, %383] : memref<?x?xf32, strided<[?, 1]>> loc(#loc24)
      %387 = vector.broadcast %386 : f32 to vector<256xf32> loc(#loc24)
      %388 = vector.fma %365, %385, %372 : vector<256xf32> loc(#loc24)
      %389 = memref.load %34[%49, %383] : memref<?x?xf32, strided<[?, 1]>> loc(#loc24)
      %390 = vector.broadcast %389 : f32 to vector<256xf32> loc(#loc24)
      %391 = vector.fma %365, %387, %375 : vector<256xf32> loc(#loc24)
      %392 = memref.load %34[%53, %383] : memref<?x?xf32, strided<[?, 1]>> loc(#loc24)
      %393 = vector.broadcast %392 : f32 to vector<256xf32> loc(#loc24)
      %394 = vector.fma %365, %390, %378 : vector<256xf32> loc(#loc24)
      %395 = vector.fma %365, %393, %379 : vector<256xf32> loc(#loc24)
      %396 = arith.addi %37#0, %c23 : index loc(#loc24)
      %397 = vector.load %36[%396, %37#1] : memref<?x?xf32, strided<[?, 1]>>, vector<256xf32> loc(#loc24)
      %398 = arith.addi %37#0, %c150 : index loc(#loc24)
      memref.prefetch %36[%398, %37#1], read, locality<1>, data : memref<?x?xf32, strided<[?, 1]>> loc(#loc24)
      %399 = arith.addi %35#1, %c22 : index loc(#loc24)
      %400 = memref.load %34[%35#0, %399] : memref<?x?xf32, strided<[?, 1]>> loc(#loc24)
      %401 = vector.broadcast %400 : f32 to vector<256xf32> loc(#loc24)
      %402 = memref.load %34[%45, %399] : memref<?x?xf32, strided<[?, 1]>> loc(#loc24)
      %403 = vector.broadcast %402 : f32 to vector<256xf32> loc(#loc24)
      %404 = vector.fma %381, %401, %388 : vector<256xf32> loc(#loc24)
      %405 = memref.load %34[%49, %399] : memref<?x?xf32, strided<[?, 1]>> loc(#loc24)
      %406 = vector.broadcast %405 : f32 to vector<256xf32> loc(#loc24)
      %407 = vector.fma %381, %403, %391 : vector<256xf32> loc(#loc24)
      %408 = memref.load %34[%53, %399] : memref<?x?xf32, strided<[?, 1]>> loc(#loc24)
      %409 = vector.broadcast %408 : f32 to vector<256xf32> loc(#loc24)
      %410 = vector.fma %381, %406, %394 : vector<256xf32> loc(#loc24)
      %411 = vector.fma %381, %409, %395 : vector<256xf32> loc(#loc24)
      %412 = arith.addi %37#0, %c24 : index loc(#loc24)
      %413 = vector.load %36[%412, %37#1] : memref<?x?xf32, strided<[?, 1]>>, vector<256xf32> loc(#loc24)
      %414 = arith.addi %37#0, %c151 : index loc(#loc24)
      memref.prefetch %36[%414, %37#1], read, locality<1>, data : memref<?x?xf32, strided<[?, 1]>> loc(#loc24)
      %415 = arith.addi %35#1, %c23 : index loc(#loc24)
      %416 = memref.load %34[%35#0, %415] : memref<?x?xf32, strided<[?, 1]>> loc(#loc24)
      %417 = vector.broadcast %416 : f32 to vector<256xf32> loc(#loc24)
      %418 = memref.load %34[%45, %415] : memref<?x?xf32, strided<[?, 1]>> loc(#loc24)
      %419 = vector.broadcast %418 : f32 to vector<256xf32> loc(#loc24)
      %420 = vector.fma %397, %417, %404 : vector<256xf32> loc(#loc24)
      %421 = memref.load %34[%49, %415] : memref<?x?xf32, strided<[?, 1]>> loc(#loc24)
      %422 = vector.broadcast %421 : f32 to vector<256xf32> loc(#loc24)
      %423 = vector.fma %397, %419, %407 : vector<256xf32> loc(#loc24)
      %424 = memref.load %34[%53, %415] : memref<?x?xf32, strided<[?, 1]>> loc(#loc24)
      %425 = vector.broadcast %424 : f32 to vector<256xf32> loc(#loc24)
      %426 = vector.fma %397, %422, %410 : vector<256xf32> loc(#loc24)
      %427 = vector.fma %397, %425, %411 : vector<256xf32> loc(#loc24)
      %428 = arith.addi %37#0, %c25 : index loc(#loc24)
      %429 = vector.load %36[%428, %37#1] : memref<?x?xf32, strided<[?, 1]>>, vector<256xf32> loc(#loc24)
      %430 = arith.addi %37#0, %c152 : index loc(#loc24)
      memref.prefetch %36[%430, %37#1], read, locality<1>, data : memref<?x?xf32, strided<[?, 1]>> loc(#loc24)
      %431 = arith.addi %35#1, %c24 : index loc(#loc24)
      %432 = memref.load %34[%35#0, %431] : memref<?x?xf32, strided<[?, 1]>> loc(#loc24)
      %433 = vector.broadcast %432 : f32 to vector<256xf32> loc(#loc24)
      %434 = memref.load %34[%45, %431] : memref<?x?xf32, strided<[?, 1]>> loc(#loc24)
      %435 = vector.broadcast %434 : f32 to vector<256xf32> loc(#loc24)
      %436 = arith.addi %35#1, %c152 : index loc(#loc24)
      memref.prefetch %34[%35#0, %436], read, locality<3>, data : memref<?x?xf32, strided<[?, 1]>> loc(#loc24)
      %437 = vector.fma %413, %433, %420 : vector<256xf32> loc(#loc24)
      %438 = memref.load %34[%49, %431] : memref<?x?xf32, strided<[?, 1]>> loc(#loc24)
      %439 = vector.broadcast %438 : f32 to vector<256xf32> loc(#loc24)
      memref.prefetch %34[%45, %436], read, locality<3>, data : memref<?x?xf32, strided<[?, 1]>> loc(#loc24)
      %440 = vector.fma %413, %435, %423 : vector<256xf32> loc(#loc24)
      %441 = memref.load %34[%53, %431] : memref<?x?xf32, strided<[?, 1]>> loc(#loc24)
      %442 = vector.broadcast %441 : f32 to vector<256xf32> loc(#loc24)
      memref.prefetch %34[%49, %436], read, locality<3>, data : memref<?x?xf32, strided<[?, 1]>> loc(#loc24)
      %443 = vector.fma %413, %439, %426 : vector<256xf32> loc(#loc24)
      memref.prefetch %34[%53, %436], read, locality<3>, data : memref<?x?xf32, strided<[?, 1]>> loc(#loc24)
      %444 = vector.fma %413, %442, %427 : vector<256xf32> loc(#loc24)
      %445 = arith.addi %37#0, %c26 : index loc(#loc24)
      %446 = vector.load %36[%445, %37#1] : memref<?x?xf32, strided<[?, 1]>>, vector<256xf32> loc(#loc24)
      %447 = arith.addi %37#0, %c153 : index loc(#loc24)
      memref.prefetch %36[%447, %37#1], read, locality<1>, data : memref<?x?xf32, strided<[?, 1]>> loc(#loc24)
      %448 = arith.addi %35#1, %c25 : index loc(#loc24)
      %449 = memref.load %34[%35#0, %448] : memref<?x?xf32, strided<[?, 1]>> loc(#loc24)
      %450 = vector.broadcast %449 : f32 to vector<256xf32> loc(#loc24)
      %451 = memref.load %34[%45, %448] : memref<?x?xf32, strided<[?, 1]>> loc(#loc24)
      %452 = vector.broadcast %451 : f32 to vector<256xf32> loc(#loc24)
      %453 = vector.fma %429, %450, %437 : vector<256xf32> loc(#loc24)
      %454 = memref.load %34[%49, %448] : memref<?x?xf32, strided<[?, 1]>> loc(#loc24)
      %455 = vector.broadcast %454 : f32 to vector<256xf32> loc(#loc24)
      %456 = vector.fma %429, %452, %440 : vector<256xf32> loc(#loc24)
      %457 = memref.load %34[%53, %448] : memref<?x?xf32, strided<[?, 1]>> loc(#loc24)
      %458 = vector.broadcast %457 : f32 to vector<256xf32> loc(#loc24)
      %459 = vector.fma %429, %455, %443 : vector<256xf32> loc(#loc24)
      %460 = vector.fma %429, %458, %444 : vector<256xf32> loc(#loc24)
      %461 = arith.addi %37#0, %c27 : index loc(#loc24)
      %462 = vector.load %36[%461, %37#1] : memref<?x?xf32, strided<[?, 1]>>, vector<256xf32> loc(#loc24)
      %463 = arith.addi %37#0, %c154 : index loc(#loc24)
      memref.prefetch %36[%463, %37#1], read, locality<1>, data : memref<?x?xf32, strided<[?, 1]>> loc(#loc24)
      %464 = arith.addi %35#1, %c26 : index loc(#loc24)
      %465 = memref.load %34[%35#0, %464] : memref<?x?xf32, strided<[?, 1]>> loc(#loc24)
      %466 = vector.broadcast %465 : f32 to vector<256xf32> loc(#loc24)
      %467 = memref.load %34[%45, %464] : memref<?x?xf32, strided<[?, 1]>> loc(#loc24)
      %468 = vector.broadcast %467 : f32 to vector<256xf32> loc(#loc24)
      %469 = vector.fma %446, %466, %453 : vector<256xf32> loc(#loc24)
      %470 = memref.load %34[%49, %464] : memref<?x?xf32, strided<[?, 1]>> loc(#loc24)
      %471 = vector.broadcast %470 : f32 to vector<256xf32> loc(#loc24)
      %472 = vector.fma %446, %468, %456 : vector<256xf32> loc(#loc24)
      %473 = memref.load %34[%53, %464] : memref<?x?xf32, strided<[?, 1]>> loc(#loc24)
      %474 = vector.broadcast %473 : f32 to vector<256xf32> loc(#loc24)
      %475 = vector.fma %446, %471, %459 : vector<256xf32> loc(#loc24)
      %476 = vector.fma %446, %474, %460 : vector<256xf32> loc(#loc24)
      %477 = arith.addi %37#0, %c28 : index loc(#loc24)
      %478 = vector.load %36[%477, %37#1] : memref<?x?xf32, strided<[?, 1]>>, vector<256xf32> loc(#loc24)
      %479 = arith.addi %37#0, %c155 : index loc(#loc24)
      memref.prefetch %36[%479, %37#1], read, locality<1>, data : memref<?x?xf32, strided<[?, 1]>> loc(#loc24)
      %480 = arith.addi %35#1, %c27 : index loc(#loc24)
      %481 = memref.load %34[%35#0, %480] : memref<?x?xf32, strided<[?, 1]>> loc(#loc24)
      %482 = vector.broadcast %481 : f32 to vector<256xf32> loc(#loc24)
      %483 = memref.load %34[%45, %480] : memref<?x?xf32, strided<[?, 1]>> loc(#loc24)
      %484 = vector.broadcast %483 : f32 to vector<256xf32> loc(#loc24)
      %485 = vector.fma %462, %482, %469 : vector<256xf32> loc(#loc24)
      %486 = memref.load %34[%49, %480] : memref<?x?xf32, strided<[?, 1]>> loc(#loc24)
      %487 = vector.broadcast %486 : f32 to vector<256xf32> loc(#loc24)
      %488 = vector.fma %462, %484, %472 : vector<256xf32> loc(#loc24)
      %489 = memref.load %34[%53, %480] : memref<?x?xf32, strided<[?, 1]>> loc(#loc24)
      %490 = vector.broadcast %489 : f32 to vector<256xf32> loc(#loc24)
      %491 = vector.fma %462, %487, %475 : vector<256xf32> loc(#loc24)
      %492 = vector.fma %462, %490, %476 : vector<256xf32> loc(#loc24)
      %493 = arith.addi %37#0, %c29 : index loc(#loc24)
      %494 = vector.load %36[%493, %37#1] : memref<?x?xf32, strided<[?, 1]>>, vector<256xf32> loc(#loc24)
      %495 = arith.addi %37#0, %c156 : index loc(#loc24)
      memref.prefetch %36[%495, %37#1], read, locality<1>, data : memref<?x?xf32, strided<[?, 1]>> loc(#loc24)
      %496 = arith.addi %35#1, %c28 : index loc(#loc24)
      %497 = memref.load %34[%35#0, %496] : memref<?x?xf32, strided<[?, 1]>> loc(#loc24)
      %498 = vector.broadcast %497 : f32 to vector<256xf32> loc(#loc24)
      %499 = memref.load %34[%45, %496] : memref<?x?xf32, strided<[?, 1]>> loc(#loc24)
      %500 = vector.broadcast %499 : f32 to vector<256xf32> loc(#loc24)
      %501 = vector.fma %478, %498, %485 : vector<256xf32> loc(#loc24)
      %502 = memref.load %34[%49, %496] : memref<?x?xf32, strided<[?, 1]>> loc(#loc24)
      %503 = vector.broadcast %502 : f32 to vector<256xf32> loc(#loc24)
      %504 = vector.fma %478, %500, %488 : vector<256xf32> loc(#loc24)
      %505 = memref.load %34[%53, %496] : memref<?x?xf32, strided<[?, 1]>> loc(#loc24)
      %506 = vector.broadcast %505 : f32 to vector<256xf32> loc(#loc24)
      %507 = vector.fma %478, %503, %491 : vector<256xf32> loc(#loc24)
      %508 = vector.fma %478, %506, %492 : vector<256xf32> loc(#loc24)
      %509 = arith.addi %37#0, %c30 : index loc(#loc24)
      %510 = vector.load %36[%509, %37#1] : memref<?x?xf32, strided<[?, 1]>>, vector<256xf32> loc(#loc24)
      %511 = arith.addi %37#0, %c157 : index loc(#loc24)
      memref.prefetch %36[%511, %37#1], read, locality<1>, data : memref<?x?xf32, strided<[?, 1]>> loc(#loc24)
      %512 = arith.addi %35#1, %c29 : index loc(#loc24)
      %513 = memref.load %34[%35#0, %512] : memref<?x?xf32, strided<[?, 1]>> loc(#loc24)
      %514 = vector.broadcast %513 : f32 to vector<256xf32> loc(#loc24)
      %515 = memref.load %34[%45, %512] : memref<?x?xf32, strided<[?, 1]>> loc(#loc24)
      %516 = vector.broadcast %515 : f32 to vector<256xf32> loc(#loc24)
      %517 = vector.fma %494, %514, %501 : vector<256xf32> loc(#loc24)
      %518 = memref.load %34[%49, %512] : memref<?x?xf32, strided<[?, 1]>> loc(#loc24)
      %519 = vector.broadcast %518 : f32 to vector<256xf32> loc(#loc24)
      %520 = vector.fma %494, %516, %504 : vector<256xf32> loc(#loc24)
      %521 = memref.load %34[%53, %512] : memref<?x?xf32, strided<[?, 1]>> loc(#loc24)
      %522 = vector.broadcast %521 : f32 to vector<256xf32> loc(#loc24)
      %523 = vector.fma %494, %519, %507 : vector<256xf32> loc(#loc24)
      %524 = vector.fma %494, %522, %508 : vector<256xf32> loc(#loc24)
      %525 = arith.addi %37#0, %c31 : index loc(#loc24)
      %526 = vector.load %36[%525, %37#1] : memref<?x?xf32, strided<[?, 1]>>, vector<256xf32> loc(#loc24)
      %527 = arith.addi %37#0, %c158 : index loc(#loc24)
      memref.prefetch %36[%527, %37#1], read, locality<1>, data : memref<?x?xf32, strided<[?, 1]>> loc(#loc24)
      %528 = arith.addi %35#1, %c30 : index loc(#loc24)
      %529 = memref.load %34[%35#0, %528] : memref<?x?xf32, strided<[?, 1]>> loc(#loc24)
      %530 = vector.broadcast %529 : f32 to vector<256xf32> loc(#loc24)
      %531 = memref.load %34[%45, %528] : memref<?x?xf32, strided<[?, 1]>> loc(#loc24)
      %532 = vector.broadcast %531 : f32 to vector<256xf32> loc(#loc24)
      %533 = vector.fma %510, %530, %517 : vector<256xf32> loc(#loc24)
      %534 = memref.load %34[%49, %528] : memref<?x?xf32, strided<[?, 1]>> loc(#loc24)
      %535 = vector.broadcast %534 : f32 to vector<256xf32> loc(#loc24)
      %536 = vector.fma %510, %532, %520 : vector<256xf32> loc(#loc24)
      %537 = memref.load %34[%53, %528] : memref<?x?xf32, strided<[?, 1]>> loc(#loc24)
      %538 = vector.broadcast %537 : f32 to vector<256xf32> loc(#loc24)
      %539 = vector.fma %510, %535, %523 : vector<256xf32> loc(#loc24)
      %540 = vector.fma %510, %538, %524 : vector<256xf32> loc(#loc24)
      %541 = arith.addi %37#0, %c32 : index loc(#loc24)
      %542 = vector.load %36[%541, %37#1] : memref<?x?xf32, strided<[?, 1]>>, vector<256xf32> loc(#loc24)
      %543 = arith.addi %37#0, %c159 : index loc(#loc24)
      memref.prefetch %36[%543, %37#1], read, locality<1>, data : memref<?x?xf32, strided<[?, 1]>> loc(#loc24)
      %544 = arith.addi %35#1, %c31 : index loc(#loc24)
      %545 = memref.load %34[%35#0, %544] : memref<?x?xf32, strided<[?, 1]>> loc(#loc24)
      %546 = vector.broadcast %545 : f32 to vector<256xf32> loc(#loc24)
      %547 = memref.load %34[%45, %544] : memref<?x?xf32, strided<[?, 1]>> loc(#loc24)
      %548 = vector.broadcast %547 : f32 to vector<256xf32> loc(#loc24)
      %549 = vector.fma %526, %546, %533 : vector<256xf32> loc(#loc24)
      %550 = memref.load %34[%49, %544] : memref<?x?xf32, strided<[?, 1]>> loc(#loc24)
      %551 = vector.broadcast %550 : f32 to vector<256xf32> loc(#loc24)
      %552 = vector.fma %526, %548, %536 : vector<256xf32> loc(#loc24)
      %553 = memref.load %34[%53, %544] : memref<?x?xf32, strided<[?, 1]>> loc(#loc24)
      %554 = vector.broadcast %553 : f32 to vector<256xf32> loc(#loc24)
      %555 = vector.fma %526, %551, %539 : vector<256xf32> loc(#loc24)
      %556 = vector.fma %526, %554, %540 : vector<256xf32> loc(#loc24)
      %557 = arith.addi %37#0, %c33 : index loc(#loc24)
      %558 = vector.load %36[%557, %37#1] : memref<?x?xf32, strided<[?, 1]>>, vector<256xf32> loc(#loc24)
      %559 = arith.addi %37#0, %c160 : index loc(#loc24)
      memref.prefetch %36[%559, %37#1], read, locality<1>, data : memref<?x?xf32, strided<[?, 1]>> loc(#loc24)
      %560 = arith.addi %35#1, %c32 : index loc(#loc24)
      %561 = memref.load %34[%35#0, %560] : memref<?x?xf32, strided<[?, 1]>> loc(#loc24)
      %562 = vector.broadcast %561 : f32 to vector<256xf32> loc(#loc24)
      %563 = memref.load %34[%45, %560] : memref<?x?xf32, strided<[?, 1]>> loc(#loc24)
      %564 = vector.broadcast %563 : f32 to vector<256xf32> loc(#loc24)
      %565 = arith.addi %35#1, %c160 : index loc(#loc24)
      memref.prefetch %34[%35#0, %565], read, locality<3>, data : memref<?x?xf32, strided<[?, 1]>> loc(#loc24)
      %566 = vector.fma %542, %562, %549 : vector<256xf32> loc(#loc24)
      %567 = memref.load %34[%49, %560] : memref<?x?xf32, strided<[?, 1]>> loc(#loc24)
      %568 = vector.broadcast %567 : f32 to vector<256xf32> loc(#loc24)
      memref.prefetch %34[%45, %565], read, locality<3>, data : memref<?x?xf32, strided<[?, 1]>> loc(#loc24)
      %569 = vector.fma %542, %564, %552 : vector<256xf32> loc(#loc24)
      %570 = memref.load %34[%53, %560] : memref<?x?xf32, strided<[?, 1]>> loc(#loc24)
      %571 = vector.broadcast %570 : f32 to vector<256xf32> loc(#loc24)
      memref.prefetch %34[%49, %565], read, locality<3>, data : memref<?x?xf32, strided<[?, 1]>> loc(#loc24)
      %572 = vector.fma %542, %568, %555 : vector<256xf32> loc(#loc24)
      memref.prefetch %34[%53, %565], read, locality<3>, data : memref<?x?xf32, strided<[?, 1]>> loc(#loc24)
      %573 = vector.fma %542, %571, %556 : vector<256xf32> loc(#loc24)
      %574 = arith.addi %37#0, %c34 : index loc(#loc24)
      %575 = vector.load %36[%574, %37#1] : memref<?x?xf32, strided<[?, 1]>>, vector<256xf32> loc(#loc24)
      %576 = arith.addi %37#0, %c161 : index loc(#loc24)
      memref.prefetch %36[%576, %37#1], read, locality<1>, data : memref<?x?xf32, strided<[?, 1]>> loc(#loc24)
      %577 = arith.addi %35#1, %c33 : index loc(#loc24)
      %578 = memref.load %34[%35#0, %577] : memref<?x?xf32, strided<[?, 1]>> loc(#loc24)
      %579 = vector.broadcast %578 : f32 to vector<256xf32> loc(#loc24)
      %580 = memref.load %34[%45, %577] : memref<?x?xf32, strided<[?, 1]>> loc(#loc24)
      %581 = vector.broadcast %580 : f32 to vector<256xf32> loc(#loc24)
      %582 = vector.fma %558, %579, %566 : vector<256xf32> loc(#loc24)
      %583 = memref.load %34[%49, %577] : memref<?x?xf32, strided<[?, 1]>> loc(#loc24)
      %584 = vector.broadcast %583 : f32 to vector<256xf32> loc(#loc24)
      %585 = vector.fma %558, %581, %569 : vector<256xf32> loc(#loc24)
      %586 = memref.load %34[%53, %577] : memref<?x?xf32, strided<[?, 1]>> loc(#loc24)
      %587 = vector.broadcast %586 : f32 to vector<256xf32> loc(#loc24)
      %588 = vector.fma %558, %584, %572 : vector<256xf32> loc(#loc24)
      %589 = vector.fma %558, %587, %573 : vector<256xf32> loc(#loc24)
      %590 = arith.addi %37#0, %c35 : index loc(#loc24)
      %591 = vector.load %36[%590, %37#1] : memref<?x?xf32, strided<[?, 1]>>, vector<256xf32> loc(#loc24)
      %592 = arith.addi %37#0, %c162 : index loc(#loc24)
      memref.prefetch %36[%592, %37#1], read, locality<1>, data : memref<?x?xf32, strided<[?, 1]>> loc(#loc24)
      %593 = arith.addi %35#1, %c34 : index loc(#loc24)
      %594 = memref.load %34[%35#0, %593] : memref<?x?xf32, strided<[?, 1]>> loc(#loc24)
      %595 = vector.broadcast %594 : f32 to vector<256xf32> loc(#loc24)
      %596 = memref.load %34[%45, %593] : memref<?x?xf32, strided<[?, 1]>> loc(#loc24)
      %597 = vector.broadcast %596 : f32 to vector<256xf32> loc(#loc24)
      %598 = vector.fma %575, %595, %582 : vector<256xf32> loc(#loc24)
      %599 = memref.load %34[%49, %593] : memref<?x?xf32, strided<[?, 1]>> loc(#loc24)
      %600 = vector.broadcast %599 : f32 to vector<256xf32> loc(#loc24)
      %601 = vector.fma %575, %597, %585 : vector<256xf32> loc(#loc24)
      %602 = memref.load %34[%53, %593] : memref<?x?xf32, strided<[?, 1]>> loc(#loc24)
      %603 = vector.broadcast %602 : f32 to vector<256xf32> loc(#loc24)
      %604 = vector.fma %575, %600, %588 : vector<256xf32> loc(#loc24)
      %605 = vector.fma %575, %603, %589 : vector<256xf32> loc(#loc24)
      %606 = arith.addi %37#0, %c36 : index loc(#loc24)
      %607 = vector.load %36[%606, %37#1] : memref<?x?xf32, strided<[?, 1]>>, vector<256xf32> loc(#loc24)
      %608 = arith.addi %37#0, %c163 : index loc(#loc24)
      memref.prefetch %36[%608, %37#1], read, locality<1>, data : memref<?x?xf32, strided<[?, 1]>> loc(#loc24)
      %609 = arith.addi %35#1, %c35 : index loc(#loc24)
      %610 = memref.load %34[%35#0, %609] : memref<?x?xf32, strided<[?, 1]>> loc(#loc24)
      %611 = vector.broadcast %610 : f32 to vector<256xf32> loc(#loc24)
      %612 = memref.load %34[%45, %609] : memref<?x?xf32, strided<[?, 1]>> loc(#loc24)
      %613 = vector.broadcast %612 : f32 to vector<256xf32> loc(#loc24)
      %614 = vector.fma %591, %611, %598 : vector<256xf32> loc(#loc24)
      %615 = memref.load %34[%49, %609] : memref<?x?xf32, strided<[?, 1]>> loc(#loc24)
      %616 = vector.broadcast %615 : f32 to vector<256xf32> loc(#loc24)
      %617 = vector.fma %591, %613, %601 : vector<256xf32> loc(#loc24)
      %618 = memref.load %34[%53, %609] : memref<?x?xf32, strided<[?, 1]>> loc(#loc24)
      %619 = vector.broadcast %618 : f32 to vector<256xf32> loc(#loc24)
      %620 = vector.fma %591, %616, %604 : vector<256xf32> loc(#loc24)
      %621 = vector.fma %591, %619, %605 : vector<256xf32> loc(#loc24)
      %622 = arith.addi %37#0, %c37 : index loc(#loc24)
      %623 = vector.load %36[%622, %37#1] : memref<?x?xf32, strided<[?, 1]>>, vector<256xf32> loc(#loc24)
      %624 = arith.addi %37#0, %c164 : index loc(#loc24)
      memref.prefetch %36[%624, %37#1], read, locality<1>, data : memref<?x?xf32, strided<[?, 1]>> loc(#loc24)
      %625 = arith.addi %35#1, %c36 : index loc(#loc24)
      %626 = memref.load %34[%35#0, %625] : memref<?x?xf32, strided<[?, 1]>> loc(#loc24)
      %627 = vector.broadcast %626 : f32 to vector<256xf32> loc(#loc24)
      %628 = memref.load %34[%45, %625] : memref<?x?xf32, strided<[?, 1]>> loc(#loc24)
      %629 = vector.broadcast %628 : f32 to vector<256xf32> loc(#loc24)
      %630 = vector.fma %607, %627, %614 : vector<256xf32> loc(#loc24)
      %631 = memref.load %34[%49, %625] : memref<?x?xf32, strided<[?, 1]>> loc(#loc24)
      %632 = vector.broadcast %631 : f32 to vector<256xf32> loc(#loc24)
      %633 = vector.fma %607, %629, %617 : vector<256xf32> loc(#loc24)
      %634 = memref.load %34[%53, %625] : memref<?x?xf32, strided<[?, 1]>> loc(#loc24)
      %635 = vector.broadcast %634 : f32 to vector<256xf32> loc(#loc24)
      %636 = vector.fma %607, %632, %620 : vector<256xf32> loc(#loc24)
      %637 = vector.fma %607, %635, %621 : vector<256xf32> loc(#loc24)
      %638 = arith.addi %37#0, %c38 : index loc(#loc24)
      %639 = vector.load %36[%638, %37#1] : memref<?x?xf32, strided<[?, 1]>>, vector<256xf32> loc(#loc24)
      %640 = arith.addi %37#0, %c165 : index loc(#loc24)
      memref.prefetch %36[%640, %37#1], read, locality<1>, data : memref<?x?xf32, strided<[?, 1]>> loc(#loc24)
      %641 = arith.addi %35#1, %c37 : index loc(#loc24)
      %642 = memref.load %34[%35#0, %641] : memref<?x?xf32, strided<[?, 1]>> loc(#loc24)
      %643 = vector.broadcast %642 : f32 to vector<256xf32> loc(#loc24)
      %644 = memref.load %34[%45, %641] : memref<?x?xf32, strided<[?, 1]>> loc(#loc24)
      %645 = vector.broadcast %644 : f32 to vector<256xf32> loc(#loc24)
      %646 = vector.fma %623, %643, %630 : vector<256xf32> loc(#loc24)
      %647 = memref.load %34[%49, %641] : memref<?x?xf32, strided<[?, 1]>> loc(#loc24)
      %648 = vector.broadcast %647 : f32 to vector<256xf32> loc(#loc24)
      %649 = vector.fma %623, %645, %633 : vector<256xf32> loc(#loc24)
      %650 = memref.load %34[%53, %641] : memref<?x?xf32, strided<[?, 1]>> loc(#loc24)
      %651 = vector.broadcast %650 : f32 to vector<256xf32> loc(#loc24)
      %652 = vector.fma %623, %648, %636 : vector<256xf32> loc(#loc24)
      %653 = vector.fma %623, %651, %637 : vector<256xf32> loc(#loc24)
      %654 = arith.addi %37#0, %c39 : index loc(#loc24)
      %655 = vector.load %36[%654, %37#1] : memref<?x?xf32, strided<[?, 1]>>, vector<256xf32> loc(#loc24)
      %656 = arith.addi %37#0, %c166 : index loc(#loc24)
      memref.prefetch %36[%656, %37#1], read, locality<1>, data : memref<?x?xf32, strided<[?, 1]>> loc(#loc24)
      %657 = arith.addi %35#1, %c38 : index loc(#loc24)
      %658 = memref.load %34[%35#0, %657] : memref<?x?xf32, strided<[?, 1]>> loc(#loc24)
      %659 = vector.broadcast %658 : f32 to vector<256xf32> loc(#loc24)
      %660 = memref.load %34[%45, %657] : memref<?x?xf32, strided<[?, 1]>> loc(#loc24)
      %661 = vector.broadcast %660 : f32 to vector<256xf32> loc(#loc24)
      %662 = vector.fma %639, %659, %646 : vector<256xf32> loc(#loc24)
      %663 = memref.load %34[%49, %657] : memref<?x?xf32, strided<[?, 1]>> loc(#loc24)
      %664 = vector.broadcast %663 : f32 to vector<256xf32> loc(#loc24)
      %665 = vector.fma %639, %661, %649 : vector<256xf32> loc(#loc24)
      %666 = memref.load %34[%53, %657] : memref<?x?xf32, strided<[?, 1]>> loc(#loc24)
      %667 = vector.broadcast %666 : f32 to vector<256xf32> loc(#loc24)
      %668 = vector.fma %639, %664, %652 : vector<256xf32> loc(#loc24)
      %669 = vector.fma %639, %667, %653 : vector<256xf32> loc(#loc24)
      %670 = arith.addi %37#0, %c40 : index loc(#loc24)
      %671 = vector.load %36[%670, %37#1] : memref<?x?xf32, strided<[?, 1]>>, vector<256xf32> loc(#loc24)
      %672 = arith.addi %37#0, %c167 : index loc(#loc24)
      memref.prefetch %36[%672, %37#1], read, locality<1>, data : memref<?x?xf32, strided<[?, 1]>> loc(#loc24)
      %673 = arith.addi %35#1, %c39 : index loc(#loc24)
      %674 = memref.load %34[%35#0, %673] : memref<?x?xf32, strided<[?, 1]>> loc(#loc24)
      %675 = vector.broadcast %674 : f32 to vector<256xf32> loc(#loc24)
      %676 = memref.load %34[%45, %673] : memref<?x?xf32, strided<[?, 1]>> loc(#loc24)
      %677 = vector.broadcast %676 : f32 to vector<256xf32> loc(#loc24)
      %678 = vector.fma %655, %675, %662 : vector<256xf32> loc(#loc24)
      %679 = memref.load %34[%49, %673] : memref<?x?xf32, strided<[?, 1]>> loc(#loc24)
      %680 = vector.broadcast %679 : f32 to vector<256xf32> loc(#loc24)
      %681 = vector.fma %655, %677, %665 : vector<256xf32> loc(#loc24)
      %682 = memref.load %34[%53, %673] : memref<?x?xf32, strided<[?, 1]>> loc(#loc24)
      %683 = vector.broadcast %682 : f32 to vector<256xf32> loc(#loc24)
      %684 = vector.fma %655, %680, %668 : vector<256xf32> loc(#loc24)
      %685 = vector.fma %655, %683, %669 : vector<256xf32> loc(#loc24)
      %686 = arith.addi %37#0, %c41 : index loc(#loc24)
      %687 = vector.load %36[%686, %37#1] : memref<?x?xf32, strided<[?, 1]>>, vector<256xf32> loc(#loc24)
      %688 = arith.addi %37#0, %c168 : index loc(#loc24)
      memref.prefetch %36[%688, %37#1], read, locality<1>, data : memref<?x?xf32, strided<[?, 1]>> loc(#loc24)
      %689 = arith.addi %35#1, %c40 : index loc(#loc24)
      %690 = memref.load %34[%35#0, %689] : memref<?x?xf32, strided<[?, 1]>> loc(#loc24)
      %691 = vector.broadcast %690 : f32 to vector<256xf32> loc(#loc24)
      %692 = memref.load %34[%45, %689] : memref<?x?xf32, strided<[?, 1]>> loc(#loc24)
      %693 = vector.broadcast %692 : f32 to vector<256xf32> loc(#loc24)
      %694 = arith.addi %35#1, %c168 : index loc(#loc24)
      memref.prefetch %34[%35#0, %694], read, locality<3>, data : memref<?x?xf32, strided<[?, 1]>> loc(#loc24)
      %695 = vector.fma %671, %691, %678 : vector<256xf32> loc(#loc24)
      %696 = memref.load %34[%49, %689] : memref<?x?xf32, strided<[?, 1]>> loc(#loc24)
      %697 = vector.broadcast %696 : f32 to vector<256xf32> loc(#loc24)
      memref.prefetch %34[%45, %694], read, locality<3>, data : memref<?x?xf32, strided<[?, 1]>> loc(#loc24)
      %698 = vector.fma %671, %693, %681 : vector<256xf32> loc(#loc24)
      %699 = memref.load %34[%53, %689] : memref<?x?xf32, strided<[?, 1]>> loc(#loc24)
      %700 = vector.broadcast %699 : f32 to vector<256xf32> loc(#loc24)
      memref.prefetch %34[%49, %694], read, locality<3>, data : memref<?x?xf32, strided<[?, 1]>> loc(#loc24)
      %701 = vector.fma %671, %697, %684 : vector<256xf32> loc(#loc24)
      memref.prefetch %34[%53, %694], read, locality<3>, data : memref<?x?xf32, strided<[?, 1]>> loc(#loc24)
      %702 = vector.fma %671, %700, %685 : vector<256xf32> loc(#loc24)
      %703 = arith.addi %37#0, %c42 : index loc(#loc24)
      %704 = vector.load %36[%703, %37#1] : memref<?x?xf32, strided<[?, 1]>>, vector<256xf32> loc(#loc24)
      %705 = arith.addi %37#0, %c169 : index loc(#loc24)
      memref.prefetch %36[%705, %37#1], read, locality<1>, data : memref<?x?xf32, strided<[?, 1]>> loc(#loc24)
      %706 = arith.addi %35#1, %c41 : index loc(#loc24)
      %707 = memref.load %34[%35#0, %706] : memref<?x?xf32, strided<[?, 1]>> loc(#loc24)
      %708 = vector.broadcast %707 : f32 to vector<256xf32> loc(#loc24)
      %709 = memref.load %34[%45, %706] : memref<?x?xf32, strided<[?, 1]>> loc(#loc24)
      %710 = vector.broadcast %709 : f32 to vector<256xf32> loc(#loc24)
      %711 = vector.fma %687, %708, %695 : vector<256xf32> loc(#loc24)
      %712 = memref.load %34[%49, %706] : memref<?x?xf32, strided<[?, 1]>> loc(#loc24)
      %713 = vector.broadcast %712 : f32 to vector<256xf32> loc(#loc24)
      %714 = vector.fma %687, %710, %698 : vector<256xf32> loc(#loc24)
      %715 = memref.load %34[%53, %706] : memref<?x?xf32, strided<[?, 1]>> loc(#loc24)
      %716 = vector.broadcast %715 : f32 to vector<256xf32> loc(#loc24)
      %717 = vector.fma %687, %713, %701 : vector<256xf32> loc(#loc24)
      %718 = vector.fma %687, %716, %702 : vector<256xf32> loc(#loc24)
      %719 = arith.addi %37#0, %c43 : index loc(#loc24)
      %720 = vector.load %36[%719, %37#1] : memref<?x?xf32, strided<[?, 1]>>, vector<256xf32> loc(#loc24)
      %721 = arith.addi %37#0, %c170 : index loc(#loc24)
      memref.prefetch %36[%721, %37#1], read, locality<1>, data : memref<?x?xf32, strided<[?, 1]>> loc(#loc24)
      %722 = arith.addi %35#1, %c42 : index loc(#loc24)
      %723 = memref.load %34[%35#0, %722] : memref<?x?xf32, strided<[?, 1]>> loc(#loc24)
      %724 = vector.broadcast %723 : f32 to vector<256xf32> loc(#loc24)
      %725 = memref.load %34[%45, %722] : memref<?x?xf32, strided<[?, 1]>> loc(#loc24)
      %726 = vector.broadcast %725 : f32 to vector<256xf32> loc(#loc24)
      %727 = vector.fma %704, %724, %711 : vector<256xf32> loc(#loc24)
      %728 = memref.load %34[%49, %722] : memref<?x?xf32, strided<[?, 1]>> loc(#loc24)
      %729 = vector.broadcast %728 : f32 to vector<256xf32> loc(#loc24)
      %730 = vector.fma %704, %726, %714 : vector<256xf32> loc(#loc24)
      %731 = memref.load %34[%53, %722] : memref<?x?xf32, strided<[?, 1]>> loc(#loc24)
      %732 = vector.broadcast %731 : f32 to vector<256xf32> loc(#loc24)
      %733 = vector.fma %704, %729, %717 : vector<256xf32> loc(#loc24)
      %734 = vector.fma %704, %732, %718 : vector<256xf32> loc(#loc24)
      %735 = arith.addi %37#0, %c44 : index loc(#loc24)
      %736 = vector.load %36[%735, %37#1] : memref<?x?xf32, strided<[?, 1]>>, vector<256xf32> loc(#loc24)
      %737 = arith.addi %37#0, %c171 : index loc(#loc24)
      memref.prefetch %36[%737, %37#1], read, locality<1>, data : memref<?x?xf32, strided<[?, 1]>> loc(#loc24)
      %738 = arith.addi %35#1, %c43 : index loc(#loc24)
      %739 = memref.load %34[%35#0, %738] : memref<?x?xf32, strided<[?, 1]>> loc(#loc24)
      %740 = vector.broadcast %739 : f32 to vector<256xf32> loc(#loc24)
      %741 = memref.load %34[%45, %738] : memref<?x?xf32, strided<[?, 1]>> loc(#loc24)
      %742 = vector.broadcast %741 : f32 to vector<256xf32> loc(#loc24)
      %743 = vector.fma %720, %740, %727 : vector<256xf32> loc(#loc24)
      %744 = memref.load %34[%49, %738] : memref<?x?xf32, strided<[?, 1]>> loc(#loc24)
      %745 = vector.broadcast %744 : f32 to vector<256xf32> loc(#loc24)
      %746 = vector.fma %720, %742, %730 : vector<256xf32> loc(#loc24)
      %747 = memref.load %34[%53, %738] : memref<?x?xf32, strided<[?, 1]>> loc(#loc24)
      %748 = vector.broadcast %747 : f32 to vector<256xf32> loc(#loc24)
      %749 = vector.fma %720, %745, %733 : vector<256xf32> loc(#loc24)
      %750 = vector.fma %720, %748, %734 : vector<256xf32> loc(#loc24)
      %751 = arith.addi %37#0, %c45 : index loc(#loc24)
      %752 = vector.load %36[%751, %37#1] : memref<?x?xf32, strided<[?, 1]>>, vector<256xf32> loc(#loc24)
      %753 = arith.addi %37#0, %c172 : index loc(#loc24)
      memref.prefetch %36[%753, %37#1], read, locality<1>, data : memref<?x?xf32, strided<[?, 1]>> loc(#loc24)
      %754 = arith.addi %35#1, %c44 : index loc(#loc24)
      %755 = memref.load %34[%35#0, %754] : memref<?x?xf32, strided<[?, 1]>> loc(#loc24)
      %756 = vector.broadcast %755 : f32 to vector<256xf32> loc(#loc24)
      %757 = memref.load %34[%45, %754] : memref<?x?xf32, strided<[?, 1]>> loc(#loc24)
      %758 = vector.broadcast %757 : f32 to vector<256xf32> loc(#loc24)
      %759 = vector.fma %736, %756, %743 : vector<256xf32> loc(#loc24)
      %760 = memref.load %34[%49, %754] : memref<?x?xf32, strided<[?, 1]>> loc(#loc24)
      %761 = vector.broadcast %760 : f32 to vector<256xf32> loc(#loc24)
      %762 = vector.fma %736, %758, %746 : vector<256xf32> loc(#loc24)
      %763 = memref.load %34[%53, %754] : memref<?x?xf32, strided<[?, 1]>> loc(#loc24)
      %764 = vector.broadcast %763 : f32 to vector<256xf32> loc(#loc24)
      %765 = vector.fma %736, %761, %749 : vector<256xf32> loc(#loc24)
      %766 = vector.fma %736, %764, %750 : vector<256xf32> loc(#loc24)
      %767 = arith.addi %37#0, %c46 : index loc(#loc24)
      %768 = vector.load %36[%767, %37#1] : memref<?x?xf32, strided<[?, 1]>>, vector<256xf32> loc(#loc24)
      %769 = arith.addi %37#0, %c173 : index loc(#loc24)
      memref.prefetch %36[%769, %37#1], read, locality<1>, data : memref<?x?xf32, strided<[?, 1]>> loc(#loc24)
      %770 = arith.addi %35#1, %c45 : index loc(#loc24)
      %771 = memref.load %34[%35#0, %770] : memref<?x?xf32, strided<[?, 1]>> loc(#loc24)
      %772 = vector.broadcast %771 : f32 to vector<256xf32> loc(#loc24)
      %773 = memref.load %34[%45, %770] : memref<?x?xf32, strided<[?, 1]>> loc(#loc24)
      %774 = vector.broadcast %773 : f32 to vector<256xf32> loc(#loc24)
      %775 = vector.fma %752, %772, %759 : vector<256xf32> loc(#loc24)
      %776 = memref.load %34[%49, %770] : memref<?x?xf32, strided<[?, 1]>> loc(#loc24)
      %777 = vector.broadcast %776 : f32 to vector<256xf32> loc(#loc24)
      %778 = vector.fma %752, %774, %762 : vector<256xf32> loc(#loc24)
      %779 = memref.load %34[%53, %770] : memref<?x?xf32, strided<[?, 1]>> loc(#loc24)
      %780 = vector.broadcast %779 : f32 to vector<256xf32> loc(#loc24)
      %781 = vector.fma %752, %777, %765 : vector<256xf32> loc(#loc24)
      %782 = vector.fma %752, %780, %766 : vector<256xf32> loc(#loc24)
      %783 = arith.addi %37#0, %c47 : index loc(#loc24)
      %784 = vector.load %36[%783, %37#1] : memref<?x?xf32, strided<[?, 1]>>, vector<256xf32> loc(#loc24)
      %785 = arith.addi %37#0, %c174 : index loc(#loc24)
      memref.prefetch %36[%785, %37#1], read, locality<1>, data : memref<?x?xf32, strided<[?, 1]>> loc(#loc24)
      %786 = arith.addi %35#1, %c46 : index loc(#loc24)
      %787 = memref.load %34[%35#0, %786] : memref<?x?xf32, strided<[?, 1]>> loc(#loc24)
      %788 = vector.broadcast %787 : f32 to vector<256xf32> loc(#loc24)
      %789 = memref.load %34[%45, %786] : memref<?x?xf32, strided<[?, 1]>> loc(#loc24)
      %790 = vector.broadcast %789 : f32 to vector<256xf32> loc(#loc24)
      %791 = vector.fma %768, %788, %775 : vector<256xf32> loc(#loc24)
      %792 = memref.load %34[%49, %786] : memref<?x?xf32, strided<[?, 1]>> loc(#loc24)
      %793 = vector.broadcast %792 : f32 to vector<256xf32> loc(#loc24)
      %794 = vector.fma %768, %790, %778 : vector<256xf32> loc(#loc24)
      %795 = memref.load %34[%53, %786] : memref<?x?xf32, strided<[?, 1]>> loc(#loc24)
      %796 = vector.broadcast %795 : f32 to vector<256xf32> loc(#loc24)
      %797 = vector.fma %768, %793, %781 : vector<256xf32> loc(#loc24)
      %798 = vector.fma %768, %796, %782 : vector<256xf32> loc(#loc24)
      %799 = arith.addi %37#0, %c48 : index loc(#loc24)
      %800 = vector.load %36[%799, %37#1] : memref<?x?xf32, strided<[?, 1]>>, vector<256xf32> loc(#loc24)
      %801 = arith.addi %37#0, %c175 : index loc(#loc24)
      memref.prefetch %36[%801, %37#1], read, locality<1>, data : memref<?x?xf32, strided<[?, 1]>> loc(#loc24)
      %802 = arith.addi %35#1, %c47 : index loc(#loc24)
      %803 = memref.load %34[%35#0, %802] : memref<?x?xf32, strided<[?, 1]>> loc(#loc24)
      %804 = vector.broadcast %803 : f32 to vector<256xf32> loc(#loc24)
      %805 = memref.load %34[%45, %802] : memref<?x?xf32, strided<[?, 1]>> loc(#loc24)
      %806 = vector.broadcast %805 : f32 to vector<256xf32> loc(#loc24)
      %807 = vector.fma %784, %804, %791 : vector<256xf32> loc(#loc24)
      %808 = memref.load %34[%49, %802] : memref<?x?xf32, strided<[?, 1]>> loc(#loc24)
      %809 = vector.broadcast %808 : f32 to vector<256xf32> loc(#loc24)
      %810 = vector.fma %784, %806, %794 : vector<256xf32> loc(#loc24)
      %811 = memref.load %34[%53, %802] : memref<?x?xf32, strided<[?, 1]>> loc(#loc24)
      %812 = vector.broadcast %811 : f32 to vector<256xf32> loc(#loc24)
      %813 = vector.fma %784, %809, %797 : vector<256xf32> loc(#loc24)
      %814 = vector.fma %784, %812, %798 : vector<256xf32> loc(#loc24)
      %815 = arith.addi %37#0, %c49 : index loc(#loc24)
      %816 = vector.load %36[%815, %37#1] : memref<?x?xf32, strided<[?, 1]>>, vector<256xf32> loc(#loc24)
      %817 = arith.addi %37#0, %c176 : index loc(#loc24)
      memref.prefetch %36[%817, %37#1], read, locality<1>, data : memref<?x?xf32, strided<[?, 1]>> loc(#loc24)
      %818 = arith.addi %35#1, %c48 : index loc(#loc24)
      %819 = memref.load %34[%35#0, %818] : memref<?x?xf32, strided<[?, 1]>> loc(#loc24)
      %820 = vector.broadcast %819 : f32 to vector<256xf32> loc(#loc24)
      %821 = memref.load %34[%45, %818] : memref<?x?xf32, strided<[?, 1]>> loc(#loc24)
      %822 = vector.broadcast %821 : f32 to vector<256xf32> loc(#loc24)
      %823 = arith.addi %35#1, %c176 : index loc(#loc24)
      memref.prefetch %34[%35#0, %823], read, locality<3>, data : memref<?x?xf32, strided<[?, 1]>> loc(#loc24)
      %824 = vector.fma %800, %820, %807 : vector<256xf32> loc(#loc24)
      %825 = memref.load %34[%49, %818] : memref<?x?xf32, strided<[?, 1]>> loc(#loc24)
      %826 = vector.broadcast %825 : f32 to vector<256xf32> loc(#loc24)
      memref.prefetch %34[%45, %823], read, locality<3>, data : memref<?x?xf32, strided<[?, 1]>> loc(#loc24)
      %827 = vector.fma %800, %822, %810 : vector<256xf32> loc(#loc24)
      %828 = memref.load %34[%53, %818] : memref<?x?xf32, strided<[?, 1]>> loc(#loc24)
      %829 = vector.broadcast %828 : f32 to vector<256xf32> loc(#loc24)
      memref.prefetch %34[%49, %823], read, locality<3>, data : memref<?x?xf32, strided<[?, 1]>> loc(#loc24)
      %830 = vector.fma %800, %826, %813 : vector<256xf32> loc(#loc24)
      memref.prefetch %34[%53, %823], read, locality<3>, data : memref<?x?xf32, strided<[?, 1]>> loc(#loc24)
      %831 = vector.fma %800, %829, %814 : vector<256xf32> loc(#loc24)
      %832 = arith.addi %37#0, %c50 : index loc(#loc24)
      %833 = vector.load %36[%832, %37#1] : memref<?x?xf32, strided<[?, 1]>>, vector<256xf32> loc(#loc24)
      %834 = arith.addi %37#0, %c177 : index loc(#loc24)
      memref.prefetch %36[%834, %37#1], read, locality<1>, data : memref<?x?xf32, strided<[?, 1]>> loc(#loc24)
      %835 = arith.addi %35#1, %c49 : index loc(#loc24)
      %836 = memref.load %34[%35#0, %835] : memref<?x?xf32, strided<[?, 1]>> loc(#loc24)
      %837 = vector.broadcast %836 : f32 to vector<256xf32> loc(#loc24)
      %838 = memref.load %34[%45, %835] : memref<?x?xf32, strided<[?, 1]>> loc(#loc24)
      %839 = vector.broadcast %838 : f32 to vector<256xf32> loc(#loc24)
      %840 = vector.fma %816, %837, %824 : vector<256xf32> loc(#loc24)
      %841 = memref.load %34[%49, %835] : memref<?x?xf32, strided<[?, 1]>> loc(#loc24)
      %842 = vector.broadcast %841 : f32 to vector<256xf32> loc(#loc24)
      %843 = vector.fma %816, %839, %827 : vector<256xf32> loc(#loc24)
      %844 = memref.load %34[%53, %835] : memref<?x?xf32, strided<[?, 1]>> loc(#loc24)
      %845 = vector.broadcast %844 : f32 to vector<256xf32> loc(#loc24)
      %846 = vector.fma %816, %842, %830 : vector<256xf32> loc(#loc24)
      %847 = vector.fma %816, %845, %831 : vector<256xf32> loc(#loc24)
      %848 = arith.addi %37#0, %c51 : index loc(#loc24)
      %849 = vector.load %36[%848, %37#1] : memref<?x?xf32, strided<[?, 1]>>, vector<256xf32> loc(#loc24)
      %850 = arith.addi %37#0, %c178 : index loc(#loc24)
      memref.prefetch %36[%850, %37#1], read, locality<1>, data : memref<?x?xf32, strided<[?, 1]>> loc(#loc24)
      %851 = arith.addi %35#1, %c50 : index loc(#loc24)
      %852 = memref.load %34[%35#0, %851] : memref<?x?xf32, strided<[?, 1]>> loc(#loc24)
      %853 = vector.broadcast %852 : f32 to vector<256xf32> loc(#loc24)
      %854 = memref.load %34[%45, %851] : memref<?x?xf32, strided<[?, 1]>> loc(#loc24)
      %855 = vector.broadcast %854 : f32 to vector<256xf32> loc(#loc24)
      %856 = vector.fma %833, %853, %840 : vector<256xf32> loc(#loc24)
      %857 = memref.load %34[%49, %851] : memref<?x?xf32, strided<[?, 1]>> loc(#loc24)
      %858 = vector.broadcast %857 : f32 to vector<256xf32> loc(#loc24)
      %859 = vector.fma %833, %855, %843 : vector<256xf32> loc(#loc24)
      %860 = memref.load %34[%53, %851] : memref<?x?xf32, strided<[?, 1]>> loc(#loc24)
      %861 = vector.broadcast %860 : f32 to vector<256xf32> loc(#loc24)
      %862 = vector.fma %833, %858, %846 : vector<256xf32> loc(#loc24)
      %863 = vector.fma %833, %861, %847 : vector<256xf32> loc(#loc24)
      %864 = arith.addi %37#0, %c52 : index loc(#loc24)
      %865 = vector.load %36[%864, %37#1] : memref<?x?xf32, strided<[?, 1]>>, vector<256xf32> loc(#loc24)
      %866 = arith.addi %37#0, %c179 : index loc(#loc24)
      memref.prefetch %36[%866, %37#1], read, locality<1>, data : memref<?x?xf32, strided<[?, 1]>> loc(#loc24)
      %867 = arith.addi %35#1, %c51 : index loc(#loc24)
      %868 = memref.load %34[%35#0, %867] : memref<?x?xf32, strided<[?, 1]>> loc(#loc24)
      %869 = vector.broadcast %868 : f32 to vector<256xf32> loc(#loc24)
      %870 = memref.load %34[%45, %867] : memref<?x?xf32, strided<[?, 1]>> loc(#loc24)
      %871 = vector.broadcast %870 : f32 to vector<256xf32> loc(#loc24)
      %872 = vector.fma %849, %869, %856 : vector<256xf32> loc(#loc24)
      %873 = memref.load %34[%49, %867] : memref<?x?xf32, strided<[?, 1]>> loc(#loc24)
      %874 = vector.broadcast %873 : f32 to vector<256xf32> loc(#loc24)
      %875 = vector.fma %849, %871, %859 : vector<256xf32> loc(#loc24)
      %876 = memref.load %34[%53, %867] : memref<?x?xf32, strided<[?, 1]>> loc(#loc24)
      %877 = vector.broadcast %876 : f32 to vector<256xf32> loc(#loc24)
      %878 = vector.fma %849, %874, %862 : vector<256xf32> loc(#loc24)
      %879 = vector.fma %849, %877, %863 : vector<256xf32> loc(#loc24)
      %880 = arith.addi %37#0, %c53 : index loc(#loc24)
      %881 = vector.load %36[%880, %37#1] : memref<?x?xf32, strided<[?, 1]>>, vector<256xf32> loc(#loc24)
      %882 = arith.addi %37#0, %c180 : index loc(#loc24)
      memref.prefetch %36[%882, %37#1], read, locality<1>, data : memref<?x?xf32, strided<[?, 1]>> loc(#loc24)
      %883 = arith.addi %35#1, %c52 : index loc(#loc24)
      %884 = memref.load %34[%35#0, %883] : memref<?x?xf32, strided<[?, 1]>> loc(#loc24)
      %885 = vector.broadcast %884 : f32 to vector<256xf32> loc(#loc24)
      %886 = memref.load %34[%45, %883] : memref<?x?xf32, strided<[?, 1]>> loc(#loc24)
      %887 = vector.broadcast %886 : f32 to vector<256xf32> loc(#loc24)
      %888 = vector.fma %865, %885, %872 : vector<256xf32> loc(#loc24)
      %889 = memref.load %34[%49, %883] : memref<?x?xf32, strided<[?, 1]>> loc(#loc24)
      %890 = vector.broadcast %889 : f32 to vector<256xf32> loc(#loc24)
      %891 = vector.fma %865, %887, %875 : vector<256xf32> loc(#loc24)
      %892 = memref.load %34[%53, %883] : memref<?x?xf32, strided<[?, 1]>> loc(#loc24)
      %893 = vector.broadcast %892 : f32 to vector<256xf32> loc(#loc24)
      %894 = vector.fma %865, %890, %878 : vector<256xf32> loc(#loc24)
      %895 = vector.fma %865, %893, %879 : vector<256xf32> loc(#loc24)
      %896 = arith.addi %37#0, %c54 : index loc(#loc24)
      %897 = vector.load %36[%896, %37#1] : memref<?x?xf32, strided<[?, 1]>>, vector<256xf32> loc(#loc24)
      %898 = arith.addi %37#0, %c181 : index loc(#loc24)
      memref.prefetch %36[%898, %37#1], read, locality<1>, data : memref<?x?xf32, strided<[?, 1]>> loc(#loc24)
      %899 = arith.addi %35#1, %c53 : index loc(#loc24)
      %900 = memref.load %34[%35#0, %899] : memref<?x?xf32, strided<[?, 1]>> loc(#loc24)
      %901 = vector.broadcast %900 : f32 to vector<256xf32> loc(#loc24)
      %902 = memref.load %34[%45, %899] : memref<?x?xf32, strided<[?, 1]>> loc(#loc24)
      %903 = vector.broadcast %902 : f32 to vector<256xf32> loc(#loc24)
      %904 = vector.fma %881, %901, %888 : vector<256xf32> loc(#loc24)
      %905 = memref.load %34[%49, %899] : memref<?x?xf32, strided<[?, 1]>> loc(#loc24)
      %906 = vector.broadcast %905 : f32 to vector<256xf32> loc(#loc24)
      %907 = vector.fma %881, %903, %891 : vector<256xf32> loc(#loc24)
      %908 = memref.load %34[%53, %899] : memref<?x?xf32, strided<[?, 1]>> loc(#loc24)
      %909 = vector.broadcast %908 : f32 to vector<256xf32> loc(#loc24)
      %910 = vector.fma %881, %906, %894 : vector<256xf32> loc(#loc24)
      %911 = vector.fma %881, %909, %895 : vector<256xf32> loc(#loc24)
      %912 = arith.addi %37#0, %c55 : index loc(#loc24)
      %913 = vector.load %36[%912, %37#1] : memref<?x?xf32, strided<[?, 1]>>, vector<256xf32> loc(#loc24)
      %914 = arith.addi %37#0, %c182 : index loc(#loc24)
      memref.prefetch %36[%914, %37#1], read, locality<1>, data : memref<?x?xf32, strided<[?, 1]>> loc(#loc24)
      %915 = arith.addi %35#1, %c54 : index loc(#loc24)
      %916 = memref.load %34[%35#0, %915] : memref<?x?xf32, strided<[?, 1]>> loc(#loc24)
      %917 = vector.broadcast %916 : f32 to vector<256xf32> loc(#loc24)
      %918 = memref.load %34[%45, %915] : memref<?x?xf32, strided<[?, 1]>> loc(#loc24)
      %919 = vector.broadcast %918 : f32 to vector<256xf32> loc(#loc24)
      %920 = vector.fma %897, %917, %904 : vector<256xf32> loc(#loc24)
      %921 = memref.load %34[%49, %915] : memref<?x?xf32, strided<[?, 1]>> loc(#loc24)
      %922 = vector.broadcast %921 : f32 to vector<256xf32> loc(#loc24)
      %923 = vector.fma %897, %919, %907 : vector<256xf32> loc(#loc24)
      %924 = memref.load %34[%53, %915] : memref<?x?xf32, strided<[?, 1]>> loc(#loc24)
      %925 = vector.broadcast %924 : f32 to vector<256xf32> loc(#loc24)
      %926 = vector.fma %897, %922, %910 : vector<256xf32> loc(#loc24)
      %927 = vector.fma %897, %925, %911 : vector<256xf32> loc(#loc24)
      %928 = arith.addi %37#0, %c56 : index loc(#loc24)
      %929 = vector.load %36[%928, %37#1] : memref<?x?xf32, strided<[?, 1]>>, vector<256xf32> loc(#loc24)
      %930 = arith.addi %37#0, %c183 : index loc(#loc24)
      memref.prefetch %36[%930, %37#1], read, locality<1>, data : memref<?x?xf32, strided<[?, 1]>> loc(#loc24)
      %931 = arith.addi %35#1, %c55 : index loc(#loc24)
      %932 = memref.load %34[%35#0, %931] : memref<?x?xf32, strided<[?, 1]>> loc(#loc24)
      %933 = vector.broadcast %932 : f32 to vector<256xf32> loc(#loc24)
      %934 = memref.load %34[%45, %931] : memref<?x?xf32, strided<[?, 1]>> loc(#loc24)
      %935 = vector.broadcast %934 : f32 to vector<256xf32> loc(#loc24)
      %936 = vector.fma %913, %933, %920 : vector<256xf32> loc(#loc24)
      %937 = memref.load %34[%49, %931] : memref<?x?xf32, strided<[?, 1]>> loc(#loc24)
      %938 = vector.broadcast %937 : f32 to vector<256xf32> loc(#loc24)
      %939 = vector.fma %913, %935, %923 : vector<256xf32> loc(#loc24)
      %940 = memref.load %34[%53, %931] : memref<?x?xf32, strided<[?, 1]>> loc(#loc24)
      %941 = vector.broadcast %940 : f32 to vector<256xf32> loc(#loc24)
      %942 = vector.fma %913, %938, %926 : vector<256xf32> loc(#loc24)
      %943 = vector.fma %913, %941, %927 : vector<256xf32> loc(#loc24)
      %944 = arith.addi %37#0, %c57 : index loc(#loc24)
      %945 = vector.load %36[%944, %37#1] : memref<?x?xf32, strided<[?, 1]>>, vector<256xf32> loc(#loc24)
      %946 = arith.addi %37#0, %c184 : index loc(#loc24)
      memref.prefetch %36[%946, %37#1], read, locality<1>, data : memref<?x?xf32, strided<[?, 1]>> loc(#loc24)
      %947 = arith.addi %35#1, %c56 : index loc(#loc24)
      %948 = memref.load %34[%35#0, %947] : memref<?x?xf32, strided<[?, 1]>> loc(#loc24)
      %949 = vector.broadcast %948 : f32 to vector<256xf32> loc(#loc24)
      %950 = memref.load %34[%45, %947] : memref<?x?xf32, strided<[?, 1]>> loc(#loc24)
      %951 = vector.broadcast %950 : f32 to vector<256xf32> loc(#loc24)
      %952 = arith.addi %35#1, %c184 : index loc(#loc24)
      memref.prefetch %34[%35#0, %952], read, locality<3>, data : memref<?x?xf32, strided<[?, 1]>> loc(#loc24)
      %953 = vector.fma %929, %949, %936 : vector<256xf32> loc(#loc24)
      %954 = memref.load %34[%49, %947] : memref<?x?xf32, strided<[?, 1]>> loc(#loc24)
      %955 = vector.broadcast %954 : f32 to vector<256xf32> loc(#loc24)
      memref.prefetch %34[%45, %952], read, locality<3>, data : memref<?x?xf32, strided<[?, 1]>> loc(#loc24)
      %956 = vector.fma %929, %951, %939 : vector<256xf32> loc(#loc24)
      %957 = memref.load %34[%53, %947] : memref<?x?xf32, strided<[?, 1]>> loc(#loc24)
      %958 = vector.broadcast %957 : f32 to vector<256xf32> loc(#loc24)
      memref.prefetch %34[%49, %952], read, locality<3>, data : memref<?x?xf32, strided<[?, 1]>> loc(#loc24)
      %959 = vector.fma %929, %955, %942 : vector<256xf32> loc(#loc24)
      memref.prefetch %34[%53, %952], read, locality<3>, data : memref<?x?xf32, strided<[?, 1]>> loc(#loc24)
      %960 = vector.fma %929, %958, %943 : vector<256xf32> loc(#loc24)
      %961 = arith.addi %37#0, %c58 : index loc(#loc24)
      %962 = vector.load %36[%961, %37#1] : memref<?x?xf32, strided<[?, 1]>>, vector<256xf32> loc(#loc24)
      %963 = arith.addi %37#0, %c185 : index loc(#loc24)
      memref.prefetch %36[%963, %37#1], read, locality<1>, data : memref<?x?xf32, strided<[?, 1]>> loc(#loc24)
      %964 = arith.addi %35#1, %c57 : index loc(#loc24)
      %965 = memref.load %34[%35#0, %964] : memref<?x?xf32, strided<[?, 1]>> loc(#loc24)
      %966 = vector.broadcast %965 : f32 to vector<256xf32> loc(#loc24)
      %967 = memref.load %34[%45, %964] : memref<?x?xf32, strided<[?, 1]>> loc(#loc24)
      %968 = vector.broadcast %967 : f32 to vector<256xf32> loc(#loc24)
      %969 = vector.fma %945, %966, %953 : vector<256xf32> loc(#loc24)
      %970 = memref.load %34[%49, %964] : memref<?x?xf32, strided<[?, 1]>> loc(#loc24)
      %971 = vector.broadcast %970 : f32 to vector<256xf32> loc(#loc24)
      %972 = vector.fma %945, %968, %956 : vector<256xf32> loc(#loc24)
      %973 = memref.load %34[%53, %964] : memref<?x?xf32, strided<[?, 1]>> loc(#loc24)
      %974 = vector.broadcast %973 : f32 to vector<256xf32> loc(#loc24)
      %975 = vector.fma %945, %971, %959 : vector<256xf32> loc(#loc24)
      %976 = vector.fma %945, %974, %960 : vector<256xf32> loc(#loc24)
      %977 = arith.addi %37#0, %c59 : index loc(#loc24)
      %978 = vector.load %36[%977, %37#1] : memref<?x?xf32, strided<[?, 1]>>, vector<256xf32> loc(#loc24)
      %979 = arith.addi %37#0, %c186 : index loc(#loc24)
      memref.prefetch %36[%979, %37#1], read, locality<1>, data : memref<?x?xf32, strided<[?, 1]>> loc(#loc24)
      %980 = arith.addi %35#1, %c58 : index loc(#loc24)
      %981 = memref.load %34[%35#0, %980] : memref<?x?xf32, strided<[?, 1]>> loc(#loc24)
      %982 = vector.broadcast %981 : f32 to vector<256xf32> loc(#loc24)
      %983 = memref.load %34[%45, %980] : memref<?x?xf32, strided<[?, 1]>> loc(#loc24)
      %984 = vector.broadcast %983 : f32 to vector<256xf32> loc(#loc24)
      %985 = vector.fma %962, %982, %969 : vector<256xf32> loc(#loc24)
      %986 = memref.load %34[%49, %980] : memref<?x?xf32, strided<[?, 1]>> loc(#loc24)
      %987 = vector.broadcast %986 : f32 to vector<256xf32> loc(#loc24)
      %988 = vector.fma %962, %984, %972 : vector<256xf32> loc(#loc24)
      %989 = memref.load %34[%53, %980] : memref<?x?xf32, strided<[?, 1]>> loc(#loc24)
      %990 = vector.broadcast %989 : f32 to vector<256xf32> loc(#loc24)
      %991 = vector.fma %962, %987, %975 : vector<256xf32> loc(#loc24)
      %992 = vector.fma %962, %990, %976 : vector<256xf32> loc(#loc24)
      %993 = arith.addi %37#0, %c60 : index loc(#loc24)
      %994 = vector.load %36[%993, %37#1] : memref<?x?xf32, strided<[?, 1]>>, vector<256xf32> loc(#loc24)
      %995 = arith.addi %37#0, %c187 : index loc(#loc24)
      memref.prefetch %36[%995, %37#1], read, locality<1>, data : memref<?x?xf32, strided<[?, 1]>> loc(#loc24)
      %996 = arith.addi %35#1, %c59 : index loc(#loc24)
      %997 = memref.load %34[%35#0, %996] : memref<?x?xf32, strided<[?, 1]>> loc(#loc24)
      %998 = vector.broadcast %997 : f32 to vector<256xf32> loc(#loc24)
      %999 = memref.load %34[%45, %996] : memref<?x?xf32, strided<[?, 1]>> loc(#loc24)
      %1000 = vector.broadcast %999 : f32 to vector<256xf32> loc(#loc24)
      %1001 = vector.fma %978, %998, %985 : vector<256xf32> loc(#loc24)
      %1002 = memref.load %34[%49, %996] : memref<?x?xf32, strided<[?, 1]>> loc(#loc24)
      %1003 = vector.broadcast %1002 : f32 to vector<256xf32> loc(#loc24)
      %1004 = vector.fma %978, %1000, %988 : vector<256xf32> loc(#loc24)
      %1005 = memref.load %34[%53, %996] : memref<?x?xf32, strided<[?, 1]>> loc(#loc24)
      %1006 = vector.broadcast %1005 : f32 to vector<256xf32> loc(#loc24)
      %1007 = vector.fma %978, %1003, %991 : vector<256xf32> loc(#loc24)
      %1008 = vector.fma %978, %1006, %992 : vector<256xf32> loc(#loc24)
      %1009 = arith.addi %37#0, %c61 : index loc(#loc24)
      %1010 = vector.load %36[%1009, %37#1] : memref<?x?xf32, strided<[?, 1]>>, vector<256xf32> loc(#loc24)
      %1011 = arith.addi %37#0, %c188 : index loc(#loc24)
      memref.prefetch %36[%1011, %37#1], read, locality<1>, data : memref<?x?xf32, strided<[?, 1]>> loc(#loc24)
      %1012 = arith.addi %35#1, %c60 : index loc(#loc24)
      %1013 = memref.load %34[%35#0, %1012] : memref<?x?xf32, strided<[?, 1]>> loc(#loc24)
      %1014 = vector.broadcast %1013 : f32 to vector<256xf32> loc(#loc24)
      %1015 = memref.load %34[%45, %1012] : memref<?x?xf32, strided<[?, 1]>> loc(#loc24)
      %1016 = vector.broadcast %1015 : f32 to vector<256xf32> loc(#loc24)
      %1017 = vector.fma %994, %1014, %1001 : vector<256xf32> loc(#loc24)
      %1018 = memref.load %34[%49, %1012] : memref<?x?xf32, strided<[?, 1]>> loc(#loc24)
      %1019 = vector.broadcast %1018 : f32 to vector<256xf32> loc(#loc24)
      %1020 = vector.fma %994, %1016, %1004 : vector<256xf32> loc(#loc24)
      %1021 = memref.load %34[%53, %1012] : memref<?x?xf32, strided<[?, 1]>> loc(#loc24)
      %1022 = vector.broadcast %1021 : f32 to vector<256xf32> loc(#loc24)
      %1023 = vector.fma %994, %1019, %1007 : vector<256xf32> loc(#loc24)
      %1024 = vector.fma %994, %1022, %1008 : vector<256xf32> loc(#loc24)
      %1025 = arith.addi %37#0, %c62 : index loc(#loc24)
      %1026 = vector.load %36[%1025, %37#1] : memref<?x?xf32, strided<[?, 1]>>, vector<256xf32> loc(#loc24)
      %1027 = arith.addi %37#0, %c189 : index loc(#loc24)
      memref.prefetch %36[%1027, %37#1], read, locality<1>, data : memref<?x?xf32, strided<[?, 1]>> loc(#loc24)
      %1028 = arith.addi %35#1, %c61 : index loc(#loc24)
      %1029 = memref.load %34[%35#0, %1028] : memref<?x?xf32, strided<[?, 1]>> loc(#loc24)
      %1030 = vector.broadcast %1029 : f32 to vector<256xf32> loc(#loc24)
      %1031 = memref.load %34[%45, %1028] : memref<?x?xf32, strided<[?, 1]>> loc(#loc24)
      %1032 = vector.broadcast %1031 : f32 to vector<256xf32> loc(#loc24)
      %1033 = vector.fma %1010, %1030, %1017 : vector<256xf32> loc(#loc24)
      %1034 = memref.load %34[%49, %1028] : memref<?x?xf32, strided<[?, 1]>> loc(#loc24)
      %1035 = vector.broadcast %1034 : f32 to vector<256xf32> loc(#loc24)
      %1036 = vector.fma %1010, %1032, %1020 : vector<256xf32> loc(#loc24)
      %1037 = memref.load %34[%53, %1028] : memref<?x?xf32, strided<[?, 1]>> loc(#loc24)
      %1038 = vector.broadcast %1037 : f32 to vector<256xf32> loc(#loc24)
      %1039 = vector.fma %1010, %1035, %1023 : vector<256xf32> loc(#loc24)
      %1040 = vector.fma %1010, %1038, %1024 : vector<256xf32> loc(#loc24)
      %1041 = arith.addi %37#0, %c63 : index loc(#loc24)
      %1042 = vector.load %36[%1041, %37#1] : memref<?x?xf32, strided<[?, 1]>>, vector<256xf32> loc(#loc24)
      %1043 = arith.addi %37#0, %c190 : index loc(#loc24)
      memref.prefetch %36[%1043, %37#1], read, locality<1>, data : memref<?x?xf32, strided<[?, 1]>> loc(#loc24)
      %1044 = arith.addi %35#1, %c62 : index loc(#loc24)
      %1045 = memref.load %34[%35#0, %1044] : memref<?x?xf32, strided<[?, 1]>> loc(#loc24)
      %1046 = vector.broadcast %1045 : f32 to vector<256xf32> loc(#loc24)
      %1047 = memref.load %34[%45, %1044] : memref<?x?xf32, strided<[?, 1]>> loc(#loc24)
      %1048 = vector.broadcast %1047 : f32 to vector<256xf32> loc(#loc24)
      %1049 = vector.fma %1026, %1046, %1033 : vector<256xf32> loc(#loc24)
      %1050 = memref.load %34[%49, %1044] : memref<?x?xf32, strided<[?, 1]>> loc(#loc24)
      %1051 = vector.broadcast %1050 : f32 to vector<256xf32> loc(#loc24)
      %1052 = vector.fma %1026, %1048, %1036 : vector<256xf32> loc(#loc24)
      %1053 = memref.load %34[%53, %1044] : memref<?x?xf32, strided<[?, 1]>> loc(#loc24)
      %1054 = vector.broadcast %1053 : f32 to vector<256xf32> loc(#loc24)
      %1055 = vector.fma %1026, %1051, %1039 : vector<256xf32> loc(#loc24)
      %1056 = vector.fma %1026, %1054, %1040 : vector<256xf32> loc(#loc24)
      %1057 = arith.addi %37#0, %c64 : index loc(#loc24)
      %1058 = vector.load %36[%1057, %37#1] : memref<?x?xf32, strided<[?, 1]>>, vector<256xf32> loc(#loc24)
      %1059 = arith.addi %37#0, %c191 : index loc(#loc24)
      memref.prefetch %36[%1059, %37#1], read, locality<1>, data : memref<?x?xf32, strided<[?, 1]>> loc(#loc24)
      %1060 = arith.addi %35#1, %c63 : index loc(#loc24)
      %1061 = memref.load %34[%35#0, %1060] : memref<?x?xf32, strided<[?, 1]>> loc(#loc24)
      %1062 = vector.broadcast %1061 : f32 to vector<256xf32> loc(#loc24)
      %1063 = memref.load %34[%45, %1060] : memref<?x?xf32, strided<[?, 1]>> loc(#loc24)
      %1064 = vector.broadcast %1063 : f32 to vector<256xf32> loc(#loc24)
      %1065 = vector.fma %1042, %1062, %1049 : vector<256xf32> loc(#loc24)
      %1066 = memref.load %34[%49, %1060] : memref<?x?xf32, strided<[?, 1]>> loc(#loc24)
      %1067 = vector.broadcast %1066 : f32 to vector<256xf32> loc(#loc24)
      %1068 = vector.fma %1042, %1064, %1052 : vector<256xf32> loc(#loc24)
      %1069 = memref.load %34[%53, %1060] : memref<?x?xf32, strided<[?, 1]>> loc(#loc24)
      %1070 = vector.broadcast %1069 : f32 to vector<256xf32> loc(#loc24)
      %1071 = vector.fma %1042, %1067, %1055 : vector<256xf32> loc(#loc24)
      %1072 = vector.fma %1042, %1070, %1056 : vector<256xf32> loc(#loc24)
      %1073 = arith.addi %37#0, %c65 : index loc(#loc24)
      %1074 = vector.load %36[%1073, %37#1] : memref<?x?xf32, strided<[?, 1]>>, vector<256xf32> loc(#loc24)
      %1075 = arith.addi %37#0, %c192 : index loc(#loc24)
      memref.prefetch %36[%1075, %37#1], read, locality<1>, data : memref<?x?xf32, strided<[?, 1]>> loc(#loc24)
      %1076 = arith.addi %35#1, %c64 : index loc(#loc24)
      %1077 = memref.load %34[%35#0, %1076] : memref<?x?xf32, strided<[?, 1]>> loc(#loc24)
      %1078 = vector.broadcast %1077 : f32 to vector<256xf32> loc(#loc24)
      %1079 = memref.load %34[%45, %1076] : memref<?x?xf32, strided<[?, 1]>> loc(#loc24)
      %1080 = vector.broadcast %1079 : f32 to vector<256xf32> loc(#loc24)
      %1081 = arith.addi %35#1, %c192 : index loc(#loc24)
      memref.prefetch %34[%35#0, %1081], read, locality<3>, data : memref<?x?xf32, strided<[?, 1]>> loc(#loc24)
      %1082 = vector.fma %1058, %1078, %1065 : vector<256xf32> loc(#loc24)
      %1083 = memref.load %34[%49, %1076] : memref<?x?xf32, strided<[?, 1]>> loc(#loc24)
      %1084 = vector.broadcast %1083 : f32 to vector<256xf32> loc(#loc24)
      memref.prefetch %34[%45, %1081], read, locality<3>, data : memref<?x?xf32, strided<[?, 1]>> loc(#loc24)
      %1085 = vector.fma %1058, %1080, %1068 : vector<256xf32> loc(#loc24)
      %1086 = memref.load %34[%53, %1076] : memref<?x?xf32, strided<[?, 1]>> loc(#loc24)
      %1087 = vector.broadcast %1086 : f32 to vector<256xf32> loc(#loc24)
      memref.prefetch %34[%49, %1081], read, locality<3>, data : memref<?x?xf32, strided<[?, 1]>> loc(#loc24)
      %1088 = vector.fma %1058, %1084, %1071 : vector<256xf32> loc(#loc24)
      memref.prefetch %34[%53, %1081], read, locality<3>, data : memref<?x?xf32, strided<[?, 1]>> loc(#loc24)
      %1089 = vector.fma %1058, %1087, %1072 : vector<256xf32> loc(#loc24)
      %1090 = arith.addi %37#0, %c66 : index loc(#loc24)
      %1091 = vector.load %36[%1090, %37#1] : memref<?x?xf32, strided<[?, 1]>>, vector<256xf32> loc(#loc24)
      %1092 = arith.addi %37#0, %c193 : index loc(#loc24)
      memref.prefetch %36[%1092, %37#1], read, locality<1>, data : memref<?x?xf32, strided<[?, 1]>> loc(#loc24)
      %1093 = arith.addi %35#1, %c65 : index loc(#loc24)
      %1094 = memref.load %34[%35#0, %1093] : memref<?x?xf32, strided<[?, 1]>> loc(#loc24)
      %1095 = vector.broadcast %1094 : f32 to vector<256xf32> loc(#loc24)
      %1096 = memref.load %34[%45, %1093] : memref<?x?xf32, strided<[?, 1]>> loc(#loc24)
      %1097 = vector.broadcast %1096 : f32 to vector<256xf32> loc(#loc24)
      %1098 = vector.fma %1074, %1095, %1082 : vector<256xf32> loc(#loc24)
      %1099 = memref.load %34[%49, %1093] : memref<?x?xf32, strided<[?, 1]>> loc(#loc24)
      %1100 = vector.broadcast %1099 : f32 to vector<256xf32> loc(#loc24)
      %1101 = vector.fma %1074, %1097, %1085 : vector<256xf32> loc(#loc24)
      %1102 = memref.load %34[%53, %1093] : memref<?x?xf32, strided<[?, 1]>> loc(#loc24)
      %1103 = vector.broadcast %1102 : f32 to vector<256xf32> loc(#loc24)
      %1104 = vector.fma %1074, %1100, %1088 : vector<256xf32> loc(#loc24)
      %1105 = vector.fma %1074, %1103, %1089 : vector<256xf32> loc(#loc24)
      %1106 = arith.addi %37#0, %c67 : index loc(#loc24)
      %1107 = vector.load %36[%1106, %37#1] : memref<?x?xf32, strided<[?, 1]>>, vector<256xf32> loc(#loc24)
      %1108 = arith.addi %37#0, %c194 : index loc(#loc24)
      memref.prefetch %36[%1108, %37#1], read, locality<1>, data : memref<?x?xf32, strided<[?, 1]>> loc(#loc24)
      %1109 = arith.addi %35#1, %c66 : index loc(#loc24)
      %1110 = memref.load %34[%35#0, %1109] : memref<?x?xf32, strided<[?, 1]>> loc(#loc24)
      %1111 = vector.broadcast %1110 : f32 to vector<256xf32> loc(#loc24)
      %1112 = memref.load %34[%45, %1109] : memref<?x?xf32, strided<[?, 1]>> loc(#loc24)
      %1113 = vector.broadcast %1112 : f32 to vector<256xf32> loc(#loc24)
      %1114 = vector.fma %1091, %1111, %1098 : vector<256xf32> loc(#loc24)
      %1115 = memref.load %34[%49, %1109] : memref<?x?xf32, strided<[?, 1]>> loc(#loc24)
      %1116 = vector.broadcast %1115 : f32 to vector<256xf32> loc(#loc24)
      %1117 = vector.fma %1091, %1113, %1101 : vector<256xf32> loc(#loc24)
      %1118 = memref.load %34[%53, %1109] : memref<?x?xf32, strided<[?, 1]>> loc(#loc24)
      %1119 = vector.broadcast %1118 : f32 to vector<256xf32> loc(#loc24)
      %1120 = vector.fma %1091, %1116, %1104 : vector<256xf32> loc(#loc24)
      %1121 = vector.fma %1091, %1119, %1105 : vector<256xf32> loc(#loc24)
      %1122 = arith.addi %37#0, %c68 : index loc(#loc24)
      %1123 = vector.load %36[%1122, %37#1] : memref<?x?xf32, strided<[?, 1]>>, vector<256xf32> loc(#loc24)
      %1124 = arith.addi %37#0, %c195 : index loc(#loc24)
      memref.prefetch %36[%1124, %37#1], read, locality<1>, data : memref<?x?xf32, strided<[?, 1]>> loc(#loc24)
      %1125 = arith.addi %35#1, %c67 : index loc(#loc24)
      %1126 = memref.load %34[%35#0, %1125] : memref<?x?xf32, strided<[?, 1]>> loc(#loc24)
      %1127 = vector.broadcast %1126 : f32 to vector<256xf32> loc(#loc24)
      %1128 = memref.load %34[%45, %1125] : memref<?x?xf32, strided<[?, 1]>> loc(#loc24)
      %1129 = vector.broadcast %1128 : f32 to vector<256xf32> loc(#loc24)
      %1130 = vector.fma %1107, %1127, %1114 : vector<256xf32> loc(#loc24)
      %1131 = memref.load %34[%49, %1125] : memref<?x?xf32, strided<[?, 1]>> loc(#loc24)
      %1132 = vector.broadcast %1131 : f32 to vector<256xf32> loc(#loc24)
      %1133 = vector.fma %1107, %1129, %1117 : vector<256xf32> loc(#loc24)
      %1134 = memref.load %34[%53, %1125] : memref<?x?xf32, strided<[?, 1]>> loc(#loc24)
      %1135 = vector.broadcast %1134 : f32 to vector<256xf32> loc(#loc24)
      %1136 = vector.fma %1107, %1132, %1120 : vector<256xf32> loc(#loc24)
      %1137 = vector.fma %1107, %1135, %1121 : vector<256xf32> loc(#loc24)
      %1138 = arith.addi %37#0, %c69 : index loc(#loc24)
      %1139 = vector.load %36[%1138, %37#1] : memref<?x?xf32, strided<[?, 1]>>, vector<256xf32> loc(#loc24)
      %1140 = arith.addi %37#0, %c196 : index loc(#loc24)
      memref.prefetch %36[%1140, %37#1], read, locality<1>, data : memref<?x?xf32, strided<[?, 1]>> loc(#loc24)
      %1141 = arith.addi %35#1, %c68 : index loc(#loc24)
      %1142 = memref.load %34[%35#0, %1141] : memref<?x?xf32, strided<[?, 1]>> loc(#loc24)
      %1143 = vector.broadcast %1142 : f32 to vector<256xf32> loc(#loc24)
      %1144 = memref.load %34[%45, %1141] : memref<?x?xf32, strided<[?, 1]>> loc(#loc24)
      %1145 = vector.broadcast %1144 : f32 to vector<256xf32> loc(#loc24)
      %1146 = vector.fma %1123, %1143, %1130 : vector<256xf32> loc(#loc24)
      %1147 = memref.load %34[%49, %1141] : memref<?x?xf32, strided<[?, 1]>> loc(#loc24)
      %1148 = vector.broadcast %1147 : f32 to vector<256xf32> loc(#loc24)
      %1149 = vector.fma %1123, %1145, %1133 : vector<256xf32> loc(#loc24)
      %1150 = memref.load %34[%53, %1141] : memref<?x?xf32, strided<[?, 1]>> loc(#loc24)
      %1151 = vector.broadcast %1150 : f32 to vector<256xf32> loc(#loc24)
      %1152 = vector.fma %1123, %1148, %1136 : vector<256xf32> loc(#loc24)
      %1153 = vector.fma %1123, %1151, %1137 : vector<256xf32> loc(#loc24)
      %1154 = arith.addi %37#0, %c70 : index loc(#loc24)
      %1155 = vector.load %36[%1154, %37#1] : memref<?x?xf32, strided<[?, 1]>>, vector<256xf32> loc(#loc24)
      %1156 = arith.addi %37#0, %c197 : index loc(#loc24)
      memref.prefetch %36[%1156, %37#1], read, locality<1>, data : memref<?x?xf32, strided<[?, 1]>> loc(#loc24)
      %1157 = arith.addi %35#1, %c69 : index loc(#loc24)
      %1158 = memref.load %34[%35#0, %1157] : memref<?x?xf32, strided<[?, 1]>> loc(#loc24)
      %1159 = vector.broadcast %1158 : f32 to vector<256xf32> loc(#loc24)
      %1160 = memref.load %34[%45, %1157] : memref<?x?xf32, strided<[?, 1]>> loc(#loc24)
      %1161 = vector.broadcast %1160 : f32 to vector<256xf32> loc(#loc24)
      %1162 = vector.fma %1139, %1159, %1146 : vector<256xf32> loc(#loc24)
      %1163 = memref.load %34[%49, %1157] : memref<?x?xf32, strided<[?, 1]>> loc(#loc24)
      %1164 = vector.broadcast %1163 : f32 to vector<256xf32> loc(#loc24)
      %1165 = vector.fma %1139, %1161, %1149 : vector<256xf32> loc(#loc24)
      %1166 = memref.load %34[%53, %1157] : memref<?x?xf32, strided<[?, 1]>> loc(#loc24)
      %1167 = vector.broadcast %1166 : f32 to vector<256xf32> loc(#loc24)
      %1168 = vector.fma %1139, %1164, %1152 : vector<256xf32> loc(#loc24)
      %1169 = vector.fma %1139, %1167, %1153 : vector<256xf32> loc(#loc24)
      %1170 = arith.addi %37#0, %c71 : index loc(#loc24)
      %1171 = vector.load %36[%1170, %37#1] : memref<?x?xf32, strided<[?, 1]>>, vector<256xf32> loc(#loc24)
      %1172 = arith.addi %37#0, %c198 : index loc(#loc24)
      memref.prefetch %36[%1172, %37#1], read, locality<1>, data : memref<?x?xf32, strided<[?, 1]>> loc(#loc24)
      %1173 = arith.addi %35#1, %c70 : index loc(#loc24)
      %1174 = memref.load %34[%35#0, %1173] : memref<?x?xf32, strided<[?, 1]>> loc(#loc24)
      %1175 = vector.broadcast %1174 : f32 to vector<256xf32> loc(#loc24)
      %1176 = memref.load %34[%45, %1173] : memref<?x?xf32, strided<[?, 1]>> loc(#loc24)
      %1177 = vector.broadcast %1176 : f32 to vector<256xf32> loc(#loc24)
      %1178 = vector.fma %1155, %1175, %1162 : vector<256xf32> loc(#loc24)
      %1179 = memref.load %34[%49, %1173] : memref<?x?xf32, strided<[?, 1]>> loc(#loc24)
      %1180 = vector.broadcast %1179 : f32 to vector<256xf32> loc(#loc24)
      %1181 = vector.fma %1155, %1177, %1165 : vector<256xf32> loc(#loc24)
      %1182 = memref.load %34[%53, %1173] : memref<?x?xf32, strided<[?, 1]>> loc(#loc24)
      %1183 = vector.broadcast %1182 : f32 to vector<256xf32> loc(#loc24)
      %1184 = vector.fma %1155, %1180, %1168 : vector<256xf32> loc(#loc24)
      %1185 = vector.fma %1155, %1183, %1169 : vector<256xf32> loc(#loc24)
      %1186 = arith.addi %37#0, %c72 : index loc(#loc24)
      %1187 = vector.load %36[%1186, %37#1] : memref<?x?xf32, strided<[?, 1]>>, vector<256xf32> loc(#loc24)
      %1188 = arith.addi %37#0, %c199 : index loc(#loc24)
      memref.prefetch %36[%1188, %37#1], read, locality<1>, data : memref<?x?xf32, strided<[?, 1]>> loc(#loc24)
      %1189 = arith.addi %35#1, %c71 : index loc(#loc24)
      %1190 = memref.load %34[%35#0, %1189] : memref<?x?xf32, strided<[?, 1]>> loc(#loc24)
      %1191 = vector.broadcast %1190 : f32 to vector<256xf32> loc(#loc24)
      %1192 = memref.load %34[%45, %1189] : memref<?x?xf32, strided<[?, 1]>> loc(#loc24)
      %1193 = vector.broadcast %1192 : f32 to vector<256xf32> loc(#loc24)
      %1194 = vector.fma %1171, %1191, %1178 : vector<256xf32> loc(#loc24)
      %1195 = memref.load %34[%49, %1189] : memref<?x?xf32, strided<[?, 1]>> loc(#loc24)
      %1196 = vector.broadcast %1195 : f32 to vector<256xf32> loc(#loc24)
      %1197 = vector.fma %1171, %1193, %1181 : vector<256xf32> loc(#loc24)
      %1198 = memref.load %34[%53, %1189] : memref<?x?xf32, strided<[?, 1]>> loc(#loc24)
      %1199 = vector.broadcast %1198 : f32 to vector<256xf32> loc(#loc24)
      %1200 = vector.fma %1171, %1196, %1184 : vector<256xf32> loc(#loc24)
      %1201 = vector.fma %1171, %1199, %1185 : vector<256xf32> loc(#loc24)
      %1202 = arith.addi %37#0, %c73 : index loc(#loc24)
      %1203 = vector.load %36[%1202, %37#1] : memref<?x?xf32, strided<[?, 1]>>, vector<256xf32> loc(#loc24)
      %1204 = arith.addi %37#0, %c200 : index loc(#loc24)
      memref.prefetch %36[%1204, %37#1], read, locality<1>, data : memref<?x?xf32, strided<[?, 1]>> loc(#loc24)
      %1205 = arith.addi %35#1, %c72 : index loc(#loc24)
      %1206 = memref.load %34[%35#0, %1205] : memref<?x?xf32, strided<[?, 1]>> loc(#loc24)
      %1207 = vector.broadcast %1206 : f32 to vector<256xf32> loc(#loc24)
      %1208 = memref.load %34[%45, %1205] : memref<?x?xf32, strided<[?, 1]>> loc(#loc24)
      %1209 = vector.broadcast %1208 : f32 to vector<256xf32> loc(#loc24)
      %1210 = arith.addi %35#1, %c200 : index loc(#loc24)
      memref.prefetch %34[%35#0, %1210], read, locality<3>, data : memref<?x?xf32, strided<[?, 1]>> loc(#loc24)
      %1211 = vector.fma %1187, %1207, %1194 : vector<256xf32> loc(#loc24)
      %1212 = memref.load %34[%49, %1205] : memref<?x?xf32, strided<[?, 1]>> loc(#loc24)
      %1213 = vector.broadcast %1212 : f32 to vector<256xf32> loc(#loc24)
      memref.prefetch %34[%45, %1210], read, locality<3>, data : memref<?x?xf32, strided<[?, 1]>> loc(#loc24)
      %1214 = vector.fma %1187, %1209, %1197 : vector<256xf32> loc(#loc24)
      %1215 = memref.load %34[%53, %1205] : memref<?x?xf32, strided<[?, 1]>> loc(#loc24)
      %1216 = vector.broadcast %1215 : f32 to vector<256xf32> loc(#loc24)
      memref.prefetch %34[%49, %1210], read, locality<3>, data : memref<?x?xf32, strided<[?, 1]>> loc(#loc24)
      %1217 = vector.fma %1187, %1213, %1200 : vector<256xf32> loc(#loc24)
      memref.prefetch %34[%53, %1210], read, locality<3>, data : memref<?x?xf32, strided<[?, 1]>> loc(#loc24)
      %1218 = vector.fma %1187, %1216, %1201 : vector<256xf32> loc(#loc24)
      %1219 = arith.addi %37#0, %c74 : index loc(#loc24)
      %1220 = vector.load %36[%1219, %37#1] : memref<?x?xf32, strided<[?, 1]>>, vector<256xf32> loc(#loc24)
      %1221 = arith.addi %37#0, %c201 : index loc(#loc24)
      memref.prefetch %36[%1221, %37#1], read, locality<1>, data : memref<?x?xf32, strided<[?, 1]>> loc(#loc24)
      %1222 = arith.addi %35#1, %c73 : index loc(#loc24)
      %1223 = memref.load %34[%35#0, %1222] : memref<?x?xf32, strided<[?, 1]>> loc(#loc24)
      %1224 = vector.broadcast %1223 : f32 to vector<256xf32> loc(#loc24)
      %1225 = memref.load %34[%45, %1222] : memref<?x?xf32, strided<[?, 1]>> loc(#loc24)
      %1226 = vector.broadcast %1225 : f32 to vector<256xf32> loc(#loc24)
      %1227 = vector.fma %1203, %1224, %1211 : vector<256xf32> loc(#loc24)
      %1228 = memref.load %34[%49, %1222] : memref<?x?xf32, strided<[?, 1]>> loc(#loc24)
      %1229 = vector.broadcast %1228 : f32 to vector<256xf32> loc(#loc24)
      %1230 = vector.fma %1203, %1226, %1214 : vector<256xf32> loc(#loc24)
      %1231 = memref.load %34[%53, %1222] : memref<?x?xf32, strided<[?, 1]>> loc(#loc24)
      %1232 = vector.broadcast %1231 : f32 to vector<256xf32> loc(#loc24)
      %1233 = vector.fma %1203, %1229, %1217 : vector<256xf32> loc(#loc24)
      %1234 = vector.fma %1203, %1232, %1218 : vector<256xf32> loc(#loc24)
      %1235 = arith.addi %37#0, %c75 : index loc(#loc24)
      %1236 = vector.load %36[%1235, %37#1] : memref<?x?xf32, strided<[?, 1]>>, vector<256xf32> loc(#loc24)
      %1237 = arith.addi %37#0, %c202 : index loc(#loc24)
      memref.prefetch %36[%1237, %37#1], read, locality<1>, data : memref<?x?xf32, strided<[?, 1]>> loc(#loc24)
      %1238 = arith.addi %35#1, %c74 : index loc(#loc24)
      %1239 = memref.load %34[%35#0, %1238] : memref<?x?xf32, strided<[?, 1]>> loc(#loc24)
      %1240 = vector.broadcast %1239 : f32 to vector<256xf32> loc(#loc24)
      %1241 = memref.load %34[%45, %1238] : memref<?x?xf32, strided<[?, 1]>> loc(#loc24)
      %1242 = vector.broadcast %1241 : f32 to vector<256xf32> loc(#loc24)
      %1243 = vector.fma %1220, %1240, %1227 : vector<256xf32> loc(#loc24)
      %1244 = memref.load %34[%49, %1238] : memref<?x?xf32, strided<[?, 1]>> loc(#loc24)
      %1245 = vector.broadcast %1244 : f32 to vector<256xf32> loc(#loc24)
      %1246 = vector.fma %1220, %1242, %1230 : vector<256xf32> loc(#loc24)
      %1247 = memref.load %34[%53, %1238] : memref<?x?xf32, strided<[?, 1]>> loc(#loc24)
      %1248 = vector.broadcast %1247 : f32 to vector<256xf32> loc(#loc24)
      %1249 = vector.fma %1220, %1245, %1233 : vector<256xf32> loc(#loc24)
      %1250 = vector.fma %1220, %1248, %1234 : vector<256xf32> loc(#loc24)
      %1251 = arith.addi %37#0, %c76 : index loc(#loc24)
      %1252 = vector.load %36[%1251, %37#1] : memref<?x?xf32, strided<[?, 1]>>, vector<256xf32> loc(#loc24)
      %1253 = arith.addi %37#0, %c203 : index loc(#loc24)
      memref.prefetch %36[%1253, %37#1], read, locality<1>, data : memref<?x?xf32, strided<[?, 1]>> loc(#loc24)
      %1254 = arith.addi %35#1, %c75 : index loc(#loc24)
      %1255 = memref.load %34[%35#0, %1254] : memref<?x?xf32, strided<[?, 1]>> loc(#loc24)
      %1256 = vector.broadcast %1255 : f32 to vector<256xf32> loc(#loc24)
      %1257 = memref.load %34[%45, %1254] : memref<?x?xf32, strided<[?, 1]>> loc(#loc24)
      %1258 = vector.broadcast %1257 : f32 to vector<256xf32> loc(#loc24)
      %1259 = vector.fma %1236, %1256, %1243 : vector<256xf32> loc(#loc24)
      %1260 = memref.load %34[%49, %1254] : memref<?x?xf32, strided<[?, 1]>> loc(#loc24)
      %1261 = vector.broadcast %1260 : f32 to vector<256xf32> loc(#loc24)
      %1262 = vector.fma %1236, %1258, %1246 : vector<256xf32> loc(#loc24)
      %1263 = memref.load %34[%53, %1254] : memref<?x?xf32, strided<[?, 1]>> loc(#loc24)
      %1264 = vector.broadcast %1263 : f32 to vector<256xf32> loc(#loc24)
      %1265 = vector.fma %1236, %1261, %1249 : vector<256xf32> loc(#loc24)
      %1266 = vector.fma %1236, %1264, %1250 : vector<256xf32> loc(#loc24)
      %1267 = arith.addi %37#0, %c77 : index loc(#loc24)
      %1268 = vector.load %36[%1267, %37#1] : memref<?x?xf32, strided<[?, 1]>>, vector<256xf32> loc(#loc24)
      %1269 = arith.addi %37#0, %c204 : index loc(#loc24)
      memref.prefetch %36[%1269, %37#1], read, locality<1>, data : memref<?x?xf32, strided<[?, 1]>> loc(#loc24)
      %1270 = arith.addi %35#1, %c76 : index loc(#loc24)
      %1271 = memref.load %34[%35#0, %1270] : memref<?x?xf32, strided<[?, 1]>> loc(#loc24)
      %1272 = vector.broadcast %1271 : f32 to vector<256xf32> loc(#loc24)
      %1273 = memref.load %34[%45, %1270] : memref<?x?xf32, strided<[?, 1]>> loc(#loc24)
      %1274 = vector.broadcast %1273 : f32 to vector<256xf32> loc(#loc24)
      %1275 = vector.fma %1252, %1272, %1259 : vector<256xf32> loc(#loc24)
      %1276 = memref.load %34[%49, %1270] : memref<?x?xf32, strided<[?, 1]>> loc(#loc24)
      %1277 = vector.broadcast %1276 : f32 to vector<256xf32> loc(#loc24)
      %1278 = vector.fma %1252, %1274, %1262 : vector<256xf32> loc(#loc24)
      %1279 = memref.load %34[%53, %1270] : memref<?x?xf32, strided<[?, 1]>> loc(#loc24)
      %1280 = vector.broadcast %1279 : f32 to vector<256xf32> loc(#loc24)
      %1281 = vector.fma %1252, %1277, %1265 : vector<256xf32> loc(#loc24)
      %1282 = vector.fma %1252, %1280, %1266 : vector<256xf32> loc(#loc24)
      %1283 = arith.addi %37#0, %c78 : index loc(#loc24)
      %1284 = vector.load %36[%1283, %37#1] : memref<?x?xf32, strided<[?, 1]>>, vector<256xf32> loc(#loc24)
      %1285 = arith.addi %37#0, %c205 : index loc(#loc24)
      memref.prefetch %36[%1285, %37#1], read, locality<1>, data : memref<?x?xf32, strided<[?, 1]>> loc(#loc24)
      %1286 = arith.addi %35#1, %c77 : index loc(#loc24)
      %1287 = memref.load %34[%35#0, %1286] : memref<?x?xf32, strided<[?, 1]>> loc(#loc24)
      %1288 = vector.broadcast %1287 : f32 to vector<256xf32> loc(#loc24)
      %1289 = memref.load %34[%45, %1286] : memref<?x?xf32, strided<[?, 1]>> loc(#loc24)
      %1290 = vector.broadcast %1289 : f32 to vector<256xf32> loc(#loc24)
      %1291 = vector.fma %1268, %1288, %1275 : vector<256xf32> loc(#loc24)
      %1292 = memref.load %34[%49, %1286] : memref<?x?xf32, strided<[?, 1]>> loc(#loc24)
      %1293 = vector.broadcast %1292 : f32 to vector<256xf32> loc(#loc24)
      %1294 = vector.fma %1268, %1290, %1278 : vector<256xf32> loc(#loc24)
      %1295 = memref.load %34[%53, %1286] : memref<?x?xf32, strided<[?, 1]>> loc(#loc24)
      %1296 = vector.broadcast %1295 : f32 to vector<256xf32> loc(#loc24)
      %1297 = vector.fma %1268, %1293, %1281 : vector<256xf32> loc(#loc24)
      %1298 = vector.fma %1268, %1296, %1282 : vector<256xf32> loc(#loc24)
      %1299 = arith.addi %37#0, %c79 : index loc(#loc24)
      %1300 = vector.load %36[%1299, %37#1] : memref<?x?xf32, strided<[?, 1]>>, vector<256xf32> loc(#loc24)
      %1301 = arith.addi %37#0, %c206 : index loc(#loc24)
      memref.prefetch %36[%1301, %37#1], read, locality<1>, data : memref<?x?xf32, strided<[?, 1]>> loc(#loc24)
      %1302 = arith.addi %35#1, %c78 : index loc(#loc24)
      %1303 = memref.load %34[%35#0, %1302] : memref<?x?xf32, strided<[?, 1]>> loc(#loc24)
      %1304 = vector.broadcast %1303 : f32 to vector<256xf32> loc(#loc24)
      %1305 = memref.load %34[%45, %1302] : memref<?x?xf32, strided<[?, 1]>> loc(#loc24)
      %1306 = vector.broadcast %1305 : f32 to vector<256xf32> loc(#loc24)
      %1307 = vector.fma %1284, %1304, %1291 : vector<256xf32> loc(#loc24)
      %1308 = memref.load %34[%49, %1302] : memref<?x?xf32, strided<[?, 1]>> loc(#loc24)
      %1309 = vector.broadcast %1308 : f32 to vector<256xf32> loc(#loc24)
      %1310 = vector.fma %1284, %1306, %1294 : vector<256xf32> loc(#loc24)
      %1311 = memref.load %34[%53, %1302] : memref<?x?xf32, strided<[?, 1]>> loc(#loc24)
      %1312 = vector.broadcast %1311 : f32 to vector<256xf32> loc(#loc24)
      %1313 = vector.fma %1284, %1309, %1297 : vector<256xf32> loc(#loc24)
      %1314 = vector.fma %1284, %1312, %1298 : vector<256xf32> loc(#loc24)
      %1315 = arith.addi %37#0, %c80 : index loc(#loc24)
      %1316 = vector.load %36[%1315, %37#1] : memref<?x?xf32, strided<[?, 1]>>, vector<256xf32> loc(#loc24)
      %1317 = arith.addi %37#0, %c207 : index loc(#loc24)
      memref.prefetch %36[%1317, %37#1], read, locality<1>, data : memref<?x?xf32, strided<[?, 1]>> loc(#loc24)
      %1318 = arith.addi %35#1, %c79 : index loc(#loc24)
      %1319 = memref.load %34[%35#0, %1318] : memref<?x?xf32, strided<[?, 1]>> loc(#loc24)
      %1320 = vector.broadcast %1319 : f32 to vector<256xf32> loc(#loc24)
      %1321 = memref.load %34[%45, %1318] : memref<?x?xf32, strided<[?, 1]>> loc(#loc24)
      %1322 = vector.broadcast %1321 : f32 to vector<256xf32> loc(#loc24)
      %1323 = vector.fma %1300, %1320, %1307 : vector<256xf32> loc(#loc24)
      %1324 = memref.load %34[%49, %1318] : memref<?x?xf32, strided<[?, 1]>> loc(#loc24)
      %1325 = vector.broadcast %1324 : f32 to vector<256xf32> loc(#loc24)
      %1326 = vector.fma %1300, %1322, %1310 : vector<256xf32> loc(#loc24)
      %1327 = memref.load %34[%53, %1318] : memref<?x?xf32, strided<[?, 1]>> loc(#loc24)
      %1328 = vector.broadcast %1327 : f32 to vector<256xf32> loc(#loc24)
      %1329 = vector.fma %1300, %1325, %1313 : vector<256xf32> loc(#loc24)
      %1330 = vector.fma %1300, %1328, %1314 : vector<256xf32> loc(#loc24)
      %1331 = arith.addi %37#0, %c81 : index loc(#loc24)
      %1332 = vector.load %36[%1331, %37#1] : memref<?x?xf32, strided<[?, 1]>>, vector<256xf32> loc(#loc24)
      %1333 = arith.addi %37#0, %c208 : index loc(#loc24)
      memref.prefetch %36[%1333, %37#1], read, locality<1>, data : memref<?x?xf32, strided<[?, 1]>> loc(#loc24)
      %1334 = arith.addi %35#1, %c80 : index loc(#loc24)
      %1335 = memref.load %34[%35#0, %1334] : memref<?x?xf32, strided<[?, 1]>> loc(#loc24)
      %1336 = vector.broadcast %1335 : f32 to vector<256xf32> loc(#loc24)
      %1337 = memref.load %34[%45, %1334] : memref<?x?xf32, strided<[?, 1]>> loc(#loc24)
      %1338 = vector.broadcast %1337 : f32 to vector<256xf32> loc(#loc24)
      %1339 = arith.addi %35#1, %c208 : index loc(#loc24)
      memref.prefetch %34[%35#0, %1339], read, locality<3>, data : memref<?x?xf32, strided<[?, 1]>> loc(#loc24)
      %1340 = vector.fma %1316, %1336, %1323 : vector<256xf32> loc(#loc24)
      %1341 = memref.load %34[%49, %1334] : memref<?x?xf32, strided<[?, 1]>> loc(#loc24)
      %1342 = vector.broadcast %1341 : f32 to vector<256xf32> loc(#loc24)
      memref.prefetch %34[%45, %1339], read, locality<3>, data : memref<?x?xf32, strided<[?, 1]>> loc(#loc24)
      %1343 = vector.fma %1316, %1338, %1326 : vector<256xf32> loc(#loc24)
      %1344 = memref.load %34[%53, %1334] : memref<?x?xf32, strided<[?, 1]>> loc(#loc24)
      %1345 = vector.broadcast %1344 : f32 to vector<256xf32> loc(#loc24)
      memref.prefetch %34[%49, %1339], read, locality<3>, data : memref<?x?xf32, strided<[?, 1]>> loc(#loc24)
      %1346 = vector.fma %1316, %1342, %1329 : vector<256xf32> loc(#loc24)
      memref.prefetch %34[%53, %1339], read, locality<3>, data : memref<?x?xf32, strided<[?, 1]>> loc(#loc24)
      %1347 = vector.fma %1316, %1345, %1330 : vector<256xf32> loc(#loc24)
      %1348 = arith.addi %37#0, %c82 : index loc(#loc24)
      %1349 = vector.load %36[%1348, %37#1] : memref<?x?xf32, strided<[?, 1]>>, vector<256xf32> loc(#loc24)
      %1350 = arith.addi %37#0, %c209 : index loc(#loc24)
      memref.prefetch %36[%1350, %37#1], read, locality<1>, data : memref<?x?xf32, strided<[?, 1]>> loc(#loc24)
      %1351 = arith.addi %35#1, %c81 : index loc(#loc24)
      %1352 = memref.load %34[%35#0, %1351] : memref<?x?xf32, strided<[?, 1]>> loc(#loc24)
      %1353 = vector.broadcast %1352 : f32 to vector<256xf32> loc(#loc24)
      %1354 = memref.load %34[%45, %1351] : memref<?x?xf32, strided<[?, 1]>> loc(#loc24)
      %1355 = vector.broadcast %1354 : f32 to vector<256xf32> loc(#loc24)
      %1356 = vector.fma %1332, %1353, %1340 : vector<256xf32> loc(#loc24)
      %1357 = memref.load %34[%49, %1351] : memref<?x?xf32, strided<[?, 1]>> loc(#loc24)
      %1358 = vector.broadcast %1357 : f32 to vector<256xf32> loc(#loc24)
      %1359 = vector.fma %1332, %1355, %1343 : vector<256xf32> loc(#loc24)
      %1360 = memref.load %34[%53, %1351] : memref<?x?xf32, strided<[?, 1]>> loc(#loc24)
      %1361 = vector.broadcast %1360 : f32 to vector<256xf32> loc(#loc24)
      %1362 = vector.fma %1332, %1358, %1346 : vector<256xf32> loc(#loc24)
      %1363 = vector.fma %1332, %1361, %1347 : vector<256xf32> loc(#loc24)
      %1364 = arith.addi %37#0, %c83 : index loc(#loc24)
      %1365 = vector.load %36[%1364, %37#1] : memref<?x?xf32, strided<[?, 1]>>, vector<256xf32> loc(#loc24)
      %1366 = arith.addi %37#0, %c210 : index loc(#loc24)
      memref.prefetch %36[%1366, %37#1], read, locality<1>, data : memref<?x?xf32, strided<[?, 1]>> loc(#loc24)
      %1367 = arith.addi %35#1, %c82 : index loc(#loc24)
      %1368 = memref.load %34[%35#0, %1367] : memref<?x?xf32, strided<[?, 1]>> loc(#loc24)
      %1369 = vector.broadcast %1368 : f32 to vector<256xf32> loc(#loc24)
      %1370 = memref.load %34[%45, %1367] : memref<?x?xf32, strided<[?, 1]>> loc(#loc24)
      %1371 = vector.broadcast %1370 : f32 to vector<256xf32> loc(#loc24)
      %1372 = vector.fma %1349, %1369, %1356 : vector<256xf32> loc(#loc24)
      %1373 = memref.load %34[%49, %1367] : memref<?x?xf32, strided<[?, 1]>> loc(#loc24)
      %1374 = vector.broadcast %1373 : f32 to vector<256xf32> loc(#loc24)
      %1375 = vector.fma %1349, %1371, %1359 : vector<256xf32> loc(#loc24)
      %1376 = memref.load %34[%53, %1367] : memref<?x?xf32, strided<[?, 1]>> loc(#loc24)
      %1377 = vector.broadcast %1376 : f32 to vector<256xf32> loc(#loc24)
      %1378 = vector.fma %1349, %1374, %1362 : vector<256xf32> loc(#loc24)
      %1379 = vector.fma %1349, %1377, %1363 : vector<256xf32> loc(#loc24)
      %1380 = arith.addi %37#0, %c84 : index loc(#loc24)
      %1381 = vector.load %36[%1380, %37#1] : memref<?x?xf32, strided<[?, 1]>>, vector<256xf32> loc(#loc24)
      %1382 = arith.addi %37#0, %c211 : index loc(#loc24)
      memref.prefetch %36[%1382, %37#1], read, locality<1>, data : memref<?x?xf32, strided<[?, 1]>> loc(#loc24)
      %1383 = arith.addi %35#1, %c83 : index loc(#loc24)
      %1384 = memref.load %34[%35#0, %1383] : memref<?x?xf32, strided<[?, 1]>> loc(#loc24)
      %1385 = vector.broadcast %1384 : f32 to vector<256xf32> loc(#loc24)
      %1386 = memref.load %34[%45, %1383] : memref<?x?xf32, strided<[?, 1]>> loc(#loc24)
      %1387 = vector.broadcast %1386 : f32 to vector<256xf32> loc(#loc24)
      %1388 = vector.fma %1365, %1385, %1372 : vector<256xf32> loc(#loc24)
      %1389 = memref.load %34[%49, %1383] : memref<?x?xf32, strided<[?, 1]>> loc(#loc24)
      %1390 = vector.broadcast %1389 : f32 to vector<256xf32> loc(#loc24)
      %1391 = vector.fma %1365, %1387, %1375 : vector<256xf32> loc(#loc24)
      %1392 = memref.load %34[%53, %1383] : memref<?x?xf32, strided<[?, 1]>> loc(#loc24)
      %1393 = vector.broadcast %1392 : f32 to vector<256xf32> loc(#loc24)
      %1394 = vector.fma %1365, %1390, %1378 : vector<256xf32> loc(#loc24)
      %1395 = vector.fma %1365, %1393, %1379 : vector<256xf32> loc(#loc24)
      %1396 = arith.addi %37#0, %c85 : index loc(#loc24)
      %1397 = vector.load %36[%1396, %37#1] : memref<?x?xf32, strided<[?, 1]>>, vector<256xf32> loc(#loc24)
      %1398 = arith.addi %37#0, %c212 : index loc(#loc24)
      memref.prefetch %36[%1398, %37#1], read, locality<1>, data : memref<?x?xf32, strided<[?, 1]>> loc(#loc24)
      %1399 = arith.addi %35#1, %c84 : index loc(#loc24)
      %1400 = memref.load %34[%35#0, %1399] : memref<?x?xf32, strided<[?, 1]>> loc(#loc24)
      %1401 = vector.broadcast %1400 : f32 to vector<256xf32> loc(#loc24)
      %1402 = memref.load %34[%45, %1399] : memref<?x?xf32, strided<[?, 1]>> loc(#loc24)
      %1403 = vector.broadcast %1402 : f32 to vector<256xf32> loc(#loc24)
      %1404 = vector.fma %1381, %1401, %1388 : vector<256xf32> loc(#loc24)
      %1405 = memref.load %34[%49, %1399] : memref<?x?xf32, strided<[?, 1]>> loc(#loc24)
      %1406 = vector.broadcast %1405 : f32 to vector<256xf32> loc(#loc24)
      %1407 = vector.fma %1381, %1403, %1391 : vector<256xf32> loc(#loc24)
      %1408 = memref.load %34[%53, %1399] : memref<?x?xf32, strided<[?, 1]>> loc(#loc24)
      %1409 = vector.broadcast %1408 : f32 to vector<256xf32> loc(#loc24)
      %1410 = vector.fma %1381, %1406, %1394 : vector<256xf32> loc(#loc24)
      %1411 = vector.fma %1381, %1409, %1395 : vector<256xf32> loc(#loc24)
      %1412 = arith.addi %37#0, %c86 : index loc(#loc24)
      %1413 = vector.load %36[%1412, %37#1] : memref<?x?xf32, strided<[?, 1]>>, vector<256xf32> loc(#loc24)
      %1414 = arith.addi %37#0, %c213 : index loc(#loc24)
      memref.prefetch %36[%1414, %37#1], read, locality<1>, data : memref<?x?xf32, strided<[?, 1]>> loc(#loc24)
      %1415 = arith.addi %35#1, %c85 : index loc(#loc24)
      %1416 = memref.load %34[%35#0, %1415] : memref<?x?xf32, strided<[?, 1]>> loc(#loc24)
      %1417 = vector.broadcast %1416 : f32 to vector<256xf32> loc(#loc24)
      %1418 = memref.load %34[%45, %1415] : memref<?x?xf32, strided<[?, 1]>> loc(#loc24)
      %1419 = vector.broadcast %1418 : f32 to vector<256xf32> loc(#loc24)
      %1420 = vector.fma %1397, %1417, %1404 : vector<256xf32> loc(#loc24)
      %1421 = memref.load %34[%49, %1415] : memref<?x?xf32, strided<[?, 1]>> loc(#loc24)
      %1422 = vector.broadcast %1421 : f32 to vector<256xf32> loc(#loc24)
      %1423 = vector.fma %1397, %1419, %1407 : vector<256xf32> loc(#loc24)
      %1424 = memref.load %34[%53, %1415] : memref<?x?xf32, strided<[?, 1]>> loc(#loc24)
      %1425 = vector.broadcast %1424 : f32 to vector<256xf32> loc(#loc24)
      %1426 = vector.fma %1397, %1422, %1410 : vector<256xf32> loc(#loc24)
      %1427 = vector.fma %1397, %1425, %1411 : vector<256xf32> loc(#loc24)
      %1428 = arith.addi %37#0, %c87 : index loc(#loc24)
      %1429 = vector.load %36[%1428, %37#1] : memref<?x?xf32, strided<[?, 1]>>, vector<256xf32> loc(#loc24)
      %1430 = arith.addi %37#0, %c214 : index loc(#loc24)
      memref.prefetch %36[%1430, %37#1], read, locality<1>, data : memref<?x?xf32, strided<[?, 1]>> loc(#loc24)
      %1431 = arith.addi %35#1, %c86 : index loc(#loc24)
      %1432 = memref.load %34[%35#0, %1431] : memref<?x?xf32, strided<[?, 1]>> loc(#loc24)
      %1433 = vector.broadcast %1432 : f32 to vector<256xf32> loc(#loc24)
      %1434 = memref.load %34[%45, %1431] : memref<?x?xf32, strided<[?, 1]>> loc(#loc24)
      %1435 = vector.broadcast %1434 : f32 to vector<256xf32> loc(#loc24)
      %1436 = vector.fma %1413, %1433, %1420 : vector<256xf32> loc(#loc24)
      %1437 = memref.load %34[%49, %1431] : memref<?x?xf32, strided<[?, 1]>> loc(#loc24)
      %1438 = vector.broadcast %1437 : f32 to vector<256xf32> loc(#loc24)
      %1439 = vector.fma %1413, %1435, %1423 : vector<256xf32> loc(#loc24)
      %1440 = memref.load %34[%53, %1431] : memref<?x?xf32, strided<[?, 1]>> loc(#loc24)
      %1441 = vector.broadcast %1440 : f32 to vector<256xf32> loc(#loc24)
      %1442 = vector.fma %1413, %1438, %1426 : vector<256xf32> loc(#loc24)
      %1443 = vector.fma %1413, %1441, %1427 : vector<256xf32> loc(#loc24)
      %1444 = arith.addi %37#0, %c88 : index loc(#loc24)
      %1445 = vector.load %36[%1444, %37#1] : memref<?x?xf32, strided<[?, 1]>>, vector<256xf32> loc(#loc24)
      %1446 = arith.addi %37#0, %c215 : index loc(#loc24)
      memref.prefetch %36[%1446, %37#1], read, locality<1>, data : memref<?x?xf32, strided<[?, 1]>> loc(#loc24)
      %1447 = arith.addi %35#1, %c87 : index loc(#loc24)
      %1448 = memref.load %34[%35#0, %1447] : memref<?x?xf32, strided<[?, 1]>> loc(#loc24)
      %1449 = vector.broadcast %1448 : f32 to vector<256xf32> loc(#loc24)
      %1450 = memref.load %34[%45, %1447] : memref<?x?xf32, strided<[?, 1]>> loc(#loc24)
      %1451 = vector.broadcast %1450 : f32 to vector<256xf32> loc(#loc24)
      %1452 = vector.fma %1429, %1449, %1436 : vector<256xf32> loc(#loc24)
      %1453 = memref.load %34[%49, %1447] : memref<?x?xf32, strided<[?, 1]>> loc(#loc24)
      %1454 = vector.broadcast %1453 : f32 to vector<256xf32> loc(#loc24)
      %1455 = vector.fma %1429, %1451, %1439 : vector<256xf32> loc(#loc24)
      %1456 = memref.load %34[%53, %1447] : memref<?x?xf32, strided<[?, 1]>> loc(#loc24)
      %1457 = vector.broadcast %1456 : f32 to vector<256xf32> loc(#loc24)
      %1458 = vector.fma %1429, %1454, %1442 : vector<256xf32> loc(#loc24)
      %1459 = vector.fma %1429, %1457, %1443 : vector<256xf32> loc(#loc24)
      %1460 = arith.addi %37#0, %c89 : index loc(#loc24)
      %1461 = vector.load %36[%1460, %37#1] : memref<?x?xf32, strided<[?, 1]>>, vector<256xf32> loc(#loc24)
      %1462 = arith.addi %37#0, %c216 : index loc(#loc24)
      memref.prefetch %36[%1462, %37#1], read, locality<1>, data : memref<?x?xf32, strided<[?, 1]>> loc(#loc24)
      %1463 = arith.addi %35#1, %c88 : index loc(#loc24)
      %1464 = memref.load %34[%35#0, %1463] : memref<?x?xf32, strided<[?, 1]>> loc(#loc24)
      %1465 = vector.broadcast %1464 : f32 to vector<256xf32> loc(#loc24)
      %1466 = memref.load %34[%45, %1463] : memref<?x?xf32, strided<[?, 1]>> loc(#loc24)
      %1467 = vector.broadcast %1466 : f32 to vector<256xf32> loc(#loc24)
      %1468 = arith.addi %35#1, %c216 : index loc(#loc24)
      memref.prefetch %34[%35#0, %1468], read, locality<3>, data : memref<?x?xf32, strided<[?, 1]>> loc(#loc24)
      %1469 = vector.fma %1445, %1465, %1452 : vector<256xf32> loc(#loc24)
      %1470 = memref.load %34[%49, %1463] : memref<?x?xf32, strided<[?, 1]>> loc(#loc24)
      %1471 = vector.broadcast %1470 : f32 to vector<256xf32> loc(#loc24)
      memref.prefetch %34[%45, %1468], read, locality<3>, data : memref<?x?xf32, strided<[?, 1]>> loc(#loc24)
      %1472 = vector.fma %1445, %1467, %1455 : vector<256xf32> loc(#loc24)
      %1473 = memref.load %34[%53, %1463] : memref<?x?xf32, strided<[?, 1]>> loc(#loc24)
      %1474 = vector.broadcast %1473 : f32 to vector<256xf32> loc(#loc24)
      memref.prefetch %34[%49, %1468], read, locality<3>, data : memref<?x?xf32, strided<[?, 1]>> loc(#loc24)
      %1475 = vector.fma %1445, %1471, %1458 : vector<256xf32> loc(#loc24)
      memref.prefetch %34[%53, %1468], read, locality<3>, data : memref<?x?xf32, strided<[?, 1]>> loc(#loc24)
      %1476 = vector.fma %1445, %1474, %1459 : vector<256xf32> loc(#loc24)
      %1477 = arith.addi %37#0, %c90 : index loc(#loc24)
      %1478 = vector.load %36[%1477, %37#1] : memref<?x?xf32, strided<[?, 1]>>, vector<256xf32> loc(#loc24)
      %1479 = arith.addi %37#0, %c217 : index loc(#loc24)
      memref.prefetch %36[%1479, %37#1], read, locality<1>, data : memref<?x?xf32, strided<[?, 1]>> loc(#loc24)
      %1480 = arith.addi %35#1, %c89 : index loc(#loc24)
      %1481 = memref.load %34[%35#0, %1480] : memref<?x?xf32, strided<[?, 1]>> loc(#loc24)
      %1482 = vector.broadcast %1481 : f32 to vector<256xf32> loc(#loc24)
      %1483 = memref.load %34[%45, %1480] : memref<?x?xf32, strided<[?, 1]>> loc(#loc24)
      %1484 = vector.broadcast %1483 : f32 to vector<256xf32> loc(#loc24)
      %1485 = vector.fma %1461, %1482, %1469 : vector<256xf32> loc(#loc24)
      %1486 = memref.load %34[%49, %1480] : memref<?x?xf32, strided<[?, 1]>> loc(#loc24)
      %1487 = vector.broadcast %1486 : f32 to vector<256xf32> loc(#loc24)
      %1488 = vector.fma %1461, %1484, %1472 : vector<256xf32> loc(#loc24)
      %1489 = memref.load %34[%53, %1480] : memref<?x?xf32, strided<[?, 1]>> loc(#loc24)
      %1490 = vector.broadcast %1489 : f32 to vector<256xf32> loc(#loc24)
      %1491 = vector.fma %1461, %1487, %1475 : vector<256xf32> loc(#loc24)
      %1492 = vector.fma %1461, %1490, %1476 : vector<256xf32> loc(#loc24)
      %1493 = arith.addi %37#0, %c91 : index loc(#loc24)
      %1494 = vector.load %36[%1493, %37#1] : memref<?x?xf32, strided<[?, 1]>>, vector<256xf32> loc(#loc24)
      %1495 = arith.addi %37#0, %c218 : index loc(#loc24)
      memref.prefetch %36[%1495, %37#1], read, locality<1>, data : memref<?x?xf32, strided<[?, 1]>> loc(#loc24)
      %1496 = arith.addi %35#1, %c90 : index loc(#loc24)
      %1497 = memref.load %34[%35#0, %1496] : memref<?x?xf32, strided<[?, 1]>> loc(#loc24)
      %1498 = vector.broadcast %1497 : f32 to vector<256xf32> loc(#loc24)
      %1499 = memref.load %34[%45, %1496] : memref<?x?xf32, strided<[?, 1]>> loc(#loc24)
      %1500 = vector.broadcast %1499 : f32 to vector<256xf32> loc(#loc24)
      %1501 = vector.fma %1478, %1498, %1485 : vector<256xf32> loc(#loc24)
      %1502 = memref.load %34[%49, %1496] : memref<?x?xf32, strided<[?, 1]>> loc(#loc24)
      %1503 = vector.broadcast %1502 : f32 to vector<256xf32> loc(#loc24)
      %1504 = vector.fma %1478, %1500, %1488 : vector<256xf32> loc(#loc24)
      %1505 = memref.load %34[%53, %1496] : memref<?x?xf32, strided<[?, 1]>> loc(#loc24)
      %1506 = vector.broadcast %1505 : f32 to vector<256xf32> loc(#loc24)
      %1507 = vector.fma %1478, %1503, %1491 : vector<256xf32> loc(#loc24)
      %1508 = vector.fma %1478, %1506, %1492 : vector<256xf32> loc(#loc24)
      %1509 = arith.addi %37#0, %c92 : index loc(#loc24)
      %1510 = vector.load %36[%1509, %37#1] : memref<?x?xf32, strided<[?, 1]>>, vector<256xf32> loc(#loc24)
      %1511 = arith.addi %37#0, %c219 : index loc(#loc24)
      memref.prefetch %36[%1511, %37#1], read, locality<1>, data : memref<?x?xf32, strided<[?, 1]>> loc(#loc24)
      %1512 = arith.addi %35#1, %c91 : index loc(#loc24)
      %1513 = memref.load %34[%35#0, %1512] : memref<?x?xf32, strided<[?, 1]>> loc(#loc24)
      %1514 = vector.broadcast %1513 : f32 to vector<256xf32> loc(#loc24)
      %1515 = memref.load %34[%45, %1512] : memref<?x?xf32, strided<[?, 1]>> loc(#loc24)
      %1516 = vector.broadcast %1515 : f32 to vector<256xf32> loc(#loc24)
      %1517 = vector.fma %1494, %1514, %1501 : vector<256xf32> loc(#loc24)
      %1518 = memref.load %34[%49, %1512] : memref<?x?xf32, strided<[?, 1]>> loc(#loc24)
      %1519 = vector.broadcast %1518 : f32 to vector<256xf32> loc(#loc24)
      %1520 = vector.fma %1494, %1516, %1504 : vector<256xf32> loc(#loc24)
      %1521 = memref.load %34[%53, %1512] : memref<?x?xf32, strided<[?, 1]>> loc(#loc24)
      %1522 = vector.broadcast %1521 : f32 to vector<256xf32> loc(#loc24)
      %1523 = vector.fma %1494, %1519, %1507 : vector<256xf32> loc(#loc24)
      %1524 = vector.fma %1494, %1522, %1508 : vector<256xf32> loc(#loc24)
      %1525 = arith.addi %37#0, %c93 : index loc(#loc24)
      %1526 = vector.load %36[%1525, %37#1] : memref<?x?xf32, strided<[?, 1]>>, vector<256xf32> loc(#loc24)
      %1527 = arith.addi %37#0, %c220 : index loc(#loc24)
      memref.prefetch %36[%1527, %37#1], read, locality<1>, data : memref<?x?xf32, strided<[?, 1]>> loc(#loc24)
      %1528 = arith.addi %35#1, %c92 : index loc(#loc24)
      %1529 = memref.load %34[%35#0, %1528] : memref<?x?xf32, strided<[?, 1]>> loc(#loc24)
      %1530 = vector.broadcast %1529 : f32 to vector<256xf32> loc(#loc24)
      %1531 = memref.load %34[%45, %1528] : memref<?x?xf32, strided<[?, 1]>> loc(#loc24)
      %1532 = vector.broadcast %1531 : f32 to vector<256xf32> loc(#loc24)
      %1533 = vector.fma %1510, %1530, %1517 : vector<256xf32> loc(#loc24)
      %1534 = memref.load %34[%49, %1528] : memref<?x?xf32, strided<[?, 1]>> loc(#loc24)
      %1535 = vector.broadcast %1534 : f32 to vector<256xf32> loc(#loc24)
      %1536 = vector.fma %1510, %1532, %1520 : vector<256xf32> loc(#loc24)
      %1537 = memref.load %34[%53, %1528] : memref<?x?xf32, strided<[?, 1]>> loc(#loc24)
      %1538 = vector.broadcast %1537 : f32 to vector<256xf32> loc(#loc24)
      %1539 = vector.fma %1510, %1535, %1523 : vector<256xf32> loc(#loc24)
      %1540 = vector.fma %1510, %1538, %1524 : vector<256xf32> loc(#loc24)
      %1541 = arith.addi %37#0, %c94 : index loc(#loc24)
      %1542 = vector.load %36[%1541, %37#1] : memref<?x?xf32, strided<[?, 1]>>, vector<256xf32> loc(#loc24)
      %1543 = arith.addi %37#0, %c221 : index loc(#loc24)
      memref.prefetch %36[%1543, %37#1], read, locality<1>, data : memref<?x?xf32, strided<[?, 1]>> loc(#loc24)
      %1544 = arith.addi %35#1, %c93 : index loc(#loc24)
      %1545 = memref.load %34[%35#0, %1544] : memref<?x?xf32, strided<[?, 1]>> loc(#loc24)
      %1546 = vector.broadcast %1545 : f32 to vector<256xf32> loc(#loc24)
      %1547 = memref.load %34[%45, %1544] : memref<?x?xf32, strided<[?, 1]>> loc(#loc24)
      %1548 = vector.broadcast %1547 : f32 to vector<256xf32> loc(#loc24)
      %1549 = vector.fma %1526, %1546, %1533 : vector<256xf32> loc(#loc24)
      %1550 = memref.load %34[%49, %1544] : memref<?x?xf32, strided<[?, 1]>> loc(#loc24)
      %1551 = vector.broadcast %1550 : f32 to vector<256xf32> loc(#loc24)
      %1552 = vector.fma %1526, %1548, %1536 : vector<256xf32> loc(#loc24)
      %1553 = memref.load %34[%53, %1544] : memref<?x?xf32, strided<[?, 1]>> loc(#loc24)
      %1554 = vector.broadcast %1553 : f32 to vector<256xf32> loc(#loc24)
      %1555 = vector.fma %1526, %1551, %1539 : vector<256xf32> loc(#loc24)
      %1556 = vector.fma %1526, %1554, %1540 : vector<256xf32> loc(#loc24)
      %1557 = arith.addi %37#0, %c95 : index loc(#loc24)
      %1558 = vector.load %36[%1557, %37#1] : memref<?x?xf32, strided<[?, 1]>>, vector<256xf32> loc(#loc24)
      %1559 = arith.addi %37#0, %c222 : index loc(#loc24)
      memref.prefetch %36[%1559, %37#1], read, locality<1>, data : memref<?x?xf32, strided<[?, 1]>> loc(#loc24)
      %1560 = arith.addi %35#1, %c94 : index loc(#loc24)
      %1561 = memref.load %34[%35#0, %1560] : memref<?x?xf32, strided<[?, 1]>> loc(#loc24)
      %1562 = vector.broadcast %1561 : f32 to vector<256xf32> loc(#loc24)
      %1563 = memref.load %34[%45, %1560] : memref<?x?xf32, strided<[?, 1]>> loc(#loc24)
      %1564 = vector.broadcast %1563 : f32 to vector<256xf32> loc(#loc24)
      %1565 = vector.fma %1542, %1562, %1549 : vector<256xf32> loc(#loc24)
      %1566 = memref.load %34[%49, %1560] : memref<?x?xf32, strided<[?, 1]>> loc(#loc24)
      %1567 = vector.broadcast %1566 : f32 to vector<256xf32> loc(#loc24)
      %1568 = vector.fma %1542, %1564, %1552 : vector<256xf32> loc(#loc24)
      %1569 = memref.load %34[%53, %1560] : memref<?x?xf32, strided<[?, 1]>> loc(#loc24)
      %1570 = vector.broadcast %1569 : f32 to vector<256xf32> loc(#loc24)
      %1571 = vector.fma %1542, %1567, %1555 : vector<256xf32> loc(#loc24)
      %1572 = vector.fma %1542, %1570, %1556 : vector<256xf32> loc(#loc24)
      %1573 = arith.addi %37#0, %c96 : index loc(#loc24)
      %1574 = vector.load %36[%1573, %37#1] : memref<?x?xf32, strided<[?, 1]>>, vector<256xf32> loc(#loc24)
      %1575 = arith.addi %37#0, %c223 : index loc(#loc24)
      memref.prefetch %36[%1575, %37#1], read, locality<1>, data : memref<?x?xf32, strided<[?, 1]>> loc(#loc24)
      %1576 = arith.addi %35#1, %c95 : index loc(#loc24)
      %1577 = memref.load %34[%35#0, %1576] : memref<?x?xf32, strided<[?, 1]>> loc(#loc24)
      %1578 = vector.broadcast %1577 : f32 to vector<256xf32> loc(#loc24)
      %1579 = memref.load %34[%45, %1576] : memref<?x?xf32, strided<[?, 1]>> loc(#loc24)
      %1580 = vector.broadcast %1579 : f32 to vector<256xf32> loc(#loc24)
      %1581 = vector.fma %1558, %1578, %1565 : vector<256xf32> loc(#loc24)
      %1582 = memref.load %34[%49, %1576] : memref<?x?xf32, strided<[?, 1]>> loc(#loc24)
      %1583 = vector.broadcast %1582 : f32 to vector<256xf32> loc(#loc24)
      %1584 = vector.fma %1558, %1580, %1568 : vector<256xf32> loc(#loc24)
      %1585 = memref.load %34[%53, %1576] : memref<?x?xf32, strided<[?, 1]>> loc(#loc24)
      %1586 = vector.broadcast %1585 : f32 to vector<256xf32> loc(#loc24)
      %1587 = vector.fma %1558, %1583, %1571 : vector<256xf32> loc(#loc24)
      %1588 = vector.fma %1558, %1586, %1572 : vector<256xf32> loc(#loc24)
      %1589 = arith.addi %37#0, %c97 : index loc(#loc24)
      %1590 = vector.load %36[%1589, %37#1] : memref<?x?xf32, strided<[?, 1]>>, vector<256xf32> loc(#loc24)
      %1591 = arith.addi %37#0, %c224 : index loc(#loc24)
      memref.prefetch %36[%1591, %37#1], read, locality<1>, data : memref<?x?xf32, strided<[?, 1]>> loc(#loc24)
      %1592 = arith.addi %35#1, %c96 : index loc(#loc24)
      %1593 = memref.load %34[%35#0, %1592] : memref<?x?xf32, strided<[?, 1]>> loc(#loc24)
      %1594 = vector.broadcast %1593 : f32 to vector<256xf32> loc(#loc24)
      %1595 = memref.load %34[%45, %1592] : memref<?x?xf32, strided<[?, 1]>> loc(#loc24)
      %1596 = vector.broadcast %1595 : f32 to vector<256xf32> loc(#loc24)
      %1597 = arith.addi %35#1, %c224 : index loc(#loc24)
      memref.prefetch %34[%35#0, %1597], read, locality<3>, data : memref<?x?xf32, strided<[?, 1]>> loc(#loc24)
      %1598 = vector.fma %1574, %1594, %1581 : vector<256xf32> loc(#loc24)
      %1599 = memref.load %34[%49, %1592] : memref<?x?xf32, strided<[?, 1]>> loc(#loc24)
      %1600 = vector.broadcast %1599 : f32 to vector<256xf32> loc(#loc24)
      memref.prefetch %34[%45, %1597], read, locality<3>, data : memref<?x?xf32, strided<[?, 1]>> loc(#loc24)
      %1601 = vector.fma %1574, %1596, %1584 : vector<256xf32> loc(#loc24)
      %1602 = memref.load %34[%53, %1592] : memref<?x?xf32, strided<[?, 1]>> loc(#loc24)
      %1603 = vector.broadcast %1602 : f32 to vector<256xf32> loc(#loc24)
      memref.prefetch %34[%49, %1597], read, locality<3>, data : memref<?x?xf32, strided<[?, 1]>> loc(#loc24)
      %1604 = vector.fma %1574, %1600, %1587 : vector<256xf32> loc(#loc24)
      memref.prefetch %34[%53, %1597], read, locality<3>, data : memref<?x?xf32, strided<[?, 1]>> loc(#loc24)
      %1605 = vector.fma %1574, %1603, %1588 : vector<256xf32> loc(#loc24)
      %1606 = arith.addi %37#0, %c98 : index loc(#loc24)
      %1607 = vector.load %36[%1606, %37#1] : memref<?x?xf32, strided<[?, 1]>>, vector<256xf32> loc(#loc24)
      %1608 = arith.addi %37#0, %c225 : index loc(#loc24)
      memref.prefetch %36[%1608, %37#1], read, locality<1>, data : memref<?x?xf32, strided<[?, 1]>> loc(#loc24)
      %1609 = arith.addi %35#1, %c97 : index loc(#loc24)
      %1610 = memref.load %34[%35#0, %1609] : memref<?x?xf32, strided<[?, 1]>> loc(#loc24)
      %1611 = vector.broadcast %1610 : f32 to vector<256xf32> loc(#loc24)
      %1612 = memref.load %34[%45, %1609] : memref<?x?xf32, strided<[?, 1]>> loc(#loc24)
      %1613 = vector.broadcast %1612 : f32 to vector<256xf32> loc(#loc24)
      %1614 = vector.fma %1590, %1611, %1598 : vector<256xf32> loc(#loc24)
      %1615 = memref.load %34[%49, %1609] : memref<?x?xf32, strided<[?, 1]>> loc(#loc24)
      %1616 = vector.broadcast %1615 : f32 to vector<256xf32> loc(#loc24)
      %1617 = vector.fma %1590, %1613, %1601 : vector<256xf32> loc(#loc24)
      %1618 = memref.load %34[%53, %1609] : memref<?x?xf32, strided<[?, 1]>> loc(#loc24)
      %1619 = vector.broadcast %1618 : f32 to vector<256xf32> loc(#loc24)
      %1620 = vector.fma %1590, %1616, %1604 : vector<256xf32> loc(#loc24)
      %1621 = vector.fma %1590, %1619, %1605 : vector<256xf32> loc(#loc24)
      %1622 = arith.addi %37#0, %c99 : index loc(#loc24)
      %1623 = vector.load %36[%1622, %37#1] : memref<?x?xf32, strided<[?, 1]>>, vector<256xf32> loc(#loc24)
      %1624 = arith.addi %37#0, %c226 : index loc(#loc24)
      memref.prefetch %36[%1624, %37#1], read, locality<1>, data : memref<?x?xf32, strided<[?, 1]>> loc(#loc24)
      %1625 = arith.addi %35#1, %c98 : index loc(#loc24)
      %1626 = memref.load %34[%35#0, %1625] : memref<?x?xf32, strided<[?, 1]>> loc(#loc24)
      %1627 = vector.broadcast %1626 : f32 to vector<256xf32> loc(#loc24)
      %1628 = memref.load %34[%45, %1625] : memref<?x?xf32, strided<[?, 1]>> loc(#loc24)
      %1629 = vector.broadcast %1628 : f32 to vector<256xf32> loc(#loc24)
      %1630 = vector.fma %1607, %1627, %1614 : vector<256xf32> loc(#loc24)
      %1631 = memref.load %34[%49, %1625] : memref<?x?xf32, strided<[?, 1]>> loc(#loc24)
      %1632 = vector.broadcast %1631 : f32 to vector<256xf32> loc(#loc24)
      %1633 = vector.fma %1607, %1629, %1617 : vector<256xf32> loc(#loc24)
      %1634 = memref.load %34[%53, %1625] : memref<?x?xf32, strided<[?, 1]>> loc(#loc24)
      %1635 = vector.broadcast %1634 : f32 to vector<256xf32> loc(#loc24)
      %1636 = vector.fma %1607, %1632, %1620 : vector<256xf32> loc(#loc24)
      %1637 = vector.fma %1607, %1635, %1621 : vector<256xf32> loc(#loc24)
      %1638 = arith.addi %37#0, %c100 : index loc(#loc24)
      %1639 = vector.load %36[%1638, %37#1] : memref<?x?xf32, strided<[?, 1]>>, vector<256xf32> loc(#loc24)
      %1640 = arith.addi %37#0, %c227 : index loc(#loc24)
      memref.prefetch %36[%1640, %37#1], read, locality<1>, data : memref<?x?xf32, strided<[?, 1]>> loc(#loc24)
      %1641 = arith.addi %35#1, %c99 : index loc(#loc24)
      %1642 = memref.load %34[%35#0, %1641] : memref<?x?xf32, strided<[?, 1]>> loc(#loc24)
      %1643 = vector.broadcast %1642 : f32 to vector<256xf32> loc(#loc24)
      %1644 = memref.load %34[%45, %1641] : memref<?x?xf32, strided<[?, 1]>> loc(#loc24)
      %1645 = vector.broadcast %1644 : f32 to vector<256xf32> loc(#loc24)
      %1646 = vector.fma %1623, %1643, %1630 : vector<256xf32> loc(#loc24)
      %1647 = memref.load %34[%49, %1641] : memref<?x?xf32, strided<[?, 1]>> loc(#loc24)
      %1648 = vector.broadcast %1647 : f32 to vector<256xf32> loc(#loc24)
      %1649 = vector.fma %1623, %1645, %1633 : vector<256xf32> loc(#loc24)
      %1650 = memref.load %34[%53, %1641] : memref<?x?xf32, strided<[?, 1]>> loc(#loc24)
      %1651 = vector.broadcast %1650 : f32 to vector<256xf32> loc(#loc24)
      %1652 = vector.fma %1623, %1648, %1636 : vector<256xf32> loc(#loc24)
      %1653 = vector.fma %1623, %1651, %1637 : vector<256xf32> loc(#loc24)
      %1654 = arith.addi %37#0, %c101 : index loc(#loc24)
      %1655 = vector.load %36[%1654, %37#1] : memref<?x?xf32, strided<[?, 1]>>, vector<256xf32> loc(#loc24)
      %1656 = arith.addi %37#0, %c228 : index loc(#loc24)
      memref.prefetch %36[%1656, %37#1], read, locality<1>, data : memref<?x?xf32, strided<[?, 1]>> loc(#loc24)
      %1657 = arith.addi %35#1, %c100 : index loc(#loc24)
      %1658 = memref.load %34[%35#0, %1657] : memref<?x?xf32, strided<[?, 1]>> loc(#loc24)
      %1659 = vector.broadcast %1658 : f32 to vector<256xf32> loc(#loc24)
      %1660 = memref.load %34[%45, %1657] : memref<?x?xf32, strided<[?, 1]>> loc(#loc24)
      %1661 = vector.broadcast %1660 : f32 to vector<256xf32> loc(#loc24)
      %1662 = vector.fma %1639, %1659, %1646 : vector<256xf32> loc(#loc24)
      %1663 = memref.load %34[%49, %1657] : memref<?x?xf32, strided<[?, 1]>> loc(#loc24)
      %1664 = vector.broadcast %1663 : f32 to vector<256xf32> loc(#loc24)
      %1665 = vector.fma %1639, %1661, %1649 : vector<256xf32> loc(#loc24)
      %1666 = memref.load %34[%53, %1657] : memref<?x?xf32, strided<[?, 1]>> loc(#loc24)
      %1667 = vector.broadcast %1666 : f32 to vector<256xf32> loc(#loc24)
      %1668 = vector.fma %1639, %1664, %1652 : vector<256xf32> loc(#loc24)
      %1669 = vector.fma %1639, %1667, %1653 : vector<256xf32> loc(#loc24)
      %1670 = arith.addi %37#0, %c102 : index loc(#loc24)
      %1671 = vector.load %36[%1670, %37#1] : memref<?x?xf32, strided<[?, 1]>>, vector<256xf32> loc(#loc24)
      %1672 = arith.addi %37#0, %c229 : index loc(#loc24)
      memref.prefetch %36[%1672, %37#1], read, locality<1>, data : memref<?x?xf32, strided<[?, 1]>> loc(#loc24)
      %1673 = arith.addi %35#1, %c101 : index loc(#loc24)
      %1674 = memref.load %34[%35#0, %1673] : memref<?x?xf32, strided<[?, 1]>> loc(#loc24)
      %1675 = vector.broadcast %1674 : f32 to vector<256xf32> loc(#loc24)
      %1676 = memref.load %34[%45, %1673] : memref<?x?xf32, strided<[?, 1]>> loc(#loc24)
      %1677 = vector.broadcast %1676 : f32 to vector<256xf32> loc(#loc24)
      %1678 = vector.fma %1655, %1675, %1662 : vector<256xf32> loc(#loc24)
      %1679 = memref.load %34[%49, %1673] : memref<?x?xf32, strided<[?, 1]>> loc(#loc24)
      %1680 = vector.broadcast %1679 : f32 to vector<256xf32> loc(#loc24)
      %1681 = vector.fma %1655, %1677, %1665 : vector<256xf32> loc(#loc24)
      %1682 = memref.load %34[%53, %1673] : memref<?x?xf32, strided<[?, 1]>> loc(#loc24)
      %1683 = vector.broadcast %1682 : f32 to vector<256xf32> loc(#loc24)
      %1684 = vector.fma %1655, %1680, %1668 : vector<256xf32> loc(#loc24)
      %1685 = vector.fma %1655, %1683, %1669 : vector<256xf32> loc(#loc24)
      %1686 = arith.addi %37#0, %c103 : index loc(#loc24)
      %1687 = vector.load %36[%1686, %37#1] : memref<?x?xf32, strided<[?, 1]>>, vector<256xf32> loc(#loc24)
      %1688 = arith.addi %37#0, %c230 : index loc(#loc24)
      memref.prefetch %36[%1688, %37#1], read, locality<1>, data : memref<?x?xf32, strided<[?, 1]>> loc(#loc24)
      %1689 = arith.addi %35#1, %c102 : index loc(#loc24)
      %1690 = memref.load %34[%35#0, %1689] : memref<?x?xf32, strided<[?, 1]>> loc(#loc24)
      %1691 = vector.broadcast %1690 : f32 to vector<256xf32> loc(#loc24)
      %1692 = memref.load %34[%45, %1689] : memref<?x?xf32, strided<[?, 1]>> loc(#loc24)
      %1693 = vector.broadcast %1692 : f32 to vector<256xf32> loc(#loc24)
      %1694 = vector.fma %1671, %1691, %1678 : vector<256xf32> loc(#loc24)
      %1695 = memref.load %34[%49, %1689] : memref<?x?xf32, strided<[?, 1]>> loc(#loc24)
      %1696 = vector.broadcast %1695 : f32 to vector<256xf32> loc(#loc24)
      %1697 = vector.fma %1671, %1693, %1681 : vector<256xf32> loc(#loc24)
      %1698 = memref.load %34[%53, %1689] : memref<?x?xf32, strided<[?, 1]>> loc(#loc24)
      %1699 = vector.broadcast %1698 : f32 to vector<256xf32> loc(#loc24)
      %1700 = vector.fma %1671, %1696, %1684 : vector<256xf32> loc(#loc24)
      %1701 = vector.fma %1671, %1699, %1685 : vector<256xf32> loc(#loc24)
      %1702 = arith.addi %37#0, %c104 : index loc(#loc24)
      %1703 = vector.load %36[%1702, %37#1] : memref<?x?xf32, strided<[?, 1]>>, vector<256xf32> loc(#loc24)
      %1704 = arith.addi %37#0, %c231 : index loc(#loc24)
      memref.prefetch %36[%1704, %37#1], read, locality<1>, data : memref<?x?xf32, strided<[?, 1]>> loc(#loc24)
      %1705 = arith.addi %35#1, %c103 : index loc(#loc24)
      %1706 = memref.load %34[%35#0, %1705] : memref<?x?xf32, strided<[?, 1]>> loc(#loc24)
      %1707 = vector.broadcast %1706 : f32 to vector<256xf32> loc(#loc24)
      %1708 = memref.load %34[%45, %1705] : memref<?x?xf32, strided<[?, 1]>> loc(#loc24)
      %1709 = vector.broadcast %1708 : f32 to vector<256xf32> loc(#loc24)
      %1710 = vector.fma %1687, %1707, %1694 : vector<256xf32> loc(#loc24)
      %1711 = memref.load %34[%49, %1705] : memref<?x?xf32, strided<[?, 1]>> loc(#loc24)
      %1712 = vector.broadcast %1711 : f32 to vector<256xf32> loc(#loc24)
      %1713 = vector.fma %1687, %1709, %1697 : vector<256xf32> loc(#loc24)
      %1714 = memref.load %34[%53, %1705] : memref<?x?xf32, strided<[?, 1]>> loc(#loc24)
      %1715 = vector.broadcast %1714 : f32 to vector<256xf32> loc(#loc24)
      %1716 = vector.fma %1687, %1712, %1700 : vector<256xf32> loc(#loc24)
      %1717 = vector.fma %1687, %1715, %1701 : vector<256xf32> loc(#loc24)
      %1718 = arith.addi %37#0, %c105 : index loc(#loc24)
      %1719 = vector.load %36[%1718, %37#1] : memref<?x?xf32, strided<[?, 1]>>, vector<256xf32> loc(#loc24)
      %1720 = arith.addi %37#0, %c232 : index loc(#loc24)
      memref.prefetch %36[%1720, %37#1], read, locality<1>, data : memref<?x?xf32, strided<[?, 1]>> loc(#loc24)
      %1721 = arith.addi %35#1, %c104 : index loc(#loc24)
      %1722 = memref.load %34[%35#0, %1721] : memref<?x?xf32, strided<[?, 1]>> loc(#loc24)
      %1723 = vector.broadcast %1722 : f32 to vector<256xf32> loc(#loc24)
      %1724 = memref.load %34[%45, %1721] : memref<?x?xf32, strided<[?, 1]>> loc(#loc24)
      %1725 = vector.broadcast %1724 : f32 to vector<256xf32> loc(#loc24)
      %1726 = arith.addi %35#1, %c232 : index loc(#loc24)
      memref.prefetch %34[%35#0, %1726], read, locality<3>, data : memref<?x?xf32, strided<[?, 1]>> loc(#loc24)
      %1727 = vector.fma %1703, %1723, %1710 : vector<256xf32> loc(#loc24)
      %1728 = memref.load %34[%49, %1721] : memref<?x?xf32, strided<[?, 1]>> loc(#loc24)
      %1729 = vector.broadcast %1728 : f32 to vector<256xf32> loc(#loc24)
      memref.prefetch %34[%45, %1726], read, locality<3>, data : memref<?x?xf32, strided<[?, 1]>> loc(#loc24)
      %1730 = vector.fma %1703, %1725, %1713 : vector<256xf32> loc(#loc24)
      %1731 = memref.load %34[%53, %1721] : memref<?x?xf32, strided<[?, 1]>> loc(#loc24)
      %1732 = vector.broadcast %1731 : f32 to vector<256xf32> loc(#loc24)
      memref.prefetch %34[%49, %1726], read, locality<3>, data : memref<?x?xf32, strided<[?, 1]>> loc(#loc24)
      %1733 = vector.fma %1703, %1729, %1716 : vector<256xf32> loc(#loc24)
      memref.prefetch %34[%53, %1726], read, locality<3>, data : memref<?x?xf32, strided<[?, 1]>> loc(#loc24)
      %1734 = vector.fma %1703, %1732, %1717 : vector<256xf32> loc(#loc24)
      %1735 = arith.addi %37#0, %c106 : index loc(#loc24)
      %1736 = vector.load %36[%1735, %37#1] : memref<?x?xf32, strided<[?, 1]>>, vector<256xf32> loc(#loc24)
      %1737 = arith.addi %37#0, %c233 : index loc(#loc24)
      memref.prefetch %36[%1737, %37#1], read, locality<1>, data : memref<?x?xf32, strided<[?, 1]>> loc(#loc24)
      %1738 = arith.addi %35#1, %c105 : index loc(#loc24)
      %1739 = memref.load %34[%35#0, %1738] : memref<?x?xf32, strided<[?, 1]>> loc(#loc24)
      %1740 = vector.broadcast %1739 : f32 to vector<256xf32> loc(#loc24)
      %1741 = memref.load %34[%45, %1738] : memref<?x?xf32, strided<[?, 1]>> loc(#loc24)
      %1742 = vector.broadcast %1741 : f32 to vector<256xf32> loc(#loc24)
      %1743 = vector.fma %1719, %1740, %1727 : vector<256xf32> loc(#loc24)
      %1744 = memref.load %34[%49, %1738] : memref<?x?xf32, strided<[?, 1]>> loc(#loc24)
      %1745 = vector.broadcast %1744 : f32 to vector<256xf32> loc(#loc24)
      %1746 = vector.fma %1719, %1742, %1730 : vector<256xf32> loc(#loc24)
      %1747 = memref.load %34[%53, %1738] : memref<?x?xf32, strided<[?, 1]>> loc(#loc24)
      %1748 = vector.broadcast %1747 : f32 to vector<256xf32> loc(#loc24)
      %1749 = vector.fma %1719, %1745, %1733 : vector<256xf32> loc(#loc24)
      %1750 = vector.fma %1719, %1748, %1734 : vector<256xf32> loc(#loc24)
      %1751 = arith.addi %37#0, %c107 : index loc(#loc24)
      %1752 = vector.load %36[%1751, %37#1] : memref<?x?xf32, strided<[?, 1]>>, vector<256xf32> loc(#loc24)
      %1753 = arith.addi %37#0, %c234 : index loc(#loc24)
      memref.prefetch %36[%1753, %37#1], read, locality<1>, data : memref<?x?xf32, strided<[?, 1]>> loc(#loc24)
      %1754 = arith.addi %35#1, %c106 : index loc(#loc24)
      %1755 = memref.load %34[%35#0, %1754] : memref<?x?xf32, strided<[?, 1]>> loc(#loc24)
      %1756 = vector.broadcast %1755 : f32 to vector<256xf32> loc(#loc24)
      %1757 = memref.load %34[%45, %1754] : memref<?x?xf32, strided<[?, 1]>> loc(#loc24)
      %1758 = vector.broadcast %1757 : f32 to vector<256xf32> loc(#loc24)
      %1759 = vector.fma %1736, %1756, %1743 : vector<256xf32> loc(#loc24)
      %1760 = memref.load %34[%49, %1754] : memref<?x?xf32, strided<[?, 1]>> loc(#loc24)
      %1761 = vector.broadcast %1760 : f32 to vector<256xf32> loc(#loc24)
      %1762 = vector.fma %1736, %1758, %1746 : vector<256xf32> loc(#loc24)
      %1763 = memref.load %34[%53, %1754] : memref<?x?xf32, strided<[?, 1]>> loc(#loc24)
      %1764 = vector.broadcast %1763 : f32 to vector<256xf32> loc(#loc24)
      %1765 = vector.fma %1736, %1761, %1749 : vector<256xf32> loc(#loc24)
      %1766 = vector.fma %1736, %1764, %1750 : vector<256xf32> loc(#loc24)
      %1767 = arith.addi %37#0, %c108 : index loc(#loc24)
      %1768 = vector.load %36[%1767, %37#1] : memref<?x?xf32, strided<[?, 1]>>, vector<256xf32> loc(#loc24)
      %1769 = arith.addi %37#0, %c235 : index loc(#loc24)
      memref.prefetch %36[%1769, %37#1], read, locality<1>, data : memref<?x?xf32, strided<[?, 1]>> loc(#loc24)
      %1770 = arith.addi %35#1, %c107 : index loc(#loc24)
      %1771 = memref.load %34[%35#0, %1770] : memref<?x?xf32, strided<[?, 1]>> loc(#loc24)
      %1772 = vector.broadcast %1771 : f32 to vector<256xf32> loc(#loc24)
      %1773 = memref.load %34[%45, %1770] : memref<?x?xf32, strided<[?, 1]>> loc(#loc24)
      %1774 = vector.broadcast %1773 : f32 to vector<256xf32> loc(#loc24)
      %1775 = vector.fma %1752, %1772, %1759 : vector<256xf32> loc(#loc24)
      %1776 = memref.load %34[%49, %1770] : memref<?x?xf32, strided<[?, 1]>> loc(#loc24)
      %1777 = vector.broadcast %1776 : f32 to vector<256xf32> loc(#loc24)
      %1778 = vector.fma %1752, %1774, %1762 : vector<256xf32> loc(#loc24)
      %1779 = memref.load %34[%53, %1770] : memref<?x?xf32, strided<[?, 1]>> loc(#loc24)
      %1780 = vector.broadcast %1779 : f32 to vector<256xf32> loc(#loc24)
      %1781 = vector.fma %1752, %1777, %1765 : vector<256xf32> loc(#loc24)
      %1782 = vector.fma %1752, %1780, %1766 : vector<256xf32> loc(#loc24)
      %1783 = arith.addi %37#0, %c109 : index loc(#loc24)
      %1784 = vector.load %36[%1783, %37#1] : memref<?x?xf32, strided<[?, 1]>>, vector<256xf32> loc(#loc24)
      %1785 = arith.addi %37#0, %c236 : index loc(#loc24)
      memref.prefetch %36[%1785, %37#1], read, locality<1>, data : memref<?x?xf32, strided<[?, 1]>> loc(#loc24)
      %1786 = arith.addi %35#1, %c108 : index loc(#loc24)
      %1787 = memref.load %34[%35#0, %1786] : memref<?x?xf32, strided<[?, 1]>> loc(#loc24)
      %1788 = vector.broadcast %1787 : f32 to vector<256xf32> loc(#loc24)
      %1789 = memref.load %34[%45, %1786] : memref<?x?xf32, strided<[?, 1]>> loc(#loc24)
      %1790 = vector.broadcast %1789 : f32 to vector<256xf32> loc(#loc24)
      %1791 = vector.fma %1768, %1788, %1775 : vector<256xf32> loc(#loc24)
      %1792 = memref.load %34[%49, %1786] : memref<?x?xf32, strided<[?, 1]>> loc(#loc24)
      %1793 = vector.broadcast %1792 : f32 to vector<256xf32> loc(#loc24)
      %1794 = vector.fma %1768, %1790, %1778 : vector<256xf32> loc(#loc24)
      %1795 = memref.load %34[%53, %1786] : memref<?x?xf32, strided<[?, 1]>> loc(#loc24)
      %1796 = vector.broadcast %1795 : f32 to vector<256xf32> loc(#loc24)
      %1797 = vector.fma %1768, %1793, %1781 : vector<256xf32> loc(#loc24)
      %1798 = vector.fma %1768, %1796, %1782 : vector<256xf32> loc(#loc24)
      %1799 = arith.addi %37#0, %c110 : index loc(#loc24)
      %1800 = vector.load %36[%1799, %37#1] : memref<?x?xf32, strided<[?, 1]>>, vector<256xf32> loc(#loc24)
      %1801 = arith.addi %37#0, %c237 : index loc(#loc24)
      memref.prefetch %36[%1801, %37#1], read, locality<1>, data : memref<?x?xf32, strided<[?, 1]>> loc(#loc24)
      %1802 = arith.addi %35#1, %c109 : index loc(#loc24)
      %1803 = memref.load %34[%35#0, %1802] : memref<?x?xf32, strided<[?, 1]>> loc(#loc24)
      %1804 = vector.broadcast %1803 : f32 to vector<256xf32> loc(#loc24)
      %1805 = memref.load %34[%45, %1802] : memref<?x?xf32, strided<[?, 1]>> loc(#loc24)
      %1806 = vector.broadcast %1805 : f32 to vector<256xf32> loc(#loc24)
      %1807 = vector.fma %1784, %1804, %1791 : vector<256xf32> loc(#loc24)
      %1808 = memref.load %34[%49, %1802] : memref<?x?xf32, strided<[?, 1]>> loc(#loc24)
      %1809 = vector.broadcast %1808 : f32 to vector<256xf32> loc(#loc24)
      %1810 = vector.fma %1784, %1806, %1794 : vector<256xf32> loc(#loc24)
      %1811 = memref.load %34[%53, %1802] : memref<?x?xf32, strided<[?, 1]>> loc(#loc24)
      %1812 = vector.broadcast %1811 : f32 to vector<256xf32> loc(#loc24)
      %1813 = vector.fma %1784, %1809, %1797 : vector<256xf32> loc(#loc24)
      %1814 = vector.fma %1784, %1812, %1798 : vector<256xf32> loc(#loc24)
      %1815 = arith.addi %37#0, %c111 : index loc(#loc24)
      %1816 = vector.load %36[%1815, %37#1] : memref<?x?xf32, strided<[?, 1]>>, vector<256xf32> loc(#loc24)
      %1817 = arith.addi %37#0, %c238 : index loc(#loc24)
      memref.prefetch %36[%1817, %37#1], read, locality<1>, data : memref<?x?xf32, strided<[?, 1]>> loc(#loc24)
      %1818 = arith.addi %35#1, %c110 : index loc(#loc24)
      %1819 = memref.load %34[%35#0, %1818] : memref<?x?xf32, strided<[?, 1]>> loc(#loc24)
      %1820 = vector.broadcast %1819 : f32 to vector<256xf32> loc(#loc24)
      %1821 = memref.load %34[%45, %1818] : memref<?x?xf32, strided<[?, 1]>> loc(#loc24)
      %1822 = vector.broadcast %1821 : f32 to vector<256xf32> loc(#loc24)
      %1823 = vector.fma %1800, %1820, %1807 : vector<256xf32> loc(#loc24)
      %1824 = memref.load %34[%49, %1818] : memref<?x?xf32, strided<[?, 1]>> loc(#loc24)
      %1825 = vector.broadcast %1824 : f32 to vector<256xf32> loc(#loc24)
      %1826 = vector.fma %1800, %1822, %1810 : vector<256xf32> loc(#loc24)
      %1827 = memref.load %34[%53, %1818] : memref<?x?xf32, strided<[?, 1]>> loc(#loc24)
      %1828 = vector.broadcast %1827 : f32 to vector<256xf32> loc(#loc24)
      %1829 = vector.fma %1800, %1825, %1813 : vector<256xf32> loc(#loc24)
      %1830 = vector.fma %1800, %1828, %1814 : vector<256xf32> loc(#loc24)
      %1831 = arith.addi %37#0, %c112 : index loc(#loc24)
      %1832 = vector.load %36[%1831, %37#1] : memref<?x?xf32, strided<[?, 1]>>, vector<256xf32> loc(#loc24)
      %1833 = arith.addi %37#0, %c239 : index loc(#loc24)
      memref.prefetch %36[%1833, %37#1], read, locality<1>, data : memref<?x?xf32, strided<[?, 1]>> loc(#loc24)
      %1834 = arith.addi %35#1, %c111 : index loc(#loc24)
      %1835 = memref.load %34[%35#0, %1834] : memref<?x?xf32, strided<[?, 1]>> loc(#loc24)
      %1836 = vector.broadcast %1835 : f32 to vector<256xf32> loc(#loc24)
      %1837 = memref.load %34[%45, %1834] : memref<?x?xf32, strided<[?, 1]>> loc(#loc24)
      %1838 = vector.broadcast %1837 : f32 to vector<256xf32> loc(#loc24)
      %1839 = vector.fma %1816, %1836, %1823 : vector<256xf32> loc(#loc24)
      %1840 = memref.load %34[%49, %1834] : memref<?x?xf32, strided<[?, 1]>> loc(#loc24)
      %1841 = vector.broadcast %1840 : f32 to vector<256xf32> loc(#loc24)
      %1842 = vector.fma %1816, %1838, %1826 : vector<256xf32> loc(#loc24)
      %1843 = memref.load %34[%53, %1834] : memref<?x?xf32, strided<[?, 1]>> loc(#loc24)
      %1844 = vector.broadcast %1843 : f32 to vector<256xf32> loc(#loc24)
      %1845 = vector.fma %1816, %1841, %1829 : vector<256xf32> loc(#loc24)
      %1846 = vector.fma %1816, %1844, %1830 : vector<256xf32> loc(#loc24)
      %1847 = arith.addi %37#0, %c113 : index loc(#loc24)
      %1848 = vector.load %36[%1847, %37#1] : memref<?x?xf32, strided<[?, 1]>>, vector<256xf32> loc(#loc24)
      %1849 = arith.addi %37#0, %c240 : index loc(#loc24)
      memref.prefetch %36[%1849, %37#1], read, locality<1>, data : memref<?x?xf32, strided<[?, 1]>> loc(#loc24)
      %1850 = arith.addi %35#1, %c112 : index loc(#loc24)
      %1851 = memref.load %34[%35#0, %1850] : memref<?x?xf32, strided<[?, 1]>> loc(#loc24)
      %1852 = vector.broadcast %1851 : f32 to vector<256xf32> loc(#loc24)
      %1853 = memref.load %34[%45, %1850] : memref<?x?xf32, strided<[?, 1]>> loc(#loc24)
      %1854 = vector.broadcast %1853 : f32 to vector<256xf32> loc(#loc24)
      %1855 = arith.addi %35#1, %c240 : index loc(#loc24)
      memref.prefetch %34[%35#0, %1855], read, locality<3>, data : memref<?x?xf32, strided<[?, 1]>> loc(#loc24)
      %1856 = vector.fma %1832, %1852, %1839 : vector<256xf32> loc(#loc24)
      %1857 = memref.load %34[%49, %1850] : memref<?x?xf32, strided<[?, 1]>> loc(#loc24)
      %1858 = vector.broadcast %1857 : f32 to vector<256xf32> loc(#loc24)
      memref.prefetch %34[%45, %1855], read, locality<3>, data : memref<?x?xf32, strided<[?, 1]>> loc(#loc24)
      %1859 = vector.fma %1832, %1854, %1842 : vector<256xf32> loc(#loc24)
      %1860 = memref.load %34[%53, %1850] : memref<?x?xf32, strided<[?, 1]>> loc(#loc24)
      %1861 = vector.broadcast %1860 : f32 to vector<256xf32> loc(#loc24)
      memref.prefetch %34[%49, %1855], read, locality<3>, data : memref<?x?xf32, strided<[?, 1]>> loc(#loc24)
      %1862 = vector.fma %1832, %1858, %1845 : vector<256xf32> loc(#loc24)
      memref.prefetch %34[%53, %1855], read, locality<3>, data : memref<?x?xf32, strided<[?, 1]>> loc(#loc24)
      %1863 = vector.fma %1832, %1861, %1846 : vector<256xf32> loc(#loc24)
      %1864 = arith.addi %37#0, %c114 : index loc(#loc24)
      %1865 = vector.load %36[%1864, %37#1] : memref<?x?xf32, strided<[?, 1]>>, vector<256xf32> loc(#loc24)
      %1866 = arith.addi %37#0, %c241 : index loc(#loc24)
      memref.prefetch %36[%1866, %37#1], read, locality<1>, data : memref<?x?xf32, strided<[?, 1]>> loc(#loc24)
      %1867 = arith.addi %35#1, %c113 : index loc(#loc24)
      %1868 = memref.load %34[%35#0, %1867] : memref<?x?xf32, strided<[?, 1]>> loc(#loc24)
      %1869 = vector.broadcast %1868 : f32 to vector<256xf32> loc(#loc24)
      %1870 = memref.load %34[%45, %1867] : memref<?x?xf32, strided<[?, 1]>> loc(#loc24)
      %1871 = vector.broadcast %1870 : f32 to vector<256xf32> loc(#loc24)
      %1872 = vector.fma %1848, %1869, %1856 : vector<256xf32> loc(#loc24)
      %1873 = memref.load %34[%49, %1867] : memref<?x?xf32, strided<[?, 1]>> loc(#loc24)
      %1874 = vector.broadcast %1873 : f32 to vector<256xf32> loc(#loc24)
      %1875 = vector.fma %1848, %1871, %1859 : vector<256xf32> loc(#loc24)
      %1876 = memref.load %34[%53, %1867] : memref<?x?xf32, strided<[?, 1]>> loc(#loc24)
      %1877 = vector.broadcast %1876 : f32 to vector<256xf32> loc(#loc24)
      %1878 = vector.fma %1848, %1874, %1862 : vector<256xf32> loc(#loc24)
      %1879 = vector.fma %1848, %1877, %1863 : vector<256xf32> loc(#loc24)
      %1880 = arith.addi %37#0, %c115 : index loc(#loc24)
      %1881 = vector.load %36[%1880, %37#1] : memref<?x?xf32, strided<[?, 1]>>, vector<256xf32> loc(#loc24)
      %1882 = arith.addi %37#0, %c242 : index loc(#loc24)
      memref.prefetch %36[%1882, %37#1], read, locality<1>, data : memref<?x?xf32, strided<[?, 1]>> loc(#loc24)
      %1883 = arith.addi %35#1, %c114 : index loc(#loc24)
      %1884 = memref.load %34[%35#0, %1883] : memref<?x?xf32, strided<[?, 1]>> loc(#loc24)
      %1885 = vector.broadcast %1884 : f32 to vector<256xf32> loc(#loc24)
      %1886 = memref.load %34[%45, %1883] : memref<?x?xf32, strided<[?, 1]>> loc(#loc24)
      %1887 = vector.broadcast %1886 : f32 to vector<256xf32> loc(#loc24)
      %1888 = vector.fma %1865, %1885, %1872 : vector<256xf32> loc(#loc24)
      %1889 = memref.load %34[%49, %1883] : memref<?x?xf32, strided<[?, 1]>> loc(#loc24)
      %1890 = vector.broadcast %1889 : f32 to vector<256xf32> loc(#loc24)
      %1891 = vector.fma %1865, %1887, %1875 : vector<256xf32> loc(#loc24)
      %1892 = memref.load %34[%53, %1883] : memref<?x?xf32, strided<[?, 1]>> loc(#loc24)
      %1893 = vector.broadcast %1892 : f32 to vector<256xf32> loc(#loc24)
      %1894 = vector.fma %1865, %1890, %1878 : vector<256xf32> loc(#loc24)
      %1895 = vector.fma %1865, %1893, %1879 : vector<256xf32> loc(#loc24)
      %1896 = arith.addi %37#0, %c116 : index loc(#loc24)
      %1897 = vector.load %36[%1896, %37#1] : memref<?x?xf32, strided<[?, 1]>>, vector<256xf32> loc(#loc24)
      %1898 = arith.addi %37#0, %c243 : index loc(#loc24)
      memref.prefetch %36[%1898, %37#1], read, locality<1>, data : memref<?x?xf32, strided<[?, 1]>> loc(#loc24)
      %1899 = arith.addi %35#1, %c115 : index loc(#loc24)
      %1900 = memref.load %34[%35#0, %1899] : memref<?x?xf32, strided<[?, 1]>> loc(#loc24)
      %1901 = vector.broadcast %1900 : f32 to vector<256xf32> loc(#loc24)
      %1902 = memref.load %34[%45, %1899] : memref<?x?xf32, strided<[?, 1]>> loc(#loc24)
      %1903 = vector.broadcast %1902 : f32 to vector<256xf32> loc(#loc24)
      %1904 = vector.fma %1881, %1901, %1888 : vector<256xf32> loc(#loc24)
      %1905 = memref.load %34[%49, %1899] : memref<?x?xf32, strided<[?, 1]>> loc(#loc24)
      %1906 = vector.broadcast %1905 : f32 to vector<256xf32> loc(#loc24)
      %1907 = vector.fma %1881, %1903, %1891 : vector<256xf32> loc(#loc24)
      %1908 = memref.load %34[%53, %1899] : memref<?x?xf32, strided<[?, 1]>> loc(#loc24)
      %1909 = vector.broadcast %1908 : f32 to vector<256xf32> loc(#loc24)
      %1910 = vector.fma %1881, %1906, %1894 : vector<256xf32> loc(#loc24)
      %1911 = vector.fma %1881, %1909, %1895 : vector<256xf32> loc(#loc24)
      %1912 = arith.addi %37#0, %c117 : index loc(#loc24)
      %1913 = vector.load %36[%1912, %37#1] : memref<?x?xf32, strided<[?, 1]>>, vector<256xf32> loc(#loc24)
      %1914 = arith.addi %37#0, %c244 : index loc(#loc24)
      memref.prefetch %36[%1914, %37#1], read, locality<1>, data : memref<?x?xf32, strided<[?, 1]>> loc(#loc24)
      %1915 = arith.addi %35#1, %c116 : index loc(#loc24)
      %1916 = memref.load %34[%35#0, %1915] : memref<?x?xf32, strided<[?, 1]>> loc(#loc24)
      %1917 = vector.broadcast %1916 : f32 to vector<256xf32> loc(#loc24)
      %1918 = memref.load %34[%45, %1915] : memref<?x?xf32, strided<[?, 1]>> loc(#loc24)
      %1919 = vector.broadcast %1918 : f32 to vector<256xf32> loc(#loc24)
      %1920 = vector.fma %1897, %1917, %1904 : vector<256xf32> loc(#loc24)
      %1921 = memref.load %34[%49, %1915] : memref<?x?xf32, strided<[?, 1]>> loc(#loc24)
      %1922 = vector.broadcast %1921 : f32 to vector<256xf32> loc(#loc24)
      %1923 = vector.fma %1897, %1919, %1907 : vector<256xf32> loc(#loc24)
      %1924 = memref.load %34[%53, %1915] : memref<?x?xf32, strided<[?, 1]>> loc(#loc24)
      %1925 = vector.broadcast %1924 : f32 to vector<256xf32> loc(#loc24)
      %1926 = vector.fma %1897, %1922, %1910 : vector<256xf32> loc(#loc24)
      %1927 = vector.fma %1897, %1925, %1911 : vector<256xf32> loc(#loc24)
      %1928 = arith.addi %37#0, %c118 : index loc(#loc24)
      %1929 = vector.load %36[%1928, %37#1] : memref<?x?xf32, strided<[?, 1]>>, vector<256xf32> loc(#loc24)
      %1930 = arith.addi %37#0, %c245 : index loc(#loc24)
      memref.prefetch %36[%1930, %37#1], read, locality<1>, data : memref<?x?xf32, strided<[?, 1]>> loc(#loc24)
      %1931 = arith.addi %35#1, %c117 : index loc(#loc24)
      %1932 = memref.load %34[%35#0, %1931] : memref<?x?xf32, strided<[?, 1]>> loc(#loc24)
      %1933 = vector.broadcast %1932 : f32 to vector<256xf32> loc(#loc24)
      %1934 = memref.load %34[%45, %1931] : memref<?x?xf32, strided<[?, 1]>> loc(#loc24)
      %1935 = vector.broadcast %1934 : f32 to vector<256xf32> loc(#loc24)
      %1936 = vector.fma %1913, %1933, %1920 : vector<256xf32> loc(#loc24)
      %1937 = memref.load %34[%49, %1931] : memref<?x?xf32, strided<[?, 1]>> loc(#loc24)
      %1938 = vector.broadcast %1937 : f32 to vector<256xf32> loc(#loc24)
      %1939 = vector.fma %1913, %1935, %1923 : vector<256xf32> loc(#loc24)
      %1940 = memref.load %34[%53, %1931] : memref<?x?xf32, strided<[?, 1]>> loc(#loc24)
      %1941 = vector.broadcast %1940 : f32 to vector<256xf32> loc(#loc24)
      %1942 = vector.fma %1913, %1938, %1926 : vector<256xf32> loc(#loc24)
      %1943 = vector.fma %1913, %1941, %1927 : vector<256xf32> loc(#loc24)
      %1944 = arith.addi %37#0, %c119 : index loc(#loc24)
      %1945 = vector.load %36[%1944, %37#1] : memref<?x?xf32, strided<[?, 1]>>, vector<256xf32> loc(#loc24)
      %1946 = arith.addi %37#0, %c246 : index loc(#loc24)
      memref.prefetch %36[%1946, %37#1], read, locality<1>, data : memref<?x?xf32, strided<[?, 1]>> loc(#loc24)
      %1947 = arith.addi %35#1, %c118 : index loc(#loc24)
      %1948 = memref.load %34[%35#0, %1947] : memref<?x?xf32, strided<[?, 1]>> loc(#loc24)
      %1949 = vector.broadcast %1948 : f32 to vector<256xf32> loc(#loc24)
      %1950 = memref.load %34[%45, %1947] : memref<?x?xf32, strided<[?, 1]>> loc(#loc24)
      %1951 = vector.broadcast %1950 : f32 to vector<256xf32> loc(#loc24)
      %1952 = vector.fma %1929, %1949, %1936 : vector<256xf32> loc(#loc24)
      %1953 = memref.load %34[%49, %1947] : memref<?x?xf32, strided<[?, 1]>> loc(#loc24)
      %1954 = vector.broadcast %1953 : f32 to vector<256xf32> loc(#loc24)
      %1955 = vector.fma %1929, %1951, %1939 : vector<256xf32> loc(#loc24)
      %1956 = memref.load %34[%53, %1947] : memref<?x?xf32, strided<[?, 1]>> loc(#loc24)
      %1957 = vector.broadcast %1956 : f32 to vector<256xf32> loc(#loc24)
      %1958 = vector.fma %1929, %1954, %1942 : vector<256xf32> loc(#loc24)
      %1959 = vector.fma %1929, %1957, %1943 : vector<256xf32> loc(#loc24)
      %1960 = arith.addi %37#0, %c120 : index loc(#loc24)
      %1961 = vector.load %36[%1960, %37#1] : memref<?x?xf32, strided<[?, 1]>>, vector<256xf32> loc(#loc24)
      %1962 = arith.addi %37#0, %c247 : index loc(#loc24)
      memref.prefetch %36[%1962, %37#1], read, locality<1>, data : memref<?x?xf32, strided<[?, 1]>> loc(#loc24)
      %1963 = arith.addi %35#1, %c119 : index loc(#loc24)
      %1964 = memref.load %34[%35#0, %1963] : memref<?x?xf32, strided<[?, 1]>> loc(#loc24)
      %1965 = vector.broadcast %1964 : f32 to vector<256xf32> loc(#loc24)
      %1966 = memref.load %34[%45, %1963] : memref<?x?xf32, strided<[?, 1]>> loc(#loc24)
      %1967 = vector.broadcast %1966 : f32 to vector<256xf32> loc(#loc24)
      %1968 = vector.fma %1945, %1965, %1952 : vector<256xf32> loc(#loc24)
      %1969 = memref.load %34[%49, %1963] : memref<?x?xf32, strided<[?, 1]>> loc(#loc24)
      %1970 = vector.broadcast %1969 : f32 to vector<256xf32> loc(#loc24)
      %1971 = vector.fma %1945, %1967, %1955 : vector<256xf32> loc(#loc24)
      %1972 = memref.load %34[%53, %1963] : memref<?x?xf32, strided<[?, 1]>> loc(#loc24)
      %1973 = vector.broadcast %1972 : f32 to vector<256xf32> loc(#loc24)
      %1974 = vector.fma %1945, %1970, %1958 : vector<256xf32> loc(#loc24)
      %1975 = vector.fma %1945, %1973, %1959 : vector<256xf32> loc(#loc24)
      %1976 = arith.addi %37#0, %c121 : index loc(#loc24)
      %1977 = vector.load %36[%1976, %37#1] : memref<?x?xf32, strided<[?, 1]>>, vector<256xf32> loc(#loc24)
      %1978 = arith.addi %37#0, %c248 : index loc(#loc24)
      memref.prefetch %36[%1978, %37#1], read, locality<1>, data : memref<?x?xf32, strided<[?, 1]>> loc(#loc24)
      %1979 = arith.addi %35#1, %c120 : index loc(#loc24)
      %1980 = memref.load %34[%35#0, %1979] : memref<?x?xf32, strided<[?, 1]>> loc(#loc24)
      %1981 = vector.broadcast %1980 : f32 to vector<256xf32> loc(#loc24)
      %1982 = memref.load %34[%45, %1979] : memref<?x?xf32, strided<[?, 1]>> loc(#loc24)
      %1983 = vector.broadcast %1982 : f32 to vector<256xf32> loc(#loc24)
      %1984 = arith.addi %35#1, %c248 : index loc(#loc24)
      memref.prefetch %34[%35#0, %1984], read, locality<3>, data : memref<?x?xf32, strided<[?, 1]>> loc(#loc24)
      %1985 = vector.fma %1961, %1981, %1968 : vector<256xf32> loc(#loc24)
      %1986 = memref.load %34[%49, %1979] : memref<?x?xf32, strided<[?, 1]>> loc(#loc24)
      %1987 = vector.broadcast %1986 : f32 to vector<256xf32> loc(#loc24)
      memref.prefetch %34[%45, %1984], read, locality<3>, data : memref<?x?xf32, strided<[?, 1]>> loc(#loc24)
      %1988 = vector.fma %1961, %1983, %1971 : vector<256xf32> loc(#loc24)
      %1989 = memref.load %34[%53, %1979] : memref<?x?xf32, strided<[?, 1]>> loc(#loc24)
      %1990 = vector.broadcast %1989 : f32 to vector<256xf32> loc(#loc24)
      memref.prefetch %34[%49, %1984], read, locality<3>, data : memref<?x?xf32, strided<[?, 1]>> loc(#loc24)
      %1991 = vector.fma %1961, %1987, %1974 : vector<256xf32> loc(#loc24)
      memref.prefetch %34[%53, %1984], read, locality<3>, data : memref<?x?xf32, strided<[?, 1]>> loc(#loc24)
      %1992 = vector.fma %1961, %1990, %1975 : vector<256xf32> loc(#loc24)
      %1993 = arith.addi %37#0, %c122 : index loc(#loc24)
      %1994 = vector.load %36[%1993, %37#1] : memref<?x?xf32, strided<[?, 1]>>, vector<256xf32> loc(#loc24)
      %1995 = arith.addi %37#0, %c249 : index loc(#loc24)
      memref.prefetch %36[%1995, %37#1], read, locality<1>, data : memref<?x?xf32, strided<[?, 1]>> loc(#loc24)
      %1996 = arith.addi %35#1, %c121 : index loc(#loc24)
      %1997 = memref.load %34[%35#0, %1996] : memref<?x?xf32, strided<[?, 1]>> loc(#loc24)
      %1998 = vector.broadcast %1997 : f32 to vector<256xf32> loc(#loc24)
      %1999 = memref.load %34[%45, %1996] : memref<?x?xf32, strided<[?, 1]>> loc(#loc24)
      %2000 = vector.broadcast %1999 : f32 to vector<256xf32> loc(#loc24)
      %2001 = vector.fma %1977, %1998, %1985 : vector<256xf32> loc(#loc24)
      %2002 = memref.load %34[%49, %1996] : memref<?x?xf32, strided<[?, 1]>> loc(#loc24)
      %2003 = vector.broadcast %2002 : f32 to vector<256xf32> loc(#loc24)
      %2004 = vector.fma %1977, %2000, %1988 : vector<256xf32> loc(#loc24)
      %2005 = memref.load %34[%53, %1996] : memref<?x?xf32, strided<[?, 1]>> loc(#loc24)
      %2006 = vector.broadcast %2005 : f32 to vector<256xf32> loc(#loc24)
      %2007 = vector.fma %1977, %2003, %1991 : vector<256xf32> loc(#loc24)
      %2008 = vector.fma %1977, %2006, %1992 : vector<256xf32> loc(#loc24)
      %2009 = arith.addi %37#0, %c123 : index loc(#loc24)
      %2010 = vector.load %36[%2009, %37#1] : memref<?x?xf32, strided<[?, 1]>>, vector<256xf32> loc(#loc24)
      %2011 = arith.addi %37#0, %c250 : index loc(#loc24)
      memref.prefetch %36[%2011, %37#1], read, locality<1>, data : memref<?x?xf32, strided<[?, 1]>> loc(#loc24)
      %2012 = arith.addi %35#1, %c122 : index loc(#loc24)
      %2013 = memref.load %34[%35#0, %2012] : memref<?x?xf32, strided<[?, 1]>> loc(#loc24)
      %2014 = vector.broadcast %2013 : f32 to vector<256xf32> loc(#loc24)
      %2015 = memref.load %34[%45, %2012] : memref<?x?xf32, strided<[?, 1]>> loc(#loc24)
      %2016 = vector.broadcast %2015 : f32 to vector<256xf32> loc(#loc24)
      %2017 = vector.fma %1994, %2014, %2001 : vector<256xf32> loc(#loc24)
      %2018 = memref.load %34[%49, %2012] : memref<?x?xf32, strided<[?, 1]>> loc(#loc24)
      %2019 = vector.broadcast %2018 : f32 to vector<256xf32> loc(#loc24)
      %2020 = vector.fma %1994, %2016, %2004 : vector<256xf32> loc(#loc24)
      %2021 = memref.load %34[%53, %2012] : memref<?x?xf32, strided<[?, 1]>> loc(#loc24)
      %2022 = vector.broadcast %2021 : f32 to vector<256xf32> loc(#loc24)
      %2023 = vector.fma %1994, %2019, %2007 : vector<256xf32> loc(#loc24)
      %2024 = vector.fma %1994, %2022, %2008 : vector<256xf32> loc(#loc24)
      %2025 = arith.addi %37#0, %c124 : index loc(#loc24)
      %2026 = vector.load %36[%2025, %37#1] : memref<?x?xf32, strided<[?, 1]>>, vector<256xf32> loc(#loc24)
      %2027 = arith.addi %37#0, %c251 : index loc(#loc24)
      memref.prefetch %36[%2027, %37#1], read, locality<1>, data : memref<?x?xf32, strided<[?, 1]>> loc(#loc24)
      %2028 = arith.addi %35#1, %c123 : index loc(#loc24)
      %2029 = memref.load %34[%35#0, %2028] : memref<?x?xf32, strided<[?, 1]>> loc(#loc24)
      %2030 = vector.broadcast %2029 : f32 to vector<256xf32> loc(#loc24)
      %2031 = memref.load %34[%45, %2028] : memref<?x?xf32, strided<[?, 1]>> loc(#loc24)
      %2032 = vector.broadcast %2031 : f32 to vector<256xf32> loc(#loc24)
      %2033 = vector.fma %2010, %2030, %2017 : vector<256xf32> loc(#loc24)
      %2034 = memref.load %34[%49, %2028] : memref<?x?xf32, strided<[?, 1]>> loc(#loc24)
      %2035 = vector.broadcast %2034 : f32 to vector<256xf32> loc(#loc24)
      %2036 = vector.fma %2010, %2032, %2020 : vector<256xf32> loc(#loc24)
      %2037 = memref.load %34[%53, %2028] : memref<?x?xf32, strided<[?, 1]>> loc(#loc24)
      %2038 = vector.broadcast %2037 : f32 to vector<256xf32> loc(#loc24)
      %2039 = vector.fma %2010, %2035, %2023 : vector<256xf32> loc(#loc24)
      %2040 = vector.fma %2010, %2038, %2024 : vector<256xf32> loc(#loc24)
      %2041 = arith.addi %37#0, %c125 : index loc(#loc24)
      %2042 = vector.load %36[%2041, %37#1] : memref<?x?xf32, strided<[?, 1]>>, vector<256xf32> loc(#loc24)
      %2043 = arith.addi %37#0, %c252 : index loc(#loc24)
      memref.prefetch %36[%2043, %37#1], read, locality<1>, data : memref<?x?xf32, strided<[?, 1]>> loc(#loc24)
      %2044 = arith.addi %35#1, %c124 : index loc(#loc24)
      %2045 = memref.load %34[%35#0, %2044] : memref<?x?xf32, strided<[?, 1]>> loc(#loc24)
      %2046 = vector.broadcast %2045 : f32 to vector<256xf32> loc(#loc24)
      %2047 = memref.load %34[%45, %2044] : memref<?x?xf32, strided<[?, 1]>> loc(#loc24)
      %2048 = vector.broadcast %2047 : f32 to vector<256xf32> loc(#loc24)
      %2049 = vector.fma %2026, %2046, %2033 : vector<256xf32> loc(#loc24)
      %2050 = memref.load %34[%49, %2044] : memref<?x?xf32, strided<[?, 1]>> loc(#loc24)
      %2051 = vector.broadcast %2050 : f32 to vector<256xf32> loc(#loc24)
      %2052 = vector.fma %2026, %2048, %2036 : vector<256xf32> loc(#loc24)
      %2053 = memref.load %34[%53, %2044] : memref<?x?xf32, strided<[?, 1]>> loc(#loc24)
      %2054 = vector.broadcast %2053 : f32 to vector<256xf32> loc(#loc24)
      %2055 = vector.fma %2026, %2051, %2039 : vector<256xf32> loc(#loc24)
      %2056 = vector.fma %2026, %2054, %2040 : vector<256xf32> loc(#loc24)
      %2057 = arith.addi %37#0, %c126 : index loc(#loc24)
      %2058 = vector.load %36[%2057, %37#1] : memref<?x?xf32, strided<[?, 1]>>, vector<256xf32> loc(#loc24)
      %2059 = arith.addi %37#0, %c253 : index loc(#loc24)
      memref.prefetch %36[%2059, %37#1], read, locality<1>, data : memref<?x?xf32, strided<[?, 1]>> loc(#loc24)
      %2060 = arith.addi %35#1, %c125 : index loc(#loc24)
      %2061 = memref.load %34[%35#0, %2060] : memref<?x?xf32, strided<[?, 1]>> loc(#loc24)
      %2062 = vector.broadcast %2061 : f32 to vector<256xf32> loc(#loc24)
      %2063 = memref.load %34[%45, %2060] : memref<?x?xf32, strided<[?, 1]>> loc(#loc24)
      %2064 = vector.broadcast %2063 : f32 to vector<256xf32> loc(#loc24)
      %2065 = vector.fma %2042, %2062, %2049 : vector<256xf32> loc(#loc24)
      %2066 = memref.load %34[%49, %2060] : memref<?x?xf32, strided<[?, 1]>> loc(#loc24)
      %2067 = vector.broadcast %2066 : f32 to vector<256xf32> loc(#loc24)
      %2068 = vector.fma %2042, %2064, %2052 : vector<256xf32> loc(#loc24)
      %2069 = memref.load %34[%53, %2060] : memref<?x?xf32, strided<[?, 1]>> loc(#loc24)
      %2070 = vector.broadcast %2069 : f32 to vector<256xf32> loc(#loc24)
      %2071 = vector.fma %2042, %2067, %2055 : vector<256xf32> loc(#loc24)
      %2072 = vector.fma %2042, %2070, %2056 : vector<256xf32> loc(#loc24)
      %2073 = arith.addi %37#0, %c127 : index loc(#loc24)
      %2074 = vector.load %36[%2073, %37#1] : memref<?x?xf32, strided<[?, 1]>>, vector<256xf32> loc(#loc24)
      %2075 = arith.addi %37#0, %c254 : index loc(#loc24)
      memref.prefetch %36[%2075, %37#1], read, locality<1>, data : memref<?x?xf32, strided<[?, 1]>> loc(#loc24)
      %2076 = arith.addi %35#1, %c126 : index loc(#loc24)
      %2077 = memref.load %34[%35#0, %2076] : memref<?x?xf32, strided<[?, 1]>> loc(#loc24)
      %2078 = vector.broadcast %2077 : f32 to vector<256xf32> loc(#loc24)
      %2079 = memref.load %34[%45, %2076] : memref<?x?xf32, strided<[?, 1]>> loc(#loc24)
      %2080 = vector.broadcast %2079 : f32 to vector<256xf32> loc(#loc24)
      %2081 = vector.fma %2058, %2078, %2065 : vector<256xf32> loc(#loc24)
      %2082 = memref.load %34[%49, %2076] : memref<?x?xf32, strided<[?, 1]>> loc(#loc24)
      %2083 = vector.broadcast %2082 : f32 to vector<256xf32> loc(#loc24)
      %2084 = vector.fma %2058, %2080, %2068 : vector<256xf32> loc(#loc24)
      %2085 = memref.load %34[%53, %2076] : memref<?x?xf32, strided<[?, 1]>> loc(#loc24)
      %2086 = vector.broadcast %2085 : f32 to vector<256xf32> loc(#loc24)
      %2087 = vector.fma %2058, %2083, %2071 : vector<256xf32> loc(#loc24)
      %2088 = vector.fma %2058, %2086, %2072 : vector<256xf32> loc(#loc24)
      %2089 = arith.addi %37#0, %c255 : index loc(#loc24)
      memref.prefetch %36[%2089, %37#1], read, locality<1>, data : memref<?x?xf32, strided<[?, 1]>> loc(#loc24)
      %2090 = arith.addi %35#1, %c127 : index loc(#loc24)
      %2091 = memref.load %34[%35#0, %2090] : memref<?x?xf32, strided<[?, 1]>> loc(#loc24)
      %2092 = vector.broadcast %2091 : f32 to vector<256xf32> loc(#loc24)
      %2093 = memref.load %34[%45, %2090] : memref<?x?xf32, strided<[?, 1]>> loc(#loc24)
      %2094 = vector.broadcast %2093 : f32 to vector<256xf32> loc(#loc24)
      %2095 = vector.fma %2074, %2092, %2081 : vector<256xf32> loc(#loc24)
      %2096 = memref.load %34[%49, %2090] : memref<?x?xf32, strided<[?, 1]>> loc(#loc24)
      %2097 = vector.broadcast %2096 : f32 to vector<256xf32> loc(#loc24)
      %2098 = vector.fma %2074, %2094, %2084 : vector<256xf32> loc(#loc24)
      %2099 = memref.load %34[%53, %2090] : memref<?x?xf32, strided<[?, 1]>> loc(#loc24)
      %2100 = vector.broadcast %2099 : f32 to vector<256xf32> loc(#loc24)
      %2101 = vector.fma %2074, %2097, %2087 : vector<256xf32> loc(#loc24)
      %2102 = vector.fma %2074, %2100, %2088 : vector<256xf32> loc(#loc24)
      %2103 = tt.advance %arg10, [%c0_i32, %c128_i32] : <tensor<4x128xf32>> loc(#loc25)
      %2104 = tt.advance %arg11, [%c128_i32, %c0_i32] : <tensor<128x256xf32>> loc(#loc26)
      scf.yield %2103, %2104, %2095, %2098, %2101, %2102 : !tt.ptr<tensor<4x128xf32>>, !tt.ptr<tensor<128x256xf32>>, vector<256xf32>, vector<256xf32>, vector<256xf32>, vector<256xf32> loc(#loc27)
    } loc(#loc21)
    %26 = vector.insert %25#2, %cst_0 [0] : vector<256xf32> into vector<4x256xf32> loc(#loc24)
    %27 = vector.insert %25#3, %26 [1] : vector<256xf32> into vector<4x256xf32> loc(#loc24)
    %28 = vector.insert %25#4, %27 [2] : vector<256xf32> into vector<4x256xf32> loc(#loc24)
    %29 = vector.insert %25#5, %28 [3] : vector<256xf32> into vector<4x256xf32> loc(#loc24)
    %30 = arith.extsi %arg8 : i32 to i64 loc(#loc28)
    %31 = tt.make_tensor_ptr %arg2, [%16, %20], [%30, %c1_i64], [%14, %15] {order = array<i32: 1, 0>} : <tensor<4x256xf32>> loc(#loc28)
    %32 = triton_cpu.extract_memref %31 : <tensor<4x256xf32>> -> memref<?x?xf32, strided<[?, 1]>> loc(#loc29)
    %33:2 = triton_cpu.extract_indices %31 : <tensor<4x256xf32>> -> index, index loc(#loc29)
    vector.transfer_write %29, %32[%33#0, %33#1] {in_bounds = [true, true]} : vector<4x256xf32>, memref<?x?xf32, strided<[?, 1]>> loc(#loc29)
    tt.return loc(#loc30)
  } loc(#loc)
} loc(#loc)
#loc1 = loc(unknown)
#loc2 = loc("/home/yuhao/T_RVV/benchmark/src/triton/matmul.py":45:24)
#loc3 = loc("/home/yuhao/triton-cpu/python/triton/language/standard.py":40:22)
#loc4 = loc("/home/yuhao/T_RVV/benchmark/src/triton/matmul.py":46:27)
#loc5 = loc("/home/yuhao/triton-cpu/python/triton/language/standard.py":40:28)
#loc6 = loc("/home/yuhao/T_RVV/benchmark/src/triton/matmul.py":47:27)
#loc7 = loc("/home/yuhao/T_RVV/benchmark/src/triton/matmul.py":48:38)
#loc8 = loc("/home/yuhao/T_RVV/benchmark/src/triton/matmul.py":49:22)
#loc9 = loc("/home/yuhao/T_RVV/benchmark/src/triton/matmul.py":50:29)
#loc10 = loc("/home/yuhao/T_RVV/benchmark/src/triton/matmul.py":51:35)
#loc11 = loc("/home/yuhao/T_RVV/benchmark/src/triton/matmul.py":51:48)
#loc12 = loc("/home/yuhao/T_RVV/benchmark/src/triton/matmul.py":52:33)
#loc13 = loc("/home/yuhao/T_RVV/benchmark/src/triton/matmul.py":52:27)
#loc14 = loc("/home/yuhao/T_RVV/benchmark/src/triton/matmul.py":53:19)
#loc15 = loc("/home/yuhao/T_RVV/benchmark/src/triton/matmul.py":53:40)
#loc16 = loc("/home/yuhao/T_RVV/benchmark/src/triton/matmul.py":63:33)
#loc17 = loc("/home/yuhao/T_RVV/benchmark/src/triton/matmul.py":64:33)
#loc18 = loc("/home/yuhao/T_RVV/benchmark/src/triton/matmul.py":67:39)
#loc19 = loc("/home/yuhao/T_RVV/benchmark/src/triton/matmul.py":70:39)
#loc20 = loc("/home/yuhao/T_RVV/benchmark/src/triton/matmul.py":79:33)
#loc21 = loc("/home/yuhao/T_RVV/benchmark/src/triton/matmul.py":79:22)
#loc22 = loc("/home/yuhao/T_RVV/benchmark/src/triton/matmul.py":83:20)
#loc23 = loc("/home/yuhao/T_RVV/benchmark/src/triton/matmul.py":84:20)
#loc24 = loc("/home/yuhao/T_RVV/benchmark/src/triton/matmul.py":86:35)
#loc25 = loc("/home/yuhao/T_RVV/benchmark/src/triton/matmul.py":89:48)
#loc26 = loc("/home/yuhao/T_RVV/benchmark/src/triton/matmul.py":90:48)
#loc27 = loc("/home/yuhao/T_RVV/benchmark/src/triton/matmul.py":88:8)
#loc28 = loc("/home/yuhao/T_RVV/benchmark/src/triton/matmul.py":102:81)
#loc29 = loc("/home/yuhao/T_RVV/benchmark/src/triton/matmul.py":103:29)
#loc30 = loc("/home/yuhao/T_RVV/benchmark/src/triton/matmul.py":99:4)
#loc31 = loc(callsite(#loc3 at #loc4))
#loc32 = loc(callsite(#loc5 at #loc4))
#loc33 = loc(callsite(#loc3 at #loc6))
#loc34 = loc(callsite(#loc5 at #loc6))
#loc35 = loc(callsite(#loc3 at #loc20))
#loc36 = loc(callsite(#loc5 at #loc20))
