#loc = loc("/home/yuhao/T_RVV/benchmark/src/triton/matmul.py":24:0)
module {
  tt.func public @matmul_kernel(%arg0: !tt.ptr<f32> {tt.divisibility = 16 : i32} loc("/home/yuhao/T_RVV/benchmark/src/triton/matmul.py":24:0), %arg1: !tt.ptr<f32> {tt.divisibility = 16 : i32} loc("/home/yuhao/T_RVV/benchmark/src/triton/matmul.py":24:0), %arg2: !tt.ptr<f32> {tt.divisibility = 16 : i32} loc("/home/yuhao/T_RVV/benchmark/src/triton/matmul.py":24:0), %arg3: i32 {tt.divisibility = 16 : i32} loc("/home/yuhao/T_RVV/benchmark/src/triton/matmul.py":24:0), %arg4: i32 {tt.divisibility = 16 : i32} loc("/home/yuhao/T_RVV/benchmark/src/triton/matmul.py":24:0), %arg5: i32 {tt.divisibility = 16 : i32} loc("/home/yuhao/T_RVV/benchmark/src/triton/matmul.py":24:0), %arg6: i32 {tt.divisibility = 16 : i32} loc("/home/yuhao/T_RVV/benchmark/src/triton/matmul.py":24:0), %arg7: i32 {tt.divisibility = 16 : i32} loc("/home/yuhao/T_RVV/benchmark/src/triton/matmul.py":24:0), %arg8: i32 {tt.divisibility = 16 : i32} loc("/home/yuhao/T_RVV/benchmark/src/triton/matmul.py":24:0)) attributes {noinline = false} {
    %c127 = arith.constant 127 : index loc(#loc1)
    %c126 = arith.constant 126 : index loc(#loc1)
    %c125 = arith.constant 125 : index loc(#loc1)
    %c124 = arith.constant 124 : index loc(#loc1)
    %c123 = arith.constant 123 : index loc(#loc1)
    %c122 = arith.constant 122 : index loc(#loc1)
    %c121 = arith.constant 121 : index loc(#loc1)
    %c120 = arith.constant 120 : index loc(#loc1)
    %c119 = arith.constant 119 : index loc(#loc1)
    %c118 = arith.constant 118 : index loc(#loc1)
    %c117 = arith.constant 117 : index loc(#loc1)
    %c116 = arith.constant 116 : index loc(#loc1)
    %c115 = arith.constant 115 : index loc(#loc1)
    %c114 = arith.constant 114 : index loc(#loc1)
    %c113 = arith.constant 113 : index loc(#loc1)
    %c112 = arith.constant 112 : index loc(#loc1)
    %c111 = arith.constant 111 : index loc(#loc1)
    %c110 = arith.constant 110 : index loc(#loc1)
    %c109 = arith.constant 109 : index loc(#loc1)
    %c108 = arith.constant 108 : index loc(#loc1)
    %c107 = arith.constant 107 : index loc(#loc1)
    %c106 = arith.constant 106 : index loc(#loc1)
    %c105 = arith.constant 105 : index loc(#loc1)
    %c104 = arith.constant 104 : index loc(#loc1)
    %c103 = arith.constant 103 : index loc(#loc1)
    %c102 = arith.constant 102 : index loc(#loc1)
    %c101 = arith.constant 101 : index loc(#loc1)
    %c100 = arith.constant 100 : index loc(#loc1)
    %c99 = arith.constant 99 : index loc(#loc1)
    %c98 = arith.constant 98 : index loc(#loc1)
    %c97 = arith.constant 97 : index loc(#loc1)
    %c96 = arith.constant 96 : index loc(#loc1)
    %c95 = arith.constant 95 : index loc(#loc1)
    %c94 = arith.constant 94 : index loc(#loc1)
    %c93 = arith.constant 93 : index loc(#loc1)
    %c92 = arith.constant 92 : index loc(#loc1)
    %c91 = arith.constant 91 : index loc(#loc1)
    %c90 = arith.constant 90 : index loc(#loc1)
    %c89 = arith.constant 89 : index loc(#loc1)
    %c88 = arith.constant 88 : index loc(#loc1)
    %c87 = arith.constant 87 : index loc(#loc1)
    %c86 = arith.constant 86 : index loc(#loc1)
    %c85 = arith.constant 85 : index loc(#loc1)
    %c84 = arith.constant 84 : index loc(#loc1)
    %c83 = arith.constant 83 : index loc(#loc1)
    %c82 = arith.constant 82 : index loc(#loc1)
    %c81 = arith.constant 81 : index loc(#loc1)
    %c80 = arith.constant 80 : index loc(#loc1)
    %c79 = arith.constant 79 : index loc(#loc1)
    %c78 = arith.constant 78 : index loc(#loc1)
    %c77 = arith.constant 77 : index loc(#loc1)
    %c76 = arith.constant 76 : index loc(#loc1)
    %c75 = arith.constant 75 : index loc(#loc1)
    %c74 = arith.constant 74 : index loc(#loc1)
    %c73 = arith.constant 73 : index loc(#loc1)
    %c72 = arith.constant 72 : index loc(#loc1)
    %c71 = arith.constant 71 : index loc(#loc1)
    %c70 = arith.constant 70 : index loc(#loc1)
    %c69 = arith.constant 69 : index loc(#loc1)
    %c68 = arith.constant 68 : index loc(#loc1)
    %c67 = arith.constant 67 : index loc(#loc1)
    %c66 = arith.constant 66 : index loc(#loc1)
    %c65 = arith.constant 65 : index loc(#loc1)
    %c64 = arith.constant 64 : index loc(#loc1)
    %cst = arith.constant dense<0.000000e+00> : vector<256xf32> loc(#loc1)
    %c63 = arith.constant 63 : index loc(#loc1)
    %c62 = arith.constant 62 : index loc(#loc1)
    %c61 = arith.constant 61 : index loc(#loc1)
    %c60 = arith.constant 60 : index loc(#loc1)
    %c59 = arith.constant 59 : index loc(#loc1)
    %c58 = arith.constant 58 : index loc(#loc1)
    %c57 = arith.constant 57 : index loc(#loc1)
    %c56 = arith.constant 56 : index loc(#loc1)
    %c55 = arith.constant 55 : index loc(#loc1)
    %c54 = arith.constant 54 : index loc(#loc1)
    %c53 = arith.constant 53 : index loc(#loc1)
    %c52 = arith.constant 52 : index loc(#loc1)
    %c51 = arith.constant 51 : index loc(#loc1)
    %c50 = arith.constant 50 : index loc(#loc1)
    %c49 = arith.constant 49 : index loc(#loc1)
    %c48 = arith.constant 48 : index loc(#loc1)
    %c47 = arith.constant 47 : index loc(#loc1)
    %c46 = arith.constant 46 : index loc(#loc1)
    %c45 = arith.constant 45 : index loc(#loc1)
    %c44 = arith.constant 44 : index loc(#loc1)
    %c43 = arith.constant 43 : index loc(#loc1)
    %c42 = arith.constant 42 : index loc(#loc1)
    %c41 = arith.constant 41 : index loc(#loc1)
    %c40 = arith.constant 40 : index loc(#loc1)
    %c39 = arith.constant 39 : index loc(#loc1)
    %c38 = arith.constant 38 : index loc(#loc1)
    %c37 = arith.constant 37 : index loc(#loc1)
    %c36 = arith.constant 36 : index loc(#loc1)
    %c35 = arith.constant 35 : index loc(#loc1)
    %c34 = arith.constant 34 : index loc(#loc1)
    %c33 = arith.constant 33 : index loc(#loc1)
    %c32 = arith.constant 32 : index loc(#loc1)
    %c31 = arith.constant 31 : index loc(#loc1)
    %c30 = arith.constant 30 : index loc(#loc1)
    %c29 = arith.constant 29 : index loc(#loc1)
    %c28 = arith.constant 28 : index loc(#loc1)
    %c27 = arith.constant 27 : index loc(#loc1)
    %c26 = arith.constant 26 : index loc(#loc1)
    %c25 = arith.constant 25 : index loc(#loc1)
    %c24 = arith.constant 24 : index loc(#loc1)
    %c23 = arith.constant 23 : index loc(#loc1)
    %c22 = arith.constant 22 : index loc(#loc1)
    %c21 = arith.constant 21 : index loc(#loc1)
    %c20 = arith.constant 20 : index loc(#loc1)
    %c19 = arith.constant 19 : index loc(#loc1)
    %c18 = arith.constant 18 : index loc(#loc1)
    %c17 = arith.constant 17 : index loc(#loc1)
    %c16 = arith.constant 16 : index loc(#loc1)
    %c15 = arith.constant 15 : index loc(#loc1)
    %c14 = arith.constant 14 : index loc(#loc1)
    %c13 = arith.constant 13 : index loc(#loc1)
    %c12 = arith.constant 12 : index loc(#loc1)
    %c11 = arith.constant 11 : index loc(#loc1)
    %c10 = arith.constant 10 : index loc(#loc1)
    %c9 = arith.constant 9 : index loc(#loc1)
    %c8 = arith.constant 8 : index loc(#loc1)
    %c7 = arith.constant 7 : index loc(#loc1)
    %c6 = arith.constant 6 : index loc(#loc1)
    %c5 = arith.constant 5 : index loc(#loc1)
    %c4 = arith.constant 4 : index loc(#loc1)
    %c3 = arith.constant 3 : index loc(#loc1)
    %c2 = arith.constant 2 : index loc(#loc1)
    %c1 = arith.constant 1 : index loc(#loc1)
    %c63_i32 = arith.constant 63 : i32 loc(#loc1)
    %cst_0 = arith.constant dense<0.000000e+00> : vector<16x256xf32> loc(#loc1)
    %c255_i32 = arith.constant 255 : i32 loc(#loc1)
    %c15_i32 = arith.constant 15 : i32 loc(#loc1)
    %c1_i32 = arith.constant 1 : i32 loc(#loc1)
    %c64_i32 = arith.constant 64 : i32 loc(#loc1)
    %c0_i32 = arith.constant 0 : i32 loc(#loc1)
    %c1_i64 = arith.constant 1 : i64 loc(#loc1)
    %c256_i32 = arith.constant 256 : i32 loc(#loc1)
    %c16_i32 = arith.constant 16 : i32 loc(#loc1)
    %c8_i32 = arith.constant 8 : i32 loc(#loc1)
    %0 = tt.get_program_id x : i32 loc(#loc2)
    %1 = arith.addi %arg3, %c15_i32 : i32 loc(#loc31)
    %2 = arith.divsi %1, %c16_i32 : i32 loc(#loc32)
    %3 = arith.addi %arg4, %c255_i32 : i32 loc(#loc33)
    %4 = arith.divsi %3, %c256_i32 : i32 loc(#loc34)
    %5 = arith.muli %4, %c8_i32 : i32 loc(#loc7)
    %6 = arith.divsi %0, %5 : i32 loc(#loc8)
    %7 = arith.muli %6, %c8_i32 : i32 loc(#loc9)
    %8 = arith.subi %2, %7 : i32 loc(#loc10)
    %9 = arith.minsi %8, %c8_i32 : i32 loc(#loc11)
    %10 = arith.remsi %0, %9 : i32 loc(#loc12)
    %11 = arith.addi %7, %10 : i32 loc(#loc13)
    %12 = arith.remsi %0, %5 : i32 loc(#loc14)
    %13 = arith.divsi %12, %9 : i32 loc(#loc15)
    %14 = arith.muli %11, %c16_i32 : i32 loc(#loc16)
    %15 = arith.muli %13, %c256_i32 : i32 loc(#loc17)
    %16 = arith.extsi %arg3 : i32 to i64 loc(#loc18)
    %17 = arith.extsi %arg5 : i32 to i64 loc(#loc18)
    %18 = arith.extsi %arg6 : i32 to i64 loc(#loc18)
    %19 = tt.make_tensor_ptr %arg0, [%16, %17], [%18, %c1_i64], [%14, %c0_i32] {order = array<i32: 1, 0>} : <tensor<16x64xf32>> loc(#loc18)
    %20 = arith.extsi %arg4 : i32 to i64 loc(#loc19)
    %21 = arith.extsi %arg7 : i32 to i64 loc(#loc19)
    %22 = tt.make_tensor_ptr %arg1, [%17, %20], [%21, %c1_i64], [%c0_i32, %15] {order = array<i32: 1, 0>} : <tensor<64x256xf32>> loc(#loc19)
    %23 = arith.addi %arg5, %c63_i32 : i32 loc(#loc35)
    %24 = arith.divsi %23, %c64_i32 : i32 loc(#loc36)
    %25:18 = scf.for %arg9 = %c0_i32 to %24 step %c1_i32 iter_args(%arg10 = %19, %arg11 = %22, %arg12 = %cst, %arg13 = %cst, %arg14 = %cst, %arg15 = %cst, %arg16 = %cst, %arg17 = %cst, %arg18 = %cst, %arg19 = %cst, %arg20 = %cst, %arg21 = %cst, %arg22 = %cst, %arg23 = %cst, %arg24 = %cst, %arg25 = %cst, %arg26 = %cst, %arg27 = %cst) -> (!tt.ptr<tensor<16x64xf32>>, !tt.ptr<tensor<64x256xf32>>, vector<256xf32>, vector<256xf32>, vector<256xf32>, vector<256xf32>, vector<256xf32>, vector<256xf32>, vector<256xf32>, vector<256xf32>, vector<256xf32>, vector<256xf32>, vector<256xf32>, vector<256xf32>, vector<256xf32>, vector<256xf32>, vector<256xf32>, vector<256xf32>)  : i32 {
      %46 = triton_cpu.extract_memref %arg10 : <tensor<16x64xf32>> -> memref<?x?xf32, strided<[?, 1]>> loc(#loc22)
      %47:2 = triton_cpu.extract_indices %arg10 : <tensor<16x64xf32>> -> index, index loc(#loc22)
      %48 = triton_cpu.extract_memref %arg11 : <tensor<64x256xf32>> -> memref<?x?xf32, strided<[?, 1]>> loc(#loc23)
      %49:2 = triton_cpu.extract_indices %arg11 : <tensor<64x256xf32>> -> index, index loc(#loc23)
      %50 = arith.addi %47#1, %c64 : index loc(#loc24)
      %51 = arith.addi %49#0, %c64 : index loc(#loc24)
      %52 = vector.load %48[%49#0, %49#1] : memref<?x?xf32, strided<[?, 1]>>, vector<256xf32> loc(#loc24)
      %53 = arith.addi %49#0, %c1 : index loc(#loc24)
      %54 = vector.load %48[%53, %49#1] : memref<?x?xf32, strided<[?, 1]>>, vector<256xf32> loc(#loc24)
      memref.prefetch %48[%51, %49#1], read, locality<1>, data : memref<?x?xf32, strided<[?, 1]>> loc(#loc24)
      %55 = memref.load %46[%47#0, %47#1] : memref<?x?xf32, strided<[?, 1]>> loc(#loc24)
      %56 = vector.broadcast %55 : f32 to vector<256xf32> loc(#loc24)
      %57 = arith.addi %47#0, %c1 : index loc(#loc24)
      %58 = memref.load %46[%57, %47#1] : memref<?x?xf32, strided<[?, 1]>> loc(#loc24)
      %59 = vector.broadcast %58 : f32 to vector<256xf32> loc(#loc24)
      memref.prefetch %46[%47#0, %50], read, locality<3>, data : memref<?x?xf32, strided<[?, 1]>> loc(#loc24)
      %60 = vector.fma %52, %56, %arg12 : vector<256xf32> loc(#loc24)
      %61 = arith.addi %47#0, %c2 : index loc(#loc24)
      %62 = memref.load %46[%61, %47#1] : memref<?x?xf32, strided<[?, 1]>> loc(#loc24)
      %63 = vector.broadcast %62 : f32 to vector<256xf32> loc(#loc24)
      memref.prefetch %46[%57, %50], read, locality<3>, data : memref<?x?xf32, strided<[?, 1]>> loc(#loc24)
      %64 = vector.fma %52, %59, %arg13 : vector<256xf32> loc(#loc24)
      %65 = arith.addi %47#0, %c3 : index loc(#loc24)
      %66 = memref.load %46[%65, %47#1] : memref<?x?xf32, strided<[?, 1]>> loc(#loc24)
      %67 = vector.broadcast %66 : f32 to vector<256xf32> loc(#loc24)
      memref.prefetch %46[%61, %50], read, locality<3>, data : memref<?x?xf32, strided<[?, 1]>> loc(#loc24)
      %68 = vector.fma %52, %63, %arg14 : vector<256xf32> loc(#loc24)
      %69 = arith.addi %47#0, %c4 : index loc(#loc24)
      %70 = memref.load %46[%69, %47#1] : memref<?x?xf32, strided<[?, 1]>> loc(#loc24)
      %71 = vector.broadcast %70 : f32 to vector<256xf32> loc(#loc24)
      memref.prefetch %46[%65, %50], read, locality<3>, data : memref<?x?xf32, strided<[?, 1]>> loc(#loc24)
      %72 = vector.fma %52, %67, %arg15 : vector<256xf32> loc(#loc24)
      %73 = arith.addi %47#0, %c5 : index loc(#loc24)
      %74 = memref.load %46[%73, %47#1] : memref<?x?xf32, strided<[?, 1]>> loc(#loc24)
      %75 = vector.broadcast %74 : f32 to vector<256xf32> loc(#loc24)
      memref.prefetch %46[%69, %50], read, locality<3>, data : memref<?x?xf32, strided<[?, 1]>> loc(#loc24)
      %76 = vector.fma %52, %71, %arg16 : vector<256xf32> loc(#loc24)
      %77 = arith.addi %47#0, %c6 : index loc(#loc24)
      %78 = memref.load %46[%77, %47#1] : memref<?x?xf32, strided<[?, 1]>> loc(#loc24)
      %79 = vector.broadcast %78 : f32 to vector<256xf32> loc(#loc24)
      memref.prefetch %46[%73, %50], read, locality<3>, data : memref<?x?xf32, strided<[?, 1]>> loc(#loc24)
      %80 = vector.fma %52, %75, %arg17 : vector<256xf32> loc(#loc24)
      %81 = arith.addi %47#0, %c7 : index loc(#loc24)
      %82 = memref.load %46[%81, %47#1] : memref<?x?xf32, strided<[?, 1]>> loc(#loc24)
      %83 = vector.broadcast %82 : f32 to vector<256xf32> loc(#loc24)
      memref.prefetch %46[%77, %50], read, locality<3>, data : memref<?x?xf32, strided<[?, 1]>> loc(#loc24)
      %84 = vector.fma %52, %79, %arg18 : vector<256xf32> loc(#loc24)
      %85 = arith.addi %47#0, %c8 : index loc(#loc24)
      %86 = memref.load %46[%85, %47#1] : memref<?x?xf32, strided<[?, 1]>> loc(#loc24)
      %87 = vector.broadcast %86 : f32 to vector<256xf32> loc(#loc24)
      memref.prefetch %46[%81, %50], read, locality<3>, data : memref<?x?xf32, strided<[?, 1]>> loc(#loc24)
      %88 = vector.fma %52, %83, %arg19 : vector<256xf32> loc(#loc24)
      %89 = arith.addi %47#0, %c9 : index loc(#loc24)
      %90 = memref.load %46[%89, %47#1] : memref<?x?xf32, strided<[?, 1]>> loc(#loc24)
      %91 = vector.broadcast %90 : f32 to vector<256xf32> loc(#loc24)
      memref.prefetch %46[%85, %50], read, locality<3>, data : memref<?x?xf32, strided<[?, 1]>> loc(#loc24)
      %92 = vector.fma %52, %87, %arg20 : vector<256xf32> loc(#loc24)
      %93 = arith.addi %47#0, %c10 : index loc(#loc24)
      %94 = memref.load %46[%93, %47#1] : memref<?x?xf32, strided<[?, 1]>> loc(#loc24)
      %95 = vector.broadcast %94 : f32 to vector<256xf32> loc(#loc24)
      memref.prefetch %46[%89, %50], read, locality<3>, data : memref<?x?xf32, strided<[?, 1]>> loc(#loc24)
      %96 = vector.fma %52, %91, %arg21 : vector<256xf32> loc(#loc24)
      %97 = arith.addi %47#0, %c11 : index loc(#loc24)
      %98 = memref.load %46[%97, %47#1] : memref<?x?xf32, strided<[?, 1]>> loc(#loc24)
      %99 = vector.broadcast %98 : f32 to vector<256xf32> loc(#loc24)
      memref.prefetch %46[%93, %50], read, locality<3>, data : memref<?x?xf32, strided<[?, 1]>> loc(#loc24)
      %100 = vector.fma %52, %95, %arg22 : vector<256xf32> loc(#loc24)
      %101 = arith.addi %47#0, %c12 : index loc(#loc24)
      %102 = memref.load %46[%101, %47#1] : memref<?x?xf32, strided<[?, 1]>> loc(#loc24)
      %103 = vector.broadcast %102 : f32 to vector<256xf32> loc(#loc24)
      memref.prefetch %46[%97, %50], read, locality<3>, data : memref<?x?xf32, strided<[?, 1]>> loc(#loc24)
      %104 = vector.fma %52, %99, %arg23 : vector<256xf32> loc(#loc24)
      %105 = arith.addi %47#0, %c13 : index loc(#loc24)
      %106 = memref.load %46[%105, %47#1] : memref<?x?xf32, strided<[?, 1]>> loc(#loc24)
      %107 = vector.broadcast %106 : f32 to vector<256xf32> loc(#loc24)
      memref.prefetch %46[%101, %50], read, locality<3>, data : memref<?x?xf32, strided<[?, 1]>> loc(#loc24)
      %108 = vector.fma %52, %103, %arg24 : vector<256xf32> loc(#loc24)
      %109 = arith.addi %47#0, %c14 : index loc(#loc24)
      %110 = memref.load %46[%109, %47#1] : memref<?x?xf32, strided<[?, 1]>> loc(#loc24)
      %111 = vector.broadcast %110 : f32 to vector<256xf32> loc(#loc24)
      memref.prefetch %46[%105, %50], read, locality<3>, data : memref<?x?xf32, strided<[?, 1]>> loc(#loc24)
      %112 = vector.fma %52, %107, %arg25 : vector<256xf32> loc(#loc24)
      %113 = arith.addi %47#0, %c15 : index loc(#loc24)
      %114 = memref.load %46[%113, %47#1] : memref<?x?xf32, strided<[?, 1]>> loc(#loc24)
      %115 = vector.broadcast %114 : f32 to vector<256xf32> loc(#loc24)
      memref.prefetch %46[%109, %50], read, locality<3>, data : memref<?x?xf32, strided<[?, 1]>> loc(#loc24)
      %116 = vector.fma %52, %111, %arg26 : vector<256xf32> loc(#loc24)
      memref.prefetch %46[%113, %50], read, locality<3>, data : memref<?x?xf32, strided<[?, 1]>> loc(#loc24)
      %117 = vector.fma %52, %115, %arg27 : vector<256xf32> loc(#loc24)
      %118 = arith.addi %49#0, %c2 : index loc(#loc24)
      %119 = vector.load %48[%118, %49#1] : memref<?x?xf32, strided<[?, 1]>>, vector<256xf32> loc(#loc24)
      %120 = arith.addi %49#0, %c65 : index loc(#loc24)
      memref.prefetch %48[%120, %49#1], read, locality<1>, data : memref<?x?xf32, strided<[?, 1]>> loc(#loc24)
      %121 = arith.addi %47#1, %c1 : index loc(#loc24)
      %122 = memref.load %46[%47#0, %121] : memref<?x?xf32, strided<[?, 1]>> loc(#loc24)
      %123 = vector.broadcast %122 : f32 to vector<256xf32> loc(#loc24)
      %124 = memref.load %46[%57, %121] : memref<?x?xf32, strided<[?, 1]>> loc(#loc24)
      %125 = vector.broadcast %124 : f32 to vector<256xf32> loc(#loc24)
      %126 = vector.fma %54, %123, %60 : vector<256xf32> loc(#loc24)
      %127 = memref.load %46[%61, %121] : memref<?x?xf32, strided<[?, 1]>> loc(#loc24)
      %128 = vector.broadcast %127 : f32 to vector<256xf32> loc(#loc24)
      %129 = vector.fma %54, %125, %64 : vector<256xf32> loc(#loc24)
      %130 = memref.load %46[%65, %121] : memref<?x?xf32, strided<[?, 1]>> loc(#loc24)
      %131 = vector.broadcast %130 : f32 to vector<256xf32> loc(#loc24)
      %132 = vector.fma %54, %128, %68 : vector<256xf32> loc(#loc24)
      %133 = memref.load %46[%69, %121] : memref<?x?xf32, strided<[?, 1]>> loc(#loc24)
      %134 = vector.broadcast %133 : f32 to vector<256xf32> loc(#loc24)
      %135 = vector.fma %54, %131, %72 : vector<256xf32> loc(#loc24)
      %136 = memref.load %46[%73, %121] : memref<?x?xf32, strided<[?, 1]>> loc(#loc24)
      %137 = vector.broadcast %136 : f32 to vector<256xf32> loc(#loc24)
      %138 = vector.fma %54, %134, %76 : vector<256xf32> loc(#loc24)
      %139 = memref.load %46[%77, %121] : memref<?x?xf32, strided<[?, 1]>> loc(#loc24)
      %140 = vector.broadcast %139 : f32 to vector<256xf32> loc(#loc24)
      %141 = vector.fma %54, %137, %80 : vector<256xf32> loc(#loc24)
      %142 = memref.load %46[%81, %121] : memref<?x?xf32, strided<[?, 1]>> loc(#loc24)
      %143 = vector.broadcast %142 : f32 to vector<256xf32> loc(#loc24)
      %144 = vector.fma %54, %140, %84 : vector<256xf32> loc(#loc24)
      %145 = memref.load %46[%85, %121] : memref<?x?xf32, strided<[?, 1]>> loc(#loc24)
      %146 = vector.broadcast %145 : f32 to vector<256xf32> loc(#loc24)
      %147 = vector.fma %54, %143, %88 : vector<256xf32> loc(#loc24)
      %148 = memref.load %46[%89, %121] : memref<?x?xf32, strided<[?, 1]>> loc(#loc24)
      %149 = vector.broadcast %148 : f32 to vector<256xf32> loc(#loc24)
      %150 = vector.fma %54, %146, %92 : vector<256xf32> loc(#loc24)
      %151 = memref.load %46[%93, %121] : memref<?x?xf32, strided<[?, 1]>> loc(#loc24)
      %152 = vector.broadcast %151 : f32 to vector<256xf32> loc(#loc24)
      %153 = vector.fma %54, %149, %96 : vector<256xf32> loc(#loc24)
      %154 = memref.load %46[%97, %121] : memref<?x?xf32, strided<[?, 1]>> loc(#loc24)
      %155 = vector.broadcast %154 : f32 to vector<256xf32> loc(#loc24)
      %156 = vector.fma %54, %152, %100 : vector<256xf32> loc(#loc24)
      %157 = memref.load %46[%101, %121] : memref<?x?xf32, strided<[?, 1]>> loc(#loc24)
      %158 = vector.broadcast %157 : f32 to vector<256xf32> loc(#loc24)
      %159 = vector.fma %54, %155, %104 : vector<256xf32> loc(#loc24)
      %160 = memref.load %46[%105, %121] : memref<?x?xf32, strided<[?, 1]>> loc(#loc24)
      %161 = vector.broadcast %160 : f32 to vector<256xf32> loc(#loc24)
      %162 = vector.fma %54, %158, %108 : vector<256xf32> loc(#loc24)
      %163 = memref.load %46[%109, %121] : memref<?x?xf32, strided<[?, 1]>> loc(#loc24)
      %164 = vector.broadcast %163 : f32 to vector<256xf32> loc(#loc24)
      %165 = vector.fma %54, %161, %112 : vector<256xf32> loc(#loc24)
      %166 = memref.load %46[%113, %121] : memref<?x?xf32, strided<[?, 1]>> loc(#loc24)
      %167 = vector.broadcast %166 : f32 to vector<256xf32> loc(#loc24)
      %168 = vector.fma %54, %164, %116 : vector<256xf32> loc(#loc24)
      %169 = vector.fma %54, %167, %117 : vector<256xf32> loc(#loc24)
      %170 = arith.addi %49#0, %c3 : index loc(#loc24)
      %171 = vector.load %48[%170, %49#1] : memref<?x?xf32, strided<[?, 1]>>, vector<256xf32> loc(#loc24)
      %172 = arith.addi %49#0, %c66 : index loc(#loc24)
      memref.prefetch %48[%172, %49#1], read, locality<1>, data : memref<?x?xf32, strided<[?, 1]>> loc(#loc24)
      %173 = arith.addi %47#1, %c2 : index loc(#loc24)
      %174 = memref.load %46[%47#0, %173] : memref<?x?xf32, strided<[?, 1]>> loc(#loc24)
      %175 = vector.broadcast %174 : f32 to vector<256xf32> loc(#loc24)
      %176 = memref.load %46[%57, %173] : memref<?x?xf32, strided<[?, 1]>> loc(#loc24)
      %177 = vector.broadcast %176 : f32 to vector<256xf32> loc(#loc24)
      %178 = vector.fma %119, %175, %126 : vector<256xf32> loc(#loc24)
      %179 = memref.load %46[%61, %173] : memref<?x?xf32, strided<[?, 1]>> loc(#loc24)
      %180 = vector.broadcast %179 : f32 to vector<256xf32> loc(#loc24)
      %181 = vector.fma %119, %177, %129 : vector<256xf32> loc(#loc24)
      %182 = memref.load %46[%65, %173] : memref<?x?xf32, strided<[?, 1]>> loc(#loc24)
      %183 = vector.broadcast %182 : f32 to vector<256xf32> loc(#loc24)
      %184 = vector.fma %119, %180, %132 : vector<256xf32> loc(#loc24)
      %185 = memref.load %46[%69, %173] : memref<?x?xf32, strided<[?, 1]>> loc(#loc24)
      %186 = vector.broadcast %185 : f32 to vector<256xf32> loc(#loc24)
      %187 = vector.fma %119, %183, %135 : vector<256xf32> loc(#loc24)
      %188 = memref.load %46[%73, %173] : memref<?x?xf32, strided<[?, 1]>> loc(#loc24)
      %189 = vector.broadcast %188 : f32 to vector<256xf32> loc(#loc24)
      %190 = vector.fma %119, %186, %138 : vector<256xf32> loc(#loc24)
      %191 = memref.load %46[%77, %173] : memref<?x?xf32, strided<[?, 1]>> loc(#loc24)
      %192 = vector.broadcast %191 : f32 to vector<256xf32> loc(#loc24)
      %193 = vector.fma %119, %189, %141 : vector<256xf32> loc(#loc24)
      %194 = memref.load %46[%81, %173] : memref<?x?xf32, strided<[?, 1]>> loc(#loc24)
      %195 = vector.broadcast %194 : f32 to vector<256xf32> loc(#loc24)
      %196 = vector.fma %119, %192, %144 : vector<256xf32> loc(#loc24)
      %197 = memref.load %46[%85, %173] : memref<?x?xf32, strided<[?, 1]>> loc(#loc24)
      %198 = vector.broadcast %197 : f32 to vector<256xf32> loc(#loc24)
      %199 = vector.fma %119, %195, %147 : vector<256xf32> loc(#loc24)
      %200 = memref.load %46[%89, %173] : memref<?x?xf32, strided<[?, 1]>> loc(#loc24)
      %201 = vector.broadcast %200 : f32 to vector<256xf32> loc(#loc24)
      %202 = vector.fma %119, %198, %150 : vector<256xf32> loc(#loc24)
      %203 = memref.load %46[%93, %173] : memref<?x?xf32, strided<[?, 1]>> loc(#loc24)
      %204 = vector.broadcast %203 : f32 to vector<256xf32> loc(#loc24)
      %205 = vector.fma %119, %201, %153 : vector<256xf32> loc(#loc24)
      %206 = memref.load %46[%97, %173] : memref<?x?xf32, strided<[?, 1]>> loc(#loc24)
      %207 = vector.broadcast %206 : f32 to vector<256xf32> loc(#loc24)
      %208 = vector.fma %119, %204, %156 : vector<256xf32> loc(#loc24)
      %209 = memref.load %46[%101, %173] : memref<?x?xf32, strided<[?, 1]>> loc(#loc24)
      %210 = vector.broadcast %209 : f32 to vector<256xf32> loc(#loc24)
      %211 = vector.fma %119, %207, %159 : vector<256xf32> loc(#loc24)
      %212 = memref.load %46[%105, %173] : memref<?x?xf32, strided<[?, 1]>> loc(#loc24)
      %213 = vector.broadcast %212 : f32 to vector<256xf32> loc(#loc24)
      %214 = vector.fma %119, %210, %162 : vector<256xf32> loc(#loc24)
      %215 = memref.load %46[%109, %173] : memref<?x?xf32, strided<[?, 1]>> loc(#loc24)
      %216 = vector.broadcast %215 : f32 to vector<256xf32> loc(#loc24)
      %217 = vector.fma %119, %213, %165 : vector<256xf32> loc(#loc24)
      %218 = memref.load %46[%113, %173] : memref<?x?xf32, strided<[?, 1]>> loc(#loc24)
      %219 = vector.broadcast %218 : f32 to vector<256xf32> loc(#loc24)
      %220 = vector.fma %119, %216, %168 : vector<256xf32> loc(#loc24)
      %221 = vector.fma %119, %219, %169 : vector<256xf32> loc(#loc24)
      %222 = arith.addi %49#0, %c4 : index loc(#loc24)
      %223 = vector.load %48[%222, %49#1] : memref<?x?xf32, strided<[?, 1]>>, vector<256xf32> loc(#loc24)
      %224 = arith.addi %49#0, %c67 : index loc(#loc24)
      memref.prefetch %48[%224, %49#1], read, locality<1>, data : memref<?x?xf32, strided<[?, 1]>> loc(#loc24)
      %225 = arith.addi %47#1, %c3 : index loc(#loc24)
      %226 = memref.load %46[%47#0, %225] : memref<?x?xf32, strided<[?, 1]>> loc(#loc24)
      %227 = vector.broadcast %226 : f32 to vector<256xf32> loc(#loc24)
      %228 = memref.load %46[%57, %225] : memref<?x?xf32, strided<[?, 1]>> loc(#loc24)
      %229 = vector.broadcast %228 : f32 to vector<256xf32> loc(#loc24)
      %230 = vector.fma %171, %227, %178 : vector<256xf32> loc(#loc24)
      %231 = memref.load %46[%61, %225] : memref<?x?xf32, strided<[?, 1]>> loc(#loc24)
      %232 = vector.broadcast %231 : f32 to vector<256xf32> loc(#loc24)
      %233 = vector.fma %171, %229, %181 : vector<256xf32> loc(#loc24)
      %234 = memref.load %46[%65, %225] : memref<?x?xf32, strided<[?, 1]>> loc(#loc24)
      %235 = vector.broadcast %234 : f32 to vector<256xf32> loc(#loc24)
      %236 = vector.fma %171, %232, %184 : vector<256xf32> loc(#loc24)
      %237 = memref.load %46[%69, %225] : memref<?x?xf32, strided<[?, 1]>> loc(#loc24)
      %238 = vector.broadcast %237 : f32 to vector<256xf32> loc(#loc24)
      %239 = vector.fma %171, %235, %187 : vector<256xf32> loc(#loc24)
      %240 = memref.load %46[%73, %225] : memref<?x?xf32, strided<[?, 1]>> loc(#loc24)
      %241 = vector.broadcast %240 : f32 to vector<256xf32> loc(#loc24)
      %242 = vector.fma %171, %238, %190 : vector<256xf32> loc(#loc24)
      %243 = memref.load %46[%77, %225] : memref<?x?xf32, strided<[?, 1]>> loc(#loc24)
      %244 = vector.broadcast %243 : f32 to vector<256xf32> loc(#loc24)
      %245 = vector.fma %171, %241, %193 : vector<256xf32> loc(#loc24)
      %246 = memref.load %46[%81, %225] : memref<?x?xf32, strided<[?, 1]>> loc(#loc24)
      %247 = vector.broadcast %246 : f32 to vector<256xf32> loc(#loc24)
      %248 = vector.fma %171, %244, %196 : vector<256xf32> loc(#loc24)
      %249 = memref.load %46[%85, %225] : memref<?x?xf32, strided<[?, 1]>> loc(#loc24)
      %250 = vector.broadcast %249 : f32 to vector<256xf32> loc(#loc24)
      %251 = vector.fma %171, %247, %199 : vector<256xf32> loc(#loc24)
      %252 = memref.load %46[%89, %225] : memref<?x?xf32, strided<[?, 1]>> loc(#loc24)
      %253 = vector.broadcast %252 : f32 to vector<256xf32> loc(#loc24)
      %254 = vector.fma %171, %250, %202 : vector<256xf32> loc(#loc24)
      %255 = memref.load %46[%93, %225] : memref<?x?xf32, strided<[?, 1]>> loc(#loc24)
      %256 = vector.broadcast %255 : f32 to vector<256xf32> loc(#loc24)
      %257 = vector.fma %171, %253, %205 : vector<256xf32> loc(#loc24)
      %258 = memref.load %46[%97, %225] : memref<?x?xf32, strided<[?, 1]>> loc(#loc24)
      %259 = vector.broadcast %258 : f32 to vector<256xf32> loc(#loc24)
      %260 = vector.fma %171, %256, %208 : vector<256xf32> loc(#loc24)
      %261 = memref.load %46[%101, %225] : memref<?x?xf32, strided<[?, 1]>> loc(#loc24)
      %262 = vector.broadcast %261 : f32 to vector<256xf32> loc(#loc24)
      %263 = vector.fma %171, %259, %211 : vector<256xf32> loc(#loc24)
      %264 = memref.load %46[%105, %225] : memref<?x?xf32, strided<[?, 1]>> loc(#loc24)
      %265 = vector.broadcast %264 : f32 to vector<256xf32> loc(#loc24)
      %266 = vector.fma %171, %262, %214 : vector<256xf32> loc(#loc24)
      %267 = memref.load %46[%109, %225] : memref<?x?xf32, strided<[?, 1]>> loc(#loc24)
      %268 = vector.broadcast %267 : f32 to vector<256xf32> loc(#loc24)
      %269 = vector.fma %171, %265, %217 : vector<256xf32> loc(#loc24)
      %270 = memref.load %46[%113, %225] : memref<?x?xf32, strided<[?, 1]>> loc(#loc24)
      %271 = vector.broadcast %270 : f32 to vector<256xf32> loc(#loc24)
      %272 = vector.fma %171, %268, %220 : vector<256xf32> loc(#loc24)
      %273 = vector.fma %171, %271, %221 : vector<256xf32> loc(#loc24)
      %274 = arith.addi %49#0, %c5 : index loc(#loc24)
      %275 = vector.load %48[%274, %49#1] : memref<?x?xf32, strided<[?, 1]>>, vector<256xf32> loc(#loc24)
      %276 = arith.addi %49#0, %c68 : index loc(#loc24)
      memref.prefetch %48[%276, %49#1], read, locality<1>, data : memref<?x?xf32, strided<[?, 1]>> loc(#loc24)
      %277 = arith.addi %47#1, %c4 : index loc(#loc24)
      %278 = memref.load %46[%47#0, %277] : memref<?x?xf32, strided<[?, 1]>> loc(#loc24)
      %279 = vector.broadcast %278 : f32 to vector<256xf32> loc(#loc24)
      %280 = memref.load %46[%57, %277] : memref<?x?xf32, strided<[?, 1]>> loc(#loc24)
      %281 = vector.broadcast %280 : f32 to vector<256xf32> loc(#loc24)
      %282 = vector.fma %223, %279, %230 : vector<256xf32> loc(#loc24)
      %283 = memref.load %46[%61, %277] : memref<?x?xf32, strided<[?, 1]>> loc(#loc24)
      %284 = vector.broadcast %283 : f32 to vector<256xf32> loc(#loc24)
      %285 = vector.fma %223, %281, %233 : vector<256xf32> loc(#loc24)
      %286 = memref.load %46[%65, %277] : memref<?x?xf32, strided<[?, 1]>> loc(#loc24)
      %287 = vector.broadcast %286 : f32 to vector<256xf32> loc(#loc24)
      %288 = vector.fma %223, %284, %236 : vector<256xf32> loc(#loc24)
      %289 = memref.load %46[%69, %277] : memref<?x?xf32, strided<[?, 1]>> loc(#loc24)
      %290 = vector.broadcast %289 : f32 to vector<256xf32> loc(#loc24)
      %291 = vector.fma %223, %287, %239 : vector<256xf32> loc(#loc24)
      %292 = memref.load %46[%73, %277] : memref<?x?xf32, strided<[?, 1]>> loc(#loc24)
      %293 = vector.broadcast %292 : f32 to vector<256xf32> loc(#loc24)
      %294 = vector.fma %223, %290, %242 : vector<256xf32> loc(#loc24)
      %295 = memref.load %46[%77, %277] : memref<?x?xf32, strided<[?, 1]>> loc(#loc24)
      %296 = vector.broadcast %295 : f32 to vector<256xf32> loc(#loc24)
      %297 = vector.fma %223, %293, %245 : vector<256xf32> loc(#loc24)
      %298 = memref.load %46[%81, %277] : memref<?x?xf32, strided<[?, 1]>> loc(#loc24)
      %299 = vector.broadcast %298 : f32 to vector<256xf32> loc(#loc24)
      %300 = vector.fma %223, %296, %248 : vector<256xf32> loc(#loc24)
      %301 = memref.load %46[%85, %277] : memref<?x?xf32, strided<[?, 1]>> loc(#loc24)
      %302 = vector.broadcast %301 : f32 to vector<256xf32> loc(#loc24)
      %303 = vector.fma %223, %299, %251 : vector<256xf32> loc(#loc24)
      %304 = memref.load %46[%89, %277] : memref<?x?xf32, strided<[?, 1]>> loc(#loc24)
      %305 = vector.broadcast %304 : f32 to vector<256xf32> loc(#loc24)
      %306 = vector.fma %223, %302, %254 : vector<256xf32> loc(#loc24)
      %307 = memref.load %46[%93, %277] : memref<?x?xf32, strided<[?, 1]>> loc(#loc24)
      %308 = vector.broadcast %307 : f32 to vector<256xf32> loc(#loc24)
      %309 = vector.fma %223, %305, %257 : vector<256xf32> loc(#loc24)
      %310 = memref.load %46[%97, %277] : memref<?x?xf32, strided<[?, 1]>> loc(#loc24)
      %311 = vector.broadcast %310 : f32 to vector<256xf32> loc(#loc24)
      %312 = vector.fma %223, %308, %260 : vector<256xf32> loc(#loc24)
      %313 = memref.load %46[%101, %277] : memref<?x?xf32, strided<[?, 1]>> loc(#loc24)
      %314 = vector.broadcast %313 : f32 to vector<256xf32> loc(#loc24)
      %315 = vector.fma %223, %311, %263 : vector<256xf32> loc(#loc24)
      %316 = memref.load %46[%105, %277] : memref<?x?xf32, strided<[?, 1]>> loc(#loc24)
      %317 = vector.broadcast %316 : f32 to vector<256xf32> loc(#loc24)
      %318 = vector.fma %223, %314, %266 : vector<256xf32> loc(#loc24)
      %319 = memref.load %46[%109, %277] : memref<?x?xf32, strided<[?, 1]>> loc(#loc24)
      %320 = vector.broadcast %319 : f32 to vector<256xf32> loc(#loc24)
      %321 = vector.fma %223, %317, %269 : vector<256xf32> loc(#loc24)
      %322 = memref.load %46[%113, %277] : memref<?x?xf32, strided<[?, 1]>> loc(#loc24)
      %323 = vector.broadcast %322 : f32 to vector<256xf32> loc(#loc24)
      %324 = vector.fma %223, %320, %272 : vector<256xf32> loc(#loc24)
      %325 = vector.fma %223, %323, %273 : vector<256xf32> loc(#loc24)
      %326 = arith.addi %49#0, %c6 : index loc(#loc24)
      %327 = vector.load %48[%326, %49#1] : memref<?x?xf32, strided<[?, 1]>>, vector<256xf32> loc(#loc24)
      %328 = arith.addi %49#0, %c69 : index loc(#loc24)
      memref.prefetch %48[%328, %49#1], read, locality<1>, data : memref<?x?xf32, strided<[?, 1]>> loc(#loc24)
      %329 = arith.addi %47#1, %c5 : index loc(#loc24)
      %330 = memref.load %46[%47#0, %329] : memref<?x?xf32, strided<[?, 1]>> loc(#loc24)
      %331 = vector.broadcast %330 : f32 to vector<256xf32> loc(#loc24)
      %332 = memref.load %46[%57, %329] : memref<?x?xf32, strided<[?, 1]>> loc(#loc24)
      %333 = vector.broadcast %332 : f32 to vector<256xf32> loc(#loc24)
      %334 = vector.fma %275, %331, %282 : vector<256xf32> loc(#loc24)
      %335 = memref.load %46[%61, %329] : memref<?x?xf32, strided<[?, 1]>> loc(#loc24)
      %336 = vector.broadcast %335 : f32 to vector<256xf32> loc(#loc24)
      %337 = vector.fma %275, %333, %285 : vector<256xf32> loc(#loc24)
      %338 = memref.load %46[%65, %329] : memref<?x?xf32, strided<[?, 1]>> loc(#loc24)
      %339 = vector.broadcast %338 : f32 to vector<256xf32> loc(#loc24)
      %340 = vector.fma %275, %336, %288 : vector<256xf32> loc(#loc24)
      %341 = memref.load %46[%69, %329] : memref<?x?xf32, strided<[?, 1]>> loc(#loc24)
      %342 = vector.broadcast %341 : f32 to vector<256xf32> loc(#loc24)
      %343 = vector.fma %275, %339, %291 : vector<256xf32> loc(#loc24)
      %344 = memref.load %46[%73, %329] : memref<?x?xf32, strided<[?, 1]>> loc(#loc24)
      %345 = vector.broadcast %344 : f32 to vector<256xf32> loc(#loc24)
      %346 = vector.fma %275, %342, %294 : vector<256xf32> loc(#loc24)
      %347 = memref.load %46[%77, %329] : memref<?x?xf32, strided<[?, 1]>> loc(#loc24)
      %348 = vector.broadcast %347 : f32 to vector<256xf32> loc(#loc24)
      %349 = vector.fma %275, %345, %297 : vector<256xf32> loc(#loc24)
      %350 = memref.load %46[%81, %329] : memref<?x?xf32, strided<[?, 1]>> loc(#loc24)
      %351 = vector.broadcast %350 : f32 to vector<256xf32> loc(#loc24)
      %352 = vector.fma %275, %348, %300 : vector<256xf32> loc(#loc24)
      %353 = memref.load %46[%85, %329] : memref<?x?xf32, strided<[?, 1]>> loc(#loc24)
      %354 = vector.broadcast %353 : f32 to vector<256xf32> loc(#loc24)
      %355 = vector.fma %275, %351, %303 : vector<256xf32> loc(#loc24)
      %356 = memref.load %46[%89, %329] : memref<?x?xf32, strided<[?, 1]>> loc(#loc24)
      %357 = vector.broadcast %356 : f32 to vector<256xf32> loc(#loc24)
      %358 = vector.fma %275, %354, %306 : vector<256xf32> loc(#loc24)
      %359 = memref.load %46[%93, %329] : memref<?x?xf32, strided<[?, 1]>> loc(#loc24)
      %360 = vector.broadcast %359 : f32 to vector<256xf32> loc(#loc24)
      %361 = vector.fma %275, %357, %309 : vector<256xf32> loc(#loc24)
      %362 = memref.load %46[%97, %329] : memref<?x?xf32, strided<[?, 1]>> loc(#loc24)
      %363 = vector.broadcast %362 : f32 to vector<256xf32> loc(#loc24)
      %364 = vector.fma %275, %360, %312 : vector<256xf32> loc(#loc24)
      %365 = memref.load %46[%101, %329] : memref<?x?xf32, strided<[?, 1]>> loc(#loc24)
      %366 = vector.broadcast %365 : f32 to vector<256xf32> loc(#loc24)
      %367 = vector.fma %275, %363, %315 : vector<256xf32> loc(#loc24)
      %368 = memref.load %46[%105, %329] : memref<?x?xf32, strided<[?, 1]>> loc(#loc24)
      %369 = vector.broadcast %368 : f32 to vector<256xf32> loc(#loc24)
      %370 = vector.fma %275, %366, %318 : vector<256xf32> loc(#loc24)
      %371 = memref.load %46[%109, %329] : memref<?x?xf32, strided<[?, 1]>> loc(#loc24)
      %372 = vector.broadcast %371 : f32 to vector<256xf32> loc(#loc24)
      %373 = vector.fma %275, %369, %321 : vector<256xf32> loc(#loc24)
      %374 = memref.load %46[%113, %329] : memref<?x?xf32, strided<[?, 1]>> loc(#loc24)
      %375 = vector.broadcast %374 : f32 to vector<256xf32> loc(#loc24)
      %376 = vector.fma %275, %372, %324 : vector<256xf32> loc(#loc24)
      %377 = vector.fma %275, %375, %325 : vector<256xf32> loc(#loc24)
      %378 = arith.addi %49#0, %c7 : index loc(#loc24)
      %379 = vector.load %48[%378, %49#1] : memref<?x?xf32, strided<[?, 1]>>, vector<256xf32> loc(#loc24)
      %380 = arith.addi %49#0, %c70 : index loc(#loc24)
      memref.prefetch %48[%380, %49#1], read, locality<1>, data : memref<?x?xf32, strided<[?, 1]>> loc(#loc24)
      %381 = arith.addi %47#1, %c6 : index loc(#loc24)
      %382 = memref.load %46[%47#0, %381] : memref<?x?xf32, strided<[?, 1]>> loc(#loc24)
      %383 = vector.broadcast %382 : f32 to vector<256xf32> loc(#loc24)
      %384 = memref.load %46[%57, %381] : memref<?x?xf32, strided<[?, 1]>> loc(#loc24)
      %385 = vector.broadcast %384 : f32 to vector<256xf32> loc(#loc24)
      %386 = vector.fma %327, %383, %334 : vector<256xf32> loc(#loc24)
      %387 = memref.load %46[%61, %381] : memref<?x?xf32, strided<[?, 1]>> loc(#loc24)
      %388 = vector.broadcast %387 : f32 to vector<256xf32> loc(#loc24)
      %389 = vector.fma %327, %385, %337 : vector<256xf32> loc(#loc24)
      %390 = memref.load %46[%65, %381] : memref<?x?xf32, strided<[?, 1]>> loc(#loc24)
      %391 = vector.broadcast %390 : f32 to vector<256xf32> loc(#loc24)
      %392 = vector.fma %327, %388, %340 : vector<256xf32> loc(#loc24)
      %393 = memref.load %46[%69, %381] : memref<?x?xf32, strided<[?, 1]>> loc(#loc24)
      %394 = vector.broadcast %393 : f32 to vector<256xf32> loc(#loc24)
      %395 = vector.fma %327, %391, %343 : vector<256xf32> loc(#loc24)
      %396 = memref.load %46[%73, %381] : memref<?x?xf32, strided<[?, 1]>> loc(#loc24)
      %397 = vector.broadcast %396 : f32 to vector<256xf32> loc(#loc24)
      %398 = vector.fma %327, %394, %346 : vector<256xf32> loc(#loc24)
      %399 = memref.load %46[%77, %381] : memref<?x?xf32, strided<[?, 1]>> loc(#loc24)
      %400 = vector.broadcast %399 : f32 to vector<256xf32> loc(#loc24)
      %401 = vector.fma %327, %397, %349 : vector<256xf32> loc(#loc24)
      %402 = memref.load %46[%81, %381] : memref<?x?xf32, strided<[?, 1]>> loc(#loc24)
      %403 = vector.broadcast %402 : f32 to vector<256xf32> loc(#loc24)
      %404 = vector.fma %327, %400, %352 : vector<256xf32> loc(#loc24)
      %405 = memref.load %46[%85, %381] : memref<?x?xf32, strided<[?, 1]>> loc(#loc24)
      %406 = vector.broadcast %405 : f32 to vector<256xf32> loc(#loc24)
      %407 = vector.fma %327, %403, %355 : vector<256xf32> loc(#loc24)
      %408 = memref.load %46[%89, %381] : memref<?x?xf32, strided<[?, 1]>> loc(#loc24)
      %409 = vector.broadcast %408 : f32 to vector<256xf32> loc(#loc24)
      %410 = vector.fma %327, %406, %358 : vector<256xf32> loc(#loc24)
      %411 = memref.load %46[%93, %381] : memref<?x?xf32, strided<[?, 1]>> loc(#loc24)
      %412 = vector.broadcast %411 : f32 to vector<256xf32> loc(#loc24)
      %413 = vector.fma %327, %409, %361 : vector<256xf32> loc(#loc24)
      %414 = memref.load %46[%97, %381] : memref<?x?xf32, strided<[?, 1]>> loc(#loc24)
      %415 = vector.broadcast %414 : f32 to vector<256xf32> loc(#loc24)
      %416 = vector.fma %327, %412, %364 : vector<256xf32> loc(#loc24)
      %417 = memref.load %46[%101, %381] : memref<?x?xf32, strided<[?, 1]>> loc(#loc24)
      %418 = vector.broadcast %417 : f32 to vector<256xf32> loc(#loc24)
      %419 = vector.fma %327, %415, %367 : vector<256xf32> loc(#loc24)
      %420 = memref.load %46[%105, %381] : memref<?x?xf32, strided<[?, 1]>> loc(#loc24)
      %421 = vector.broadcast %420 : f32 to vector<256xf32> loc(#loc24)
      %422 = vector.fma %327, %418, %370 : vector<256xf32> loc(#loc24)
      %423 = memref.load %46[%109, %381] : memref<?x?xf32, strided<[?, 1]>> loc(#loc24)
      %424 = vector.broadcast %423 : f32 to vector<256xf32> loc(#loc24)
      %425 = vector.fma %327, %421, %373 : vector<256xf32> loc(#loc24)
      %426 = memref.load %46[%113, %381] : memref<?x?xf32, strided<[?, 1]>> loc(#loc24)
      %427 = vector.broadcast %426 : f32 to vector<256xf32> loc(#loc24)
      %428 = vector.fma %327, %424, %376 : vector<256xf32> loc(#loc24)
      %429 = vector.fma %327, %427, %377 : vector<256xf32> loc(#loc24)
      %430 = arith.addi %49#0, %c8 : index loc(#loc24)
      %431 = vector.load %48[%430, %49#1] : memref<?x?xf32, strided<[?, 1]>>, vector<256xf32> loc(#loc24)
      %432 = arith.addi %49#0, %c71 : index loc(#loc24)
      memref.prefetch %48[%432, %49#1], read, locality<1>, data : memref<?x?xf32, strided<[?, 1]>> loc(#loc24)
      %433 = arith.addi %47#1, %c7 : index loc(#loc24)
      %434 = memref.load %46[%47#0, %433] : memref<?x?xf32, strided<[?, 1]>> loc(#loc24)
      %435 = vector.broadcast %434 : f32 to vector<256xf32> loc(#loc24)
      %436 = memref.load %46[%57, %433] : memref<?x?xf32, strided<[?, 1]>> loc(#loc24)
      %437 = vector.broadcast %436 : f32 to vector<256xf32> loc(#loc24)
      %438 = vector.fma %379, %435, %386 : vector<256xf32> loc(#loc24)
      %439 = memref.load %46[%61, %433] : memref<?x?xf32, strided<[?, 1]>> loc(#loc24)
      %440 = vector.broadcast %439 : f32 to vector<256xf32> loc(#loc24)
      %441 = vector.fma %379, %437, %389 : vector<256xf32> loc(#loc24)
      %442 = memref.load %46[%65, %433] : memref<?x?xf32, strided<[?, 1]>> loc(#loc24)
      %443 = vector.broadcast %442 : f32 to vector<256xf32> loc(#loc24)
      %444 = vector.fma %379, %440, %392 : vector<256xf32> loc(#loc24)
      %445 = memref.load %46[%69, %433] : memref<?x?xf32, strided<[?, 1]>> loc(#loc24)
      %446 = vector.broadcast %445 : f32 to vector<256xf32> loc(#loc24)
      %447 = vector.fma %379, %443, %395 : vector<256xf32> loc(#loc24)
      %448 = memref.load %46[%73, %433] : memref<?x?xf32, strided<[?, 1]>> loc(#loc24)
      %449 = vector.broadcast %448 : f32 to vector<256xf32> loc(#loc24)
      %450 = vector.fma %379, %446, %398 : vector<256xf32> loc(#loc24)
      %451 = memref.load %46[%77, %433] : memref<?x?xf32, strided<[?, 1]>> loc(#loc24)
      %452 = vector.broadcast %451 : f32 to vector<256xf32> loc(#loc24)
      %453 = vector.fma %379, %449, %401 : vector<256xf32> loc(#loc24)
      %454 = memref.load %46[%81, %433] : memref<?x?xf32, strided<[?, 1]>> loc(#loc24)
      %455 = vector.broadcast %454 : f32 to vector<256xf32> loc(#loc24)
      %456 = vector.fma %379, %452, %404 : vector<256xf32> loc(#loc24)
      %457 = memref.load %46[%85, %433] : memref<?x?xf32, strided<[?, 1]>> loc(#loc24)
      %458 = vector.broadcast %457 : f32 to vector<256xf32> loc(#loc24)
      %459 = vector.fma %379, %455, %407 : vector<256xf32> loc(#loc24)
      %460 = memref.load %46[%89, %433] : memref<?x?xf32, strided<[?, 1]>> loc(#loc24)
      %461 = vector.broadcast %460 : f32 to vector<256xf32> loc(#loc24)
      %462 = vector.fma %379, %458, %410 : vector<256xf32> loc(#loc24)
      %463 = memref.load %46[%93, %433] : memref<?x?xf32, strided<[?, 1]>> loc(#loc24)
      %464 = vector.broadcast %463 : f32 to vector<256xf32> loc(#loc24)
      %465 = vector.fma %379, %461, %413 : vector<256xf32> loc(#loc24)
      %466 = memref.load %46[%97, %433] : memref<?x?xf32, strided<[?, 1]>> loc(#loc24)
      %467 = vector.broadcast %466 : f32 to vector<256xf32> loc(#loc24)
      %468 = vector.fma %379, %464, %416 : vector<256xf32> loc(#loc24)
      %469 = memref.load %46[%101, %433] : memref<?x?xf32, strided<[?, 1]>> loc(#loc24)
      %470 = vector.broadcast %469 : f32 to vector<256xf32> loc(#loc24)
      %471 = vector.fma %379, %467, %419 : vector<256xf32> loc(#loc24)
      %472 = memref.load %46[%105, %433] : memref<?x?xf32, strided<[?, 1]>> loc(#loc24)
      %473 = vector.broadcast %472 : f32 to vector<256xf32> loc(#loc24)
      %474 = vector.fma %379, %470, %422 : vector<256xf32> loc(#loc24)
      %475 = memref.load %46[%109, %433] : memref<?x?xf32, strided<[?, 1]>> loc(#loc24)
      %476 = vector.broadcast %475 : f32 to vector<256xf32> loc(#loc24)
      %477 = vector.fma %379, %473, %425 : vector<256xf32> loc(#loc24)
      %478 = memref.load %46[%113, %433] : memref<?x?xf32, strided<[?, 1]>> loc(#loc24)
      %479 = vector.broadcast %478 : f32 to vector<256xf32> loc(#loc24)
      %480 = vector.fma %379, %476, %428 : vector<256xf32> loc(#loc24)
      %481 = vector.fma %379, %479, %429 : vector<256xf32> loc(#loc24)
      %482 = arith.addi %49#0, %c9 : index loc(#loc24)
      %483 = vector.load %48[%482, %49#1] : memref<?x?xf32, strided<[?, 1]>>, vector<256xf32> loc(#loc24)
      %484 = arith.addi %49#0, %c72 : index loc(#loc24)
      memref.prefetch %48[%484, %49#1], read, locality<1>, data : memref<?x?xf32, strided<[?, 1]>> loc(#loc24)
      %485 = arith.addi %47#1, %c8 : index loc(#loc24)
      %486 = memref.load %46[%47#0, %485] : memref<?x?xf32, strided<[?, 1]>> loc(#loc24)
      %487 = vector.broadcast %486 : f32 to vector<256xf32> loc(#loc24)
      %488 = memref.load %46[%57, %485] : memref<?x?xf32, strided<[?, 1]>> loc(#loc24)
      %489 = vector.broadcast %488 : f32 to vector<256xf32> loc(#loc24)
      %490 = arith.addi %47#1, %c72 : index loc(#loc24)
      memref.prefetch %46[%47#0, %490], read, locality<3>, data : memref<?x?xf32, strided<[?, 1]>> loc(#loc24)
      %491 = vector.fma %431, %487, %438 : vector<256xf32> loc(#loc24)
      %492 = memref.load %46[%61, %485] : memref<?x?xf32, strided<[?, 1]>> loc(#loc24)
      %493 = vector.broadcast %492 : f32 to vector<256xf32> loc(#loc24)
      memref.prefetch %46[%57, %490], read, locality<3>, data : memref<?x?xf32, strided<[?, 1]>> loc(#loc24)
      %494 = vector.fma %431, %489, %441 : vector<256xf32> loc(#loc24)
      %495 = memref.load %46[%65, %485] : memref<?x?xf32, strided<[?, 1]>> loc(#loc24)
      %496 = vector.broadcast %495 : f32 to vector<256xf32> loc(#loc24)
      memref.prefetch %46[%61, %490], read, locality<3>, data : memref<?x?xf32, strided<[?, 1]>> loc(#loc24)
      %497 = vector.fma %431, %493, %444 : vector<256xf32> loc(#loc24)
      %498 = memref.load %46[%69, %485] : memref<?x?xf32, strided<[?, 1]>> loc(#loc24)
      %499 = vector.broadcast %498 : f32 to vector<256xf32> loc(#loc24)
      memref.prefetch %46[%65, %490], read, locality<3>, data : memref<?x?xf32, strided<[?, 1]>> loc(#loc24)
      %500 = vector.fma %431, %496, %447 : vector<256xf32> loc(#loc24)
      %501 = memref.load %46[%73, %485] : memref<?x?xf32, strided<[?, 1]>> loc(#loc24)
      %502 = vector.broadcast %501 : f32 to vector<256xf32> loc(#loc24)
      memref.prefetch %46[%69, %490], read, locality<3>, data : memref<?x?xf32, strided<[?, 1]>> loc(#loc24)
      %503 = vector.fma %431, %499, %450 : vector<256xf32> loc(#loc24)
      %504 = memref.load %46[%77, %485] : memref<?x?xf32, strided<[?, 1]>> loc(#loc24)
      %505 = vector.broadcast %504 : f32 to vector<256xf32> loc(#loc24)
      memref.prefetch %46[%73, %490], read, locality<3>, data : memref<?x?xf32, strided<[?, 1]>> loc(#loc24)
      %506 = vector.fma %431, %502, %453 : vector<256xf32> loc(#loc24)
      %507 = memref.load %46[%81, %485] : memref<?x?xf32, strided<[?, 1]>> loc(#loc24)
      %508 = vector.broadcast %507 : f32 to vector<256xf32> loc(#loc24)
      memref.prefetch %46[%77, %490], read, locality<3>, data : memref<?x?xf32, strided<[?, 1]>> loc(#loc24)
      %509 = vector.fma %431, %505, %456 : vector<256xf32> loc(#loc24)
      %510 = memref.load %46[%85, %485] : memref<?x?xf32, strided<[?, 1]>> loc(#loc24)
      %511 = vector.broadcast %510 : f32 to vector<256xf32> loc(#loc24)
      memref.prefetch %46[%81, %490], read, locality<3>, data : memref<?x?xf32, strided<[?, 1]>> loc(#loc24)
      %512 = vector.fma %431, %508, %459 : vector<256xf32> loc(#loc24)
      %513 = memref.load %46[%89, %485] : memref<?x?xf32, strided<[?, 1]>> loc(#loc24)
      %514 = vector.broadcast %513 : f32 to vector<256xf32> loc(#loc24)
      memref.prefetch %46[%85, %490], read, locality<3>, data : memref<?x?xf32, strided<[?, 1]>> loc(#loc24)
      %515 = vector.fma %431, %511, %462 : vector<256xf32> loc(#loc24)
      %516 = memref.load %46[%93, %485] : memref<?x?xf32, strided<[?, 1]>> loc(#loc24)
      %517 = vector.broadcast %516 : f32 to vector<256xf32> loc(#loc24)
      memref.prefetch %46[%89, %490], read, locality<3>, data : memref<?x?xf32, strided<[?, 1]>> loc(#loc24)
      %518 = vector.fma %431, %514, %465 : vector<256xf32> loc(#loc24)
      %519 = memref.load %46[%97, %485] : memref<?x?xf32, strided<[?, 1]>> loc(#loc24)
      %520 = vector.broadcast %519 : f32 to vector<256xf32> loc(#loc24)
      memref.prefetch %46[%93, %490], read, locality<3>, data : memref<?x?xf32, strided<[?, 1]>> loc(#loc24)
      %521 = vector.fma %431, %517, %468 : vector<256xf32> loc(#loc24)
      %522 = memref.load %46[%101, %485] : memref<?x?xf32, strided<[?, 1]>> loc(#loc24)
      %523 = vector.broadcast %522 : f32 to vector<256xf32> loc(#loc24)
      memref.prefetch %46[%97, %490], read, locality<3>, data : memref<?x?xf32, strided<[?, 1]>> loc(#loc24)
      %524 = vector.fma %431, %520, %471 : vector<256xf32> loc(#loc24)
      %525 = memref.load %46[%105, %485] : memref<?x?xf32, strided<[?, 1]>> loc(#loc24)
      %526 = vector.broadcast %525 : f32 to vector<256xf32> loc(#loc24)
      memref.prefetch %46[%101, %490], read, locality<3>, data : memref<?x?xf32, strided<[?, 1]>> loc(#loc24)
      %527 = vector.fma %431, %523, %474 : vector<256xf32> loc(#loc24)
      %528 = memref.load %46[%109, %485] : memref<?x?xf32, strided<[?, 1]>> loc(#loc24)
      %529 = vector.broadcast %528 : f32 to vector<256xf32> loc(#loc24)
      memref.prefetch %46[%105, %490], read, locality<3>, data : memref<?x?xf32, strided<[?, 1]>> loc(#loc24)
      %530 = vector.fma %431, %526, %477 : vector<256xf32> loc(#loc24)
      %531 = memref.load %46[%113, %485] : memref<?x?xf32, strided<[?, 1]>> loc(#loc24)
      %532 = vector.broadcast %531 : f32 to vector<256xf32> loc(#loc24)
      memref.prefetch %46[%109, %490], read, locality<3>, data : memref<?x?xf32, strided<[?, 1]>> loc(#loc24)
      %533 = vector.fma %431, %529, %480 : vector<256xf32> loc(#loc24)
      memref.prefetch %46[%113, %490], read, locality<3>, data : memref<?x?xf32, strided<[?, 1]>> loc(#loc24)
      %534 = vector.fma %431, %532, %481 : vector<256xf32> loc(#loc24)
      %535 = arith.addi %49#0, %c10 : index loc(#loc24)
      %536 = vector.load %48[%535, %49#1] : memref<?x?xf32, strided<[?, 1]>>, vector<256xf32> loc(#loc24)
      %537 = arith.addi %49#0, %c73 : index loc(#loc24)
      memref.prefetch %48[%537, %49#1], read, locality<1>, data : memref<?x?xf32, strided<[?, 1]>> loc(#loc24)
      %538 = arith.addi %47#1, %c9 : index loc(#loc24)
      %539 = memref.load %46[%47#0, %538] : memref<?x?xf32, strided<[?, 1]>> loc(#loc24)
      %540 = vector.broadcast %539 : f32 to vector<256xf32> loc(#loc24)
      %541 = memref.load %46[%57, %538] : memref<?x?xf32, strided<[?, 1]>> loc(#loc24)
      %542 = vector.broadcast %541 : f32 to vector<256xf32> loc(#loc24)
      %543 = vector.fma %483, %540, %491 : vector<256xf32> loc(#loc24)
      %544 = memref.load %46[%61, %538] : memref<?x?xf32, strided<[?, 1]>> loc(#loc24)
      %545 = vector.broadcast %544 : f32 to vector<256xf32> loc(#loc24)
      %546 = vector.fma %483, %542, %494 : vector<256xf32> loc(#loc24)
      %547 = memref.load %46[%65, %538] : memref<?x?xf32, strided<[?, 1]>> loc(#loc24)
      %548 = vector.broadcast %547 : f32 to vector<256xf32> loc(#loc24)
      %549 = vector.fma %483, %545, %497 : vector<256xf32> loc(#loc24)
      %550 = memref.load %46[%69, %538] : memref<?x?xf32, strided<[?, 1]>> loc(#loc24)
      %551 = vector.broadcast %550 : f32 to vector<256xf32> loc(#loc24)
      %552 = vector.fma %483, %548, %500 : vector<256xf32> loc(#loc24)
      %553 = memref.load %46[%73, %538] : memref<?x?xf32, strided<[?, 1]>> loc(#loc24)
      %554 = vector.broadcast %553 : f32 to vector<256xf32> loc(#loc24)
      %555 = vector.fma %483, %551, %503 : vector<256xf32> loc(#loc24)
      %556 = memref.load %46[%77, %538] : memref<?x?xf32, strided<[?, 1]>> loc(#loc24)
      %557 = vector.broadcast %556 : f32 to vector<256xf32> loc(#loc24)
      %558 = vector.fma %483, %554, %506 : vector<256xf32> loc(#loc24)
      %559 = memref.load %46[%81, %538] : memref<?x?xf32, strided<[?, 1]>> loc(#loc24)
      %560 = vector.broadcast %559 : f32 to vector<256xf32> loc(#loc24)
      %561 = vector.fma %483, %557, %509 : vector<256xf32> loc(#loc24)
      %562 = memref.load %46[%85, %538] : memref<?x?xf32, strided<[?, 1]>> loc(#loc24)
      %563 = vector.broadcast %562 : f32 to vector<256xf32> loc(#loc24)
      %564 = vector.fma %483, %560, %512 : vector<256xf32> loc(#loc24)
      %565 = memref.load %46[%89, %538] : memref<?x?xf32, strided<[?, 1]>> loc(#loc24)
      %566 = vector.broadcast %565 : f32 to vector<256xf32> loc(#loc24)
      %567 = vector.fma %483, %563, %515 : vector<256xf32> loc(#loc24)
      %568 = memref.load %46[%93, %538] : memref<?x?xf32, strided<[?, 1]>> loc(#loc24)
      %569 = vector.broadcast %568 : f32 to vector<256xf32> loc(#loc24)
      %570 = vector.fma %483, %566, %518 : vector<256xf32> loc(#loc24)
      %571 = memref.load %46[%97, %538] : memref<?x?xf32, strided<[?, 1]>> loc(#loc24)
      %572 = vector.broadcast %571 : f32 to vector<256xf32> loc(#loc24)
      %573 = vector.fma %483, %569, %521 : vector<256xf32> loc(#loc24)
      %574 = memref.load %46[%101, %538] : memref<?x?xf32, strided<[?, 1]>> loc(#loc24)
      %575 = vector.broadcast %574 : f32 to vector<256xf32> loc(#loc24)
      %576 = vector.fma %483, %572, %524 : vector<256xf32> loc(#loc24)
      %577 = memref.load %46[%105, %538] : memref<?x?xf32, strided<[?, 1]>> loc(#loc24)
      %578 = vector.broadcast %577 : f32 to vector<256xf32> loc(#loc24)
      %579 = vector.fma %483, %575, %527 : vector<256xf32> loc(#loc24)
      %580 = memref.load %46[%109, %538] : memref<?x?xf32, strided<[?, 1]>> loc(#loc24)
      %581 = vector.broadcast %580 : f32 to vector<256xf32> loc(#loc24)
      %582 = vector.fma %483, %578, %530 : vector<256xf32> loc(#loc24)
      %583 = memref.load %46[%113, %538] : memref<?x?xf32, strided<[?, 1]>> loc(#loc24)
      %584 = vector.broadcast %583 : f32 to vector<256xf32> loc(#loc24)
      %585 = vector.fma %483, %581, %533 : vector<256xf32> loc(#loc24)
      %586 = vector.fma %483, %584, %534 : vector<256xf32> loc(#loc24)
      %587 = arith.addi %49#0, %c11 : index loc(#loc24)
      %588 = vector.load %48[%587, %49#1] : memref<?x?xf32, strided<[?, 1]>>, vector<256xf32> loc(#loc24)
      %589 = arith.addi %49#0, %c74 : index loc(#loc24)
      memref.prefetch %48[%589, %49#1], read, locality<1>, data : memref<?x?xf32, strided<[?, 1]>> loc(#loc24)
      %590 = arith.addi %47#1, %c10 : index loc(#loc24)
      %591 = memref.load %46[%47#0, %590] : memref<?x?xf32, strided<[?, 1]>> loc(#loc24)
      %592 = vector.broadcast %591 : f32 to vector<256xf32> loc(#loc24)
      %593 = memref.load %46[%57, %590] : memref<?x?xf32, strided<[?, 1]>> loc(#loc24)
      %594 = vector.broadcast %593 : f32 to vector<256xf32> loc(#loc24)
      %595 = vector.fma %536, %592, %543 : vector<256xf32> loc(#loc24)
      %596 = memref.load %46[%61, %590] : memref<?x?xf32, strided<[?, 1]>> loc(#loc24)
      %597 = vector.broadcast %596 : f32 to vector<256xf32> loc(#loc24)
      %598 = vector.fma %536, %594, %546 : vector<256xf32> loc(#loc24)
      %599 = memref.load %46[%65, %590] : memref<?x?xf32, strided<[?, 1]>> loc(#loc24)
      %600 = vector.broadcast %599 : f32 to vector<256xf32> loc(#loc24)
      %601 = vector.fma %536, %597, %549 : vector<256xf32> loc(#loc24)
      %602 = memref.load %46[%69, %590] : memref<?x?xf32, strided<[?, 1]>> loc(#loc24)
      %603 = vector.broadcast %602 : f32 to vector<256xf32> loc(#loc24)
      %604 = vector.fma %536, %600, %552 : vector<256xf32> loc(#loc24)
      %605 = memref.load %46[%73, %590] : memref<?x?xf32, strided<[?, 1]>> loc(#loc24)
      %606 = vector.broadcast %605 : f32 to vector<256xf32> loc(#loc24)
      %607 = vector.fma %536, %603, %555 : vector<256xf32> loc(#loc24)
      %608 = memref.load %46[%77, %590] : memref<?x?xf32, strided<[?, 1]>> loc(#loc24)
      %609 = vector.broadcast %608 : f32 to vector<256xf32> loc(#loc24)
      %610 = vector.fma %536, %606, %558 : vector<256xf32> loc(#loc24)
      %611 = memref.load %46[%81, %590] : memref<?x?xf32, strided<[?, 1]>> loc(#loc24)
      %612 = vector.broadcast %611 : f32 to vector<256xf32> loc(#loc24)
      %613 = vector.fma %536, %609, %561 : vector<256xf32> loc(#loc24)
      %614 = memref.load %46[%85, %590] : memref<?x?xf32, strided<[?, 1]>> loc(#loc24)
      %615 = vector.broadcast %614 : f32 to vector<256xf32> loc(#loc24)
      %616 = vector.fma %536, %612, %564 : vector<256xf32> loc(#loc24)
      %617 = memref.load %46[%89, %590] : memref<?x?xf32, strided<[?, 1]>> loc(#loc24)
      %618 = vector.broadcast %617 : f32 to vector<256xf32> loc(#loc24)
      %619 = vector.fma %536, %615, %567 : vector<256xf32> loc(#loc24)
      %620 = memref.load %46[%93, %590] : memref<?x?xf32, strided<[?, 1]>> loc(#loc24)
      %621 = vector.broadcast %620 : f32 to vector<256xf32> loc(#loc24)
      %622 = vector.fma %536, %618, %570 : vector<256xf32> loc(#loc24)
      %623 = memref.load %46[%97, %590] : memref<?x?xf32, strided<[?, 1]>> loc(#loc24)
      %624 = vector.broadcast %623 : f32 to vector<256xf32> loc(#loc24)
      %625 = vector.fma %536, %621, %573 : vector<256xf32> loc(#loc24)
      %626 = memref.load %46[%101, %590] : memref<?x?xf32, strided<[?, 1]>> loc(#loc24)
      %627 = vector.broadcast %626 : f32 to vector<256xf32> loc(#loc24)
      %628 = vector.fma %536, %624, %576 : vector<256xf32> loc(#loc24)
      %629 = memref.load %46[%105, %590] : memref<?x?xf32, strided<[?, 1]>> loc(#loc24)
      %630 = vector.broadcast %629 : f32 to vector<256xf32> loc(#loc24)
      %631 = vector.fma %536, %627, %579 : vector<256xf32> loc(#loc24)
      %632 = memref.load %46[%109, %590] : memref<?x?xf32, strided<[?, 1]>> loc(#loc24)
      %633 = vector.broadcast %632 : f32 to vector<256xf32> loc(#loc24)
      %634 = vector.fma %536, %630, %582 : vector<256xf32> loc(#loc24)
      %635 = memref.load %46[%113, %590] : memref<?x?xf32, strided<[?, 1]>> loc(#loc24)
      %636 = vector.broadcast %635 : f32 to vector<256xf32> loc(#loc24)
      %637 = vector.fma %536, %633, %585 : vector<256xf32> loc(#loc24)
      %638 = vector.fma %536, %636, %586 : vector<256xf32> loc(#loc24)
      %639 = arith.addi %49#0, %c12 : index loc(#loc24)
      %640 = vector.load %48[%639, %49#1] : memref<?x?xf32, strided<[?, 1]>>, vector<256xf32> loc(#loc24)
      %641 = arith.addi %49#0, %c75 : index loc(#loc24)
      memref.prefetch %48[%641, %49#1], read, locality<1>, data : memref<?x?xf32, strided<[?, 1]>> loc(#loc24)
      %642 = arith.addi %47#1, %c11 : index loc(#loc24)
      %643 = memref.load %46[%47#0, %642] : memref<?x?xf32, strided<[?, 1]>> loc(#loc24)
      %644 = vector.broadcast %643 : f32 to vector<256xf32> loc(#loc24)
      %645 = memref.load %46[%57, %642] : memref<?x?xf32, strided<[?, 1]>> loc(#loc24)
      %646 = vector.broadcast %645 : f32 to vector<256xf32> loc(#loc24)
      %647 = vector.fma %588, %644, %595 : vector<256xf32> loc(#loc24)
      %648 = memref.load %46[%61, %642] : memref<?x?xf32, strided<[?, 1]>> loc(#loc24)
      %649 = vector.broadcast %648 : f32 to vector<256xf32> loc(#loc24)
      %650 = vector.fma %588, %646, %598 : vector<256xf32> loc(#loc24)
      %651 = memref.load %46[%65, %642] : memref<?x?xf32, strided<[?, 1]>> loc(#loc24)
      %652 = vector.broadcast %651 : f32 to vector<256xf32> loc(#loc24)
      %653 = vector.fma %588, %649, %601 : vector<256xf32> loc(#loc24)
      %654 = memref.load %46[%69, %642] : memref<?x?xf32, strided<[?, 1]>> loc(#loc24)
      %655 = vector.broadcast %654 : f32 to vector<256xf32> loc(#loc24)
      %656 = vector.fma %588, %652, %604 : vector<256xf32> loc(#loc24)
      %657 = memref.load %46[%73, %642] : memref<?x?xf32, strided<[?, 1]>> loc(#loc24)
      %658 = vector.broadcast %657 : f32 to vector<256xf32> loc(#loc24)
      %659 = vector.fma %588, %655, %607 : vector<256xf32> loc(#loc24)
      %660 = memref.load %46[%77, %642] : memref<?x?xf32, strided<[?, 1]>> loc(#loc24)
      %661 = vector.broadcast %660 : f32 to vector<256xf32> loc(#loc24)
      %662 = vector.fma %588, %658, %610 : vector<256xf32> loc(#loc24)
      %663 = memref.load %46[%81, %642] : memref<?x?xf32, strided<[?, 1]>> loc(#loc24)
      %664 = vector.broadcast %663 : f32 to vector<256xf32> loc(#loc24)
      %665 = vector.fma %588, %661, %613 : vector<256xf32> loc(#loc24)
      %666 = memref.load %46[%85, %642] : memref<?x?xf32, strided<[?, 1]>> loc(#loc24)
      %667 = vector.broadcast %666 : f32 to vector<256xf32> loc(#loc24)
      %668 = vector.fma %588, %664, %616 : vector<256xf32> loc(#loc24)
      %669 = memref.load %46[%89, %642] : memref<?x?xf32, strided<[?, 1]>> loc(#loc24)
      %670 = vector.broadcast %669 : f32 to vector<256xf32> loc(#loc24)
      %671 = vector.fma %588, %667, %619 : vector<256xf32> loc(#loc24)
      %672 = memref.load %46[%93, %642] : memref<?x?xf32, strided<[?, 1]>> loc(#loc24)
      %673 = vector.broadcast %672 : f32 to vector<256xf32> loc(#loc24)
      %674 = vector.fma %588, %670, %622 : vector<256xf32> loc(#loc24)
      %675 = memref.load %46[%97, %642] : memref<?x?xf32, strided<[?, 1]>> loc(#loc24)
      %676 = vector.broadcast %675 : f32 to vector<256xf32> loc(#loc24)
      %677 = vector.fma %588, %673, %625 : vector<256xf32> loc(#loc24)
      %678 = memref.load %46[%101, %642] : memref<?x?xf32, strided<[?, 1]>> loc(#loc24)
      %679 = vector.broadcast %678 : f32 to vector<256xf32> loc(#loc24)
      %680 = vector.fma %588, %676, %628 : vector<256xf32> loc(#loc24)
      %681 = memref.load %46[%105, %642] : memref<?x?xf32, strided<[?, 1]>> loc(#loc24)
      %682 = vector.broadcast %681 : f32 to vector<256xf32> loc(#loc24)
      %683 = vector.fma %588, %679, %631 : vector<256xf32> loc(#loc24)
      %684 = memref.load %46[%109, %642] : memref<?x?xf32, strided<[?, 1]>> loc(#loc24)
      %685 = vector.broadcast %684 : f32 to vector<256xf32> loc(#loc24)
      %686 = vector.fma %588, %682, %634 : vector<256xf32> loc(#loc24)
      %687 = memref.load %46[%113, %642] : memref<?x?xf32, strided<[?, 1]>> loc(#loc24)
      %688 = vector.broadcast %687 : f32 to vector<256xf32> loc(#loc24)
      %689 = vector.fma %588, %685, %637 : vector<256xf32> loc(#loc24)
      %690 = vector.fma %588, %688, %638 : vector<256xf32> loc(#loc24)
      %691 = arith.addi %49#0, %c13 : index loc(#loc24)
      %692 = vector.load %48[%691, %49#1] : memref<?x?xf32, strided<[?, 1]>>, vector<256xf32> loc(#loc24)
      %693 = arith.addi %49#0, %c76 : index loc(#loc24)
      memref.prefetch %48[%693, %49#1], read, locality<1>, data : memref<?x?xf32, strided<[?, 1]>> loc(#loc24)
      %694 = arith.addi %47#1, %c12 : index loc(#loc24)
      %695 = memref.load %46[%47#0, %694] : memref<?x?xf32, strided<[?, 1]>> loc(#loc24)
      %696 = vector.broadcast %695 : f32 to vector<256xf32> loc(#loc24)
      %697 = memref.load %46[%57, %694] : memref<?x?xf32, strided<[?, 1]>> loc(#loc24)
      %698 = vector.broadcast %697 : f32 to vector<256xf32> loc(#loc24)
      %699 = vector.fma %640, %696, %647 : vector<256xf32> loc(#loc24)
      %700 = memref.load %46[%61, %694] : memref<?x?xf32, strided<[?, 1]>> loc(#loc24)
      %701 = vector.broadcast %700 : f32 to vector<256xf32> loc(#loc24)
      %702 = vector.fma %640, %698, %650 : vector<256xf32> loc(#loc24)
      %703 = memref.load %46[%65, %694] : memref<?x?xf32, strided<[?, 1]>> loc(#loc24)
      %704 = vector.broadcast %703 : f32 to vector<256xf32> loc(#loc24)
      %705 = vector.fma %640, %701, %653 : vector<256xf32> loc(#loc24)
      %706 = memref.load %46[%69, %694] : memref<?x?xf32, strided<[?, 1]>> loc(#loc24)
      %707 = vector.broadcast %706 : f32 to vector<256xf32> loc(#loc24)
      %708 = vector.fma %640, %704, %656 : vector<256xf32> loc(#loc24)
      %709 = memref.load %46[%73, %694] : memref<?x?xf32, strided<[?, 1]>> loc(#loc24)
      %710 = vector.broadcast %709 : f32 to vector<256xf32> loc(#loc24)
      %711 = vector.fma %640, %707, %659 : vector<256xf32> loc(#loc24)
      %712 = memref.load %46[%77, %694] : memref<?x?xf32, strided<[?, 1]>> loc(#loc24)
      %713 = vector.broadcast %712 : f32 to vector<256xf32> loc(#loc24)
      %714 = vector.fma %640, %710, %662 : vector<256xf32> loc(#loc24)
      %715 = memref.load %46[%81, %694] : memref<?x?xf32, strided<[?, 1]>> loc(#loc24)
      %716 = vector.broadcast %715 : f32 to vector<256xf32> loc(#loc24)
      %717 = vector.fma %640, %713, %665 : vector<256xf32> loc(#loc24)
      %718 = memref.load %46[%85, %694] : memref<?x?xf32, strided<[?, 1]>> loc(#loc24)
      %719 = vector.broadcast %718 : f32 to vector<256xf32> loc(#loc24)
      %720 = vector.fma %640, %716, %668 : vector<256xf32> loc(#loc24)
      %721 = memref.load %46[%89, %694] : memref<?x?xf32, strided<[?, 1]>> loc(#loc24)
      %722 = vector.broadcast %721 : f32 to vector<256xf32> loc(#loc24)
      %723 = vector.fma %640, %719, %671 : vector<256xf32> loc(#loc24)
      %724 = memref.load %46[%93, %694] : memref<?x?xf32, strided<[?, 1]>> loc(#loc24)
      %725 = vector.broadcast %724 : f32 to vector<256xf32> loc(#loc24)
      %726 = vector.fma %640, %722, %674 : vector<256xf32> loc(#loc24)
      %727 = memref.load %46[%97, %694] : memref<?x?xf32, strided<[?, 1]>> loc(#loc24)
      %728 = vector.broadcast %727 : f32 to vector<256xf32> loc(#loc24)
      %729 = vector.fma %640, %725, %677 : vector<256xf32> loc(#loc24)
      %730 = memref.load %46[%101, %694] : memref<?x?xf32, strided<[?, 1]>> loc(#loc24)
      %731 = vector.broadcast %730 : f32 to vector<256xf32> loc(#loc24)
      %732 = vector.fma %640, %728, %680 : vector<256xf32> loc(#loc24)
      %733 = memref.load %46[%105, %694] : memref<?x?xf32, strided<[?, 1]>> loc(#loc24)
      %734 = vector.broadcast %733 : f32 to vector<256xf32> loc(#loc24)
      %735 = vector.fma %640, %731, %683 : vector<256xf32> loc(#loc24)
      %736 = memref.load %46[%109, %694] : memref<?x?xf32, strided<[?, 1]>> loc(#loc24)
      %737 = vector.broadcast %736 : f32 to vector<256xf32> loc(#loc24)
      %738 = vector.fma %640, %734, %686 : vector<256xf32> loc(#loc24)
      %739 = memref.load %46[%113, %694] : memref<?x?xf32, strided<[?, 1]>> loc(#loc24)
      %740 = vector.broadcast %739 : f32 to vector<256xf32> loc(#loc24)
      %741 = vector.fma %640, %737, %689 : vector<256xf32> loc(#loc24)
      %742 = vector.fma %640, %740, %690 : vector<256xf32> loc(#loc24)
      %743 = arith.addi %49#0, %c14 : index loc(#loc24)
      %744 = vector.load %48[%743, %49#1] : memref<?x?xf32, strided<[?, 1]>>, vector<256xf32> loc(#loc24)
      %745 = arith.addi %49#0, %c77 : index loc(#loc24)
      memref.prefetch %48[%745, %49#1], read, locality<1>, data : memref<?x?xf32, strided<[?, 1]>> loc(#loc24)
      %746 = arith.addi %47#1, %c13 : index loc(#loc24)
      %747 = memref.load %46[%47#0, %746] : memref<?x?xf32, strided<[?, 1]>> loc(#loc24)
      %748 = vector.broadcast %747 : f32 to vector<256xf32> loc(#loc24)
      %749 = memref.load %46[%57, %746] : memref<?x?xf32, strided<[?, 1]>> loc(#loc24)
      %750 = vector.broadcast %749 : f32 to vector<256xf32> loc(#loc24)
      %751 = vector.fma %692, %748, %699 : vector<256xf32> loc(#loc24)
      %752 = memref.load %46[%61, %746] : memref<?x?xf32, strided<[?, 1]>> loc(#loc24)
      %753 = vector.broadcast %752 : f32 to vector<256xf32> loc(#loc24)
      %754 = vector.fma %692, %750, %702 : vector<256xf32> loc(#loc24)
      %755 = memref.load %46[%65, %746] : memref<?x?xf32, strided<[?, 1]>> loc(#loc24)
      %756 = vector.broadcast %755 : f32 to vector<256xf32> loc(#loc24)
      %757 = vector.fma %692, %753, %705 : vector<256xf32> loc(#loc24)
      %758 = memref.load %46[%69, %746] : memref<?x?xf32, strided<[?, 1]>> loc(#loc24)
      %759 = vector.broadcast %758 : f32 to vector<256xf32> loc(#loc24)
      %760 = vector.fma %692, %756, %708 : vector<256xf32> loc(#loc24)
      %761 = memref.load %46[%73, %746] : memref<?x?xf32, strided<[?, 1]>> loc(#loc24)
      %762 = vector.broadcast %761 : f32 to vector<256xf32> loc(#loc24)
      %763 = vector.fma %692, %759, %711 : vector<256xf32> loc(#loc24)
      %764 = memref.load %46[%77, %746] : memref<?x?xf32, strided<[?, 1]>> loc(#loc24)
      %765 = vector.broadcast %764 : f32 to vector<256xf32> loc(#loc24)
      %766 = vector.fma %692, %762, %714 : vector<256xf32> loc(#loc24)
      %767 = memref.load %46[%81, %746] : memref<?x?xf32, strided<[?, 1]>> loc(#loc24)
      %768 = vector.broadcast %767 : f32 to vector<256xf32> loc(#loc24)
      %769 = vector.fma %692, %765, %717 : vector<256xf32> loc(#loc24)
      %770 = memref.load %46[%85, %746] : memref<?x?xf32, strided<[?, 1]>> loc(#loc24)
      %771 = vector.broadcast %770 : f32 to vector<256xf32> loc(#loc24)
      %772 = vector.fma %692, %768, %720 : vector<256xf32> loc(#loc24)
      %773 = memref.load %46[%89, %746] : memref<?x?xf32, strided<[?, 1]>> loc(#loc24)
      %774 = vector.broadcast %773 : f32 to vector<256xf32> loc(#loc24)
      %775 = vector.fma %692, %771, %723 : vector<256xf32> loc(#loc24)
      %776 = memref.load %46[%93, %746] : memref<?x?xf32, strided<[?, 1]>> loc(#loc24)
      %777 = vector.broadcast %776 : f32 to vector<256xf32> loc(#loc24)
      %778 = vector.fma %692, %774, %726 : vector<256xf32> loc(#loc24)
      %779 = memref.load %46[%97, %746] : memref<?x?xf32, strided<[?, 1]>> loc(#loc24)
      %780 = vector.broadcast %779 : f32 to vector<256xf32> loc(#loc24)
      %781 = vector.fma %692, %777, %729 : vector<256xf32> loc(#loc24)
      %782 = memref.load %46[%101, %746] : memref<?x?xf32, strided<[?, 1]>> loc(#loc24)
      %783 = vector.broadcast %782 : f32 to vector<256xf32> loc(#loc24)
      %784 = vector.fma %692, %780, %732 : vector<256xf32> loc(#loc24)
      %785 = memref.load %46[%105, %746] : memref<?x?xf32, strided<[?, 1]>> loc(#loc24)
      %786 = vector.broadcast %785 : f32 to vector<256xf32> loc(#loc24)
      %787 = vector.fma %692, %783, %735 : vector<256xf32> loc(#loc24)
      %788 = memref.load %46[%109, %746] : memref<?x?xf32, strided<[?, 1]>> loc(#loc24)
      %789 = vector.broadcast %788 : f32 to vector<256xf32> loc(#loc24)
      %790 = vector.fma %692, %786, %738 : vector<256xf32> loc(#loc24)
      %791 = memref.load %46[%113, %746] : memref<?x?xf32, strided<[?, 1]>> loc(#loc24)
      %792 = vector.broadcast %791 : f32 to vector<256xf32> loc(#loc24)
      %793 = vector.fma %692, %789, %741 : vector<256xf32> loc(#loc24)
      %794 = vector.fma %692, %792, %742 : vector<256xf32> loc(#loc24)
      %795 = arith.addi %49#0, %c15 : index loc(#loc24)
      %796 = vector.load %48[%795, %49#1] : memref<?x?xf32, strided<[?, 1]>>, vector<256xf32> loc(#loc24)
      %797 = arith.addi %49#0, %c78 : index loc(#loc24)
      memref.prefetch %48[%797, %49#1], read, locality<1>, data : memref<?x?xf32, strided<[?, 1]>> loc(#loc24)
      %798 = arith.addi %47#1, %c14 : index loc(#loc24)
      %799 = memref.load %46[%47#0, %798] : memref<?x?xf32, strided<[?, 1]>> loc(#loc24)
      %800 = vector.broadcast %799 : f32 to vector<256xf32> loc(#loc24)
      %801 = memref.load %46[%57, %798] : memref<?x?xf32, strided<[?, 1]>> loc(#loc24)
      %802 = vector.broadcast %801 : f32 to vector<256xf32> loc(#loc24)
      %803 = vector.fma %744, %800, %751 : vector<256xf32> loc(#loc24)
      %804 = memref.load %46[%61, %798] : memref<?x?xf32, strided<[?, 1]>> loc(#loc24)
      %805 = vector.broadcast %804 : f32 to vector<256xf32> loc(#loc24)
      %806 = vector.fma %744, %802, %754 : vector<256xf32> loc(#loc24)
      %807 = memref.load %46[%65, %798] : memref<?x?xf32, strided<[?, 1]>> loc(#loc24)
      %808 = vector.broadcast %807 : f32 to vector<256xf32> loc(#loc24)
      %809 = vector.fma %744, %805, %757 : vector<256xf32> loc(#loc24)
      %810 = memref.load %46[%69, %798] : memref<?x?xf32, strided<[?, 1]>> loc(#loc24)
      %811 = vector.broadcast %810 : f32 to vector<256xf32> loc(#loc24)
      %812 = vector.fma %744, %808, %760 : vector<256xf32> loc(#loc24)
      %813 = memref.load %46[%73, %798] : memref<?x?xf32, strided<[?, 1]>> loc(#loc24)
      %814 = vector.broadcast %813 : f32 to vector<256xf32> loc(#loc24)
      %815 = vector.fma %744, %811, %763 : vector<256xf32> loc(#loc24)
      %816 = memref.load %46[%77, %798] : memref<?x?xf32, strided<[?, 1]>> loc(#loc24)
      %817 = vector.broadcast %816 : f32 to vector<256xf32> loc(#loc24)
      %818 = vector.fma %744, %814, %766 : vector<256xf32> loc(#loc24)
      %819 = memref.load %46[%81, %798] : memref<?x?xf32, strided<[?, 1]>> loc(#loc24)
      %820 = vector.broadcast %819 : f32 to vector<256xf32> loc(#loc24)
      %821 = vector.fma %744, %817, %769 : vector<256xf32> loc(#loc24)
      %822 = memref.load %46[%85, %798] : memref<?x?xf32, strided<[?, 1]>> loc(#loc24)
      %823 = vector.broadcast %822 : f32 to vector<256xf32> loc(#loc24)
      %824 = vector.fma %744, %820, %772 : vector<256xf32> loc(#loc24)
      %825 = memref.load %46[%89, %798] : memref<?x?xf32, strided<[?, 1]>> loc(#loc24)
      %826 = vector.broadcast %825 : f32 to vector<256xf32> loc(#loc24)
      %827 = vector.fma %744, %823, %775 : vector<256xf32> loc(#loc24)
      %828 = memref.load %46[%93, %798] : memref<?x?xf32, strided<[?, 1]>> loc(#loc24)
      %829 = vector.broadcast %828 : f32 to vector<256xf32> loc(#loc24)
      %830 = vector.fma %744, %826, %778 : vector<256xf32> loc(#loc24)
      %831 = memref.load %46[%97, %798] : memref<?x?xf32, strided<[?, 1]>> loc(#loc24)
      %832 = vector.broadcast %831 : f32 to vector<256xf32> loc(#loc24)
      %833 = vector.fma %744, %829, %781 : vector<256xf32> loc(#loc24)
      %834 = memref.load %46[%101, %798] : memref<?x?xf32, strided<[?, 1]>> loc(#loc24)
      %835 = vector.broadcast %834 : f32 to vector<256xf32> loc(#loc24)
      %836 = vector.fma %744, %832, %784 : vector<256xf32> loc(#loc24)
      %837 = memref.load %46[%105, %798] : memref<?x?xf32, strided<[?, 1]>> loc(#loc24)
      %838 = vector.broadcast %837 : f32 to vector<256xf32> loc(#loc24)
      %839 = vector.fma %744, %835, %787 : vector<256xf32> loc(#loc24)
      %840 = memref.load %46[%109, %798] : memref<?x?xf32, strided<[?, 1]>> loc(#loc24)
      %841 = vector.broadcast %840 : f32 to vector<256xf32> loc(#loc24)
      %842 = vector.fma %744, %838, %790 : vector<256xf32> loc(#loc24)
      %843 = memref.load %46[%113, %798] : memref<?x?xf32, strided<[?, 1]>> loc(#loc24)
      %844 = vector.broadcast %843 : f32 to vector<256xf32> loc(#loc24)
      %845 = vector.fma %744, %841, %793 : vector<256xf32> loc(#loc24)
      %846 = vector.fma %744, %844, %794 : vector<256xf32> loc(#loc24)
      %847 = arith.addi %49#0, %c16 : index loc(#loc24)
      %848 = vector.load %48[%847, %49#1] : memref<?x?xf32, strided<[?, 1]>>, vector<256xf32> loc(#loc24)
      %849 = arith.addi %49#0, %c79 : index loc(#loc24)
      memref.prefetch %48[%849, %49#1], read, locality<1>, data : memref<?x?xf32, strided<[?, 1]>> loc(#loc24)
      %850 = arith.addi %47#1, %c15 : index loc(#loc24)
      %851 = memref.load %46[%47#0, %850] : memref<?x?xf32, strided<[?, 1]>> loc(#loc24)
      %852 = vector.broadcast %851 : f32 to vector<256xf32> loc(#loc24)
      %853 = memref.load %46[%57, %850] : memref<?x?xf32, strided<[?, 1]>> loc(#loc24)
      %854 = vector.broadcast %853 : f32 to vector<256xf32> loc(#loc24)
      %855 = vector.fma %796, %852, %803 : vector<256xf32> loc(#loc24)
      %856 = memref.load %46[%61, %850] : memref<?x?xf32, strided<[?, 1]>> loc(#loc24)
      %857 = vector.broadcast %856 : f32 to vector<256xf32> loc(#loc24)
      %858 = vector.fma %796, %854, %806 : vector<256xf32> loc(#loc24)
      %859 = memref.load %46[%65, %850] : memref<?x?xf32, strided<[?, 1]>> loc(#loc24)
      %860 = vector.broadcast %859 : f32 to vector<256xf32> loc(#loc24)
      %861 = vector.fma %796, %857, %809 : vector<256xf32> loc(#loc24)
      %862 = memref.load %46[%69, %850] : memref<?x?xf32, strided<[?, 1]>> loc(#loc24)
      %863 = vector.broadcast %862 : f32 to vector<256xf32> loc(#loc24)
      %864 = vector.fma %796, %860, %812 : vector<256xf32> loc(#loc24)
      %865 = memref.load %46[%73, %850] : memref<?x?xf32, strided<[?, 1]>> loc(#loc24)
      %866 = vector.broadcast %865 : f32 to vector<256xf32> loc(#loc24)
      %867 = vector.fma %796, %863, %815 : vector<256xf32> loc(#loc24)
      %868 = memref.load %46[%77, %850] : memref<?x?xf32, strided<[?, 1]>> loc(#loc24)
      %869 = vector.broadcast %868 : f32 to vector<256xf32> loc(#loc24)
      %870 = vector.fma %796, %866, %818 : vector<256xf32> loc(#loc24)
      %871 = memref.load %46[%81, %850] : memref<?x?xf32, strided<[?, 1]>> loc(#loc24)
      %872 = vector.broadcast %871 : f32 to vector<256xf32> loc(#loc24)
      %873 = vector.fma %796, %869, %821 : vector<256xf32> loc(#loc24)
      %874 = memref.load %46[%85, %850] : memref<?x?xf32, strided<[?, 1]>> loc(#loc24)
      %875 = vector.broadcast %874 : f32 to vector<256xf32> loc(#loc24)
      %876 = vector.fma %796, %872, %824 : vector<256xf32> loc(#loc24)
      %877 = memref.load %46[%89, %850] : memref<?x?xf32, strided<[?, 1]>> loc(#loc24)
      %878 = vector.broadcast %877 : f32 to vector<256xf32> loc(#loc24)
      %879 = vector.fma %796, %875, %827 : vector<256xf32> loc(#loc24)
      %880 = memref.load %46[%93, %850] : memref<?x?xf32, strided<[?, 1]>> loc(#loc24)
      %881 = vector.broadcast %880 : f32 to vector<256xf32> loc(#loc24)
      %882 = vector.fma %796, %878, %830 : vector<256xf32> loc(#loc24)
      %883 = memref.load %46[%97, %850] : memref<?x?xf32, strided<[?, 1]>> loc(#loc24)
      %884 = vector.broadcast %883 : f32 to vector<256xf32> loc(#loc24)
      %885 = vector.fma %796, %881, %833 : vector<256xf32> loc(#loc24)
      %886 = memref.load %46[%101, %850] : memref<?x?xf32, strided<[?, 1]>> loc(#loc24)
      %887 = vector.broadcast %886 : f32 to vector<256xf32> loc(#loc24)
      %888 = vector.fma %796, %884, %836 : vector<256xf32> loc(#loc24)
      %889 = memref.load %46[%105, %850] : memref<?x?xf32, strided<[?, 1]>> loc(#loc24)
      %890 = vector.broadcast %889 : f32 to vector<256xf32> loc(#loc24)
      %891 = vector.fma %796, %887, %839 : vector<256xf32> loc(#loc24)
      %892 = memref.load %46[%109, %850] : memref<?x?xf32, strided<[?, 1]>> loc(#loc24)
      %893 = vector.broadcast %892 : f32 to vector<256xf32> loc(#loc24)
      %894 = vector.fma %796, %890, %842 : vector<256xf32> loc(#loc24)
      %895 = memref.load %46[%113, %850] : memref<?x?xf32, strided<[?, 1]>> loc(#loc24)
      %896 = vector.broadcast %895 : f32 to vector<256xf32> loc(#loc24)
      %897 = vector.fma %796, %893, %845 : vector<256xf32> loc(#loc24)
      %898 = vector.fma %796, %896, %846 : vector<256xf32> loc(#loc24)
      %899 = arith.addi %49#0, %c17 : index loc(#loc24)
      %900 = vector.load %48[%899, %49#1] : memref<?x?xf32, strided<[?, 1]>>, vector<256xf32> loc(#loc24)
      %901 = arith.addi %49#0, %c80 : index loc(#loc24)
      memref.prefetch %48[%901, %49#1], read, locality<1>, data : memref<?x?xf32, strided<[?, 1]>> loc(#loc24)
      %902 = arith.addi %47#1, %c16 : index loc(#loc24)
      %903 = memref.load %46[%47#0, %902] : memref<?x?xf32, strided<[?, 1]>> loc(#loc24)
      %904 = vector.broadcast %903 : f32 to vector<256xf32> loc(#loc24)
      %905 = memref.load %46[%57, %902] : memref<?x?xf32, strided<[?, 1]>> loc(#loc24)
      %906 = vector.broadcast %905 : f32 to vector<256xf32> loc(#loc24)
      %907 = arith.addi %47#1, %c80 : index loc(#loc24)
      memref.prefetch %46[%47#0, %907], read, locality<3>, data : memref<?x?xf32, strided<[?, 1]>> loc(#loc24)
      %908 = vector.fma %848, %904, %855 : vector<256xf32> loc(#loc24)
      %909 = memref.load %46[%61, %902] : memref<?x?xf32, strided<[?, 1]>> loc(#loc24)
      %910 = vector.broadcast %909 : f32 to vector<256xf32> loc(#loc24)
      memref.prefetch %46[%57, %907], read, locality<3>, data : memref<?x?xf32, strided<[?, 1]>> loc(#loc24)
      %911 = vector.fma %848, %906, %858 : vector<256xf32> loc(#loc24)
      %912 = memref.load %46[%65, %902] : memref<?x?xf32, strided<[?, 1]>> loc(#loc24)
      %913 = vector.broadcast %912 : f32 to vector<256xf32> loc(#loc24)
      memref.prefetch %46[%61, %907], read, locality<3>, data : memref<?x?xf32, strided<[?, 1]>> loc(#loc24)
      %914 = vector.fma %848, %910, %861 : vector<256xf32> loc(#loc24)
      %915 = memref.load %46[%69, %902] : memref<?x?xf32, strided<[?, 1]>> loc(#loc24)
      %916 = vector.broadcast %915 : f32 to vector<256xf32> loc(#loc24)
      memref.prefetch %46[%65, %907], read, locality<3>, data : memref<?x?xf32, strided<[?, 1]>> loc(#loc24)
      %917 = vector.fma %848, %913, %864 : vector<256xf32> loc(#loc24)
      %918 = memref.load %46[%73, %902] : memref<?x?xf32, strided<[?, 1]>> loc(#loc24)
      %919 = vector.broadcast %918 : f32 to vector<256xf32> loc(#loc24)
      memref.prefetch %46[%69, %907], read, locality<3>, data : memref<?x?xf32, strided<[?, 1]>> loc(#loc24)
      %920 = vector.fma %848, %916, %867 : vector<256xf32> loc(#loc24)
      %921 = memref.load %46[%77, %902] : memref<?x?xf32, strided<[?, 1]>> loc(#loc24)
      %922 = vector.broadcast %921 : f32 to vector<256xf32> loc(#loc24)
      memref.prefetch %46[%73, %907], read, locality<3>, data : memref<?x?xf32, strided<[?, 1]>> loc(#loc24)
      %923 = vector.fma %848, %919, %870 : vector<256xf32> loc(#loc24)
      %924 = memref.load %46[%81, %902] : memref<?x?xf32, strided<[?, 1]>> loc(#loc24)
      %925 = vector.broadcast %924 : f32 to vector<256xf32> loc(#loc24)
      memref.prefetch %46[%77, %907], read, locality<3>, data : memref<?x?xf32, strided<[?, 1]>> loc(#loc24)
      %926 = vector.fma %848, %922, %873 : vector<256xf32> loc(#loc24)
      %927 = memref.load %46[%85, %902] : memref<?x?xf32, strided<[?, 1]>> loc(#loc24)
      %928 = vector.broadcast %927 : f32 to vector<256xf32> loc(#loc24)
      memref.prefetch %46[%81, %907], read, locality<3>, data : memref<?x?xf32, strided<[?, 1]>> loc(#loc24)
      %929 = vector.fma %848, %925, %876 : vector<256xf32> loc(#loc24)
      %930 = memref.load %46[%89, %902] : memref<?x?xf32, strided<[?, 1]>> loc(#loc24)
      %931 = vector.broadcast %930 : f32 to vector<256xf32> loc(#loc24)
      memref.prefetch %46[%85, %907], read, locality<3>, data : memref<?x?xf32, strided<[?, 1]>> loc(#loc24)
      %932 = vector.fma %848, %928, %879 : vector<256xf32> loc(#loc24)
      %933 = memref.load %46[%93, %902] : memref<?x?xf32, strided<[?, 1]>> loc(#loc24)
      %934 = vector.broadcast %933 : f32 to vector<256xf32> loc(#loc24)
      memref.prefetch %46[%89, %907], read, locality<3>, data : memref<?x?xf32, strided<[?, 1]>> loc(#loc24)
      %935 = vector.fma %848, %931, %882 : vector<256xf32> loc(#loc24)
      %936 = memref.load %46[%97, %902] : memref<?x?xf32, strided<[?, 1]>> loc(#loc24)
      %937 = vector.broadcast %936 : f32 to vector<256xf32> loc(#loc24)
      memref.prefetch %46[%93, %907], read, locality<3>, data : memref<?x?xf32, strided<[?, 1]>> loc(#loc24)
      %938 = vector.fma %848, %934, %885 : vector<256xf32> loc(#loc24)
      %939 = memref.load %46[%101, %902] : memref<?x?xf32, strided<[?, 1]>> loc(#loc24)
      %940 = vector.broadcast %939 : f32 to vector<256xf32> loc(#loc24)
      memref.prefetch %46[%97, %907], read, locality<3>, data : memref<?x?xf32, strided<[?, 1]>> loc(#loc24)
      %941 = vector.fma %848, %937, %888 : vector<256xf32> loc(#loc24)
      %942 = memref.load %46[%105, %902] : memref<?x?xf32, strided<[?, 1]>> loc(#loc24)
      %943 = vector.broadcast %942 : f32 to vector<256xf32> loc(#loc24)
      memref.prefetch %46[%101, %907], read, locality<3>, data : memref<?x?xf32, strided<[?, 1]>> loc(#loc24)
      %944 = vector.fma %848, %940, %891 : vector<256xf32> loc(#loc24)
      %945 = memref.load %46[%109, %902] : memref<?x?xf32, strided<[?, 1]>> loc(#loc24)
      %946 = vector.broadcast %945 : f32 to vector<256xf32> loc(#loc24)
      memref.prefetch %46[%105, %907], read, locality<3>, data : memref<?x?xf32, strided<[?, 1]>> loc(#loc24)
      %947 = vector.fma %848, %943, %894 : vector<256xf32> loc(#loc24)
      %948 = memref.load %46[%113, %902] : memref<?x?xf32, strided<[?, 1]>> loc(#loc24)
      %949 = vector.broadcast %948 : f32 to vector<256xf32> loc(#loc24)
      memref.prefetch %46[%109, %907], read, locality<3>, data : memref<?x?xf32, strided<[?, 1]>> loc(#loc24)
      %950 = vector.fma %848, %946, %897 : vector<256xf32> loc(#loc24)
      memref.prefetch %46[%113, %907], read, locality<3>, data : memref<?x?xf32, strided<[?, 1]>> loc(#loc24)
      %951 = vector.fma %848, %949, %898 : vector<256xf32> loc(#loc24)
      %952 = arith.addi %49#0, %c18 : index loc(#loc24)
      %953 = vector.load %48[%952, %49#1] : memref<?x?xf32, strided<[?, 1]>>, vector<256xf32> loc(#loc24)
      %954 = arith.addi %49#0, %c81 : index loc(#loc24)
      memref.prefetch %48[%954, %49#1], read, locality<1>, data : memref<?x?xf32, strided<[?, 1]>> loc(#loc24)
      %955 = arith.addi %47#1, %c17 : index loc(#loc24)
      %956 = memref.load %46[%47#0, %955] : memref<?x?xf32, strided<[?, 1]>> loc(#loc24)
      %957 = vector.broadcast %956 : f32 to vector<256xf32> loc(#loc24)
      %958 = memref.load %46[%57, %955] : memref<?x?xf32, strided<[?, 1]>> loc(#loc24)
      %959 = vector.broadcast %958 : f32 to vector<256xf32> loc(#loc24)
      %960 = vector.fma %900, %957, %908 : vector<256xf32> loc(#loc24)
      %961 = memref.load %46[%61, %955] : memref<?x?xf32, strided<[?, 1]>> loc(#loc24)
      %962 = vector.broadcast %961 : f32 to vector<256xf32> loc(#loc24)
      %963 = vector.fma %900, %959, %911 : vector<256xf32> loc(#loc24)
      %964 = memref.load %46[%65, %955] : memref<?x?xf32, strided<[?, 1]>> loc(#loc24)
      %965 = vector.broadcast %964 : f32 to vector<256xf32> loc(#loc24)
      %966 = vector.fma %900, %962, %914 : vector<256xf32> loc(#loc24)
      %967 = memref.load %46[%69, %955] : memref<?x?xf32, strided<[?, 1]>> loc(#loc24)
      %968 = vector.broadcast %967 : f32 to vector<256xf32> loc(#loc24)
      %969 = vector.fma %900, %965, %917 : vector<256xf32> loc(#loc24)
      %970 = memref.load %46[%73, %955] : memref<?x?xf32, strided<[?, 1]>> loc(#loc24)
      %971 = vector.broadcast %970 : f32 to vector<256xf32> loc(#loc24)
      %972 = vector.fma %900, %968, %920 : vector<256xf32> loc(#loc24)
      %973 = memref.load %46[%77, %955] : memref<?x?xf32, strided<[?, 1]>> loc(#loc24)
      %974 = vector.broadcast %973 : f32 to vector<256xf32> loc(#loc24)
      %975 = vector.fma %900, %971, %923 : vector<256xf32> loc(#loc24)
      %976 = memref.load %46[%81, %955] : memref<?x?xf32, strided<[?, 1]>> loc(#loc24)
      %977 = vector.broadcast %976 : f32 to vector<256xf32> loc(#loc24)
      %978 = vector.fma %900, %974, %926 : vector<256xf32> loc(#loc24)
      %979 = memref.load %46[%85, %955] : memref<?x?xf32, strided<[?, 1]>> loc(#loc24)
      %980 = vector.broadcast %979 : f32 to vector<256xf32> loc(#loc24)
      %981 = vector.fma %900, %977, %929 : vector<256xf32> loc(#loc24)
      %982 = memref.load %46[%89, %955] : memref<?x?xf32, strided<[?, 1]>> loc(#loc24)
      %983 = vector.broadcast %982 : f32 to vector<256xf32> loc(#loc24)
      %984 = vector.fma %900, %980, %932 : vector<256xf32> loc(#loc24)
      %985 = memref.load %46[%93, %955] : memref<?x?xf32, strided<[?, 1]>> loc(#loc24)
      %986 = vector.broadcast %985 : f32 to vector<256xf32> loc(#loc24)
      %987 = vector.fma %900, %983, %935 : vector<256xf32> loc(#loc24)
      %988 = memref.load %46[%97, %955] : memref<?x?xf32, strided<[?, 1]>> loc(#loc24)
      %989 = vector.broadcast %988 : f32 to vector<256xf32> loc(#loc24)
      %990 = vector.fma %900, %986, %938 : vector<256xf32> loc(#loc24)
      %991 = memref.load %46[%101, %955] : memref<?x?xf32, strided<[?, 1]>> loc(#loc24)
      %992 = vector.broadcast %991 : f32 to vector<256xf32> loc(#loc24)
      %993 = vector.fma %900, %989, %941 : vector<256xf32> loc(#loc24)
      %994 = memref.load %46[%105, %955] : memref<?x?xf32, strided<[?, 1]>> loc(#loc24)
      %995 = vector.broadcast %994 : f32 to vector<256xf32> loc(#loc24)
      %996 = vector.fma %900, %992, %944 : vector<256xf32> loc(#loc24)
      %997 = memref.load %46[%109, %955] : memref<?x?xf32, strided<[?, 1]>> loc(#loc24)
      %998 = vector.broadcast %997 : f32 to vector<256xf32> loc(#loc24)
      %999 = vector.fma %900, %995, %947 : vector<256xf32> loc(#loc24)
      %1000 = memref.load %46[%113, %955] : memref<?x?xf32, strided<[?, 1]>> loc(#loc24)
      %1001 = vector.broadcast %1000 : f32 to vector<256xf32> loc(#loc24)
      %1002 = vector.fma %900, %998, %950 : vector<256xf32> loc(#loc24)
      %1003 = vector.fma %900, %1001, %951 : vector<256xf32> loc(#loc24)
      %1004 = arith.addi %49#0, %c19 : index loc(#loc24)
      %1005 = vector.load %48[%1004, %49#1] : memref<?x?xf32, strided<[?, 1]>>, vector<256xf32> loc(#loc24)
      %1006 = arith.addi %49#0, %c82 : index loc(#loc24)
      memref.prefetch %48[%1006, %49#1], read, locality<1>, data : memref<?x?xf32, strided<[?, 1]>> loc(#loc24)
      %1007 = arith.addi %47#1, %c18 : index loc(#loc24)
      %1008 = memref.load %46[%47#0, %1007] : memref<?x?xf32, strided<[?, 1]>> loc(#loc24)
      %1009 = vector.broadcast %1008 : f32 to vector<256xf32> loc(#loc24)
      %1010 = memref.load %46[%57, %1007] : memref<?x?xf32, strided<[?, 1]>> loc(#loc24)
      %1011 = vector.broadcast %1010 : f32 to vector<256xf32> loc(#loc24)
      %1012 = vector.fma %953, %1009, %960 : vector<256xf32> loc(#loc24)
      %1013 = memref.load %46[%61, %1007] : memref<?x?xf32, strided<[?, 1]>> loc(#loc24)
      %1014 = vector.broadcast %1013 : f32 to vector<256xf32> loc(#loc24)
      %1015 = vector.fma %953, %1011, %963 : vector<256xf32> loc(#loc24)
      %1016 = memref.load %46[%65, %1007] : memref<?x?xf32, strided<[?, 1]>> loc(#loc24)
      %1017 = vector.broadcast %1016 : f32 to vector<256xf32> loc(#loc24)
      %1018 = vector.fma %953, %1014, %966 : vector<256xf32> loc(#loc24)
      %1019 = memref.load %46[%69, %1007] : memref<?x?xf32, strided<[?, 1]>> loc(#loc24)
      %1020 = vector.broadcast %1019 : f32 to vector<256xf32> loc(#loc24)
      %1021 = vector.fma %953, %1017, %969 : vector<256xf32> loc(#loc24)
      %1022 = memref.load %46[%73, %1007] : memref<?x?xf32, strided<[?, 1]>> loc(#loc24)
      %1023 = vector.broadcast %1022 : f32 to vector<256xf32> loc(#loc24)
      %1024 = vector.fma %953, %1020, %972 : vector<256xf32> loc(#loc24)
      %1025 = memref.load %46[%77, %1007] : memref<?x?xf32, strided<[?, 1]>> loc(#loc24)
      %1026 = vector.broadcast %1025 : f32 to vector<256xf32> loc(#loc24)
      %1027 = vector.fma %953, %1023, %975 : vector<256xf32> loc(#loc24)
      %1028 = memref.load %46[%81, %1007] : memref<?x?xf32, strided<[?, 1]>> loc(#loc24)
      %1029 = vector.broadcast %1028 : f32 to vector<256xf32> loc(#loc24)
      %1030 = vector.fma %953, %1026, %978 : vector<256xf32> loc(#loc24)
      %1031 = memref.load %46[%85, %1007] : memref<?x?xf32, strided<[?, 1]>> loc(#loc24)
      %1032 = vector.broadcast %1031 : f32 to vector<256xf32> loc(#loc24)
      %1033 = vector.fma %953, %1029, %981 : vector<256xf32> loc(#loc24)
      %1034 = memref.load %46[%89, %1007] : memref<?x?xf32, strided<[?, 1]>> loc(#loc24)
      %1035 = vector.broadcast %1034 : f32 to vector<256xf32> loc(#loc24)
      %1036 = vector.fma %953, %1032, %984 : vector<256xf32> loc(#loc24)
      %1037 = memref.load %46[%93, %1007] : memref<?x?xf32, strided<[?, 1]>> loc(#loc24)
      %1038 = vector.broadcast %1037 : f32 to vector<256xf32> loc(#loc24)
      %1039 = vector.fma %953, %1035, %987 : vector<256xf32> loc(#loc24)
      %1040 = memref.load %46[%97, %1007] : memref<?x?xf32, strided<[?, 1]>> loc(#loc24)
      %1041 = vector.broadcast %1040 : f32 to vector<256xf32> loc(#loc24)
      %1042 = vector.fma %953, %1038, %990 : vector<256xf32> loc(#loc24)
      %1043 = memref.load %46[%101, %1007] : memref<?x?xf32, strided<[?, 1]>> loc(#loc24)
      %1044 = vector.broadcast %1043 : f32 to vector<256xf32> loc(#loc24)
      %1045 = vector.fma %953, %1041, %993 : vector<256xf32> loc(#loc24)
      %1046 = memref.load %46[%105, %1007] : memref<?x?xf32, strided<[?, 1]>> loc(#loc24)
      %1047 = vector.broadcast %1046 : f32 to vector<256xf32> loc(#loc24)
      %1048 = vector.fma %953, %1044, %996 : vector<256xf32> loc(#loc24)
      %1049 = memref.load %46[%109, %1007] : memref<?x?xf32, strided<[?, 1]>> loc(#loc24)
      %1050 = vector.broadcast %1049 : f32 to vector<256xf32> loc(#loc24)
      %1051 = vector.fma %953, %1047, %999 : vector<256xf32> loc(#loc24)
      %1052 = memref.load %46[%113, %1007] : memref<?x?xf32, strided<[?, 1]>> loc(#loc24)
      %1053 = vector.broadcast %1052 : f32 to vector<256xf32> loc(#loc24)
      %1054 = vector.fma %953, %1050, %1002 : vector<256xf32> loc(#loc24)
      %1055 = vector.fma %953, %1053, %1003 : vector<256xf32> loc(#loc24)
      %1056 = arith.addi %49#0, %c20 : index loc(#loc24)
      %1057 = vector.load %48[%1056, %49#1] : memref<?x?xf32, strided<[?, 1]>>, vector<256xf32> loc(#loc24)
      %1058 = arith.addi %49#0, %c83 : index loc(#loc24)
      memref.prefetch %48[%1058, %49#1], read, locality<1>, data : memref<?x?xf32, strided<[?, 1]>> loc(#loc24)
      %1059 = arith.addi %47#1, %c19 : index loc(#loc24)
      %1060 = memref.load %46[%47#0, %1059] : memref<?x?xf32, strided<[?, 1]>> loc(#loc24)
      %1061 = vector.broadcast %1060 : f32 to vector<256xf32> loc(#loc24)
      %1062 = memref.load %46[%57, %1059] : memref<?x?xf32, strided<[?, 1]>> loc(#loc24)
      %1063 = vector.broadcast %1062 : f32 to vector<256xf32> loc(#loc24)
      %1064 = vector.fma %1005, %1061, %1012 : vector<256xf32> loc(#loc24)
      %1065 = memref.load %46[%61, %1059] : memref<?x?xf32, strided<[?, 1]>> loc(#loc24)
      %1066 = vector.broadcast %1065 : f32 to vector<256xf32> loc(#loc24)
      %1067 = vector.fma %1005, %1063, %1015 : vector<256xf32> loc(#loc24)
      %1068 = memref.load %46[%65, %1059] : memref<?x?xf32, strided<[?, 1]>> loc(#loc24)
      %1069 = vector.broadcast %1068 : f32 to vector<256xf32> loc(#loc24)
      %1070 = vector.fma %1005, %1066, %1018 : vector<256xf32> loc(#loc24)
      %1071 = memref.load %46[%69, %1059] : memref<?x?xf32, strided<[?, 1]>> loc(#loc24)
      %1072 = vector.broadcast %1071 : f32 to vector<256xf32> loc(#loc24)
      %1073 = vector.fma %1005, %1069, %1021 : vector<256xf32> loc(#loc24)
      %1074 = memref.load %46[%73, %1059] : memref<?x?xf32, strided<[?, 1]>> loc(#loc24)
      %1075 = vector.broadcast %1074 : f32 to vector<256xf32> loc(#loc24)
      %1076 = vector.fma %1005, %1072, %1024 : vector<256xf32> loc(#loc24)
      %1077 = memref.load %46[%77, %1059] : memref<?x?xf32, strided<[?, 1]>> loc(#loc24)
      %1078 = vector.broadcast %1077 : f32 to vector<256xf32> loc(#loc24)
      %1079 = vector.fma %1005, %1075, %1027 : vector<256xf32> loc(#loc24)
      %1080 = memref.load %46[%81, %1059] : memref<?x?xf32, strided<[?, 1]>> loc(#loc24)
      %1081 = vector.broadcast %1080 : f32 to vector<256xf32> loc(#loc24)
      %1082 = vector.fma %1005, %1078, %1030 : vector<256xf32> loc(#loc24)
      %1083 = memref.load %46[%85, %1059] : memref<?x?xf32, strided<[?, 1]>> loc(#loc24)
      %1084 = vector.broadcast %1083 : f32 to vector<256xf32> loc(#loc24)
      %1085 = vector.fma %1005, %1081, %1033 : vector<256xf32> loc(#loc24)
      %1086 = memref.load %46[%89, %1059] : memref<?x?xf32, strided<[?, 1]>> loc(#loc24)
      %1087 = vector.broadcast %1086 : f32 to vector<256xf32> loc(#loc24)
      %1088 = vector.fma %1005, %1084, %1036 : vector<256xf32> loc(#loc24)
      %1089 = memref.load %46[%93, %1059] : memref<?x?xf32, strided<[?, 1]>> loc(#loc24)
      %1090 = vector.broadcast %1089 : f32 to vector<256xf32> loc(#loc24)
      %1091 = vector.fma %1005, %1087, %1039 : vector<256xf32> loc(#loc24)
      %1092 = memref.load %46[%97, %1059] : memref<?x?xf32, strided<[?, 1]>> loc(#loc24)
      %1093 = vector.broadcast %1092 : f32 to vector<256xf32> loc(#loc24)
      %1094 = vector.fma %1005, %1090, %1042 : vector<256xf32> loc(#loc24)
      %1095 = memref.load %46[%101, %1059] : memref<?x?xf32, strided<[?, 1]>> loc(#loc24)
      %1096 = vector.broadcast %1095 : f32 to vector<256xf32> loc(#loc24)
      %1097 = vector.fma %1005, %1093, %1045 : vector<256xf32> loc(#loc24)
      %1098 = memref.load %46[%105, %1059] : memref<?x?xf32, strided<[?, 1]>> loc(#loc24)
      %1099 = vector.broadcast %1098 : f32 to vector<256xf32> loc(#loc24)
      %1100 = vector.fma %1005, %1096, %1048 : vector<256xf32> loc(#loc24)
      %1101 = memref.load %46[%109, %1059] : memref<?x?xf32, strided<[?, 1]>> loc(#loc24)
      %1102 = vector.broadcast %1101 : f32 to vector<256xf32> loc(#loc24)
      %1103 = vector.fma %1005, %1099, %1051 : vector<256xf32> loc(#loc24)
      %1104 = memref.load %46[%113, %1059] : memref<?x?xf32, strided<[?, 1]>> loc(#loc24)
      %1105 = vector.broadcast %1104 : f32 to vector<256xf32> loc(#loc24)
      %1106 = vector.fma %1005, %1102, %1054 : vector<256xf32> loc(#loc24)
      %1107 = vector.fma %1005, %1105, %1055 : vector<256xf32> loc(#loc24)
      %1108 = arith.addi %49#0, %c21 : index loc(#loc24)
      %1109 = vector.load %48[%1108, %49#1] : memref<?x?xf32, strided<[?, 1]>>, vector<256xf32> loc(#loc24)
      %1110 = arith.addi %49#0, %c84 : index loc(#loc24)
      memref.prefetch %48[%1110, %49#1], read, locality<1>, data : memref<?x?xf32, strided<[?, 1]>> loc(#loc24)
      %1111 = arith.addi %47#1, %c20 : index loc(#loc24)
      %1112 = memref.load %46[%47#0, %1111] : memref<?x?xf32, strided<[?, 1]>> loc(#loc24)
      %1113 = vector.broadcast %1112 : f32 to vector<256xf32> loc(#loc24)
      %1114 = memref.load %46[%57, %1111] : memref<?x?xf32, strided<[?, 1]>> loc(#loc24)
      %1115 = vector.broadcast %1114 : f32 to vector<256xf32> loc(#loc24)
      %1116 = vector.fma %1057, %1113, %1064 : vector<256xf32> loc(#loc24)
      %1117 = memref.load %46[%61, %1111] : memref<?x?xf32, strided<[?, 1]>> loc(#loc24)
      %1118 = vector.broadcast %1117 : f32 to vector<256xf32> loc(#loc24)
      %1119 = vector.fma %1057, %1115, %1067 : vector<256xf32> loc(#loc24)
      %1120 = memref.load %46[%65, %1111] : memref<?x?xf32, strided<[?, 1]>> loc(#loc24)
      %1121 = vector.broadcast %1120 : f32 to vector<256xf32> loc(#loc24)
      %1122 = vector.fma %1057, %1118, %1070 : vector<256xf32> loc(#loc24)
      %1123 = memref.load %46[%69, %1111] : memref<?x?xf32, strided<[?, 1]>> loc(#loc24)
      %1124 = vector.broadcast %1123 : f32 to vector<256xf32> loc(#loc24)
      %1125 = vector.fma %1057, %1121, %1073 : vector<256xf32> loc(#loc24)
      %1126 = memref.load %46[%73, %1111] : memref<?x?xf32, strided<[?, 1]>> loc(#loc24)
      %1127 = vector.broadcast %1126 : f32 to vector<256xf32> loc(#loc24)
      %1128 = vector.fma %1057, %1124, %1076 : vector<256xf32> loc(#loc24)
      %1129 = memref.load %46[%77, %1111] : memref<?x?xf32, strided<[?, 1]>> loc(#loc24)
      %1130 = vector.broadcast %1129 : f32 to vector<256xf32> loc(#loc24)
      %1131 = vector.fma %1057, %1127, %1079 : vector<256xf32> loc(#loc24)
      %1132 = memref.load %46[%81, %1111] : memref<?x?xf32, strided<[?, 1]>> loc(#loc24)
      %1133 = vector.broadcast %1132 : f32 to vector<256xf32> loc(#loc24)
      %1134 = vector.fma %1057, %1130, %1082 : vector<256xf32> loc(#loc24)
      %1135 = memref.load %46[%85, %1111] : memref<?x?xf32, strided<[?, 1]>> loc(#loc24)
      %1136 = vector.broadcast %1135 : f32 to vector<256xf32> loc(#loc24)
      %1137 = vector.fma %1057, %1133, %1085 : vector<256xf32> loc(#loc24)
      %1138 = memref.load %46[%89, %1111] : memref<?x?xf32, strided<[?, 1]>> loc(#loc24)
      %1139 = vector.broadcast %1138 : f32 to vector<256xf32> loc(#loc24)
      %1140 = vector.fma %1057, %1136, %1088 : vector<256xf32> loc(#loc24)
      %1141 = memref.load %46[%93, %1111] : memref<?x?xf32, strided<[?, 1]>> loc(#loc24)
      %1142 = vector.broadcast %1141 : f32 to vector<256xf32> loc(#loc24)
      %1143 = vector.fma %1057, %1139, %1091 : vector<256xf32> loc(#loc24)
      %1144 = memref.load %46[%97, %1111] : memref<?x?xf32, strided<[?, 1]>> loc(#loc24)
      %1145 = vector.broadcast %1144 : f32 to vector<256xf32> loc(#loc24)
      %1146 = vector.fma %1057, %1142, %1094 : vector<256xf32> loc(#loc24)
      %1147 = memref.load %46[%101, %1111] : memref<?x?xf32, strided<[?, 1]>> loc(#loc24)
      %1148 = vector.broadcast %1147 : f32 to vector<256xf32> loc(#loc24)
      %1149 = vector.fma %1057, %1145, %1097 : vector<256xf32> loc(#loc24)
      %1150 = memref.load %46[%105, %1111] : memref<?x?xf32, strided<[?, 1]>> loc(#loc24)
      %1151 = vector.broadcast %1150 : f32 to vector<256xf32> loc(#loc24)
      %1152 = vector.fma %1057, %1148, %1100 : vector<256xf32> loc(#loc24)
      %1153 = memref.load %46[%109, %1111] : memref<?x?xf32, strided<[?, 1]>> loc(#loc24)
      %1154 = vector.broadcast %1153 : f32 to vector<256xf32> loc(#loc24)
      %1155 = vector.fma %1057, %1151, %1103 : vector<256xf32> loc(#loc24)
      %1156 = memref.load %46[%113, %1111] : memref<?x?xf32, strided<[?, 1]>> loc(#loc24)
      %1157 = vector.broadcast %1156 : f32 to vector<256xf32> loc(#loc24)
      %1158 = vector.fma %1057, %1154, %1106 : vector<256xf32> loc(#loc24)
      %1159 = vector.fma %1057, %1157, %1107 : vector<256xf32> loc(#loc24)
      %1160 = arith.addi %49#0, %c22 : index loc(#loc24)
      %1161 = vector.load %48[%1160, %49#1] : memref<?x?xf32, strided<[?, 1]>>, vector<256xf32> loc(#loc24)
      %1162 = arith.addi %49#0, %c85 : index loc(#loc24)
      memref.prefetch %48[%1162, %49#1], read, locality<1>, data : memref<?x?xf32, strided<[?, 1]>> loc(#loc24)
      %1163 = arith.addi %47#1, %c21 : index loc(#loc24)
      %1164 = memref.load %46[%47#0, %1163] : memref<?x?xf32, strided<[?, 1]>> loc(#loc24)
      %1165 = vector.broadcast %1164 : f32 to vector<256xf32> loc(#loc24)
      %1166 = memref.load %46[%57, %1163] : memref<?x?xf32, strided<[?, 1]>> loc(#loc24)
      %1167 = vector.broadcast %1166 : f32 to vector<256xf32> loc(#loc24)
      %1168 = vector.fma %1109, %1165, %1116 : vector<256xf32> loc(#loc24)
      %1169 = memref.load %46[%61, %1163] : memref<?x?xf32, strided<[?, 1]>> loc(#loc24)
      %1170 = vector.broadcast %1169 : f32 to vector<256xf32> loc(#loc24)
      %1171 = vector.fma %1109, %1167, %1119 : vector<256xf32> loc(#loc24)
      %1172 = memref.load %46[%65, %1163] : memref<?x?xf32, strided<[?, 1]>> loc(#loc24)
      %1173 = vector.broadcast %1172 : f32 to vector<256xf32> loc(#loc24)
      %1174 = vector.fma %1109, %1170, %1122 : vector<256xf32> loc(#loc24)
      %1175 = memref.load %46[%69, %1163] : memref<?x?xf32, strided<[?, 1]>> loc(#loc24)
      %1176 = vector.broadcast %1175 : f32 to vector<256xf32> loc(#loc24)
      %1177 = vector.fma %1109, %1173, %1125 : vector<256xf32> loc(#loc24)
      %1178 = memref.load %46[%73, %1163] : memref<?x?xf32, strided<[?, 1]>> loc(#loc24)
      %1179 = vector.broadcast %1178 : f32 to vector<256xf32> loc(#loc24)
      %1180 = vector.fma %1109, %1176, %1128 : vector<256xf32> loc(#loc24)
      %1181 = memref.load %46[%77, %1163] : memref<?x?xf32, strided<[?, 1]>> loc(#loc24)
      %1182 = vector.broadcast %1181 : f32 to vector<256xf32> loc(#loc24)
      %1183 = vector.fma %1109, %1179, %1131 : vector<256xf32> loc(#loc24)
      %1184 = memref.load %46[%81, %1163] : memref<?x?xf32, strided<[?, 1]>> loc(#loc24)
      %1185 = vector.broadcast %1184 : f32 to vector<256xf32> loc(#loc24)
      %1186 = vector.fma %1109, %1182, %1134 : vector<256xf32> loc(#loc24)
      %1187 = memref.load %46[%85, %1163] : memref<?x?xf32, strided<[?, 1]>> loc(#loc24)
      %1188 = vector.broadcast %1187 : f32 to vector<256xf32> loc(#loc24)
      %1189 = vector.fma %1109, %1185, %1137 : vector<256xf32> loc(#loc24)
      %1190 = memref.load %46[%89, %1163] : memref<?x?xf32, strided<[?, 1]>> loc(#loc24)
      %1191 = vector.broadcast %1190 : f32 to vector<256xf32> loc(#loc24)
      %1192 = vector.fma %1109, %1188, %1140 : vector<256xf32> loc(#loc24)
      %1193 = memref.load %46[%93, %1163] : memref<?x?xf32, strided<[?, 1]>> loc(#loc24)
      %1194 = vector.broadcast %1193 : f32 to vector<256xf32> loc(#loc24)
      %1195 = vector.fma %1109, %1191, %1143 : vector<256xf32> loc(#loc24)
      %1196 = memref.load %46[%97, %1163] : memref<?x?xf32, strided<[?, 1]>> loc(#loc24)
      %1197 = vector.broadcast %1196 : f32 to vector<256xf32> loc(#loc24)
      %1198 = vector.fma %1109, %1194, %1146 : vector<256xf32> loc(#loc24)
      %1199 = memref.load %46[%101, %1163] : memref<?x?xf32, strided<[?, 1]>> loc(#loc24)
      %1200 = vector.broadcast %1199 : f32 to vector<256xf32> loc(#loc24)
      %1201 = vector.fma %1109, %1197, %1149 : vector<256xf32> loc(#loc24)
      %1202 = memref.load %46[%105, %1163] : memref<?x?xf32, strided<[?, 1]>> loc(#loc24)
      %1203 = vector.broadcast %1202 : f32 to vector<256xf32> loc(#loc24)
      %1204 = vector.fma %1109, %1200, %1152 : vector<256xf32> loc(#loc24)
      %1205 = memref.load %46[%109, %1163] : memref<?x?xf32, strided<[?, 1]>> loc(#loc24)
      %1206 = vector.broadcast %1205 : f32 to vector<256xf32> loc(#loc24)
      %1207 = vector.fma %1109, %1203, %1155 : vector<256xf32> loc(#loc24)
      %1208 = memref.load %46[%113, %1163] : memref<?x?xf32, strided<[?, 1]>> loc(#loc24)
      %1209 = vector.broadcast %1208 : f32 to vector<256xf32> loc(#loc24)
      %1210 = vector.fma %1109, %1206, %1158 : vector<256xf32> loc(#loc24)
      %1211 = vector.fma %1109, %1209, %1159 : vector<256xf32> loc(#loc24)
      %1212 = arith.addi %49#0, %c23 : index loc(#loc24)
      %1213 = vector.load %48[%1212, %49#1] : memref<?x?xf32, strided<[?, 1]>>, vector<256xf32> loc(#loc24)
      %1214 = arith.addi %49#0, %c86 : index loc(#loc24)
      memref.prefetch %48[%1214, %49#1], read, locality<1>, data : memref<?x?xf32, strided<[?, 1]>> loc(#loc24)
      %1215 = arith.addi %47#1, %c22 : index loc(#loc24)
      %1216 = memref.load %46[%47#0, %1215] : memref<?x?xf32, strided<[?, 1]>> loc(#loc24)
      %1217 = vector.broadcast %1216 : f32 to vector<256xf32> loc(#loc24)
      %1218 = memref.load %46[%57, %1215] : memref<?x?xf32, strided<[?, 1]>> loc(#loc24)
      %1219 = vector.broadcast %1218 : f32 to vector<256xf32> loc(#loc24)
      %1220 = vector.fma %1161, %1217, %1168 : vector<256xf32> loc(#loc24)
      %1221 = memref.load %46[%61, %1215] : memref<?x?xf32, strided<[?, 1]>> loc(#loc24)
      %1222 = vector.broadcast %1221 : f32 to vector<256xf32> loc(#loc24)
      %1223 = vector.fma %1161, %1219, %1171 : vector<256xf32> loc(#loc24)
      %1224 = memref.load %46[%65, %1215] : memref<?x?xf32, strided<[?, 1]>> loc(#loc24)
      %1225 = vector.broadcast %1224 : f32 to vector<256xf32> loc(#loc24)
      %1226 = vector.fma %1161, %1222, %1174 : vector<256xf32> loc(#loc24)
      %1227 = memref.load %46[%69, %1215] : memref<?x?xf32, strided<[?, 1]>> loc(#loc24)
      %1228 = vector.broadcast %1227 : f32 to vector<256xf32> loc(#loc24)
      %1229 = vector.fma %1161, %1225, %1177 : vector<256xf32> loc(#loc24)
      %1230 = memref.load %46[%73, %1215] : memref<?x?xf32, strided<[?, 1]>> loc(#loc24)
      %1231 = vector.broadcast %1230 : f32 to vector<256xf32> loc(#loc24)
      %1232 = vector.fma %1161, %1228, %1180 : vector<256xf32> loc(#loc24)
      %1233 = memref.load %46[%77, %1215] : memref<?x?xf32, strided<[?, 1]>> loc(#loc24)
      %1234 = vector.broadcast %1233 : f32 to vector<256xf32> loc(#loc24)
      %1235 = vector.fma %1161, %1231, %1183 : vector<256xf32> loc(#loc24)
      %1236 = memref.load %46[%81, %1215] : memref<?x?xf32, strided<[?, 1]>> loc(#loc24)
      %1237 = vector.broadcast %1236 : f32 to vector<256xf32> loc(#loc24)
      %1238 = vector.fma %1161, %1234, %1186 : vector<256xf32> loc(#loc24)
      %1239 = memref.load %46[%85, %1215] : memref<?x?xf32, strided<[?, 1]>> loc(#loc24)
      %1240 = vector.broadcast %1239 : f32 to vector<256xf32> loc(#loc24)
      %1241 = vector.fma %1161, %1237, %1189 : vector<256xf32> loc(#loc24)
      %1242 = memref.load %46[%89, %1215] : memref<?x?xf32, strided<[?, 1]>> loc(#loc24)
      %1243 = vector.broadcast %1242 : f32 to vector<256xf32> loc(#loc24)
      %1244 = vector.fma %1161, %1240, %1192 : vector<256xf32> loc(#loc24)
      %1245 = memref.load %46[%93, %1215] : memref<?x?xf32, strided<[?, 1]>> loc(#loc24)
      %1246 = vector.broadcast %1245 : f32 to vector<256xf32> loc(#loc24)
      %1247 = vector.fma %1161, %1243, %1195 : vector<256xf32> loc(#loc24)
      %1248 = memref.load %46[%97, %1215] : memref<?x?xf32, strided<[?, 1]>> loc(#loc24)
      %1249 = vector.broadcast %1248 : f32 to vector<256xf32> loc(#loc24)
      %1250 = vector.fma %1161, %1246, %1198 : vector<256xf32> loc(#loc24)
      %1251 = memref.load %46[%101, %1215] : memref<?x?xf32, strided<[?, 1]>> loc(#loc24)
      %1252 = vector.broadcast %1251 : f32 to vector<256xf32> loc(#loc24)
      %1253 = vector.fma %1161, %1249, %1201 : vector<256xf32> loc(#loc24)
      %1254 = memref.load %46[%105, %1215] : memref<?x?xf32, strided<[?, 1]>> loc(#loc24)
      %1255 = vector.broadcast %1254 : f32 to vector<256xf32> loc(#loc24)
      %1256 = vector.fma %1161, %1252, %1204 : vector<256xf32> loc(#loc24)
      %1257 = memref.load %46[%109, %1215] : memref<?x?xf32, strided<[?, 1]>> loc(#loc24)
      %1258 = vector.broadcast %1257 : f32 to vector<256xf32> loc(#loc24)
      %1259 = vector.fma %1161, %1255, %1207 : vector<256xf32> loc(#loc24)
      %1260 = memref.load %46[%113, %1215] : memref<?x?xf32, strided<[?, 1]>> loc(#loc24)
      %1261 = vector.broadcast %1260 : f32 to vector<256xf32> loc(#loc24)
      %1262 = vector.fma %1161, %1258, %1210 : vector<256xf32> loc(#loc24)
      %1263 = vector.fma %1161, %1261, %1211 : vector<256xf32> loc(#loc24)
      %1264 = arith.addi %49#0, %c24 : index loc(#loc24)
      %1265 = vector.load %48[%1264, %49#1] : memref<?x?xf32, strided<[?, 1]>>, vector<256xf32> loc(#loc24)
      %1266 = arith.addi %49#0, %c87 : index loc(#loc24)
      memref.prefetch %48[%1266, %49#1], read, locality<1>, data : memref<?x?xf32, strided<[?, 1]>> loc(#loc24)
      %1267 = arith.addi %47#1, %c23 : index loc(#loc24)
      %1268 = memref.load %46[%47#0, %1267] : memref<?x?xf32, strided<[?, 1]>> loc(#loc24)
      %1269 = vector.broadcast %1268 : f32 to vector<256xf32> loc(#loc24)
      %1270 = memref.load %46[%57, %1267] : memref<?x?xf32, strided<[?, 1]>> loc(#loc24)
      %1271 = vector.broadcast %1270 : f32 to vector<256xf32> loc(#loc24)
      %1272 = vector.fma %1213, %1269, %1220 : vector<256xf32> loc(#loc24)
      %1273 = memref.load %46[%61, %1267] : memref<?x?xf32, strided<[?, 1]>> loc(#loc24)
      %1274 = vector.broadcast %1273 : f32 to vector<256xf32> loc(#loc24)
      %1275 = vector.fma %1213, %1271, %1223 : vector<256xf32> loc(#loc24)
      %1276 = memref.load %46[%65, %1267] : memref<?x?xf32, strided<[?, 1]>> loc(#loc24)
      %1277 = vector.broadcast %1276 : f32 to vector<256xf32> loc(#loc24)
      %1278 = vector.fma %1213, %1274, %1226 : vector<256xf32> loc(#loc24)
      %1279 = memref.load %46[%69, %1267] : memref<?x?xf32, strided<[?, 1]>> loc(#loc24)
      %1280 = vector.broadcast %1279 : f32 to vector<256xf32> loc(#loc24)
      %1281 = vector.fma %1213, %1277, %1229 : vector<256xf32> loc(#loc24)
      %1282 = memref.load %46[%73, %1267] : memref<?x?xf32, strided<[?, 1]>> loc(#loc24)
      %1283 = vector.broadcast %1282 : f32 to vector<256xf32> loc(#loc24)
      %1284 = vector.fma %1213, %1280, %1232 : vector<256xf32> loc(#loc24)
      %1285 = memref.load %46[%77, %1267] : memref<?x?xf32, strided<[?, 1]>> loc(#loc24)
      %1286 = vector.broadcast %1285 : f32 to vector<256xf32> loc(#loc24)
      %1287 = vector.fma %1213, %1283, %1235 : vector<256xf32> loc(#loc24)
      %1288 = memref.load %46[%81, %1267] : memref<?x?xf32, strided<[?, 1]>> loc(#loc24)
      %1289 = vector.broadcast %1288 : f32 to vector<256xf32> loc(#loc24)
      %1290 = vector.fma %1213, %1286, %1238 : vector<256xf32> loc(#loc24)
      %1291 = memref.load %46[%85, %1267] : memref<?x?xf32, strided<[?, 1]>> loc(#loc24)
      %1292 = vector.broadcast %1291 : f32 to vector<256xf32> loc(#loc24)
      %1293 = vector.fma %1213, %1289, %1241 : vector<256xf32> loc(#loc24)
      %1294 = memref.load %46[%89, %1267] : memref<?x?xf32, strided<[?, 1]>> loc(#loc24)
      %1295 = vector.broadcast %1294 : f32 to vector<256xf32> loc(#loc24)
      %1296 = vector.fma %1213, %1292, %1244 : vector<256xf32> loc(#loc24)
      %1297 = memref.load %46[%93, %1267] : memref<?x?xf32, strided<[?, 1]>> loc(#loc24)
      %1298 = vector.broadcast %1297 : f32 to vector<256xf32> loc(#loc24)
      %1299 = vector.fma %1213, %1295, %1247 : vector<256xf32> loc(#loc24)
      %1300 = memref.load %46[%97, %1267] : memref<?x?xf32, strided<[?, 1]>> loc(#loc24)
      %1301 = vector.broadcast %1300 : f32 to vector<256xf32> loc(#loc24)
      %1302 = vector.fma %1213, %1298, %1250 : vector<256xf32> loc(#loc24)
      %1303 = memref.load %46[%101, %1267] : memref<?x?xf32, strided<[?, 1]>> loc(#loc24)
      %1304 = vector.broadcast %1303 : f32 to vector<256xf32> loc(#loc24)
      %1305 = vector.fma %1213, %1301, %1253 : vector<256xf32> loc(#loc24)
      %1306 = memref.load %46[%105, %1267] : memref<?x?xf32, strided<[?, 1]>> loc(#loc24)
      %1307 = vector.broadcast %1306 : f32 to vector<256xf32> loc(#loc24)
      %1308 = vector.fma %1213, %1304, %1256 : vector<256xf32> loc(#loc24)
      %1309 = memref.load %46[%109, %1267] : memref<?x?xf32, strided<[?, 1]>> loc(#loc24)
      %1310 = vector.broadcast %1309 : f32 to vector<256xf32> loc(#loc24)
      %1311 = vector.fma %1213, %1307, %1259 : vector<256xf32> loc(#loc24)
      %1312 = memref.load %46[%113, %1267] : memref<?x?xf32, strided<[?, 1]>> loc(#loc24)
      %1313 = vector.broadcast %1312 : f32 to vector<256xf32> loc(#loc24)
      %1314 = vector.fma %1213, %1310, %1262 : vector<256xf32> loc(#loc24)
      %1315 = vector.fma %1213, %1313, %1263 : vector<256xf32> loc(#loc24)
      %1316 = arith.addi %49#0, %c25 : index loc(#loc24)
      %1317 = vector.load %48[%1316, %49#1] : memref<?x?xf32, strided<[?, 1]>>, vector<256xf32> loc(#loc24)
      %1318 = arith.addi %49#0, %c88 : index loc(#loc24)
      memref.prefetch %48[%1318, %49#1], read, locality<1>, data : memref<?x?xf32, strided<[?, 1]>> loc(#loc24)
      %1319 = arith.addi %47#1, %c24 : index loc(#loc24)
      %1320 = memref.load %46[%47#0, %1319] : memref<?x?xf32, strided<[?, 1]>> loc(#loc24)
      %1321 = vector.broadcast %1320 : f32 to vector<256xf32> loc(#loc24)
      %1322 = memref.load %46[%57, %1319] : memref<?x?xf32, strided<[?, 1]>> loc(#loc24)
      %1323 = vector.broadcast %1322 : f32 to vector<256xf32> loc(#loc24)
      %1324 = arith.addi %47#1, %c88 : index loc(#loc24)
      memref.prefetch %46[%47#0, %1324], read, locality<3>, data : memref<?x?xf32, strided<[?, 1]>> loc(#loc24)
      %1325 = vector.fma %1265, %1321, %1272 : vector<256xf32> loc(#loc24)
      %1326 = memref.load %46[%61, %1319] : memref<?x?xf32, strided<[?, 1]>> loc(#loc24)
      %1327 = vector.broadcast %1326 : f32 to vector<256xf32> loc(#loc24)
      memref.prefetch %46[%57, %1324], read, locality<3>, data : memref<?x?xf32, strided<[?, 1]>> loc(#loc24)
      %1328 = vector.fma %1265, %1323, %1275 : vector<256xf32> loc(#loc24)
      %1329 = memref.load %46[%65, %1319] : memref<?x?xf32, strided<[?, 1]>> loc(#loc24)
      %1330 = vector.broadcast %1329 : f32 to vector<256xf32> loc(#loc24)
      memref.prefetch %46[%61, %1324], read, locality<3>, data : memref<?x?xf32, strided<[?, 1]>> loc(#loc24)
      %1331 = vector.fma %1265, %1327, %1278 : vector<256xf32> loc(#loc24)
      %1332 = memref.load %46[%69, %1319] : memref<?x?xf32, strided<[?, 1]>> loc(#loc24)
      %1333 = vector.broadcast %1332 : f32 to vector<256xf32> loc(#loc24)
      memref.prefetch %46[%65, %1324], read, locality<3>, data : memref<?x?xf32, strided<[?, 1]>> loc(#loc24)
      %1334 = vector.fma %1265, %1330, %1281 : vector<256xf32> loc(#loc24)
      %1335 = memref.load %46[%73, %1319] : memref<?x?xf32, strided<[?, 1]>> loc(#loc24)
      %1336 = vector.broadcast %1335 : f32 to vector<256xf32> loc(#loc24)
      memref.prefetch %46[%69, %1324], read, locality<3>, data : memref<?x?xf32, strided<[?, 1]>> loc(#loc24)
      %1337 = vector.fma %1265, %1333, %1284 : vector<256xf32> loc(#loc24)
      %1338 = memref.load %46[%77, %1319] : memref<?x?xf32, strided<[?, 1]>> loc(#loc24)
      %1339 = vector.broadcast %1338 : f32 to vector<256xf32> loc(#loc24)
      memref.prefetch %46[%73, %1324], read, locality<3>, data : memref<?x?xf32, strided<[?, 1]>> loc(#loc24)
      %1340 = vector.fma %1265, %1336, %1287 : vector<256xf32> loc(#loc24)
      %1341 = memref.load %46[%81, %1319] : memref<?x?xf32, strided<[?, 1]>> loc(#loc24)
      %1342 = vector.broadcast %1341 : f32 to vector<256xf32> loc(#loc24)
      memref.prefetch %46[%77, %1324], read, locality<3>, data : memref<?x?xf32, strided<[?, 1]>> loc(#loc24)
      %1343 = vector.fma %1265, %1339, %1290 : vector<256xf32> loc(#loc24)
      %1344 = memref.load %46[%85, %1319] : memref<?x?xf32, strided<[?, 1]>> loc(#loc24)
      %1345 = vector.broadcast %1344 : f32 to vector<256xf32> loc(#loc24)
      memref.prefetch %46[%81, %1324], read, locality<3>, data : memref<?x?xf32, strided<[?, 1]>> loc(#loc24)
      %1346 = vector.fma %1265, %1342, %1293 : vector<256xf32> loc(#loc24)
      %1347 = memref.load %46[%89, %1319] : memref<?x?xf32, strided<[?, 1]>> loc(#loc24)
      %1348 = vector.broadcast %1347 : f32 to vector<256xf32> loc(#loc24)
      memref.prefetch %46[%85, %1324], read, locality<3>, data : memref<?x?xf32, strided<[?, 1]>> loc(#loc24)
      %1349 = vector.fma %1265, %1345, %1296 : vector<256xf32> loc(#loc24)
      %1350 = memref.load %46[%93, %1319] : memref<?x?xf32, strided<[?, 1]>> loc(#loc24)
      %1351 = vector.broadcast %1350 : f32 to vector<256xf32> loc(#loc24)
      memref.prefetch %46[%89, %1324], read, locality<3>, data : memref<?x?xf32, strided<[?, 1]>> loc(#loc24)
      %1352 = vector.fma %1265, %1348, %1299 : vector<256xf32> loc(#loc24)
      %1353 = memref.load %46[%97, %1319] : memref<?x?xf32, strided<[?, 1]>> loc(#loc24)
      %1354 = vector.broadcast %1353 : f32 to vector<256xf32> loc(#loc24)
      memref.prefetch %46[%93, %1324], read, locality<3>, data : memref<?x?xf32, strided<[?, 1]>> loc(#loc24)
      %1355 = vector.fma %1265, %1351, %1302 : vector<256xf32> loc(#loc24)
      %1356 = memref.load %46[%101, %1319] : memref<?x?xf32, strided<[?, 1]>> loc(#loc24)
      %1357 = vector.broadcast %1356 : f32 to vector<256xf32> loc(#loc24)
      memref.prefetch %46[%97, %1324], read, locality<3>, data : memref<?x?xf32, strided<[?, 1]>> loc(#loc24)
      %1358 = vector.fma %1265, %1354, %1305 : vector<256xf32> loc(#loc24)
      %1359 = memref.load %46[%105, %1319] : memref<?x?xf32, strided<[?, 1]>> loc(#loc24)
      %1360 = vector.broadcast %1359 : f32 to vector<256xf32> loc(#loc24)
      memref.prefetch %46[%101, %1324], read, locality<3>, data : memref<?x?xf32, strided<[?, 1]>> loc(#loc24)
      %1361 = vector.fma %1265, %1357, %1308 : vector<256xf32> loc(#loc24)
      %1362 = memref.load %46[%109, %1319] : memref<?x?xf32, strided<[?, 1]>> loc(#loc24)
      %1363 = vector.broadcast %1362 : f32 to vector<256xf32> loc(#loc24)
      memref.prefetch %46[%105, %1324], read, locality<3>, data : memref<?x?xf32, strided<[?, 1]>> loc(#loc24)
      %1364 = vector.fma %1265, %1360, %1311 : vector<256xf32> loc(#loc24)
      %1365 = memref.load %46[%113, %1319] : memref<?x?xf32, strided<[?, 1]>> loc(#loc24)
      %1366 = vector.broadcast %1365 : f32 to vector<256xf32> loc(#loc24)
      memref.prefetch %46[%109, %1324], read, locality<3>, data : memref<?x?xf32, strided<[?, 1]>> loc(#loc24)
      %1367 = vector.fma %1265, %1363, %1314 : vector<256xf32> loc(#loc24)
      memref.prefetch %46[%113, %1324], read, locality<3>, data : memref<?x?xf32, strided<[?, 1]>> loc(#loc24)
      %1368 = vector.fma %1265, %1366, %1315 : vector<256xf32> loc(#loc24)
      %1369 = arith.addi %49#0, %c26 : index loc(#loc24)
      %1370 = vector.load %48[%1369, %49#1] : memref<?x?xf32, strided<[?, 1]>>, vector<256xf32> loc(#loc24)
      %1371 = arith.addi %49#0, %c89 : index loc(#loc24)
      memref.prefetch %48[%1371, %49#1], read, locality<1>, data : memref<?x?xf32, strided<[?, 1]>> loc(#loc24)
      %1372 = arith.addi %47#1, %c25 : index loc(#loc24)
      %1373 = memref.load %46[%47#0, %1372] : memref<?x?xf32, strided<[?, 1]>> loc(#loc24)
      %1374 = vector.broadcast %1373 : f32 to vector<256xf32> loc(#loc24)
      %1375 = memref.load %46[%57, %1372] : memref<?x?xf32, strided<[?, 1]>> loc(#loc24)
      %1376 = vector.broadcast %1375 : f32 to vector<256xf32> loc(#loc24)
      %1377 = vector.fma %1317, %1374, %1325 : vector<256xf32> loc(#loc24)
      %1378 = memref.load %46[%61, %1372] : memref<?x?xf32, strided<[?, 1]>> loc(#loc24)
      %1379 = vector.broadcast %1378 : f32 to vector<256xf32> loc(#loc24)
      %1380 = vector.fma %1317, %1376, %1328 : vector<256xf32> loc(#loc24)
      %1381 = memref.load %46[%65, %1372] : memref<?x?xf32, strided<[?, 1]>> loc(#loc24)
      %1382 = vector.broadcast %1381 : f32 to vector<256xf32> loc(#loc24)
      %1383 = vector.fma %1317, %1379, %1331 : vector<256xf32> loc(#loc24)
      %1384 = memref.load %46[%69, %1372] : memref<?x?xf32, strided<[?, 1]>> loc(#loc24)
      %1385 = vector.broadcast %1384 : f32 to vector<256xf32> loc(#loc24)
      %1386 = vector.fma %1317, %1382, %1334 : vector<256xf32> loc(#loc24)
      %1387 = memref.load %46[%73, %1372] : memref<?x?xf32, strided<[?, 1]>> loc(#loc24)
      %1388 = vector.broadcast %1387 : f32 to vector<256xf32> loc(#loc24)
      %1389 = vector.fma %1317, %1385, %1337 : vector<256xf32> loc(#loc24)
      %1390 = memref.load %46[%77, %1372] : memref<?x?xf32, strided<[?, 1]>> loc(#loc24)
      %1391 = vector.broadcast %1390 : f32 to vector<256xf32> loc(#loc24)
      %1392 = vector.fma %1317, %1388, %1340 : vector<256xf32> loc(#loc24)
      %1393 = memref.load %46[%81, %1372] : memref<?x?xf32, strided<[?, 1]>> loc(#loc24)
      %1394 = vector.broadcast %1393 : f32 to vector<256xf32> loc(#loc24)
      %1395 = vector.fma %1317, %1391, %1343 : vector<256xf32> loc(#loc24)
      %1396 = memref.load %46[%85, %1372] : memref<?x?xf32, strided<[?, 1]>> loc(#loc24)
      %1397 = vector.broadcast %1396 : f32 to vector<256xf32> loc(#loc24)
      %1398 = vector.fma %1317, %1394, %1346 : vector<256xf32> loc(#loc24)
      %1399 = memref.load %46[%89, %1372] : memref<?x?xf32, strided<[?, 1]>> loc(#loc24)
      %1400 = vector.broadcast %1399 : f32 to vector<256xf32> loc(#loc24)
      %1401 = vector.fma %1317, %1397, %1349 : vector<256xf32> loc(#loc24)
      %1402 = memref.load %46[%93, %1372] : memref<?x?xf32, strided<[?, 1]>> loc(#loc24)
      %1403 = vector.broadcast %1402 : f32 to vector<256xf32> loc(#loc24)
      %1404 = vector.fma %1317, %1400, %1352 : vector<256xf32> loc(#loc24)
      %1405 = memref.load %46[%97, %1372] : memref<?x?xf32, strided<[?, 1]>> loc(#loc24)
      %1406 = vector.broadcast %1405 : f32 to vector<256xf32> loc(#loc24)
      %1407 = vector.fma %1317, %1403, %1355 : vector<256xf32> loc(#loc24)
      %1408 = memref.load %46[%101, %1372] : memref<?x?xf32, strided<[?, 1]>> loc(#loc24)
      %1409 = vector.broadcast %1408 : f32 to vector<256xf32> loc(#loc24)
      %1410 = vector.fma %1317, %1406, %1358 : vector<256xf32> loc(#loc24)
      %1411 = memref.load %46[%105, %1372] : memref<?x?xf32, strided<[?, 1]>> loc(#loc24)
      %1412 = vector.broadcast %1411 : f32 to vector<256xf32> loc(#loc24)
      %1413 = vector.fma %1317, %1409, %1361 : vector<256xf32> loc(#loc24)
      %1414 = memref.load %46[%109, %1372] : memref<?x?xf32, strided<[?, 1]>> loc(#loc24)
      %1415 = vector.broadcast %1414 : f32 to vector<256xf32> loc(#loc24)
      %1416 = vector.fma %1317, %1412, %1364 : vector<256xf32> loc(#loc24)
      %1417 = memref.load %46[%113, %1372] : memref<?x?xf32, strided<[?, 1]>> loc(#loc24)
      %1418 = vector.broadcast %1417 : f32 to vector<256xf32> loc(#loc24)
      %1419 = vector.fma %1317, %1415, %1367 : vector<256xf32> loc(#loc24)
      %1420 = vector.fma %1317, %1418, %1368 : vector<256xf32> loc(#loc24)
      %1421 = arith.addi %49#0, %c27 : index loc(#loc24)
      %1422 = vector.load %48[%1421, %49#1] : memref<?x?xf32, strided<[?, 1]>>, vector<256xf32> loc(#loc24)
      %1423 = arith.addi %49#0, %c90 : index loc(#loc24)
      memref.prefetch %48[%1423, %49#1], read, locality<1>, data : memref<?x?xf32, strided<[?, 1]>> loc(#loc24)
      %1424 = arith.addi %47#1, %c26 : index loc(#loc24)
      %1425 = memref.load %46[%47#0, %1424] : memref<?x?xf32, strided<[?, 1]>> loc(#loc24)
      %1426 = vector.broadcast %1425 : f32 to vector<256xf32> loc(#loc24)
      %1427 = memref.load %46[%57, %1424] : memref<?x?xf32, strided<[?, 1]>> loc(#loc24)
      %1428 = vector.broadcast %1427 : f32 to vector<256xf32> loc(#loc24)
      %1429 = vector.fma %1370, %1426, %1377 : vector<256xf32> loc(#loc24)
      %1430 = memref.load %46[%61, %1424] : memref<?x?xf32, strided<[?, 1]>> loc(#loc24)
      %1431 = vector.broadcast %1430 : f32 to vector<256xf32> loc(#loc24)
      %1432 = vector.fma %1370, %1428, %1380 : vector<256xf32> loc(#loc24)
      %1433 = memref.load %46[%65, %1424] : memref<?x?xf32, strided<[?, 1]>> loc(#loc24)
      %1434 = vector.broadcast %1433 : f32 to vector<256xf32> loc(#loc24)
      %1435 = vector.fma %1370, %1431, %1383 : vector<256xf32> loc(#loc24)
      %1436 = memref.load %46[%69, %1424] : memref<?x?xf32, strided<[?, 1]>> loc(#loc24)
      %1437 = vector.broadcast %1436 : f32 to vector<256xf32> loc(#loc24)
      %1438 = vector.fma %1370, %1434, %1386 : vector<256xf32> loc(#loc24)
      %1439 = memref.load %46[%73, %1424] : memref<?x?xf32, strided<[?, 1]>> loc(#loc24)
      %1440 = vector.broadcast %1439 : f32 to vector<256xf32> loc(#loc24)
      %1441 = vector.fma %1370, %1437, %1389 : vector<256xf32> loc(#loc24)
      %1442 = memref.load %46[%77, %1424] : memref<?x?xf32, strided<[?, 1]>> loc(#loc24)
      %1443 = vector.broadcast %1442 : f32 to vector<256xf32> loc(#loc24)
      %1444 = vector.fma %1370, %1440, %1392 : vector<256xf32> loc(#loc24)
      %1445 = memref.load %46[%81, %1424] : memref<?x?xf32, strided<[?, 1]>> loc(#loc24)
      %1446 = vector.broadcast %1445 : f32 to vector<256xf32> loc(#loc24)
      %1447 = vector.fma %1370, %1443, %1395 : vector<256xf32> loc(#loc24)
      %1448 = memref.load %46[%85, %1424] : memref<?x?xf32, strided<[?, 1]>> loc(#loc24)
      %1449 = vector.broadcast %1448 : f32 to vector<256xf32> loc(#loc24)
      %1450 = vector.fma %1370, %1446, %1398 : vector<256xf32> loc(#loc24)
      %1451 = memref.load %46[%89, %1424] : memref<?x?xf32, strided<[?, 1]>> loc(#loc24)
      %1452 = vector.broadcast %1451 : f32 to vector<256xf32> loc(#loc24)
      %1453 = vector.fma %1370, %1449, %1401 : vector<256xf32> loc(#loc24)
      %1454 = memref.load %46[%93, %1424] : memref<?x?xf32, strided<[?, 1]>> loc(#loc24)
      %1455 = vector.broadcast %1454 : f32 to vector<256xf32> loc(#loc24)
      %1456 = vector.fma %1370, %1452, %1404 : vector<256xf32> loc(#loc24)
      %1457 = memref.load %46[%97, %1424] : memref<?x?xf32, strided<[?, 1]>> loc(#loc24)
      %1458 = vector.broadcast %1457 : f32 to vector<256xf32> loc(#loc24)
      %1459 = vector.fma %1370, %1455, %1407 : vector<256xf32> loc(#loc24)
      %1460 = memref.load %46[%101, %1424] : memref<?x?xf32, strided<[?, 1]>> loc(#loc24)
      %1461 = vector.broadcast %1460 : f32 to vector<256xf32> loc(#loc24)
      %1462 = vector.fma %1370, %1458, %1410 : vector<256xf32> loc(#loc24)
      %1463 = memref.load %46[%105, %1424] : memref<?x?xf32, strided<[?, 1]>> loc(#loc24)
      %1464 = vector.broadcast %1463 : f32 to vector<256xf32> loc(#loc24)
      %1465 = vector.fma %1370, %1461, %1413 : vector<256xf32> loc(#loc24)
      %1466 = memref.load %46[%109, %1424] : memref<?x?xf32, strided<[?, 1]>> loc(#loc24)
      %1467 = vector.broadcast %1466 : f32 to vector<256xf32> loc(#loc24)
      %1468 = vector.fma %1370, %1464, %1416 : vector<256xf32> loc(#loc24)
      %1469 = memref.load %46[%113, %1424] : memref<?x?xf32, strided<[?, 1]>> loc(#loc24)
      %1470 = vector.broadcast %1469 : f32 to vector<256xf32> loc(#loc24)
      %1471 = vector.fma %1370, %1467, %1419 : vector<256xf32> loc(#loc24)
      %1472 = vector.fma %1370, %1470, %1420 : vector<256xf32> loc(#loc24)
      %1473 = arith.addi %49#0, %c28 : index loc(#loc24)
      %1474 = vector.load %48[%1473, %49#1] : memref<?x?xf32, strided<[?, 1]>>, vector<256xf32> loc(#loc24)
      %1475 = arith.addi %49#0, %c91 : index loc(#loc24)
      memref.prefetch %48[%1475, %49#1], read, locality<1>, data : memref<?x?xf32, strided<[?, 1]>> loc(#loc24)
      %1476 = arith.addi %47#1, %c27 : index loc(#loc24)
      %1477 = memref.load %46[%47#0, %1476] : memref<?x?xf32, strided<[?, 1]>> loc(#loc24)
      %1478 = vector.broadcast %1477 : f32 to vector<256xf32> loc(#loc24)
      %1479 = memref.load %46[%57, %1476] : memref<?x?xf32, strided<[?, 1]>> loc(#loc24)
      %1480 = vector.broadcast %1479 : f32 to vector<256xf32> loc(#loc24)
      %1481 = vector.fma %1422, %1478, %1429 : vector<256xf32> loc(#loc24)
      %1482 = memref.load %46[%61, %1476] : memref<?x?xf32, strided<[?, 1]>> loc(#loc24)
      %1483 = vector.broadcast %1482 : f32 to vector<256xf32> loc(#loc24)
      %1484 = vector.fma %1422, %1480, %1432 : vector<256xf32> loc(#loc24)
      %1485 = memref.load %46[%65, %1476] : memref<?x?xf32, strided<[?, 1]>> loc(#loc24)
      %1486 = vector.broadcast %1485 : f32 to vector<256xf32> loc(#loc24)
      %1487 = vector.fma %1422, %1483, %1435 : vector<256xf32> loc(#loc24)
      %1488 = memref.load %46[%69, %1476] : memref<?x?xf32, strided<[?, 1]>> loc(#loc24)
      %1489 = vector.broadcast %1488 : f32 to vector<256xf32> loc(#loc24)
      %1490 = vector.fma %1422, %1486, %1438 : vector<256xf32> loc(#loc24)
      %1491 = memref.load %46[%73, %1476] : memref<?x?xf32, strided<[?, 1]>> loc(#loc24)
      %1492 = vector.broadcast %1491 : f32 to vector<256xf32> loc(#loc24)
      %1493 = vector.fma %1422, %1489, %1441 : vector<256xf32> loc(#loc24)
      %1494 = memref.load %46[%77, %1476] : memref<?x?xf32, strided<[?, 1]>> loc(#loc24)
      %1495 = vector.broadcast %1494 : f32 to vector<256xf32> loc(#loc24)
      %1496 = vector.fma %1422, %1492, %1444 : vector<256xf32> loc(#loc24)
      %1497 = memref.load %46[%81, %1476] : memref<?x?xf32, strided<[?, 1]>> loc(#loc24)
      %1498 = vector.broadcast %1497 : f32 to vector<256xf32> loc(#loc24)
      %1499 = vector.fma %1422, %1495, %1447 : vector<256xf32> loc(#loc24)
      %1500 = memref.load %46[%85, %1476] : memref<?x?xf32, strided<[?, 1]>> loc(#loc24)
      %1501 = vector.broadcast %1500 : f32 to vector<256xf32> loc(#loc24)
      %1502 = vector.fma %1422, %1498, %1450 : vector<256xf32> loc(#loc24)
      %1503 = memref.load %46[%89, %1476] : memref<?x?xf32, strided<[?, 1]>> loc(#loc24)
      %1504 = vector.broadcast %1503 : f32 to vector<256xf32> loc(#loc24)
      %1505 = vector.fma %1422, %1501, %1453 : vector<256xf32> loc(#loc24)
      %1506 = memref.load %46[%93, %1476] : memref<?x?xf32, strided<[?, 1]>> loc(#loc24)
      %1507 = vector.broadcast %1506 : f32 to vector<256xf32> loc(#loc24)
      %1508 = vector.fma %1422, %1504, %1456 : vector<256xf32> loc(#loc24)
      %1509 = memref.load %46[%97, %1476] : memref<?x?xf32, strided<[?, 1]>> loc(#loc24)
      %1510 = vector.broadcast %1509 : f32 to vector<256xf32> loc(#loc24)
      %1511 = vector.fma %1422, %1507, %1459 : vector<256xf32> loc(#loc24)
      %1512 = memref.load %46[%101, %1476] : memref<?x?xf32, strided<[?, 1]>> loc(#loc24)
      %1513 = vector.broadcast %1512 : f32 to vector<256xf32> loc(#loc24)
      %1514 = vector.fma %1422, %1510, %1462 : vector<256xf32> loc(#loc24)
      %1515 = memref.load %46[%105, %1476] : memref<?x?xf32, strided<[?, 1]>> loc(#loc24)
      %1516 = vector.broadcast %1515 : f32 to vector<256xf32> loc(#loc24)
      %1517 = vector.fma %1422, %1513, %1465 : vector<256xf32> loc(#loc24)
      %1518 = memref.load %46[%109, %1476] : memref<?x?xf32, strided<[?, 1]>> loc(#loc24)
      %1519 = vector.broadcast %1518 : f32 to vector<256xf32> loc(#loc24)
      %1520 = vector.fma %1422, %1516, %1468 : vector<256xf32> loc(#loc24)
      %1521 = memref.load %46[%113, %1476] : memref<?x?xf32, strided<[?, 1]>> loc(#loc24)
      %1522 = vector.broadcast %1521 : f32 to vector<256xf32> loc(#loc24)
      %1523 = vector.fma %1422, %1519, %1471 : vector<256xf32> loc(#loc24)
      %1524 = vector.fma %1422, %1522, %1472 : vector<256xf32> loc(#loc24)
      %1525 = arith.addi %49#0, %c29 : index loc(#loc24)
      %1526 = vector.load %48[%1525, %49#1] : memref<?x?xf32, strided<[?, 1]>>, vector<256xf32> loc(#loc24)
      %1527 = arith.addi %49#0, %c92 : index loc(#loc24)
      memref.prefetch %48[%1527, %49#1], read, locality<1>, data : memref<?x?xf32, strided<[?, 1]>> loc(#loc24)
      %1528 = arith.addi %47#1, %c28 : index loc(#loc24)
      %1529 = memref.load %46[%47#0, %1528] : memref<?x?xf32, strided<[?, 1]>> loc(#loc24)
      %1530 = vector.broadcast %1529 : f32 to vector<256xf32> loc(#loc24)
      %1531 = memref.load %46[%57, %1528] : memref<?x?xf32, strided<[?, 1]>> loc(#loc24)
      %1532 = vector.broadcast %1531 : f32 to vector<256xf32> loc(#loc24)
      %1533 = vector.fma %1474, %1530, %1481 : vector<256xf32> loc(#loc24)
      %1534 = memref.load %46[%61, %1528] : memref<?x?xf32, strided<[?, 1]>> loc(#loc24)
      %1535 = vector.broadcast %1534 : f32 to vector<256xf32> loc(#loc24)
      %1536 = vector.fma %1474, %1532, %1484 : vector<256xf32> loc(#loc24)
      %1537 = memref.load %46[%65, %1528] : memref<?x?xf32, strided<[?, 1]>> loc(#loc24)
      %1538 = vector.broadcast %1537 : f32 to vector<256xf32> loc(#loc24)
      %1539 = vector.fma %1474, %1535, %1487 : vector<256xf32> loc(#loc24)
      %1540 = memref.load %46[%69, %1528] : memref<?x?xf32, strided<[?, 1]>> loc(#loc24)
      %1541 = vector.broadcast %1540 : f32 to vector<256xf32> loc(#loc24)
      %1542 = vector.fma %1474, %1538, %1490 : vector<256xf32> loc(#loc24)
      %1543 = memref.load %46[%73, %1528] : memref<?x?xf32, strided<[?, 1]>> loc(#loc24)
      %1544 = vector.broadcast %1543 : f32 to vector<256xf32> loc(#loc24)
      %1545 = vector.fma %1474, %1541, %1493 : vector<256xf32> loc(#loc24)
      %1546 = memref.load %46[%77, %1528] : memref<?x?xf32, strided<[?, 1]>> loc(#loc24)
      %1547 = vector.broadcast %1546 : f32 to vector<256xf32> loc(#loc24)
      %1548 = vector.fma %1474, %1544, %1496 : vector<256xf32> loc(#loc24)
      %1549 = memref.load %46[%81, %1528] : memref<?x?xf32, strided<[?, 1]>> loc(#loc24)
      %1550 = vector.broadcast %1549 : f32 to vector<256xf32> loc(#loc24)
      %1551 = vector.fma %1474, %1547, %1499 : vector<256xf32> loc(#loc24)
      %1552 = memref.load %46[%85, %1528] : memref<?x?xf32, strided<[?, 1]>> loc(#loc24)
      %1553 = vector.broadcast %1552 : f32 to vector<256xf32> loc(#loc24)
      %1554 = vector.fma %1474, %1550, %1502 : vector<256xf32> loc(#loc24)
      %1555 = memref.load %46[%89, %1528] : memref<?x?xf32, strided<[?, 1]>> loc(#loc24)
      %1556 = vector.broadcast %1555 : f32 to vector<256xf32> loc(#loc24)
      %1557 = vector.fma %1474, %1553, %1505 : vector<256xf32> loc(#loc24)
      %1558 = memref.load %46[%93, %1528] : memref<?x?xf32, strided<[?, 1]>> loc(#loc24)
      %1559 = vector.broadcast %1558 : f32 to vector<256xf32> loc(#loc24)
      %1560 = vector.fma %1474, %1556, %1508 : vector<256xf32> loc(#loc24)
      %1561 = memref.load %46[%97, %1528] : memref<?x?xf32, strided<[?, 1]>> loc(#loc24)
      %1562 = vector.broadcast %1561 : f32 to vector<256xf32> loc(#loc24)
      %1563 = vector.fma %1474, %1559, %1511 : vector<256xf32> loc(#loc24)
      %1564 = memref.load %46[%101, %1528] : memref<?x?xf32, strided<[?, 1]>> loc(#loc24)
      %1565 = vector.broadcast %1564 : f32 to vector<256xf32> loc(#loc24)
      %1566 = vector.fma %1474, %1562, %1514 : vector<256xf32> loc(#loc24)
      %1567 = memref.load %46[%105, %1528] : memref<?x?xf32, strided<[?, 1]>> loc(#loc24)
      %1568 = vector.broadcast %1567 : f32 to vector<256xf32> loc(#loc24)
      %1569 = vector.fma %1474, %1565, %1517 : vector<256xf32> loc(#loc24)
      %1570 = memref.load %46[%109, %1528] : memref<?x?xf32, strided<[?, 1]>> loc(#loc24)
      %1571 = vector.broadcast %1570 : f32 to vector<256xf32> loc(#loc24)
      %1572 = vector.fma %1474, %1568, %1520 : vector<256xf32> loc(#loc24)
      %1573 = memref.load %46[%113, %1528] : memref<?x?xf32, strided<[?, 1]>> loc(#loc24)
      %1574 = vector.broadcast %1573 : f32 to vector<256xf32> loc(#loc24)
      %1575 = vector.fma %1474, %1571, %1523 : vector<256xf32> loc(#loc24)
      %1576 = vector.fma %1474, %1574, %1524 : vector<256xf32> loc(#loc24)
      %1577 = arith.addi %49#0, %c30 : index loc(#loc24)
      %1578 = vector.load %48[%1577, %49#1] : memref<?x?xf32, strided<[?, 1]>>, vector<256xf32> loc(#loc24)
      %1579 = arith.addi %49#0, %c93 : index loc(#loc24)
      memref.prefetch %48[%1579, %49#1], read, locality<1>, data : memref<?x?xf32, strided<[?, 1]>> loc(#loc24)
      %1580 = arith.addi %47#1, %c29 : index loc(#loc24)
      %1581 = memref.load %46[%47#0, %1580] : memref<?x?xf32, strided<[?, 1]>> loc(#loc24)
      %1582 = vector.broadcast %1581 : f32 to vector<256xf32> loc(#loc24)
      %1583 = memref.load %46[%57, %1580] : memref<?x?xf32, strided<[?, 1]>> loc(#loc24)
      %1584 = vector.broadcast %1583 : f32 to vector<256xf32> loc(#loc24)
      %1585 = vector.fma %1526, %1582, %1533 : vector<256xf32> loc(#loc24)
      %1586 = memref.load %46[%61, %1580] : memref<?x?xf32, strided<[?, 1]>> loc(#loc24)
      %1587 = vector.broadcast %1586 : f32 to vector<256xf32> loc(#loc24)
      %1588 = vector.fma %1526, %1584, %1536 : vector<256xf32> loc(#loc24)
      %1589 = memref.load %46[%65, %1580] : memref<?x?xf32, strided<[?, 1]>> loc(#loc24)
      %1590 = vector.broadcast %1589 : f32 to vector<256xf32> loc(#loc24)
      %1591 = vector.fma %1526, %1587, %1539 : vector<256xf32> loc(#loc24)
      %1592 = memref.load %46[%69, %1580] : memref<?x?xf32, strided<[?, 1]>> loc(#loc24)
      %1593 = vector.broadcast %1592 : f32 to vector<256xf32> loc(#loc24)
      %1594 = vector.fma %1526, %1590, %1542 : vector<256xf32> loc(#loc24)
      %1595 = memref.load %46[%73, %1580] : memref<?x?xf32, strided<[?, 1]>> loc(#loc24)
      %1596 = vector.broadcast %1595 : f32 to vector<256xf32> loc(#loc24)
      %1597 = vector.fma %1526, %1593, %1545 : vector<256xf32> loc(#loc24)
      %1598 = memref.load %46[%77, %1580] : memref<?x?xf32, strided<[?, 1]>> loc(#loc24)
      %1599 = vector.broadcast %1598 : f32 to vector<256xf32> loc(#loc24)
      %1600 = vector.fma %1526, %1596, %1548 : vector<256xf32> loc(#loc24)
      %1601 = memref.load %46[%81, %1580] : memref<?x?xf32, strided<[?, 1]>> loc(#loc24)
      %1602 = vector.broadcast %1601 : f32 to vector<256xf32> loc(#loc24)
      %1603 = vector.fma %1526, %1599, %1551 : vector<256xf32> loc(#loc24)
      %1604 = memref.load %46[%85, %1580] : memref<?x?xf32, strided<[?, 1]>> loc(#loc24)
      %1605 = vector.broadcast %1604 : f32 to vector<256xf32> loc(#loc24)
      %1606 = vector.fma %1526, %1602, %1554 : vector<256xf32> loc(#loc24)
      %1607 = memref.load %46[%89, %1580] : memref<?x?xf32, strided<[?, 1]>> loc(#loc24)
      %1608 = vector.broadcast %1607 : f32 to vector<256xf32> loc(#loc24)
      %1609 = vector.fma %1526, %1605, %1557 : vector<256xf32> loc(#loc24)
      %1610 = memref.load %46[%93, %1580] : memref<?x?xf32, strided<[?, 1]>> loc(#loc24)
      %1611 = vector.broadcast %1610 : f32 to vector<256xf32> loc(#loc24)
      %1612 = vector.fma %1526, %1608, %1560 : vector<256xf32> loc(#loc24)
      %1613 = memref.load %46[%97, %1580] : memref<?x?xf32, strided<[?, 1]>> loc(#loc24)
      %1614 = vector.broadcast %1613 : f32 to vector<256xf32> loc(#loc24)
      %1615 = vector.fma %1526, %1611, %1563 : vector<256xf32> loc(#loc24)
      %1616 = memref.load %46[%101, %1580] : memref<?x?xf32, strided<[?, 1]>> loc(#loc24)
      %1617 = vector.broadcast %1616 : f32 to vector<256xf32> loc(#loc24)
      %1618 = vector.fma %1526, %1614, %1566 : vector<256xf32> loc(#loc24)
      %1619 = memref.load %46[%105, %1580] : memref<?x?xf32, strided<[?, 1]>> loc(#loc24)
      %1620 = vector.broadcast %1619 : f32 to vector<256xf32> loc(#loc24)
      %1621 = vector.fma %1526, %1617, %1569 : vector<256xf32> loc(#loc24)
      %1622 = memref.load %46[%109, %1580] : memref<?x?xf32, strided<[?, 1]>> loc(#loc24)
      %1623 = vector.broadcast %1622 : f32 to vector<256xf32> loc(#loc24)
      %1624 = vector.fma %1526, %1620, %1572 : vector<256xf32> loc(#loc24)
      %1625 = memref.load %46[%113, %1580] : memref<?x?xf32, strided<[?, 1]>> loc(#loc24)
      %1626 = vector.broadcast %1625 : f32 to vector<256xf32> loc(#loc24)
      %1627 = vector.fma %1526, %1623, %1575 : vector<256xf32> loc(#loc24)
      %1628 = vector.fma %1526, %1626, %1576 : vector<256xf32> loc(#loc24)
      %1629 = arith.addi %49#0, %c31 : index loc(#loc24)
      %1630 = vector.load %48[%1629, %49#1] : memref<?x?xf32, strided<[?, 1]>>, vector<256xf32> loc(#loc24)
      %1631 = arith.addi %49#0, %c94 : index loc(#loc24)
      memref.prefetch %48[%1631, %49#1], read, locality<1>, data : memref<?x?xf32, strided<[?, 1]>> loc(#loc24)
      %1632 = arith.addi %47#1, %c30 : index loc(#loc24)
      %1633 = memref.load %46[%47#0, %1632] : memref<?x?xf32, strided<[?, 1]>> loc(#loc24)
      %1634 = vector.broadcast %1633 : f32 to vector<256xf32> loc(#loc24)
      %1635 = memref.load %46[%57, %1632] : memref<?x?xf32, strided<[?, 1]>> loc(#loc24)
      %1636 = vector.broadcast %1635 : f32 to vector<256xf32> loc(#loc24)
      %1637 = vector.fma %1578, %1634, %1585 : vector<256xf32> loc(#loc24)
      %1638 = memref.load %46[%61, %1632] : memref<?x?xf32, strided<[?, 1]>> loc(#loc24)
      %1639 = vector.broadcast %1638 : f32 to vector<256xf32> loc(#loc24)
      %1640 = vector.fma %1578, %1636, %1588 : vector<256xf32> loc(#loc24)
      %1641 = memref.load %46[%65, %1632] : memref<?x?xf32, strided<[?, 1]>> loc(#loc24)
      %1642 = vector.broadcast %1641 : f32 to vector<256xf32> loc(#loc24)
      %1643 = vector.fma %1578, %1639, %1591 : vector<256xf32> loc(#loc24)
      %1644 = memref.load %46[%69, %1632] : memref<?x?xf32, strided<[?, 1]>> loc(#loc24)
      %1645 = vector.broadcast %1644 : f32 to vector<256xf32> loc(#loc24)
      %1646 = vector.fma %1578, %1642, %1594 : vector<256xf32> loc(#loc24)
      %1647 = memref.load %46[%73, %1632] : memref<?x?xf32, strided<[?, 1]>> loc(#loc24)
      %1648 = vector.broadcast %1647 : f32 to vector<256xf32> loc(#loc24)
      %1649 = vector.fma %1578, %1645, %1597 : vector<256xf32> loc(#loc24)
      %1650 = memref.load %46[%77, %1632] : memref<?x?xf32, strided<[?, 1]>> loc(#loc24)
      %1651 = vector.broadcast %1650 : f32 to vector<256xf32> loc(#loc24)
      %1652 = vector.fma %1578, %1648, %1600 : vector<256xf32> loc(#loc24)
      %1653 = memref.load %46[%81, %1632] : memref<?x?xf32, strided<[?, 1]>> loc(#loc24)
      %1654 = vector.broadcast %1653 : f32 to vector<256xf32> loc(#loc24)
      %1655 = vector.fma %1578, %1651, %1603 : vector<256xf32> loc(#loc24)
      %1656 = memref.load %46[%85, %1632] : memref<?x?xf32, strided<[?, 1]>> loc(#loc24)
      %1657 = vector.broadcast %1656 : f32 to vector<256xf32> loc(#loc24)
      %1658 = vector.fma %1578, %1654, %1606 : vector<256xf32> loc(#loc24)
      %1659 = memref.load %46[%89, %1632] : memref<?x?xf32, strided<[?, 1]>> loc(#loc24)
      %1660 = vector.broadcast %1659 : f32 to vector<256xf32> loc(#loc24)
      %1661 = vector.fma %1578, %1657, %1609 : vector<256xf32> loc(#loc24)
      %1662 = memref.load %46[%93, %1632] : memref<?x?xf32, strided<[?, 1]>> loc(#loc24)
      %1663 = vector.broadcast %1662 : f32 to vector<256xf32> loc(#loc24)
      %1664 = vector.fma %1578, %1660, %1612 : vector<256xf32> loc(#loc24)
      %1665 = memref.load %46[%97, %1632] : memref<?x?xf32, strided<[?, 1]>> loc(#loc24)
      %1666 = vector.broadcast %1665 : f32 to vector<256xf32> loc(#loc24)
      %1667 = vector.fma %1578, %1663, %1615 : vector<256xf32> loc(#loc24)
      %1668 = memref.load %46[%101, %1632] : memref<?x?xf32, strided<[?, 1]>> loc(#loc24)
      %1669 = vector.broadcast %1668 : f32 to vector<256xf32> loc(#loc24)
      %1670 = vector.fma %1578, %1666, %1618 : vector<256xf32> loc(#loc24)
      %1671 = memref.load %46[%105, %1632] : memref<?x?xf32, strided<[?, 1]>> loc(#loc24)
      %1672 = vector.broadcast %1671 : f32 to vector<256xf32> loc(#loc24)
      %1673 = vector.fma %1578, %1669, %1621 : vector<256xf32> loc(#loc24)
      %1674 = memref.load %46[%109, %1632] : memref<?x?xf32, strided<[?, 1]>> loc(#loc24)
      %1675 = vector.broadcast %1674 : f32 to vector<256xf32> loc(#loc24)
      %1676 = vector.fma %1578, %1672, %1624 : vector<256xf32> loc(#loc24)
      %1677 = memref.load %46[%113, %1632] : memref<?x?xf32, strided<[?, 1]>> loc(#loc24)
      %1678 = vector.broadcast %1677 : f32 to vector<256xf32> loc(#loc24)
      %1679 = vector.fma %1578, %1675, %1627 : vector<256xf32> loc(#loc24)
      %1680 = vector.fma %1578, %1678, %1628 : vector<256xf32> loc(#loc24)
      %1681 = arith.addi %49#0, %c32 : index loc(#loc24)
      %1682 = vector.load %48[%1681, %49#1] : memref<?x?xf32, strided<[?, 1]>>, vector<256xf32> loc(#loc24)
      %1683 = arith.addi %49#0, %c95 : index loc(#loc24)
      memref.prefetch %48[%1683, %49#1], read, locality<1>, data : memref<?x?xf32, strided<[?, 1]>> loc(#loc24)
      %1684 = arith.addi %47#1, %c31 : index loc(#loc24)
      %1685 = memref.load %46[%47#0, %1684] : memref<?x?xf32, strided<[?, 1]>> loc(#loc24)
      %1686 = vector.broadcast %1685 : f32 to vector<256xf32> loc(#loc24)
      %1687 = memref.load %46[%57, %1684] : memref<?x?xf32, strided<[?, 1]>> loc(#loc24)
      %1688 = vector.broadcast %1687 : f32 to vector<256xf32> loc(#loc24)
      %1689 = vector.fma %1630, %1686, %1637 : vector<256xf32> loc(#loc24)
      %1690 = memref.load %46[%61, %1684] : memref<?x?xf32, strided<[?, 1]>> loc(#loc24)
      %1691 = vector.broadcast %1690 : f32 to vector<256xf32> loc(#loc24)
      %1692 = vector.fma %1630, %1688, %1640 : vector<256xf32> loc(#loc24)
      %1693 = memref.load %46[%65, %1684] : memref<?x?xf32, strided<[?, 1]>> loc(#loc24)
      %1694 = vector.broadcast %1693 : f32 to vector<256xf32> loc(#loc24)
      %1695 = vector.fma %1630, %1691, %1643 : vector<256xf32> loc(#loc24)
      %1696 = memref.load %46[%69, %1684] : memref<?x?xf32, strided<[?, 1]>> loc(#loc24)
      %1697 = vector.broadcast %1696 : f32 to vector<256xf32> loc(#loc24)
      %1698 = vector.fma %1630, %1694, %1646 : vector<256xf32> loc(#loc24)
      %1699 = memref.load %46[%73, %1684] : memref<?x?xf32, strided<[?, 1]>> loc(#loc24)
      %1700 = vector.broadcast %1699 : f32 to vector<256xf32> loc(#loc24)
      %1701 = vector.fma %1630, %1697, %1649 : vector<256xf32> loc(#loc24)
      %1702 = memref.load %46[%77, %1684] : memref<?x?xf32, strided<[?, 1]>> loc(#loc24)
      %1703 = vector.broadcast %1702 : f32 to vector<256xf32> loc(#loc24)
      %1704 = vector.fma %1630, %1700, %1652 : vector<256xf32> loc(#loc24)
      %1705 = memref.load %46[%81, %1684] : memref<?x?xf32, strided<[?, 1]>> loc(#loc24)
      %1706 = vector.broadcast %1705 : f32 to vector<256xf32> loc(#loc24)
      %1707 = vector.fma %1630, %1703, %1655 : vector<256xf32> loc(#loc24)
      %1708 = memref.load %46[%85, %1684] : memref<?x?xf32, strided<[?, 1]>> loc(#loc24)
      %1709 = vector.broadcast %1708 : f32 to vector<256xf32> loc(#loc24)
      %1710 = vector.fma %1630, %1706, %1658 : vector<256xf32> loc(#loc24)
      %1711 = memref.load %46[%89, %1684] : memref<?x?xf32, strided<[?, 1]>> loc(#loc24)
      %1712 = vector.broadcast %1711 : f32 to vector<256xf32> loc(#loc24)
      %1713 = vector.fma %1630, %1709, %1661 : vector<256xf32> loc(#loc24)
      %1714 = memref.load %46[%93, %1684] : memref<?x?xf32, strided<[?, 1]>> loc(#loc24)
      %1715 = vector.broadcast %1714 : f32 to vector<256xf32> loc(#loc24)
      %1716 = vector.fma %1630, %1712, %1664 : vector<256xf32> loc(#loc24)
      %1717 = memref.load %46[%97, %1684] : memref<?x?xf32, strided<[?, 1]>> loc(#loc24)
      %1718 = vector.broadcast %1717 : f32 to vector<256xf32> loc(#loc24)
      %1719 = vector.fma %1630, %1715, %1667 : vector<256xf32> loc(#loc24)
      %1720 = memref.load %46[%101, %1684] : memref<?x?xf32, strided<[?, 1]>> loc(#loc24)
      %1721 = vector.broadcast %1720 : f32 to vector<256xf32> loc(#loc24)
      %1722 = vector.fma %1630, %1718, %1670 : vector<256xf32> loc(#loc24)
      %1723 = memref.load %46[%105, %1684] : memref<?x?xf32, strided<[?, 1]>> loc(#loc24)
      %1724 = vector.broadcast %1723 : f32 to vector<256xf32> loc(#loc24)
…
      %2864 = memref.load %46[%97, %2831] : memref<?x?xf32, strided<[?, 1]>> loc(#loc24)
      %2865 = vector.broadcast %2864 : f32 to vector<256xf32> loc(#loc24)
      %2866 = vector.fma %2777, %2862, %2814 : vector<256xf32> loc(#loc24)
      %2867 = memref.load %46[%101, %2831] : memref<?x?xf32, strided<[?, 1]>> loc(#loc24)
      %2868 = vector.broadcast %2867 : f32 to vector<256xf32> loc(#loc24)
      %2869 = vector.fma %2777, %2865, %2817 : vector<256xf32> loc(#loc24)
      %2870 = memref.load %46[%105, %2831] : memref<?x?xf32, strided<[?, 1]>> loc(#loc24)
      %2871 = vector.broadcast %2870 : f32 to vector<256xf32> loc(#loc24)
      %2872 = vector.fma %2777, %2868, %2820 : vector<256xf32> loc(#loc24)
      %2873 = memref.load %46[%109, %2831] : memref<?x?xf32, strided<[?, 1]>> loc(#loc24)
      %2874 = vector.broadcast %2873 : f32 to vector<256xf32> loc(#loc24)
      %2875 = vector.fma %2777, %2871, %2823 : vector<256xf32> loc(#loc24)
      %2876 = memref.load %46[%113, %2831] : memref<?x?xf32, strided<[?, 1]>> loc(#loc24)
      %2877 = vector.broadcast %2876 : f32 to vector<256xf32> loc(#loc24)
      %2878 = vector.fma %2777, %2874, %2826 : vector<256xf32> loc(#loc24)
      %2879 = vector.fma %2777, %2877, %2827 : vector<256xf32> loc(#loc24)
      %2880 = arith.addi %49#0, %c55 : index loc(#loc24)
      %2881 = vector.load %48[%2880, %49#1] : memref<?x?xf32, strided<[?, 1]>>, vector<256xf32> loc(#loc24)
      %2882 = arith.addi %49#0, %c118 : index loc(#loc24)
      memref.prefetch %48[%2882, %49#1], read, locality<1>, data : memref<?x?xf32, strided<[?, 1]>> loc(#loc24)
      %2883 = arith.addi %47#1, %c54 : index loc(#loc24)
      %2884 = memref.load %46[%47#0, %2883] : memref<?x?xf32, strided<[?, 1]>> loc(#loc24)
      %2885 = vector.broadcast %2884 : f32 to vector<256xf32> loc(#loc24)
      %2886 = memref.load %46[%57, %2883] : memref<?x?xf32, strided<[?, 1]>> loc(#loc24)
      %2887 = vector.broadcast %2886 : f32 to vector<256xf32> loc(#loc24)
      %2888 = vector.fma %2829, %2885, %2836 : vector<256xf32> loc(#loc24)
      %2889 = memref.load %46[%61, %2883] : memref<?x?xf32, strided<[?, 1]>> loc(#loc24)
      %2890 = vector.broadcast %2889 : f32 to vector<256xf32> loc(#loc24)
      %2891 = vector.fma %2829, %2887, %2839 : vector<256xf32> loc(#loc24)
      %2892 = memref.load %46[%65, %2883] : memref<?x?xf32, strided<[?, 1]>> loc(#loc24)
      %2893 = vector.broadcast %2892 : f32 to vector<256xf32> loc(#loc24)
      %2894 = vector.fma %2829, %2890, %2842 : vector<256xf32> loc(#loc24)
      %2895 = memref.load %46[%69, %2883] : memref<?x?xf32, strided<[?, 1]>> loc(#loc24)
      %2896 = vector.broadcast %2895 : f32 to vector<256xf32> loc(#loc24)
      %2897 = vector.fma %2829, %2893, %2845 : vector<256xf32> loc(#loc24)
      %2898 = memref.load %46[%73, %2883] : memref<?x?xf32, strided<[?, 1]>> loc(#loc24)
      %2899 = vector.broadcast %2898 : f32 to vector<256xf32> loc(#loc24)
      %2900 = vector.fma %2829, %2896, %2848 : vector<256xf32> loc(#loc24)
      %2901 = memref.load %46[%77, %2883] : memref<?x?xf32, strided<[?, 1]>> loc(#loc24)
      %2902 = vector.broadcast %2901 : f32 to vector<256xf32> loc(#loc24)
      %2903 = vector.fma %2829, %2899, %2851 : vector<256xf32> loc(#loc24)
      %2904 = memref.load %46[%81, %2883] : memref<?x?xf32, strided<[?, 1]>> loc(#loc24)
      %2905 = vector.broadcast %2904 : f32 to vector<256xf32> loc(#loc24)
      %2906 = vector.fma %2829, %2902, %2854 : vector<256xf32> loc(#loc24)
      %2907 = memref.load %46[%85, %2883] : memref<?x?xf32, strided<[?, 1]>> loc(#loc24)
      %2908 = vector.broadcast %2907 : f32 to vector<256xf32> loc(#loc24)
      %2909 = vector.fma %2829, %2905, %2857 : vector<256xf32> loc(#loc24)
      %2910 = memref.load %46[%89, %2883] : memref<?x?xf32, strided<[?, 1]>> loc(#loc24)
      %2911 = vector.broadcast %2910 : f32 to vector<256xf32> loc(#loc24)
      %2912 = vector.fma %2829, %2908, %2860 : vector<256xf32> loc(#loc24)
      %2913 = memref.load %46[%93, %2883] : memref<?x?xf32, strided<[?, 1]>> loc(#loc24)
      %2914 = vector.broadcast %2913 : f32 to vector<256xf32> loc(#loc24)
      %2915 = vector.fma %2829, %2911, %2863 : vector<256xf32> loc(#loc24)
      %2916 = memref.load %46[%97, %2883] : memref<?x?xf32, strided<[?, 1]>> loc(#loc24)
      %2917 = vector.broadcast %2916 : f32 to vector<256xf32> loc(#loc24)
      %2918 = vector.fma %2829, %2914, %2866 : vector<256xf32> loc(#loc24)
      %2919 = memref.load %46[%101, %2883] : memref<?x?xf32, strided<[?, 1]>> loc(#loc24)
      %2920 = vector.broadcast %2919 : f32 to vector<256xf32> loc(#loc24)
      %2921 = vector.fma %2829, %2917, %2869 : vector<256xf32> loc(#loc24)
      %2922 = memref.load %46[%105, %2883] : memref<?x?xf32, strided<[?, 1]>> loc(#loc24)
      %2923 = vector.broadcast %2922 : f32 to vector<256xf32> loc(#loc24)
      %2924 = vector.fma %2829, %2920, %2872 : vector<256xf32> loc(#loc24)
      %2925 = memref.load %46[%109, %2883] : memref<?x?xf32, strided<[?, 1]>> loc(#loc24)
      %2926 = vector.broadcast %2925 : f32 to vector<256xf32> loc(#loc24)
      %2927 = vector.fma %2829, %2923, %2875 : vector<256xf32> loc(#loc24)
      %2928 = memref.load %46[%113, %2883] : memref<?x?xf32, strided<[?, 1]>> loc(#loc24)
      %2929 = vector.broadcast %2928 : f32 to vector<256xf32> loc(#loc24)
      %2930 = vector.fma %2829, %2926, %2878 : vector<256xf32> loc(#loc24)
      %2931 = vector.fma %2829, %2929, %2879 : vector<256xf32> loc(#loc24)
      %2932 = arith.addi %49#0, %c56 : index loc(#loc24)
      %2933 = vector.load %48[%2932, %49#1] : memref<?x?xf32, strided<[?, 1]>>, vector<256xf32> loc(#loc24)
      %2934 = arith.addi %49#0, %c119 : index loc(#loc24)
      memref.prefetch %48[%2934, %49#1], read, locality<1>, data : memref<?x?xf32, strided<[?, 1]>> loc(#loc24)
      %2935 = arith.addi %47#1, %c55 : index loc(#loc24)
      %2936 = memref.load %46[%47#0, %2935] : memref<?x?xf32, strided<[?, 1]>> loc(#loc24)
      %2937 = vector.broadcast %2936 : f32 to vector<256xf32> loc(#loc24)
      %2938 = memref.load %46[%57, %2935] : memref<?x?xf32, strided<[?, 1]>> loc(#loc24)
      %2939 = vector.broadcast %2938 : f32 to vector<256xf32> loc(#loc24)
      %2940 = vector.fma %2881, %2937, %2888 : vector<256xf32> loc(#loc24)
      %2941 = memref.load %46[%61, %2935] : memref<?x?xf32, strided<[?, 1]>> loc(#loc24)
      %2942 = vector.broadcast %2941 : f32 to vector<256xf32> loc(#loc24)
      %2943 = vector.fma %2881, %2939, %2891 : vector<256xf32> loc(#loc24)
      %2944 = memref.load %46[%65, %2935] : memref<?x?xf32, strided<[?, 1]>> loc(#loc24)
      %2945 = vector.broadcast %2944 : f32 to vector<256xf32> loc(#loc24)
      %2946 = vector.fma %2881, %2942, %2894 : vector<256xf32> loc(#loc24)
      %2947 = memref.load %46[%69, %2935] : memref<?x?xf32, strided<[?, 1]>> loc(#loc24)
      %2948 = vector.broadcast %2947 : f32 to vector<256xf32> loc(#loc24)
      %2949 = vector.fma %2881, %2945, %2897 : vector<256xf32> loc(#loc24)
      %2950 = memref.load %46[%73, %2935] : memref<?x?xf32, strided<[?, 1]>> loc(#loc24)
      %2951 = vector.broadcast %2950 : f32 to vector<256xf32> loc(#loc24)
      %2952 = vector.fma %2881, %2948, %2900 : vector<256xf32> loc(#loc24)
      %2953 = memref.load %46[%77, %2935] : memref<?x?xf32, strided<[?, 1]>> loc(#loc24)
      %2954 = vector.broadcast %2953 : f32 to vector<256xf32> loc(#loc24)
      %2955 = vector.fma %2881, %2951, %2903 : vector<256xf32> loc(#loc24)
      %2956 = memref.load %46[%81, %2935] : memref<?x?xf32, strided<[?, 1]>> loc(#loc24)
      %2957 = vector.broadcast %2956 : f32 to vector<256xf32> loc(#loc24)
      %2958 = vector.fma %2881, %2954, %2906 : vector<256xf32> loc(#loc24)
      %2959 = memref.load %46[%85, %2935] : memref<?x?xf32, strided<[?, 1]>> loc(#loc24)
      %2960 = vector.broadcast %2959 : f32 to vector<256xf32> loc(#loc24)
      %2961 = vector.fma %2881, %2957, %2909 : vector<256xf32> loc(#loc24)
      %2962 = memref.load %46[%89, %2935] : memref<?x?xf32, strided<[?, 1]>> loc(#loc24)
      %2963 = vector.broadcast %2962 : f32 to vector<256xf32> loc(#loc24)
      %2964 = vector.fma %2881, %2960, %2912 : vector<256xf32> loc(#loc24)
      %2965 = memref.load %46[%93, %2935] : memref<?x?xf32, strided<[?, 1]>> loc(#loc24)
      %2966 = vector.broadcast %2965 : f32 to vector<256xf32> loc(#loc24)
      %2967 = vector.fma %2881, %2963, %2915 : vector<256xf32> loc(#loc24)
      %2968 = memref.load %46[%97, %2935] : memref<?x?xf32, strided<[?, 1]>> loc(#loc24)
      %2969 = vector.broadcast %2968 : f32 to vector<256xf32> loc(#loc24)
      %2970 = vector.fma %2881, %2966, %2918 : vector<256xf32> loc(#loc24)
      %2971 = memref.load %46[%101, %2935] : memref<?x?xf32, strided<[?, 1]>> loc(#loc24)
      %2972 = vector.broadcast %2971 : f32 to vector<256xf32> loc(#loc24)
      %2973 = vector.fma %2881, %2969, %2921 : vector<256xf32> loc(#loc24)
      %2974 = memref.load %46[%105, %2935] : memref<?x?xf32, strided<[?, 1]>> loc(#loc24)
      %2975 = vector.broadcast %2974 : f32 to vector<256xf32> loc(#loc24)
      %2976 = vector.fma %2881, %2972, %2924 : vector<256xf32> loc(#loc24)
      %2977 = memref.load %46[%109, %2935] : memref<?x?xf32, strided<[?, 1]>> loc(#loc24)
      %2978 = vector.broadcast %2977 : f32 to vector<256xf32> loc(#loc24)
      %2979 = vector.fma %2881, %2975, %2927 : vector<256xf32> loc(#loc24)
      %2980 = memref.load %46[%113, %2935] : memref<?x?xf32, strided<[?, 1]>> loc(#loc24)
      %2981 = vector.broadcast %2980 : f32 to vector<256xf32> loc(#loc24)
      %2982 = vector.fma %2881, %2978, %2930 : vector<256xf32> loc(#loc24)
      %2983 = vector.fma %2881, %2981, %2931 : vector<256xf32> loc(#loc24)
      %2984 = arith.addi %49#0, %c57 : index loc(#loc24)
      %2985 = vector.load %48[%2984, %49#1] : memref<?x?xf32, strided<[?, 1]>>, vector<256xf32> loc(#loc24)
      %2986 = arith.addi %49#0, %c120 : index loc(#loc24)
      memref.prefetch %48[%2986, %49#1], read, locality<1>, data : memref<?x?xf32, strided<[?, 1]>> loc(#loc24)
      %2987 = arith.addi %47#1, %c56 : index loc(#loc24)
      %2988 = memref.load %46[%47#0, %2987] : memref<?x?xf32, strided<[?, 1]>> loc(#loc24)
      %2989 = vector.broadcast %2988 : f32 to vector<256xf32> loc(#loc24)
      %2990 = memref.load %46[%57, %2987] : memref<?x?xf32, strided<[?, 1]>> loc(#loc24)
      %2991 = vector.broadcast %2990 : f32 to vector<256xf32> loc(#loc24)
      %2992 = arith.addi %47#1, %c120 : index loc(#loc24)
      memref.prefetch %46[%47#0, %2992], read, locality<3>, data : memref<?x?xf32, strided<[?, 1]>> loc(#loc24)
      %2993 = vector.fma %2933, %2989, %2940 : vector<256xf32> loc(#loc24)
      %2994 = memref.load %46[%61, %2987] : memref<?x?xf32, strided<[?, 1]>> loc(#loc24)
      %2995 = vector.broadcast %2994 : f32 to vector<256xf32> loc(#loc24)
      memref.prefetch %46[%57, %2992], read, locality<3>, data : memref<?x?xf32, strided<[?, 1]>> loc(#loc24)
      %2996 = vector.fma %2933, %2991, %2943 : vector<256xf32> loc(#loc24)
      %2997 = memref.load %46[%65, %2987] : memref<?x?xf32, strided<[?, 1]>> loc(#loc24)
      %2998 = vector.broadcast %2997 : f32 to vector<256xf32> loc(#loc24)
      memref.prefetch %46[%61, %2992], read, locality<3>, data : memref<?x?xf32, strided<[?, 1]>> loc(#loc24)
      %2999 = vector.fma %2933, %2995, %2946 : vector<256xf32> loc(#loc24)
      %3000 = memref.load %46[%69, %2987] : memref<?x?xf32, strided<[?, 1]>> loc(#loc24)
      %3001 = vector.broadcast %3000 : f32 to vector<256xf32> loc(#loc24)
      memref.prefetch %46[%65, %2992], read, locality<3>, data : memref<?x?xf32, strided<[?, 1]>> loc(#loc24)
      %3002 = vector.fma %2933, %2998, %2949 : vector<256xf32> loc(#loc24)
      %3003 = memref.load %46[%73, %2987] : memref<?x?xf32, strided<[?, 1]>> loc(#loc24)
      %3004 = vector.broadcast %3003 : f32 to vector<256xf32> loc(#loc24)
      memref.prefetch %46[%69, %2992], read, locality<3>, data : memref<?x?xf32, strided<[?, 1]>> loc(#loc24)
      %3005 = vector.fma %2933, %3001, %2952 : vector<256xf32> loc(#loc24)
      %3006 = memref.load %46[%77, %2987] : memref<?x?xf32, strided<[?, 1]>> loc(#loc24)
      %3007 = vector.broadcast %3006 : f32 to vector<256xf32> loc(#loc24)
      memref.prefetch %46[%73, %2992], read, locality<3>, data : memref<?x?xf32, strided<[?, 1]>> loc(#loc24)
      %3008 = vector.fma %2933, %3004, %2955 : vector<256xf32> loc(#loc24)
      %3009 = memref.load %46[%81, %2987] : memref<?x?xf32, strided<[?, 1]>> loc(#loc24)
      %3010 = vector.broadcast %3009 : f32 to vector<256xf32> loc(#loc24)
      memref.prefetch %46[%77, %2992], read, locality<3>, data : memref<?x?xf32, strided<[?, 1]>> loc(#loc24)
      %3011 = vector.fma %2933, %3007, %2958 : vector<256xf32> loc(#loc24)
      %3012 = memref.load %46[%85, %2987] : memref<?x?xf32, strided<[?, 1]>> loc(#loc24)
      %3013 = vector.broadcast %3012 : f32 to vector<256xf32> loc(#loc24)
      memref.prefetch %46[%81, %2992], read, locality<3>, data : memref<?x?xf32, strided<[?, 1]>> loc(#loc24)
      %3014 = vector.fma %2933, %3010, %2961 : vector<256xf32> loc(#loc24)
      %3015 = memref.load %46[%89, %2987] : memref<?x?xf32, strided<[?, 1]>> loc(#loc24)
      %3016 = vector.broadcast %3015 : f32 to vector<256xf32> loc(#loc24)
      memref.prefetch %46[%85, %2992], read, locality<3>, data : memref<?x?xf32, strided<[?, 1]>> loc(#loc24)
      %3017 = vector.fma %2933, %3013, %2964 : vector<256xf32> loc(#loc24)
      %3018 = memref.load %46[%93, %2987] : memref<?x?xf32, strided<[?, 1]>> loc(#loc24)
      %3019 = vector.broadcast %3018 : f32 to vector<256xf32> loc(#loc24)
      memref.prefetch %46[%89, %2992], read, locality<3>, data : memref<?x?xf32, strided<[?, 1]>> loc(#loc24)
      %3020 = vector.fma %2933, %3016, %2967 : vector<256xf32> loc(#loc24)
      %3021 = memref.load %46[%97, %2987] : memref<?x?xf32, strided<[?, 1]>> loc(#loc24)
      %3022 = vector.broadcast %3021 : f32 to vector<256xf32> loc(#loc24)
      memref.prefetch %46[%93, %2992], read, locality<3>, data : memref<?x?xf32, strided<[?, 1]>> loc(#loc24)
      %3023 = vector.fma %2933, %3019, %2970 : vector<256xf32> loc(#loc24)
      %3024 = memref.load %46[%101, %2987] : memref<?x?xf32, strided<[?, 1]>> loc(#loc24)
      %3025 = vector.broadcast %3024 : f32 to vector<256xf32> loc(#loc24)
      memref.prefetch %46[%97, %2992], read, locality<3>, data : memref<?x?xf32, strided<[?, 1]>> loc(#loc24)
      %3026 = vector.fma %2933, %3022, %2973 : vector<256xf32> loc(#loc24)
      %3027 = memref.load %46[%105, %2987] : memref<?x?xf32, strided<[?, 1]>> loc(#loc24)
      %3028 = vector.broadcast %3027 : f32 to vector<256xf32> loc(#loc24)
      memref.prefetch %46[%101, %2992], read, locality<3>, data : memref<?x?xf32, strided<[?, 1]>> loc(#loc24)
      %3029 = vector.fma %2933, %3025, %2976 : vector<256xf32> loc(#loc24)
      %3030 = memref.load %46[%109, %2987] : memref<?x?xf32, strided<[?, 1]>> loc(#loc24)
      %3031 = vector.broadcast %3030 : f32 to vector<256xf32> loc(#loc24)
      memref.prefetch %46[%105, %2992], read, locality<3>, data : memref<?x?xf32, strided<[?, 1]>> loc(#loc24)
      %3032 = vector.fma %2933, %3028, %2979 : vector<256xf32> loc(#loc24)
      %3033 = memref.load %46[%113, %2987] : memref<?x?xf32, strided<[?, 1]>> loc(#loc24)
      %3034 = vector.broadcast %3033 : f32 to vector<256xf32> loc(#loc24)
      memref.prefetch %46[%109, %2992], read, locality<3>, data : memref<?x?xf32, strided<[?, 1]>> loc(#loc24)
      %3035 = vector.fma %2933, %3031, %2982 : vector<256xf32> loc(#loc24)
      memref.prefetch %46[%113, %2992], read, locality<3>, data : memref<?x?xf32, strided<[?, 1]>> loc(#loc24)
      %3036 = vector.fma %2933, %3034, %2983 : vector<256xf32> loc(#loc24)
      %3037 = arith.addi %49#0, %c58 : index loc(#loc24)
      %3038 = vector.load %48[%3037, %49#1] : memref<?x?xf32, strided<[?, 1]>>, vector<256xf32> loc(#loc24)
      %3039 = arith.addi %49#0, %c121 : index loc(#loc24)
      memref.prefetch %48[%3039, %49#1], read, locality<1>, data : memref<?x?xf32, strided<[?, 1]>> loc(#loc24)
      %3040 = arith.addi %47#1, %c57 : index loc(#loc24)
      %3041 = memref.load %46[%47#0, %3040] : memref<?x?xf32, strided<[?, 1]>> loc(#loc24)
      %3042 = vector.broadcast %3041 : f32 to vector<256xf32> loc(#loc24)
      %3043 = memref.load %46[%57, %3040] : memref<?x?xf32, strided<[?, 1]>> loc(#loc24)
      %3044 = vector.broadcast %3043 : f32 to vector<256xf32> loc(#loc24)
      %3045 = vector.fma %2985, %3042, %2993 : vector<256xf32> loc(#loc24)
      %3046 = memref.load %46[%61, %3040] : memref<?x?xf32, strided<[?, 1]>> loc(#loc24)
      %3047 = vector.broadcast %3046 : f32 to vector<256xf32> loc(#loc24)
      %3048 = vector.fma %2985, %3044, %2996 : vector<256xf32> loc(#loc24)
      %3049 = memref.load %46[%65, %3040] : memref<?x?xf32, strided<[?, 1]>> loc(#loc24)
      %3050 = vector.broadcast %3049 : f32 to vector<256xf32> loc(#loc24)
      %3051 = vector.fma %2985, %3047, %2999 : vector<256xf32> loc(#loc24)
      %3052 = memref.load %46[%69, %3040] : memref<?x?xf32, strided<[?, 1]>> loc(#loc24)
      %3053 = vector.broadcast %3052 : f32 to vector<256xf32> loc(#loc24)
      %3054 = vector.fma %2985, %3050, %3002 : vector<256xf32> loc(#loc24)
      %3055 = memref.load %46[%73, %3040] : memref<?x?xf32, strided<[?, 1]>> loc(#loc24)
      %3056 = vector.broadcast %3055 : f32 to vector<256xf32> loc(#loc24)
      %3057 = vector.fma %2985, %3053, %3005 : vector<256xf32> loc(#loc24)
      %3058 = memref.load %46[%77, %3040] : memref<?x?xf32, strided<[?, 1]>> loc(#loc24)
      %3059 = vector.broadcast %3058 : f32 to vector<256xf32> loc(#loc24)
      %3060 = vector.fma %2985, %3056, %3008 : vector<256xf32> loc(#loc24)
      %3061 = memref.load %46[%81, %3040] : memref<?x?xf32, strided<[?, 1]>> loc(#loc24)
      %3062 = vector.broadcast %3061 : f32 to vector<256xf32> loc(#loc24)
      %3063 = vector.fma %2985, %3059, %3011 : vector<256xf32> loc(#loc24)
      %3064 = memref.load %46[%85, %3040] : memref<?x?xf32, strided<[?, 1]>> loc(#loc24)
      %3065 = vector.broadcast %3064 : f32 to vector<256xf32> loc(#loc24)
      %3066 = vector.fma %2985, %3062, %3014 : vector<256xf32> loc(#loc24)
      %3067 = memref.load %46[%89, %3040] : memref<?x?xf32, strided<[?, 1]>> loc(#loc24)
      %3068 = vector.broadcast %3067 : f32 to vector<256xf32> loc(#loc24)
      %3069 = vector.fma %2985, %3065, %3017 : vector<256xf32> loc(#loc24)
      %3070 = memref.load %46[%93, %3040] : memref<?x?xf32, strided<[?, 1]>> loc(#loc24)
      %3071 = vector.broadcast %3070 : f32 to vector<256xf32> loc(#loc24)
      %3072 = vector.fma %2985, %3068, %3020 : vector<256xf32> loc(#loc24)
      %3073 = memref.load %46[%97, %3040] : memref<?x?xf32, strided<[?, 1]>> loc(#loc24)
      %3074 = vector.broadcast %3073 : f32 to vector<256xf32> loc(#loc24)
      %3075 = vector.fma %2985, %3071, %3023 : vector<256xf32> loc(#loc24)
      %3076 = memref.load %46[%101, %3040] : memref<?x?xf32, strided<[?, 1]>> loc(#loc24)
      %3077 = vector.broadcast %3076 : f32 to vector<256xf32> loc(#loc24)
      %3078 = vector.fma %2985, %3074, %3026 : vector<256xf32> loc(#loc24)
      %3079 = memref.load %46[%105, %3040] : memref<?x?xf32, strided<[?, 1]>> loc(#loc24)
      %3080 = vector.broadcast %3079 : f32 to vector<256xf32> loc(#loc24)
      %3081 = vector.fma %2985, %3077, %3029 : vector<256xf32> loc(#loc24)
      %3082 = memref.load %46[%109, %3040] : memref<?x?xf32, strided<[?, 1]>> loc(#loc24)
      %3083 = vector.broadcast %3082 : f32 to vector<256xf32> loc(#loc24)
      %3084 = vector.fma %2985, %3080, %3032 : vector<256xf32> loc(#loc24)
      %3085 = memref.load %46[%113, %3040] : memref<?x?xf32, strided<[?, 1]>> loc(#loc24)
      %3086 = vector.broadcast %3085 : f32 to vector<256xf32> loc(#loc24)
      %3087 = vector.fma %2985, %3083, %3035 : vector<256xf32> loc(#loc24)
      %3088 = vector.fma %2985, %3086, %3036 : vector<256xf32> loc(#loc24)
      %3089 = arith.addi %49#0, %c59 : index loc(#loc24)
      %3090 = vector.load %48[%3089, %49#1] : memref<?x?xf32, strided<[?, 1]>>, vector<256xf32> loc(#loc24)
      %3091 = arith.addi %49#0, %c122 : index loc(#loc24)
      memref.prefetch %48[%3091, %49#1], read, locality<1>, data : memref<?x?xf32, strided<[?, 1]>> loc(#loc24)
      %3092 = arith.addi %47#1, %c58 : index loc(#loc24)
      %3093 = memref.load %46[%47#0, %3092] : memref<?x?xf32, strided<[?, 1]>> loc(#loc24)
      %3094 = vector.broadcast %3093 : f32 to vector<256xf32> loc(#loc24)
      %3095 = memref.load %46[%57, %3092] : memref<?x?xf32, strided<[?, 1]>> loc(#loc24)
      %3096 = vector.broadcast %3095 : f32 to vector<256xf32> loc(#loc24)
      %3097 = vector.fma %3038, %3094, %3045 : vector<256xf32> loc(#loc24)
      %3098 = memref.load %46[%61, %3092] : memref<?x?xf32, strided<[?, 1]>> loc(#loc24)
      %3099 = vector.broadcast %3098 : f32 to vector<256xf32> loc(#loc24)
      %3100 = vector.fma %3038, %3096, %3048 : vector<256xf32> loc(#loc24)
      %3101 = memref.load %46[%65, %3092] : memref<?x?xf32, strided<[?, 1]>> loc(#loc24)
      %3102 = vector.broadcast %3101 : f32 to vector<256xf32> loc(#loc24)
      %3103 = vector.fma %3038, %3099, %3051 : vector<256xf32> loc(#loc24)
      %3104 = memref.load %46[%69, %3092] : memref<?x?xf32, strided<[?, 1]>> loc(#loc24)
      %3105 = vector.broadcast %3104 : f32 to vector<256xf32> loc(#loc24)
      %3106 = vector.fma %3038, %3102, %3054 : vector<256xf32> loc(#loc24)
      %3107 = memref.load %46[%73, %3092] : memref<?x?xf32, strided<[?, 1]>> loc(#loc24)
      %3108 = vector.broadcast %3107 : f32 to vector<256xf32> loc(#loc24)
      %3109 = vector.fma %3038, %3105, %3057 : vector<256xf32> loc(#loc24)
      %3110 = memref.load %46[%77, %3092] : memref<?x?xf32, strided<[?, 1]>> loc(#loc24)
      %3111 = vector.broadcast %3110 : f32 to vector<256xf32> loc(#loc24)
      %3112 = vector.fma %3038, %3108, %3060 : vector<256xf32> loc(#loc24)
      %3113 = memref.load %46[%81, %3092] : memref<?x?xf32, strided<[?, 1]>> loc(#loc24)
      %3114 = vector.broadcast %3113 : f32 to vector<256xf32> loc(#loc24)
      %3115 = vector.fma %3038, %3111, %3063 : vector<256xf32> loc(#loc24)
      %3116 = memref.load %46[%85, %3092] : memref<?x?xf32, strided<[?, 1]>> loc(#loc24)
      %3117 = vector.broadcast %3116 : f32 to vector<256xf32> loc(#loc24)
      %3118 = vector.fma %3038, %3114, %3066 : vector<256xf32> loc(#loc24)
      %3119 = memref.load %46[%89, %3092] : memref<?x?xf32, strided<[?, 1]>> loc(#loc24)
      %3120 = vector.broadcast %3119 : f32 to vector<256xf32> loc(#loc24)
      %3121 = vector.fma %3038, %3117, %3069 : vector<256xf32> loc(#loc24)
      %3122 = memref.load %46[%93, %3092] : memref<?x?xf32, strided<[?, 1]>> loc(#loc24)
      %3123 = vector.broadcast %3122 : f32 to vector<256xf32> loc(#loc24)
      %3124 = vector.fma %3038, %3120, %3072 : vector<256xf32> loc(#loc24)
      %3125 = memref.load %46[%97, %3092] : memref<?x?xf32, strided<[?, 1]>> loc(#loc24)
      %3126 = vector.broadcast %3125 : f32 to vector<256xf32> loc(#loc24)
      %3127 = vector.fma %3038, %3123, %3075 : vector<256xf32> loc(#loc24)
      %3128 = memref.load %46[%101, %3092] : memref<?x?xf32, strided<[?, 1]>> loc(#loc24)
      %3129 = vector.broadcast %3128 : f32 to vector<256xf32> loc(#loc24)
      %3130 = vector.fma %3038, %3126, %3078 : vector<256xf32> loc(#loc24)
      %3131 = memref.load %46[%105, %3092] : memref<?x?xf32, strided<[?, 1]>> loc(#loc24)
      %3132 = vector.broadcast %3131 : f32 to vector<256xf32> loc(#loc24)
      %3133 = vector.fma %3038, %3129, %3081 : vector<256xf32> loc(#loc24)
      %3134 = memref.load %46[%109, %3092] : memref<?x?xf32, strided<[?, 1]>> loc(#loc24)
      %3135 = vector.broadcast %3134 : f32 to vector<256xf32> loc(#loc24)
      %3136 = vector.fma %3038, %3132, %3084 : vector<256xf32> loc(#loc24)
      %3137 = memref.load %46[%113, %3092] : memref<?x?xf32, strided<[?, 1]>> loc(#loc24)
      %3138 = vector.broadcast %3137 : f32 to vector<256xf32> loc(#loc24)
      %3139 = vector.fma %3038, %3135, %3087 : vector<256xf32> loc(#loc24)
      %3140 = vector.fma %3038, %3138, %3088 : vector<256xf32> loc(#loc24)
      %3141 = arith.addi %49#0, %c60 : index loc(#loc24)
      %3142 = vector.load %48[%3141, %49#1] : memref<?x?xf32, strided<[?, 1]>>, vector<256xf32> loc(#loc24)
      %3143 = arith.addi %49#0, %c123 : index loc(#loc24)
      memref.prefetch %48[%3143, %49#1], read, locality<1>, data : memref<?x?xf32, strided<[?, 1]>> loc(#loc24)
      %3144 = arith.addi %47#1, %c59 : index loc(#loc24)
      %3145 = memref.load %46[%47#0, %3144] : memref<?x?xf32, strided<[?, 1]>> loc(#loc24)
      %3146 = vector.broadcast %3145 : f32 to vector<256xf32> loc(#loc24)
      %3147 = memref.load %46[%57, %3144] : memref<?x?xf32, strided<[?, 1]>> loc(#loc24)
      %3148 = vector.broadcast %3147 : f32 to vector<256xf32> loc(#loc24)
      %3149 = vector.fma %3090, %3146, %3097 : vector<256xf32> loc(#loc24)
      %3150 = memref.load %46[%61, %3144] : memref<?x?xf32, strided<[?, 1]>> loc(#loc24)
      %3151 = vector.broadcast %3150 : f32 to vector<256xf32> loc(#loc24)
      %3152 = vector.fma %3090, %3148, %3100 : vector<256xf32> loc(#loc24)
      %3153 = memref.load %46[%65, %3144] : memref<?x?xf32, strided<[?, 1]>> loc(#loc24)
      %3154 = vector.broadcast %3153 : f32 to vector<256xf32> loc(#loc24)
      %3155 = vector.fma %3090, %3151, %3103 : vector<256xf32> loc(#loc24)
      %3156 = memref.load %46[%69, %3144] : memref<?x?xf32, strided<[?, 1]>> loc(#loc24)
      %3157 = vector.broadcast %3156 : f32 to vector<256xf32> loc(#loc24)
      %3158 = vector.fma %3090, %3154, %3106 : vector<256xf32> loc(#loc24)
      %3159 = memref.load %46[%73, %3144] : memref<?x?xf32, strided<[?, 1]>> loc(#loc24)
      %3160 = vector.broadcast %3159 : f32 to vector<256xf32> loc(#loc24)
      %3161 = vector.fma %3090, %3157, %3109 : vector<256xf32> loc(#loc24)
      %3162 = memref.load %46[%77, %3144] : memref<?x?xf32, strided<[?, 1]>> loc(#loc24)
      %3163 = vector.broadcast %3162 : f32 to vector<256xf32> loc(#loc24)
      %3164 = vector.fma %3090, %3160, %3112 : vector<256xf32> loc(#loc24)
      %3165 = memref.load %46[%81, %3144] : memref<?x?xf32, strided<[?, 1]>> loc(#loc24)
      %3166 = vector.broadcast %3165 : f32 to vector<256xf32> loc(#loc24)
      %3167 = vector.fma %3090, %3163, %3115 : vector<256xf32> loc(#loc24)
      %3168 = memref.load %46[%85, %3144] : memref<?x?xf32, strided<[?, 1]>> loc(#loc24)
      %3169 = vector.broadcast %3168 : f32 to vector<256xf32> loc(#loc24)
      %3170 = vector.fma %3090, %3166, %3118 : vector<256xf32> loc(#loc24)
      %3171 = memref.load %46[%89, %3144] : memref<?x?xf32, strided<[?, 1]>> loc(#loc24)
      %3172 = vector.broadcast %3171 : f32 to vector<256xf32> loc(#loc24)
      %3173 = vector.fma %3090, %3169, %3121 : vector<256xf32> loc(#loc24)
      %3174 = memref.load %46[%93, %3144] : memref<?x?xf32, strided<[?, 1]>> loc(#loc24)
      %3175 = vector.broadcast %3174 : f32 to vector<256xf32> loc(#loc24)
      %3176 = vector.fma %3090, %3172, %3124 : vector<256xf32> loc(#loc24)
      %3177 = memref.load %46[%97, %3144] : memref<?x?xf32, strided<[?, 1]>> loc(#loc24)
      %3178 = vector.broadcast %3177 : f32 to vector<256xf32> loc(#loc24)
      %3179 = vector.fma %3090, %3175, %3127 : vector<256xf32> loc(#loc24)
      %3180 = memref.load %46[%101, %3144] : memref<?x?xf32, strided<[?, 1]>> loc(#loc24)
      %3181 = vector.broadcast %3180 : f32 to vector<256xf32> loc(#loc24)
      %3182 = vector.fma %3090, %3178, %3130 : vector<256xf32> loc(#loc24)
      %3183 = memref.load %46[%105, %3144] : memref<?x?xf32, strided<[?, 1]>> loc(#loc24)
      %3184 = vector.broadcast %3183 : f32 to vector<256xf32> loc(#loc24)
      %3185 = vector.fma %3090, %3181, %3133 : vector<256xf32> loc(#loc24)
      %3186 = memref.load %46[%109, %3144] : memref<?x?xf32, strided<[?, 1]>> loc(#loc24)
      %3187 = vector.broadcast %3186 : f32 to vector<256xf32> loc(#loc24)
      %3188 = vector.fma %3090, %3184, %3136 : vector<256xf32> loc(#loc24)
      %3189 = memref.load %46[%113, %3144] : memref<?x?xf32, strided<[?, 1]>> loc(#loc24)
      %3190 = vector.broadcast %3189 : f32 to vector<256xf32> loc(#loc24)
      %3191 = vector.fma %3090, %3187, %3139 : vector<256xf32> loc(#loc24)
      %3192 = vector.fma %3090, %3190, %3140 : vector<256xf32> loc(#loc24)
      %3193 = arith.addi %49#0, %c61 : index loc(#loc24)
      %3194 = vector.load %48[%3193, %49#1] : memref<?x?xf32, strided<[?, 1]>>, vector<256xf32> loc(#loc24)
      %3195 = arith.addi %49#0, %c124 : index loc(#loc24)
      memref.prefetch %48[%3195, %49#1], read, locality<1>, data : memref<?x?xf32, strided<[?, 1]>> loc(#loc24)
      %3196 = arith.addi %47#1, %c60 : index loc(#loc24)
      %3197 = memref.load %46[%47#0, %3196] : memref<?x?xf32, strided<[?, 1]>> loc(#loc24)
      %3198 = vector.broadcast %3197 : f32 to vector<256xf32> loc(#loc24)
      %3199 = memref.load %46[%57, %3196] : memref<?x?xf32, strided<[?, 1]>> loc(#loc24)
      %3200 = vector.broadcast %3199 : f32 to vector<256xf32> loc(#loc24)
      %3201 = vector.fma %3142, %3198, %3149 : vector<256xf32> loc(#loc24)
      %3202 = memref.load %46[%61, %3196] : memref<?x?xf32, strided<[?, 1]>> loc(#loc24)
      %3203 = vector.broadcast %3202 : f32 to vector<256xf32> loc(#loc24)
      %3204 = vector.fma %3142, %3200, %3152 : vector<256xf32> loc(#loc24)
      %3205 = memref.load %46[%65, %3196] : memref<?x?xf32, strided<[?, 1]>> loc(#loc24)
      %3206 = vector.broadcast %3205 : f32 to vector<256xf32> loc(#loc24)
      %3207 = vector.fma %3142, %3203, %3155 : vector<256xf32> loc(#loc24)
      %3208 = memref.load %46[%69, %3196] : memref<?x?xf32, strided<[?, 1]>> loc(#loc24)
      %3209 = vector.broadcast %3208 : f32 to vector<256xf32> loc(#loc24)
      %3210 = vector.fma %3142, %3206, %3158 : vector<256xf32> loc(#loc24)
      %3211 = memref.load %46[%73, %3196] : memref<?x?xf32, strided<[?, 1]>> loc(#loc24)
      %3212 = vector.broadcast %3211 : f32 to vector<256xf32> loc(#loc24)
      %3213 = vector.fma %3142, %3209, %3161 : vector<256xf32> loc(#loc24)
      %3214 = memref.load %46[%77, %3196] : memref<?x?xf32, strided<[?, 1]>> loc(#loc24)
      %3215 = vector.broadcast %3214 : f32 to vector<256xf32> loc(#loc24)
      %3216 = vector.fma %3142, %3212, %3164 : vector<256xf32> loc(#loc24)
      %3217 = memref.load %46[%81, %3196] : memref<?x?xf32, strided<[?, 1]>> loc(#loc24)
      %3218 = vector.broadcast %3217 : f32 to vector<256xf32> loc(#loc24)
      %3219 = vector.fma %3142, %3215, %3167 : vector<256xf32> loc(#loc24)
      %3220 = memref.load %46[%85, %3196] : memref<?x?xf32, strided<[?, 1]>> loc(#loc24)
      %3221 = vector.broadcast %3220 : f32 to vector<256xf32> loc(#loc24)
      %3222 = vector.fma %3142, %3218, %3170 : vector<256xf32> loc(#loc24)
      %3223 = memref.load %46[%89, %3196] : memref<?x?xf32, strided<[?, 1]>> loc(#loc24)
      %3224 = vector.broadcast %3223 : f32 to vector<256xf32> loc(#loc24)
      %3225 = vector.fma %3142, %3221, %3173 : vector<256xf32> loc(#loc24)
      %3226 = memref.load %46[%93, %3196] : memref<?x?xf32, strided<[?, 1]>> loc(#loc24)
      %3227 = vector.broadcast %3226 : f32 to vector<256xf32> loc(#loc24)
      %3228 = vector.fma %3142, %3224, %3176 : vector<256xf32> loc(#loc24)
      %3229 = memref.load %46[%97, %3196] : memref<?x?xf32, strided<[?, 1]>> loc(#loc24)
      %3230 = vector.broadcast %3229 : f32 to vector<256xf32> loc(#loc24)
      %3231 = vector.fma %3142, %3227, %3179 : vector<256xf32> loc(#loc24)
      %3232 = memref.load %46[%101, %3196] : memref<?x?xf32, strided<[?, 1]>> loc(#loc24)
      %3233 = vector.broadcast %3232 : f32 to vector<256xf32> loc(#loc24)
      %3234 = vector.fma %3142, %3230, %3182 : vector<256xf32> loc(#loc24)
      %3235 = memref.load %46[%105, %3196] : memref<?x?xf32, strided<[?, 1]>> loc(#loc24)
      %3236 = vector.broadcast %3235 : f32 to vector<256xf32> loc(#loc24)
      %3237 = vector.fma %3142, %3233, %3185 : vector<256xf32> loc(#loc24)
      %3238 = memref.load %46[%109, %3196] : memref<?x?xf32, strided<[?, 1]>> loc(#loc24)
      %3239 = vector.broadcast %3238 : f32 to vector<256xf32> loc(#loc24)
      %3240 = vector.fma %3142, %3236, %3188 : vector<256xf32> loc(#loc24)
      %3241 = memref.load %46[%113, %3196] : memref<?x?xf32, strided<[?, 1]>> loc(#loc24)
      %3242 = vector.broadcast %3241 : f32 to vector<256xf32> loc(#loc24)
      %3243 = vector.fma %3142, %3239, %3191 : vector<256xf32> loc(#loc24)
      %3244 = vector.fma %3142, %3242, %3192 : vector<256xf32> loc(#loc24)
      %3245 = arith.addi %49#0, %c62 : index loc(#loc24)
      %3246 = vector.load %48[%3245, %49#1] : memref<?x?xf32, strided<[?, 1]>>, vector<256xf32> loc(#loc24)
      %3247 = arith.addi %49#0, %c125 : index loc(#loc24)
      memref.prefetch %48[%3247, %49#1], read, locality<1>, data : memref<?x?xf32, strided<[?, 1]>> loc(#loc24)
      %3248 = arith.addi %47#1, %c61 : index loc(#loc24)
      %3249 = memref.load %46[%47#0, %3248] : memref<?x?xf32, strided<[?, 1]>> loc(#loc24)
      %3250 = vector.broadcast %3249 : f32 to vector<256xf32> loc(#loc24)
      %3251 = memref.load %46[%57, %3248] : memref<?x?xf32, strided<[?, 1]>> loc(#loc24)
      %3252 = vector.broadcast %3251 : f32 to vector<256xf32> loc(#loc24)
      %3253 = vector.fma %3194, %3250, %3201 : vector<256xf32> loc(#loc24)
      %3254 = memref.load %46[%61, %3248] : memref<?x?xf32, strided<[?, 1]>> loc(#loc24)
      %3255 = vector.broadcast %3254 : f32 to vector<256xf32> loc(#loc24)
      %3256 = vector.fma %3194, %3252, %3204 : vector<256xf32> loc(#loc24)
      %3257 = memref.load %46[%65, %3248] : memref<?x?xf32, strided<[?, 1]>> loc(#loc24)
      %3258 = vector.broadcast %3257 : f32 to vector<256xf32> loc(#loc24)
      %3259 = vector.fma %3194, %3255, %3207 : vector<256xf32> loc(#loc24)
      %3260 = memref.load %46[%69, %3248] : memref<?x?xf32, strided<[?, 1]>> loc(#loc24)
      %3261 = vector.broadcast %3260 : f32 to vector<256xf32> loc(#loc24)
      %3262 = vector.fma %3194, %3258, %3210 : vector<256xf32> loc(#loc24)
      %3263 = memref.load %46[%73, %3248] : memref<?x?xf32, strided<[?, 1]>> loc(#loc24)
      %3264 = vector.broadcast %3263 : f32 to vector<256xf32> loc(#loc24)
      %3265 = vector.fma %3194, %3261, %3213 : vector<256xf32> loc(#loc24)
      %3266 = memref.load %46[%77, %3248] : memref<?x?xf32, strided<[?, 1]>> loc(#loc24)
      %3267 = vector.broadcast %3266 : f32 to vector<256xf32> loc(#loc24)
      %3268 = vector.fma %3194, %3264, %3216 : vector<256xf32> loc(#loc24)
      %3269 = memref.load %46[%81, %3248] : memref<?x?xf32, strided<[?, 1]>> loc(#loc24)
      %3270 = vector.broadcast %3269 : f32 to vector<256xf32> loc(#loc24)
      %3271 = vector.fma %3194, %3267, %3219 : vector<256xf32> loc(#loc24)
      %3272 = memref.load %46[%85, %3248] : memref<?x?xf32, strided<[?, 1]>> loc(#loc24)
      %3273 = vector.broadcast %3272 : f32 to vector<256xf32> loc(#loc24)
      %3274 = vector.fma %3194, %3270, %3222 : vector<256xf32> loc(#loc24)
      %3275 = memref.load %46[%89, %3248] : memref<?x?xf32, strided<[?, 1]>> loc(#loc24)
      %3276 = vector.broadcast %3275 : f32 to vector<256xf32> loc(#loc24)
      %3277 = vector.fma %3194, %3273, %3225 : vector<256xf32> loc(#loc24)
      %3278 = memref.load %46[%93, %3248] : memref<?x?xf32, strided<[?, 1]>> loc(#loc24)
      %3279 = vector.broadcast %3278 : f32 to vector<256xf32> loc(#loc24)
      %3280 = vector.fma %3194, %3276, %3228 : vector<256xf32> loc(#loc24)
      %3281 = memref.load %46[%97, %3248] : memref<?x?xf32, strided<[?, 1]>> loc(#loc24)
      %3282 = vector.broadcast %3281 : f32 to vector<256xf32> loc(#loc24)
      %3283 = vector.fma %3194, %3279, %3231 : vector<256xf32> loc(#loc24)
      %3284 = memref.load %46[%101, %3248] : memref<?x?xf32, strided<[?, 1]>> loc(#loc24)
      %3285 = vector.broadcast %3284 : f32 to vector<256xf32> loc(#loc24)
      %3286 = vector.fma %3194, %3282, %3234 : vector<256xf32> loc(#loc24)
      %3287 = memref.load %46[%105, %3248] : memref<?x?xf32, strided<[?, 1]>> loc(#loc24)
      %3288 = vector.broadcast %3287 : f32 to vector<256xf32> loc(#loc24)
      %3289 = vector.fma %3194, %3285, %3237 : vector<256xf32> loc(#loc24)
      %3290 = memref.load %46[%109, %3248] : memref<?x?xf32, strided<[?, 1]>> loc(#loc24)
      %3291 = vector.broadcast %3290 : f32 to vector<256xf32> loc(#loc24)
      %3292 = vector.fma %3194, %3288, %3240 : vector<256xf32> loc(#loc24)
      %3293 = memref.load %46[%113, %3248] : memref<?x?xf32, strided<[?, 1]>> loc(#loc24)
      %3294 = vector.broadcast %3293 : f32 to vector<256xf32> loc(#loc24)
      %3295 = vector.fma %3194, %3291, %3243 : vector<256xf32> loc(#loc24)
      %3296 = vector.fma %3194, %3294, %3244 : vector<256xf32> loc(#loc24)
      %3297 = arith.addi %49#0, %c63 : index loc(#loc24)
      %3298 = vector.load %48[%3297, %49#1] : memref<?x?xf32, strided<[?, 1]>>, vector<256xf32> loc(#loc24)
      %3299 = arith.addi %49#0, %c126 : index loc(#loc24)
      memref.prefetch %48[%3299, %49#1], read, locality<1>, data : memref<?x?xf32, strided<[?, 1]>> loc(#loc24)
      %3300 = arith.addi %47#1, %c62 : index loc(#loc24)
      %3301 = memref.load %46[%47#0, %3300] : memref<?x?xf32, strided<[?, 1]>> loc(#loc24)
      %3302 = vector.broadcast %3301 : f32 to vector<256xf32> loc(#loc24)
      %3303 = memref.load %46[%57, %3300] : memref<?x?xf32, strided<[?, 1]>> loc(#loc24)
      %3304 = vector.broadcast %3303 : f32 to vector<256xf32> loc(#loc24)
      %3305 = vector.fma %3246, %3302, %3253 : vector<256xf32> loc(#loc24)
      %3306 = memref.load %46[%61, %3300] : memref<?x?xf32, strided<[?, 1]>> loc(#loc24)
      %3307 = vector.broadcast %3306 : f32 to vector<256xf32> loc(#loc24)
      %3308 = vector.fma %3246, %3304, %3256 : vector<256xf32> loc(#loc24)
      %3309 = memref.load %46[%65, %3300] : memref<?x?xf32, strided<[?, 1]>> loc(#loc24)
      %3310 = vector.broadcast %3309 : f32 to vector<256xf32> loc(#loc24)
      %3311 = vector.fma %3246, %3307, %3259 : vector<256xf32> loc(#loc24)
      %3312 = memref.load %46[%69, %3300] : memref<?x?xf32, strided<[?, 1]>> loc(#loc24)
      %3313 = vector.broadcast %3312 : f32 to vector<256xf32> loc(#loc24)
      %3314 = vector.fma %3246, %3310, %3262 : vector<256xf32> loc(#loc24)
      %3315 = memref.load %46[%73, %3300] : memref<?x?xf32, strided<[?, 1]>> loc(#loc24)
      %3316 = vector.broadcast %3315 : f32 to vector<256xf32> loc(#loc24)
      %3317 = vector.fma %3246, %3313, %3265 : vector<256xf32> loc(#loc24)
      %3318 = memref.load %46[%77, %3300] : memref<?x?xf32, strided<[?, 1]>> loc(#loc24)
      %3319 = vector.broadcast %3318 : f32 to vector<256xf32> loc(#loc24)
      %3320 = vector.fma %3246, %3316, %3268 : vector<256xf32> loc(#loc24)
      %3321 = memref.load %46[%81, %3300] : memref<?x?xf32, strided<[?, 1]>> loc(#loc24)
      %3322 = vector.broadcast %3321 : f32 to vector<256xf32> loc(#loc24)
      %3323 = vector.fma %3246, %3319, %3271 : vector<256xf32> loc(#loc24)
      %3324 = memref.load %46[%85, %3300] : memref<?x?xf32, strided<[?, 1]>> loc(#loc24)
      %3325 = vector.broadcast %3324 : f32 to vector<256xf32> loc(#loc24)
      %3326 = vector.fma %3246, %3322, %3274 : vector<256xf32> loc(#loc24)
      %3327 = memref.load %46[%89, %3300] : memref<?x?xf32, strided<[?, 1]>> loc(#loc24)
      %3328 = vector.broadcast %3327 : f32 to vector<256xf32> loc(#loc24)
      %3329 = vector.fma %3246, %3325, %3277 : vector<256xf32> loc(#loc24)
      %3330 = memref.load %46[%93, %3300] : memref<?x?xf32, strided<[?, 1]>> loc(#loc24)
      %3331 = vector.broadcast %3330 : f32 to vector<256xf32> loc(#loc24)
      %3332 = vector.fma %3246, %3328, %3280 : vector<256xf32> loc(#loc24)
      %3333 = memref.load %46[%97, %3300] : memref<?x?xf32, strided<[?, 1]>> loc(#loc24)
      %3334 = vector.broadcast %3333 : f32 to vector<256xf32> loc(#loc24)
      %3335 = vector.fma %3246, %3331, %3283 : vector<256xf32> loc(#loc24)
      %3336 = memref.load %46[%101, %3300] : memref<?x?xf32, strided<[?, 1]>> loc(#loc24)
      %3337 = vector.broadcast %3336 : f32 to vector<256xf32> loc(#loc24)
      %3338 = vector.fma %3246, %3334, %3286 : vector<256xf32> loc(#loc24)
      %3339 = memref.load %46[%105, %3300] : memref<?x?xf32, strided<[?, 1]>> loc(#loc24)
      %3340 = vector.broadcast %3339 : f32 to vector<256xf32> loc(#loc24)
      %3341 = vector.fma %3246, %3337, %3289 : vector<256xf32> loc(#loc24)
      %3342 = memref.load %46[%109, %3300] : memref<?x?xf32, strided<[?, 1]>> loc(#loc24)
      %3343 = vector.broadcast %3342 : f32 to vector<256xf32> loc(#loc24)
      %3344 = vector.fma %3246, %3340, %3292 : vector<256xf32> loc(#loc24)
      %3345 = memref.load %46[%113, %3300] : memref<?x?xf32, strided<[?, 1]>> loc(#loc24)
      %3346 = vector.broadcast %3345 : f32 to vector<256xf32> loc(#loc24)
      %3347 = vector.fma %3246, %3343, %3295 : vector<256xf32> loc(#loc24)
      %3348 = vector.fma %3246, %3346, %3296 : vector<256xf32> loc(#loc24)
      %3349 = arith.addi %49#0, %c127 : index loc(#loc24)
      memref.prefetch %48[%3349, %49#1], read, locality<1>, data : memref<?x?xf32, strided<[?, 1]>> loc(#loc24)
      %3350 = arith.addi %47#1, %c63 : index loc(#loc24)
      %3351 = memref.load %46[%47#0, %3350] : memref<?x?xf32, strided<[?, 1]>> loc(#loc24)
      %3352 = vector.broadcast %3351 : f32 to vector<256xf32> loc(#loc24)
      %3353 = memref.load %46[%57, %3350] : memref<?x?xf32, strided<[?, 1]>> loc(#loc24)
      %3354 = vector.broadcast %3353 : f32 to vector<256xf32> loc(#loc24)
      %3355 = vector.fma %3298, %3352, %3305 : vector<256xf32> loc(#loc24)
      %3356 = memref.load %46[%61, %3350] : memref<?x?xf32, strided<[?, 1]>> loc(#loc24)
      %3357 = vector.broadcast %3356 : f32 to vector<256xf32> loc(#loc24)
      %3358 = vector.fma %3298, %3354, %3308 : vector<256xf32> loc(#loc24)
      %3359 = memref.load %46[%65, %3350] : memref<?x?xf32, strided<[?, 1]>> loc(#loc24)
      %3360 = vector.broadcast %3359 : f32 to vector<256xf32> loc(#loc24)
      %3361 = vector.fma %3298, %3357, %3311 : vector<256xf32> loc(#loc24)
      %3362 = memref.load %46[%69, %3350] : memref<?x?xf32, strided<[?, 1]>> loc(#loc24)
      %3363 = vector.broadcast %3362 : f32 to vector<256xf32> loc(#loc24)
      %3364 = vector.fma %3298, %3360, %3314 : vector<256xf32> loc(#loc24)
      %3365 = memref.load %46[%73, %3350] : memref<?x?xf32, strided<[?, 1]>> loc(#loc24)
      %3366 = vector.broadcast %3365 : f32 to vector<256xf32> loc(#loc24)
      %3367 = vector.fma %3298, %3363, %3317 : vector<256xf32> loc(#loc24)
      %3368 = memref.load %46[%77, %3350] : memref<?x?xf32, strided<[?, 1]>> loc(#loc24)
      %3369 = vector.broadcast %3368 : f32 to vector<256xf32> loc(#loc24)
      %3370 = vector.fma %3298, %3366, %3320 : vector<256xf32> loc(#loc24)
      %3371 = memref.load %46[%81, %3350] : memref<?x?xf32, strided<[?, 1]>> loc(#loc24)
      %3372 = vector.broadcast %3371 : f32 to vector<256xf32> loc(#loc24)
      %3373 = vector.fma %3298, %3369, %3323 : vector<256xf32> loc(#loc24)
      %3374 = memref.load %46[%85, %3350] : memref<?x?xf32, strided<[?, 1]>> loc(#loc24)
      %3375 = vector.broadcast %3374 : f32 to vector<256xf32> loc(#loc24)
      %3376 = vector.fma %3298, %3372, %3326 : vector<256xf32> loc(#loc24)
      %3377 = memref.load %46[%89, %3350] : memref<?x?xf32, strided<[?, 1]>> loc(#loc24)
      %3378 = vector.broadcast %3377 : f32 to vector<256xf32> loc(#loc24)
      %3379 = vector.fma %3298, %3375, %3329 : vector<256xf32> loc(#loc24)
      %3380 = memref.load %46[%93, %3350] : memref<?x?xf32, strided<[?, 1]>> loc(#loc24)
      %3381 = vector.broadcast %3380 : f32 to vector<256xf32> loc(#loc24)
      %3382 = vector.fma %3298, %3378, %3332 : vector<256xf32> loc(#loc24)
      %3383 = memref.load %46[%97, %3350] : memref<?x?xf32, strided<[?, 1]>> loc(#loc24)
      %3384 = vector.broadcast %3383 : f32 to vector<256xf32> loc(#loc24)
      %3385 = vector.fma %3298, %3381, %3335 : vector<256xf32> loc(#loc24)
      %3386 = memref.load %46[%101, %3350] : memref<?x?xf32, strided<[?, 1]>> loc(#loc24)
      %3387 = vector.broadcast %3386 : f32 to vector<256xf32> loc(#loc24)
      %3388 = vector.fma %3298, %3384, %3338 : vector<256xf32> loc(#loc24)
      %3389 = memref.load %46[%105, %3350] : memref<?x?xf32, strided<[?, 1]>> loc(#loc24)
      %3390 = vector.broadcast %3389 : f32 to vector<256xf32> loc(#loc24)
      %3391 = vector.fma %3298, %3387, %3341 : vector<256xf32> loc(#loc24)
      %3392 = memref.load %46[%109, %3350] : memref<?x?xf32, strided<[?, 1]>> loc(#loc24)
      %3393 = vector.broadcast %3392 : f32 to vector<256xf32> loc(#loc24)
      %3394 = vector.fma %3298, %3390, %3344 : vector<256xf32> loc(#loc24)
      %3395 = memref.load %46[%113, %3350] : memref<?x?xf32, strided<[?, 1]>> loc(#loc24)
      %3396 = vector.broadcast %3395 : f32 to vector<256xf32> loc(#loc24)
      %3397 = vector.fma %3298, %3393, %3347 : vector<256xf32> loc(#loc24)
      %3398 = vector.fma %3298, %3396, %3348 : vector<256xf32> loc(#loc24)
      %3399 = tt.advance %arg10, [%c0_i32, %c64_i32] : <tensor<16x64xf32>> loc(#loc25)
      %3400 = tt.advance %arg11, [%c64_i32, %c0_i32] : <tensor<64x256xf32>> loc(#loc26)
      scf.yield %3399, %3400, %3355, %3358, %3361, %3364, %3367, %3370, %3373, %3376, %3379, %3382, %3385, %3388, %3391, %3394, %3397, %3398 : !tt.ptr<tensor<16x64xf32>>, !tt.ptr<tensor<64x256xf32>>, vector<256xf32>, vector<256xf32>, vector<256xf32>, vector<256xf32>, vector<256xf32>, vector<256xf32>, vector<256xf32>, vector<256xf32>, vector<256xf32>, vector<256xf32>, vector<256xf32>, vector<256xf32>, vector<256xf32>, vector<256xf32>, vector<256xf32>, vector<256xf32> loc(#loc27)
    } loc(#loc21)
    %26 = vector.insert %25#2, %cst_0 [0] : vector<256xf32> into vector<16x256xf32> loc(#loc24)
    %27 = vector.insert %25#3, %26 [1] : vector<256xf32> into vector<16x256xf32> loc(#loc24)
    %28 = vector.insert %25#4, %27 [2] : vector<256xf32> into vector<16x256xf32> loc(#loc24)
    %29 = vector.insert %25#5, %28 [3] : vector<256xf32> into vector<16x256xf32> loc(#loc24)
    %30 = vector.insert %25#6, %29 [4] : vector<256xf32> into vector<16x256xf32> loc(#loc24)
    %31 = vector.insert %25#7, %30 [5] : vector<256xf32> into vector<16x256xf32> loc(#loc24)
    %32 = vector.insert %25#8, %31 [6] : vector<256xf32> into vector<16x256xf32> loc(#loc24)
    %33 = vector.insert %25#9, %32 [7] : vector<256xf32> into vector<16x256xf32> loc(#loc24)
    %34 = vector.insert %25#10, %33 [8] : vector<256xf32> into vector<16x256xf32> loc(#loc24)
    %35 = vector.insert %25#11, %34 [9] : vector<256xf32> into vector<16x256xf32> loc(#loc24)
    %36 = vector.insert %25#12, %35 [10] : vector<256xf32> into vector<16x256xf32> loc(#loc24)
    %37 = vector.insert %25#13, %36 [11] : vector<256xf32> into vector<16x256xf32> loc(#loc24)
    %38 = vector.insert %25#14, %37 [12] : vector<256xf32> into vector<16x256xf32> loc(#loc24)
    %39 = vector.insert %25#15, %38 [13] : vector<256xf32> into vector<16x256xf32> loc(#loc24)
    %40 = vector.insert %25#16, %39 [14] : vector<256xf32> into vector<16x256xf32> loc(#loc24)
    %41 = vector.insert %25#17, %40 [15] : vector<256xf32> into vector<16x256xf32> loc(#loc24)
    %42 = arith.extsi %arg8 : i32 to i64 loc(#loc28)
    %43 = tt.make_tensor_ptr %arg2, [%16, %20], [%42, %c1_i64], [%14, %15] {order = array<i32: 1, 0>} : <tensor<16x256xf32>> loc(#loc28)
    %44 = triton_cpu.extract_memref %43 : <tensor<16x256xf32>> -> memref<?x?xf32, strided<[?, 1]>> loc(#loc29)
    %45:2 = triton_cpu.extract_indices %43 : <tensor<16x256xf32>> -> index, index loc(#loc29)
    vector.transfer_write %41, %44[%45#0, %45#1] {in_bounds = [true, true]} : vector<16x256xf32>, memref<?x?xf32, strided<[?, 1]>> loc(#loc29)
    tt.return loc(#loc30)
  } loc(#loc)
} loc(#loc)
#loc1 = loc(unknown)
#loc2 = loc("/home/yuhao/T_RVV/benchmark/src/triton/matmul.py":45:24)
#loc3 = loc("/home/yuhao/triton-cpu/python/triton/language/standard.py":40:22)
#loc4 = loc("/home/yuhao/T_RVV/benchmark/src/triton/matmul.py":46:27)
#loc5 = loc("/home/yuhao/triton-cpu/python/triton/language/standard.py":40:28)
#loc6 = loc("/home/yuhao/T_RVV/benchmark/src/triton/matmul.py":47:27)
#loc7 = loc("/home/yuhao/T_RVV/benchmark/src/triton/matmul.py":48:38)
#loc8 = loc("/home/yuhao/T_RVV/benchmark/src/triton/matmul.py":49:22)
#loc9 = loc("/home/yuhao/T_RVV/benchmark/src/triton/matmul.py":50:29)
#loc10 = loc("/home/yuhao/T_RVV/benchmark/src/triton/matmul.py":51:35)
#loc11 = loc("/home/yuhao/T_RVV/benchmark/src/triton/matmul.py":51:48)
#loc12 = loc("/home/yuhao/T_RVV/benchmark/src/triton/matmul.py":52:33)
#loc13 = loc("/home/yuhao/T_RVV/benchmark/src/triton/matmul.py":52:27)
#loc14 = loc("/home/yuhao/T_RVV/benchmark/src/triton/matmul.py":53:19)
#loc15 = loc("/home/yuhao/T_RVV/benchmark/src/triton/matmul.py":53:40)
#loc16 = loc("/home/yuhao/T_RVV/benchmark/src/triton/matmul.py":63:33)
#loc17 = loc("/home/yuhao/T_RVV/benchmark/src/triton/matmul.py":64:33)
#loc18 = loc("/home/yuhao/T_RVV/benchmark/src/triton/matmul.py":67:39)
#loc19 = loc("/home/yuhao/T_RVV/benchmark/src/triton/matmul.py":70:39)
#loc20 = loc("/home/yuhao/T_RVV/benchmark/src/triton/matmul.py":79:33)
#loc21 = loc("/home/yuhao/T_RVV/benchmark/src/triton/matmul.py":79:22)
#loc22 = loc("/home/yuhao/T_RVV/benchmark/src/triton/matmul.py":83:20)
#loc23 = loc("/home/yuhao/T_RVV/benchmark/src/triton/matmul.py":84:20)
#loc24 = loc("/home/yuhao/T_RVV/benchmark/src/triton/matmul.py":86:35)
#loc25 = loc("/home/yuhao/T_RVV/benchmark/src/triton/matmul.py":89:48)
#loc26 = loc("/home/yuhao/T_RVV/benchmark/src/triton/matmul.py":90:48)
#loc27 = loc("/home/yuhao/T_RVV/benchmark/src/triton/matmul.py":88:8)
#loc28 = loc("/home/yuhao/T_RVV/benchmark/src/triton/matmul.py":102:81)
#loc29 = loc("/home/yuhao/T_RVV/benchmark/src/triton/matmul.py":103:29)
#loc30 = loc("/home/yuhao/T_RVV/benchmark/src/triton/matmul.py":99:4)
#loc31 = loc(callsite(#loc3 at #loc4))
#loc32 = loc(callsite(#loc5 at #loc4))
#loc33 = loc(callsite(#loc3 at #loc6))
#loc34 = loc(callsite(#loc5 at #loc6))
#loc35 = loc(callsite(#loc3 at #loc20))
#loc36 = loc(callsite(#loc5 at #loc20))
