#loc = loc("/home/yuhao/T_RVV/benchmark/src/triton/matmul.py":24:0)
module {
  tt.func public @matmul_kernel(%arg0: !tt.ptr<f32> {tt.divisibility = 16 : i32} loc("/home/yuhao/T_RVV/benchmark/src/triton/matmul.py":24:0), %arg1: !tt.ptr<f32> {tt.divisibility = 16 : i32} loc("/home/yuhao/T_RVV/benchmark/src/triton/matmul.py":24:0), %arg2: !tt.ptr<f32> {tt.divisibility = 16 : i32} loc("/home/yuhao/T_RVV/benchmark/src/triton/matmul.py":24:0), %arg3: i32 {tt.divisibility = 16 : i32} loc("/home/yuhao/T_RVV/benchmark/src/triton/matmul.py":24:0), %arg4: i32 {tt.divisibility = 16 : i32} loc("/home/yuhao/T_RVV/benchmark/src/triton/matmul.py":24:0), %arg5: i32 {tt.divisibility = 16 : i32} loc("/home/yuhao/T_RVV/benchmark/src/triton/matmul.py":24:0), %arg6: i32 {tt.divisibility = 16 : i32} loc("/home/yuhao/T_RVV/benchmark/src/triton/matmul.py":24:0), %arg7: i32 {tt.divisibility = 16 : i32} loc("/home/yuhao/T_RVV/benchmark/src/triton/matmul.py":24:0), %arg8: i32 {tt.divisibility = 16 : i32} loc("/home/yuhao/T_RVV/benchmark/src/triton/matmul.py":24:0)) attributes {noinline = false} {
    %cst = arith.constant dense<0.000000e+00> : vector<32xf32> loc(#loc1)
    %c31 = arith.constant 31 : index loc(#loc1)
    %c30 = arith.constant 30 : index loc(#loc1)
    %c29 = arith.constant 29 : index loc(#loc1)
    %c28 = arith.constant 28 : index loc(#loc1)
    %c27 = arith.constant 27 : index loc(#loc1)
    %c26 = arith.constant 26 : index loc(#loc1)
    %c25 = arith.constant 25 : index loc(#loc1)
    %c24 = arith.constant 24 : index loc(#loc1)
    %c23 = arith.constant 23 : index loc(#loc1)
    %c22 = arith.constant 22 : index loc(#loc1)
    %c21 = arith.constant 21 : index loc(#loc1)
    %c20 = arith.constant 20 : index loc(#loc1)
    %c19 = arith.constant 19 : index loc(#loc1)
    %c18 = arith.constant 18 : index loc(#loc1)
    %c17 = arith.constant 17 : index loc(#loc1)
    %c16 = arith.constant 16 : index loc(#loc1)
    %c15 = arith.constant 15 : index loc(#loc1)
    %c14 = arith.constant 14 : index loc(#loc1)
    %c13 = arith.constant 13 : index loc(#loc1)
    %c12 = arith.constant 12 : index loc(#loc1)
    %c11 = arith.constant 11 : index loc(#loc1)
    %c10 = arith.constant 10 : index loc(#loc1)
    %c9 = arith.constant 9 : index loc(#loc1)
    %c8 = arith.constant 8 : index loc(#loc1)
    %c7 = arith.constant 7 : index loc(#loc1)
    %c6 = arith.constant 6 : index loc(#loc1)
    %c5 = arith.constant 5 : index loc(#loc1)
    %c4 = arith.constant 4 : index loc(#loc1)
    %c3 = arith.constant 3 : index loc(#loc1)
    %c2 = arith.constant 2 : index loc(#loc1)
    %c1 = arith.constant 1 : index loc(#loc1)
    %cst_0 = arith.constant dense<0.000000e+00> : vector<32x32xf32> loc(#loc1)
    %c31_i32 = arith.constant 31 : i32 loc(#loc1)
    %c1_i32 = arith.constant 1 : i32 loc(#loc1)
    %c16_i32 = arith.constant 16 : i32 loc(#loc1)
    %c0_i32 = arith.constant 0 : i32 loc(#loc1)
    %c1_i64 = arith.constant 1 : i64 loc(#loc1)
    %c32_i32 = arith.constant 32 : i32 loc(#loc1)
    %c8_i32 = arith.constant 8 : i32 loc(#loc1)
    %0 = tt.get_program_id x : i32 loc(#loc2)
    %1 = arith.addi %arg3, %c31_i32 : i32 loc(#loc31)
    %2 = arith.divsi %1, %c32_i32 : i32 loc(#loc32)
    %3 = arith.addi %arg4, %c31_i32 : i32 loc(#loc33)
    %4 = arith.divsi %3, %c32_i32 : i32 loc(#loc34)
    %5 = arith.muli %4, %c8_i32 : i32 loc(#loc7)
    %6 = arith.divsi %0, %5 : i32 loc(#loc8)
    %7 = arith.muli %6, %c8_i32 : i32 loc(#loc9)
    %8 = arith.subi %2, %7 : i32 loc(#loc10)
    %9 = arith.minsi %8, %c8_i32 : i32 loc(#loc11)
    %10 = arith.remsi %0, %9 : i32 loc(#loc12)
    %11 = arith.addi %7, %10 : i32 loc(#loc13)
    %12 = arith.remsi %0, %5 : i32 loc(#loc14)
    %13 = arith.divsi %12, %9 : i32 loc(#loc15)
    %14 = arith.muli %11, %c32_i32 : i32 loc(#loc16)
    %15 = arith.muli %13, %c32_i32 : i32 loc(#loc17)
    %16 = arith.extsi %arg3 : i32 to i64 loc(#loc18)
    %17 = arith.extsi %arg5 : i32 to i64 loc(#loc18)
    %18 = arith.extsi %arg6 : i32 to i64 loc(#loc18)
    %19 = tt.make_tensor_ptr %arg0, [%16, %17], [%18, %c1_i64], [%14, %c0_i32] {order = array<i32: 1, 0>} : <tensor<32x16xf32>> loc(#loc18)
    %20 = arith.extsi %arg4 : i32 to i64 loc(#loc19)
    %21 = arith.extsi %arg7 : i32 to i64 loc(#loc19)
    %22 = tt.make_tensor_ptr %arg1, [%17, %20], [%21, %c1_i64], [%c0_i32, %15] {order = array<i32: 1, 0>} : <tensor<16x32xf32>> loc(#loc19)
    %23 = arith.divsi %arg5, %c16_i32 : i32 loc(#loc35)
    %24:34 = scf.for %arg9 = %c0_i32 to %23 step %c1_i32 iter_args(%arg10 = %19, %arg11 = %22, %arg12 = %cst, %arg13 = %cst, %arg14 = %cst, %arg15 = %cst, %arg16 = %cst, %arg17 = %cst, %arg18 = %cst, %arg19 = %cst, %arg20 = %cst, %arg21 = %cst, %arg22 = %cst, %arg23 = %cst, %arg24 = %cst, %arg25 = %cst, %arg26 = %cst, %arg27 = %cst, %arg28 = %cst, %arg29 = %cst, %arg30 = %cst, %arg31 = %cst, %arg32 = %cst, %arg33 = %cst, %arg34 = %cst, %arg35 = %cst, %arg36 = %cst, %arg37 = %cst, %arg38 = %cst, %arg39 = %cst, %arg40 = %cst, %arg41 = %cst, %arg42 = %cst, %arg43 = %cst) -> (!tt.ptr<tensor<32x16xf32>>, !tt.ptr<tensor<16x32xf32>>, vector<32xf32>, vector<32xf32>, vector<32xf32>, vector<32xf32>, vector<32xf32>, vector<32xf32>, vector<32xf32>, vector<32xf32>, vector<32xf32>, vector<32xf32>, vector<32xf32>, vector<32xf32>, vector<32xf32>, vector<32xf32>, vector<32xf32>, vector<32xf32>, vector<32xf32>, vector<32xf32>, vector<32xf32>, vector<32xf32>, vector<32xf32>, vector<32xf32>, vector<32xf32>, vector<32xf32>, vector<32xf32>, vector<32xf32>, vector<32xf32>, vector<32xf32>, vector<32xf32>, vector<32xf32>, vector<32xf32>, vector<32xf32>)  : i32 {
      %61 = triton_cpu.extract_memref %arg10 : <tensor<32x16xf32>> -> memref<?x?xf32, strided<[?, 1]>> loc(#loc22)
      %62:2 = triton_cpu.extract_indices %arg10 : <tensor<32x16xf32>> -> index, index loc(#loc22)
      %63 = triton_cpu.extract_memref %arg11 : <tensor<16x32xf32>> -> memref<?x?xf32, strided<[?, 1]>> loc(#loc23)
      %64:2 = triton_cpu.extract_indices %arg11 : <tensor<16x32xf32>> -> index, index loc(#loc23)
      %65 = arith.addi %62#1, %c16 : index loc(#loc24)
      %66 = arith.addi %64#0, %c16 : index loc(#loc24)
      %67 = vector.load %63[%64#0, %64#1] : memref<?x?xf32, strided<[?, 1]>>, vector<32xf32> loc(#loc24)
      %68 = arith.addi %64#0, %c1 : index loc(#loc24)
      %69 = vector.load %63[%68, %64#1] : memref<?x?xf32, strided<[?, 1]>>, vector<32xf32> loc(#loc24)
      memref.prefetch %63[%66, %64#1], read, locality<1>, data : memref<?x?xf32, strided<[?, 1]>> loc(#loc24)
      %70 = memref.load %61[%62#0, %62#1] : memref<?x?xf32, strided<[?, 1]>> loc(#loc24)
      %71 = vector.broadcast %70 : f32 to vector<32xf32> loc(#loc24)
      %72 = arith.addi %62#0, %c1 : index loc(#loc24)
      %73 = memref.load %61[%72, %62#1] : memref<?x?xf32, strided<[?, 1]>> loc(#loc24)
      %74 = vector.broadcast %73 : f32 to vector<32xf32> loc(#loc24)
      memref.prefetch %61[%62#0, %65], read, locality<3>, data : memref<?x?xf32, strided<[?, 1]>> loc(#loc24)
      %75 = vector.fma %67, %71, %arg12 : vector<32xf32> loc(#loc24)
      %76 = arith.addi %62#0, %c2 : index loc(#loc24)
      %77 = memref.load %61[%76, %62#1] : memref<?x?xf32, strided<[?, 1]>> loc(#loc24)
      %78 = vector.broadcast %77 : f32 to vector<32xf32> loc(#loc24)
      memref.prefetch %61[%72, %65], read, locality<3>, data : memref<?x?xf32, strided<[?, 1]>> loc(#loc24)
      %79 = vector.fma %67, %74, %arg13 : vector<32xf32> loc(#loc24)
      %80 = arith.addi %62#0, %c3 : index loc(#loc24)
      %81 = memref.load %61[%80, %62#1] : memref<?x?xf32, strided<[?, 1]>> loc(#loc24)
      %82 = vector.broadcast %81 : f32 to vector<32xf32> loc(#loc24)
      memref.prefetch %61[%76, %65], read, locality<3>, data : memref<?x?xf32, strided<[?, 1]>> loc(#loc24)
      %83 = vector.fma %67, %78, %arg14 : vector<32xf32> loc(#loc24)
      %84 = arith.addi %62#0, %c4 : index loc(#loc24)
      %85 = memref.load %61[%84, %62#1] : memref<?x?xf32, strided<[?, 1]>> loc(#loc24)
      %86 = vector.broadcast %85 : f32 to vector<32xf32> loc(#loc24)
      memref.prefetch %61[%80, %65], read, locality<3>, data : memref<?x?xf32, strided<[?, 1]>> loc(#loc24)
      %87 = vector.fma %67, %82, %arg15 : vector<32xf32> loc(#loc24)
      %88 = arith.addi %62#0, %c5 : index loc(#loc24)
      %89 = memref.load %61[%88, %62#1] : memref<?x?xf32, strided<[?, 1]>> loc(#loc24)
      %90 = vector.broadcast %89 : f32 to vector<32xf32> loc(#loc24)
      memref.prefetch %61[%84, %65], read, locality<3>, data : memref<?x?xf32, strided<[?, 1]>> loc(#loc24)
      %91 = vector.fma %67, %86, %arg16 : vector<32xf32> loc(#loc24)
      %92 = arith.addi %62#0, %c6 : index loc(#loc24)
      %93 = memref.load %61[%92, %62#1] : memref<?x?xf32, strided<[?, 1]>> loc(#loc24)
      %94 = vector.broadcast %93 : f32 to vector<32xf32> loc(#loc24)
      memref.prefetch %61[%88, %65], read, locality<3>, data : memref<?x?xf32, strided<[?, 1]>> loc(#loc24)
      %95 = vector.fma %67, %90, %arg17 : vector<32xf32> loc(#loc24)
      %96 = arith.addi %62#0, %c7 : index loc(#loc24)
      %97 = memref.load %61[%96, %62#1] : memref<?x?xf32, strided<[?, 1]>> loc(#loc24)
      %98 = vector.broadcast %97 : f32 to vector<32xf32> loc(#loc24)
      memref.prefetch %61[%92, %65], read, locality<3>, data : memref<?x?xf32, strided<[?, 1]>> loc(#loc24)
      %99 = vector.fma %67, %94, %arg18 : vector<32xf32> loc(#loc24)
      %100 = arith.addi %62#0, %c8 : index loc(#loc24)
      %101 = memref.load %61[%100, %62#1] : memref<?x?xf32, strided<[?, 1]>> loc(#loc24)
      %102 = vector.broadcast %101 : f32 to vector<32xf32> loc(#loc24)
      memref.prefetch %61[%96, %65], read, locality<3>, data : memref<?x?xf32, strided<[?, 1]>> loc(#loc24)
      %103 = vector.fma %67, %98, %arg19 : vector<32xf32> loc(#loc24)
      %104 = arith.addi %62#0, %c9 : index loc(#loc24)
      %105 = memref.load %61[%104, %62#1] : memref<?x?xf32, strided<[?, 1]>> loc(#loc24)
      %106 = vector.broadcast %105 : f32 to vector<32xf32> loc(#loc24)
      memref.prefetch %61[%100, %65], read, locality<3>, data : memref<?x?xf32, strided<[?, 1]>> loc(#loc24)
      %107 = vector.fma %67, %102, %arg20 : vector<32xf32> loc(#loc24)
      %108 = arith.addi %62#0, %c10 : index loc(#loc24)
      %109 = memref.load %61[%108, %62#1] : memref<?x?xf32, strided<[?, 1]>> loc(#loc24)
      %110 = vector.broadcast %109 : f32 to vector<32xf32> loc(#loc24)
      memref.prefetch %61[%104, %65], read, locality<3>, data : memref<?x?xf32, strided<[?, 1]>> loc(#loc24)
      %111 = vector.fma %67, %106, %arg21 : vector<32xf32> loc(#loc24)
      %112 = arith.addi %62#0, %c11 : index loc(#loc24)
      %113 = memref.load %61[%112, %62#1] : memref<?x?xf32, strided<[?, 1]>> loc(#loc24)
      %114 = vector.broadcast %113 : f32 to vector<32xf32> loc(#loc24)
      memref.prefetch %61[%108, %65], read, locality<3>, data : memref<?x?xf32, strided<[?, 1]>> loc(#loc24)
      %115 = vector.fma %67, %110, %arg22 : vector<32xf32> loc(#loc24)
      %116 = arith.addi %62#0, %c12 : index loc(#loc24)
      %117 = memref.load %61[%116, %62#1] : memref<?x?xf32, strided<[?, 1]>> loc(#loc24)
      %118 = vector.broadcast %117 : f32 to vector<32xf32> loc(#loc24)
      memref.prefetch %61[%112, %65], read, locality<3>, data : memref<?x?xf32, strided<[?, 1]>> loc(#loc24)
      %119 = vector.fma %67, %114, %arg23 : vector<32xf32> loc(#loc24)
      %120 = arith.addi %62#0, %c13 : index loc(#loc24)
      %121 = memref.load %61[%120, %62#1] : memref<?x?xf32, strided<[?, 1]>> loc(#loc24)
      %122 = vector.broadcast %121 : f32 to vector<32xf32> loc(#loc24)
      memref.prefetch %61[%116, %65], read, locality<3>, data : memref<?x?xf32, strided<[?, 1]>> loc(#loc24)
      %123 = vector.fma %67, %118, %arg24 : vector<32xf32> loc(#loc24)
      %124 = arith.addi %62#0, %c14 : index loc(#loc24)
      %125 = memref.load %61[%124, %62#1] : memref<?x?xf32, strided<[?, 1]>> loc(#loc24)
      %126 = vector.broadcast %125 : f32 to vector<32xf32> loc(#loc24)
      memref.prefetch %61[%120, %65], read, locality<3>, data : memref<?x?xf32, strided<[?, 1]>> loc(#loc24)
      %127 = vector.fma %67, %122, %arg25 : vector<32xf32> loc(#loc24)
      %128 = arith.addi %62#0, %c15 : index loc(#loc24)
      %129 = memref.load %61[%128, %62#1] : memref<?x?xf32, strided<[?, 1]>> loc(#loc24)
      %130 = vector.broadcast %129 : f32 to vector<32xf32> loc(#loc24)
      memref.prefetch %61[%124, %65], read, locality<3>, data : memref<?x?xf32, strided<[?, 1]>> loc(#loc24)
      %131 = vector.fma %67, %126, %arg26 : vector<32xf32> loc(#loc24)
      %132 = arith.addi %62#0, %c16 : index loc(#loc24)
      %133 = memref.load %61[%132, %62#1] : memref<?x?xf32, strided<[?, 1]>> loc(#loc24)
      %134 = vector.broadcast %133 : f32 to vector<32xf32> loc(#loc24)
      memref.prefetch %61[%128, %65], read, locality<3>, data : memref<?x?xf32, strided<[?, 1]>> loc(#loc24)
      %135 = vector.fma %67, %130, %arg27 : vector<32xf32> loc(#loc24)
      %136 = arith.addi %62#0, %c17 : index loc(#loc24)
      %137 = memref.load %61[%136, %62#1] : memref<?x?xf32, strided<[?, 1]>> loc(#loc24)
      %138 = vector.broadcast %137 : f32 to vector<32xf32> loc(#loc24)
      memref.prefetch %61[%132, %65], read, locality<3>, data : memref<?x?xf32, strided<[?, 1]>> loc(#loc24)
      %139 = vector.fma %67, %134, %arg28 : vector<32xf32> loc(#loc24)
      %140 = arith.addi %62#0, %c18 : index loc(#loc24)
      %141 = memref.load %61[%140, %62#1] : memref<?x?xf32, strided<[?, 1]>> loc(#loc24)
      %142 = vector.broadcast %141 : f32 to vector<32xf32> loc(#loc24)
      memref.prefetch %61[%136, %65], read, locality<3>, data : memref<?x?xf32, strided<[?, 1]>> loc(#loc24)
      %143 = vector.fma %67, %138, %arg29 : vector<32xf32> loc(#loc24)
      %144 = arith.addi %62#0, %c19 : index loc(#loc24)
      %145 = memref.load %61[%144, %62#1] : memref<?x?xf32, strided<[?, 1]>> loc(#loc24)
      %146 = vector.broadcast %145 : f32 to vector<32xf32> loc(#loc24)
      memref.prefetch %61[%140, %65], read, locality<3>, data : memref<?x?xf32, strided<[?, 1]>> loc(#loc24)
      %147 = vector.fma %67, %142, %arg30 : vector<32xf32> loc(#loc24)
      %148 = arith.addi %62#0, %c20 : index loc(#loc24)
      %149 = memref.load %61[%148, %62#1] : memref<?x?xf32, strided<[?, 1]>> loc(#loc24)
      %150 = vector.broadcast %149 : f32 to vector<32xf32> loc(#loc24)
      memref.prefetch %61[%144, %65], read, locality<3>, data : memref<?x?xf32, strided<[?, 1]>> loc(#loc24)
      %151 = vector.fma %67, %146, %arg31 : vector<32xf32> loc(#loc24)
      %152 = arith.addi %62#0, %c21 : index loc(#loc24)
      %153 = memref.load %61[%152, %62#1] : memref<?x?xf32, strided<[?, 1]>> loc(#loc24)
      %154 = vector.broadcast %153 : f32 to vector<32xf32> loc(#loc24)
      memref.prefetch %61[%148, %65], read, locality<3>, data : memref<?x?xf32, strided<[?, 1]>> loc(#loc24)
      %155 = vector.fma %67, %150, %arg32 : vector<32xf32> loc(#loc24)
      %156 = arith.addi %62#0, %c22 : index loc(#loc24)
      %157 = memref.load %61[%156, %62#1] : memref<?x?xf32, strided<[?, 1]>> loc(#loc24)
      %158 = vector.broadcast %157 : f32 to vector<32xf32> loc(#loc24)
      memref.prefetch %61[%152, %65], read, locality<3>, data : memref<?x?xf32, strided<[?, 1]>> loc(#loc24)
      %159 = vector.fma %67, %154, %arg33 : vector<32xf32> loc(#loc24)
      %160 = arith.addi %62#0, %c23 : index loc(#loc24)
      %161 = memref.load %61[%160, %62#1] : memref<?x?xf32, strided<[?, 1]>> loc(#loc24)
      %162 = vector.broadcast %161 : f32 to vector<32xf32> loc(#loc24)
      memref.prefetch %61[%156, %65], read, locality<3>, data : memref<?x?xf32, strided<[?, 1]>> loc(#loc24)
      %163 = vector.fma %67, %158, %arg34 : vector<32xf32> loc(#loc24)
      %164 = arith.addi %62#0, %c24 : index loc(#loc24)
      %165 = memref.load %61[%164, %62#1] : memref<?x?xf32, strided<[?, 1]>> loc(#loc24)
      %166 = vector.broadcast %165 : f32 to vector<32xf32> loc(#loc24)
      memref.prefetch %61[%160, %65], read, locality<3>, data : memref<?x?xf32, strided<[?, 1]>> loc(#loc24)
      %167 = vector.fma %67, %162, %arg35 : vector<32xf32> loc(#loc24)
      %168 = arith.addi %62#0, %c25 : index loc(#loc24)
      %169 = memref.load %61[%168, %62#1] : memref<?x?xf32, strided<[?, 1]>> loc(#loc24)
      %170 = vector.broadcast %169 : f32 to vector<32xf32> loc(#loc24)
      memref.prefetch %61[%164, %65], read, locality<3>, data : memref<?x?xf32, strided<[?, 1]>> loc(#loc24)
      %171 = vector.fma %67, %166, %arg36 : vector<32xf32> loc(#loc24)
      %172 = arith.addi %62#0, %c26 : index loc(#loc24)
      %173 = memref.load %61[%172, %62#1] : memref<?x?xf32, strided<[?, 1]>> loc(#loc24)
      %174 = vector.broadcast %173 : f32 to vector<32xf32> loc(#loc24)
      memref.prefetch %61[%168, %65], read, locality<3>, data : memref<?x?xf32, strided<[?, 1]>> loc(#loc24)
      %175 = vector.fma %67, %170, %arg37 : vector<32xf32> loc(#loc24)
      %176 = arith.addi %62#0, %c27 : index loc(#loc24)
      %177 = memref.load %61[%176, %62#1] : memref<?x?xf32, strided<[?, 1]>> loc(#loc24)
      %178 = vector.broadcast %177 : f32 to vector<32xf32> loc(#loc24)
      memref.prefetch %61[%172, %65], read, locality<3>, data : memref<?x?xf32, strided<[?, 1]>> loc(#loc24)
      %179 = vector.fma %67, %174, %arg38 : vector<32xf32> loc(#loc24)
      %180 = arith.addi %62#0, %c28 : index loc(#loc24)
      %181 = memref.load %61[%180, %62#1] : memref<?x?xf32, strided<[?, 1]>> loc(#loc24)
      %182 = vector.broadcast %181 : f32 to vector<32xf32> loc(#loc24)
      memref.prefetch %61[%176, %65], read, locality<3>, data : memref<?x?xf32, strided<[?, 1]>> loc(#loc24)
      %183 = vector.fma %67, %178, %arg39 : vector<32xf32> loc(#loc24)
      %184 = arith.addi %62#0, %c29 : index loc(#loc24)
      %185 = memref.load %61[%184, %62#1] : memref<?x?xf32, strided<[?, 1]>> loc(#loc24)
      %186 = vector.broadcast %185 : f32 to vector<32xf32> loc(#loc24)
      memref.prefetch %61[%180, %65], read, locality<3>, data : memref<?x?xf32, strided<[?, 1]>> loc(#loc24)
      %187 = vector.fma %67, %182, %arg40 : vector<32xf32> loc(#loc24)
      %188 = arith.addi %62#0, %c30 : index loc(#loc24)
      %189 = memref.load %61[%188, %62#1] : memref<?x?xf32, strided<[?, 1]>> loc(#loc24)
      %190 = vector.broadcast %189 : f32 to vector<32xf32> loc(#loc24)
      memref.prefetch %61[%184, %65], read, locality<3>, data : memref<?x?xf32, strided<[?, 1]>> loc(#loc24)
      %191 = vector.fma %67, %186, %arg41 : vector<32xf32> loc(#loc24)
      %192 = arith.addi %62#0, %c31 : index loc(#loc24)
      %193 = memref.load %61[%192, %62#1] : memref<?x?xf32, strided<[?, 1]>> loc(#loc24)
      %194 = vector.broadcast %193 : f32 to vector<32xf32> loc(#loc24)
      memref.prefetch %61[%188, %65], read, locality<3>, data : memref<?x?xf32, strided<[?, 1]>> loc(#loc24)
      %195 = vector.fma %67, %190, %arg42 : vector<32xf32> loc(#loc24)
      memref.prefetch %61[%192, %65], read, locality<3>, data : memref<?x?xf32, strided<[?, 1]>> loc(#loc24)
      %196 = vector.fma %67, %194, %arg43 : vector<32xf32> loc(#loc24)
      %197 = arith.addi %64#0, %c2 : index loc(#loc24)
      %198 = vector.load %63[%197, %64#1] : memref<?x?xf32, strided<[?, 1]>>, vector<32xf32> loc(#loc24)
      %199 = arith.addi %64#0, %c17 : index loc(#loc24)
      memref.prefetch %63[%199, %64#1], read, locality<1>, data : memref<?x?xf32, strided<[?, 1]>> loc(#loc24)
      %200 = arith.addi %62#1, %c1 : index loc(#loc24)
      %201 = memref.load %61[%62#0, %200] : memref<?x?xf32, strided<[?, 1]>> loc(#loc24)
      %202 = vector.broadcast %201 : f32 to vector<32xf32> loc(#loc24)
      %203 = memref.load %61[%72, %200] : memref<?x?xf32, strided<[?, 1]>> loc(#loc24)
      %204 = vector.broadcast %203 : f32 to vector<32xf32> loc(#loc24)
      %205 = vector.fma %69, %202, %75 : vector<32xf32> loc(#loc24)
      %206 = memref.load %61[%76, %200] : memref<?x?xf32, strided<[?, 1]>> loc(#loc24)
      %207 = vector.broadcast %206 : f32 to vector<32xf32> loc(#loc24)
      %208 = vector.fma %69, %204, %79 : vector<32xf32> loc(#loc24)
      %209 = memref.load %61[%80, %200] : memref<?x?xf32, strided<[?, 1]>> loc(#loc24)
      %210 = vector.broadcast %209 : f32 to vector<32xf32> loc(#loc24)
      %211 = vector.fma %69, %207, %83 : vector<32xf32> loc(#loc24)
      %212 = memref.load %61[%84, %200] : memref<?x?xf32, strided<[?, 1]>> loc(#loc24)
      %213 = vector.broadcast %212 : f32 to vector<32xf32> loc(#loc24)
      %214 = vector.fma %69, %210, %87 : vector<32xf32> loc(#loc24)
      %215 = memref.load %61[%88, %200] : memref<?x?xf32, strided<[?, 1]>> loc(#loc24)
      %216 = vector.broadcast %215 : f32 to vector<32xf32> loc(#loc24)
      %217 = vector.fma %69, %213, %91 : vector<32xf32> loc(#loc24)
      %218 = memref.load %61[%92, %200] : memref<?x?xf32, strided<[?, 1]>> loc(#loc24)
      %219 = vector.broadcast %218 : f32 to vector<32xf32> loc(#loc24)
      %220 = vector.fma %69, %216, %95 : vector<32xf32> loc(#loc24)
      %221 = memref.load %61[%96, %200] : memref<?x?xf32, strided<[?, 1]>> loc(#loc24)
      %222 = vector.broadcast %221 : f32 to vector<32xf32> loc(#loc24)
      %223 = vector.fma %69, %219, %99 : vector<32xf32> loc(#loc24)
      %224 = memref.load %61[%100, %200] : memref<?x?xf32, strided<[?, 1]>> loc(#loc24)
      %225 = vector.broadcast %224 : f32 to vector<32xf32> loc(#loc24)
      %226 = vector.fma %69, %222, %103 : vector<32xf32> loc(#loc24)
      %227 = memref.load %61[%104, %200] : memref<?x?xf32, strided<[?, 1]>> loc(#loc24)
      %228 = vector.broadcast %227 : f32 to vector<32xf32> loc(#loc24)
      %229 = vector.fma %69, %225, %107 : vector<32xf32> loc(#loc24)
      %230 = memref.load %61[%108, %200] : memref<?x?xf32, strided<[?, 1]>> loc(#loc24)
      %231 = vector.broadcast %230 : f32 to vector<32xf32> loc(#loc24)
      %232 = vector.fma %69, %228, %111 : vector<32xf32> loc(#loc24)
      %233 = memref.load %61[%112, %200] : memref<?x?xf32, strided<[?, 1]>> loc(#loc24)
      %234 = vector.broadcast %233 : f32 to vector<32xf32> loc(#loc24)
      %235 = vector.fma %69, %231, %115 : vector<32xf32> loc(#loc24)
      %236 = memref.load %61[%116, %200] : memref<?x?xf32, strided<[?, 1]>> loc(#loc24)
      %237 = vector.broadcast %236 : f32 to vector<32xf32> loc(#loc24)
      %238 = vector.fma %69, %234, %119 : vector<32xf32> loc(#loc24)
      %239 = memref.load %61[%120, %200] : memref<?x?xf32, strided<[?, 1]>> loc(#loc24)
      %240 = vector.broadcast %239 : f32 to vector<32xf32> loc(#loc24)
      %241 = vector.fma %69, %237, %123 : vector<32xf32> loc(#loc24)
      %242 = memref.load %61[%124, %200] : memref<?x?xf32, strided<[?, 1]>> loc(#loc24)
      %243 = vector.broadcast %242 : f32 to vector<32xf32> loc(#loc24)
      %244 = vector.fma %69, %240, %127 : vector<32xf32> loc(#loc24)
      %245 = memref.load %61[%128, %200] : memref<?x?xf32, strided<[?, 1]>> loc(#loc24)
      %246 = vector.broadcast %245 : f32 to vector<32xf32> loc(#loc24)
      %247 = vector.fma %69, %243, %131 : vector<32xf32> loc(#loc24)
      %248 = memref.load %61[%132, %200] : memref<?x?xf32, strided<[?, 1]>> loc(#loc24)
      %249 = vector.broadcast %248 : f32 to vector<32xf32> loc(#loc24)
      %250 = vector.fma %69, %246, %135 : vector<32xf32> loc(#loc24)
      %251 = memref.load %61[%136, %200] : memref<?x?xf32, strided<[?, 1]>> loc(#loc24)
      %252 = vector.broadcast %251 : f32 to vector<32xf32> loc(#loc24)
      %253 = vector.fma %69, %249, %139 : vector<32xf32> loc(#loc24)
      %254 = memref.load %61[%140, %200] : memref<?x?xf32, strided<[?, 1]>> loc(#loc24)
      %255 = vector.broadcast %254 : f32 to vector<32xf32> loc(#loc24)
      %256 = vector.fma %69, %252, %143 : vector<32xf32> loc(#loc24)
      %257 = memref.load %61[%144, %200] : memref<?x?xf32, strided<[?, 1]>> loc(#loc24)
      %258 = vector.broadcast %257 : f32 to vector<32xf32> loc(#loc24)
      %259 = vector.fma %69, %255, %147 : vector<32xf32> loc(#loc24)
      %260 = memref.load %61[%148, %200] : memref<?x?xf32, strided<[?, 1]>> loc(#loc24)
      %261 = vector.broadcast %260 : f32 to vector<32xf32> loc(#loc24)
      %262 = vector.fma %69, %258, %151 : vector<32xf32> loc(#loc24)
      %263 = memref.load %61[%152, %200] : memref<?x?xf32, strided<[?, 1]>> loc(#loc24)
      %264 = vector.broadcast %263 : f32 to vector<32xf32> loc(#loc24)
      %265 = vector.fma %69, %261, %155 : vector<32xf32> loc(#loc24)
      %266 = memref.load %61[%156, %200] : memref<?x?xf32, strided<[?, 1]>> loc(#loc24)
      %267 = vector.broadcast %266 : f32 to vector<32xf32> loc(#loc24)
      %268 = vector.fma %69, %264, %159 : vector<32xf32> loc(#loc24)
      %269 = memref.load %61[%160, %200] : memref<?x?xf32, strided<[?, 1]>> loc(#loc24)
      %270 = vector.broadcast %269 : f32 to vector<32xf32> loc(#loc24)
      %271 = vector.fma %69, %267, %163 : vector<32xf32> loc(#loc24)
      %272 = memref.load %61[%164, %200] : memref<?x?xf32, strided<[?, 1]>> loc(#loc24)
      %273 = vector.broadcast %272 : f32 to vector<32xf32> loc(#loc24)
      %274 = vector.fma %69, %270, %167 : vector<32xf32> loc(#loc24)
      %275 = memref.load %61[%168, %200] : memref<?x?xf32, strided<[?, 1]>> loc(#loc24)
      %276 = vector.broadcast %275 : f32 to vector<32xf32> loc(#loc24)
      %277 = vector.fma %69, %273, %171 : vector<32xf32> loc(#loc24)
      %278 = memref.load %61[%172, %200] : memref<?x?xf32, strided<[?, 1]>> loc(#loc24)
      %279 = vector.broadcast %278 : f32 to vector<32xf32> loc(#loc24)
      %280 = vector.fma %69, %276, %175 : vector<32xf32> loc(#loc24)
      %281 = memref.load %61[%176, %200] : memref<?x?xf32, strided<[?, 1]>> loc(#loc24)
      %282 = vector.broadcast %281 : f32 to vector<32xf32> loc(#loc24)
      %283 = vector.fma %69, %279, %179 : vector<32xf32> loc(#loc24)
      %284 = memref.load %61[%180, %200] : memref<?x?xf32, strided<[?, 1]>> loc(#loc24)
      %285 = vector.broadcast %284 : f32 to vector<32xf32> loc(#loc24)
      %286 = vector.fma %69, %282, %183 : vector<32xf32> loc(#loc24)
      %287 = memref.load %61[%184, %200] : memref<?x?xf32, strided<[?, 1]>> loc(#loc24)
      %288 = vector.broadcast %287 : f32 to vector<32xf32> loc(#loc24)
      %289 = vector.fma %69, %285, %187 : vector<32xf32> loc(#loc24)
      %290 = memref.load %61[%188, %200] : memref<?x?xf32, strided<[?, 1]>> loc(#loc24)
      %291 = vector.broadcast %290 : f32 to vector<32xf32> loc(#loc24)
      %292 = vector.fma %69, %288, %191 : vector<32xf32> loc(#loc24)
      %293 = memref.load %61[%192, %200] : memref<?x?xf32, strided<[?, 1]>> loc(#loc24)
      %294 = vector.broadcast %293 : f32 to vector<32xf32> loc(#loc24)
      %295 = vector.fma %69, %291, %195 : vector<32xf32> loc(#loc24)
      %296 = vector.fma %69, %294, %196 : vector<32xf32> loc(#loc24)
      %297 = arith.addi %64#0, %c3 : index loc(#loc24)
      %298 = vector.load %63[%297, %64#1] : memref<?x?xf32, strided<[?, 1]>>, vector<32xf32> loc(#loc24)
      %299 = arith.addi %64#0, %c18 : index loc(#loc24)
      memref.prefetch %63[%299, %64#1], read, locality<1>, data : memref<?x?xf32, strided<[?, 1]>> loc(#loc24)
      %300 = arith.addi %62#1, %c2 : index loc(#loc24)
      %301 = memref.load %61[%62#0, %300] : memref<?x?xf32, strided<[?, 1]>> loc(#loc24)
      %302 = vector.broadcast %301 : f32 to vector<32xf32> loc(#loc24)
      %303 = memref.load %61[%72, %300] : memref<?x?xf32, strided<[?, 1]>> loc(#loc24)
      %304 = vector.broadcast %303 : f32 to vector<32xf32> loc(#loc24)
      %305 = vector.fma %198, %302, %205 : vector<32xf32> loc(#loc24)
      %306 = memref.load %61[%76, %300] : memref<?x?xf32, strided<[?, 1]>> loc(#loc24)
      %307 = vector.broadcast %306 : f32 to vector<32xf32> loc(#loc24)
      %308 = vector.fma %198, %304, %208 : vector<32xf32> loc(#loc24)
      %309 = memref.load %61[%80, %300] : memref<?x?xf32, strided<[?, 1]>> loc(#loc24)
      %310 = vector.broadcast %309 : f32 to vector<32xf32> loc(#loc24)
      %311 = vector.fma %198, %307, %211 : vector<32xf32> loc(#loc24)
      %312 = memref.load %61[%84, %300] : memref<?x?xf32, strided<[?, 1]>> loc(#loc24)
      %313 = vector.broadcast %312 : f32 to vector<32xf32> loc(#loc24)
      %314 = vector.fma %198, %310, %214 : vector<32xf32> loc(#loc24)
      %315 = memref.load %61[%88, %300] : memref<?x?xf32, strided<[?, 1]>> loc(#loc24)
      %316 = vector.broadcast %315 : f32 to vector<32xf32> loc(#loc24)
      %317 = vector.fma %198, %313, %217 : vector<32xf32> loc(#loc24)
      %318 = memref.load %61[%92, %300] : memref<?x?xf32, strided<[?, 1]>> loc(#loc24)
      %319 = vector.broadcast %318 : f32 to vector<32xf32> loc(#loc24)
      %320 = vector.fma %198, %316, %220 : vector<32xf32> loc(#loc24)
      %321 = memref.load %61[%96, %300] : memref<?x?xf32, strided<[?, 1]>> loc(#loc24)
      %322 = vector.broadcast %321 : f32 to vector<32xf32> loc(#loc24)
      %323 = vector.fma %198, %319, %223 : vector<32xf32> loc(#loc24)
      %324 = memref.load %61[%100, %300] : memref<?x?xf32, strided<[?, 1]>> loc(#loc24)
      %325 = vector.broadcast %324 : f32 to vector<32xf32> loc(#loc24)
      %326 = vector.fma %198, %322, %226 : vector<32xf32> loc(#loc24)
      %327 = memref.load %61[%104, %300] : memref<?x?xf32, strided<[?, 1]>> loc(#loc24)
      %328 = vector.broadcast %327 : f32 to vector<32xf32> loc(#loc24)
      %329 = vector.fma %198, %325, %229 : vector<32xf32> loc(#loc24)
      %330 = memref.load %61[%108, %300] : memref<?x?xf32, strided<[?, 1]>> loc(#loc24)
      %331 = vector.broadcast %330 : f32 to vector<32xf32> loc(#loc24)
      %332 = vector.fma %198, %328, %232 : vector<32xf32> loc(#loc24)
      %333 = memref.load %61[%112, %300] : memref<?x?xf32, strided<[?, 1]>> loc(#loc24)
      %334 = vector.broadcast %333 : f32 to vector<32xf32> loc(#loc24)
      %335 = vector.fma %198, %331, %235 : vector<32xf32> loc(#loc24)
      %336 = memref.load %61[%116, %300] : memref<?x?xf32, strided<[?, 1]>> loc(#loc24)
      %337 = vector.broadcast %336 : f32 to vector<32xf32> loc(#loc24)
      %338 = vector.fma %198, %334, %238 : vector<32xf32> loc(#loc24)
      %339 = memref.load %61[%120, %300] : memref<?x?xf32, strided<[?, 1]>> loc(#loc24)
      %340 = vector.broadcast %339 : f32 to vector<32xf32> loc(#loc24)
      %341 = vector.fma %198, %337, %241 : vector<32xf32> loc(#loc24)
      %342 = memref.load %61[%124, %300] : memref<?x?xf32, strided<[?, 1]>> loc(#loc24)
      %343 = vector.broadcast %342 : f32 to vector<32xf32> loc(#loc24)
      %344 = vector.fma %198, %340, %244 : vector<32xf32> loc(#loc24)
      %345 = memref.load %61[%128, %300] : memref<?x?xf32, strided<[?, 1]>> loc(#loc24)
      %346 = vector.broadcast %345 : f32 to vector<32xf32> loc(#loc24)
      %347 = vector.fma %198, %343, %247 : vector<32xf32> loc(#loc24)
      %348 = memref.load %61[%132, %300] : memref<?x?xf32, strided<[?, 1]>> loc(#loc24)
      %349 = vector.broadcast %348 : f32 to vector<32xf32> loc(#loc24)
      %350 = vector.fma %198, %346, %250 : vector<32xf32> loc(#loc24)
      %351 = memref.load %61[%136, %300] : memref<?x?xf32, strided<[?, 1]>> loc(#loc24)
      %352 = vector.broadcast %351 : f32 to vector<32xf32> loc(#loc24)
      %353 = vector.fma %198, %349, %253 : vector<32xf32> loc(#loc24)
      %354 = memref.load %61[%140, %300] : memref<?x?xf32, strided<[?, 1]>> loc(#loc24)
      %355 = vector.broadcast %354 : f32 to vector<32xf32> loc(#loc24)
      %356 = vector.fma %198, %352, %256 : vector<32xf32> loc(#loc24)
      %357 = memref.load %61[%144, %300] : memref<?x?xf32, strided<[?, 1]>> loc(#loc24)
      %358 = vector.broadcast %357 : f32 to vector<32xf32> loc(#loc24)
      %359 = vector.fma %198, %355, %259 : vector<32xf32> loc(#loc24)
      %360 = memref.load %61[%148, %300] : memref<?x?xf32, strided<[?, 1]>> loc(#loc24)
      %361 = vector.broadcast %360 : f32 to vector<32xf32> loc(#loc24)
      %362 = vector.fma %198, %358, %262 : vector<32xf32> loc(#loc24)
      %363 = memref.load %61[%152, %300] : memref<?x?xf32, strided<[?, 1]>> loc(#loc24)
      %364 = vector.broadcast %363 : f32 to vector<32xf32> loc(#loc24)
      %365 = vector.fma %198, %361, %265 : vector<32xf32> loc(#loc24)
      %366 = memref.load %61[%156, %300] : memref<?x?xf32, strided<[?, 1]>> loc(#loc24)
      %367 = vector.broadcast %366 : f32 to vector<32xf32> loc(#loc24)
      %368 = vector.fma %198, %364, %268 : vector<32xf32> loc(#loc24)
      %369 = memref.load %61[%160, %300] : memref<?x?xf32, strided<[?, 1]>> loc(#loc24)
      %370 = vector.broadcast %369 : f32 to vector<32xf32> loc(#loc24)
      %371 = vector.fma %198, %367, %271 : vector<32xf32> loc(#loc24)
      %372 = memref.load %61[%164, %300] : memref<?x?xf32, strided<[?, 1]>> loc(#loc24)
      %373 = vector.broadcast %372 : f32 to vector<32xf32> loc(#loc24)
      %374 = vector.fma %198, %370, %274 : vector<32xf32> loc(#loc24)
      %375 = memref.load %61[%168, %300] : memref<?x?xf32, strided<[?, 1]>> loc(#loc24)
      %376 = vector.broadcast %375 : f32 to vector<32xf32> loc(#loc24)
      %377 = vector.fma %198, %373, %277 : vector<32xf32> loc(#loc24)
      %378 = memref.load %61[%172, %300] : memref<?x?xf32, strided<[?, 1]>> loc(#loc24)
      %379 = vector.broadcast %378 : f32 to vector<32xf32> loc(#loc24)
      %380 = vector.fma %198, %376, %280 : vector<32xf32> loc(#loc24)
      %381 = memref.load %61[%176, %300] : memref<?x?xf32, strided<[?, 1]>> loc(#loc24)
      %382 = vector.broadcast %381 : f32 to vector<32xf32> loc(#loc24)
      %383 = vector.fma %198, %379, %283 : vector<32xf32> loc(#loc24)
      %384 = memref.load %61[%180, %300] : memref<?x?xf32, strided<[?, 1]>> loc(#loc24)
      %385 = vector.broadcast %384 : f32 to vector<32xf32> loc(#loc24)
      %386 = vector.fma %198, %382, %286 : vector<32xf32> loc(#loc24)
      %387 = memref.load %61[%184, %300] : memref<?x?xf32, strided<[?, 1]>> loc(#loc24)
      %388 = vector.broadcast %387 : f32 to vector<32xf32> loc(#loc24)
      %389 = vector.fma %198, %385, %289 : vector<32xf32> loc(#loc24)
      %390 = memref.load %61[%188, %300] : memref<?x?xf32, strided<[?, 1]>> loc(#loc24)
      %391 = vector.broadcast %390 : f32 to vector<32xf32> loc(#loc24)
      %392 = vector.fma %198, %388, %292 : vector<32xf32> loc(#loc24)
      %393 = memref.load %61[%192, %300] : memref<?x?xf32, strided<[?, 1]>> loc(#loc24)
      %394 = vector.broadcast %393 : f32 to vector<32xf32> loc(#loc24)
      %395 = vector.fma %198, %391, %295 : vector<32xf32> loc(#loc24)
      %396 = vector.fma %198, %394, %296 : vector<32xf32> loc(#loc24)
      %397 = arith.addi %64#0, %c4 : index loc(#loc24)
      %398 = vector.load %63[%397, %64#1] : memref<?x?xf32, strided<[?, 1]>>, vector<32xf32> loc(#loc24)
      %399 = arith.addi %64#0, %c19 : index loc(#loc24)
      memref.prefetch %63[%399, %64#1], read, locality<1>, data : memref<?x?xf32, strided<[?, 1]>> loc(#loc24)
      %400 = arith.addi %62#1, %c3 : index loc(#loc24)
      %401 = memref.load %61[%62#0, %400] : memref<?x?xf32, strided<[?, 1]>> loc(#loc24)
      %402 = vector.broadcast %401 : f32 to vector<32xf32> loc(#loc24)
      %403 = memref.load %61[%72, %400] : memref<?x?xf32, strided<[?, 1]>> loc(#loc24)
      %404 = vector.broadcast %403 : f32 to vector<32xf32> loc(#loc24)
      %405 = vector.fma %298, %402, %305 : vector<32xf32> loc(#loc24)
      %406 = memref.load %61[%76, %400] : memref<?x?xf32, strided<[?, 1]>> loc(#loc24)
      %407 = vector.broadcast %406 : f32 to vector<32xf32> loc(#loc24)
      %408 = vector.fma %298, %404, %308 : vector<32xf32> loc(#loc24)
      %409 = memref.load %61[%80, %400] : memref<?x?xf32, strided<[?, 1]>> loc(#loc24)
      %410 = vector.broadcast %409 : f32 to vector<32xf32> loc(#loc24)
      %411 = vector.fma %298, %407, %311 : vector<32xf32> loc(#loc24)
      %412 = memref.load %61[%84, %400] : memref<?x?xf32, strided<[?, 1]>> loc(#loc24)
      %413 = vector.broadcast %412 : f32 to vector<32xf32> loc(#loc24)
      %414 = vector.fma %298, %410, %314 : vector<32xf32> loc(#loc24)
      %415 = memref.load %61[%88, %400] : memref<?x?xf32, strided<[?, 1]>> loc(#loc24)
      %416 = vector.broadcast %415 : f32 to vector<32xf32> loc(#loc24)
      %417 = vector.fma %298, %413, %317 : vector<32xf32> loc(#loc24)
      %418 = memref.load %61[%92, %400] : memref<?x?xf32, strided<[?, 1]>> loc(#loc24)
      %419 = vector.broadcast %418 : f32 to vector<32xf32> loc(#loc24)
      %420 = vector.fma %298, %416, %320 : vector<32xf32> loc(#loc24)
      %421 = memref.load %61[%96, %400] : memref<?x?xf32, strided<[?, 1]>> loc(#loc24)
      %422 = vector.broadcast %421 : f32 to vector<32xf32> loc(#loc24)
      %423 = vector.fma %298, %419, %323 : vector<32xf32> loc(#loc24)
      %424 = memref.load %61[%100, %400] : memref<?x?xf32, strided<[?, 1]>> loc(#loc24)
      %425 = vector.broadcast %424 : f32 to vector<32xf32> loc(#loc24)
      %426 = vector.fma %298, %422, %326 : vector<32xf32> loc(#loc24)
      %427 = memref.load %61[%104, %400] : memref<?x?xf32, strided<[?, 1]>> loc(#loc24)
      %428 = vector.broadcast %427 : f32 to vector<32xf32> loc(#loc24)
      %429 = vector.fma %298, %425, %329 : vector<32xf32> loc(#loc24)
      %430 = memref.load %61[%108, %400] : memref<?x?xf32, strided<[?, 1]>> loc(#loc24)
      %431 = vector.broadcast %430 : f32 to vector<32xf32> loc(#loc24)
      %432 = vector.fma %298, %428, %332 : vector<32xf32> loc(#loc24)
      %433 = memref.load %61[%112, %400] : memref<?x?xf32, strided<[?, 1]>> loc(#loc24)
      %434 = vector.broadcast %433 : f32 to vector<32xf32> loc(#loc24)
      %435 = vector.fma %298, %431, %335 : vector<32xf32> loc(#loc24)
      %436 = memref.load %61[%116, %400] : memref<?x?xf32, strided<[?, 1]>> loc(#loc24)
      %437 = vector.broadcast %436 : f32 to vector<32xf32> loc(#loc24)
      %438 = vector.fma %298, %434, %338 : vector<32xf32> loc(#loc24)
      %439 = memref.load %61[%120, %400] : memref<?x?xf32, strided<[?, 1]>> loc(#loc24)
      %440 = vector.broadcast %439 : f32 to vector<32xf32> loc(#loc24)
      %441 = vector.fma %298, %437, %341 : vector<32xf32> loc(#loc24)
      %442 = memref.load %61[%124, %400] : memref<?x?xf32, strided<[?, 1]>> loc(#loc24)
      %443 = vector.broadcast %442 : f32 to vector<32xf32> loc(#loc24)
      %444 = vector.fma %298, %440, %344 : vector<32xf32> loc(#loc24)
      %445 = memref.load %61[%128, %400] : memref<?x?xf32, strided<[?, 1]>> loc(#loc24)
      %446 = vector.broadcast %445 : f32 to vector<32xf32> loc(#loc24)
      %447 = vector.fma %298, %443, %347 : vector<32xf32> loc(#loc24)
      %448 = memref.load %61[%132, %400] : memref<?x?xf32, strided<[?, 1]>> loc(#loc24)
      %449 = vector.broadcast %448 : f32 to vector<32xf32> loc(#loc24)
      %450 = vector.fma %298, %446, %350 : vector<32xf32> loc(#loc24)
      %451 = memref.load %61[%136, %400] : memref<?x?xf32, strided<[?, 1]>> loc(#loc24)
      %452 = vector.broadcast %451 : f32 to vector<32xf32> loc(#loc24)
      %453 = vector.fma %298, %449, %353 : vector<32xf32> loc(#loc24)
      %454 = memref.load %61[%140, %400] : memref<?x?xf32, strided<[?, 1]>> loc(#loc24)
      %455 = vector.broadcast %454 : f32 to vector<32xf32> loc(#loc24)
      %456 = vector.fma %298, %452, %356 : vector<32xf32> loc(#loc24)
      %457 = memref.load %61[%144, %400] : memref<?x?xf32, strided<[?, 1]>> loc(#loc24)
      %458 = vector.broadcast %457 : f32 to vector<32xf32> loc(#loc24)
      %459 = vector.fma %298, %455, %359 : vector<32xf32> loc(#loc24)
      %460 = memref.load %61[%148, %400] : memref<?x?xf32, strided<[?, 1]>> loc(#loc24)
      %461 = vector.broadcast %460 : f32 to vector<32xf32> loc(#loc24)
      %462 = vector.fma %298, %458, %362 : vector<32xf32> loc(#loc24)
      %463 = memref.load %61[%152, %400] : memref<?x?xf32, strided<[?, 1]>> loc(#loc24)
      %464 = vector.broadcast %463 : f32 to vector<32xf32> loc(#loc24)
      %465 = vector.fma %298, %461, %365 : vector<32xf32> loc(#loc24)
      %466 = memref.load %61[%156, %400] : memref<?x?xf32, strided<[?, 1]>> loc(#loc24)
      %467 = vector.broadcast %466 : f32 to vector<32xf32> loc(#loc24)
      %468 = vector.fma %298, %464, %368 : vector<32xf32> loc(#loc24)
      %469 = memref.load %61[%160, %400] : memref<?x?xf32, strided<[?, 1]>> loc(#loc24)
      %470 = vector.broadcast %469 : f32 to vector<32xf32> loc(#loc24)
      %471 = vector.fma %298, %467, %371 : vector<32xf32> loc(#loc24)
      %472 = memref.load %61[%164, %400] : memref<?x?xf32, strided<[?, 1]>> loc(#loc24)
      %473 = vector.broadcast %472 : f32 to vector<32xf32> loc(#loc24)
      %474 = vector.fma %298, %470, %374 : vector<32xf32> loc(#loc24)
      %475 = memref.load %61[%168, %400] : memref<?x?xf32, strided<[?, 1]>> loc(#loc24)
      %476 = vector.broadcast %475 : f32 to vector<32xf32> loc(#loc24)
      %477 = vector.fma %298, %473, %377 : vector<32xf32> loc(#loc24)
      %478 = memref.load %61[%172, %400] : memref<?x?xf32, strided<[?, 1]>> loc(#loc24)
      %479 = vector.broadcast %478 : f32 to vector<32xf32> loc(#loc24)
      %480 = vector.fma %298, %476, %380 : vector<32xf32> loc(#loc24)
      %481 = memref.load %61[%176, %400] : memref<?x?xf32, strided<[?, 1]>> loc(#loc24)
      %482 = vector.broadcast %481 : f32 to vector<32xf32> loc(#loc24)
      %483 = vector.fma %298, %479, %383 : vector<32xf32> loc(#loc24)
      %484 = memref.load %61[%180, %400] : memref<?x?xf32, strided<[?, 1]>> loc(#loc24)
      %485 = vector.broadcast %484 : f32 to vector<32xf32> loc(#loc24)
      %486 = vector.fma %298, %482, %386 : vector<32xf32> loc(#loc24)
      %487 = memref.load %61[%184, %400] : memref<?x?xf32, strided<[?, 1]>> loc(#loc24)
      %488 = vector.broadcast %487 : f32 to vector<32xf32> loc(#loc24)
      %489 = vector.fma %298, %485, %389 : vector<32xf32> loc(#loc24)
      %490 = memref.load %61[%188, %400] : memref<?x?xf32, strided<[?, 1]>> loc(#loc24)
      %491 = vector.broadcast %490 : f32 to vector<32xf32> loc(#loc24)
      %492 = vector.fma %298, %488, %392 : vector<32xf32> loc(#loc24)
      %493 = memref.load %61[%192, %400] : memref<?x?xf32, strided<[?, 1]>> loc(#loc24)
      %494 = vector.broadcast %493 : f32 to vector<32xf32> loc(#loc24)
      %495 = vector.fma %298, %491, %395 : vector<32xf32> loc(#loc24)
      %496 = vector.fma %298, %494, %396 : vector<32xf32> loc(#loc24)
      %497 = arith.addi %64#0, %c5 : index loc(#loc24)
      %498 = vector.load %63[%497, %64#1] : memref<?x?xf32, strided<[?, 1]>>, vector<32xf32> loc(#loc24)
      %499 = arith.addi %64#0, %c20 : index loc(#loc24)
      memref.prefetch %63[%499, %64#1], read, locality<1>, data : memref<?x?xf32, strided<[?, 1]>> loc(#loc24)
      %500 = arith.addi %62#1, %c4 : index loc(#loc24)
      %501 = memref.load %61[%62#0, %500] : memref<?x?xf32, strided<[?, 1]>> loc(#loc24)
      %502 = vector.broadcast %501 : f32 to vector<32xf32> loc(#loc24)
      %503 = memref.load %61[%72, %500] : memref<?x?xf32, strided<[?, 1]>> loc(#loc24)
      %504 = vector.broadcast %503 : f32 to vector<32xf32> loc(#loc24)
      %505 = vector.fma %398, %502, %405 : vector<32xf32> loc(#loc24)
      %506 = memref.load %61[%76, %500] : memref<?x?xf32, strided<[?, 1]>> loc(#loc24)
      %507 = vector.broadcast %506 : f32 to vector<32xf32> loc(#loc24)
      %508 = vector.fma %398, %504, %408 : vector<32xf32> loc(#loc24)
      %509 = memref.load %61[%80, %500] : memref<?x?xf32, strided<[?, 1]>> loc(#loc24)
      %510 = vector.broadcast %509 : f32 to vector<32xf32> loc(#loc24)
      %511 = vector.fma %398, %507, %411 : vector<32xf32> loc(#loc24)
      %512 = memref.load %61[%84, %500] : memref<?x?xf32, strided<[?, 1]>> loc(#loc24)
      %513 = vector.broadcast %512 : f32 to vector<32xf32> loc(#loc24)
      %514 = vector.fma %398, %510, %414 : vector<32xf32> loc(#loc24)
      %515 = memref.load %61[%88, %500] : memref<?x?xf32, strided<[?, 1]>> loc(#loc24)
      %516 = vector.broadcast %515 : f32 to vector<32xf32> loc(#loc24)
      %517 = vector.fma %398, %513, %417 : vector<32xf32> loc(#loc24)
      %518 = memref.load %61[%92, %500] : memref<?x?xf32, strided<[?, 1]>> loc(#loc24)
      %519 = vector.broadcast %518 : f32 to vector<32xf32> loc(#loc24)
      %520 = vector.fma %398, %516, %420 : vector<32xf32> loc(#loc24)
      %521 = memref.load %61[%96, %500] : memref<?x?xf32, strided<[?, 1]>> loc(#loc24)
      %522 = vector.broadcast %521 : f32 to vector<32xf32> loc(#loc24)
      %523 = vector.fma %398, %519, %423 : vector<32xf32> loc(#loc24)
      %524 = memref.load %61[%100, %500] : memref<?x?xf32, strided<[?, 1]>> loc(#loc24)
      %525 = vector.broadcast %524 : f32 to vector<32xf32> loc(#loc24)
      %526 = vector.fma %398, %522, %426 : vector<32xf32> loc(#loc24)
      %527 = memref.load %61[%104, %500] : memref<?x?xf32, strided<[?, 1]>> loc(#loc24)
      %528 = vector.broadcast %527 : f32 to vector<32xf32> loc(#loc24)
      %529 = vector.fma %398, %525, %429 : vector<32xf32> loc(#loc24)
      %530 = memref.load %61[%108, %500] : memref<?x?xf32, strided<[?, 1]>> loc(#loc24)
      %531 = vector.broadcast %530 : f32 to vector<32xf32> loc(#loc24)
      %532 = vector.fma %398, %528, %432 : vector<32xf32> loc(#loc24)
      %533 = memref.load %61[%112, %500] : memref<?x?xf32, strided<[?, 1]>> loc(#loc24)
      %534 = vector.broadcast %533 : f32 to vector<32xf32> loc(#loc24)
      %535 = vector.fma %398, %531, %435 : vector<32xf32> loc(#loc24)
      %536 = memref.load %61[%116, %500] : memref<?x?xf32, strided<[?, 1]>> loc(#loc24)
      %537 = vector.broadcast %536 : f32 to vector<32xf32> loc(#loc24)
      %538 = vector.fma %398, %534, %438 : vector<32xf32> loc(#loc24)
      %539 = memref.load %61[%120, %500] : memref<?x?xf32, strided<[?, 1]>> loc(#loc24)
      %540 = vector.broadcast %539 : f32 to vector<32xf32> loc(#loc24)
      %541 = vector.fma %398, %537, %441 : vector<32xf32> loc(#loc24)
      %542 = memref.load %61[%124, %500] : memref<?x?xf32, strided<[?, 1]>> loc(#loc24)
      %543 = vector.broadcast %542 : f32 to vector<32xf32> loc(#loc24)
      %544 = vector.fma %398, %540, %444 : vector<32xf32> loc(#loc24)
      %545 = memref.load %61[%128, %500] : memref<?x?xf32, strided<[?, 1]>> loc(#loc24)
      %546 = vector.broadcast %545 : f32 to vector<32xf32> loc(#loc24)
      %547 = vector.fma %398, %543, %447 : vector<32xf32> loc(#loc24)
      %548 = memref.load %61[%132, %500] : memref<?x?xf32, strided<[?, 1]>> loc(#loc24)
      %549 = vector.broadcast %548 : f32 to vector<32xf32> loc(#loc24)
      %550 = vector.fma %398, %546, %450 : vector<32xf32> loc(#loc24)
      %551 = memref.load %61[%136, %500] : memref<?x?xf32, strided<[?, 1]>> loc(#loc24)
      %552 = vector.broadcast %551 : f32 to vector<32xf32> loc(#loc24)
      %553 = vector.fma %398, %549, %453 : vector<32xf32> loc(#loc24)
      %554 = memref.load %61[%140, %500] : memref<?x?xf32, strided<[?, 1]>> loc(#loc24)
      %555 = vector.broadcast %554 : f32 to vector<32xf32> loc(#loc24)
      %556 = vector.fma %398, %552, %456 : vector<32xf32> loc(#loc24)
      %557 = memref.load %61[%144, %500] : memref<?x?xf32, strided<[?, 1]>> loc(#loc24)
      %558 = vector.broadcast %557 : f32 to vector<32xf32> loc(#loc24)
      %559 = vector.fma %398, %555, %459 : vector<32xf32> loc(#loc24)
      %560 = memref.load %61[%148, %500] : memref<?x?xf32, strided<[?, 1]>> loc(#loc24)
      %561 = vector.broadcast %560 : f32 to vector<32xf32> loc(#loc24)
      %562 = vector.fma %398, %558, %462 : vector<32xf32> loc(#loc24)
      %563 = memref.load %61[%152, %500] : memref<?x?xf32, strided<[?, 1]>> loc(#loc24)
      %564 = vector.broadcast %563 : f32 to vector<32xf32> loc(#loc24)
      %565 = vector.fma %398, %561, %465 : vector<32xf32> loc(#loc24)
      %566 = memref.load %61[%156, %500] : memref<?x?xf32, strided<[?, 1]>> loc(#loc24)
      %567 = vector.broadcast %566 : f32 to vector<32xf32> loc(#loc24)
      %568 = vector.fma %398, %564, %468 : vector<32xf32> loc(#loc24)
      %569 = memref.load %61[%160, %500] : memref<?x?xf32, strided<[?, 1]>> loc(#loc24)
      %570 = vector.broadcast %569 : f32 to vector<32xf32> loc(#loc24)
      %571 = vector.fma %398, %567, %471 : vector<32xf32> loc(#loc24)
      %572 = memref.load %61[%164, %500] : memref<?x?xf32, strided<[?, 1]>> loc(#loc24)
      %573 = vector.broadcast %572 : f32 to vector<32xf32> loc(#loc24)
      %574 = vector.fma %398, %570, %474 : vector<32xf32> loc(#loc24)
      %575 = memref.load %61[%168, %500] : memref<?x?xf32, strided<[?, 1]>> loc(#loc24)
      %576 = vector.broadcast %575 : f32 to vector<32xf32> loc(#loc24)
      %577 = vector.fma %398, %573, %477 : vector<32xf32> loc(#loc24)
      %578 = memref.load %61[%172, %500] : memref<?x?xf32, strided<[?, 1]>> loc(#loc24)
      %579 = vector.broadcast %578 : f32 to vector<32xf32> loc(#loc24)
      %580 = vector.fma %398, %576, %480 : vector<32xf32> loc(#loc24)
      %581 = memref.load %61[%176, %500] : memref<?x?xf32, strided<[?, 1]>> loc(#loc24)
      %582 = vector.broadcast %581 : f32 to vector<32xf32> loc(#loc24)
      %583 = vector.fma %398, %579, %483 : vector<32xf32> loc(#loc24)
      %584 = memref.load %61[%180, %500] : memref<?x?xf32, strided<[?, 1]>> loc(#loc24)
      %585 = vector.broadcast %584 : f32 to vector<32xf32> loc(#loc24)
      %586 = vector.fma %398, %582, %486 : vector<32xf32> loc(#loc24)
      %587 = memref.load %61[%184, %500] : memref<?x?xf32, strided<[?, 1]>> loc(#loc24)
      %588 = vector.broadcast %587 : f32 to vector<32xf32> loc(#loc24)
      %589 = vector.fma %398, %585, %489 : vector<32xf32> loc(#loc24)
      %590 = memref.load %61[%188, %500] : memref<?x?xf32, strided<[?, 1]>> loc(#loc24)
      %591 = vector.broadcast %590 : f32 to vector<32xf32> loc(#loc24)
      %592 = vector.fma %398, %588, %492 : vector<32xf32> loc(#loc24)
      %593 = memref.load %61[%192, %500] : memref<?x?xf32, strided<[?, 1]>> loc(#loc24)
      %594 = vector.broadcast %593 : f32 to vector<32xf32> loc(#loc24)
      %595 = vector.fma %398, %591, %495 : vector<32xf32> loc(#loc24)
      %596 = vector.fma %398, %594, %496 : vector<32xf32> loc(#loc24)
      %597 = arith.addi %64#0, %c6 : index loc(#loc24)
      %598 = vector.load %63[%597, %64#1] : memref<?x?xf32, strided<[?, 1]>>, vector<32xf32> loc(#loc24)
      %599 = arith.addi %64#0, %c21 : index loc(#loc24)
      memref.prefetch %63[%599, %64#1], read, locality<1>, data : memref<?x?xf32, strided<[?, 1]>> loc(#loc24)
      %600 = arith.addi %62#1, %c5 : index loc(#loc24)
      %601 = memref.load %61[%62#0, %600] : memref<?x?xf32, strided<[?, 1]>> loc(#loc24)
      %602 = vector.broadcast %601 : f32 to vector<32xf32> loc(#loc24)
      %603 = memref.load %61[%72, %600] : memref<?x?xf32, strided<[?, 1]>> loc(#loc24)
      %604 = vector.broadcast %603 : f32 to vector<32xf32> loc(#loc24)
      %605 = vector.fma %498, %602, %505 : vector<32xf32> loc(#loc24)
      %606 = memref.load %61[%76, %600] : memref<?x?xf32, strided<[?, 1]>> loc(#loc24)
      %607 = vector.broadcast %606 : f32 to vector<32xf32> loc(#loc24)
      %608 = vector.fma %498, %604, %508 : vector<32xf32> loc(#loc24)
      %609 = memref.load %61[%80, %600] : memref<?x?xf32, strided<[?, 1]>> loc(#loc24)
      %610 = vector.broadcast %609 : f32 to vector<32xf32> loc(#loc24)
      %611 = vector.fma %498, %607, %511 : vector<32xf32> loc(#loc24)
      %612 = memref.load %61[%84, %600] : memref<?x?xf32, strided<[?, 1]>> loc(#loc24)
      %613 = vector.broadcast %612 : f32 to vector<32xf32> loc(#loc24)
      %614 = vector.fma %498, %610, %514 : vector<32xf32> loc(#loc24)
      %615 = memref.load %61[%88, %600] : memref<?x?xf32, strided<[?, 1]>> loc(#loc24)
      %616 = vector.broadcast %615 : f32 to vector<32xf32> loc(#loc24)
      %617 = vector.fma %498, %613, %517 : vector<32xf32> loc(#loc24)
      %618 = memref.load %61[%92, %600] : memref<?x?xf32, strided<[?, 1]>> loc(#loc24)
      %619 = vector.broadcast %618 : f32 to vector<32xf32> loc(#loc24)
      %620 = vector.fma %498, %616, %520 : vector<32xf32> loc(#loc24)
      %621 = memref.load %61[%96, %600] : memref<?x?xf32, strided<[?, 1]>> loc(#loc24)
      %622 = vector.broadcast %621 : f32 to vector<32xf32> loc(#loc24)
      %623 = vector.fma %498, %619, %523 : vector<32xf32> loc(#loc24)
      %624 = memref.load %61[%100, %600] : memref<?x?xf32, strided<[?, 1]>> loc(#loc24)
      %625 = vector.broadcast %624 : f32 to vector<32xf32> loc(#loc24)
      %626 = vector.fma %498, %622, %526 : vector<32xf32> loc(#loc24)
      %627 = memref.load %61[%104, %600] : memref<?x?xf32, strided<[?, 1]>> loc(#loc24)
      %628 = vector.broadcast %627 : f32 to vector<32xf32> loc(#loc24)
      %629 = vector.fma %498, %625, %529 : vector<32xf32> loc(#loc24)
      %630 = memref.load %61[%108, %600] : memref<?x?xf32, strided<[?, 1]>> loc(#loc24)
      %631 = vector.broadcast %630 : f32 to vector<32xf32> loc(#loc24)
      %632 = vector.fma %498, %628, %532 : vector<32xf32> loc(#loc24)
      %633 = memref.load %61[%112, %600] : memref<?x?xf32, strided<[?, 1]>> loc(#loc24)
      %634 = vector.broadcast %633 : f32 to vector<32xf32> loc(#loc24)
      %635 = vector.fma %498, %631, %535 : vector<32xf32> loc(#loc24)
      %636 = memref.load %61[%116, %600] : memref<?x?xf32, strided<[?, 1]>> loc(#loc24)
      %637 = vector.broadcast %636 : f32 to vector<32xf32> loc(#loc24)
      %638 = vector.fma %498, %634, %538 : vector<32xf32> loc(#loc24)
      %639 = memref.load %61[%120, %600] : memref<?x?xf32, strided<[?, 1]>> loc(#loc24)
      %640 = vector.broadcast %639 : f32 to vector<32xf32> loc(#loc24)
      %641 = vector.fma %498, %637, %541 : vector<32xf32> loc(#loc24)
      %642 = memref.load %61[%124, %600] : memref<?x?xf32, strided<[?, 1]>> loc(#loc24)
      %643 = vector.broadcast %642 : f32 to vector<32xf32> loc(#loc24)
      %644 = vector.fma %498, %640, %544 : vector<32xf32> loc(#loc24)
      %645 = memref.load %61[%128, %600] : memref<?x?xf32, strided<[?, 1]>> loc(#loc24)
      %646 = vector.broadcast %645 : f32 to vector<32xf32> loc(#loc24)
      %647 = vector.fma %498, %643, %547 : vector<32xf32> loc(#loc24)
      %648 = memref.load %61[%132, %600] : memref<?x?xf32, strided<[?, 1]>> loc(#loc24)
      %649 = vector.broadcast %648 : f32 to vector<32xf32> loc(#loc24)
      %650 = vector.fma %498, %646, %550 : vector<32xf32> loc(#loc24)
      %651 = memref.load %61[%136, %600] : memref<?x?xf32, strided<[?, 1]>> loc(#loc24)
      %652 = vector.broadcast %651 : f32 to vector<32xf32> loc(#loc24)
      %653 = vector.fma %498, %649, %553 : vector<32xf32> loc(#loc24)
      %654 = memref.load %61[%140, %600] : memref<?x?xf32, strided<[?, 1]>> loc(#loc24)
      %655 = vector.broadcast %654 : f32 to vector<32xf32> loc(#loc24)
      %656 = vector.fma %498, %652, %556 : vector<32xf32> loc(#loc24)
      %657 = memref.load %61[%144, %600] : memref<?x?xf32, strided<[?, 1]>> loc(#loc24)
      %658 = vector.broadcast %657 : f32 to vector<32xf32> loc(#loc24)
      %659 = vector.fma %498, %655, %559 : vector<32xf32> loc(#loc24)
      %660 = memref.load %61[%148, %600] : memref<?x?xf32, strided<[?, 1]>> loc(#loc24)
      %661 = vector.broadcast %660 : f32 to vector<32xf32> loc(#loc24)
      %662 = vector.fma %498, %658, %562 : vector<32xf32> loc(#loc24)
      %663 = memref.load %61[%152, %600] : memref<?x?xf32, strided<[?, 1]>> loc(#loc24)
      %664 = vector.broadcast %663 : f32 to vector<32xf32> loc(#loc24)
      %665 = vector.fma %498, %661, %565 : vector<32xf32> loc(#loc24)
      %666 = memref.load %61[%156, %600] : memref<?x?xf32, strided<[?, 1]>> loc(#loc24)
      %667 = vector.broadcast %666 : f32 to vector<32xf32> loc(#loc24)
      %668 = vector.fma %498, %664, %568 : vector<32xf32> loc(#loc24)
      %669 = memref.load %61[%160, %600] : memref<?x?xf32, strided<[?, 1]>> loc(#loc24)
      %670 = vector.broadcast %669 : f32 to vector<32xf32> loc(#loc24)
      %671 = vector.fma %498, %667, %571 : vector<32xf32> loc(#loc24)
      %672 = memref.load %61[%164, %600] : memref<?x?xf32, strided<[?, 1]>> loc(#loc24)
      %673 = vector.broadcast %672 : f32 to vector<32xf32> loc(#loc24)
      %674 = vector.fma %498, %670, %574 : vector<32xf32> loc(#loc24)
      %675 = memref.load %61[%168, %600] : memref<?x?xf32, strided<[?, 1]>> loc(#loc24)
      %676 = vector.broadcast %675 : f32 to vector<32xf32> loc(#loc24)
      %677 = vector.fma %498, %673, %577 : vector<32xf32> loc(#loc24)
      %678 = memref.load %61[%172, %600] : memref<?x?xf32, strided<[?, 1]>> loc(#loc24)
      %679 = vector.broadcast %678 : f32 to vector<32xf32> loc(#loc24)
      %680 = vector.fma %498, %676, %580 : vector<32xf32> loc(#loc24)
      %681 = memref.load %61[%176, %600] : memref<?x?xf32, strided<[?, 1]>> loc(#loc24)
      %682 = vector.broadcast %681 : f32 to vector<32xf32> loc(#loc24)
      %683 = vector.fma %498, %679, %583 : vector<32xf32> loc(#loc24)
      %684 = memref.load %61[%180, %600] : memref<?x?xf32, strided<[?, 1]>> loc(#loc24)
      %685 = vector.broadcast %684 : f32 to vector<32xf32> loc(#loc24)
      %686 = vector.fma %498, %682, %586 : vector<32xf32> loc(#loc24)
      %687 = memref.load %61[%184, %600] : memref<?x?xf32, strided<[?, 1]>> loc(#loc24)
      %688 = vector.broadcast %687 : f32 to vector<32xf32> loc(#loc24)
      %689 = vector.fma %498, %685, %589 : vector<32xf32> loc(#loc24)
      %690 = memref.load %61[%188, %600] : memref<?x?xf32, strided<[?, 1]>> loc(#loc24)
      %691 = vector.broadcast %690 : f32 to vector<32xf32> loc(#loc24)
      %692 = vector.fma %498, %688, %592 : vector<32xf32> loc(#loc24)
      %693 = memref.load %61[%192, %600] : memref<?x?xf32, strided<[?, 1]>> loc(#loc24)
      %694 = vector.broadcast %693 : f32 to vector<32xf32> loc(#loc24)
      %695 = vector.fma %498, %691, %595 : vector<32xf32> loc(#loc24)
      %696 = vector.fma %498, %694, %596 : vector<32xf32> loc(#loc24)
      %697 = arith.addi %64#0, %c7 : index loc(#loc24)
      %698 = vector.load %63[%697, %64#1] : memref<?x?xf32, strided<[?, 1]>>, vector<32xf32> loc(#loc24)
      %699 = arith.addi %64#0, %c22 : index loc(#loc24)
      memref.prefetch %63[%699, %64#1], read, locality<1>, data : memref<?x?xf32, strided<[?, 1]>> loc(#loc24)
      %700 = arith.addi %62#1, %c6 : index loc(#loc24)
      %701 = memref.load %61[%62#0, %700] : memref<?x?xf32, strided<[?, 1]>> loc(#loc24)
      %702 = vector.broadcast %701 : f32 to vector<32xf32> loc(#loc24)
      %703 = memref.load %61[%72, %700] : memref<?x?xf32, strided<[?, 1]>> loc(#loc24)
      %704 = vector.broadcast %703 : f32 to vector<32xf32> loc(#loc24)
      %705 = vector.fma %598, %702, %605 : vector<32xf32> loc(#loc24)
      %706 = memref.load %61[%76, %700] : memref<?x?xf32, strided<[?, 1]>> loc(#loc24)
      %707 = vector.broadcast %706 : f32 to vector<32xf32> loc(#loc24)
      %708 = vector.fma %598, %704, %608 : vector<32xf32> loc(#loc24)
      %709 = memref.load %61[%80, %700] : memref<?x?xf32, strided<[?, 1]>> loc(#loc24)
      %710 = vector.broadcast %709 : f32 to vector<32xf32> loc(#loc24)
      %711 = vector.fma %598, %707, %611 : vector<32xf32> loc(#loc24)
      %712 = memref.load %61[%84, %700] : memref<?x?xf32, strided<[?, 1]>> loc(#loc24)
      %713 = vector.broadcast %712 : f32 to vector<32xf32> loc(#loc24)
      %714 = vector.fma %598, %710, %614 : vector<32xf32> loc(#loc24)
      %715 = memref.load %61[%88, %700] : memref<?x?xf32, strided<[?, 1]>> loc(#loc24)
      %716 = vector.broadcast %715 : f32 to vector<32xf32> loc(#loc24)
      %717 = vector.fma %598, %713, %617 : vector<32xf32> loc(#loc24)
      %718 = memref.load %61[%92, %700] : memref<?x?xf32, strided<[?, 1]>> loc(#loc24)
      %719 = vector.broadcast %718 : f32 to vector<32xf32> loc(#loc24)
      %720 = vector.fma %598, %716, %620 : vector<32xf32> loc(#loc24)
      %721 = memref.load %61[%96, %700] : memref<?x?xf32, strided<[?, 1]>> loc(#loc24)
      %722 = vector.broadcast %721 : f32 to vector<32xf32> loc(#loc24)
      %723 = vector.fma %598, %719, %623 : vector<32xf32> loc(#loc24)
      %724 = memref.load %61[%100, %700] : memref<?x?xf32, strided<[?, 1]>> loc(#loc24)
      %725 = vector.broadcast %724 : f32 to vector<32xf32> loc(#loc24)
      %726 = vector.fma %598, %722, %626 : vector<32xf32> loc(#loc24)
      %727 = memref.load %61[%104, %700] : memref<?x?xf32, strided<[?, 1]>> loc(#loc24)
      %728 = vector.broadcast %727 : f32 to vector<32xf32> loc(#loc24)
      %729 = vector.fma %598, %725, %629 : vector<32xf32> loc(#loc24)
      %730 = memref.load %61[%108, %700] : memref<?x?xf32, strided<[?, 1]>> loc(#loc24)
      %731 = vector.broadcast %730 : f32 to vector<32xf32> loc(#loc24)
      %732 = vector.fma %598, %728, %632 : vector<32xf32> loc(#loc24)
      %733 = memref.load %61[%112, %700] : memref<?x?xf32, strided<[?, 1]>> loc(#loc24)
      %734 = vector.broadcast %733 : f32 to vector<32xf32> loc(#loc24)
      %735 = vector.fma %598, %731, %635 : vector<32xf32> loc(#loc24)
      %736 = memref.load %61[%116, %700] : memref<?x?xf32, strided<[?, 1]>> loc(#loc24)
      %737 = vector.broadcast %736 : f32 to vector<32xf32> loc(#loc24)
      %738 = vector.fma %598, %734, %638 : vector<32xf32> loc(#loc24)
      %739 = memref.load %61[%120, %700] : memref<?x?xf32, strided<[?, 1]>> loc(#loc24)
      %740 = vector.broadcast %739 : f32 to vector<32xf32> loc(#loc24)
      %741 = vector.fma %598, %737, %641 : vector<32xf32> loc(#loc24)
      %742 = memref.load %61[%124, %700] : memref<?x?xf32, strided<[?, 1]>> loc(#loc24)
      %743 = vector.broadcast %742 : f32 to vector<32xf32> loc(#loc24)
      %744 = vector.fma %598, %740, %644 : vector<32xf32> loc(#loc24)
      %745 = memref.load %61[%128, %700] : memref<?x?xf32, strided<[?, 1]>> loc(#loc24)
      %746 = vector.broadcast %745 : f32 to vector<32xf32> loc(#loc24)
      %747 = vector.fma %598, %743, %647 : vector<32xf32> loc(#loc24)
      %748 = memref.load %61[%132, %700] : memref<?x?xf32, strided<[?, 1]>> loc(#loc24)
      %749 = vector.broadcast %748 : f32 to vector<32xf32> loc(#loc24)
      %750 = vector.fma %598, %746, %650 : vector<32xf32> loc(#loc24)
      %751 = memref.load %61[%136, %700] : memref<?x?xf32, strided<[?, 1]>> loc(#loc24)
      %752 = vector.broadcast %751 : f32 to vector<32xf32> loc(#loc24)
      %753 = vector.fma %598, %749, %653 : vector<32xf32> loc(#loc24)
      %754 = memref.load %61[%140, %700] : memref<?x?xf32, strided<[?, 1]>> loc(#loc24)
      %755 = vector.broadcast %754 : f32 to vector<32xf32> loc(#loc24)
      %756 = vector.fma %598, %752, %656 : vector<32xf32> loc(#loc24)
      %757 = memref.load %61[%144, %700] : memref<?x?xf32, strided<[?, 1]>> loc(#loc24)
      %758 = vector.broadcast %757 : f32 to vector<32xf32> loc(#loc24)
      %759 = vector.fma %598, %755, %659 : vector<32xf32> loc(#loc24)
      %760 = memref.load %61[%148, %700] : memref<?x?xf32, strided<[?, 1]>> loc(#loc24)
      %761 = vector.broadcast %760 : f32 to vector<32xf32> loc(#loc24)
      %762 = vector.fma %598, %758, %662 : vector<32xf32> loc(#loc24)
      %763 = memref.load %61[%152, %700] : memref<?x?xf32, strided<[?, 1]>> loc(#loc24)
      %764 = vector.broadcast %763 : f32 to vector<32xf32> loc(#loc24)
      %765 = vector.fma %598, %761, %665 : vector<32xf32> loc(#loc24)
      %766 = memref.load %61[%156, %700] : memref<?x?xf32, strided<[?, 1]>> loc(#loc24)
      %767 = vector.broadcast %766 : f32 to vector<32xf32> loc(#loc24)
      %768 = vector.fma %598, %764, %668 : vector<32xf32> loc(#loc24)
      %769 = memref.load %61[%160, %700] : memref<?x?xf32, strided<[?, 1]>> loc(#loc24)
      %770 = vector.broadcast %769 : f32 to vector<32xf32> loc(#loc24)
      %771 = vector.fma %598, %767, %671 : vector<32xf32> loc(#loc24)
      %772 = memref.load %61[%164, %700] : memref<?x?xf32, strided<[?, 1]>> loc(#loc24)
      %773 = vector.broadcast %772 : f32 to vector<32xf32> loc(#loc24)
      %774 = vector.fma %598, %770, %674 : vector<32xf32> loc(#loc24)
      %775 = memref.load %61[%168, %700] : memref<?x?xf32, strided<[?, 1]>> loc(#loc24)
      %776 = vector.broadcast %775 : f32 to vector<32xf32> loc(#loc24)
      %777 = vector.fma %598, %773, %677 : vector<32xf32> loc(#loc24)
      %778 = memref.load %61[%172, %700] : memref<?x?xf32, strided<[?, 1]>> loc(#loc24)
      %779 = vector.broadcast %778 : f32 to vector<32xf32> loc(#loc24)
      %780 = vector.fma %598, %776, %680 : vector<32xf32> loc(#loc24)
      %781 = memref.load %61[%176, %700] : memref<?x?xf32, strided<[?, 1]>> loc(#loc24)
      %782 = vector.broadcast %781 : f32 to vector<32xf32> loc(#loc24)
      %783 = vector.fma %598, %779, %683 : vector<32xf32> loc(#loc24)
      %784 = memref.load %61[%180, %700] : memref<?x?xf32, strided<[?, 1]>> loc(#loc24)
      %785 = vector.broadcast %784 : f32 to vector<32xf32> loc(#loc24)
      %786 = vector.fma %598, %782, %686 : vector<32xf32> loc(#loc24)
      %787 = memref.load %61[%184, %700] : memref<?x?xf32, strided<[?, 1]>> loc(#loc24)
      %788 = vector.broadcast %787 : f32 to vector<32xf32> loc(#loc24)
      %789 = vector.fma %598, %785, %689 : vector<32xf32> loc(#loc24)
      %790 = memref.load %61[%188, %700] : memref<?x?xf32, strided<[?, 1]>> loc(#loc24)
      %791 = vector.broadcast %790 : f32 to vector<32xf32> loc(#loc24)
      %792 = vector.fma %598, %788, %692 : vector<32xf32> loc(#loc24)
      %793 = memref.load %61[%192, %700] : memref<?x?xf32, strided<[?, 1]>> loc(#loc24)
      %794 = vector.broadcast %793 : f32 to vector<32xf32> loc(#loc24)
      %795 = vector.fma %598, %791, %695 : vector<32xf32> loc(#loc24)
      %796 = vector.fma %598, %794, %696 : vector<32xf32> loc(#loc24)
      %797 = arith.addi %64#0, %c8 : index loc(#loc24)
      %798 = vector.load %63[%797, %64#1] : memref<?x?xf32, strided<[?, 1]>>, vector<32xf32> loc(#loc24)
      %799 = arith.addi %64#0, %c23 : index loc(#loc24)
      memref.prefetch %63[%799, %64#1], read, locality<1>, data : memref<?x?xf32, strided<[?, 1]>> loc(#loc24)
      %800 = arith.addi %62#1, %c7 : index loc(#loc24)
      %801 = memref.load %61[%62#0, %800] : memref<?x?xf32, strided<[?, 1]>> loc(#loc24)
      %802 = vector.broadcast %801 : f32 to vector<32xf32> loc(#loc24)
      %803 = memref.load %61[%72, %800] : memref<?x?xf32, strided<[?, 1]>> loc(#loc24)
      %804 = vector.broadcast %803 : f32 to vector<32xf32> loc(#loc24)
      %805 = vector.fma %698, %802, %705 : vector<32xf32> loc(#loc24)
      %806 = memref.load %61[%76, %800] : memref<?x?xf32, strided<[?, 1]>> loc(#loc24)
      %807 = vector.broadcast %806 : f32 to vector<32xf32> loc(#loc24)
      %808 = vector.fma %698, %804, %708 : vector<32xf32> loc(#loc24)
      %809 = memref.load %61[%80, %800] : memref<?x?xf32, strided<[?, 1]>> loc(#loc24)
      %810 = vector.broadcast %809 : f32 to vector<32xf32> loc(#loc24)
      %811 = vector.fma %698, %807, %711 : vector<32xf32> loc(#loc24)
      %812 = memref.load %61[%84, %800] : memref<?x?xf32, strided<[?, 1]>> loc(#loc24)
      %813 = vector.broadcast %812 : f32 to vector<32xf32> loc(#loc24)
      %814 = vector.fma %698, %810, %714 : vector<32xf32> loc(#loc24)
      %815 = memref.load %61[%88, %800] : memref<?x?xf32, strided<[?, 1]>> loc(#loc24)
      %816 = vector.broadcast %815 : f32 to vector<32xf32> loc(#loc24)
      %817 = vector.fma %698, %813, %717 : vector<32xf32> loc(#loc24)
      %818 = memref.load %61[%92, %800] : memref<?x?xf32, strided<[?, 1]>> loc(#loc24)
      %819 = vector.broadcast %818 : f32 to vector<32xf32> loc(#loc24)
      %820 = vector.fma %698, %816, %720 : vector<32xf32> loc(#loc24)
      %821 = memref.load %61[%96, %800] : memref<?x?xf32, strided<[?, 1]>> loc(#loc24)
      %822 = vector.broadcast %821 : f32 to vector<32xf32> loc(#loc24)
      %823 = vector.fma %698, %819, %723 : vector<32xf32> loc(#loc24)
      %824 = memref.load %61[%100, %800] : memref<?x?xf32, strided<[?, 1]>> loc(#loc24)
      %825 = vector.broadcast %824 : f32 to vector<32xf32> loc(#loc24)
      %826 = vector.fma %698, %822, %726 : vector<32xf32> loc(#loc24)
      %827 = memref.load %61[%104, %800] : memref<?x?xf32, strided<[?, 1]>> loc(#loc24)
      %828 = vector.broadcast %827 : f32 to vector<32xf32> loc(#loc24)
      %829 = vector.fma %698, %825, %729 : vector<32xf32> loc(#loc24)
      %830 = memref.load %61[%108, %800] : memref<?x?xf32, strided<[?, 1]>> loc(#loc24)
      %831 = vector.broadcast %830 : f32 to vector<32xf32> loc(#loc24)
      %832 = vector.fma %698, %828, %732 : vector<32xf32> loc(#loc24)
      %833 = memref.load %61[%112, %800] : memref<?x?xf32, strided<[?, 1]>> loc(#loc24)
      %834 = vector.broadcast %833 : f32 to vector<32xf32> loc(#loc24)
      %835 = vector.fma %698, %831, %735 : vector<32xf32> loc(#loc24)
      %836 = memref.load %61[%116, %800] : memref<?x?xf32, strided<[?, 1]>> loc(#loc24)
      %837 = vector.broadcast %836 : f32 to vector<32xf32> loc(#loc24)
      %838 = vector.fma %698, %834, %738 : vector<32xf32> loc(#loc24)
      %839 = memref.load %61[%120, %800] : memref<?x?xf32, strided<[?, 1]>> loc(#loc24)
      %840 = vector.broadcast %839 : f32 to vector<32xf32> loc(#loc24)
      %841 = vector.fma %698, %837, %741 : vector<32xf32> loc(#loc24)
      %842 = memref.load %61[%124, %800] : memref<?x?xf32, strided<[?, 1]>> loc(#loc24)
      %843 = vector.broadcast %842 : f32 to vector<32xf32> loc(#loc24)
      %844 = vector.fma %698, %840, %744 : vector<32xf32> loc(#loc24)
      %845 = memref.load %61[%128, %800] : memref<?x?xf32, strided<[?, 1]>> loc(#loc24)
      %846 = vector.broadcast %845 : f32 to vector<32xf32> loc(#loc24)
      %847 = vector.fma %698, %843, %747 : vector<32xf32> loc(#loc24)
      %848 = memref.load %61[%132, %800] : memref<?x?xf32, strided<[?, 1]>> loc(#loc24)
      %849 = vector.broadcast %848 : f32 to vector<32xf32> loc(#loc24)
      %850 = vector.fma %698, %846, %750 : vector<32xf32> loc(#loc24)
      %851 = memref.load %61[%136, %800] : memref<?x?xf32, strided<[?, 1]>> loc(#loc24)
      %852 = vector.broadcast %851 : f32 to vector<32xf32> loc(#loc24)
      %853 = vector.fma %698, %849, %753 : vector<32xf32> loc(#loc24)
      %854 = memref.load %61[%140, %800] : memref<?x?xf32, strided<[?, 1]>> loc(#loc24)
      %855 = vector.broadcast %854 : f32 to vector<32xf32> loc(#loc24)
      %856 = vector.fma %698, %852, %756 : vector<32xf32> loc(#loc24)
      %857 = memref.load %61[%144, %800] : memref<?x?xf32, strided<[?, 1]>> loc(#loc24)
      %858 = vector.broadcast %857 : f32 to vector<32xf32> loc(#loc24)
      %859 = vector.fma %698, %855, %759 : vector<32xf32> loc(#loc24)
      %860 = memref.load %61[%148, %800] : memref<?x?xf32, strided<[?, 1]>> loc(#loc24)
      %861 = vector.broadcast %860 : f32 to vector<32xf32> loc(#loc24)
      %862 = vector.fma %698, %858, %762 : vector<32xf32> loc(#loc24)
      %863 = memref.load %61[%152, %800] : memref<?x?xf32, strided<[?, 1]>> loc(#loc24)
      %864 = vector.broadcast %863 : f32 to vector<32xf32> loc(#loc24)
      %865 = vector.fma %698, %861, %765 : vector<32xf32> loc(#loc24)
      %866 = memref.load %61[%156, %800] : memref<?x?xf32, strided<[?, 1]>> loc(#loc24)
      %867 = vector.broadcast %866 : f32 to vector<32xf32> loc(#loc24)
      %868 = vector.fma %698, %864, %768 : vector<32xf32> loc(#loc24)
      %869 = memref.load %61[%160, %800] : memref<?x?xf32, strided<[?, 1]>> loc(#loc24)
      %870 = vector.broadcast %869 : f32 to vector<32xf32> loc(#loc24)
      %871 = vector.fma %698, %867, %771 : vector<32xf32> loc(#loc24)
      %872 = memref.load %61[%164, %800] : memref<?x?xf32, strided<[?, 1]>> loc(#loc24)
      %873 = vector.broadcast %872 : f32 to vector<32xf32> loc(#loc24)
      %874 = vector.fma %698, %870, %774 : vector<32xf32> loc(#loc24)
      %875 = memref.load %61[%168, %800] : memref<?x?xf32, strided<[?, 1]>> loc(#loc24)
      %876 = vector.broadcast %875 : f32 to vector<32xf32> loc(#loc24)
      %877 = vector.fma %698, %873, %777 : vector<32xf32> loc(#loc24)
      %878 = memref.load %61[%172, %800] : memref<?x?xf32, strided<[?, 1]>> loc(#loc24)
      %879 = vector.broadcast %878 : f32 to vector<32xf32> loc(#loc24)
      %880 = vector.fma %698, %876, %780 : vector<32xf32> loc(#loc24)
      %881 = memref.load %61[%176, %800] : memref<?x?xf32, strided<[?, 1]>> loc(#loc24)
      %882 = vector.broadcast %881 : f32 to vector<32xf32> loc(#loc24)
      %883 = vector.fma %698, %879, %783 : vector<32xf32> loc(#loc24)
      %884 = memref.load %61[%180, %800] : memref<?x?xf32, strided<[?, 1]>> loc(#loc24)
      %885 = vector.broadcast %884 : f32 to vector<32xf32> loc(#loc24)
      %886 = vector.fma %698, %882, %786 : vector<32xf32> loc(#loc24)
      %887 = memref.load %61[%184, %800] : memref<?x?xf32, strided<[?, 1]>> loc(#loc24)
      %888 = vector.broadcast %887 : f32 to vector<32xf32> loc(#loc24)
      %889 = vector.fma %698, %885, %789 : vector<32xf32> loc(#loc24)
      %890 = memref.load %61[%188, %800] : memref<?x?xf32, strided<[?, 1]>> loc(#loc24)
      %891 = vector.broadcast %890 : f32 to vector<32xf32> loc(#loc24)
      %892 = vector.fma %698, %888, %792 : vector<32xf32> loc(#loc24)
      %893 = memref.load %61[%192, %800] : memref<?x?xf32, strided<[?, 1]>> loc(#loc24)
      %894 = vector.broadcast %893 : f32 to vector<32xf32> loc(#loc24)
      %895 = vector.fma %698, %891, %795 : vector<32xf32> loc(#loc24)
      %896 = vector.fma %698, %894, %796 : vector<32xf32> loc(#loc24)
      %897 = arith.addi %64#0, %c9 : index loc(#loc24)
      %898 = vector.load %63[%897, %64#1] : memref<?x?xf32, strided<[?, 1]>>, vector<32xf32> loc(#loc24)
      %899 = arith.addi %64#0, %c24 : index loc(#loc24)
      memref.prefetch %63[%899, %64#1], read, locality<1>, data : memref<?x?xf32, strided<[?, 1]>> loc(#loc24)
      %900 = arith.addi %62#1, %c8 : index loc(#loc24)
      %901 = memref.load %61[%62#0, %900] : memref<?x?xf32, strided<[?, 1]>> loc(#loc24)
      %902 = vector.broadcast %901 : f32 to vector<32xf32> loc(#loc24)
      %903 = memref.load %61[%72, %900] : memref<?x?xf32, strided<[?, 1]>> loc(#loc24)
      %904 = vector.broadcast %903 : f32 to vector<32xf32> loc(#loc24)
      %905 = arith.addi %62#1, %c24 : index loc(#loc24)
      memref.prefetch %61[%62#0, %905], read, locality<3>, data : memref<?x?xf32, strided<[?, 1]>> loc(#loc24)
      %906 = vector.fma %798, %902, %805 : vector<32xf32> loc(#loc24)
      %907 = memref.load %61[%76, %900] : memref<?x?xf32, strided<[?, 1]>> loc(#loc24)
      %908 = vector.broadcast %907 : f32 to vector<32xf32> loc(#loc24)
      memref.prefetch %61[%72, %905], read, locality<3>, data : memref<?x?xf32, strided<[?, 1]>> loc(#loc24)
      %909 = vector.fma %798, %904, %808 : vector<32xf32> loc(#loc24)
      %910 = memref.load %61[%80, %900] : memref<?x?xf32, strided<[?, 1]>> loc(#loc24)
      %911 = vector.broadcast %910 : f32 to vector<32xf32> loc(#loc24)
      memref.prefetch %61[%76, %905], read, locality<3>, data : memref<?x?xf32, strided<[?, 1]>> loc(#loc24)
      %912 = vector.fma %798, %908, %811 : vector<32xf32> loc(#loc24)
      %913 = memref.load %61[%84, %900] : memref<?x?xf32, strided<[?, 1]>> loc(#loc24)
      %914 = vector.broadcast %913 : f32 to vector<32xf32> loc(#loc24)
      memref.prefetch %61[%80, %905], read, locality<3>, data : memref<?x?xf32, strided<[?, 1]>> loc(#loc24)
      %915 = vector.fma %798, %911, %814 : vector<32xf32> loc(#loc24)
      %916 = memref.load %61[%88, %900] : memref<?x?xf32, strided<[?, 1]>> loc(#loc24)
      %917 = vector.broadcast %916 : f32 to vector<32xf32> loc(#loc24)
      memref.prefetch %61[%84, %905], read, locality<3>, data : memref<?x?xf32, strided<[?, 1]>> loc(#loc24)
      %918 = vector.fma %798, %914, %817 : vector<32xf32> loc(#loc24)
      %919 = memref.load %61[%92, %900] : memref<?x?xf32, strided<[?, 1]>> loc(#loc24)
      %920 = vector.broadcast %919 : f32 to vector<32xf32> loc(#loc24)
      memref.prefetch %61[%88, %905], read, locality<3>, data : memref<?x?xf32, strided<[?, 1]>> loc(#loc24)
      %921 = vector.fma %798, %917, %820 : vector<32xf32> loc(#loc24)
      %922 = memref.load %61[%96, %900] : memref<?x?xf32, strided<[?, 1]>> loc(#loc24)
      %923 = vector.broadcast %922 : f32 to vector<32xf32> loc(#loc24)
      memref.prefetch %61[%92, %905], read, locality<3>, data : memref<?x?xf32, strided<[?, 1]>> loc(#loc24)
      %924 = vector.fma %798, %920, %823 : vector<32xf32> loc(#loc24)
      %925 = memref.load %61[%100, %900] : memref<?x?xf32, strided<[?, 1]>> loc(#loc24)
      %926 = vector.broadcast %925 : f32 to vector<32xf32> loc(#loc24)
      memref.prefetch %61[%96, %905], read, locality<3>, data : memref<?x?xf32, strided<[?, 1]>> loc(#loc24)
      %927 = vector.fma %798, %923, %826 : vector<32xf32> loc(#loc24)
      %928 = memref.load %61[%104, %900] : memref<?x?xf32, strided<[?, 1]>> loc(#loc24)
      %929 = vector.broadcast %928 : f32 to vector<32xf32> loc(#loc24)
      memref.prefetch %61[%100, %905], read, locality<3>, data : memref<?x?xf32, strided<[?, 1]>> loc(#loc24)
      %930 = vector.fma %798, %926, %829 : vector<32xf32> loc(#loc24)
      %931 = memref.load %61[%108, %900] : memref<?x?xf32, strided<[?, 1]>> loc(#loc24)
      %932 = vector.broadcast %931 : f32 to vector<32xf32> loc(#loc24)
      memref.prefetch %61[%104, %905], read, locality<3>, data : memref<?x?xf32, strided<[?, 1]>> loc(#loc24)
      %933 = vector.fma %798, %929, %832 : vector<32xf32> loc(#loc24)
      %934 = memref.load %61[%112, %900] : memref<?x?xf32, strided<[?, 1]>> loc(#loc24)
      %935 = vector.broadcast %934 : f32 to vector<32xf32> loc(#loc24)
      memref.prefetch %61[%108, %905], read, locality<3>, data : memref<?x?xf32, strided<[?, 1]>> loc(#loc24)
      %936 = vector.fma %798, %932, %835 : vector<32xf32> loc(#loc24)
      %937 = memref.load %61[%116, %900] : memref<?x?xf32, strided<[?, 1]>> loc(#loc24)
      %938 = vector.broadcast %937 : f32 to vector<32xf32> loc(#loc24)
      memref.prefetch %61[%112, %905], read, locality<3>, data : memref<?x?xf32, strided<[?, 1]>> loc(#loc24)
      %939 = vector.fma %798, %935, %838 : vector<32xf32> loc(#loc24)
      %940 = memref.load %61[%120, %900] : memref<?x?xf32, strided<[?, 1]>> loc(#loc24)
      %941 = vector.broadcast %940 : f32 to vector<32xf32> loc(#loc24)
      memref.prefetch %61[%116, %905], read, locality<3>, data : memref<?x?xf32, strided<[?, 1]>> loc(#loc24)
      %942 = vector.fma %798, %938, %841 : vector<32xf32> loc(#loc24)
      %943 = memref.load %61[%124, %900] : memref<?x?xf32, strided<[?, 1]>> loc(#loc24)
      %944 = vector.broadcast %943 : f32 to vector<32xf32> loc(#loc24)
      memref.prefetch %61[%120, %905], read, locality<3>, data : memref<?x?xf32, strided<[?, 1]>> loc(#loc24)
      %945 = vector.fma %798, %941, %844 : vector<32xf32> loc(#loc24)
      %946 = memref.load %61[%128, %900] : memref<?x?xf32, strided<[?, 1]>> loc(#loc24)
      %947 = vector.broadcast %946 : f32 to vector<32xf32> loc(#loc24)
      memref.prefetch %61[%124, %905], read, locality<3>, data : memref<?x?xf32, strided<[?, 1]>> loc(#loc24)
      %948 = vector.fma %798, %944, %847 : vector<32xf32> loc(#loc24)
      %949 = memref.load %61[%132, %900] : memref<?x?xf32, strided<[?, 1]>> loc(#loc24)
      %950 = vector.broadcast %949 : f32 to vector<32xf32> loc(#loc24)
      memref.prefetch %61[%128, %905], read, locality<3>, data : memref<?x?xf32, strided<[?, 1]>> loc(#loc24)
      %951 = vector.fma %798, %947, %850 : vector<32xf32> loc(#loc24)
      %952 = memref.load %61[%136, %900] : memref<?x?xf32, strided<[?, 1]>> loc(#loc24)
      %953 = vector.broadcast %952 : f32 to vector<32xf32> loc(#loc24)
      memref.prefetch %61[%132, %905], read, locality<3>, data : memref<?x?xf32, strided<[?, 1]>> loc(#loc24)
      %954 = vector.fma %798, %950, %853 : vector<32xf32> loc(#loc24)
      %955 = memref.load %61[%140, %900] : memref<?x?xf32, strided<[?, 1]>> loc(#loc24)
      %956 = vector.broadcast %955 : f32 to vector<32xf32> loc(#loc24)
      memref.prefetch %61[%136, %905], read, locality<3>, data : memref<?x?xf32, strided<[?, 1]>> loc(#loc24)
      %957 = vector.fma %798, %953, %856 : vector<32xf32> loc(#loc24)
      %958 = memref.load %61[%144, %900] : memref<?x?xf32, strided<[?, 1]>> loc(#loc24)
      %959 = vector.broadcast %958 : f32 to vector<32xf32> loc(#loc24)
      memref.prefetch %61[%140, %905], read, locality<3>, data : memref<?x?xf32, strided<[?, 1]>> loc(#loc24)
      %960 = vector.fma %798, %956, %859 : vector<32xf32> loc(#loc24)
      %961 = memref.load %61[%148, %900] : memref<?x?xf32, strided<[?, 1]>> loc(#loc24)
      %962 = vector.broadcast %961 : f32 to vector<32xf32> loc(#loc24)
      memref.prefetch %61[%144, %905], read, locality<3>, data : memref<?x?xf32, strided<[?, 1]>> loc(#loc24)
      %963 = vector.fma %798, %959, %862 : vector<32xf32> loc(#loc24)
      %964 = memref.load %61[%152, %900] : memref<?x?xf32, strided<[?, 1]>> loc(#loc24)
      %965 = vector.broadcast %964 : f32 to vector<32xf32> loc(#loc24)
      memref.prefetch %61[%148, %905], read, locality<3>, data : memref<?x?xf32, strided<[?, 1]>> loc(#loc24)
      %966 = vector.fma %798, %962, %865 : vector<32xf32> loc(#loc24)
      %967 = memref.load %61[%156, %900] : memref<?x?xf32, strided<[?, 1]>> loc(#loc24)
      %968 = vector.broadcast %967 : f32 to vector<32xf32> loc(#loc24)
      memref.prefetch %61[%152, %905], read, locality<3>, data : memref<?x?xf32, strided<[?, 1]>> loc(#loc24)
      %969 = vector.fma %798, %965, %868 : vector<32xf32> loc(#loc24)
      %970 = memref.load %61[%160, %900] : memref<?x?xf32, strided<[?, 1]>> loc(#loc24)
      %971 = vector.broadcast %970 : f32 to vector<32xf32> loc(#loc24)
      memref.prefetch %61[%156, %905], read, locality<3>, data : memref<?x?xf32, strided<[?, 1]>> loc(#loc24)
      %972 = vector.fma %798, %968, %871 : vector<32xf32> loc(#loc24)
      %973 = memref.load %61[%164, %900] : memref<?x?xf32, strided<[?, 1]>> loc(#loc24)
      %974 = vector.broadcast %973 : f32 to vector<32xf32> loc(#loc24)
      memref.prefetch %61[%160, %905], read, locality<3>, data : memref<?x?xf32, strided<[?, 1]>> loc(#loc24)
      %975 = vector.fma %798, %971, %874 : vector<32xf32> loc(#loc24)
      %976 = memref.load %61[%168, %900] : memref<?x?xf32, strided<[?, 1]>> loc(#loc24)
      %977 = vector.broadcast %976 : f32 to vector<32xf32> loc(#loc24)
      memref.prefetch %61[%164, %905], read, locality<3>, data : memref<?x?xf32, strided<[?, 1]>> loc(#loc24)
      %978 = vector.fma %798, %974, %877 : vector<32xf32> loc(#loc24)
      %979 = memref.load %61[%172, %900] : memref<?x?xf32, strided<[?, 1]>> loc(#loc24)
      %980 = vector.broadcast %979 : f32 to vector<32xf32> loc(#loc24)
      memref.prefetch %61[%168, %905], read, locality<3>, data : memref<?x?xf32, strided<[?, 1]>> loc(#loc24)
      %981 = vector.fma %798, %977, %880 : vector<32xf32> loc(#loc24)
      %982 = memref.load %61[%176, %900] : memref<?x?xf32, strided<[?, 1]>> loc(#loc24)
      %983 = vector.broadcast %982 : f32 to vector<32xf32> loc(#loc24)
      memref.prefetch %61[%172, %905], read, locality<3>, data : memref<?x?xf32, strided<[?, 1]>> loc(#loc24)
      %984 = vector.fma %798, %980, %883 : vector<32xf32> loc(#loc24)
      %985 = memref.load %61[%180, %900] : memref<?x?xf32, strided<[?, 1]>> loc(#loc24)
      %986 = vector.broadcast %985 : f32 to vector<32xf32> loc(#loc24)
      memref.prefetch %61[%176, %905], read, locality<3>, data : memref<?x?xf32, strided<[?, 1]>> loc(#loc24)
      %987 = vector.fma %798, %983, %886 : vector<32xf32> loc(#loc24)
      %988 = memref.load %61[%184, %900] : memref<?x?xf32, strided<[?, 1]>> loc(#loc24)
      %989 = vector.broadcast %988 : f32 to vector<32xf32> loc(#loc24)
      memref.prefetch %61[%180, %905], read, locality<3>, data : memref<?x?xf32, strided<[?, 1]>> loc(#loc24)
      %990 = vector.fma %798, %986, %889 : vector<32xf32> loc(#loc24)
      %991 = memref.load %61[%188, %900] : memref<?x?xf32, strided<[?, 1]>> loc(#loc24)
      %992 = vector.broadcast %991 : f32 to vector<32xf32> loc(#loc24)
      memref.prefetch %61[%184, %905], read, locality<3>, data : memref<?x?xf32, strided<[?, 1]>> loc(#loc24)
      %993 = vector.fma %798, %989, %892 : vector<32xf32> loc(#loc24)
      %994 = memref.load %61[%192, %900] : memref<?x?xf32, strided<[?, 1]>> loc(#loc24)
      %995 = vector.broadcast %994 : f32 to vector<32xf32> loc(#loc24)
      memref.prefetch %61[%188, %905], read, locality<3>, data : memref<?x?xf32, strided<[?, 1]>> loc(#loc24)
      %996 = vector.fma %798, %992, %895 : vector<32xf32> loc(#loc24)
      memref.prefetch %61[%192, %905], read, locality<3>, data : memref<?x?xf32, strided<[?, 1]>> loc(#loc24)
      %997 = vector.fma %798, %995, %896 : vector<32xf32> loc(#loc24)
      %998 = arith.addi %64#0, %c10 : index loc(#loc24)
      %999 = vector.load %63[%998, %64#1] : memref<?x?xf32, strided<[?, 1]>>, vector<32xf32> loc(#loc24)
      %1000 = arith.addi %64#0, %c25 : index loc(#loc24)
      memref.prefetch %63[%1000, %64#1], read, locality<1>, data : memref<?x?xf32, strided<[?, 1]>> loc(#loc24)
      %1001 = arith.addi %62#1, %c9 : index loc(#loc24)
      %1002 = memref.load %61[%62#0, %1001] : memref<?x?xf32, strided<[?, 1]>> loc(#loc24)
      %1003 = vector.broadcast %1002 : f32 to vector<32xf32> loc(#loc24)
      %1004 = memref.load %61[%72, %1001] : memref<?x?xf32, strided<[?, 1]>> loc(#loc24)
      %1005 = vector.broadcast %1004 : f32 to vector<32xf32> loc(#loc24)
      %1006 = vector.fma %898, %1003, %906 : vector<32xf32> loc(#loc24)
      %1007 = memref.load %61[%76, %1001] : memref<?x?xf32, strided<[?, 1]>> loc(#loc24)
      %1008 = vector.broadcast %1007 : f32 to vector<32xf32> loc(#loc24)
      %1009 = vector.fma %898, %1005, %909 : vector<32xf32> loc(#loc24)
      %1010 = memref.load %61[%80, %1001] : memref<?x?xf32, strided<[?, 1]>> loc(#loc24)
      %1011 = vector.broadcast %1010 : f32 to vector<32xf32> loc(#loc24)
      %1012 = vector.fma %898, %1008, %912 : vector<32xf32> loc(#loc24)
      %1013 = memref.load %61[%84, %1001] : memref<?x?xf32, strided<[?, 1]>> loc(#loc24)
      %1014 = vector.broadcast %1013 : f32 to vector<32xf32> loc(#loc24)
      %1015 = vector.fma %898, %1011, %915 : vector<32xf32> loc(#loc24)
      %1016 = memref.load %61[%88, %1001] : memref<?x?xf32, strided<[?, 1]>> loc(#loc24)
      %1017 = vector.broadcast %1016 : f32 to vector<32xf32> loc(#loc24)
      %1018 = vector.fma %898, %1014, %918 : vector<32xf32> loc(#loc24)
      %1019 = memref.load %61[%92, %1001] : memref<?x?xf32, strided<[?, 1]>> loc(#loc24)
      %1020 = vector.broadcast %1019 : f32 to vector<32xf32> loc(#loc24)
      %1021 = vector.fma %898, %1017, %921 : vector<32xf32> loc(#loc24)
      %1022 = memref.load %61[%96, %1001] : memref<?x?xf32, strided<[?, 1]>> loc(#loc24)
      %1023 = vector.broadcast %1022 : f32 to vector<32xf32> loc(#loc24)
      %1024 = vector.fma %898, %1020, %924 : vector<32xf32> loc(#loc24)
      %1025 = memref.load %61[%100, %1001] : memref<?x?xf32, strided<[?, 1]>> loc(#loc24)
      %1026 = vector.broadcast %1025 : f32 to vector<32xf32> loc(#loc24)
      %1027 = vector.fma %898, %1023, %927 : vector<32xf32> loc(#loc24)
      %1028 = memref.load %61[%104, %1001] : memref<?x?xf32, strided<[?, 1]>> loc(#loc24)
      %1029 = vector.broadcast %1028 : f32 to vector<32xf32> loc(#loc24)
      %1030 = vector.fma %898, %1026, %930 : vector<32xf32> loc(#loc24)
      %1031 = memref.load %61[%108, %1001] : memref<?x?xf32, strided<[?, 1]>> loc(#loc24)
      %1032 = vector.broadcast %1031 : f32 to vector<32xf32> loc(#loc24)
      %1033 = vector.fma %898, %1029, %933 : vector<32xf32> loc(#loc24)
      %1034 = memref.load %61[%112, %1001] : memref<?x?xf32, strided<[?, 1]>> loc(#loc24)
      %1035 = vector.broadcast %1034 : f32 to vector<32xf32> loc(#loc24)
      %1036 = vector.fma %898, %1032, %936 : vector<32xf32> loc(#loc24)
      %1037 = memref.load %61[%116, %1001] : memref<?x?xf32, strided<[?, 1]>> loc(#loc24)
      %1038 = vector.broadcast %1037 : f32 to vector<32xf32> loc(#loc24)
      %1039 = vector.fma %898, %1035, %939 : vector<32xf32> loc(#loc24)
      %1040 = memref.load %61[%120, %1001] : memref<?x?xf32, strided<[?, 1]>> loc(#loc24)
      %1041 = vector.broadcast %1040 : f32 to vector<32xf32> loc(#loc24)
      %1042 = vector.fma %898, %1038, %942 : vector<32xf32> loc(#loc24)
      %1043 = memref.load %61[%124, %1001] : memref<?x?xf32, strided<[?, 1]>> loc(#loc24)
      %1044 = vector.broadcast %1043 : f32 to vector<32xf32> loc(#loc24)
      %1045 = vector.fma %898, %1041, %945 : vector<32xf32> loc(#loc24)
      %1046 = memref.load %61[%128, %1001] : memref<?x?xf32, strided<[?, 1]>> loc(#loc24)
      %1047 = vector.broadcast %1046 : f32 to vector<32xf32> loc(#loc24)
      %1048 = vector.fma %898, %1044, %948 : vector<32xf32> loc(#loc24)
      %1049 = memref.load %61[%132, %1001] : memref<?x?xf32, strided<[?, 1]>> loc(#loc24)
      %1050 = vector.broadcast %1049 : f32 to vector<32xf32> loc(#loc24)
      %1051 = vector.fma %898, %1047, %951 : vector<32xf32> loc(#loc24)
      %1052 = memref.load %61[%136, %1001] : memref<?x?xf32, strided<[?, 1]>> loc(#loc24)
      %1053 = vector.broadcast %1052 : f32 to vector<32xf32> loc(#loc24)
      %1054 = vector.fma %898, %1050, %954 : vector<32xf32> loc(#loc24)
      %1055 = memref.load %61[%140, %1001] : memref<?x?xf32, strided<[?, 1]>> loc(#loc24)
      %1056 = vector.broadcast %1055 : f32 to vector<32xf32> loc(#loc24)
      %1057 = vector.fma %898, %1053, %957 : vector<32xf32> loc(#loc24)
      %1058 = memref.load %61[%144, %1001] : memref<?x?xf32, strided<[?, 1]>> loc(#loc24)
      %1059 = vector.broadcast %1058 : f32 to vector<32xf32> loc(#loc24)
      %1060 = vector.fma %898, %1056, %960 : vector<32xf32> loc(#loc24)
      %1061 = memref.load %61[%148, %1001] : memref<?x?xf32, strided<[?, 1]>> loc(#loc24)
      %1062 = vector.broadcast %1061 : f32 to vector<32xf32> loc(#loc24)
      %1063 = vector.fma %898, %1059, %963 : vector<32xf32> loc(#loc24)
      %1064 = memref.load %61[%152, %1001] : memref<?x?xf32, strided<[?, 1]>> loc(#loc24)
      %1065 = vector.broadcast %1064 : f32 to vector<32xf32> loc(#loc24)
      %1066 = vector.fma %898, %1062, %966 : vector<32xf32> loc(#loc24)
      %1067 = memref.load %61[%156, %1001] : memref<?x?xf32, strided<[?, 1]>> loc(#loc24)
      %1068 = vector.broadcast %1067 : f32 to vector<32xf32> loc(#loc24)
      %1069 = vector.fma %898, %1065, %969 : vector<32xf32> loc(#loc24)
      %1070 = memref.load %61[%160, %1001] : memref<?x?xf32, strided<[?, 1]>> loc(#loc24)
      %1071 = vector.broadcast %1070 : f32 to vector<32xf32> loc(#loc24)
      %1072 = vector.fma %898, %1068, %972 : vector<32xf32> loc(#loc24)
      %1073 = memref.load %61[%164, %1001] : memref<?x?xf32, strided<[?, 1]>> loc(#loc24)
      %1074 = vector.broadcast %1073 : f32 to vector<32xf32> loc(#loc24)
      %1075 = vector.fma %898, %1071, %975 : vector<32xf32> loc(#loc24)
      %1076 = memref.load %61[%168, %1001] : memref<?x?xf32, strided<[?, 1]>> loc(#loc24)
      %1077 = vector.broadcast %1076 : f32 to vector<32xf32> loc(#loc24)
      %1078 = vector.fma %898, %1074, %978 : vector<32xf32> loc(#loc24)
      %1079 = memref.load %61[%172, %1001] : memref<?x?xf32, strided<[?, 1]>> loc(#loc24)
      %1080 = vector.broadcast %1079 : f32 to vector<32xf32> loc(#loc24)
      %1081 = vector.fma %898, %1077, %981 : vector<32xf32> loc(#loc24)
      %1082 = memref.load %61[%176, %1001] : memref<?x?xf32, strided<[?, 1]>> loc(#loc24)
      %1083 = vector.broadcast %1082 : f32 to vector<32xf32> loc(#loc24)
      %1084 = vector.fma %898, %1080, %984 : vector<32xf32> loc(#loc24)
      %1085 = memref.load %61[%180, %1001] : memref<?x?xf32, strided<[?, 1]>> loc(#loc24)
      %1086 = vector.broadcast %1085 : f32 to vector<32xf32> loc(#loc24)
      %1087 = vector.fma %898, %1083, %987 : vector<32xf32> loc(#loc24)
      %1088 = memref.load %61[%184, %1001] : memref<?x?xf32, strided<[?, 1]>> loc(#loc24)
      %1089 = vector.broadcast %1088 : f32 to vector<32xf32> loc(#loc24)
      %1090 = vector.fma %898, %1086, %990 : vector<32xf32> loc(#loc24)
      %1091 = memref.load %61[%188, %1001] : memref<?x?xf32, strided<[?, 1]>> loc(#loc24)
      %1092 = vector.broadcast %1091 : f32 to vector<32xf32> loc(#loc24)
      %1093 = vector.fma %898, %1089, %993 : vector<32xf32> loc(#loc24)
      %1094 = memref.load %61[%192, %1001] : memref<?x?xf32, strided<[?, 1]>> loc(#loc24)
      %1095 = vector.broadcast %1094 : f32 to vector<32xf32> loc(#loc24)
      %1096 = vector.fma %898, %1092, %996 : vector<32xf32> loc(#loc24)
      %1097 = vector.fma %898, %1095, %997 : vector<32xf32> loc(#loc24)
      %1098 = arith.addi %64#0, %c11 : index loc(#loc24)
      %1099 = vector.load %63[%1098, %64#1] : memref<?x?xf32, strided<[?, 1]>>, vector<32xf32> loc(#loc24)
      %1100 = arith.addi %64#0, %c26 : index loc(#loc24)
      memref.prefetch %63[%1100, %64#1], read, locality<1>, data : memref<?x?xf32, strided<[?, 1]>> loc(#loc24)
      %1101 = arith.addi %62#1, %c10 : index loc(#loc24)
      %1102 = memref.load %61[%62#0, %1101] : memref<?x?xf32, strided<[?, 1]>> loc(#loc24)
      %1103 = vector.broadcast %1102 : f32 to vector<32xf32> loc(#loc24)
      %1104 = memref.load %61[%72, %1101] : memref<?x?xf32, strided<[?, 1]>> loc(#loc24)
      %1105 = vector.broadcast %1104 : f32 to vector<32xf32> loc(#loc24)
      %1106 = vector.fma %999, %1103, %1006 : vector<32xf32> loc(#loc24)
      %1107 = memref.load %61[%76, %1101] : memref<?x?xf32, strided<[?, 1]>> loc(#loc24)
      %1108 = vector.broadcast %1107 : f32 to vector<32xf32> loc(#loc24)
      %1109 = vector.fma %999, %1105, %1009 : vector<32xf32> loc(#loc24)
      %1110 = memref.load %61[%80, %1101] : memref<?x?xf32, strided<[?, 1]>> loc(#loc24)
      %1111 = vector.broadcast %1110 : f32 to vector<32xf32> loc(#loc24)
      %1112 = vector.fma %999, %1108, %1012 : vector<32xf32> loc(#loc24)
      %1113 = memref.load %61[%84, %1101] : memref<?x?xf32, strided<[?, 1]>> loc(#loc24)
      %1114 = vector.broadcast %1113 : f32 to vector<32xf32> loc(#loc24)
      %1115 = vector.fma %999, %1111, %1015 : vector<32xf32> loc(#loc24)
      %1116 = memref.load %61[%88, %1101] : memref<?x?xf32, strided<[?, 1]>> loc(#loc24)
      %1117 = vector.broadcast %1116 : f32 to vector<32xf32> loc(#loc24)
      %1118 = vector.fma %999, %1114, %1018 : vector<32xf32> loc(#loc24)
      %1119 = memref.load %61[%92, %1101] : memref<?x?xf32, strided<[?, 1]>> loc(#loc24)
      %1120 = vector.broadcast %1119 : f32 to vector<32xf32> loc(#loc24)
      %1121 = vector.fma %999, %1117, %1021 : vector<32xf32> loc(#loc24)
      %1122 = memref.load %61[%96, %1101] : memref<?x?xf32, strided<[?, 1]>> loc(#loc24)
      %1123 = vector.broadcast %1122 : f32 to vector<32xf32> loc(#loc24)
      %1124 = vector.fma %999, %1120, %1024 : vector<32xf32> loc(#loc24)
      %1125 = memref.load %61[%100, %1101] : memref<?x?xf32, strided<[?, 1]>> loc(#loc24)
      %1126 = vector.broadcast %1125 : f32 to vector<32xf32> loc(#loc24)
      %1127 = vector.fma %999, %1123, %1027 : vector<32xf32> loc(#loc24)
      %1128 = memref.load %61[%104, %1101] : memref<?x?xf32, strided<[?, 1]>> loc(#loc24)
      %1129 = vector.broadcast %1128 : f32 to vector<32xf32> loc(#loc24)
      %1130 = vector.fma %999, %1126, %1030 : vector<32xf32> loc(#loc24)
      %1131 = memref.load %61[%108, %1101] : memref<?x?xf32, strided<[?, 1]>> loc(#loc24)
      %1132 = vector.broadcast %1131 : f32 to vector<32xf32> loc(#loc24)
      %1133 = vector.fma %999, %1129, %1033 : vector<32xf32> loc(#loc24)
      %1134 = memref.load %61[%112, %1101] : memref<?x?xf32, strided<[?, 1]>> loc(#loc24)
      %1135 = vector.broadcast %1134 : f32 to vector<32xf32> loc(#loc24)
      %1136 = vector.fma %999, %1132, %1036 : vector<32xf32> loc(#loc24)
      %1137 = memref.load %61[%116, %1101] : memref<?x?xf32, strided<[?, 1]>> loc(#loc24)
      %1138 = vector.broadcast %1137 : f32 to vector<32xf32> loc(#loc24)
      %1139 = vector.fma %999, %1135, %1039 : vector<32xf32> loc(#loc24)
      %1140 = memref.load %61[%120, %1101] : memref<?x?xf32, strided<[?, 1]>> loc(#loc24)
      %1141 = vector.broadcast %1140 : f32 to vector<32xf32> loc(#loc24)
      %1142 = vector.fma %999, %1138, %1042 : vector<32xf32> loc(#loc24)
      %1143 = memref.load %61[%124, %1101] : memref<?x?xf32, strided<[?, 1]>> loc(#loc24)
      %1144 = vector.broadcast %1143 : f32 to vector<32xf32> loc(#loc24)
      %1145 = vector.fma %999, %1141, %1045 : vector<32xf32> loc(#loc24)
      %1146 = memref.load %61[%128, %1101] : memref<?x?xf32, strided<[?, 1]>> loc(#loc24)
      %1147 = vector.broadcast %1146 : f32 to vector<32xf32> loc(#loc24)
      %1148 = vector.fma %999, %1144, %1048 : vector<32xf32> loc(#loc24)
      %1149 = memref.load %61[%132, %1101] : memref<?x?xf32, strided<[?, 1]>> loc(#loc24)
      %1150 = vector.broadcast %1149 : f32 to vector<32xf32> loc(#loc24)
      %1151 = vector.fma %999, %1147, %1051 : vector<32xf32> loc(#loc24)
      %1152 = memref.load %61[%136, %1101] : memref<?x?xf32, strided<[?, 1]>> loc(#loc24)
      %1153 = vector.broadcast %1152 : f32 to vector<32xf32> loc(#loc24)
      %1154 = vector.fma %999, %1150, %1054 : vector<32xf32> loc(#loc24)
      %1155 = memref.load %61[%140, %1101] : memref<?x?xf32, strided<[?, 1]>> loc(#loc24)
      %1156 = vector.broadcast %1155 : f32 to vector<32xf32> loc(#loc24)
      %1157 = vector.fma %999, %1153, %1057 : vector<32xf32> loc(#loc24)
      %1158 = memref.load %61[%144, %1101] : memref<?x?xf32, strided<[?, 1]>> loc(#loc24)
      %1159 = vector.broadcast %1158 : f32 to vector<32xf32> loc(#loc24)
      %1160 = vector.fma %999, %1156, %1060 : vector<32xf32> loc(#loc24)
      %1161 = memref.load %61[%148, %1101] : memref<?x?xf32, strided<[?, 1]>> loc(#loc24)
      %1162 = vector.broadcast %1161 : f32 to vector<32xf32> loc(#loc24)
      %1163 = vector.fma %999, %1159, %1063 : vector<32xf32> loc(#loc24)
      %1164 = memref.load %61[%152, %1101] : memref<?x?xf32, strided<[?, 1]>> loc(#loc24)
      %1165 = vector.broadcast %1164 : f32 to vector<32xf32> loc(#loc24)
      %1166 = vector.fma %999, %1162, %1066 : vector<32xf32> loc(#loc24)
      %1167 = memref.load %61[%156, %1101] : memref<?x?xf32, strided<[?, 1]>> loc(#loc24)
      %1168 = vector.broadcast %1167 : f32 to vector<32xf32> loc(#loc24)
      %1169 = vector.fma %999, %1165, %1069 : vector<32xf32> loc(#loc24)
      %1170 = memref.load %61[%160, %1101] : memref<?x?xf32, strided<[?, 1]>> loc(#loc24)
      %1171 = vector.broadcast %1170 : f32 to vector<32xf32> loc(#loc24)
      %1172 = vector.fma %999, %1168, %1072 : vector<32xf32> loc(#loc24)
      %1173 = memref.load %61[%164, %1101] : memref<?x?xf32, strided<[?, 1]>> loc(#loc24)
      %1174 = vector.broadcast %1173 : f32 to vector<32xf32> loc(#loc24)
      %1175 = vector.fma %999, %1171, %1075 : vector<32xf32> loc(#loc24)
      %1176 = memref.load %61[%168, %1101] : memref<?x?xf32, strided<[?, 1]>> loc(#loc24)
      %1177 = vector.broadcast %1176 : f32 to vector<32xf32> loc(#loc24)
      %1178 = vector.fma %999, %1174, %1078 : vector<32xf32> loc(#loc24)
      %1179 = memref.load %61[%172, %1101] : memref<?x?xf32, strided<[?, 1]>> loc(#loc24)
      %1180 = vector.broadcast %1179 : f32 to vector<32xf32> loc(#loc24)
      %1181 = vector.fma %999, %1177, %1081 : vector<32xf32> loc(#loc24)
      %1182 = memref.load %61[%176, %1101] : memref<?x?xf32, strided<[?, 1]>> loc(#loc24)
      %1183 = vector.broadcast %1182 : f32 to vector<32xf32> loc(#loc24)
      %1184 = vector.fma %999, %1180, %1084 : vector<32xf32> loc(#loc24)
      %1185 = memref.load %61[%180, %1101] : memref<?x?xf32, strided<[?, 1]>> loc(#loc24)
      %1186 = vector.broadcast %1185 : f32 to vector<32xf32> loc(#loc24)
      %1187 = vector.fma %999, %1183, %1087 : vector<32xf32> loc(#loc24)
      %1188 = memref.load %61[%184, %1101] : memref<?x?xf32, strided<[?, 1]>> loc(#loc24)
      %1189 = vector.broadcast %1188 : f32 to vector<32xf32> loc(#loc24)
      %1190 = vector.fma %999, %1186, %1090 : vector<32xf32> loc(#loc24)
      %1191 = memref.load %61[%188, %1101] : memref<?x?xf32, strided<[?, 1]>> loc(#loc24)
      %1192 = vector.broadcast %1191 : f32 to vector<32xf32> loc(#loc24)
      %1193 = vector.fma %999, %1189, %1093 : vector<32xf32> loc(#loc24)
      %1194 = memref.load %61[%192, %1101] : memref<?x?xf32, strided<[?, 1]>> loc(#loc24)
      %1195 = vector.broadcast %1194 : f32 to vector<32xf32> loc(#loc24)
      %1196 = vector.fma %999, %1192, %1096 : vector<32xf32> loc(#loc24)
      %1197 = vector.fma %999, %1195, %1097 : vector<32xf32> loc(#loc24)
      %1198 = arith.addi %64#0, %c12 : index loc(#loc24)
      %1199 = vector.load %63[%1198, %64#1] : memref<?x?xf32, strided<[?, 1]>>, vector<32xf32> loc(#loc24)
      %1200 = arith.addi %64#0, %c27 : index loc(#loc24)
      memref.prefetch %63[%1200, %64#1], read, locality<1>, data : memref<?x?xf32, strided<[?, 1]>> loc(#loc24)
      %1201 = arith.addi %62#1, %c11 : index loc(#loc24)
      %1202 = memref.load %61[%62#0, %1201] : memref<?x?xf32, strided<[?, 1]>> loc(#loc24)
      %1203 = vector.broadcast %1202 : f32 to vector<32xf32> loc(#loc24)
      %1204 = memref.load %61[%72, %1201] : memref<?x?xf32, strided<[?, 1]>> loc(#loc24)
      %1205 = vector.broadcast %1204 : f32 to vector<32xf32> loc(#loc24)
      %1206 = vector.fma %1099, %1203, %1106 : vector<32xf32> loc(#loc24)
      %1207 = memref.load %61[%76, %1201] : memref<?x?xf32, strided<[?, 1]>> loc(#loc24)
      %1208 = vector.broadcast %1207 : f32 to vector<32xf32> loc(#loc24)
      %1209 = vector.fma %1099, %1205, %1109 : vector<32xf32> loc(#loc24)
      %1210 = memref.load %61[%80, %1201] : memref<?x?xf32, strided<[?, 1]>> loc(#loc24)
      %1211 = vector.broadcast %1210 : f32 to vector<32xf32> loc(#loc24)
      %1212 = vector.fma %1099, %1208, %1112 : vector<32xf32> loc(#loc24)
      %1213 = memref.load %61[%84, %1201] : memref<?x?xf32, strided<[?, 1]>> loc(#loc24)
      %1214 = vector.broadcast %1213 : f32 to vector<32xf32> loc(#loc24)
      %1215 = vector.fma %1099, %1211, %1115 : vector<32xf32> loc(#loc24)
      %1216 = memref.load %61[%88, %1201] : memref<?x?xf32, strided<[?, 1]>> loc(#loc24)
      %1217 = vector.broadcast %1216 : f32 to vector<32xf32> loc(#loc24)
      %1218 = vector.fma %1099, %1214, %1118 : vector<32xf32> loc(#loc24)
      %1219 = memref.load %61[%92, %1201] : memref<?x?xf32, strided<[?, 1]>> loc(#loc24)
      %1220 = vector.broadcast %1219 : f32 to vector<32xf32> loc(#loc24)
      %1221 = vector.fma %1099, %1217, %1121 : vector<32xf32> loc(#loc24)
      %1222 = memref.load %61[%96, %1201] : memref<?x?xf32, strided<[?, 1]>> loc(#loc24)
      %1223 = vector.broadcast %1222 : f32 to vector<32xf32> loc(#loc24)
      %1224 = vector.fma %1099, %1220, %1124 : vector<32xf32> loc(#loc24)
      %1225 = memref.load %61[%100, %1201] : memref<?x?xf32, strided<[?, 1]>> loc(#loc24)
      %1226 = vector.broadcast %1225 : f32 to vector<32xf32> loc(#loc24)
      %1227 = vector.fma %1099, %1223, %1127 : vector<32xf32> loc(#loc24)
      %1228 = memref.load %61[%104, %1201] : memref<?x?xf32, strided<[?, 1]>> loc(#loc24)
      %1229 = vector.broadcast %1228 : f32 to vector<32xf32> loc(#loc24)
      %1230 = vector.fma %1099, %1226, %1130 : vector<32xf32> loc(#loc24)
      %1231 = memref.load %61[%108, %1201] : memref<?x?xf32, strided<[?, 1]>> loc(#loc24)
      %1232 = vector.broadcast %1231 : f32 to vector<32xf32> loc(#loc24)
      %1233 = vector.fma %1099, %1229, %1133 : vector<32xf32> loc(#loc24)
      %1234 = memref.load %61[%112, %1201] : memref<?x?xf32, strided<[?, 1]>> loc(#loc24)
      %1235 = vector.broadcast %1234 : f32 to vector<32xf32> loc(#loc24)
      %1236 = vector.fma %1099, %1232, %1136 : vector<32xf32> loc(#loc24)
      %1237 = memref.load %61[%116, %1201] : memref<?x?xf32, strided<[?, 1]>> loc(#loc24)
      %1238 = vector.broadcast %1237 : f32 to vector<32xf32> loc(#loc24)
      %1239 = vector.fma %1099, %1235, %1139 : vector<32xf32> loc(#loc24)
      %1240 = memref.load %61[%120, %1201] : memref<?x?xf32, strided<[?, 1]>> loc(#loc24)
      %1241 = vector.broadcast %1240 : f32 to vector<32xf32> loc(#loc24)
      %1242 = vector.fma %1099, %1238, %1142 : vector<32xf32> loc(#loc24)
      %1243 = memref.load %61[%124, %1201] : memref<?x?xf32, strided<[?, 1]>> loc(#loc24)
      %1244 = vector.broadcast %1243 : f32 to vector<32xf32> loc(#loc24)
      %1245 = vector.fma %1099, %1241, %1145 : vector<32xf32> loc(#loc24)
      %1246 = memref.load %61[%128, %1201] : memref<?x?xf32, strided<[?, 1]>> loc(#loc24)
      %1247 = vector.broadcast %1246 : f32 to vector<32xf32> loc(#loc24)
      %1248 = vector.fma %1099, %1244, %1148 : vector<32xf32> loc(#loc24)
      %1249 = memref.load %61[%132, %1201] : memref<?x?xf32, strided<[?, 1]>> loc(#loc24)
      %1250 = vector.broadcast %1249 : f32 to vector<32xf32> loc(#loc24)
      %1251 = vector.fma %1099, %1247, %1151 : vector<32xf32> loc(#loc24)
      %1252 = memref.load %61[%136, %1201] : memref<?x?xf32, strided<[?, 1]>> loc(#loc24)
      %1253 = vector.broadcast %1252 : f32 to vector<32xf32> loc(#loc24)
      %1254 = vector.fma %1099, %1250, %1154 : vector<32xf32> loc(#loc24)
      %1255 = memref.load %61[%140, %1201] : memref<?x?xf32, strided<[?, 1]>> loc(#loc24)
      %1256 = vector.broadcast %1255 : f32 to vector<32xf32> loc(#loc24)
      %1257 = vector.fma %1099, %1253, %1157 : vector<32xf32> loc(#loc24)
      %1258 = memref.load %61[%144, %1201] : memref<?x?xf32, strided<[?, 1]>> loc(#loc24)
      %1259 = vector.broadcast %1258 : f32 to vector<32xf32> loc(#loc24)
      %1260 = vector.fma %1099, %1256, %1160 : vector<32xf32> loc(#loc24)
      %1261 = memref.load %61[%148, %1201] : memref<?x?xf32, strided<[?, 1]>> loc(#loc24)
      %1262 = vector.broadcast %1261 : f32 to vector<32xf32> loc(#loc24)
      %1263 = vector.fma %1099, %1259, %1163 : vector<32xf32> loc(#loc24)
      %1264 = memref.load %61[%152, %1201] : memref<?x?xf32, strided<[?, 1]>> loc(#loc24)
      %1265 = vector.broadcast %1264 : f32 to vector<32xf32> loc(#loc24)
      %1266 = vector.fma %1099, %1262, %1166 : vector<32xf32> loc(#loc24)
      %1267 = memref.load %61[%156, %1201] : memref<?x?xf32, strided<[?, 1]>> loc(#loc24)
      %1268 = vector.broadcast %1267 : f32 to vector<32xf32> loc(#loc24)
      %1269 = vector.fma %1099, %1265, %1169 : vector<32xf32> loc(#loc24)
      %1270 = memref.load %61[%160, %1201] : memref<?x?xf32, strided<[?, 1]>> loc(#loc24)
      %1271 = vector.broadcast %1270 : f32 to vector<32xf32> loc(#loc24)
      %1272 = vector.fma %1099, %1268, %1172 : vector<32xf32> loc(#loc24)
      %1273 = memref.load %61[%164, %1201] : memref<?x?xf32, strided<[?, 1]>> loc(#loc24)
      %1274 = vector.broadcast %1273 : f32 to vector<32xf32> loc(#loc24)
      %1275 = vector.fma %1099, %1271, %1175 : vector<32xf32> loc(#loc24)
      %1276 = memref.load %61[%168, %1201] : memref<?x?xf32, strided<[?, 1]>> loc(#loc24)
      %1277 = vector.broadcast %1276 : f32 to vector<32xf32> loc(#loc24)
      %1278 = vector.fma %1099, %1274, %1178 : vector<32xf32> loc(#loc24)
      %1279 = memref.load %61[%172, %1201] : memref<?x?xf32, strided<[?, 1]>> loc(#loc24)
      %1280 = vector.broadcast %1279 : f32 to vector<32xf32> loc(#loc24)
      %1281 = vector.fma %1099, %1277, %1181 : vector<32xf32> loc(#loc24)
      %1282 = memref.load %61[%176, %1201] : memref<?x?xf32, strided<[?, 1]>> loc(#loc24)
      %1283 = vector.broadcast %1282 : f32 to vector<32xf32> loc(#loc24)
      %1284 = vector.fma %1099, %1280, %1184 : vector<32xf32> loc(#loc24)
      %1285 = memref.load %61[%180, %1201] : memref<?x?xf32, strided<[?, 1]>> loc(#loc24)
      %1286 = vector.broadcast %1285 : f32 to vector<32xf32> loc(#loc24)
      %1287 = vector.fma %1099, %1283, %1187 : vector<32xf32> loc(#loc24)
      %1288 = memref.load %61[%184, %1201] : memref<?x?xf32, strided<[?, 1]>> loc(#loc24)
      %1289 = vector.broadcast %1288 : f32 to vector<32xf32> loc(#loc24)
      %1290 = vector.fma %1099, %1286, %1190 : vector<32xf32> loc(#loc24)
      %1291 = memref.load %61[%188, %1201] : memref<?x?xf32, strided<[?, 1]>> loc(#loc24)
      %1292 = vector.broadcast %1291 : f32 to vector<32xf32> loc(#loc24)
      %1293 = vector.fma %1099, %1289, %1193 : vector<32xf32> loc(#loc24)
      %1294 = memref.load %61[%192, %1201] : memref<?x?xf32, strided<[?, 1]>> loc(#loc24)
      %1295 = vector.broadcast %1294 : f32 to vector<32xf32> loc(#loc24)
      %1296 = vector.fma %1099, %1292, %1196 : vector<32xf32> loc(#loc24)
      %1297 = vector.fma %1099, %1295, %1197 : vector<32xf32> loc(#loc24)
      %1298 = arith.addi %64#0, %c13 : index loc(#loc24)
      %1299 = vector.load %63[%1298, %64#1] : memref<?x?xf32, strided<[?, 1]>>, vector<32xf32> loc(#loc24)
      %1300 = arith.addi %64#0, %c28 : index loc(#loc24)
      memref.prefetch %63[%1300, %64#1], read, locality<1>, data : memref<?x?xf32, strided<[?, 1]>> loc(#loc24)
      %1301 = arith.addi %62#1, %c12 : index loc(#loc24)
      %1302 = memref.load %61[%62#0, %1301] : memref<?x?xf32, strided<[?, 1]>> loc(#loc24)
      %1303 = vector.broadcast %1302 : f32 to vector<32xf32> loc(#loc24)
      %1304 = memref.load %61[%72, %1301] : memref<?x?xf32, strided<[?, 1]>> loc(#loc24)
      %1305 = vector.broadcast %1304 : f32 to vector<32xf32> loc(#loc24)
      %1306 = vector.fma %1199, %1303, %1206 : vector<32xf32> loc(#loc24)
      %1307 = memref.load %61[%76, %1301] : memref<?x?xf32, strided<[?, 1]>> loc(#loc24)
      %1308 = vector.broadcast %1307 : f32 to vector<32xf32> loc(#loc24)
      %1309 = vector.fma %1199, %1305, %1209 : vector<32xf32> loc(#loc24)
      %1310 = memref.load %61[%80, %1301] : memref<?x?xf32, strided<[?, 1]>> loc(#loc24)
      %1311 = vector.broadcast %1310 : f32 to vector<32xf32> loc(#loc24)
      %1312 = vector.fma %1199, %1308, %1212 : vector<32xf32> loc(#loc24)
      %1313 = memref.load %61[%84, %1301] : memref<?x?xf32, strided<[?, 1]>> loc(#loc24)
      %1314 = vector.broadcast %1313 : f32 to vector<32xf32> loc(#loc24)
      %1315 = vector.fma %1199, %1311, %1215 : vector<32xf32> loc(#loc24)
      %1316 = memref.load %61[%88, %1301] : memref<?x?xf32, strided<[?, 1]>> loc(#loc24)
      %1317 = vector.broadcast %1316 : f32 to vector<32xf32> loc(#loc24)
      %1318 = vector.fma %1199, %1314, %1218 : vector<32xf32> loc(#loc24)
      %1319 = memref.load %61[%92, %1301] : memref<?x?xf32, strided<[?, 1]>> loc(#loc24)
      %1320 = vector.broadcast %1319 : f32 to vector<32xf32> loc(#loc24)
      %1321 = vector.fma %1199, %1317, %1221 : vector<32xf32> loc(#loc24)
      %1322 = memref.load %61[%96, %1301] : memref<?x?xf32, strided<[?, 1]>> loc(#loc24)
      %1323 = vector.broadcast %1322 : f32 to vector<32xf32> loc(#loc24)
      %1324 = vector.fma %1199, %1320, %1224 : vector<32xf32> loc(#loc24)
      %1325 = memref.load %61[%100, %1301] : memref<?x?xf32, strided<[?, 1]>> loc(#loc24)
      %1326 = vector.broadcast %1325 : f32 to vector<32xf32> loc(#loc24)
      %1327 = vector.fma %1199, %1323, %1227 : vector<32xf32> loc(#loc24)
      %1328 = memref.load %61[%104, %1301] : memref<?x?xf32, strided<[?, 1]>> loc(#loc24)
      %1329 = vector.broadcast %1328 : f32 to vector<32xf32> loc(#loc24)
      %1330 = vector.fma %1199, %1326, %1230 : vector<32xf32> loc(#loc24)
      %1331 = memref.load %61[%108, %1301] : memref<?x?xf32, strided<[?, 1]>> loc(#loc24)
      %1332 = vector.broadcast %1331 : f32 to vector<32xf32> loc(#loc24)
      %1333 = vector.fma %1199, %1329, %1233 : vector<32xf32> loc(#loc24)
      %1334 = memref.load %61[%112, %1301] : memref<?x?xf32, strided<[?, 1]>> loc(#loc24)
      %1335 = vector.broadcast %1334 : f32 to vector<32xf32> loc(#loc24)
      %1336 = vector.fma %1199, %1332, %1236 : vector<32xf32> loc(#loc24)
      %1337 = memref.load %61[%116, %1301] : memref<?x?xf32, strided<[?, 1]>> loc(#loc24)
      %1338 = vector.broadcast %1337 : f32 to vector<32xf32> loc(#loc24)
      %1339 = vector.fma %1199, %1335, %1239 : vector<32xf32> loc(#loc24)
      %1340 = memref.load %61[%120, %1301] : memref<?x?xf32, strided<[?, 1]>> loc(#loc24)
      %1341 = vector.broadcast %1340 : f32 to vector<32xf32> loc(#loc24)
      %1342 = vector.fma %1199, %1338, %1242 : vector<32xf32> loc(#loc24)
      %1343 = memref.load %61[%124, %1301] : memref<?x?xf32, strided<[?, 1]>> loc(#loc24)
      %1344 = vector.broadcast %1343 : f32 to vector<32xf32> loc(#loc24)
      %1345 = vector.fma %1199, %1341, %1245 : vector<32xf32> loc(#loc24)
      %1346 = memref.load %61[%128, %1301] : memref<?x?xf32, strided<[?, 1]>> loc(#loc24)
      %1347 = vector.broadcast %1346 : f32 to vector<32xf32> loc(#loc24)
      %1348 = vector.fma %1199, %1344, %1248 : vector<32xf32> loc(#loc24)
      %1349 = memref.load %61[%132, %1301] : memref<?x?xf32, strided<[?, 1]>> loc(#loc24)
      %1350 = vector.broadcast %1349 : f32 to vector<32xf32> loc(#loc24)
      %1351 = vector.fma %1199, %1347, %1251 : vector<32xf32> loc(#loc24)
      %1352 = memref.load %61[%136, %1301] : memref<?x?xf32, strided<[?, 1]>> loc(#loc24)
      %1353 = vector.broadcast %1352 : f32 to vector<32xf32> loc(#loc24)
      %1354 = vector.fma %1199, %1350, %1254 : vector<32xf32> loc(#loc24)
      %1355 = memref.load %61[%140, %1301] : memref<?x?xf32, strided<[?, 1]>> loc(#loc24)
      %1356 = vector.broadcast %1355 : f32 to vector<32xf32> loc(#loc24)
      %1357 = vector.fma %1199, %1353, %1257 : vector<32xf32> loc(#loc24)
      %1358 = memref.load %61[%144, %1301] : memref<?x?xf32, strided<[?, 1]>> loc(#loc24)
      %1359 = vector.broadcast %1358 : f32 to vector<32xf32> loc(#loc24)
      %1360 = vector.fma %1199, %1356, %1260 : vector<32xf32> loc(#loc24)
      %1361 = memref.load %61[%148, %1301] : memref<?x?xf32, strided<[?, 1]>> loc(#loc24)
      %1362 = vector.broadcast %1361 : f32 to vector<32xf32> loc(#loc24)
      %1363 = vector.fma %1199, %1359, %1263 : vector<32xf32> loc(#loc24)
      %1364 = memref.load %61[%152, %1301] : memref<?x?xf32, strided<[?, 1]>> loc(#loc24)
      %1365 = vector.broadcast %1364 : f32 to vector<32xf32> loc(#loc24)
      %1366 = vector.fma %1199, %1362, %1266 : vector<32xf32> loc(#loc24)
      %1367 = memref.load %61[%156, %1301] : memref<?x?xf32, strided<[?, 1]>> loc(#loc24)
      %1368 = vector.broadcast %1367 : f32 to vector<32xf32> loc(#loc24)
      %1369 = vector.fma %1199, %1365, %1269 : vector<32xf32> loc(#loc24)
      %1370 = memref.load %61[%160, %1301] : memref<?x?xf32, strided<[?, 1]>> loc(#loc24)
      %1371 = vector.broadcast %1370 : f32 to vector<32xf32> loc(#loc24)
      %1372 = vector.fma %1199, %1368, %1272 : vector<32xf32> loc(#loc24)
      %1373 = memref.load %61[%164, %1301] : memref<?x?xf32, strided<[?, 1]>> loc(#loc24)
      %1374 = vector.broadcast %1373 : f32 to vector<32xf32> loc(#loc24)
      %1375 = vector.fma %1199, %1371, %1275 : vector<32xf32> loc(#loc24)
      %1376 = memref.load %61[%168, %1301] : memref<?x?xf32, strided<[?, 1]>> loc(#loc24)
      %1377 = vector.broadcast %1376 : f32 to vector<32xf32> loc(#loc24)
      %1378 = vector.fma %1199, %1374, %1278 : vector<32xf32> loc(#loc24)
      %1379 = memref.load %61[%172, %1301] : memref<?x?xf32, strided<[?, 1]>> loc(#loc24)
      %1380 = vector.broadcast %1379 : f32 to vector<32xf32> loc(#loc24)
      %1381 = vector.fma %1199, %1377, %1281 : vector<32xf32> loc(#loc24)
      %1382 = memref.load %61[%176, %1301] : memref<?x?xf32, strided<[?, 1]>> loc(#loc24)
      %1383 = vector.broadcast %1382 : f32 to vector<32xf32> loc(#loc24)
      %1384 = vector.fma %1199, %1380, %1284 : vector<32xf32> loc(#loc24)
      %1385 = memref.load %61[%180, %1301] : memref<?x?xf32, strided<[?, 1]>> loc(#loc24)
      %1386 = vector.broadcast %1385 : f32 to vector<32xf32> loc(#loc24)
      %1387 = vector.fma %1199, %1383, %1287 : vector<32xf32> loc(#loc24)
      %1388 = memref.load %61[%184, %1301] : memref<?x?xf32, strided<[?, 1]>> loc(#loc24)
      %1389 = vector.broadcast %1388 : f32 to vector<32xf32> loc(#loc24)
      %1390 = vector.fma %1199, %1386, %1290 : vector<32xf32> loc(#loc24)
      %1391 = memref.load %61[%188, %1301] : memref<?x?xf32, strided<[?, 1]>> loc(#loc24)
      %1392 = vector.broadcast %1391 : f32 to vector<32xf32> loc(#loc24)
      %1393 = vector.fma %1199, %1389, %1293 : vector<32xf32> loc(#loc24)
      %1394 = memref.load %61[%192, %1301] : memref<?x?xf32, strided<[?, 1]>> loc(#loc24)
      %1395 = vector.broadcast %1394 : f32 to vector<32xf32> loc(#loc24)
      %1396 = vector.fma %1199, %1392, %1296 : vector<32xf32> loc(#loc24)
      %1397 = vector.fma %1199, %1395, %1297 : vector<32xf32> loc(#loc24)
      %1398 = arith.addi %64#0, %c14 : index loc(#loc24)
      %1399 = vector.load %63[%1398, %64#1] : memref<?x?xf32, strided<[?, 1]>>, vector<32xf32> loc(#loc24)
      %1400 = arith.addi %64#0, %c29 : index loc(#loc24)
      memref.prefetch %63[%1400, %64#1], read, locality<1>, data : memref<?x?xf32, strided<[?, 1]>> loc(#loc24)
      %1401 = arith.addi %62#1, %c13 : index loc(#loc24)
      %1402 = memref.load %61[%62#0, %1401] : memref<?x?xf32, strided<[?, 1]>> loc(#loc24)
      %1403 = vector.broadcast %1402 : f32 to vector<32xf32> loc(#loc24)
      %1404 = memref.load %61[%72, %1401] : memref<?x?xf32, strided<[?, 1]>> loc(#loc24)
      %1405 = vector.broadcast %1404 : f32 to vector<32xf32> loc(#loc24)
      %1406 = vector.fma %1299, %1403, %1306 : vector<32xf32> loc(#loc24)
      %1407 = memref.load %61[%76, %1401] : memref<?x?xf32, strided<[?, 1]>> loc(#loc24)
      %1408 = vector.broadcast %1407 : f32 to vector<32xf32> loc(#loc24)
      %1409 = vector.fma %1299, %1405, %1309 : vector<32xf32> loc(#loc24)
      %1410 = memref.load %61[%80, %1401] : memref<?x?xf32, strided<[?, 1]>> loc(#loc24)
      %1411 = vector.broadcast %1410 : f32 to vector<32xf32> loc(#loc24)
      %1412 = vector.fma %1299, %1408, %1312 : vector<32xf32> loc(#loc24)
      %1413 = memref.load %61[%84, %1401] : memref<?x?xf32, strided<[?, 1]>> loc(#loc24)
      %1414 = vector.broadcast %1413 : f32 to vector<32xf32> loc(#loc24)
      %1415 = vector.fma %1299, %1411, %1315 : vector<32xf32> loc(#loc24)
      %1416 = memref.load %61[%88, %1401] : memref<?x?xf32, strided<[?, 1]>> loc(#loc24)
      %1417 = vector.broadcast %1416 : f32 to vector<32xf32> loc(#loc24)
      %1418 = vector.fma %1299, %1414, %1318 : vector<32xf32> loc(#loc24)
      %1419 = memref.load %61[%92, %1401] : memref<?x?xf32, strided<[?, 1]>> loc(#loc24)
      %1420 = vector.broadcast %1419 : f32 to vector<32xf32> loc(#loc24)
      %1421 = vector.fma %1299, %1417, %1321 : vector<32xf32> loc(#loc24)
      %1422 = memref.load %61[%96, %1401] : memref<?x?xf32, strided<[?, 1]>> loc(#loc24)
      %1423 = vector.broadcast %1422 : f32 to vector<32xf32> loc(#loc24)
      %1424 = vector.fma %1299, %1420, %1324 : vector<32xf32> loc(#loc24)
      %1425 = memref.load %61[%100, %1401] : memref<?x?xf32, strided<[?, 1]>> loc(#loc24)
      %1426 = vector.broadcast %1425 : f32 to vector<32xf32> loc(#loc24)
      %1427 = vector.fma %1299, %1423, %1327 : vector<32xf32> loc(#loc24)
      %1428 = memref.load %61[%104, %1401] : memref<?x?xf32, strided<[?, 1]>> loc(#loc24)
      %1429 = vector.broadcast %1428 : f32 to vector<32xf32> loc(#loc24)
      %1430 = vector.fma %1299, %1426, %1330 : vector<32xf32> loc(#loc24)
      %1431 = memref.load %61[%108, %1401] : memref<?x?xf32, strided<[?, 1]>> loc(#loc24)
      %1432 = vector.broadcast %1431 : f32 to vector<32xf32> loc(#loc24)
      %1433 = vector.fma %1299, %1429, %1333 : vector<32xf32> loc(#loc24)
      %1434 = memref.load %61[%112, %1401] : memref<?x?xf32, strided<[?, 1]>> loc(#loc24)
      %1435 = vector.broadcast %1434 : f32 to vector<32xf32> loc(#loc24)
      %1436 = vector.fma %1299, %1432, %1336 : vector<32xf32> loc(#loc24)
      %1437 = memref.load %61[%116, %1401] : memref<?x?xf32, strided<[?, 1]>> loc(#loc24)
      %1438 = vector.broadcast %1437 : f32 to vector<32xf32> loc(#loc24)
      %1439 = vector.fma %1299, %1435, %1339 : vector<32xf32> loc(#loc24)
      %1440 = memref.load %61[%120, %1401] : memref<?x?xf32, strided<[?, 1]>> loc(#loc24)
      %1441 = vector.broadcast %1440 : f32 to vector<32xf32> loc(#loc24)
      %1442 = vector.fma %1299, %1438, %1342 : vector<32xf32> loc(#loc24)
      %1443 = memref.load %61[%124, %1401] : memref<?x?xf32, strided<[?, 1]>> loc(#loc24)
      %1444 = vector.broadcast %1443 : f32 to vector<32xf32> loc(#loc24)
      %1445 = vector.fma %1299, %1441, %1345 : vector<32xf32> loc(#loc24)
      %1446 = memref.load %61[%128, %1401] : memref<?x?xf32, strided<[?, 1]>> loc(#loc24)
      %1447 = vector.broadcast %1446 : f32 to vector<32xf32> loc(#loc24)
      %1448 = vector.fma %1299, %1444, %1348 : vector<32xf32> loc(#loc24)
      %1449 = memref.load %61[%132, %1401] : memref<?x?xf32, strided<[?, 1]>> loc(#loc24)
      %1450 = vector.broadcast %1449 : f32 to vector<32xf32> loc(#loc24)
      %1451 = vector.fma %1299, %1447, %1351 : vector<32xf32> loc(#loc24)
      %1452 = memref.load %61[%136, %1401] : memref<?x?xf32, strided<[?, 1]>> loc(#loc24)
      %1453 = vector.broadcast %1452 : f32 to vector<32xf32> loc(#loc24)
      %1454 = vector.fma %1299, %1450, %1354 : vector<32xf32> loc(#loc24)
      %1455 = memref.load %61[%140, %1401] : memref<?x?xf32, strided<[?, 1]>> loc(#loc24)
      %1456 = vector.broadcast %1455 : f32 to vector<32xf32> loc(#loc24)
      %1457 = vector.fma %1299, %1453, %1357 : vector<32xf32> loc(#loc24)
      %1458 = memref.load %61[%144, %1401] : memref<?x?xf32, strided<[?, 1]>> loc(#loc24)
      %1459 = vector.broadcast %1458 : f32 to vector<32xf32> loc(#loc24)
      %1460 = vector.fma %1299, %1456, %1360 : vector<32xf32> loc(#loc24)
      %1461 = memref.load %61[%148, %1401] : memref<?x?xf32, strided<[?, 1]>> loc(#loc24)
      %1462 = vector.broadcast %1461 : f32 to vector<32xf32> loc(#loc24)
      %1463 = vector.fma %1299, %1459, %1363 : vector<32xf32> loc(#loc24)
      %1464 = memref.load %61[%152, %1401] : memref<?x?xf32, strided<[?, 1]>> loc(#loc24)
      %1465 = vector.broadcast %1464 : f32 to vector<32xf32> loc(#loc24)
      %1466 = vector.fma %1299, %1462, %1366 : vector<32xf32> loc(#loc24)
      %1467 = memref.load %61[%156, %1401] : memref<?x?xf32, strided<[?, 1]>> loc(#loc24)
      %1468 = vector.broadcast %1467 : f32 to vector<32xf32> loc(#loc24)
      %1469 = vector.fma %1299, %1465, %1369 : vector<32xf32> loc(#loc24)
      %1470 = memref.load %61[%160, %1401] : memref<?x?xf32, strided<[?, 1]>> loc(#loc24)
      %1471 = vector.broadcast %1470 : f32 to vector<32xf32> loc(#loc24)
      %1472 = vector.fma %1299, %1468, %1372 : vector<32xf32> loc(#loc24)
      %1473 = memref.load %61[%164, %1401] : memref<?x?xf32, strided<[?, 1]>> loc(#loc24)
      %1474 = vector.broadcast %1473 : f32 to vector<32xf32> loc(#loc24)
      %1475 = vector.fma %1299, %1471, %1375 : vector<32xf32> loc(#loc24)
      %1476 = memref.load %61[%168, %1401] : memref<?x?xf32, strided<[?, 1]>> loc(#loc24)
      %1477 = vector.broadcast %1476 : f32 to vector<32xf32> loc(#loc24)
      %1478 = vector.fma %1299, %1474, %1378 : vector<32xf32> loc(#loc24)
      %1479 = memref.load %61[%172, %1401] : memref<?x?xf32, strided<[?, 1]>> loc(#loc24)
      %1480 = vector.broadcast %1479 : f32 to vector<32xf32> loc(#loc24)
      %1481 = vector.fma %1299, %1477, %1381 : vector<32xf32> loc(#loc24)
      %1482 = memref.load %61[%176, %1401] : memref<?x?xf32, strided<[?, 1]>> loc(#loc24)
      %1483 = vector.broadcast %1482 : f32 to vector<32xf32> loc(#loc24)
      %1484 = vector.fma %1299, %1480, %1384 : vector<32xf32> loc(#loc24)
      %1485 = memref.load %61[%180, %1401] : memref<?x?xf32, strided<[?, 1]>> loc(#loc24)
      %1486 = vector.broadcast %1485 : f32 to vector<32xf32> loc(#loc24)
      %1487 = vector.fma %1299, %1483, %1387 : vector<32xf32> loc(#loc24)
      %1488 = memref.load %61[%184, %1401] : memref<?x?xf32, strided<[?, 1]>> loc(#loc24)
      %1489 = vector.broadcast %1488 : f32 to vector<32xf32> loc(#loc24)
      %1490 = vector.fma %1299, %1486, %1390 : vector<32xf32> loc(#loc24)
      %1491 = memref.load %61[%188, %1401] : memref<?x?xf32, strided<[?, 1]>> loc(#loc24)
      %1492 = vector.broadcast %1491 : f32 to vector<32xf32> loc(#loc24)
      %1493 = vector.fma %1299, %1489, %1393 : vector<32xf32> loc(#loc24)
      %1494 = memref.load %61[%192, %1401] : memref<?x?xf32, strided<[?, 1]>> loc(#loc24)
      %1495 = vector.broadcast %1494 : f32 to vector<32xf32> loc(#loc24)
      %1496 = vector.fma %1299, %1492, %1396 : vector<32xf32> loc(#loc24)
      %1497 = vector.fma %1299, %1495, %1397 : vector<32xf32> loc(#loc24)
      %1498 = arith.addi %64#0, %c15 : index loc(#loc24)
      %1499 = vector.load %63[%1498, %64#1] : memref<?x?xf32, strided<[?, 1]>>, vector<32xf32> loc(#loc24)
      %1500 = arith.addi %64#0, %c30 : index loc(#loc24)
      memref.prefetch %63[%1500, %64#1], read, locality<1>, data : memref<?x?xf32, strided<[?, 1]>> loc(#loc24)
      %1501 = arith.addi %62#1, %c14 : index loc(#loc24)
      %1502 = memref.load %61[%62#0, %1501] : memref<?x?xf32, strided<[?, 1]>> loc(#loc24)
      %1503 = vector.broadcast %1502 : f32 to vector<32xf32> loc(#loc24)
      %1504 = memref.load %61[%72, %1501] : memref<?x?xf32, strided<[?, 1]>> loc(#loc24)
      %1505 = vector.broadcast %1504 : f32 to vector<32xf32> loc(#loc24)
      %1506 = vector.fma %1399, %1503, %1406 : vector<32xf32> loc(#loc24)
      %1507 = memref.load %61[%76, %1501] : memref<?x?xf32, strided<[?, 1]>> loc(#loc24)
      %1508 = vector.broadcast %1507 : f32 to vector<32xf32> loc(#loc24)
      %1509 = vector.fma %1399, %1505, %1409 : vector<32xf32> loc(#loc24)
      %1510 = memref.load %61[%80, %1501] : memref<?x?xf32, strided<[?, 1]>> loc(#loc24)
      %1511 = vector.broadcast %1510 : f32 to vector<32xf32> loc(#loc24)
      %1512 = vector.fma %1399, %1508, %1412 : vector<32xf32> loc(#loc24)
      %1513 = memref.load %61[%84, %1501] : memref<?x?xf32, strided<[?, 1]>> loc(#loc24)
      %1514 = vector.broadcast %1513 : f32 to vector<32xf32> loc(#loc24)
      %1515 = vector.fma %1399, %1511, %1415 : vector<32xf32> loc(#loc24)
      %1516 = memref.load %61[%88, %1501] : memref<?x?xf32, strided<[?, 1]>> loc(#loc24)
      %1517 = vector.broadcast %1516 : f32 to vector<32xf32> loc(#loc24)
      %1518 = vector.fma %1399, %1514, %1418 : vector<32xf32> loc(#loc24)
      %1519 = memref.load %61[%92, %1501] : memref<?x?xf32, strided<[?, 1]>> loc(#loc24)
      %1520 = vector.broadcast %1519 : f32 to vector<32xf32> loc(#loc24)
      %1521 = vector.fma %1399, %1517, %1421 : vector<32xf32> loc(#loc24)
      %1522 = memref.load %61[%96, %1501] : memref<?x?xf32, strided<[?, 1]>> loc(#loc24)
      %1523 = vector.broadcast %1522 : f32 to vector<32xf32> loc(#loc24)
      %1524 = vector.fma %1399, %1520, %1424 : vector<32xf32> loc(#loc24)
      %1525 = memref.load %61[%100, %1501] : memref<?x?xf32, strided<[?, 1]>> loc(#loc24)
      %1526 = vector.broadcast %1525 : f32 to vector<32xf32> loc(#loc24)
      %1527 = vector.fma %1399, %1523, %1427 : vector<32xf32> loc(#loc24)
      %1528 = memref.load %61[%104, %1501] : memref<?x?xf32, strided<[?, 1]>> loc(#loc24)
      %1529 = vector.broadcast %1528 : f32 to vector<32xf32> loc(#loc24)
      %1530 = vector.fma %1399, %1526, %1430 : vector<32xf32> loc(#loc24)
      %1531 = memref.load %61[%108, %1501] : memref<?x?xf32, strided<[?, 1]>> loc(#loc24)
      %1532 = vector.broadcast %1531 : f32 to vector<32xf32> loc(#loc24)
      %1533 = vector.fma %1399, %1529, %1433 : vector<32xf32> loc(#loc24)
      %1534 = memref.load %61[%112, %1501] : memref<?x?xf32, strided<[?, 1]>> loc(#loc24)
      %1535 = vector.broadcast %1534 : f32 to vector<32xf32> loc(#loc24)
      %1536 = vector.fma %1399, %1532, %1436 : vector<32xf32> loc(#loc24)
      %1537 = memref.load %61[%116, %1501] : memref<?x?xf32, strided<[?, 1]>> loc(#loc24)
      %1538 = vector.broadcast %1537 : f32 to vector<32xf32> loc(#loc24)
      %1539 = vector.fma %1399, %1535, %1439 : vector<32xf32> loc(#loc24)
      %1540 = memref.load %61[%120, %1501] : memref<?x?xf32, strided<[?, 1]>> loc(#loc24)
      %1541 = vector.broadcast %1540 : f32 to vector<32xf32> loc(#loc24)
      %1542 = vector.fma %1399, %1538, %1442 : vector<32xf32> loc(#loc24)
      %1543 = memref.load %61[%124, %1501] : memref<?x?xf32, strided<[?, 1]>> loc(#loc24)
      %1544 = vector.broadcast %1543 : f32 to vector<32xf32> loc(#loc24)
      %1545 = vector.fma %1399, %1541, %1445 : vector<32xf32> loc(#loc24)
      %1546 = memref.load %61[%128, %1501] : memref<?x?xf32, strided<[?, 1]>> loc(#loc24)
      %1547 = vector.broadcast %1546 : f32 to vector<32xf32> loc(#loc24)
      %1548 = vector.fma %1399, %1544, %1448 : vector<32xf32> loc(#loc24)
      %1549 = memref.load %61[%132, %1501] : memref<?x?xf32, strided<[?, 1]>> loc(#loc24)
      %1550 = vector.broadcast %1549 : f32 to vector<32xf32> loc(#loc24)
      %1551 = vector.fma %1399, %1547, %1451 : vector<32xf32> loc(#loc24)
      %1552 = memref.load %61[%136, %1501] : memref<?x?xf32, strided<[?, 1]>> loc(#loc24)
      %1553 = vector.broadcast %1552 : f32 to vector<32xf32> loc(#loc24)
      %1554 = vector.fma %1399, %1550, %1454 : vector<32xf32> loc(#loc24)
      %1555 = memref.load %61[%140, %1501] : memref<?x?xf32, strided<[?, 1]>> loc(#loc24)
      %1556 = vector.broadcast %1555 : f32 to vector<32xf32> loc(#loc24)
      %1557 = vector.fma %1399, %1553, %1457 : vector<32xf32> loc(#loc24)
      %1558 = memref.load %61[%144, %1501] : memref<?x?xf32, strided<[?, 1]>> loc(#loc24)
      %1559 = vector.broadcast %1558 : f32 to vector<32xf32> loc(#loc24)
      %1560 = vector.fma %1399, %1556, %1460 : vector<32xf32> loc(#loc24)
      %1561 = memref.load %61[%148, %1501] : memref<?x?xf32, strided<[?, 1]>> loc(#loc24)
      %1562 = vector.broadcast %1561 : f32 to vector<32xf32> loc(#loc24)
      %1563 = vector.fma %1399, %1559, %1463 : vector<32xf32> loc(#loc24)
      %1564 = memref.load %61[%152, %1501] : memref<?x?xf32, strided<[?, 1]>> loc(#loc24)
      %1565 = vector.broadcast %1564 : f32 to vector<32xf32> loc(#loc24)
      %1566 = vector.fma %1399, %1562, %1466 : vector<32xf32> loc(#loc24)
      %1567 = memref.load %61[%156, %1501] : memref<?x?xf32, strided<[?, 1]>> loc(#loc24)
      %1568 = vector.broadcast %1567 : f32 to vector<32xf32> loc(#loc24)
      %1569 = vector.fma %1399, %1565, %1469 : vector<32xf32> loc(#loc24)
      %1570 = memref.load %61[%160, %1501] : memref<?x?xf32, strided<[?, 1]>> loc(#loc24)
      %1571 = vector.broadcast %1570 : f32 to vector<32xf32> loc(#loc24)
      %1572 = vector.fma %1399, %1568, %1472 : vector<32xf32> loc(#loc24)
      %1573 = memref.load %61[%164, %1501] : memref<?x?xf32, strided<[?, 1]>> loc(#loc24)
      %1574 = vector.broadcast %1573 : f32 to vector<32xf32> loc(#loc24)
      %1575 = vector.fma %1399, %1571, %1475 : vector<32xf32> loc(#loc24)
      %1576 = memref.load %61[%168, %1501] : memref<?x?xf32, strided<[?, 1]>> loc(#loc24)
      %1577 = vector.broadcast %1576 : f32 to vector<32xf32> loc(#loc24)
      %1578 = vector.fma %1399, %1574, %1478 : vector<32xf32> loc(#loc24)
      %1579 = memref.load %61[%172, %1501] : memref<?x?xf32, strided<[?, 1]>> loc(#loc24)
      %1580 = vector.broadcast %1579 : f32 to vector<32xf32> loc(#loc24)
      %1581 = vector.fma %1399, %1577, %1481 : vector<32xf32> loc(#loc24)
      %1582 = memref.load %61[%176, %1501] : memref<?x?xf32, strided<[?, 1]>> loc(#loc24)
      %1583 = vector.broadcast %1582 : f32 to vector<32xf32> loc(#loc24)
      %1584 = vector.fma %1399, %1580, %1484 : vector<32xf32> loc(#loc24)
      %1585 = memref.load %61[%180, %1501] : memref<?x?xf32, strided<[?, 1]>> loc(#loc24)
      %1586 = vector.broadcast %1585 : f32 to vector<32xf32> loc(#loc24)
      %1587 = vector.fma %1399, %1583, %1487 : vector<32xf32> loc(#loc24)
      %1588 = memref.load %61[%184, %1501] : memref<?x?xf32, strided<[?, 1]>> loc(#loc24)
      %1589 = vector.broadcast %1588 : f32 to vector<32xf32> loc(#loc24)
      %1590 = vector.fma %1399, %1586, %1490 : vector<32xf32> loc(#loc24)
      %1591 = memref.load %61[%188, %1501] : memref<?x?xf32, strided<[?, 1]>> loc(#loc24)
      %1592 = vector.broadcast %1591 : f32 to vector<32xf32> loc(#loc24)
      %1593 = vector.fma %1399, %1589, %1493 : vector<32xf32> loc(#loc24)
      %1594 = memref.load %61[%192, %1501] : memref<?x?xf32, strided<[?, 1]>> loc(#loc24)
      %1595 = vector.broadcast %1594 : f32 to vector<32xf32> loc(#loc24)
      %1596 = vector.fma %1399, %1592, %1496 : vector<32xf32> loc(#loc24)
      %1597 = vector.fma %1399, %1595, %1497 : vector<32xf32> loc(#loc24)
      %1598 = arith.addi %64#0, %c31 : index loc(#loc24)
      memref.prefetch %63[%1598, %64#1], read, locality<1>, data : memref<?x?xf32, strided<[?, 1]>> loc(#loc24)
      %1599 = arith.addi %62#1, %c15 : index loc(#loc24)
      %1600 = memref.load %61[%62#0, %1599] : memref<?x?xf32, strided<[?, 1]>> loc(#loc24)
      %1601 = vector.broadcast %1600 : f32 to vector<32xf32> loc(#loc24)
      %1602 = memref.load %61[%72, %1599] : memref<?x?xf32, strided<[?, 1]>> loc(#loc24)
      %1603 = vector.broadcast %1602 : f32 to vector<32xf32> loc(#loc24)
      %1604 = vector.fma %1499, %1601, %1506 : vector<32xf32> loc(#loc24)
      %1605 = memref.load %61[%76, %1599] : memref<?x?xf32, strided<[?, 1]>> loc(#loc24)
      %1606 = vector.broadcast %1605 : f32 to vector<32xf32> loc(#loc24)
      %1607 = vector.fma %1499, %1603, %1509 : vector<32xf32> loc(#loc24)
      %1608 = memref.load %61[%80, %1599] : memref<?x?xf32, strided<[?, 1]>> loc(#loc24)
      %1609 = vector.broadcast %1608 : f32 to vector<32xf32> loc(#loc24)
      %1610 = vector.fma %1499, %1606, %1512 : vector<32xf32> loc(#loc24)
      %1611 = memref.load %61[%84, %1599] : memref<?x?xf32, strided<[?, 1]>> loc(#loc24)
      %1612 = vector.broadcast %1611 : f32 to vector<32xf32> loc(#loc24)
      %1613 = vector.fma %1499, %1609, %1515 : vector<32xf32> loc(#loc24)
      %1614 = memref.load %61[%88, %1599] : memref<?x?xf32, strided<[?, 1]>> loc(#loc24)
      %1615 = vector.broadcast %1614 : f32 to vector<32xf32> loc(#loc24)
      %1616 = vector.fma %1499, %1612, %1518 : vector<32xf32> loc(#loc24)
      %1617 = memref.load %61[%92, %1599] : memref<?x?xf32, strided<[?, 1]>> loc(#loc24)
      %1618 = vector.broadcast %1617 : f32 to vector<32xf32> loc(#loc24)
      %1619 = vector.fma %1499, %1615, %1521 : vector<32xf32> loc(#loc24)
      %1620 = memref.load %61[%96, %1599] : memref<?x?xf32, strided<[?, 1]>> loc(#loc24)
      %1621 = vector.broadcast %1620 : f32 to vector<32xf32> loc(#loc24)
      %1622 = vector.fma %1499, %1618, %1524 : vector<32xf32> loc(#loc24)
      %1623 = memref.load %61[%100, %1599] : memref<?x?xf32, strided<[?, 1]>> loc(#loc24)
      %1624 = vector.broadcast %1623 : f32 to vector<32xf32> loc(#loc24)
      %1625 = vector.fma %1499, %1621, %1527 : vector<32xf32> loc(#loc24)
      %1626 = memref.load %61[%104, %1599] : memref<?x?xf32, strided<[?, 1]>> loc(#loc24)
      %1627 = vector.broadcast %1626 : f32 to vector<32xf32> loc(#loc24)
      %1628 = vector.fma %1499, %1624, %1530 : vector<32xf32> loc(#loc24)
      %1629 = memref.load %61[%108, %1599] : memref<?x?xf32, strided<[?, 1]>> loc(#loc24)
      %1630 = vector.broadcast %1629 : f32 to vector<32xf32> loc(#loc24)
      %1631 = vector.fma %1499, %1627, %1533 : vector<32xf32> loc(#loc24)
      %1632 = memref.load %61[%112, %1599] : memref<?x?xf32, strided<[?, 1]>> loc(#loc24)
      %1633 = vector.broadcast %1632 : f32 to vector<32xf32> loc(#loc24)
      %1634 = vector.fma %1499, %1630, %1536 : vector<32xf32> loc(#loc24)
      %1635 = memref.load %61[%116, %1599] : memref<?x?xf32, strided<[?, 1]>> loc(#loc24)
      %1636 = vector.broadcast %1635 : f32 to vector<32xf32> loc(#loc24)
      %1637 = vector.fma %1499, %1633, %1539 : vector<32xf32> loc(#loc24)
      %1638 = memref.load %61[%120, %1599] : memref<?x?xf32, strided<[?, 1]>> loc(#loc24)
      %1639 = vector.broadcast %1638 : f32 to vector<32xf32> loc(#loc24)
      %1640 = vector.fma %1499, %1636, %1542 : vector<32xf32> loc(#loc24)
      %1641 = memref.load %61[%124, %1599] : memref<?x?xf32, strided<[?, 1]>> loc(#loc24)
      %1642 = vector.broadcast %1641 : f32 to vector<32xf32> loc(#loc24)
      %1643 = vector.fma %1499, %1639, %1545 : vector<32xf32> loc(#loc24)
      %1644 = memref.load %61[%128, %1599] : memref<?x?xf32, strided<[?, 1]>> loc(#loc24)
      %1645 = vector.broadcast %1644 : f32 to vector<32xf32> loc(#loc24)
      %1646 = vector.fma %1499, %1642, %1548 : vector<32xf32> loc(#loc24)
      %1647 = memref.load %61[%132, %1599] : memref<?x?xf32, strided<[?, 1]>> loc(#loc24)
      %1648 = vector.broadcast %1647 : f32 to vector<32xf32> loc(#loc24)
      %1649 = vector.fma %1499, %1645, %1551 : vector<32xf32> loc(#loc24)
      %1650 = memref.load %61[%136, %1599] : memref<?x?xf32, strided<[?, 1]>> loc(#loc24)
      %1651 = vector.broadcast %1650 : f32 to vector<32xf32> loc(#loc24)
      %1652 = vector.fma %1499, %1648, %1554 : vector<32xf32> loc(#loc24)
      %1653 = memref.load %61[%140, %1599] : memref<?x?xf32, strided<[?, 1]>> loc(#loc24)
      %1654 = vector.broadcast %1653 : f32 to vector<32xf32> loc(#loc24)
      %1655 = vector.fma %1499, %1651, %1557 : vector<32xf32> loc(#loc24)
      %1656 = memref.load %61[%144, %1599] : memref<?x?xf32, strided<[?, 1]>> loc(#loc24)
      %1657 = vector.broadcast %1656 : f32 to vector<32xf32> loc(#loc24)
      %1658 = vector.fma %1499, %1654, %1560 : vector<32xf32> loc(#loc24)
      %1659 = memref.load %61[%148, %1599] : memref<?x?xf32, strided<[?, 1]>> loc(#loc24)
      %1660 = vector.broadcast %1659 : f32 to vector<32xf32> loc(#loc24)
      %1661 = vector.fma %1499, %1657, %1563 : vector<32xf32> loc(#loc24)
      %1662 = memref.load %61[%152, %1599] : memref<?x?xf32, strided<[?, 1]>> loc(#loc24)
      %1663 = vector.broadcast %1662 : f32 to vector<32xf32> loc(#loc24)
      %1664 = vector.fma %1499, %1660, %1566 : vector<32xf32> loc(#loc24)
      %1665 = memref.load %61[%156, %1599] : memref<?x?xf32, strided<[?, 1]>> loc(#loc24)
      %1666 = vector.broadcast %1665 : f32 to vector<32xf32> loc(#loc24)
      %1667 = vector.fma %1499, %1663, %1569 : vector<32xf32> loc(#loc24)
      %1668 = memref.load %61[%160, %1599] : memref<?x?xf32, strided<[?, 1]>> loc(#loc24)
      %1669 = vector.broadcast %1668 : f32 to vector<32xf32> loc(#loc24)
      %1670 = vector.fma %1499, %1666, %1572 : vector<32xf32> loc(#loc24)
      %1671 = memref.load %61[%164, %1599] : memref<?x?xf32, strided<[?, 1]>> loc(#loc24)
      %1672 = vector.broadcast %1671 : f32 to vector<32xf32> loc(#loc24)
      %1673 = vector.fma %1499, %1669, %1575 : vector<32xf32> loc(#loc24)
      %1674 = memref.load %61[%168, %1599] : memref<?x?xf32, strided<[?, 1]>> loc(#loc24)
      %1675 = vector.broadcast %1674 : f32 to vector<32xf32> loc(#loc24)
      %1676 = vector.fma %1499, %1672, %1578 : vector<32xf32> loc(#loc24)
      %1677 = memref.load %61[%172, %1599] : memref<?x?xf32, strided<[?, 1]>> loc(#loc24)
      %1678 = vector.broadcast %1677 : f32 to vector<32xf32> loc(#loc24)
      %1679 = vector.fma %1499, %1675, %1581 : vector<32xf32> loc(#loc24)
      %1680 = memref.load %61[%176, %1599] : memref<?x?xf32, strided<[?, 1]>> loc(#loc24)
      %1681 = vector.broadcast %1680 : f32 to vector<32xf32> loc(#loc24)
      %1682 = vector.fma %1499, %1678, %1584 : vector<32xf32> loc(#loc24)
      %1683 = memref.load %61[%180, %1599] : memref<?x?xf32, strided<[?, 1]>> loc(#loc24)
      %1684 = vector.broadcast %1683 : f32 to vector<32xf32> loc(#loc24)
      %1685 = vector.fma %1499, %1681, %1587 : vector<32xf32> loc(#loc24)
      %1686 = memref.load %61[%184, %1599] : memref<?x?xf32, strided<[?, 1]>> loc(#loc24)
      %1687 = vector.broadcast %1686 : f32 to vector<32xf32> loc(#loc24)
      %1688 = vector.fma %1499, %1684, %1590 : vector<32xf32> loc(#loc24)
      %1689 = memref.load %61[%188, %1599] : memref<?x?xf32, strided<[?, 1]>> loc(#loc24)
      %1690 = vector.broadcast %1689 : f32 to vector<32xf32> loc(#loc24)
      %1691 = vector.fma %1499, %1687, %1593 : vector<32xf32> loc(#loc24)
      %1692 = memref.load %61[%192, %1599] : memref<?x?xf32, strided<[?, 1]>> loc(#loc24)
      %1693 = vector.broadcast %1692 : f32 to vector<32xf32> loc(#loc24)
      %1694 = vector.fma %1499, %1690, %1596 : vector<32xf32> loc(#loc24)
      %1695 = vector.fma %1499, %1693, %1597 : vector<32xf32> loc(#loc24)
      %1696 = tt.advance %arg10, [%c0_i32, %c16_i32] : <tensor<32x16xf32>> loc(#loc25)
      %1697 = tt.advance %arg11, [%c16_i32, %c0_i32] : <tensor<16x32xf32>> loc(#loc26)
      scf.yield %1696, %1697, %1604, %1607, %1610, %1613, %1616, %1619, %1622, %1625, %1628, %1631, %1634, %1637, %1640, %1643, %1646, %1649, %1652, %1655, %1658, %1661, %1664, %1667, %1670, %1673, %1676, %1679, %1682, %1685, %1688, %1691, %1694, %1695 : !tt.ptr<tensor<32x16xf32>>, !tt.ptr<tensor<16x32xf32>>, vector<32xf32>, vector<32xf32>, vector<32xf32>, vector<32xf32>, vector<32xf32>, vector<32xf32>, vector<32xf32>, vector<32xf32>, vector<32xf32>, vector<32xf32>, vector<32xf32>, vector<32xf32>, vector<32xf32>, vector<32xf32>, vector<32xf32>, vector<32xf32>, vector<32xf32>, vector<32xf32>, vector<32xf32>, vector<32xf32>, vector<32xf32>, vector<32xf32>, vector<32xf32>, vector<32xf32>, vector<32xf32>, vector<32xf32>, vector<32xf32>, vector<32xf32>, vector<32xf32>, vector<32xf32>, vector<32xf32>, vector<32xf32> loc(#loc27)
    } loc(#loc21)
    %25 = vector.insert %24#2, %cst_0 [0] : vector<32xf32> into vector<32x32xf32> loc(#loc24)
    %26 = vector.insert %24#3, %25 [1] : vector<32xf32> into vector<32x32xf32> loc(#loc24)
    %27 = vector.insert %24#4, %26 [2] : vector<32xf32> into vector<32x32xf32> loc(#loc24)
    %28 = vector.insert %24#5, %27 [3] : vector<32xf32> into vector<32x32xf32> loc(#loc24)
    %29 = vector.insert %24#6, %28 [4] : vector<32xf32> into vector<32x32xf32> loc(#loc24)
    %30 = vector.insert %24#7, %29 [5] : vector<32xf32> into vector<32x32xf32> loc(#loc24)
    %31 = vector.insert %24#8, %30 [6] : vector<32xf32> into vector<32x32xf32> loc(#loc24)
    %32 = vector.insert %24#9, %31 [7] : vector<32xf32> into vector<32x32xf32> loc(#loc24)
    %33 = vector.insert %24#10, %32 [8] : vector<32xf32> into vector<32x32xf32> loc(#loc24)
    %34 = vector.insert %24#11, %33 [9] : vector<32xf32> into vector<32x32xf32> loc(#loc24)
    %35 = vector.insert %24#12, %34 [10] : vector<32xf32> into vector<32x32xf32> loc(#loc24)
    %36 = vector.insert %24#13, %35 [11] : vector<32xf32> into vector<32x32xf32> loc(#loc24)
    %37 = vector.insert %24#14, %36 [12] : vector<32xf32> into vector<32x32xf32> loc(#loc24)
    %38 = vector.insert %24#15, %37 [13] : vector<32xf32> into vector<32x32xf32> loc(#loc24)
    %39 = vector.insert %24#16, %38 [14] : vector<32xf32> into vector<32x32xf32> loc(#loc24)
    %40 = vector.insert %24#17, %39 [15] : vector<32xf32> into vector<32x32xf32> loc(#loc24)
    %41 = vector.insert %24#18, %40 [16] : vector<32xf32> into vector<32x32xf32> loc(#loc24)
    %42 = vector.insert %24#19, %41 [17] : vector<32xf32> into vector<32x32xf32> loc(#loc24)
    %43 = vector.insert %24#20, %42 [18] : vector<32xf32> into vector<32x32xf32> loc(#loc24)
    %44 = vector.insert %24#21, %43 [19] : vector<32xf32> into vector<32x32xf32> loc(#loc24)
    %45 = vector.insert %24#22, %44 [20] : vector<32xf32> into vector<32x32xf32> loc(#loc24)
    %46 = vector.insert %24#23, %45 [21] : vector<32xf32> into vector<32x32xf32> loc(#loc24)
    %47 = vector.insert %24#24, %46 [22] : vector<32xf32> into vector<32x32xf32> loc(#loc24)
    %48 = vector.insert %24#25, %47 [23] : vector<32xf32> into vector<32x32xf32> loc(#loc24)
    %49 = vector.insert %24#26, %48 [24] : vector<32xf32> into vector<32x32xf32> loc(#loc24)
    %50 = vector.insert %24#27, %49 [25] : vector<32xf32> into vector<32x32xf32> loc(#loc24)
    %51 = vector.insert %24#28, %50 [26] : vector<32xf32> into vector<32x32xf32> loc(#loc24)
    %52 = vector.insert %24#29, %51 [27] : vector<32xf32> into vector<32x32xf32> loc(#loc24)
    %53 = vector.insert %24#30, %52 [28] : vector<32xf32> into vector<32x32xf32> loc(#loc24)
    %54 = vector.insert %24#31, %53 [29] : vector<32xf32> into vector<32x32xf32> loc(#loc24)
    %55 = vector.insert %24#32, %54 [30] : vector<32xf32> into vector<32x32xf32> loc(#loc24)
    %56 = vector.insert %24#33, %55 [31] : vector<32xf32> into vector<32x32xf32> loc(#loc24)
    %57 = arith.extsi %arg8 : i32 to i64 loc(#loc28)
    %58 = tt.make_tensor_ptr %arg2, [%16, %20], [%57, %c1_i64], [%14, %15] {order = array<i32: 1, 0>} : <tensor<32x32xf32>> loc(#loc28)
    %59 = triton_cpu.extract_memref %58 : <tensor<32x32xf32>> -> memref<?x?xf32, strided<[?, 1]>> loc(#loc29)
    %60:2 = triton_cpu.extract_indices %58 : <tensor<32x32xf32>> -> index, index loc(#loc29)
    vector.transfer_write %56, %59[%60#0, %60#1] {in_bounds = [true, true]} : vector<32x32xf32>, memref<?x?xf32, strided<[?, 1]>> loc(#loc29)
    tt.return loc(#loc30)
  } loc(#loc)
} loc(#loc)
#loc1 = loc(unknown)
#loc2 = loc("/home/yuhao/T_RVV/benchmark/src/triton/matmul.py":45:24)
#loc3 = loc("/home/yuhao/triton-cpu/python/triton/language/standard.py":40:22)
#loc4 = loc("/home/yuhao/T_RVV/benchmark/src/triton/matmul.py":46:27)
#loc5 = loc("/home/yuhao/triton-cpu/python/triton/language/standard.py":40:28)
#loc6 = loc("/home/yuhao/T_RVV/benchmark/src/triton/matmul.py":47:27)
#loc7 = loc("/home/yuhao/T_RVV/benchmark/src/triton/matmul.py":48:38)
#loc8 = loc("/home/yuhao/T_RVV/benchmark/src/triton/matmul.py":49:22)
#loc9 = loc("/home/yuhao/T_RVV/benchmark/src/triton/matmul.py":50:29)
#loc10 = loc("/home/yuhao/T_RVV/benchmark/src/triton/matmul.py":51:35)
#loc11 = loc("/home/yuhao/T_RVV/benchmark/src/triton/matmul.py":51:48)
#loc12 = loc("/home/yuhao/T_RVV/benchmark/src/triton/matmul.py":52:33)
#loc13 = loc("/home/yuhao/T_RVV/benchmark/src/triton/matmul.py":52:27)
#loc14 = loc("/home/yuhao/T_RVV/benchmark/src/triton/matmul.py":53:19)
#loc15 = loc("/home/yuhao/T_RVV/benchmark/src/triton/matmul.py":53:40)
#loc16 = loc("/home/yuhao/T_RVV/benchmark/src/triton/matmul.py":63:33)
#loc17 = loc("/home/yuhao/T_RVV/benchmark/src/triton/matmul.py":64:33)
#loc18 = loc("/home/yuhao/T_RVV/benchmark/src/triton/matmul.py":67:39)
#loc19 = loc("/home/yuhao/T_RVV/benchmark/src/triton/matmul.py":70:39)
#loc20 = loc("/home/yuhao/T_RVV/benchmark/src/triton/matmul.py":79:33)
#loc21 = loc("/home/yuhao/T_RVV/benchmark/src/triton/matmul.py":79:22)
#loc22 = loc("/home/yuhao/T_RVV/benchmark/src/triton/matmul.py":83:20)
#loc23 = loc("/home/yuhao/T_RVV/benchmark/src/triton/matmul.py":84:20)
#loc24 = loc("/home/yuhao/T_RVV/benchmark/src/triton/matmul.py":86:35)
#loc25 = loc("/home/yuhao/T_RVV/benchmark/src/triton/matmul.py":89:48)
#loc26 = loc("/home/yuhao/T_RVV/benchmark/src/triton/matmul.py":90:48)
#loc27 = loc("/home/yuhao/T_RVV/benchmark/src/triton/matmul.py":88:8)
#loc28 = loc("/home/yuhao/T_RVV/benchmark/src/triton/matmul.py":102:81)
#loc29 = loc("/home/yuhao/T_RVV/benchmark/src/triton/matmul.py":103:29)
#loc30 = loc("/home/yuhao/T_RVV/benchmark/src/triton/matmul.py":99:4)
#loc31 = loc(callsite(#loc3 at #loc4))
#loc32 = loc(callsite(#loc5 at #loc4))
#loc33 = loc(callsite(#loc3 at #loc6))
#loc34 = loc(callsite(#loc5 at #loc6))
#loc35 = loc(callsite(#loc5 at #loc20))
