#loc = loc("/home/yuhao/T_RVV/benchmark/src/triton/matmul.py":24:0)
module {
  tt.func public @matmul_kernel(%arg0: !tt.ptr<f32> {tt.divisibility = 16 : i32} loc("/home/yuhao/T_RVV/benchmark/src/triton/matmul.py":24:0), %arg1: !tt.ptr<f32> {tt.divisibility = 16 : i32} loc("/home/yuhao/T_RVV/benchmark/src/triton/matmul.py":24:0), %arg2: !tt.ptr<f32> {tt.divisibility = 16 : i32} loc("/home/yuhao/T_RVV/benchmark/src/triton/matmul.py":24:0), %arg3: i32 {tt.divisibility = 16 : i32} loc("/home/yuhao/T_RVV/benchmark/src/triton/matmul.py":24:0), %arg4: i32 {tt.divisibility = 16 : i32} loc("/home/yuhao/T_RVV/benchmark/src/triton/matmul.py":24:0), %arg5: i32 {tt.divisibility = 16 : i32} loc("/home/yuhao/T_RVV/benchmark/src/triton/matmul.py":24:0), %arg6: i32 {tt.divisibility = 16 : i32} loc("/home/yuhao/T_RVV/benchmark/src/triton/matmul.py":24:0), %arg7: i32 {tt.divisibility = 16 : i32} loc("/home/yuhao/T_RVV/benchmark/src/triton/matmul.py":24:0), %arg8: i32 {tt.divisibility = 16 : i32} loc("/home/yuhao/T_RVV/benchmark/src/triton/matmul.py":24:0)) attributes {noinline = false} {
    %c255 = arith.constant 255 : index loc(#loc1)
    %c254 = arith.constant 254 : index loc(#loc1)
    %c253 = arith.constant 253 : index loc(#loc1)
    %c252 = arith.constant 252 : index loc(#loc1)
    %c251 = arith.constant 251 : index loc(#loc1)
    %c250 = arith.constant 250 : index loc(#loc1)
    %c249 = arith.constant 249 : index loc(#loc1)
    %c248 = arith.constant 248 : index loc(#loc1)
    %c247 = arith.constant 247 : index loc(#loc1)
    %c246 = arith.constant 246 : index loc(#loc1)
    %c245 = arith.constant 245 : index loc(#loc1)
    %c244 = arith.constant 244 : index loc(#loc1)
    %c243 = arith.constant 243 : index loc(#loc1)
    %c242 = arith.constant 242 : index loc(#loc1)
    %c241 = arith.constant 241 : index loc(#loc1)
    %c240 = arith.constant 240 : index loc(#loc1)
    %c239 = arith.constant 239 : index loc(#loc1)
    %c238 = arith.constant 238 : index loc(#loc1)
    %c237 = arith.constant 237 : index loc(#loc1)
    %c236 = arith.constant 236 : index loc(#loc1)
    %c235 = arith.constant 235 : index loc(#loc1)
    %c234 = arith.constant 234 : index loc(#loc1)
    %c233 = arith.constant 233 : index loc(#loc1)
    %c232 = arith.constant 232 : index loc(#loc1)
    %c231 = arith.constant 231 : index loc(#loc1)
    %c230 = arith.constant 230 : index loc(#loc1)
    %c229 = arith.constant 229 : index loc(#loc1)
    %c228 = arith.constant 228 : index loc(#loc1)
    %c227 = arith.constant 227 : index loc(#loc1)
    %c226 = arith.constant 226 : index loc(#loc1)
    %c225 = arith.constant 225 : index loc(#loc1)
    %c224 = arith.constant 224 : index loc(#loc1)
    %c223 = arith.constant 223 : index loc(#loc1)
    %c222 = arith.constant 222 : index loc(#loc1)
    %c221 = arith.constant 221 : index loc(#loc1)
    %c220 = arith.constant 220 : index loc(#loc1)
    %c219 = arith.constant 219 : index loc(#loc1)
    %c218 = arith.constant 218 : index loc(#loc1)
    %c217 = arith.constant 217 : index loc(#loc1)
    %c216 = arith.constant 216 : index loc(#loc1)
    %c215 = arith.constant 215 : index loc(#loc1)
    %c214 = arith.constant 214 : index loc(#loc1)
    %c213 = arith.constant 213 : index loc(#loc1)
    %c212 = arith.constant 212 : index loc(#loc1)
    %c211 = arith.constant 211 : index loc(#loc1)
    %c210 = arith.constant 210 : index loc(#loc1)
    %c209 = arith.constant 209 : index loc(#loc1)
    %c208 = arith.constant 208 : index loc(#loc1)
    %c207 = arith.constant 207 : index loc(#loc1)
    %c206 = arith.constant 206 : index loc(#loc1)
    %c205 = arith.constant 205 : index loc(#loc1)
    %c204 = arith.constant 204 : index loc(#loc1)
    %c203 = arith.constant 203 : index loc(#loc1)
    %c202 = arith.constant 202 : index loc(#loc1)
    %c201 = arith.constant 201 : index loc(#loc1)
    %c200 = arith.constant 200 : index loc(#loc1)
    %c199 = arith.constant 199 : index loc(#loc1)
    %c198 = arith.constant 198 : index loc(#loc1)
    %c197 = arith.constant 197 : index loc(#loc1)
    %c196 = arith.constant 196 : index loc(#loc1)
    %c195 = arith.constant 195 : index loc(#loc1)
    %c194 = arith.constant 194 : index loc(#loc1)
    %c193 = arith.constant 193 : index loc(#loc1)
    %c192 = arith.constant 192 : index loc(#loc1)
    %c191 = arith.constant 191 : index loc(#loc1)
    %c190 = arith.constant 190 : index loc(#loc1)
    %c189 = arith.constant 189 : index loc(#loc1)
    %c188 = arith.constant 188 : index loc(#loc1)
    %c187 = arith.constant 187 : index loc(#loc1)
    %c186 = arith.constant 186 : index loc(#loc1)
    %c185 = arith.constant 185 : index loc(#loc1)
    %c184 = arith.constant 184 : index loc(#loc1)
    %c183 = arith.constant 183 : index loc(#loc1)
    %c182 = arith.constant 182 : index loc(#loc1)
    %c181 = arith.constant 181 : index loc(#loc1)
    %c180 = arith.constant 180 : index loc(#loc1)
    %c179 = arith.constant 179 : index loc(#loc1)
    %c178 = arith.constant 178 : index loc(#loc1)
    %c177 = arith.constant 177 : index loc(#loc1)
    %c176 = arith.constant 176 : index loc(#loc1)
    %c175 = arith.constant 175 : index loc(#loc1)
    %c174 = arith.constant 174 : index loc(#loc1)
    %c173 = arith.constant 173 : index loc(#loc1)
    %c172 = arith.constant 172 : index loc(#loc1)
    %c171 = arith.constant 171 : index loc(#loc1)
    %c170 = arith.constant 170 : index loc(#loc1)
    %c169 = arith.constant 169 : index loc(#loc1)
    %c168 = arith.constant 168 : index loc(#loc1)
    %c167 = arith.constant 167 : index loc(#loc1)
    %c166 = arith.constant 166 : index loc(#loc1)
    %c165 = arith.constant 165 : index loc(#loc1)
    %c164 = arith.constant 164 : index loc(#loc1)
    %c163 = arith.constant 163 : index loc(#loc1)
    %c162 = arith.constant 162 : index loc(#loc1)
    %c161 = arith.constant 161 : index loc(#loc1)
    %c160 = arith.constant 160 : index loc(#loc1)
    %c159 = arith.constant 159 : index loc(#loc1)
    %c158 = arith.constant 158 : index loc(#loc1)
    %c157 = arith.constant 157 : index loc(#loc1)
    %c156 = arith.constant 156 : index loc(#loc1)
    %c155 = arith.constant 155 : index loc(#loc1)
    %c154 = arith.constant 154 : index loc(#loc1)
    %c153 = arith.constant 153 : index loc(#loc1)
    %c152 = arith.constant 152 : index loc(#loc1)
    %c151 = arith.constant 151 : index loc(#loc1)
    %c150 = arith.constant 150 : index loc(#loc1)
    %c149 = arith.constant 149 : index loc(#loc1)
    %c148 = arith.constant 148 : index loc(#loc1)
    %c147 = arith.constant 147 : index loc(#loc1)
    %c146 = arith.constant 146 : index loc(#loc1)
    %c145 = arith.constant 145 : index loc(#loc1)
    %c144 = arith.constant 144 : index loc(#loc1)
    %c143 = arith.constant 143 : index loc(#loc1)
    %c142 = arith.constant 142 : index loc(#loc1)
    %c141 = arith.constant 141 : index loc(#loc1)
    %c140 = arith.constant 140 : index loc(#loc1)
    %c139 = arith.constant 139 : index loc(#loc1)
    %c138 = arith.constant 138 : index loc(#loc1)
    %c137 = arith.constant 137 : index loc(#loc1)
    %c136 = arith.constant 136 : index loc(#loc1)
    %c135 = arith.constant 135 : index loc(#loc1)
    %c134 = arith.constant 134 : index loc(#loc1)
    %c133 = arith.constant 133 : index loc(#loc1)
    %c132 = arith.constant 132 : index loc(#loc1)
    %c131 = arith.constant 131 : index loc(#loc1)
    %c130 = arith.constant 130 : index loc(#loc1)
    %c129 = arith.constant 129 : index loc(#loc1)
    %c128 = arith.constant 128 : index loc(#loc1)
    %cst = arith.constant dense<0.000000e+00> : vector<64xf32> loc(#loc1)
    %c127 = arith.constant 127 : index loc(#loc1)
    %c126 = arith.constant 126 : index loc(#loc1)
    %c125 = arith.constant 125 : index loc(#loc1)
    %c124 = arith.constant 124 : index loc(#loc1)
    %c123 = arith.constant 123 : index loc(#loc1)
    %c122 = arith.constant 122 : index loc(#loc1)
    %c121 = arith.constant 121 : index loc(#loc1)
    %c120 = arith.constant 120 : index loc(#loc1)
    %c119 = arith.constant 119 : index loc(#loc1)
    %c118 = arith.constant 118 : index loc(#loc1)
    %c117 = arith.constant 117 : index loc(#loc1)
    %c116 = arith.constant 116 : index loc(#loc1)
    %c115 = arith.constant 115 : index loc(#loc1)
    %c114 = arith.constant 114 : index loc(#loc1)
    %c113 = arith.constant 113 : index loc(#loc1)
    %c112 = arith.constant 112 : index loc(#loc1)
    %c111 = arith.constant 111 : index loc(#loc1)
    %c110 = arith.constant 110 : index loc(#loc1)
    %c109 = arith.constant 109 : index loc(#loc1)
    %c108 = arith.constant 108 : index loc(#loc1)
    %c107 = arith.constant 107 : index loc(#loc1)
    %c106 = arith.constant 106 : index loc(#loc1)
    %c105 = arith.constant 105 : index loc(#loc1)
    %c104 = arith.constant 104 : index loc(#loc1)
    %c103 = arith.constant 103 : index loc(#loc1)
    %c102 = arith.constant 102 : index loc(#loc1)
    %c101 = arith.constant 101 : index loc(#loc1)
    %c100 = arith.constant 100 : index loc(#loc1)
    %c99 = arith.constant 99 : index loc(#loc1)
    %c98 = arith.constant 98 : index loc(#loc1)
    %c97 = arith.constant 97 : index loc(#loc1)
    %c96 = arith.constant 96 : index loc(#loc1)
    %c95 = arith.constant 95 : index loc(#loc1)
    %c94 = arith.constant 94 : index loc(#loc1)
    %c93 = arith.constant 93 : index loc(#loc1)
    %c92 = arith.constant 92 : index loc(#loc1)
    %c91 = arith.constant 91 : index loc(#loc1)
    %c90 = arith.constant 90 : index loc(#loc1)
    %c89 = arith.constant 89 : index loc(#loc1)
    %c88 = arith.constant 88 : index loc(#loc1)
    %c87 = arith.constant 87 : index loc(#loc1)
    %c86 = arith.constant 86 : index loc(#loc1)
    %c85 = arith.constant 85 : index loc(#loc1)
    %c84 = arith.constant 84 : index loc(#loc1)
    %c83 = arith.constant 83 : index loc(#loc1)
    %c82 = arith.constant 82 : index loc(#loc1)
    %c81 = arith.constant 81 : index loc(#loc1)
    %c80 = arith.constant 80 : index loc(#loc1)
    %c79 = arith.constant 79 : index loc(#loc1)
    %c78 = arith.constant 78 : index loc(#loc1)
    %c77 = arith.constant 77 : index loc(#loc1)
    %c76 = arith.constant 76 : index loc(#loc1)
    %c75 = arith.constant 75 : index loc(#loc1)
    %c74 = arith.constant 74 : index loc(#loc1)
    %c73 = arith.constant 73 : index loc(#loc1)
    %c72 = arith.constant 72 : index loc(#loc1)
    %c71 = arith.constant 71 : index loc(#loc1)
    %c70 = arith.constant 70 : index loc(#loc1)
    %c69 = arith.constant 69 : index loc(#loc1)
    %c68 = arith.constant 68 : index loc(#loc1)
    %c67 = arith.constant 67 : index loc(#loc1)
    %c66 = arith.constant 66 : index loc(#loc1)
    %c65 = arith.constant 65 : index loc(#loc1)
    %c64 = arith.constant 64 : index loc(#loc1)
    %c63 = arith.constant 63 : index loc(#loc1)
    %c62 = arith.constant 62 : index loc(#loc1)
    %c61 = arith.constant 61 : index loc(#loc1)
    %c60 = arith.constant 60 : index loc(#loc1)
    %c59 = arith.constant 59 : index loc(#loc1)
    %c58 = arith.constant 58 : index loc(#loc1)
    %c57 = arith.constant 57 : index loc(#loc1)
    %c56 = arith.constant 56 : index loc(#loc1)
    %c55 = arith.constant 55 : index loc(#loc1)
    %c54 = arith.constant 54 : index loc(#loc1)
    %c53 = arith.constant 53 : index loc(#loc1)
    %c52 = arith.constant 52 : index loc(#loc1)
    %c51 = arith.constant 51 : index loc(#loc1)
    %c50 = arith.constant 50 : index loc(#loc1)
    %c49 = arith.constant 49 : index loc(#loc1)
    %c48 = arith.constant 48 : index loc(#loc1)
    %c47 = arith.constant 47 : index loc(#loc1)
    %c46 = arith.constant 46 : index loc(#loc1)
    %c45 = arith.constant 45 : index loc(#loc1)
    %c44 = arith.constant 44 : index loc(#loc1)
    %c43 = arith.constant 43 : index loc(#loc1)
    %c42 = arith.constant 42 : index loc(#loc1)
    %c41 = arith.constant 41 : index loc(#loc1)
    %c40 = arith.constant 40 : index loc(#loc1)
    %c39 = arith.constant 39 : index loc(#loc1)
    %c38 = arith.constant 38 : index loc(#loc1)
    %c37 = arith.constant 37 : index loc(#loc1)
    %c36 = arith.constant 36 : index loc(#loc1)
    %c35 = arith.constant 35 : index loc(#loc1)
    %c34 = arith.constant 34 : index loc(#loc1)
    %c33 = arith.constant 33 : index loc(#loc1)
    %c32 = arith.constant 32 : index loc(#loc1)
    %c31 = arith.constant 31 : index loc(#loc1)
    %c30 = arith.constant 30 : index loc(#loc1)
    %c29 = arith.constant 29 : index loc(#loc1)
    %c28 = arith.constant 28 : index loc(#loc1)
    %c27 = arith.constant 27 : index loc(#loc1)
    %c26 = arith.constant 26 : index loc(#loc1)
    %c25 = arith.constant 25 : index loc(#loc1)
    %c24 = arith.constant 24 : index loc(#loc1)
    %c23 = arith.constant 23 : index loc(#loc1)
    %c22 = arith.constant 22 : index loc(#loc1)
    %c21 = arith.constant 21 : index loc(#loc1)
    %c20 = arith.constant 20 : index loc(#loc1)
    %c19 = arith.constant 19 : index loc(#loc1)
    %c18 = arith.constant 18 : index loc(#loc1)
    %c17 = arith.constant 17 : index loc(#loc1)
    %c16 = arith.constant 16 : index loc(#loc1)
    %c15 = arith.constant 15 : index loc(#loc1)
    %c14 = arith.constant 14 : index loc(#loc1)
    %c13 = arith.constant 13 : index loc(#loc1)
    %c12 = arith.constant 12 : index loc(#loc1)
    %c11 = arith.constant 11 : index loc(#loc1)
    %c10 = arith.constant 10 : index loc(#loc1)
    %c9 = arith.constant 9 : index loc(#loc1)
    %c8 = arith.constant 8 : index loc(#loc1)
    %c7 = arith.constant 7 : index loc(#loc1)
    %c6 = arith.constant 6 : index loc(#loc1)
    %c5 = arith.constant 5 : index loc(#loc1)
    %c4 = arith.constant 4 : index loc(#loc1)
    %c3 = arith.constant 3 : index loc(#loc1)
    %c2 = arith.constant 2 : index loc(#loc1)
    %c1 = arith.constant 1 : index loc(#loc1)
    %c127_i32 = arith.constant 127 : i32 loc(#loc1)
    %cst_0 = arith.constant dense<0.000000e+00> : vector<64x64xf32> loc(#loc1)
    %c63_i32 = arith.constant 63 : i32 loc(#loc1)
    %c1_i32 = arith.constant 1 : i32 loc(#loc1)
    %c128_i32 = arith.constant 128 : i32 loc(#loc1)
    %c0_i32 = arith.constant 0 : i32 loc(#loc1)
    %c1_i64 = arith.constant 1 : i64 loc(#loc1)
    %c64_i32 = arith.constant 64 : i32 loc(#loc1)
    %c8_i32 = arith.constant 8 : i32 loc(#loc1)
    %0 = tt.get_program_id x : i32 loc(#loc2)
    %1 = arith.addi %arg3, %c63_i32 : i32 loc(#loc31)
    %2 = arith.divsi %1, %c64_i32 : i32 loc(#loc32)
    %3 = arith.addi %arg4, %c63_i32 : i32 loc(#loc33)
    %4 = arith.divsi %3, %c64_i32 : i32 loc(#loc34)
    %5 = arith.muli %4, %c8_i32 : i32 loc(#loc7)
    %6 = arith.divsi %0, %5 : i32 loc(#loc8)
    %7 = arith.muli %6, %c8_i32 : i32 loc(#loc9)
    %8 = arith.subi %2, %7 : i32 loc(#loc10)
    %9 = arith.minsi %8, %c8_i32 : i32 loc(#loc11)
    %10 = arith.remsi %0, %9 : i32 loc(#loc12)
    %11 = arith.addi %7, %10 : i32 loc(#loc13)
    %12 = arith.remsi %0, %5 : i32 loc(#loc14)
    %13 = arith.divsi %12, %9 : i32 loc(#loc15)
    %14 = arith.muli %11, %c64_i32 : i32 loc(#loc16)
    %15 = arith.muli %13, %c64_i32 : i32 loc(#loc17)
    %16 = arith.extsi %arg3 : i32 to i64 loc(#loc18)
    %17 = arith.extsi %arg5 : i32 to i64 loc(#loc18)
    %18 = arith.extsi %arg6 : i32 to i64 loc(#loc18)
    %19 = tt.make_tensor_ptr %arg0, [%16, %17], [%18, %c1_i64], [%14, %c0_i32] {order = array<i32: 1, 0>} : <tensor<64x128xf32>> loc(#loc18)
    %20 = arith.extsi %arg4 : i32 to i64 loc(#loc19)
    %21 = arith.extsi %arg7 : i32 to i64 loc(#loc19)
    %22 = tt.make_tensor_ptr %arg1, [%17, %20], [%21, %c1_i64], [%c0_i32, %15] {order = array<i32: 1, 0>} : <tensor<128x64xf32>> loc(#loc19)
    %23 = arith.addi %arg5, %c127_i32 : i32 loc(#loc35)
    %24 = arith.divsi %23, %c128_i32 : i32 loc(#loc36)
    %25:66 = scf.for %arg9 = %c0_i32 to %24 step %c1_i32 iter_args(%arg10 = %19, %arg11 = %22, %arg12 = %cst, %arg13 = %cst, %arg14 = %cst, %arg15 = %cst, %arg16 = %cst, %arg17 = %cst, %arg18 = %cst, %arg19 = %cst, %arg20 = %cst, %arg21 = %cst, %arg22 = %cst, %arg23 = %cst, %arg24 = %cst, %arg25 = %cst, %arg26 = %cst, %arg27 = %cst, %arg28 = %cst, %arg29 = %cst, %arg30 = %cst, %arg31 = %cst, %arg32 = %cst, %arg33 = %cst, %arg34 = %cst, %arg35 = %cst, %arg36 = %cst, %arg37 = %cst, %arg38 = %cst, %arg39 = %cst, %arg40 = %cst, %arg41 = %cst, %arg42 = %cst, %arg43 = %cst, %arg44 = %cst, %arg45 = %cst, %arg46 = %cst, %arg47 = %cst, %arg48 = %cst, %arg49 = %cst, %arg50 = %cst, %arg51 = %cst, %arg52 = %cst, %arg53 = %cst, %arg54 = %cst, %arg55 = %cst, %arg56 = %cst, %arg57 = %cst, %arg58 = %cst, %arg59 = %cst, %arg60 = %cst, %arg61 = %cst, %arg62 = %cst, %arg63 = %cst, %arg64 = %cst, %arg65 = %cst, %arg66 = %cst, %arg67 = %cst, %arg68 = %cst, %arg69 = %cst, %arg70 = %cst, %arg71 = %cst, %arg72 = %cst, %arg73 = %cst, %arg74 = %cst, %arg75 = %cst) -> (!tt.ptr<tensor<64x128xf32>>, !tt.ptr<tensor<128x64xf32>>, vector<64xf32>, vector<64xf32>, vector<64xf32>, vector<64xf32>, vector<64xf32>, vector<64xf32>, vector<64xf32>, vector<64xf32>, vector<64xf32>, vector<64xf32>, vector<64xf32>, vector<64xf32>, vector<64xf32>, vector<64xf32>, vector<64xf32>, vector<64xf32>, vector<64xf32>, vector<64xf32>, vector<64xf32>, vector<64xf32>, vector<64xf32>, vector<64xf32>, vector<64xf32>, vector<64xf32>, vector<64xf32>, vector<64xf32>, vector<64xf32>, vector<64xf32>, vector<64xf32>, vector<64xf32>, vector<64xf32>, vector<64xf32>, vector<64xf32>, vector<64xf32>, vector<64xf32>, vector<64xf32>, vector<64xf32>, vector<64xf32>, vector<64xf32>, vector<64xf32>, vector<64xf32>, vector<64xf32>, vector<64xf32>, vector<64xf32>, vector<64xf32>, vector<64xf32>, vector<64xf32>, vector<64xf32>, vector<64xf32>, vector<64xf32>, vector<64xf32>, vector<64xf32>, vector<64xf32>, vector<64xf32>, vector<64xf32>, vector<64xf32>, vector<64xf32>, vector<64xf32>, vector<64xf32>, vector<64xf32>, vector<64xf32>, vector<64xf32>, vector<64xf32>, vector<64xf32>)  : i32 {
      %94 = triton_cpu.extract_memref %arg10 : <tensor<64x128xf32>> -> memref<?x?xf32, strided<[?, 1]>> loc(#loc22)
      %95:2 = triton_cpu.extract_indices %arg10 : <tensor<64x128xf32>> -> index, index loc(#loc22)
      %96 = triton_cpu.extract_memref %arg11 : <tensor<128x64xf32>> -> memref<?x?xf32, strided<[?, 1]>> loc(#loc23)
      %97:2 = triton_cpu.extract_indices %arg11 : <tensor<128x64xf32>> -> index, index loc(#loc23)
      %98 = arith.addi %95#1, %c128 : index loc(#loc24)
      %99 = arith.addi %97#0, %c128 : index loc(#loc24)
      %100 = vector.load %96[%97#0, %97#1] : memref<?x?xf32, strided<[?, 1]>>, vector<64xf32> loc(#loc24)
      %101 = arith.addi %97#0, %c1 : index loc(#loc24)
      %102 = vector.load %96[%101, %97#1] : memref<?x?xf32, strided<[?, 1]>>, vector<64xf32> loc(#loc24)
      memref.prefetch %96[%99, %97#1], read, locality<1>, data : memref<?x?xf32, strided<[?, 1]>> loc(#loc24)
      %103 = memref.load %94[%95#0, %95#1] : memref<?x?xf32, strided<[?, 1]>> loc(#loc24)
      %104 = vector.broadcast %103 : f32 to vector<64xf32> loc(#loc24)
      %105 = arith.addi %95#0, %c1 : index loc(#loc24)
      %106 = memref.load %94[%105, %95#1] : memref<?x?xf32, strided<[?, 1]>> loc(#loc24)
      %107 = vector.broadcast %106 : f32 to vector<64xf32> loc(#loc24)
      memref.prefetch %94[%95#0, %98], read, locality<3>, data : memref<?x?xf32, strided<[?, 1]>> loc(#loc24)
      %108 = vector.fma %100, %104, %arg12 : vector<64xf32> loc(#loc24)
      %109 = arith.addi %95#0, %c2 : index loc(#loc24)
      %110 = memref.load %94[%109, %95#1] : memref<?x?xf32, strided<[?, 1]>> loc(#loc24)
      %111 = vector.broadcast %110 : f32 to vector<64xf32> loc(#loc24)
      memref.prefetch %94[%105, %98], read, locality<3>, data : memref<?x?xf32, strided<[?, 1]>> loc(#loc24)
      %112 = vector.fma %100, %107, %arg13 : vector<64xf32> loc(#loc24)
      %113 = arith.addi %95#0, %c3 : index loc(#loc24)
      %114 = memref.load %94[%113, %95#1] : memref<?x?xf32, strided<[?, 1]>> loc(#loc24)
      %115 = vector.broadcast %114 : f32 to vector<64xf32> loc(#loc24)
      memref.prefetch %94[%109, %98], read, locality<3>, data : memref<?x?xf32, strided<[?, 1]>> loc(#loc24)
      %116 = vector.fma %100, %111, %arg14 : vector<64xf32> loc(#loc24)
      %117 = arith.addi %95#0, %c4 : index loc(#loc24)
      %118 = memref.load %94[%117, %95#1] : memref<?x?xf32, strided<[?, 1]>> loc(#loc24)
      %119 = vector.broadcast %118 : f32 to vector<64xf32> loc(#loc24)
      memref.prefetch %94[%113, %98], read, locality<3>, data : memref<?x?xf32, strided<[?, 1]>> loc(#loc24)
      %120 = vector.fma %100, %115, %arg15 : vector<64xf32> loc(#loc24)
      %121 = arith.addi %95#0, %c5 : index loc(#loc24)
      %122 = memref.load %94[%121, %95#1] : memref<?x?xf32, strided<[?, 1]>> loc(#loc24)
      %123 = vector.broadcast %122 : f32 to vector<64xf32> loc(#loc24)
      memref.prefetch %94[%117, %98], read, locality<3>, data : memref<?x?xf32, strided<[?, 1]>> loc(#loc24)
      %124 = vector.fma %100, %119, %arg16 : vector<64xf32> loc(#loc24)
      %125 = arith.addi %95#0, %c6 : index loc(#loc24)
      %126 = memref.load %94[%125, %95#1] : memref<?x?xf32, strided<[?, 1]>> loc(#loc24)
      %127 = vector.broadcast %126 : f32 to vector<64xf32> loc(#loc24)
      memref.prefetch %94[%121, %98], read, locality<3>, data : memref<?x?xf32, strided<[?, 1]>> loc(#loc24)
      %128 = vector.fma %100, %123, %arg17 : vector<64xf32> loc(#loc24)
      %129 = arith.addi %95#0, %c7 : index loc(#loc24)
      %130 = memref.load %94[%129, %95#1] : memref<?x?xf32, strided<[?, 1]>> loc(#loc24)
      %131 = vector.broadcast %130 : f32 to vector<64xf32> loc(#loc24)
      memref.prefetch %94[%125, %98], read, locality<3>, data : memref<?x?xf32, strided<[?, 1]>> loc(#loc24)
      %132 = vector.fma %100, %127, %arg18 : vector<64xf32> loc(#loc24)
      %133 = arith.addi %95#0, %c8 : index loc(#loc24)
      %134 = memref.load %94[%133, %95#1] : memref<?x?xf32, strided<[?, 1]>> loc(#loc24)
      %135 = vector.broadcast %134 : f32 to vector<64xf32> loc(#loc24)
      memref.prefetch %94[%129, %98], read, locality<3>, data : memref<?x?xf32, strided<[?, 1]>> loc(#loc24)
      %136 = vector.fma %100, %131, %arg19 : vector<64xf32> loc(#loc24)
      %137 = arith.addi %95#0, %c9 : index loc(#loc24)
      %138 = memref.load %94[%137, %95#1] : memref<?x?xf32, strided<[?, 1]>> loc(#loc24)
      %139 = vector.broadcast %138 : f32 to vector<64xf32> loc(#loc24)
      memref.prefetch %94[%133, %98], read, locality<3>, data : memref<?x?xf32, strided<[?, 1]>> loc(#loc24)
      %140 = vector.fma %100, %135, %arg20 : vector<64xf32> loc(#loc24)
      %141 = arith.addi %95#0, %c10 : index loc(#loc24)
      %142 = memref.load %94[%141, %95#1] : memref<?x?xf32, strided<[?, 1]>> loc(#loc24)
      %143 = vector.broadcast %142 : f32 to vector<64xf32> loc(#loc24)
      memref.prefetch %94[%137, %98], read, locality<3>, data : memref<?x?xf32, strided<[?, 1]>> loc(#loc24)
      %144 = vector.fma %100, %139, %arg21 : vector<64xf32> loc(#loc24)
      %145 = arith.addi %95#0, %c11 : index loc(#loc24)
      %146 = memref.load %94[%145, %95#1] : memref<?x?xf32, strided<[?, 1]>> loc(#loc24)
      %147 = vector.broadcast %146 : f32 to vector<64xf32> loc(#loc24)
      memref.prefetch %94[%141, %98], read, locality<3>, data : memref<?x?xf32, strided<[?, 1]>> loc(#loc24)
      %148 = vector.fma %100, %143, %arg22 : vector<64xf32> loc(#loc24)
      %149 = arith.addi %95#0, %c12 : index loc(#loc24)
      %150 = memref.load %94[%149, %95#1] : memref<?x?xf32, strided<[?, 1]>> loc(#loc24)
      %151 = vector.broadcast %150 : f32 to vector<64xf32> loc(#loc24)
      memref.prefetch %94[%145, %98], read, locality<3>, data : memref<?x?xf32, strided<[?, 1]>> loc(#loc24)
      %152 = vector.fma %100, %147, %arg23 : vector<64xf32> loc(#loc24)
      %153 = arith.addi %95#0, %c13 : index loc(#loc24)
      %154 = memref.load %94[%153, %95#1] : memref<?x?xf32, strided<[?, 1]>> loc(#loc24)
      %155 = vector.broadcast %154 : f32 to vector<64xf32> loc(#loc24)
      memref.prefetch %94[%149, %98], read, locality<3>, data : memref<?x?xf32, strided<[?, 1]>> loc(#loc24)
      %156 = vector.fma %100, %151, %arg24 : vector<64xf32> loc(#loc24)
      %157 = arith.addi %95#0, %c14 : index loc(#loc24)
      %158 = memref.load %94[%157, %95#1] : memref<?x?xf32, strided<[?, 1]>> loc(#loc24)
      %159 = vector.broadcast %158 : f32 to vector<64xf32> loc(#loc24)
      memref.prefetch %94[%153, %98], read, locality<3>, data : memref<?x?xf32, strided<[?, 1]>> loc(#loc24)
      %160 = vector.fma %100, %155, %arg25 : vector<64xf32> loc(#loc24)
      %161 = arith.addi %95#0, %c15 : index loc(#loc24)
      %162 = memref.load %94[%161, %95#1] : memref<?x?xf32, strided<[?, 1]>> loc(#loc24)
      %163 = vector.broadcast %162 : f32 to vector<64xf32> loc(#loc24)
      memref.prefetch %94[%157, %98], read, locality<3>, data : memref<?x?xf32, strided<[?, 1]>> loc(#loc24)
      %164 = vector.fma %100, %159, %arg26 : vector<64xf32> loc(#loc24)
      %165 = arith.addi %95#0, %c16 : index loc(#loc24)
      %166 = memref.load %94[%165, %95#1] : memref<?x?xf32, strided<[?, 1]>> loc(#loc24)
      %167 = vector.broadcast %166 : f32 to vector<64xf32> loc(#loc24)
      memref.prefetch %94[%161, %98], read, locality<3>, data : memref<?x?xf32, strided<[?, 1]>> loc(#loc24)
      %168 = vector.fma %100, %163, %arg27 : vector<64xf32> loc(#loc24)
      %169 = arith.addi %95#0, %c17 : index loc(#loc24)
      %170 = memref.load %94[%169, %95#1] : memref<?x?xf32, strided<[?, 1]>> loc(#loc24)
      %171 = vector.broadcast %170 : f32 to vector<64xf32> loc(#loc24)
      memref.prefetch %94[%165, %98], read, locality<3>, data : memref<?x?xf32, strided<[?, 1]>> loc(#loc24)
      %172 = vector.fma %100, %167, %arg28 : vector<64xf32> loc(#loc24)
      %173 = arith.addi %95#0, %c18 : index loc(#loc24)
      %174 = memref.load %94[%173, %95#1] : memref<?x?xf32, strided<[?, 1]>> loc(#loc24)
      %175 = vector.broadcast %174 : f32 to vector<64xf32> loc(#loc24)
      memref.prefetch %94[%169, %98], read, locality<3>, data : memref<?x?xf32, strided<[?, 1]>> loc(#loc24)
      %176 = vector.fma %100, %171, %arg29 : vector<64xf32> loc(#loc24)
      %177 = arith.addi %95#0, %c19 : index loc(#loc24)
      %178 = memref.load %94[%177, %95#1] : memref<?x?xf32, strided<[?, 1]>> loc(#loc24)
      %179 = vector.broadcast %178 : f32 to vector<64xf32> loc(#loc24)
      memref.prefetch %94[%173, %98], read, locality<3>, data : memref<?x?xf32, strided<[?, 1]>> loc(#loc24)
      %180 = vector.fma %100, %175, %arg30 : vector<64xf32> loc(#loc24)
      %181 = arith.addi %95#0, %c20 : index loc(#loc24)
      %182 = memref.load %94[%181, %95#1] : memref<?x?xf32, strided<[?, 1]>> loc(#loc24)
      %183 = vector.broadcast %182 : f32 to vector<64xf32> loc(#loc24)
      memref.prefetch %94[%177, %98], read, locality<3>, data : memref<?x?xf32, strided<[?, 1]>> loc(#loc24)
      %184 = vector.fma %100, %179, %arg31 : vector<64xf32> loc(#loc24)
      %185 = arith.addi %95#0, %c21 : index loc(#loc24)
      %186 = memref.load %94[%185, %95#1] : memref<?x?xf32, strided<[?, 1]>> loc(#loc24)
      %187 = vector.broadcast %186 : f32 to vector<64xf32> loc(#loc24)
      memref.prefetch %94[%181, %98], read, locality<3>, data : memref<?x?xf32, strided<[?, 1]>> loc(#loc24)
      %188 = vector.fma %100, %183, %arg32 : vector<64xf32> loc(#loc24)
      %189 = arith.addi %95#0, %c22 : index loc(#loc24)
      %190 = memref.load %94[%189, %95#1] : memref<?x?xf32, strided<[?, 1]>> loc(#loc24)
      %191 = vector.broadcast %190 : f32 to vector<64xf32> loc(#loc24)
      memref.prefetch %94[%185, %98], read, locality<3>, data : memref<?x?xf32, strided<[?, 1]>> loc(#loc24)
      %192 = vector.fma %100, %187, %arg33 : vector<64xf32> loc(#loc24)
      %193 = arith.addi %95#0, %c23 : index loc(#loc24)
      %194 = memref.load %94[%193, %95#1] : memref<?x?xf32, strided<[?, 1]>> loc(#loc24)
      %195 = vector.broadcast %194 : f32 to vector<64xf32> loc(#loc24)
      memref.prefetch %94[%189, %98], read, locality<3>, data : memref<?x?xf32, strided<[?, 1]>> loc(#loc24)
      %196 = vector.fma %100, %191, %arg34 : vector<64xf32> loc(#loc24)
      %197 = arith.addi %95#0, %c24 : index loc(#loc24)
      %198 = memref.load %94[%197, %95#1] : memref<?x?xf32, strided<[?, 1]>> loc(#loc24)
      %199 = vector.broadcast %198 : f32 to vector<64xf32> loc(#loc24)
      memref.prefetch %94[%193, %98], read, locality<3>, data : memref<?x?xf32, strided<[?, 1]>> loc(#loc24)
      %200 = vector.fma %100, %195, %arg35 : vector<64xf32> loc(#loc24)
      %201 = arith.addi %95#0, %c25 : index loc(#loc24)
      %202 = memref.load %94[%201, %95#1] : memref<?x?xf32, strided<[?, 1]>> loc(#loc24)
      %203 = vector.broadcast %202 : f32 to vector<64xf32> loc(#loc24)
      memref.prefetch %94[%197, %98], read, locality<3>, data : memref<?x?xf32, strided<[?, 1]>> loc(#loc24)
      %204 = vector.fma %100, %199, %arg36 : vector<64xf32> loc(#loc24)
      %205 = arith.addi %95#0, %c26 : index loc(#loc24)
      %206 = memref.load %94[%205, %95#1] : memref<?x?xf32, strided<[?, 1]>> loc(#loc24)
      %207 = vector.broadcast %206 : f32 to vector<64xf32> loc(#loc24)
      memref.prefetch %94[%201, %98], read, locality<3>, data : memref<?x?xf32, strided<[?, 1]>> loc(#loc24)
      %208 = vector.fma %100, %203, %arg37 : vector<64xf32> loc(#loc24)
      %209 = arith.addi %95#0, %c27 : index loc(#loc24)
      %210 = memref.load %94[%209, %95#1] : memref<?x?xf32, strided<[?, 1]>> loc(#loc24)
      %211 = vector.broadcast %210 : f32 to vector<64xf32> loc(#loc24)
      memref.prefetch %94[%205, %98], read, locality<3>, data : memref<?x?xf32, strided<[?, 1]>> loc(#loc24)
      %212 = vector.fma %100, %207, %arg38 : vector<64xf32> loc(#loc24)
      %213 = arith.addi %95#0, %c28 : index loc(#loc24)
      %214 = memref.load %94[%213, %95#1] : memref<?x?xf32, strided<[?, 1]>> loc(#loc24)
      %215 = vector.broadcast %214 : f32 to vector<64xf32> loc(#loc24)
      memref.prefetch %94[%209, %98], read, locality<3>, data : memref<?x?xf32, strided<[?, 1]>> loc(#loc24)
      %216 = vector.fma %100, %211, %arg39 : vector<64xf32> loc(#loc24)
      %217 = arith.addi %95#0, %c29 : index loc(#loc24)
      %218 = memref.load %94[%217, %95#1] : memref<?x?xf32, strided<[?, 1]>> loc(#loc24)
      %219 = vector.broadcast %218 : f32 to vector<64xf32> loc(#loc24)
      memref.prefetch %94[%213, %98], read, locality<3>, data : memref<?x?xf32, strided<[?, 1]>> loc(#loc24)
      %220 = vector.fma %100, %215, %arg40 : vector<64xf32> loc(#loc24)
      %221 = arith.addi %95#0, %c30 : index loc(#loc24)
      %222 = memref.load %94[%221, %95#1] : memref<?x?xf32, strided<[?, 1]>> loc(#loc24)
      %223 = vector.broadcast %222 : f32 to vector<64xf32> loc(#loc24)
      memref.prefetch %94[%217, %98], read, locality<3>, data : memref<?x?xf32, strided<[?, 1]>> loc(#loc24)
      %224 = vector.fma %100, %219, %arg41 : vector<64xf32> loc(#loc24)
      %225 = arith.addi %95#0, %c31 : index loc(#loc24)
      %226 = memref.load %94[%225, %95#1] : memref<?x?xf32, strided<[?, 1]>> loc(#loc24)
      %227 = vector.broadcast %226 : f32 to vector<64xf32> loc(#loc24)
      memref.prefetch %94[%221, %98], read, locality<3>, data : memref<?x?xf32, strided<[?, 1]>> loc(#loc24)
      %228 = vector.fma %100, %223, %arg42 : vector<64xf32> loc(#loc24)
      %229 = arith.addi %95#0, %c32 : index loc(#loc24)
      %230 = memref.load %94[%229, %95#1] : memref<?x?xf32, strided<[?, 1]>> loc(#loc24)
      %231 = vector.broadcast %230 : f32 to vector<64xf32> loc(#loc24)
      memref.prefetch %94[%225, %98], read, locality<3>, data : memref<?x?xf32, strided<[?, 1]>> loc(#loc24)
      %232 = vector.fma %100, %227, %arg43 : vector<64xf32> loc(#loc24)
      %233 = arith.addi %95#0, %c33 : index loc(#loc24)
      %234 = memref.load %94[%233, %95#1] : memref<?x?xf32, strided<[?, 1]>> loc(#loc24)
      %235 = vector.broadcast %234 : f32 to vector<64xf32> loc(#loc24)
      memref.prefetch %94[%229, %98], read, locality<3>, data : memref<?x?xf32, strided<[?, 1]>> loc(#loc24)
      %236 = vector.fma %100, %231, %arg44 : vector<64xf32> loc(#loc24)
      %237 = arith.addi %95#0, %c34 : index loc(#loc24)
      %238 = memref.load %94[%237, %95#1] : memref<?x?xf32, strided<[?, 1]>> loc(#loc24)
      %239 = vector.broadcast %238 : f32 to vector<64xf32> loc(#loc24)
      memref.prefetch %94[%233, %98], read, locality<3>, data : memref<?x?xf32, strided<[?, 1]>> loc(#loc24)
      %240 = vector.fma %100, %235, %arg45 : vector<64xf32> loc(#loc24)
      %241 = arith.addi %95#0, %c35 : index loc(#loc24)
      %242 = memref.load %94[%241, %95#1] : memref<?x?xf32, strided<[?, 1]>> loc(#loc24)
      %243 = vector.broadcast %242 : f32 to vector<64xf32> loc(#loc24)
      memref.prefetch %94[%237, %98], read, locality<3>, data : memref<?x?xf32, strided<[?, 1]>> loc(#loc24)
      %244 = vector.fma %100, %239, %arg46 : vector<64xf32> loc(#loc24)
      %245 = arith.addi %95#0, %c36 : index loc(#loc24)
      %246 = memref.load %94[%245, %95#1] : memref<?x?xf32, strided<[?, 1]>> loc(#loc24)
      %247 = vector.broadcast %246 : f32 to vector<64xf32> loc(#loc24)
      memref.prefetch %94[%241, %98], read, locality<3>, data : memref<?x?xf32, strided<[?, 1]>> loc(#loc24)
      %248 = vector.fma %100, %243, %arg47 : vector<64xf32> loc(#loc24)
      %249 = arith.addi %95#0, %c37 : index loc(#loc24)
      %250 = memref.load %94[%249, %95#1] : memref<?x?xf32, strided<[?, 1]>> loc(#loc24)
      %251 = vector.broadcast %250 : f32 to vector<64xf32> loc(#loc24)
      memref.prefetch %94[%245, %98], read, locality<3>, data : memref<?x?xf32, strided<[?, 1]>> loc(#loc24)
      %252 = vector.fma %100, %247, %arg48 : vector<64xf32> loc(#loc24)
      %253 = arith.addi %95#0, %c38 : index loc(#loc24)
      %254 = memref.load %94[%253, %95#1] : memref<?x?xf32, strided<[?, 1]>> loc(#loc24)
      %255 = vector.broadcast %254 : f32 to vector<64xf32> loc(#loc24)
      memref.prefetch %94[%249, %98], read, locality<3>, data : memref<?x?xf32, strided<[?, 1]>> loc(#loc24)
      %256 = vector.fma %100, %251, %arg49 : vector<64xf32> loc(#loc24)
      %257 = arith.addi %95#0, %c39 : index loc(#loc24)
      %258 = memref.load %94[%257, %95#1] : memref<?x?xf32, strided<[?, 1]>> loc(#loc24)
      %259 = vector.broadcast %258 : f32 to vector<64xf32> loc(#loc24)
      memref.prefetch %94[%253, %98], read, locality<3>, data : memref<?x?xf32, strided<[?, 1]>> loc(#loc24)
      %260 = vector.fma %100, %255, %arg50 : vector<64xf32> loc(#loc24)
      %261 = arith.addi %95#0, %c40 : index loc(#loc24)
      %262 = memref.load %94[%261, %95#1] : memref<?x?xf32, strided<[?, 1]>> loc(#loc24)
      %263 = vector.broadcast %262 : f32 to vector<64xf32> loc(#loc24)
      memref.prefetch %94[%257, %98], read, locality<3>, data : memref<?x?xf32, strided<[?, 1]>> loc(#loc24)
      %264 = vector.fma %100, %259, %arg51 : vector<64xf32> loc(#loc24)
      %265 = arith.addi %95#0, %c41 : index loc(#loc24)
      %266 = memref.load %94[%265, %95#1] : memref<?x?xf32, strided<[?, 1]>> loc(#loc24)
      %267 = vector.broadcast %266 : f32 to vector<64xf32> loc(#loc24)
      memref.prefetch %94[%261, %98], read, locality<3>, data : memref<?x?xf32, strided<[?, 1]>> loc(#loc24)
      %268 = vector.fma %100, %263, %arg52 : vector<64xf32> loc(#loc24)
      %269 = arith.addi %95#0, %c42 : index loc(#loc24)
      %270 = memref.load %94[%269, %95#1] : memref<?x?xf32, strided<[?, 1]>> loc(#loc24)
      %271 = vector.broadcast %270 : f32 to vector<64xf32> loc(#loc24)
      memref.prefetch %94[%265, %98], read, locality<3>, data : memref<?x?xf32, strided<[?, 1]>> loc(#loc24)
      %272 = vector.fma %100, %267, %arg53 : vector<64xf32> loc(#loc24)
      %273 = arith.addi %95#0, %c43 : index loc(#loc24)
      %274 = memref.load %94[%273, %95#1] : memref<?x?xf32, strided<[?, 1]>> loc(#loc24)
      %275 = vector.broadcast %274 : f32 to vector<64xf32> loc(#loc24)
      memref.prefetch %94[%269, %98], read, locality<3>, data : memref<?x?xf32, strided<[?, 1]>> loc(#loc24)
      %276 = vector.fma %100, %271, %arg54 : vector<64xf32> loc(#loc24)
      %277 = arith.addi %95#0, %c44 : index loc(#loc24)
      %278 = memref.load %94[%277, %95#1] : memref<?x?xf32, strided<[?, 1]>> loc(#loc24)
      %279 = vector.broadcast %278 : f32 to vector<64xf32> loc(#loc24)
      memref.prefetch %94[%273, %98], read, locality<3>, data : memref<?x?xf32, strided<[?, 1]>> loc(#loc24)
      %280 = vector.fma %100, %275, %arg55 : vector<64xf32> loc(#loc24)
      %281 = arith.addi %95#0, %c45 : index loc(#loc24)
      %282 = memref.load %94[%281, %95#1] : memref<?x?xf32, strided<[?, 1]>> loc(#loc24)
      %283 = vector.broadcast %282 : f32 to vector<64xf32> loc(#loc24)
      memref.prefetch %94[%277, %98], read, locality<3>, data : memref<?x?xf32, strided<[?, 1]>> loc(#loc24)
      %284 = vector.fma %100, %279, %arg56 : vector<64xf32> loc(#loc24)
      %285 = arith.addi %95#0, %c46 : index loc(#loc24)
      %286 = memref.load %94[%285, %95#1] : memref<?x?xf32, strided<[?, 1]>> loc(#loc24)
      %287 = vector.broadcast %286 : f32 to vector<64xf32> loc(#loc24)
      memref.prefetch %94[%281, %98], read, locality<3>, data : memref<?x?xf32, strided<[?, 1]>> loc(#loc24)
      %288 = vector.fma %100, %283, %arg57 : vector<64xf32> loc(#loc24)
      %289 = arith.addi %95#0, %c47 : index loc(#loc24)
      %290 = memref.load %94[%289, %95#1] : memref<?x?xf32, strided<[?, 1]>> loc(#loc24)
      %291 = vector.broadcast %290 : f32 to vector<64xf32> loc(#loc24)
      memref.prefetch %94[%285, %98], read, locality<3>, data : memref<?x?xf32, strided<[?, 1]>> loc(#loc24)
      %292 = vector.fma %100, %287, %arg58 : vector<64xf32> loc(#loc24)
      %293 = arith.addi %95#0, %c48 : index loc(#loc24)
      %294 = memref.load %94[%293, %95#1] : memref<?x?xf32, strided<[?, 1]>> loc(#loc24)
      %295 = vector.broadcast %294 : f32 to vector<64xf32> loc(#loc24)
      memref.prefetch %94[%289, %98], read, locality<3>, data : memref<?x?xf32, strided<[?, 1]>> loc(#loc24)
      %296 = vector.fma %100, %291, %arg59 : vector<64xf32> loc(#loc24)
      %297 = arith.addi %95#0, %c49 : index loc(#loc24)
      %298 = memref.load %94[%297, %95#1] : memref<?x?xf32, strided<[?, 1]>> loc(#loc24)
      %299 = vector.broadcast %298 : f32 to vector<64xf32> loc(#loc24)
      memref.prefetch %94[%293, %98], read, locality<3>, data : memref<?x?xf32, strided<[?, 1]>> loc(#loc24)
      %300 = vector.fma %100, %295, %arg60 : vector<64xf32> loc(#loc24)
      %301 = arith.addi %95#0, %c50 : index loc(#loc24)
      %302 = memref.load %94[%301, %95#1] : memref<?x?xf32, strided<[?, 1]>> loc(#loc24)
      %303 = vector.broadcast %302 : f32 to vector<64xf32> loc(#loc24)
      memref.prefetch %94[%297, %98], read, locality<3>, data : memref<?x?xf32, strided<[?, 1]>> loc(#loc24)
      %304 = vector.fma %100, %299, %arg61 : vector<64xf32> loc(#loc24)
      %305 = arith.addi %95#0, %c51 : index loc(#loc24)
      %306 = memref.load %94[%305, %95#1] : memref<?x?xf32, strided<[?, 1]>> loc(#loc24)
      %307 = vector.broadcast %306 : f32 to vector<64xf32> loc(#loc24)
      memref.prefetch %94[%301, %98], read, locality<3>, data : memref<?x?xf32, strided<[?, 1]>> loc(#loc24)
      %308 = vector.fma %100, %303, %arg62 : vector<64xf32> loc(#loc24)
      %309 = arith.addi %95#0, %c52 : index loc(#loc24)
      %310 = memref.load %94[%309, %95#1] : memref<?x?xf32, strided<[?, 1]>> loc(#loc24)
      %311 = vector.broadcast %310 : f32 to vector<64xf32> loc(#loc24)
      memref.prefetch %94[%305, %98], read, locality<3>, data : memref<?x?xf32, strided<[?, 1]>> loc(#loc24)
      %312 = vector.fma %100, %307, %arg63 : vector<64xf32> loc(#loc24)
      %313 = arith.addi %95#0, %c53 : index loc(#loc24)
      %314 = memref.load %94[%313, %95#1] : memref<?x?xf32, strided<[?, 1]>> loc(#loc24)
      %315 = vector.broadcast %314 : f32 to vector<64xf32> loc(#loc24)
      memref.prefetch %94[%309, %98], read, locality<3>, data : memref<?x?xf32, strided<[?, 1]>> loc(#loc24)
      %316 = vector.fma %100, %311, %arg64 : vector<64xf32> loc(#loc24)
      %317 = arith.addi %95#0, %c54 : index loc(#loc24)
      %318 = memref.load %94[%317, %95#1] : memref<?x?xf32, strided<[?, 1]>> loc(#loc24)
      %319 = vector.broadcast %318 : f32 to vector<64xf32> loc(#loc24)
      memref.prefetch %94[%313, %98], read, locality<3>, data : memref<?x?xf32, strided<[?, 1]>> loc(#loc24)
      %320 = vector.fma %100, %315, %arg65 : vector<64xf32> loc(#loc24)
      %321 = arith.addi %95#0, %c55 : index loc(#loc24)
      %322 = memref.load %94[%321, %95#1] : memref<?x?xf32, strided<[?, 1]>> loc(#loc24)
      %323 = vector.broadcast %322 : f32 to vector<64xf32> loc(#loc24)
      memref.prefetch %94[%317, %98], read, locality<3>, data : memref<?x?xf32, strided<[?, 1]>> loc(#loc24)
      %324 = vector.fma %100, %319, %arg66 : vector<64xf32> loc(#loc24)
      %325 = arith.addi %95#0, %c56 : index loc(#loc24)
      %326 = memref.load %94[%325, %95#1] : memref<?x?xf32, strided<[?, 1]>> loc(#loc24)
      %327 = vector.broadcast %326 : f32 to vector<64xf32> loc(#loc24)
      memref.prefetch %94[%321, %98], read, locality<3>, data : memref<?x?xf32, strided<[?, 1]>> loc(#loc24)
      %328 = vector.fma %100, %323, %arg67 : vector<64xf32> loc(#loc24)
      %329 = arith.addi %95#0, %c57 : index loc(#loc24)
      %330 = memref.load %94[%329, %95#1] : memref<?x?xf32, strided<[?, 1]>> loc(#loc24)
      %331 = vector.broadcast %330 : f32 to vector<64xf32> loc(#loc24)
      memref.prefetch %94[%325, %98], read, locality<3>, data : memref<?x?xf32, strided<[?, 1]>> loc(#loc24)
      %332 = vector.fma %100, %327, %arg68 : vector<64xf32> loc(#loc24)
      %333 = arith.addi %95#0, %c58 : index loc(#loc24)
      %334 = memref.load %94[%333, %95#1] : memref<?x?xf32, strided<[?, 1]>> loc(#loc24)
      %335 = vector.broadcast %334 : f32 to vector<64xf32> loc(#loc24)
      memref.prefetch %94[%329, %98], read, locality<3>, data : memref<?x?xf32, strided<[?, 1]>> loc(#loc24)
      %336 = vector.fma %100, %331, %arg69 : vector<64xf32> loc(#loc24)
      %337 = arith.addi %95#0, %c59 : index loc(#loc24)
      %338 = memref.load %94[%337, %95#1] : memref<?x?xf32, strided<[?, 1]>> loc(#loc24)
      %339 = vector.broadcast %338 : f32 to vector<64xf32> loc(#loc24)
      memref.prefetch %94[%333, %98], read, locality<3>, data : memref<?x?xf32, strided<[?, 1]>> loc(#loc24)
      %340 = vector.fma %100, %335, %arg70 : vector<64xf32> loc(#loc24)
      %341 = arith.addi %95#0, %c60 : index loc(#loc24)
      %342 = memref.load %94[%341, %95#1] : memref<?x?xf32, strided<[?, 1]>> loc(#loc24)
      %343 = vector.broadcast %342 : f32 to vector<64xf32> loc(#loc24)
      memref.prefetch %94[%337, %98], read, locality<3>, data : memref<?x?xf32, strided<[?, 1]>> loc(#loc24)
      %344 = vector.fma %100, %339, %arg71 : vector<64xf32> loc(#loc24)
      %345 = arith.addi %95#0, %c61 : index loc(#loc24)
      %346 = memref.load %94[%345, %95#1] : memref<?x?xf32, strided<[?, 1]>> loc(#loc24)
      %347 = vector.broadcast %346 : f32 to vector<64xf32> loc(#loc24)
      memref.prefetch %94[%341, %98], read, locality<3>, data : memref<?x?xf32, strided<[?, 1]>> loc(#loc24)
      %348 = vector.fma %100, %343, %arg72 : vector<64xf32> loc(#loc24)
      %349 = arith.addi %95#0, %c62 : index loc(#loc24)
      %350 = memref.load %94[%349, %95#1] : memref<?x?xf32, strided<[?, 1]>> loc(#loc24)
      %351 = vector.broadcast %350 : f32 to vector<64xf32> loc(#loc24)
      memref.prefetch %94[%345, %98], read, locality<3>, data : memref<?x?xf32, strided<[?, 1]>> loc(#loc24)
      %352 = vector.fma %100, %347, %arg73 : vector<64xf32> loc(#loc24)
      %353 = arith.addi %95#0, %c63 : index loc(#loc24)
      %354 = memref.load %94[%353, %95#1] : memref<?x?xf32, strided<[?, 1]>> loc(#loc24)
      %355 = vector.broadcast %354 : f32 to vector<64xf32> loc(#loc24)
      memref.prefetch %94[%349, %98], read, locality<3>, data : memref<?x?xf32, strided<[?, 1]>> loc(#loc24)
      %356 = vector.fma %100, %351, %arg74 : vector<64xf32> loc(#loc24)
      memref.prefetch %94[%353, %98], read, locality<3>, data : memref<?x?xf32, strided<[?, 1]>> loc(#loc24)
      %357 = vector.fma %100, %355, %arg75 : vector<64xf32> loc(#loc24)
      %358 = arith.addi %97#0, %c2 : index loc(#loc24)
      %359 = vector.load %96[%358, %97#1] : memref<?x?xf32, strided<[?, 1]>>, vector<64xf32> loc(#loc24)
      %360 = arith.addi %97#0, %c129 : index loc(#loc24)
      memref.prefetch %96[%360, %97#1], read, locality<1>, data : memref<?x?xf32, strided<[?, 1]>> loc(#loc24)
      %361 = arith.addi %95#1, %c1 : index loc(#loc24)
      %362 = memref.load %94[%95#0, %361] : memref<?x?xf32, strided<[?, 1]>> loc(#loc24)
      %363 = vector.broadcast %362 : f32 to vector<64xf32> loc(#loc24)
      %364 = memref.load %94[%105, %361] : memref<?x?xf32, strided<[?, 1]>> loc(#loc24)
      %365 = vector.broadcast %364 : f32 to vector<64xf32> loc(#loc24)
      %366 = vector.fma %102, %363, %108 : vector<64xf32> loc(#loc24)
      %367 = memref.load %94[%109, %361] : memref<?x?xf32, strided<[?, 1]>> loc(#loc24)
      %368 = vector.broadcast %367 : f32 to vector<64xf32> loc(#loc24)
      %369 = vector.fma %102, %365, %112 : vector<64xf32> loc(#loc24)
      %370 = memref.load %94[%113, %361] : memref<?x?xf32, strided<[?, 1]>> loc(#loc24)
      %371 = vector.broadcast %370 : f32 to vector<64xf32> loc(#loc24)
      %372 = vector.fma %102, %368, %116 : vector<64xf32> loc(#loc24)
      %373 = memref.load %94[%117, %361] : memref<?x?xf32, strided<[?, 1]>> loc(#loc24)
      %374 = vector.broadcast %373 : f32 to vector<64xf32> loc(#loc24)
      %375 = vector.fma %102, %371, %120 : vector<64xf32> loc(#loc24)
      %376 = memref.load %94[%121, %361] : memref<?x?xf32, strided<[?, 1]>> loc(#loc24)
      %377 = vector.broadcast %376 : f32 to vector<64xf32> loc(#loc24)
      %378 = vector.fma %102, %374, %124 : vector<64xf32> loc(#loc24)
      %379 = memref.load %94[%125, %361] : memref<?x?xf32, strided<[?, 1]>> loc(#loc24)
      %380 = vector.broadcast %379 : f32 to vector<64xf32> loc(#loc24)
      %381 = vector.fma %102, %377, %128 : vector<64xf32> loc(#loc24)
      %382 = memref.load %94[%129, %361] : memref<?x?xf32, strided<[?, 1]>> loc(#loc24)
      %383 = vector.broadcast %382 : f32 to vector<64xf32> loc(#loc24)
      %384 = vector.fma %102, %380, %132 : vector<64xf32> loc(#loc24)
      %385 = memref.load %94[%133, %361] : memref<?x?xf32, strided<[?, 1]>> loc(#loc24)
      %386 = vector.broadcast %385 : f32 to vector<64xf32> loc(#loc24)
      %387 = vector.fma %102, %383, %136 : vector<64xf32> loc(#loc24)
      %388 = memref.load %94[%137, %361] : memref<?x?xf32, strided<[?, 1]>> loc(#loc24)
      %389 = vector.broadcast %388 : f32 to vector<64xf32> loc(#loc24)
      %390 = vector.fma %102, %386, %140 : vector<64xf32> loc(#loc24)
      %391 = memref.load %94[%141, %361] : memref<?x?xf32, strided<[?, 1]>> loc(#loc24)
      %392 = vector.broadcast %391 : f32 to vector<64xf32> loc(#loc24)
      %393 = vector.fma %102, %389, %144 : vector<64xf32> loc(#loc24)
      %394 = memref.load %94[%145, %361] : memref<?x?xf32, strided<[?, 1]>> loc(#loc24)
      %395 = vector.broadcast %394 : f32 to vector<64xf32> loc(#loc24)
      %396 = vector.fma %102, %392, %148 : vector<64xf32> loc(#loc24)
      %397 = memref.load %94[%149, %361] : memref<?x?xf32, strided<[?, 1]>> loc(#loc24)
      %398 = vector.broadcast %397 : f32 to vector<64xf32> loc(#loc24)
      %399 = vector.fma %102, %395, %152 : vector<64xf32> loc(#loc24)
      %400 = memref.load %94[%153, %361] : memref<?x?xf32, strided<[?, 1]>> loc(#loc24)
      %401 = vector.broadcast %400 : f32 to vector<64xf32> loc(#loc24)
      %402 = vector.fma %102, %398, %156 : vector<64xf32> loc(#loc24)
      %403 = memref.load %94[%157, %361] : memref<?x?xf32, strided<[?, 1]>> loc(#loc24)
      %404 = vector.broadcast %403 : f32 to vector<64xf32> loc(#loc24)
      %405 = vector.fma %102, %401, %160 : vector<64xf32> loc(#loc24)
      %406 = memref.load %94[%161, %361] : memref<?x?xf32, strided<[?, 1]>> loc(#loc24)
      %407 = vector.broadcast %406 : f32 to vector<64xf32> loc(#loc24)
      %408 = vector.fma %102, %404, %164 : vector<64xf32> loc(#loc24)
      %409 = memref.load %94[%165, %361] : memref<?x?xf32, strided<[?, 1]>> loc(#loc24)
      %410 = vector.broadcast %409 : f32 to vector<64xf32> loc(#loc24)
      %411 = vector.fma %102, %407, %168 : vector<64xf32> loc(#loc24)
      %412 = memref.load %94[%169, %361] : memref<?x?xf32, strided<[?, 1]>> loc(#loc24)
      %413 = vector.broadcast %412 : f32 to vector<64xf32> loc(#loc24)
      %414 = vector.fma %102, %410, %172 : vector<64xf32> loc(#loc24)
      %415 = memref.load %94[%173, %361] : memref<?x?xf32, strided<[?, 1]>> loc(#loc24)
      %416 = vector.broadcast %415 : f32 to vector<64xf32> loc(#loc24)
      %417 = vector.fma %102, %413, %176 : vector<64xf32> loc(#loc24)
      %418 = memref.load %94[%177, %361] : memref<?x?xf32, strided<[?, 1]>> loc(#loc24)
      %419 = vector.broadcast %418 : f32 to vector<64xf32> loc(#loc24)
      %420 = vector.fma %102, %416, %180 : vector<64xf32> loc(#loc24)
      %421 = memref.load %94[%181, %361] : memref<?x?xf32, strided<[?, 1]>> loc(#loc24)
      %422 = vector.broadcast %421 : f32 to vector<64xf32> loc(#loc24)
      %423 = vector.fma %102, %419, %184 : vector<64xf32> loc(#loc24)
      %424 = memref.load %94[%185, %361] : memref<?x?xf32, strided<[?, 1]>> loc(#loc24)
      %425 = vector.broadcast %424 : f32 to vector<64xf32> loc(#loc24)
      %426 = vector.fma %102, %422, %188 : vector<64xf32> loc(#loc24)
      %427 = memref.load %94[%189, %361] : memref<?x?xf32, strided<[?, 1]>> loc(#loc24)
      %428 = vector.broadcast %427 : f32 to vector<64xf32> loc(#loc24)
      %429 = vector.fma %102, %425, %192 : vector<64xf32> loc(#loc24)
      %430 = memref.load %94[%193, %361] : memref<?x?xf32, strided<[?, 1]>> loc(#loc24)
      %431 = vector.broadcast %430 : f32 to vector<64xf32> loc(#loc24)
      %432 = vector.fma %102, %428, %196 : vector<64xf32> loc(#loc24)
      %433 = memref.load %94[%197, %361] : memref<?x?xf32, strided<[?, 1]>> loc(#loc24)
      %434 = vector.broadcast %433 : f32 to vector<64xf32> loc(#loc24)
      %435 = vector.fma %102, %431, %200 : vector<64xf32> loc(#loc24)
      %436 = memref.load %94[%201, %361] : memref<?x?xf32, strided<[?, 1]>> loc(#loc24)
      %437 = vector.broadcast %436 : f32 to vector<64xf32> loc(#loc24)
      %438 = vector.fma %102, %434, %204 : vector<64xf32> loc(#loc24)
      %439 = memref.load %94[%205, %361] : memref<?x?xf32, strided<[?, 1]>> loc(#loc24)
      %440 = vector.broadcast %439 : f32 to vector<64xf32> loc(#loc24)
      %441 = vector.fma %102, %437, %208 : vector<64xf32> loc(#loc24)
      %442 = memref.load %94[%209, %361] : memref<?x?xf32, strided<[?, 1]>> loc(#loc24)
      %443 = vector.broadcast %442 : f32 to vector<64xf32> loc(#loc24)
      %444 = vector.fma %102, %440, %212 : vector<64xf32> loc(#loc24)
      %445 = memref.load %94[%213, %361] : memref<?x?xf32, strided<[?, 1]>> loc(#loc24)
      %446 = vector.broadcast %445 : f32 to vector<64xf32> loc(#loc24)
      %447 = vector.fma %102, %443, %216 : vector<64xf32> loc(#loc24)
      %448 = memref.load %94[%217, %361] : memref<?x?xf32, strided<[?, 1]>> loc(#loc24)
      %449 = vector.broadcast %448 : f32 to vector<64xf32> loc(#loc24)
      %450 = vector.fma %102, %446, %220 : vector<64xf32> loc(#loc24)
      %451 = memref.load %94[%221, %361] : memref<?x?xf32, strided<[?, 1]>> loc(#loc24)
      %452 = vector.broadcast %451 : f32 to vector<64xf32> loc(#loc24)
      %453 = vector.fma %102, %449, %224 : vector<64xf32> loc(#loc24)
      %454 = memref.load %94[%225, %361] : memref<?x?xf32, strided<[?, 1]>> loc(#loc24)
      %455 = vector.broadcast %454 : f32 to vector<64xf32> loc(#loc24)
      %456 = vector.fma %102, %452, %228 : vector<64xf32> loc(#loc24)
      %457 = memref.load %94[%229, %361] : memref<?x?xf32, strided<[?, 1]>> loc(#loc24)
      %458 = vector.broadcast %457 : f32 to vector<64xf32> loc(#loc24)
      %459 = vector.fma %102, %455, %232 : vector<64xf32> loc(#loc24)
      %460 = memref.load %94[%233, %361] : memref<?x?xf32, strided<[?, 1]>> loc(#loc24)
      %461 = vector.broadcast %460 : f32 to vector<64xf32> loc(#loc24)
      %462 = vector.fma %102, %458, %236 : vector<64xf32> loc(#loc24)
      %463 = memref.load %94[%237, %361] : memref<?x?xf32, strided<[?, 1]>> loc(#loc24)
      %464 = vector.broadcast %463 : f32 to vector<64xf32> loc(#loc24)
      %465 = vector.fma %102, %461, %240 : vector<64xf32> loc(#loc24)
      %466 = memref.load %94[%241, %361] : memref<?x?xf32, strided<[?, 1]>> loc(#loc24)
      %467 = vector.broadcast %466 : f32 to vector<64xf32> loc(#loc24)
      %468 = vector.fma %102, %464, %244 : vector<64xf32> loc(#loc24)
      %469 = memref.load %94[%245, %361] : memref<?x?xf32, strided<[?, 1]>> loc(#loc24)
      %470 = vector.broadcast %469 : f32 to vector<64xf32> loc(#loc24)
      %471 = vector.fma %102, %467, %248 : vector<64xf32> loc(#loc24)
      %472 = memref.load %94[%249, %361] : memref<?x?xf32, strided<[?, 1]>> loc(#loc24)
      %473 = vector.broadcast %472 : f32 to vector<64xf32> loc(#loc24)
      %474 = vector.fma %102, %470, %252 : vector<64xf32> loc(#loc24)
      %475 = memref.load %94[%253, %361] : memref<?x?xf32, strided<[?, 1]>> loc(#loc24)
      %476 = vector.broadcast %475 : f32 to vector<64xf32> loc(#loc24)
      %477 = vector.fma %102, %473, %256 : vector<64xf32> loc(#loc24)
      %478 = memref.load %94[%257, %361] : memref<?x?xf32, strided<[?, 1]>> loc(#loc24)
      %479 = vector.broadcast %478 : f32 to vector<64xf32> loc(#loc24)
      %480 = vector.fma %102, %476, %260 : vector<64xf32> loc(#loc24)
      %481 = memref.load %94[%261, %361] : memref<?x?xf32, strided<[?, 1]>> loc(#loc24)
      %482 = vector.broadcast %481 : f32 to vector<64xf32> loc(#loc24)
      %483 = vector.fma %102, %479, %264 : vector<64xf32> loc(#loc24)
      %484 = memref.load %94[%265, %361] : memref<?x?xf32, strided<[?, 1]>> loc(#loc24)
      %485 = vector.broadcast %484 : f32 to vector<64xf32> loc(#loc24)
      %486 = vector.fma %102, %482, %268 : vector<64xf32> loc(#loc24)
      %487 = memref.load %94[%269, %361] : memref<?x?xf32, strided<[?, 1]>> loc(#loc24)
      %488 = vector.broadcast %487 : f32 to vector<64xf32> loc(#loc24)
      %489 = vector.fma %102, %485, %272 : vector<64xf32> loc(#loc24)
      %490 = memref.load %94[%273, %361] : memref<?x?xf32, strided<[?, 1]>> loc(#loc24)
      %491 = vector.broadcast %490 : f32 to vector<64xf32> loc(#loc24)
      %492 = vector.fma %102, %488, %276 : vector<64xf32> loc(#loc24)
      %493 = memref.load %94[%277, %361] : memref<?x?xf32, strided<[?, 1]>> loc(#loc24)
      %494 = vector.broadcast %493 : f32 to vector<64xf32> loc(#loc24)
      %495 = vector.fma %102, %491, %280 : vector<64xf32> loc(#loc24)
      %496 = memref.load %94[%281, %361] : memref<?x?xf32, strided<[?, 1]>> loc(#loc24)
      %497 = vector.broadcast %496 : f32 to vector<64xf32> loc(#loc24)
      %498 = vector.fma %102, %494, %284 : vector<64xf32> loc(#loc24)
      %499 = memref.load %94[%285, %361] : memref<?x?xf32, strided<[?, 1]>> loc(#loc24)
      %500 = vector.broadcast %499 : f32 to vector<64xf32> loc(#loc24)
      %501 = vector.fma %102, %497, %288 : vector<64xf32> loc(#loc24)
      %502 = memref.load %94[%289, %361] : memref<?x?xf32, strided<[?, 1]>> loc(#loc24)
      %503 = vector.broadcast %502 : f32 to vector<64xf32> loc(#loc24)
      %504 = vector.fma %102, %500, %292 : vector<64xf32> loc(#loc24)
      %505 = memref.load %94[%293, %361] : memref<?x?xf32, strided<[?, 1]>> loc(#loc24)
      %506 = vector.broadcast %505 : f32 to vector<64xf32> loc(#loc24)
      %507 = vector.fma %102, %503, %296 : vector<64xf32> loc(#loc24)
      %508 = memref.load %94[%297, %361] : memref<?x?xf32, strided<[?, 1]>> loc(#loc24)
      %509 = vector.broadcast %508 : f32 to vector<64xf32> loc(#loc24)
      %510 = vector.fma %102, %506, %300 : vector<64xf32> loc(#loc24)
      %511 = memref.load %94[%301, %361] : memref<?x?xf32, strided<[?, 1]>> loc(#loc24)
      %512 = vector.broadcast %511 : f32 to vector<64xf32> loc(#loc24)
      %513 = vector.fma %102, %509, %304 : vector<64xf32> loc(#loc24)
      %514 = memref.load %94[%305, %361] : memref<?x?xf32, strided<[?, 1]>> loc(#loc24)
      %515 = vector.broadcast %514 : f32 to vector<64xf32> loc(#loc24)
      %516 = vector.fma %102, %512, %308 : vector<64xf32> loc(#loc24)
      %517 = memref.load %94[%309, %361] : memref<?x?xf32, strided<[?, 1]>> loc(#loc24)
      %518 = vector.broadcast %517 : f32 to vector<64xf32> loc(#loc24)
      %519 = vector.fma %102, %515, %312 : vector<64xf32> loc(#loc24)
      %520 = memref.load %94[%313, %361] : memref<?x?xf32, strided<[?, 1]>> loc(#loc24)
      %521 = vector.broadcast %520 : f32 to vector<64xf32> loc(#loc24)
      %522 = vector.fma %102, %518, %316 : vector<64xf32> loc(#loc24)
      %523 = memref.load %94[%317, %361] : memref<?x?xf32, strided<[?, 1]>> loc(#loc24)
      %524 = vector.broadcast %523 : f32 to vector<64xf32> loc(#loc24)
      %525 = vector.fma %102, %521, %320 : vector<64xf32> loc(#loc24)
      %526 = memref.load %94[%321, %361] : memref<?x?xf32, strided<[?, 1]>> loc(#loc24)
      %527 = vector.broadcast %526 : f32 to vector<64xf32> loc(#loc24)
      %528 = vector.fma %102, %524, %324 : vector<64xf32> loc(#loc24)
      %529 = memref.load %94[%325, %361] : memref<?x?xf32, strided<[?, 1]>> loc(#loc24)
      %530 = vector.broadcast %529 : f32 to vector<64xf32> loc(#loc24)
      %531 = vector.fma %102, %527, %328 : vector<64xf32> loc(#loc24)
      %532 = memref.load %94[%329, %361] : memref<?x?xf32, strided<[?, 1]>> loc(#loc24)
      %533 = vector.broadcast %532 : f32 to vector<64xf32> loc(#loc24)
      %534 = vector.fma %102, %530, %332 : vector<64xf32> loc(#loc24)
      %535 = memref.load %94[%333, %361] : memref<?x?xf32, strided<[?, 1]>> loc(#loc24)
      %536 = vector.broadcast %535 : f32 to vector<64xf32> loc(#loc24)
      %537 = vector.fma %102, %533, %336 : vector<64xf32> loc(#loc24)
      %538 = memref.load %94[%337, %361] : memref<?x?xf32, strided<[?, 1]>> loc(#loc24)
      %539 = vector.broadcast %538 : f32 to vector<64xf32> loc(#loc24)
      %540 = vector.fma %102, %536, %340 : vector<64xf32> loc(#loc24)
      %541 = memref.load %94[%341, %361] : memref<?x?xf32, strided<[?, 1]>> loc(#loc24)
      %542 = vector.broadcast %541 : f32 to vector<64xf32> loc(#loc24)
      %543 = vector.fma %102, %539, %344 : vector<64xf32> loc(#loc24)
      %544 = memref.load %94[%345, %361] : memref<?x?xf32, strided<[?, 1]>> loc(#loc24)
      %545 = vector.broadcast %544 : f32 to vector<64xf32> loc(#loc24)
      %546 = vector.fma %102, %542, %348 : vector<64xf32> loc(#loc24)
      %547 = memref.load %94[%349, %361] : memref<?x?xf32, strided<[?, 1]>> loc(#loc24)
      %548 = vector.broadcast %547 : f32 to vector<64xf32> loc(#loc24)
      %549 = vector.fma %102, %545, %352 : vector<64xf32> loc(#loc24)
      %550 = memref.load %94[%353, %361] : memref<?x?xf32, strided<[?, 1]>> loc(#loc24)
      %551 = vector.broadcast %550 : f32 to vector<64xf32> loc(#loc24)
      %552 = vector.fma %102, %548, %356 : vector<64xf32> loc(#loc24)
      %553 = vector.fma %102, %551, %357 : vector<64xf32> loc(#loc24)
      %554 = arith.addi %97#0, %c3 : index loc(#loc24)
      %555 = vector.load %96[%554, %97#1] : memref<?x?xf32, strided<[?, 1]>>, vector<64xf32> loc(#loc24)
      %556 = arith.addi %97#0, %c130 : index loc(#loc24)
      memref.prefetch %96[%556, %97#1], read, locality<1>, data : memref<?x?xf32, strided<[?, 1]>> loc(#loc24)
      %557 = arith.addi %95#1, %c2 : index loc(#loc24)
      %558 = memref.load %94[%95#0, %557] : memref<?x?xf32, strided<[?, 1]>> loc(#loc24)
      %559 = vector.broadcast %558 : f32 to vector<64xf32> loc(#loc24)
      %560 = memref.load %94[%105, %557] : memref<?x?xf32, strided<[?, 1]>> loc(#loc24)
      %561 = vector.broadcast %560 : f32 to vector<64xf32> loc(#loc24)
      %562 = vector.fma %359, %559, %366 : vector<64xf32> loc(#loc24)
      %563 = memref.load %94[%109, %557] : memref<?x?xf32, strided<[?, 1]>> loc(#loc24)
      %564 = vector.broadcast %563 : f32 to vector<64xf32> loc(#loc24)
      %565 = vector.fma %359, %561, %369 : vector<64xf32> loc(#loc24)
      %566 = memref.load %94[%113, %557] : memref<?x?xf32, strided<[?, 1]>> loc(#loc24)
      %567 = vector.broadcast %566 : f32 to vector<64xf32> loc(#loc24)
      %568 = vector.fma %359, %564, %372 : vector<64xf32> loc(#loc24)
      %569 = memref.load %94[%117, %557] : memref<?x?xf32, strided<[?, 1]>> loc(#loc24)
      %570 = vector.broadcast %569 : f32 to vector<64xf32> loc(#loc24)
      %571 = vector.fma %359, %567, %375 : vector<64xf32> loc(#loc24)
      %572 = memref.load %94[%121, %557] : memref<?x?xf32, strided<[?, 1]>> loc(#loc24)
      %573 = vector.broadcast %572 : f32 to vector<64xf32> loc(#loc24)
      %574 = vector.fma %359, %570, %378 : vector<64xf32> loc(#loc24)
      %575 = memref.load %94[%125, %557] : memref<?x?xf32, strided<[?, 1]>> loc(#loc24)
      %576 = vector.broadcast %575 : f32 to vector<64xf32> loc(#loc24)
      %577 = vector.fma %359, %573, %381 : vector<64xf32> loc(#loc24)
      %578 = memref.load %94[%129, %557] : memref<?x?xf32, strided<[?, 1]>> loc(#loc24)
      %579 = vector.broadcast %578 : f32 to vector<64xf32> loc(#loc24)
      %580 = vector.fma %359, %576, %384 : vector<64xf32> loc(#loc24)
      %581 = memref.load %94[%133, %557] : memref<?x?xf32, strided<[?, 1]>> loc(#loc24)
      %582 = vector.broadcast %581 : f32 to vector<64xf32> loc(#loc24)
      %583 = vector.fma %359, %579, %387 : vector<64xf32> loc(#loc24)
      %584 = memref.load %94[%137, %557] : memref<?x?xf32, strided<[?, 1]>> loc(#loc24)
      %585 = vector.broadcast %584 : f32 to vector<64xf32> loc(#loc24)
      %586 = vector.fma %359, %582, %390 : vector<64xf32> loc(#loc24)
      %587 = memref.load %94[%141, %557] : memref<?x?xf32, strided<[?, 1]>> loc(#loc24)
      %588 = vector.broadcast %587 : f32 to vector<64xf32> loc(#loc24)
      %589 = vector.fma %359, %585, %393 : vector<64xf32> loc(#loc24)
      %590 = memref.load %94[%145, %557] : memref<?x?xf32, strided<[?, 1]>> loc(#loc24)
      %591 = vector.broadcast %590 : f32 to vector<64xf32> loc(#loc24)
      %592 = vector.fma %359, %588, %396 : vector<64xf32> loc(#loc24)
      %593 = memref.load %94[%149, %557] : memref<?x?xf32, strided<[?, 1]>> loc(#loc24)
      %594 = vector.broadcast %593 : f32 to vector<64xf32> loc(#loc24)
      %595 = vector.fma %359, %591, %399 : vector<64xf32> loc(#loc24)
      %596 = memref.load %94[%153, %557] : memref<?x?xf32, strided<[?, 1]>> loc(#loc24)
      %597 = vector.broadcast %596 : f32 to vector<64xf32> loc(#loc24)
      %598 = vector.fma %359, %594, %402 : vector<64xf32> loc(#loc24)
      %599 = memref.load %94[%157, %557] : memref<?x?xf32, strided<[?, 1]>> loc(#loc24)
      %600 = vector.broadcast %599 : f32 to vector<64xf32> loc(#loc24)
      %601 = vector.fma %359, %597, %405 : vector<64xf32> loc(#loc24)
      %602 = memref.load %94[%161, %557] : memref<?x?xf32, strided<[?, 1]>> loc(#loc24)
      %603 = vector.broadcast %602 : f32 to vector<64xf32> loc(#loc24)
      %604 = vector.fma %359, %600, %408 : vector<64xf32> loc(#loc24)
      %605 = memref.load %94[%165, %557] : memref<?x?xf32, strided<[?, 1]>> loc(#loc24)
      %606 = vector.broadcast %605 : f32 to vector<64xf32> loc(#loc24)
      %607 = vector.fma %359, %603, %411 : vector<64xf32> loc(#loc24)
      %608 = memref.load %94[%169, %557] : memref<?x?xf32, strided<[?, 1]>> loc(#loc24)
      %609 = vector.broadcast %608 : f32 to vector<64xf32> loc(#loc24)
      %610 = vector.fma %359, %606, %414 : vector<64xf32> loc(#loc24)
      %611 = memref.load %94[%173, %557] : memref<?x?xf32, strided<[?, 1]>> loc(#loc24)
      %612 = vector.broadcast %611 : f32 to vector<64xf32> loc(#loc24)
      %613 = vector.fma %359, %609, %417 : vector<64xf32> loc(#loc24)
      %614 = memref.load %94[%177, %557] : memref<?x?xf32, strided<[?, 1]>> loc(#loc24)
      %615 = vector.broadcast %614 : f32 to vector<64xf32> loc(#loc24)
      %616 = vector.fma %359, %612, %420 : vector<64xf32> loc(#loc24)
      %617 = memref.load %94[%181, %557] : memref<?x?xf32, strided<[?, 1]>> loc(#loc24)
      %618 = vector.broadcast %617 : f32 to vector<64xf32> loc(#loc24)
      %619 = vector.fma %359, %615, %423 : vector<64xf32> loc(#loc24)
      %620 = memref.load %94[%185, %557] : memref<?x?xf32, strided<[?, 1]>> loc(#loc24)
      %621 = vector.broadcast %620 : f32 to vector<64xf32> loc(#loc24)
      %622 = vector.fma %359, %618, %426 : vector<64xf32> loc(#loc24)
      %623 = memref.load %94[%189, %557] : memref<?x?xf32, strided<[?, 1]>> loc(#loc24)
      %624 = vector.broadcast %623 : f32 to vector<64xf32> loc(#loc24)
      %625 = vector.fma %359, %621, %429 : vector<64xf32> loc(#loc24)
      %626 = memref.load %94[%193, %557] : memref<?x?xf32, strided<[?, 1]>> loc(#loc24)
      %627 = vector.broadcast %626 : f32 to vector<64xf32> loc(#loc24)
      %628 = vector.fma %359, %624, %432 : vector<64xf32> loc(#loc24)
      %629 = memref.load %94[%197, %557] : memref<?x?xf32, strided<[?, 1]>> loc(#loc24)
      %630 = vector.broadcast %629 : f32 to vector<64xf32> loc(#loc24)
      %631 = vector.fma %359, %627, %435 : vector<64xf32> loc(#loc24)
      %632 = memref.load %94[%201, %557] : memref<?x?xf32, strided<[?, 1]>> loc(#loc24)
      %633 = vector.broadcast %632 : f32 to vector<64xf32> loc(#loc24)
      %634 = vector.fma %359, %630, %438 : vector<64xf32> loc(#loc24)
      %635 = memref.load %94[%205, %557] : memref<?x?xf32, strided<[?, 1]>> loc(#loc24)
      %636 = vector.broadcast %635 : f32 to vector<64xf32> loc(#loc24)
      %637 = vector.fma %359, %633, %441 : vector<64xf32> loc(#loc24)
      %638 = memref.load %94[%209, %557] : memref<?x?xf32, strided<[?, 1]>> loc(#loc24)
      %639 = vector.broadcast %638 : f32 to vector<64xf32> loc(#loc24)
      %640 = vector.fma %359, %636, %444 : vector<64xf32> loc(#loc24)
      %641 = memref.load %94[%213, %557] : memref<?x?xf32, strided<[?, 1]>> loc(#loc24)
      %642 = vector.broadcast %641 : f32 to vector<64xf32> loc(#loc24)
      %643 = vector.fma %359, %639, %447 : vector<64xf32> loc(#loc24)
      %644 = memref.load %94[%217, %557] : memref<?x?xf32, strided<[?, 1]>> loc(#loc24)
      %645 = vector.broadcast %644 : f32 to vector<64xf32> loc(#loc24)
      %646 = vector.fma %359, %642, %450 : vector<64xf32> loc(#loc24)
      %647 = memref.load %94[%221, %557] : memref<?x?xf32, strided<[?, 1]>> loc(#loc24)
      %648 = vector.broadcast %647 : f32 to vector<64xf32> loc(#loc24)
      %649 = vector.fma %359, %645, %453 : vector<64xf32> loc(#loc24)
      %650 = memref.load %94[%225, %557] : memref<?x?xf32, strided<[?, 1]>> loc(#loc24)
      %651 = vector.broadcast %650 : f32 to vector<64xf32> loc(#loc24)
      %652 = vector.fma %359, %648, %456 : vector<64xf32> loc(#loc24)
      %653 = memref.load %94[%229, %557] : memref<?x?xf32, strided<[?, 1]>> loc(#loc24)
      %654 = vector.broadcast %653 : f32 to vector<64xf32> loc(#loc24)
      %655 = vector.fma %359, %651, %459 : vector<64xf32> loc(#loc24)
      %656 = memref.load %94[%233, %557] : memref<?x?xf32, strided<[?, 1]>> loc(#loc24)
      %657 = vector.broadcast %656 : f32 to vector<64xf32> loc(#loc24)
      %658 = vector.fma %359, %654, %462 : vector<64xf32> loc(#loc24)
      %659 = memref.load %94[%237, %557] : memref<?x?xf32, strided<[?, 1]>> loc(#loc24)
      %660 = vector.broadcast %659 : f32 to vector<64xf32> loc(#loc24)
      %661 = vector.fma %359, %657, %465 : vector<64xf32> loc(#loc24)
      %662 = memref.load %94[%241, %557] : memref<?x?xf32, strided<[?, 1]>> loc(#loc24)
      %663 = vector.broadcast %662 : f32 to vector<64xf32> loc(#loc24)
      %664 = vector.fma %359, %660, %468 : vector<64xf32> loc(#loc24)
      %665 = memref.load %94[%245, %557] : memref<?x?xf32, strided<[?, 1]>> loc(#loc24)
      %666 = vector.broadcast %665 : f32 to vector<64xf32> loc(#loc24)
      %667 = vector.fma %359, %663, %471 : vector<64xf32> loc(#loc24)
      %668 = memref.load %94[%249, %557] : memref<?x?xf32, strided<[?, 1]>> loc(#loc24)
      %669 = vector.broadcast %668 : f32 to vector<64xf32> loc(#loc24)
      %670 = vector.fma %359, %666, %474 : vector<64xf32> loc(#loc24)
      %671 = memref.load %94[%253, %557] : memref<?x?xf32, strided<[?, 1]>> loc(#loc24)
      %672 = vector.broadcast %671 : f32 to vector<64xf32> loc(#loc24)
      %673 = vector.fma %359, %669, %477 : vector<64xf32> loc(#loc24)
      %674 = memref.load %94[%257, %557] : memref<?x?xf32, strided<[?, 1]>> loc(#loc24)
      %675 = vector.broadcast %674 : f32 to vector<64xf32> loc(#loc24)
      %676 = vector.fma %359, %672, %480 : vector<64xf32> loc(#loc24)
      %677 = memref.load %94[%261, %557] : memref<?x?xf32, strided<[?, 1]>> loc(#loc24)
      %678 = vector.broadcast %677 : f32 to vector<64xf32> loc(#loc24)
      %679 = vector.fma %359, %675, %483 : vector<64xf32> loc(#loc24)
      %680 = memref.load %94[%265, %557] : memref<?x?xf32, strided<[?, 1]>> loc(#loc24)
      %681 = vector.broadcast %680 : f32 to vector<64xf32> loc(#loc24)
      %682 = vector.fma %359, %678, %486 : vector<64xf32> loc(#loc24)
      %683 = memref.load %94[%269, %557] : memref<?x?xf32, strided<[?, 1]>> loc(#loc24)
      %684 = vector.broadcast %683 : f32 to vector<64xf32> loc(#loc24)
      %685 = vector.fma %359, %681, %489 : vector<64xf32> loc(#loc24)
      %686 = memref.load %94[%273, %557] : memref<?x?xf32, strided<[?, 1]>> loc(#loc24)
      %687 = vector.broadcast %686 : f32 to vector<64xf32> loc(#loc24)
      %688 = vector.fma %359, %684, %492 : vector<64xf32> loc(#loc24)
      %689 = memref.load %94[%277, %557] : memref<?x?xf32, strided<[?, 1]>> loc(#loc24)
      %690 = vector.broadcast %689 : f32 to vector<64xf32> loc(#loc24)
      %691 = vector.fma %359, %687, %495 : vector<64xf32> loc(#loc24)
      %692 = memref.load %94[%281, %557] : memref<?x?xf32, strided<[?, 1]>> loc(#loc24)
      %693 = vector.broadcast %692 : f32 to vector<64xf32> loc(#loc24)
      %694 = vector.fma %359, %690, %498 : vector<64xf32> loc(#loc24)
      %695 = memref.load %94[%285, %557] : memref<?x?xf32, strided<[?, 1]>> loc(#loc24)
      %696 = vector.broadcast %695 : f32 to vector<64xf32> loc(#loc24)
      %697 = vector.fma %359, %693, %501 : vector<64xf32> loc(#loc24)
      %698 = memref.load %94[%289, %557] : memref<?x?xf32, strided<[?, 1]>> loc(#loc24)
      %699 = vector.broadcast %698 : f32 to vector<64xf32> loc(#loc24)
      %700 = vector.fma %359, %696, %504 : vector<64xf32> loc(#loc24)
      %701 = memref.load %94[%293, %557] : memref<?x?xf32, strided<[?, 1]>> loc(#loc24)
      %702 = vector.broadcast %701 : f32 to vector<64xf32> loc(#loc24)
      %703 = vector.fma %359, %699, %507 : vector<64xf32> loc(#loc24)
      %704 = memref.load %94[%297, %557] : memref<?x?xf32, strided<[?, 1]>> loc(#loc24)
      %705 = vector.broadcast %704 : f32 to vector<64xf32> loc(#loc24)
      %706 = vector.fma %359, %702, %510 : vector<64xf32> loc(#loc24)
      %707 = memref.load %94[%301, %557] : memref<?x?xf32, strided<[?, 1]>> loc(#loc24)
      %708 = vector.broadcast %707 : f32 to vector<64xf32> loc(#loc24)
      %709 = vector.fma %359, %705, %513 : vector<64xf32> loc(#loc24)
      %710 = memref.load %94[%305, %557] : memref<?x?xf32, strided<[?, 1]>> loc(#loc24)
      %711 = vector.broadcast %710 : f32 to vector<64xf32> loc(#loc24)
      %712 = vector.fma %359, %708, %516 : vector<64xf32> loc(#loc24)
      %713 = memref.load %94[%309, %557] : memref<?x?xf32, strided<[?, 1]>> loc(#loc24)
      %714 = vector.broadcast %713 : f32 to vector<64xf32> loc(#loc24)
      %715 = vector.fma %359, %711, %519 : vector<64xf32> loc(#loc24)
      %716 = memref.load %94[%313, %557] : memref<?x?xf32, strided<[?, 1]>> loc(#loc24)
      %717 = vector.broadcast %716 : f32 to vector<64xf32> loc(#loc24)
      %718 = vector.fma %359, %714, %522 : vector<64xf32> loc(#loc24)
      %719 = memref.load %94[%317, %557] : memref<?x?xf32, strided<[?, 1]>> loc(#loc24)
      %720 = vector.broadcast %719 : f32 to vector<64xf32> loc(#loc24)
      %721 = vector.fma %359, %717, %525 : vector<64xf32> loc(#loc24)
      %722 = memref.load %94[%321, %557] : memref<?x?xf32, strided<[?, 1]>> loc(#loc24)
      %723 = vector.broadcast %722 : f32 to vector<64xf32> loc(#loc24)
      %724 = vector.fma %359, %720, %528 : vector<64xf32> loc(#loc24)
      %725 = memref.load %94[%325, %557] : memref<?x?xf32, strided<[?, 1]>> loc(#loc24)
      %726 = vector.broadcast %725 : f32 to vector<64xf32> loc(#loc24)
      %727 = vector.fma %359, %723, %531 : vector<64xf32> loc(#loc24)
      %728 = memref.load %94[%329, %557] : memref<?x?xf32, strided<[?, 1]>> loc(#loc24)
      %729 = vector.broadcast %728 : f32 to vector<64xf32> loc(#loc24)
      %730 = vector.fma %359, %726, %534 : vector<64xf32> loc(#loc24)
      %731 = memref.load %94[%333, %557] : memref<?x?xf32, strided<[?, 1]>> loc(#loc24)
      %732 = vector.broadcast %731 : f32 to vector<64xf32> loc(#loc24)
      %733 = vector.fma %359, %729, %537 : vector<64xf32> loc(#loc24)
      %734 = memref.load %94[%337, %557] : memref<?x?xf32, strided<[?, 1]>> loc(#loc24)
      %735 = vector.broadcast %734 : f32 to vector<64xf32> loc(#loc24)
      %736 = vector.fma %359, %732, %540 : vector<64xf32> loc(#loc24)
      %737 = memref.load %94[%341, %557] : memref<?x?xf32, strided<[?, 1]>> loc(#loc24)
      %738 = vector.broadcast %737 : f32 to vector<64xf32> loc(#loc24)
      %739 = vector.fma %359, %735, %543 : vector<64xf32> loc(#loc24)
      %740 = memref.load %94[%345, %557] : memref<?x?xf32, strided<[?, 1]>> loc(#loc24)
      %741 = vector.broadcast %740 : f32 to vector<64xf32> loc(#loc24)
      %742 = vector.fma %359, %738, %546 : vector<64xf32> loc(#loc24)
      %743 = memref.load %94[%349, %557] : memref<?x?xf32, strided<[?, 1]>> loc(#loc24)
      %744 = vector.broadcast %743 : f32 to vector<64xf32> loc(#loc24)
      %745 = vector.fma %359, %741, %549 : vector<64xf32> loc(#loc24)
      %746 = memref.load %94[%353, %557] : memref<?x?xf32, strided<[?, 1]>> loc(#loc24)
      %747 = vector.broadcast %746 : f32 to vector<64xf32> loc(#loc24)
      %748 = vector.fma %359, %744, %552 : vector<64xf32> loc(#loc24)
      %749 = vector.fma %359, %747, %553 : vector<64xf32> loc(#loc24)
      %750 = arith.addi %97#0, %c4 : index loc(#loc24)
      %751 = vector.load %96[%750, %97#1] : memref<?x?xf32, strided<[?, 1]>>, vector<64xf32> loc(#loc24)
      %752 = arith.addi %97#0, %c131 : index loc(#loc24)
      memref.prefetch %96[%752, %97#1], read, locality<1>, data : memref<?x?xf32, strided<[?, 1]>> loc(#loc24)
      %753 = arith.addi %95#1, %c3 : index loc(#loc24)
      %754 = memref.load %94[%95#0, %753] : memref<?x?xf32, strided<[?, 1]>> loc(#loc24)
      %755 = vector.broadcast %754 : f32 to vector<64xf32> loc(#loc24)
      %756 = memref.load %94[%105, %753] : memref<?x?xf32, strided<[?, 1]>> loc(#loc24)
      %757 = vector.broadcast %756 : f32 to vector<64xf32> loc(#loc24)
      %758 = vector.fma %555, %755, %562 : vector<64xf32> loc(#loc24)
      %759 = memref.load %94[%109, %753] : memref<?x?xf32, strided<[?, 1]>> loc(#loc24)
      %760 = vector.broadcast %759 : f32 to vector<64xf32> loc(#loc24)
      %761 = vector.fma %555, %757, %565 : vector<64xf32> loc(#loc24)
      %762 = memref.load %94[%113, %753] : memref<?x?xf32, strided<[?, 1]>> loc(#loc24)
      %763 = vector.broadcast %762 : f32 to vector<64xf32> loc(#loc24)
      %764 = vector.fma %555, %760, %568 : vector<64xf32> loc(#loc24)
      %765 = memref.load %94[%117, %753] : memref<?x?xf32, strided<[?, 1]>> loc(#loc24)
      %766 = vector.broadcast %765 : f32 to vector<64xf32> loc(#loc24)
      %767 = vector.fma %555, %763, %571 : vector<64xf32> loc(#loc24)
      %768 = memref.load %94[%121, %753] : memref<?x?xf32, strided<[?, 1]>> loc(#loc24)
      %769 = vector.broadcast %768 : f32 to vector<64xf32> loc(#loc24)
      %770 = vector.fma %555, %766, %574 : vector<64xf32> loc(#loc24)
      %771 = memref.load %94[%125, %753] : memref<?x?xf32, strided<[?, 1]>> loc(#loc24)
      %772 = vector.broadcast %771 : f32 to vector<64xf32> loc(#loc24)
      %773 = vector.fma %555, %769, %577 : vector<64xf32> loc(#loc24)
      %774 = memref.load %94[%129, %753] : memref<?x?xf32, strided<[?, 1]>> loc(#loc24)
      %775 = vector.broadcast %774 : f32 to vector<64xf32> loc(#loc24)
      %776 = vector.fma %555, %772, %580 : vector<64xf32> loc(#loc24)
      %777 = memref.load %94[%133, %753] : memref<?x?xf32, strided<[?, 1]>> loc(#loc24)
      %778 = vector.broadcast %777 : f32 to vector<64xf32> loc(#loc24)
      %779 = vector.fma %555, %775, %583 : vector<64xf32> loc(#loc24)
      %780 = memref.load %94[%137, %753] : memref<?x?xf32, strided<[?, 1]>> loc(#loc24)
      %781 = vector.broadcast %780 : f32 to vector<64xf32> loc(#loc24)
      %782 = vector.fma %555, %778, %586 : vector<64xf32> loc(#loc24)
      %783 = memref.load %94[%141, %753] : memref<?x?xf32, strided<[?, 1]>> loc(#loc24)
      %784 = vector.broadcast %783 : f32 to vector<64xf32> loc(#loc24)
      %785 = vector.fma %555, %781, %589 : vector<64xf32> loc(#loc24)
      %786 = memref.load %94[%145, %753] : memref<?x?xf32, strided<[?, 1]>> loc(#loc24)
      %787 = vector.broadcast %786 : f32 to vector<64xf32> loc(#loc24)
      %788 = vector.fma %555, %784, %592 : vector<64xf32> loc(#loc24)
      %789 = memref.load %94[%149, %753] : memref<?x?xf32, strided<[?, 1]>> loc(#loc24)
      %790 = vector.broadcast %789 : f32 to vector<64xf32> loc(#loc24)
      %791 = vector.fma %555, %787, %595 : vector<64xf32> loc(#loc24)
      %792 = memref.load %94[%153, %753] : memref<?x?xf32, strided<[?, 1]>> loc(#loc24)
      %793 = vector.broadcast %792 : f32 to vector<64xf32> loc(#loc24)
      %794 = vector.fma %555, %790, %598 : vector<64xf32> loc(#loc24)
      %795 = memref.load %94[%157, %753] : memref<?x?xf32, strided<[?, 1]>> loc(#loc24)
      %796 = vector.broadcast %795 : f32 to vector<64xf32> loc(#loc24)
      %797 = vector.fma %555, %793, %601 : vector<64xf32> loc(#loc24)
      %798 = memref.load %94[%161, %753] : memref<?x?xf32, strided<[?, 1]>> loc(#loc24)
      %799 = vector.broadcast %798 : f32 to vector<64xf32> loc(#loc24)
      %800 = vector.fma %555, %796, %604 : vector<64xf32> loc(#loc24)
      %801 = memref.load %94[%165, %753] : memref<?x?xf32, strided<[?, 1]>> loc(#loc24)
      %802 = vector.broadcast %801 : f32 to vector<64xf32> loc(#loc24)
      %803 = vector.fma %555, %799, %607 : vector<64xf32> loc(#loc24)
      %804 = memref.load %94[%169, %753] : memref<?x?xf32, strided<[?, 1]>> loc(#loc24)
      %805 = vector.broadcast %804 : f32 to vector<64xf32> loc(#loc24)
      %806 = vector.fma %555, %802, %610 : vector<64xf32> loc(#loc24)
      %807 = memref.load %94[%173, %753] : memref<?x?xf32, strided<[?, 1]>> loc(#loc24)
      %808 = vector.broadcast %807 : f32 to vector<64xf32> loc(#loc24)
      %809 = vector.fma %555, %805, %613 : vector<64xf32> loc(#loc24)
      %810 = memref.load %94[%177, %753] : memref<?x?xf32, strided<[?, 1]>> loc(#loc24)
      %811 = vector.broadcast %810 : f32 to vector<64xf32> loc(#loc24)
      %812 = vector.fma %555, %808, %616 : vector<64xf32> loc(#loc24)
      %813 = memref.load %94[%181, %753] : memref<?x?xf32, strided<[?, 1]>> loc(#loc24)
      %814 = vector.broadcast %813 : f32 to vector<64xf32> loc(#loc24)
      %815 = vector.fma %555, %811, %619 : vector<64xf32> loc(#loc24)
      %816 = memref.load %94[%185, %753] : memref<?x?xf32, strided<[?, 1]>> loc(#loc24)
      %817 = vector.broadcast %816 : f32 to vector<64xf32> loc(#loc24)
      %818 = vector.fma %555, %814, %622 : vector<64xf32> loc(#loc24)
      %819 = memref.load %94[%189, %753] : memref<?x?xf32, strided<[?, 1]>> loc(#loc24)
      %820 = vector.broadcast %819 : f32 to vector<64xf32> loc(#loc24)
      %821 = vector.fma %555, %817, %625 : vector<64xf32> loc(#loc24)
      %822 = memref.load %94[%193, %753] : memref<?x?xf32, strided<[?, 1]>> loc(#loc24)
      %823 = vector.broadcast %822 : f32 to vector<64xf32> loc(#loc24)
      %824 = vector.fma %555, %820, %628 : vector<64xf32> loc(#loc24)
      %825 = memref.load %94[%197, %753] : memref<?x?xf32, strided<[?, 1]>> loc(#loc24)
      %826 = vector.broadcast %825 : f32 to vector<64xf32> loc(#loc24)
      %827 = vector.fma %555, %823, %631 : vector<64xf32> loc(#loc24)
      %828 = memref.load %94[%201, %753] : memref<?x?xf32, strided<[?, 1]>> loc(#loc24)
      %829 = vector.broadcast %828 : f32 to vector<64xf32> loc(#loc24)
      %830 = vector.fma %555, %826, %634 : vector<64xf32> loc(#loc24)
      %831 = memref.load %94[%205, %753] : memref<?x?xf32, strided<[?, 1]>> loc(#loc24)
      %832 = vector.broadcast %831 : f32 to vector<64xf32> loc(#loc24)
      %833 = vector.fma %555, %829, %637 : vector<64xf32> loc(#loc24)
      %834 = memref.load %94[%209, %753] : memref<?x?xf32, strided<[?, 1]>> loc(#loc24)
      %835 = vector.broadcast %834 : f32 to vector<64xf32> loc(#loc24)
      %836 = vector.fma %555, %832, %640 : vector<64xf32> loc(#loc24)
      %837 = memref.load %94[%213, %753] : memref<?x?xf32, strided<[?, 1]>> loc(#loc24)
      %838 = vector.broadcast %837 : f32 to vector<64xf32> loc(#loc24)
      %839 = vector.fma %555, %835, %643 : vector<64xf32> loc(#loc24)
      %840 = memref.load %94[%217, %753] : memref<?x?xf32, strided<[?, 1]>> loc(#loc24)
      %841 = vector.broadcast %840 : f32 to vector<64xf32> loc(#loc24)
      %842 = vector.fma %555, %838, %646 : vector<64xf32> loc(#loc24)
      %843 = memref.load %94[%221, %753] : memref<?x?xf32, strided<[?, 1]>> loc(#loc24)
      %844 = vector.broadcast %843 : f32 to vector<64xf32> loc(#loc24)
      %845 = vector.fma %555, %841, %649 : vector<64xf32> loc(#loc24)
      %846 = memref.load %94[%225, %753] : memref<?x?xf32, strided<[?, 1]>> loc(#loc24)
      %847 = vector.broadcast %846 : f32 to vector<64xf32> loc(#loc24)
      %848 = vector.fma %555, %844, %652 : vector<64xf32> loc(#loc24)
      %849 = memref.load %94[%229, %753] : memref<?x?xf32, strided<[?, 1]>> loc(#loc24)
      %850 = vector.broadcast %849 : f32 to vector<64xf32> loc(#loc24)
      %851 = vector.fma %555, %847, %655 : vector<64xf32> loc(#loc24)
      %852 = memref.load %94[%233, %753] : memref<?x?xf32, strided<[?, 1]>> loc(#loc24)
      %853 = vector.broadcast %852 : f32 to vector<64xf32> loc(#loc24)
      %854 = vector.fma %555, %850, %658 : vector<64xf32> loc(#loc24)
      %855 = memref.load %94[%237, %753] : memref<?x?xf32, strided<[?, 1]>> loc(#loc24)
      %856 = vector.broadcast %855 : f32 to vector<64xf32> loc(#loc24)
      %857 = vector.fma %555, %853, %661 : vector<64xf32> loc(#loc24)
      %858 = memref.load %94[%241, %753] : memref<?x?xf32, strided<[?, 1]>> loc(#loc24)
      %859 = vector.broadcast %858 : f32 to vector<64xf32> loc(#loc24)
      %860 = vector.fma %555, %856, %664 : vector<64xf32> loc(#loc24)
      %861 = memref.load %94[%245, %753] : memref<?x?xf32, strided<[?, 1]>> loc(#loc24)
      %862 = vector.broadcast %861 : f32 to vector<64xf32> loc(#loc24)
      %863 = vector.fma %555, %859, %667 : vector<64xf32> loc(#loc24)
      %864 = memref.load %94[%249, %753] : memref<?x?xf32, strided<[?, 1]>> loc(#loc24)
      %865 = vector.broadcast %864 : f32 to vector<64xf32> loc(#loc24)
      %866 = vector.fma %555, %862, %670 : vector<64xf32> loc(#loc24)
      %867 = memref.load %94[%253, %753] : memref<?x?xf32, strided<[?, 1]>> loc(#loc24)
      %868 = vector.broadcast %867 : f32 to vector<64xf32> loc(#loc24)
      %869 = vector.fma %555, %865, %673 : vector<64xf32> loc(#loc24)
      %870 = memref.load %94[%257, %753] : memref<?x?xf32, strided<[?, 1]>> loc(#loc24)
      %871 = vector.broadcast %870 : f32 to vector<64xf32> loc(#loc24)
      %872 = vector.fma %555, %868, %676 : vector<64xf32> loc(#loc24)
      %873 = memref.load %94[%261, %753] : memref<?x?xf32, strided<[?, 1]>> loc(#loc24)
      %874 = vector.broadcast %873 : f32 to vector<64xf32> loc(#loc24)
      %875 = vector.fma %555, %871, %679 : vector<64xf32> loc(#loc24)
      %876 = memref.load %94[%265, %753] : memref<?x?xf32, strided<[?, 1]>> loc(#loc24)
      %877 = vector.broadcast %876 : f32 to vector<64xf32> loc(#loc24)
      %878 = vector.fma %555, %874, %682 : vector<64xf32> loc(#loc24)
      %879 = memref.load %94[%269, %753] : memref<?x?xf32, strided<[?, 1]>> loc(#loc24)
      %880 = vector.broadcast %879 : f32 to vector<64xf32> loc(#loc24)
      %881 = vector.fma %555, %877, %685 : vector<64xf32> loc(#loc24)
      %882 = memref.load %94[%273, %753] : memref<?x?xf32, strided<[?, 1]>> loc(#loc24)
      %883 = vector.broadcast %882 : f32 to vector<64xf32> loc(#loc24)
      %884 = vector.fma %555, %880, %688 : vector<64xf32> loc(#loc24)
      %885 = memref.load %94[%277, %753] : memref<?x?xf32, strided<[?, 1]>> loc(#loc24)
      %886 = vector.broadcast %885 : f32 to vector<64xf32> loc(#loc24)
      %887 = vector.fma %555, %883, %691 : vector<64xf32> loc(#loc24)
      %888 = memref.load %94[%281, %753] : memref<?x?xf32, strided<[?, 1]>> loc(#loc24)
      %889 = vector.broadcast %888 : f32 to vector<64xf32> loc(#loc24)
      %890 = vector.fma %555, %886, %694 : vector<64xf32> loc(#loc24)
      %891 = memref.load %94[%285, %753] : memref<?x?xf32, strided<[?, 1]>> loc(#loc24)
      %892 = vector.broadcast %891 : f32 to vector<64xf32> loc(#loc24)
      %893 = vector.fma %555, %889, %697 : vector<64xf32> loc(#loc24)
      %894 = memref.load %94[%289, %753] : memref<?x?xf32, strided<[?, 1]>> loc(#loc24)
      %895 = vector.broadcast %894 : f32 to vector<64xf32> loc(#loc24)
      %896 = vector.fma %555, %892, %700 : vector<64xf32> loc(#loc24)
      %897 = memref.load %94[%293, %753] : memref<?x?xf32, strided<[?, 1]>> loc(#loc24)
      %898 = vector.broadcast %897 : f32 to vector<64xf32> loc(#loc24)
      %899 = vector.fma %555, %895, %703 : vector<64xf32> loc(#loc24)
      %900 = memref.load %94[%297, %753] : memref<?x?xf32, strided<[?, 1]>> loc(#loc24)
      %901 = vector.broadcast %900 : f32 to vector<64xf32> loc(#loc24)
      %902 = vector.fma %555, %898, %706 : vector<64xf32> loc(#loc24)
      %903 = memref.load %94[%301, %753] : memref<?x?xf32, strided<[?, 1]>> loc(#loc24)
      %904 = vector.broadcast %903 : f32 to vector<64xf32> loc(#loc24)
      %905 = vector.fma %555, %901, %709 : vector<64xf32> loc(#loc24)
      %906 = memref.load %94[%305, %753] : memref<?x?xf32, strided<[?, 1]>> loc(#loc24)
      %907 = vector.broadcast %906 : f32 to vector<64xf32> loc(#loc24)
      %908 = vector.fma %555, %904, %712 : vector<64xf32> loc(#loc24)
      %909 = memref.load %94[%309, %753] : memref<?x?xf32, strided<[?, 1]>> loc(#loc24)
      %910 = vector.broadcast %909 : f32 to vector<64xf32> loc(#loc24)
      %911 = vector.fma %555, %907, %715 : vector<64xf32> loc(#loc24)
      %912 = memref.load %94[%313, %753] : memref<?x?xf32, strided<[?, 1]>> loc(#loc24)
      %913 = vector.broadcast %912 : f32 to vector<64xf32> loc(#loc24)
      %914 = vector.fma %555, %910, %718 : vector<64xf32> loc(#loc24)
      %915 = memref.load %94[%317, %753] : memref<?x?xf32, strided<[?, 1]>> loc(#loc24)
      %916 = vector.broadcast %915 : f32 to vector<64xf32> loc(#loc24)
      %917 = vector.fma %555, %913, %721 : vector<64xf32> loc(#loc24)
      %918 = memref.load %94[%321, %753] : memref<?x?xf32, strided<[?, 1]>> loc(#loc24)
      %919 = vector.broadcast %918 : f32 to vector<64xf32> loc(#loc24)
      %920 = vector.fma %555, %916, %724 : vector<64xf32> loc(#loc24)
      %921 = memref.load %94[%325, %753] : memref<?x?xf32, strided<[?, 1]>> loc(#loc24)
      %922 = vector.broadcast %921 : f32 to vector<64xf32> loc(#loc24)
      %923 = vector.fma %555, %919, %727 : vector<64xf32> loc(#loc24)
      %924 = memref.load %94[%329, %753] : memref<?x?xf32, strided<[?, 1]>> loc(#loc24)
      %925 = vector.broadcast %924 : f32 to vector<64xf32> loc(#loc24)
      %926 = vector.fma %555, %922, %730 : vector<64xf32> loc(#loc24)
      %927 = memref.load %94[%333, %753] : memref<?x?xf32, strided<[?, 1]>> loc(#loc24)
      %928 = vector.broadcast %927 : f32 to vector<64xf32> loc(#loc24)
      %929 = vector.fma %555, %925, %733 : vector<64xf32> loc(#loc24)
      %930 = memref.load %94[%337, %753] : memref<?x?xf32, strided<[?, 1]>> loc(#loc24)
      %931 = vector.broadcast %930 : f32 to vector<64xf32> loc(#loc24)
      %932 = vector.fma %555, %928, %736 : vector<64xf32> loc(#loc24)
      %933 = memref.load %94[%341, %753] : memref<?x?xf32, strided<[?, 1]>> loc(#loc24)
      %934 = vector.broadcast %933 : f32 to vector<64xf32> loc(#loc24)
      %935 = vector.fma %555, %931, %739 : vector<64xf32> loc(#loc24)
      %936 = memref.load %94[%345, %753] : memref<?x?xf32, strided<[?, 1]>> loc(#loc24)
      %937 = vector.broadcast %936 : f32 to vector<64xf32> loc(#loc24)
      %938 = vector.fma %555, %934, %742 : vector<64xf32> loc(#loc24)
      %939 = memref.load %94[%349, %753] : memref<?x?xf32, strided<[?, 1]>> loc(#loc24)
      %940 = vector.broadcast %939 : f32 to vector<64xf32> loc(#loc24)
      %941 = vector.fma %555, %937, %745 : vector<64xf32> loc(#loc24)
      %942 = memref.load %94[%353, %753] : memref<?x?xf32, strided<[?, 1]>> loc(#loc24)
      %943 = vector.broadcast %942 : f32 to vector<64xf32> loc(#loc24)
      %944 = vector.fma %555, %940, %748 : vector<64xf32> loc(#loc24)
      %945 = vector.fma %555, %943, %749 : vector<64xf32> loc(#loc24)
      %946 = arith.addi %97#0, %c5 : index loc(#loc24)
      %947 = vector.load %96[%946, %97#1] : memref<?x?xf32, strided<[?, 1]>>, vector<64xf32> loc(#loc24)
      %948 = arith.addi %97#0, %c132 : index loc(#loc24)
      memref.prefetch %96[%948, %97#1], read, locality<1>, data : memref<?x?xf32, strided<[?, 1]>> loc(#loc24)
      %949 = arith.addi %95#1, %c4 : index loc(#loc24)
      %950 = memref.load %94[%95#0, %949] : memref<?x?xf32, strided<[?, 1]>> loc(#loc24)
      %951 = vector.broadcast %950 : f32 to vector<64xf32> loc(#loc24)
      %952 = memref.load %94[%105, %949] : memref<?x?xf32, strided<[?, 1]>> loc(#loc24)
      %953 = vector.broadcast %952 : f32 to vector<64xf32> loc(#loc24)
      %954 = vector.fma %751, %951, %758 : vector<64xf32> loc(#loc24)
      %955 = memref.load %94[%109, %949] : memref<?x?xf32, strided<[?, 1]>> loc(#loc24)
      %956 = vector.broadcast %955 : f32 to vector<64xf32> loc(#loc24)
      %957 = vector.fma %751, %953, %761 : vector<64xf32> loc(#loc24)
      %958 = memref.load %94[%113, %949] : memref<?x?xf32, strided<[?, 1]>> loc(#loc24)
      %959 = vector.broadcast %958 : f32 to vector<64xf32> loc(#loc24)
      %960 = vector.fma %751, %956, %764 : vector<64xf32> loc(#loc24)
      %961 = memref.load %94[%117, %949] : memref<?x?xf32, strided<[?, 1]>> loc(#loc24)
      %962 = vector.broadcast %961 : f32 to vector<64xf32> loc(#loc24)
      %963 = vector.fma %751, %959, %767 : vector<64xf32> loc(#loc24)
      %964 = memref.load %94[%121, %949] : memref<?x?xf32, strided<[?, 1]>> loc(#loc24)
      %965 = vector.broadcast %964 : f32 to vector<64xf32> loc(#loc24)
      %966 = vector.fma %751, %962, %770 : vector<64xf32> loc(#loc24)
      %967 = memref.load %94[%125, %949] : memref<?x?xf32, strided<[?, 1]>> loc(#loc24)
      %968 = vector.broadcast %967 : f32 to vector<64xf32> loc(#loc24)
      %969 = vector.fma %751, %965, %773 : vector<64xf32> loc(#loc24)
      %970 = memref.load %94[%129, %949] : memref<?x?xf32, strided<[?, 1]>> loc(#loc24)
      %971 = vector.broadcast %970 : f32 to vector<64xf32> loc(#loc24)
      %972 = vector.fma %751, %968, %776 : vector<64xf32> loc(#loc24)
      %973 = memref.load %94[%133, %949] : memref<?x?xf32, strided<[?, 1]>> loc(#loc24)
      %974 = vector.broadcast %973 : f32 to vector<64xf32> loc(#loc24)
      %975 = vector.fma %751, %971, %779 : vector<64xf32> loc(#loc24)
      %976 = memref.load %94[%137, %949] : memref<?x?xf32, strided<[?, 1]>> loc(#loc24)
      %977 = vector.broadcast %976 : f32 to vector<64xf32> loc(#loc24)
      %978 = vector.fma %751, %974, %782 : vector<64xf32> loc(#loc24)
      %979 = memref.load %94[%141, %949] : memref<?x?xf32, strided<[?, 1]>> loc(#loc24)
      %980 = vector.broadcast %979 : f32 to vector<64xf32> loc(#loc24)
      %981 = vector.fma %751, %977, %785 : vector<64xf32> loc(#loc24)
      %982 = memref.load %94[%145, %949] : memref<?x?xf32, strided<[?, 1]>> loc(#loc24)
      %983 = vector.broadcast %982 : f32 to vector<64xf32> loc(#loc24)
      %984 = vector.fma %751, %980, %788 : vector<64xf32> loc(#loc24)
      %985 = memref.load %94[%149, %949] : memref<?x?xf32, strided<[?, 1]>> loc(#loc24)
      %986 = vector.broadcast %985 : f32 to vector<64xf32> loc(#loc24)
      %987 = vector.fma %751, %983, %791 : vector<64xf32> loc(#loc24)
      %988 = memref.load %94[%153, %949] : memref<?x?xf32, strided<[?, 1]>> loc(#loc24)
      %989 = vector.broadcast %988 : f32 to vector<64xf32> loc(#loc24)
      %990 = vector.fma %751, %986, %794 : vector<64xf32> loc(#loc24)
      %991 = memref.load %94[%157, %949] : memref<?x?xf32, strided<[?, 1]>> loc(#loc24)
      %992 = vector.broadcast %991 : f32 to vector<64xf32> loc(#loc24)
      %993 = vector.fma %751, %989, %797 : vector<64xf32> loc(#loc24)
      %994 = memref.load %94[%161, %949] : memref<?x?xf32, strided<[?, 1]>> loc(#loc24)
      %995 = vector.broadcast %994 : f32 to vector<64xf32> loc(#loc24)
      %996 = vector.fma %751, %992, %800 : vector<64xf32> loc(#loc24)
      %997 = memref.load %94[%165, %949] : memref<?x?xf32, strided<[?, 1]>> loc(#loc24)
      %998 = vector.broadcast %997 : f32 to vector<64xf32> loc(#loc24)
      %999 = vector.fma %751, %995, %803 : vector<64xf32> loc(#loc24)
      %1000 = memref.load %94[%169, %949] : memref<?x?xf32, strided<[?, 1]>> loc(#loc24)
      %1001 = vector.broadcast %1000 : f32 to vector<64xf32> loc(#loc24)
      %1002 = vector.fma %751, %998, %806 : vector<64xf32> loc(#loc24)
      %1003 = memref.load %94[%173, %949] : memref<?x?xf32, strided<[?, 1]>> loc(#loc24)
      %1004 = vector.broadcast %1003 : f32 to vector<64xf32> loc(#loc24)
      %1005 = vector.fma %751, %1001, %809 : vector<64xf32> loc(#loc24)
      %1006 = memref.load %94[%177, %949] : memref<?x?xf32, strided<[?, 1]>> loc(#loc24)
      %1007 = vector.broadcast %1006 : f32 to vector<64xf32> loc(#loc24)
      %1008 = vector.fma %751, %1004, %812 : vector<64xf32> loc(#loc24)
      %1009 = memref.load %94[%181, %949] : memref<?x?xf32, strided<[?, 1]>> loc(#loc24)
      %1010 = vector.broadcast %1009 : f32 to vector<64xf32> loc(#loc24)
      %1011 = vector.fma %751, %1007, %815 : vector<64xf32> loc(#loc24)
      %1012 = memref.load %94[%185, %949] : memref<?x?xf32, strided<[?, 1]>> loc(#loc24)
      %1013 = vector.broadcast %1012 : f32 to vector<64xf32> loc(#loc24)
      %1014 = vector.fma %751, %1010, %818 : vector<64xf32> loc(#loc24)
      %1015 = memref.load %94[%189, %949] : memref<?x?xf32, strided<[?, 1]>> loc(#loc24)
      %1016 = vector.broadcast %1015 : f32 to vector<64xf32> loc(#loc24)
      %1017 = vector.fma %751, %1013, %821 : vector<64xf32> loc(#loc24)
      %1018 = memref.load %94[%193, %949] : memref<?x?xf32, strided<[?, 1]>> loc(#loc24)
      %1019 = vector.broadcast %1018 : f32 to vector<64xf32> loc(#loc24)
      %1020 = vector.fma %751, %1016, %824 : vector<64xf32> loc(#loc24)
      %1021 = memref.load %94[%197, %949] : memref<?x?xf32, strided<[?, 1]>> loc(#loc24)
      %1022 = vector.broadcast %1021 : f32 to vector<64xf32> loc(#loc24)
      %1023 = vector.fma %751, %1019, %827 : vector<64xf32> loc(#loc24)
      %1024 = memref.load %94[%201, %949] : memref<?x?xf32, strided<[?, 1]>> loc(#loc24)
      %1025 = vector.broadcast %1024 : f32 to vector<64xf32> loc(#loc24)
      %1026 = vector.fma %751, %1022, %830 : vector<64xf32> loc(#loc24)
      %1027 = memref.load %94[%205, %949] : memref<?x?xf32, strided<[?, 1]>> loc(#loc24)
      %1028 = vector.broadcast %1027 : f32 to vector<64xf32> loc(#loc24)
      %1029 = vector.fma %751, %1025, %833 : vector<64xf32> loc(#loc24)
      %1030 = memref.load %94[%209, %949] : memref<?x?xf32, strided<[?, 1]>> loc(#loc24)
      %1031 = vector.broadcast %1030 : f32 to vector<64xf32> loc(#loc24)
      %1032 = vector.fma %751, %1028, %836 : vector<64xf32> loc(#loc24)
      %1033 = memref.load %94[%213, %949] : memref<?x?xf32, strided<[?, 1]>> loc(#loc24)
      %1034 = vector.broadcast %1033 : f32 to vector<64xf32> loc(#loc24)
      %1035 = vector.fma %751, %1031, %839 : vector<64xf32> loc(#loc24)
      %1036 = memref.load %94[%217, %949] : memref<?x?xf32, strided<[?, 1]>> loc(#loc24)
      %1037 = vector.broadcast %1036 : f32 to vector<64xf32> loc(#loc24)
      %1038 = vector.fma %751, %1034, %842 : vector<64xf32> loc(#loc24)
      %1039 = memref.load %94[%221, %949] : memref<?x?xf32, strided<[?, 1]>> loc(#loc24)
      %1040 = vector.broadcast %1039 : f32 to vector<64xf32> loc(#loc24)
      %1041 = vector.fma %751, %1037, %845 : vector<64xf32> loc(#loc24)
      %1042 = memref.load %94[%225, %949] : memref<?x?xf32, strided<[?, 1]>> loc(#loc24)
      %1043 = vector.broadcast %1042 : f32 to vector<64xf32> loc(#loc24)
      %1044 = vector.fma %751, %1040, %848 : vector<64xf32> loc(#loc24)
      %1045 = memref.load %94[%229, %949] : memref<?x?xf32, strided<[?, 1]>> loc(#loc24)
      %1046 = vector.broadcast %1045 : f32 to vector<64xf32> loc(#loc24)
      %1047 = vector.fma %751, %1043, %851 : vector<64xf32> loc(#loc24)
      %1048 = memref.load %94[%233, %949] : memref<?x?xf32, strided<[?, 1]>> loc(#loc24)
      %1049 = vector.broadcast %1048 : f32 to vector<64xf32> loc(#loc24)
      %1050 = vector.fma %751, %1046, %854 : vector<64xf32> loc(#loc24)
      %1051 = memref.load %94[%237, %949] : memref<?x?xf32, strided<[?, 1]>> loc(#loc24)
      %1052 = vector.broadcast %1051 : f32 to vector<64xf32> loc(#loc24)
      %1053 = vector.fma %751, %1049, %857 : vector<64xf32> loc(#loc24)
      %1054 = memref.load %94[%241, %949] : memref<?x?xf32, strided<[?, 1]>> loc(#loc24)
      %1055 = vector.broadcast %1054 : f32 to vector<64xf32> loc(#loc24)
      %1056 = vector.fma %751, %1052, %860 : vector<64xf32> loc(#loc24)
      %1057 = memref.load %94[%245, %949] : memref<?x?xf32, strided<[?, 1]>> loc(#loc24)
      %1058 = vector.broadcast %1057 : f32 to vector<64xf32> loc(#loc24)
      %1059 = vector.fma %751, %1055, %863 : vector<64xf32> loc(#loc24)
      %1060 = memref.load %94[%249, %949] : memref<?x?xf32, strided<[?, 1]>> loc(#loc24)
      %1061 = vector.broadcast %1060 : f32 to vector<64xf32> loc(#loc24)
      %1062 = vector.fma %751, %1058, %866 : vector<64xf32> loc(#loc24)
      %1063 = memref.load %94[%253, %949] : memref<?x?xf32, strided<[?, 1]>> loc(#loc24)
      %1064 = vector.broadcast %1063 : f32 to vector<64xf32> loc(#loc24)
      %1065 = vector.fma %751, %1061, %869 : vector<64xf32> loc(#loc24)
      %1066 = memref.load %94[%257, %949] : memref<?x?xf32, strided<[?, 1]>> loc(#loc24)
      %1067 = vector.broadcast %1066 : f32 to vector<64xf32> loc(#loc24)
      %1068 = vector.fma %751, %1064, %872 : vector<64xf32> loc(#loc24)
      %1069 = memref.load %94[%261, %949] : memref<?x?xf32, strided<[?, 1]>> loc(#loc24)
      %1070 = vector.broadcast %1069 : f32 to vector<64xf32> loc(#loc24)
      %1071 = vector.fma %751, %1067, %875 : vector<64xf32> loc(#loc24)
      %1072 = memref.load %94[%265, %949] : memref<?x?xf32, strided<[?, 1]>> loc(#loc24)
      %1073 = vector.broadcast %1072 : f32 to vector<64xf32> loc(#loc24)
      %1074 = vector.fma %751, %1070, %878 : vector<64xf32> loc(#loc24)
      %1075 = memref.load %94[%269, %949] : memref<?x?xf32, strided<[?, 1]>> loc(#loc24)
      %1076 = vector.broadcast %1075 : f32 to vector<64xf32> loc(#loc24)
      %1077 = vector.fma %751, %1073, %881 : vector<64xf32> loc(#loc24)
      %1078 = memref.load %94[%273, %949] : memref<?x?xf32, strided<[?, 1]>> loc(#loc24)
      %1079 = vector.broadcast %1078 : f32 to vector<64xf32> loc(#loc24)
      %1080 = vector.fma %751, %1076, %884 : vector<64xf32> loc(#loc24)
      %1081 = memref.load %94[%277, %949] : memref<?x?xf32, strided<[?, 1]>> loc(#loc24)
      %1082 = vector.broadcast %1081 : f32 to vector<64xf32> loc(#loc24)
      %1083 = vector.fma %751, %1079, %887 : vector<64xf32> loc(#loc24)
      %1084 = memref.load %94[%281, %949] : memref<?x?xf32, strided<[?, 1]>> loc(#loc24)
      %1085 = vector.broadcast %1084 : f32 to vector<64xf32> loc(#loc24)
      %1086 = vector.fma %751, %1082, %890 : vector<64xf32> loc(#loc24)
      %1087 = memref.load %94[%285, %949] : memref<?x?xf32, strided<[?, 1]>> loc(#loc24)
      %1088 = vector.broadcast %1087 : f32 to vector<64xf32> loc(#loc24)
      %1089 = vector.fma %751, %1085, %893 : vector<64xf32> loc(#loc24)
      %1090 = memref.load %94[%289, %949] : memref<?x?xf32, strided<[?, 1]>> loc(#loc24)
      %1091 = vector.broadcast %1090 : f32 to vector<64xf32> loc(#loc24)
      %1092 = vector.fma %751, %1088, %896 : vector<64xf32> loc(#loc24)
      %1093 = memref.load %94[%293, %949] : memref<?x?xf32, strided<[?, 1]>> loc(#loc24)
      %1094 = vector.broadcast %1093 : f32 to vector<64xf32> loc(#loc24)
      %1095 = vector.fma %751, %1091, %899 : vector<64xf32> loc(#loc24)
      %1096 = memref.load %94[%297, %949] : memref<?x?xf32, strided<[?, 1]>> loc(#loc24)
      %1097 = vector.broadcast %1096 : f32 to vector<64xf32> loc(#loc24)
      %1098 = vector.fma %751, %1094, %902 : vector<64xf32> loc(#loc24)
      %1099 = memref.load %94[%301, %949] : memref<?x?xf32, strided<[?, 1]>> loc(#loc24)
      %1100 = vector.broadcast %1099 : f32 to vector<64xf32> loc(#loc24)
      %1101 = vector.fma %751, %1097, %905 : vector<64xf32> loc(#loc24)
      %1102 = memref.load %94[%305, %949] : memref<?x?xf32, strided<[?, 1]>> loc(#loc24)
      %1103 = vector.broadcast %1102 : f32 to vector<64xf32> loc(#loc24)
      %1104 = vector.fma %751, %1100, %908 : vector<64xf32> loc(#loc24)
      %1105 = memref.load %94[%309, %949] : memref<?x?xf32, strided<[?, 1]>> loc(#loc24)
      %1106 = vector.broadcast %1105 : f32 to vector<64xf32> loc(#loc24)
      %1107 = vector.fma %751, %1103, %911 : vector<64xf32> loc(#loc24)
      %1108 = memref.load %94[%313, %949] : memref<?x?xf32, strided<[?, 1]>> loc(#loc24)
      %1109 = vector.broadcast %1108 : f32 to vector<64xf32> loc(#loc24)
      %1110 = vector.fma %751, %1106, %914 : vector<64xf32> loc(#loc24)
      %1111 = memref.load %94[%317, %949] : memref<?x?xf32, strided<[?, 1]>> loc(#loc24)
      %1112 = vector.broadcast %1111 : f32 to vector<64xf32> loc(#loc24)
      %1113 = vector.fma %751, %1109, %917 : vector<64xf32> loc(#loc24)
      %1114 = memref.load %94[%321, %949] : memref<?x?xf32, strided<[?, 1]>> loc(#loc24)
      %1115 = vector.broadcast %1114 : f32 to vector<64xf32> loc(#loc24)
      %1116 = vector.fma %751, %1112, %920 : vector<64xf32> loc(#loc24)
      %1117 = memref.load %94[%325, %949] : memref<?x?xf32, strided<[?, 1]>> loc(#loc24)
      %1118 = vector.broadcast %1117 : f32 to vector<64xf32> loc(#loc24)
      %1119 = vector.fma %751, %1115, %923 : vector<64xf32> loc(#loc24)
      %1120 = memref.load %94[%329, %949] : memref<?x?xf32, strided<[?, 1]>> loc(#loc24)
      %1121 = vector.broadcast %1120 : f32 to vector<64xf32> loc(#loc24)
      %1122 = vector.fma %751, %1118, %926 : vector<64xf32> loc(#loc24)
      %1123 = memref.load %94[%333, %949] : memref<?x?xf32, strided<[?, 1]>> loc(#loc24)
      %1124 = vector.broadcast %1123 : f32 to vector<64xf32> loc(#loc24)
      %1125 = vector.fma %751, %1121, %929 : vector<64xf32> loc(#loc24)
      %1126 = memref.load %94[%337, %949] : memref<?x?xf32, strided<[?, 1]>> loc(#loc24)
      %1127 = vector.broadcast %1126 : f32 to vector<64xf32> loc(#loc24)
      %1128 = vector.fma %751, %1124, %932 : vector<64xf32> loc(#loc24)
      %1129 = memref.load %94[%341, %949] : memref<?x?xf32, strided<[?, 1]>> loc(#loc24)
      %1130 = vector.broadcast %1129 : f32 to vector<64xf32> loc(#loc24)
      %1131 = vector.fma %751, %1127, %935 : vector<64xf32> loc(#loc24)
      %1132 = memref.load %94[%345, %949] : memref<?x?xf32, strided<[?, 1]>> loc(#loc24)
      %1133 = vector.broadcast %1132 : f32 to vector<64xf32> loc(#loc24)
      %1134 = vector.fma %751, %1130, %938 : vector<64xf32> loc(#loc24)
      %1135 = memref.load %94[%349, %949] : memref<?x?xf32, strided<[?, 1]>> loc(#loc24)
      %1136 = vector.broadcast %1135 : f32 to vector<64xf32> loc(#loc24)
      %1137 = vector.fma %751, %1133, %941 : vector<64xf32> loc(#loc24)
      %1138 = memref.load %94[%353, %949] : memref<?x?xf32, strided<[?, 1]>> loc(#loc24)
      %1139 = vector.broadcast %1138 : f32 to vector<64xf32> loc(#loc24)
      %1140 = vector.fma %751, %1136, %944 : vector<64xf32> loc(#loc24)
      %1141 = vector.fma %751, %1139, %945 : vector<64xf32> loc(#loc24)
      %1142 = arith.addi %97#0, %c6 : index loc(#loc24)
      %1143 = vector.load %96[%1142, %97#1] : memref<?x?xf32, strided<[?, 1]>>, vector<64xf32> loc(#loc24)
      %1144 = arith.addi %97#0, %c133 : index loc(#loc24)
      memref.prefetch %96[%1144, %97#1], read, locality<1>, data : memref<?x?xf32, strided<[?, 1]>> loc(#loc24)
      %1145 = arith.addi %95#1, %c5 : index loc(#loc24)
      %1146 = memref.load %94[%95#0, %1145] : memref<?x?xf32, strided<[?, 1]>> loc(#loc24)
      %1147 = vector.broadcast %1146 : f32 to vector<64xf32> loc(#loc24)
      %1148 = memref.load %94[%105, %1145] : memref<?x?xf32, strided<[?, 1]>> loc(#loc24)
      %1149 = vector.broadcast %1148 : f32 to vector<64xf32> loc(#loc24)
      %1150 = vector.fma %947, %1147, %954 : vector<64xf32> loc(#loc24)
      %1151 = memref.load %94[%109, %1145] : memref<?x?xf32, strided<[?, 1]>> loc(#loc24)
      %1152 = vector.broadcast %1151 : f32 to vector<64xf32> loc(#loc24)
      %1153 = vector.fma %947, %1149, %957 : vector<64xf32> loc(#loc24)
      %1154 = memref.load %94[%113, %1145] : memref<?x?xf32, strided<[?, 1]>> loc(#loc24)
      %1155 = vector.broadcast %1154 : f32 to vector<64xf32> loc(#loc24)
      %1156 = vector.fma %947, %1152, %960 : vector<64xf32> loc(#loc24)
      %1157 = memref.load %94[%117, %1145] : memref<?x?xf32, strided<[?, 1]>> loc(#loc24)
      %1158 = vector.broadcast %1157 : f32 to vector<64xf32> loc(#loc24)
      %1159 = vector.fma %947, %1155, %963 : vector<64xf32> loc(#loc24)
      %1160 = memref.load %94[%121, %1145] : memref<?x?xf32, strided<[?, 1]>> loc(#loc24)
      %1161 = vector.broadcast %1160 : f32 to vector<64xf32> loc(#loc24)
      %1162 = vector.fma %947, %1158, %966 : vector<64xf32> loc(#loc24)
      %1163 = memref.load %94[%125, %1145] : memref<?x?xf32, strided<[?, 1]>> loc(#loc24)
      %1164 = vector.broadcast %1163 : f32 to vector<64xf32> loc(#loc24)
      %1165 = vector.fma %947, %1161, %969 : vector<64xf32> loc(#loc24)
      %1166 = memref.load %94[%129, %1145] : memref<?x?xf32, strided<[?, 1]>> loc(#loc24)
      %1167 = vector.broadcast %1166 : f32 to vector<64xf32> loc(#loc24)
      %1168 = vector.fma %947, %1164, %972 : vector<64xf32> loc(#loc24)
      %1169 = memref.load %94[%133, %1145] : memref<?x?xf32, strided<[?, 1]>> loc(#loc24)
      %1170 = vector.broadcast %1169 : f32 to vector<64xf32> loc(#loc24)
      %1171 = vector.fma %947, %1167, %975 : vector<64xf32> loc(#loc24)
      %1172 = memref.load %94[%137, %1145] : memref<?x?xf32, strided<[?, 1]>> loc(#loc24)
      %1173 = vector.broadcast %1172 : f32 to vector<64xf32> loc(#loc24)
      %1174 = vector.fma %947, %1170, %978 : vector<64xf32> loc(#loc24)
      %1175 = memref.load %94[%141, %1145] : memref<?x?xf32, strided<[?, 1]>> loc(#loc24)
      %1176 = vector.broadcast %1175 : f32 to vector<64xf32> loc(#loc24)
      %1177 = vector.fma %947, %1173, %981 : vector<64xf32> loc(#loc24)
      %1178 = memref.load %94[%145, %1145] : memref<?x?xf32, strided<[?, 1]>> loc(#loc24)
      %1179 = vector.broadcast %1178 : f32 to vector<64xf32> loc(#loc24)
      %1180 = vector.fma %947, %1176, %984 : vector<64xf32> loc(#loc24)
      %1181 = memref.load %94[%149, %1145] : memref<?x?xf32, strided<[?, 1]>> loc(#loc24)
      %1182 = vector.broadcast %1181 : f32 to vector<64xf32> loc(#loc24)
      %1183 = vector.fma %947, %1179, %987 : vector<64xf32> loc(#loc24)
      %1184 = memref.load %94[%153, %1145] : memref<?x?xf32, strided<[?, 1]>> loc(#loc24)
      %1185 = vector.broadcast %1184 : f32 to vector<64xf32> loc(#loc24)
      %1186 = vector.fma %947, %1182, %990 : vector<64xf32> loc(#loc24)
      %1187 = memref.load %94[%157, %1145] : memref<?x?xf32, strided<[?, 1]>> loc(#loc24)
      %1188 = vector.broadcast %1187 : f32 to vector<64xf32> loc(#loc24)
      %1189 = vector.fma %947, %1185, %993 : vector<64xf32> loc(#loc24)
      %1190 = memref.load %94[%161, %1145] : memref<?x?xf32, strided<[?, 1]>> loc(#loc24)
      %1191 = vector.broadcast %1190 : f32 to vector<64xf32> loc(#loc24)
      %1192 = vector.fma %947, %1188, %996 : vector<64xf32> loc(#loc24)
      %1193 = memref.load %94[%165, %1145] : memref<?x?xf32, strided<[?, 1]>> loc(#loc24)
      %1194 = vector.broadcast %1193 : f32 to vector<64xf32> loc(#loc24)
      %1195 = vector.fma %947, %1191, %999 : vector<64xf32> loc(#loc24)
      %1196 = memref.load %94[%169, %1145] : memref<?x?xf32, strided<[?, 1]>> loc(#loc24)
      %1197 = vector.broadcast %1196 : f32 to vector<64xf32> loc(#loc24)
      %1198 = vector.fma %947, %1194, %1002 : vector<64xf32> loc(#loc24)
      %1199 = memref.load %94[%173, %1145] : memref<?x?xf32, strided<[?, 1]>> loc(#loc24)
      %1200 = vector.broadcast %1199 : f32 to vector<64xf32> loc(#loc24)
      %1201 = vector.fma %947, %1197, %1005 : vector<64xf32> loc(#loc24)
      %1202 = memref.load %94[%177, %1145] : memref<?x?xf32, strided<[?, 1]>> loc(#loc24)
      %1203 = vector.broadcast %1202 : f32 to vector<64xf32> loc(#loc24)
      %1204 = vector.fma %947, %1200, %1008 : vector<64xf32> loc(#loc24)
      %1205 = memref.load %94[%181, %1145] : memref<?x?xf32, strided<[?, 1]>> loc(#loc24)
      %1206 = vector.broadcast %1205 : f32 to vector<64xf32> loc(#loc24)
      %1207 = vector.fma %947, %1203, %1011 : vector<64xf32> loc(#loc24)
      %1208 = memref.load %94[%185, %1145] : memref<?x?xf32, strided<[?, 1]>> loc(#loc24)
      %1209 = vector.broadcast %1208 : f32 to vector<64xf32> loc(#loc24)
      %1210 = vector.fma %947, %1206, %1014 : vector<64xf32> loc(#loc24)
      %1211 = memref.load %94[%189, %1145] : memref<?x?xf32, strided<[?, 1]>> loc(#loc24)
      %1212 = vector.broadcast %1211 : f32 to vector<64xf32> loc(#loc24)
      %1213 = vector.fma %947, %1209, %1017 : vector<64xf32> loc(#loc24)
      %1214 = memref.load %94[%193, %1145] : memref<?x?xf32, strided<[?, 1]>> loc(#loc24)
      %1215 = vector.broadcast %1214 : f32 to vector<64xf32> loc(#loc24)
      %1216 = vector.fma %947, %1212, %1020 : vector<64xf32> loc(#loc24)
      %1217 = memref.load %94[%197, %1145] : memref<?x?xf32, strided<[?, 1]>> loc(#loc24)
      %1218 = vector.broadcast %1217 : f32 to vector<64xf32> loc(#loc24)
      %1219 = vector.fma %947, %1215, %1023 : vector<64xf32> loc(#loc24)
      %1220 = memref.load %94[%201, %1145] : memref<?x?xf32, strided<[?, 1]>> loc(#loc24)
      %1221 = vector.broadcast %1220 : f32 to vector<64xf32> loc(#loc24)
      %1222 = vector.fma %947, %1218, %1026 : vector<64xf32> loc(#loc24)
      %1223 = memref.load %94[%205, %1145] : memref<?x?xf32, strided<[?, 1]>> loc(#loc24)
      %1224 = vector.broadcast %1223 : f32 to vector<64xf32> loc(#loc24)
      %1225 = vector.fma %947, %1221, %1029 : vector<64xf32> loc(#loc24)
      %1226 = memref.load %94[%209, %1145] : memref<?x?xf32, strided<[?, 1]>> loc(#loc24)
      %1227 = vector.broadcast %1226 : f32 to vector<64xf32> loc(#loc24)
      %1228 = vector.fma %947, %1224, %1032 : vector<64xf32> loc(#loc24)
      %1229 = memref.load %94[%213, %1145] : memref<?x?xf32, strided<[?, 1]>> loc(#loc24)
      %1230 = vector.broadcast %1229 : f32 to vector<64xf32> loc(#loc24)
      %1231 = vector.fma %947, %1227, %1035 : vector<64xf32> loc(#loc24)
      %1232 = memref.load %94[%217, %1145] : memref<?x?xf32, strided<[?, 1]>> loc(#loc24)
      %1233 = vector.broadcast %1232 : f32 to vector<64xf32> loc(#loc24)
      %1234 = vector.fma %947, %1230, %1038 : vector<64xf32> loc(#loc24)
      %1235 = memref.load %94[%221, %1145] : memref<?x?xf32, strided<[?, 1]>> loc(#loc24)
      %1236 = vector.broadcast %1235 : f32 to vector<64xf32> loc(#loc24)
      %1237 = vector.fma %947, %1233, %1041 : vector<64xf32> loc(#loc24)
      %1238 = memref.load %94[%225, %1145] : memref<?x?xf32, strided<[?, 1]>> loc(#loc24)
      %1239 = vector.broadcast %1238 : f32 to vector<64xf32> loc(#loc24)
      %1240 = vector.fma %947, %1236, %1044 : vector<64xf32> loc(#loc24)
      %1241 = memref.load %94[%229, %1145] : memref<?x?xf32, strided<[?, 1]>> loc(#loc24)
      %1242 = vector.broadcast %1241 : f32 to vector<64xf32> loc(#loc24)
      %1243 = vector.fma %947, %1239, %1047 : vector<64xf32> loc(#loc24)
      %1244 = memref.load %94[%233, %1145] : memref<?x?xf32, strided<[?, 1]>> loc(#loc24)
      %1245 = vector.broadcast %1244 : f32 to vector<64xf32> loc(#loc24)
      %1246 = vector.fma %947, %1242, %1050 : vector<64xf32> loc(#loc24)
      %1247 = memref.load %94[%237, %1145] : memref<?x?xf32, strided<[?, 1]>> loc(#loc24)
      %1248 = vector.broadcast %1247 : f32 to vector<64xf32> loc(#loc24)
      %1249 = vector.fma %947, %1245, %1053 : vector<64xf32> loc(#loc24)
      %1250 = memref.load %94[%241, %1145] : memref<?x?xf32, strided<[?, 1]>> loc(#loc24)
      %1251 = vector.broadcast %1250 : f32 to vector<64xf32> loc(#loc24)
      %1252 = vector.fma %947, %1248, %1056 : vector<64xf32> loc(#loc24)
      %1253 = memref.load %94[%245, %1145] : memref<?x?xf32, strided<[?, 1]>> loc(#loc24)
      %1254 = vector.broadcast %1253 : f32 to vector<64xf32> loc(#loc24)
      %1255 = vector.fma %947, %1251, %1059 : vector<64xf32> loc(#loc24)
      %1256 = memref.load %94[%249, %1145] : memref<?x?xf32, strided<[?, 1]>> loc(#loc24)
      %1257 = vector.broadcast %1256 : f32 to vector<64xf32> loc(#loc24)
      %1258 = vector.fma %947, %1254, %1062 : vector<64xf32> loc(#loc24)
      %1259 = memref.load %94[%253, %1145] : memref<?x?xf32, strided<[?, 1]>> loc(#loc24)
      %1260 = vector.broadcast %1259 : f32 to vector<64xf32> loc(#loc24)
      %1261 = vector.fma %947, %1257, %1065 : vector<64xf32> loc(#loc24)
      %1262 = memref.load %94[%257, %1145] : memref<?x?xf32, strided<[?, 1]>> loc(#loc24)
      %1263 = vector.broadcast %1262 : f32 to vector<64xf32> loc(#loc24)
      %1264 = vector.fma %947, %1260, %1068 : vector<64xf32> loc(#loc24)
      %1265 = memref.load %94[%261, %1145] : memref<?x?xf32, strided<[?, 1]>> loc(#loc24)
      %1266 = vector.broadcast %1265 : f32 to vector<64xf32> loc(#loc24)
      %1267 = vector.fma %947, %1263, %1071 : vector<64xf32> loc(#loc24)
      %1268 = memref.load %94[%265, %1145] : memref<?x?xf32, strided<[?, 1]>> loc(#loc24)
      %1269 = vector.broadcast %1268 : f32 to vector<64xf32> loc(#loc24)
      %1270 = vector.fma %947, %1266, %1074 : vector<64xf32> loc(#loc24)
      %1271 = memref.load %94[%269, %1145] : memref<?x?xf32, strided<[?, 1]>> loc(#loc24)
      %1272 = vector.broadcast %1271 : f32 to vector<64xf32> loc(#loc24)
      %1273 = vector.fma %947, %1269, %1077 : vector<64xf32> loc(#loc24)
      %1274 = memref.load %94[%273, %1145] : memref<?x?xf32, strided<[?, 1]>> loc(#loc24)
      %1275 = vector.broadcast %1274 : f32 to vector<64xf32> loc(#loc24)
      %1276 = vector.fma %947, %1272, %1080 : vector<64xf32> loc(#loc24)
      %1277 = memref.load %94[%277, %1145] : memref<?x?xf32, strided<[?, 1]>> loc(#loc24)
      %1278 = vector.broadcast %1277 : f32 to vector<64xf32> loc(#loc24)
      %1279 = vector.fma %947, %1275, %1083 : vector<64xf32> loc(#loc24)
      %1280 = memref.load %94[%281, %1145] : memref<?x?xf32, strided<[?, 1]>> loc(#loc24)
      %1281 = vector.broadcast %1280 : f32 to vector<64xf32> loc(#loc24)
      %1282 = vector.fma %947, %1278, %1086 : vector<64xf32> loc(#loc24)
      %1283 = memref.load %94[%285, %1145] : memref<?x?xf32, strided<[?, 1]>> loc(#loc24)
      %1284 = vector.broadcast %1283 : f32 to vector<64xf32> loc(#loc24)
      %1285 = vector.fma %947, %1281, %1089 : vector<64xf32> loc(#loc24)
      %1286 = memref.load %94[%289, %1145] : memref<?x?xf32, strided<[?, 1]>> loc(#loc24)
      %1287 = vector.broadcast %1286 : f32 to vector<64xf32> loc(#loc24)
      %1288 = vector.fma %947, %1284, %1092 : vector<64xf32> loc(#loc24)
      %1289 = memref.load %94[%293, %1145] : memref<?x?xf32, strided<[?, 1]>> loc(#loc24)
      %1290 = vector.broadcast %1289 : f32 to vector<64xf32> loc(#loc24)
      %1291 = vector.fma %947, %1287, %1095 : vector<64xf32> loc(#loc24)
      %1292 = memref.load %94[%297, %1145] : memref<?x?xf32, strided<[?, 1]>> loc(#loc24)
      %1293 = vector.broadcast %1292 : f32 to vector<64xf32> loc(#loc24)
      %1294 = vector.fma %947, %1290, %1098 : vector<64xf32> loc(#loc24)
      %1295 = memref.load %94[%301, %1145] : memref<?x?xf32, strided<[?, 1]>> loc(#loc24)
      %1296 = vector.broadcast %1295 : f32 to vector<64xf32> loc(#loc24)
      %1297 = vector.fma %947, %1293, %1101 : vector<64xf32> loc(#loc24)
      %1298 = memref.load %94[%305, %1145] : memref<?x?xf32, strided<[?, 1]>> loc(#loc24)
      %1299 = vector.broadcast %1298 : f32 to vector<64xf32> loc(#loc24)
      %1300 = vector.fma %947, %1296, %1104 : vector<64xf32> loc(#loc24)
      %1301 = memref.load %94[%309, %1145] : memref<?x?xf32, strided<[?, 1]>> loc(#loc24)
      %1302 = vector.broadcast %1301 : f32 to vector<64xf32> loc(#loc24)
      %1303 = vector.fma %947, %1299, %1107 : vector<64xf32> loc(#loc24)
      %1304 = memref.load %94[%313, %1145] : memref<?x?xf32, strided<[?, 1]>> loc(#loc24)
      %1305 = vector.broadcast %1304 : f32 to vector<64xf32> loc(#loc24)
      %1306 = vector.fma %947, %1302, %1110 : vector<64xf32> loc(#loc24)
      %1307 = memref.load %94[%317, %1145] : memref<?x?xf32, strided<[?, 1]>> loc(#loc24)
      %1308 = vector.broadcast %1307 : f32 to vector<64xf32> loc(#loc24)
      %1309 = vector.fma %947, %1305, %1113 : vector<64xf32> loc(#loc24)
      %1310 = memref.load %94[%321, %1145] : memref<?x?xf32, strided<[?, 1]>> loc(#loc24)
      %1311 = vector.broadcast %1310 : f32 to vector<64xf32> loc(#loc24)
      %1312 = vector.fma %947, %1308, %1116 : vector<64xf32> loc(#loc24)
      %1313 = memref.load %94[%325, %1145] : memref<?x?xf32, strided<[?, 1]>> loc(#loc24)
      %1314 = vector.broadcast %1313 : f32 to vector<64xf32> loc(#loc24)
      %1315 = vector.fma %947, %1311, %1119 : vector<64xf32> loc(#loc24)
      %1316 = memref.load %94[%329, %1145] : memref<?x?xf32, strided<[?, 1]>> loc(#loc24)
      %1317 = vector.broadcast %1316 : f32 to vector<64xf32> loc(#loc24)
      %1318 = vector.fma %947, %1314, %1122 : vector<64xf32> loc(#loc24)
      %1319 = memref.load %94[%333, %1145] : memref<?x?xf32, strided<[?, 1]>> loc(#loc24)
      %1320 = vector.broadcast %1319 : f32 to vector<64xf32> loc(#loc24)
      %1321 = vector.fma %947, %1317, %1125 : vector<64xf32> loc(#loc24)
      %1322 = memref.load %94[%337, %1145] : memref<?x?xf32, strided<[?, 1]>> loc(#loc24)
      %1323 = vector.broadcast %1322 : f32 to vector<64xf32> loc(#loc24)
      %1324 = vector.fma %947, %1320, %1128 : vector<64xf32> loc(#loc24)
      %1325 = memref.load %94[%341, %1145] : memref<?x?xf32, strided<[?, 1]>> loc(#loc24)
      %1326 = vector.broadcast %1325 : f32 to vector<64xf32> loc(#loc24)
      %1327 = vector.fma %947, %1323, %1131 : vector<64xf32> loc(#loc24)
      %1328 = memref.load %94[%345, %1145] : memref<?x?xf32, strided<[?, 1]>> loc(#loc24)
      %1329 = vector.broadcast %1328 : f32 to vector<64xf32> loc(#loc24)
      %1330 = vector.fma %947, %1326, %1134 : vector<64xf32> loc(#loc24)
      %1331 = memref.load %94[%349, %1145] : memref<?x?xf32, strided<[?, 1]>> loc(#loc24)
      %1332 = vector.broadcast %1331 : f32 to vector<64xf32> loc(#loc24)
      %1333 = vector.fma %947, %1329, %1137 : vector<64xf32> loc(#loc24)
      %1334 = memref.load %94[%353, %1145] : memref<?x?xf32, strided<[?, 1]>> loc(#loc24)
      %1335 = vector.broadcast %1334 : f32 to vector<64xf32> loc(#loc24)
      %1336 = vector.fma %947, %1332, %1140 : vector<64xf32> loc(#loc24)
      %1337 = vector.fma %947, %1335, %1141 : vector<64xf32> loc(#loc24)
      %1338 = arith.addi %97#0, %c7 : index loc(#loc24)
      %1339 = vector.load %96[%1338, %97#1] : memref<?x?xf32, strided<[?, 1]>>, vector<64xf32> loc(#loc24)
      %1340 = arith.addi %97#0, %c134 : index loc(#loc24)
      memref.prefetch %96[%1340, %97#1], read, locality<1>, data : memref<?x?xf32, strided<[?, 1]>> loc(#loc24)
      %1341 = arith.addi %95#1, %c6 : index loc(#loc24)
      %1342 = memref.load %94[%95#0, %1341] : memref<?x?xf32, strided<[?, 1]>> loc(#loc24)
      %1343 = vector.broadcast %1342 : f32 to vector<64xf32> loc(#loc24)
      %1344 = memref.load %94[%105, %1341] : memref<?x?xf32, strided<[?, 1]>> loc(#loc24)
      %1345 = vector.broadcast %1344 : f32 to vector<64xf32> loc(#loc24)
      %1346 = vector.fma %1143, %1343, %1150 : vector<64xf32> loc(#loc24)
      %1347 = memref.load %94[%109, %1341] : memref<?x?xf32, strided<[?, 1]>> loc(#loc24)
      %1348 = vector.broadcast %1347 : f32 to vector<64xf32> loc(#loc24)
      %1349 = vector.fma %1143, %1345, %1153 : vector<64xf32> loc(#loc24)
      %1350 = memref.load %94[%113, %1341] : memref<?x?xf32, strided<[?, 1]>> loc(#loc24)
      %1351 = vector.broadcast %1350 : f32 to vector<64xf32> loc(#loc24)
      %1352 = vector.fma %1143, %1348, %1156 : vector<64xf32> loc(#loc24)
      %1353 = memref.load %94[%117, %1341] : memref<?x?xf32, strided<[?, 1]>> loc(#loc24)
      %1354 = vector.broadcast %1353 : f32 to vector<64xf32> loc(#loc24)
      %1355 = vector.fma %1143, %1351, %1159 : vector<64xf32> loc(#loc24)
      %1356 = memref.load %94[%121, %1341] : memref<?x?xf32, strided<[?, 1]>> loc(#loc24)
      %1357 = vector.broadcast %1356 : f32 to vector<64xf32> loc(#loc24)
      %1358 = vector.fma %1143, %1354, %1162 : vector<64xf32> loc(#loc24)
      %1359 = memref.load %94[%125, %1341] : memref<?x?xf32, strided<[?, 1]>> loc(#loc24)
      %1360 = vector.broadcast %1359 : f32 to vector<64xf32> loc(#loc24)
      %1361 = vector.fma %1143, %1357, %1165 : vector<64xf32> loc(#loc24)
      %1362 = memref.load %94[%129, %1341] : memref<?x?xf32, strided<[?, 1]>> loc(#loc24)
      %1363 = vector.broadcast %1362 : f32 to vector<64xf32> loc(#loc24)
      %1364 = vector.fma %1143, %1360, %1168 : vector<64xf32> loc(#loc24)
      %1365 = memref.load %94[%133, %1341] : memref<?x?xf32, strided<[?, 1]>> loc(#loc24)
      %1366 = vector.broadcast %1365 : f32 to vector<64xf32> loc(#loc24)
      %1367 = vector.fma %1143, %1363, %1171 : vector<64xf32> loc(#loc24)
      %1368 = memref.load %94[%137, %1341] : memref<?x?xf32, strided<[?, 1]>> loc(#loc24)
      %1369 = vector.broadcast %1368 : f32 to vector<64xf32> loc(#loc24)
      %1370 = vector.fma %1143, %1366, %1174 : vector<64xf32> loc(#loc24)
      %1371 = memref.load %94[%141, %1341] : memref<?x?xf32, strided<[?, 1]>> loc(#loc24)
      %1372 = vector.broadcast %1371 : f32 to vector<64xf32> loc(#loc24)
      %1373 = vector.fma %1143, %1369, %1177 : vector<64xf32> loc(#loc24)
      %1374 = memref.load %94[%145, %1341] : memref<?x?xf32, strided<[?, 1]>> loc(#loc24)
      %1375 = vector.broadcast %1374 : f32 to vector<64xf32> loc(#loc24)
      %1376 = vector.fma %1143, %1372, %1180 : vector<64xf32> loc(#loc24)
      %1377 = memref.load %94[%149, %1341] : memref<?x?xf32, strided<[?, 1]>> loc(#loc24)
      %1378 = vector.broadcast %1377 : f32 to vector<64xf32> loc(#loc24)
      %1379 = vector.fma %1143, %1375, %1183 : vector<64xf32> loc(#loc24)
      %1380 = memref.load %94[%153, %1341] : memref<?x?xf32, strided<[?, 1]>> loc(#loc24)
      %1381 = vector.broadcast %1380 : f32 to vector<64xf32> loc(#loc24)
      %1382 = vector.fma %1143, %1378, %1186 : vector<64xf32> loc(#loc24)
      %1383 = memref.load %94[%157, %1341] : memref<?x?xf32, strided<[?, 1]>> loc(#loc24)
      %1384 = vector.broadcast %1383 : f32 to vector<64xf32> loc(#loc24)
      %1385 = vector.fma %1143, %1381, %1189 : vector<64xf32> loc(#loc24)
      %1386 = memref.load %94[%161, %1341] : memref<?x?xf32, strided<[?, 1]>> loc(#loc24)
      %1387 = vector.broadcast %1386 : f32 to vector<64xf32> loc(#loc24)
      %1388 = vector.fma %1143, %1384, %1192 : vector<64xf32> loc(#loc24)
      %1389 = memref.load %94[%165, %1341] : memref<?x?xf32, strided<[?, 1]>> loc(#loc24)
      %1390 = vector.broadcast %1389 : f32 to vector<64xf32> loc(#loc24)
      %1391 = vector.fma %1143, %1387, %1195 : vector<64xf32> loc(#loc24)
      %1392 = memref.load %94[%169, %1341] : memref<?x?xf32, strided<[?, 1]>> loc(#loc24)
      %1393 = vector.broadcast %1392 : f32 to vector<64xf32> loc(#loc24)
      %1394 = vector.fma %1143, %1390, %1198 : vector<64xf32> loc(#loc24)
      %1395 = memref.load %94[%173, %1341] : memref<?x?xf32, strided<[?, 1]>> loc(#loc24)
      %1396 = vector.broadcast %1395 : f32 to vector<64xf32> loc(#loc24)
      %1397 = vector.fma %1143, %1393, %1201 : vector<64xf32> loc(#loc24)
      %1398 = memref.load %94[%177, %1341] : memref<?x?xf32, strided<[?, 1]>> loc(#loc24)
      %1399 = vector.broadcast %1398 : f32 to vector<64xf32> loc(#loc24)
      %1400 = vector.fma %1143, %1396, %1204 : vector<64xf32> loc(#loc24)
      %1401 = memref.load %94[%181, %1341] : memref<?x?xf32, strided<[?, 1]>> loc(#loc24)
      %1402 = vector.broadcast %1401 : f32 to vector<64xf32> loc(#loc24)
      %1403 = vector.fma %1143, %1399, %1207 : vector<64xf32> loc(#loc24)
      %1404 = memref.load %94[%185, %1341] : memref<?x?xf32, strided<[?, 1]>> loc(#loc24)
      %1405 = vector.broadcast %1404 : f32 to vector<64xf32> loc(#loc24)
      %1406 = vector.fma %1143, %1402, %1210 : vector<64xf32> loc(#loc24)
      %1407 = memref.load %94[%189, %1341] : memref<?x?xf32, strided<[?, 1]>> loc(#loc24)
      %1408 = vector.broadcast %1407 : f32 to vector<64xf32> loc(#loc24)
      %1409 = vector.fma %1143, %1405, %1213 : vector<64xf32> loc(#loc24)
      %1410 = memref.load %94[%193, %1341] : memref<?x?xf32, strided<[?, 1]>> loc(#loc24)
      %1411 = vector.broadcast %1410 : f32 to vector<64xf32> loc(#loc24)
      %1412 = vector.fma %1143, %1408, %1216 : vector<64xf32> loc(#loc24)
      %1413 = memref.load %94[%197, %1341] : memref<?x?xf32, strided<[?, 1]>> loc(#loc24)
      %1414 = vector.broadcast %1413 : f32 to vector<64xf32> loc(#loc24)
      %1415 = vector.fma %1143, %1411, %1219 : vector<64xf32> loc(#loc24)
      %1416 = memref.load %94[%201, %1341] : memref<?x?xf32, strided<[?, 1]>> loc(#loc24)
      %1417 = vector.broadcast %1416 : f32 to vector<64xf32> loc(#loc24)
      %1418 = vector.fma %1143, %1414, %1222 : vector<64xf32> loc(#loc24)
      %1419 = memref.load %94[%205, %1341] : memref<?x?xf32, strided<[?, 1]>> loc(#loc24)
      %1420 = vector.broadcast %1419 : f32 to vector<64xf32> loc(#loc24)
      %1421 = vector.fma %1143, %1417, %1225 : vector<64xf32> loc(#loc24)
      %1422 = memref.load %94[%209, %1341] : memref<?x?xf32, strided<[?, 1]>> loc(#loc24)
      %1423 = vector.broadcast %1422 : f32 to vector<64xf32> loc(#loc24)
      %1424 = vector.fma %1143, %1420, %1228 : vector<64xf32> loc(#loc24)
      %1425 = memref.load %94[%213, %1341] : memref<?x?xf32, strided<[?, 1]>> loc(#loc24)
      %1426 = vector.broadcast %1425 : f32 to vector<64xf32> loc(#loc24)
      %1427 = vector.fma %1143, %1423, %1231 : vector<64xf32> loc(#loc24)
      %1428 = memref.load %94[%217, %1341] : memref<?x?xf32, strided<[?, 1]>> loc(#loc24)
      %1429 = vector.broadcast %1428 : f32 to vector<64xf32> loc(#loc24)
      %1430 = vector.fma %1143, %1426, %1234 : vector<64xf32> loc(#loc24)
      %1431 = memref.load %94[%221, %1341] : memref<?x?xf32, strided<[?, 1]>> loc(#loc24)
      %1432 = vector.broadcast %1431 : f32 to vector<64xf32> loc(#loc24)
      %1433 = vector.fma %1143, %1429, %1237 : vector<64xf32> loc(#loc24)
      %1434 = memref.load %94[%225, %1341] : memref<?x?xf32, strided<[?, 1]>> loc(#loc24)
      %1435 = vector.broadcast %1434 : f32 to vector<64xf32> loc(#loc24)
      %1436 = vector.fma %1143, %1432, %1240 : vector<64xf32> loc(#loc24)
      %1437 = memref.load %94[%229, %1341] : memref<?x?xf32, strided<[?, 1]>> loc(#loc24)
      %1438 = vector.broadcast %1437 : f32 to vector<64xf32> loc(#loc24)
      %1439 = vector.fma %1143, %1435, %1243 : vector<64xf32> loc(#loc24)
      %1440 = memref.load %94[%233, %1341] : memref<?x?xf32, strided<[?, 1]>> loc(#loc24)
      %1441 = vector.broadcast %1440 : f32 to vector<64xf32> loc(#loc24)
      %1442 = vector.fma %1143, %1438, %1246 : vector<64xf32> loc(#loc24)
      %1443 = memref.load %94[%237, %1341] : memref<?x?xf32, strided<[?, 1]>> loc(#loc24)
      %1444 = vector.broadcast %1443 : f32 to vector<64xf32> loc(#loc24)
      %1445 = vector.fma %1143, %1441, %1249 : vector<64xf32> loc(#loc24)
      %1446 = memref.load %94[%241, %1341] : memref<?x?xf32, strided<[?, 1]>> loc(#loc24)
      %1447 = vector.broadcast %1446 : f32 to vector<64xf32> loc(#loc24)
      %1448 = vector.fma %1143, %1444, %1252 : vector<64xf32> loc(#loc24)
      %1449 = memref.load %94[%245, %1341] : memref<?x?xf32, strided<[?, 1]>> loc(#loc24)
      %1450 = vector.broadcast %1449 : f32 to vector<64xf32> loc(#loc24)
      %1451 = vector.fma %1143, %1447, %1255 : vector<64xf32> loc(#loc24)
      %1452 = memref.load %94[%249, %1341] : memref<?x?xf32, strided<[?, 1]>> loc(#loc24)
      %1453 = vector.broadcast %1452 : f32 to vector<64xf32> loc(#loc24)
      %1454 = vector.fma %1143, %1450, %1258 : vector<64xf32> loc(#loc24)
      %1455 = memref.load %94[%253, %1341] : memref<?x?xf32, strided<[?, 1]>> loc(#loc24)
      %1456 = vector.broadcast %1455 : f32 to vector<64xf32> loc(#loc24)
      %1457 = vector.fma %1143, %1453, %1261 : vector<64xf32> loc(#loc24)
      %1458 = memref.load %94[%257, %1341] : memref<?x?xf32, strided<[?, 1]>> loc(#loc24)
      %1459 = vector.broadcast %1458 : f32 to vector<64xf32> loc(#loc24)
      %1460 = vector.fma %1143, %1456, %1264 : vector<64xf32> loc(#loc24)
      %1461 = memref.load %94[%261, %1341] : memref<?x?xf32, strided<[?, 1]>> loc(#loc24)
      %1462 = vector.broadcast %1461 : f32 to vector<64xf32> loc(#loc24)
      %1463 = vector.fma %1143, %1459, %1267 : vector<64xf32> loc(#loc24)
      %1464 = memref.load %94[%265, %1341] : memref<?x?xf32, strided<[?, 1]>> loc(#loc24)
      %1465 = vector.broadcast %1464 : f32 to vector<64xf32> loc(#loc24)
      %1466 = vector.fma %1143, %1462, %1270 : vector<64xf32> loc(#loc24)
      %1467 = memref.load %94[%269, %1341] : memref<?x?xf32, strided<[?, 1]>> loc(#loc24)
      %1468 = vector.broadcast %1467 : f32 to vector<64xf32> loc(#loc24)
      %1469 = vector.fma %1143, %1465, %1273 : vector<64xf32> loc(#loc24)
      %1470 = memref.load %94[%273, %1341] : memref<?x?xf32, strided<[?, 1]>> loc(#loc24)
      %1471 = vector.broadcast %1470 : f32 to vector<64xf32> loc(#loc24)
      %1472 = vector.fma %1143, %1468, %1276 : vector<64xf32> loc(#loc24)
      %1473 = memref.load %94[%277, %1341] : memref<?x?xf32, strided<[?, 1]>> loc(#loc24)
      %1474 = vector.broadcast %1473 : f32 to vector<64xf32> loc(#loc24)
      %1475 = vector.fma %1143, %1471, %1279 : vector<64xf32> loc(#loc24)
      %1476 = memref.load %94[%281, %1341] : memref<?x?xf32, strided<[?, 1]>> loc(#loc24)
      %1477 = vector.broadcast %1476 : f32 to vector<64xf32> loc(#loc24)
      %1478 = vector.fma %1143, %1474, %1282 : vector<64xf32> loc(#loc24)
      %1479 = memref.load %94[%285, %1341] : memref<?x?xf32, strided<[?, 1]>> loc(#loc24)
      %1480 = vector.broadcast %1479 : f32 to vector<64xf32> loc(#loc24)
      %1481 = vector.fma %1143, %1477, %1285 : vector<64xf32> loc(#loc24)
      %1482 = memref.load %94[%289, %1341] : memref<?x?xf32, strided<[?, 1]>> loc(#loc24)
      %1483 = vector.broadcast %1482 : f32 to vector<64xf32> loc(#loc24)
      %1484 = vector.fma %1143, %1480, %1288 : vector<64xf32> loc(#loc24)
      %1485 = memref.load %94[%293, %1341] : memref<?x?xf32, strided<[?, 1]>> loc(#loc24)
      %1486 = vector.broadcast %1485 : f32 to vector<64xf32> loc(#loc24)
      %1487 = vector.fma %1143, %1483, %1291 : vector<64xf32> loc(#loc24)
      %1488 = memref.load %94[%297, %1341] : memref<?x?xf32, strided<[?, 1]>> loc(#loc24)
      %1489 = vector.broadcast %1488 : f32 to vector<64xf32> loc(#loc24)
      %1490 = vector.fma %1143, %1486, %1294 : vector<64xf32> loc(#loc24)
      %1491 = memref.load %94[%301, %1341] : memref<?x?xf32, strided<[?, 1]>> loc(#loc24)
      %1492 = vector.broadcast %1491 : f32 to vector<64xf32> loc(#loc24)
      %1493 = vector.fma %1143, %1489, %1297 : vector<64xf32> loc(#loc24)
      %1494 = memref.load %94[%305, %1341] : memref<?x?xf32, strided<[?, 1]>> loc(#loc24)
      %1495 = vector.broadcast %1494 : f32 to vector<64xf32> loc(#loc24)
      %1496 = vector.fma %1143, %1492, %1300 : vector<64xf32> loc(#loc24)
      %1497 = memref.load %94[%309, %1341] : memref<?x?xf32, strided<[?, 1]>> loc(#loc24)
      %1498 = vector.broadcast %1497 : f32 to vector<64xf32> loc(#loc24)
      %1499 = vector.fma %1143, %1495, %1303 : vector<64xf32> loc(#loc24)
      %1500 = memref.load %94[%313, %1341] : memref<?x?xf32, strided<[?, 1]>> loc(#loc24)
      %1501 = vector.broadcast %1500 : f32 to vector<64xf32> loc(#loc24)
      %1502 = vector.fma %1143, %1498, %1306 : vector<64xf32> loc(#loc24)
      %1503 = memref.load %94[%317, %1341] : memref<?x?xf32, strided<[?, 1]>> loc(#loc24)
      %1504 = vector.broadcast %1503 : f32 to vector<64xf32> loc(#loc24)
      %1505 = vector.fma %1143, %1501, %1309 : vector<64xf32> loc(#loc24)
      %1506 = memref.load %94[%321, %1341] : memref<?x?xf32, strided<[?, 1]>> loc(#loc24)
      %1507 = vector.broadcast %1506 : f32 to vector<64xf32> loc(#loc24)
      %1508 = vector.fma %1143, %1504, %1312 : vector<64xf32> loc(#loc24)
      %1509 = memref.load %94[%325, %1341] : memref<?x?xf32, strided<[?, 1]>> loc(#loc24)
      %1510 = vector.broadcast %1509 : f32 to vector<64xf32> loc(#loc24)
      %1511 = vector.fma %1143, %1507, %1315 : vector<64xf32> loc(#loc24)
      %1512 = memref.load %94[%329, %1341] : memref<?x?xf32, strided<[?, 1]>> loc(#loc24)
      %1513 = vector.broadcast %1512 : f32 to vector<64xf32> loc(#loc24)
      %1514 = vector.fma %1143, %1510, %1318 : vector<64xf32> loc(#loc24)
      %1515 = memref.load %94[%333, %1341] : memref<?x?xf32, strided<[?, 1]>> loc(#loc24)
      %1516 = vector.broadcast %1515 : f32 to vector<64xf32> loc(#loc24)
      %1517 = vector.fma %1143, %1513, %1321 : vector<64xf32> loc(#loc24)
      %1518 = memref.load %94[%337, %1341] : memref<?x?xf32, strided<[?, 1]>> loc(#loc24)
      %1519 = vector.broadcast %1518 : f32 to vector<64xf32> loc(#loc24)
      %1520 = vector.fma %1143, %1516, %1324 : vector<64xf32> loc(#loc24)
      %1521 = memref.load %94[%341, %1341] : memref<?x?xf32, strided<[?, 1]>> loc(#loc24)
      %1522 = vector.broadcast %1521 : f32 to vector<64xf32> loc(#loc24)
      %1523 = vector.fma %1143, %1519, %1327 : vector<64xf32> loc(#loc24)
      %1524 = memref.load %94[%345, %1341] : memref<?x?xf32, strided<[?, 1]>> loc(#loc24)
      %1525 = vector.broadcast %1524 : f32 to vector<64xf32> loc(#loc24)
      %1526 = vector.fma %1143, %1522, %1330 : vector<64xf32> loc(#loc24)
      %1527 = memref.load %94[%349, %1341] : memref<?x?xf32, strided<[?, 1]>> loc(#loc24)
      %1528 = vector.broadcast %1527 : f32 to vector<64xf32> loc(#loc24)
      %1529 = vector.fma %1143, %1525, %1333 : vector<64xf32> loc(#loc24)
      %1530 = memref.load %94[%353, %1341] : memref<?x?xf32, strided<[?, 1]>> loc(#loc24)
      %1531 = vector.broadcast %1530 : f32 to vector<64xf32> loc(#loc24)
      %1532 = vector.fma %1143, %1528, %1336 : vector<64xf32> loc(#loc24)
      %1533 = vector.fma %1143, %1531, %1337 : vector<64xf32> loc(#loc24)
      %1534 = arith.addi %97#0, %c8 : index loc(#loc24)
      %1535 = vector.load %96[%1534, %97#1] : memref<?x?xf32, strided<[?, 1]>>, vector<64xf32> loc(#loc24)
      %1536 = arith.addi %97#0, %c135 : index loc(#loc24)
      memref.prefetch %96[%1536, %97#1], read, locality<1>, data : memref<?x?xf32, strided<[?, 1]>> loc(#loc24)
      %1537 = arith.addi %95#1, %c7 : index loc(#loc24)
      %1538 = memref.load %94[%95#0, %1537] : memref<?x?xf32, strided<[?, 1]>> loc(#loc24)
      %1539 = vector.broadcast %1538 : f32 to vector<64xf32> loc(#loc24)
      %1540 = memref.load %94[%105, %1537] : memref<?x?xf32, strided<[?, 1]>> loc(#loc24)
      %1541 = vector.broadcast %1540 : f32 to vector<64xf32> loc(#loc24)
      %1542 = vector.fma %1339, %1539, %1346 : vector<64xf32> loc(#loc24)
      %1543 = memref.load %94[%109, %1537] : memref<?x?xf32, strided<[?, 1]>> loc(#loc24)
      %1544 = vector.broadcast %1543 : f32 to vector<64xf32> loc(#loc24)
      %1545 = vector.fma %1339, %1541, %1349 : vector<64xf32> loc(#loc24)
      %1546 = memref.load %94[%113, %1537] : memref<?x?xf32, strided<[?, 1]>> loc(#loc24)
      %1547 = vector.broadcast %1546 : f32 to vector<64xf32> loc(#loc24)
      %1548 = vector.fma %1339, %1544, %1352 : vector<64xf32> loc(#loc24)
      %1549 = memref.load %94[%117, %1537] : memref<?x?xf32, strided<[?, 1]>> loc(#loc24)
      %1550 = vector.broadcast %1549 : f32 to vector<64xf32> loc(#loc24)
      %1551 = vector.fma %1339, %1547, %1355 : vector<64xf32> loc(#loc24)
      %1552 = memref.load %94[%121, %1537] : memref<?x?xf32, strided<[?, 1]>> loc(#loc24)
      %1553 = vector.broadcast %1552 : f32 to vector<64xf32> loc(#loc24)
      %1554 = vector.fma %1339, %1550, %1358 : vector<64xf32> loc(#loc24)
      %1555 = memref.load %94[%125, %1537] : memref<?x?xf32, strided<[?, 1]>> loc(#loc24)
      %1556 = vector.broadcast %1555 : f32 to vector<64xf32> loc(#loc24)
      %1557 = vector.fma %1339, %1553, %1361 : vector<64xf32> loc(#loc24)
      %1558 = memref.load %94[%129, %1537] : memref<?x?xf32, strided<[?, 1]>> loc(#loc24)
      %1559 = vector.broadcast %1558 : f32 to vector<64xf32> loc(#loc24)
      %1560 = vector.fma %1339, %1556, %1364 : vector<64xf32> loc(#loc24)
      %1561 = memref.load %94[%133, %1537] : memref<?x?xf32, strided<[?, 1]>> loc(#loc24)
      %1562 = vector.broadcast %1561 : f32 to vector<64xf32> loc(#loc24)
      %1563 = vector.fma %1339, %1559, %1367 : vector<64xf32> loc(#loc24)
      %1564 = memref.load %94[%137, %1537] : memref<?x?xf32, strided<[?, 1]>> loc(#loc24)
      %1565 = vector.broadcast %1564 : f32 to vector<64xf32> loc(#loc24)
      %1566 = vector.fma %1339, %1562, %1370 : vector<64xf32> loc(#loc24)
      %1567 = memref.load %94[%141, %1537] : memref<?x?xf32, strided<[?, 1]>> loc(#loc24)
      %1568 = vector.broadcast %1567 : f32 to vector<64xf32> loc(#loc24)
      %1569 = vector.fma %1339, %1565, %1373 : vector<64xf32> loc(#loc24)
      %1570 = memref.load %94[%145, %1537] : memref<?x?xf32, strided<[?, 1]>> loc(#loc24)
      %1571 = vector.broadcast %1570 : f32 to vector<64xf32> loc(#loc24)
      %1572 = vector.fma %1339, %1568, %1376 : vector<64xf32> loc(#loc24)
      %1573 = memref.load %94[%149, %1537] : memref<?x?xf32, strided<[?, 1]>> loc(#loc24)
      %1574 = vector.broadcast %1573 : f32 to vector<64xf32> loc(#loc24)
      %1575 = vector.fma %1339, %1571, %1379 : vector<64xf32> loc(#loc24)
      %1576 = memref.load %94[%153, %1537] : memref<?x?xf32, strided<[?, 1]>> loc(#loc24)
      %1577 = vector.broadcast %1576 : f32 to vector<64xf32> loc(#loc24)
      %1578 = vector.fma %1339, %1574, %1382 : vector<64xf32> loc(#loc24)
      %1579 = memref.load %94[%157, %1537] : memref<?x?xf32, strided<[?, 1]>> loc(#loc24)
      %1580 = vector.broadcast %1579 : f32 to vector<64xf32> loc(#loc24)
      %1581 = vector.fma %1339, %1577, %1385 : vector<64xf32> loc(#loc24)
      %1582 = memref.load %94[%161, %1537] : memref<?x?xf32, strided<[?, 1]>> loc(#loc24)
      %1583 = vector.broadcast %1582 : f32 to vector<64xf32> loc(#loc24)
      %1584 = vector.fma %1339, %1580, %1388 : vector<64xf32> loc(#loc24)
      %1585 = memref.load %94[%165, %1537] : memref<?x?xf32, strided<[?, 1]>> loc(#loc24)
      %1586 = vector.broadcast %1585 : f32 to vector<64xf32> loc(#loc24)
      %1587 = vector.fma %1339, %1583, %1391 : vector<64xf32> loc(#loc24)
      %1588 = memref.load %94[%169, %1537] : memref<?x?xf32, strided<[?, 1]>> loc(#loc24)
      %1589 = vector.broadcast %1588 : f32 to vector<64xf32> loc(#loc24)
      %1590 = vector.fma %1339, %1586, %1394 : vector<64xf32> loc(#loc24)
      %1591 = memref.load %94[%173, %1537] : memref<?x?xf32, strided<[?, 1]>> loc(#loc24)
      %1592 = vector.broadcast %1591 : f32 to vector<64xf32> loc(#loc24)
      %1593 = vector.fma %1339, %1589, %1397 : vector<64xf32> loc(#loc24)
      %1594 = memref.load %94[%177, %1537] : memref<?x?xf32, strided<[?, 1]>> loc(#loc24)
      %1595 = vector.broadcast %1594 : f32 to vector<64xf32> loc(#loc24)
      %1596 = vector.fma %1339, %1592, %1400 : vector<64xf32> loc(#loc24)
      %1597 = memref.load %94[%181, %1537] : memref<?x?xf32, strided<[?, 1]>> loc(#loc24)
      %1598 = vector.broadcast %1597 : f32 to vector<64xf32> loc(#loc24)
      %1599 = vector.fma %1339, %1595, %1403 : vector<64xf32> loc(#loc24)
      %1600 = memref.load %94[%185, %1537] : memref<?x?xf32, strided<[?, 1]>> loc(#loc24)
      %1601 = vector.broadcast %1600 : f32 to vector<64xf32> loc(#loc24)
      %1602 = vector.fma %1339, %1598, %1406 : vector<64xf32> loc(#loc24)
      %1603 = memref.load %94[%189, %1537] : memref<?x?xf32, strided<[?, 1]>> loc(#loc24)
      %1604 = vector.broadcast %1603 : f32 to vector<64xf32> loc(#loc24)
      %1605 = vector.fma %1339, %1601, %1409 : vector<64xf32> loc(#loc24)
      %1606 = memref.load %94[%193, %1537] : memref<?x?xf32, strided<[?, 1]>> loc(#loc24)
      %1607 = vector.broadcast %1606 : f32 to vector<64xf32> loc(#loc24)
      %1608 = vector.fma %1339, %1604, %1412 : vector<64xf32> loc(#loc24)
      %1609 = memref.load %94[%197, %1537] : memref<?x?xf32, strided<[?, 1]>> loc(#loc24)
      %1610 = vector.broadcast %1609 : f32 to vector<64xf32> loc(#loc24)
      %1611 = vector.fma %1339, %1607, %1415 : vector<64xf32> loc(#loc24)
      %1612 = memref.load %94[%201, %1537] : memref<?x?xf32, strided<[?, 1]>> loc(#loc24)
      %1613 = vector.broadcast %1612 : f32 to vector<64xf32> loc(#loc24)
      %1614 = vector.fma %1339, %1610, %1418 : vector<64xf32> loc(#loc24)
      %1615 = memref.load %94[%205, %1537] : memref<?x?xf32, strided<[?, 1]>> loc(#loc24)
      %1616 = vector.broadcast %1615 : f32 to vector<64xf32> loc(#loc24)
      %1617 = vector.fma %1339, %1613, %1421 : vector<64xf32> loc(#loc24)
      %1618 = memref.load %94[%209, %1537] : memref<?x?xf32, strided<[?, 1]>> loc(#loc24)
      %1619 = vector.broadcast %1618 : f32 to vector<64xf32> loc(#loc24)
      %1620 = vector.fma %1339, %1616, %1424 : vector<64xf32> loc(#loc24)
      %1621 = memref.load %94[%213, %1537] : memref<?x?xf32, strided<[?, 1]>> loc(#loc24)
      %1622 = vector.broadcast %1621 : f32 to vector<64xf32> loc(#loc24)
      %1623 = vector.fma %1339, %1619, %1427 : vector<64xf32> loc(#loc24)
      %1624 = memref.load %94[%217, %1537] : memref<?x?xf32, strided<[?, 1]>> loc(#loc24)
      %1625 = vector.broadcast %1624 : f32 to vector<64xf32> loc(#loc24)
      %1626 = vector.fma %1339, %1622, %1430 : vector<64xf32> loc(#loc24)
      %1627 = memref.load %94[%221, %1537] : memref<?x?xf32, strided<[?, 1]>> loc(#loc24)
      %1628 = vector.broadcast %1627 : f32 to vector<64xf32> loc(#loc24)
      %1629 = vector.fma %1339, %1625, %1433 : vector<64xf32> loc(#loc24)
      %1630 = memref.load %94[%225, %1537] : memref<?x?xf32, strided<[?, 1]>> loc(#loc24)
      %1631 = vector.broadcast %1630 : f32 to vector<64xf32> loc(#loc24)
      %1632 = vector.fma %1339, %1628, %1436 : vector<64xf32> loc(#loc24)
      %1633 = memref.load %94[%229, %1537] : memref<?x?xf32, strided<[?, 1]>> loc(#loc24)
      %1634 = vector.broadcast %1633 : f32 to vector<64xf32> loc(#loc24)
      %1635 = vector.fma %1339, %1631, %1439 : vector<64xf32> loc(#loc24)
      %1636 = memref.load %94[%233, %1537] : memref<?x?xf32, strided<[?, 1]>> loc(#loc24)
      %1637 = vector.broadcast %1636 : f32 to vector<64xf32> loc(#loc24)
      %1638 = vector.fma %1339, %1634, %1442 : vector<64xf32> loc(#loc24)
      %1639 = memref.load %94[%237, %1537] : memref<?x?xf32, strided<[?, 1]>> loc(#loc24)
      %1640 = vector.broadcast %1639 : f32 to vector<64xf32> loc(#loc24)
      %1641 = vector.fma %1339, %1637, %1445 : vector<64xf32> loc(#loc24)
      %1642 = memref.load %94[%241, %1537] : memref<?x?xf32, strided<[?, 1]>> loc(#loc24)
      %1643 = vector.broadcast %1642 : f32 to vector<64xf32> loc(#loc24)
      %1644 = vector.fma %1339, %1640, %1448 : vector<64xf32> loc(#loc24)
      %1645 = memref.load %94[%245, %1537] : memref<?x?xf32, strided<[?, 1]>> loc(#loc24)
      %1646 = vector.broadcast %1645 : f32 to vector<64xf32> loc(#loc24)
      %1647 = vector.fma %1339, %1643, %1451 : vector<64xf32> loc(#loc24)
      %1648 = memref.load %94[%249, %1537] : memref<?x?xf32, strided<[?, 1]>> loc(#loc24)
      %1649 = vector.broadcast %1648 : f32 to vector<64xf32> loc(#loc24)
      %1650 = vector.fma %1339, %1646, %1454 : vector<64xf32> loc(#loc24)
      %1651 = memref.load %94[%253, %1537] : memref<?x?xf32, strided<[?, 1]>> loc(#loc24)
      %1652 = vector.broadcast %1651 : f32 to vector<64xf32> loc(#loc24)
      %1653 = vector.fma %1339, %1649, %1457 : vector<64xf32> loc(#loc24)
      %1654 = memref.load %94[%257, %1537] : memref<?x?xf32, strided<[?, 1]>> loc(#loc24)
      %1655 = vector.broadcast %1654 : f32 to vector<64xf32> loc(#loc24)
      %1656 = vector.fma %1339, %1652, %1460 : vector<64xf32> loc(#loc24)
      %1657 = memref.load %94[%261, %1537] : memref<?x?xf32, strided<[?, 1]>> loc(#loc24)
      %1658 = vector.broadcast %1657 : f32 to vector<64xf32> loc(#loc24)
      %1659 = vector.fma %1339, %1655, %1463 : vector<64xf32> loc(#loc24)
      %1660 = memref.load %94[%265, %1537] : memref<?x?xf32, strided<[?, 1]>> loc(#loc24)
      %1661 = vector.broadcast %1660 : f32 to vector<64xf32> loc(#loc24)
      %1662 = vector.fma %1339, %1658, %1466 : vector<64xf32> loc(#loc24)
      %1663 = memref.load %94[%269, %1537] : memref<?x?xf32, strided<[?, 1]>> loc(#loc24)
      %1664 = vector.broadcast %1663 : f32 to vector<64xf32> loc(#loc24)
      %1665 = vector.fma %1339, %1661, %1469 : vector<64xf32> loc(#loc24)
      %1666 = memref.load %94[%273, %1537] : memref<?x?xf32, strided<[?, 1]>> loc(#loc24)
      %1667 = vector.broadcast %1666 : f32 to vector<64xf32> loc(#loc24)
      %1668 = vector.fma %1339, %1664, %1472 : vector<64xf32> loc(#loc24)
      %1669 = memref.load %94[%277, %1537] : memref<?x?xf32, strided<[?, 1]>> loc(#loc24)
      %1670 = vector.broadcast %1669 : f32 to vector<64xf32> loc(#loc24)
      %1671 = vector.fma %1339, %1667, %1475 : vector<64xf32> loc(#loc24)
      %1672 = memref.load %94[%281, %1537] : memref<?x?xf32, strided<[?, 1]>> loc(#loc24)
      %1673 = vector.broadcast %1672 : f32 to vector<64xf32> loc(#loc24)
      %1674 = vector.fma %1339, %1670, %1478 : vector<64xf32> loc(#loc24)
      %1675 = memref.load %94[%285, %1537] : memref<?x?xf32, strided<[?, 1]>> loc(#loc24)
      %1676 = vector.broadcast %1675 : f32 to vector<64xf32> loc(#loc24)
      %1677 = vector.fma %1339, %1673, %1481 : vector<64xf32> loc(#loc24)
      %1678 = memref.load %94[%289, %1537] : memref<?x?xf32, strided<[?, 1]>> loc(#loc24)
      %1679 = vector.broadcast %1678 : f32 to vector<64xf32> loc(#loc24)
      %1680 = vector.fma %1339, %1676, %1484 : vector<64xf32> loc(#loc24)
      %1681 = memref.load %94[%293, %1537] : memref<?x?xf32, strided<[?, 1]>> loc(#loc24)
      %1682 = vector.broadcast %1681 : f32 to vector<64xf32> loc(#loc24)
      %1683 = vector.fma %1339, %1679, %1487 : vector<64xf32> loc(#loc24)
      %1684 = memref.load %94[%297, %1537] : memref<?x?xf32, strided<[?, 1]>> loc(#loc24)
      %1685 = vector.broadcast %1684 : f32 to vector<64xf32> loc(#loc24)
      %1686 = vector.fma %1339, %1682, %1490 : vector<64xf32> loc(#loc24)
      %1687 = memref.load %94[%301, %1537] : memref<?x?xf32, strided<[?, 1]>> loc(#loc24)
      %1688 = vector.broadcast %1687 : f32 to vector<64xf32> loc(#loc24)
      %1689 = vector.fma %1339, %1685, %1493 : vector<64xf32> loc(#loc24)
      %1690 = memref.load %94[%305, %1537] : memref<?x?xf32, strided<[?, 1]>> loc(#loc24)
      %1691 = vector.broadcast %1690 : f32 to vector<64xf32> loc(#loc24)
      %1692 = vector.fma %1339, %1688, %1496 : vector<64xf32> loc(#loc24)
      %1693 = memref.load %94[%309, %1537] : memref<?x?xf32, strided<[?, 1]>> loc(#loc24)
      %1694 = vector.broadcast %1693 : f32 to vector<64xf32> loc(#loc24)
      %1695 = vector.fma %1339, %1691, %1499 : vector<64xf32> loc(#loc24)
      %1696 = memref.load %94[%313, %1537] : memref<?x?xf32, strided<[?, 1]>> loc(#loc24)
      %1697 = vector.broadcast %1696 : f32 to vector<64xf32> loc(#loc24)
      %1698 = vector.fma %1339, %1694, %1502 : vector<64xf32> loc(#loc24)
      %1699 = memref.load %94[%317, %1537] : memref<?x?xf32, strided<[?, 1]>> loc(#loc24)
      %1700 = vector.broadcast %1699 : f32 to vector<64xf32> loc(#loc24)
      %1701 = vector.fma %1339, %1697, %1505 : vector<64xf32> loc(#loc24)
      %1702 = memref.load %94[%321, %1537] : memref<?x?xf32, strided<[?, 1]>> loc(#loc24)
      %1703 = vector.broadcast %1702 : f32 to vector<64xf32> loc(#loc24)
      %1704 = vector.fma %1339, %1700, %1508 : vector<64xf32> loc(#loc24)
      %1705 = memref.load %94[%325, %1537] : memref<?x?xf32, strided<[?, 1]>> loc(#loc24)
      %1706 = vector.broadcast %1705 : f32 to vector<64xf32> loc(#loc24)
      %1707 = vector.fma %1339, %1703, %1511 : vector<64xf32> loc(#loc24)
      %1708 = memref.load %94[%329, %1537] : memref<?x?xf32, strided<[?, 1]>> loc(#loc24)
      %1709 = vector.broadcast %1708 : f32 to vector<64xf32> loc(#loc24)
      %1710 = vector.fma %1339, %1706, %1514 : vector<64xf32> loc(#loc24)
      %1711 = memref.load %94[%333, %1537] : memref<?x?xf32, strided<[?, 1]>> loc(#loc24)
      %1712 = vector.broadcast %1711 : f32 to vector<64xf32> loc(#loc24)
      %1713 = vector.fma %1339, %1709, %1517 : vector<64xf32> loc(#loc24)
      %1714 = memref.load %94[%337, %1537] : memref<?x?xf32, strided<[?, 1]>> loc(#loc24)
      %1715 = vector.broadcast %1714 : f32 to vector<64xf32> loc(#loc24)
      %1716 = vector.fma %1339, %1712, %1520 : vector<64xf32> loc(#loc24)
…
      %24783 = vector.broadcast %24782 : f32 to vector<64xf32> loc(#loc24)
      %24784 = vector.fma %24482, %24780, %24588 : vector<64xf32> loc(#loc24)
      %24785 = memref.load %94[%241, %24680] : memref<?x?xf32, strided<[?, 1]>> loc(#loc24)
      %24786 = vector.broadcast %24785 : f32 to vector<64xf32> loc(#loc24)
      %24787 = vector.fma %24482, %24783, %24591 : vector<64xf32> loc(#loc24)
      %24788 = memref.load %94[%245, %24680] : memref<?x?xf32, strided<[?, 1]>> loc(#loc24)
      %24789 = vector.broadcast %24788 : f32 to vector<64xf32> loc(#loc24)
      %24790 = vector.fma %24482, %24786, %24594 : vector<64xf32> loc(#loc24)
      %24791 = memref.load %94[%249, %24680] : memref<?x?xf32, strided<[?, 1]>> loc(#loc24)
      %24792 = vector.broadcast %24791 : f32 to vector<64xf32> loc(#loc24)
      %24793 = vector.fma %24482, %24789, %24597 : vector<64xf32> loc(#loc24)
      %24794 = memref.load %94[%253, %24680] : memref<?x?xf32, strided<[?, 1]>> loc(#loc24)
      %24795 = vector.broadcast %24794 : f32 to vector<64xf32> loc(#loc24)
      %24796 = vector.fma %24482, %24792, %24600 : vector<64xf32> loc(#loc24)
      %24797 = memref.load %94[%257, %24680] : memref<?x?xf32, strided<[?, 1]>> loc(#loc24)
      %24798 = vector.broadcast %24797 : f32 to vector<64xf32> loc(#loc24)
      %24799 = vector.fma %24482, %24795, %24603 : vector<64xf32> loc(#loc24)
      %24800 = memref.load %94[%261, %24680] : memref<?x?xf32, strided<[?, 1]>> loc(#loc24)
      %24801 = vector.broadcast %24800 : f32 to vector<64xf32> loc(#loc24)
      %24802 = vector.fma %24482, %24798, %24606 : vector<64xf32> loc(#loc24)
      %24803 = memref.load %94[%265, %24680] : memref<?x?xf32, strided<[?, 1]>> loc(#loc24)
      %24804 = vector.broadcast %24803 : f32 to vector<64xf32> loc(#loc24)
      %24805 = vector.fma %24482, %24801, %24609 : vector<64xf32> loc(#loc24)
      %24806 = memref.load %94[%269, %24680] : memref<?x?xf32, strided<[?, 1]>> loc(#loc24)
      %24807 = vector.broadcast %24806 : f32 to vector<64xf32> loc(#loc24)
      %24808 = vector.fma %24482, %24804, %24612 : vector<64xf32> loc(#loc24)
      %24809 = memref.load %94[%273, %24680] : memref<?x?xf32, strided<[?, 1]>> loc(#loc24)
      %24810 = vector.broadcast %24809 : f32 to vector<64xf32> loc(#loc24)
      %24811 = vector.fma %24482, %24807, %24615 : vector<64xf32> loc(#loc24)
      %24812 = memref.load %94[%277, %24680] : memref<?x?xf32, strided<[?, 1]>> loc(#loc24)
      %24813 = vector.broadcast %24812 : f32 to vector<64xf32> loc(#loc24)
      %24814 = vector.fma %24482, %24810, %24618 : vector<64xf32> loc(#loc24)
      %24815 = memref.load %94[%281, %24680] : memref<?x?xf32, strided<[?, 1]>> loc(#loc24)
      %24816 = vector.broadcast %24815 : f32 to vector<64xf32> loc(#loc24)
      %24817 = vector.fma %24482, %24813, %24621 : vector<64xf32> loc(#loc24)
      %24818 = memref.load %94[%285, %24680] : memref<?x?xf32, strided<[?, 1]>> loc(#loc24)
      %24819 = vector.broadcast %24818 : f32 to vector<64xf32> loc(#loc24)
      %24820 = vector.fma %24482, %24816, %24624 : vector<64xf32> loc(#loc24)
      %24821 = memref.load %94[%289, %24680] : memref<?x?xf32, strided<[?, 1]>> loc(#loc24)
      %24822 = vector.broadcast %24821 : f32 to vector<64xf32> loc(#loc24)
      %24823 = vector.fma %24482, %24819, %24627 : vector<64xf32> loc(#loc24)
      %24824 = memref.load %94[%293, %24680] : memref<?x?xf32, strided<[?, 1]>> loc(#loc24)
      %24825 = vector.broadcast %24824 : f32 to vector<64xf32> loc(#loc24)
      %24826 = vector.fma %24482, %24822, %24630 : vector<64xf32> loc(#loc24)
      %24827 = memref.load %94[%297, %24680] : memref<?x?xf32, strided<[?, 1]>> loc(#loc24)
      %24828 = vector.broadcast %24827 : f32 to vector<64xf32> loc(#loc24)
      %24829 = vector.fma %24482, %24825, %24633 : vector<64xf32> loc(#loc24)
      %24830 = memref.load %94[%301, %24680] : memref<?x?xf32, strided<[?, 1]>> loc(#loc24)
      %24831 = vector.broadcast %24830 : f32 to vector<64xf32> loc(#loc24)
      %24832 = vector.fma %24482, %24828, %24636 : vector<64xf32> loc(#loc24)
      %24833 = memref.load %94[%305, %24680] : memref<?x?xf32, strided<[?, 1]>> loc(#loc24)
      %24834 = vector.broadcast %24833 : f32 to vector<64xf32> loc(#loc24)
      %24835 = vector.fma %24482, %24831, %24639 : vector<64xf32> loc(#loc24)
      %24836 = memref.load %94[%309, %24680] : memref<?x?xf32, strided<[?, 1]>> loc(#loc24)
      %24837 = vector.broadcast %24836 : f32 to vector<64xf32> loc(#loc24)
      %24838 = vector.fma %24482, %24834, %24642 : vector<64xf32> loc(#loc24)
      %24839 = memref.load %94[%313, %24680] : memref<?x?xf32, strided<[?, 1]>> loc(#loc24)
      %24840 = vector.broadcast %24839 : f32 to vector<64xf32> loc(#loc24)
      %24841 = vector.fma %24482, %24837, %24645 : vector<64xf32> loc(#loc24)
      %24842 = memref.load %94[%317, %24680] : memref<?x?xf32, strided<[?, 1]>> loc(#loc24)
      %24843 = vector.broadcast %24842 : f32 to vector<64xf32> loc(#loc24)
      %24844 = vector.fma %24482, %24840, %24648 : vector<64xf32> loc(#loc24)
      %24845 = memref.load %94[%321, %24680] : memref<?x?xf32, strided<[?, 1]>> loc(#loc24)
      %24846 = vector.broadcast %24845 : f32 to vector<64xf32> loc(#loc24)
      %24847 = vector.fma %24482, %24843, %24651 : vector<64xf32> loc(#loc24)
      %24848 = memref.load %94[%325, %24680] : memref<?x?xf32, strided<[?, 1]>> loc(#loc24)
      %24849 = vector.broadcast %24848 : f32 to vector<64xf32> loc(#loc24)
      %24850 = vector.fma %24482, %24846, %24654 : vector<64xf32> loc(#loc24)
      %24851 = memref.load %94[%329, %24680] : memref<?x?xf32, strided<[?, 1]>> loc(#loc24)
      %24852 = vector.broadcast %24851 : f32 to vector<64xf32> loc(#loc24)
      %24853 = vector.fma %24482, %24849, %24657 : vector<64xf32> loc(#loc24)
      %24854 = memref.load %94[%333, %24680] : memref<?x?xf32, strided<[?, 1]>> loc(#loc24)
      %24855 = vector.broadcast %24854 : f32 to vector<64xf32> loc(#loc24)
      %24856 = vector.fma %24482, %24852, %24660 : vector<64xf32> loc(#loc24)
      %24857 = memref.load %94[%337, %24680] : memref<?x?xf32, strided<[?, 1]>> loc(#loc24)
      %24858 = vector.broadcast %24857 : f32 to vector<64xf32> loc(#loc24)
      %24859 = vector.fma %24482, %24855, %24663 : vector<64xf32> loc(#loc24)
      %24860 = memref.load %94[%341, %24680] : memref<?x?xf32, strided<[?, 1]>> loc(#loc24)
      %24861 = vector.broadcast %24860 : f32 to vector<64xf32> loc(#loc24)
      %24862 = vector.fma %24482, %24858, %24666 : vector<64xf32> loc(#loc24)
      %24863 = memref.load %94[%345, %24680] : memref<?x?xf32, strided<[?, 1]>> loc(#loc24)
      %24864 = vector.broadcast %24863 : f32 to vector<64xf32> loc(#loc24)
      %24865 = vector.fma %24482, %24861, %24669 : vector<64xf32> loc(#loc24)
      %24866 = memref.load %94[%349, %24680] : memref<?x?xf32, strided<[?, 1]>> loc(#loc24)
      %24867 = vector.broadcast %24866 : f32 to vector<64xf32> loc(#loc24)
      %24868 = vector.fma %24482, %24864, %24672 : vector<64xf32> loc(#loc24)
      %24869 = memref.load %94[%353, %24680] : memref<?x?xf32, strided<[?, 1]>> loc(#loc24)
      %24870 = vector.broadcast %24869 : f32 to vector<64xf32> loc(#loc24)
      %24871 = vector.fma %24482, %24867, %24675 : vector<64xf32> loc(#loc24)
      %24872 = vector.fma %24482, %24870, %24676 : vector<64xf32> loc(#loc24)
      %24873 = arith.addi %97#0, %c127 : index loc(#loc24)
      %24874 = vector.load %96[%24873, %97#1] : memref<?x?xf32, strided<[?, 1]>>, vector<64xf32> loc(#loc24)
      %24875 = arith.addi %97#0, %c254 : index loc(#loc24)
      memref.prefetch %96[%24875, %97#1], read, locality<1>, data : memref<?x?xf32, strided<[?, 1]>> loc(#loc24)
      %24876 = arith.addi %95#1, %c126 : index loc(#loc24)
      %24877 = memref.load %94[%95#0, %24876] : memref<?x?xf32, strided<[?, 1]>> loc(#loc24)
      %24878 = vector.broadcast %24877 : f32 to vector<64xf32> loc(#loc24)
      %24879 = memref.load %94[%105, %24876] : memref<?x?xf32, strided<[?, 1]>> loc(#loc24)
      %24880 = vector.broadcast %24879 : f32 to vector<64xf32> loc(#loc24)
      %24881 = vector.fma %24678, %24878, %24685 : vector<64xf32> loc(#loc24)
      %24882 = memref.load %94[%109, %24876] : memref<?x?xf32, strided<[?, 1]>> loc(#loc24)
      %24883 = vector.broadcast %24882 : f32 to vector<64xf32> loc(#loc24)
      %24884 = vector.fma %24678, %24880, %24688 : vector<64xf32> loc(#loc24)
      %24885 = memref.load %94[%113, %24876] : memref<?x?xf32, strided<[?, 1]>> loc(#loc24)
      %24886 = vector.broadcast %24885 : f32 to vector<64xf32> loc(#loc24)
      %24887 = vector.fma %24678, %24883, %24691 : vector<64xf32> loc(#loc24)
      %24888 = memref.load %94[%117, %24876] : memref<?x?xf32, strided<[?, 1]>> loc(#loc24)
      %24889 = vector.broadcast %24888 : f32 to vector<64xf32> loc(#loc24)
      %24890 = vector.fma %24678, %24886, %24694 : vector<64xf32> loc(#loc24)
      %24891 = memref.load %94[%121, %24876] : memref<?x?xf32, strided<[?, 1]>> loc(#loc24)
      %24892 = vector.broadcast %24891 : f32 to vector<64xf32> loc(#loc24)
      %24893 = vector.fma %24678, %24889, %24697 : vector<64xf32> loc(#loc24)
      %24894 = memref.load %94[%125, %24876] : memref<?x?xf32, strided<[?, 1]>> loc(#loc24)
      %24895 = vector.broadcast %24894 : f32 to vector<64xf32> loc(#loc24)
      %24896 = vector.fma %24678, %24892, %24700 : vector<64xf32> loc(#loc24)
      %24897 = memref.load %94[%129, %24876] : memref<?x?xf32, strided<[?, 1]>> loc(#loc24)
      %24898 = vector.broadcast %24897 : f32 to vector<64xf32> loc(#loc24)
      %24899 = vector.fma %24678, %24895, %24703 : vector<64xf32> loc(#loc24)
      %24900 = memref.load %94[%133, %24876] : memref<?x?xf32, strided<[?, 1]>> loc(#loc24)
      %24901 = vector.broadcast %24900 : f32 to vector<64xf32> loc(#loc24)
      %24902 = vector.fma %24678, %24898, %24706 : vector<64xf32> loc(#loc24)
      %24903 = memref.load %94[%137, %24876] : memref<?x?xf32, strided<[?, 1]>> loc(#loc24)
      %24904 = vector.broadcast %24903 : f32 to vector<64xf32> loc(#loc24)
      %24905 = vector.fma %24678, %24901, %24709 : vector<64xf32> loc(#loc24)
      %24906 = memref.load %94[%141, %24876] : memref<?x?xf32, strided<[?, 1]>> loc(#loc24)
      %24907 = vector.broadcast %24906 : f32 to vector<64xf32> loc(#loc24)
      %24908 = vector.fma %24678, %24904, %24712 : vector<64xf32> loc(#loc24)
      %24909 = memref.load %94[%145, %24876] : memref<?x?xf32, strided<[?, 1]>> loc(#loc24)
      %24910 = vector.broadcast %24909 : f32 to vector<64xf32> loc(#loc24)
      %24911 = vector.fma %24678, %24907, %24715 : vector<64xf32> loc(#loc24)
      %24912 = memref.load %94[%149, %24876] : memref<?x?xf32, strided<[?, 1]>> loc(#loc24)
      %24913 = vector.broadcast %24912 : f32 to vector<64xf32> loc(#loc24)
      %24914 = vector.fma %24678, %24910, %24718 : vector<64xf32> loc(#loc24)
      %24915 = memref.load %94[%153, %24876] : memref<?x?xf32, strided<[?, 1]>> loc(#loc24)
      %24916 = vector.broadcast %24915 : f32 to vector<64xf32> loc(#loc24)
      %24917 = vector.fma %24678, %24913, %24721 : vector<64xf32> loc(#loc24)
      %24918 = memref.load %94[%157, %24876] : memref<?x?xf32, strided<[?, 1]>> loc(#loc24)
      %24919 = vector.broadcast %24918 : f32 to vector<64xf32> loc(#loc24)
      %24920 = vector.fma %24678, %24916, %24724 : vector<64xf32> loc(#loc24)
      %24921 = memref.load %94[%161, %24876] : memref<?x?xf32, strided<[?, 1]>> loc(#loc24)
      %24922 = vector.broadcast %24921 : f32 to vector<64xf32> loc(#loc24)
      %24923 = vector.fma %24678, %24919, %24727 : vector<64xf32> loc(#loc24)
      %24924 = memref.load %94[%165, %24876] : memref<?x?xf32, strided<[?, 1]>> loc(#loc24)
      %24925 = vector.broadcast %24924 : f32 to vector<64xf32> loc(#loc24)
      %24926 = vector.fma %24678, %24922, %24730 : vector<64xf32> loc(#loc24)
      %24927 = memref.load %94[%169, %24876] : memref<?x?xf32, strided<[?, 1]>> loc(#loc24)
      %24928 = vector.broadcast %24927 : f32 to vector<64xf32> loc(#loc24)
      %24929 = vector.fma %24678, %24925, %24733 : vector<64xf32> loc(#loc24)
      %24930 = memref.load %94[%173, %24876] : memref<?x?xf32, strided<[?, 1]>> loc(#loc24)
      %24931 = vector.broadcast %24930 : f32 to vector<64xf32> loc(#loc24)
      %24932 = vector.fma %24678, %24928, %24736 : vector<64xf32> loc(#loc24)
      %24933 = memref.load %94[%177, %24876] : memref<?x?xf32, strided<[?, 1]>> loc(#loc24)
      %24934 = vector.broadcast %24933 : f32 to vector<64xf32> loc(#loc24)
      %24935 = vector.fma %24678, %24931, %24739 : vector<64xf32> loc(#loc24)
      %24936 = memref.load %94[%181, %24876] : memref<?x?xf32, strided<[?, 1]>> loc(#loc24)
      %24937 = vector.broadcast %24936 : f32 to vector<64xf32> loc(#loc24)
      %24938 = vector.fma %24678, %24934, %24742 : vector<64xf32> loc(#loc24)
      %24939 = memref.load %94[%185, %24876] : memref<?x?xf32, strided<[?, 1]>> loc(#loc24)
      %24940 = vector.broadcast %24939 : f32 to vector<64xf32> loc(#loc24)
      %24941 = vector.fma %24678, %24937, %24745 : vector<64xf32> loc(#loc24)
      %24942 = memref.load %94[%189, %24876] : memref<?x?xf32, strided<[?, 1]>> loc(#loc24)
      %24943 = vector.broadcast %24942 : f32 to vector<64xf32> loc(#loc24)
      %24944 = vector.fma %24678, %24940, %24748 : vector<64xf32> loc(#loc24)
      %24945 = memref.load %94[%193, %24876] : memref<?x?xf32, strided<[?, 1]>> loc(#loc24)
      %24946 = vector.broadcast %24945 : f32 to vector<64xf32> loc(#loc24)
      %24947 = vector.fma %24678, %24943, %24751 : vector<64xf32> loc(#loc24)
      %24948 = memref.load %94[%197, %24876] : memref<?x?xf32, strided<[?, 1]>> loc(#loc24)
      %24949 = vector.broadcast %24948 : f32 to vector<64xf32> loc(#loc24)
      %24950 = vector.fma %24678, %24946, %24754 : vector<64xf32> loc(#loc24)
      %24951 = memref.load %94[%201, %24876] : memref<?x?xf32, strided<[?, 1]>> loc(#loc24)
      %24952 = vector.broadcast %24951 : f32 to vector<64xf32> loc(#loc24)
      %24953 = vector.fma %24678, %24949, %24757 : vector<64xf32> loc(#loc24)
      %24954 = memref.load %94[%205, %24876] : memref<?x?xf32, strided<[?, 1]>> loc(#loc24)
      %24955 = vector.broadcast %24954 : f32 to vector<64xf32> loc(#loc24)
      %24956 = vector.fma %24678, %24952, %24760 : vector<64xf32> loc(#loc24)
      %24957 = memref.load %94[%209, %24876] : memref<?x?xf32, strided<[?, 1]>> loc(#loc24)
      %24958 = vector.broadcast %24957 : f32 to vector<64xf32> loc(#loc24)
      %24959 = vector.fma %24678, %24955, %24763 : vector<64xf32> loc(#loc24)
      %24960 = memref.load %94[%213, %24876] : memref<?x?xf32, strided<[?, 1]>> loc(#loc24)
      %24961 = vector.broadcast %24960 : f32 to vector<64xf32> loc(#loc24)
      %24962 = vector.fma %24678, %24958, %24766 : vector<64xf32> loc(#loc24)
      %24963 = memref.load %94[%217, %24876] : memref<?x?xf32, strided<[?, 1]>> loc(#loc24)
      %24964 = vector.broadcast %24963 : f32 to vector<64xf32> loc(#loc24)
      %24965 = vector.fma %24678, %24961, %24769 : vector<64xf32> loc(#loc24)
      %24966 = memref.load %94[%221, %24876] : memref<?x?xf32, strided<[?, 1]>> loc(#loc24)
      %24967 = vector.broadcast %24966 : f32 to vector<64xf32> loc(#loc24)
      %24968 = vector.fma %24678, %24964, %24772 : vector<64xf32> loc(#loc24)
      %24969 = memref.load %94[%225, %24876] : memref<?x?xf32, strided<[?, 1]>> loc(#loc24)
      %24970 = vector.broadcast %24969 : f32 to vector<64xf32> loc(#loc24)
      %24971 = vector.fma %24678, %24967, %24775 : vector<64xf32> loc(#loc24)
      %24972 = memref.load %94[%229, %24876] : memref<?x?xf32, strided<[?, 1]>> loc(#loc24)
      %24973 = vector.broadcast %24972 : f32 to vector<64xf32> loc(#loc24)
      %24974 = vector.fma %24678, %24970, %24778 : vector<64xf32> loc(#loc24)
      %24975 = memref.load %94[%233, %24876] : memref<?x?xf32, strided<[?, 1]>> loc(#loc24)
      %24976 = vector.broadcast %24975 : f32 to vector<64xf32> loc(#loc24)
      %24977 = vector.fma %24678, %24973, %24781 : vector<64xf32> loc(#loc24)
      %24978 = memref.load %94[%237, %24876] : memref<?x?xf32, strided<[?, 1]>> loc(#loc24)
      %24979 = vector.broadcast %24978 : f32 to vector<64xf32> loc(#loc24)
      %24980 = vector.fma %24678, %24976, %24784 : vector<64xf32> loc(#loc24)
      %24981 = memref.load %94[%241, %24876] : memref<?x?xf32, strided<[?, 1]>> loc(#loc24)
      %24982 = vector.broadcast %24981 : f32 to vector<64xf32> loc(#loc24)
      %24983 = vector.fma %24678, %24979, %24787 : vector<64xf32> loc(#loc24)
      %24984 = memref.load %94[%245, %24876] : memref<?x?xf32, strided<[?, 1]>> loc(#loc24)
      %24985 = vector.broadcast %24984 : f32 to vector<64xf32> loc(#loc24)
      %24986 = vector.fma %24678, %24982, %24790 : vector<64xf32> loc(#loc24)
      %24987 = memref.load %94[%249, %24876] : memref<?x?xf32, strided<[?, 1]>> loc(#loc24)
      %24988 = vector.broadcast %24987 : f32 to vector<64xf32> loc(#loc24)
      %24989 = vector.fma %24678, %24985, %24793 : vector<64xf32> loc(#loc24)
      %24990 = memref.load %94[%253, %24876] : memref<?x?xf32, strided<[?, 1]>> loc(#loc24)
      %24991 = vector.broadcast %24990 : f32 to vector<64xf32> loc(#loc24)
      %24992 = vector.fma %24678, %24988, %24796 : vector<64xf32> loc(#loc24)
      %24993 = memref.load %94[%257, %24876] : memref<?x?xf32, strided<[?, 1]>> loc(#loc24)
      %24994 = vector.broadcast %24993 : f32 to vector<64xf32> loc(#loc24)
      %24995 = vector.fma %24678, %24991, %24799 : vector<64xf32> loc(#loc24)
      %24996 = memref.load %94[%261, %24876] : memref<?x?xf32, strided<[?, 1]>> loc(#loc24)
      %24997 = vector.broadcast %24996 : f32 to vector<64xf32> loc(#loc24)
      %24998 = vector.fma %24678, %24994, %24802 : vector<64xf32> loc(#loc24)
      %24999 = memref.load %94[%265, %24876] : memref<?x?xf32, strided<[?, 1]>> loc(#loc24)
      %25000 = vector.broadcast %24999 : f32 to vector<64xf32> loc(#loc24)
      %25001 = vector.fma %24678, %24997, %24805 : vector<64xf32> loc(#loc24)
      %25002 = memref.load %94[%269, %24876] : memref<?x?xf32, strided<[?, 1]>> loc(#loc24)
      %25003 = vector.broadcast %25002 : f32 to vector<64xf32> loc(#loc24)
      %25004 = vector.fma %24678, %25000, %24808 : vector<64xf32> loc(#loc24)
      %25005 = memref.load %94[%273, %24876] : memref<?x?xf32, strided<[?, 1]>> loc(#loc24)
      %25006 = vector.broadcast %25005 : f32 to vector<64xf32> loc(#loc24)
      %25007 = vector.fma %24678, %25003, %24811 : vector<64xf32> loc(#loc24)
      %25008 = memref.load %94[%277, %24876] : memref<?x?xf32, strided<[?, 1]>> loc(#loc24)
      %25009 = vector.broadcast %25008 : f32 to vector<64xf32> loc(#loc24)
      %25010 = vector.fma %24678, %25006, %24814 : vector<64xf32> loc(#loc24)
      %25011 = memref.load %94[%281, %24876] : memref<?x?xf32, strided<[?, 1]>> loc(#loc24)
      %25012 = vector.broadcast %25011 : f32 to vector<64xf32> loc(#loc24)
      %25013 = vector.fma %24678, %25009, %24817 : vector<64xf32> loc(#loc24)
      %25014 = memref.load %94[%285, %24876] : memref<?x?xf32, strided<[?, 1]>> loc(#loc24)
      %25015 = vector.broadcast %25014 : f32 to vector<64xf32> loc(#loc24)
      %25016 = vector.fma %24678, %25012, %24820 : vector<64xf32> loc(#loc24)
      %25017 = memref.load %94[%289, %24876] : memref<?x?xf32, strided<[?, 1]>> loc(#loc24)
      %25018 = vector.broadcast %25017 : f32 to vector<64xf32> loc(#loc24)
      %25019 = vector.fma %24678, %25015, %24823 : vector<64xf32> loc(#loc24)
      %25020 = memref.load %94[%293, %24876] : memref<?x?xf32, strided<[?, 1]>> loc(#loc24)
      %25021 = vector.broadcast %25020 : f32 to vector<64xf32> loc(#loc24)
      %25022 = vector.fma %24678, %25018, %24826 : vector<64xf32> loc(#loc24)
      %25023 = memref.load %94[%297, %24876] : memref<?x?xf32, strided<[?, 1]>> loc(#loc24)
      %25024 = vector.broadcast %25023 : f32 to vector<64xf32> loc(#loc24)
      %25025 = vector.fma %24678, %25021, %24829 : vector<64xf32> loc(#loc24)
      %25026 = memref.load %94[%301, %24876] : memref<?x?xf32, strided<[?, 1]>> loc(#loc24)
      %25027 = vector.broadcast %25026 : f32 to vector<64xf32> loc(#loc24)
      %25028 = vector.fma %24678, %25024, %24832 : vector<64xf32> loc(#loc24)
      %25029 = memref.load %94[%305, %24876] : memref<?x?xf32, strided<[?, 1]>> loc(#loc24)
      %25030 = vector.broadcast %25029 : f32 to vector<64xf32> loc(#loc24)
      %25031 = vector.fma %24678, %25027, %24835 : vector<64xf32> loc(#loc24)
      %25032 = memref.load %94[%309, %24876] : memref<?x?xf32, strided<[?, 1]>> loc(#loc24)
      %25033 = vector.broadcast %25032 : f32 to vector<64xf32> loc(#loc24)
      %25034 = vector.fma %24678, %25030, %24838 : vector<64xf32> loc(#loc24)
      %25035 = memref.load %94[%313, %24876] : memref<?x?xf32, strided<[?, 1]>> loc(#loc24)
      %25036 = vector.broadcast %25035 : f32 to vector<64xf32> loc(#loc24)
      %25037 = vector.fma %24678, %25033, %24841 : vector<64xf32> loc(#loc24)
      %25038 = memref.load %94[%317, %24876] : memref<?x?xf32, strided<[?, 1]>> loc(#loc24)
      %25039 = vector.broadcast %25038 : f32 to vector<64xf32> loc(#loc24)
      %25040 = vector.fma %24678, %25036, %24844 : vector<64xf32> loc(#loc24)
      %25041 = memref.load %94[%321, %24876] : memref<?x?xf32, strided<[?, 1]>> loc(#loc24)
      %25042 = vector.broadcast %25041 : f32 to vector<64xf32> loc(#loc24)
      %25043 = vector.fma %24678, %25039, %24847 : vector<64xf32> loc(#loc24)
      %25044 = memref.load %94[%325, %24876] : memref<?x?xf32, strided<[?, 1]>> loc(#loc24)
      %25045 = vector.broadcast %25044 : f32 to vector<64xf32> loc(#loc24)
      %25046 = vector.fma %24678, %25042, %24850 : vector<64xf32> loc(#loc24)
      %25047 = memref.load %94[%329, %24876] : memref<?x?xf32, strided<[?, 1]>> loc(#loc24)
      %25048 = vector.broadcast %25047 : f32 to vector<64xf32> loc(#loc24)
      %25049 = vector.fma %24678, %25045, %24853 : vector<64xf32> loc(#loc24)
      %25050 = memref.load %94[%333, %24876] : memref<?x?xf32, strided<[?, 1]>> loc(#loc24)
      %25051 = vector.broadcast %25050 : f32 to vector<64xf32> loc(#loc24)
      %25052 = vector.fma %24678, %25048, %24856 : vector<64xf32> loc(#loc24)
      %25053 = memref.load %94[%337, %24876] : memref<?x?xf32, strided<[?, 1]>> loc(#loc24)
      %25054 = vector.broadcast %25053 : f32 to vector<64xf32> loc(#loc24)
      %25055 = vector.fma %24678, %25051, %24859 : vector<64xf32> loc(#loc24)
      %25056 = memref.load %94[%341, %24876] : memref<?x?xf32, strided<[?, 1]>> loc(#loc24)
      %25057 = vector.broadcast %25056 : f32 to vector<64xf32> loc(#loc24)
      %25058 = vector.fma %24678, %25054, %24862 : vector<64xf32> loc(#loc24)
      %25059 = memref.load %94[%345, %24876] : memref<?x?xf32, strided<[?, 1]>> loc(#loc24)
      %25060 = vector.broadcast %25059 : f32 to vector<64xf32> loc(#loc24)
      %25061 = vector.fma %24678, %25057, %24865 : vector<64xf32> loc(#loc24)
      %25062 = memref.load %94[%349, %24876] : memref<?x?xf32, strided<[?, 1]>> loc(#loc24)
      %25063 = vector.broadcast %25062 : f32 to vector<64xf32> loc(#loc24)
      %25064 = vector.fma %24678, %25060, %24868 : vector<64xf32> loc(#loc24)
      %25065 = memref.load %94[%353, %24876] : memref<?x?xf32, strided<[?, 1]>> loc(#loc24)
      %25066 = vector.broadcast %25065 : f32 to vector<64xf32> loc(#loc24)
      %25067 = vector.fma %24678, %25063, %24871 : vector<64xf32> loc(#loc24)
      %25068 = vector.fma %24678, %25066, %24872 : vector<64xf32> loc(#loc24)
      %25069 = arith.addi %97#0, %c255 : index loc(#loc24)
      memref.prefetch %96[%25069, %97#1], read, locality<1>, data : memref<?x?xf32, strided<[?, 1]>> loc(#loc24)
      %25070 = arith.addi %95#1, %c127 : index loc(#loc24)
      %25071 = memref.load %94[%95#0, %25070] : memref<?x?xf32, strided<[?, 1]>> loc(#loc24)
      %25072 = vector.broadcast %25071 : f32 to vector<64xf32> loc(#loc24)
      %25073 = memref.load %94[%105, %25070] : memref<?x?xf32, strided<[?, 1]>> loc(#loc24)
      %25074 = vector.broadcast %25073 : f32 to vector<64xf32> loc(#loc24)
      %25075 = vector.fma %24874, %25072, %24881 : vector<64xf32> loc(#loc24)
      %25076 = memref.load %94[%109, %25070] : memref<?x?xf32, strided<[?, 1]>> loc(#loc24)
      %25077 = vector.broadcast %25076 : f32 to vector<64xf32> loc(#loc24)
      %25078 = vector.fma %24874, %25074, %24884 : vector<64xf32> loc(#loc24)
      %25079 = memref.load %94[%113, %25070] : memref<?x?xf32, strided<[?, 1]>> loc(#loc24)
      %25080 = vector.broadcast %25079 : f32 to vector<64xf32> loc(#loc24)
      %25081 = vector.fma %24874, %25077, %24887 : vector<64xf32> loc(#loc24)
      %25082 = memref.load %94[%117, %25070] : memref<?x?xf32, strided<[?, 1]>> loc(#loc24)
      %25083 = vector.broadcast %25082 : f32 to vector<64xf32> loc(#loc24)
      %25084 = vector.fma %24874, %25080, %24890 : vector<64xf32> loc(#loc24)
      %25085 = memref.load %94[%121, %25070] : memref<?x?xf32, strided<[?, 1]>> loc(#loc24)
      %25086 = vector.broadcast %25085 : f32 to vector<64xf32> loc(#loc24)
      %25087 = vector.fma %24874, %25083, %24893 : vector<64xf32> loc(#loc24)
      %25088 = memref.load %94[%125, %25070] : memref<?x?xf32, strided<[?, 1]>> loc(#loc24)
      %25089 = vector.broadcast %25088 : f32 to vector<64xf32> loc(#loc24)
      %25090 = vector.fma %24874, %25086, %24896 : vector<64xf32> loc(#loc24)
      %25091 = memref.load %94[%129, %25070] : memref<?x?xf32, strided<[?, 1]>> loc(#loc24)
      %25092 = vector.broadcast %25091 : f32 to vector<64xf32> loc(#loc24)
      %25093 = vector.fma %24874, %25089, %24899 : vector<64xf32> loc(#loc24)
      %25094 = memref.load %94[%133, %25070] : memref<?x?xf32, strided<[?, 1]>> loc(#loc24)
      %25095 = vector.broadcast %25094 : f32 to vector<64xf32> loc(#loc24)
      %25096 = vector.fma %24874, %25092, %24902 : vector<64xf32> loc(#loc24)
      %25097 = memref.load %94[%137, %25070] : memref<?x?xf32, strided<[?, 1]>> loc(#loc24)
      %25098 = vector.broadcast %25097 : f32 to vector<64xf32> loc(#loc24)
      %25099 = vector.fma %24874, %25095, %24905 : vector<64xf32> loc(#loc24)
      %25100 = memref.load %94[%141, %25070] : memref<?x?xf32, strided<[?, 1]>> loc(#loc24)
      %25101 = vector.broadcast %25100 : f32 to vector<64xf32> loc(#loc24)
      %25102 = vector.fma %24874, %25098, %24908 : vector<64xf32> loc(#loc24)
      %25103 = memref.load %94[%145, %25070] : memref<?x?xf32, strided<[?, 1]>> loc(#loc24)
      %25104 = vector.broadcast %25103 : f32 to vector<64xf32> loc(#loc24)
      %25105 = vector.fma %24874, %25101, %24911 : vector<64xf32> loc(#loc24)
      %25106 = memref.load %94[%149, %25070] : memref<?x?xf32, strided<[?, 1]>> loc(#loc24)
      %25107 = vector.broadcast %25106 : f32 to vector<64xf32> loc(#loc24)
      %25108 = vector.fma %24874, %25104, %24914 : vector<64xf32> loc(#loc24)
      %25109 = memref.load %94[%153, %25070] : memref<?x?xf32, strided<[?, 1]>> loc(#loc24)
      %25110 = vector.broadcast %25109 : f32 to vector<64xf32> loc(#loc24)
      %25111 = vector.fma %24874, %25107, %24917 : vector<64xf32> loc(#loc24)
      %25112 = memref.load %94[%157, %25070] : memref<?x?xf32, strided<[?, 1]>> loc(#loc24)
      %25113 = vector.broadcast %25112 : f32 to vector<64xf32> loc(#loc24)
      %25114 = vector.fma %24874, %25110, %24920 : vector<64xf32> loc(#loc24)
      %25115 = memref.load %94[%161, %25070] : memref<?x?xf32, strided<[?, 1]>> loc(#loc24)
      %25116 = vector.broadcast %25115 : f32 to vector<64xf32> loc(#loc24)
      %25117 = vector.fma %24874, %25113, %24923 : vector<64xf32> loc(#loc24)
      %25118 = memref.load %94[%165, %25070] : memref<?x?xf32, strided<[?, 1]>> loc(#loc24)
      %25119 = vector.broadcast %25118 : f32 to vector<64xf32> loc(#loc24)
      %25120 = vector.fma %24874, %25116, %24926 : vector<64xf32> loc(#loc24)
      %25121 = memref.load %94[%169, %25070] : memref<?x?xf32, strided<[?, 1]>> loc(#loc24)
      %25122 = vector.broadcast %25121 : f32 to vector<64xf32> loc(#loc24)
      %25123 = vector.fma %24874, %25119, %24929 : vector<64xf32> loc(#loc24)
      %25124 = memref.load %94[%173, %25070] : memref<?x?xf32, strided<[?, 1]>> loc(#loc24)
      %25125 = vector.broadcast %25124 : f32 to vector<64xf32> loc(#loc24)
      %25126 = vector.fma %24874, %25122, %24932 : vector<64xf32> loc(#loc24)
      %25127 = memref.load %94[%177, %25070] : memref<?x?xf32, strided<[?, 1]>> loc(#loc24)
      %25128 = vector.broadcast %25127 : f32 to vector<64xf32> loc(#loc24)
      %25129 = vector.fma %24874, %25125, %24935 : vector<64xf32> loc(#loc24)
      %25130 = memref.load %94[%181, %25070] : memref<?x?xf32, strided<[?, 1]>> loc(#loc24)
      %25131 = vector.broadcast %25130 : f32 to vector<64xf32> loc(#loc24)
      %25132 = vector.fma %24874, %25128, %24938 : vector<64xf32> loc(#loc24)
      %25133 = memref.load %94[%185, %25070] : memref<?x?xf32, strided<[?, 1]>> loc(#loc24)
      %25134 = vector.broadcast %25133 : f32 to vector<64xf32> loc(#loc24)
      %25135 = vector.fma %24874, %25131, %24941 : vector<64xf32> loc(#loc24)
      %25136 = memref.load %94[%189, %25070] : memref<?x?xf32, strided<[?, 1]>> loc(#loc24)
      %25137 = vector.broadcast %25136 : f32 to vector<64xf32> loc(#loc24)
      %25138 = vector.fma %24874, %25134, %24944 : vector<64xf32> loc(#loc24)
      %25139 = memref.load %94[%193, %25070] : memref<?x?xf32, strided<[?, 1]>> loc(#loc24)
      %25140 = vector.broadcast %25139 : f32 to vector<64xf32> loc(#loc24)
      %25141 = vector.fma %24874, %25137, %24947 : vector<64xf32> loc(#loc24)
      %25142 = memref.load %94[%197, %25070] : memref<?x?xf32, strided<[?, 1]>> loc(#loc24)
      %25143 = vector.broadcast %25142 : f32 to vector<64xf32> loc(#loc24)
      %25144 = vector.fma %24874, %25140, %24950 : vector<64xf32> loc(#loc24)
      %25145 = memref.load %94[%201, %25070] : memref<?x?xf32, strided<[?, 1]>> loc(#loc24)
      %25146 = vector.broadcast %25145 : f32 to vector<64xf32> loc(#loc24)
      %25147 = vector.fma %24874, %25143, %24953 : vector<64xf32> loc(#loc24)
      %25148 = memref.load %94[%205, %25070] : memref<?x?xf32, strided<[?, 1]>> loc(#loc24)
      %25149 = vector.broadcast %25148 : f32 to vector<64xf32> loc(#loc24)
      %25150 = vector.fma %24874, %25146, %24956 : vector<64xf32> loc(#loc24)
      %25151 = memref.load %94[%209, %25070] : memref<?x?xf32, strided<[?, 1]>> loc(#loc24)
      %25152 = vector.broadcast %25151 : f32 to vector<64xf32> loc(#loc24)
      %25153 = vector.fma %24874, %25149, %24959 : vector<64xf32> loc(#loc24)
      %25154 = memref.load %94[%213, %25070] : memref<?x?xf32, strided<[?, 1]>> loc(#loc24)
      %25155 = vector.broadcast %25154 : f32 to vector<64xf32> loc(#loc24)
      %25156 = vector.fma %24874, %25152, %24962 : vector<64xf32> loc(#loc24)
      %25157 = memref.load %94[%217, %25070] : memref<?x?xf32, strided<[?, 1]>> loc(#loc24)
      %25158 = vector.broadcast %25157 : f32 to vector<64xf32> loc(#loc24)
      %25159 = vector.fma %24874, %25155, %24965 : vector<64xf32> loc(#loc24)
      %25160 = memref.load %94[%221, %25070] : memref<?x?xf32, strided<[?, 1]>> loc(#loc24)
      %25161 = vector.broadcast %25160 : f32 to vector<64xf32> loc(#loc24)
      %25162 = vector.fma %24874, %25158, %24968 : vector<64xf32> loc(#loc24)
      %25163 = memref.load %94[%225, %25070] : memref<?x?xf32, strided<[?, 1]>> loc(#loc24)
      %25164 = vector.broadcast %25163 : f32 to vector<64xf32> loc(#loc24)
      %25165 = vector.fma %24874, %25161, %24971 : vector<64xf32> loc(#loc24)
      %25166 = memref.load %94[%229, %25070] : memref<?x?xf32, strided<[?, 1]>> loc(#loc24)
      %25167 = vector.broadcast %25166 : f32 to vector<64xf32> loc(#loc24)
      %25168 = vector.fma %24874, %25164, %24974 : vector<64xf32> loc(#loc24)
      %25169 = memref.load %94[%233, %25070] : memref<?x?xf32, strided<[?, 1]>> loc(#loc24)
      %25170 = vector.broadcast %25169 : f32 to vector<64xf32> loc(#loc24)
      %25171 = vector.fma %24874, %25167, %24977 : vector<64xf32> loc(#loc24)
      %25172 = memref.load %94[%237, %25070] : memref<?x?xf32, strided<[?, 1]>> loc(#loc24)
      %25173 = vector.broadcast %25172 : f32 to vector<64xf32> loc(#loc24)
      %25174 = vector.fma %24874, %25170, %24980 : vector<64xf32> loc(#loc24)
      %25175 = memref.load %94[%241, %25070] : memref<?x?xf32, strided<[?, 1]>> loc(#loc24)
      %25176 = vector.broadcast %25175 : f32 to vector<64xf32> loc(#loc24)
      %25177 = vector.fma %24874, %25173, %24983 : vector<64xf32> loc(#loc24)
      %25178 = memref.load %94[%245, %25070] : memref<?x?xf32, strided<[?, 1]>> loc(#loc24)
      %25179 = vector.broadcast %25178 : f32 to vector<64xf32> loc(#loc24)
      %25180 = vector.fma %24874, %25176, %24986 : vector<64xf32> loc(#loc24)
      %25181 = memref.load %94[%249, %25070] : memref<?x?xf32, strided<[?, 1]>> loc(#loc24)
      %25182 = vector.broadcast %25181 : f32 to vector<64xf32> loc(#loc24)
      %25183 = vector.fma %24874, %25179, %24989 : vector<64xf32> loc(#loc24)
      %25184 = memref.load %94[%253, %25070] : memref<?x?xf32, strided<[?, 1]>> loc(#loc24)
      %25185 = vector.broadcast %25184 : f32 to vector<64xf32> loc(#loc24)
      %25186 = vector.fma %24874, %25182, %24992 : vector<64xf32> loc(#loc24)
      %25187 = memref.load %94[%257, %25070] : memref<?x?xf32, strided<[?, 1]>> loc(#loc24)
      %25188 = vector.broadcast %25187 : f32 to vector<64xf32> loc(#loc24)
      %25189 = vector.fma %24874, %25185, %24995 : vector<64xf32> loc(#loc24)
      %25190 = memref.load %94[%261, %25070] : memref<?x?xf32, strided<[?, 1]>> loc(#loc24)
      %25191 = vector.broadcast %25190 : f32 to vector<64xf32> loc(#loc24)
      %25192 = vector.fma %24874, %25188, %24998 : vector<64xf32> loc(#loc24)
      %25193 = memref.load %94[%265, %25070] : memref<?x?xf32, strided<[?, 1]>> loc(#loc24)
      %25194 = vector.broadcast %25193 : f32 to vector<64xf32> loc(#loc24)
      %25195 = vector.fma %24874, %25191, %25001 : vector<64xf32> loc(#loc24)
      %25196 = memref.load %94[%269, %25070] : memref<?x?xf32, strided<[?, 1]>> loc(#loc24)
      %25197 = vector.broadcast %25196 : f32 to vector<64xf32> loc(#loc24)
      %25198 = vector.fma %24874, %25194, %25004 : vector<64xf32> loc(#loc24)
      %25199 = memref.load %94[%273, %25070] : memref<?x?xf32, strided<[?, 1]>> loc(#loc24)
      %25200 = vector.broadcast %25199 : f32 to vector<64xf32> loc(#loc24)
      %25201 = vector.fma %24874, %25197, %25007 : vector<64xf32> loc(#loc24)
      %25202 = memref.load %94[%277, %25070] : memref<?x?xf32, strided<[?, 1]>> loc(#loc24)
      %25203 = vector.broadcast %25202 : f32 to vector<64xf32> loc(#loc24)
      %25204 = vector.fma %24874, %25200, %25010 : vector<64xf32> loc(#loc24)
      %25205 = memref.load %94[%281, %25070] : memref<?x?xf32, strided<[?, 1]>> loc(#loc24)
      %25206 = vector.broadcast %25205 : f32 to vector<64xf32> loc(#loc24)
      %25207 = vector.fma %24874, %25203, %25013 : vector<64xf32> loc(#loc24)
      %25208 = memref.load %94[%285, %25070] : memref<?x?xf32, strided<[?, 1]>> loc(#loc24)
      %25209 = vector.broadcast %25208 : f32 to vector<64xf32> loc(#loc24)
      %25210 = vector.fma %24874, %25206, %25016 : vector<64xf32> loc(#loc24)
      %25211 = memref.load %94[%289, %25070] : memref<?x?xf32, strided<[?, 1]>> loc(#loc24)
      %25212 = vector.broadcast %25211 : f32 to vector<64xf32> loc(#loc24)
      %25213 = vector.fma %24874, %25209, %25019 : vector<64xf32> loc(#loc24)
      %25214 = memref.load %94[%293, %25070] : memref<?x?xf32, strided<[?, 1]>> loc(#loc24)
      %25215 = vector.broadcast %25214 : f32 to vector<64xf32> loc(#loc24)
      %25216 = vector.fma %24874, %25212, %25022 : vector<64xf32> loc(#loc24)
      %25217 = memref.load %94[%297, %25070] : memref<?x?xf32, strided<[?, 1]>> loc(#loc24)
      %25218 = vector.broadcast %25217 : f32 to vector<64xf32> loc(#loc24)
      %25219 = vector.fma %24874, %25215, %25025 : vector<64xf32> loc(#loc24)
      %25220 = memref.load %94[%301, %25070] : memref<?x?xf32, strided<[?, 1]>> loc(#loc24)
      %25221 = vector.broadcast %25220 : f32 to vector<64xf32> loc(#loc24)
      %25222 = vector.fma %24874, %25218, %25028 : vector<64xf32> loc(#loc24)
      %25223 = memref.load %94[%305, %25070] : memref<?x?xf32, strided<[?, 1]>> loc(#loc24)
      %25224 = vector.broadcast %25223 : f32 to vector<64xf32> loc(#loc24)
      %25225 = vector.fma %24874, %25221, %25031 : vector<64xf32> loc(#loc24)
      %25226 = memref.load %94[%309, %25070] : memref<?x?xf32, strided<[?, 1]>> loc(#loc24)
      %25227 = vector.broadcast %25226 : f32 to vector<64xf32> loc(#loc24)
      %25228 = vector.fma %24874, %25224, %25034 : vector<64xf32> loc(#loc24)
      %25229 = memref.load %94[%313, %25070] : memref<?x?xf32, strided<[?, 1]>> loc(#loc24)
      %25230 = vector.broadcast %25229 : f32 to vector<64xf32> loc(#loc24)
      %25231 = vector.fma %24874, %25227, %25037 : vector<64xf32> loc(#loc24)
      %25232 = memref.load %94[%317, %25070] : memref<?x?xf32, strided<[?, 1]>> loc(#loc24)
      %25233 = vector.broadcast %25232 : f32 to vector<64xf32> loc(#loc24)
      %25234 = vector.fma %24874, %25230, %25040 : vector<64xf32> loc(#loc24)
      %25235 = memref.load %94[%321, %25070] : memref<?x?xf32, strided<[?, 1]>> loc(#loc24)
      %25236 = vector.broadcast %25235 : f32 to vector<64xf32> loc(#loc24)
      %25237 = vector.fma %24874, %25233, %25043 : vector<64xf32> loc(#loc24)
      %25238 = memref.load %94[%325, %25070] : memref<?x?xf32, strided<[?, 1]>> loc(#loc24)
      %25239 = vector.broadcast %25238 : f32 to vector<64xf32> loc(#loc24)
      %25240 = vector.fma %24874, %25236, %25046 : vector<64xf32> loc(#loc24)
      %25241 = memref.load %94[%329, %25070] : memref<?x?xf32, strided<[?, 1]>> loc(#loc24)
      %25242 = vector.broadcast %25241 : f32 to vector<64xf32> loc(#loc24)
      %25243 = vector.fma %24874, %25239, %25049 : vector<64xf32> loc(#loc24)
      %25244 = memref.load %94[%333, %25070] : memref<?x?xf32, strided<[?, 1]>> loc(#loc24)
      %25245 = vector.broadcast %25244 : f32 to vector<64xf32> loc(#loc24)
      %25246 = vector.fma %24874, %25242, %25052 : vector<64xf32> loc(#loc24)
      %25247 = memref.load %94[%337, %25070] : memref<?x?xf32, strided<[?, 1]>> loc(#loc24)
      %25248 = vector.broadcast %25247 : f32 to vector<64xf32> loc(#loc24)
      %25249 = vector.fma %24874, %25245, %25055 : vector<64xf32> loc(#loc24)
      %25250 = memref.load %94[%341, %25070] : memref<?x?xf32, strided<[?, 1]>> loc(#loc24)
      %25251 = vector.broadcast %25250 : f32 to vector<64xf32> loc(#loc24)
      %25252 = vector.fma %24874, %25248, %25058 : vector<64xf32> loc(#loc24)
      %25253 = memref.load %94[%345, %25070] : memref<?x?xf32, strided<[?, 1]>> loc(#loc24)
      %25254 = vector.broadcast %25253 : f32 to vector<64xf32> loc(#loc24)
      %25255 = vector.fma %24874, %25251, %25061 : vector<64xf32> loc(#loc24)
      %25256 = memref.load %94[%349, %25070] : memref<?x?xf32, strided<[?, 1]>> loc(#loc24)
      %25257 = vector.broadcast %25256 : f32 to vector<64xf32> loc(#loc24)
      %25258 = vector.fma %24874, %25254, %25064 : vector<64xf32> loc(#loc24)
      %25259 = memref.load %94[%353, %25070] : memref<?x?xf32, strided<[?, 1]>> loc(#loc24)
      %25260 = vector.broadcast %25259 : f32 to vector<64xf32> loc(#loc24)
      %25261 = vector.fma %24874, %25257, %25067 : vector<64xf32> loc(#loc24)
      %25262 = vector.fma %24874, %25260, %25068 : vector<64xf32> loc(#loc24)
      %25263 = tt.advance %arg10, [%c0_i32, %c128_i32] : <tensor<64x128xf32>> loc(#loc25)
      %25264 = tt.advance %arg11, [%c128_i32, %c0_i32] : <tensor<128x64xf32>> loc(#loc26)
      scf.yield %25263, %25264, %25075, %25078, %25081, %25084, %25087, %25090, %25093, %25096, %25099, %25102, %25105, %25108, %25111, %25114, %25117, %25120, %25123, %25126, %25129, %25132, %25135, %25138, %25141, %25144, %25147, %25150, %25153, %25156, %25159, %25162, %25165, %25168, %25171, %25174, %25177, %25180, %25183, %25186, %25189, %25192, %25195, %25198, %25201, %25204, %25207, %25210, %25213, %25216, %25219, %25222, %25225, %25228, %25231, %25234, %25237, %25240, %25243, %25246, %25249, %25252, %25255, %25258, %25261, %25262 : !tt.ptr<tensor<64x128xf32>>, !tt.ptr<tensor<128x64xf32>>, vector<64xf32>, vector<64xf32>, vector<64xf32>, vector<64xf32>, vector<64xf32>, vector<64xf32>, vector<64xf32>, vector<64xf32>, vector<64xf32>, vector<64xf32>, vector<64xf32>, vector<64xf32>, vector<64xf32>, vector<64xf32>, vector<64xf32>, vector<64xf32>, vector<64xf32>, vector<64xf32>, vector<64xf32>, vector<64xf32>, vector<64xf32>, vector<64xf32>, vector<64xf32>, vector<64xf32>, vector<64xf32>, vector<64xf32>, vector<64xf32>, vector<64xf32>, vector<64xf32>, vector<64xf32>, vector<64xf32>, vector<64xf32>, vector<64xf32>, vector<64xf32>, vector<64xf32>, vector<64xf32>, vector<64xf32>, vector<64xf32>, vector<64xf32>, vector<64xf32>, vector<64xf32>, vector<64xf32>, vector<64xf32>, vector<64xf32>, vector<64xf32>, vector<64xf32>, vector<64xf32>, vector<64xf32>, vector<64xf32>, vector<64xf32>, vector<64xf32>, vector<64xf32>, vector<64xf32>, vector<64xf32>, vector<64xf32>, vector<64xf32>, vector<64xf32>, vector<64xf32>, vector<64xf32>, vector<64xf32>, vector<64xf32>, vector<64xf32>, vector<64xf32>, vector<64xf32> loc(#loc27)
    } loc(#loc21)
    %26 = vector.insert %25#2, %cst_0 [0] : vector<64xf32> into vector<64x64xf32> loc(#loc24)
    %27 = vector.insert %25#3, %26 [1] : vector<64xf32> into vector<64x64xf32> loc(#loc24)
    %28 = vector.insert %25#4, %27 [2] : vector<64xf32> into vector<64x64xf32> loc(#loc24)
    %29 = vector.insert %25#5, %28 [3] : vector<64xf32> into vector<64x64xf32> loc(#loc24)
    %30 = vector.insert %25#6, %29 [4] : vector<64xf32> into vector<64x64xf32> loc(#loc24)
    %31 = vector.insert %25#7, %30 [5] : vector<64xf32> into vector<64x64xf32> loc(#loc24)
    %32 = vector.insert %25#8, %31 [6] : vector<64xf32> into vector<64x64xf32> loc(#loc24)
    %33 = vector.insert %25#9, %32 [7] : vector<64xf32> into vector<64x64xf32> loc(#loc24)
    %34 = vector.insert %25#10, %33 [8] : vector<64xf32> into vector<64x64xf32> loc(#loc24)
    %35 = vector.insert %25#11, %34 [9] : vector<64xf32> into vector<64x64xf32> loc(#loc24)
    %36 = vector.insert %25#12, %35 [10] : vector<64xf32> into vector<64x64xf32> loc(#loc24)
    %37 = vector.insert %25#13, %36 [11] : vector<64xf32> into vector<64x64xf32> loc(#loc24)
    %38 = vector.insert %25#14, %37 [12] : vector<64xf32> into vector<64x64xf32> loc(#loc24)
    %39 = vector.insert %25#15, %38 [13] : vector<64xf32> into vector<64x64xf32> loc(#loc24)
    %40 = vector.insert %25#16, %39 [14] : vector<64xf32> into vector<64x64xf32> loc(#loc24)
    %41 = vector.insert %25#17, %40 [15] : vector<64xf32> into vector<64x64xf32> loc(#loc24)
    %42 = vector.insert %25#18, %41 [16] : vector<64xf32> into vector<64x64xf32> loc(#loc24)
    %43 = vector.insert %25#19, %42 [17] : vector<64xf32> into vector<64x64xf32> loc(#loc24)
    %44 = vector.insert %25#20, %43 [18] : vector<64xf32> into vector<64x64xf32> loc(#loc24)
    %45 = vector.insert %25#21, %44 [19] : vector<64xf32> into vector<64x64xf32> loc(#loc24)
    %46 = vector.insert %25#22, %45 [20] : vector<64xf32> into vector<64x64xf32> loc(#loc24)
    %47 = vector.insert %25#23, %46 [21] : vector<64xf32> into vector<64x64xf32> loc(#loc24)
    %48 = vector.insert %25#24, %47 [22] : vector<64xf32> into vector<64x64xf32> loc(#loc24)
    %49 = vector.insert %25#25, %48 [23] : vector<64xf32> into vector<64x64xf32> loc(#loc24)
    %50 = vector.insert %25#26, %49 [24] : vector<64xf32> into vector<64x64xf32> loc(#loc24)
    %51 = vector.insert %25#27, %50 [25] : vector<64xf32> into vector<64x64xf32> loc(#loc24)
    %52 = vector.insert %25#28, %51 [26] : vector<64xf32> into vector<64x64xf32> loc(#loc24)
    %53 = vector.insert %25#29, %52 [27] : vector<64xf32> into vector<64x64xf32> loc(#loc24)
    %54 = vector.insert %25#30, %53 [28] : vector<64xf32> into vector<64x64xf32> loc(#loc24)
    %55 = vector.insert %25#31, %54 [29] : vector<64xf32> into vector<64x64xf32> loc(#loc24)
    %56 = vector.insert %25#32, %55 [30] : vector<64xf32> into vector<64x64xf32> loc(#loc24)
    %57 = vector.insert %25#33, %56 [31] : vector<64xf32> into vector<64x64xf32> loc(#loc24)
    %58 = vector.insert %25#34, %57 [32] : vector<64xf32> into vector<64x64xf32> loc(#loc24)
    %59 = vector.insert %25#35, %58 [33] : vector<64xf32> into vector<64x64xf32> loc(#loc24)
    %60 = vector.insert %25#36, %59 [34] : vector<64xf32> into vector<64x64xf32> loc(#loc24)
    %61 = vector.insert %25#37, %60 [35] : vector<64xf32> into vector<64x64xf32> loc(#loc24)
    %62 = vector.insert %25#38, %61 [36] : vector<64xf32> into vector<64x64xf32> loc(#loc24)
    %63 = vector.insert %25#39, %62 [37] : vector<64xf32> into vector<64x64xf32> loc(#loc24)
    %64 = vector.insert %25#40, %63 [38] : vector<64xf32> into vector<64x64xf32> loc(#loc24)
    %65 = vector.insert %25#41, %64 [39] : vector<64xf32> into vector<64x64xf32> loc(#loc24)
    %66 = vector.insert %25#42, %65 [40] : vector<64xf32> into vector<64x64xf32> loc(#loc24)
    %67 = vector.insert %25#43, %66 [41] : vector<64xf32> into vector<64x64xf32> loc(#loc24)
    %68 = vector.insert %25#44, %67 [42] : vector<64xf32> into vector<64x64xf32> loc(#loc24)
    %69 = vector.insert %25#45, %68 [43] : vector<64xf32> into vector<64x64xf32> loc(#loc24)
    %70 = vector.insert %25#46, %69 [44] : vector<64xf32> into vector<64x64xf32> loc(#loc24)
    %71 = vector.insert %25#47, %70 [45] : vector<64xf32> into vector<64x64xf32> loc(#loc24)
    %72 = vector.insert %25#48, %71 [46] : vector<64xf32> into vector<64x64xf32> loc(#loc24)
    %73 = vector.insert %25#49, %72 [47] : vector<64xf32> into vector<64x64xf32> loc(#loc24)
    %74 = vector.insert %25#50, %73 [48] : vector<64xf32> into vector<64x64xf32> loc(#loc24)
    %75 = vector.insert %25#51, %74 [49] : vector<64xf32> into vector<64x64xf32> loc(#loc24)
    %76 = vector.insert %25#52, %75 [50] : vector<64xf32> into vector<64x64xf32> loc(#loc24)
    %77 = vector.insert %25#53, %76 [51] : vector<64xf32> into vector<64x64xf32> loc(#loc24)
    %78 = vector.insert %25#54, %77 [52] : vector<64xf32> into vector<64x64xf32> loc(#loc24)
    %79 = vector.insert %25#55, %78 [53] : vector<64xf32> into vector<64x64xf32> loc(#loc24)
    %80 = vector.insert %25#56, %79 [54] : vector<64xf32> into vector<64x64xf32> loc(#loc24)
    %81 = vector.insert %25#57, %80 [55] : vector<64xf32> into vector<64x64xf32> loc(#loc24)
    %82 = vector.insert %25#58, %81 [56] : vector<64xf32> into vector<64x64xf32> loc(#loc24)
    %83 = vector.insert %25#59, %82 [57] : vector<64xf32> into vector<64x64xf32> loc(#loc24)
    %84 = vector.insert %25#60, %83 [58] : vector<64xf32> into vector<64x64xf32> loc(#loc24)
    %85 = vector.insert %25#61, %84 [59] : vector<64xf32> into vector<64x64xf32> loc(#loc24)
    %86 = vector.insert %25#62, %85 [60] : vector<64xf32> into vector<64x64xf32> loc(#loc24)
    %87 = vector.insert %25#63, %86 [61] : vector<64xf32> into vector<64x64xf32> loc(#loc24)
    %88 = vector.insert %25#64, %87 [62] : vector<64xf32> into vector<64x64xf32> loc(#loc24)
    %89 = vector.insert %25#65, %88 [63] : vector<64xf32> into vector<64x64xf32> loc(#loc24)
    %90 = arith.extsi %arg8 : i32 to i64 loc(#loc28)
    %91 = tt.make_tensor_ptr %arg2, [%16, %20], [%90, %c1_i64], [%14, %15] {order = array<i32: 1, 0>} : <tensor<64x64xf32>> loc(#loc28)
    %92 = triton_cpu.extract_memref %91 : <tensor<64x64xf32>> -> memref<?x?xf32, strided<[?, 1]>> loc(#loc29)
    %93:2 = triton_cpu.extract_indices %91 : <tensor<64x64xf32>> -> index, index loc(#loc29)
    vector.transfer_write %89, %92[%93#0, %93#1] {in_bounds = [true, true]} : vector<64x64xf32>, memref<?x?xf32, strided<[?, 1]>> loc(#loc29)
    tt.return loc(#loc30)
  } loc(#loc)
} loc(#loc)
#loc1 = loc(unknown)
#loc2 = loc("/home/yuhao/T_RVV/benchmark/src/triton/matmul.py":45:24)
#loc3 = loc("/home/yuhao/triton-cpu/python/triton/language/standard.py":40:22)
#loc4 = loc("/home/yuhao/T_RVV/benchmark/src/triton/matmul.py":46:27)
#loc5 = loc("/home/yuhao/triton-cpu/python/triton/language/standard.py":40:28)
#loc6 = loc("/home/yuhao/T_RVV/benchmark/src/triton/matmul.py":47:27)
#loc7 = loc("/home/yuhao/T_RVV/benchmark/src/triton/matmul.py":48:38)
#loc8 = loc("/home/yuhao/T_RVV/benchmark/src/triton/matmul.py":49:22)
#loc9 = loc("/home/yuhao/T_RVV/benchmark/src/triton/matmul.py":50:29)
#loc10 = loc("/home/yuhao/T_RVV/benchmark/src/triton/matmul.py":51:35)
#loc11 = loc("/home/yuhao/T_RVV/benchmark/src/triton/matmul.py":51:48)
#loc12 = loc("/home/yuhao/T_RVV/benchmark/src/triton/matmul.py":52:33)
#loc13 = loc("/home/yuhao/T_RVV/benchmark/src/triton/matmul.py":52:27)
#loc14 = loc("/home/yuhao/T_RVV/benchmark/src/triton/matmul.py":53:19)
#loc15 = loc("/home/yuhao/T_RVV/benchmark/src/triton/matmul.py":53:40)
#loc16 = loc("/home/yuhao/T_RVV/benchmark/src/triton/matmul.py":63:33)
#loc17 = loc("/home/yuhao/T_RVV/benchmark/src/triton/matmul.py":64:33)
#loc18 = loc("/home/yuhao/T_RVV/benchmark/src/triton/matmul.py":67:39)
#loc19 = loc("/home/yuhao/T_RVV/benchmark/src/triton/matmul.py":70:39)
#loc20 = loc("/home/yuhao/T_RVV/benchmark/src/triton/matmul.py":79:33)
#loc21 = loc("/home/yuhao/T_RVV/benchmark/src/triton/matmul.py":79:22)
#loc22 = loc("/home/yuhao/T_RVV/benchmark/src/triton/matmul.py":83:20)
#loc23 = loc("/home/yuhao/T_RVV/benchmark/src/triton/matmul.py":84:20)
#loc24 = loc("/home/yuhao/T_RVV/benchmark/src/triton/matmul.py":86:35)
#loc25 = loc("/home/yuhao/T_RVV/benchmark/src/triton/matmul.py":89:48)
#loc26 = loc("/home/yuhao/T_RVV/benchmark/src/triton/matmul.py":90:48)
#loc27 = loc("/home/yuhao/T_RVV/benchmark/src/triton/matmul.py":88:8)
#loc28 = loc("/home/yuhao/T_RVV/benchmark/src/triton/matmul.py":102:81)
#loc29 = loc("/home/yuhao/T_RVV/benchmark/src/triton/matmul.py":103:29)
#loc30 = loc("/home/yuhao/T_RVV/benchmark/src/triton/matmul.py":99:4)
#loc31 = loc(callsite(#loc3 at #loc4))
#loc32 = loc(callsite(#loc5 at #loc4))
#loc33 = loc(callsite(#loc3 at #loc6))
#loc34 = loc(callsite(#loc5 at #loc6))
#loc35 = loc(callsite(#loc3 at #loc20))
#loc36 = loc(callsite(#loc5 at #loc20))
