#loc = loc("/home/yuhao/T_RVV/benchmark/src/triton/matmul.py":24:0)
module {
  tt.func public @matmul_kernel(%arg0: !tt.ptr<f32> {tt.divisibility = 16 : i32} loc("/home/yuhao/T_RVV/benchmark/src/triton/matmul.py":24:0), %arg1: !tt.ptr<f32> {tt.divisibility = 16 : i32} loc("/home/yuhao/T_RVV/benchmark/src/triton/matmul.py":24:0), %arg2: !tt.ptr<f32> {tt.divisibility = 16 : i32} loc("/home/yuhao/T_RVV/benchmark/src/triton/matmul.py":24:0), %arg3: i32 {tt.divisibility = 16 : i32} loc("/home/yuhao/T_RVV/benchmark/src/triton/matmul.py":24:0), %arg4: i32 {tt.divisibility = 16 : i32} loc("/home/yuhao/T_RVV/benchmark/src/triton/matmul.py":24:0), %arg5: i32 {tt.divisibility = 16 : i32} loc("/home/yuhao/T_RVV/benchmark/src/triton/matmul.py":24:0), %arg6: i32 {tt.divisibility = 16 : i32} loc("/home/yuhao/T_RVV/benchmark/src/triton/matmul.py":24:0), %arg7: i32 {tt.divisibility = 16 : i32} loc("/home/yuhao/T_RVV/benchmark/src/triton/matmul.py":24:0), %arg8: i32 {tt.divisibility = 16 : i32} loc("/home/yuhao/T_RVV/benchmark/src/triton/matmul.py":24:0)) attributes {noinline = false} {
    %cst = arith.constant dense<0.000000e+00> : vector<64xf32> loc(#loc1)
    %c127 = arith.constant 127 : index loc(#loc1)
    %c126 = arith.constant 126 : index loc(#loc1)
    %c125 = arith.constant 125 : index loc(#loc1)
    %c124 = arith.constant 124 : index loc(#loc1)
    %c123 = arith.constant 123 : index loc(#loc1)
    %c122 = arith.constant 122 : index loc(#loc1)
    %c121 = arith.constant 121 : index loc(#loc1)
    %c120 = arith.constant 120 : index loc(#loc1)
    %c119 = arith.constant 119 : index loc(#loc1)
    %c118 = arith.constant 118 : index loc(#loc1)
    %c117 = arith.constant 117 : index loc(#loc1)
    %c116 = arith.constant 116 : index loc(#loc1)
    %c115 = arith.constant 115 : index loc(#loc1)
    %c114 = arith.constant 114 : index loc(#loc1)
    %c113 = arith.constant 113 : index loc(#loc1)
    %c112 = arith.constant 112 : index loc(#loc1)
    %c111 = arith.constant 111 : index loc(#loc1)
    %c110 = arith.constant 110 : index loc(#loc1)
    %c109 = arith.constant 109 : index loc(#loc1)
    %c108 = arith.constant 108 : index loc(#loc1)
    %c107 = arith.constant 107 : index loc(#loc1)
    %c106 = arith.constant 106 : index loc(#loc1)
    %c105 = arith.constant 105 : index loc(#loc1)
    %c104 = arith.constant 104 : index loc(#loc1)
    %c103 = arith.constant 103 : index loc(#loc1)
    %c102 = arith.constant 102 : index loc(#loc1)
    %c101 = arith.constant 101 : index loc(#loc1)
    %c100 = arith.constant 100 : index loc(#loc1)
    %c99 = arith.constant 99 : index loc(#loc1)
    %c98 = arith.constant 98 : index loc(#loc1)
    %c97 = arith.constant 97 : index loc(#loc1)
    %c96 = arith.constant 96 : index loc(#loc1)
    %c95 = arith.constant 95 : index loc(#loc1)
    %c94 = arith.constant 94 : index loc(#loc1)
    %c93 = arith.constant 93 : index loc(#loc1)
    %c92 = arith.constant 92 : index loc(#loc1)
    %c91 = arith.constant 91 : index loc(#loc1)
    %c90 = arith.constant 90 : index loc(#loc1)
    %c89 = arith.constant 89 : index loc(#loc1)
    %c88 = arith.constant 88 : index loc(#loc1)
    %c87 = arith.constant 87 : index loc(#loc1)
    %c86 = arith.constant 86 : index loc(#loc1)
    %c85 = arith.constant 85 : index loc(#loc1)
    %c84 = arith.constant 84 : index loc(#loc1)
    %c83 = arith.constant 83 : index loc(#loc1)
    %c82 = arith.constant 82 : index loc(#loc1)
    %c81 = arith.constant 81 : index loc(#loc1)
    %c80 = arith.constant 80 : index loc(#loc1)
    %c79 = arith.constant 79 : index loc(#loc1)
    %c78 = arith.constant 78 : index loc(#loc1)
    %c77 = arith.constant 77 : index loc(#loc1)
    %c76 = arith.constant 76 : index loc(#loc1)
    %c75 = arith.constant 75 : index loc(#loc1)
    %c74 = arith.constant 74 : index loc(#loc1)
    %c73 = arith.constant 73 : index loc(#loc1)
    %c72 = arith.constant 72 : index loc(#loc1)
    %c71 = arith.constant 71 : index loc(#loc1)
    %c70 = arith.constant 70 : index loc(#loc1)
    %c69 = arith.constant 69 : index loc(#loc1)
    %c68 = arith.constant 68 : index loc(#loc1)
    %c67 = arith.constant 67 : index loc(#loc1)
    %c66 = arith.constant 66 : index loc(#loc1)
    %c65 = arith.constant 65 : index loc(#loc1)
    %c64 = arith.constant 64 : index loc(#loc1)
    %c63 = arith.constant 63 : index loc(#loc1)
    %c62 = arith.constant 62 : index loc(#loc1)
    %c61 = arith.constant 61 : index loc(#loc1)
    %c60 = arith.constant 60 : index loc(#loc1)
    %c59 = arith.constant 59 : index loc(#loc1)
    %c58 = arith.constant 58 : index loc(#loc1)
    %c57 = arith.constant 57 : index loc(#loc1)
    %c56 = arith.constant 56 : index loc(#loc1)
    %c55 = arith.constant 55 : index loc(#loc1)
    %c54 = arith.constant 54 : index loc(#loc1)
    %c53 = arith.constant 53 : index loc(#loc1)
    %c52 = arith.constant 52 : index loc(#loc1)
    %c51 = arith.constant 51 : index loc(#loc1)
    %c50 = arith.constant 50 : index loc(#loc1)
    %c49 = arith.constant 49 : index loc(#loc1)
    %c48 = arith.constant 48 : index loc(#loc1)
    %c47 = arith.constant 47 : index loc(#loc1)
    %c46 = arith.constant 46 : index loc(#loc1)
    %c45 = arith.constant 45 : index loc(#loc1)
    %c44 = arith.constant 44 : index loc(#loc1)
    %c43 = arith.constant 43 : index loc(#loc1)
    %c42 = arith.constant 42 : index loc(#loc1)
    %c41 = arith.constant 41 : index loc(#loc1)
    %c40 = arith.constant 40 : index loc(#loc1)
    %c39 = arith.constant 39 : index loc(#loc1)
    %c38 = arith.constant 38 : index loc(#loc1)
    %c37 = arith.constant 37 : index loc(#loc1)
    %c36 = arith.constant 36 : index loc(#loc1)
    %c35 = arith.constant 35 : index loc(#loc1)
    %c34 = arith.constant 34 : index loc(#loc1)
    %c33 = arith.constant 33 : index loc(#loc1)
    %c32 = arith.constant 32 : index loc(#loc1)
    %c31 = arith.constant 31 : index loc(#loc1)
    %c30 = arith.constant 30 : index loc(#loc1)
    %c29 = arith.constant 29 : index loc(#loc1)
    %c28 = arith.constant 28 : index loc(#loc1)
    %c27 = arith.constant 27 : index loc(#loc1)
    %c26 = arith.constant 26 : index loc(#loc1)
    %c25 = arith.constant 25 : index loc(#loc1)
    %c24 = arith.constant 24 : index loc(#loc1)
    %c23 = arith.constant 23 : index loc(#loc1)
    %c22 = arith.constant 22 : index loc(#loc1)
    %c21 = arith.constant 21 : index loc(#loc1)
    %c20 = arith.constant 20 : index loc(#loc1)
    %c19 = arith.constant 19 : index loc(#loc1)
    %c18 = arith.constant 18 : index loc(#loc1)
    %c17 = arith.constant 17 : index loc(#loc1)
    %c16 = arith.constant 16 : index loc(#loc1)
    %c15 = arith.constant 15 : index loc(#loc1)
    %c14 = arith.constant 14 : index loc(#loc1)
    %c13 = arith.constant 13 : index loc(#loc1)
    %c12 = arith.constant 12 : index loc(#loc1)
    %c11 = arith.constant 11 : index loc(#loc1)
    %c10 = arith.constant 10 : index loc(#loc1)
    %c9 = arith.constant 9 : index loc(#loc1)
    %c8 = arith.constant 8 : index loc(#loc1)
    %c7 = arith.constant 7 : index loc(#loc1)
    %c6 = arith.constant 6 : index loc(#loc1)
    %c5 = arith.constant 5 : index loc(#loc1)
    %c4 = arith.constant 4 : index loc(#loc1)
    %c3 = arith.constant 3 : index loc(#loc1)
    %c2 = arith.constant 2 : index loc(#loc1)
    %c1 = arith.constant 1 : index loc(#loc1)
    %cst_0 = arith.constant dense<0.000000e+00> : vector<128x64xf32> loc(#loc1)
    %c63_i32 = arith.constant 63 : i32 loc(#loc1)
    %c127_i32 = arith.constant 127 : i32 loc(#loc1)
    %c1_i32 = arith.constant 1 : i32 loc(#loc1)
    %c16_i32 = arith.constant 16 : i32 loc(#loc1)
    %c0_i32 = arith.constant 0 : i32 loc(#loc1)
    %c1_i64 = arith.constant 1 : i64 loc(#loc1)
    %c64_i32 = arith.constant 64 : i32 loc(#loc1)
    %c128_i32 = arith.constant 128 : i32 loc(#loc1)
    %c8_i32 = arith.constant 8 : i32 loc(#loc1)
    %0 = tt.get_program_id x : i32 loc(#loc2)
    %1 = arith.addi %arg3, %c127_i32 : i32 loc(#loc31)
    %2 = arith.divsi %1, %c128_i32 : i32 loc(#loc32)
    %3 = arith.addi %arg4, %c63_i32 : i32 loc(#loc33)
    %4 = arith.divsi %3, %c64_i32 : i32 loc(#loc34)
    %5 = arith.muli %4, %c8_i32 : i32 loc(#loc7)
    %6 = arith.divsi %0, %5 : i32 loc(#loc8)
    %7 = arith.muli %6, %c8_i32 : i32 loc(#loc9)
    %8 = arith.subi %2, %7 : i32 loc(#loc10)
    %9 = arith.minsi %8, %c8_i32 : i32 loc(#loc11)
    %10 = arith.remsi %0, %9 : i32 loc(#loc12)
    %11 = arith.addi %7, %10 : i32 loc(#loc13)
    %12 = arith.remsi %0, %5 : i32 loc(#loc14)
    %13 = arith.divsi %12, %9 : i32 loc(#loc15)
    %14 = arith.muli %11, %c128_i32 : i32 loc(#loc16)
    %15 = arith.muli %13, %c64_i32 : i32 loc(#loc17)
    %16 = arith.extsi %arg3 : i32 to i64 loc(#loc18)
    %17 = arith.extsi %arg5 : i32 to i64 loc(#loc18)
    %18 = arith.extsi %arg6 : i32 to i64 loc(#loc18)
    %19 = tt.make_tensor_ptr %arg0, [%16, %17], [%18, %c1_i64], [%14, %c0_i32] {order = array<i32: 1, 0>} : <tensor<128x16xf32>> loc(#loc18)
    %20 = arith.extsi %arg4 : i32 to i64 loc(#loc19)
    %21 = arith.extsi %arg7 : i32 to i64 loc(#loc19)
    %22 = tt.make_tensor_ptr %arg1, [%17, %20], [%21, %c1_i64], [%c0_i32, %15] {order = array<i32: 1, 0>} : <tensor<16x64xf32>> loc(#loc19)
    %23 = arith.divsi %arg5, %c16_i32 : i32 loc(#loc35)
    %24:130 = scf.for %arg9 = %c0_i32 to %23 step %c1_i32 iter_args(%arg10 = %19, %arg11 = %22, %arg12 = %cst, %arg13 = %cst, %arg14 = %cst, %arg15 = %cst, %arg16 = %cst, %arg17 = %cst, %arg18 = %cst, %arg19 = %cst, %arg20 = %cst, %arg21 = %cst, %arg22 = %cst, %arg23 = %cst, %arg24 = %cst, %arg25 = %cst, %arg26 = %cst, %arg27 = %cst, %arg28 = %cst, %arg29 = %cst, %arg30 = %cst, %arg31 = %cst, %arg32 = %cst, %arg33 = %cst, %arg34 = %cst, %arg35 = %cst, %arg36 = %cst, %arg37 = %cst, %arg38 = %cst, %arg39 = %cst, %arg40 = %cst, %arg41 = %cst, %arg42 = %cst, %arg43 = %cst, %arg44 = %cst, %arg45 = %cst, %arg46 = %cst, %arg47 = %cst, %arg48 = %cst, %arg49 = %cst, %arg50 = %cst, %arg51 = %cst, %arg52 = %cst, %arg53 = %cst, %arg54 = %cst, %arg55 = %cst, %arg56 = %cst, %arg57 = %cst, %arg58 = %cst, %arg59 = %cst, %arg60 = %cst, %arg61 = %cst, %arg62 = %cst, %arg63 = %cst, %arg64 = %cst, %arg65 = %cst, %arg66 = %cst, %arg67 = %cst, %arg68 = %cst, %arg69 = %cst, %arg70 = %cst, %arg71 = %cst, %arg72 = %cst, %arg73 = %cst, %arg74 = %cst, %arg75 = %cst, %arg76 = %cst, %arg77 = %cst, %arg78 = %cst, %arg79 = %cst, %arg80 = %cst, %arg81 = %cst, %arg82 = %cst, %arg83 = %cst, %arg84 = %cst, %arg85 = %cst, %arg86 = %cst, %arg87 = %cst, %arg88 = %cst, %arg89 = %cst, %arg90 = %cst, %arg91 = %cst, %arg92 = %cst, %arg93 = %cst, %arg94 = %cst, %arg95 = %cst, %arg96 = %cst, %arg97 = %cst, %arg98 = %cst, %arg99 = %cst, %arg100 = %cst, %arg101 = %cst, %arg102 = %cst, %arg103 = %cst, %arg104 = %cst, %arg105 = %cst, %arg106 = %cst, %arg107 = %cst, %arg108 = %cst, %arg109 = %cst, %arg110 = %cst, %arg111 = %cst, %arg112 = %cst, %arg113 = %cst, %arg114 = %cst, %arg115 = %cst, %arg116 = %cst, %arg117 = %cst, %arg118 = %cst, %arg119 = %cst, %arg120 = %cst, %arg121 = %cst, %arg122 = %cst, %arg123 = %cst, %arg124 = %cst, %arg125 = %cst, %arg126 = %cst, %arg127 = %cst, %arg128 = %cst, %arg129 = %cst, %arg130 = %cst, %arg131 = %cst, %arg132 = %cst, %arg133 = %cst, %arg134 = %cst, %arg135 = %cst, %arg136 = %cst, %arg137 = %cst, %arg138 = %cst, %arg139 = %cst) -> (!tt.ptr<tensor<128x16xf32>>, !tt.ptr<tensor<16x64xf32>>, vector<64xf32>, vector<64xf32>, vector<64xf32>, vector<64xf32>, vector<64xf32>, vector<64xf32>, vector<64xf32>, vector<64xf32>, vector<64xf32>, vector<64xf32>, vector<64xf32>, vector<64xf32>, vector<64xf32>, vector<64xf32>, vector<64xf32>, vector<64xf32>, vector<64xf32>, vector<64xf32>, vector<64xf32>, vector<64xf32>, vector<64xf32>, vector<64xf32>, vector<64xf32>, vector<64xf32>, vector<64xf32>, vector<64xf32>, vector<64xf32>, vector<64xf32>, vector<64xf32>, vector<64xf32>, vector<64xf32>, vector<64xf32>, vector<64xf32>, vector<64xf32>, vector<64xf32>, vector<64xf32>, vector<64xf32>, vector<64xf32>, vector<64xf32>, vector<64xf32>, vector<64xf32>, vector<64xf32>, vector<64xf32>, vector<64xf32>, vector<64xf32>, vector<64xf32>, vector<64xf32>, vector<64xf32>, vector<64xf32>, vector<64xf32>, vector<64xf32>, vector<64xf32>, vector<64xf32>, vector<64xf32>, vector<64xf32>, vector<64xf32>, vector<64xf32>, vector<64xf32>, vector<64xf32>, vector<64xf32>, vector<64xf32>, vector<64xf32>, vector<64xf32>, vector<64xf32>, vector<64xf32>, vector<64xf32>, vector<64xf32>, vector<64xf32>, vector<64xf32>, vector<64xf32>, vector<64xf32>, vector<64xf32>, vector<64xf32>, vector<64xf32>, vector<64xf32>, vector<64xf32>, vector<64xf32>, vector<64xf32>, vector<64xf32>, vector<64xf32>, vector<64xf32>, vector<64xf32>, vector<64xf32>, vector<64xf32>, vector<64xf32>, vector<64xf32>, vector<64xf32>, vector<64xf32>, vector<64xf32>, vector<64xf32>, vector<64xf32>, vector<64xf32>, vector<64xf32>, vector<64xf32>, vector<64xf32>, vector<64xf32>, vector<64xf32>, vector<64xf32>, vector<64xf32>, vector<64xf32>, vector<64xf32>, vector<64xf32>, vector<64xf32>, vector<64xf32>, vector<64xf32>, vector<64xf32>, vector<64xf32>, vector<64xf32>, vector<64xf32>, vector<64xf32>, vector<64xf32>, vector<64xf32>, vector<64xf32>, vector<64xf32>, vector<64xf32>, vector<64xf32>, vector<64xf32>, vector<64xf32>, vector<64xf32>, vector<64xf32>, vector<64xf32>, vector<64xf32>, vector<64xf32>, vector<64xf32>, vector<64xf32>, vector<64xf32>, vector<64xf32>, vector<64xf32>)  : i32 {
      %157 = triton_cpu.extract_memref %arg10 : <tensor<128x16xf32>> -> memref<?x?xf32, strided<[?, 1]>> loc(#loc22)
      %158:2 = triton_cpu.extract_indices %arg10 : <tensor<128x16xf32>> -> index, index loc(#loc22)
      %159 = triton_cpu.extract_memref %arg11 : <tensor<16x64xf32>> -> memref<?x?xf32, strided<[?, 1]>> loc(#loc23)
      %160:2 = triton_cpu.extract_indices %arg11 : <tensor<16x64xf32>> -> index, index loc(#loc23)
      %161 = arith.addi %158#1, %c16 : index loc(#loc24)
      %162 = arith.addi %160#0, %c16 : index loc(#loc24)
      %163 = vector.load %159[%160#0, %160#1] : memref<?x?xf32, strided<[?, 1]>>, vector<64xf32> loc(#loc24)
      %164 = arith.addi %160#0, %c1 : index loc(#loc24)
      %165 = vector.load %159[%164, %160#1] : memref<?x?xf32, strided<[?, 1]>>, vector<64xf32> loc(#loc24)
      memref.prefetch %159[%162, %160#1], read, locality<1>, data : memref<?x?xf32, strided<[?, 1]>> loc(#loc24)
      %166 = memref.load %157[%158#0, %158#1] : memref<?x?xf32, strided<[?, 1]>> loc(#loc24)
      %167 = vector.broadcast %166 : f32 to vector<64xf32> loc(#loc24)
      %168 = arith.addi %158#0, %c1 : index loc(#loc24)
      %169 = memref.load %157[%168, %158#1] : memref<?x?xf32, strided<[?, 1]>> loc(#loc24)
      %170 = vector.broadcast %169 : f32 to vector<64xf32> loc(#loc24)
      memref.prefetch %157[%158#0, %161], read, locality<3>, data : memref<?x?xf32, strided<[?, 1]>> loc(#loc24)
      %171 = vector.fma %163, %167, %arg12 : vector<64xf32> loc(#loc24)
      %172 = arith.addi %158#0, %c2 : index loc(#loc24)
      %173 = memref.load %157[%172, %158#1] : memref<?x?xf32, strided<[?, 1]>> loc(#loc24)
      %174 = vector.broadcast %173 : f32 to vector<64xf32> loc(#loc24)
      memref.prefetch %157[%168, %161], read, locality<3>, data : memref<?x?xf32, strided<[?, 1]>> loc(#loc24)
      %175 = vector.fma %163, %170, %arg13 : vector<64xf32> loc(#loc24)
      %176 = arith.addi %158#0, %c3 : index loc(#loc24)
      %177 = memref.load %157[%176, %158#1] : memref<?x?xf32, strided<[?, 1]>> loc(#loc24)
      %178 = vector.broadcast %177 : f32 to vector<64xf32> loc(#loc24)
      memref.prefetch %157[%172, %161], read, locality<3>, data : memref<?x?xf32, strided<[?, 1]>> loc(#loc24)
      %179 = vector.fma %163, %174, %arg14 : vector<64xf32> loc(#loc24)
      %180 = arith.addi %158#0, %c4 : index loc(#loc24)
      %181 = memref.load %157[%180, %158#1] : memref<?x?xf32, strided<[?, 1]>> loc(#loc24)
      %182 = vector.broadcast %181 : f32 to vector<64xf32> loc(#loc24)
      memref.prefetch %157[%176, %161], read, locality<3>, data : memref<?x?xf32, strided<[?, 1]>> loc(#loc24)
      %183 = vector.fma %163, %178, %arg15 : vector<64xf32> loc(#loc24)
      %184 = arith.addi %158#0, %c5 : index loc(#loc24)
      %185 = memref.load %157[%184, %158#1] : memref<?x?xf32, strided<[?, 1]>> loc(#loc24)
      %186 = vector.broadcast %185 : f32 to vector<64xf32> loc(#loc24)
      memref.prefetch %157[%180, %161], read, locality<3>, data : memref<?x?xf32, strided<[?, 1]>> loc(#loc24)
      %187 = vector.fma %163, %182, %arg16 : vector<64xf32> loc(#loc24)
      %188 = arith.addi %158#0, %c6 : index loc(#loc24)
      %189 = memref.load %157[%188, %158#1] : memref<?x?xf32, strided<[?, 1]>> loc(#loc24)
      %190 = vector.broadcast %189 : f32 to vector<64xf32> loc(#loc24)
      memref.prefetch %157[%184, %161], read, locality<3>, data : memref<?x?xf32, strided<[?, 1]>> loc(#loc24)
      %191 = vector.fma %163, %186, %arg17 : vector<64xf32> loc(#loc24)
      %192 = arith.addi %158#0, %c7 : index loc(#loc24)
      %193 = memref.load %157[%192, %158#1] : memref<?x?xf32, strided<[?, 1]>> loc(#loc24)
      %194 = vector.broadcast %193 : f32 to vector<64xf32> loc(#loc24)
      memref.prefetch %157[%188, %161], read, locality<3>, data : memref<?x?xf32, strided<[?, 1]>> loc(#loc24)
      %195 = vector.fma %163, %190, %arg18 : vector<64xf32> loc(#loc24)
      %196 = arith.addi %158#0, %c8 : index loc(#loc24)
      %197 = memref.load %157[%196, %158#1] : memref<?x?xf32, strided<[?, 1]>> loc(#loc24)
      %198 = vector.broadcast %197 : f32 to vector<64xf32> loc(#loc24)
      memref.prefetch %157[%192, %161], read, locality<3>, data : memref<?x?xf32, strided<[?, 1]>> loc(#loc24)
      %199 = vector.fma %163, %194, %arg19 : vector<64xf32> loc(#loc24)
      %200 = arith.addi %158#0, %c9 : index loc(#loc24)
      %201 = memref.load %157[%200, %158#1] : memref<?x?xf32, strided<[?, 1]>> loc(#loc24)
      %202 = vector.broadcast %201 : f32 to vector<64xf32> loc(#loc24)
      memref.prefetch %157[%196, %161], read, locality<3>, data : memref<?x?xf32, strided<[?, 1]>> loc(#loc24)
      %203 = vector.fma %163, %198, %arg20 : vector<64xf32> loc(#loc24)
      %204 = arith.addi %158#0, %c10 : index loc(#loc24)
      %205 = memref.load %157[%204, %158#1] : memref<?x?xf32, strided<[?, 1]>> loc(#loc24)
      %206 = vector.broadcast %205 : f32 to vector<64xf32> loc(#loc24)
      memref.prefetch %157[%200, %161], read, locality<3>, data : memref<?x?xf32, strided<[?, 1]>> loc(#loc24)
      %207 = vector.fma %163, %202, %arg21 : vector<64xf32> loc(#loc24)
      %208 = arith.addi %158#0, %c11 : index loc(#loc24)
      %209 = memref.load %157[%208, %158#1] : memref<?x?xf32, strided<[?, 1]>> loc(#loc24)
      %210 = vector.broadcast %209 : f32 to vector<64xf32> loc(#loc24)
      memref.prefetch %157[%204, %161], read, locality<3>, data : memref<?x?xf32, strided<[?, 1]>> loc(#loc24)
      %211 = vector.fma %163, %206, %arg22 : vector<64xf32> loc(#loc24)
      %212 = arith.addi %158#0, %c12 : index loc(#loc24)
      %213 = memref.load %157[%212, %158#1] : memref<?x?xf32, strided<[?, 1]>> loc(#loc24)
      %214 = vector.broadcast %213 : f32 to vector<64xf32> loc(#loc24)
      memref.prefetch %157[%208, %161], read, locality<3>, data : memref<?x?xf32, strided<[?, 1]>> loc(#loc24)
      %215 = vector.fma %163, %210, %arg23 : vector<64xf32> loc(#loc24)
      %216 = arith.addi %158#0, %c13 : index loc(#loc24)
      %217 = memref.load %157[%216, %158#1] : memref<?x?xf32, strided<[?, 1]>> loc(#loc24)
      %218 = vector.broadcast %217 : f32 to vector<64xf32> loc(#loc24)
      memref.prefetch %157[%212, %161], read, locality<3>, data : memref<?x?xf32, strided<[?, 1]>> loc(#loc24)
      %219 = vector.fma %163, %214, %arg24 : vector<64xf32> loc(#loc24)
      %220 = arith.addi %158#0, %c14 : index loc(#loc24)
      %221 = memref.load %157[%220, %158#1] : memref<?x?xf32, strided<[?, 1]>> loc(#loc24)
      %222 = vector.broadcast %221 : f32 to vector<64xf32> loc(#loc24)
      memref.prefetch %157[%216, %161], read, locality<3>, data : memref<?x?xf32, strided<[?, 1]>> loc(#loc24)
      %223 = vector.fma %163, %218, %arg25 : vector<64xf32> loc(#loc24)
      %224 = arith.addi %158#0, %c15 : index loc(#loc24)
      %225 = memref.load %157[%224, %158#1] : memref<?x?xf32, strided<[?, 1]>> loc(#loc24)
      %226 = vector.broadcast %225 : f32 to vector<64xf32> loc(#loc24)
      memref.prefetch %157[%220, %161], read, locality<3>, data : memref<?x?xf32, strided<[?, 1]>> loc(#loc24)
      %227 = vector.fma %163, %222, %arg26 : vector<64xf32> loc(#loc24)
      %228 = arith.addi %158#0, %c16 : index loc(#loc24)
      %229 = memref.load %157[%228, %158#1] : memref<?x?xf32, strided<[?, 1]>> loc(#loc24)
      %230 = vector.broadcast %229 : f32 to vector<64xf32> loc(#loc24)
      memref.prefetch %157[%224, %161], read, locality<3>, data : memref<?x?xf32, strided<[?, 1]>> loc(#loc24)
      %231 = vector.fma %163, %226, %arg27 : vector<64xf32> loc(#loc24)
      %232 = arith.addi %158#0, %c17 : index loc(#loc24)
      %233 = memref.load %157[%232, %158#1] : memref<?x?xf32, strided<[?, 1]>> loc(#loc24)
      %234 = vector.broadcast %233 : f32 to vector<64xf32> loc(#loc24)
      memref.prefetch %157[%228, %161], read, locality<3>, data : memref<?x?xf32, strided<[?, 1]>> loc(#loc24)
      %235 = vector.fma %163, %230, %arg28 : vector<64xf32> loc(#loc24)
      %236 = arith.addi %158#0, %c18 : index loc(#loc24)
      %237 = memref.load %157[%236, %158#1] : memref<?x?xf32, strided<[?, 1]>> loc(#loc24)
      %238 = vector.broadcast %237 : f32 to vector<64xf32> loc(#loc24)
      memref.prefetch %157[%232, %161], read, locality<3>, data : memref<?x?xf32, strided<[?, 1]>> loc(#loc24)
      %239 = vector.fma %163, %234, %arg29 : vector<64xf32> loc(#loc24)
      %240 = arith.addi %158#0, %c19 : index loc(#loc24)
      %241 = memref.load %157[%240, %158#1] : memref<?x?xf32, strided<[?, 1]>> loc(#loc24)
      %242 = vector.broadcast %241 : f32 to vector<64xf32> loc(#loc24)
      memref.prefetch %157[%236, %161], read, locality<3>, data : memref<?x?xf32, strided<[?, 1]>> loc(#loc24)
      %243 = vector.fma %163, %238, %arg30 : vector<64xf32> loc(#loc24)
      %244 = arith.addi %158#0, %c20 : index loc(#loc24)
      %245 = memref.load %157[%244, %158#1] : memref<?x?xf32, strided<[?, 1]>> loc(#loc24)
      %246 = vector.broadcast %245 : f32 to vector<64xf32> loc(#loc24)
      memref.prefetch %157[%240, %161], read, locality<3>, data : memref<?x?xf32, strided<[?, 1]>> loc(#loc24)
      %247 = vector.fma %163, %242, %arg31 : vector<64xf32> loc(#loc24)
      %248 = arith.addi %158#0, %c21 : index loc(#loc24)
      %249 = memref.load %157[%248, %158#1] : memref<?x?xf32, strided<[?, 1]>> loc(#loc24)
      %250 = vector.broadcast %249 : f32 to vector<64xf32> loc(#loc24)
      memref.prefetch %157[%244, %161], read, locality<3>, data : memref<?x?xf32, strided<[?, 1]>> loc(#loc24)
      %251 = vector.fma %163, %246, %arg32 : vector<64xf32> loc(#loc24)
      %252 = arith.addi %158#0, %c22 : index loc(#loc24)
      %253 = memref.load %157[%252, %158#1] : memref<?x?xf32, strided<[?, 1]>> loc(#loc24)
      %254 = vector.broadcast %253 : f32 to vector<64xf32> loc(#loc24)
      memref.prefetch %157[%248, %161], read, locality<3>, data : memref<?x?xf32, strided<[?, 1]>> loc(#loc24)
      %255 = vector.fma %163, %250, %arg33 : vector<64xf32> loc(#loc24)
      %256 = arith.addi %158#0, %c23 : index loc(#loc24)
      %257 = memref.load %157[%256, %158#1] : memref<?x?xf32, strided<[?, 1]>> loc(#loc24)
      %258 = vector.broadcast %257 : f32 to vector<64xf32> loc(#loc24)
      memref.prefetch %157[%252, %161], read, locality<3>, data : memref<?x?xf32, strided<[?, 1]>> loc(#loc24)
      %259 = vector.fma %163, %254, %arg34 : vector<64xf32> loc(#loc24)
      %260 = arith.addi %158#0, %c24 : index loc(#loc24)
      %261 = memref.load %157[%260, %158#1] : memref<?x?xf32, strided<[?, 1]>> loc(#loc24)
      %262 = vector.broadcast %261 : f32 to vector<64xf32> loc(#loc24)
      memref.prefetch %157[%256, %161], read, locality<3>, data : memref<?x?xf32, strided<[?, 1]>> loc(#loc24)
      %263 = vector.fma %163, %258, %arg35 : vector<64xf32> loc(#loc24)
      %264 = arith.addi %158#0, %c25 : index loc(#loc24)
      %265 = memref.load %157[%264, %158#1] : memref<?x?xf32, strided<[?, 1]>> loc(#loc24)
      %266 = vector.broadcast %265 : f32 to vector<64xf32> loc(#loc24)
      memref.prefetch %157[%260, %161], read, locality<3>, data : memref<?x?xf32, strided<[?, 1]>> loc(#loc24)
      %267 = vector.fma %163, %262, %arg36 : vector<64xf32> loc(#loc24)
      %268 = arith.addi %158#0, %c26 : index loc(#loc24)
      %269 = memref.load %157[%268, %158#1] : memref<?x?xf32, strided<[?, 1]>> loc(#loc24)
      %270 = vector.broadcast %269 : f32 to vector<64xf32> loc(#loc24)
      memref.prefetch %157[%264, %161], read, locality<3>, data : memref<?x?xf32, strided<[?, 1]>> loc(#loc24)
      %271 = vector.fma %163, %266, %arg37 : vector<64xf32> loc(#loc24)
      %272 = arith.addi %158#0, %c27 : index loc(#loc24)
      %273 = memref.load %157[%272, %158#1] : memref<?x?xf32, strided<[?, 1]>> loc(#loc24)
      %274 = vector.broadcast %273 : f32 to vector<64xf32> loc(#loc24)
      memref.prefetch %157[%268, %161], read, locality<3>, data : memref<?x?xf32, strided<[?, 1]>> loc(#loc24)
      %275 = vector.fma %163, %270, %arg38 : vector<64xf32> loc(#loc24)
      %276 = arith.addi %158#0, %c28 : index loc(#loc24)
      %277 = memref.load %157[%276, %158#1] : memref<?x?xf32, strided<[?, 1]>> loc(#loc24)
      %278 = vector.broadcast %277 : f32 to vector<64xf32> loc(#loc24)
      memref.prefetch %157[%272, %161], read, locality<3>, data : memref<?x?xf32, strided<[?, 1]>> loc(#loc24)
      %279 = vector.fma %163, %274, %arg39 : vector<64xf32> loc(#loc24)
      %280 = arith.addi %158#0, %c29 : index loc(#loc24)
      %281 = memref.load %157[%280, %158#1] : memref<?x?xf32, strided<[?, 1]>> loc(#loc24)
      %282 = vector.broadcast %281 : f32 to vector<64xf32> loc(#loc24)
      memref.prefetch %157[%276, %161], read, locality<3>, data : memref<?x?xf32, strided<[?, 1]>> loc(#loc24)
      %283 = vector.fma %163, %278, %arg40 : vector<64xf32> loc(#loc24)
      %284 = arith.addi %158#0, %c30 : index loc(#loc24)
      %285 = memref.load %157[%284, %158#1] : memref<?x?xf32, strided<[?, 1]>> loc(#loc24)
      %286 = vector.broadcast %285 : f32 to vector<64xf32> loc(#loc24)
      memref.prefetch %157[%280, %161], read, locality<3>, data : memref<?x?xf32, strided<[?, 1]>> loc(#loc24)
      %287 = vector.fma %163, %282, %arg41 : vector<64xf32> loc(#loc24)
      %288 = arith.addi %158#0, %c31 : index loc(#loc24)
      %289 = memref.load %157[%288, %158#1] : memref<?x?xf32, strided<[?, 1]>> loc(#loc24)
      %290 = vector.broadcast %289 : f32 to vector<64xf32> loc(#loc24)
      memref.prefetch %157[%284, %161], read, locality<3>, data : memref<?x?xf32, strided<[?, 1]>> loc(#loc24)
      %291 = vector.fma %163, %286, %arg42 : vector<64xf32> loc(#loc24)
      %292 = arith.addi %158#0, %c32 : index loc(#loc24)
      %293 = memref.load %157[%292, %158#1] : memref<?x?xf32, strided<[?, 1]>> loc(#loc24)
      %294 = vector.broadcast %293 : f32 to vector<64xf32> loc(#loc24)
      memref.prefetch %157[%288, %161], read, locality<3>, data : memref<?x?xf32, strided<[?, 1]>> loc(#loc24)
      %295 = vector.fma %163, %290, %arg43 : vector<64xf32> loc(#loc24)
      %296 = arith.addi %158#0, %c33 : index loc(#loc24)
      %297 = memref.load %157[%296, %158#1] : memref<?x?xf32, strided<[?, 1]>> loc(#loc24)
      %298 = vector.broadcast %297 : f32 to vector<64xf32> loc(#loc24)
      memref.prefetch %157[%292, %161], read, locality<3>, data : memref<?x?xf32, strided<[?, 1]>> loc(#loc24)
      %299 = vector.fma %163, %294, %arg44 : vector<64xf32> loc(#loc24)
      %300 = arith.addi %158#0, %c34 : index loc(#loc24)
      %301 = memref.load %157[%300, %158#1] : memref<?x?xf32, strided<[?, 1]>> loc(#loc24)
      %302 = vector.broadcast %301 : f32 to vector<64xf32> loc(#loc24)
      memref.prefetch %157[%296, %161], read, locality<3>, data : memref<?x?xf32, strided<[?, 1]>> loc(#loc24)
      %303 = vector.fma %163, %298, %arg45 : vector<64xf32> loc(#loc24)
      %304 = arith.addi %158#0, %c35 : index loc(#loc24)
      %305 = memref.load %157[%304, %158#1] : memref<?x?xf32, strided<[?, 1]>> loc(#loc24)
      %306 = vector.broadcast %305 : f32 to vector<64xf32> loc(#loc24)
      memref.prefetch %157[%300, %161], read, locality<3>, data : memref<?x?xf32, strided<[?, 1]>> loc(#loc24)
      %307 = vector.fma %163, %302, %arg46 : vector<64xf32> loc(#loc24)
      %308 = arith.addi %158#0, %c36 : index loc(#loc24)
      %309 = memref.load %157[%308, %158#1] : memref<?x?xf32, strided<[?, 1]>> loc(#loc24)
      %310 = vector.broadcast %309 : f32 to vector<64xf32> loc(#loc24)
      memref.prefetch %157[%304, %161], read, locality<3>, data : memref<?x?xf32, strided<[?, 1]>> loc(#loc24)
      %311 = vector.fma %163, %306, %arg47 : vector<64xf32> loc(#loc24)
      %312 = arith.addi %158#0, %c37 : index loc(#loc24)
      %313 = memref.load %157[%312, %158#1] : memref<?x?xf32, strided<[?, 1]>> loc(#loc24)
      %314 = vector.broadcast %313 : f32 to vector<64xf32> loc(#loc24)
      memref.prefetch %157[%308, %161], read, locality<3>, data : memref<?x?xf32, strided<[?, 1]>> loc(#loc24)
      %315 = vector.fma %163, %310, %arg48 : vector<64xf32> loc(#loc24)
      %316 = arith.addi %158#0, %c38 : index loc(#loc24)
      %317 = memref.load %157[%316, %158#1] : memref<?x?xf32, strided<[?, 1]>> loc(#loc24)
      %318 = vector.broadcast %317 : f32 to vector<64xf32> loc(#loc24)
      memref.prefetch %157[%312, %161], read, locality<3>, data : memref<?x?xf32, strided<[?, 1]>> loc(#loc24)
      %319 = vector.fma %163, %314, %arg49 : vector<64xf32> loc(#loc24)
      %320 = arith.addi %158#0, %c39 : index loc(#loc24)
      %321 = memref.load %157[%320, %158#1] : memref<?x?xf32, strided<[?, 1]>> loc(#loc24)
      %322 = vector.broadcast %321 : f32 to vector<64xf32> loc(#loc24)
      memref.prefetch %157[%316, %161], read, locality<3>, data : memref<?x?xf32, strided<[?, 1]>> loc(#loc24)
      %323 = vector.fma %163, %318, %arg50 : vector<64xf32> loc(#loc24)
      %324 = arith.addi %158#0, %c40 : index loc(#loc24)
      %325 = memref.load %157[%324, %158#1] : memref<?x?xf32, strided<[?, 1]>> loc(#loc24)
      %326 = vector.broadcast %325 : f32 to vector<64xf32> loc(#loc24)
      memref.prefetch %157[%320, %161], read, locality<3>, data : memref<?x?xf32, strided<[?, 1]>> loc(#loc24)
      %327 = vector.fma %163, %322, %arg51 : vector<64xf32> loc(#loc24)
      %328 = arith.addi %158#0, %c41 : index loc(#loc24)
      %329 = memref.load %157[%328, %158#1] : memref<?x?xf32, strided<[?, 1]>> loc(#loc24)
      %330 = vector.broadcast %329 : f32 to vector<64xf32> loc(#loc24)
      memref.prefetch %157[%324, %161], read, locality<3>, data : memref<?x?xf32, strided<[?, 1]>> loc(#loc24)
      %331 = vector.fma %163, %326, %arg52 : vector<64xf32> loc(#loc24)
      %332 = arith.addi %158#0, %c42 : index loc(#loc24)
      %333 = memref.load %157[%332, %158#1] : memref<?x?xf32, strided<[?, 1]>> loc(#loc24)
      %334 = vector.broadcast %333 : f32 to vector<64xf32> loc(#loc24)
      memref.prefetch %157[%328, %161], read, locality<3>, data : memref<?x?xf32, strided<[?, 1]>> loc(#loc24)
      %335 = vector.fma %163, %330, %arg53 : vector<64xf32> loc(#loc24)
      %336 = arith.addi %158#0, %c43 : index loc(#loc24)
      %337 = memref.load %157[%336, %158#1] : memref<?x?xf32, strided<[?, 1]>> loc(#loc24)
      %338 = vector.broadcast %337 : f32 to vector<64xf32> loc(#loc24)
      memref.prefetch %157[%332, %161], read, locality<3>, data : memref<?x?xf32, strided<[?, 1]>> loc(#loc24)
      %339 = vector.fma %163, %334, %arg54 : vector<64xf32> loc(#loc24)
      %340 = arith.addi %158#0, %c44 : index loc(#loc24)
      %341 = memref.load %157[%340, %158#1] : memref<?x?xf32, strided<[?, 1]>> loc(#loc24)
      %342 = vector.broadcast %341 : f32 to vector<64xf32> loc(#loc24)
      memref.prefetch %157[%336, %161], read, locality<3>, data : memref<?x?xf32, strided<[?, 1]>> loc(#loc24)
      %343 = vector.fma %163, %338, %arg55 : vector<64xf32> loc(#loc24)
      %344 = arith.addi %158#0, %c45 : index loc(#loc24)
      %345 = memref.load %157[%344, %158#1] : memref<?x?xf32, strided<[?, 1]>> loc(#loc24)
      %346 = vector.broadcast %345 : f32 to vector<64xf32> loc(#loc24)
      memref.prefetch %157[%340, %161], read, locality<3>, data : memref<?x?xf32, strided<[?, 1]>> loc(#loc24)
      %347 = vector.fma %163, %342, %arg56 : vector<64xf32> loc(#loc24)
      %348 = arith.addi %158#0, %c46 : index loc(#loc24)
      %349 = memref.load %157[%348, %158#1] : memref<?x?xf32, strided<[?, 1]>> loc(#loc24)
      %350 = vector.broadcast %349 : f32 to vector<64xf32> loc(#loc24)
      memref.prefetch %157[%344, %161], read, locality<3>, data : memref<?x?xf32, strided<[?, 1]>> loc(#loc24)
      %351 = vector.fma %163, %346, %arg57 : vector<64xf32> loc(#loc24)
      %352 = arith.addi %158#0, %c47 : index loc(#loc24)
      %353 = memref.load %157[%352, %158#1] : memref<?x?xf32, strided<[?, 1]>> loc(#loc24)
      %354 = vector.broadcast %353 : f32 to vector<64xf32> loc(#loc24)
      memref.prefetch %157[%348, %161], read, locality<3>, data : memref<?x?xf32, strided<[?, 1]>> loc(#loc24)
      %355 = vector.fma %163, %350, %arg58 : vector<64xf32> loc(#loc24)
      %356 = arith.addi %158#0, %c48 : index loc(#loc24)
      %357 = memref.load %157[%356, %158#1] : memref<?x?xf32, strided<[?, 1]>> loc(#loc24)
      %358 = vector.broadcast %357 : f32 to vector<64xf32> loc(#loc24)
      memref.prefetch %157[%352, %161], read, locality<3>, data : memref<?x?xf32, strided<[?, 1]>> loc(#loc24)
      %359 = vector.fma %163, %354, %arg59 : vector<64xf32> loc(#loc24)
      %360 = arith.addi %158#0, %c49 : index loc(#loc24)
      %361 = memref.load %157[%360, %158#1] : memref<?x?xf32, strided<[?, 1]>> loc(#loc24)
      %362 = vector.broadcast %361 : f32 to vector<64xf32> loc(#loc24)
      memref.prefetch %157[%356, %161], read, locality<3>, data : memref<?x?xf32, strided<[?, 1]>> loc(#loc24)
      %363 = vector.fma %163, %358, %arg60 : vector<64xf32> loc(#loc24)
      %364 = arith.addi %158#0, %c50 : index loc(#loc24)
      %365 = memref.load %157[%364, %158#1] : memref<?x?xf32, strided<[?, 1]>> loc(#loc24)
      %366 = vector.broadcast %365 : f32 to vector<64xf32> loc(#loc24)
      memref.prefetch %157[%360, %161], read, locality<3>, data : memref<?x?xf32, strided<[?, 1]>> loc(#loc24)
      %367 = vector.fma %163, %362, %arg61 : vector<64xf32> loc(#loc24)
      %368 = arith.addi %158#0, %c51 : index loc(#loc24)
      %369 = memref.load %157[%368, %158#1] : memref<?x?xf32, strided<[?, 1]>> loc(#loc24)
      %370 = vector.broadcast %369 : f32 to vector<64xf32> loc(#loc24)
      memref.prefetch %157[%364, %161], read, locality<3>, data : memref<?x?xf32, strided<[?, 1]>> loc(#loc24)
      %371 = vector.fma %163, %366, %arg62 : vector<64xf32> loc(#loc24)
      %372 = arith.addi %158#0, %c52 : index loc(#loc24)
      %373 = memref.load %157[%372, %158#1] : memref<?x?xf32, strided<[?, 1]>> loc(#loc24)
      %374 = vector.broadcast %373 : f32 to vector<64xf32> loc(#loc24)
      memref.prefetch %157[%368, %161], read, locality<3>, data : memref<?x?xf32, strided<[?, 1]>> loc(#loc24)
      %375 = vector.fma %163, %370, %arg63 : vector<64xf32> loc(#loc24)
      %376 = arith.addi %158#0, %c53 : index loc(#loc24)
      %377 = memref.load %157[%376, %158#1] : memref<?x?xf32, strided<[?, 1]>> loc(#loc24)
      %378 = vector.broadcast %377 : f32 to vector<64xf32> loc(#loc24)
      memref.prefetch %157[%372, %161], read, locality<3>, data : memref<?x?xf32, strided<[?, 1]>> loc(#loc24)
      %379 = vector.fma %163, %374, %arg64 : vector<64xf32> loc(#loc24)
      %380 = arith.addi %158#0, %c54 : index loc(#loc24)
      %381 = memref.load %157[%380, %158#1] : memref<?x?xf32, strided<[?, 1]>> loc(#loc24)
      %382 = vector.broadcast %381 : f32 to vector<64xf32> loc(#loc24)
      memref.prefetch %157[%376, %161], read, locality<3>, data : memref<?x?xf32, strided<[?, 1]>> loc(#loc24)
      %383 = vector.fma %163, %378, %arg65 : vector<64xf32> loc(#loc24)
      %384 = arith.addi %158#0, %c55 : index loc(#loc24)
      %385 = memref.load %157[%384, %158#1] : memref<?x?xf32, strided<[?, 1]>> loc(#loc24)
      %386 = vector.broadcast %385 : f32 to vector<64xf32> loc(#loc24)
      memref.prefetch %157[%380, %161], read, locality<3>, data : memref<?x?xf32, strided<[?, 1]>> loc(#loc24)
      %387 = vector.fma %163, %382, %arg66 : vector<64xf32> loc(#loc24)
      %388 = arith.addi %158#0, %c56 : index loc(#loc24)
      %389 = memref.load %157[%388, %158#1] : memref<?x?xf32, strided<[?, 1]>> loc(#loc24)
      %390 = vector.broadcast %389 : f32 to vector<64xf32> loc(#loc24)
      memref.prefetch %157[%384, %161], read, locality<3>, data : memref<?x?xf32, strided<[?, 1]>> loc(#loc24)
      %391 = vector.fma %163, %386, %arg67 : vector<64xf32> loc(#loc24)
      %392 = arith.addi %158#0, %c57 : index loc(#loc24)
      %393 = memref.load %157[%392, %158#1] : memref<?x?xf32, strided<[?, 1]>> loc(#loc24)
      %394 = vector.broadcast %393 : f32 to vector<64xf32> loc(#loc24)
      memref.prefetch %157[%388, %161], read, locality<3>, data : memref<?x?xf32, strided<[?, 1]>> loc(#loc24)
      %395 = vector.fma %163, %390, %arg68 : vector<64xf32> loc(#loc24)
      %396 = arith.addi %158#0, %c58 : index loc(#loc24)
      %397 = memref.load %157[%396, %158#1] : memref<?x?xf32, strided<[?, 1]>> loc(#loc24)
      %398 = vector.broadcast %397 : f32 to vector<64xf32> loc(#loc24)
      memref.prefetch %157[%392, %161], read, locality<3>, data : memref<?x?xf32, strided<[?, 1]>> loc(#loc24)
      %399 = vector.fma %163, %394, %arg69 : vector<64xf32> loc(#loc24)
      %400 = arith.addi %158#0, %c59 : index loc(#loc24)
      %401 = memref.load %157[%400, %158#1] : memref<?x?xf32, strided<[?, 1]>> loc(#loc24)
      %402 = vector.broadcast %401 : f32 to vector<64xf32> loc(#loc24)
      memref.prefetch %157[%396, %161], read, locality<3>, data : memref<?x?xf32, strided<[?, 1]>> loc(#loc24)
      %403 = vector.fma %163, %398, %arg70 : vector<64xf32> loc(#loc24)
      %404 = arith.addi %158#0, %c60 : index loc(#loc24)
      %405 = memref.load %157[%404, %158#1] : memref<?x?xf32, strided<[?, 1]>> loc(#loc24)
      %406 = vector.broadcast %405 : f32 to vector<64xf32> loc(#loc24)
      memref.prefetch %157[%400, %161], read, locality<3>, data : memref<?x?xf32, strided<[?, 1]>> loc(#loc24)
      %407 = vector.fma %163, %402, %arg71 : vector<64xf32> loc(#loc24)
      %408 = arith.addi %158#0, %c61 : index loc(#loc24)
      %409 = memref.load %157[%408, %158#1] : memref<?x?xf32, strided<[?, 1]>> loc(#loc24)
      %410 = vector.broadcast %409 : f32 to vector<64xf32> loc(#loc24)
      memref.prefetch %157[%404, %161], read, locality<3>, data : memref<?x?xf32, strided<[?, 1]>> loc(#loc24)
      %411 = vector.fma %163, %406, %arg72 : vector<64xf32> loc(#loc24)
      %412 = arith.addi %158#0, %c62 : index loc(#loc24)
      %413 = memref.load %157[%412, %158#1] : memref<?x?xf32, strided<[?, 1]>> loc(#loc24)
      %414 = vector.broadcast %413 : f32 to vector<64xf32> loc(#loc24)
      memref.prefetch %157[%408, %161], read, locality<3>, data : memref<?x?xf32, strided<[?, 1]>> loc(#loc24)
      %415 = vector.fma %163, %410, %arg73 : vector<64xf32> loc(#loc24)
      %416 = arith.addi %158#0, %c63 : index loc(#loc24)
      %417 = memref.load %157[%416, %158#1] : memref<?x?xf32, strided<[?, 1]>> loc(#loc24)
      %418 = vector.broadcast %417 : f32 to vector<64xf32> loc(#loc24)
      memref.prefetch %157[%412, %161], read, locality<3>, data : memref<?x?xf32, strided<[?, 1]>> loc(#loc24)
      %419 = vector.fma %163, %414, %arg74 : vector<64xf32> loc(#loc24)
      %420 = arith.addi %158#0, %c64 : index loc(#loc24)
      %421 = memref.load %157[%420, %158#1] : memref<?x?xf32, strided<[?, 1]>> loc(#loc24)
      %422 = vector.broadcast %421 : f32 to vector<64xf32> loc(#loc24)
      memref.prefetch %157[%416, %161], read, locality<3>, data : memref<?x?xf32, strided<[?, 1]>> loc(#loc24)
      %423 = vector.fma %163, %418, %arg75 : vector<64xf32> loc(#loc24)
      %424 = arith.addi %158#0, %c65 : index loc(#loc24)
      %425 = memref.load %157[%424, %158#1] : memref<?x?xf32, strided<[?, 1]>> loc(#loc24)
      %426 = vector.broadcast %425 : f32 to vector<64xf32> loc(#loc24)
      memref.prefetch %157[%420, %161], read, locality<3>, data : memref<?x?xf32, strided<[?, 1]>> loc(#loc24)
      %427 = vector.fma %163, %422, %arg76 : vector<64xf32> loc(#loc24)
      %428 = arith.addi %158#0, %c66 : index loc(#loc24)
      %429 = memref.load %157[%428, %158#1] : memref<?x?xf32, strided<[?, 1]>> loc(#loc24)
      %430 = vector.broadcast %429 : f32 to vector<64xf32> loc(#loc24)
      memref.prefetch %157[%424, %161], read, locality<3>, data : memref<?x?xf32, strided<[?, 1]>> loc(#loc24)
      %431 = vector.fma %163, %426, %arg77 : vector<64xf32> loc(#loc24)
      %432 = arith.addi %158#0, %c67 : index loc(#loc24)
      %433 = memref.load %157[%432, %158#1] : memref<?x?xf32, strided<[?, 1]>> loc(#loc24)
      %434 = vector.broadcast %433 : f32 to vector<64xf32> loc(#loc24)
      memref.prefetch %157[%428, %161], read, locality<3>, data : memref<?x?xf32, strided<[?, 1]>> loc(#loc24)
      %435 = vector.fma %163, %430, %arg78 : vector<64xf32> loc(#loc24)
      %436 = arith.addi %158#0, %c68 : index loc(#loc24)
      %437 = memref.load %157[%436, %158#1] : memref<?x?xf32, strided<[?, 1]>> loc(#loc24)
      %438 = vector.broadcast %437 : f32 to vector<64xf32> loc(#loc24)
      memref.prefetch %157[%432, %161], read, locality<3>, data : memref<?x?xf32, strided<[?, 1]>> loc(#loc24)
      %439 = vector.fma %163, %434, %arg79 : vector<64xf32> loc(#loc24)
      %440 = arith.addi %158#0, %c69 : index loc(#loc24)
      %441 = memref.load %157[%440, %158#1] : memref<?x?xf32, strided<[?, 1]>> loc(#loc24)
      %442 = vector.broadcast %441 : f32 to vector<64xf32> loc(#loc24)
      memref.prefetch %157[%436, %161], read, locality<3>, data : memref<?x?xf32, strided<[?, 1]>> loc(#loc24)
      %443 = vector.fma %163, %438, %arg80 : vector<64xf32> loc(#loc24)
      %444 = arith.addi %158#0, %c70 : index loc(#loc24)
      %445 = memref.load %157[%444, %158#1] : memref<?x?xf32, strided<[?, 1]>> loc(#loc24)
      %446 = vector.broadcast %445 : f32 to vector<64xf32> loc(#loc24)
      memref.prefetch %157[%440, %161], read, locality<3>, data : memref<?x?xf32, strided<[?, 1]>> loc(#loc24)
      %447 = vector.fma %163, %442, %arg81 : vector<64xf32> loc(#loc24)
      %448 = arith.addi %158#0, %c71 : index loc(#loc24)
      %449 = memref.load %157[%448, %158#1] : memref<?x?xf32, strided<[?, 1]>> loc(#loc24)
      %450 = vector.broadcast %449 : f32 to vector<64xf32> loc(#loc24)
      memref.prefetch %157[%444, %161], read, locality<3>, data : memref<?x?xf32, strided<[?, 1]>> loc(#loc24)
      %451 = vector.fma %163, %446, %arg82 : vector<64xf32> loc(#loc24)
      %452 = arith.addi %158#0, %c72 : index loc(#loc24)
      %453 = memref.load %157[%452, %158#1] : memref<?x?xf32, strided<[?, 1]>> loc(#loc24)
      %454 = vector.broadcast %453 : f32 to vector<64xf32> loc(#loc24)
      memref.prefetch %157[%448, %161], read, locality<3>, data : memref<?x?xf32, strided<[?, 1]>> loc(#loc24)
      %455 = vector.fma %163, %450, %arg83 : vector<64xf32> loc(#loc24)
      %456 = arith.addi %158#0, %c73 : index loc(#loc24)
      %457 = memref.load %157[%456, %158#1] : memref<?x?xf32, strided<[?, 1]>> loc(#loc24)
      %458 = vector.broadcast %457 : f32 to vector<64xf32> loc(#loc24)
      memref.prefetch %157[%452, %161], read, locality<3>, data : memref<?x?xf32, strided<[?, 1]>> loc(#loc24)
      %459 = vector.fma %163, %454, %arg84 : vector<64xf32> loc(#loc24)
      %460 = arith.addi %158#0, %c74 : index loc(#loc24)
      %461 = memref.load %157[%460, %158#1] : memref<?x?xf32, strided<[?, 1]>> loc(#loc24)
      %462 = vector.broadcast %461 : f32 to vector<64xf32> loc(#loc24)
      memref.prefetch %157[%456, %161], read, locality<3>, data : memref<?x?xf32, strided<[?, 1]>> loc(#loc24)
      %463 = vector.fma %163, %458, %arg85 : vector<64xf32> loc(#loc24)
      %464 = arith.addi %158#0, %c75 : index loc(#loc24)
      %465 = memref.load %157[%464, %158#1] : memref<?x?xf32, strided<[?, 1]>> loc(#loc24)
      %466 = vector.broadcast %465 : f32 to vector<64xf32> loc(#loc24)
      memref.prefetch %157[%460, %161], read, locality<3>, data : memref<?x?xf32, strided<[?, 1]>> loc(#loc24)
      %467 = vector.fma %163, %462, %arg86 : vector<64xf32> loc(#loc24)
      %468 = arith.addi %158#0, %c76 : index loc(#loc24)
      %469 = memref.load %157[%468, %158#1] : memref<?x?xf32, strided<[?, 1]>> loc(#loc24)
      %470 = vector.broadcast %469 : f32 to vector<64xf32> loc(#loc24)
      memref.prefetch %157[%464, %161], read, locality<3>, data : memref<?x?xf32, strided<[?, 1]>> loc(#loc24)
      %471 = vector.fma %163, %466, %arg87 : vector<64xf32> loc(#loc24)
      %472 = arith.addi %158#0, %c77 : index loc(#loc24)
      %473 = memref.load %157[%472, %158#1] : memref<?x?xf32, strided<[?, 1]>> loc(#loc24)
      %474 = vector.broadcast %473 : f32 to vector<64xf32> loc(#loc24)
      memref.prefetch %157[%468, %161], read, locality<3>, data : memref<?x?xf32, strided<[?, 1]>> loc(#loc24)
      %475 = vector.fma %163, %470, %arg88 : vector<64xf32> loc(#loc24)
      %476 = arith.addi %158#0, %c78 : index loc(#loc24)
      %477 = memref.load %157[%476, %158#1] : memref<?x?xf32, strided<[?, 1]>> loc(#loc24)
      %478 = vector.broadcast %477 : f32 to vector<64xf32> loc(#loc24)
      memref.prefetch %157[%472, %161], read, locality<3>, data : memref<?x?xf32, strided<[?, 1]>> loc(#loc24)
      %479 = vector.fma %163, %474, %arg89 : vector<64xf32> loc(#loc24)
      %480 = arith.addi %158#0, %c79 : index loc(#loc24)
      %481 = memref.load %157[%480, %158#1] : memref<?x?xf32, strided<[?, 1]>> loc(#loc24)
      %482 = vector.broadcast %481 : f32 to vector<64xf32> loc(#loc24)
      memref.prefetch %157[%476, %161], read, locality<3>, data : memref<?x?xf32, strided<[?, 1]>> loc(#loc24)
      %483 = vector.fma %163, %478, %arg90 : vector<64xf32> loc(#loc24)
      %484 = arith.addi %158#0, %c80 : index loc(#loc24)
      %485 = memref.load %157[%484, %158#1] : memref<?x?xf32, strided<[?, 1]>> loc(#loc24)
      %486 = vector.broadcast %485 : f32 to vector<64xf32> loc(#loc24)
      memref.prefetch %157[%480, %161], read, locality<3>, data : memref<?x?xf32, strided<[?, 1]>> loc(#loc24)
      %487 = vector.fma %163, %482, %arg91 : vector<64xf32> loc(#loc24)
      %488 = arith.addi %158#0, %c81 : index loc(#loc24)
      %489 = memref.load %157[%488, %158#1] : memref<?x?xf32, strided<[?, 1]>> loc(#loc24)
      %490 = vector.broadcast %489 : f32 to vector<64xf32> loc(#loc24)
      memref.prefetch %157[%484, %161], read, locality<3>, data : memref<?x?xf32, strided<[?, 1]>> loc(#loc24)
      %491 = vector.fma %163, %486, %arg92 : vector<64xf32> loc(#loc24)
      %492 = arith.addi %158#0, %c82 : index loc(#loc24)
      %493 = memref.load %157[%492, %158#1] : memref<?x?xf32, strided<[?, 1]>> loc(#loc24)
      %494 = vector.broadcast %493 : f32 to vector<64xf32> loc(#loc24)
      memref.prefetch %157[%488, %161], read, locality<3>, data : memref<?x?xf32, strided<[?, 1]>> loc(#loc24)
      %495 = vector.fma %163, %490, %arg93 : vector<64xf32> loc(#loc24)
      %496 = arith.addi %158#0, %c83 : index loc(#loc24)
      %497 = memref.load %157[%496, %158#1] : memref<?x?xf32, strided<[?, 1]>> loc(#loc24)
      %498 = vector.broadcast %497 : f32 to vector<64xf32> loc(#loc24)
      memref.prefetch %157[%492, %161], read, locality<3>, data : memref<?x?xf32, strided<[?, 1]>> loc(#loc24)
      %499 = vector.fma %163, %494, %arg94 : vector<64xf32> loc(#loc24)
      %500 = arith.addi %158#0, %c84 : index loc(#loc24)
      %501 = memref.load %157[%500, %158#1] : memref<?x?xf32, strided<[?, 1]>> loc(#loc24)
      %502 = vector.broadcast %501 : f32 to vector<64xf32> loc(#loc24)
      memref.prefetch %157[%496, %161], read, locality<3>, data : memref<?x?xf32, strided<[?, 1]>> loc(#loc24)
      %503 = vector.fma %163, %498, %arg95 : vector<64xf32> loc(#loc24)
      %504 = arith.addi %158#0, %c85 : index loc(#loc24)
      %505 = memref.load %157[%504, %158#1] : memref<?x?xf32, strided<[?, 1]>> loc(#loc24)
      %506 = vector.broadcast %505 : f32 to vector<64xf32> loc(#loc24)
      memref.prefetch %157[%500, %161], read, locality<3>, data : memref<?x?xf32, strided<[?, 1]>> loc(#loc24)
      %507 = vector.fma %163, %502, %arg96 : vector<64xf32> loc(#loc24)
      %508 = arith.addi %158#0, %c86 : index loc(#loc24)
      %509 = memref.load %157[%508, %158#1] : memref<?x?xf32, strided<[?, 1]>> loc(#loc24)
      %510 = vector.broadcast %509 : f32 to vector<64xf32> loc(#loc24)
      memref.prefetch %157[%504, %161], read, locality<3>, data : memref<?x?xf32, strided<[?, 1]>> loc(#loc24)
      %511 = vector.fma %163, %506, %arg97 : vector<64xf32> loc(#loc24)
      %512 = arith.addi %158#0, %c87 : index loc(#loc24)
      %513 = memref.load %157[%512, %158#1] : memref<?x?xf32, strided<[?, 1]>> loc(#loc24)
      %514 = vector.broadcast %513 : f32 to vector<64xf32> loc(#loc24)
      memref.prefetch %157[%508, %161], read, locality<3>, data : memref<?x?xf32, strided<[?, 1]>> loc(#loc24)
      %515 = vector.fma %163, %510, %arg98 : vector<64xf32> loc(#loc24)
      %516 = arith.addi %158#0, %c88 : index loc(#loc24)
      %517 = memref.load %157[%516, %158#1] : memref<?x?xf32, strided<[?, 1]>> loc(#loc24)
      %518 = vector.broadcast %517 : f32 to vector<64xf32> loc(#loc24)
      memref.prefetch %157[%512, %161], read, locality<3>, data : memref<?x?xf32, strided<[?, 1]>> loc(#loc24)
      %519 = vector.fma %163, %514, %arg99 : vector<64xf32> loc(#loc24)
      %520 = arith.addi %158#0, %c89 : index loc(#loc24)
      %521 = memref.load %157[%520, %158#1] : memref<?x?xf32, strided<[?, 1]>> loc(#loc24)
      %522 = vector.broadcast %521 : f32 to vector<64xf32> loc(#loc24)
      memref.prefetch %157[%516, %161], read, locality<3>, data : memref<?x?xf32, strided<[?, 1]>> loc(#loc24)
      %523 = vector.fma %163, %518, %arg100 : vector<64xf32> loc(#loc24)
      %524 = arith.addi %158#0, %c90 : index loc(#loc24)
      %525 = memref.load %157[%524, %158#1] : memref<?x?xf32, strided<[?, 1]>> loc(#loc24)
      %526 = vector.broadcast %525 : f32 to vector<64xf32> loc(#loc24)
      memref.prefetch %157[%520, %161], read, locality<3>, data : memref<?x?xf32, strided<[?, 1]>> loc(#loc24)
      %527 = vector.fma %163, %522, %arg101 : vector<64xf32> loc(#loc24)
      %528 = arith.addi %158#0, %c91 : index loc(#loc24)
      %529 = memref.load %157[%528, %158#1] : memref<?x?xf32, strided<[?, 1]>> loc(#loc24)
      %530 = vector.broadcast %529 : f32 to vector<64xf32> loc(#loc24)
      memref.prefetch %157[%524, %161], read, locality<3>, data : memref<?x?xf32, strided<[?, 1]>> loc(#loc24)
      %531 = vector.fma %163, %526, %arg102 : vector<64xf32> loc(#loc24)
      %532 = arith.addi %158#0, %c92 : index loc(#loc24)
      %533 = memref.load %157[%532, %158#1] : memref<?x?xf32, strided<[?, 1]>> loc(#loc24)
      %534 = vector.broadcast %533 : f32 to vector<64xf32> loc(#loc24)
      memref.prefetch %157[%528, %161], read, locality<3>, data : memref<?x?xf32, strided<[?, 1]>> loc(#loc24)
      %535 = vector.fma %163, %530, %arg103 : vector<64xf32> loc(#loc24)
      %536 = arith.addi %158#0, %c93 : index loc(#loc24)
      %537 = memref.load %157[%536, %158#1] : memref<?x?xf32, strided<[?, 1]>> loc(#loc24)
      %538 = vector.broadcast %537 : f32 to vector<64xf32> loc(#loc24)
      memref.prefetch %157[%532, %161], read, locality<3>, data : memref<?x?xf32, strided<[?, 1]>> loc(#loc24)
      %539 = vector.fma %163, %534, %arg104 : vector<64xf32> loc(#loc24)
      %540 = arith.addi %158#0, %c94 : index loc(#loc24)
      %541 = memref.load %157[%540, %158#1] : memref<?x?xf32, strided<[?, 1]>> loc(#loc24)
      %542 = vector.broadcast %541 : f32 to vector<64xf32> loc(#loc24)
      memref.prefetch %157[%536, %161], read, locality<3>, data : memref<?x?xf32, strided<[?, 1]>> loc(#loc24)
      %543 = vector.fma %163, %538, %arg105 : vector<64xf32> loc(#loc24)
      %544 = arith.addi %158#0, %c95 : index loc(#loc24)
      %545 = memref.load %157[%544, %158#1] : memref<?x?xf32, strided<[?, 1]>> loc(#loc24)
      %546 = vector.broadcast %545 : f32 to vector<64xf32> loc(#loc24)
      memref.prefetch %157[%540, %161], read, locality<3>, data : memref<?x?xf32, strided<[?, 1]>> loc(#loc24)
      %547 = vector.fma %163, %542, %arg106 : vector<64xf32> loc(#loc24)
      %548 = arith.addi %158#0, %c96 : index loc(#loc24)
      %549 = memref.load %157[%548, %158#1] : memref<?x?xf32, strided<[?, 1]>> loc(#loc24)
      %550 = vector.broadcast %549 : f32 to vector<64xf32> loc(#loc24)
      memref.prefetch %157[%544, %161], read, locality<3>, data : memref<?x?xf32, strided<[?, 1]>> loc(#loc24)
      %551 = vector.fma %163, %546, %arg107 : vector<64xf32> loc(#loc24)
      %552 = arith.addi %158#0, %c97 : index loc(#loc24)
      %553 = memref.load %157[%552, %158#1] : memref<?x?xf32, strided<[?, 1]>> loc(#loc24)
      %554 = vector.broadcast %553 : f32 to vector<64xf32> loc(#loc24)
      memref.prefetch %157[%548, %161], read, locality<3>, data : memref<?x?xf32, strided<[?, 1]>> loc(#loc24)
      %555 = vector.fma %163, %550, %arg108 : vector<64xf32> loc(#loc24)
      %556 = arith.addi %158#0, %c98 : index loc(#loc24)
      %557 = memref.load %157[%556, %158#1] : memref<?x?xf32, strided<[?, 1]>> loc(#loc24)
      %558 = vector.broadcast %557 : f32 to vector<64xf32> loc(#loc24)
      memref.prefetch %157[%552, %161], read, locality<3>, data : memref<?x?xf32, strided<[?, 1]>> loc(#loc24)
      %559 = vector.fma %163, %554, %arg109 : vector<64xf32> loc(#loc24)
      %560 = arith.addi %158#0, %c99 : index loc(#loc24)
      %561 = memref.load %157[%560, %158#1] : memref<?x?xf32, strided<[?, 1]>> loc(#loc24)
      %562 = vector.broadcast %561 : f32 to vector<64xf32> loc(#loc24)
      memref.prefetch %157[%556, %161], read, locality<3>, data : memref<?x?xf32, strided<[?, 1]>> loc(#loc24)
      %563 = vector.fma %163, %558, %arg110 : vector<64xf32> loc(#loc24)
      %564 = arith.addi %158#0, %c100 : index loc(#loc24)
      %565 = memref.load %157[%564, %158#1] : memref<?x?xf32, strided<[?, 1]>> loc(#loc24)
      %566 = vector.broadcast %565 : f32 to vector<64xf32> loc(#loc24)
      memref.prefetch %157[%560, %161], read, locality<3>, data : memref<?x?xf32, strided<[?, 1]>> loc(#loc24)
      %567 = vector.fma %163, %562, %arg111 : vector<64xf32> loc(#loc24)
      %568 = arith.addi %158#0, %c101 : index loc(#loc24)
      %569 = memref.load %157[%568, %158#1] : memref<?x?xf32, strided<[?, 1]>> loc(#loc24)
      %570 = vector.broadcast %569 : f32 to vector<64xf32> loc(#loc24)
      memref.prefetch %157[%564, %161], read, locality<3>, data : memref<?x?xf32, strided<[?, 1]>> loc(#loc24)
      %571 = vector.fma %163, %566, %arg112 : vector<64xf32> loc(#loc24)
      %572 = arith.addi %158#0, %c102 : index loc(#loc24)
      %573 = memref.load %157[%572, %158#1] : memref<?x?xf32, strided<[?, 1]>> loc(#loc24)
      %574 = vector.broadcast %573 : f32 to vector<64xf32> loc(#loc24)
      memref.prefetch %157[%568, %161], read, locality<3>, data : memref<?x?xf32, strided<[?, 1]>> loc(#loc24)
      %575 = vector.fma %163, %570, %arg113 : vector<64xf32> loc(#loc24)
      %576 = arith.addi %158#0, %c103 : index loc(#loc24)
      %577 = memref.load %157[%576, %158#1] : memref<?x?xf32, strided<[?, 1]>> loc(#loc24)
      %578 = vector.broadcast %577 : f32 to vector<64xf32> loc(#loc24)
      memref.prefetch %157[%572, %161], read, locality<3>, data : memref<?x?xf32, strided<[?, 1]>> loc(#loc24)
      %579 = vector.fma %163, %574, %arg114 : vector<64xf32> loc(#loc24)
      %580 = arith.addi %158#0, %c104 : index loc(#loc24)
      %581 = memref.load %157[%580, %158#1] : memref<?x?xf32, strided<[?, 1]>> loc(#loc24)
      %582 = vector.broadcast %581 : f32 to vector<64xf32> loc(#loc24)
      memref.prefetch %157[%576, %161], read, locality<3>, data : memref<?x?xf32, strided<[?, 1]>> loc(#loc24)
      %583 = vector.fma %163, %578, %arg115 : vector<64xf32> loc(#loc24)
      %584 = arith.addi %158#0, %c105 : index loc(#loc24)
      %585 = memref.load %157[%584, %158#1] : memref<?x?xf32, strided<[?, 1]>> loc(#loc24)
      %586 = vector.broadcast %585 : f32 to vector<64xf32> loc(#loc24)
      memref.prefetch %157[%580, %161], read, locality<3>, data : memref<?x?xf32, strided<[?, 1]>> loc(#loc24)
      %587 = vector.fma %163, %582, %arg116 : vector<64xf32> loc(#loc24)
      %588 = arith.addi %158#0, %c106 : index loc(#loc24)
      %589 = memref.load %157[%588, %158#1] : memref<?x?xf32, strided<[?, 1]>> loc(#loc24)
      %590 = vector.broadcast %589 : f32 to vector<64xf32> loc(#loc24)
      memref.prefetch %157[%584, %161], read, locality<3>, data : memref<?x?xf32, strided<[?, 1]>> loc(#loc24)
      %591 = vector.fma %163, %586, %arg117 : vector<64xf32> loc(#loc24)
      %592 = arith.addi %158#0, %c107 : index loc(#loc24)
      %593 = memref.load %157[%592, %158#1] : memref<?x?xf32, strided<[?, 1]>> loc(#loc24)
      %594 = vector.broadcast %593 : f32 to vector<64xf32> loc(#loc24)
      memref.prefetch %157[%588, %161], read, locality<3>, data : memref<?x?xf32, strided<[?, 1]>> loc(#loc24)
      %595 = vector.fma %163, %590, %arg118 : vector<64xf32> loc(#loc24)
      %596 = arith.addi %158#0, %c108 : index loc(#loc24)
      %597 = memref.load %157[%596, %158#1] : memref<?x?xf32, strided<[?, 1]>> loc(#loc24)
      %598 = vector.broadcast %597 : f32 to vector<64xf32> loc(#loc24)
      memref.prefetch %157[%592, %161], read, locality<3>, data : memref<?x?xf32, strided<[?, 1]>> loc(#loc24)
      %599 = vector.fma %163, %594, %arg119 : vector<64xf32> loc(#loc24)
      %600 = arith.addi %158#0, %c109 : index loc(#loc24)
      %601 = memref.load %157[%600, %158#1] : memref<?x?xf32, strided<[?, 1]>> loc(#loc24)
      %602 = vector.broadcast %601 : f32 to vector<64xf32> loc(#loc24)
      memref.prefetch %157[%596, %161], read, locality<3>, data : memref<?x?xf32, strided<[?, 1]>> loc(#loc24)
      %603 = vector.fma %163, %598, %arg120 : vector<64xf32> loc(#loc24)
      %604 = arith.addi %158#0, %c110 : index loc(#loc24)
      %605 = memref.load %157[%604, %158#1] : memref<?x?xf32, strided<[?, 1]>> loc(#loc24)
      %606 = vector.broadcast %605 : f32 to vector<64xf32> loc(#loc24)
      memref.prefetch %157[%600, %161], read, locality<3>, data : memref<?x?xf32, strided<[?, 1]>> loc(#loc24)
      %607 = vector.fma %163, %602, %arg121 : vector<64xf32> loc(#loc24)
      %608 = arith.addi %158#0, %c111 : index loc(#loc24)
      %609 = memref.load %157[%608, %158#1] : memref<?x?xf32, strided<[?, 1]>> loc(#loc24)
      %610 = vector.broadcast %609 : f32 to vector<64xf32> loc(#loc24)
      memref.prefetch %157[%604, %161], read, locality<3>, data : memref<?x?xf32, strided<[?, 1]>> loc(#loc24)
      %611 = vector.fma %163, %606, %arg122 : vector<64xf32> loc(#loc24)
      %612 = arith.addi %158#0, %c112 : index loc(#loc24)
      %613 = memref.load %157[%612, %158#1] : memref<?x?xf32, strided<[?, 1]>> loc(#loc24)
      %614 = vector.broadcast %613 : f32 to vector<64xf32> loc(#loc24)
      memref.prefetch %157[%608, %161], read, locality<3>, data : memref<?x?xf32, strided<[?, 1]>> loc(#loc24)
      %615 = vector.fma %163, %610, %arg123 : vector<64xf32> loc(#loc24)
      %616 = arith.addi %158#0, %c113 : index loc(#loc24)
      %617 = memref.load %157[%616, %158#1] : memref<?x?xf32, strided<[?, 1]>> loc(#loc24)
      %618 = vector.broadcast %617 : f32 to vector<64xf32> loc(#loc24)
      memref.prefetch %157[%612, %161], read, locality<3>, data : memref<?x?xf32, strided<[?, 1]>> loc(#loc24)
      %619 = vector.fma %163, %614, %arg124 : vector<64xf32> loc(#loc24)
      %620 = arith.addi %158#0, %c114 : index loc(#loc24)
      %621 = memref.load %157[%620, %158#1] : memref<?x?xf32, strided<[?, 1]>> loc(#loc24)
      %622 = vector.broadcast %621 : f32 to vector<64xf32> loc(#loc24)
      memref.prefetch %157[%616, %161], read, locality<3>, data : memref<?x?xf32, strided<[?, 1]>> loc(#loc24)
      %623 = vector.fma %163, %618, %arg125 : vector<64xf32> loc(#loc24)
      %624 = arith.addi %158#0, %c115 : index loc(#loc24)
      %625 = memref.load %157[%624, %158#1] : memref<?x?xf32, strided<[?, 1]>> loc(#loc24)
      %626 = vector.broadcast %625 : f32 to vector<64xf32> loc(#loc24)
      memref.prefetch %157[%620, %161], read, locality<3>, data : memref<?x?xf32, strided<[?, 1]>> loc(#loc24)
      %627 = vector.fma %163, %622, %arg126 : vector<64xf32> loc(#loc24)
      %628 = arith.addi %158#0, %c116 : index loc(#loc24)
      %629 = memref.load %157[%628, %158#1] : memref<?x?xf32, strided<[?, 1]>> loc(#loc24)
      %630 = vector.broadcast %629 : f32 to vector<64xf32> loc(#loc24)
      memref.prefetch %157[%624, %161], read, locality<3>, data : memref<?x?xf32, strided<[?, 1]>> loc(#loc24)
      %631 = vector.fma %163, %626, %arg127 : vector<64xf32> loc(#loc24)
      %632 = arith.addi %158#0, %c117 : index loc(#loc24)
      %633 = memref.load %157[%632, %158#1] : memref<?x?xf32, strided<[?, 1]>> loc(#loc24)
      %634 = vector.broadcast %633 : f32 to vector<64xf32> loc(#loc24)
      memref.prefetch %157[%628, %161], read, locality<3>, data : memref<?x?xf32, strided<[?, 1]>> loc(#loc24)
      %635 = vector.fma %163, %630, %arg128 : vector<64xf32> loc(#loc24)
      %636 = arith.addi %158#0, %c118 : index loc(#loc24)
      %637 = memref.load %157[%636, %158#1] : memref<?x?xf32, strided<[?, 1]>> loc(#loc24)
      %638 = vector.broadcast %637 : f32 to vector<64xf32> loc(#loc24)
      memref.prefetch %157[%632, %161], read, locality<3>, data : memref<?x?xf32, strided<[?, 1]>> loc(#loc24)
      %639 = vector.fma %163, %634, %arg129 : vector<64xf32> loc(#loc24)
      %640 = arith.addi %158#0, %c119 : index loc(#loc24)
      %641 = memref.load %157[%640, %158#1] : memref<?x?xf32, strided<[?, 1]>> loc(#loc24)
      %642 = vector.broadcast %641 : f32 to vector<64xf32> loc(#loc24)
      memref.prefetch %157[%636, %161], read, locality<3>, data : memref<?x?xf32, strided<[?, 1]>> loc(#loc24)
      %643 = vector.fma %163, %638, %arg130 : vector<64xf32> loc(#loc24)
      %644 = arith.addi %158#0, %c120 : index loc(#loc24)
      %645 = memref.load %157[%644, %158#1] : memref<?x?xf32, strided<[?, 1]>> loc(#loc24)
      %646 = vector.broadcast %645 : f32 to vector<64xf32> loc(#loc24)
      memref.prefetch %157[%640, %161], read, locality<3>, data : memref<?x?xf32, strided<[?, 1]>> loc(#loc24)
      %647 = vector.fma %163, %642, %arg131 : vector<64xf32> loc(#loc24)
      %648 = arith.addi %158#0, %c121 : index loc(#loc24)
      %649 = memref.load %157[%648, %158#1] : memref<?x?xf32, strided<[?, 1]>> loc(#loc24)
      %650 = vector.broadcast %649 : f32 to vector<64xf32> loc(#loc24)
      memref.prefetch %157[%644, %161], read, locality<3>, data : memref<?x?xf32, strided<[?, 1]>> loc(#loc24)
      %651 = vector.fma %163, %646, %arg132 : vector<64xf32> loc(#loc24)
      %652 = arith.addi %158#0, %c122 : index loc(#loc24)
      %653 = memref.load %157[%652, %158#1] : memref<?x?xf32, strided<[?, 1]>> loc(#loc24)
      %654 = vector.broadcast %653 : f32 to vector<64xf32> loc(#loc24)
      memref.prefetch %157[%648, %161], read, locality<3>, data : memref<?x?xf32, strided<[?, 1]>> loc(#loc24)
      %655 = vector.fma %163, %650, %arg133 : vector<64xf32> loc(#loc24)
      %656 = arith.addi %158#0, %c123 : index loc(#loc24)
      %657 = memref.load %157[%656, %158#1] : memref<?x?xf32, strided<[?, 1]>> loc(#loc24)
      %658 = vector.broadcast %657 : f32 to vector<64xf32> loc(#loc24)
      memref.prefetch %157[%652, %161], read, locality<3>, data : memref<?x?xf32, strided<[?, 1]>> loc(#loc24)
      %659 = vector.fma %163, %654, %arg134 : vector<64xf32> loc(#loc24)
      %660 = arith.addi %158#0, %c124 : index loc(#loc24)
      %661 = memref.load %157[%660, %158#1] : memref<?x?xf32, strided<[?, 1]>> loc(#loc24)
      %662 = vector.broadcast %661 : f32 to vector<64xf32> loc(#loc24)
      memref.prefetch %157[%656, %161], read, locality<3>, data : memref<?x?xf32, strided<[?, 1]>> loc(#loc24)
      %663 = vector.fma %163, %658, %arg135 : vector<64xf32> loc(#loc24)
      %664 = arith.addi %158#0, %c125 : index loc(#loc24)
      %665 = memref.load %157[%664, %158#1] : memref<?x?xf32, strided<[?, 1]>> loc(#loc24)
      %666 = vector.broadcast %665 : f32 to vector<64xf32> loc(#loc24)
      memref.prefetch %157[%660, %161], read, locality<3>, data : memref<?x?xf32, strided<[?, 1]>> loc(#loc24)
      %667 = vector.fma %163, %662, %arg136 : vector<64xf32> loc(#loc24)
      %668 = arith.addi %158#0, %c126 : index loc(#loc24)
      %669 = memref.load %157[%668, %158#1] : memref<?x?xf32, strided<[?, 1]>> loc(#loc24)
      %670 = vector.broadcast %669 : f32 to vector<64xf32> loc(#loc24)
      memref.prefetch %157[%664, %161], read, locality<3>, data : memref<?x?xf32, strided<[?, 1]>> loc(#loc24)
      %671 = vector.fma %163, %666, %arg137 : vector<64xf32> loc(#loc24)
      %672 = arith.addi %158#0, %c127 : index loc(#loc24)
      %673 = memref.load %157[%672, %158#1] : memref<?x?xf32, strided<[?, 1]>> loc(#loc24)
      %674 = vector.broadcast %673 : f32 to vector<64xf32> loc(#loc24)
      memref.prefetch %157[%668, %161], read, locality<3>, data : memref<?x?xf32, strided<[?, 1]>> loc(#loc24)
      %675 = vector.fma %163, %670, %arg138 : vector<64xf32> loc(#loc24)
      memref.prefetch %157[%672, %161], read, locality<3>, data : memref<?x?xf32, strided<[?, 1]>> loc(#loc24)
      %676 = vector.fma %163, %674, %arg139 : vector<64xf32> loc(#loc24)
      %677 = arith.addi %160#0, %c2 : index loc(#loc24)
      %678 = vector.load %159[%677, %160#1] : memref<?x?xf32, strided<[?, 1]>>, vector<64xf32> loc(#loc24)
      %679 = arith.addi %160#0, %c17 : index loc(#loc24)
      memref.prefetch %159[%679, %160#1], read, locality<1>, data : memref<?x?xf32, strided<[?, 1]>> loc(#loc24)
      %680 = arith.addi %158#1, %c1 : index loc(#loc24)
      %681 = memref.load %157[%158#0, %680] : memref<?x?xf32, strided<[?, 1]>> loc(#loc24)
      %682 = vector.broadcast %681 : f32 to vector<64xf32> loc(#loc24)
      %683 = memref.load %157[%168, %680] : memref<?x?xf32, strided<[?, 1]>> loc(#loc24)
      %684 = vector.broadcast %683 : f32 to vector<64xf32> loc(#loc24)
      %685 = vector.fma %165, %682, %171 : vector<64xf32> loc(#loc24)
      %686 = memref.load %157[%172, %680] : memref<?x?xf32, strided<[?, 1]>> loc(#loc24)
      %687 = vector.broadcast %686 : f32 to vector<64xf32> loc(#loc24)
      %688 = vector.fma %165, %684, %175 : vector<64xf32> loc(#loc24)
      %689 = memref.load %157[%176, %680] : memref<?x?xf32, strided<[?, 1]>> loc(#loc24)
      %690 = vector.broadcast %689 : f32 to vector<64xf32> loc(#loc24)
      %691 = vector.fma %165, %687, %179 : vector<64xf32> loc(#loc24)
      %692 = memref.load %157[%180, %680] : memref<?x?xf32, strided<[?, 1]>> loc(#loc24)
      %693 = vector.broadcast %692 : f32 to vector<64xf32> loc(#loc24)
      %694 = vector.fma %165, %690, %183 : vector<64xf32> loc(#loc24)
      %695 = memref.load %157[%184, %680] : memref<?x?xf32, strided<[?, 1]>> loc(#loc24)
      %696 = vector.broadcast %695 : f32 to vector<64xf32> loc(#loc24)
      %697 = vector.fma %165, %693, %187 : vector<64xf32> loc(#loc24)
      %698 = memref.load %157[%188, %680] : memref<?x?xf32, strided<[?, 1]>> loc(#loc24)
      %699 = vector.broadcast %698 : f32 to vector<64xf32> loc(#loc24)
      %700 = vector.fma %165, %696, %191 : vector<64xf32> loc(#loc24)
      %701 = memref.load %157[%192, %680] : memref<?x?xf32, strided<[?, 1]>> loc(#loc24)
      %702 = vector.broadcast %701 : f32 to vector<64xf32> loc(#loc24)
      %703 = vector.fma %165, %699, %195 : vector<64xf32> loc(#loc24)
      %704 = memref.load %157[%196, %680] : memref<?x?xf32, strided<[?, 1]>> loc(#loc24)
      %705 = vector.broadcast %704 : f32 to vector<64xf32> loc(#loc24)
      %706 = vector.fma %165, %702, %199 : vector<64xf32> loc(#loc24)
      %707 = memref.load %157[%200, %680] : memref<?x?xf32, strided<[?, 1]>> loc(#loc24)
      %708 = vector.broadcast %707 : f32 to vector<64xf32> loc(#loc24)
      %709 = vector.fma %165, %705, %203 : vector<64xf32> loc(#loc24)
      %710 = memref.load %157[%204, %680] : memref<?x?xf32, strided<[?, 1]>> loc(#loc24)
      %711 = vector.broadcast %710 : f32 to vector<64xf32> loc(#loc24)
      %712 = vector.fma %165, %708, %207 : vector<64xf32> loc(#loc24)
      %713 = memref.load %157[%208, %680] : memref<?x?xf32, strided<[?, 1]>> loc(#loc24)
      %714 = vector.broadcast %713 : f32 to vector<64xf32> loc(#loc24)
      %715 = vector.fma %165, %711, %211 : vector<64xf32> loc(#loc24)
      %716 = memref.load %157[%212, %680] : memref<?x?xf32, strided<[?, 1]>> loc(#loc24)
      %717 = vector.broadcast %716 : f32 to vector<64xf32> loc(#loc24)
      %718 = vector.fma %165, %714, %215 : vector<64xf32> loc(#loc24)
      %719 = memref.load %157[%216, %680] : memref<?x?xf32, strided<[?, 1]>> loc(#loc24)
      %720 = vector.broadcast %719 : f32 to vector<64xf32> loc(#loc24)
      %721 = vector.fma %165, %717, %219 : vector<64xf32> loc(#loc24)
      %722 = memref.load %157[%220, %680] : memref<?x?xf32, strided<[?, 1]>> loc(#loc24)
      %723 = vector.broadcast %722 : f32 to vector<64xf32> loc(#loc24)
      %724 = vector.fma %165, %720, %223 : vector<64xf32> loc(#loc24)
      %725 = memref.load %157[%224, %680] : memref<?x?xf32, strided<[?, 1]>> loc(#loc24)
      %726 = vector.broadcast %725 : f32 to vector<64xf32> loc(#loc24)
      %727 = vector.fma %165, %723, %227 : vector<64xf32> loc(#loc24)
      %728 = memref.load %157[%228, %680] : memref<?x?xf32, strided<[?, 1]>> loc(#loc24)
      %729 = vector.broadcast %728 : f32 to vector<64xf32> loc(#loc24)
      %730 = vector.fma %165, %726, %231 : vector<64xf32> loc(#loc24)
      %731 = memref.load %157[%232, %680] : memref<?x?xf32, strided<[?, 1]>> loc(#loc24)
      %732 = vector.broadcast %731 : f32 to vector<64xf32> loc(#loc24)
      %733 = vector.fma %165, %729, %235 : vector<64xf32> loc(#loc24)
      %734 = memref.load %157[%236, %680] : memref<?x?xf32, strided<[?, 1]>> loc(#loc24)
      %735 = vector.broadcast %734 : f32 to vector<64xf32> loc(#loc24)
      %736 = vector.fma %165, %732, %239 : vector<64xf32> loc(#loc24)
      %737 = memref.load %157[%240, %680] : memref<?x?xf32, strided<[?, 1]>> loc(#loc24)
      %738 = vector.broadcast %737 : f32 to vector<64xf32> loc(#loc24)
      %739 = vector.fma %165, %735, %243 : vector<64xf32> loc(#loc24)
      %740 = memref.load %157[%244, %680] : memref<?x?xf32, strided<[?, 1]>> loc(#loc24)
      %741 = vector.broadcast %740 : f32 to vector<64xf32> loc(#loc24)
      %742 = vector.fma %165, %738, %247 : vector<64xf32> loc(#loc24)
      %743 = memref.load %157[%248, %680] : memref<?x?xf32, strided<[?, 1]>> loc(#loc24)
      %744 = vector.broadcast %743 : f32 to vector<64xf32> loc(#loc24)
      %745 = vector.fma %165, %741, %251 : vector<64xf32> loc(#loc24)
      %746 = memref.load %157[%252, %680] : memref<?x?xf32, strided<[?, 1]>> loc(#loc24)
      %747 = vector.broadcast %746 : f32 to vector<64xf32> loc(#loc24)
      %748 = vector.fma %165, %744, %255 : vector<64xf32> loc(#loc24)
      %749 = memref.load %157[%256, %680] : memref<?x?xf32, strided<[?, 1]>> loc(#loc24)
      %750 = vector.broadcast %749 : f32 to vector<64xf32> loc(#loc24)
      %751 = vector.fma %165, %747, %259 : vector<64xf32> loc(#loc24)
      %752 = memref.load %157[%260, %680] : memref<?x?xf32, strided<[?, 1]>> loc(#loc24)
      %753 = vector.broadcast %752 : f32 to vector<64xf32> loc(#loc24)
      %754 = vector.fma %165, %750, %263 : vector<64xf32> loc(#loc24)
      %755 = memref.load %157[%264, %680] : memref<?x?xf32, strided<[?, 1]>> loc(#loc24)
      %756 = vector.broadcast %755 : f32 to vector<64xf32> loc(#loc24)
      %757 = vector.fma %165, %753, %267 : vector<64xf32> loc(#loc24)
      %758 = memref.load %157[%268, %680] : memref<?x?xf32, strided<[?, 1]>> loc(#loc24)
      %759 = vector.broadcast %758 : f32 to vector<64xf32> loc(#loc24)
      %760 = vector.fma %165, %756, %271 : vector<64xf32> loc(#loc24)
      %761 = memref.load %157[%272, %680] : memref<?x?xf32, strided<[?, 1]>> loc(#loc24)
      %762 = vector.broadcast %761 : f32 to vector<64xf32> loc(#loc24)
      %763 = vector.fma %165, %759, %275 : vector<64xf32> loc(#loc24)
      %764 = memref.load %157[%276, %680] : memref<?x?xf32, strided<[?, 1]>> loc(#loc24)
      %765 = vector.broadcast %764 : f32 to vector<64xf32> loc(#loc24)
      %766 = vector.fma %165, %762, %279 : vector<64xf32> loc(#loc24)
      %767 = memref.load %157[%280, %680] : memref<?x?xf32, strided<[?, 1]>> loc(#loc24)
      %768 = vector.broadcast %767 : f32 to vector<64xf32> loc(#loc24)
      %769 = vector.fma %165, %765, %283 : vector<64xf32> loc(#loc24)
      %770 = memref.load %157[%284, %680] : memref<?x?xf32, strided<[?, 1]>> loc(#loc24)
      %771 = vector.broadcast %770 : f32 to vector<64xf32> loc(#loc24)
      %772 = vector.fma %165, %768, %287 : vector<64xf32> loc(#loc24)
      %773 = memref.load %157[%288, %680] : memref<?x?xf32, strided<[?, 1]>> loc(#loc24)
      %774 = vector.broadcast %773 : f32 to vector<64xf32> loc(#loc24)
      %775 = vector.fma %165, %771, %291 : vector<64xf32> loc(#loc24)
      %776 = memref.load %157[%292, %680] : memref<?x?xf32, strided<[?, 1]>> loc(#loc24)
      %777 = vector.broadcast %776 : f32 to vector<64xf32> loc(#loc24)
      %778 = vector.fma %165, %774, %295 : vector<64xf32> loc(#loc24)
      %779 = memref.load %157[%296, %680] : memref<?x?xf32, strided<[?, 1]>> loc(#loc24)
      %780 = vector.broadcast %779 : f32 to vector<64xf32> loc(#loc24)
      %781 = vector.fma %165, %777, %299 : vector<64xf32> loc(#loc24)
      %782 = memref.load %157[%300, %680] : memref<?x?xf32, strided<[?, 1]>> loc(#loc24)
      %783 = vector.broadcast %782 : f32 to vector<64xf32> loc(#loc24)
      %784 = vector.fma %165, %780, %303 : vector<64xf32> loc(#loc24)
      %785 = memref.load %157[%304, %680] : memref<?x?xf32, strided<[?, 1]>> loc(#loc24)
      %786 = vector.broadcast %785 : f32 to vector<64xf32> loc(#loc24)
      %787 = vector.fma %165, %783, %307 : vector<64xf32> loc(#loc24)
      %788 = memref.load %157[%308, %680] : memref<?x?xf32, strided<[?, 1]>> loc(#loc24)
      %789 = vector.broadcast %788 : f32 to vector<64xf32> loc(#loc24)
      %790 = vector.fma %165, %786, %311 : vector<64xf32> loc(#loc24)
      %791 = memref.load %157[%312, %680] : memref<?x?xf32, strided<[?, 1]>> loc(#loc24)
      %792 = vector.broadcast %791 : f32 to vector<64xf32> loc(#loc24)
      %793 = vector.fma %165, %789, %315 : vector<64xf32> loc(#loc24)
      %794 = memref.load %157[%316, %680] : memref<?x?xf32, strided<[?, 1]>> loc(#loc24)
      %795 = vector.broadcast %794 : f32 to vector<64xf32> loc(#loc24)
      %796 = vector.fma %165, %792, %319 : vector<64xf32> loc(#loc24)
      %797 = memref.load %157[%320, %680] : memref<?x?xf32, strided<[?, 1]>> loc(#loc24)
      %798 = vector.broadcast %797 : f32 to vector<64xf32> loc(#loc24)
      %799 = vector.fma %165, %795, %323 : vector<64xf32> loc(#loc24)
      %800 = memref.load %157[%324, %680] : memref<?x?xf32, strided<[?, 1]>> loc(#loc24)
      %801 = vector.broadcast %800 : f32 to vector<64xf32> loc(#loc24)
      %802 = vector.fma %165, %798, %327 : vector<64xf32> loc(#loc24)
      %803 = memref.load %157[%328, %680] : memref<?x?xf32, strided<[?, 1]>> loc(#loc24)
      %804 = vector.broadcast %803 : f32 to vector<64xf32> loc(#loc24)
      %805 = vector.fma %165, %801, %331 : vector<64xf32> loc(#loc24)
      %806 = memref.load %157[%332, %680] : memref<?x?xf32, strided<[?, 1]>> loc(#loc24)
      %807 = vector.broadcast %806 : f32 to vector<64xf32> loc(#loc24)
      %808 = vector.fma %165, %804, %335 : vector<64xf32> loc(#loc24)
      %809 = memref.load %157[%336, %680] : memref<?x?xf32, strided<[?, 1]>> loc(#loc24)
      %810 = vector.broadcast %809 : f32 to vector<64xf32> loc(#loc24)
      %811 = vector.fma %165, %807, %339 : vector<64xf32> loc(#loc24)
      %812 = memref.load %157[%340, %680] : memref<?x?xf32, strided<[?, 1]>> loc(#loc24)
      %813 = vector.broadcast %812 : f32 to vector<64xf32> loc(#loc24)
      %814 = vector.fma %165, %810, %343 : vector<64xf32> loc(#loc24)
      %815 = memref.load %157[%344, %680] : memref<?x?xf32, strided<[?, 1]>> loc(#loc24)
      %816 = vector.broadcast %815 : f32 to vector<64xf32> loc(#loc24)
      %817 = vector.fma %165, %813, %347 : vector<64xf32> loc(#loc24)
      %818 = memref.load %157[%348, %680] : memref<?x?xf32, strided<[?, 1]>> loc(#loc24)
      %819 = vector.broadcast %818 : f32 to vector<64xf32> loc(#loc24)
      %820 = vector.fma %165, %816, %351 : vector<64xf32> loc(#loc24)
      %821 = memref.load %157[%352, %680] : memref<?x?xf32, strided<[?, 1]>> loc(#loc24)
      %822 = vector.broadcast %821 : f32 to vector<64xf32> loc(#loc24)
      %823 = vector.fma %165, %819, %355 : vector<64xf32> loc(#loc24)
      %824 = memref.load %157[%356, %680] : memref<?x?xf32, strided<[?, 1]>> loc(#loc24)
      %825 = vector.broadcast %824 : f32 to vector<64xf32> loc(#loc24)
      %826 = vector.fma %165, %822, %359 : vector<64xf32> loc(#loc24)
      %827 = memref.load %157[%360, %680] : memref<?x?xf32, strided<[?, 1]>> loc(#loc24)
      %828 = vector.broadcast %827 : f32 to vector<64xf32> loc(#loc24)
      %829 = vector.fma %165, %825, %363 : vector<64xf32> loc(#loc24)
      %830 = memref.load %157[%364, %680] : memref<?x?xf32, strided<[?, 1]>> loc(#loc24)
      %831 = vector.broadcast %830 : f32 to vector<64xf32> loc(#loc24)
      %832 = vector.fma %165, %828, %367 : vector<64xf32> loc(#loc24)
      %833 = memref.load %157[%368, %680] : memref<?x?xf32, strided<[?, 1]>> loc(#loc24)
      %834 = vector.broadcast %833 : f32 to vector<64xf32> loc(#loc24)
      %835 = vector.fma %165, %831, %371 : vector<64xf32> loc(#loc24)
      %836 = memref.load %157[%372, %680] : memref<?x?xf32, strided<[?, 1]>> loc(#loc24)
      %837 = vector.broadcast %836 : f32 to vector<64xf32> loc(#loc24)
      %838 = vector.fma %165, %834, %375 : vector<64xf32> loc(#loc24)
      %839 = memref.load %157[%376, %680] : memref<?x?xf32, strided<[?, 1]>> loc(#loc24)
      %840 = vector.broadcast %839 : f32 to vector<64xf32> loc(#loc24)
      %841 = vector.fma %165, %837, %379 : vector<64xf32> loc(#loc24)
      %842 = memref.load %157[%380, %680] : memref<?x?xf32, strided<[?, 1]>> loc(#loc24)
      %843 = vector.broadcast %842 : f32 to vector<64xf32> loc(#loc24)
      %844 = vector.fma %165, %840, %383 : vector<64xf32> loc(#loc24)
      %845 = memref.load %157[%384, %680] : memref<?x?xf32, strided<[?, 1]>> loc(#loc24)
      %846 = vector.broadcast %845 : f32 to vector<64xf32> loc(#loc24)
      %847 = vector.fma %165, %843, %387 : vector<64xf32> loc(#loc24)
      %848 = memref.load %157[%388, %680] : memref<?x?xf32, strided<[?, 1]>> loc(#loc24)
      %849 = vector.broadcast %848 : f32 to vector<64xf32> loc(#loc24)
      %850 = vector.fma %165, %846, %391 : vector<64xf32> loc(#loc24)
      %851 = memref.load %157[%392, %680] : memref<?x?xf32, strided<[?, 1]>> loc(#loc24)
      %852 = vector.broadcast %851 : f32 to vector<64xf32> loc(#loc24)
      %853 = vector.fma %165, %849, %395 : vector<64xf32> loc(#loc24)
      %854 = memref.load %157[%396, %680] : memref<?x?xf32, strided<[?, 1]>> loc(#loc24)
      %855 = vector.broadcast %854 : f32 to vector<64xf32> loc(#loc24)
      %856 = vector.fma %165, %852, %399 : vector<64xf32> loc(#loc24)
      %857 = memref.load %157[%400, %680] : memref<?x?xf32, strided<[?, 1]>> loc(#loc24)
      %858 = vector.broadcast %857 : f32 to vector<64xf32> loc(#loc24)
      %859 = vector.fma %165, %855, %403 : vector<64xf32> loc(#loc24)
      %860 = memref.load %157[%404, %680] : memref<?x?xf32, strided<[?, 1]>> loc(#loc24)
      %861 = vector.broadcast %860 : f32 to vector<64xf32> loc(#loc24)
      %862 = vector.fma %165, %858, %407 : vector<64xf32> loc(#loc24)
      %863 = memref.load %157[%408, %680] : memref<?x?xf32, strided<[?, 1]>> loc(#loc24)
      %864 = vector.broadcast %863 : f32 to vector<64xf32> loc(#loc24)
      %865 = vector.fma %165, %861, %411 : vector<64xf32> loc(#loc24)
      %866 = memref.load %157[%412, %680] : memref<?x?xf32, strided<[?, 1]>> loc(#loc24)
      %867 = vector.broadcast %866 : f32 to vector<64xf32> loc(#loc24)
      %868 = vector.fma %165, %864, %415 : vector<64xf32> loc(#loc24)
      %869 = memref.load %157[%416, %680] : memref<?x?xf32, strided<[?, 1]>> loc(#loc24)
      %870 = vector.broadcast %869 : f32 to vector<64xf32> loc(#loc24)
      %871 = vector.fma %165, %867, %419 : vector<64xf32> loc(#loc24)
      %872 = memref.load %157[%420, %680] : memref<?x?xf32, strided<[?, 1]>> loc(#loc24)
      %873 = vector.broadcast %872 : f32 to vector<64xf32> loc(#loc24)
      %874 = vector.fma %165, %870, %423 : vector<64xf32> loc(#loc24)
      %875 = memref.load %157[%424, %680] : memref<?x?xf32, strided<[?, 1]>> loc(#loc24)
      %876 = vector.broadcast %875 : f32 to vector<64xf32> loc(#loc24)
      %877 = vector.fma %165, %873, %427 : vector<64xf32> loc(#loc24)
      %878 = memref.load %157[%428, %680] : memref<?x?xf32, strided<[?, 1]>> loc(#loc24)
      %879 = vector.broadcast %878 : f32 to vector<64xf32> loc(#loc24)
      %880 = vector.fma %165, %876, %431 : vector<64xf32> loc(#loc24)
      %881 = memref.load %157[%432, %680] : memref<?x?xf32, strided<[?, 1]>> loc(#loc24)
      %882 = vector.broadcast %881 : f32 to vector<64xf32> loc(#loc24)
      %883 = vector.fma %165, %879, %435 : vector<64xf32> loc(#loc24)
      %884 = memref.load %157[%436, %680] : memref<?x?xf32, strided<[?, 1]>> loc(#loc24)
      %885 = vector.broadcast %884 : f32 to vector<64xf32> loc(#loc24)
      %886 = vector.fma %165, %882, %439 : vector<64xf32> loc(#loc24)
      %887 = memref.load %157[%440, %680] : memref<?x?xf32, strided<[?, 1]>> loc(#loc24)
      %888 = vector.broadcast %887 : f32 to vector<64xf32> loc(#loc24)
      %889 = vector.fma %165, %885, %443 : vector<64xf32> loc(#loc24)
      %890 = memref.load %157[%444, %680] : memref<?x?xf32, strided<[?, 1]>> loc(#loc24)
      %891 = vector.broadcast %890 : f32 to vector<64xf32> loc(#loc24)
      %892 = vector.fma %165, %888, %447 : vector<64xf32> loc(#loc24)
      %893 = memref.load %157[%448, %680] : memref<?x?xf32, strided<[?, 1]>> loc(#loc24)
      %894 = vector.broadcast %893 : f32 to vector<64xf32> loc(#loc24)
      %895 = vector.fma %165, %891, %451 : vector<64xf32> loc(#loc24)
      %896 = memref.load %157[%452, %680] : memref<?x?xf32, strided<[?, 1]>> loc(#loc24)
      %897 = vector.broadcast %896 : f32 to vector<64xf32> loc(#loc24)
      %898 = vector.fma %165, %894, %455 : vector<64xf32> loc(#loc24)
      %899 = memref.load %157[%456, %680] : memref<?x?xf32, strided<[?, 1]>> loc(#loc24)
      %900 = vector.broadcast %899 : f32 to vector<64xf32> loc(#loc24)
      %901 = vector.fma %165, %897, %459 : vector<64xf32> loc(#loc24)
      %902 = memref.load %157[%460, %680] : memref<?x?xf32, strided<[?, 1]>> loc(#loc24)
      %903 = vector.broadcast %902 : f32 to vector<64xf32> loc(#loc24)
      %904 = vector.fma %165, %900, %463 : vector<64xf32> loc(#loc24)
      %905 = memref.load %157[%464, %680] : memref<?x?xf32, strided<[?, 1]>> loc(#loc24)
      %906 = vector.broadcast %905 : f32 to vector<64xf32> loc(#loc24)
      %907 = vector.fma %165, %903, %467 : vector<64xf32> loc(#loc24)
      %908 = memref.load %157[%468, %680] : memref<?x?xf32, strided<[?, 1]>> loc(#loc24)
      %909 = vector.broadcast %908 : f32 to vector<64xf32> loc(#loc24)
      %910 = vector.fma %165, %906, %471 : vector<64xf32> loc(#loc24)
      %911 = memref.load %157[%472, %680] : memref<?x?xf32, strided<[?, 1]>> loc(#loc24)
      %912 = vector.broadcast %911 : f32 to vector<64xf32> loc(#loc24)
      %913 = vector.fma %165, %909, %475 : vector<64xf32> loc(#loc24)
      %914 = memref.load %157[%476, %680] : memref<?x?xf32, strided<[?, 1]>> loc(#loc24)
      %915 = vector.broadcast %914 : f32 to vector<64xf32> loc(#loc24)
      %916 = vector.fma %165, %912, %479 : vector<64xf32> loc(#loc24)
      %917 = memref.load %157[%480, %680] : memref<?x?xf32, strided<[?, 1]>> loc(#loc24)
      %918 = vector.broadcast %917 : f32 to vector<64xf32> loc(#loc24)
      %919 = vector.fma %165, %915, %483 : vector<64xf32> loc(#loc24)
      %920 = memref.load %157[%484, %680] : memref<?x?xf32, strided<[?, 1]>> loc(#loc24)
      %921 = vector.broadcast %920 : f32 to vector<64xf32> loc(#loc24)
      %922 = vector.fma %165, %918, %487 : vector<64xf32> loc(#loc24)
      %923 = memref.load %157[%488, %680] : memref<?x?xf32, strided<[?, 1]>> loc(#loc24)
      %924 = vector.broadcast %923 : f32 to vector<64xf32> loc(#loc24)
      %925 = vector.fma %165, %921, %491 : vector<64xf32> loc(#loc24)
      %926 = memref.load %157[%492, %680] : memref<?x?xf32, strided<[?, 1]>> loc(#loc24)
      %927 = vector.broadcast %926 : f32 to vector<64xf32> loc(#loc24)
      %928 = vector.fma %165, %924, %495 : vector<64xf32> loc(#loc24)
      %929 = memref.load %157[%496, %680] : memref<?x?xf32, strided<[?, 1]>> loc(#loc24)
      %930 = vector.broadcast %929 : f32 to vector<64xf32> loc(#loc24)
      %931 = vector.fma %165, %927, %499 : vector<64xf32> loc(#loc24)
      %932 = memref.load %157[%500, %680] : memref<?x?xf32, strided<[?, 1]>> loc(#loc24)
      %933 = vector.broadcast %932 : f32 to vector<64xf32> loc(#loc24)
      %934 = vector.fma %165, %930, %503 : vector<64xf32> loc(#loc24)
      %935 = memref.load %157[%504, %680] : memref<?x?xf32, strided<[?, 1]>> loc(#loc24)
      %936 = vector.broadcast %935 : f32 to vector<64xf32> loc(#loc24)
      %937 = vector.fma %165, %933, %507 : vector<64xf32> loc(#loc24)
      %938 = memref.load %157[%508, %680] : memref<?x?xf32, strided<[?, 1]>> loc(#loc24)
      %939 = vector.broadcast %938 : f32 to vector<64xf32> loc(#loc24)
      %940 = vector.fma %165, %936, %511 : vector<64xf32> loc(#loc24)
      %941 = memref.load %157[%512, %680] : memref<?x?xf32, strided<[?, 1]>> loc(#loc24)
      %942 = vector.broadcast %941 : f32 to vector<64xf32> loc(#loc24)
      %943 = vector.fma %165, %939, %515 : vector<64xf32> loc(#loc24)
      %944 = memref.load %157[%516, %680] : memref<?x?xf32, strided<[?, 1]>> loc(#loc24)
      %945 = vector.broadcast %944 : f32 to vector<64xf32> loc(#loc24)
      %946 = vector.fma %165, %942, %519 : vector<64xf32> loc(#loc24)
      %947 = memref.load %157[%520, %680] : memref<?x?xf32, strided<[?, 1]>> loc(#loc24)
      %948 = vector.broadcast %947 : f32 to vector<64xf32> loc(#loc24)
      %949 = vector.fma %165, %945, %523 : vector<64xf32> loc(#loc24)
      %950 = memref.load %157[%524, %680] : memref<?x?xf32, strided<[?, 1]>> loc(#loc24)
      %951 = vector.broadcast %950 : f32 to vector<64xf32> loc(#loc24)
      %952 = vector.fma %165, %948, %527 : vector<64xf32> loc(#loc24)
      %953 = memref.load %157[%528, %680] : memref<?x?xf32, strided<[?, 1]>> loc(#loc24)
      %954 = vector.broadcast %953 : f32 to vector<64xf32> loc(#loc24)
      %955 = vector.fma %165, %951, %531 : vector<64xf32> loc(#loc24)
      %956 = memref.load %157[%532, %680] : memref<?x?xf32, strided<[?, 1]>> loc(#loc24)
      %957 = vector.broadcast %956 : f32 to vector<64xf32> loc(#loc24)
      %958 = vector.fma %165, %954, %535 : vector<64xf32> loc(#loc24)
      %959 = memref.load %157[%536, %680] : memref<?x?xf32, strided<[?, 1]>> loc(#loc24)
      %960 = vector.broadcast %959 : f32 to vector<64xf32> loc(#loc24)
      %961 = vector.fma %165, %957, %539 : vector<64xf32> loc(#loc24)
      %962 = memref.load %157[%540, %680] : memref<?x?xf32, strided<[?, 1]>> loc(#loc24)
      %963 = vector.broadcast %962 : f32 to vector<64xf32> loc(#loc24)
      %964 = vector.fma %165, %960, %543 : vector<64xf32> loc(#loc24)
      %965 = memref.load %157[%544, %680] : memref<?x?xf32, strided<[?, 1]>> loc(#loc24)
      %966 = vector.broadcast %965 : f32 to vector<64xf32> loc(#loc24)
      %967 = vector.fma %165, %963, %547 : vector<64xf32> loc(#loc24)
      %968 = memref.load %157[%548, %680] : memref<?x?xf32, strided<[?, 1]>> loc(#loc24)
      %969 = vector.broadcast %968 : f32 to vector<64xf32> loc(#loc24)
      %970 = vector.fma %165, %966, %551 : vector<64xf32> loc(#loc24)
      %971 = memref.load %157[%552, %680] : memref<?x?xf32, strided<[?, 1]>> loc(#loc24)
      %972 = vector.broadcast %971 : f32 to vector<64xf32> loc(#loc24)
      %973 = vector.fma %165, %969, %555 : vector<64xf32> loc(#loc24)
      %974 = memref.load %157[%556, %680] : memref<?x?xf32, strided<[?, 1]>> loc(#loc24)
      %975 = vector.broadcast %974 : f32 to vector<64xf32> loc(#loc24)
      %976 = vector.fma %165, %972, %559 : vector<64xf32> loc(#loc24)
      %977 = memref.load %157[%560, %680] : memref<?x?xf32, strided<[?, 1]>> loc(#loc24)
      %978 = vector.broadcast %977 : f32 to vector<64xf32> loc(#loc24)
      %979 = vector.fma %165, %975, %563 : vector<64xf32> loc(#loc24)
      %980 = memref.load %157[%564, %680] : memref<?x?xf32, strided<[?, 1]>> loc(#loc24)
      %981 = vector.broadcast %980 : f32 to vector<64xf32> loc(#loc24)
      %982 = vector.fma %165, %978, %567 : vector<64xf32> loc(#loc24)
      %983 = memref.load %157[%568, %680] : memref<?x?xf32, strided<[?, 1]>> loc(#loc24)
      %984 = vector.broadcast %983 : f32 to vector<64xf32> loc(#loc24)
      %985 = vector.fma %165, %981, %571 : vector<64xf32> loc(#loc24)
      %986 = memref.load %157[%572, %680] : memref<?x?xf32, strided<[?, 1]>> loc(#loc24)
      %987 = vector.broadcast %986 : f32 to vector<64xf32> loc(#loc24)
      %988 = vector.fma %165, %984, %575 : vector<64xf32> loc(#loc24)
      %989 = memref.load %157[%576, %680] : memref<?x?xf32, strided<[?, 1]>> loc(#loc24)
      %990 = vector.broadcast %989 : f32 to vector<64xf32> loc(#loc24)
      %991 = vector.fma %165, %987, %579 : vector<64xf32> loc(#loc24)
      %992 = memref.load %157[%580, %680] : memref<?x?xf32, strided<[?, 1]>> loc(#loc24)
      %993 = vector.broadcast %992 : f32 to vector<64xf32> loc(#loc24)
      %994 = vector.fma %165, %990, %583 : vector<64xf32> loc(#loc24)
      %995 = memref.load %157[%584, %680] : memref<?x?xf32, strided<[?, 1]>> loc(#loc24)
      %996 = vector.broadcast %995 : f32 to vector<64xf32> loc(#loc24)
      %997 = vector.fma %165, %993, %587 : vector<64xf32> loc(#loc24)
      %998 = memref.load %157[%588, %680] : memref<?x?xf32, strided<[?, 1]>> loc(#loc24)
      %999 = vector.broadcast %998 : f32 to vector<64xf32> loc(#loc24)
      %1000 = vector.fma %165, %996, %591 : vector<64xf32> loc(#loc24)
      %1001 = memref.load %157[%592, %680] : memref<?x?xf32, strided<[?, 1]>> loc(#loc24)
      %1002 = vector.broadcast %1001 : f32 to vector<64xf32> loc(#loc24)
      %1003 = vector.fma %165, %999, %595 : vector<64xf32> loc(#loc24)
      %1004 = memref.load %157[%596, %680] : memref<?x?xf32, strided<[?, 1]>> loc(#loc24)
      %1005 = vector.broadcast %1004 : f32 to vector<64xf32> loc(#loc24)
      %1006 = vector.fma %165, %1002, %599 : vector<64xf32> loc(#loc24)
      %1007 = memref.load %157[%600, %680] : memref<?x?xf32, strided<[?, 1]>> loc(#loc24)
      %1008 = vector.broadcast %1007 : f32 to vector<64xf32> loc(#loc24)
      %1009 = vector.fma %165, %1005, %603 : vector<64xf32> loc(#loc24)
      %1010 = memref.load %157[%604, %680] : memref<?x?xf32, strided<[?, 1]>> loc(#loc24)
      %1011 = vector.broadcast %1010 : f32 to vector<64xf32> loc(#loc24)
      %1012 = vector.fma %165, %1008, %607 : vector<64xf32> loc(#loc24)
      %1013 = memref.load %157[%608, %680] : memref<?x?xf32, strided<[?, 1]>> loc(#loc24)
      %1014 = vector.broadcast %1013 : f32 to vector<64xf32> loc(#loc24)
      %1015 = vector.fma %165, %1011, %611 : vector<64xf32> loc(#loc24)
      %1016 = memref.load %157[%612, %680] : memref<?x?xf32, strided<[?, 1]>> loc(#loc24)
      %1017 = vector.broadcast %1016 : f32 to vector<64xf32> loc(#loc24)
      %1018 = vector.fma %165, %1014, %615 : vector<64xf32> loc(#loc24)
      %1019 = memref.load %157[%616, %680] : memref<?x?xf32, strided<[?, 1]>> loc(#loc24)
      %1020 = vector.broadcast %1019 : f32 to vector<64xf32> loc(#loc24)
      %1021 = vector.fma %165, %1017, %619 : vector<64xf32> loc(#loc24)
      %1022 = memref.load %157[%620, %680] : memref<?x?xf32, strided<[?, 1]>> loc(#loc24)
      %1023 = vector.broadcast %1022 : f32 to vector<64xf32> loc(#loc24)
      %1024 = vector.fma %165, %1020, %623 : vector<64xf32> loc(#loc24)
      %1025 = memref.load %157[%624, %680] : memref<?x?xf32, strided<[?, 1]>> loc(#loc24)
      %1026 = vector.broadcast %1025 : f32 to vector<64xf32> loc(#loc24)
      %1027 = vector.fma %165, %1023, %627 : vector<64xf32> loc(#loc24)
      %1028 = memref.load %157[%628, %680] : memref<?x?xf32, strided<[?, 1]>> loc(#loc24)
      %1029 = vector.broadcast %1028 : f32 to vector<64xf32> loc(#loc24)
      %1030 = vector.fma %165, %1026, %631 : vector<64xf32> loc(#loc24)
      %1031 = memref.load %157[%632, %680] : memref<?x?xf32, strided<[?, 1]>> loc(#loc24)
      %1032 = vector.broadcast %1031 : f32 to vector<64xf32> loc(#loc24)
      %1033 = vector.fma %165, %1029, %635 : vector<64xf32> loc(#loc24)
      %1034 = memref.load %157[%636, %680] : memref<?x?xf32, strided<[?, 1]>> loc(#loc24)
      %1035 = vector.broadcast %1034 : f32 to vector<64xf32> loc(#loc24)
      %1036 = vector.fma %165, %1032, %639 : vector<64xf32> loc(#loc24)
      %1037 = memref.load %157[%640, %680] : memref<?x?xf32, strided<[?, 1]>> loc(#loc24)
      %1038 = vector.broadcast %1037 : f32 to vector<64xf32> loc(#loc24)
      %1039 = vector.fma %165, %1035, %643 : vector<64xf32> loc(#loc24)
      %1040 = memref.load %157[%644, %680] : memref<?x?xf32, strided<[?, 1]>> loc(#loc24)
      %1041 = vector.broadcast %1040 : f32 to vector<64xf32> loc(#loc24)
      %1042 = vector.fma %165, %1038, %647 : vector<64xf32> loc(#loc24)
      %1043 = memref.load %157[%648, %680] : memref<?x?xf32, strided<[?, 1]>> loc(#loc24)
      %1044 = vector.broadcast %1043 : f32 to vector<64xf32> loc(#loc24)
      %1045 = vector.fma %165, %1041, %651 : vector<64xf32> loc(#loc24)
      %1046 = memref.load %157[%652, %680] : memref<?x?xf32, strided<[?, 1]>> loc(#loc24)
      %1047 = vector.broadcast %1046 : f32 to vector<64xf32> loc(#loc24)
      %1048 = vector.fma %165, %1044, %655 : vector<64xf32> loc(#loc24)
      %1049 = memref.load %157[%656, %680] : memref<?x?xf32, strided<[?, 1]>> loc(#loc24)
      %1050 = vector.broadcast %1049 : f32 to vector<64xf32> loc(#loc24)
      %1051 = vector.fma %165, %1047, %659 : vector<64xf32> loc(#loc24)
      %1052 = memref.load %157[%660, %680] : memref<?x?xf32, strided<[?, 1]>> loc(#loc24)
      %1053 = vector.broadcast %1052 : f32 to vector<64xf32> loc(#loc24)
      %1054 = vector.fma %165, %1050, %663 : vector<64xf32> loc(#loc24)
      %1055 = memref.load %157[%664, %680] : memref<?x?xf32, strided<[?, 1]>> loc(#loc24)
      %1056 = vector.broadcast %1055 : f32 to vector<64xf32> loc(#loc24)
      %1057 = vector.fma %165, %1053, %667 : vector<64xf32> loc(#loc24)
      %1058 = memref.load %157[%668, %680] : memref<?x?xf32, strided<[?, 1]>> loc(#loc24)
      %1059 = vector.broadcast %1058 : f32 to vector<64xf32> loc(#loc24)
      %1060 = vector.fma %165, %1056, %671 : vector<64xf32> loc(#loc24)
      %1061 = memref.load %157[%672, %680] : memref<?x?xf32, strided<[?, 1]>> loc(#loc24)
      %1062 = vector.broadcast %1061 : f32 to vector<64xf32> loc(#loc24)
      %1063 = vector.fma %165, %1059, %675 : vector<64xf32> loc(#loc24)
      %1064 = vector.fma %165, %1062, %676 : vector<64xf32> loc(#loc24)
      %1065 = arith.addi %160#0, %c3 : index loc(#loc24)
      %1066 = vector.load %159[%1065, %160#1] : memref<?x?xf32, strided<[?, 1]>>, vector<64xf32> loc(#loc24)
      %1067 = arith.addi %160#0, %c18 : index loc(#loc24)
      memref.prefetch %159[%1067, %160#1], read, locality<1>, data : memref<?x?xf32, strided<[?, 1]>> loc(#loc24)
      %1068 = arith.addi %158#1, %c2 : index loc(#loc24)
      %1069 = memref.load %157[%158#0, %1068] : memref<?x?xf32, strided<[?, 1]>> loc(#loc24)
      %1070 = vector.broadcast %1069 : f32 to vector<64xf32> loc(#loc24)
      %1071 = memref.load %157[%168, %1068] : memref<?x?xf32, strided<[?, 1]>> loc(#loc24)
      %1072 = vector.broadcast %1071 : f32 to vector<64xf32> loc(#loc24)
      %1073 = vector.fma %678, %1070, %685 : vector<64xf32> loc(#loc24)
      %1074 = memref.load %157[%172, %1068] : memref<?x?xf32, strided<[?, 1]>> loc(#loc24)
      %1075 = vector.broadcast %1074 : f32 to vector<64xf32> loc(#loc24)
      %1076 = vector.fma %678, %1072, %688 : vector<64xf32> loc(#loc24)
      %1077 = memref.load %157[%176, %1068] : memref<?x?xf32, strided<[?, 1]>> loc(#loc24)
      %1078 = vector.broadcast %1077 : f32 to vector<64xf32> loc(#loc24)
      %1079 = vector.fma %678, %1075, %691 : vector<64xf32> loc(#loc24)
      %1080 = memref.load %157[%180, %1068] : memref<?x?xf32, strided<[?, 1]>> loc(#loc24)
      %1081 = vector.broadcast %1080 : f32 to vector<64xf32> loc(#loc24)
      %1082 = vector.fma %678, %1078, %694 : vector<64xf32> loc(#loc24)
      %1083 = memref.load %157[%184, %1068] : memref<?x?xf32, strided<[?, 1]>> loc(#loc24)
      %1084 = vector.broadcast %1083 : f32 to vector<64xf32> loc(#loc24)
      %1085 = vector.fma %678, %1081, %697 : vector<64xf32> loc(#loc24)
      %1086 = memref.load %157[%188, %1068] : memref<?x?xf32, strided<[?, 1]>> loc(#loc24)
      %1087 = vector.broadcast %1086 : f32 to vector<64xf32> loc(#loc24)
      %1088 = vector.fma %678, %1084, %700 : vector<64xf32> loc(#loc24)
      %1089 = memref.load %157[%192, %1068] : memref<?x?xf32, strided<[?, 1]>> loc(#loc24)
      %1090 = vector.broadcast %1089 : f32 to vector<64xf32> loc(#loc24)
      %1091 = vector.fma %678, %1087, %703 : vector<64xf32> loc(#loc24)
      %1092 = memref.load %157[%196, %1068] : memref<?x?xf32, strided<[?, 1]>> loc(#loc24)
      %1093 = vector.broadcast %1092 : f32 to vector<64xf32> loc(#loc24)
      %1094 = vector.fma %678, %1090, %706 : vector<64xf32> loc(#loc24)
      %1095 = memref.load %157[%200, %1068] : memref<?x?xf32, strided<[?, 1]>> loc(#loc24)
      %1096 = vector.broadcast %1095 : f32 to vector<64xf32> loc(#loc24)
      %1097 = vector.fma %678, %1093, %709 : vector<64xf32> loc(#loc24)
      %1098 = memref.load %157[%204, %1068] : memref<?x?xf32, strided<[?, 1]>> loc(#loc24)
      %1099 = vector.broadcast %1098 : f32 to vector<64xf32> loc(#loc24)
      %1100 = vector.fma %678, %1096, %712 : vector<64xf32> loc(#loc24)
      %1101 = memref.load %157[%208, %1068] : memref<?x?xf32, strided<[?, 1]>> loc(#loc24)
      %1102 = vector.broadcast %1101 : f32 to vector<64xf32> loc(#loc24)
      %1103 = vector.fma %678, %1099, %715 : vector<64xf32> loc(#loc24)
      %1104 = memref.load %157[%212, %1068] : memref<?x?xf32, strided<[?, 1]>> loc(#loc24)
      %1105 = vector.broadcast %1104 : f32 to vector<64xf32> loc(#loc24)
      %1106 = vector.fma %678, %1102, %718 : vector<64xf32> loc(#loc24)
      %1107 = memref.load %157[%216, %1068] : memref<?x?xf32, strided<[?, 1]>> loc(#loc24)
      %1108 = vector.broadcast %1107 : f32 to vector<64xf32> loc(#loc24)
      %1109 = vector.fma %678, %1105, %721 : vector<64xf32> loc(#loc24)
      %1110 = memref.load %157[%220, %1068] : memref<?x?xf32, strided<[?, 1]>> loc(#loc24)
      %1111 = vector.broadcast %1110 : f32 to vector<64xf32> loc(#loc24)
      %1112 = vector.fma %678, %1108, %724 : vector<64xf32> loc(#loc24)
      %1113 = memref.load %157[%224, %1068] : memref<?x?xf32, strided<[?, 1]>> loc(#loc24)
      %1114 = vector.broadcast %1113 : f32 to vector<64xf32> loc(#loc24)
      %1115 = vector.fma %678, %1111, %727 : vector<64xf32> loc(#loc24)
      %1116 = memref.load %157[%228, %1068] : memref<?x?xf32, strided<[?, 1]>> loc(#loc24)
      %1117 = vector.broadcast %1116 : f32 to vector<64xf32> loc(#loc24)
      %1118 = vector.fma %678, %1114, %730 : vector<64xf32> loc(#loc24)
      %1119 = memref.load %157[%232, %1068] : memref<?x?xf32, strided<[?, 1]>> loc(#loc24)
      %1120 = vector.broadcast %1119 : f32 to vector<64xf32> loc(#loc24)
      %1121 = vector.fma %678, %1117, %733 : vector<64xf32> loc(#loc24)
      %1122 = memref.load %157[%236, %1068] : memref<?x?xf32, strided<[?, 1]>> loc(#loc24)
      %1123 = vector.broadcast %1122 : f32 to vector<64xf32> loc(#loc24)
      %1124 = vector.fma %678, %1120, %736 : vector<64xf32> loc(#loc24)
      %1125 = memref.load %157[%240, %1068] : memref<?x?xf32, strided<[?, 1]>> loc(#loc24)
      %1126 = vector.broadcast %1125 : f32 to vector<64xf32> loc(#loc24)
      %1127 = vector.fma %678, %1123, %739 : vector<64xf32> loc(#loc24)
      %1128 = memref.load %157[%244, %1068] : memref<?x?xf32, strided<[?, 1]>> loc(#loc24)
      %1129 = vector.broadcast %1128 : f32 to vector<64xf32> loc(#loc24)
      %1130 = vector.fma %678, %1126, %742 : vector<64xf32> loc(#loc24)
      %1131 = memref.load %157[%248, %1068] : memref<?x?xf32, strided<[?, 1]>> loc(#loc24)
      %1132 = vector.broadcast %1131 : f32 to vector<64xf32> loc(#loc24)
      %1133 = vector.fma %678, %1129, %745 : vector<64xf32> loc(#loc24)
      %1134 = memref.load %157[%252, %1068] : memref<?x?xf32, strided<[?, 1]>> loc(#loc24)
      %1135 = vector.broadcast %1134 : f32 to vector<64xf32> loc(#loc24)
      %1136 = vector.fma %678, %1132, %748 : vector<64xf32> loc(#loc24)
      %1137 = memref.load %157[%256, %1068] : memref<?x?xf32, strided<[?, 1]>> loc(#loc24)
      %1138 = vector.broadcast %1137 : f32 to vector<64xf32> loc(#loc24)
      %1139 = vector.fma %678, %1135, %751 : vector<64xf32> loc(#loc24)
      %1140 = memref.load %157[%260, %1068] : memref<?x?xf32, strided<[?, 1]>> loc(#loc24)
      %1141 = vector.broadcast %1140 : f32 to vector<64xf32> loc(#loc24)
      %1142 = vector.fma %678, %1138, %754 : vector<64xf32> loc(#loc24)
      %1143 = memref.load %157[%264, %1068] : memref<?x?xf32, strided<[?, 1]>> loc(#loc24)
      %1144 = vector.broadcast %1143 : f32 to vector<64xf32> loc(#loc24)
      %1145 = vector.fma %678, %1141, %757 : vector<64xf32> loc(#loc24)
      %1146 = memref.load %157[%268, %1068] : memref<?x?xf32, strided<[?, 1]>> loc(#loc24)
      %1147 = vector.broadcast %1146 : f32 to vector<64xf32> loc(#loc24)
      %1148 = vector.fma %678, %1144, %760 : vector<64xf32> loc(#loc24)
      %1149 = memref.load %157[%272, %1068] : memref<?x?xf32, strided<[?, 1]>> loc(#loc24)
      %1150 = vector.broadcast %1149 : f32 to vector<64xf32> loc(#loc24)
      %1151 = vector.fma %678, %1147, %763 : vector<64xf32> loc(#loc24)
      %1152 = memref.load %157[%276, %1068] : memref<?x?xf32, strided<[?, 1]>> loc(#loc24)
      %1153 = vector.broadcast %1152 : f32 to vector<64xf32> loc(#loc24)
      %1154 = vector.fma %678, %1150, %766 : vector<64xf32> loc(#loc24)
      %1155 = memref.load %157[%280, %1068] : memref<?x?xf32, strided<[?, 1]>> loc(#loc24)
      %1156 = vector.broadcast %1155 : f32 to vector<64xf32> loc(#loc24)
      %1157 = vector.fma %678, %1153, %769 : vector<64xf32> loc(#loc24)
      %1158 = memref.load %157[%284, %1068] : memref<?x?xf32, strided<[?, 1]>> loc(#loc24)
      %1159 = vector.broadcast %1158 : f32 to vector<64xf32> loc(#loc24)
      %1160 = vector.fma %678, %1156, %772 : vector<64xf32> loc(#loc24)
      %1161 = memref.load %157[%288, %1068] : memref<?x?xf32, strided<[?, 1]>> loc(#loc24)
      %1162 = vector.broadcast %1161 : f32 to vector<64xf32> loc(#loc24)
      %1163 = vector.fma %678, %1159, %775 : vector<64xf32> loc(#loc24)
      %1164 = memref.load %157[%292, %1068] : memref<?x?xf32, strided<[?, 1]>> loc(#loc24)
      %1165 = vector.broadcast %1164 : f32 to vector<64xf32> loc(#loc24)
      %1166 = vector.fma %678, %1162, %778 : vector<64xf32> loc(#loc24)
      %1167 = memref.load %157[%296, %1068] : memref<?x?xf32, strided<[?, 1]>> loc(#loc24)
      %1168 = vector.broadcast %1167 : f32 to vector<64xf32> loc(#loc24)
      %1169 = vector.fma %678, %1165, %781 : vector<64xf32> loc(#loc24)
      %1170 = memref.load %157[%300, %1068] : memref<?x?xf32, strided<[?, 1]>> loc(#loc24)
      %1171 = vector.broadcast %1170 : f32 to vector<64xf32> loc(#loc24)
      %1172 = vector.fma %678, %1168, %784 : vector<64xf32> loc(#loc24)
      %1173 = memref.load %157[%304, %1068] : memref<?x?xf32, strided<[?, 1]>> loc(#loc24)
      %1174 = vector.broadcast %1173 : f32 to vector<64xf32> loc(#loc24)
      %1175 = vector.fma %678, %1171, %787 : vector<64xf32> loc(#loc24)
      %1176 = memref.load %157[%308, %1068] : memref<?x?xf32, strided<[?, 1]>> loc(#loc24)
      %1177 = vector.broadcast %1176 : f32 to vector<64xf32> loc(#loc24)
      %1178 = vector.fma %678, %1174, %790 : vector<64xf32> loc(#loc24)
      %1179 = memref.load %157[%312, %1068] : memref<?x?xf32, strided<[?, 1]>> loc(#loc24)
      %1180 = vector.broadcast %1179 : f32 to vector<64xf32> loc(#loc24)
      %1181 = vector.fma %678, %1177, %793 : vector<64xf32> loc(#loc24)
      %1182 = memref.load %157[%316, %1068] : memref<?x?xf32, strided<[?, 1]>> loc(#loc24)
      %1183 = vector.broadcast %1182 : f32 to vector<64xf32> loc(#loc24)
      %1184 = vector.fma %678, %1180, %796 : vector<64xf32> loc(#loc24)
      %1185 = memref.load %157[%320, %1068] : memref<?x?xf32, strided<[?, 1]>> loc(#loc24)
      %1186 = vector.broadcast %1185 : f32 to vector<64xf32> loc(#loc24)
      %1187 = vector.fma %678, %1183, %799 : vector<64xf32> loc(#loc24)
      %1188 = memref.load %157[%324, %1068] : memref<?x?xf32, strided<[?, 1]>> loc(#loc24)
      %1189 = vector.broadcast %1188 : f32 to vector<64xf32> loc(#loc24)
      %1190 = vector.fma %678, %1186, %802 : vector<64xf32> loc(#loc24)
      %1191 = memref.load %157[%328, %1068] : memref<?x?xf32, strided<[?, 1]>> loc(#loc24)
      %1192 = vector.broadcast %1191 : f32 to vector<64xf32> loc(#loc24)
      %1193 = vector.fma %678, %1189, %805 : vector<64xf32> loc(#loc24)
      %1194 = memref.load %157[%332, %1068] : memref<?x?xf32, strided<[?, 1]>> loc(#loc24)
      %1195 = vector.broadcast %1194 : f32 to vector<64xf32> loc(#loc24)
      %1196 = vector.fma %678, %1192, %808 : vector<64xf32> loc(#loc24)
      %1197 = memref.load %157[%336, %1068] : memref<?x?xf32, strided<[?, 1]>> loc(#loc24)
      %1198 = vector.broadcast %1197 : f32 to vector<64xf32> loc(#loc24)
      %1199 = vector.fma %678, %1195, %811 : vector<64xf32> loc(#loc24)
      %1200 = memref.load %157[%340, %1068] : memref<?x?xf32, strided<[?, 1]>> loc(#loc24)
      %1201 = vector.broadcast %1200 : f32 to vector<64xf32> loc(#loc24)
      %1202 = vector.fma %678, %1198, %814 : vector<64xf32> loc(#loc24)
      %1203 = memref.load %157[%344, %1068] : memref<?x?xf32, strided<[?, 1]>> loc(#loc24)
      %1204 = vector.broadcast %1203 : f32 to vector<64xf32> loc(#loc24)
      %1205 = vector.fma %678, %1201, %817 : vector<64xf32> loc(#loc24)
      %1206 = memref.load %157[%348, %1068] : memref<?x?xf32, strided<[?, 1]>> loc(#loc24)
      %1207 = vector.broadcast %1206 : f32 to vector<64xf32> loc(#loc24)
      %1208 = vector.fma %678, %1204, %820 : vector<64xf32> loc(#loc24)
      %1209 = memref.load %157[%352, %1068] : memref<?x?xf32, strided<[?, 1]>> loc(#loc24)
      %1210 = vector.broadcast %1209 : f32 to vector<64xf32> loc(#loc24)
      %1211 = vector.fma %678, %1207, %823 : vector<64xf32> loc(#loc24)
      %1212 = memref.load %157[%356, %1068] : memref<?x?xf32, strided<[?, 1]>> loc(#loc24)
      %1213 = vector.broadcast %1212 : f32 to vector<64xf32> loc(#loc24)
      %1214 = vector.fma %678, %1210, %826 : vector<64xf32> loc(#loc24)
      %1215 = memref.load %157[%360, %1068] : memref<?x?xf32, strided<[?, 1]>> loc(#loc24)
      %1216 = vector.broadcast %1215 : f32 to vector<64xf32> loc(#loc24)
      %1217 = vector.fma %678, %1213, %829 : vector<64xf32> loc(#loc24)
      %1218 = memref.load %157[%364, %1068] : memref<?x?xf32, strided<[?, 1]>> loc(#loc24)
      %1219 = vector.broadcast %1218 : f32 to vector<64xf32> loc(#loc24)
      %1220 = vector.fma %678, %1216, %832 : vector<64xf32> loc(#loc24)
      %1221 = memref.load %157[%368, %1068] : memref<?x?xf32, strided<[?, 1]>> loc(#loc24)
      %1222 = vector.broadcast %1221 : f32 to vector<64xf32> loc(#loc24)
      %1223 = vector.fma %678, %1219, %835 : vector<64xf32> loc(#loc24)
      %1224 = memref.load %157[%372, %1068] : memref<?x?xf32, strided<[?, 1]>> loc(#loc24)
      %1225 = vector.broadcast %1224 : f32 to vector<64xf32> loc(#loc24)
      %1226 = vector.fma %678, %1222, %838 : vector<64xf32> loc(#loc24)
      %1227 = memref.load %157[%376, %1068] : memref<?x?xf32, strided<[?, 1]>> loc(#loc24)
      %1228 = vector.broadcast %1227 : f32 to vector<64xf32> loc(#loc24)
      %1229 = vector.fma %678, %1225, %841 : vector<64xf32> loc(#loc24)
      %1230 = memref.load %157[%380, %1068] : memref<?x?xf32, strided<[?, 1]>> loc(#loc24)
      %1231 = vector.broadcast %1230 : f32 to vector<64xf32> loc(#loc24)
      %1232 = vector.fma %678, %1228, %844 : vector<64xf32> loc(#loc24)
      %1233 = memref.load %157[%384, %1068] : memref<?x?xf32, strided<[?, 1]>> loc(#loc24)
      %1234 = vector.broadcast %1233 : f32 to vector<64xf32> loc(#loc24)
      %1235 = vector.fma %678, %1231, %847 : vector<64xf32> loc(#loc24)
      %1236 = memref.load %157[%388, %1068] : memref<?x?xf32, strided<[?, 1]>> loc(#loc24)
      %1237 = vector.broadcast %1236 : f32 to vector<64xf32> loc(#loc24)
      %1238 = vector.fma %678, %1234, %850 : vector<64xf32> loc(#loc24)
      %1239 = memref.load %157[%392, %1068] : memref<?x?xf32, strided<[?, 1]>> loc(#loc24)
      %1240 = vector.broadcast %1239 : f32 to vector<64xf32> loc(#loc24)
      %1241 = vector.fma %678, %1237, %853 : vector<64xf32> loc(#loc24)
      %1242 = memref.load %157[%396, %1068] : memref<?x?xf32, strided<[?, 1]>> loc(#loc24)
      %1243 = vector.broadcast %1242 : f32 to vector<64xf32> loc(#loc24)
      %1244 = vector.fma %678, %1240, %856 : vector<64xf32> loc(#loc24)
      %1245 = memref.load %157[%400, %1068] : memref<?x?xf32, strided<[?, 1]>> loc(#loc24)
      %1246 = vector.broadcast %1245 : f32 to vector<64xf32> loc(#loc24)
      %1247 = vector.fma %678, %1243, %859 : vector<64xf32> loc(#loc24)
      %1248 = memref.load %157[%404, %1068] : memref<?x?xf32, strided<[?, 1]>> loc(#loc24)
      %1249 = vector.broadcast %1248 : f32 to vector<64xf32> loc(#loc24)
      %1250 = vector.fma %678, %1246, %862 : vector<64xf32> loc(#loc24)
      %1251 = memref.load %157[%408, %1068] : memref<?x?xf32, strided<[?, 1]>> loc(#loc24)
      %1252 = vector.broadcast %1251 : f32 to vector<64xf32> loc(#loc24)
      %1253 = vector.fma %678, %1249, %865 : vector<64xf32> loc(#loc24)
      %1254 = memref.load %157[%412, %1068] : memref<?x?xf32, strided<[?, 1]>> loc(#loc24)
      %1255 = vector.broadcast %1254 : f32 to vector<64xf32> loc(#loc24)
      %1256 = vector.fma %678, %1252, %868 : vector<64xf32> loc(#loc24)
      %1257 = memref.load %157[%416, %1068] : memref<?x?xf32, strided<[?, 1]>> loc(#loc24)
      %1258 = vector.broadcast %1257 : f32 to vector<64xf32> loc(#loc24)
      %1259 = vector.fma %678, %1255, %871 : vector<64xf32> loc(#loc24)
      %1260 = memref.load %157[%420, %1068] : memref<?x?xf32, strided<[?, 1]>> loc(#loc24)
      %1261 = vector.broadcast %1260 : f32 to vector<64xf32> loc(#loc24)
      %1262 = vector.fma %678, %1258, %874 : vector<64xf32> loc(#loc24)
      %1263 = memref.load %157[%424, %1068] : memref<?x?xf32, strided<[?, 1]>> loc(#loc24)
      %1264 = vector.broadcast %1263 : f32 to vector<64xf32> loc(#loc24)
      %1265 = vector.fma %678, %1261, %877 : vector<64xf32> loc(#loc24)
      %1266 = memref.load %157[%428, %1068] : memref<?x?xf32, strided<[?, 1]>> loc(#loc24)
      %1267 = vector.broadcast %1266 : f32 to vector<64xf32> loc(#loc24)
      %1268 = vector.fma %678, %1264, %880 : vector<64xf32> loc(#loc24)
      %1269 = memref.load %157[%432, %1068] : memref<?x?xf32, strided<[?, 1]>> loc(#loc24)
      %1270 = vector.broadcast %1269 : f32 to vector<64xf32> loc(#loc24)
      %1271 = vector.fma %678, %1267, %883 : vector<64xf32> loc(#loc24)
      %1272 = memref.load %157[%436, %1068] : memref<?x?xf32, strided<[?, 1]>> loc(#loc24)
      %1273 = vector.broadcast %1272 : f32 to vector<64xf32> loc(#loc24)
      %1274 = vector.fma %678, %1270, %886 : vector<64xf32> loc(#loc24)
      %1275 = memref.load %157[%440, %1068] : memref<?x?xf32, strided<[?, 1]>> loc(#loc24)
      %1276 = vector.broadcast %1275 : f32 to vector<64xf32> loc(#loc24)
      %1277 = vector.fma %678, %1273, %889 : vector<64xf32> loc(#loc24)
      %1278 = memref.load %157[%444, %1068] : memref<?x?xf32, strided<[?, 1]>> loc(#loc24)
      %1279 = vector.broadcast %1278 : f32 to vector<64xf32> loc(#loc24)
      %1280 = vector.fma %678, %1276, %892 : vector<64xf32> loc(#loc24)
      %1281 = memref.load %157[%448, %1068] : memref<?x?xf32, strided<[?, 1]>> loc(#loc24)
      %1282 = vector.broadcast %1281 : f32 to vector<64xf32> loc(#loc24)
      %1283 = vector.fma %678, %1279, %895 : vector<64xf32> loc(#loc24)
      %1284 = memref.load %157[%452, %1068] : memref<?x?xf32, strided<[?, 1]>> loc(#loc24)
      %1285 = vector.broadcast %1284 : f32 to vector<64xf32> loc(#loc24)
      %1286 = vector.fma %678, %1282, %898 : vector<64xf32> loc(#loc24)
      %1287 = memref.load %157[%456, %1068] : memref<?x?xf32, strided<[?, 1]>> loc(#loc24)
      %1288 = vector.broadcast %1287 : f32 to vector<64xf32> loc(#loc24)
      %1289 = vector.fma %678, %1285, %901 : vector<64xf32> loc(#loc24)
      %1290 = memref.load %157[%460, %1068] : memref<?x?xf32, strided<[?, 1]>> loc(#loc24)
      %1291 = vector.broadcast %1290 : f32 to vector<64xf32> loc(#loc24)
      %1292 = vector.fma %678, %1288, %904 : vector<64xf32> loc(#loc24)
      %1293 = memref.load %157[%464, %1068] : memref<?x?xf32, strided<[?, 1]>> loc(#loc24)
      %1294 = vector.broadcast %1293 : f32 to vector<64xf32> loc(#loc24)
      %1295 = vector.fma %678, %1291, %907 : vector<64xf32> loc(#loc24)
      %1296 = memref.load %157[%468, %1068] : memref<?x?xf32, strided<[?, 1]>> loc(#loc24)
      %1297 = vector.broadcast %1296 : f32 to vector<64xf32> loc(#loc24)
      %1298 = vector.fma %678, %1294, %910 : vector<64xf32> loc(#loc24)
      %1299 = memref.load %157[%472, %1068] : memref<?x?xf32, strided<[?, 1]>> loc(#loc24)
      %1300 = vector.broadcast %1299 : f32 to vector<64xf32> loc(#loc24)
      %1301 = vector.fma %678, %1297, %913 : vector<64xf32> loc(#loc24)
      %1302 = memref.load %157[%476, %1068] : memref<?x?xf32, strided<[?, 1]>> loc(#loc24)
      %1303 = vector.broadcast %1302 : f32 to vector<64xf32> loc(#loc24)
      %1304 = vector.fma %678, %1300, %916 : vector<64xf32> loc(#loc24)
      %1305 = memref.load %157[%480, %1068] : memref<?x?xf32, strided<[?, 1]>> loc(#loc24)
      %1306 = vector.broadcast %1305 : f32 to vector<64xf32> loc(#loc24)
      %1307 = vector.fma %678, %1303, %919 : vector<64xf32> loc(#loc24)
      %1308 = memref.load %157[%484, %1068] : memref<?x?xf32, strided<[?, 1]>> loc(#loc24)
      %1309 = vector.broadcast %1308 : f32 to vector<64xf32> loc(#loc24)
      %1310 = vector.fma %678, %1306, %922 : vector<64xf32> loc(#loc24)
      %1311 = memref.load %157[%488, %1068] : memref<?x?xf32, strided<[?, 1]>> loc(#loc24)
      %1312 = vector.broadcast %1311 : f32 to vector<64xf32> loc(#loc24)
      %1313 = vector.fma %678, %1309, %925 : vector<64xf32> loc(#loc24)
      %1314 = memref.load %157[%492, %1068] : memref<?x?xf32, strided<[?, 1]>> loc(#loc24)
      %1315 = vector.broadcast %1314 : f32 to vector<64xf32> loc(#loc24)
      %1316 = vector.fma %678, %1312, %928 : vector<64xf32> loc(#loc24)
      %1317 = memref.load %157[%496, %1068] : memref<?x?xf32, strided<[?, 1]>> loc(#loc24)
      %1318 = vector.broadcast %1317 : f32 to vector<64xf32> loc(#loc24)
      %1319 = vector.fma %678, %1315, %931 : vector<64xf32> loc(#loc24)
      %1320 = memref.load %157[%500, %1068] : memref<?x?xf32, strided<[?, 1]>> loc(#loc24)
      %1321 = vector.broadcast %1320 : f32 to vector<64xf32> loc(#loc24)
      %1322 = vector.fma %678, %1318, %934 : vector<64xf32> loc(#loc24)
      %1323 = memref.load %157[%504, %1068] : memref<?x?xf32, strided<[?, 1]>> loc(#loc24)
      %1324 = vector.broadcast %1323 : f32 to vector<64xf32> loc(#loc24)
      %1325 = vector.fma %678, %1321, %937 : vector<64xf32> loc(#loc24)
      %1326 = memref.load %157[%508, %1068] : memref<?x?xf32, strided<[?, 1]>> loc(#loc24)
      %1327 = vector.broadcast %1326 : f32 to vector<64xf32> loc(#loc24)
      %1328 = vector.fma %678, %1324, %940 : vector<64xf32> loc(#loc24)
      %1329 = memref.load %157[%512, %1068] : memref<?x?xf32, strided<[?, 1]>> loc(#loc24)
      %1330 = vector.broadcast %1329 : f32 to vector<64xf32> loc(#loc24)
      %1331 = vector.fma %678, %1327, %943 : vector<64xf32> loc(#loc24)
      %1332 = memref.load %157[%516, %1068] : memref<?x?xf32, strided<[?, 1]>> loc(#loc24)
      %1333 = vector.broadcast %1332 : f32 to vector<64xf32> loc(#loc24)
      %1334 = vector.fma %678, %1330, %946 : vector<64xf32> loc(#loc24)
      %1335 = memref.load %157[%520, %1068] : memref<?x?xf32, strided<[?, 1]>> loc(#loc24)
      %1336 = vector.broadcast %1335 : f32 to vector<64xf32> loc(#loc24)
      %1337 = vector.fma %678, %1333, %949 : vector<64xf32> loc(#loc24)
      %1338 = memref.load %157[%524, %1068] : memref<?x?xf32, strided<[?, 1]>> loc(#loc24)
      %1339 = vector.broadcast %1338 : f32 to vector<64xf32> loc(#loc24)
      %1340 = vector.fma %678, %1336, %952 : vector<64xf32> loc(#loc24)
      %1341 = memref.load %157[%528, %1068] : memref<?x?xf32, strided<[?, 1]>> loc(#loc24)
      %1342 = vector.broadcast %1341 : f32 to vector<64xf32> loc(#loc24)
      %1343 = vector.fma %678, %1339, %955 : vector<64xf32> loc(#loc24)
      %1344 = memref.load %157[%532, %1068] : memref<?x?xf32, strided<[?, 1]>> loc(#loc24)
      %1345 = vector.broadcast %1344 : f32 to vector<64xf32> loc(#loc24)
      %1346 = vector.fma %678, %1342, %958 : vector<64xf32> loc(#loc24)
      %1347 = memref.load %157[%536, %1068] : memref<?x?xf32, strided<[?, 1]>> loc(#loc24)
      %1348 = vector.broadcast %1347 : f32 to vector<64xf32> loc(#loc24)
      %1349 = vector.fma %678, %1345, %961 : vector<64xf32> loc(#loc24)
      %1350 = memref.load %157[%540, %1068] : memref<?x?xf32, strided<[?, 1]>> loc(#loc24)
      %1351 = vector.broadcast %1350 : f32 to vector<64xf32> loc(#loc24)
      %1352 = vector.fma %678, %1348, %964 : vector<64xf32> loc(#loc24)
      %1353 = memref.load %157[%544, %1068] : memref<?x?xf32, strided<[?, 1]>> loc(#loc24)
      %1354 = vector.broadcast %1353 : f32 to vector<64xf32> loc(#loc24)
      %1355 = vector.fma %678, %1351, %967 : vector<64xf32> loc(#loc24)
      %1356 = memref.load %157[%548, %1068] : memref<?x?xf32, strided<[?, 1]>> loc(#loc24)
      %1357 = vector.broadcast %1356 : f32 to vector<64xf32> loc(#loc24)
      %1358 = vector.fma %678, %1354, %970 : vector<64xf32> loc(#loc24)
      %1359 = memref.load %157[%552, %1068] : memref<?x?xf32, strided<[?, 1]>> loc(#loc24)
      %1360 = vector.broadcast %1359 : f32 to vector<64xf32> loc(#loc24)
      %1361 = vector.fma %678, %1357, %973 : vector<64xf32> loc(#loc24)
      %1362 = memref.load %157[%556, %1068] : memref<?x?xf32, strided<[?, 1]>> loc(#loc24)
      %1363 = vector.broadcast %1362 : f32 to vector<64xf32> loc(#loc24)
      %1364 = vector.fma %678, %1360, %976 : vector<64xf32> loc(#loc24)
      %1365 = memref.load %157[%560, %1068] : memref<?x?xf32, strided<[?, 1]>> loc(#loc24)
      %1366 = vector.broadcast %1365 : f32 to vector<64xf32> loc(#loc24)
      %1367 = vector.fma %678, %1363, %979 : vector<64xf32> loc(#loc24)
      %1368 = memref.load %157[%564, %1068] : memref<?x?xf32, strided<[?, 1]>> loc(#loc24)
      %1369 = vector.broadcast %1368 : f32 to vector<64xf32> loc(#loc24)
      %1370 = vector.fma %678, %1366, %982 : vector<64xf32> loc(#loc24)
      %1371 = memref.load %157[%568, %1068] : memref<?x?xf32, strided<[?, 1]>> loc(#loc24)
      %1372 = vector.broadcast %1371 : f32 to vector<64xf32> loc(#loc24)
      %1373 = vector.fma %678, %1369, %985 : vector<64xf32> loc(#loc24)
      %1374 = memref.load %157[%572, %1068] : memref<?x?xf32, strided<[?, 1]>> loc(#loc24)
      %1375 = vector.broadcast %1374 : f32 to vector<64xf32> loc(#loc24)
      %1376 = vector.fma %678, %1372, %988 : vector<64xf32> loc(#loc24)
      %1377 = memref.load %157[%576, %1068] : memref<?x?xf32, strided<[?, 1]>> loc(#loc24)
      %1378 = vector.broadcast %1377 : f32 to vector<64xf32> loc(#loc24)
      %1379 = vector.fma %678, %1375, %991 : vector<64xf32> loc(#loc24)
      %1380 = memref.load %157[%580, %1068] : memref<?x?xf32, strided<[?, 1]>> loc(#loc24)
      %1381 = vector.broadcast %1380 : f32 to vector<64xf32> loc(#loc24)
      %1382 = vector.fma %678, %1378, %994 : vector<64xf32> loc(#loc24)
      %1383 = memref.load %157[%584, %1068] : memref<?x?xf32, strided<[?, 1]>> loc(#loc24)
      %1384 = vector.broadcast %1383 : f32 to vector<64xf32> loc(#loc24)
      %1385 = vector.fma %678, %1381, %997 : vector<64xf32> loc(#loc24)
      %1386 = memref.load %157[%588, %1068] : memref<?x?xf32, strided<[?, 1]>> loc(#loc24)
      %1387 = vector.broadcast %1386 : f32 to vector<64xf32> loc(#loc24)
      %1388 = vector.fma %678, %1384, %1000 : vector<64xf32> loc(#loc24)
      %1389 = memref.load %157[%592, %1068] : memref<?x?xf32, strided<[?, 1]>> loc(#loc24)
      %1390 = vector.broadcast %1389 : f32 to vector<64xf32> loc(#loc24)
      %1391 = vector.fma %678, %1387, %1003 : vector<64xf32> loc(#loc24)
      %1392 = memref.load %157[%596, %1068] : memref<?x?xf32, strided<[?, 1]>> loc(#loc24)
      %1393 = vector.broadcast %1392 : f32 to vector<64xf32> loc(#loc24)
      %1394 = vector.fma %678, %1390, %1006 : vector<64xf32> loc(#loc24)
      %1395 = memref.load %157[%600, %1068] : memref<?x?xf32, strided<[?, 1]>> loc(#loc24)
      %1396 = vector.broadcast %1395 : f32 to vector<64xf32> loc(#loc24)
      %1397 = vector.fma %678, %1393, %1009 : vector<64xf32> loc(#loc24)
      %1398 = memref.load %157[%604, %1068] : memref<?x?xf32, strided<[?, 1]>> loc(#loc24)
      %1399 = vector.broadcast %1398 : f32 to vector<64xf32> loc(#loc24)
      %1400 = vector.fma %678, %1396, %1012 : vector<64xf32> loc(#loc24)
      %1401 = memref.load %157[%608, %1068] : memref<?x?xf32, strided<[?, 1]>> loc(#loc24)
      %1402 = vector.broadcast %1401 : f32 to vector<64xf32> loc(#loc24)
      %1403 = vector.fma %678, %1399, %1015 : vector<64xf32> loc(#loc24)
      %1404 = memref.load %157[%612, %1068] : memref<?x?xf32, strided<[?, 1]>> loc(#loc24)
      %1405 = vector.broadcast %1404 : f32 to vector<64xf32> loc(#loc24)
      %1406 = vector.fma %678, %1402, %1018 : vector<64xf32> loc(#loc24)
      %1407 = memref.load %157[%616, %1068] : memref<?x?xf32, strided<[?, 1]>> loc(#loc24)
      %1408 = vector.broadcast %1407 : f32 to vector<64xf32> loc(#loc24)
      %1409 = vector.fma %678, %1405, %1021 : vector<64xf32> loc(#loc24)
      %1410 = memref.load %157[%620, %1068] : memref<?x?xf32, strided<[?, 1]>> loc(#loc24)
      %1411 = vector.broadcast %1410 : f32 to vector<64xf32> loc(#loc24)
      %1412 = vector.fma %678, %1408, %1024 : vector<64xf32> loc(#loc24)
      %1413 = memref.load %157[%624, %1068] : memref<?x?xf32, strided<[?, 1]>> loc(#loc24)
      %1414 = vector.broadcast %1413 : f32 to vector<64xf32> loc(#loc24)
      %1415 = vector.fma %678, %1411, %1027 : vector<64xf32> loc(#loc24)
      %1416 = memref.load %157[%628, %1068] : memref<?x?xf32, strided<[?, 1]>> loc(#loc24)
      %1417 = vector.broadcast %1416 : f32 to vector<64xf32> loc(#loc24)
      %1418 = vector.fma %678, %1414, %1030 : vector<64xf32> loc(#loc24)
      %1419 = memref.load %157[%632, %1068] : memref<?x?xf32, strided<[?, 1]>> loc(#loc24)
      %1420 = vector.broadcast %1419 : f32 to vector<64xf32> loc(#loc24)
      %1421 = vector.fma %678, %1417, %1033 : vector<64xf32> loc(#loc24)
      %1422 = memref.load %157[%636, %1068] : memref<?x?xf32, strided<[?, 1]>> loc(#loc24)
      %1423 = vector.broadcast %1422 : f32 to vector<64xf32> loc(#loc24)
      %1424 = vector.fma %678, %1420, %1036 : vector<64xf32> loc(#loc24)
      %1425 = memref.load %157[%640, %1068] : memref<?x?xf32, strided<[?, 1]>> loc(#loc24)
      %1426 = vector.broadcast %1425 : f32 to vector<64xf32> loc(#loc24)
      %1427 = vector.fma %678, %1423, %1039 : vector<64xf32> loc(#loc24)
      %1428 = memref.load %157[%644, %1068] : memref<?x?xf32, strided<[?, 1]>> loc(#loc24)
      %1429 = vector.broadcast %1428 : f32 to vector<64xf32> loc(#loc24)
      %1430 = vector.fma %678, %1426, %1042 : vector<64xf32> loc(#loc24)
      %1431 = memref.load %157[%648, %1068] : memref<?x?xf32, strided<[?, 1]>> loc(#loc24)
      %1432 = vector.broadcast %1431 : f32 to vector<64xf32> loc(#loc24)
      %1433 = vector.fma %678, %1429, %1045 : vector<64xf32> loc(#loc24)
      %1434 = memref.load %157[%652, %1068] : memref<?x?xf32, strided<[?, 1]>> loc(#loc24)
      %1435 = vector.broadcast %1434 : f32 to vector<64xf32> loc(#loc24)
      %1436 = vector.fma %678, %1432, %1048 : vector<64xf32> loc(#loc24)
      %1437 = memref.load %157[%656, %1068] : memref<?x?xf32, strided<[?, 1]>> loc(#loc24)
      %1438 = vector.broadcast %1437 : f32 to vector<64xf32> loc(#loc24)
      %1439 = vector.fma %678, %1435, %1051 : vector<64xf32> loc(#loc24)
      %1440 = memref.load %157[%660, %1068] : memref<?x?xf32, strided<[?, 1]>> loc(#loc24)
      %1441 = vector.broadcast %1440 : f32 to vector<64xf32> loc(#loc24)
      %1442 = vector.fma %678, %1438, %1054 : vector<64xf32> loc(#loc24)
      %1443 = memref.load %157[%664, %1068] : memref<?x?xf32, strided<[?, 1]>> loc(#loc24)
      %1444 = vector.broadcast %1443 : f32 to vector<64xf32> loc(#loc24)
      %1445 = vector.fma %678, %1441, %1057 : vector<64xf32> loc(#loc24)
      %1446 = memref.load %157[%668, %1068] : memref<?x?xf32, strided<[?, 1]>> loc(#loc24)
      %1447 = vector.broadcast %1446 : f32 to vector<64xf32> loc(#loc24)
      %1448 = vector.fma %678, %1444, %1060 : vector<64xf32> loc(#loc24)
      %1449 = memref.load %157[%672, %1068] : memref<?x?xf32, strided<[?, 1]>> loc(#loc24)
      %1450 = vector.broadcast %1449 : f32 to vector<64xf32> loc(#loc24)
      %1451 = vector.fma %678, %1447, %1063 : vector<64xf32> loc(#loc24)
      %1452 = vector.fma %678, %1450, %1064 : vector<64xf32> loc(#loc24)
      %1453 = arith.addi %160#0, %c4 : index loc(#loc24)
      %1454 = vector.load %159[%1453, %160#1] : memref<?x?xf32, strided<[?, 1]>>, vector<64xf32> loc(#loc24)
      %1455 = arith.addi %160#0, %c19 : index loc(#loc24)
      memref.prefetch %159[%1455, %160#1], read, locality<1>, data : memref<?x?xf32, strided<[?, 1]>> loc(#loc24)
      %1456 = arith.addi %158#1, %c3 : index loc(#loc24)
      %1457 = memref.load %157[%158#0, %1456] : memref<?x?xf32, strided<[?, 1]>> loc(#loc24)
      %1458 = vector.broadcast %1457 : f32 to vector<64xf32> loc(#loc24)
      %1459 = memref.load %157[%168, %1456] : memref<?x?xf32, strided<[?, 1]>> loc(#loc24)
      %1460 = vector.broadcast %1459 : f32 to vector<64xf32> loc(#loc24)
      %1461 = vector.fma %1066, %1458, %1073 : vector<64xf32> loc(#loc24)
      %1462 = memref.load %157[%172, %1456] : memref<?x?xf32, strided<[?, 1]>> loc(#loc24)
      %1463 = vector.broadcast %1462 : f32 to vector<64xf32> loc(#loc24)
      %1464 = vector.fma %1066, %1460, %1076 : vector<64xf32> loc(#loc24)
      %1465 = memref.load %157[%176, %1456] : memref<?x?xf32, strided<[?, 1]>> loc(#loc24)
      %1466 = vector.broadcast %1465 : f32 to vector<64xf32> loc(#loc24)
      %1467 = vector.fma %1066, %1463, %1079 : vector<64xf32> loc(#loc24)
      %1468 = memref.load %157[%180, %1456] : memref<?x?xf32, strided<[?, 1]>> loc(#loc24)
      %1469 = vector.broadcast %1468 : f32 to vector<64xf32> loc(#loc24)
      %1470 = vector.fma %1066, %1466, %1082 : vector<64xf32> loc(#loc24)
      %1471 = memref.load %157[%184, %1456] : memref<?x?xf32, strided<[?, 1]>> loc(#loc24)
      %1472 = vector.broadcast %1471 : f32 to vector<64xf32> loc(#loc24)
      %1473 = vector.fma %1066, %1469, %1085 : vector<64xf32> loc(#loc24)
      %1474 = memref.load %157[%188, %1456] : memref<?x?xf32, strided<[?, 1]>> loc(#loc24)
      %1475 = vector.broadcast %1474 : f32 to vector<64xf32> loc(#loc24)
      %1476 = vector.fma %1066, %1472, %1088 : vector<64xf32> loc(#loc24)
      %1477 = memref.load %157[%192, %1456] : memref<?x?xf32, strided<[?, 1]>> loc(#loc24)
      %1478 = vector.broadcast %1477 : f32 to vector<64xf32> loc(#loc24)
      %1479 = vector.fma %1066, %1475, %1091 : vector<64xf32> loc(#loc24)
      %1480 = memref.load %157[%196, %1456] : memref<?x?xf32, strided<[?, 1]>> loc(#loc24)
      %1481 = vector.broadcast %1480 : f32 to vector<64xf32> loc(#loc24)
      %1482 = vector.fma %1066, %1478, %1094 : vector<64xf32> loc(#loc24)
      %1483 = memref.load %157[%200, %1456] : memref<?x?xf32, strided<[?, 1]>> loc(#loc24)
      %1484 = vector.broadcast %1483 : f32 to vector<64xf32> loc(#loc24)
      %1485 = vector.fma %1066, %1481, %1097 : vector<64xf32> loc(#loc24)
      %1486 = memref.load %157[%204, %1456] : memref<?x?xf32, strided<[?, 1]>> loc(#loc24)
      %1487 = vector.broadcast %1486 : f32 to vector<64xf32> loc(#loc24)
      %1488 = vector.fma %1066, %1484, %1100 : vector<64xf32> loc(#loc24)
      %1489 = memref.load %157[%208, %1456] : memref<?x?xf32, strided<[?, 1]>> loc(#loc24)
      %1490 = vector.broadcast %1489 : f32 to vector<64xf32> loc(#loc24)
      %1491 = vector.fma %1066, %1487, %1103 : vector<64xf32> loc(#loc24)
      %1492 = memref.load %157[%212, %1456] : memref<?x?xf32, strided<[?, 1]>> loc(#loc24)
      %1493 = vector.broadcast %1492 : f32 to vector<64xf32> loc(#loc24)
      %1494 = vector.fma %1066, %1490, %1106 : vector<64xf32> loc(#loc24)
      %1495 = memref.load %157[%216, %1456] : memref<?x?xf32, strided<[?, 1]>> loc(#loc24)
      %1496 = vector.broadcast %1495 : f32 to vector<64xf32> loc(#loc24)
      %1497 = vector.fma %1066, %1493, %1109 : vector<64xf32> loc(#loc24)
      %1498 = memref.load %157[%220, %1456] : memref<?x?xf32, strided<[?, 1]>> loc(#loc24)
      %1499 = vector.broadcast %1498 : f32 to vector<64xf32> loc(#loc24)
      %1500 = vector.fma %1066, %1496, %1112 : vector<64xf32> loc(#loc24)
      %1501 = memref.load %157[%224, %1456] : memref<?x?xf32, strided<[?, 1]>> loc(#loc24)
      %1502 = vector.broadcast %1501 : f32 to vector<64xf32> loc(#loc24)
      %1503 = vector.fma %1066, %1499, %1115 : vector<64xf32> loc(#loc24)
      %1504 = memref.load %157[%228, %1456] : memref<?x?xf32, strided<[?, 1]>> loc(#loc24)
      %1505 = vector.broadcast %1504 : f32 to vector<64xf32> loc(#loc24)
      %1506 = vector.fma %1066, %1502, %1118 : vector<64xf32> loc(#loc24)
      %1507 = memref.load %157[%232, %1456] : memref<?x?xf32, strided<[?, 1]>> loc(#loc24)
      %1508 = vector.broadcast %1507 : f32 to vector<64xf32> loc(#loc24)
      %1509 = vector.fma %1066, %1505, %1121 : vector<64xf32> loc(#loc24)
      %1510 = memref.load %157[%236, %1456] : memref<?x?xf32, strided<[?, 1]>> loc(#loc24)
      %1511 = vector.broadcast %1510 : f32 to vector<64xf32> loc(#loc24)
      %1512 = vector.fma %1066, %1508, %1124 : vector<64xf32> loc(#loc24)
      %1513 = memref.load %157[%240, %1456] : memref<?x?xf32, strided<[?, 1]>> loc(#loc24)
      %1514 = vector.broadcast %1513 : f32 to vector<64xf32> loc(#loc24)
      %1515 = vector.fma %1066, %1511, %1127 : vector<64xf32> loc(#loc24)
      %1516 = memref.load %157[%244, %1456] : memref<?x?xf32, strided<[?, 1]>> loc(#loc24)
      %1517 = vector.broadcast %1516 : f32 to vector<64xf32> loc(#loc24)
      %1518 = vector.fma %1066, %1514, %1130 : vector<64xf32> loc(#loc24)
      %1519 = memref.load %157[%248, %1456] : memref<?x?xf32, strided<[?, 1]>> loc(#loc24)
      %1520 = vector.broadcast %1519 : f32 to vector<64xf32> loc(#loc24)
      %1521 = vector.fma %1066, %1517, %1133 : vector<64xf32> loc(#loc24)
      %1522 = memref.load %157[%252, %1456] : memref<?x?xf32, strided<[?, 1]>> loc(#loc24)
      %1523 = vector.broadcast %1522 : f32 to vector<64xf32> loc(#loc24)
      %1524 = vector.fma %1066, %1520, %1136 : vector<64xf32> loc(#loc24)
      %1525 = memref.load %157[%256, %1456] : memref<?x?xf32, strided<[?, 1]>> loc(#loc24)
      %1526 = vector.broadcast %1525 : f32 to vector<64xf32> loc(#loc24)
      %1527 = vector.fma %1066, %1523, %1139 : vector<64xf32> loc(#loc24)
      %1528 = memref.load %157[%260, %1456] : memref<?x?xf32, strided<[?, 1]>> loc(#loc24)
      %1529 = vector.broadcast %1528 : f32 to vector<64xf32> loc(#loc24)
      %1530 = vector.fma %1066, %1526, %1142 : vector<64xf32> loc(#loc24)
      %1531 = memref.load %157[%264, %1456] : memref<?x?xf32, strided<[?, 1]>> loc(#loc24)
      %1532 = vector.broadcast %1531 : f32 to vector<64xf32> loc(#loc24)
      %1533 = vector.fma %1066, %1529, %1145 : vector<64xf32> loc(#loc24)
      %1534 = memref.load %157[%268, %1456] : memref<?x?xf32, strided<[?, 1]>> loc(#loc24)
      %1535 = vector.broadcast %1534 : f32 to vector<64xf32> loc(#loc24)
      %1536 = vector.fma %1066, %1532, %1148 : vector<64xf32> loc(#loc24)
      %1537 = memref.load %157[%272, %1456] : memref<?x?xf32, strided<[?, 1]>> loc(#loc24)
      %1538 = vector.broadcast %1537 : f32 to vector<64xf32> loc(#loc24)
      %1539 = vector.fma %1066, %1535, %1151 : vector<64xf32> loc(#loc24)
      %1540 = memref.load %157[%276, %1456] : memref<?x?xf32, strided<[?, 1]>> loc(#loc24)
      %1541 = vector.broadcast %1540 : f32 to vector<64xf32> loc(#loc24)
      %1542 = vector.fma %1066, %1538, %1154 : vector<64xf32> loc(#loc24)
      %1543 = memref.load %157[%280, %1456] : memref<?x?xf32, strided<[?, 1]>> loc(#loc24)
      %1544 = vector.broadcast %1543 : f32 to vector<64xf32> loc(#loc24)
      %1545 = vector.fma %1066, %1541, %1157 : vector<64xf32> loc(#loc24)
      %1546 = memref.load %157[%284, %1456] : memref<?x?xf32, strided<[?, 1]>> loc(#loc24)
      %1547 = vector.broadcast %1546 : f32 to vector<64xf32> loc(#loc24)
      %1548 = vector.fma %1066, %1544, %1160 : vector<64xf32> loc(#loc24)
      %1549 = memref.load %157[%288, %1456] : memref<?x?xf32, strided<[?, 1]>> loc(#loc24)
      %1550 = vector.broadcast %1549 : f32 to vector<64xf32> loc(#loc24)
      %1551 = vector.fma %1066, %1547, %1163 : vector<64xf32> loc(#loc24)
      %1552 = memref.load %157[%292, %1456] : memref<?x?xf32, strided<[?, 1]>> loc(#loc24)
      %1553 = vector.broadcast %1552 : f32 to vector<64xf32> loc(#loc24)
      %1554 = vector.fma %1066, %1550, %1166 : vector<64xf32> loc(#loc24)
      %1555 = memref.load %157[%296, %1456] : memref<?x?xf32, strided<[?, 1]>> loc(#loc24)
      %1556 = vector.broadcast %1555 : f32 to vector<64xf32> loc(#loc24)
      %1557 = vector.fma %1066, %1553, %1169 : vector<64xf32> loc(#loc24)
      %1558 = memref.load %157[%300, %1456] : memref<?x?xf32, strided<[?, 1]>> loc(#loc24)
      %1559 = vector.broadcast %1558 : f32 to vector<64xf32> loc(#loc24)
      %1560 = vector.fma %1066, %1556, %1172 : vector<64xf32> loc(#loc24)
      %1561 = memref.load %157[%304, %1456] : memref<?x?xf32, strided<[?, 1]>> loc(#loc24)
      %1562 = vector.broadcast %1561 : f32 to vector<64xf32> loc(#loc24)
      %1563 = vector.fma %1066, %1559, %1175 : vector<64xf32> loc(#loc24)
      %1564 = memref.load %157[%308, %1456] : memref<?x?xf32, strided<[?, 1]>> loc(#loc24)
      %1565 = vector.broadcast %1564 : f32 to vector<64xf32> loc(#loc24)
      %1566 = vector.fma %1066, %1562, %1178 : vector<64xf32> loc(#loc24)
      %1567 = memref.load %157[%312, %1456] : memref<?x?xf32, strided<[?, 1]>> loc(#loc24)
      %1568 = vector.broadcast %1567 : f32 to vector<64xf32> loc(#loc24)
      %1569 = vector.fma %1066, %1565, %1181 : vector<64xf32> loc(#loc24)
      %1570 = memref.load %157[%316, %1456] : memref<?x?xf32, strided<[?, 1]>> loc(#loc24)
      %1571 = vector.broadcast %1570 : f32 to vector<64xf32> loc(#loc24)
      %1572 = vector.fma %1066, %1568, %1184 : vector<64xf32> loc(#loc24)
      %1573 = memref.load %157[%320, %1456] : memref<?x?xf32, strided<[?, 1]>> loc(#loc24)
      %1574 = vector.broadcast %1573 : f32 to vector<64xf32> loc(#loc24)
      %1575 = vector.fma %1066, %1571, %1187 : vector<64xf32> loc(#loc24)
      %1576 = memref.load %157[%324, %1456] : memref<?x?xf32, strided<[?, 1]>> loc(#loc24)
      %1577 = vector.broadcast %1576 : f32 to vector<64xf32> loc(#loc24)
      %1578 = vector.fma %1066, %1574, %1190 : vector<64xf32> loc(#loc24)
      %1579 = memref.load %157[%328, %1456] : memref<?x?xf32, strided<[?, 1]>> loc(#loc24)
      %1580 = vector.broadcast %1579 : f32 to vector<64xf32> loc(#loc24)
      %1581 = vector.fma %1066, %1577, %1193 : vector<64xf32> loc(#loc24)
      %1582 = memref.load %157[%332, %1456] : memref<?x?xf32, strided<[?, 1]>> loc(#loc24)
      %1583 = vector.broadcast %1582 : f32 to vector<64xf32> loc(#loc24)
      %1584 = vector.fma %1066, %1580, %1196 : vector<64xf32> loc(#loc24)
      %1585 = memref.load %157[%336, %1456] : memref<?x?xf32, strided<[?, 1]>> loc(#loc24)
      %1586 = vector.broadcast %1585 : f32 to vector<64xf32> loc(#loc24)
      %1587 = vector.fma %1066, %1583, %1199 : vector<64xf32> loc(#loc24)
      %1588 = memref.load %157[%340, %1456] : memref<?x?xf32, strided<[?, 1]>> loc(#loc24)
      %1589 = vector.broadcast %1588 : f32 to vector<64xf32> loc(#loc24)
      %1590 = vector.fma %1066, %1586, %1202 : vector<64xf32> loc(#loc24)
      %1591 = memref.load %157[%344, %1456] : memref<?x?xf32, strided<[?, 1]>> loc(#loc24)
      %1592 = vector.broadcast %1591 : f32 to vector<64xf32> loc(#loc24)
      %1593 = vector.fma %1066, %1589, %1205 : vector<64xf32> loc(#loc24)
      %1594 = memref.load %157[%348, %1456] : memref<?x?xf32, strided<[?, 1]>> loc(#loc24)
      %1595 = vector.broadcast %1594 : f32 to vector<64xf32> loc(#loc24)
      %1596 = vector.fma %1066, %1592, %1208 : vector<64xf32> loc(#loc24)
      %1597 = memref.load %157[%352, %1456] : memref<?x?xf32, strided<[?, 1]>> loc(#loc24)
      %1598 = vector.broadcast %1597 : f32 to vector<64xf32> loc(#loc24)
      %1599 = vector.fma %1066, %1595, %1211 : vector<64xf32> loc(#loc24)
      %1600 = memref.load %157[%356, %1456] : memref<?x?xf32, strided<[?, 1]>> loc(#loc24)
      %1601 = vector.broadcast %1600 : f32 to vector<64xf32> loc(#loc24)
      %1602 = vector.fma %1066, %1598, %1214 : vector<64xf32> loc(#loc24)
      %1603 = memref.load %157[%360, %1456] : memref<?x?xf32, strided<[?, 1]>> loc(#loc24)
      %1604 = vector.broadcast %1603 : f32 to vector<64xf32> loc(#loc24)
      %1605 = vector.fma %1066, %1601, %1217 : vector<64xf32> loc(#loc24)
      %1606 = memref.load %157[%364, %1456] : memref<?x?xf32, strided<[?, 1]>> loc(#loc24)
      %1607 = vector.broadcast %1606 : f32 to vector<64xf32> loc(#loc24)
      %1608 = vector.fma %1066, %1604, %1220 : vector<64xf32> loc(#loc24)
      %1609 = memref.load %157[%368, %1456] : memref<?x?xf32, strided<[?, 1]>> loc(#loc24)
      %1610 = vector.broadcast %1609 : f32 to vector<64xf32> loc(#loc24)
      %1611 = vector.fma %1066, %1607, %1223 : vector<64xf32> loc(#loc24)
      %1612 = memref.load %157[%372, %1456] : memref<?x?xf32, strided<[?, 1]>> loc(#loc24)
      %1613 = vector.broadcast %1612 : f32 to vector<64xf32> loc(#loc24)
      %1614 = vector.fma %1066, %1610, %1226 : vector<64xf32> loc(#loc24)
      %1615 = memref.load %157[%376, %1456] : memref<?x?xf32, strided<[?, 1]>> loc(#loc24)
      %1616 = vector.broadcast %1615 : f32 to vector<64xf32> loc(#loc24)
      %1617 = vector.fma %1066, %1613, %1229 : vector<64xf32> loc(#loc24)
      %1618 = memref.load %157[%380, %1456] : memref<?x?xf32, strided<[?, 1]>> loc(#loc24)
      %1619 = vector.broadcast %1618 : f32 to vector<64xf32> loc(#loc24)
      %1620 = vector.fma %1066, %1616, %1232 : vector<64xf32> loc(#loc24)
      %1621 = memref.load %157[%384, %1456] : memref<?x?xf32, strided<[?, 1]>> loc(#loc24)
      %1622 = vector.broadcast %1621 : f32 to vector<64xf32> loc(#loc24)
      %1623 = vector.fma %1066, %1619, %1235 : vector<64xf32> loc(#loc24)
      %1624 = memref.load %157[%388, %1456] : memref<?x?xf32, strided<[?, 1]>> loc(#loc24)
      %1625 = vector.broadcast %1624 : f32 to vector<64xf32> loc(#loc24)
      %1626 = vector.fma %1066, %1622, %1238 : vector<64xf32> loc(#loc24)
      %1627 = memref.load %157[%392, %1456] : memref<?x?xf32, strided<[?, 1]>> loc(#loc24)
      %1628 = vector.broadcast %1627 : f32 to vector<64xf32> loc(#loc24)
      %1629 = vector.fma %1066, %1625, %1241 : vector<64xf32> loc(#loc24)
      %1630 = memref.load %157[%396, %1456] : memref<?x?xf32, strided<[?, 1]>> loc(#loc24)
      %1631 = vector.broadcast %1630 : f32 to vector<64xf32> loc(#loc24)
      %1632 = vector.fma %1066, %1628, %1244 : vector<64xf32> loc(#loc24)
      %1633 = memref.load %157[%400, %1456] : memref<?x?xf32, strided<[?, 1]>> loc(#loc24)
      %1634 = vector.broadcast %1633 : f32 to vector<64xf32> loc(#loc24)
      %1635 = vector.fma %1066, %1631, %1247 : vector<64xf32> loc(#loc24)
      %1636 = memref.load %157[%404, %1456] : memref<?x?xf32, strided<[?, 1]>> loc(#loc24)
      %1637 = vector.broadcast %1636 : f32 to vector<64xf32> loc(#loc24)
      %1638 = vector.fma %1066, %1634, %1250 : vector<64xf32> loc(#loc24)
      %1639 = memref.load %157[%408, %1456] : memref<?x?xf32, strided<[?, 1]>> loc(#loc24)
      %1640 = vector.broadcast %1639 : f32 to vector<64xf32> loc(#loc24)
      %1641 = vector.fma %1066, %1637, %1253 : vector<64xf32> loc(#loc24)
      %1642 = memref.load %157[%412, %1456] : memref<?x?xf32, strided<[?, 1]>> loc(#loc24)
      %1643 = vector.broadcast %1642 : f32 to vector<64xf32> loc(#loc24)
      %1644 = vector.fma %1066, %1640, %1256 : vector<64xf32> loc(#loc24)
      %1645 = memref.load %157[%416, %1456] : memref<?x?xf32, strided<[?, 1]>> loc(#loc24)
      %1646 = vector.broadcast %1645 : f32 to vector<64xf32> loc(#loc24)
      %1647 = vector.fma %1066, %1643, %1259 : vector<64xf32> loc(#loc24)
      %1648 = memref.load %157[%420, %1456] : memref<?x?xf32, strided<[?, 1]>> loc(#loc24)
      %1649 = vector.broadcast %1648 : f32 to vector<64xf32> loc(#loc24)
      %1650 = vector.fma %1066, %1646, %1262 : vector<64xf32> loc(#loc24)
      %1651 = memref.load %157[%424, %1456] : memref<?x?xf32, strided<[?, 1]>> loc(#loc24)
      %1652 = vector.broadcast %1651 : f32 to vector<64xf32> loc(#loc24)
      %1653 = vector.fma %1066, %1649, %1265 : vector<64xf32> loc(#loc24)
      %1654 = memref.load %157[%428, %1456] : memref<?x?xf32, strided<[?, 1]>> loc(#loc24)
      %1655 = vector.broadcast %1654 : f32 to vector<64xf32> loc(#loc24)
      %1656 = vector.fma %1066, %1652, %1268 : vector<64xf32> loc(#loc24)
      %1657 = memref.load %157[%432, %1456] : memref<?x?xf32, strided<[?, 1]>> loc(#loc24)
      %1658 = vector.broadcast %1657 : f32 to vector<64xf32> loc(#loc24)
      %1659 = vector.fma %1066, %1655, %1271 : vector<64xf32> loc(#loc24)
      %1660 = memref.load %157[%436, %1456] : memref<?x?xf32, strided<[?, 1]>> loc(#loc24)
      %1661 = vector.broadcast %1660 : f32 to vector<64xf32> loc(#loc24)
      %1662 = vector.fma %1066, %1658, %1274 : vector<64xf32> loc(#loc24)
      %1663 = memref.load %157[%440, %1456] : memref<?x?xf32, strided<[?, 1]>> loc(#loc24)
      %1664 = vector.broadcast %1663 : f32 to vector<64xf32> loc(#loc24)
      %1665 = vector.fma %1066, %1661, %1277 : vector<64xf32> loc(#loc24)
      %1666 = memref.load %157[%444, %1456] : memref<?x?xf32, strided<[?, 1]>> loc(#loc24)
      %1667 = vector.broadcast %1666 : f32 to vector<64xf32> loc(#loc24)
      %1668 = vector.fma %1066, %1664, %1280 : vector<64xf32> loc(#loc24)
      %1669 = memref.load %157[%448, %1456] : memref<?x?xf32, strided<[?, 1]>> loc(#loc24)
      %1670 = vector.broadcast %1669 : f32 to vector<64xf32> loc(#loc24)
      %1671 = vector.fma %1066, %1667, %1283 : vector<64xf32> loc(#loc24)
      %1672 = memref.load %157[%452, %1456] : memref<?x?xf32, strided<[?, 1]>> loc(#loc24)
      %1673 = vector.broadcast %1672 : f32 to vector<64xf32> loc(#loc24)
      %1674 = vector.fma %1066, %1670, %1286 : vector<64xf32> loc(#loc24)
      %1675 = memref.load %157[%456, %1456] : memref<?x?xf32, strided<[?, 1]>> loc(#loc24)
      %1676 = vector.broadcast %1675 : f32 to vector<64xf32> loc(#loc24)
      %1677 = vector.fma %1066, %1673, %1289 : vector<64xf32> loc(#loc24)
      %1678 = memref.load %157[%460, %1456] : memref<?x?xf32, strided<[?, 1]>> loc(#loc24)
      %1679 = vector.broadcast %1678 : f32 to vector<64xf32> loc(#loc24)
      %1680 = vector.fma %1066, %1676, %1292 : vector<64xf32> loc(#loc24)
      %1681 = memref.load %157[%464, %1456] : memref<?x?xf32, strided<[?, 1]>> loc(#loc24)
      %1682 = vector.broadcast %1681 : f32 to vector<64xf32> loc(#loc24)
      %1683 = vector.fma %1066, %1679, %1295 : vector<64xf32> loc(#loc24)
      %1684 = memref.load %157[%468, %1456] : memref<?x?xf32, strided<[?, 1]>> loc(#loc24)
      %1685 = vector.broadcast %1684 : f32 to vector<64xf32> loc(#loc24)
      %1686 = vector.fma %1066, %1682, %1298 : vector<64xf32> loc(#loc24)
      %1687 = memref.load %157[%472, %1456] : memref<?x?xf32, strided<[?, 1]>> loc(#loc24)
      %1688 = vector.broadcast %1687 : f32 to vector<64xf32> loc(#loc24)
      %1689 = vector.fma %1066, %1685, %1301 : vector<64xf32> loc(#loc24)
      %1690 = memref.load %157[%476, %1456] : memref<?x?xf32, strided<[?, 1]>> loc(#loc24)
      %1691 = vector.broadcast %1690 : f32 to vector<64xf32> loc(#loc24)
      %1692 = vector.fma %1066, %1688, %1304 : vector<64xf32> loc(#loc24)
      %1693 = memref.load %157[%480, %1456] : memref<?x?xf32, strided<[?, 1]>> loc(#loc24)
      %1694 = vector.broadcast %1693 : f32 to vector<64xf32> loc(#loc24)
      %1695 = vector.fma %1066, %1691, %1307 : vector<64xf32> loc(#loc24)
      %1696 = memref.load %157[%484, %1456] : memref<?x?xf32, strided<[?, 1]>> loc(#loc24)
      %1697 = vector.broadcast %1696 : f32 to vector<64xf32> loc(#loc24)
      %1698 = vector.fma %1066, %1694, %1310 : vector<64xf32> loc(#loc24)
      %1699 = memref.load %157[%488, %1456] : memref<?x?xf32, strided<[?, 1]>> loc(#loc24)
      %1700 = vector.broadcast %1699 : f32 to vector<64xf32> loc(#loc24)
      %1701 = vector.fma %1066, %1697, %1313 : vector<64xf32> loc(#loc24)
      %1702 = memref.load %157[%492, %1456] : memref<?x?xf32, strided<[?, 1]>> loc(#loc24)
      %1703 = vector.broadcast %1702 : f32 to vector<64xf32> loc(#loc24)
      %1704 = vector.fma %1066, %1700, %1316 : vector<64xf32> loc(#loc24)
      %1705 = memref.load %157[%496, %1456] : memref<?x?xf32, strided<[?, 1]>> loc(#loc24)
      %1706 = vector.broadcast %1705 : f32 to vector<64xf32> loc(#loc24)
      %1707 = vector.fma %1066, %1703, %1319 : vector<64xf32> loc(#loc24)
      %1708 = memref.load %157[%500, %1456] : memref<?x?xf32, strided<[?, 1]>> loc(#loc24)
      %1709 = vector.broadcast %1708 : f32 to vector<64xf32> loc(#loc24)
      %1710 = vector.fma %1066, %1706, %1322 : vector<64xf32> loc(#loc24)
      %1711 = memref.load %157[%504, %1456] : memref<?x?xf32, strided<[?, 1]>> loc(#loc24)
      %1712 = vector.broadcast %1711 : f32 to vector<64xf32> loc(#loc24)
      %1713 = vector.fma %1066, %1709, %1325 : vector<64xf32> loc(#loc24)
      %1714 = memref.load %157[%508, %1456] : memref<?x?xf32, strided<[?, 1]>> loc(#loc24)
      %1715 = vector.broadcast %1714 : f32 to vector<64xf32> loc(#loc24)
      %1716 = vector.fma %1066, %1712, %1328 : vector<64xf32> loc(#loc24)
      %1717 = memref.load %157[%512, %1456] : memref<?x?xf32, strided<[?, 1]>> loc(#loc24)
      %1718 = vector.broadcast %1717 : f32 to vector<64xf32> loc(#loc24)
      %1719 = vector.fma %1066, %1715, %1331 : vector<64xf32> loc(#loc24)
      %1720 = memref.load %157[%516, %1456] : memref<?x?xf32, strided<[?, 1]>> loc(#loc24)
      %1721 = vector.broadcast %1720 : f32 to vector<64xf32> loc(#loc24)
      %1722 = vector.fma %1066, %1718, %1334 : vector<64xf32> loc(#loc24)
      %1723 = memref.load %157[%520, %1456] : memref<?x?xf32, strided<[?, 1]>> loc(#loc24)
      %1724 = vector.broadcast %1723 : f32 to vector<64xf32> loc(#loc24)
      %1725 = vector.fma %1066, %1721, %1337 : vector<64xf32> loc(#loc24)
      %1726 = memref.load %157[%524, %1456] : memref<?x?xf32, strided<[?, 1]>> loc(#loc24)
      %1727 = vector.broadcast %1726 : f32 to vector<64xf32> loc(#loc24)
      %1728 = vector.fma %1066, %1724, %1340 : vector<64xf32> loc(#loc24)
      %1729 = memref.load %157[%528, %1456] : memref<?x?xf32, strided<[?, 1]>> loc(#loc24)
      %1730 = vector.broadcast %1729 : f32 to vector<64xf32> loc(#loc24)
      %1731 = vector.fma %1066, %1727, %1343 : vector<64xf32> loc(#loc24)
      %1732 = memref.load %157[%532, %1456] : memref<?x?xf32, strided<[?, 1]>> loc(#loc24)
      %1733 = vector.broadcast %1732 : f32 to vector<64xf32> loc(#loc24)
      %1734 = vector.fma %1066, %1730, %1346 : vector<64xf32> loc(#loc24)
      %1735 = memref.load %157[%536, %1456] : memref<?x?xf32, strided<[?, 1]>> loc(#loc24)
      %1736 = vector.broadcast %1735 : f32 to vector<64xf32> loc(#loc24)
      %1737 = vector.fma %1066, %1733, %1349 : vector<64xf32> loc(#loc24)
      %1738 = memref.load %157[%540, %1456] : memref<?x?xf32, strided<[?, 1]>> loc(#loc24)
      %1739 = vector.broadcast %1738 : f32 to vector<64xf32> loc(#loc24)
      %1740 = vector.fma %1066, %1736, %1352 : vector<64xf32> loc(#loc24)
      %1741 = memref.load %157[%544, %1456] : memref<?x?xf32, strided<[?, 1]>> loc(#loc24)
      %1742 = vector.broadcast %1741 : f32 to vector<64xf32> loc(#loc24)
      %1743 = vector.fma %1066, %1739, %1355 : vector<64xf32> loc(#loc24)
      %1744 = memref.load %157[%548, %1456] : memref<?x?xf32, strided<[?, 1]>> loc(#loc24)
      %1745 = vector.broadcast %1744 : f32 to vector<64xf32> loc(#loc24)
      %1746 = vector.fma %1066, %1742, %1358 : vector<64xf32> loc(#loc24)
      %1747 = memref.load %157[%552, %1456] : memref<?x?xf32, strided<[?, 1]>> loc(#loc24)
      %1748 = vector.broadcast %1747 : f32 to vector<64xf32> loc(#loc24)
      %1749 = vector.fma %1066, %1745, %1361 : vector<64xf32> loc(#loc24)
…
      %6097 = memref.load %157[%660, %5725] : memref<?x?xf32, strided<[?, 1]>> loc(#loc24)
      %6098 = vector.broadcast %6097 : f32 to vector<64xf32> loc(#loc24)
      %6099 = vector.fma %5335, %6095, %5711 : vector<64xf32> loc(#loc24)
      %6100 = memref.load %157[%664, %5725] : memref<?x?xf32, strided<[?, 1]>> loc(#loc24)
      %6101 = vector.broadcast %6100 : f32 to vector<64xf32> loc(#loc24)
      %6102 = vector.fma %5335, %6098, %5714 : vector<64xf32> loc(#loc24)
      %6103 = memref.load %157[%668, %5725] : memref<?x?xf32, strided<[?, 1]>> loc(#loc24)
      %6104 = vector.broadcast %6103 : f32 to vector<64xf32> loc(#loc24)
      %6105 = vector.fma %5335, %6101, %5717 : vector<64xf32> loc(#loc24)
      %6106 = memref.load %157[%672, %5725] : memref<?x?xf32, strided<[?, 1]>> loc(#loc24)
      %6107 = vector.broadcast %6106 : f32 to vector<64xf32> loc(#loc24)
      %6108 = vector.fma %5335, %6104, %5720 : vector<64xf32> loc(#loc24)
      %6109 = vector.fma %5335, %6107, %5721 : vector<64xf32> loc(#loc24)
      %6110 = arith.addi %160#0, %c31 : index loc(#loc24)
      memref.prefetch %159[%6110, %160#1], read, locality<1>, data : memref<?x?xf32, strided<[?, 1]>> loc(#loc24)
      %6111 = arith.addi %158#1, %c15 : index loc(#loc24)
      %6112 = memref.load %157[%158#0, %6111] : memref<?x?xf32, strided<[?, 1]>> loc(#loc24)
      %6113 = vector.broadcast %6112 : f32 to vector<64xf32> loc(#loc24)
      %6114 = memref.load %157[%168, %6111] : memref<?x?xf32, strided<[?, 1]>> loc(#loc24)
      %6115 = vector.broadcast %6114 : f32 to vector<64xf32> loc(#loc24)
      %6116 = vector.fma %5723, %6113, %5730 : vector<64xf32> loc(#loc24)
      %6117 = memref.load %157[%172, %6111] : memref<?x?xf32, strided<[?, 1]>> loc(#loc24)
      %6118 = vector.broadcast %6117 : f32 to vector<64xf32> loc(#loc24)
      %6119 = vector.fma %5723, %6115, %5733 : vector<64xf32> loc(#loc24)
      %6120 = memref.load %157[%176, %6111] : memref<?x?xf32, strided<[?, 1]>> loc(#loc24)
      %6121 = vector.broadcast %6120 : f32 to vector<64xf32> loc(#loc24)
      %6122 = vector.fma %5723, %6118, %5736 : vector<64xf32> loc(#loc24)
      %6123 = memref.load %157[%180, %6111] : memref<?x?xf32, strided<[?, 1]>> loc(#loc24)
      %6124 = vector.broadcast %6123 : f32 to vector<64xf32> loc(#loc24)
      %6125 = vector.fma %5723, %6121, %5739 : vector<64xf32> loc(#loc24)
      %6126 = memref.load %157[%184, %6111] : memref<?x?xf32, strided<[?, 1]>> loc(#loc24)
      %6127 = vector.broadcast %6126 : f32 to vector<64xf32> loc(#loc24)
      %6128 = vector.fma %5723, %6124, %5742 : vector<64xf32> loc(#loc24)
      %6129 = memref.load %157[%188, %6111] : memref<?x?xf32, strided<[?, 1]>> loc(#loc24)
      %6130 = vector.broadcast %6129 : f32 to vector<64xf32> loc(#loc24)
      %6131 = vector.fma %5723, %6127, %5745 : vector<64xf32> loc(#loc24)
      %6132 = memref.load %157[%192, %6111] : memref<?x?xf32, strided<[?, 1]>> loc(#loc24)
      %6133 = vector.broadcast %6132 : f32 to vector<64xf32> loc(#loc24)
      %6134 = vector.fma %5723, %6130, %5748 : vector<64xf32> loc(#loc24)
      %6135 = memref.load %157[%196, %6111] : memref<?x?xf32, strided<[?, 1]>> loc(#loc24)
      %6136 = vector.broadcast %6135 : f32 to vector<64xf32> loc(#loc24)
      %6137 = vector.fma %5723, %6133, %5751 : vector<64xf32> loc(#loc24)
      %6138 = memref.load %157[%200, %6111] : memref<?x?xf32, strided<[?, 1]>> loc(#loc24)
      %6139 = vector.broadcast %6138 : f32 to vector<64xf32> loc(#loc24)
      %6140 = vector.fma %5723, %6136, %5754 : vector<64xf32> loc(#loc24)
      %6141 = memref.load %157[%204, %6111] : memref<?x?xf32, strided<[?, 1]>> loc(#loc24)
      %6142 = vector.broadcast %6141 : f32 to vector<64xf32> loc(#loc24)
      %6143 = vector.fma %5723, %6139, %5757 : vector<64xf32> loc(#loc24)
      %6144 = memref.load %157[%208, %6111] : memref<?x?xf32, strided<[?, 1]>> loc(#loc24)
      %6145 = vector.broadcast %6144 : f32 to vector<64xf32> loc(#loc24)
      %6146 = vector.fma %5723, %6142, %5760 : vector<64xf32> loc(#loc24)
      %6147 = memref.load %157[%212, %6111] : memref<?x?xf32, strided<[?, 1]>> loc(#loc24)
      %6148 = vector.broadcast %6147 : f32 to vector<64xf32> loc(#loc24)
      %6149 = vector.fma %5723, %6145, %5763 : vector<64xf32> loc(#loc24)
      %6150 = memref.load %157[%216, %6111] : memref<?x?xf32, strided<[?, 1]>> loc(#loc24)
      %6151 = vector.broadcast %6150 : f32 to vector<64xf32> loc(#loc24)
      %6152 = vector.fma %5723, %6148, %5766 : vector<64xf32> loc(#loc24)
      %6153 = memref.load %157[%220, %6111] : memref<?x?xf32, strided<[?, 1]>> loc(#loc24)
      %6154 = vector.broadcast %6153 : f32 to vector<64xf32> loc(#loc24)
      %6155 = vector.fma %5723, %6151, %5769 : vector<64xf32> loc(#loc24)
      %6156 = memref.load %157[%224, %6111] : memref<?x?xf32, strided<[?, 1]>> loc(#loc24)
      %6157 = vector.broadcast %6156 : f32 to vector<64xf32> loc(#loc24)
      %6158 = vector.fma %5723, %6154, %5772 : vector<64xf32> loc(#loc24)
      %6159 = memref.load %157[%228, %6111] : memref<?x?xf32, strided<[?, 1]>> loc(#loc24)
      %6160 = vector.broadcast %6159 : f32 to vector<64xf32> loc(#loc24)
      %6161 = vector.fma %5723, %6157, %5775 : vector<64xf32> loc(#loc24)
      %6162 = memref.load %157[%232, %6111] : memref<?x?xf32, strided<[?, 1]>> loc(#loc24)
      %6163 = vector.broadcast %6162 : f32 to vector<64xf32> loc(#loc24)
      %6164 = vector.fma %5723, %6160, %5778 : vector<64xf32> loc(#loc24)
      %6165 = memref.load %157[%236, %6111] : memref<?x?xf32, strided<[?, 1]>> loc(#loc24)
      %6166 = vector.broadcast %6165 : f32 to vector<64xf32> loc(#loc24)
      %6167 = vector.fma %5723, %6163, %5781 : vector<64xf32> loc(#loc24)
      %6168 = memref.load %157[%240, %6111] : memref<?x?xf32, strided<[?, 1]>> loc(#loc24)
      %6169 = vector.broadcast %6168 : f32 to vector<64xf32> loc(#loc24)
      %6170 = vector.fma %5723, %6166, %5784 : vector<64xf32> loc(#loc24)
      %6171 = memref.load %157[%244, %6111] : memref<?x?xf32, strided<[?, 1]>> loc(#loc24)
      %6172 = vector.broadcast %6171 : f32 to vector<64xf32> loc(#loc24)
      %6173 = vector.fma %5723, %6169, %5787 : vector<64xf32> loc(#loc24)
      %6174 = memref.load %157[%248, %6111] : memref<?x?xf32, strided<[?, 1]>> loc(#loc24)
      %6175 = vector.broadcast %6174 : f32 to vector<64xf32> loc(#loc24)
      %6176 = vector.fma %5723, %6172, %5790 : vector<64xf32> loc(#loc24)
      %6177 = memref.load %157[%252, %6111] : memref<?x?xf32, strided<[?, 1]>> loc(#loc24)
      %6178 = vector.broadcast %6177 : f32 to vector<64xf32> loc(#loc24)
      %6179 = vector.fma %5723, %6175, %5793 : vector<64xf32> loc(#loc24)
      %6180 = memref.load %157[%256, %6111] : memref<?x?xf32, strided<[?, 1]>> loc(#loc24)
      %6181 = vector.broadcast %6180 : f32 to vector<64xf32> loc(#loc24)
      %6182 = vector.fma %5723, %6178, %5796 : vector<64xf32> loc(#loc24)
      %6183 = memref.load %157[%260, %6111] : memref<?x?xf32, strided<[?, 1]>> loc(#loc24)
      %6184 = vector.broadcast %6183 : f32 to vector<64xf32> loc(#loc24)
      %6185 = vector.fma %5723, %6181, %5799 : vector<64xf32> loc(#loc24)
      %6186 = memref.load %157[%264, %6111] : memref<?x?xf32, strided<[?, 1]>> loc(#loc24)
      %6187 = vector.broadcast %6186 : f32 to vector<64xf32> loc(#loc24)
      %6188 = vector.fma %5723, %6184, %5802 : vector<64xf32> loc(#loc24)
      %6189 = memref.load %157[%268, %6111] : memref<?x?xf32, strided<[?, 1]>> loc(#loc24)
      %6190 = vector.broadcast %6189 : f32 to vector<64xf32> loc(#loc24)
      %6191 = vector.fma %5723, %6187, %5805 : vector<64xf32> loc(#loc24)
      %6192 = memref.load %157[%272, %6111] : memref<?x?xf32, strided<[?, 1]>> loc(#loc24)
      %6193 = vector.broadcast %6192 : f32 to vector<64xf32> loc(#loc24)
      %6194 = vector.fma %5723, %6190, %5808 : vector<64xf32> loc(#loc24)
      %6195 = memref.load %157[%276, %6111] : memref<?x?xf32, strided<[?, 1]>> loc(#loc24)
      %6196 = vector.broadcast %6195 : f32 to vector<64xf32> loc(#loc24)
      %6197 = vector.fma %5723, %6193, %5811 : vector<64xf32> loc(#loc24)
      %6198 = memref.load %157[%280, %6111] : memref<?x?xf32, strided<[?, 1]>> loc(#loc24)
      %6199 = vector.broadcast %6198 : f32 to vector<64xf32> loc(#loc24)
      %6200 = vector.fma %5723, %6196, %5814 : vector<64xf32> loc(#loc24)
      %6201 = memref.load %157[%284, %6111] : memref<?x?xf32, strided<[?, 1]>> loc(#loc24)
      %6202 = vector.broadcast %6201 : f32 to vector<64xf32> loc(#loc24)
      %6203 = vector.fma %5723, %6199, %5817 : vector<64xf32> loc(#loc24)
      %6204 = memref.load %157[%288, %6111] : memref<?x?xf32, strided<[?, 1]>> loc(#loc24)
      %6205 = vector.broadcast %6204 : f32 to vector<64xf32> loc(#loc24)
      %6206 = vector.fma %5723, %6202, %5820 : vector<64xf32> loc(#loc24)
      %6207 = memref.load %157[%292, %6111] : memref<?x?xf32, strided<[?, 1]>> loc(#loc24)
      %6208 = vector.broadcast %6207 : f32 to vector<64xf32> loc(#loc24)
      %6209 = vector.fma %5723, %6205, %5823 : vector<64xf32> loc(#loc24)
      %6210 = memref.load %157[%296, %6111] : memref<?x?xf32, strided<[?, 1]>> loc(#loc24)
      %6211 = vector.broadcast %6210 : f32 to vector<64xf32> loc(#loc24)
      %6212 = vector.fma %5723, %6208, %5826 : vector<64xf32> loc(#loc24)
      %6213 = memref.load %157[%300, %6111] : memref<?x?xf32, strided<[?, 1]>> loc(#loc24)
      %6214 = vector.broadcast %6213 : f32 to vector<64xf32> loc(#loc24)
      %6215 = vector.fma %5723, %6211, %5829 : vector<64xf32> loc(#loc24)
      %6216 = memref.load %157[%304, %6111] : memref<?x?xf32, strided<[?, 1]>> loc(#loc24)
      %6217 = vector.broadcast %6216 : f32 to vector<64xf32> loc(#loc24)
      %6218 = vector.fma %5723, %6214, %5832 : vector<64xf32> loc(#loc24)
      %6219 = memref.load %157[%308, %6111] : memref<?x?xf32, strided<[?, 1]>> loc(#loc24)
      %6220 = vector.broadcast %6219 : f32 to vector<64xf32> loc(#loc24)
      %6221 = vector.fma %5723, %6217, %5835 : vector<64xf32> loc(#loc24)
      %6222 = memref.load %157[%312, %6111] : memref<?x?xf32, strided<[?, 1]>> loc(#loc24)
      %6223 = vector.broadcast %6222 : f32 to vector<64xf32> loc(#loc24)
      %6224 = vector.fma %5723, %6220, %5838 : vector<64xf32> loc(#loc24)
      %6225 = memref.load %157[%316, %6111] : memref<?x?xf32, strided<[?, 1]>> loc(#loc24)
      %6226 = vector.broadcast %6225 : f32 to vector<64xf32> loc(#loc24)
      %6227 = vector.fma %5723, %6223, %5841 : vector<64xf32> loc(#loc24)
      %6228 = memref.load %157[%320, %6111] : memref<?x?xf32, strided<[?, 1]>> loc(#loc24)
      %6229 = vector.broadcast %6228 : f32 to vector<64xf32> loc(#loc24)
      %6230 = vector.fma %5723, %6226, %5844 : vector<64xf32> loc(#loc24)
      %6231 = memref.load %157[%324, %6111] : memref<?x?xf32, strided<[?, 1]>> loc(#loc24)
      %6232 = vector.broadcast %6231 : f32 to vector<64xf32> loc(#loc24)
      %6233 = vector.fma %5723, %6229, %5847 : vector<64xf32> loc(#loc24)
      %6234 = memref.load %157[%328, %6111] : memref<?x?xf32, strided<[?, 1]>> loc(#loc24)
      %6235 = vector.broadcast %6234 : f32 to vector<64xf32> loc(#loc24)
      %6236 = vector.fma %5723, %6232, %5850 : vector<64xf32> loc(#loc24)
      %6237 = memref.load %157[%332, %6111] : memref<?x?xf32, strided<[?, 1]>> loc(#loc24)
      %6238 = vector.broadcast %6237 : f32 to vector<64xf32> loc(#loc24)
      %6239 = vector.fma %5723, %6235, %5853 : vector<64xf32> loc(#loc24)
      %6240 = memref.load %157[%336, %6111] : memref<?x?xf32, strided<[?, 1]>> loc(#loc24)
      %6241 = vector.broadcast %6240 : f32 to vector<64xf32> loc(#loc24)
      %6242 = vector.fma %5723, %6238, %5856 : vector<64xf32> loc(#loc24)
      %6243 = memref.load %157[%340, %6111] : memref<?x?xf32, strided<[?, 1]>> loc(#loc24)
      %6244 = vector.broadcast %6243 : f32 to vector<64xf32> loc(#loc24)
      %6245 = vector.fma %5723, %6241, %5859 : vector<64xf32> loc(#loc24)
      %6246 = memref.load %157[%344, %6111] : memref<?x?xf32, strided<[?, 1]>> loc(#loc24)
      %6247 = vector.broadcast %6246 : f32 to vector<64xf32> loc(#loc24)
      %6248 = vector.fma %5723, %6244, %5862 : vector<64xf32> loc(#loc24)
      %6249 = memref.load %157[%348, %6111] : memref<?x?xf32, strided<[?, 1]>> loc(#loc24)
      %6250 = vector.broadcast %6249 : f32 to vector<64xf32> loc(#loc24)
      %6251 = vector.fma %5723, %6247, %5865 : vector<64xf32> loc(#loc24)
      %6252 = memref.load %157[%352, %6111] : memref<?x?xf32, strided<[?, 1]>> loc(#loc24)
      %6253 = vector.broadcast %6252 : f32 to vector<64xf32> loc(#loc24)
      %6254 = vector.fma %5723, %6250, %5868 : vector<64xf32> loc(#loc24)
      %6255 = memref.load %157[%356, %6111] : memref<?x?xf32, strided<[?, 1]>> loc(#loc24)
      %6256 = vector.broadcast %6255 : f32 to vector<64xf32> loc(#loc24)
      %6257 = vector.fma %5723, %6253, %5871 : vector<64xf32> loc(#loc24)
      %6258 = memref.load %157[%360, %6111] : memref<?x?xf32, strided<[?, 1]>> loc(#loc24)
      %6259 = vector.broadcast %6258 : f32 to vector<64xf32> loc(#loc24)
      %6260 = vector.fma %5723, %6256, %5874 : vector<64xf32> loc(#loc24)
      %6261 = memref.load %157[%364, %6111] : memref<?x?xf32, strided<[?, 1]>> loc(#loc24)
      %6262 = vector.broadcast %6261 : f32 to vector<64xf32> loc(#loc24)
      %6263 = vector.fma %5723, %6259, %5877 : vector<64xf32> loc(#loc24)
      %6264 = memref.load %157[%368, %6111] : memref<?x?xf32, strided<[?, 1]>> loc(#loc24)
      %6265 = vector.broadcast %6264 : f32 to vector<64xf32> loc(#loc24)
      %6266 = vector.fma %5723, %6262, %5880 : vector<64xf32> loc(#loc24)
      %6267 = memref.load %157[%372, %6111] : memref<?x?xf32, strided<[?, 1]>> loc(#loc24)
      %6268 = vector.broadcast %6267 : f32 to vector<64xf32> loc(#loc24)
      %6269 = vector.fma %5723, %6265, %5883 : vector<64xf32> loc(#loc24)
      %6270 = memref.load %157[%376, %6111] : memref<?x?xf32, strided<[?, 1]>> loc(#loc24)
      %6271 = vector.broadcast %6270 : f32 to vector<64xf32> loc(#loc24)
      %6272 = vector.fma %5723, %6268, %5886 : vector<64xf32> loc(#loc24)
      %6273 = memref.load %157[%380, %6111] : memref<?x?xf32, strided<[?, 1]>> loc(#loc24)
      %6274 = vector.broadcast %6273 : f32 to vector<64xf32> loc(#loc24)
      %6275 = vector.fma %5723, %6271, %5889 : vector<64xf32> loc(#loc24)
      %6276 = memref.load %157[%384, %6111] : memref<?x?xf32, strided<[?, 1]>> loc(#loc24)
      %6277 = vector.broadcast %6276 : f32 to vector<64xf32> loc(#loc24)
      %6278 = vector.fma %5723, %6274, %5892 : vector<64xf32> loc(#loc24)
      %6279 = memref.load %157[%388, %6111] : memref<?x?xf32, strided<[?, 1]>> loc(#loc24)
      %6280 = vector.broadcast %6279 : f32 to vector<64xf32> loc(#loc24)
      %6281 = vector.fma %5723, %6277, %5895 : vector<64xf32> loc(#loc24)
      %6282 = memref.load %157[%392, %6111] : memref<?x?xf32, strided<[?, 1]>> loc(#loc24)
      %6283 = vector.broadcast %6282 : f32 to vector<64xf32> loc(#loc24)
      %6284 = vector.fma %5723, %6280, %5898 : vector<64xf32> loc(#loc24)
      %6285 = memref.load %157[%396, %6111] : memref<?x?xf32, strided<[?, 1]>> loc(#loc24)
      %6286 = vector.broadcast %6285 : f32 to vector<64xf32> loc(#loc24)
      %6287 = vector.fma %5723, %6283, %5901 : vector<64xf32> loc(#loc24)
      %6288 = memref.load %157[%400, %6111] : memref<?x?xf32, strided<[?, 1]>> loc(#loc24)
      %6289 = vector.broadcast %6288 : f32 to vector<64xf32> loc(#loc24)
      %6290 = vector.fma %5723, %6286, %5904 : vector<64xf32> loc(#loc24)
      %6291 = memref.load %157[%404, %6111] : memref<?x?xf32, strided<[?, 1]>> loc(#loc24)
      %6292 = vector.broadcast %6291 : f32 to vector<64xf32> loc(#loc24)
      %6293 = vector.fma %5723, %6289, %5907 : vector<64xf32> loc(#loc24)
      %6294 = memref.load %157[%408, %6111] : memref<?x?xf32, strided<[?, 1]>> loc(#loc24)
      %6295 = vector.broadcast %6294 : f32 to vector<64xf32> loc(#loc24)
      %6296 = vector.fma %5723, %6292, %5910 : vector<64xf32> loc(#loc24)
      %6297 = memref.load %157[%412, %6111] : memref<?x?xf32, strided<[?, 1]>> loc(#loc24)
      %6298 = vector.broadcast %6297 : f32 to vector<64xf32> loc(#loc24)
      %6299 = vector.fma %5723, %6295, %5913 : vector<64xf32> loc(#loc24)
      %6300 = memref.load %157[%416, %6111] : memref<?x?xf32, strided<[?, 1]>> loc(#loc24)
      %6301 = vector.broadcast %6300 : f32 to vector<64xf32> loc(#loc24)
      %6302 = vector.fma %5723, %6298, %5916 : vector<64xf32> loc(#loc24)
      %6303 = memref.load %157[%420, %6111] : memref<?x?xf32, strided<[?, 1]>> loc(#loc24)
      %6304 = vector.broadcast %6303 : f32 to vector<64xf32> loc(#loc24)
      %6305 = vector.fma %5723, %6301, %5919 : vector<64xf32> loc(#loc24)
      %6306 = memref.load %157[%424, %6111] : memref<?x?xf32, strided<[?, 1]>> loc(#loc24)
      %6307 = vector.broadcast %6306 : f32 to vector<64xf32> loc(#loc24)
      %6308 = vector.fma %5723, %6304, %5922 : vector<64xf32> loc(#loc24)
      %6309 = memref.load %157[%428, %6111] : memref<?x?xf32, strided<[?, 1]>> loc(#loc24)
      %6310 = vector.broadcast %6309 : f32 to vector<64xf32> loc(#loc24)
      %6311 = vector.fma %5723, %6307, %5925 : vector<64xf32> loc(#loc24)
      %6312 = memref.load %157[%432, %6111] : memref<?x?xf32, strided<[?, 1]>> loc(#loc24)
      %6313 = vector.broadcast %6312 : f32 to vector<64xf32> loc(#loc24)
      %6314 = vector.fma %5723, %6310, %5928 : vector<64xf32> loc(#loc24)
      %6315 = memref.load %157[%436, %6111] : memref<?x?xf32, strided<[?, 1]>> loc(#loc24)
      %6316 = vector.broadcast %6315 : f32 to vector<64xf32> loc(#loc24)
      %6317 = vector.fma %5723, %6313, %5931 : vector<64xf32> loc(#loc24)
      %6318 = memref.load %157[%440, %6111] : memref<?x?xf32, strided<[?, 1]>> loc(#loc24)
      %6319 = vector.broadcast %6318 : f32 to vector<64xf32> loc(#loc24)
      %6320 = vector.fma %5723, %6316, %5934 : vector<64xf32> loc(#loc24)
      %6321 = memref.load %157[%444, %6111] : memref<?x?xf32, strided<[?, 1]>> loc(#loc24)
      %6322 = vector.broadcast %6321 : f32 to vector<64xf32> loc(#loc24)
      %6323 = vector.fma %5723, %6319, %5937 : vector<64xf32> loc(#loc24)
      %6324 = memref.load %157[%448, %6111] : memref<?x?xf32, strided<[?, 1]>> loc(#loc24)
      %6325 = vector.broadcast %6324 : f32 to vector<64xf32> loc(#loc24)
      %6326 = vector.fma %5723, %6322, %5940 : vector<64xf32> loc(#loc24)
      %6327 = memref.load %157[%452, %6111] : memref<?x?xf32, strided<[?, 1]>> loc(#loc24)
      %6328 = vector.broadcast %6327 : f32 to vector<64xf32> loc(#loc24)
      %6329 = vector.fma %5723, %6325, %5943 : vector<64xf32> loc(#loc24)
      %6330 = memref.load %157[%456, %6111] : memref<?x?xf32, strided<[?, 1]>> loc(#loc24)
      %6331 = vector.broadcast %6330 : f32 to vector<64xf32> loc(#loc24)
      %6332 = vector.fma %5723, %6328, %5946 : vector<64xf32> loc(#loc24)
      %6333 = memref.load %157[%460, %6111] : memref<?x?xf32, strided<[?, 1]>> loc(#loc24)
      %6334 = vector.broadcast %6333 : f32 to vector<64xf32> loc(#loc24)
      %6335 = vector.fma %5723, %6331, %5949 : vector<64xf32> loc(#loc24)
      %6336 = memref.load %157[%464, %6111] : memref<?x?xf32, strided<[?, 1]>> loc(#loc24)
      %6337 = vector.broadcast %6336 : f32 to vector<64xf32> loc(#loc24)
      %6338 = vector.fma %5723, %6334, %5952 : vector<64xf32> loc(#loc24)
      %6339 = memref.load %157[%468, %6111] : memref<?x?xf32, strided<[?, 1]>> loc(#loc24)
      %6340 = vector.broadcast %6339 : f32 to vector<64xf32> loc(#loc24)
      %6341 = vector.fma %5723, %6337, %5955 : vector<64xf32> loc(#loc24)
      %6342 = memref.load %157[%472, %6111] : memref<?x?xf32, strided<[?, 1]>> loc(#loc24)
      %6343 = vector.broadcast %6342 : f32 to vector<64xf32> loc(#loc24)
      %6344 = vector.fma %5723, %6340, %5958 : vector<64xf32> loc(#loc24)
      %6345 = memref.load %157[%476, %6111] : memref<?x?xf32, strided<[?, 1]>> loc(#loc24)
      %6346 = vector.broadcast %6345 : f32 to vector<64xf32> loc(#loc24)
      %6347 = vector.fma %5723, %6343, %5961 : vector<64xf32> loc(#loc24)
      %6348 = memref.load %157[%480, %6111] : memref<?x?xf32, strided<[?, 1]>> loc(#loc24)
      %6349 = vector.broadcast %6348 : f32 to vector<64xf32> loc(#loc24)
      %6350 = vector.fma %5723, %6346, %5964 : vector<64xf32> loc(#loc24)
      %6351 = memref.load %157[%484, %6111] : memref<?x?xf32, strided<[?, 1]>> loc(#loc24)
      %6352 = vector.broadcast %6351 : f32 to vector<64xf32> loc(#loc24)
      %6353 = vector.fma %5723, %6349, %5967 : vector<64xf32> loc(#loc24)
      %6354 = memref.load %157[%488, %6111] : memref<?x?xf32, strided<[?, 1]>> loc(#loc24)
      %6355 = vector.broadcast %6354 : f32 to vector<64xf32> loc(#loc24)
      %6356 = vector.fma %5723, %6352, %5970 : vector<64xf32> loc(#loc24)
      %6357 = memref.load %157[%492, %6111] : memref<?x?xf32, strided<[?, 1]>> loc(#loc24)
      %6358 = vector.broadcast %6357 : f32 to vector<64xf32> loc(#loc24)
      %6359 = vector.fma %5723, %6355, %5973 : vector<64xf32> loc(#loc24)
      %6360 = memref.load %157[%496, %6111] : memref<?x?xf32, strided<[?, 1]>> loc(#loc24)
      %6361 = vector.broadcast %6360 : f32 to vector<64xf32> loc(#loc24)
      %6362 = vector.fma %5723, %6358, %5976 : vector<64xf32> loc(#loc24)
      %6363 = memref.load %157[%500, %6111] : memref<?x?xf32, strided<[?, 1]>> loc(#loc24)
      %6364 = vector.broadcast %6363 : f32 to vector<64xf32> loc(#loc24)
      %6365 = vector.fma %5723, %6361, %5979 : vector<64xf32> loc(#loc24)
      %6366 = memref.load %157[%504, %6111] : memref<?x?xf32, strided<[?, 1]>> loc(#loc24)
      %6367 = vector.broadcast %6366 : f32 to vector<64xf32> loc(#loc24)
      %6368 = vector.fma %5723, %6364, %5982 : vector<64xf32> loc(#loc24)
      %6369 = memref.load %157[%508, %6111] : memref<?x?xf32, strided<[?, 1]>> loc(#loc24)
      %6370 = vector.broadcast %6369 : f32 to vector<64xf32> loc(#loc24)
      %6371 = vector.fma %5723, %6367, %5985 : vector<64xf32> loc(#loc24)
      %6372 = memref.load %157[%512, %6111] : memref<?x?xf32, strided<[?, 1]>> loc(#loc24)
      %6373 = vector.broadcast %6372 : f32 to vector<64xf32> loc(#loc24)
      %6374 = vector.fma %5723, %6370, %5988 : vector<64xf32> loc(#loc24)
      %6375 = memref.load %157[%516, %6111] : memref<?x?xf32, strided<[?, 1]>> loc(#loc24)
      %6376 = vector.broadcast %6375 : f32 to vector<64xf32> loc(#loc24)
      %6377 = vector.fma %5723, %6373, %5991 : vector<64xf32> loc(#loc24)
      %6378 = memref.load %157[%520, %6111] : memref<?x?xf32, strided<[?, 1]>> loc(#loc24)
      %6379 = vector.broadcast %6378 : f32 to vector<64xf32> loc(#loc24)
      %6380 = vector.fma %5723, %6376, %5994 : vector<64xf32> loc(#loc24)
      %6381 = memref.load %157[%524, %6111] : memref<?x?xf32, strided<[?, 1]>> loc(#loc24)
      %6382 = vector.broadcast %6381 : f32 to vector<64xf32> loc(#loc24)
      %6383 = vector.fma %5723, %6379, %5997 : vector<64xf32> loc(#loc24)
      %6384 = memref.load %157[%528, %6111] : memref<?x?xf32, strided<[?, 1]>> loc(#loc24)
      %6385 = vector.broadcast %6384 : f32 to vector<64xf32> loc(#loc24)
      %6386 = vector.fma %5723, %6382, %6000 : vector<64xf32> loc(#loc24)
      %6387 = memref.load %157[%532, %6111] : memref<?x?xf32, strided<[?, 1]>> loc(#loc24)
      %6388 = vector.broadcast %6387 : f32 to vector<64xf32> loc(#loc24)
      %6389 = vector.fma %5723, %6385, %6003 : vector<64xf32> loc(#loc24)
      %6390 = memref.load %157[%536, %6111] : memref<?x?xf32, strided<[?, 1]>> loc(#loc24)
      %6391 = vector.broadcast %6390 : f32 to vector<64xf32> loc(#loc24)
      %6392 = vector.fma %5723, %6388, %6006 : vector<64xf32> loc(#loc24)
      %6393 = memref.load %157[%540, %6111] : memref<?x?xf32, strided<[?, 1]>> loc(#loc24)
      %6394 = vector.broadcast %6393 : f32 to vector<64xf32> loc(#loc24)
      %6395 = vector.fma %5723, %6391, %6009 : vector<64xf32> loc(#loc24)
      %6396 = memref.load %157[%544, %6111] : memref<?x?xf32, strided<[?, 1]>> loc(#loc24)
      %6397 = vector.broadcast %6396 : f32 to vector<64xf32> loc(#loc24)
      %6398 = vector.fma %5723, %6394, %6012 : vector<64xf32> loc(#loc24)
      %6399 = memref.load %157[%548, %6111] : memref<?x?xf32, strided<[?, 1]>> loc(#loc24)
      %6400 = vector.broadcast %6399 : f32 to vector<64xf32> loc(#loc24)
      %6401 = vector.fma %5723, %6397, %6015 : vector<64xf32> loc(#loc24)
      %6402 = memref.load %157[%552, %6111] : memref<?x?xf32, strided<[?, 1]>> loc(#loc24)
      %6403 = vector.broadcast %6402 : f32 to vector<64xf32> loc(#loc24)
      %6404 = vector.fma %5723, %6400, %6018 : vector<64xf32> loc(#loc24)
      %6405 = memref.load %157[%556, %6111] : memref<?x?xf32, strided<[?, 1]>> loc(#loc24)
      %6406 = vector.broadcast %6405 : f32 to vector<64xf32> loc(#loc24)
      %6407 = vector.fma %5723, %6403, %6021 : vector<64xf32> loc(#loc24)
      %6408 = memref.load %157[%560, %6111] : memref<?x?xf32, strided<[?, 1]>> loc(#loc24)
      %6409 = vector.broadcast %6408 : f32 to vector<64xf32> loc(#loc24)
      %6410 = vector.fma %5723, %6406, %6024 : vector<64xf32> loc(#loc24)
      %6411 = memref.load %157[%564, %6111] : memref<?x?xf32, strided<[?, 1]>> loc(#loc24)
      %6412 = vector.broadcast %6411 : f32 to vector<64xf32> loc(#loc24)
      %6413 = vector.fma %5723, %6409, %6027 : vector<64xf32> loc(#loc24)
      %6414 = memref.load %157[%568, %6111] : memref<?x?xf32, strided<[?, 1]>> loc(#loc24)
      %6415 = vector.broadcast %6414 : f32 to vector<64xf32> loc(#loc24)
      %6416 = vector.fma %5723, %6412, %6030 : vector<64xf32> loc(#loc24)
      %6417 = memref.load %157[%572, %6111] : memref<?x?xf32, strided<[?, 1]>> loc(#loc24)
      %6418 = vector.broadcast %6417 : f32 to vector<64xf32> loc(#loc24)
      %6419 = vector.fma %5723, %6415, %6033 : vector<64xf32> loc(#loc24)
      %6420 = memref.load %157[%576, %6111] : memref<?x?xf32, strided<[?, 1]>> loc(#loc24)
      %6421 = vector.broadcast %6420 : f32 to vector<64xf32> loc(#loc24)
      %6422 = vector.fma %5723, %6418, %6036 : vector<64xf32> loc(#loc24)
      %6423 = memref.load %157[%580, %6111] : memref<?x?xf32, strided<[?, 1]>> loc(#loc24)
      %6424 = vector.broadcast %6423 : f32 to vector<64xf32> loc(#loc24)
      %6425 = vector.fma %5723, %6421, %6039 : vector<64xf32> loc(#loc24)
      %6426 = memref.load %157[%584, %6111] : memref<?x?xf32, strided<[?, 1]>> loc(#loc24)
      %6427 = vector.broadcast %6426 : f32 to vector<64xf32> loc(#loc24)
      %6428 = vector.fma %5723, %6424, %6042 : vector<64xf32> loc(#loc24)
      %6429 = memref.load %157[%588, %6111] : memref<?x?xf32, strided<[?, 1]>> loc(#loc24)
      %6430 = vector.broadcast %6429 : f32 to vector<64xf32> loc(#loc24)
      %6431 = vector.fma %5723, %6427, %6045 : vector<64xf32> loc(#loc24)
      %6432 = memref.load %157[%592, %6111] : memref<?x?xf32, strided<[?, 1]>> loc(#loc24)
      %6433 = vector.broadcast %6432 : f32 to vector<64xf32> loc(#loc24)
      %6434 = vector.fma %5723, %6430, %6048 : vector<64xf32> loc(#loc24)
      %6435 = memref.load %157[%596, %6111] : memref<?x?xf32, strided<[?, 1]>> loc(#loc24)
      %6436 = vector.broadcast %6435 : f32 to vector<64xf32> loc(#loc24)
      %6437 = vector.fma %5723, %6433, %6051 : vector<64xf32> loc(#loc24)
      %6438 = memref.load %157[%600, %6111] : memref<?x?xf32, strided<[?, 1]>> loc(#loc24)
      %6439 = vector.broadcast %6438 : f32 to vector<64xf32> loc(#loc24)
      %6440 = vector.fma %5723, %6436, %6054 : vector<64xf32> loc(#loc24)
      %6441 = memref.load %157[%604, %6111] : memref<?x?xf32, strided<[?, 1]>> loc(#loc24)
      %6442 = vector.broadcast %6441 : f32 to vector<64xf32> loc(#loc24)
      %6443 = vector.fma %5723, %6439, %6057 : vector<64xf32> loc(#loc24)
      %6444 = memref.load %157[%608, %6111] : memref<?x?xf32, strided<[?, 1]>> loc(#loc24)
      %6445 = vector.broadcast %6444 : f32 to vector<64xf32> loc(#loc24)
      %6446 = vector.fma %5723, %6442, %6060 : vector<64xf32> loc(#loc24)
      %6447 = memref.load %157[%612, %6111] : memref<?x?xf32, strided<[?, 1]>> loc(#loc24)
      %6448 = vector.broadcast %6447 : f32 to vector<64xf32> loc(#loc24)
      %6449 = vector.fma %5723, %6445, %6063 : vector<64xf32> loc(#loc24)
      %6450 = memref.load %157[%616, %6111] : memref<?x?xf32, strided<[?, 1]>> loc(#loc24)
      %6451 = vector.broadcast %6450 : f32 to vector<64xf32> loc(#loc24)
      %6452 = vector.fma %5723, %6448, %6066 : vector<64xf32> loc(#loc24)
      %6453 = memref.load %157[%620, %6111] : memref<?x?xf32, strided<[?, 1]>> loc(#loc24)
      %6454 = vector.broadcast %6453 : f32 to vector<64xf32> loc(#loc24)
      %6455 = vector.fma %5723, %6451, %6069 : vector<64xf32> loc(#loc24)
      %6456 = memref.load %157[%624, %6111] : memref<?x?xf32, strided<[?, 1]>> loc(#loc24)
      %6457 = vector.broadcast %6456 : f32 to vector<64xf32> loc(#loc24)
      %6458 = vector.fma %5723, %6454, %6072 : vector<64xf32> loc(#loc24)
      %6459 = memref.load %157[%628, %6111] : memref<?x?xf32, strided<[?, 1]>> loc(#loc24)
      %6460 = vector.broadcast %6459 : f32 to vector<64xf32> loc(#loc24)
      %6461 = vector.fma %5723, %6457, %6075 : vector<64xf32> loc(#loc24)
      %6462 = memref.load %157[%632, %6111] : memref<?x?xf32, strided<[?, 1]>> loc(#loc24)
      %6463 = vector.broadcast %6462 : f32 to vector<64xf32> loc(#loc24)
      %6464 = vector.fma %5723, %6460, %6078 : vector<64xf32> loc(#loc24)
      %6465 = memref.load %157[%636, %6111] : memref<?x?xf32, strided<[?, 1]>> loc(#loc24)
      %6466 = vector.broadcast %6465 : f32 to vector<64xf32> loc(#loc24)
      %6467 = vector.fma %5723, %6463, %6081 : vector<64xf32> loc(#loc24)
      %6468 = memref.load %157[%640, %6111] : memref<?x?xf32, strided<[?, 1]>> loc(#loc24)
      %6469 = vector.broadcast %6468 : f32 to vector<64xf32> loc(#loc24)
      %6470 = vector.fma %5723, %6466, %6084 : vector<64xf32> loc(#loc24)
      %6471 = memref.load %157[%644, %6111] : memref<?x?xf32, strided<[?, 1]>> loc(#loc24)
      %6472 = vector.broadcast %6471 : f32 to vector<64xf32> loc(#loc24)
      %6473 = vector.fma %5723, %6469, %6087 : vector<64xf32> loc(#loc24)
      %6474 = memref.load %157[%648, %6111] : memref<?x?xf32, strided<[?, 1]>> loc(#loc24)
      %6475 = vector.broadcast %6474 : f32 to vector<64xf32> loc(#loc24)
      %6476 = vector.fma %5723, %6472, %6090 : vector<64xf32> loc(#loc24)
      %6477 = memref.load %157[%652, %6111] : memref<?x?xf32, strided<[?, 1]>> loc(#loc24)
      %6478 = vector.broadcast %6477 : f32 to vector<64xf32> loc(#loc24)
      %6479 = vector.fma %5723, %6475, %6093 : vector<64xf32> loc(#loc24)
      %6480 = memref.load %157[%656, %6111] : memref<?x?xf32, strided<[?, 1]>> loc(#loc24)
      %6481 = vector.broadcast %6480 : f32 to vector<64xf32> loc(#loc24)
      %6482 = vector.fma %5723, %6478, %6096 : vector<64xf32> loc(#loc24)
      %6483 = memref.load %157[%660, %6111] : memref<?x?xf32, strided<[?, 1]>> loc(#loc24)
      %6484 = vector.broadcast %6483 : f32 to vector<64xf32> loc(#loc24)
      %6485 = vector.fma %5723, %6481, %6099 : vector<64xf32> loc(#loc24)
      %6486 = memref.load %157[%664, %6111] : memref<?x?xf32, strided<[?, 1]>> loc(#loc24)
      %6487 = vector.broadcast %6486 : f32 to vector<64xf32> loc(#loc24)
      %6488 = vector.fma %5723, %6484, %6102 : vector<64xf32> loc(#loc24)
      %6489 = memref.load %157[%668, %6111] : memref<?x?xf32, strided<[?, 1]>> loc(#loc24)
      %6490 = vector.broadcast %6489 : f32 to vector<64xf32> loc(#loc24)
      %6491 = vector.fma %5723, %6487, %6105 : vector<64xf32> loc(#loc24)
      %6492 = memref.load %157[%672, %6111] : memref<?x?xf32, strided<[?, 1]>> loc(#loc24)
      %6493 = vector.broadcast %6492 : f32 to vector<64xf32> loc(#loc24)
      %6494 = vector.fma %5723, %6490, %6108 : vector<64xf32> loc(#loc24)
      %6495 = vector.fma %5723, %6493, %6109 : vector<64xf32> loc(#loc24)
      %6496 = tt.advance %arg10, [%c0_i32, %c16_i32] : <tensor<128x16xf32>> loc(#loc25)
      %6497 = tt.advance %arg11, [%c16_i32, %c0_i32] : <tensor<16x64xf32>> loc(#loc26)
      scf.yield %6496, %6497, %6116, %6119, %6122, %6125, %6128, %6131, %6134, %6137, %6140, %6143, %6146, %6149, %6152, %6155, %6158, %6161, %6164, %6167, %6170, %6173, %6176, %6179, %6182, %6185, %6188, %6191, %6194, %6197, %6200, %6203, %6206, %6209, %6212, %6215, %6218, %6221, %6224, %6227, %6230, %6233, %6236, %6239, %6242, %6245, %6248, %6251, %6254, %6257, %6260, %6263, %6266, %6269, %6272, %6275, %6278, %6281, %6284, %6287, %6290, %6293, %6296, %6299, %6302, %6305, %6308, %6311, %6314, %6317, %6320, %6323, %6326, %6329, %6332, %6335, %6338, %6341, %6344, %6347, %6350, %6353, %6356, %6359, %6362, %6365, %6368, %6371, %6374, %6377, %6380, %6383, %6386, %6389, %6392, %6395, %6398, %6401, %6404, %6407, %6410, %6413, %6416, %6419, %6422, %6425, %6428, %6431, %6434, %6437, %6440, %6443, %6446, %6449, %6452, %6455, %6458, %6461, %6464, %6467, %6470, %6473, %6476, %6479, %6482, %6485, %6488, %6491, %6494, %6495 : !tt.ptr<tensor<128x16xf32>>, !tt.ptr<tensor<16x64xf32>>, vector<64xf32>, vector<64xf32>, vector<64xf32>, vector<64xf32>, vector<64xf32>, vector<64xf32>, vector<64xf32>, vector<64xf32>, vector<64xf32>, vector<64xf32>, vector<64xf32>, vector<64xf32>, vector<64xf32>, vector<64xf32>, vector<64xf32>, vector<64xf32>, vector<64xf32>, vector<64xf32>, vector<64xf32>, vector<64xf32>, vector<64xf32>, vector<64xf32>, vector<64xf32>, vector<64xf32>, vector<64xf32>, vector<64xf32>, vector<64xf32>, vector<64xf32>, vector<64xf32>, vector<64xf32>, vector<64xf32>, vector<64xf32>, vector<64xf32>, vector<64xf32>, vector<64xf32>, vector<64xf32>, vector<64xf32>, vector<64xf32>, vector<64xf32>, vector<64xf32>, vector<64xf32>, vector<64xf32>, vector<64xf32>, vector<64xf32>, vector<64xf32>, vector<64xf32>, vector<64xf32>, vector<64xf32>, vector<64xf32>, vector<64xf32>, vector<64xf32>, vector<64xf32>, vector<64xf32>, vector<64xf32>, vector<64xf32>, vector<64xf32>, vector<64xf32>, vector<64xf32>, vector<64xf32>, vector<64xf32>, vector<64xf32>, vector<64xf32>, vector<64xf32>, vector<64xf32>, vector<64xf32>, vector<64xf32>, vector<64xf32>, vector<64xf32>, vector<64xf32>, vector<64xf32>, vector<64xf32>, vector<64xf32>, vector<64xf32>, vector<64xf32>, vector<64xf32>, vector<64xf32>, vector<64xf32>, vector<64xf32>, vector<64xf32>, vector<64xf32>, vector<64xf32>, vector<64xf32>, vector<64xf32>, vector<64xf32>, vector<64xf32>, vector<64xf32>, vector<64xf32>, vector<64xf32>, vector<64xf32>, vector<64xf32>, vector<64xf32>, vector<64xf32>, vector<64xf32>, vector<64xf32>, vector<64xf32>, vector<64xf32>, vector<64xf32>, vector<64xf32>, vector<64xf32>, vector<64xf32>, vector<64xf32>, vector<64xf32>, vector<64xf32>, vector<64xf32>, vector<64xf32>, vector<64xf32>, vector<64xf32>, vector<64xf32>, vector<64xf32>, vector<64xf32>, vector<64xf32>, vector<64xf32>, vector<64xf32>, vector<64xf32>, vector<64xf32>, vector<64xf32>, vector<64xf32>, vector<64xf32>, vector<64xf32>, vector<64xf32>, vector<64xf32>, vector<64xf32>, vector<64xf32>, vector<64xf32>, vector<64xf32>, vector<64xf32>, vector<64xf32>, vector<64xf32> loc(#loc27)
    } loc(#loc21)
    %25 = vector.insert %24#2, %cst_0 [0] : vector<64xf32> into vector<128x64xf32> loc(#loc24)
    %26 = vector.insert %24#3, %25 [1] : vector<64xf32> into vector<128x64xf32> loc(#loc24)
    %27 = vector.insert %24#4, %26 [2] : vector<64xf32> into vector<128x64xf32> loc(#loc24)
    %28 = vector.insert %24#5, %27 [3] : vector<64xf32> into vector<128x64xf32> loc(#loc24)
    %29 = vector.insert %24#6, %28 [4] : vector<64xf32> into vector<128x64xf32> loc(#loc24)
    %30 = vector.insert %24#7, %29 [5] : vector<64xf32> into vector<128x64xf32> loc(#loc24)
    %31 = vector.insert %24#8, %30 [6] : vector<64xf32> into vector<128x64xf32> loc(#loc24)
    %32 = vector.insert %24#9, %31 [7] : vector<64xf32> into vector<128x64xf32> loc(#loc24)
    %33 = vector.insert %24#10, %32 [8] : vector<64xf32> into vector<128x64xf32> loc(#loc24)
    %34 = vector.insert %24#11, %33 [9] : vector<64xf32> into vector<128x64xf32> loc(#loc24)
    %35 = vector.insert %24#12, %34 [10] : vector<64xf32> into vector<128x64xf32> loc(#loc24)
    %36 = vector.insert %24#13, %35 [11] : vector<64xf32> into vector<128x64xf32> loc(#loc24)
    %37 = vector.insert %24#14, %36 [12] : vector<64xf32> into vector<128x64xf32> loc(#loc24)
    %38 = vector.insert %24#15, %37 [13] : vector<64xf32> into vector<128x64xf32> loc(#loc24)
    %39 = vector.insert %24#16, %38 [14] : vector<64xf32> into vector<128x64xf32> loc(#loc24)
    %40 = vector.insert %24#17, %39 [15] : vector<64xf32> into vector<128x64xf32> loc(#loc24)
    %41 = vector.insert %24#18, %40 [16] : vector<64xf32> into vector<128x64xf32> loc(#loc24)
    %42 = vector.insert %24#19, %41 [17] : vector<64xf32> into vector<128x64xf32> loc(#loc24)
    %43 = vector.insert %24#20, %42 [18] : vector<64xf32> into vector<128x64xf32> loc(#loc24)
    %44 = vector.insert %24#21, %43 [19] : vector<64xf32> into vector<128x64xf32> loc(#loc24)
    %45 = vector.insert %24#22, %44 [20] : vector<64xf32> into vector<128x64xf32> loc(#loc24)
    %46 = vector.insert %24#23, %45 [21] : vector<64xf32> into vector<128x64xf32> loc(#loc24)
    %47 = vector.insert %24#24, %46 [22] : vector<64xf32> into vector<128x64xf32> loc(#loc24)
    %48 = vector.insert %24#25, %47 [23] : vector<64xf32> into vector<128x64xf32> loc(#loc24)
    %49 = vector.insert %24#26, %48 [24] : vector<64xf32> into vector<128x64xf32> loc(#loc24)
    %50 = vector.insert %24#27, %49 [25] : vector<64xf32> into vector<128x64xf32> loc(#loc24)
    %51 = vector.insert %24#28, %50 [26] : vector<64xf32> into vector<128x64xf32> loc(#loc24)
    %52 = vector.insert %24#29, %51 [27] : vector<64xf32> into vector<128x64xf32> loc(#loc24)
    %53 = vector.insert %24#30, %52 [28] : vector<64xf32> into vector<128x64xf32> loc(#loc24)
    %54 = vector.insert %24#31, %53 [29] : vector<64xf32> into vector<128x64xf32> loc(#loc24)
    %55 = vector.insert %24#32, %54 [30] : vector<64xf32> into vector<128x64xf32> loc(#loc24)
    %56 = vector.insert %24#33, %55 [31] : vector<64xf32> into vector<128x64xf32> loc(#loc24)
    %57 = vector.insert %24#34, %56 [32] : vector<64xf32> into vector<128x64xf32> loc(#loc24)
    %58 = vector.insert %24#35, %57 [33] : vector<64xf32> into vector<128x64xf32> loc(#loc24)
    %59 = vector.insert %24#36, %58 [34] : vector<64xf32> into vector<128x64xf32> loc(#loc24)
    %60 = vector.insert %24#37, %59 [35] : vector<64xf32> into vector<128x64xf32> loc(#loc24)
    %61 = vector.insert %24#38, %60 [36] : vector<64xf32> into vector<128x64xf32> loc(#loc24)
    %62 = vector.insert %24#39, %61 [37] : vector<64xf32> into vector<128x64xf32> loc(#loc24)
    %63 = vector.insert %24#40, %62 [38] : vector<64xf32> into vector<128x64xf32> loc(#loc24)
    %64 = vector.insert %24#41, %63 [39] : vector<64xf32> into vector<128x64xf32> loc(#loc24)
    %65 = vector.insert %24#42, %64 [40] : vector<64xf32> into vector<128x64xf32> loc(#loc24)
    %66 = vector.insert %24#43, %65 [41] : vector<64xf32> into vector<128x64xf32> loc(#loc24)
    %67 = vector.insert %24#44, %66 [42] : vector<64xf32> into vector<128x64xf32> loc(#loc24)
    %68 = vector.insert %24#45, %67 [43] : vector<64xf32> into vector<128x64xf32> loc(#loc24)
    %69 = vector.insert %24#46, %68 [44] : vector<64xf32> into vector<128x64xf32> loc(#loc24)
    %70 = vector.insert %24#47, %69 [45] : vector<64xf32> into vector<128x64xf32> loc(#loc24)
    %71 = vector.insert %24#48, %70 [46] : vector<64xf32> into vector<128x64xf32> loc(#loc24)
    %72 = vector.insert %24#49, %71 [47] : vector<64xf32> into vector<128x64xf32> loc(#loc24)
    %73 = vector.insert %24#50, %72 [48] : vector<64xf32> into vector<128x64xf32> loc(#loc24)
    %74 = vector.insert %24#51, %73 [49] : vector<64xf32> into vector<128x64xf32> loc(#loc24)
    %75 = vector.insert %24#52, %74 [50] : vector<64xf32> into vector<128x64xf32> loc(#loc24)
    %76 = vector.insert %24#53, %75 [51] : vector<64xf32> into vector<128x64xf32> loc(#loc24)
    %77 = vector.insert %24#54, %76 [52] : vector<64xf32> into vector<128x64xf32> loc(#loc24)
    %78 = vector.insert %24#55, %77 [53] : vector<64xf32> into vector<128x64xf32> loc(#loc24)
    %79 = vector.insert %24#56, %78 [54] : vector<64xf32> into vector<128x64xf32> loc(#loc24)
    %80 = vector.insert %24#57, %79 [55] : vector<64xf32> into vector<128x64xf32> loc(#loc24)
    %81 = vector.insert %24#58, %80 [56] : vector<64xf32> into vector<128x64xf32> loc(#loc24)
    %82 = vector.insert %24#59, %81 [57] : vector<64xf32> into vector<128x64xf32> loc(#loc24)
    %83 = vector.insert %24#60, %82 [58] : vector<64xf32> into vector<128x64xf32> loc(#loc24)
    %84 = vector.insert %24#61, %83 [59] : vector<64xf32> into vector<128x64xf32> loc(#loc24)
    %85 = vector.insert %24#62, %84 [60] : vector<64xf32> into vector<128x64xf32> loc(#loc24)
    %86 = vector.insert %24#63, %85 [61] : vector<64xf32> into vector<128x64xf32> loc(#loc24)
    %87 = vector.insert %24#64, %86 [62] : vector<64xf32> into vector<128x64xf32> loc(#loc24)
    %88 = vector.insert %24#65, %87 [63] : vector<64xf32> into vector<128x64xf32> loc(#loc24)
    %89 = vector.insert %24#66, %88 [64] : vector<64xf32> into vector<128x64xf32> loc(#loc24)
    %90 = vector.insert %24#67, %89 [65] : vector<64xf32> into vector<128x64xf32> loc(#loc24)
    %91 = vector.insert %24#68, %90 [66] : vector<64xf32> into vector<128x64xf32> loc(#loc24)
    %92 = vector.insert %24#69, %91 [67] : vector<64xf32> into vector<128x64xf32> loc(#loc24)
    %93 = vector.insert %24#70, %92 [68] : vector<64xf32> into vector<128x64xf32> loc(#loc24)
    %94 = vector.insert %24#71, %93 [69] : vector<64xf32> into vector<128x64xf32> loc(#loc24)
    %95 = vector.insert %24#72, %94 [70] : vector<64xf32> into vector<128x64xf32> loc(#loc24)
    %96 = vector.insert %24#73, %95 [71] : vector<64xf32> into vector<128x64xf32> loc(#loc24)
    %97 = vector.insert %24#74, %96 [72] : vector<64xf32> into vector<128x64xf32> loc(#loc24)
    %98 = vector.insert %24#75, %97 [73] : vector<64xf32> into vector<128x64xf32> loc(#loc24)
    %99 = vector.insert %24#76, %98 [74] : vector<64xf32> into vector<128x64xf32> loc(#loc24)
    %100 = vector.insert %24#77, %99 [75] : vector<64xf32> into vector<128x64xf32> loc(#loc24)
    %101 = vector.insert %24#78, %100 [76] : vector<64xf32> into vector<128x64xf32> loc(#loc24)
    %102 = vector.insert %24#79, %101 [77] : vector<64xf32> into vector<128x64xf32> loc(#loc24)
    %103 = vector.insert %24#80, %102 [78] : vector<64xf32> into vector<128x64xf32> loc(#loc24)
    %104 = vector.insert %24#81, %103 [79] : vector<64xf32> into vector<128x64xf32> loc(#loc24)
    %105 = vector.insert %24#82, %104 [80] : vector<64xf32> into vector<128x64xf32> loc(#loc24)
    %106 = vector.insert %24#83, %105 [81] : vector<64xf32> into vector<128x64xf32> loc(#loc24)
    %107 = vector.insert %24#84, %106 [82] : vector<64xf32> into vector<128x64xf32> loc(#loc24)
    %108 = vector.insert %24#85, %107 [83] : vector<64xf32> into vector<128x64xf32> loc(#loc24)
    %109 = vector.insert %24#86, %108 [84] : vector<64xf32> into vector<128x64xf32> loc(#loc24)
    %110 = vector.insert %24#87, %109 [85] : vector<64xf32> into vector<128x64xf32> loc(#loc24)
    %111 = vector.insert %24#88, %110 [86] : vector<64xf32> into vector<128x64xf32> loc(#loc24)
    %112 = vector.insert %24#89, %111 [87] : vector<64xf32> into vector<128x64xf32> loc(#loc24)
    %113 = vector.insert %24#90, %112 [88] : vector<64xf32> into vector<128x64xf32> loc(#loc24)
    %114 = vector.insert %24#91, %113 [89] : vector<64xf32> into vector<128x64xf32> loc(#loc24)
    %115 = vector.insert %24#92, %114 [90] : vector<64xf32> into vector<128x64xf32> loc(#loc24)
    %116 = vector.insert %24#93, %115 [91] : vector<64xf32> into vector<128x64xf32> loc(#loc24)
    %117 = vector.insert %24#94, %116 [92] : vector<64xf32> into vector<128x64xf32> loc(#loc24)
    %118 = vector.insert %24#95, %117 [93] : vector<64xf32> into vector<128x64xf32> loc(#loc24)
    %119 = vector.insert %24#96, %118 [94] : vector<64xf32> into vector<128x64xf32> loc(#loc24)
    %120 = vector.insert %24#97, %119 [95] : vector<64xf32> into vector<128x64xf32> loc(#loc24)
    %121 = vector.insert %24#98, %120 [96] : vector<64xf32> into vector<128x64xf32> loc(#loc24)
    %122 = vector.insert %24#99, %121 [97] : vector<64xf32> into vector<128x64xf32> loc(#loc24)
    %123 = vector.insert %24#100, %122 [98] : vector<64xf32> into vector<128x64xf32> loc(#loc24)
    %124 = vector.insert %24#101, %123 [99] : vector<64xf32> into vector<128x64xf32> loc(#loc24)
    %125 = vector.insert %24#102, %124 [100] : vector<64xf32> into vector<128x64xf32> loc(#loc24)
    %126 = vector.insert %24#103, %125 [101] : vector<64xf32> into vector<128x64xf32> loc(#loc24)
    %127 = vector.insert %24#104, %126 [102] : vector<64xf32> into vector<128x64xf32> loc(#loc24)
    %128 = vector.insert %24#105, %127 [103] : vector<64xf32> into vector<128x64xf32> loc(#loc24)
    %129 = vector.insert %24#106, %128 [104] : vector<64xf32> into vector<128x64xf32> loc(#loc24)
    %130 = vector.insert %24#107, %129 [105] : vector<64xf32> into vector<128x64xf32> loc(#loc24)
    %131 = vector.insert %24#108, %130 [106] : vector<64xf32> into vector<128x64xf32> loc(#loc24)
    %132 = vector.insert %24#109, %131 [107] : vector<64xf32> into vector<128x64xf32> loc(#loc24)
    %133 = vector.insert %24#110, %132 [108] : vector<64xf32> into vector<128x64xf32> loc(#loc24)
    %134 = vector.insert %24#111, %133 [109] : vector<64xf32> into vector<128x64xf32> loc(#loc24)
    %135 = vector.insert %24#112, %134 [110] : vector<64xf32> into vector<128x64xf32> loc(#loc24)
    %136 = vector.insert %24#113, %135 [111] : vector<64xf32> into vector<128x64xf32> loc(#loc24)
    %137 = vector.insert %24#114, %136 [112] : vector<64xf32> into vector<128x64xf32> loc(#loc24)
    %138 = vector.insert %24#115, %137 [113] : vector<64xf32> into vector<128x64xf32> loc(#loc24)
    %139 = vector.insert %24#116, %138 [114] : vector<64xf32> into vector<128x64xf32> loc(#loc24)
    %140 = vector.insert %24#117, %139 [115] : vector<64xf32> into vector<128x64xf32> loc(#loc24)
    %141 = vector.insert %24#118, %140 [116] : vector<64xf32> into vector<128x64xf32> loc(#loc24)
    %142 = vector.insert %24#119, %141 [117] : vector<64xf32> into vector<128x64xf32> loc(#loc24)
    %143 = vector.insert %24#120, %142 [118] : vector<64xf32> into vector<128x64xf32> loc(#loc24)
    %144 = vector.insert %24#121, %143 [119] : vector<64xf32> into vector<128x64xf32> loc(#loc24)
    %145 = vector.insert %24#122, %144 [120] : vector<64xf32> into vector<128x64xf32> loc(#loc24)
    %146 = vector.insert %24#123, %145 [121] : vector<64xf32> into vector<128x64xf32> loc(#loc24)
    %147 = vector.insert %24#124, %146 [122] : vector<64xf32> into vector<128x64xf32> loc(#loc24)
    %148 = vector.insert %24#125, %147 [123] : vector<64xf32> into vector<128x64xf32> loc(#loc24)
    %149 = vector.insert %24#126, %148 [124] : vector<64xf32> into vector<128x64xf32> loc(#loc24)
    %150 = vector.insert %24#127, %149 [125] : vector<64xf32> into vector<128x64xf32> loc(#loc24)
    %151 = vector.insert %24#128, %150 [126] : vector<64xf32> into vector<128x64xf32> loc(#loc24)
    %152 = vector.insert %24#129, %151 [127] : vector<64xf32> into vector<128x64xf32> loc(#loc24)
    %153 = arith.extsi %arg8 : i32 to i64 loc(#loc28)
    %154 = tt.make_tensor_ptr %arg2, [%16, %20], [%153, %c1_i64], [%14, %15] {order = array<i32: 1, 0>} : <tensor<128x64xf32>> loc(#loc28)
    %155 = triton_cpu.extract_memref %154 : <tensor<128x64xf32>> -> memref<?x?xf32, strided<[?, 1]>> loc(#loc29)
    %156:2 = triton_cpu.extract_indices %154 : <tensor<128x64xf32>> -> index, index loc(#loc29)
    vector.transfer_write %152, %155[%156#0, %156#1] {in_bounds = [true, true]} : vector<128x64xf32>, memref<?x?xf32, strided<[?, 1]>> loc(#loc29)
    tt.return loc(#loc30)
  } loc(#loc)
} loc(#loc)
#loc1 = loc(unknown)
#loc2 = loc("/home/yuhao/T_RVV/benchmark/src/triton/matmul.py":45:24)
#loc3 = loc("/home/yuhao/triton-cpu/python/triton/language/standard.py":40:22)
#loc4 = loc("/home/yuhao/T_RVV/benchmark/src/triton/matmul.py":46:27)
#loc5 = loc("/home/yuhao/triton-cpu/python/triton/language/standard.py":40:28)
#loc6 = loc("/home/yuhao/T_RVV/benchmark/src/triton/matmul.py":47:27)
#loc7 = loc("/home/yuhao/T_RVV/benchmark/src/triton/matmul.py":48:38)
#loc8 = loc("/home/yuhao/T_RVV/benchmark/src/triton/matmul.py":49:22)
#loc9 = loc("/home/yuhao/T_RVV/benchmark/src/triton/matmul.py":50:29)
#loc10 = loc("/home/yuhao/T_RVV/benchmark/src/triton/matmul.py":51:35)
#loc11 = loc("/home/yuhao/T_RVV/benchmark/src/triton/matmul.py":51:48)
#loc12 = loc("/home/yuhao/T_RVV/benchmark/src/triton/matmul.py":52:33)
#loc13 = loc("/home/yuhao/T_RVV/benchmark/src/triton/matmul.py":52:27)
#loc14 = loc("/home/yuhao/T_RVV/benchmark/src/triton/matmul.py":53:19)
#loc15 = loc("/home/yuhao/T_RVV/benchmark/src/triton/matmul.py":53:40)
#loc16 = loc("/home/yuhao/T_RVV/benchmark/src/triton/matmul.py":63:33)
#loc17 = loc("/home/yuhao/T_RVV/benchmark/src/triton/matmul.py":64:33)
#loc18 = loc("/home/yuhao/T_RVV/benchmark/src/triton/matmul.py":67:39)
#loc19 = loc("/home/yuhao/T_RVV/benchmark/src/triton/matmul.py":70:39)
#loc20 = loc("/home/yuhao/T_RVV/benchmark/src/triton/matmul.py":79:33)
#loc21 = loc("/home/yuhao/T_RVV/benchmark/src/triton/matmul.py":79:22)
#loc22 = loc("/home/yuhao/T_RVV/benchmark/src/triton/matmul.py":83:20)
#loc23 = loc("/home/yuhao/T_RVV/benchmark/src/triton/matmul.py":84:20)
#loc24 = loc("/home/yuhao/T_RVV/benchmark/src/triton/matmul.py":86:35)
#loc25 = loc("/home/yuhao/T_RVV/benchmark/src/triton/matmul.py":89:48)
#loc26 = loc("/home/yuhao/T_RVV/benchmark/src/triton/matmul.py":90:48)
#loc27 = loc("/home/yuhao/T_RVV/benchmark/src/triton/matmul.py":88:8)
#loc28 = loc("/home/yuhao/T_RVV/benchmark/src/triton/matmul.py":102:81)
#loc29 = loc("/home/yuhao/T_RVV/benchmark/src/triton/matmul.py":103:29)
#loc30 = loc("/home/yuhao/T_RVV/benchmark/src/triton/matmul.py":99:4)
#loc31 = loc(callsite(#loc3 at #loc4))
#loc32 = loc(callsite(#loc5 at #loc4))
#loc33 = loc(callsite(#loc3 at #loc6))
#loc34 = loc(callsite(#loc5 at #loc6))
#loc35 = loc(callsite(#loc5 at #loc20))
