#loc = loc("/home/yuhao/T_RVV/benchmark/src/triton/matmul.py":24:0)
module {
  tt.func public @matmul_kernel(%arg0: !tt.ptr<f32> {tt.divisibility = 16 : i32} loc("/home/yuhao/T_RVV/benchmark/src/triton/matmul.py":24:0), %arg1: !tt.ptr<f32> {tt.divisibility = 16 : i32} loc("/home/yuhao/T_RVV/benchmark/src/triton/matmul.py":24:0), %arg2: !tt.ptr<f32> {tt.divisibility = 16 : i32} loc("/home/yuhao/T_RVV/benchmark/src/triton/matmul.py":24:0), %arg3: i32 {tt.divisibility = 16 : i32} loc("/home/yuhao/T_RVV/benchmark/src/triton/matmul.py":24:0), %arg4: i32 {tt.divisibility = 16 : i32} loc("/home/yuhao/T_RVV/benchmark/src/triton/matmul.py":24:0), %arg5: i32 {tt.divisibility = 16 : i32} loc("/home/yuhao/T_RVV/benchmark/src/triton/matmul.py":24:0), %arg6: i32 {tt.divisibility = 16 : i32} loc("/home/yuhao/T_RVV/benchmark/src/triton/matmul.py":24:0), %arg7: i32 {tt.divisibility = 16 : i32} loc("/home/yuhao/T_RVV/benchmark/src/triton/matmul.py":24:0), %arg8: i32 {tt.divisibility = 16 : i32} loc("/home/yuhao/T_RVV/benchmark/src/triton/matmul.py":24:0)) attributes {noinline = false} {
    %cst = arith.constant dense<0.000000e+00> : vector<64xf32> loc(#loc1)
    %c63 = arith.constant 63 : index loc(#loc1)
    %c62 = arith.constant 62 : index loc(#loc1)
    %c61 = arith.constant 61 : index loc(#loc1)
    %c60 = arith.constant 60 : index loc(#loc1)
    %c59 = arith.constant 59 : index loc(#loc1)
    %c58 = arith.constant 58 : index loc(#loc1)
    %c57 = arith.constant 57 : index loc(#loc1)
    %c56 = arith.constant 56 : index loc(#loc1)
    %c55 = arith.constant 55 : index loc(#loc1)
    %c54 = arith.constant 54 : index loc(#loc1)
    %c53 = arith.constant 53 : index loc(#loc1)
    %c52 = arith.constant 52 : index loc(#loc1)
    %c51 = arith.constant 51 : index loc(#loc1)
    %c50 = arith.constant 50 : index loc(#loc1)
    %c49 = arith.constant 49 : index loc(#loc1)
    %c48 = arith.constant 48 : index loc(#loc1)
    %c47 = arith.constant 47 : index loc(#loc1)
    %c46 = arith.constant 46 : index loc(#loc1)
    %c45 = arith.constant 45 : index loc(#loc1)
    %c44 = arith.constant 44 : index loc(#loc1)
    %c43 = arith.constant 43 : index loc(#loc1)
    %c42 = arith.constant 42 : index loc(#loc1)
    %c41 = arith.constant 41 : index loc(#loc1)
    %c40 = arith.constant 40 : index loc(#loc1)
    %c39 = arith.constant 39 : index loc(#loc1)
    %c38 = arith.constant 38 : index loc(#loc1)
    %c37 = arith.constant 37 : index loc(#loc1)
    %c36 = arith.constant 36 : index loc(#loc1)
    %c35 = arith.constant 35 : index loc(#loc1)
    %c34 = arith.constant 34 : index loc(#loc1)
    %c33 = arith.constant 33 : index loc(#loc1)
    %c32 = arith.constant 32 : index loc(#loc1)
    %c31 = arith.constant 31 : index loc(#loc1)
    %c30 = arith.constant 30 : index loc(#loc1)
    %c29 = arith.constant 29 : index loc(#loc1)
    %c28 = arith.constant 28 : index loc(#loc1)
    %c27 = arith.constant 27 : index loc(#loc1)
    %c26 = arith.constant 26 : index loc(#loc1)
    %c25 = arith.constant 25 : index loc(#loc1)
    %c24 = arith.constant 24 : index loc(#loc1)
    %c23 = arith.constant 23 : index loc(#loc1)
    %c22 = arith.constant 22 : index loc(#loc1)
    %c21 = arith.constant 21 : index loc(#loc1)
    %c20 = arith.constant 20 : index loc(#loc1)
    %c19 = arith.constant 19 : index loc(#loc1)
    %c18 = arith.constant 18 : index loc(#loc1)
    %c17 = arith.constant 17 : index loc(#loc1)
    %c16 = arith.constant 16 : index loc(#loc1)
    %c15 = arith.constant 15 : index loc(#loc1)
    %c14 = arith.constant 14 : index loc(#loc1)
    %c13 = arith.constant 13 : index loc(#loc1)
    %c12 = arith.constant 12 : index loc(#loc1)
    %c11 = arith.constant 11 : index loc(#loc1)
    %c10 = arith.constant 10 : index loc(#loc1)
    %c9 = arith.constant 9 : index loc(#loc1)
    %c8 = arith.constant 8 : index loc(#loc1)
    %c7 = arith.constant 7 : index loc(#loc1)
    %c6 = arith.constant 6 : index loc(#loc1)
    %c5 = arith.constant 5 : index loc(#loc1)
    %c4 = arith.constant 4 : index loc(#loc1)
    %c3 = arith.constant 3 : index loc(#loc1)
    %c2 = arith.constant 2 : index loc(#loc1)
    %c1 = arith.constant 1 : index loc(#loc1)
    %cst_0 = arith.constant dense<0.000000e+00> : vector<64x64xf32> loc(#loc1)
    %c63_i32 = arith.constant 63 : i32 loc(#loc1)
    %c1_i32 = arith.constant 1 : i32 loc(#loc1)
    %c0_i32 = arith.constant 0 : i32 loc(#loc1)
    %c1_i64 = arith.constant 1 : i64 loc(#loc1)
    %c64_i32 = arith.constant 64 : i32 loc(#loc1)
    %c8_i32 = arith.constant 8 : i32 loc(#loc1)
    %0 = tt.get_program_id x : i32 loc(#loc2)
    %1 = arith.addi %arg3, %c63_i32 : i32 loc(#loc31)
    %2 = arith.divsi %1, %c64_i32 : i32 loc(#loc32)
    %3 = arith.addi %arg4, %c63_i32 : i32 loc(#loc33)
    %4 = arith.divsi %3, %c64_i32 : i32 loc(#loc34)
    %5 = arith.muli %4, %c8_i32 : i32 loc(#loc7)
    %6 = arith.divsi %0, %5 : i32 loc(#loc8)
    %7 = arith.muli %6, %c8_i32 : i32 loc(#loc9)
    %8 = arith.subi %2, %7 : i32 loc(#loc10)
    %9 = arith.minsi %8, %c8_i32 : i32 loc(#loc11)
    %10 = arith.remsi %0, %9 : i32 loc(#loc12)
    %11 = arith.addi %7, %10 : i32 loc(#loc13)
    %12 = arith.remsi %0, %5 : i32 loc(#loc14)
    %13 = arith.divsi %12, %9 : i32 loc(#loc15)
    %14 = arith.muli %11, %c64_i32 : i32 loc(#loc16)
    %15 = arith.muli %13, %c64_i32 : i32 loc(#loc17)
    %16 = arith.extsi %arg3 : i32 to i64 loc(#loc18)
    %17 = arith.extsi %arg5 : i32 to i64 loc(#loc18)
    %18 = arith.extsi %arg6 : i32 to i64 loc(#loc18)
    %19 = tt.make_tensor_ptr %arg0, [%16, %17], [%18, %c1_i64], [%14, %c0_i32] {order = array<i32: 1, 0>} : <tensor<64x8xf32>> loc(#loc18)
    %20 = arith.extsi %arg4 : i32 to i64 loc(#loc19)
    %21 = arith.extsi %arg7 : i32 to i64 loc(#loc19)
    %22 = tt.make_tensor_ptr %arg1, [%17, %20], [%21, %c1_i64], [%c0_i32, %15] {order = array<i32: 1, 0>} : <tensor<8x64xf32>> loc(#loc19)
    %23 = arith.divsi %arg5, %c8_i32 : i32 loc(#loc35)
    %24:66 = scf.for %arg9 = %c0_i32 to %23 step %c1_i32 iter_args(%arg10 = %19, %arg11 = %22, %arg12 = %cst, %arg13 = %cst, %arg14 = %cst, %arg15 = %cst, %arg16 = %cst, %arg17 = %cst, %arg18 = %cst, %arg19 = %cst, %arg20 = %cst, %arg21 = %cst, %arg22 = %cst, %arg23 = %cst, %arg24 = %cst, %arg25 = %cst, %arg26 = %cst, %arg27 = %cst, %arg28 = %cst, %arg29 = %cst, %arg30 = %cst, %arg31 = %cst, %arg32 = %cst, %arg33 = %cst, %arg34 = %cst, %arg35 = %cst, %arg36 = %cst, %arg37 = %cst, %arg38 = %cst, %arg39 = %cst, %arg40 = %cst, %arg41 = %cst, %arg42 = %cst, %arg43 = %cst, %arg44 = %cst, %arg45 = %cst, %arg46 = %cst, %arg47 = %cst, %arg48 = %cst, %arg49 = %cst, %arg50 = %cst, %arg51 = %cst, %arg52 = %cst, %arg53 = %cst, %arg54 = %cst, %arg55 = %cst, %arg56 = %cst, %arg57 = %cst, %arg58 = %cst, %arg59 = %cst, %arg60 = %cst, %arg61 = %cst, %arg62 = %cst, %arg63 = %cst, %arg64 = %cst, %arg65 = %cst, %arg66 = %cst, %arg67 = %cst, %arg68 = %cst, %arg69 = %cst, %arg70 = %cst, %arg71 = %cst, %arg72 = %cst, %arg73 = %cst, %arg74 = %cst, %arg75 = %cst) -> (!tt.ptr<tensor<64x8xf32>>, !tt.ptr<tensor<8x64xf32>>, vector<64xf32>, vector<64xf32>, vector<64xf32>, vector<64xf32>, vector<64xf32>, vector<64xf32>, vector<64xf32>, vector<64xf32>, vector<64xf32>, vector<64xf32>, vector<64xf32>, vector<64xf32>, vector<64xf32>, vector<64xf32>, vector<64xf32>, vector<64xf32>, vector<64xf32>, vector<64xf32>, vector<64xf32>, vector<64xf32>, vector<64xf32>, vector<64xf32>, vector<64xf32>, vector<64xf32>, vector<64xf32>, vector<64xf32>, vector<64xf32>, vector<64xf32>, vector<64xf32>, vector<64xf32>, vector<64xf32>, vector<64xf32>, vector<64xf32>, vector<64xf32>, vector<64xf32>, vector<64xf32>, vector<64xf32>, vector<64xf32>, vector<64xf32>, vector<64xf32>, vector<64xf32>, vector<64xf32>, vector<64xf32>, vector<64xf32>, vector<64xf32>, vector<64xf32>, vector<64xf32>, vector<64xf32>, vector<64xf32>, vector<64xf32>, vector<64xf32>, vector<64xf32>, vector<64xf32>, vector<64xf32>, vector<64xf32>, vector<64xf32>, vector<64xf32>, vector<64xf32>, vector<64xf32>, vector<64xf32>, vector<64xf32>, vector<64xf32>, vector<64xf32>, vector<64xf32>)  : i32 {
      %93 = triton_cpu.extract_memref %arg10 : <tensor<64x8xf32>> -> memref<?x?xf32, strided<[?, 1]>> loc(#loc22)
      %94:2 = triton_cpu.extract_indices %arg10 : <tensor<64x8xf32>> -> index, index loc(#loc22)
      %95 = triton_cpu.extract_memref %arg11 : <tensor<8x64xf32>> -> memref<?x?xf32, strided<[?, 1]>> loc(#loc23)
      %96:2 = triton_cpu.extract_indices %arg11 : <tensor<8x64xf32>> -> index, index loc(#loc23)
      %97 = arith.addi %94#1, %c8 : index loc(#loc24)
      %98 = arith.addi %96#0, %c8 : index loc(#loc24)
      %99 = vector.load %95[%96#0, %96#1] : memref<?x?xf32, strided<[?, 1]>>, vector<64xf32> loc(#loc24)
      %100 = arith.addi %96#0, %c1 : index loc(#loc24)
      %101 = vector.load %95[%100, %96#1] : memref<?x?xf32, strided<[?, 1]>>, vector<64xf32> loc(#loc24)
      memref.prefetch %95[%98, %96#1], read, locality<1>, data : memref<?x?xf32, strided<[?, 1]>> loc(#loc24)
      %102 = memref.load %93[%94#0, %94#1] : memref<?x?xf32, strided<[?, 1]>> loc(#loc24)
      %103 = vector.broadcast %102 : f32 to vector<64xf32> loc(#loc24)
      %104 = arith.addi %94#0, %c1 : index loc(#loc24)
      %105 = memref.load %93[%104, %94#1] : memref<?x?xf32, strided<[?, 1]>> loc(#loc24)
      %106 = vector.broadcast %105 : f32 to vector<64xf32> loc(#loc24)
      memref.prefetch %93[%94#0, %97], read, locality<3>, data : memref<?x?xf32, strided<[?, 1]>> loc(#loc24)
      %107 = vector.fma %99, %103, %arg12 : vector<64xf32> loc(#loc24)
      %108 = arith.addi %94#0, %c2 : index loc(#loc24)
      %109 = memref.load %93[%108, %94#1] : memref<?x?xf32, strided<[?, 1]>> loc(#loc24)
      %110 = vector.broadcast %109 : f32 to vector<64xf32> loc(#loc24)
      memref.prefetch %93[%104, %97], read, locality<3>, data : memref<?x?xf32, strided<[?, 1]>> loc(#loc24)
      %111 = vector.fma %99, %106, %arg13 : vector<64xf32> loc(#loc24)
      %112 = arith.addi %94#0, %c3 : index loc(#loc24)
      %113 = memref.load %93[%112, %94#1] : memref<?x?xf32, strided<[?, 1]>> loc(#loc24)
      %114 = vector.broadcast %113 : f32 to vector<64xf32> loc(#loc24)
      memref.prefetch %93[%108, %97], read, locality<3>, data : memref<?x?xf32, strided<[?, 1]>> loc(#loc24)
      %115 = vector.fma %99, %110, %arg14 : vector<64xf32> loc(#loc24)
      %116 = arith.addi %94#0, %c4 : index loc(#loc24)
      %117 = memref.load %93[%116, %94#1] : memref<?x?xf32, strided<[?, 1]>> loc(#loc24)
      %118 = vector.broadcast %117 : f32 to vector<64xf32> loc(#loc24)
      memref.prefetch %93[%112, %97], read, locality<3>, data : memref<?x?xf32, strided<[?, 1]>> loc(#loc24)
      %119 = vector.fma %99, %114, %arg15 : vector<64xf32> loc(#loc24)
      %120 = arith.addi %94#0, %c5 : index loc(#loc24)
      %121 = memref.load %93[%120, %94#1] : memref<?x?xf32, strided<[?, 1]>> loc(#loc24)
      %122 = vector.broadcast %121 : f32 to vector<64xf32> loc(#loc24)
      memref.prefetch %93[%116, %97], read, locality<3>, data : memref<?x?xf32, strided<[?, 1]>> loc(#loc24)
      %123 = vector.fma %99, %118, %arg16 : vector<64xf32> loc(#loc24)
      %124 = arith.addi %94#0, %c6 : index loc(#loc24)
      %125 = memref.load %93[%124, %94#1] : memref<?x?xf32, strided<[?, 1]>> loc(#loc24)
      %126 = vector.broadcast %125 : f32 to vector<64xf32> loc(#loc24)
      memref.prefetch %93[%120, %97], read, locality<3>, data : memref<?x?xf32, strided<[?, 1]>> loc(#loc24)
      %127 = vector.fma %99, %122, %arg17 : vector<64xf32> loc(#loc24)
      %128 = arith.addi %94#0, %c7 : index loc(#loc24)
      %129 = memref.load %93[%128, %94#1] : memref<?x?xf32, strided<[?, 1]>> loc(#loc24)
      %130 = vector.broadcast %129 : f32 to vector<64xf32> loc(#loc24)
      memref.prefetch %93[%124, %97], read, locality<3>, data : memref<?x?xf32, strided<[?, 1]>> loc(#loc24)
      %131 = vector.fma %99, %126, %arg18 : vector<64xf32> loc(#loc24)
      %132 = arith.addi %94#0, %c8 : index loc(#loc24)
      %133 = memref.load %93[%132, %94#1] : memref<?x?xf32, strided<[?, 1]>> loc(#loc24)
      %134 = vector.broadcast %133 : f32 to vector<64xf32> loc(#loc24)
      memref.prefetch %93[%128, %97], read, locality<3>, data : memref<?x?xf32, strided<[?, 1]>> loc(#loc24)
      %135 = vector.fma %99, %130, %arg19 : vector<64xf32> loc(#loc24)
      %136 = arith.addi %94#0, %c9 : index loc(#loc24)
      %137 = memref.load %93[%136, %94#1] : memref<?x?xf32, strided<[?, 1]>> loc(#loc24)
      %138 = vector.broadcast %137 : f32 to vector<64xf32> loc(#loc24)
      memref.prefetch %93[%132, %97], read, locality<3>, data : memref<?x?xf32, strided<[?, 1]>> loc(#loc24)
      %139 = vector.fma %99, %134, %arg20 : vector<64xf32> loc(#loc24)
      %140 = arith.addi %94#0, %c10 : index loc(#loc24)
      %141 = memref.load %93[%140, %94#1] : memref<?x?xf32, strided<[?, 1]>> loc(#loc24)
      %142 = vector.broadcast %141 : f32 to vector<64xf32> loc(#loc24)
      memref.prefetch %93[%136, %97], read, locality<3>, data : memref<?x?xf32, strided<[?, 1]>> loc(#loc24)
      %143 = vector.fma %99, %138, %arg21 : vector<64xf32> loc(#loc24)
      %144 = arith.addi %94#0, %c11 : index loc(#loc24)
      %145 = memref.load %93[%144, %94#1] : memref<?x?xf32, strided<[?, 1]>> loc(#loc24)
      %146 = vector.broadcast %145 : f32 to vector<64xf32> loc(#loc24)
      memref.prefetch %93[%140, %97], read, locality<3>, data : memref<?x?xf32, strided<[?, 1]>> loc(#loc24)
      %147 = vector.fma %99, %142, %arg22 : vector<64xf32> loc(#loc24)
      %148 = arith.addi %94#0, %c12 : index loc(#loc24)
      %149 = memref.load %93[%148, %94#1] : memref<?x?xf32, strided<[?, 1]>> loc(#loc24)
      %150 = vector.broadcast %149 : f32 to vector<64xf32> loc(#loc24)
      memref.prefetch %93[%144, %97], read, locality<3>, data : memref<?x?xf32, strided<[?, 1]>> loc(#loc24)
      %151 = vector.fma %99, %146, %arg23 : vector<64xf32> loc(#loc24)
      %152 = arith.addi %94#0, %c13 : index loc(#loc24)
      %153 = memref.load %93[%152, %94#1] : memref<?x?xf32, strided<[?, 1]>> loc(#loc24)
      %154 = vector.broadcast %153 : f32 to vector<64xf32> loc(#loc24)
      memref.prefetch %93[%148, %97], read, locality<3>, data : memref<?x?xf32, strided<[?, 1]>> loc(#loc24)
      %155 = vector.fma %99, %150, %arg24 : vector<64xf32> loc(#loc24)
      %156 = arith.addi %94#0, %c14 : index loc(#loc24)
      %157 = memref.load %93[%156, %94#1] : memref<?x?xf32, strided<[?, 1]>> loc(#loc24)
      %158 = vector.broadcast %157 : f32 to vector<64xf32> loc(#loc24)
      memref.prefetch %93[%152, %97], read, locality<3>, data : memref<?x?xf32, strided<[?, 1]>> loc(#loc24)
      %159 = vector.fma %99, %154, %arg25 : vector<64xf32> loc(#loc24)
      %160 = arith.addi %94#0, %c15 : index loc(#loc24)
      %161 = memref.load %93[%160, %94#1] : memref<?x?xf32, strided<[?, 1]>> loc(#loc24)
      %162 = vector.broadcast %161 : f32 to vector<64xf32> loc(#loc24)
      memref.prefetch %93[%156, %97], read, locality<3>, data : memref<?x?xf32, strided<[?, 1]>> loc(#loc24)
      %163 = vector.fma %99, %158, %arg26 : vector<64xf32> loc(#loc24)
      %164 = arith.addi %94#0, %c16 : index loc(#loc24)
      %165 = memref.load %93[%164, %94#1] : memref<?x?xf32, strided<[?, 1]>> loc(#loc24)
      %166 = vector.broadcast %165 : f32 to vector<64xf32> loc(#loc24)
      memref.prefetch %93[%160, %97], read, locality<3>, data : memref<?x?xf32, strided<[?, 1]>> loc(#loc24)
      %167 = vector.fma %99, %162, %arg27 : vector<64xf32> loc(#loc24)
      %168 = arith.addi %94#0, %c17 : index loc(#loc24)
      %169 = memref.load %93[%168, %94#1] : memref<?x?xf32, strided<[?, 1]>> loc(#loc24)
      %170 = vector.broadcast %169 : f32 to vector<64xf32> loc(#loc24)
      memref.prefetch %93[%164, %97], read, locality<3>, data : memref<?x?xf32, strided<[?, 1]>> loc(#loc24)
      %171 = vector.fma %99, %166, %arg28 : vector<64xf32> loc(#loc24)
      %172 = arith.addi %94#0, %c18 : index loc(#loc24)
      %173 = memref.load %93[%172, %94#1] : memref<?x?xf32, strided<[?, 1]>> loc(#loc24)
      %174 = vector.broadcast %173 : f32 to vector<64xf32> loc(#loc24)
      memref.prefetch %93[%168, %97], read, locality<3>, data : memref<?x?xf32, strided<[?, 1]>> loc(#loc24)
      %175 = vector.fma %99, %170, %arg29 : vector<64xf32> loc(#loc24)
      %176 = arith.addi %94#0, %c19 : index loc(#loc24)
      %177 = memref.load %93[%176, %94#1] : memref<?x?xf32, strided<[?, 1]>> loc(#loc24)
      %178 = vector.broadcast %177 : f32 to vector<64xf32> loc(#loc24)
      memref.prefetch %93[%172, %97], read, locality<3>, data : memref<?x?xf32, strided<[?, 1]>> loc(#loc24)
      %179 = vector.fma %99, %174, %arg30 : vector<64xf32> loc(#loc24)
      %180 = arith.addi %94#0, %c20 : index loc(#loc24)
      %181 = memref.load %93[%180, %94#1] : memref<?x?xf32, strided<[?, 1]>> loc(#loc24)
      %182 = vector.broadcast %181 : f32 to vector<64xf32> loc(#loc24)
      memref.prefetch %93[%176, %97], read, locality<3>, data : memref<?x?xf32, strided<[?, 1]>> loc(#loc24)
      %183 = vector.fma %99, %178, %arg31 : vector<64xf32> loc(#loc24)
      %184 = arith.addi %94#0, %c21 : index loc(#loc24)
      %185 = memref.load %93[%184, %94#1] : memref<?x?xf32, strided<[?, 1]>> loc(#loc24)
      %186 = vector.broadcast %185 : f32 to vector<64xf32> loc(#loc24)
      memref.prefetch %93[%180, %97], read, locality<3>, data : memref<?x?xf32, strided<[?, 1]>> loc(#loc24)
      %187 = vector.fma %99, %182, %arg32 : vector<64xf32> loc(#loc24)
      %188 = arith.addi %94#0, %c22 : index loc(#loc24)
      %189 = memref.load %93[%188, %94#1] : memref<?x?xf32, strided<[?, 1]>> loc(#loc24)
      %190 = vector.broadcast %189 : f32 to vector<64xf32> loc(#loc24)
      memref.prefetch %93[%184, %97], read, locality<3>, data : memref<?x?xf32, strided<[?, 1]>> loc(#loc24)
      %191 = vector.fma %99, %186, %arg33 : vector<64xf32> loc(#loc24)
      %192 = arith.addi %94#0, %c23 : index loc(#loc24)
      %193 = memref.load %93[%192, %94#1] : memref<?x?xf32, strided<[?, 1]>> loc(#loc24)
      %194 = vector.broadcast %193 : f32 to vector<64xf32> loc(#loc24)
      memref.prefetch %93[%188, %97], read, locality<3>, data : memref<?x?xf32, strided<[?, 1]>> loc(#loc24)
      %195 = vector.fma %99, %190, %arg34 : vector<64xf32> loc(#loc24)
      %196 = arith.addi %94#0, %c24 : index loc(#loc24)
      %197 = memref.load %93[%196, %94#1] : memref<?x?xf32, strided<[?, 1]>> loc(#loc24)
      %198 = vector.broadcast %197 : f32 to vector<64xf32> loc(#loc24)
      memref.prefetch %93[%192, %97], read, locality<3>, data : memref<?x?xf32, strided<[?, 1]>> loc(#loc24)
      %199 = vector.fma %99, %194, %arg35 : vector<64xf32> loc(#loc24)
      %200 = arith.addi %94#0, %c25 : index loc(#loc24)
      %201 = memref.load %93[%200, %94#1] : memref<?x?xf32, strided<[?, 1]>> loc(#loc24)
      %202 = vector.broadcast %201 : f32 to vector<64xf32> loc(#loc24)
      memref.prefetch %93[%196, %97], read, locality<3>, data : memref<?x?xf32, strided<[?, 1]>> loc(#loc24)
      %203 = vector.fma %99, %198, %arg36 : vector<64xf32> loc(#loc24)
      %204 = arith.addi %94#0, %c26 : index loc(#loc24)
      %205 = memref.load %93[%204, %94#1] : memref<?x?xf32, strided<[?, 1]>> loc(#loc24)
      %206 = vector.broadcast %205 : f32 to vector<64xf32> loc(#loc24)
      memref.prefetch %93[%200, %97], read, locality<3>, data : memref<?x?xf32, strided<[?, 1]>> loc(#loc24)
      %207 = vector.fma %99, %202, %arg37 : vector<64xf32> loc(#loc24)
      %208 = arith.addi %94#0, %c27 : index loc(#loc24)
      %209 = memref.load %93[%208, %94#1] : memref<?x?xf32, strided<[?, 1]>> loc(#loc24)
      %210 = vector.broadcast %209 : f32 to vector<64xf32> loc(#loc24)
      memref.prefetch %93[%204, %97], read, locality<3>, data : memref<?x?xf32, strided<[?, 1]>> loc(#loc24)
      %211 = vector.fma %99, %206, %arg38 : vector<64xf32> loc(#loc24)
      %212 = arith.addi %94#0, %c28 : index loc(#loc24)
      %213 = memref.load %93[%212, %94#1] : memref<?x?xf32, strided<[?, 1]>> loc(#loc24)
      %214 = vector.broadcast %213 : f32 to vector<64xf32> loc(#loc24)
      memref.prefetch %93[%208, %97], read, locality<3>, data : memref<?x?xf32, strided<[?, 1]>> loc(#loc24)
      %215 = vector.fma %99, %210, %arg39 : vector<64xf32> loc(#loc24)
      %216 = arith.addi %94#0, %c29 : index loc(#loc24)
      %217 = memref.load %93[%216, %94#1] : memref<?x?xf32, strided<[?, 1]>> loc(#loc24)
      %218 = vector.broadcast %217 : f32 to vector<64xf32> loc(#loc24)
      memref.prefetch %93[%212, %97], read, locality<3>, data : memref<?x?xf32, strided<[?, 1]>> loc(#loc24)
      %219 = vector.fma %99, %214, %arg40 : vector<64xf32> loc(#loc24)
      %220 = arith.addi %94#0, %c30 : index loc(#loc24)
      %221 = memref.load %93[%220, %94#1] : memref<?x?xf32, strided<[?, 1]>> loc(#loc24)
      %222 = vector.broadcast %221 : f32 to vector<64xf32> loc(#loc24)
      memref.prefetch %93[%216, %97], read, locality<3>, data : memref<?x?xf32, strided<[?, 1]>> loc(#loc24)
      %223 = vector.fma %99, %218, %arg41 : vector<64xf32> loc(#loc24)
      %224 = arith.addi %94#0, %c31 : index loc(#loc24)
      %225 = memref.load %93[%224, %94#1] : memref<?x?xf32, strided<[?, 1]>> loc(#loc24)
      %226 = vector.broadcast %225 : f32 to vector<64xf32> loc(#loc24)
      memref.prefetch %93[%220, %97], read, locality<3>, data : memref<?x?xf32, strided<[?, 1]>> loc(#loc24)
      %227 = vector.fma %99, %222, %arg42 : vector<64xf32> loc(#loc24)
      %228 = arith.addi %94#0, %c32 : index loc(#loc24)
      %229 = memref.load %93[%228, %94#1] : memref<?x?xf32, strided<[?, 1]>> loc(#loc24)
      %230 = vector.broadcast %229 : f32 to vector<64xf32> loc(#loc24)
      memref.prefetch %93[%224, %97], read, locality<3>, data : memref<?x?xf32, strided<[?, 1]>> loc(#loc24)
      %231 = vector.fma %99, %226, %arg43 : vector<64xf32> loc(#loc24)
      %232 = arith.addi %94#0, %c33 : index loc(#loc24)
      %233 = memref.load %93[%232, %94#1] : memref<?x?xf32, strided<[?, 1]>> loc(#loc24)
      %234 = vector.broadcast %233 : f32 to vector<64xf32> loc(#loc24)
      memref.prefetch %93[%228, %97], read, locality<3>, data : memref<?x?xf32, strided<[?, 1]>> loc(#loc24)
      %235 = vector.fma %99, %230, %arg44 : vector<64xf32> loc(#loc24)
      %236 = arith.addi %94#0, %c34 : index loc(#loc24)
      %237 = memref.load %93[%236, %94#1] : memref<?x?xf32, strided<[?, 1]>> loc(#loc24)
      %238 = vector.broadcast %237 : f32 to vector<64xf32> loc(#loc24)
      memref.prefetch %93[%232, %97], read, locality<3>, data : memref<?x?xf32, strided<[?, 1]>> loc(#loc24)
      %239 = vector.fma %99, %234, %arg45 : vector<64xf32> loc(#loc24)
      %240 = arith.addi %94#0, %c35 : index loc(#loc24)
      %241 = memref.load %93[%240, %94#1] : memref<?x?xf32, strided<[?, 1]>> loc(#loc24)
      %242 = vector.broadcast %241 : f32 to vector<64xf32> loc(#loc24)
      memref.prefetch %93[%236, %97], read, locality<3>, data : memref<?x?xf32, strided<[?, 1]>> loc(#loc24)
      %243 = vector.fma %99, %238, %arg46 : vector<64xf32> loc(#loc24)
      %244 = arith.addi %94#0, %c36 : index loc(#loc24)
      %245 = memref.load %93[%244, %94#1] : memref<?x?xf32, strided<[?, 1]>> loc(#loc24)
      %246 = vector.broadcast %245 : f32 to vector<64xf32> loc(#loc24)
      memref.prefetch %93[%240, %97], read, locality<3>, data : memref<?x?xf32, strided<[?, 1]>> loc(#loc24)
      %247 = vector.fma %99, %242, %arg47 : vector<64xf32> loc(#loc24)
      %248 = arith.addi %94#0, %c37 : index loc(#loc24)
      %249 = memref.load %93[%248, %94#1] : memref<?x?xf32, strided<[?, 1]>> loc(#loc24)
      %250 = vector.broadcast %249 : f32 to vector<64xf32> loc(#loc24)
      memref.prefetch %93[%244, %97], read, locality<3>, data : memref<?x?xf32, strided<[?, 1]>> loc(#loc24)
      %251 = vector.fma %99, %246, %arg48 : vector<64xf32> loc(#loc24)
      %252 = arith.addi %94#0, %c38 : index loc(#loc24)
      %253 = memref.load %93[%252, %94#1] : memref<?x?xf32, strided<[?, 1]>> loc(#loc24)
      %254 = vector.broadcast %253 : f32 to vector<64xf32> loc(#loc24)
      memref.prefetch %93[%248, %97], read, locality<3>, data : memref<?x?xf32, strided<[?, 1]>> loc(#loc24)
      %255 = vector.fma %99, %250, %arg49 : vector<64xf32> loc(#loc24)
      %256 = arith.addi %94#0, %c39 : index loc(#loc24)
      %257 = memref.load %93[%256, %94#1] : memref<?x?xf32, strided<[?, 1]>> loc(#loc24)
      %258 = vector.broadcast %257 : f32 to vector<64xf32> loc(#loc24)
      memref.prefetch %93[%252, %97], read, locality<3>, data : memref<?x?xf32, strided<[?, 1]>> loc(#loc24)
      %259 = vector.fma %99, %254, %arg50 : vector<64xf32> loc(#loc24)
      %260 = arith.addi %94#0, %c40 : index loc(#loc24)
      %261 = memref.load %93[%260, %94#1] : memref<?x?xf32, strided<[?, 1]>> loc(#loc24)
      %262 = vector.broadcast %261 : f32 to vector<64xf32> loc(#loc24)
      memref.prefetch %93[%256, %97], read, locality<3>, data : memref<?x?xf32, strided<[?, 1]>> loc(#loc24)
      %263 = vector.fma %99, %258, %arg51 : vector<64xf32> loc(#loc24)
      %264 = arith.addi %94#0, %c41 : index loc(#loc24)
      %265 = memref.load %93[%264, %94#1] : memref<?x?xf32, strided<[?, 1]>> loc(#loc24)
      %266 = vector.broadcast %265 : f32 to vector<64xf32> loc(#loc24)
      memref.prefetch %93[%260, %97], read, locality<3>, data : memref<?x?xf32, strided<[?, 1]>> loc(#loc24)
      %267 = vector.fma %99, %262, %arg52 : vector<64xf32> loc(#loc24)
      %268 = arith.addi %94#0, %c42 : index loc(#loc24)
      %269 = memref.load %93[%268, %94#1] : memref<?x?xf32, strided<[?, 1]>> loc(#loc24)
      %270 = vector.broadcast %269 : f32 to vector<64xf32> loc(#loc24)
      memref.prefetch %93[%264, %97], read, locality<3>, data : memref<?x?xf32, strided<[?, 1]>> loc(#loc24)
      %271 = vector.fma %99, %266, %arg53 : vector<64xf32> loc(#loc24)
      %272 = arith.addi %94#0, %c43 : index loc(#loc24)
      %273 = memref.load %93[%272, %94#1] : memref<?x?xf32, strided<[?, 1]>> loc(#loc24)
      %274 = vector.broadcast %273 : f32 to vector<64xf32> loc(#loc24)
      memref.prefetch %93[%268, %97], read, locality<3>, data : memref<?x?xf32, strided<[?, 1]>> loc(#loc24)
      %275 = vector.fma %99, %270, %arg54 : vector<64xf32> loc(#loc24)
      %276 = arith.addi %94#0, %c44 : index loc(#loc24)
      %277 = memref.load %93[%276, %94#1] : memref<?x?xf32, strided<[?, 1]>> loc(#loc24)
      %278 = vector.broadcast %277 : f32 to vector<64xf32> loc(#loc24)
      memref.prefetch %93[%272, %97], read, locality<3>, data : memref<?x?xf32, strided<[?, 1]>> loc(#loc24)
      %279 = vector.fma %99, %274, %arg55 : vector<64xf32> loc(#loc24)
      %280 = arith.addi %94#0, %c45 : index loc(#loc24)
      %281 = memref.load %93[%280, %94#1] : memref<?x?xf32, strided<[?, 1]>> loc(#loc24)
      %282 = vector.broadcast %281 : f32 to vector<64xf32> loc(#loc24)
      memref.prefetch %93[%276, %97], read, locality<3>, data : memref<?x?xf32, strided<[?, 1]>> loc(#loc24)
      %283 = vector.fma %99, %278, %arg56 : vector<64xf32> loc(#loc24)
      %284 = arith.addi %94#0, %c46 : index loc(#loc24)
      %285 = memref.load %93[%284, %94#1] : memref<?x?xf32, strided<[?, 1]>> loc(#loc24)
      %286 = vector.broadcast %285 : f32 to vector<64xf32> loc(#loc24)
      memref.prefetch %93[%280, %97], read, locality<3>, data : memref<?x?xf32, strided<[?, 1]>> loc(#loc24)
      %287 = vector.fma %99, %282, %arg57 : vector<64xf32> loc(#loc24)
      %288 = arith.addi %94#0, %c47 : index loc(#loc24)
      %289 = memref.load %93[%288, %94#1] : memref<?x?xf32, strided<[?, 1]>> loc(#loc24)
      %290 = vector.broadcast %289 : f32 to vector<64xf32> loc(#loc24)
      memref.prefetch %93[%284, %97], read, locality<3>, data : memref<?x?xf32, strided<[?, 1]>> loc(#loc24)
      %291 = vector.fma %99, %286, %arg58 : vector<64xf32> loc(#loc24)
      %292 = arith.addi %94#0, %c48 : index loc(#loc24)
      %293 = memref.load %93[%292, %94#1] : memref<?x?xf32, strided<[?, 1]>> loc(#loc24)
      %294 = vector.broadcast %293 : f32 to vector<64xf32> loc(#loc24)
      memref.prefetch %93[%288, %97], read, locality<3>, data : memref<?x?xf32, strided<[?, 1]>> loc(#loc24)
      %295 = vector.fma %99, %290, %arg59 : vector<64xf32> loc(#loc24)
      %296 = arith.addi %94#0, %c49 : index loc(#loc24)
      %297 = memref.load %93[%296, %94#1] : memref<?x?xf32, strided<[?, 1]>> loc(#loc24)
      %298 = vector.broadcast %297 : f32 to vector<64xf32> loc(#loc24)
      memref.prefetch %93[%292, %97], read, locality<3>, data : memref<?x?xf32, strided<[?, 1]>> loc(#loc24)
      %299 = vector.fma %99, %294, %arg60 : vector<64xf32> loc(#loc24)
      %300 = arith.addi %94#0, %c50 : index loc(#loc24)
      %301 = memref.load %93[%300, %94#1] : memref<?x?xf32, strided<[?, 1]>> loc(#loc24)
      %302 = vector.broadcast %301 : f32 to vector<64xf32> loc(#loc24)
      memref.prefetch %93[%296, %97], read, locality<3>, data : memref<?x?xf32, strided<[?, 1]>> loc(#loc24)
      %303 = vector.fma %99, %298, %arg61 : vector<64xf32> loc(#loc24)
      %304 = arith.addi %94#0, %c51 : index loc(#loc24)
      %305 = memref.load %93[%304, %94#1] : memref<?x?xf32, strided<[?, 1]>> loc(#loc24)
      %306 = vector.broadcast %305 : f32 to vector<64xf32> loc(#loc24)
      memref.prefetch %93[%300, %97], read, locality<3>, data : memref<?x?xf32, strided<[?, 1]>> loc(#loc24)
      %307 = vector.fma %99, %302, %arg62 : vector<64xf32> loc(#loc24)
      %308 = arith.addi %94#0, %c52 : index loc(#loc24)
      %309 = memref.load %93[%308, %94#1] : memref<?x?xf32, strided<[?, 1]>> loc(#loc24)
      %310 = vector.broadcast %309 : f32 to vector<64xf32> loc(#loc24)
      memref.prefetch %93[%304, %97], read, locality<3>, data : memref<?x?xf32, strided<[?, 1]>> loc(#loc24)
      %311 = vector.fma %99, %306, %arg63 : vector<64xf32> loc(#loc24)
      %312 = arith.addi %94#0, %c53 : index loc(#loc24)
      %313 = memref.load %93[%312, %94#1] : memref<?x?xf32, strided<[?, 1]>> loc(#loc24)
      %314 = vector.broadcast %313 : f32 to vector<64xf32> loc(#loc24)
      memref.prefetch %93[%308, %97], read, locality<3>, data : memref<?x?xf32, strided<[?, 1]>> loc(#loc24)
      %315 = vector.fma %99, %310, %arg64 : vector<64xf32> loc(#loc24)
      %316 = arith.addi %94#0, %c54 : index loc(#loc24)
      %317 = memref.load %93[%316, %94#1] : memref<?x?xf32, strided<[?, 1]>> loc(#loc24)
      %318 = vector.broadcast %317 : f32 to vector<64xf32> loc(#loc24)
      memref.prefetch %93[%312, %97], read, locality<3>, data : memref<?x?xf32, strided<[?, 1]>> loc(#loc24)
      %319 = vector.fma %99, %314, %arg65 : vector<64xf32> loc(#loc24)
      %320 = arith.addi %94#0, %c55 : index loc(#loc24)
      %321 = memref.load %93[%320, %94#1] : memref<?x?xf32, strided<[?, 1]>> loc(#loc24)
      %322 = vector.broadcast %321 : f32 to vector<64xf32> loc(#loc24)
      memref.prefetch %93[%316, %97], read, locality<3>, data : memref<?x?xf32, strided<[?, 1]>> loc(#loc24)
      %323 = vector.fma %99, %318, %arg66 : vector<64xf32> loc(#loc24)
      %324 = arith.addi %94#0, %c56 : index loc(#loc24)
      %325 = memref.load %93[%324, %94#1] : memref<?x?xf32, strided<[?, 1]>> loc(#loc24)
      %326 = vector.broadcast %325 : f32 to vector<64xf32> loc(#loc24)
      memref.prefetch %93[%320, %97], read, locality<3>, data : memref<?x?xf32, strided<[?, 1]>> loc(#loc24)
      %327 = vector.fma %99, %322, %arg67 : vector<64xf32> loc(#loc24)
      %328 = arith.addi %94#0, %c57 : index loc(#loc24)
      %329 = memref.load %93[%328, %94#1] : memref<?x?xf32, strided<[?, 1]>> loc(#loc24)
      %330 = vector.broadcast %329 : f32 to vector<64xf32> loc(#loc24)
      memref.prefetch %93[%324, %97], read, locality<3>, data : memref<?x?xf32, strided<[?, 1]>> loc(#loc24)
      %331 = vector.fma %99, %326, %arg68 : vector<64xf32> loc(#loc24)
      %332 = arith.addi %94#0, %c58 : index loc(#loc24)
      %333 = memref.load %93[%332, %94#1] : memref<?x?xf32, strided<[?, 1]>> loc(#loc24)
      %334 = vector.broadcast %333 : f32 to vector<64xf32> loc(#loc24)
      memref.prefetch %93[%328, %97], read, locality<3>, data : memref<?x?xf32, strided<[?, 1]>> loc(#loc24)
      %335 = vector.fma %99, %330, %arg69 : vector<64xf32> loc(#loc24)
      %336 = arith.addi %94#0, %c59 : index loc(#loc24)
      %337 = memref.load %93[%336, %94#1] : memref<?x?xf32, strided<[?, 1]>> loc(#loc24)
      %338 = vector.broadcast %337 : f32 to vector<64xf32> loc(#loc24)
      memref.prefetch %93[%332, %97], read, locality<3>, data : memref<?x?xf32, strided<[?, 1]>> loc(#loc24)
      %339 = vector.fma %99, %334, %arg70 : vector<64xf32> loc(#loc24)
      %340 = arith.addi %94#0, %c60 : index loc(#loc24)
      %341 = memref.load %93[%340, %94#1] : memref<?x?xf32, strided<[?, 1]>> loc(#loc24)
      %342 = vector.broadcast %341 : f32 to vector<64xf32> loc(#loc24)
      memref.prefetch %93[%336, %97], read, locality<3>, data : memref<?x?xf32, strided<[?, 1]>> loc(#loc24)
      %343 = vector.fma %99, %338, %arg71 : vector<64xf32> loc(#loc24)
      %344 = arith.addi %94#0, %c61 : index loc(#loc24)
      %345 = memref.load %93[%344, %94#1] : memref<?x?xf32, strided<[?, 1]>> loc(#loc24)
      %346 = vector.broadcast %345 : f32 to vector<64xf32> loc(#loc24)
      memref.prefetch %93[%340, %97], read, locality<3>, data : memref<?x?xf32, strided<[?, 1]>> loc(#loc24)
      %347 = vector.fma %99, %342, %arg72 : vector<64xf32> loc(#loc24)
      %348 = arith.addi %94#0, %c62 : index loc(#loc24)
      %349 = memref.load %93[%348, %94#1] : memref<?x?xf32, strided<[?, 1]>> loc(#loc24)
      %350 = vector.broadcast %349 : f32 to vector<64xf32> loc(#loc24)
      memref.prefetch %93[%344, %97], read, locality<3>, data : memref<?x?xf32, strided<[?, 1]>> loc(#loc24)
      %351 = vector.fma %99, %346, %arg73 : vector<64xf32> loc(#loc24)
      %352 = arith.addi %94#0, %c63 : index loc(#loc24)
      %353 = memref.load %93[%352, %94#1] : memref<?x?xf32, strided<[?, 1]>> loc(#loc24)
      %354 = vector.broadcast %353 : f32 to vector<64xf32> loc(#loc24)
      memref.prefetch %93[%348, %97], read, locality<3>, data : memref<?x?xf32, strided<[?, 1]>> loc(#loc24)
      %355 = vector.fma %99, %350, %arg74 : vector<64xf32> loc(#loc24)
      memref.prefetch %93[%352, %97], read, locality<3>, data : memref<?x?xf32, strided<[?, 1]>> loc(#loc24)
      %356 = vector.fma %99, %354, %arg75 : vector<64xf32> loc(#loc24)
      %357 = arith.addi %96#0, %c2 : index loc(#loc24)
      %358 = vector.load %95[%357, %96#1] : memref<?x?xf32, strided<[?, 1]>>, vector<64xf32> loc(#loc24)
      %359 = arith.addi %96#0, %c9 : index loc(#loc24)
      memref.prefetch %95[%359, %96#1], read, locality<1>, data : memref<?x?xf32, strided<[?, 1]>> loc(#loc24)
      %360 = arith.addi %94#1, %c1 : index loc(#loc24)
      %361 = memref.load %93[%94#0, %360] : memref<?x?xf32, strided<[?, 1]>> loc(#loc24)
      %362 = vector.broadcast %361 : f32 to vector<64xf32> loc(#loc24)
      %363 = memref.load %93[%104, %360] : memref<?x?xf32, strided<[?, 1]>> loc(#loc24)
      %364 = vector.broadcast %363 : f32 to vector<64xf32> loc(#loc24)
      %365 = vector.fma %101, %362, %107 : vector<64xf32> loc(#loc24)
      %366 = memref.load %93[%108, %360] : memref<?x?xf32, strided<[?, 1]>> loc(#loc24)
      %367 = vector.broadcast %366 : f32 to vector<64xf32> loc(#loc24)
      %368 = vector.fma %101, %364, %111 : vector<64xf32> loc(#loc24)
      %369 = memref.load %93[%112, %360] : memref<?x?xf32, strided<[?, 1]>> loc(#loc24)
      %370 = vector.broadcast %369 : f32 to vector<64xf32> loc(#loc24)
      %371 = vector.fma %101, %367, %115 : vector<64xf32> loc(#loc24)
      %372 = memref.load %93[%116, %360] : memref<?x?xf32, strided<[?, 1]>> loc(#loc24)
      %373 = vector.broadcast %372 : f32 to vector<64xf32> loc(#loc24)
      %374 = vector.fma %101, %370, %119 : vector<64xf32> loc(#loc24)
      %375 = memref.load %93[%120, %360] : memref<?x?xf32, strided<[?, 1]>> loc(#loc24)
      %376 = vector.broadcast %375 : f32 to vector<64xf32> loc(#loc24)
      %377 = vector.fma %101, %373, %123 : vector<64xf32> loc(#loc24)
      %378 = memref.load %93[%124, %360] : memref<?x?xf32, strided<[?, 1]>> loc(#loc24)
      %379 = vector.broadcast %378 : f32 to vector<64xf32> loc(#loc24)
      %380 = vector.fma %101, %376, %127 : vector<64xf32> loc(#loc24)
      %381 = memref.load %93[%128, %360] : memref<?x?xf32, strided<[?, 1]>> loc(#loc24)
      %382 = vector.broadcast %381 : f32 to vector<64xf32> loc(#loc24)
      %383 = vector.fma %101, %379, %131 : vector<64xf32> loc(#loc24)
      %384 = memref.load %93[%132, %360] : memref<?x?xf32, strided<[?, 1]>> loc(#loc24)
      %385 = vector.broadcast %384 : f32 to vector<64xf32> loc(#loc24)
      %386 = vector.fma %101, %382, %135 : vector<64xf32> loc(#loc24)
      %387 = memref.load %93[%136, %360] : memref<?x?xf32, strided<[?, 1]>> loc(#loc24)
      %388 = vector.broadcast %387 : f32 to vector<64xf32> loc(#loc24)
      %389 = vector.fma %101, %385, %139 : vector<64xf32> loc(#loc24)
      %390 = memref.load %93[%140, %360] : memref<?x?xf32, strided<[?, 1]>> loc(#loc24)
      %391 = vector.broadcast %390 : f32 to vector<64xf32> loc(#loc24)
      %392 = vector.fma %101, %388, %143 : vector<64xf32> loc(#loc24)
      %393 = memref.load %93[%144, %360] : memref<?x?xf32, strided<[?, 1]>> loc(#loc24)
      %394 = vector.broadcast %393 : f32 to vector<64xf32> loc(#loc24)
      %395 = vector.fma %101, %391, %147 : vector<64xf32> loc(#loc24)
      %396 = memref.load %93[%148, %360] : memref<?x?xf32, strided<[?, 1]>> loc(#loc24)
      %397 = vector.broadcast %396 : f32 to vector<64xf32> loc(#loc24)
      %398 = vector.fma %101, %394, %151 : vector<64xf32> loc(#loc24)
      %399 = memref.load %93[%152, %360] : memref<?x?xf32, strided<[?, 1]>> loc(#loc24)
      %400 = vector.broadcast %399 : f32 to vector<64xf32> loc(#loc24)
      %401 = vector.fma %101, %397, %155 : vector<64xf32> loc(#loc24)
      %402 = memref.load %93[%156, %360] : memref<?x?xf32, strided<[?, 1]>> loc(#loc24)
      %403 = vector.broadcast %402 : f32 to vector<64xf32> loc(#loc24)
      %404 = vector.fma %101, %400, %159 : vector<64xf32> loc(#loc24)
      %405 = memref.load %93[%160, %360] : memref<?x?xf32, strided<[?, 1]>> loc(#loc24)
      %406 = vector.broadcast %405 : f32 to vector<64xf32> loc(#loc24)
      %407 = vector.fma %101, %403, %163 : vector<64xf32> loc(#loc24)
      %408 = memref.load %93[%164, %360] : memref<?x?xf32, strided<[?, 1]>> loc(#loc24)
      %409 = vector.broadcast %408 : f32 to vector<64xf32> loc(#loc24)
      %410 = vector.fma %101, %406, %167 : vector<64xf32> loc(#loc24)
      %411 = memref.load %93[%168, %360] : memref<?x?xf32, strided<[?, 1]>> loc(#loc24)
      %412 = vector.broadcast %411 : f32 to vector<64xf32> loc(#loc24)
      %413 = vector.fma %101, %409, %171 : vector<64xf32> loc(#loc24)
      %414 = memref.load %93[%172, %360] : memref<?x?xf32, strided<[?, 1]>> loc(#loc24)
      %415 = vector.broadcast %414 : f32 to vector<64xf32> loc(#loc24)
      %416 = vector.fma %101, %412, %175 : vector<64xf32> loc(#loc24)
      %417 = memref.load %93[%176, %360] : memref<?x?xf32, strided<[?, 1]>> loc(#loc24)
      %418 = vector.broadcast %417 : f32 to vector<64xf32> loc(#loc24)
      %419 = vector.fma %101, %415, %179 : vector<64xf32> loc(#loc24)
      %420 = memref.load %93[%180, %360] : memref<?x?xf32, strided<[?, 1]>> loc(#loc24)
      %421 = vector.broadcast %420 : f32 to vector<64xf32> loc(#loc24)
      %422 = vector.fma %101, %418, %183 : vector<64xf32> loc(#loc24)
      %423 = memref.load %93[%184, %360] : memref<?x?xf32, strided<[?, 1]>> loc(#loc24)
      %424 = vector.broadcast %423 : f32 to vector<64xf32> loc(#loc24)
      %425 = vector.fma %101, %421, %187 : vector<64xf32> loc(#loc24)
      %426 = memref.load %93[%188, %360] : memref<?x?xf32, strided<[?, 1]>> loc(#loc24)
      %427 = vector.broadcast %426 : f32 to vector<64xf32> loc(#loc24)
      %428 = vector.fma %101, %424, %191 : vector<64xf32> loc(#loc24)
      %429 = memref.load %93[%192, %360] : memref<?x?xf32, strided<[?, 1]>> loc(#loc24)
      %430 = vector.broadcast %429 : f32 to vector<64xf32> loc(#loc24)
      %431 = vector.fma %101, %427, %195 : vector<64xf32> loc(#loc24)
      %432 = memref.load %93[%196, %360] : memref<?x?xf32, strided<[?, 1]>> loc(#loc24)
      %433 = vector.broadcast %432 : f32 to vector<64xf32> loc(#loc24)
      %434 = vector.fma %101, %430, %199 : vector<64xf32> loc(#loc24)
      %435 = memref.load %93[%200, %360] : memref<?x?xf32, strided<[?, 1]>> loc(#loc24)
      %436 = vector.broadcast %435 : f32 to vector<64xf32> loc(#loc24)
      %437 = vector.fma %101, %433, %203 : vector<64xf32> loc(#loc24)
      %438 = memref.load %93[%204, %360] : memref<?x?xf32, strided<[?, 1]>> loc(#loc24)
      %439 = vector.broadcast %438 : f32 to vector<64xf32> loc(#loc24)
      %440 = vector.fma %101, %436, %207 : vector<64xf32> loc(#loc24)
      %441 = memref.load %93[%208, %360] : memref<?x?xf32, strided<[?, 1]>> loc(#loc24)
      %442 = vector.broadcast %441 : f32 to vector<64xf32> loc(#loc24)
      %443 = vector.fma %101, %439, %211 : vector<64xf32> loc(#loc24)
      %444 = memref.load %93[%212, %360] : memref<?x?xf32, strided<[?, 1]>> loc(#loc24)
      %445 = vector.broadcast %444 : f32 to vector<64xf32> loc(#loc24)
      %446 = vector.fma %101, %442, %215 : vector<64xf32> loc(#loc24)
      %447 = memref.load %93[%216, %360] : memref<?x?xf32, strided<[?, 1]>> loc(#loc24)
      %448 = vector.broadcast %447 : f32 to vector<64xf32> loc(#loc24)
      %449 = vector.fma %101, %445, %219 : vector<64xf32> loc(#loc24)
      %450 = memref.load %93[%220, %360] : memref<?x?xf32, strided<[?, 1]>> loc(#loc24)
      %451 = vector.broadcast %450 : f32 to vector<64xf32> loc(#loc24)
      %452 = vector.fma %101, %448, %223 : vector<64xf32> loc(#loc24)
      %453 = memref.load %93[%224, %360] : memref<?x?xf32, strided<[?, 1]>> loc(#loc24)
      %454 = vector.broadcast %453 : f32 to vector<64xf32> loc(#loc24)
      %455 = vector.fma %101, %451, %227 : vector<64xf32> loc(#loc24)
      %456 = memref.load %93[%228, %360] : memref<?x?xf32, strided<[?, 1]>> loc(#loc24)
      %457 = vector.broadcast %456 : f32 to vector<64xf32> loc(#loc24)
      %458 = vector.fma %101, %454, %231 : vector<64xf32> loc(#loc24)
      %459 = memref.load %93[%232, %360] : memref<?x?xf32, strided<[?, 1]>> loc(#loc24)
      %460 = vector.broadcast %459 : f32 to vector<64xf32> loc(#loc24)
      %461 = vector.fma %101, %457, %235 : vector<64xf32> loc(#loc24)
      %462 = memref.load %93[%236, %360] : memref<?x?xf32, strided<[?, 1]>> loc(#loc24)
      %463 = vector.broadcast %462 : f32 to vector<64xf32> loc(#loc24)
      %464 = vector.fma %101, %460, %239 : vector<64xf32> loc(#loc24)
      %465 = memref.load %93[%240, %360] : memref<?x?xf32, strided<[?, 1]>> loc(#loc24)
      %466 = vector.broadcast %465 : f32 to vector<64xf32> loc(#loc24)
      %467 = vector.fma %101, %463, %243 : vector<64xf32> loc(#loc24)
      %468 = memref.load %93[%244, %360] : memref<?x?xf32, strided<[?, 1]>> loc(#loc24)
      %469 = vector.broadcast %468 : f32 to vector<64xf32> loc(#loc24)
      %470 = vector.fma %101, %466, %247 : vector<64xf32> loc(#loc24)
      %471 = memref.load %93[%248, %360] : memref<?x?xf32, strided<[?, 1]>> loc(#loc24)
      %472 = vector.broadcast %471 : f32 to vector<64xf32> loc(#loc24)
      %473 = vector.fma %101, %469, %251 : vector<64xf32> loc(#loc24)
      %474 = memref.load %93[%252, %360] : memref<?x?xf32, strided<[?, 1]>> loc(#loc24)
      %475 = vector.broadcast %474 : f32 to vector<64xf32> loc(#loc24)
      %476 = vector.fma %101, %472, %255 : vector<64xf32> loc(#loc24)
      %477 = memref.load %93[%256, %360] : memref<?x?xf32, strided<[?, 1]>> loc(#loc24)
      %478 = vector.broadcast %477 : f32 to vector<64xf32> loc(#loc24)
      %479 = vector.fma %101, %475, %259 : vector<64xf32> loc(#loc24)
      %480 = memref.load %93[%260, %360] : memref<?x?xf32, strided<[?, 1]>> loc(#loc24)
      %481 = vector.broadcast %480 : f32 to vector<64xf32> loc(#loc24)
      %482 = vector.fma %101, %478, %263 : vector<64xf32> loc(#loc24)
      %483 = memref.load %93[%264, %360] : memref<?x?xf32, strided<[?, 1]>> loc(#loc24)
      %484 = vector.broadcast %483 : f32 to vector<64xf32> loc(#loc24)
      %485 = vector.fma %101, %481, %267 : vector<64xf32> loc(#loc24)
      %486 = memref.load %93[%268, %360] : memref<?x?xf32, strided<[?, 1]>> loc(#loc24)
      %487 = vector.broadcast %486 : f32 to vector<64xf32> loc(#loc24)
      %488 = vector.fma %101, %484, %271 : vector<64xf32> loc(#loc24)
      %489 = memref.load %93[%272, %360] : memref<?x?xf32, strided<[?, 1]>> loc(#loc24)
      %490 = vector.broadcast %489 : f32 to vector<64xf32> loc(#loc24)
      %491 = vector.fma %101, %487, %275 : vector<64xf32> loc(#loc24)
      %492 = memref.load %93[%276, %360] : memref<?x?xf32, strided<[?, 1]>> loc(#loc24)
      %493 = vector.broadcast %492 : f32 to vector<64xf32> loc(#loc24)
      %494 = vector.fma %101, %490, %279 : vector<64xf32> loc(#loc24)
      %495 = memref.load %93[%280, %360] : memref<?x?xf32, strided<[?, 1]>> loc(#loc24)
      %496 = vector.broadcast %495 : f32 to vector<64xf32> loc(#loc24)
      %497 = vector.fma %101, %493, %283 : vector<64xf32> loc(#loc24)
      %498 = memref.load %93[%284, %360] : memref<?x?xf32, strided<[?, 1]>> loc(#loc24)
      %499 = vector.broadcast %498 : f32 to vector<64xf32> loc(#loc24)
      %500 = vector.fma %101, %496, %287 : vector<64xf32> loc(#loc24)
      %501 = memref.load %93[%288, %360] : memref<?x?xf32, strided<[?, 1]>> loc(#loc24)
      %502 = vector.broadcast %501 : f32 to vector<64xf32> loc(#loc24)
      %503 = vector.fma %101, %499, %291 : vector<64xf32> loc(#loc24)
      %504 = memref.load %93[%292, %360] : memref<?x?xf32, strided<[?, 1]>> loc(#loc24)
      %505 = vector.broadcast %504 : f32 to vector<64xf32> loc(#loc24)
      %506 = vector.fma %101, %502, %295 : vector<64xf32> loc(#loc24)
      %507 = memref.load %93[%296, %360] : memref<?x?xf32, strided<[?, 1]>> loc(#loc24)
      %508 = vector.broadcast %507 : f32 to vector<64xf32> loc(#loc24)
      %509 = vector.fma %101, %505, %299 : vector<64xf32> loc(#loc24)
      %510 = memref.load %93[%300, %360] : memref<?x?xf32, strided<[?, 1]>> loc(#loc24)
      %511 = vector.broadcast %510 : f32 to vector<64xf32> loc(#loc24)
      %512 = vector.fma %101, %508, %303 : vector<64xf32> loc(#loc24)
      %513 = memref.load %93[%304, %360] : memref<?x?xf32, strided<[?, 1]>> loc(#loc24)
      %514 = vector.broadcast %513 : f32 to vector<64xf32> loc(#loc24)
      %515 = vector.fma %101, %511, %307 : vector<64xf32> loc(#loc24)
      %516 = memref.load %93[%308, %360] : memref<?x?xf32, strided<[?, 1]>> loc(#loc24)
      %517 = vector.broadcast %516 : f32 to vector<64xf32> loc(#loc24)
      %518 = vector.fma %101, %514, %311 : vector<64xf32> loc(#loc24)
      %519 = memref.load %93[%312, %360] : memref<?x?xf32, strided<[?, 1]>> loc(#loc24)
      %520 = vector.broadcast %519 : f32 to vector<64xf32> loc(#loc24)
      %521 = vector.fma %101, %517, %315 : vector<64xf32> loc(#loc24)
      %522 = memref.load %93[%316, %360] : memref<?x?xf32, strided<[?, 1]>> loc(#loc24)
      %523 = vector.broadcast %522 : f32 to vector<64xf32> loc(#loc24)
      %524 = vector.fma %101, %520, %319 : vector<64xf32> loc(#loc24)
      %525 = memref.load %93[%320, %360] : memref<?x?xf32, strided<[?, 1]>> loc(#loc24)
      %526 = vector.broadcast %525 : f32 to vector<64xf32> loc(#loc24)
      %527 = vector.fma %101, %523, %323 : vector<64xf32> loc(#loc24)
      %528 = memref.load %93[%324, %360] : memref<?x?xf32, strided<[?, 1]>> loc(#loc24)
      %529 = vector.broadcast %528 : f32 to vector<64xf32> loc(#loc24)
      %530 = vector.fma %101, %526, %327 : vector<64xf32> loc(#loc24)
      %531 = memref.load %93[%328, %360] : memref<?x?xf32, strided<[?, 1]>> loc(#loc24)
      %532 = vector.broadcast %531 : f32 to vector<64xf32> loc(#loc24)
      %533 = vector.fma %101, %529, %331 : vector<64xf32> loc(#loc24)
      %534 = memref.load %93[%332, %360] : memref<?x?xf32, strided<[?, 1]>> loc(#loc24)
      %535 = vector.broadcast %534 : f32 to vector<64xf32> loc(#loc24)
      %536 = vector.fma %101, %532, %335 : vector<64xf32> loc(#loc24)
      %537 = memref.load %93[%336, %360] : memref<?x?xf32, strided<[?, 1]>> loc(#loc24)
      %538 = vector.broadcast %537 : f32 to vector<64xf32> loc(#loc24)
      %539 = vector.fma %101, %535, %339 : vector<64xf32> loc(#loc24)
      %540 = memref.load %93[%340, %360] : memref<?x?xf32, strided<[?, 1]>> loc(#loc24)
      %541 = vector.broadcast %540 : f32 to vector<64xf32> loc(#loc24)
      %542 = vector.fma %101, %538, %343 : vector<64xf32> loc(#loc24)
      %543 = memref.load %93[%344, %360] : memref<?x?xf32, strided<[?, 1]>> loc(#loc24)
      %544 = vector.broadcast %543 : f32 to vector<64xf32> loc(#loc24)
      %545 = vector.fma %101, %541, %347 : vector<64xf32> loc(#loc24)
      %546 = memref.load %93[%348, %360] : memref<?x?xf32, strided<[?, 1]>> loc(#loc24)
      %547 = vector.broadcast %546 : f32 to vector<64xf32> loc(#loc24)
      %548 = vector.fma %101, %544, %351 : vector<64xf32> loc(#loc24)
      %549 = memref.load %93[%352, %360] : memref<?x?xf32, strided<[?, 1]>> loc(#loc24)
      %550 = vector.broadcast %549 : f32 to vector<64xf32> loc(#loc24)
      %551 = vector.fma %101, %547, %355 : vector<64xf32> loc(#loc24)
      %552 = vector.fma %101, %550, %356 : vector<64xf32> loc(#loc24)
      %553 = arith.addi %96#0, %c3 : index loc(#loc24)
      %554 = vector.load %95[%553, %96#1] : memref<?x?xf32, strided<[?, 1]>>, vector<64xf32> loc(#loc24)
      %555 = arith.addi %96#0, %c10 : index loc(#loc24)
      memref.prefetch %95[%555, %96#1], read, locality<1>, data : memref<?x?xf32, strided<[?, 1]>> loc(#loc24)
      %556 = arith.addi %94#1, %c2 : index loc(#loc24)
      %557 = memref.load %93[%94#0, %556] : memref<?x?xf32, strided<[?, 1]>> loc(#loc24)
      %558 = vector.broadcast %557 : f32 to vector<64xf32> loc(#loc24)
      %559 = memref.load %93[%104, %556] : memref<?x?xf32, strided<[?, 1]>> loc(#loc24)
      %560 = vector.broadcast %559 : f32 to vector<64xf32> loc(#loc24)
      %561 = vector.fma %358, %558, %365 : vector<64xf32> loc(#loc24)
      %562 = memref.load %93[%108, %556] : memref<?x?xf32, strided<[?, 1]>> loc(#loc24)
      %563 = vector.broadcast %562 : f32 to vector<64xf32> loc(#loc24)
      %564 = vector.fma %358, %560, %368 : vector<64xf32> loc(#loc24)
      %565 = memref.load %93[%112, %556] : memref<?x?xf32, strided<[?, 1]>> loc(#loc24)
      %566 = vector.broadcast %565 : f32 to vector<64xf32> loc(#loc24)
      %567 = vector.fma %358, %563, %371 : vector<64xf32> loc(#loc24)
      %568 = memref.load %93[%116, %556] : memref<?x?xf32, strided<[?, 1]>> loc(#loc24)
      %569 = vector.broadcast %568 : f32 to vector<64xf32> loc(#loc24)
      %570 = vector.fma %358, %566, %374 : vector<64xf32> loc(#loc24)
      %571 = memref.load %93[%120, %556] : memref<?x?xf32, strided<[?, 1]>> loc(#loc24)
      %572 = vector.broadcast %571 : f32 to vector<64xf32> loc(#loc24)
      %573 = vector.fma %358, %569, %377 : vector<64xf32> loc(#loc24)
      %574 = memref.load %93[%124, %556] : memref<?x?xf32, strided<[?, 1]>> loc(#loc24)
      %575 = vector.broadcast %574 : f32 to vector<64xf32> loc(#loc24)
      %576 = vector.fma %358, %572, %380 : vector<64xf32> loc(#loc24)
      %577 = memref.load %93[%128, %556] : memref<?x?xf32, strided<[?, 1]>> loc(#loc24)
      %578 = vector.broadcast %577 : f32 to vector<64xf32> loc(#loc24)
      %579 = vector.fma %358, %575, %383 : vector<64xf32> loc(#loc24)
      %580 = memref.load %93[%132, %556] : memref<?x?xf32, strided<[?, 1]>> loc(#loc24)
      %581 = vector.broadcast %580 : f32 to vector<64xf32> loc(#loc24)
      %582 = vector.fma %358, %578, %386 : vector<64xf32> loc(#loc24)
      %583 = memref.load %93[%136, %556] : memref<?x?xf32, strided<[?, 1]>> loc(#loc24)
      %584 = vector.broadcast %583 : f32 to vector<64xf32> loc(#loc24)
      %585 = vector.fma %358, %581, %389 : vector<64xf32> loc(#loc24)
      %586 = memref.load %93[%140, %556] : memref<?x?xf32, strided<[?, 1]>> loc(#loc24)
      %587 = vector.broadcast %586 : f32 to vector<64xf32> loc(#loc24)
      %588 = vector.fma %358, %584, %392 : vector<64xf32> loc(#loc24)
      %589 = memref.load %93[%144, %556] : memref<?x?xf32, strided<[?, 1]>> loc(#loc24)
      %590 = vector.broadcast %589 : f32 to vector<64xf32> loc(#loc24)
      %591 = vector.fma %358, %587, %395 : vector<64xf32> loc(#loc24)
      %592 = memref.load %93[%148, %556] : memref<?x?xf32, strided<[?, 1]>> loc(#loc24)
      %593 = vector.broadcast %592 : f32 to vector<64xf32> loc(#loc24)
      %594 = vector.fma %358, %590, %398 : vector<64xf32> loc(#loc24)
      %595 = memref.load %93[%152, %556] : memref<?x?xf32, strided<[?, 1]>> loc(#loc24)
      %596 = vector.broadcast %595 : f32 to vector<64xf32> loc(#loc24)
      %597 = vector.fma %358, %593, %401 : vector<64xf32> loc(#loc24)
      %598 = memref.load %93[%156, %556] : memref<?x?xf32, strided<[?, 1]>> loc(#loc24)
      %599 = vector.broadcast %598 : f32 to vector<64xf32> loc(#loc24)
      %600 = vector.fma %358, %596, %404 : vector<64xf32> loc(#loc24)
      %601 = memref.load %93[%160, %556] : memref<?x?xf32, strided<[?, 1]>> loc(#loc24)
      %602 = vector.broadcast %601 : f32 to vector<64xf32> loc(#loc24)
      %603 = vector.fma %358, %599, %407 : vector<64xf32> loc(#loc24)
      %604 = memref.load %93[%164, %556] : memref<?x?xf32, strided<[?, 1]>> loc(#loc24)
      %605 = vector.broadcast %604 : f32 to vector<64xf32> loc(#loc24)
      %606 = vector.fma %358, %602, %410 : vector<64xf32> loc(#loc24)
      %607 = memref.load %93[%168, %556] : memref<?x?xf32, strided<[?, 1]>> loc(#loc24)
      %608 = vector.broadcast %607 : f32 to vector<64xf32> loc(#loc24)
      %609 = vector.fma %358, %605, %413 : vector<64xf32> loc(#loc24)
      %610 = memref.load %93[%172, %556] : memref<?x?xf32, strided<[?, 1]>> loc(#loc24)
      %611 = vector.broadcast %610 : f32 to vector<64xf32> loc(#loc24)
      %612 = vector.fma %358, %608, %416 : vector<64xf32> loc(#loc24)
      %613 = memref.load %93[%176, %556] : memref<?x?xf32, strided<[?, 1]>> loc(#loc24)
      %614 = vector.broadcast %613 : f32 to vector<64xf32> loc(#loc24)
      %615 = vector.fma %358, %611, %419 : vector<64xf32> loc(#loc24)
      %616 = memref.load %93[%180, %556] : memref<?x?xf32, strided<[?, 1]>> loc(#loc24)
      %617 = vector.broadcast %616 : f32 to vector<64xf32> loc(#loc24)
      %618 = vector.fma %358, %614, %422 : vector<64xf32> loc(#loc24)
      %619 = memref.load %93[%184, %556] : memref<?x?xf32, strided<[?, 1]>> loc(#loc24)
      %620 = vector.broadcast %619 : f32 to vector<64xf32> loc(#loc24)
      %621 = vector.fma %358, %617, %425 : vector<64xf32> loc(#loc24)
      %622 = memref.load %93[%188, %556] : memref<?x?xf32, strided<[?, 1]>> loc(#loc24)
      %623 = vector.broadcast %622 : f32 to vector<64xf32> loc(#loc24)
      %624 = vector.fma %358, %620, %428 : vector<64xf32> loc(#loc24)
      %625 = memref.load %93[%192, %556] : memref<?x?xf32, strided<[?, 1]>> loc(#loc24)
      %626 = vector.broadcast %625 : f32 to vector<64xf32> loc(#loc24)
      %627 = vector.fma %358, %623, %431 : vector<64xf32> loc(#loc24)
      %628 = memref.load %93[%196, %556] : memref<?x?xf32, strided<[?, 1]>> loc(#loc24)
      %629 = vector.broadcast %628 : f32 to vector<64xf32> loc(#loc24)
      %630 = vector.fma %358, %626, %434 : vector<64xf32> loc(#loc24)
      %631 = memref.load %93[%200, %556] : memref<?x?xf32, strided<[?, 1]>> loc(#loc24)
      %632 = vector.broadcast %631 : f32 to vector<64xf32> loc(#loc24)
      %633 = vector.fma %358, %629, %437 : vector<64xf32> loc(#loc24)
      %634 = memref.load %93[%204, %556] : memref<?x?xf32, strided<[?, 1]>> loc(#loc24)
      %635 = vector.broadcast %634 : f32 to vector<64xf32> loc(#loc24)
      %636 = vector.fma %358, %632, %440 : vector<64xf32> loc(#loc24)
      %637 = memref.load %93[%208, %556] : memref<?x?xf32, strided<[?, 1]>> loc(#loc24)
      %638 = vector.broadcast %637 : f32 to vector<64xf32> loc(#loc24)
      %639 = vector.fma %358, %635, %443 : vector<64xf32> loc(#loc24)
      %640 = memref.load %93[%212, %556] : memref<?x?xf32, strided<[?, 1]>> loc(#loc24)
      %641 = vector.broadcast %640 : f32 to vector<64xf32> loc(#loc24)
      %642 = vector.fma %358, %638, %446 : vector<64xf32> loc(#loc24)
      %643 = memref.load %93[%216, %556] : memref<?x?xf32, strided<[?, 1]>> loc(#loc24)
      %644 = vector.broadcast %643 : f32 to vector<64xf32> loc(#loc24)
      %645 = vector.fma %358, %641, %449 : vector<64xf32> loc(#loc24)
      %646 = memref.load %93[%220, %556] : memref<?x?xf32, strided<[?, 1]>> loc(#loc24)
      %647 = vector.broadcast %646 : f32 to vector<64xf32> loc(#loc24)
      %648 = vector.fma %358, %644, %452 : vector<64xf32> loc(#loc24)
      %649 = memref.load %93[%224, %556] : memref<?x?xf32, strided<[?, 1]>> loc(#loc24)
      %650 = vector.broadcast %649 : f32 to vector<64xf32> loc(#loc24)
      %651 = vector.fma %358, %647, %455 : vector<64xf32> loc(#loc24)
      %652 = memref.load %93[%228, %556] : memref<?x?xf32, strided<[?, 1]>> loc(#loc24)
      %653 = vector.broadcast %652 : f32 to vector<64xf32> loc(#loc24)
      %654 = vector.fma %358, %650, %458 : vector<64xf32> loc(#loc24)
      %655 = memref.load %93[%232, %556] : memref<?x?xf32, strided<[?, 1]>> loc(#loc24)
      %656 = vector.broadcast %655 : f32 to vector<64xf32> loc(#loc24)
      %657 = vector.fma %358, %653, %461 : vector<64xf32> loc(#loc24)
      %658 = memref.load %93[%236, %556] : memref<?x?xf32, strided<[?, 1]>> loc(#loc24)
      %659 = vector.broadcast %658 : f32 to vector<64xf32> loc(#loc24)
      %660 = vector.fma %358, %656, %464 : vector<64xf32> loc(#loc24)
      %661 = memref.load %93[%240, %556] : memref<?x?xf32, strided<[?, 1]>> loc(#loc24)
      %662 = vector.broadcast %661 : f32 to vector<64xf32> loc(#loc24)
      %663 = vector.fma %358, %659, %467 : vector<64xf32> loc(#loc24)
      %664 = memref.load %93[%244, %556] : memref<?x?xf32, strided<[?, 1]>> loc(#loc24)
      %665 = vector.broadcast %664 : f32 to vector<64xf32> loc(#loc24)
      %666 = vector.fma %358, %662, %470 : vector<64xf32> loc(#loc24)
      %667 = memref.load %93[%248, %556] : memref<?x?xf32, strided<[?, 1]>> loc(#loc24)
      %668 = vector.broadcast %667 : f32 to vector<64xf32> loc(#loc24)
      %669 = vector.fma %358, %665, %473 : vector<64xf32> loc(#loc24)
      %670 = memref.load %93[%252, %556] : memref<?x?xf32, strided<[?, 1]>> loc(#loc24)
      %671 = vector.broadcast %670 : f32 to vector<64xf32> loc(#loc24)
      %672 = vector.fma %358, %668, %476 : vector<64xf32> loc(#loc24)
      %673 = memref.load %93[%256, %556] : memref<?x?xf32, strided<[?, 1]>> loc(#loc24)
      %674 = vector.broadcast %673 : f32 to vector<64xf32> loc(#loc24)
      %675 = vector.fma %358, %671, %479 : vector<64xf32> loc(#loc24)
      %676 = memref.load %93[%260, %556] : memref<?x?xf32, strided<[?, 1]>> loc(#loc24)
      %677 = vector.broadcast %676 : f32 to vector<64xf32> loc(#loc24)
      %678 = vector.fma %358, %674, %482 : vector<64xf32> loc(#loc24)
      %679 = memref.load %93[%264, %556] : memref<?x?xf32, strided<[?, 1]>> loc(#loc24)
      %680 = vector.broadcast %679 : f32 to vector<64xf32> loc(#loc24)
      %681 = vector.fma %358, %677, %485 : vector<64xf32> loc(#loc24)
      %682 = memref.load %93[%268, %556] : memref<?x?xf32, strided<[?, 1]>> loc(#loc24)
      %683 = vector.broadcast %682 : f32 to vector<64xf32> loc(#loc24)
      %684 = vector.fma %358, %680, %488 : vector<64xf32> loc(#loc24)
      %685 = memref.load %93[%272, %556] : memref<?x?xf32, strided<[?, 1]>> loc(#loc24)
      %686 = vector.broadcast %685 : f32 to vector<64xf32> loc(#loc24)
      %687 = vector.fma %358, %683, %491 : vector<64xf32> loc(#loc24)
      %688 = memref.load %93[%276, %556] : memref<?x?xf32, strided<[?, 1]>> loc(#loc24)
      %689 = vector.broadcast %688 : f32 to vector<64xf32> loc(#loc24)
      %690 = vector.fma %358, %686, %494 : vector<64xf32> loc(#loc24)
      %691 = memref.load %93[%280, %556] : memref<?x?xf32, strided<[?, 1]>> loc(#loc24)
      %692 = vector.broadcast %691 : f32 to vector<64xf32> loc(#loc24)
      %693 = vector.fma %358, %689, %497 : vector<64xf32> loc(#loc24)
      %694 = memref.load %93[%284, %556] : memref<?x?xf32, strided<[?, 1]>> loc(#loc24)
      %695 = vector.broadcast %694 : f32 to vector<64xf32> loc(#loc24)
      %696 = vector.fma %358, %692, %500 : vector<64xf32> loc(#loc24)
      %697 = memref.load %93[%288, %556] : memref<?x?xf32, strided<[?, 1]>> loc(#loc24)
      %698 = vector.broadcast %697 : f32 to vector<64xf32> loc(#loc24)
      %699 = vector.fma %358, %695, %503 : vector<64xf32> loc(#loc24)
      %700 = memref.load %93[%292, %556] : memref<?x?xf32, strided<[?, 1]>> loc(#loc24)
      %701 = vector.broadcast %700 : f32 to vector<64xf32> loc(#loc24)
      %702 = vector.fma %358, %698, %506 : vector<64xf32> loc(#loc24)
      %703 = memref.load %93[%296, %556] : memref<?x?xf32, strided<[?, 1]>> loc(#loc24)
      %704 = vector.broadcast %703 : f32 to vector<64xf32> loc(#loc24)
      %705 = vector.fma %358, %701, %509 : vector<64xf32> loc(#loc24)
      %706 = memref.load %93[%300, %556] : memref<?x?xf32, strided<[?, 1]>> loc(#loc24)
      %707 = vector.broadcast %706 : f32 to vector<64xf32> loc(#loc24)
      %708 = vector.fma %358, %704, %512 : vector<64xf32> loc(#loc24)
      %709 = memref.load %93[%304, %556] : memref<?x?xf32, strided<[?, 1]>> loc(#loc24)
      %710 = vector.broadcast %709 : f32 to vector<64xf32> loc(#loc24)
      %711 = vector.fma %358, %707, %515 : vector<64xf32> loc(#loc24)
      %712 = memref.load %93[%308, %556] : memref<?x?xf32, strided<[?, 1]>> loc(#loc24)
      %713 = vector.broadcast %712 : f32 to vector<64xf32> loc(#loc24)
      %714 = vector.fma %358, %710, %518 : vector<64xf32> loc(#loc24)
      %715 = memref.load %93[%312, %556] : memref<?x?xf32, strided<[?, 1]>> loc(#loc24)
      %716 = vector.broadcast %715 : f32 to vector<64xf32> loc(#loc24)
      %717 = vector.fma %358, %713, %521 : vector<64xf32> loc(#loc24)
      %718 = memref.load %93[%316, %556] : memref<?x?xf32, strided<[?, 1]>> loc(#loc24)
      %719 = vector.broadcast %718 : f32 to vector<64xf32> loc(#loc24)
      %720 = vector.fma %358, %716, %524 : vector<64xf32> loc(#loc24)
      %721 = memref.load %93[%320, %556] : memref<?x?xf32, strided<[?, 1]>> loc(#loc24)
      %722 = vector.broadcast %721 : f32 to vector<64xf32> loc(#loc24)
      %723 = vector.fma %358, %719, %527 : vector<64xf32> loc(#loc24)
      %724 = memref.load %93[%324, %556] : memref<?x?xf32, strided<[?, 1]>> loc(#loc24)
      %725 = vector.broadcast %724 : f32 to vector<64xf32> loc(#loc24)
      %726 = vector.fma %358, %722, %530 : vector<64xf32> loc(#loc24)
      %727 = memref.load %93[%328, %556] : memref<?x?xf32, strided<[?, 1]>> loc(#loc24)
      %728 = vector.broadcast %727 : f32 to vector<64xf32> loc(#loc24)
      %729 = vector.fma %358, %725, %533 : vector<64xf32> loc(#loc24)
      %730 = memref.load %93[%332, %556] : memref<?x?xf32, strided<[?, 1]>> loc(#loc24)
      %731 = vector.broadcast %730 : f32 to vector<64xf32> loc(#loc24)
      %732 = vector.fma %358, %728, %536 : vector<64xf32> loc(#loc24)
      %733 = memref.load %93[%336, %556] : memref<?x?xf32, strided<[?, 1]>> loc(#loc24)
      %734 = vector.broadcast %733 : f32 to vector<64xf32> loc(#loc24)
      %735 = vector.fma %358, %731, %539 : vector<64xf32> loc(#loc24)
      %736 = memref.load %93[%340, %556] : memref<?x?xf32, strided<[?, 1]>> loc(#loc24)
      %737 = vector.broadcast %736 : f32 to vector<64xf32> loc(#loc24)
      %738 = vector.fma %358, %734, %542 : vector<64xf32> loc(#loc24)
      %739 = memref.load %93[%344, %556] : memref<?x?xf32, strided<[?, 1]>> loc(#loc24)
      %740 = vector.broadcast %739 : f32 to vector<64xf32> loc(#loc24)
      %741 = vector.fma %358, %737, %545 : vector<64xf32> loc(#loc24)
      %742 = memref.load %93[%348, %556] : memref<?x?xf32, strided<[?, 1]>> loc(#loc24)
      %743 = vector.broadcast %742 : f32 to vector<64xf32> loc(#loc24)
      %744 = vector.fma %358, %740, %548 : vector<64xf32> loc(#loc24)
      %745 = memref.load %93[%352, %556] : memref<?x?xf32, strided<[?, 1]>> loc(#loc24)
      %746 = vector.broadcast %745 : f32 to vector<64xf32> loc(#loc24)
      %747 = vector.fma %358, %743, %551 : vector<64xf32> loc(#loc24)
      %748 = vector.fma %358, %746, %552 : vector<64xf32> loc(#loc24)
      %749 = arith.addi %96#0, %c4 : index loc(#loc24)
      %750 = vector.load %95[%749, %96#1] : memref<?x?xf32, strided<[?, 1]>>, vector<64xf32> loc(#loc24)
      %751 = arith.addi %96#0, %c11 : index loc(#loc24)
      memref.prefetch %95[%751, %96#1], read, locality<1>, data : memref<?x?xf32, strided<[?, 1]>> loc(#loc24)
      %752 = arith.addi %94#1, %c3 : index loc(#loc24)
      %753 = memref.load %93[%94#0, %752] : memref<?x?xf32, strided<[?, 1]>> loc(#loc24)
      %754 = vector.broadcast %753 : f32 to vector<64xf32> loc(#loc24)
      %755 = memref.load %93[%104, %752] : memref<?x?xf32, strided<[?, 1]>> loc(#loc24)
      %756 = vector.broadcast %755 : f32 to vector<64xf32> loc(#loc24)
      %757 = vector.fma %554, %754, %561 : vector<64xf32> loc(#loc24)
      %758 = memref.load %93[%108, %752] : memref<?x?xf32, strided<[?, 1]>> loc(#loc24)
      %759 = vector.broadcast %758 : f32 to vector<64xf32> loc(#loc24)
      %760 = vector.fma %554, %756, %564 : vector<64xf32> loc(#loc24)
      %761 = memref.load %93[%112, %752] : memref<?x?xf32, strided<[?, 1]>> loc(#loc24)
      %762 = vector.broadcast %761 : f32 to vector<64xf32> loc(#loc24)
      %763 = vector.fma %554, %759, %567 : vector<64xf32> loc(#loc24)
      %764 = memref.load %93[%116, %752] : memref<?x?xf32, strided<[?, 1]>> loc(#loc24)
      %765 = vector.broadcast %764 : f32 to vector<64xf32> loc(#loc24)
      %766 = vector.fma %554, %762, %570 : vector<64xf32> loc(#loc24)
      %767 = memref.load %93[%120, %752] : memref<?x?xf32, strided<[?, 1]>> loc(#loc24)
      %768 = vector.broadcast %767 : f32 to vector<64xf32> loc(#loc24)
      %769 = vector.fma %554, %765, %573 : vector<64xf32> loc(#loc24)
      %770 = memref.load %93[%124, %752] : memref<?x?xf32, strided<[?, 1]>> loc(#loc24)
      %771 = vector.broadcast %770 : f32 to vector<64xf32> loc(#loc24)
      %772 = vector.fma %554, %768, %576 : vector<64xf32> loc(#loc24)
      %773 = memref.load %93[%128, %752] : memref<?x?xf32, strided<[?, 1]>> loc(#loc24)
      %774 = vector.broadcast %773 : f32 to vector<64xf32> loc(#loc24)
      %775 = vector.fma %554, %771, %579 : vector<64xf32> loc(#loc24)
      %776 = memref.load %93[%132, %752] : memref<?x?xf32, strided<[?, 1]>> loc(#loc24)
      %777 = vector.broadcast %776 : f32 to vector<64xf32> loc(#loc24)
      %778 = vector.fma %554, %774, %582 : vector<64xf32> loc(#loc24)
      %779 = memref.load %93[%136, %752] : memref<?x?xf32, strided<[?, 1]>> loc(#loc24)
      %780 = vector.broadcast %779 : f32 to vector<64xf32> loc(#loc24)
      %781 = vector.fma %554, %777, %585 : vector<64xf32> loc(#loc24)
      %782 = memref.load %93[%140, %752] : memref<?x?xf32, strided<[?, 1]>> loc(#loc24)
      %783 = vector.broadcast %782 : f32 to vector<64xf32> loc(#loc24)
      %784 = vector.fma %554, %780, %588 : vector<64xf32> loc(#loc24)
      %785 = memref.load %93[%144, %752] : memref<?x?xf32, strided<[?, 1]>> loc(#loc24)
      %786 = vector.broadcast %785 : f32 to vector<64xf32> loc(#loc24)
      %787 = vector.fma %554, %783, %591 : vector<64xf32> loc(#loc24)
      %788 = memref.load %93[%148, %752] : memref<?x?xf32, strided<[?, 1]>> loc(#loc24)
      %789 = vector.broadcast %788 : f32 to vector<64xf32> loc(#loc24)
      %790 = vector.fma %554, %786, %594 : vector<64xf32> loc(#loc24)
      %791 = memref.load %93[%152, %752] : memref<?x?xf32, strided<[?, 1]>> loc(#loc24)
      %792 = vector.broadcast %791 : f32 to vector<64xf32> loc(#loc24)
      %793 = vector.fma %554, %789, %597 : vector<64xf32> loc(#loc24)
      %794 = memref.load %93[%156, %752] : memref<?x?xf32, strided<[?, 1]>> loc(#loc24)
      %795 = vector.broadcast %794 : f32 to vector<64xf32> loc(#loc24)
      %796 = vector.fma %554, %792, %600 : vector<64xf32> loc(#loc24)
      %797 = memref.load %93[%160, %752] : memref<?x?xf32, strided<[?, 1]>> loc(#loc24)
      %798 = vector.broadcast %797 : f32 to vector<64xf32> loc(#loc24)
      %799 = vector.fma %554, %795, %603 : vector<64xf32> loc(#loc24)
      %800 = memref.load %93[%164, %752] : memref<?x?xf32, strided<[?, 1]>> loc(#loc24)
      %801 = vector.broadcast %800 : f32 to vector<64xf32> loc(#loc24)
      %802 = vector.fma %554, %798, %606 : vector<64xf32> loc(#loc24)
      %803 = memref.load %93[%168, %752] : memref<?x?xf32, strided<[?, 1]>> loc(#loc24)
      %804 = vector.broadcast %803 : f32 to vector<64xf32> loc(#loc24)
      %805 = vector.fma %554, %801, %609 : vector<64xf32> loc(#loc24)
      %806 = memref.load %93[%172, %752] : memref<?x?xf32, strided<[?, 1]>> loc(#loc24)
      %807 = vector.broadcast %806 : f32 to vector<64xf32> loc(#loc24)
      %808 = vector.fma %554, %804, %612 : vector<64xf32> loc(#loc24)
      %809 = memref.load %93[%176, %752] : memref<?x?xf32, strided<[?, 1]>> loc(#loc24)
      %810 = vector.broadcast %809 : f32 to vector<64xf32> loc(#loc24)
      %811 = vector.fma %554, %807, %615 : vector<64xf32> loc(#loc24)
      %812 = memref.load %93[%180, %752] : memref<?x?xf32, strided<[?, 1]>> loc(#loc24)
      %813 = vector.broadcast %812 : f32 to vector<64xf32> loc(#loc24)
      %814 = vector.fma %554, %810, %618 : vector<64xf32> loc(#loc24)
      %815 = memref.load %93[%184, %752] : memref<?x?xf32, strided<[?, 1]>> loc(#loc24)
      %816 = vector.broadcast %815 : f32 to vector<64xf32> loc(#loc24)
      %817 = vector.fma %554, %813, %621 : vector<64xf32> loc(#loc24)
      %818 = memref.load %93[%188, %752] : memref<?x?xf32, strided<[?, 1]>> loc(#loc24)
      %819 = vector.broadcast %818 : f32 to vector<64xf32> loc(#loc24)
      %820 = vector.fma %554, %816, %624 : vector<64xf32> loc(#loc24)
      %821 = memref.load %93[%192, %752] : memref<?x?xf32, strided<[?, 1]>> loc(#loc24)
      %822 = vector.broadcast %821 : f32 to vector<64xf32> loc(#loc24)
      %823 = vector.fma %554, %819, %627 : vector<64xf32> loc(#loc24)
      %824 = memref.load %93[%196, %752] : memref<?x?xf32, strided<[?, 1]>> loc(#loc24)
      %825 = vector.broadcast %824 : f32 to vector<64xf32> loc(#loc24)
      %826 = vector.fma %554, %822, %630 : vector<64xf32> loc(#loc24)
      %827 = memref.load %93[%200, %752] : memref<?x?xf32, strided<[?, 1]>> loc(#loc24)
      %828 = vector.broadcast %827 : f32 to vector<64xf32> loc(#loc24)
      %829 = vector.fma %554, %825, %633 : vector<64xf32> loc(#loc24)
      %830 = memref.load %93[%204, %752] : memref<?x?xf32, strided<[?, 1]>> loc(#loc24)
      %831 = vector.broadcast %830 : f32 to vector<64xf32> loc(#loc24)
      %832 = vector.fma %554, %828, %636 : vector<64xf32> loc(#loc24)
      %833 = memref.load %93[%208, %752] : memref<?x?xf32, strided<[?, 1]>> loc(#loc24)
      %834 = vector.broadcast %833 : f32 to vector<64xf32> loc(#loc24)
      %835 = vector.fma %554, %831, %639 : vector<64xf32> loc(#loc24)
      %836 = memref.load %93[%212, %752] : memref<?x?xf32, strided<[?, 1]>> loc(#loc24)
      %837 = vector.broadcast %836 : f32 to vector<64xf32> loc(#loc24)
      %838 = vector.fma %554, %834, %642 : vector<64xf32> loc(#loc24)
      %839 = memref.load %93[%216, %752] : memref<?x?xf32, strided<[?, 1]>> loc(#loc24)
      %840 = vector.broadcast %839 : f32 to vector<64xf32> loc(#loc24)
      %841 = vector.fma %554, %837, %645 : vector<64xf32> loc(#loc24)
      %842 = memref.load %93[%220, %752] : memref<?x?xf32, strided<[?, 1]>> loc(#loc24)
      %843 = vector.broadcast %842 : f32 to vector<64xf32> loc(#loc24)
      %844 = vector.fma %554, %840, %648 : vector<64xf32> loc(#loc24)
      %845 = memref.load %93[%224, %752] : memref<?x?xf32, strided<[?, 1]>> loc(#loc24)
      %846 = vector.broadcast %845 : f32 to vector<64xf32> loc(#loc24)
      %847 = vector.fma %554, %843, %651 : vector<64xf32> loc(#loc24)
      %848 = memref.load %93[%228, %752] : memref<?x?xf32, strided<[?, 1]>> loc(#loc24)
      %849 = vector.broadcast %848 : f32 to vector<64xf32> loc(#loc24)
      %850 = vector.fma %554, %846, %654 : vector<64xf32> loc(#loc24)
      %851 = memref.load %93[%232, %752] : memref<?x?xf32, strided<[?, 1]>> loc(#loc24)
      %852 = vector.broadcast %851 : f32 to vector<64xf32> loc(#loc24)
      %853 = vector.fma %554, %849, %657 : vector<64xf32> loc(#loc24)
      %854 = memref.load %93[%236, %752] : memref<?x?xf32, strided<[?, 1]>> loc(#loc24)
      %855 = vector.broadcast %854 : f32 to vector<64xf32> loc(#loc24)
      %856 = vector.fma %554, %852, %660 : vector<64xf32> loc(#loc24)
      %857 = memref.load %93[%240, %752] : memref<?x?xf32, strided<[?, 1]>> loc(#loc24)
      %858 = vector.broadcast %857 : f32 to vector<64xf32> loc(#loc24)
      %859 = vector.fma %554, %855, %663 : vector<64xf32> loc(#loc24)
      %860 = memref.load %93[%244, %752] : memref<?x?xf32, strided<[?, 1]>> loc(#loc24)
      %861 = vector.broadcast %860 : f32 to vector<64xf32> loc(#loc24)
      %862 = vector.fma %554, %858, %666 : vector<64xf32> loc(#loc24)
      %863 = memref.load %93[%248, %752] : memref<?x?xf32, strided<[?, 1]>> loc(#loc24)
      %864 = vector.broadcast %863 : f32 to vector<64xf32> loc(#loc24)
      %865 = vector.fma %554, %861, %669 : vector<64xf32> loc(#loc24)
      %866 = memref.load %93[%252, %752] : memref<?x?xf32, strided<[?, 1]>> loc(#loc24)
      %867 = vector.broadcast %866 : f32 to vector<64xf32> loc(#loc24)
      %868 = vector.fma %554, %864, %672 : vector<64xf32> loc(#loc24)
      %869 = memref.load %93[%256, %752] : memref<?x?xf32, strided<[?, 1]>> loc(#loc24)
      %870 = vector.broadcast %869 : f32 to vector<64xf32> loc(#loc24)
      %871 = vector.fma %554, %867, %675 : vector<64xf32> loc(#loc24)
      %872 = memref.load %93[%260, %752] : memref<?x?xf32, strided<[?, 1]>> loc(#loc24)
      %873 = vector.broadcast %872 : f32 to vector<64xf32> loc(#loc24)
      %874 = vector.fma %554, %870, %678 : vector<64xf32> loc(#loc24)
      %875 = memref.load %93[%264, %752] : memref<?x?xf32, strided<[?, 1]>> loc(#loc24)
      %876 = vector.broadcast %875 : f32 to vector<64xf32> loc(#loc24)
      %877 = vector.fma %554, %873, %681 : vector<64xf32> loc(#loc24)
      %878 = memref.load %93[%268, %752] : memref<?x?xf32, strided<[?, 1]>> loc(#loc24)
      %879 = vector.broadcast %878 : f32 to vector<64xf32> loc(#loc24)
      %880 = vector.fma %554, %876, %684 : vector<64xf32> loc(#loc24)
      %881 = memref.load %93[%272, %752] : memref<?x?xf32, strided<[?, 1]>> loc(#loc24)
      %882 = vector.broadcast %881 : f32 to vector<64xf32> loc(#loc24)
      %883 = vector.fma %554, %879, %687 : vector<64xf32> loc(#loc24)
      %884 = memref.load %93[%276, %752] : memref<?x?xf32, strided<[?, 1]>> loc(#loc24)
      %885 = vector.broadcast %884 : f32 to vector<64xf32> loc(#loc24)
      %886 = vector.fma %554, %882, %690 : vector<64xf32> loc(#loc24)
      %887 = memref.load %93[%280, %752] : memref<?x?xf32, strided<[?, 1]>> loc(#loc24)
      %888 = vector.broadcast %887 : f32 to vector<64xf32> loc(#loc24)
      %889 = vector.fma %554, %885, %693 : vector<64xf32> loc(#loc24)
      %890 = memref.load %93[%284, %752] : memref<?x?xf32, strided<[?, 1]>> loc(#loc24)
      %891 = vector.broadcast %890 : f32 to vector<64xf32> loc(#loc24)
      %892 = vector.fma %554, %888, %696 : vector<64xf32> loc(#loc24)
      %893 = memref.load %93[%288, %752] : memref<?x?xf32, strided<[?, 1]>> loc(#loc24)
      %894 = vector.broadcast %893 : f32 to vector<64xf32> loc(#loc24)
      %895 = vector.fma %554, %891, %699 : vector<64xf32> loc(#loc24)
      %896 = memref.load %93[%292, %752] : memref<?x?xf32, strided<[?, 1]>> loc(#loc24)
      %897 = vector.broadcast %896 : f32 to vector<64xf32> loc(#loc24)
      %898 = vector.fma %554, %894, %702 : vector<64xf32> loc(#loc24)
      %899 = memref.load %93[%296, %752] : memref<?x?xf32, strided<[?, 1]>> loc(#loc24)
      %900 = vector.broadcast %899 : f32 to vector<64xf32> loc(#loc24)
      %901 = vector.fma %554, %897, %705 : vector<64xf32> loc(#loc24)
      %902 = memref.load %93[%300, %752] : memref<?x?xf32, strided<[?, 1]>> loc(#loc24)
      %903 = vector.broadcast %902 : f32 to vector<64xf32> loc(#loc24)
      %904 = vector.fma %554, %900, %708 : vector<64xf32> loc(#loc24)
      %905 = memref.load %93[%304, %752] : memref<?x?xf32, strided<[?, 1]>> loc(#loc24)
      %906 = vector.broadcast %905 : f32 to vector<64xf32> loc(#loc24)
      %907 = vector.fma %554, %903, %711 : vector<64xf32> loc(#loc24)
      %908 = memref.load %93[%308, %752] : memref<?x?xf32, strided<[?, 1]>> loc(#loc24)
      %909 = vector.broadcast %908 : f32 to vector<64xf32> loc(#loc24)
      %910 = vector.fma %554, %906, %714 : vector<64xf32> loc(#loc24)
      %911 = memref.load %93[%312, %752] : memref<?x?xf32, strided<[?, 1]>> loc(#loc24)
      %912 = vector.broadcast %911 : f32 to vector<64xf32> loc(#loc24)
      %913 = vector.fma %554, %909, %717 : vector<64xf32> loc(#loc24)
      %914 = memref.load %93[%316, %752] : memref<?x?xf32, strided<[?, 1]>> loc(#loc24)
      %915 = vector.broadcast %914 : f32 to vector<64xf32> loc(#loc24)
      %916 = vector.fma %554, %912, %720 : vector<64xf32> loc(#loc24)
      %917 = memref.load %93[%320, %752] : memref<?x?xf32, strided<[?, 1]>> loc(#loc24)
      %918 = vector.broadcast %917 : f32 to vector<64xf32> loc(#loc24)
      %919 = vector.fma %554, %915, %723 : vector<64xf32> loc(#loc24)
      %920 = memref.load %93[%324, %752] : memref<?x?xf32, strided<[?, 1]>> loc(#loc24)
      %921 = vector.broadcast %920 : f32 to vector<64xf32> loc(#loc24)
      %922 = vector.fma %554, %918, %726 : vector<64xf32> loc(#loc24)
      %923 = memref.load %93[%328, %752] : memref<?x?xf32, strided<[?, 1]>> loc(#loc24)
      %924 = vector.broadcast %923 : f32 to vector<64xf32> loc(#loc24)
      %925 = vector.fma %554, %921, %729 : vector<64xf32> loc(#loc24)
      %926 = memref.load %93[%332, %752] : memref<?x?xf32, strided<[?, 1]>> loc(#loc24)
      %927 = vector.broadcast %926 : f32 to vector<64xf32> loc(#loc24)
      %928 = vector.fma %554, %924, %732 : vector<64xf32> loc(#loc24)
      %929 = memref.load %93[%336, %752] : memref<?x?xf32, strided<[?, 1]>> loc(#loc24)
      %930 = vector.broadcast %929 : f32 to vector<64xf32> loc(#loc24)
      %931 = vector.fma %554, %927, %735 : vector<64xf32> loc(#loc24)
      %932 = memref.load %93[%340, %752] : memref<?x?xf32, strided<[?, 1]>> loc(#loc24)
      %933 = vector.broadcast %932 : f32 to vector<64xf32> loc(#loc24)
      %934 = vector.fma %554, %930, %738 : vector<64xf32> loc(#loc24)
      %935 = memref.load %93[%344, %752] : memref<?x?xf32, strided<[?, 1]>> loc(#loc24)
      %936 = vector.broadcast %935 : f32 to vector<64xf32> loc(#loc24)
      %937 = vector.fma %554, %933, %741 : vector<64xf32> loc(#loc24)
      %938 = memref.load %93[%348, %752] : memref<?x?xf32, strided<[?, 1]>> loc(#loc24)
      %939 = vector.broadcast %938 : f32 to vector<64xf32> loc(#loc24)
      %940 = vector.fma %554, %936, %744 : vector<64xf32> loc(#loc24)
      %941 = memref.load %93[%352, %752] : memref<?x?xf32, strided<[?, 1]>> loc(#loc24)
      %942 = vector.broadcast %941 : f32 to vector<64xf32> loc(#loc24)
      %943 = vector.fma %554, %939, %747 : vector<64xf32> loc(#loc24)
      %944 = vector.fma %554, %942, %748 : vector<64xf32> loc(#loc24)
      %945 = arith.addi %96#0, %c5 : index loc(#loc24)
      %946 = vector.load %95[%945, %96#1] : memref<?x?xf32, strided<[?, 1]>>, vector<64xf32> loc(#loc24)
      %947 = arith.addi %96#0, %c12 : index loc(#loc24)
      memref.prefetch %95[%947, %96#1], read, locality<1>, data : memref<?x?xf32, strided<[?, 1]>> loc(#loc24)
      %948 = arith.addi %94#1, %c4 : index loc(#loc24)
      %949 = memref.load %93[%94#0, %948] : memref<?x?xf32, strided<[?, 1]>> loc(#loc24)
      %950 = vector.broadcast %949 : f32 to vector<64xf32> loc(#loc24)
      %951 = memref.load %93[%104, %948] : memref<?x?xf32, strided<[?, 1]>> loc(#loc24)
      %952 = vector.broadcast %951 : f32 to vector<64xf32> loc(#loc24)
      %953 = vector.fma %750, %950, %757 : vector<64xf32> loc(#loc24)
      %954 = memref.load %93[%108, %948] : memref<?x?xf32, strided<[?, 1]>> loc(#loc24)
      %955 = vector.broadcast %954 : f32 to vector<64xf32> loc(#loc24)
      %956 = vector.fma %750, %952, %760 : vector<64xf32> loc(#loc24)
      %957 = memref.load %93[%112, %948] : memref<?x?xf32, strided<[?, 1]>> loc(#loc24)
      %958 = vector.broadcast %957 : f32 to vector<64xf32> loc(#loc24)
      %959 = vector.fma %750, %955, %763 : vector<64xf32> loc(#loc24)
      %960 = memref.load %93[%116, %948] : memref<?x?xf32, strided<[?, 1]>> loc(#loc24)
      %961 = vector.broadcast %960 : f32 to vector<64xf32> loc(#loc24)
      %962 = vector.fma %750, %958, %766 : vector<64xf32> loc(#loc24)
      %963 = memref.load %93[%120, %948] : memref<?x?xf32, strided<[?, 1]>> loc(#loc24)
      %964 = vector.broadcast %963 : f32 to vector<64xf32> loc(#loc24)
      %965 = vector.fma %750, %961, %769 : vector<64xf32> loc(#loc24)
      %966 = memref.load %93[%124, %948] : memref<?x?xf32, strided<[?, 1]>> loc(#loc24)
      %967 = vector.broadcast %966 : f32 to vector<64xf32> loc(#loc24)
      %968 = vector.fma %750, %964, %772 : vector<64xf32> loc(#loc24)
      %969 = memref.load %93[%128, %948] : memref<?x?xf32, strided<[?, 1]>> loc(#loc24)
      %970 = vector.broadcast %969 : f32 to vector<64xf32> loc(#loc24)
      %971 = vector.fma %750, %967, %775 : vector<64xf32> loc(#loc24)
      %972 = memref.load %93[%132, %948] : memref<?x?xf32, strided<[?, 1]>> loc(#loc24)
      %973 = vector.broadcast %972 : f32 to vector<64xf32> loc(#loc24)
      %974 = vector.fma %750, %970, %778 : vector<64xf32> loc(#loc24)
      %975 = memref.load %93[%136, %948] : memref<?x?xf32, strided<[?, 1]>> loc(#loc24)
      %976 = vector.broadcast %975 : f32 to vector<64xf32> loc(#loc24)
      %977 = vector.fma %750, %973, %781 : vector<64xf32> loc(#loc24)
      %978 = memref.load %93[%140, %948] : memref<?x?xf32, strided<[?, 1]>> loc(#loc24)
      %979 = vector.broadcast %978 : f32 to vector<64xf32> loc(#loc24)
      %980 = vector.fma %750, %976, %784 : vector<64xf32> loc(#loc24)
      %981 = memref.load %93[%144, %948] : memref<?x?xf32, strided<[?, 1]>> loc(#loc24)
      %982 = vector.broadcast %981 : f32 to vector<64xf32> loc(#loc24)
      %983 = vector.fma %750, %979, %787 : vector<64xf32> loc(#loc24)
      %984 = memref.load %93[%148, %948] : memref<?x?xf32, strided<[?, 1]>> loc(#loc24)
      %985 = vector.broadcast %984 : f32 to vector<64xf32> loc(#loc24)
      %986 = vector.fma %750, %982, %790 : vector<64xf32> loc(#loc24)
      %987 = memref.load %93[%152, %948] : memref<?x?xf32, strided<[?, 1]>> loc(#loc24)
      %988 = vector.broadcast %987 : f32 to vector<64xf32> loc(#loc24)
      %989 = vector.fma %750, %985, %793 : vector<64xf32> loc(#loc24)
      %990 = memref.load %93[%156, %948] : memref<?x?xf32, strided<[?, 1]>> loc(#loc24)
      %991 = vector.broadcast %990 : f32 to vector<64xf32> loc(#loc24)
      %992 = vector.fma %750, %988, %796 : vector<64xf32> loc(#loc24)
      %993 = memref.load %93[%160, %948] : memref<?x?xf32, strided<[?, 1]>> loc(#loc24)
      %994 = vector.broadcast %993 : f32 to vector<64xf32> loc(#loc24)
      %995 = vector.fma %750, %991, %799 : vector<64xf32> loc(#loc24)
      %996 = memref.load %93[%164, %948] : memref<?x?xf32, strided<[?, 1]>> loc(#loc24)
      %997 = vector.broadcast %996 : f32 to vector<64xf32> loc(#loc24)
      %998 = vector.fma %750, %994, %802 : vector<64xf32> loc(#loc24)
      %999 = memref.load %93[%168, %948] : memref<?x?xf32, strided<[?, 1]>> loc(#loc24)
      %1000 = vector.broadcast %999 : f32 to vector<64xf32> loc(#loc24)
      %1001 = vector.fma %750, %997, %805 : vector<64xf32> loc(#loc24)
      %1002 = memref.load %93[%172, %948] : memref<?x?xf32, strided<[?, 1]>> loc(#loc24)
      %1003 = vector.broadcast %1002 : f32 to vector<64xf32> loc(#loc24)
      %1004 = vector.fma %750, %1000, %808 : vector<64xf32> loc(#loc24)
      %1005 = memref.load %93[%176, %948] : memref<?x?xf32, strided<[?, 1]>> loc(#loc24)
      %1006 = vector.broadcast %1005 : f32 to vector<64xf32> loc(#loc24)
      %1007 = vector.fma %750, %1003, %811 : vector<64xf32> loc(#loc24)
      %1008 = memref.load %93[%180, %948] : memref<?x?xf32, strided<[?, 1]>> loc(#loc24)
      %1009 = vector.broadcast %1008 : f32 to vector<64xf32> loc(#loc24)
      %1010 = vector.fma %750, %1006, %814 : vector<64xf32> loc(#loc24)
      %1011 = memref.load %93[%184, %948] : memref<?x?xf32, strided<[?, 1]>> loc(#loc24)
      %1012 = vector.broadcast %1011 : f32 to vector<64xf32> loc(#loc24)
      %1013 = vector.fma %750, %1009, %817 : vector<64xf32> loc(#loc24)
      %1014 = memref.load %93[%188, %948] : memref<?x?xf32, strided<[?, 1]>> loc(#loc24)
      %1015 = vector.broadcast %1014 : f32 to vector<64xf32> loc(#loc24)
      %1016 = vector.fma %750, %1012, %820 : vector<64xf32> loc(#loc24)
      %1017 = memref.load %93[%192, %948] : memref<?x?xf32, strided<[?, 1]>> loc(#loc24)
      %1018 = vector.broadcast %1017 : f32 to vector<64xf32> loc(#loc24)
      %1019 = vector.fma %750, %1015, %823 : vector<64xf32> loc(#loc24)
      %1020 = memref.load %93[%196, %948] : memref<?x?xf32, strided<[?, 1]>> loc(#loc24)
      %1021 = vector.broadcast %1020 : f32 to vector<64xf32> loc(#loc24)
      %1022 = vector.fma %750, %1018, %826 : vector<64xf32> loc(#loc24)
      %1023 = memref.load %93[%200, %948] : memref<?x?xf32, strided<[?, 1]>> loc(#loc24)
      %1024 = vector.broadcast %1023 : f32 to vector<64xf32> loc(#loc24)
      %1025 = vector.fma %750, %1021, %829 : vector<64xf32> loc(#loc24)
      %1026 = memref.load %93[%204, %948] : memref<?x?xf32, strided<[?, 1]>> loc(#loc24)
      %1027 = vector.broadcast %1026 : f32 to vector<64xf32> loc(#loc24)
      %1028 = vector.fma %750, %1024, %832 : vector<64xf32> loc(#loc24)
      %1029 = memref.load %93[%208, %948] : memref<?x?xf32, strided<[?, 1]>> loc(#loc24)
      %1030 = vector.broadcast %1029 : f32 to vector<64xf32> loc(#loc24)
      %1031 = vector.fma %750, %1027, %835 : vector<64xf32> loc(#loc24)
      %1032 = memref.load %93[%212, %948] : memref<?x?xf32, strided<[?, 1]>> loc(#loc24)
      %1033 = vector.broadcast %1032 : f32 to vector<64xf32> loc(#loc24)
      %1034 = vector.fma %750, %1030, %838 : vector<64xf32> loc(#loc24)
      %1035 = memref.load %93[%216, %948] : memref<?x?xf32, strided<[?, 1]>> loc(#loc24)
      %1036 = vector.broadcast %1035 : f32 to vector<64xf32> loc(#loc24)
      %1037 = vector.fma %750, %1033, %841 : vector<64xf32> loc(#loc24)
      %1038 = memref.load %93[%220, %948] : memref<?x?xf32, strided<[?, 1]>> loc(#loc24)
      %1039 = vector.broadcast %1038 : f32 to vector<64xf32> loc(#loc24)
      %1040 = vector.fma %750, %1036, %844 : vector<64xf32> loc(#loc24)
      %1041 = memref.load %93[%224, %948] : memref<?x?xf32, strided<[?, 1]>> loc(#loc24)
      %1042 = vector.broadcast %1041 : f32 to vector<64xf32> loc(#loc24)
      %1043 = vector.fma %750, %1039, %847 : vector<64xf32> loc(#loc24)
      %1044 = memref.load %93[%228, %948] : memref<?x?xf32, strided<[?, 1]>> loc(#loc24)
      %1045 = vector.broadcast %1044 : f32 to vector<64xf32> loc(#loc24)
      %1046 = vector.fma %750, %1042, %850 : vector<64xf32> loc(#loc24)
      %1047 = memref.load %93[%232, %948] : memref<?x?xf32, strided<[?, 1]>> loc(#loc24)
      %1048 = vector.broadcast %1047 : f32 to vector<64xf32> loc(#loc24)
      %1049 = vector.fma %750, %1045, %853 : vector<64xf32> loc(#loc24)
      %1050 = memref.load %93[%236, %948] : memref<?x?xf32, strided<[?, 1]>> loc(#loc24)
      %1051 = vector.broadcast %1050 : f32 to vector<64xf32> loc(#loc24)
      %1052 = vector.fma %750, %1048, %856 : vector<64xf32> loc(#loc24)
      %1053 = memref.load %93[%240, %948] : memref<?x?xf32, strided<[?, 1]>> loc(#loc24)
      %1054 = vector.broadcast %1053 : f32 to vector<64xf32> loc(#loc24)
      %1055 = vector.fma %750, %1051, %859 : vector<64xf32> loc(#loc24)
      %1056 = memref.load %93[%244, %948] : memref<?x?xf32, strided<[?, 1]>> loc(#loc24)
      %1057 = vector.broadcast %1056 : f32 to vector<64xf32> loc(#loc24)
      %1058 = vector.fma %750, %1054, %862 : vector<64xf32> loc(#loc24)
      %1059 = memref.load %93[%248, %948] : memref<?x?xf32, strided<[?, 1]>> loc(#loc24)
      %1060 = vector.broadcast %1059 : f32 to vector<64xf32> loc(#loc24)
      %1061 = vector.fma %750, %1057, %865 : vector<64xf32> loc(#loc24)
      %1062 = memref.load %93[%252, %948] : memref<?x?xf32, strided<[?, 1]>> loc(#loc24)
      %1063 = vector.broadcast %1062 : f32 to vector<64xf32> loc(#loc24)
      %1064 = vector.fma %750, %1060, %868 : vector<64xf32> loc(#loc24)
      %1065 = memref.load %93[%256, %948] : memref<?x?xf32, strided<[?, 1]>> loc(#loc24)
      %1066 = vector.broadcast %1065 : f32 to vector<64xf32> loc(#loc24)
      %1067 = vector.fma %750, %1063, %871 : vector<64xf32> loc(#loc24)
      %1068 = memref.load %93[%260, %948] : memref<?x?xf32, strided<[?, 1]>> loc(#loc24)
      %1069 = vector.broadcast %1068 : f32 to vector<64xf32> loc(#loc24)
      %1070 = vector.fma %750, %1066, %874 : vector<64xf32> loc(#loc24)
      %1071 = memref.load %93[%264, %948] : memref<?x?xf32, strided<[?, 1]>> loc(#loc24)
      %1072 = vector.broadcast %1071 : f32 to vector<64xf32> loc(#loc24)
      %1073 = vector.fma %750, %1069, %877 : vector<64xf32> loc(#loc24)
      %1074 = memref.load %93[%268, %948] : memref<?x?xf32, strided<[?, 1]>> loc(#loc24)
      %1075 = vector.broadcast %1074 : f32 to vector<64xf32> loc(#loc24)
      %1076 = vector.fma %750, %1072, %880 : vector<64xf32> loc(#loc24)
      %1077 = memref.load %93[%272, %948] : memref<?x?xf32, strided<[?, 1]>> loc(#loc24)
      %1078 = vector.broadcast %1077 : f32 to vector<64xf32> loc(#loc24)
      %1079 = vector.fma %750, %1075, %883 : vector<64xf32> loc(#loc24)
      %1080 = memref.load %93[%276, %948] : memref<?x?xf32, strided<[?, 1]>> loc(#loc24)
      %1081 = vector.broadcast %1080 : f32 to vector<64xf32> loc(#loc24)
      %1082 = vector.fma %750, %1078, %886 : vector<64xf32> loc(#loc24)
      %1083 = memref.load %93[%280, %948] : memref<?x?xf32, strided<[?, 1]>> loc(#loc24)
      %1084 = vector.broadcast %1083 : f32 to vector<64xf32> loc(#loc24)
      %1085 = vector.fma %750, %1081, %889 : vector<64xf32> loc(#loc24)
      %1086 = memref.load %93[%284, %948] : memref<?x?xf32, strided<[?, 1]>> loc(#loc24)
      %1087 = vector.broadcast %1086 : f32 to vector<64xf32> loc(#loc24)
      %1088 = vector.fma %750, %1084, %892 : vector<64xf32> loc(#loc24)
      %1089 = memref.load %93[%288, %948] : memref<?x?xf32, strided<[?, 1]>> loc(#loc24)
      %1090 = vector.broadcast %1089 : f32 to vector<64xf32> loc(#loc24)
      %1091 = vector.fma %750, %1087, %895 : vector<64xf32> loc(#loc24)
      %1092 = memref.load %93[%292, %948] : memref<?x?xf32, strided<[?, 1]>> loc(#loc24)
      %1093 = vector.broadcast %1092 : f32 to vector<64xf32> loc(#loc24)
      %1094 = vector.fma %750, %1090, %898 : vector<64xf32> loc(#loc24)
      %1095 = memref.load %93[%296, %948] : memref<?x?xf32, strided<[?, 1]>> loc(#loc24)
      %1096 = vector.broadcast %1095 : f32 to vector<64xf32> loc(#loc24)
      %1097 = vector.fma %750, %1093, %901 : vector<64xf32> loc(#loc24)
      %1098 = memref.load %93[%300, %948] : memref<?x?xf32, strided<[?, 1]>> loc(#loc24)
      %1099 = vector.broadcast %1098 : f32 to vector<64xf32> loc(#loc24)
      %1100 = vector.fma %750, %1096, %904 : vector<64xf32> loc(#loc24)
      %1101 = memref.load %93[%304, %948] : memref<?x?xf32, strided<[?, 1]>> loc(#loc24)
      %1102 = vector.broadcast %1101 : f32 to vector<64xf32> loc(#loc24)
      %1103 = vector.fma %750, %1099, %907 : vector<64xf32> loc(#loc24)
      %1104 = memref.load %93[%308, %948] : memref<?x?xf32, strided<[?, 1]>> loc(#loc24)
      %1105 = vector.broadcast %1104 : f32 to vector<64xf32> loc(#loc24)
      %1106 = vector.fma %750, %1102, %910 : vector<64xf32> loc(#loc24)
      %1107 = memref.load %93[%312, %948] : memref<?x?xf32, strided<[?, 1]>> loc(#loc24)
      %1108 = vector.broadcast %1107 : f32 to vector<64xf32> loc(#loc24)
      %1109 = vector.fma %750, %1105, %913 : vector<64xf32> loc(#loc24)
      %1110 = memref.load %93[%316, %948] : memref<?x?xf32, strided<[?, 1]>> loc(#loc24)
      %1111 = vector.broadcast %1110 : f32 to vector<64xf32> loc(#loc24)
      %1112 = vector.fma %750, %1108, %916 : vector<64xf32> loc(#loc24)
      %1113 = memref.load %93[%320, %948] : memref<?x?xf32, strided<[?, 1]>> loc(#loc24)
      %1114 = vector.broadcast %1113 : f32 to vector<64xf32> loc(#loc24)
      %1115 = vector.fma %750, %1111, %919 : vector<64xf32> loc(#loc24)
      %1116 = memref.load %93[%324, %948] : memref<?x?xf32, strided<[?, 1]>> loc(#loc24)
      %1117 = vector.broadcast %1116 : f32 to vector<64xf32> loc(#loc24)
      %1118 = vector.fma %750, %1114, %922 : vector<64xf32> loc(#loc24)
      %1119 = memref.load %93[%328, %948] : memref<?x?xf32, strided<[?, 1]>> loc(#loc24)
      %1120 = vector.broadcast %1119 : f32 to vector<64xf32> loc(#loc24)
      %1121 = vector.fma %750, %1117, %925 : vector<64xf32> loc(#loc24)
      %1122 = memref.load %93[%332, %948] : memref<?x?xf32, strided<[?, 1]>> loc(#loc24)
      %1123 = vector.broadcast %1122 : f32 to vector<64xf32> loc(#loc24)
      %1124 = vector.fma %750, %1120, %928 : vector<64xf32> loc(#loc24)
      %1125 = memref.load %93[%336, %948] : memref<?x?xf32, strided<[?, 1]>> loc(#loc24)
      %1126 = vector.broadcast %1125 : f32 to vector<64xf32> loc(#loc24)
      %1127 = vector.fma %750, %1123, %931 : vector<64xf32> loc(#loc24)
      %1128 = memref.load %93[%340, %948] : memref<?x?xf32, strided<[?, 1]>> loc(#loc24)
      %1129 = vector.broadcast %1128 : f32 to vector<64xf32> loc(#loc24)
      %1130 = vector.fma %750, %1126, %934 : vector<64xf32> loc(#loc24)
      %1131 = memref.load %93[%344, %948] : memref<?x?xf32, strided<[?, 1]>> loc(#loc24)
      %1132 = vector.broadcast %1131 : f32 to vector<64xf32> loc(#loc24)
      %1133 = vector.fma %750, %1129, %937 : vector<64xf32> loc(#loc24)
      %1134 = memref.load %93[%348, %948] : memref<?x?xf32, strided<[?, 1]>> loc(#loc24)
      %1135 = vector.broadcast %1134 : f32 to vector<64xf32> loc(#loc24)
      %1136 = vector.fma %750, %1132, %940 : vector<64xf32> loc(#loc24)
      %1137 = memref.load %93[%352, %948] : memref<?x?xf32, strided<[?, 1]>> loc(#loc24)
      %1138 = vector.broadcast %1137 : f32 to vector<64xf32> loc(#loc24)
      %1139 = vector.fma %750, %1135, %943 : vector<64xf32> loc(#loc24)
      %1140 = vector.fma %750, %1138, %944 : vector<64xf32> loc(#loc24)
      %1141 = arith.addi %96#0, %c6 : index loc(#loc24)
      %1142 = vector.load %95[%1141, %96#1] : memref<?x?xf32, strided<[?, 1]>>, vector<64xf32> loc(#loc24)
      %1143 = arith.addi %96#0, %c13 : index loc(#loc24)
      memref.prefetch %95[%1143, %96#1], read, locality<1>, data : memref<?x?xf32, strided<[?, 1]>> loc(#loc24)
      %1144 = arith.addi %94#1, %c5 : index loc(#loc24)
      %1145 = memref.load %93[%94#0, %1144] : memref<?x?xf32, strided<[?, 1]>> loc(#loc24)
      %1146 = vector.broadcast %1145 : f32 to vector<64xf32> loc(#loc24)
      %1147 = memref.load %93[%104, %1144] : memref<?x?xf32, strided<[?, 1]>> loc(#loc24)
      %1148 = vector.broadcast %1147 : f32 to vector<64xf32> loc(#loc24)
      %1149 = vector.fma %946, %1146, %953 : vector<64xf32> loc(#loc24)
      %1150 = memref.load %93[%108, %1144] : memref<?x?xf32, strided<[?, 1]>> loc(#loc24)
      %1151 = vector.broadcast %1150 : f32 to vector<64xf32> loc(#loc24)
      %1152 = vector.fma %946, %1148, %956 : vector<64xf32> loc(#loc24)
      %1153 = memref.load %93[%112, %1144] : memref<?x?xf32, strided<[?, 1]>> loc(#loc24)
      %1154 = vector.broadcast %1153 : f32 to vector<64xf32> loc(#loc24)
      %1155 = vector.fma %946, %1151, %959 : vector<64xf32> loc(#loc24)
      %1156 = memref.load %93[%116, %1144] : memref<?x?xf32, strided<[?, 1]>> loc(#loc24)
      %1157 = vector.broadcast %1156 : f32 to vector<64xf32> loc(#loc24)
      %1158 = vector.fma %946, %1154, %962 : vector<64xf32> loc(#loc24)
      %1159 = memref.load %93[%120, %1144] : memref<?x?xf32, strided<[?, 1]>> loc(#loc24)
      %1160 = vector.broadcast %1159 : f32 to vector<64xf32> loc(#loc24)
      %1161 = vector.fma %946, %1157, %965 : vector<64xf32> loc(#loc24)
      %1162 = memref.load %93[%124, %1144] : memref<?x?xf32, strided<[?, 1]>> loc(#loc24)
      %1163 = vector.broadcast %1162 : f32 to vector<64xf32> loc(#loc24)
      %1164 = vector.fma %946, %1160, %968 : vector<64xf32> loc(#loc24)
      %1165 = memref.load %93[%128, %1144] : memref<?x?xf32, strided<[?, 1]>> loc(#loc24)
      %1166 = vector.broadcast %1165 : f32 to vector<64xf32> loc(#loc24)
      %1167 = vector.fma %946, %1163, %971 : vector<64xf32> loc(#loc24)
      %1168 = memref.load %93[%132, %1144] : memref<?x?xf32, strided<[?, 1]>> loc(#loc24)
      %1169 = vector.broadcast %1168 : f32 to vector<64xf32> loc(#loc24)
      %1170 = vector.fma %946, %1166, %974 : vector<64xf32> loc(#loc24)
      %1171 = memref.load %93[%136, %1144] : memref<?x?xf32, strided<[?, 1]>> loc(#loc24)
      %1172 = vector.broadcast %1171 : f32 to vector<64xf32> loc(#loc24)
      %1173 = vector.fma %946, %1169, %977 : vector<64xf32> loc(#loc24)
      %1174 = memref.load %93[%140, %1144] : memref<?x?xf32, strided<[?, 1]>> loc(#loc24)
      %1175 = vector.broadcast %1174 : f32 to vector<64xf32> loc(#loc24)
      %1176 = vector.fma %946, %1172, %980 : vector<64xf32> loc(#loc24)
      %1177 = memref.load %93[%144, %1144] : memref<?x?xf32, strided<[?, 1]>> loc(#loc24)
      %1178 = vector.broadcast %1177 : f32 to vector<64xf32> loc(#loc24)
      %1179 = vector.fma %946, %1175, %983 : vector<64xf32> loc(#loc24)
      %1180 = memref.load %93[%148, %1144] : memref<?x?xf32, strided<[?, 1]>> loc(#loc24)
      %1181 = vector.broadcast %1180 : f32 to vector<64xf32> loc(#loc24)
      %1182 = vector.fma %946, %1178, %986 : vector<64xf32> loc(#loc24)
      %1183 = memref.load %93[%152, %1144] : memref<?x?xf32, strided<[?, 1]>> loc(#loc24)
      %1184 = vector.broadcast %1183 : f32 to vector<64xf32> loc(#loc24)
      %1185 = vector.fma %946, %1181, %989 : vector<64xf32> loc(#loc24)
      %1186 = memref.load %93[%156, %1144] : memref<?x?xf32, strided<[?, 1]>> loc(#loc24)
      %1187 = vector.broadcast %1186 : f32 to vector<64xf32> loc(#loc24)
      %1188 = vector.fma %946, %1184, %992 : vector<64xf32> loc(#loc24)
      %1189 = memref.load %93[%160, %1144] : memref<?x?xf32, strided<[?, 1]>> loc(#loc24)
      %1190 = vector.broadcast %1189 : f32 to vector<64xf32> loc(#loc24)
      %1191 = vector.fma %946, %1187, %995 : vector<64xf32> loc(#loc24)
      %1192 = memref.load %93[%164, %1144] : memref<?x?xf32, strided<[?, 1]>> loc(#loc24)
      %1193 = vector.broadcast %1192 : f32 to vector<64xf32> loc(#loc24)
      %1194 = vector.fma %946, %1190, %998 : vector<64xf32> loc(#loc24)
      %1195 = memref.load %93[%168, %1144] : memref<?x?xf32, strided<[?, 1]>> loc(#loc24)
      %1196 = vector.broadcast %1195 : f32 to vector<64xf32> loc(#loc24)
      %1197 = vector.fma %946, %1193, %1001 : vector<64xf32> loc(#loc24)
      %1198 = memref.load %93[%172, %1144] : memref<?x?xf32, strided<[?, 1]>> loc(#loc24)
      %1199 = vector.broadcast %1198 : f32 to vector<64xf32> loc(#loc24)
      %1200 = vector.fma %946, %1196, %1004 : vector<64xf32> loc(#loc24)
      %1201 = memref.load %93[%176, %1144] : memref<?x?xf32, strided<[?, 1]>> loc(#loc24)
      %1202 = vector.broadcast %1201 : f32 to vector<64xf32> loc(#loc24)
      %1203 = vector.fma %946, %1199, %1007 : vector<64xf32> loc(#loc24)
      %1204 = memref.load %93[%180, %1144] : memref<?x?xf32, strided<[?, 1]>> loc(#loc24)
      %1205 = vector.broadcast %1204 : f32 to vector<64xf32> loc(#loc24)
      %1206 = vector.fma %946, %1202, %1010 : vector<64xf32> loc(#loc24)
      %1207 = memref.load %93[%184, %1144] : memref<?x?xf32, strided<[?, 1]>> loc(#loc24)
      %1208 = vector.broadcast %1207 : f32 to vector<64xf32> loc(#loc24)
      %1209 = vector.fma %946, %1205, %1013 : vector<64xf32> loc(#loc24)
      %1210 = memref.load %93[%188, %1144] : memref<?x?xf32, strided<[?, 1]>> loc(#loc24)
      %1211 = vector.broadcast %1210 : f32 to vector<64xf32> loc(#loc24)
      %1212 = vector.fma %946, %1208, %1016 : vector<64xf32> loc(#loc24)
      %1213 = memref.load %93[%192, %1144] : memref<?x?xf32, strided<[?, 1]>> loc(#loc24)
      %1214 = vector.broadcast %1213 : f32 to vector<64xf32> loc(#loc24)
      %1215 = vector.fma %946, %1211, %1019 : vector<64xf32> loc(#loc24)
      %1216 = memref.load %93[%196, %1144] : memref<?x?xf32, strided<[?, 1]>> loc(#loc24)
      %1217 = vector.broadcast %1216 : f32 to vector<64xf32> loc(#loc24)
      %1218 = vector.fma %946, %1214, %1022 : vector<64xf32> loc(#loc24)
      %1219 = memref.load %93[%200, %1144] : memref<?x?xf32, strided<[?, 1]>> loc(#loc24)
      %1220 = vector.broadcast %1219 : f32 to vector<64xf32> loc(#loc24)
      %1221 = vector.fma %946, %1217, %1025 : vector<64xf32> loc(#loc24)
      %1222 = memref.load %93[%204, %1144] : memref<?x?xf32, strided<[?, 1]>> loc(#loc24)
      %1223 = vector.broadcast %1222 : f32 to vector<64xf32> loc(#loc24)
      %1224 = vector.fma %946, %1220, %1028 : vector<64xf32> loc(#loc24)
      %1225 = memref.load %93[%208, %1144] : memref<?x?xf32, strided<[?, 1]>> loc(#loc24)
      %1226 = vector.broadcast %1225 : f32 to vector<64xf32> loc(#loc24)
      %1227 = vector.fma %946, %1223, %1031 : vector<64xf32> loc(#loc24)
      %1228 = memref.load %93[%212, %1144] : memref<?x?xf32, strided<[?, 1]>> loc(#loc24)
      %1229 = vector.broadcast %1228 : f32 to vector<64xf32> loc(#loc24)
      %1230 = vector.fma %946, %1226, %1034 : vector<64xf32> loc(#loc24)
      %1231 = memref.load %93[%216, %1144] : memref<?x?xf32, strided<[?, 1]>> loc(#loc24)
      %1232 = vector.broadcast %1231 : f32 to vector<64xf32> loc(#loc24)
      %1233 = vector.fma %946, %1229, %1037 : vector<64xf32> loc(#loc24)
      %1234 = memref.load %93[%220, %1144] : memref<?x?xf32, strided<[?, 1]>> loc(#loc24)
      %1235 = vector.broadcast %1234 : f32 to vector<64xf32> loc(#loc24)
      %1236 = vector.fma %946, %1232, %1040 : vector<64xf32> loc(#loc24)
      %1237 = memref.load %93[%224, %1144] : memref<?x?xf32, strided<[?, 1]>> loc(#loc24)
      %1238 = vector.broadcast %1237 : f32 to vector<64xf32> loc(#loc24)
      %1239 = vector.fma %946, %1235, %1043 : vector<64xf32> loc(#loc24)
      %1240 = memref.load %93[%228, %1144] : memref<?x?xf32, strided<[?, 1]>> loc(#loc24)
      %1241 = vector.broadcast %1240 : f32 to vector<64xf32> loc(#loc24)
      %1242 = vector.fma %946, %1238, %1046 : vector<64xf32> loc(#loc24)
      %1243 = memref.load %93[%232, %1144] : memref<?x?xf32, strided<[?, 1]>> loc(#loc24)
      %1244 = vector.broadcast %1243 : f32 to vector<64xf32> loc(#loc24)
      %1245 = vector.fma %946, %1241, %1049 : vector<64xf32> loc(#loc24)
      %1246 = memref.load %93[%236, %1144] : memref<?x?xf32, strided<[?, 1]>> loc(#loc24)
      %1247 = vector.broadcast %1246 : f32 to vector<64xf32> loc(#loc24)
      %1248 = vector.fma %946, %1244, %1052 : vector<64xf32> loc(#loc24)
      %1249 = memref.load %93[%240, %1144] : memref<?x?xf32, strided<[?, 1]>> loc(#loc24)
      %1250 = vector.broadcast %1249 : f32 to vector<64xf32> loc(#loc24)
      %1251 = vector.fma %946, %1247, %1055 : vector<64xf32> loc(#loc24)
      %1252 = memref.load %93[%244, %1144] : memref<?x?xf32, strided<[?, 1]>> loc(#loc24)
      %1253 = vector.broadcast %1252 : f32 to vector<64xf32> loc(#loc24)
      %1254 = vector.fma %946, %1250, %1058 : vector<64xf32> loc(#loc24)
      %1255 = memref.load %93[%248, %1144] : memref<?x?xf32, strided<[?, 1]>> loc(#loc24)
      %1256 = vector.broadcast %1255 : f32 to vector<64xf32> loc(#loc24)
      %1257 = vector.fma %946, %1253, %1061 : vector<64xf32> loc(#loc24)
      %1258 = memref.load %93[%252, %1144] : memref<?x?xf32, strided<[?, 1]>> loc(#loc24)
      %1259 = vector.broadcast %1258 : f32 to vector<64xf32> loc(#loc24)
      %1260 = vector.fma %946, %1256, %1064 : vector<64xf32> loc(#loc24)
      %1261 = memref.load %93[%256, %1144] : memref<?x?xf32, strided<[?, 1]>> loc(#loc24)
      %1262 = vector.broadcast %1261 : f32 to vector<64xf32> loc(#loc24)
      %1263 = vector.fma %946, %1259, %1067 : vector<64xf32> loc(#loc24)
      %1264 = memref.load %93[%260, %1144] : memref<?x?xf32, strided<[?, 1]>> loc(#loc24)
      %1265 = vector.broadcast %1264 : f32 to vector<64xf32> loc(#loc24)
      %1266 = vector.fma %946, %1262, %1070 : vector<64xf32> loc(#loc24)
      %1267 = memref.load %93[%264, %1144] : memref<?x?xf32, strided<[?, 1]>> loc(#loc24)
      %1268 = vector.broadcast %1267 : f32 to vector<64xf32> loc(#loc24)
      %1269 = vector.fma %946, %1265, %1073 : vector<64xf32> loc(#loc24)
      %1270 = memref.load %93[%268, %1144] : memref<?x?xf32, strided<[?, 1]>> loc(#loc24)
      %1271 = vector.broadcast %1270 : f32 to vector<64xf32> loc(#loc24)
      %1272 = vector.fma %946, %1268, %1076 : vector<64xf32> loc(#loc24)
      %1273 = memref.load %93[%272, %1144] : memref<?x?xf32, strided<[?, 1]>> loc(#loc24)
      %1274 = vector.broadcast %1273 : f32 to vector<64xf32> loc(#loc24)
      %1275 = vector.fma %946, %1271, %1079 : vector<64xf32> loc(#loc24)
      %1276 = memref.load %93[%276, %1144] : memref<?x?xf32, strided<[?, 1]>> loc(#loc24)
      %1277 = vector.broadcast %1276 : f32 to vector<64xf32> loc(#loc24)
      %1278 = vector.fma %946, %1274, %1082 : vector<64xf32> loc(#loc24)
      %1279 = memref.load %93[%280, %1144] : memref<?x?xf32, strided<[?, 1]>> loc(#loc24)
      %1280 = vector.broadcast %1279 : f32 to vector<64xf32> loc(#loc24)
      %1281 = vector.fma %946, %1277, %1085 : vector<64xf32> loc(#loc24)
      %1282 = memref.load %93[%284, %1144] : memref<?x?xf32, strided<[?, 1]>> loc(#loc24)
      %1283 = vector.broadcast %1282 : f32 to vector<64xf32> loc(#loc24)
      %1284 = vector.fma %946, %1280, %1088 : vector<64xf32> loc(#loc24)
      %1285 = memref.load %93[%288, %1144] : memref<?x?xf32, strided<[?, 1]>> loc(#loc24)
      %1286 = vector.broadcast %1285 : f32 to vector<64xf32> loc(#loc24)
      %1287 = vector.fma %946, %1283, %1091 : vector<64xf32> loc(#loc24)
      %1288 = memref.load %93[%292, %1144] : memref<?x?xf32, strided<[?, 1]>> loc(#loc24)
      %1289 = vector.broadcast %1288 : f32 to vector<64xf32> loc(#loc24)
      %1290 = vector.fma %946, %1286, %1094 : vector<64xf32> loc(#loc24)
      %1291 = memref.load %93[%296, %1144] : memref<?x?xf32, strided<[?, 1]>> loc(#loc24)
      %1292 = vector.broadcast %1291 : f32 to vector<64xf32> loc(#loc24)
      %1293 = vector.fma %946, %1289, %1097 : vector<64xf32> loc(#loc24)
      %1294 = memref.load %93[%300, %1144] : memref<?x?xf32, strided<[?, 1]>> loc(#loc24)
      %1295 = vector.broadcast %1294 : f32 to vector<64xf32> loc(#loc24)
      %1296 = vector.fma %946, %1292, %1100 : vector<64xf32> loc(#loc24)
      %1297 = memref.load %93[%304, %1144] : memref<?x?xf32, strided<[?, 1]>> loc(#loc24)
      %1298 = vector.broadcast %1297 : f32 to vector<64xf32> loc(#loc24)
      %1299 = vector.fma %946, %1295, %1103 : vector<64xf32> loc(#loc24)
      %1300 = memref.load %93[%308, %1144] : memref<?x?xf32, strided<[?, 1]>> loc(#loc24)
      %1301 = vector.broadcast %1300 : f32 to vector<64xf32> loc(#loc24)
      %1302 = vector.fma %946, %1298, %1106 : vector<64xf32> loc(#loc24)
      %1303 = memref.load %93[%312, %1144] : memref<?x?xf32, strided<[?, 1]>> loc(#loc24)
      %1304 = vector.broadcast %1303 : f32 to vector<64xf32> loc(#loc24)
      %1305 = vector.fma %946, %1301, %1109 : vector<64xf32> loc(#loc24)
      %1306 = memref.load %93[%316, %1144] : memref<?x?xf32, strided<[?, 1]>> loc(#loc24)
      %1307 = vector.broadcast %1306 : f32 to vector<64xf32> loc(#loc24)
      %1308 = vector.fma %946, %1304, %1112 : vector<64xf32> loc(#loc24)
      %1309 = memref.load %93[%320, %1144] : memref<?x?xf32, strided<[?, 1]>> loc(#loc24)
      %1310 = vector.broadcast %1309 : f32 to vector<64xf32> loc(#loc24)
      %1311 = vector.fma %946, %1307, %1115 : vector<64xf32> loc(#loc24)
      %1312 = memref.load %93[%324, %1144] : memref<?x?xf32, strided<[?, 1]>> loc(#loc24)
      %1313 = vector.broadcast %1312 : f32 to vector<64xf32> loc(#loc24)
      %1314 = vector.fma %946, %1310, %1118 : vector<64xf32> loc(#loc24)
      %1315 = memref.load %93[%328, %1144] : memref<?x?xf32, strided<[?, 1]>> loc(#loc24)
      %1316 = vector.broadcast %1315 : f32 to vector<64xf32> loc(#loc24)
      %1317 = vector.fma %946, %1313, %1121 : vector<64xf32> loc(#loc24)
      %1318 = memref.load %93[%332, %1144] : memref<?x?xf32, strided<[?, 1]>> loc(#loc24)
      %1319 = vector.broadcast %1318 : f32 to vector<64xf32> loc(#loc24)
      %1320 = vector.fma %946, %1316, %1124 : vector<64xf32> loc(#loc24)
      %1321 = memref.load %93[%336, %1144] : memref<?x?xf32, strided<[?, 1]>> loc(#loc24)
      %1322 = vector.broadcast %1321 : f32 to vector<64xf32> loc(#loc24)
      %1323 = vector.fma %946, %1319, %1127 : vector<64xf32> loc(#loc24)
      %1324 = memref.load %93[%340, %1144] : memref<?x?xf32, strided<[?, 1]>> loc(#loc24)
      %1325 = vector.broadcast %1324 : f32 to vector<64xf32> loc(#loc24)
      %1326 = vector.fma %946, %1322, %1130 : vector<64xf32> loc(#loc24)
      %1327 = memref.load %93[%344, %1144] : memref<?x?xf32, strided<[?, 1]>> loc(#loc24)
      %1328 = vector.broadcast %1327 : f32 to vector<64xf32> loc(#loc24)
      %1329 = vector.fma %946, %1325, %1133 : vector<64xf32> loc(#loc24)
      %1330 = memref.load %93[%348, %1144] : memref<?x?xf32, strided<[?, 1]>> loc(#loc24)
      %1331 = vector.broadcast %1330 : f32 to vector<64xf32> loc(#loc24)
      %1332 = vector.fma %946, %1328, %1136 : vector<64xf32> loc(#loc24)
      %1333 = memref.load %93[%352, %1144] : memref<?x?xf32, strided<[?, 1]>> loc(#loc24)
      %1334 = vector.broadcast %1333 : f32 to vector<64xf32> loc(#loc24)
      %1335 = vector.fma %946, %1331, %1139 : vector<64xf32> loc(#loc24)
      %1336 = vector.fma %946, %1334, %1140 : vector<64xf32> loc(#loc24)
      %1337 = arith.addi %96#0, %c7 : index loc(#loc24)
      %1338 = vector.load %95[%1337, %96#1] : memref<?x?xf32, strided<[?, 1]>>, vector<64xf32> loc(#loc24)
      %1339 = arith.addi %96#0, %c14 : index loc(#loc24)
      memref.prefetch %95[%1339, %96#1], read, locality<1>, data : memref<?x?xf32, strided<[?, 1]>> loc(#loc24)
      %1340 = arith.addi %94#1, %c6 : index loc(#loc24)
      %1341 = memref.load %93[%94#0, %1340] : memref<?x?xf32, strided<[?, 1]>> loc(#loc24)
      %1342 = vector.broadcast %1341 : f32 to vector<64xf32> loc(#loc24)
      %1343 = memref.load %93[%104, %1340] : memref<?x?xf32, strided<[?, 1]>> loc(#loc24)
      %1344 = vector.broadcast %1343 : f32 to vector<64xf32> loc(#loc24)
      %1345 = vector.fma %1142, %1342, %1149 : vector<64xf32> loc(#loc24)
      %1346 = memref.load %93[%108, %1340] : memref<?x?xf32, strided<[?, 1]>> loc(#loc24)
      %1347 = vector.broadcast %1346 : f32 to vector<64xf32> loc(#loc24)
      %1348 = vector.fma %1142, %1344, %1152 : vector<64xf32> loc(#loc24)
      %1349 = memref.load %93[%112, %1340] : memref<?x?xf32, strided<[?, 1]>> loc(#loc24)
      %1350 = vector.broadcast %1349 : f32 to vector<64xf32> loc(#loc24)
      %1351 = vector.fma %1142, %1347, %1155 : vector<64xf32> loc(#loc24)
      %1352 = memref.load %93[%116, %1340] : memref<?x?xf32, strided<[?, 1]>> loc(#loc24)
      %1353 = vector.broadcast %1352 : f32 to vector<64xf32> loc(#loc24)
      %1354 = vector.fma %1142, %1350, %1158 : vector<64xf32> loc(#loc24)
      %1355 = memref.load %93[%120, %1340] : memref<?x?xf32, strided<[?, 1]>> loc(#loc24)
      %1356 = vector.broadcast %1355 : f32 to vector<64xf32> loc(#loc24)
      %1357 = vector.fma %1142, %1353, %1161 : vector<64xf32> loc(#loc24)
      %1358 = memref.load %93[%124, %1340] : memref<?x?xf32, strided<[?, 1]>> loc(#loc24)
      %1359 = vector.broadcast %1358 : f32 to vector<64xf32> loc(#loc24)
      %1360 = vector.fma %1142, %1356, %1164 : vector<64xf32> loc(#loc24)
      %1361 = memref.load %93[%128, %1340] : memref<?x?xf32, strided<[?, 1]>> loc(#loc24)
      %1362 = vector.broadcast %1361 : f32 to vector<64xf32> loc(#loc24)
      %1363 = vector.fma %1142, %1359, %1167 : vector<64xf32> loc(#loc24)
      %1364 = memref.load %93[%132, %1340] : memref<?x?xf32, strided<[?, 1]>> loc(#loc24)
      %1365 = vector.broadcast %1364 : f32 to vector<64xf32> loc(#loc24)
      %1366 = vector.fma %1142, %1362, %1170 : vector<64xf32> loc(#loc24)
      %1367 = memref.load %93[%136, %1340] : memref<?x?xf32, strided<[?, 1]>> loc(#loc24)
      %1368 = vector.broadcast %1367 : f32 to vector<64xf32> loc(#loc24)
      %1369 = vector.fma %1142, %1365, %1173 : vector<64xf32> loc(#loc24)
      %1370 = memref.load %93[%140, %1340] : memref<?x?xf32, strided<[?, 1]>> loc(#loc24)
      %1371 = vector.broadcast %1370 : f32 to vector<64xf32> loc(#loc24)
      %1372 = vector.fma %1142, %1368, %1176 : vector<64xf32> loc(#loc24)
      %1373 = memref.load %93[%144, %1340] : memref<?x?xf32, strided<[?, 1]>> loc(#loc24)
      %1374 = vector.broadcast %1373 : f32 to vector<64xf32> loc(#loc24)
      %1375 = vector.fma %1142, %1371, %1179 : vector<64xf32> loc(#loc24)
      %1376 = memref.load %93[%148, %1340] : memref<?x?xf32, strided<[?, 1]>> loc(#loc24)
      %1377 = vector.broadcast %1376 : f32 to vector<64xf32> loc(#loc24)
      %1378 = vector.fma %1142, %1374, %1182 : vector<64xf32> loc(#loc24)
      %1379 = memref.load %93[%152, %1340] : memref<?x?xf32, strided<[?, 1]>> loc(#loc24)
      %1380 = vector.broadcast %1379 : f32 to vector<64xf32> loc(#loc24)
      %1381 = vector.fma %1142, %1377, %1185 : vector<64xf32> loc(#loc24)
      %1382 = memref.load %93[%156, %1340] : memref<?x?xf32, strided<[?, 1]>> loc(#loc24)
      %1383 = vector.broadcast %1382 : f32 to vector<64xf32> loc(#loc24)
      %1384 = vector.fma %1142, %1380, %1188 : vector<64xf32> loc(#loc24)
      %1385 = memref.load %93[%160, %1340] : memref<?x?xf32, strided<[?, 1]>> loc(#loc24)
      %1386 = vector.broadcast %1385 : f32 to vector<64xf32> loc(#loc24)
      %1387 = vector.fma %1142, %1383, %1191 : vector<64xf32> loc(#loc24)
      %1388 = memref.load %93[%164, %1340] : memref<?x?xf32, strided<[?, 1]>> loc(#loc24)
      %1389 = vector.broadcast %1388 : f32 to vector<64xf32> loc(#loc24)
      %1390 = vector.fma %1142, %1386, %1194 : vector<64xf32> loc(#loc24)
      %1391 = memref.load %93[%168, %1340] : memref<?x?xf32, strided<[?, 1]>> loc(#loc24)
      %1392 = vector.broadcast %1391 : f32 to vector<64xf32> loc(#loc24)
      %1393 = vector.fma %1142, %1389, %1197 : vector<64xf32> loc(#loc24)
      %1394 = memref.load %93[%172, %1340] : memref<?x?xf32, strided<[?, 1]>> loc(#loc24)
      %1395 = vector.broadcast %1394 : f32 to vector<64xf32> loc(#loc24)
      %1396 = vector.fma %1142, %1392, %1200 : vector<64xf32> loc(#loc24)
      %1397 = memref.load %93[%176, %1340] : memref<?x?xf32, strided<[?, 1]>> loc(#loc24)
      %1398 = vector.broadcast %1397 : f32 to vector<64xf32> loc(#loc24)
      %1399 = vector.fma %1142, %1395, %1203 : vector<64xf32> loc(#loc24)
      %1400 = memref.load %93[%180, %1340] : memref<?x?xf32, strided<[?, 1]>> loc(#loc24)
      %1401 = vector.broadcast %1400 : f32 to vector<64xf32> loc(#loc24)
      %1402 = vector.fma %1142, %1398, %1206 : vector<64xf32> loc(#loc24)
      %1403 = memref.load %93[%184, %1340] : memref<?x?xf32, strided<[?, 1]>> loc(#loc24)
      %1404 = vector.broadcast %1403 : f32 to vector<64xf32> loc(#loc24)
      %1405 = vector.fma %1142, %1401, %1209 : vector<64xf32> loc(#loc24)
      %1406 = memref.load %93[%188, %1340] : memref<?x?xf32, strided<[?, 1]>> loc(#loc24)
      %1407 = vector.broadcast %1406 : f32 to vector<64xf32> loc(#loc24)
      %1408 = vector.fma %1142, %1404, %1212 : vector<64xf32> loc(#loc24)
      %1409 = memref.load %93[%192, %1340] : memref<?x?xf32, strided<[?, 1]>> loc(#loc24)
      %1410 = vector.broadcast %1409 : f32 to vector<64xf32> loc(#loc24)
      %1411 = vector.fma %1142, %1407, %1215 : vector<64xf32> loc(#loc24)
      %1412 = memref.load %93[%196, %1340] : memref<?x?xf32, strided<[?, 1]>> loc(#loc24)
      %1413 = vector.broadcast %1412 : f32 to vector<64xf32> loc(#loc24)
      %1414 = vector.fma %1142, %1410, %1218 : vector<64xf32> loc(#loc24)
      %1415 = memref.load %93[%200, %1340] : memref<?x?xf32, strided<[?, 1]>> loc(#loc24)
      %1416 = vector.broadcast %1415 : f32 to vector<64xf32> loc(#loc24)
      %1417 = vector.fma %1142, %1413, %1221 : vector<64xf32> loc(#loc24)
      %1418 = memref.load %93[%204, %1340] : memref<?x?xf32, strided<[?, 1]>> loc(#loc24)
      %1419 = vector.broadcast %1418 : f32 to vector<64xf32> loc(#loc24)
      %1420 = vector.fma %1142, %1416, %1224 : vector<64xf32> loc(#loc24)
      %1421 = memref.load %93[%208, %1340] : memref<?x?xf32, strided<[?, 1]>> loc(#loc24)
      %1422 = vector.broadcast %1421 : f32 to vector<64xf32> loc(#loc24)
      %1423 = vector.fma %1142, %1419, %1227 : vector<64xf32> loc(#loc24)
      %1424 = memref.load %93[%212, %1340] : memref<?x?xf32, strided<[?, 1]>> loc(#loc24)
      %1425 = vector.broadcast %1424 : f32 to vector<64xf32> loc(#loc24)
      %1426 = vector.fma %1142, %1422, %1230 : vector<64xf32> loc(#loc24)
      %1427 = memref.load %93[%216, %1340] : memref<?x?xf32, strided<[?, 1]>> loc(#loc24)
      %1428 = vector.broadcast %1427 : f32 to vector<64xf32> loc(#loc24)
      %1429 = vector.fma %1142, %1425, %1233 : vector<64xf32> loc(#loc24)
      %1430 = memref.load %93[%220, %1340] : memref<?x?xf32, strided<[?, 1]>> loc(#loc24)
      %1431 = vector.broadcast %1430 : f32 to vector<64xf32> loc(#loc24)
      %1432 = vector.fma %1142, %1428, %1236 : vector<64xf32> loc(#loc24)
      %1433 = memref.load %93[%224, %1340] : memref<?x?xf32, strided<[?, 1]>> loc(#loc24)
      %1434 = vector.broadcast %1433 : f32 to vector<64xf32> loc(#loc24)
      %1435 = vector.fma %1142, %1431, %1239 : vector<64xf32> loc(#loc24)
      %1436 = memref.load %93[%228, %1340] : memref<?x?xf32, strided<[?, 1]>> loc(#loc24)
      %1437 = vector.broadcast %1436 : f32 to vector<64xf32> loc(#loc24)
      %1438 = vector.fma %1142, %1434, %1242 : vector<64xf32> loc(#loc24)
      %1439 = memref.load %93[%232, %1340] : memref<?x?xf32, strided<[?, 1]>> loc(#loc24)
      %1440 = vector.broadcast %1439 : f32 to vector<64xf32> loc(#loc24)
      %1441 = vector.fma %1142, %1437, %1245 : vector<64xf32> loc(#loc24)
      %1442 = memref.load %93[%236, %1340] : memref<?x?xf32, strided<[?, 1]>> loc(#loc24)
      %1443 = vector.broadcast %1442 : f32 to vector<64xf32> loc(#loc24)
      %1444 = vector.fma %1142, %1440, %1248 : vector<64xf32> loc(#loc24)
      %1445 = memref.load %93[%240, %1340] : memref<?x?xf32, strided<[?, 1]>> loc(#loc24)
      %1446 = vector.broadcast %1445 : f32 to vector<64xf32> loc(#loc24)
      %1447 = vector.fma %1142, %1443, %1251 : vector<64xf32> loc(#loc24)
      %1448 = memref.load %93[%244, %1340] : memref<?x?xf32, strided<[?, 1]>> loc(#loc24)
      %1449 = vector.broadcast %1448 : f32 to vector<64xf32> loc(#loc24)
      %1450 = vector.fma %1142, %1446, %1254 : vector<64xf32> loc(#loc24)
      %1451 = memref.load %93[%248, %1340] : memref<?x?xf32, strided<[?, 1]>> loc(#loc24)
      %1452 = vector.broadcast %1451 : f32 to vector<64xf32> loc(#loc24)
      %1453 = vector.fma %1142, %1449, %1257 : vector<64xf32> loc(#loc24)
      %1454 = memref.load %93[%252, %1340] : memref<?x?xf32, strided<[?, 1]>> loc(#loc24)
      %1455 = vector.broadcast %1454 : f32 to vector<64xf32> loc(#loc24)
      %1456 = vector.fma %1142, %1452, %1260 : vector<64xf32> loc(#loc24)
      %1457 = memref.load %93[%256, %1340] : memref<?x?xf32, strided<[?, 1]>> loc(#loc24)
      %1458 = vector.broadcast %1457 : f32 to vector<64xf32> loc(#loc24)
      %1459 = vector.fma %1142, %1455, %1263 : vector<64xf32> loc(#loc24)
      %1460 = memref.load %93[%260, %1340] : memref<?x?xf32, strided<[?, 1]>> loc(#loc24)
      %1461 = vector.broadcast %1460 : f32 to vector<64xf32> loc(#loc24)
      %1462 = vector.fma %1142, %1458, %1266 : vector<64xf32> loc(#loc24)
      %1463 = memref.load %93[%264, %1340] : memref<?x?xf32, strided<[?, 1]>> loc(#loc24)
      %1464 = vector.broadcast %1463 : f32 to vector<64xf32> loc(#loc24)
      %1465 = vector.fma %1142, %1461, %1269 : vector<64xf32> loc(#loc24)
      %1466 = memref.load %93[%268, %1340] : memref<?x?xf32, strided<[?, 1]>> loc(#loc24)
      %1467 = vector.broadcast %1466 : f32 to vector<64xf32> loc(#loc24)
      %1468 = vector.fma %1142, %1464, %1272 : vector<64xf32> loc(#loc24)
      %1469 = memref.load %93[%272, %1340] : memref<?x?xf32, strided<[?, 1]>> loc(#loc24)
      %1470 = vector.broadcast %1469 : f32 to vector<64xf32> loc(#loc24)
      %1471 = vector.fma %1142, %1467, %1275 : vector<64xf32> loc(#loc24)
      %1472 = memref.load %93[%276, %1340] : memref<?x?xf32, strided<[?, 1]>> loc(#loc24)
      %1473 = vector.broadcast %1472 : f32 to vector<64xf32> loc(#loc24)
      %1474 = vector.fma %1142, %1470, %1278 : vector<64xf32> loc(#loc24)
      %1475 = memref.load %93[%280, %1340] : memref<?x?xf32, strided<[?, 1]>> loc(#loc24)
      %1476 = vector.broadcast %1475 : f32 to vector<64xf32> loc(#loc24)
      %1477 = vector.fma %1142, %1473, %1281 : vector<64xf32> loc(#loc24)
      %1478 = memref.load %93[%284, %1340] : memref<?x?xf32, strided<[?, 1]>> loc(#loc24)
      %1479 = vector.broadcast %1478 : f32 to vector<64xf32> loc(#loc24)
      %1480 = vector.fma %1142, %1476, %1284 : vector<64xf32> loc(#loc24)
      %1481 = memref.load %93[%288, %1340] : memref<?x?xf32, strided<[?, 1]>> loc(#loc24)
      %1482 = vector.broadcast %1481 : f32 to vector<64xf32> loc(#loc24)
      %1483 = vector.fma %1142, %1479, %1287 : vector<64xf32> loc(#loc24)
      %1484 = memref.load %93[%292, %1340] : memref<?x?xf32, strided<[?, 1]>> loc(#loc24)
      %1485 = vector.broadcast %1484 : f32 to vector<64xf32> loc(#loc24)
      %1486 = vector.fma %1142, %1482, %1290 : vector<64xf32> loc(#loc24)
      %1487 = memref.load %93[%296, %1340] : memref<?x?xf32, strided<[?, 1]>> loc(#loc24)
      %1488 = vector.broadcast %1487 : f32 to vector<64xf32> loc(#loc24)
      %1489 = vector.fma %1142, %1485, %1293 : vector<64xf32> loc(#loc24)
      %1490 = memref.load %93[%300, %1340] : memref<?x?xf32, strided<[?, 1]>> loc(#loc24)
      %1491 = vector.broadcast %1490 : f32 to vector<64xf32> loc(#loc24)
      %1492 = vector.fma %1142, %1488, %1296 : vector<64xf32> loc(#loc24)
      %1493 = memref.load %93[%304, %1340] : memref<?x?xf32, strided<[?, 1]>> loc(#loc24)
      %1494 = vector.broadcast %1493 : f32 to vector<64xf32> loc(#loc24)
      %1495 = vector.fma %1142, %1491, %1299 : vector<64xf32> loc(#loc24)
      %1496 = memref.load %93[%308, %1340] : memref<?x?xf32, strided<[?, 1]>> loc(#loc24)
      %1497 = vector.broadcast %1496 : f32 to vector<64xf32> loc(#loc24)
      %1498 = vector.fma %1142, %1494, %1302 : vector<64xf32> loc(#loc24)
      %1499 = memref.load %93[%312, %1340] : memref<?x?xf32, strided<[?, 1]>> loc(#loc24)
      %1500 = vector.broadcast %1499 : f32 to vector<64xf32> loc(#loc24)
      %1501 = vector.fma %1142, %1497, %1305 : vector<64xf32> loc(#loc24)
      %1502 = memref.load %93[%316, %1340] : memref<?x?xf32, strided<[?, 1]>> loc(#loc24)
      %1503 = vector.broadcast %1502 : f32 to vector<64xf32> loc(#loc24)
      %1504 = vector.fma %1142, %1500, %1308 : vector<64xf32> loc(#loc24)
      %1505 = memref.load %93[%320, %1340] : memref<?x?xf32, strided<[?, 1]>> loc(#loc24)
      %1506 = vector.broadcast %1505 : f32 to vector<64xf32> loc(#loc24)
      %1507 = vector.fma %1142, %1503, %1311 : vector<64xf32> loc(#loc24)
      %1508 = memref.load %93[%324, %1340] : memref<?x?xf32, strided<[?, 1]>> loc(#loc24)
      %1509 = vector.broadcast %1508 : f32 to vector<64xf32> loc(#loc24)
      %1510 = vector.fma %1142, %1506, %1314 : vector<64xf32> loc(#loc24)
      %1511 = memref.load %93[%328, %1340] : memref<?x?xf32, strided<[?, 1]>> loc(#loc24)
      %1512 = vector.broadcast %1511 : f32 to vector<64xf32> loc(#loc24)
      %1513 = vector.fma %1142, %1509, %1317 : vector<64xf32> loc(#loc24)
      %1514 = memref.load %93[%332, %1340] : memref<?x?xf32, strided<[?, 1]>> loc(#loc24)
      %1515 = vector.broadcast %1514 : f32 to vector<64xf32> loc(#loc24)
      %1516 = vector.fma %1142, %1512, %1320 : vector<64xf32> loc(#loc24)
      %1517 = memref.load %93[%336, %1340] : memref<?x?xf32, strided<[?, 1]>> loc(#loc24)
      %1518 = vector.broadcast %1517 : f32 to vector<64xf32> loc(#loc24)
      %1519 = vector.fma %1142, %1515, %1323 : vector<64xf32> loc(#loc24)
      %1520 = memref.load %93[%340, %1340] : memref<?x?xf32, strided<[?, 1]>> loc(#loc24)
      %1521 = vector.broadcast %1520 : f32 to vector<64xf32> loc(#loc24)
      %1522 = vector.fma %1142, %1518, %1326 : vector<64xf32> loc(#loc24)
      %1523 = memref.load %93[%344, %1340] : memref<?x?xf32, strided<[?, 1]>> loc(#loc24)
      %1524 = vector.broadcast %1523 : f32 to vector<64xf32> loc(#loc24)
      %1525 = vector.fma %1142, %1521, %1329 : vector<64xf32> loc(#loc24)
      %1526 = memref.load %93[%348, %1340] : memref<?x?xf32, strided<[?, 1]>> loc(#loc24)
      %1527 = vector.broadcast %1526 : f32 to vector<64xf32> loc(#loc24)
      %1528 = vector.fma %1142, %1524, %1332 : vector<64xf32> loc(#loc24)
      %1529 = memref.load %93[%352, %1340] : memref<?x?xf32, strided<[?, 1]>> loc(#loc24)
      %1530 = vector.broadcast %1529 : f32 to vector<64xf32> loc(#loc24)
      %1531 = vector.fma %1142, %1527, %1335 : vector<64xf32> loc(#loc24)
      %1532 = vector.fma %1142, %1530, %1336 : vector<64xf32> loc(#loc24)
      %1533 = arith.addi %96#0, %c15 : index loc(#loc24)
      memref.prefetch %95[%1533, %96#1], read, locality<1>, data : memref<?x?xf32, strided<[?, 1]>> loc(#loc24)
      %1534 = arith.addi %94#1, %c7 : index loc(#loc24)
      %1535 = memref.load %93[%94#0, %1534] : memref<?x?xf32, strided<[?, 1]>> loc(#loc24)
      %1536 = vector.broadcast %1535 : f32 to vector<64xf32> loc(#loc24)
      %1537 = memref.load %93[%104, %1534] : memref<?x?xf32, strided<[?, 1]>> loc(#loc24)
      %1538 = vector.broadcast %1537 : f32 to vector<64xf32> loc(#loc24)
      %1539 = vector.fma %1338, %1536, %1345 : vector<64xf32> loc(#loc24)
      %1540 = memref.load %93[%108, %1534] : memref<?x?xf32, strided<[?, 1]>> loc(#loc24)
      %1541 = vector.broadcast %1540 : f32 to vector<64xf32> loc(#loc24)
      %1542 = vector.fma %1338, %1538, %1348 : vector<64xf32> loc(#loc24)
      %1543 = memref.load %93[%112, %1534] : memref<?x?xf32, strided<[?, 1]>> loc(#loc24)
      %1544 = vector.broadcast %1543 : f32 to vector<64xf32> loc(#loc24)
      %1545 = vector.fma %1338, %1541, %1351 : vector<64xf32> loc(#loc24)
      %1546 = memref.load %93[%116, %1534] : memref<?x?xf32, strided<[?, 1]>> loc(#loc24)
      %1547 = vector.broadcast %1546 : f32 to vector<64xf32> loc(#loc24)
      %1548 = vector.fma %1338, %1544, %1354 : vector<64xf32> loc(#loc24)
      %1549 = memref.load %93[%120, %1534] : memref<?x?xf32, strided<[?, 1]>> loc(#loc24)
      %1550 = vector.broadcast %1549 : f32 to vector<64xf32> loc(#loc24)
      %1551 = vector.fma %1338, %1547, %1357 : vector<64xf32> loc(#loc24)
      %1552 = memref.load %93[%124, %1534] : memref<?x?xf32, strided<[?, 1]>> loc(#loc24)
      %1553 = vector.broadcast %1552 : f32 to vector<64xf32> loc(#loc24)
      %1554 = vector.fma %1338, %1550, %1360 : vector<64xf32> loc(#loc24)
      %1555 = memref.load %93[%128, %1534] : memref<?x?xf32, strided<[?, 1]>> loc(#loc24)
      %1556 = vector.broadcast %1555 : f32 to vector<64xf32> loc(#loc24)
      %1557 = vector.fma %1338, %1553, %1363 : vector<64xf32> loc(#loc24)
      %1558 = memref.load %93[%132, %1534] : memref<?x?xf32, strided<[?, 1]>> loc(#loc24)
      %1559 = vector.broadcast %1558 : f32 to vector<64xf32> loc(#loc24)
      %1560 = vector.fma %1338, %1556, %1366 : vector<64xf32> loc(#loc24)
      %1561 = memref.load %93[%136, %1534] : memref<?x?xf32, strided<[?, 1]>> loc(#loc24)
      %1562 = vector.broadcast %1561 : f32 to vector<64xf32> loc(#loc24)
      %1563 = vector.fma %1338, %1559, %1369 : vector<64xf32> loc(#loc24)
      %1564 = memref.load %93[%140, %1534] : memref<?x?xf32, strided<[?, 1]>> loc(#loc24)
      %1565 = vector.broadcast %1564 : f32 to vector<64xf32> loc(#loc24)
      %1566 = vector.fma %1338, %1562, %1372 : vector<64xf32> loc(#loc24)
      %1567 = memref.load %93[%144, %1534] : memref<?x?xf32, strided<[?, 1]>> loc(#loc24)
      %1568 = vector.broadcast %1567 : f32 to vector<64xf32> loc(#loc24)
      %1569 = vector.fma %1338, %1565, %1375 : vector<64xf32> loc(#loc24)
      %1570 = memref.load %93[%148, %1534] : memref<?x?xf32, strided<[?, 1]>> loc(#loc24)
      %1571 = vector.broadcast %1570 : f32 to vector<64xf32> loc(#loc24)
      %1572 = vector.fma %1338, %1568, %1378 : vector<64xf32> loc(#loc24)
      %1573 = memref.load %93[%152, %1534] : memref<?x?xf32, strided<[?, 1]>> loc(#loc24)
      %1574 = vector.broadcast %1573 : f32 to vector<64xf32> loc(#loc24)
      %1575 = vector.fma %1338, %1571, %1381 : vector<64xf32> loc(#loc24)
      %1576 = memref.load %93[%156, %1534] : memref<?x?xf32, strided<[?, 1]>> loc(#loc24)
      %1577 = vector.broadcast %1576 : f32 to vector<64xf32> loc(#loc24)
      %1578 = vector.fma %1338, %1574, %1384 : vector<64xf32> loc(#loc24)
      %1579 = memref.load %93[%160, %1534] : memref<?x?xf32, strided<[?, 1]>> loc(#loc24)
      %1580 = vector.broadcast %1579 : f32 to vector<64xf32> loc(#loc24)
      %1581 = vector.fma %1338, %1577, %1387 : vector<64xf32> loc(#loc24)
      %1582 = memref.load %93[%164, %1534] : memref<?x?xf32, strided<[?, 1]>> loc(#loc24)
      %1583 = vector.broadcast %1582 : f32 to vector<64xf32> loc(#loc24)
      %1584 = vector.fma %1338, %1580, %1390 : vector<64xf32> loc(#loc24)
      %1585 = memref.load %93[%168, %1534] : memref<?x?xf32, strided<[?, 1]>> loc(#loc24)
      %1586 = vector.broadcast %1585 : f32 to vector<64xf32> loc(#loc24)
      %1587 = vector.fma %1338, %1583, %1393 : vector<64xf32> loc(#loc24)
      %1588 = memref.load %93[%172, %1534] : memref<?x?xf32, strided<[?, 1]>> loc(#loc24)
      %1589 = vector.broadcast %1588 : f32 to vector<64xf32> loc(#loc24)
      %1590 = vector.fma %1338, %1586, %1396 : vector<64xf32> loc(#loc24)
      %1591 = memref.load %93[%176, %1534] : memref<?x?xf32, strided<[?, 1]>> loc(#loc24)
      %1592 = vector.broadcast %1591 : f32 to vector<64xf32> loc(#loc24)
      %1593 = vector.fma %1338, %1589, %1399 : vector<64xf32> loc(#loc24)
      %1594 = memref.load %93[%180, %1534] : memref<?x?xf32, strided<[?, 1]>> loc(#loc24)
      %1595 = vector.broadcast %1594 : f32 to vector<64xf32> loc(#loc24)
      %1596 = vector.fma %1338, %1592, %1402 : vector<64xf32> loc(#loc24)
      %1597 = memref.load %93[%184, %1534] : memref<?x?xf32, strided<[?, 1]>> loc(#loc24)
      %1598 = vector.broadcast %1597 : f32 to vector<64xf32> loc(#loc24)
      %1599 = vector.fma %1338, %1595, %1405 : vector<64xf32> loc(#loc24)
      %1600 = memref.load %93[%188, %1534] : memref<?x?xf32, strided<[?, 1]>> loc(#loc24)
      %1601 = vector.broadcast %1600 : f32 to vector<64xf32> loc(#loc24)
      %1602 = vector.fma %1338, %1598, %1408 : vector<64xf32> loc(#loc24)
      %1603 = memref.load %93[%192, %1534] : memref<?x?xf32, strided<[?, 1]>> loc(#loc24)
      %1604 = vector.broadcast %1603 : f32 to vector<64xf32> loc(#loc24)
      %1605 = vector.fma %1338, %1601, %1411 : vector<64xf32> loc(#loc24)
      %1606 = memref.load %93[%196, %1534] : memref<?x?xf32, strided<[?, 1]>> loc(#loc24)
      %1607 = vector.broadcast %1606 : f32 to vector<64xf32> loc(#loc24)
      %1608 = vector.fma %1338, %1604, %1414 : vector<64xf32> loc(#loc24)
      %1609 = memref.load %93[%200, %1534] : memref<?x?xf32, strided<[?, 1]>> loc(#loc24)
      %1610 = vector.broadcast %1609 : f32 to vector<64xf32> loc(#loc24)
      %1611 = vector.fma %1338, %1607, %1417 : vector<64xf32> loc(#loc24)
      %1612 = memref.load %93[%204, %1534] : memref<?x?xf32, strided<[?, 1]>> loc(#loc24)
      %1613 = vector.broadcast %1612 : f32 to vector<64xf32> loc(#loc24)
      %1614 = vector.fma %1338, %1610, %1420 : vector<64xf32> loc(#loc24)
      %1615 = memref.load %93[%208, %1534] : memref<?x?xf32, strided<[?, 1]>> loc(#loc24)
      %1616 = vector.broadcast %1615 : f32 to vector<64xf32> loc(#loc24)
      %1617 = vector.fma %1338, %1613, %1423 : vector<64xf32> loc(#loc24)
      %1618 = memref.load %93[%212, %1534] : memref<?x?xf32, strided<[?, 1]>> loc(#loc24)
      %1619 = vector.broadcast %1618 : f32 to vector<64xf32> loc(#loc24)
      %1620 = vector.fma %1338, %1616, %1426 : vector<64xf32> loc(#loc24)
      %1621 = memref.load %93[%216, %1534] : memref<?x?xf32, strided<[?, 1]>> loc(#loc24)
      %1622 = vector.broadcast %1621 : f32 to vector<64xf32> loc(#loc24)
      %1623 = vector.fma %1338, %1619, %1429 : vector<64xf32> loc(#loc24)
      %1624 = memref.load %93[%220, %1534] : memref<?x?xf32, strided<[?, 1]>> loc(#loc24)
      %1625 = vector.broadcast %1624 : f32 to vector<64xf32> loc(#loc24)
      %1626 = vector.fma %1338, %1622, %1432 : vector<64xf32> loc(#loc24)
      %1627 = memref.load %93[%224, %1534] : memref<?x?xf32, strided<[?, 1]>> loc(#loc24)
      %1628 = vector.broadcast %1627 : f32 to vector<64xf32> loc(#loc24)
      %1629 = vector.fma %1338, %1625, %1435 : vector<64xf32> loc(#loc24)
      %1630 = memref.load %93[%228, %1534] : memref<?x?xf32, strided<[?, 1]>> loc(#loc24)
      %1631 = vector.broadcast %1630 : f32 to vector<64xf32> loc(#loc24)
      %1632 = vector.fma %1338, %1628, %1438 : vector<64xf32> loc(#loc24)
      %1633 = memref.load %93[%232, %1534] : memref<?x?xf32, strided<[?, 1]>> loc(#loc24)
      %1634 = vector.broadcast %1633 : f32 to vector<64xf32> loc(#loc24)
      %1635 = vector.fma %1338, %1631, %1441 : vector<64xf32> loc(#loc24)
      %1636 = memref.load %93[%236, %1534] : memref<?x?xf32, strided<[?, 1]>> loc(#loc24)
      %1637 = vector.broadcast %1636 : f32 to vector<64xf32> loc(#loc24)
      %1638 = vector.fma %1338, %1634, %1444 : vector<64xf32> loc(#loc24)
      %1639 = memref.load %93[%240, %1534] : memref<?x?xf32, strided<[?, 1]>> loc(#loc24)
      %1640 = vector.broadcast %1639 : f32 to vector<64xf32> loc(#loc24)
      %1641 = vector.fma %1338, %1637, %1447 : vector<64xf32> loc(#loc24)
      %1642 = memref.load %93[%244, %1534] : memref<?x?xf32, strided<[?, 1]>> loc(#loc24)
      %1643 = vector.broadcast %1642 : f32 to vector<64xf32> loc(#loc24)
      %1644 = vector.fma %1338, %1640, %1450 : vector<64xf32> loc(#loc24)
      %1645 = memref.load %93[%248, %1534] : memref<?x?xf32, strided<[?, 1]>> loc(#loc24)
      %1646 = vector.broadcast %1645 : f32 to vector<64xf32> loc(#loc24)
      %1647 = vector.fma %1338, %1643, %1453 : vector<64xf32> loc(#loc24)
      %1648 = memref.load %93[%252, %1534] : memref<?x?xf32, strided<[?, 1]>> loc(#loc24)
      %1649 = vector.broadcast %1648 : f32 to vector<64xf32> loc(#loc24)
      %1650 = vector.fma %1338, %1646, %1456 : vector<64xf32> loc(#loc24)
      %1651 = memref.load %93[%256, %1534] : memref<?x?xf32, strided<[?, 1]>> loc(#loc24)
      %1652 = vector.broadcast %1651 : f32 to vector<64xf32> loc(#loc24)
      %1653 = vector.fma %1338, %1649, %1459 : vector<64xf32> loc(#loc24)
      %1654 = memref.load %93[%260, %1534] : memref<?x?xf32, strided<[?, 1]>> loc(#loc24)
      %1655 = vector.broadcast %1654 : f32 to vector<64xf32> loc(#loc24)
      %1656 = vector.fma %1338, %1652, %1462 : vector<64xf32> loc(#loc24)
      %1657 = memref.load %93[%264, %1534] : memref<?x?xf32, strided<[?, 1]>> loc(#loc24)
      %1658 = vector.broadcast %1657 : f32 to vector<64xf32> loc(#loc24)
      %1659 = vector.fma %1338, %1655, %1465 : vector<64xf32> loc(#loc24)
      %1660 = memref.load %93[%268, %1534] : memref<?x?xf32, strided<[?, 1]>> loc(#loc24)
      %1661 = vector.broadcast %1660 : f32 to vector<64xf32> loc(#loc24)
      %1662 = vector.fma %1338, %1658, %1468 : vector<64xf32> loc(#loc24)
      %1663 = memref.load %93[%272, %1534] : memref<?x?xf32, strided<[?, 1]>> loc(#loc24)
      %1664 = vector.broadcast %1663 : f32 to vector<64xf32> loc(#loc24)
      %1665 = vector.fma %1338, %1661, %1471 : vector<64xf32> loc(#loc24)
      %1666 = memref.load %93[%276, %1534] : memref<?x?xf32, strided<[?, 1]>> loc(#loc24)
      %1667 = vector.broadcast %1666 : f32 to vector<64xf32> loc(#loc24)
      %1668 = vector.fma %1338, %1664, %1474 : vector<64xf32> loc(#loc24)
      %1669 = memref.load %93[%280, %1534] : memref<?x?xf32, strided<[?, 1]>> loc(#loc24)
      %1670 = vector.broadcast %1669 : f32 to vector<64xf32> loc(#loc24)
      %1671 = vector.fma %1338, %1667, %1477 : vector<64xf32> loc(#loc24)
      %1672 = memref.load %93[%284, %1534] : memref<?x?xf32, strided<[?, 1]>> loc(#loc24)
      %1673 = vector.broadcast %1672 : f32 to vector<64xf32> loc(#loc24)
      %1674 = vector.fma %1338, %1670, %1480 : vector<64xf32> loc(#loc24)
      %1675 = memref.load %93[%288, %1534] : memref<?x?xf32, strided<[?, 1]>> loc(#loc24)
      %1676 = vector.broadcast %1675 : f32 to vector<64xf32> loc(#loc24)
      %1677 = vector.fma %1338, %1673, %1483 : vector<64xf32> loc(#loc24)
      %1678 = memref.load %93[%292, %1534] : memref<?x?xf32, strided<[?, 1]>> loc(#loc24)
      %1679 = vector.broadcast %1678 : f32 to vector<64xf32> loc(#loc24)
      %1680 = vector.fma %1338, %1676, %1486 : vector<64xf32> loc(#loc24)
      %1681 = memref.load %93[%296, %1534] : memref<?x?xf32, strided<[?, 1]>> loc(#loc24)
      %1682 = vector.broadcast %1681 : f32 to vector<64xf32> loc(#loc24)
      %1683 = vector.fma %1338, %1679, %1489 : vector<64xf32> loc(#loc24)
      %1684 = memref.load %93[%300, %1534] : memref<?x?xf32, strided<[?, 1]>> loc(#loc24)
      %1685 = vector.broadcast %1684 : f32 to vector<64xf32> loc(#loc24)
      %1686 = vector.fma %1338, %1682, %1492 : vector<64xf32> loc(#loc24)
      %1687 = memref.load %93[%304, %1534] : memref<?x?xf32, strided<[?, 1]>> loc(#loc24)
      %1688 = vector.broadcast %1687 : f32 to vector<64xf32> loc(#loc24)
      %1689 = vector.fma %1338, %1685, %1495 : vector<64xf32> loc(#loc24)
      %1690 = memref.load %93[%308, %1534] : memref<?x?xf32, strided<[?, 1]>> loc(#loc24)
      %1691 = vector.broadcast %1690 : f32 to vector<64xf32> loc(#loc24)
      %1692 = vector.fma %1338, %1688, %1498 : vector<64xf32> loc(#loc24)
      %1693 = memref.load %93[%312, %1534] : memref<?x?xf32, strided<[?, 1]>> loc(#loc24)
      %1694 = vector.broadcast %1693 : f32 to vector<64xf32> loc(#loc24)
      %1695 = vector.fma %1338, %1691, %1501 : vector<64xf32> loc(#loc24)
      %1696 = memref.load %93[%316, %1534] : memref<?x?xf32, strided<[?, 1]>> loc(#loc24)
      %1697 = vector.broadcast %1696 : f32 to vector<64xf32> loc(#loc24)
      %1698 = vector.fma %1338, %1694, %1504 : vector<64xf32> loc(#loc24)
      %1699 = memref.load %93[%320, %1534] : memref<?x?xf32, strided<[?, 1]>> loc(#loc24)
      %1700 = vector.broadcast %1699 : f32 to vector<64xf32> loc(#loc24)
      %1701 = vector.fma %1338, %1697, %1507 : vector<64xf32> loc(#loc24)
      %1702 = memref.load %93[%324, %1534] : memref<?x?xf32, strided<[?, 1]>> loc(#loc24)
      %1703 = vector.broadcast %1702 : f32 to vector<64xf32> loc(#loc24)
      %1704 = vector.fma %1338, %1700, %1510 : vector<64xf32> loc(#loc24)
      %1705 = memref.load %93[%328, %1534] : memref<?x?xf32, strided<[?, 1]>> loc(#loc24)
      %1706 = vector.broadcast %1705 : f32 to vector<64xf32> loc(#loc24)
      %1707 = vector.fma %1338, %1703, %1513 : vector<64xf32> loc(#loc24)
      %1708 = memref.load %93[%332, %1534] : memref<?x?xf32, strided<[?, 1]>> loc(#loc24)
      %1709 = vector.broadcast %1708 : f32 to vector<64xf32> loc(#loc24)
      %1710 = vector.fma %1338, %1706, %1516 : vector<64xf32> loc(#loc24)
      %1711 = memref.load %93[%336, %1534] : memref<?x?xf32, strided<[?, 1]>> loc(#loc24)
      %1712 = vector.broadcast %1711 : f32 to vector<64xf32> loc(#loc24)
      %1713 = vector.fma %1338, %1709, %1519 : vector<64xf32> loc(#loc24)
      %1714 = memref.load %93[%340, %1534] : memref<?x?xf32, strided<[?, 1]>> loc(#loc24)
      %1715 = vector.broadcast %1714 : f32 to vector<64xf32> loc(#loc24)
      %1716 = vector.fma %1338, %1712, %1522 : vector<64xf32> loc(#loc24)
      %1717 = memref.load %93[%344, %1534] : memref<?x?xf32, strided<[?, 1]>> loc(#loc24)
      %1718 = vector.broadcast %1717 : f32 to vector<64xf32> loc(#loc24)
      %1719 = vector.fma %1338, %1715, %1525 : vector<64xf32> loc(#loc24)
      %1720 = memref.load %93[%348, %1534] : memref<?x?xf32, strided<[?, 1]>> loc(#loc24)
      %1721 = vector.broadcast %1720 : f32 to vector<64xf32> loc(#loc24)
      %1722 = vector.fma %1338, %1718, %1528 : vector<64xf32> loc(#loc24)
      %1723 = memref.load %93[%352, %1534] : memref<?x?xf32, strided<[?, 1]>> loc(#loc24)
      %1724 = vector.broadcast %1723 : f32 to vector<64xf32> loc(#loc24)
      %1725 = vector.fma %1338, %1721, %1531 : vector<64xf32> loc(#loc24)
      %1726 = vector.fma %1338, %1724, %1532 : vector<64xf32> loc(#loc24)
      %1727 = tt.advance %arg10, [%c0_i32, %c8_i32] : <tensor<64x8xf32>> loc(#loc25)
      %1728 = tt.advance %arg11, [%c8_i32, %c0_i32] : <tensor<8x64xf32>> loc(#loc26)
      scf.yield %1727, %1728, %1539, %1542, %1545, %1548, %1551, %1554, %1557, %1560, %1563, %1566, %1569, %1572, %1575, %1578, %1581, %1584, %1587, %1590, %1593, %1596, %1599, %1602, %1605, %1608, %1611, %1614, %1617, %1620, %1623, %1626, %1629, %1632, %1635, %1638, %1641, %1644, %1647, %1650, %1653, %1656, %1659, %1662, %1665, %1668, %1671, %1674, %1677, %1680, %1683, %1686, %1689, %1692, %1695, %1698, %1701, %1704, %1707, %1710, %1713, %1716, %1719, %1722, %1725, %1726 : !tt.ptr<tensor<64x8xf32>>, !tt.ptr<tensor<8x64xf32>>, vector<64xf32>, vector<64xf32>, vector<64xf32>, vector<64xf32>, vector<64xf32>, vector<64xf32>, vector<64xf32>, vector<64xf32>, vector<64xf32>, vector<64xf32>, vector<64xf32>, vector<64xf32>, vector<64xf32>, vector<64xf32>, vector<64xf32>, vector<64xf32>, vector<64xf32>, vector<64xf32>, vector<64xf32>, vector<64xf32>, vector<64xf32>, vector<64xf32>, vector<64xf32>, vector<64xf32>, vector<64xf32>, vector<64xf32>, vector<64xf32>, vector<64xf32>, vector<64xf32>, vector<64xf32>, vector<64xf32>, vector<64xf32>, vector<64xf32>, vector<64xf32>, vector<64xf32>, vector<64xf32>, vector<64xf32>, vector<64xf32>, vector<64xf32>, vector<64xf32>, vector<64xf32>, vector<64xf32>, vector<64xf32>, vector<64xf32>, vector<64xf32>, vector<64xf32>, vector<64xf32>, vector<64xf32>, vector<64xf32>, vector<64xf32>, vector<64xf32>, vector<64xf32>, vector<64xf32>, vector<64xf32>, vector<64xf32>, vector<64xf32>, vector<64xf32>, vector<64xf32>, vector<64xf32>, vector<64xf32>, vector<64xf32>, vector<64xf32>, vector<64xf32>, vector<64xf32> loc(#loc27)
    } loc(#loc21)
    %25 = vector.insert %24#2, %cst_0 [0] : vector<64xf32> into vector<64x64xf32> loc(#loc24)
    %26 = vector.insert %24#3, %25 [1] : vector<64xf32> into vector<64x64xf32> loc(#loc24)
    %27 = vector.insert %24#4, %26 [2] : vector<64xf32> into vector<64x64xf32> loc(#loc24)
    %28 = vector.insert %24#5, %27 [3] : vector<64xf32> into vector<64x64xf32> loc(#loc24)
    %29 = vector.insert %24#6, %28 [4] : vector<64xf32> into vector<64x64xf32> loc(#loc24)
    %30 = vector.insert %24#7, %29 [5] : vector<64xf32> into vector<64x64xf32> loc(#loc24)
    %31 = vector.insert %24#8, %30 [6] : vector<64xf32> into vector<64x64xf32> loc(#loc24)
    %32 = vector.insert %24#9, %31 [7] : vector<64xf32> into vector<64x64xf32> loc(#loc24)
    %33 = vector.insert %24#10, %32 [8] : vector<64xf32> into vector<64x64xf32> loc(#loc24)
    %34 = vector.insert %24#11, %33 [9] : vector<64xf32> into vector<64x64xf32> loc(#loc24)
    %35 = vector.insert %24#12, %34 [10] : vector<64xf32> into vector<64x64xf32> loc(#loc24)
    %36 = vector.insert %24#13, %35 [11] : vector<64xf32> into vector<64x64xf32> loc(#loc24)
    %37 = vector.insert %24#14, %36 [12] : vector<64xf32> into vector<64x64xf32> loc(#loc24)
    %38 = vector.insert %24#15, %37 [13] : vector<64xf32> into vector<64x64xf32> loc(#loc24)
    %39 = vector.insert %24#16, %38 [14] : vector<64xf32> into vector<64x64xf32> loc(#loc24)
    %40 = vector.insert %24#17, %39 [15] : vector<64xf32> into vector<64x64xf32> loc(#loc24)
    %41 = vector.insert %24#18, %40 [16] : vector<64xf32> into vector<64x64xf32> loc(#loc24)
    %42 = vector.insert %24#19, %41 [17] : vector<64xf32> into vector<64x64xf32> loc(#loc24)
    %43 = vector.insert %24#20, %42 [18] : vector<64xf32> into vector<64x64xf32> loc(#loc24)
    %44 = vector.insert %24#21, %43 [19] : vector<64xf32> into vector<64x64xf32> loc(#loc24)
    %45 = vector.insert %24#22, %44 [20] : vector<64xf32> into vector<64x64xf32> loc(#loc24)
    %46 = vector.insert %24#23, %45 [21] : vector<64xf32> into vector<64x64xf32> loc(#loc24)
    %47 = vector.insert %24#24, %46 [22] : vector<64xf32> into vector<64x64xf32> loc(#loc24)
    %48 = vector.insert %24#25, %47 [23] : vector<64xf32> into vector<64x64xf32> loc(#loc24)
    %49 = vector.insert %24#26, %48 [24] : vector<64xf32> into vector<64x64xf32> loc(#loc24)
    %50 = vector.insert %24#27, %49 [25] : vector<64xf32> into vector<64x64xf32> loc(#loc24)
    %51 = vector.insert %24#28, %50 [26] : vector<64xf32> into vector<64x64xf32> loc(#loc24)
    %52 = vector.insert %24#29, %51 [27] : vector<64xf32> into vector<64x64xf32> loc(#loc24)
    %53 = vector.insert %24#30, %52 [28] : vector<64xf32> into vector<64x64xf32> loc(#loc24)
    %54 = vector.insert %24#31, %53 [29] : vector<64xf32> into vector<64x64xf32> loc(#loc24)
    %55 = vector.insert %24#32, %54 [30] : vector<64xf32> into vector<64x64xf32> loc(#loc24)
    %56 = vector.insert %24#33, %55 [31] : vector<64xf32> into vector<64x64xf32> loc(#loc24)
    %57 = vector.insert %24#34, %56 [32] : vector<64xf32> into vector<64x64xf32> loc(#loc24)
    %58 = vector.insert %24#35, %57 [33] : vector<64xf32> into vector<64x64xf32> loc(#loc24)
    %59 = vector.insert %24#36, %58 [34] : vector<64xf32> into vector<64x64xf32> loc(#loc24)
    %60 = vector.insert %24#37, %59 [35] : vector<64xf32> into vector<64x64xf32> loc(#loc24)
    %61 = vector.insert %24#38, %60 [36] : vector<64xf32> into vector<64x64xf32> loc(#loc24)
    %62 = vector.insert %24#39, %61 [37] : vector<64xf32> into vector<64x64xf32> loc(#loc24)
    %63 = vector.insert %24#40, %62 [38] : vector<64xf32> into vector<64x64xf32> loc(#loc24)
    %64 = vector.insert %24#41, %63 [39] : vector<64xf32> into vector<64x64xf32> loc(#loc24)
    %65 = vector.insert %24#42, %64 [40] : vector<64xf32> into vector<64x64xf32> loc(#loc24)
    %66 = vector.insert %24#43, %65 [41] : vector<64xf32> into vector<64x64xf32> loc(#loc24)
    %67 = vector.insert %24#44, %66 [42] : vector<64xf32> into vector<64x64xf32> loc(#loc24)
    %68 = vector.insert %24#45, %67 [43] : vector<64xf32> into vector<64x64xf32> loc(#loc24)
    %69 = vector.insert %24#46, %68 [44] : vector<64xf32> into vector<64x64xf32> loc(#loc24)
    %70 = vector.insert %24#47, %69 [45] : vector<64xf32> into vector<64x64xf32> loc(#loc24)
    %71 = vector.insert %24#48, %70 [46] : vector<64xf32> into vector<64x64xf32> loc(#loc24)
    %72 = vector.insert %24#49, %71 [47] : vector<64xf32> into vector<64x64xf32> loc(#loc24)
    %73 = vector.insert %24#50, %72 [48] : vector<64xf32> into vector<64x64xf32> loc(#loc24)
    %74 = vector.insert %24#51, %73 [49] : vector<64xf32> into vector<64x64xf32> loc(#loc24)
    %75 = vector.insert %24#52, %74 [50] : vector<64xf32> into vector<64x64xf32> loc(#loc24)
    %76 = vector.insert %24#53, %75 [51] : vector<64xf32> into vector<64x64xf32> loc(#loc24)
    %77 = vector.insert %24#54, %76 [52] : vector<64xf32> into vector<64x64xf32> loc(#loc24)
    %78 = vector.insert %24#55, %77 [53] : vector<64xf32> into vector<64x64xf32> loc(#loc24)
    %79 = vector.insert %24#56, %78 [54] : vector<64xf32> into vector<64x64xf32> loc(#loc24)
    %80 = vector.insert %24#57, %79 [55] : vector<64xf32> into vector<64x64xf32> loc(#loc24)
    %81 = vector.insert %24#58, %80 [56] : vector<64xf32> into vector<64x64xf32> loc(#loc24)
    %82 = vector.insert %24#59, %81 [57] : vector<64xf32> into vector<64x64xf32> loc(#loc24)
    %83 = vector.insert %24#60, %82 [58] : vector<64xf32> into vector<64x64xf32> loc(#loc24)
    %84 = vector.insert %24#61, %83 [59] : vector<64xf32> into vector<64x64xf32> loc(#loc24)
    %85 = vector.insert %24#62, %84 [60] : vector<64xf32> into vector<64x64xf32> loc(#loc24)
    %86 = vector.insert %24#63, %85 [61] : vector<64xf32> into vector<64x64xf32> loc(#loc24)
    %87 = vector.insert %24#64, %86 [62] : vector<64xf32> into vector<64x64xf32> loc(#loc24)
    %88 = vector.insert %24#65, %87 [63] : vector<64xf32> into vector<64x64xf32> loc(#loc24)
    %89 = arith.extsi %arg8 : i32 to i64 loc(#loc28)
    %90 = tt.make_tensor_ptr %arg2, [%16, %20], [%89, %c1_i64], [%14, %15] {order = array<i32: 1, 0>} : <tensor<64x64xf32>> loc(#loc28)
    %91 = triton_cpu.extract_memref %90 : <tensor<64x64xf32>> -> memref<?x?xf32, strided<[?, 1]>> loc(#loc29)
    %92:2 = triton_cpu.extract_indices %90 : <tensor<64x64xf32>> -> index, index loc(#loc29)
    vector.transfer_write %88, %91[%92#0, %92#1] {in_bounds = [true, true]} : vector<64x64xf32>, memref<?x?xf32, strided<[?, 1]>> loc(#loc29)
    tt.return loc(#loc30)
  } loc(#loc)
} loc(#loc)
#loc1 = loc(unknown)
#loc2 = loc("/home/yuhao/T_RVV/benchmark/src/triton/matmul.py":45:24)
#loc3 = loc("/home/yuhao/triton-cpu/python/triton/language/standard.py":40:22)
#loc4 = loc("/home/yuhao/T_RVV/benchmark/src/triton/matmul.py":46:27)
#loc5 = loc("/home/yuhao/triton-cpu/python/triton/language/standard.py":40:28)
#loc6 = loc("/home/yuhao/T_RVV/benchmark/src/triton/matmul.py":47:27)
#loc7 = loc("/home/yuhao/T_RVV/benchmark/src/triton/matmul.py":48:38)
#loc8 = loc("/home/yuhao/T_RVV/benchmark/src/triton/matmul.py":49:22)
#loc9 = loc("/home/yuhao/T_RVV/benchmark/src/triton/matmul.py":50:29)
#loc10 = loc("/home/yuhao/T_RVV/benchmark/src/triton/matmul.py":51:35)
#loc11 = loc("/home/yuhao/T_RVV/benchmark/src/triton/matmul.py":51:48)
#loc12 = loc("/home/yuhao/T_RVV/benchmark/src/triton/matmul.py":52:33)
#loc13 = loc("/home/yuhao/T_RVV/benchmark/src/triton/matmul.py":52:27)
#loc14 = loc("/home/yuhao/T_RVV/benchmark/src/triton/matmul.py":53:19)
#loc15 = loc("/home/yuhao/T_RVV/benchmark/src/triton/matmul.py":53:40)
#loc16 = loc("/home/yuhao/T_RVV/benchmark/src/triton/matmul.py":63:33)
#loc17 = loc("/home/yuhao/T_RVV/benchmark/src/triton/matmul.py":64:33)
#loc18 = loc("/home/yuhao/T_RVV/benchmark/src/triton/matmul.py":67:39)
#loc19 = loc("/home/yuhao/T_RVV/benchmark/src/triton/matmul.py":70:39)
#loc20 = loc("/home/yuhao/T_RVV/benchmark/src/triton/matmul.py":79:33)
#loc21 = loc("/home/yuhao/T_RVV/benchmark/src/triton/matmul.py":79:22)
#loc22 = loc("/home/yuhao/T_RVV/benchmark/src/triton/matmul.py":83:20)
#loc23 = loc("/home/yuhao/T_RVV/benchmark/src/triton/matmul.py":84:20)
#loc24 = loc("/home/yuhao/T_RVV/benchmark/src/triton/matmul.py":86:35)
#loc25 = loc("/home/yuhao/T_RVV/benchmark/src/triton/matmul.py":89:48)
#loc26 = loc("/home/yuhao/T_RVV/benchmark/src/triton/matmul.py":90:48)
#loc27 = loc("/home/yuhao/T_RVV/benchmark/src/triton/matmul.py":88:8)
#loc28 = loc("/home/yuhao/T_RVV/benchmark/src/triton/matmul.py":102:81)
#loc29 = loc("/home/yuhao/T_RVV/benchmark/src/triton/matmul.py":103:29)
#loc30 = loc("/home/yuhao/T_RVV/benchmark/src/triton/matmul.py":99:4)
#loc31 = loc(callsite(#loc3 at #loc4))
#loc32 = loc(callsite(#loc5 at #loc4))
#loc33 = loc(callsite(#loc3 at #loc6))
#loc34 = loc(callsite(#loc5 at #loc6))
#loc35 = loc(callsite(#loc5 at #loc20))
