#loc = loc("/home/yuhao/T_RVV/benchmark/src/triton/matmul.py":24:0)
module {
  tt.func public @matmul_kernel(%arg0: !tt.ptr<f32> {tt.divisibility = 16 : i32} loc("/home/yuhao/T_RVV/benchmark/src/triton/matmul.py":24:0), %arg1: !tt.ptr<f32> {tt.divisibility = 16 : i32} loc("/home/yuhao/T_RVV/benchmark/src/triton/matmul.py":24:0), %arg2: !tt.ptr<f32> {tt.divisibility = 16 : i32} loc("/home/yuhao/T_RVV/benchmark/src/triton/matmul.py":24:0), %arg3: i32 {tt.divisibility = 16 : i32} loc("/home/yuhao/T_RVV/benchmark/src/triton/matmul.py":24:0), %arg4: i32 {tt.divisibility = 16 : i32} loc("/home/yuhao/T_RVV/benchmark/src/triton/matmul.py":24:0), %arg5: i32 {tt.divisibility = 16 : i32} loc("/home/yuhao/T_RVV/benchmark/src/triton/matmul.py":24:0), %arg6: i32 {tt.divisibility = 16 : i32} loc("/home/yuhao/T_RVV/benchmark/src/triton/matmul.py":24:0), %arg7: i32 {tt.divisibility = 16 : i32} loc("/home/yuhao/T_RVV/benchmark/src/triton/matmul.py":24:0), %arg8: i32 {tt.divisibility = 16 : i32} loc("/home/yuhao/T_RVV/benchmark/src/triton/matmul.py":24:0)) attributes {noinline = false} {
    %c127 = arith.constant 127 : index loc(#loc1)
    %c126 = arith.constant 126 : index loc(#loc1)
    %c125 = arith.constant 125 : index loc(#loc1)
    %c124 = arith.constant 124 : index loc(#loc1)
    %c123 = arith.constant 123 : index loc(#loc1)
    %c122 = arith.constant 122 : index loc(#loc1)
    %c121 = arith.constant 121 : index loc(#loc1)
    %c120 = arith.constant 120 : index loc(#loc1)
    %c119 = arith.constant 119 : index loc(#loc1)
    %c118 = arith.constant 118 : index loc(#loc1)
    %c117 = arith.constant 117 : index loc(#loc1)
    %c116 = arith.constant 116 : index loc(#loc1)
    %c115 = arith.constant 115 : index loc(#loc1)
    %c114 = arith.constant 114 : index loc(#loc1)
    %c113 = arith.constant 113 : index loc(#loc1)
    %c112 = arith.constant 112 : index loc(#loc1)
    %c111 = arith.constant 111 : index loc(#loc1)
    %c110 = arith.constant 110 : index loc(#loc1)
    %c109 = arith.constant 109 : index loc(#loc1)
    %c108 = arith.constant 108 : index loc(#loc1)
    %c107 = arith.constant 107 : index loc(#loc1)
    %c106 = arith.constant 106 : index loc(#loc1)
    %c105 = arith.constant 105 : index loc(#loc1)
    %c104 = arith.constant 104 : index loc(#loc1)
    %c103 = arith.constant 103 : index loc(#loc1)
    %c102 = arith.constant 102 : index loc(#loc1)
    %c101 = arith.constant 101 : index loc(#loc1)
    %c100 = arith.constant 100 : index loc(#loc1)
    %c99 = arith.constant 99 : index loc(#loc1)
    %c98 = arith.constant 98 : index loc(#loc1)
    %c97 = arith.constant 97 : index loc(#loc1)
    %c96 = arith.constant 96 : index loc(#loc1)
    %c95 = arith.constant 95 : index loc(#loc1)
    %c94 = arith.constant 94 : index loc(#loc1)
    %c93 = arith.constant 93 : index loc(#loc1)
    %c92 = arith.constant 92 : index loc(#loc1)
    %c91 = arith.constant 91 : index loc(#loc1)
    %c90 = arith.constant 90 : index loc(#loc1)
    %c89 = arith.constant 89 : index loc(#loc1)
    %c88 = arith.constant 88 : index loc(#loc1)
    %c87 = arith.constant 87 : index loc(#loc1)
    %c86 = arith.constant 86 : index loc(#loc1)
    %c85 = arith.constant 85 : index loc(#loc1)
    %c84 = arith.constant 84 : index loc(#loc1)
    %c83 = arith.constant 83 : index loc(#loc1)
    %c82 = arith.constant 82 : index loc(#loc1)
    %c81 = arith.constant 81 : index loc(#loc1)
    %c80 = arith.constant 80 : index loc(#loc1)
    %c79 = arith.constant 79 : index loc(#loc1)
    %c78 = arith.constant 78 : index loc(#loc1)
    %c77 = arith.constant 77 : index loc(#loc1)
    %c76 = arith.constant 76 : index loc(#loc1)
    %c75 = arith.constant 75 : index loc(#loc1)
    %c74 = arith.constant 74 : index loc(#loc1)
    %c73 = arith.constant 73 : index loc(#loc1)
    %c72 = arith.constant 72 : index loc(#loc1)
    %c71 = arith.constant 71 : index loc(#loc1)
    %c70 = arith.constant 70 : index loc(#loc1)
    %c69 = arith.constant 69 : index loc(#loc1)
    %c68 = arith.constant 68 : index loc(#loc1)
    %c67 = arith.constant 67 : index loc(#loc1)
    %c66 = arith.constant 66 : index loc(#loc1)
    %c65 = arith.constant 65 : index loc(#loc1)
    %c64 = arith.constant 64 : index loc(#loc1)
    %cst = arith.constant dense<0.000000e+00> : vector<64xf32> loc(#loc1)
    %c63 = arith.constant 63 : index loc(#loc1)
    %c62 = arith.constant 62 : index loc(#loc1)
    %c61 = arith.constant 61 : index loc(#loc1)
    %c60 = arith.constant 60 : index loc(#loc1)
    %c59 = arith.constant 59 : index loc(#loc1)
    %c58 = arith.constant 58 : index loc(#loc1)
    %c57 = arith.constant 57 : index loc(#loc1)
    %c56 = arith.constant 56 : index loc(#loc1)
    %c55 = arith.constant 55 : index loc(#loc1)
    %c54 = arith.constant 54 : index loc(#loc1)
    %c53 = arith.constant 53 : index loc(#loc1)
    %c52 = arith.constant 52 : index loc(#loc1)
    %c51 = arith.constant 51 : index loc(#loc1)
    %c50 = arith.constant 50 : index loc(#loc1)
    %c49 = arith.constant 49 : index loc(#loc1)
    %c48 = arith.constant 48 : index loc(#loc1)
    %c47 = arith.constant 47 : index loc(#loc1)
    %c46 = arith.constant 46 : index loc(#loc1)
    %c45 = arith.constant 45 : index loc(#loc1)
    %c44 = arith.constant 44 : index loc(#loc1)
    %c43 = arith.constant 43 : index loc(#loc1)
    %c42 = arith.constant 42 : index loc(#loc1)
    %c41 = arith.constant 41 : index loc(#loc1)
    %c40 = arith.constant 40 : index loc(#loc1)
    %c39 = arith.constant 39 : index loc(#loc1)
    %c38 = arith.constant 38 : index loc(#loc1)
    %c37 = arith.constant 37 : index loc(#loc1)
    %c36 = arith.constant 36 : index loc(#loc1)
    %c35 = arith.constant 35 : index loc(#loc1)
    %c34 = arith.constant 34 : index loc(#loc1)
    %c33 = arith.constant 33 : index loc(#loc1)
    %c32 = arith.constant 32 : index loc(#loc1)
    %c31 = arith.constant 31 : index loc(#loc1)
    %c30 = arith.constant 30 : index loc(#loc1)
    %c29 = arith.constant 29 : index loc(#loc1)
    %c28 = arith.constant 28 : index loc(#loc1)
    %c27 = arith.constant 27 : index loc(#loc1)
    %c26 = arith.constant 26 : index loc(#loc1)
    %c25 = arith.constant 25 : index loc(#loc1)
    %c24 = arith.constant 24 : index loc(#loc1)
    %c23 = arith.constant 23 : index loc(#loc1)
    %c22 = arith.constant 22 : index loc(#loc1)
    %c21 = arith.constant 21 : index loc(#loc1)
    %c20 = arith.constant 20 : index loc(#loc1)
    %c19 = arith.constant 19 : index loc(#loc1)
    %c18 = arith.constant 18 : index loc(#loc1)
    %c17 = arith.constant 17 : index loc(#loc1)
    %c16 = arith.constant 16 : index loc(#loc1)
    %c15 = arith.constant 15 : index loc(#loc1)
    %c14 = arith.constant 14 : index loc(#loc1)
    %c13 = arith.constant 13 : index loc(#loc1)
    %c12 = arith.constant 12 : index loc(#loc1)
    %c11 = arith.constant 11 : index loc(#loc1)
    %c10 = arith.constant 10 : index loc(#loc1)
    %c9 = arith.constant 9 : index loc(#loc1)
    %c8 = arith.constant 8 : index loc(#loc1)
    %c7 = arith.constant 7 : index loc(#loc1)
    %c6 = arith.constant 6 : index loc(#loc1)
    %c5 = arith.constant 5 : index loc(#loc1)
    %c4 = arith.constant 4 : index loc(#loc1)
    %c3 = arith.constant 3 : index loc(#loc1)
    %c2 = arith.constant 2 : index loc(#loc1)
    %c1 = arith.constant 1 : index loc(#loc1)
    %cst_0 = arith.constant dense<0.000000e+00> : vector<8x64xf32> loc(#loc1)
    %c63_i32 = arith.constant 63 : i32 loc(#loc1)
    %c7_i32 = arith.constant 7 : i32 loc(#loc1)
    %c1_i32 = arith.constant 1 : i32 loc(#loc1)
    %c0_i32 = arith.constant 0 : i32 loc(#loc1)
    %c1_i64 = arith.constant 1 : i64 loc(#loc1)
    %c64_i32 = arith.constant 64 : i32 loc(#loc1)
    %c8_i32 = arith.constant 8 : i32 loc(#loc1)
    %0 = tt.get_program_id x : i32 loc(#loc2)
    %1 = arith.addi %arg3, %c7_i32 : i32 loc(#loc31)
    %2 = arith.divsi %1, %c8_i32 : i32 loc(#loc32)
    %3 = arith.addi %arg4, %c63_i32 : i32 loc(#loc33)
    %4 = arith.divsi %3, %c64_i32 : i32 loc(#loc34)
    %5 = arith.muli %4, %c8_i32 : i32 loc(#loc7)
    %6 = arith.divsi %0, %5 : i32 loc(#loc8)
    %7 = arith.muli %6, %c8_i32 : i32 loc(#loc9)
    %8 = arith.subi %2, %7 : i32 loc(#loc10)
    %9 = arith.minsi %8, %c8_i32 : i32 loc(#loc11)
    %10 = arith.remsi %0, %9 : i32 loc(#loc12)
    %11 = arith.addi %7, %10 : i32 loc(#loc13)
    %12 = arith.remsi %0, %5 : i32 loc(#loc14)
    %13 = arith.divsi %12, %9 : i32 loc(#loc15)
    %14 = arith.muli %11, %c8_i32 : i32 loc(#loc16)
    %15 = arith.muli %13, %c64_i32 : i32 loc(#loc17)
    %16 = arith.extsi %arg3 : i32 to i64 loc(#loc18)
    %17 = arith.extsi %arg5 : i32 to i64 loc(#loc18)
    %18 = arith.extsi %arg6 : i32 to i64 loc(#loc18)
    %19 = tt.make_tensor_ptr %arg0, [%16, %17], [%18, %c1_i64], [%14, %c0_i32] {order = array<i32: 1, 0>} : <tensor<8x64xf32>> loc(#loc18)
    %20 = arith.extsi %arg4 : i32 to i64 loc(#loc19)
    %21 = arith.extsi %arg7 : i32 to i64 loc(#loc19)
    %22 = tt.make_tensor_ptr %arg1, [%17, %20], [%21, %c1_i64], [%c0_i32, %15] {order = array<i32: 1, 0>} : <tensor<64x64xf32>> loc(#loc19)
    %23 = arith.addi %arg5, %c63_i32 : i32 loc(#loc35)
    %24 = arith.divsi %23, %c64_i32 : i32 loc(#loc36)
    %25:10 = scf.for %arg9 = %c0_i32 to %24 step %c1_i32 iter_args(%arg10 = %19, %arg11 = %22, %arg12 = %cst, %arg13 = %cst, %arg14 = %cst, %arg15 = %cst, %arg16 = %cst, %arg17 = %cst, %arg18 = %cst, %arg19 = %cst) -> (!tt.ptr<tensor<8x64xf32>>, !tt.ptr<tensor<64x64xf32>>, vector<64xf32>, vector<64xf32>, vector<64xf32>, vector<64xf32>, vector<64xf32>, vector<64xf32>, vector<64xf32>, vector<64xf32>)  : i32 {
      %38 = triton_cpu.extract_memref %arg10 : <tensor<8x64xf32>> -> memref<?x?xf32, strided<[?, 1]>> loc(#loc22)
      %39:2 = triton_cpu.extract_indices %arg10 : <tensor<8x64xf32>> -> index, index loc(#loc22)
      %40 = triton_cpu.extract_memref %arg11 : <tensor<64x64xf32>> -> memref<?x?xf32, strided<[?, 1]>> loc(#loc23)
      %41:2 = triton_cpu.extract_indices %arg11 : <tensor<64x64xf32>> -> index, index loc(#loc23)
      %42 = arith.addi %39#1, %c64 : index loc(#loc24)
      %43 = arith.addi %41#0, %c64 : index loc(#loc24)
      %44 = vector.load %40[%41#0, %41#1] : memref<?x?xf32, strided<[?, 1]>>, vector<64xf32> loc(#loc24)
      %45 = arith.addi %41#0, %c1 : index loc(#loc24)
      %46 = vector.load %40[%45, %41#1] : memref<?x?xf32, strided<[?, 1]>>, vector<64xf32> loc(#loc24)
      memref.prefetch %40[%43, %41#1], read, locality<1>, data : memref<?x?xf32, strided<[?, 1]>> loc(#loc24)
      %47 = memref.load %38[%39#0, %39#1] : memref<?x?xf32, strided<[?, 1]>> loc(#loc24)
      %48 = vector.broadcast %47 : f32 to vector<64xf32> loc(#loc24)
      %49 = arith.addi %39#0, %c1 : index loc(#loc24)
      %50 = memref.load %38[%49, %39#1] : memref<?x?xf32, strided<[?, 1]>> loc(#loc24)
      %51 = vector.broadcast %50 : f32 to vector<64xf32> loc(#loc24)
      memref.prefetch %38[%39#0, %42], read, locality<3>, data : memref<?x?xf32, strided<[?, 1]>> loc(#loc24)
      %52 = vector.fma %44, %48, %arg12 : vector<64xf32> loc(#loc24)
      %53 = arith.addi %39#0, %c2 : index loc(#loc24)
      %54 = memref.load %38[%53, %39#1] : memref<?x?xf32, strided<[?, 1]>> loc(#loc24)
      %55 = vector.broadcast %54 : f32 to vector<64xf32> loc(#loc24)
      memref.prefetch %38[%49, %42], read, locality<3>, data : memref<?x?xf32, strided<[?, 1]>> loc(#loc24)
      %56 = vector.fma %44, %51, %arg13 : vector<64xf32> loc(#loc24)
      %57 = arith.addi %39#0, %c3 : index loc(#loc24)
      %58 = memref.load %38[%57, %39#1] : memref<?x?xf32, strided<[?, 1]>> loc(#loc24)
      %59 = vector.broadcast %58 : f32 to vector<64xf32> loc(#loc24)
      memref.prefetch %38[%53, %42], read, locality<3>, data : memref<?x?xf32, strided<[?, 1]>> loc(#loc24)
      %60 = vector.fma %44, %55, %arg14 : vector<64xf32> loc(#loc24)
      %61 = arith.addi %39#0, %c4 : index loc(#loc24)
      %62 = memref.load %38[%61, %39#1] : memref<?x?xf32, strided<[?, 1]>> loc(#loc24)
      %63 = vector.broadcast %62 : f32 to vector<64xf32> loc(#loc24)
      memref.prefetch %38[%57, %42], read, locality<3>, data : memref<?x?xf32, strided<[?, 1]>> loc(#loc24)
      %64 = vector.fma %44, %59, %arg15 : vector<64xf32> loc(#loc24)
      %65 = arith.addi %39#0, %c5 : index loc(#loc24)
      %66 = memref.load %38[%65, %39#1] : memref<?x?xf32, strided<[?, 1]>> loc(#loc24)
      %67 = vector.broadcast %66 : f32 to vector<64xf32> loc(#loc24)
      memref.prefetch %38[%61, %42], read, locality<3>, data : memref<?x?xf32, strided<[?, 1]>> loc(#loc24)
      %68 = vector.fma %44, %63, %arg16 : vector<64xf32> loc(#loc24)
      %69 = arith.addi %39#0, %c6 : index loc(#loc24)
      %70 = memref.load %38[%69, %39#1] : memref<?x?xf32, strided<[?, 1]>> loc(#loc24)
      %71 = vector.broadcast %70 : f32 to vector<64xf32> loc(#loc24)
      memref.prefetch %38[%65, %42], read, locality<3>, data : memref<?x?xf32, strided<[?, 1]>> loc(#loc24)
      %72 = vector.fma %44, %67, %arg17 : vector<64xf32> loc(#loc24)
      %73 = arith.addi %39#0, %c7 : index loc(#loc24)
      %74 = memref.load %38[%73, %39#1] : memref<?x?xf32, strided<[?, 1]>> loc(#loc24)
      %75 = vector.broadcast %74 : f32 to vector<64xf32> loc(#loc24)
      memref.prefetch %38[%69, %42], read, locality<3>, data : memref<?x?xf32, strided<[?, 1]>> loc(#loc24)
      %76 = vector.fma %44, %71, %arg18 : vector<64xf32> loc(#loc24)
      memref.prefetch %38[%73, %42], read, locality<3>, data : memref<?x?xf32, strided<[?, 1]>> loc(#loc24)
      %77 = vector.fma %44, %75, %arg19 : vector<64xf32> loc(#loc24)
      %78 = arith.addi %41#0, %c2 : index loc(#loc24)
      %79 = vector.load %40[%78, %41#1] : memref<?x?xf32, strided<[?, 1]>>, vector<64xf32> loc(#loc24)
      %80 = arith.addi %41#0, %c65 : index loc(#loc24)
      memref.prefetch %40[%80, %41#1], read, locality<1>, data : memref<?x?xf32, strided<[?, 1]>> loc(#loc24)
      %81 = arith.addi %39#1, %c1 : index loc(#loc24)
      %82 = memref.load %38[%39#0, %81] : memref<?x?xf32, strided<[?, 1]>> loc(#loc24)
      %83 = vector.broadcast %82 : f32 to vector<64xf32> loc(#loc24)
      %84 = memref.load %38[%49, %81] : memref<?x?xf32, strided<[?, 1]>> loc(#loc24)
      %85 = vector.broadcast %84 : f32 to vector<64xf32> loc(#loc24)
      %86 = vector.fma %46, %83, %52 : vector<64xf32> loc(#loc24)
      %87 = memref.load %38[%53, %81] : memref<?x?xf32, strided<[?, 1]>> loc(#loc24)
      %88 = vector.broadcast %87 : f32 to vector<64xf32> loc(#loc24)
      %89 = vector.fma %46, %85, %56 : vector<64xf32> loc(#loc24)
      %90 = memref.load %38[%57, %81] : memref<?x?xf32, strided<[?, 1]>> loc(#loc24)
      %91 = vector.broadcast %90 : f32 to vector<64xf32> loc(#loc24)
      %92 = vector.fma %46, %88, %60 : vector<64xf32> loc(#loc24)
      %93 = memref.load %38[%61, %81] : memref<?x?xf32, strided<[?, 1]>> loc(#loc24)
      %94 = vector.broadcast %93 : f32 to vector<64xf32> loc(#loc24)
      %95 = vector.fma %46, %91, %64 : vector<64xf32> loc(#loc24)
      %96 = memref.load %38[%65, %81] : memref<?x?xf32, strided<[?, 1]>> loc(#loc24)
      %97 = vector.broadcast %96 : f32 to vector<64xf32> loc(#loc24)
      %98 = vector.fma %46, %94, %68 : vector<64xf32> loc(#loc24)
      %99 = memref.load %38[%69, %81] : memref<?x?xf32, strided<[?, 1]>> loc(#loc24)
      %100 = vector.broadcast %99 : f32 to vector<64xf32> loc(#loc24)
      %101 = vector.fma %46, %97, %72 : vector<64xf32> loc(#loc24)
      %102 = memref.load %38[%73, %81] : memref<?x?xf32, strided<[?, 1]>> loc(#loc24)
      %103 = vector.broadcast %102 : f32 to vector<64xf32> loc(#loc24)
      %104 = vector.fma %46, %100, %76 : vector<64xf32> loc(#loc24)
      %105 = vector.fma %46, %103, %77 : vector<64xf32> loc(#loc24)
      %106 = arith.addi %41#0, %c3 : index loc(#loc24)
      %107 = vector.load %40[%106, %41#1] : memref<?x?xf32, strided<[?, 1]>>, vector<64xf32> loc(#loc24)
      %108 = arith.addi %41#0, %c66 : index loc(#loc24)
      memref.prefetch %40[%108, %41#1], read, locality<1>, data : memref<?x?xf32, strided<[?, 1]>> loc(#loc24)
      %109 = arith.addi %39#1, %c2 : index loc(#loc24)
      %110 = memref.load %38[%39#0, %109] : memref<?x?xf32, strided<[?, 1]>> loc(#loc24)
      %111 = vector.broadcast %110 : f32 to vector<64xf32> loc(#loc24)
      %112 = memref.load %38[%49, %109] : memref<?x?xf32, strided<[?, 1]>> loc(#loc24)
      %113 = vector.broadcast %112 : f32 to vector<64xf32> loc(#loc24)
      %114 = vector.fma %79, %111, %86 : vector<64xf32> loc(#loc24)
      %115 = memref.load %38[%53, %109] : memref<?x?xf32, strided<[?, 1]>> loc(#loc24)
      %116 = vector.broadcast %115 : f32 to vector<64xf32> loc(#loc24)
      %117 = vector.fma %79, %113, %89 : vector<64xf32> loc(#loc24)
      %118 = memref.load %38[%57, %109] : memref<?x?xf32, strided<[?, 1]>> loc(#loc24)
      %119 = vector.broadcast %118 : f32 to vector<64xf32> loc(#loc24)
      %120 = vector.fma %79, %116, %92 : vector<64xf32> loc(#loc24)
      %121 = memref.load %38[%61, %109] : memref<?x?xf32, strided<[?, 1]>> loc(#loc24)
      %122 = vector.broadcast %121 : f32 to vector<64xf32> loc(#loc24)
      %123 = vector.fma %79, %119, %95 : vector<64xf32> loc(#loc24)
      %124 = memref.load %38[%65, %109] : memref<?x?xf32, strided<[?, 1]>> loc(#loc24)
      %125 = vector.broadcast %124 : f32 to vector<64xf32> loc(#loc24)
      %126 = vector.fma %79, %122, %98 : vector<64xf32> loc(#loc24)
      %127 = memref.load %38[%69, %109] : memref<?x?xf32, strided<[?, 1]>> loc(#loc24)
      %128 = vector.broadcast %127 : f32 to vector<64xf32> loc(#loc24)
      %129 = vector.fma %79, %125, %101 : vector<64xf32> loc(#loc24)
      %130 = memref.load %38[%73, %109] : memref<?x?xf32, strided<[?, 1]>> loc(#loc24)
      %131 = vector.broadcast %130 : f32 to vector<64xf32> loc(#loc24)
      %132 = vector.fma %79, %128, %104 : vector<64xf32> loc(#loc24)
      %133 = vector.fma %79, %131, %105 : vector<64xf32> loc(#loc24)
      %134 = arith.addi %41#0, %c4 : index loc(#loc24)
      %135 = vector.load %40[%134, %41#1] : memref<?x?xf32, strided<[?, 1]>>, vector<64xf32> loc(#loc24)
      %136 = arith.addi %41#0, %c67 : index loc(#loc24)
      memref.prefetch %40[%136, %41#1], read, locality<1>, data : memref<?x?xf32, strided<[?, 1]>> loc(#loc24)
      %137 = arith.addi %39#1, %c3 : index loc(#loc24)
      %138 = memref.load %38[%39#0, %137] : memref<?x?xf32, strided<[?, 1]>> loc(#loc24)
      %139 = vector.broadcast %138 : f32 to vector<64xf32> loc(#loc24)
      %140 = memref.load %38[%49, %137] : memref<?x?xf32, strided<[?, 1]>> loc(#loc24)
      %141 = vector.broadcast %140 : f32 to vector<64xf32> loc(#loc24)
      %142 = vector.fma %107, %139, %114 : vector<64xf32> loc(#loc24)
      %143 = memref.load %38[%53, %137] : memref<?x?xf32, strided<[?, 1]>> loc(#loc24)
      %144 = vector.broadcast %143 : f32 to vector<64xf32> loc(#loc24)
      %145 = vector.fma %107, %141, %117 : vector<64xf32> loc(#loc24)
      %146 = memref.load %38[%57, %137] : memref<?x?xf32, strided<[?, 1]>> loc(#loc24)
      %147 = vector.broadcast %146 : f32 to vector<64xf32> loc(#loc24)
      %148 = vector.fma %107, %144, %120 : vector<64xf32> loc(#loc24)
      %149 = memref.load %38[%61, %137] : memref<?x?xf32, strided<[?, 1]>> loc(#loc24)
      %150 = vector.broadcast %149 : f32 to vector<64xf32> loc(#loc24)
      %151 = vector.fma %107, %147, %123 : vector<64xf32> loc(#loc24)
      %152 = memref.load %38[%65, %137] : memref<?x?xf32, strided<[?, 1]>> loc(#loc24)
      %153 = vector.broadcast %152 : f32 to vector<64xf32> loc(#loc24)
      %154 = vector.fma %107, %150, %126 : vector<64xf32> loc(#loc24)
      %155 = memref.load %38[%69, %137] : memref<?x?xf32, strided<[?, 1]>> loc(#loc24)
      %156 = vector.broadcast %155 : f32 to vector<64xf32> loc(#loc24)
      %157 = vector.fma %107, %153, %129 : vector<64xf32> loc(#loc24)
      %158 = memref.load %38[%73, %137] : memref<?x?xf32, strided<[?, 1]>> loc(#loc24)
      %159 = vector.broadcast %158 : f32 to vector<64xf32> loc(#loc24)
      %160 = vector.fma %107, %156, %132 : vector<64xf32> loc(#loc24)
      %161 = vector.fma %107, %159, %133 : vector<64xf32> loc(#loc24)
      %162 = arith.addi %41#0, %c5 : index loc(#loc24)
      %163 = vector.load %40[%162, %41#1] : memref<?x?xf32, strided<[?, 1]>>, vector<64xf32> loc(#loc24)
      %164 = arith.addi %41#0, %c68 : index loc(#loc24)
      memref.prefetch %40[%164, %41#1], read, locality<1>, data : memref<?x?xf32, strided<[?, 1]>> loc(#loc24)
      %165 = arith.addi %39#1, %c4 : index loc(#loc24)
      %166 = memref.load %38[%39#0, %165] : memref<?x?xf32, strided<[?, 1]>> loc(#loc24)
      %167 = vector.broadcast %166 : f32 to vector<64xf32> loc(#loc24)
      %168 = memref.load %38[%49, %165] : memref<?x?xf32, strided<[?, 1]>> loc(#loc24)
      %169 = vector.broadcast %168 : f32 to vector<64xf32> loc(#loc24)
      %170 = vector.fma %135, %167, %142 : vector<64xf32> loc(#loc24)
      %171 = memref.load %38[%53, %165] : memref<?x?xf32, strided<[?, 1]>> loc(#loc24)
      %172 = vector.broadcast %171 : f32 to vector<64xf32> loc(#loc24)
      %173 = vector.fma %135, %169, %145 : vector<64xf32> loc(#loc24)
      %174 = memref.load %38[%57, %165] : memref<?x?xf32, strided<[?, 1]>> loc(#loc24)
      %175 = vector.broadcast %174 : f32 to vector<64xf32> loc(#loc24)
      %176 = vector.fma %135, %172, %148 : vector<64xf32> loc(#loc24)
      %177 = memref.load %38[%61, %165] : memref<?x?xf32, strided<[?, 1]>> loc(#loc24)
      %178 = vector.broadcast %177 : f32 to vector<64xf32> loc(#loc24)
      %179 = vector.fma %135, %175, %151 : vector<64xf32> loc(#loc24)
      %180 = memref.load %38[%65, %165] : memref<?x?xf32, strided<[?, 1]>> loc(#loc24)
      %181 = vector.broadcast %180 : f32 to vector<64xf32> loc(#loc24)
      %182 = vector.fma %135, %178, %154 : vector<64xf32> loc(#loc24)
      %183 = memref.load %38[%69, %165] : memref<?x?xf32, strided<[?, 1]>> loc(#loc24)
      %184 = vector.broadcast %183 : f32 to vector<64xf32> loc(#loc24)
      %185 = vector.fma %135, %181, %157 : vector<64xf32> loc(#loc24)
      %186 = memref.load %38[%73, %165] : memref<?x?xf32, strided<[?, 1]>> loc(#loc24)
      %187 = vector.broadcast %186 : f32 to vector<64xf32> loc(#loc24)
      %188 = vector.fma %135, %184, %160 : vector<64xf32> loc(#loc24)
      %189 = vector.fma %135, %187, %161 : vector<64xf32> loc(#loc24)
      %190 = arith.addi %41#0, %c6 : index loc(#loc24)
      %191 = vector.load %40[%190, %41#1] : memref<?x?xf32, strided<[?, 1]>>, vector<64xf32> loc(#loc24)
      %192 = arith.addi %41#0, %c69 : index loc(#loc24)
      memref.prefetch %40[%192, %41#1], read, locality<1>, data : memref<?x?xf32, strided<[?, 1]>> loc(#loc24)
      %193 = arith.addi %39#1, %c5 : index loc(#loc24)
      %194 = memref.load %38[%39#0, %193] : memref<?x?xf32, strided<[?, 1]>> loc(#loc24)
      %195 = vector.broadcast %194 : f32 to vector<64xf32> loc(#loc24)
      %196 = memref.load %38[%49, %193] : memref<?x?xf32, strided<[?, 1]>> loc(#loc24)
      %197 = vector.broadcast %196 : f32 to vector<64xf32> loc(#loc24)
      %198 = vector.fma %163, %195, %170 : vector<64xf32> loc(#loc24)
      %199 = memref.load %38[%53, %193] : memref<?x?xf32, strided<[?, 1]>> loc(#loc24)
      %200 = vector.broadcast %199 : f32 to vector<64xf32> loc(#loc24)
      %201 = vector.fma %163, %197, %173 : vector<64xf32> loc(#loc24)
      %202 = memref.load %38[%57, %193] : memref<?x?xf32, strided<[?, 1]>> loc(#loc24)
      %203 = vector.broadcast %202 : f32 to vector<64xf32> loc(#loc24)
      %204 = vector.fma %163, %200, %176 : vector<64xf32> loc(#loc24)
      %205 = memref.load %38[%61, %193] : memref<?x?xf32, strided<[?, 1]>> loc(#loc24)
      %206 = vector.broadcast %205 : f32 to vector<64xf32> loc(#loc24)
      %207 = vector.fma %163, %203, %179 : vector<64xf32> loc(#loc24)
      %208 = memref.load %38[%65, %193] : memref<?x?xf32, strided<[?, 1]>> loc(#loc24)
      %209 = vector.broadcast %208 : f32 to vector<64xf32> loc(#loc24)
      %210 = vector.fma %163, %206, %182 : vector<64xf32> loc(#loc24)
      %211 = memref.load %38[%69, %193] : memref<?x?xf32, strided<[?, 1]>> loc(#loc24)
      %212 = vector.broadcast %211 : f32 to vector<64xf32> loc(#loc24)
      %213 = vector.fma %163, %209, %185 : vector<64xf32> loc(#loc24)
      %214 = memref.load %38[%73, %193] : memref<?x?xf32, strided<[?, 1]>> loc(#loc24)
      %215 = vector.broadcast %214 : f32 to vector<64xf32> loc(#loc24)
      %216 = vector.fma %163, %212, %188 : vector<64xf32> loc(#loc24)
      %217 = vector.fma %163, %215, %189 : vector<64xf32> loc(#loc24)
      %218 = arith.addi %41#0, %c7 : index loc(#loc24)
      %219 = vector.load %40[%218, %41#1] : memref<?x?xf32, strided<[?, 1]>>, vector<64xf32> loc(#loc24)
      %220 = arith.addi %41#0, %c70 : index loc(#loc24)
      memref.prefetch %40[%220, %41#1], read, locality<1>, data : memref<?x?xf32, strided<[?, 1]>> loc(#loc24)
      %221 = arith.addi %39#1, %c6 : index loc(#loc24)
      %222 = memref.load %38[%39#0, %221] : memref<?x?xf32, strided<[?, 1]>> loc(#loc24)
      %223 = vector.broadcast %222 : f32 to vector<64xf32> loc(#loc24)
      %224 = memref.load %38[%49, %221] : memref<?x?xf32, strided<[?, 1]>> loc(#loc24)
      %225 = vector.broadcast %224 : f32 to vector<64xf32> loc(#loc24)
      %226 = vector.fma %191, %223, %198 : vector<64xf32> loc(#loc24)
      %227 = memref.load %38[%53, %221] : memref<?x?xf32, strided<[?, 1]>> loc(#loc24)
      %228 = vector.broadcast %227 : f32 to vector<64xf32> loc(#loc24)
      %229 = vector.fma %191, %225, %201 : vector<64xf32> loc(#loc24)
      %230 = memref.load %38[%57, %221] : memref<?x?xf32, strided<[?, 1]>> loc(#loc24)
      %231 = vector.broadcast %230 : f32 to vector<64xf32> loc(#loc24)
      %232 = vector.fma %191, %228, %204 : vector<64xf32> loc(#loc24)
      %233 = memref.load %38[%61, %221] : memref<?x?xf32, strided<[?, 1]>> loc(#loc24)
      %234 = vector.broadcast %233 : f32 to vector<64xf32> loc(#loc24)
      %235 = vector.fma %191, %231, %207 : vector<64xf32> loc(#loc24)
      %236 = memref.load %38[%65, %221] : memref<?x?xf32, strided<[?, 1]>> loc(#loc24)
      %237 = vector.broadcast %236 : f32 to vector<64xf32> loc(#loc24)
      %238 = vector.fma %191, %234, %210 : vector<64xf32> loc(#loc24)
      %239 = memref.load %38[%69, %221] : memref<?x?xf32, strided<[?, 1]>> loc(#loc24)
      %240 = vector.broadcast %239 : f32 to vector<64xf32> loc(#loc24)
      %241 = vector.fma %191, %237, %213 : vector<64xf32> loc(#loc24)
      %242 = memref.load %38[%73, %221] : memref<?x?xf32, strided<[?, 1]>> loc(#loc24)
      %243 = vector.broadcast %242 : f32 to vector<64xf32> loc(#loc24)
      %244 = vector.fma %191, %240, %216 : vector<64xf32> loc(#loc24)
      %245 = vector.fma %191, %243, %217 : vector<64xf32> loc(#loc24)
      %246 = arith.addi %41#0, %c8 : index loc(#loc24)
      %247 = vector.load %40[%246, %41#1] : memref<?x?xf32, strided<[?, 1]>>, vector<64xf32> loc(#loc24)
      %248 = arith.addi %41#0, %c71 : index loc(#loc24)
      memref.prefetch %40[%248, %41#1], read, locality<1>, data : memref<?x?xf32, strided<[?, 1]>> loc(#loc24)
      %249 = arith.addi %39#1, %c7 : index loc(#loc24)
      %250 = memref.load %38[%39#0, %249] : memref<?x?xf32, strided<[?, 1]>> loc(#loc24)
      %251 = vector.broadcast %250 : f32 to vector<64xf32> loc(#loc24)
      %252 = memref.load %38[%49, %249] : memref<?x?xf32, strided<[?, 1]>> loc(#loc24)
      %253 = vector.broadcast %252 : f32 to vector<64xf32> loc(#loc24)
      %254 = vector.fma %219, %251, %226 : vector<64xf32> loc(#loc24)
      %255 = memref.load %38[%53, %249] : memref<?x?xf32, strided<[?, 1]>> loc(#loc24)
      %256 = vector.broadcast %255 : f32 to vector<64xf32> loc(#loc24)
      %257 = vector.fma %219, %253, %229 : vector<64xf32> loc(#loc24)
      %258 = memref.load %38[%57, %249] : memref<?x?xf32, strided<[?, 1]>> loc(#loc24)
      %259 = vector.broadcast %258 : f32 to vector<64xf32> loc(#loc24)
      %260 = vector.fma %219, %256, %232 : vector<64xf32> loc(#loc24)
      %261 = memref.load %38[%61, %249] : memref<?x?xf32, strided<[?, 1]>> loc(#loc24)
      %262 = vector.broadcast %261 : f32 to vector<64xf32> loc(#loc24)
      %263 = vector.fma %219, %259, %235 : vector<64xf32> loc(#loc24)
      %264 = memref.load %38[%65, %249] : memref<?x?xf32, strided<[?, 1]>> loc(#loc24)
      %265 = vector.broadcast %264 : f32 to vector<64xf32> loc(#loc24)
      %266 = vector.fma %219, %262, %238 : vector<64xf32> loc(#loc24)
      %267 = memref.load %38[%69, %249] : memref<?x?xf32, strided<[?, 1]>> loc(#loc24)
      %268 = vector.broadcast %267 : f32 to vector<64xf32> loc(#loc24)
      %269 = vector.fma %219, %265, %241 : vector<64xf32> loc(#loc24)
      %270 = memref.load %38[%73, %249] : memref<?x?xf32, strided<[?, 1]>> loc(#loc24)
      %271 = vector.broadcast %270 : f32 to vector<64xf32> loc(#loc24)
      %272 = vector.fma %219, %268, %244 : vector<64xf32> loc(#loc24)
      %273 = vector.fma %219, %271, %245 : vector<64xf32> loc(#loc24)
      %274 = arith.addi %41#0, %c9 : index loc(#loc24)
      %275 = vector.load %40[%274, %41#1] : memref<?x?xf32, strided<[?, 1]>>, vector<64xf32> loc(#loc24)
      %276 = arith.addi %41#0, %c72 : index loc(#loc24)
      memref.prefetch %40[%276, %41#1], read, locality<1>, data : memref<?x?xf32, strided<[?, 1]>> loc(#loc24)
      %277 = arith.addi %39#1, %c8 : index loc(#loc24)
      %278 = memref.load %38[%39#0, %277] : memref<?x?xf32, strided<[?, 1]>> loc(#loc24)
      %279 = vector.broadcast %278 : f32 to vector<64xf32> loc(#loc24)
      %280 = memref.load %38[%49, %277] : memref<?x?xf32, strided<[?, 1]>> loc(#loc24)
      %281 = vector.broadcast %280 : f32 to vector<64xf32> loc(#loc24)
      %282 = arith.addi %39#1, %c72 : index loc(#loc24)
      memref.prefetch %38[%39#0, %282], read, locality<3>, data : memref<?x?xf32, strided<[?, 1]>> loc(#loc24)
      %283 = vector.fma %247, %279, %254 : vector<64xf32> loc(#loc24)
      %284 = memref.load %38[%53, %277] : memref<?x?xf32, strided<[?, 1]>> loc(#loc24)
      %285 = vector.broadcast %284 : f32 to vector<64xf32> loc(#loc24)
      memref.prefetch %38[%49, %282], read, locality<3>, data : memref<?x?xf32, strided<[?, 1]>> loc(#loc24)
      %286 = vector.fma %247, %281, %257 : vector<64xf32> loc(#loc24)
      %287 = memref.load %38[%57, %277] : memref<?x?xf32, strided<[?, 1]>> loc(#loc24)
      %288 = vector.broadcast %287 : f32 to vector<64xf32> loc(#loc24)
      memref.prefetch %38[%53, %282], read, locality<3>, data : memref<?x?xf32, strided<[?, 1]>> loc(#loc24)
      %289 = vector.fma %247, %285, %260 : vector<64xf32> loc(#loc24)
      %290 = memref.load %38[%61, %277] : memref<?x?xf32, strided<[?, 1]>> loc(#loc24)
      %291 = vector.broadcast %290 : f32 to vector<64xf32> loc(#loc24)
      memref.prefetch %38[%57, %282], read, locality<3>, data : memref<?x?xf32, strided<[?, 1]>> loc(#loc24)
      %292 = vector.fma %247, %288, %263 : vector<64xf32> loc(#loc24)
      %293 = memref.load %38[%65, %277] : memref<?x?xf32, strided<[?, 1]>> loc(#loc24)
      %294 = vector.broadcast %293 : f32 to vector<64xf32> loc(#loc24)
      memref.prefetch %38[%61, %282], read, locality<3>, data : memref<?x?xf32, strided<[?, 1]>> loc(#loc24)
      %295 = vector.fma %247, %291, %266 : vector<64xf32> loc(#loc24)
      %296 = memref.load %38[%69, %277] : memref<?x?xf32, strided<[?, 1]>> loc(#loc24)
      %297 = vector.broadcast %296 : f32 to vector<64xf32> loc(#loc24)
      memref.prefetch %38[%65, %282], read, locality<3>, data : memref<?x?xf32, strided<[?, 1]>> loc(#loc24)
      %298 = vector.fma %247, %294, %269 : vector<64xf32> loc(#loc24)
      %299 = memref.load %38[%73, %277] : memref<?x?xf32, strided<[?, 1]>> loc(#loc24)
      %300 = vector.broadcast %299 : f32 to vector<64xf32> loc(#loc24)
      memref.prefetch %38[%69, %282], read, locality<3>, data : memref<?x?xf32, strided<[?, 1]>> loc(#loc24)
      %301 = vector.fma %247, %297, %272 : vector<64xf32> loc(#loc24)
      memref.prefetch %38[%73, %282], read, locality<3>, data : memref<?x?xf32, strided<[?, 1]>> loc(#loc24)
      %302 = vector.fma %247, %300, %273 : vector<64xf32> loc(#loc24)
      %303 = arith.addi %41#0, %c10 : index loc(#loc24)
      %304 = vector.load %40[%303, %41#1] : memref<?x?xf32, strided<[?, 1]>>, vector<64xf32> loc(#loc24)
      %305 = arith.addi %41#0, %c73 : index loc(#loc24)
      memref.prefetch %40[%305, %41#1], read, locality<1>, data : memref<?x?xf32, strided<[?, 1]>> loc(#loc24)
      %306 = arith.addi %39#1, %c9 : index loc(#loc24)
      %307 = memref.load %38[%39#0, %306] : memref<?x?xf32, strided<[?, 1]>> loc(#loc24)
      %308 = vector.broadcast %307 : f32 to vector<64xf32> loc(#loc24)
      %309 = memref.load %38[%49, %306] : memref<?x?xf32, strided<[?, 1]>> loc(#loc24)
      %310 = vector.broadcast %309 : f32 to vector<64xf32> loc(#loc24)
      %311 = vector.fma %275, %308, %283 : vector<64xf32> loc(#loc24)
      %312 = memref.load %38[%53, %306] : memref<?x?xf32, strided<[?, 1]>> loc(#loc24)
      %313 = vector.broadcast %312 : f32 to vector<64xf32> loc(#loc24)
      %314 = vector.fma %275, %310, %286 : vector<64xf32> loc(#loc24)
      %315 = memref.load %38[%57, %306] : memref<?x?xf32, strided<[?, 1]>> loc(#loc24)
      %316 = vector.broadcast %315 : f32 to vector<64xf32> loc(#loc24)
      %317 = vector.fma %275, %313, %289 : vector<64xf32> loc(#loc24)
      %318 = memref.load %38[%61, %306] : memref<?x?xf32, strided<[?, 1]>> loc(#loc24)
      %319 = vector.broadcast %318 : f32 to vector<64xf32> loc(#loc24)
      %320 = vector.fma %275, %316, %292 : vector<64xf32> loc(#loc24)
      %321 = memref.load %38[%65, %306] : memref<?x?xf32, strided<[?, 1]>> loc(#loc24)
      %322 = vector.broadcast %321 : f32 to vector<64xf32> loc(#loc24)
      %323 = vector.fma %275, %319, %295 : vector<64xf32> loc(#loc24)
      %324 = memref.load %38[%69, %306] : memref<?x?xf32, strided<[?, 1]>> loc(#loc24)
      %325 = vector.broadcast %324 : f32 to vector<64xf32> loc(#loc24)
      %326 = vector.fma %275, %322, %298 : vector<64xf32> loc(#loc24)
      %327 = memref.load %38[%73, %306] : memref<?x?xf32, strided<[?, 1]>> loc(#loc24)
      %328 = vector.broadcast %327 : f32 to vector<64xf32> loc(#loc24)
      %329 = vector.fma %275, %325, %301 : vector<64xf32> loc(#loc24)
      %330 = vector.fma %275, %328, %302 : vector<64xf32> loc(#loc24)
      %331 = arith.addi %41#0, %c11 : index loc(#loc24)
      %332 = vector.load %40[%331, %41#1] : memref<?x?xf32, strided<[?, 1]>>, vector<64xf32> loc(#loc24)
      %333 = arith.addi %41#0, %c74 : index loc(#loc24)
      memref.prefetch %40[%333, %41#1], read, locality<1>, data : memref<?x?xf32, strided<[?, 1]>> loc(#loc24)
      %334 = arith.addi %39#1, %c10 : index loc(#loc24)
      %335 = memref.load %38[%39#0, %334] : memref<?x?xf32, strided<[?, 1]>> loc(#loc24)
      %336 = vector.broadcast %335 : f32 to vector<64xf32> loc(#loc24)
      %337 = memref.load %38[%49, %334] : memref<?x?xf32, strided<[?, 1]>> loc(#loc24)
      %338 = vector.broadcast %337 : f32 to vector<64xf32> loc(#loc24)
      %339 = vector.fma %304, %336, %311 : vector<64xf32> loc(#loc24)
      %340 = memref.load %38[%53, %334] : memref<?x?xf32, strided<[?, 1]>> loc(#loc24)
      %341 = vector.broadcast %340 : f32 to vector<64xf32> loc(#loc24)
      %342 = vector.fma %304, %338, %314 : vector<64xf32> loc(#loc24)
      %343 = memref.load %38[%57, %334] : memref<?x?xf32, strided<[?, 1]>> loc(#loc24)
      %344 = vector.broadcast %343 : f32 to vector<64xf32> loc(#loc24)
      %345 = vector.fma %304, %341, %317 : vector<64xf32> loc(#loc24)
      %346 = memref.load %38[%61, %334] : memref<?x?xf32, strided<[?, 1]>> loc(#loc24)
      %347 = vector.broadcast %346 : f32 to vector<64xf32> loc(#loc24)
      %348 = vector.fma %304, %344, %320 : vector<64xf32> loc(#loc24)
      %349 = memref.load %38[%65, %334] : memref<?x?xf32, strided<[?, 1]>> loc(#loc24)
      %350 = vector.broadcast %349 : f32 to vector<64xf32> loc(#loc24)
      %351 = vector.fma %304, %347, %323 : vector<64xf32> loc(#loc24)
      %352 = memref.load %38[%69, %334] : memref<?x?xf32, strided<[?, 1]>> loc(#loc24)
      %353 = vector.broadcast %352 : f32 to vector<64xf32> loc(#loc24)
      %354 = vector.fma %304, %350, %326 : vector<64xf32> loc(#loc24)
      %355 = memref.load %38[%73, %334] : memref<?x?xf32, strided<[?, 1]>> loc(#loc24)
      %356 = vector.broadcast %355 : f32 to vector<64xf32> loc(#loc24)
      %357 = vector.fma %304, %353, %329 : vector<64xf32> loc(#loc24)
      %358 = vector.fma %304, %356, %330 : vector<64xf32> loc(#loc24)
      %359 = arith.addi %41#0, %c12 : index loc(#loc24)
      %360 = vector.load %40[%359, %41#1] : memref<?x?xf32, strided<[?, 1]>>, vector<64xf32> loc(#loc24)
      %361 = arith.addi %41#0, %c75 : index loc(#loc24)
      memref.prefetch %40[%361, %41#1], read, locality<1>, data : memref<?x?xf32, strided<[?, 1]>> loc(#loc24)
      %362 = arith.addi %39#1, %c11 : index loc(#loc24)
      %363 = memref.load %38[%39#0, %362] : memref<?x?xf32, strided<[?, 1]>> loc(#loc24)
      %364 = vector.broadcast %363 : f32 to vector<64xf32> loc(#loc24)
      %365 = memref.load %38[%49, %362] : memref<?x?xf32, strided<[?, 1]>> loc(#loc24)
      %366 = vector.broadcast %365 : f32 to vector<64xf32> loc(#loc24)
      %367 = vector.fma %332, %364, %339 : vector<64xf32> loc(#loc24)
      %368 = memref.load %38[%53, %362] : memref<?x?xf32, strided<[?, 1]>> loc(#loc24)
      %369 = vector.broadcast %368 : f32 to vector<64xf32> loc(#loc24)
      %370 = vector.fma %332, %366, %342 : vector<64xf32> loc(#loc24)
      %371 = memref.load %38[%57, %362] : memref<?x?xf32, strided<[?, 1]>> loc(#loc24)
      %372 = vector.broadcast %371 : f32 to vector<64xf32> loc(#loc24)
      %373 = vector.fma %332, %369, %345 : vector<64xf32> loc(#loc24)
      %374 = memref.load %38[%61, %362] : memref<?x?xf32, strided<[?, 1]>> loc(#loc24)
      %375 = vector.broadcast %374 : f32 to vector<64xf32> loc(#loc24)
      %376 = vector.fma %332, %372, %348 : vector<64xf32> loc(#loc24)
      %377 = memref.load %38[%65, %362] : memref<?x?xf32, strided<[?, 1]>> loc(#loc24)
      %378 = vector.broadcast %377 : f32 to vector<64xf32> loc(#loc24)
      %379 = vector.fma %332, %375, %351 : vector<64xf32> loc(#loc24)
      %380 = memref.load %38[%69, %362] : memref<?x?xf32, strided<[?, 1]>> loc(#loc24)
      %381 = vector.broadcast %380 : f32 to vector<64xf32> loc(#loc24)
      %382 = vector.fma %332, %378, %354 : vector<64xf32> loc(#loc24)
      %383 = memref.load %38[%73, %362] : memref<?x?xf32, strided<[?, 1]>> loc(#loc24)
      %384 = vector.broadcast %383 : f32 to vector<64xf32> loc(#loc24)
      %385 = vector.fma %332, %381, %357 : vector<64xf32> loc(#loc24)
      %386 = vector.fma %332, %384, %358 : vector<64xf32> loc(#loc24)
      %387 = arith.addi %41#0, %c13 : index loc(#loc24)
      %388 = vector.load %40[%387, %41#1] : memref<?x?xf32, strided<[?, 1]>>, vector<64xf32> loc(#loc24)
      %389 = arith.addi %41#0, %c76 : index loc(#loc24)
      memref.prefetch %40[%389, %41#1], read, locality<1>, data : memref<?x?xf32, strided<[?, 1]>> loc(#loc24)
      %390 = arith.addi %39#1, %c12 : index loc(#loc24)
      %391 = memref.load %38[%39#0, %390] : memref<?x?xf32, strided<[?, 1]>> loc(#loc24)
      %392 = vector.broadcast %391 : f32 to vector<64xf32> loc(#loc24)
      %393 = memref.load %38[%49, %390] : memref<?x?xf32, strided<[?, 1]>> loc(#loc24)
      %394 = vector.broadcast %393 : f32 to vector<64xf32> loc(#loc24)
      %395 = vector.fma %360, %392, %367 : vector<64xf32> loc(#loc24)
      %396 = memref.load %38[%53, %390] : memref<?x?xf32, strided<[?, 1]>> loc(#loc24)
      %397 = vector.broadcast %396 : f32 to vector<64xf32> loc(#loc24)
      %398 = vector.fma %360, %394, %370 : vector<64xf32> loc(#loc24)
      %399 = memref.load %38[%57, %390] : memref<?x?xf32, strided<[?, 1]>> loc(#loc24)
      %400 = vector.broadcast %399 : f32 to vector<64xf32> loc(#loc24)
      %401 = vector.fma %360, %397, %373 : vector<64xf32> loc(#loc24)
      %402 = memref.load %38[%61, %390] : memref<?x?xf32, strided<[?, 1]>> loc(#loc24)
      %403 = vector.broadcast %402 : f32 to vector<64xf32> loc(#loc24)
      %404 = vector.fma %360, %400, %376 : vector<64xf32> loc(#loc24)
      %405 = memref.load %38[%65, %390] : memref<?x?xf32, strided<[?, 1]>> loc(#loc24)
      %406 = vector.broadcast %405 : f32 to vector<64xf32> loc(#loc24)
      %407 = vector.fma %360, %403, %379 : vector<64xf32> loc(#loc24)
      %408 = memref.load %38[%69, %390] : memref<?x?xf32, strided<[?, 1]>> loc(#loc24)
      %409 = vector.broadcast %408 : f32 to vector<64xf32> loc(#loc24)
      %410 = vector.fma %360, %406, %382 : vector<64xf32> loc(#loc24)
      %411 = memref.load %38[%73, %390] : memref<?x?xf32, strided<[?, 1]>> loc(#loc24)
      %412 = vector.broadcast %411 : f32 to vector<64xf32> loc(#loc24)
      %413 = vector.fma %360, %409, %385 : vector<64xf32> loc(#loc24)
      %414 = vector.fma %360, %412, %386 : vector<64xf32> loc(#loc24)
      %415 = arith.addi %41#0, %c14 : index loc(#loc24)
      %416 = vector.load %40[%415, %41#1] : memref<?x?xf32, strided<[?, 1]>>, vector<64xf32> loc(#loc24)
      %417 = arith.addi %41#0, %c77 : index loc(#loc24)
      memref.prefetch %40[%417, %41#1], read, locality<1>, data : memref<?x?xf32, strided<[?, 1]>> loc(#loc24)
      %418 = arith.addi %39#1, %c13 : index loc(#loc24)
      %419 = memref.load %38[%39#0, %418] : memref<?x?xf32, strided<[?, 1]>> loc(#loc24)
      %420 = vector.broadcast %419 : f32 to vector<64xf32> loc(#loc24)
      %421 = memref.load %38[%49, %418] : memref<?x?xf32, strided<[?, 1]>> loc(#loc24)
      %422 = vector.broadcast %421 : f32 to vector<64xf32> loc(#loc24)
      %423 = vector.fma %388, %420, %395 : vector<64xf32> loc(#loc24)
      %424 = memref.load %38[%53, %418] : memref<?x?xf32, strided<[?, 1]>> loc(#loc24)
      %425 = vector.broadcast %424 : f32 to vector<64xf32> loc(#loc24)
      %426 = vector.fma %388, %422, %398 : vector<64xf32> loc(#loc24)
      %427 = memref.load %38[%57, %418] : memref<?x?xf32, strided<[?, 1]>> loc(#loc24)
      %428 = vector.broadcast %427 : f32 to vector<64xf32> loc(#loc24)
      %429 = vector.fma %388, %425, %401 : vector<64xf32> loc(#loc24)
      %430 = memref.load %38[%61, %418] : memref<?x?xf32, strided<[?, 1]>> loc(#loc24)
      %431 = vector.broadcast %430 : f32 to vector<64xf32> loc(#loc24)
      %432 = vector.fma %388, %428, %404 : vector<64xf32> loc(#loc24)
      %433 = memref.load %38[%65, %418] : memref<?x?xf32, strided<[?, 1]>> loc(#loc24)
      %434 = vector.broadcast %433 : f32 to vector<64xf32> loc(#loc24)
      %435 = vector.fma %388, %431, %407 : vector<64xf32> loc(#loc24)
      %436 = memref.load %38[%69, %418] : memref<?x?xf32, strided<[?, 1]>> loc(#loc24)
      %437 = vector.broadcast %436 : f32 to vector<64xf32> loc(#loc24)
      %438 = vector.fma %388, %434, %410 : vector<64xf32> loc(#loc24)
      %439 = memref.load %38[%73, %418] : memref<?x?xf32, strided<[?, 1]>> loc(#loc24)
      %440 = vector.broadcast %439 : f32 to vector<64xf32> loc(#loc24)
      %441 = vector.fma %388, %437, %413 : vector<64xf32> loc(#loc24)
      %442 = vector.fma %388, %440, %414 : vector<64xf32> loc(#loc24)
      %443 = arith.addi %41#0, %c15 : index loc(#loc24)
      %444 = vector.load %40[%443, %41#1] : memref<?x?xf32, strided<[?, 1]>>, vector<64xf32> loc(#loc24)
      %445 = arith.addi %41#0, %c78 : index loc(#loc24)
      memref.prefetch %40[%445, %41#1], read, locality<1>, data : memref<?x?xf32, strided<[?, 1]>> loc(#loc24)
      %446 = arith.addi %39#1, %c14 : index loc(#loc24)
      %447 = memref.load %38[%39#0, %446] : memref<?x?xf32, strided<[?, 1]>> loc(#loc24)
      %448 = vector.broadcast %447 : f32 to vector<64xf32> loc(#loc24)
      %449 = memref.load %38[%49, %446] : memref<?x?xf32, strided<[?, 1]>> loc(#loc24)
      %450 = vector.broadcast %449 : f32 to vector<64xf32> loc(#loc24)
      %451 = vector.fma %416, %448, %423 : vector<64xf32> loc(#loc24)
      %452 = memref.load %38[%53, %446] : memref<?x?xf32, strided<[?, 1]>> loc(#loc24)
      %453 = vector.broadcast %452 : f32 to vector<64xf32> loc(#loc24)
      %454 = vector.fma %416, %450, %426 : vector<64xf32> loc(#loc24)
      %455 = memref.load %38[%57, %446] : memref<?x?xf32, strided<[?, 1]>> loc(#loc24)
      %456 = vector.broadcast %455 : f32 to vector<64xf32> loc(#loc24)
      %457 = vector.fma %416, %453, %429 : vector<64xf32> loc(#loc24)
      %458 = memref.load %38[%61, %446] : memref<?x?xf32, strided<[?, 1]>> loc(#loc24)
      %459 = vector.broadcast %458 : f32 to vector<64xf32> loc(#loc24)
      %460 = vector.fma %416, %456, %432 : vector<64xf32> loc(#loc24)
      %461 = memref.load %38[%65, %446] : memref<?x?xf32, strided<[?, 1]>> loc(#loc24)
      %462 = vector.broadcast %461 : f32 to vector<64xf32> loc(#loc24)
      %463 = vector.fma %416, %459, %435 : vector<64xf32> loc(#loc24)
      %464 = memref.load %38[%69, %446] : memref<?x?xf32, strided<[?, 1]>> loc(#loc24)
      %465 = vector.broadcast %464 : f32 to vector<64xf32> loc(#loc24)
      %466 = vector.fma %416, %462, %438 : vector<64xf32> loc(#loc24)
      %467 = memref.load %38[%73, %446] : memref<?x?xf32, strided<[?, 1]>> loc(#loc24)
      %468 = vector.broadcast %467 : f32 to vector<64xf32> loc(#loc24)
      %469 = vector.fma %416, %465, %441 : vector<64xf32> loc(#loc24)
      %470 = vector.fma %416, %468, %442 : vector<64xf32> loc(#loc24)
      %471 = arith.addi %41#0, %c16 : index loc(#loc24)
      %472 = vector.load %40[%471, %41#1] : memref<?x?xf32, strided<[?, 1]>>, vector<64xf32> loc(#loc24)
      %473 = arith.addi %41#0, %c79 : index loc(#loc24)
      memref.prefetch %40[%473, %41#1], read, locality<1>, data : memref<?x?xf32, strided<[?, 1]>> loc(#loc24)
      %474 = arith.addi %39#1, %c15 : index loc(#loc24)
      %475 = memref.load %38[%39#0, %474] : memref<?x?xf32, strided<[?, 1]>> loc(#loc24)
      %476 = vector.broadcast %475 : f32 to vector<64xf32> loc(#loc24)
      %477 = memref.load %38[%49, %474] : memref<?x?xf32, strided<[?, 1]>> loc(#loc24)
      %478 = vector.broadcast %477 : f32 to vector<64xf32> loc(#loc24)
      %479 = vector.fma %444, %476, %451 : vector<64xf32> loc(#loc24)
      %480 = memref.load %38[%53, %474] : memref<?x?xf32, strided<[?, 1]>> loc(#loc24)
      %481 = vector.broadcast %480 : f32 to vector<64xf32> loc(#loc24)
      %482 = vector.fma %444, %478, %454 : vector<64xf32> loc(#loc24)
      %483 = memref.load %38[%57, %474] : memref<?x?xf32, strided<[?, 1]>> loc(#loc24)
      %484 = vector.broadcast %483 : f32 to vector<64xf32> loc(#loc24)
      %485 = vector.fma %444, %481, %457 : vector<64xf32> loc(#loc24)
      %486 = memref.load %38[%61, %474] : memref<?x?xf32, strided<[?, 1]>> loc(#loc24)
      %487 = vector.broadcast %486 : f32 to vector<64xf32> loc(#loc24)
      %488 = vector.fma %444, %484, %460 : vector<64xf32> loc(#loc24)
      %489 = memref.load %38[%65, %474] : memref<?x?xf32, strided<[?, 1]>> loc(#loc24)
      %490 = vector.broadcast %489 : f32 to vector<64xf32> loc(#loc24)
      %491 = vector.fma %444, %487, %463 : vector<64xf32> loc(#loc24)
      %492 = memref.load %38[%69, %474] : memref<?x?xf32, strided<[?, 1]>> loc(#loc24)
      %493 = vector.broadcast %492 : f32 to vector<64xf32> loc(#loc24)
      %494 = vector.fma %444, %490, %466 : vector<64xf32> loc(#loc24)
      %495 = memref.load %38[%73, %474] : memref<?x?xf32, strided<[?, 1]>> loc(#loc24)
      %496 = vector.broadcast %495 : f32 to vector<64xf32> loc(#loc24)
      %497 = vector.fma %444, %493, %469 : vector<64xf32> loc(#loc24)
      %498 = vector.fma %444, %496, %470 : vector<64xf32> loc(#loc24)
      %499 = arith.addi %41#0, %c17 : index loc(#loc24)
      %500 = vector.load %40[%499, %41#1] : memref<?x?xf32, strided<[?, 1]>>, vector<64xf32> loc(#loc24)
      %501 = arith.addi %41#0, %c80 : index loc(#loc24)
      memref.prefetch %40[%501, %41#1], read, locality<1>, data : memref<?x?xf32, strided<[?, 1]>> loc(#loc24)
      %502 = arith.addi %39#1, %c16 : index loc(#loc24)
      %503 = memref.load %38[%39#0, %502] : memref<?x?xf32, strided<[?, 1]>> loc(#loc24)
      %504 = vector.broadcast %503 : f32 to vector<64xf32> loc(#loc24)
      %505 = memref.load %38[%49, %502] : memref<?x?xf32, strided<[?, 1]>> loc(#loc24)
      %506 = vector.broadcast %505 : f32 to vector<64xf32> loc(#loc24)
      %507 = arith.addi %39#1, %c80 : index loc(#loc24)
      memref.prefetch %38[%39#0, %507], read, locality<3>, data : memref<?x?xf32, strided<[?, 1]>> loc(#loc24)
      %508 = vector.fma %472, %504, %479 : vector<64xf32> loc(#loc24)
      %509 = memref.load %38[%53, %502] : memref<?x?xf32, strided<[?, 1]>> loc(#loc24)
      %510 = vector.broadcast %509 : f32 to vector<64xf32> loc(#loc24)
      memref.prefetch %38[%49, %507], read, locality<3>, data : memref<?x?xf32, strided<[?, 1]>> loc(#loc24)
      %511 = vector.fma %472, %506, %482 : vector<64xf32> loc(#loc24)
      %512 = memref.load %38[%57, %502] : memref<?x?xf32, strided<[?, 1]>> loc(#loc24)
      %513 = vector.broadcast %512 : f32 to vector<64xf32> loc(#loc24)
      memref.prefetch %38[%53, %507], read, locality<3>, data : memref<?x?xf32, strided<[?, 1]>> loc(#loc24)
      %514 = vector.fma %472, %510, %485 : vector<64xf32> loc(#loc24)
      %515 = memref.load %38[%61, %502] : memref<?x?xf32, strided<[?, 1]>> loc(#loc24)
      %516 = vector.broadcast %515 : f32 to vector<64xf32> loc(#loc24)
      memref.prefetch %38[%57, %507], read, locality<3>, data : memref<?x?xf32, strided<[?, 1]>> loc(#loc24)
      %517 = vector.fma %472, %513, %488 : vector<64xf32> loc(#loc24)
      %518 = memref.load %38[%65, %502] : memref<?x?xf32, strided<[?, 1]>> loc(#loc24)
      %519 = vector.broadcast %518 : f32 to vector<64xf32> loc(#loc24)
      memref.prefetch %38[%61, %507], read, locality<3>, data : memref<?x?xf32, strided<[?, 1]>> loc(#loc24)
      %520 = vector.fma %472, %516, %491 : vector<64xf32> loc(#loc24)
      %521 = memref.load %38[%69, %502] : memref<?x?xf32, strided<[?, 1]>> loc(#loc24)
      %522 = vector.broadcast %521 : f32 to vector<64xf32> loc(#loc24)
      memref.prefetch %38[%65, %507], read, locality<3>, data : memref<?x?xf32, strided<[?, 1]>> loc(#loc24)
      %523 = vector.fma %472, %519, %494 : vector<64xf32> loc(#loc24)
      %524 = memref.load %38[%73, %502] : memref<?x?xf32, strided<[?, 1]>> loc(#loc24)
      %525 = vector.broadcast %524 : f32 to vector<64xf32> loc(#loc24)
      memref.prefetch %38[%69, %507], read, locality<3>, data : memref<?x?xf32, strided<[?, 1]>> loc(#loc24)
      %526 = vector.fma %472, %522, %497 : vector<64xf32> loc(#loc24)
      memref.prefetch %38[%73, %507], read, locality<3>, data : memref<?x?xf32, strided<[?, 1]>> loc(#loc24)
      %527 = vector.fma %472, %525, %498 : vector<64xf32> loc(#loc24)
      %528 = arith.addi %41#0, %c18 : index loc(#loc24)
      %529 = vector.load %40[%528, %41#1] : memref<?x?xf32, strided<[?, 1]>>, vector<64xf32> loc(#loc24)
      %530 = arith.addi %41#0, %c81 : index loc(#loc24)
      memref.prefetch %40[%530, %41#1], read, locality<1>, data : memref<?x?xf32, strided<[?, 1]>> loc(#loc24)
      %531 = arith.addi %39#1, %c17 : index loc(#loc24)
      %532 = memref.load %38[%39#0, %531] : memref<?x?xf32, strided<[?, 1]>> loc(#loc24)
      %533 = vector.broadcast %532 : f32 to vector<64xf32> loc(#loc24)
      %534 = memref.load %38[%49, %531] : memref<?x?xf32, strided<[?, 1]>> loc(#loc24)
      %535 = vector.broadcast %534 : f32 to vector<64xf32> loc(#loc24)
      %536 = vector.fma %500, %533, %508 : vector<64xf32> loc(#loc24)
      %537 = memref.load %38[%53, %531] : memref<?x?xf32, strided<[?, 1]>> loc(#loc24)
      %538 = vector.broadcast %537 : f32 to vector<64xf32> loc(#loc24)
      %539 = vector.fma %500, %535, %511 : vector<64xf32> loc(#loc24)
      %540 = memref.load %38[%57, %531] : memref<?x?xf32, strided<[?, 1]>> loc(#loc24)
      %541 = vector.broadcast %540 : f32 to vector<64xf32> loc(#loc24)
      %542 = vector.fma %500, %538, %514 : vector<64xf32> loc(#loc24)
      %543 = memref.load %38[%61, %531] : memref<?x?xf32, strided<[?, 1]>> loc(#loc24)
      %544 = vector.broadcast %543 : f32 to vector<64xf32> loc(#loc24)
      %545 = vector.fma %500, %541, %517 : vector<64xf32> loc(#loc24)
      %546 = memref.load %38[%65, %531] : memref<?x?xf32, strided<[?, 1]>> loc(#loc24)
      %547 = vector.broadcast %546 : f32 to vector<64xf32> loc(#loc24)
      %548 = vector.fma %500, %544, %520 : vector<64xf32> loc(#loc24)
      %549 = memref.load %38[%69, %531] : memref<?x?xf32, strided<[?, 1]>> loc(#loc24)
      %550 = vector.broadcast %549 : f32 to vector<64xf32> loc(#loc24)
      %551 = vector.fma %500, %547, %523 : vector<64xf32> loc(#loc24)
      %552 = memref.load %38[%73, %531] : memref<?x?xf32, strided<[?, 1]>> loc(#loc24)
      %553 = vector.broadcast %552 : f32 to vector<64xf32> loc(#loc24)
      %554 = vector.fma %500, %550, %526 : vector<64xf32> loc(#loc24)
      %555 = vector.fma %500, %553, %527 : vector<64xf32> loc(#loc24)
      %556 = arith.addi %41#0, %c19 : index loc(#loc24)
      %557 = vector.load %40[%556, %41#1] : memref<?x?xf32, strided<[?, 1]>>, vector<64xf32> loc(#loc24)
      %558 = arith.addi %41#0, %c82 : index loc(#loc24)
      memref.prefetch %40[%558, %41#1], read, locality<1>, data : memref<?x?xf32, strided<[?, 1]>> loc(#loc24)
      %559 = arith.addi %39#1, %c18 : index loc(#loc24)
      %560 = memref.load %38[%39#0, %559] : memref<?x?xf32, strided<[?, 1]>> loc(#loc24)
      %561 = vector.broadcast %560 : f32 to vector<64xf32> loc(#loc24)
      %562 = memref.load %38[%49, %559] : memref<?x?xf32, strided<[?, 1]>> loc(#loc24)
      %563 = vector.broadcast %562 : f32 to vector<64xf32> loc(#loc24)
      %564 = vector.fma %529, %561, %536 : vector<64xf32> loc(#loc24)
      %565 = memref.load %38[%53, %559] : memref<?x?xf32, strided<[?, 1]>> loc(#loc24)
      %566 = vector.broadcast %565 : f32 to vector<64xf32> loc(#loc24)
      %567 = vector.fma %529, %563, %539 : vector<64xf32> loc(#loc24)
      %568 = memref.load %38[%57, %559] : memref<?x?xf32, strided<[?, 1]>> loc(#loc24)
      %569 = vector.broadcast %568 : f32 to vector<64xf32> loc(#loc24)
      %570 = vector.fma %529, %566, %542 : vector<64xf32> loc(#loc24)
      %571 = memref.load %38[%61, %559] : memref<?x?xf32, strided<[?, 1]>> loc(#loc24)
      %572 = vector.broadcast %571 : f32 to vector<64xf32> loc(#loc24)
      %573 = vector.fma %529, %569, %545 : vector<64xf32> loc(#loc24)
      %574 = memref.load %38[%65, %559] : memref<?x?xf32, strided<[?, 1]>> loc(#loc24)
      %575 = vector.broadcast %574 : f32 to vector<64xf32> loc(#loc24)
      %576 = vector.fma %529, %572, %548 : vector<64xf32> loc(#loc24)
      %577 = memref.load %38[%69, %559] : memref<?x?xf32, strided<[?, 1]>> loc(#loc24)
      %578 = vector.broadcast %577 : f32 to vector<64xf32> loc(#loc24)
      %579 = vector.fma %529, %575, %551 : vector<64xf32> loc(#loc24)
      %580 = memref.load %38[%73, %559] : memref<?x?xf32, strided<[?, 1]>> loc(#loc24)
      %581 = vector.broadcast %580 : f32 to vector<64xf32> loc(#loc24)
      %582 = vector.fma %529, %578, %554 : vector<64xf32> loc(#loc24)
      %583 = vector.fma %529, %581, %555 : vector<64xf32> loc(#loc24)
      %584 = arith.addi %41#0, %c20 : index loc(#loc24)
      %585 = vector.load %40[%584, %41#1] : memref<?x?xf32, strided<[?, 1]>>, vector<64xf32> loc(#loc24)
      %586 = arith.addi %41#0, %c83 : index loc(#loc24)
      memref.prefetch %40[%586, %41#1], read, locality<1>, data : memref<?x?xf32, strided<[?, 1]>> loc(#loc24)
      %587 = arith.addi %39#1, %c19 : index loc(#loc24)
      %588 = memref.load %38[%39#0, %587] : memref<?x?xf32, strided<[?, 1]>> loc(#loc24)
      %589 = vector.broadcast %588 : f32 to vector<64xf32> loc(#loc24)
      %590 = memref.load %38[%49, %587] : memref<?x?xf32, strided<[?, 1]>> loc(#loc24)
      %591 = vector.broadcast %590 : f32 to vector<64xf32> loc(#loc24)
      %592 = vector.fma %557, %589, %564 : vector<64xf32> loc(#loc24)
      %593 = memref.load %38[%53, %587] : memref<?x?xf32, strided<[?, 1]>> loc(#loc24)
      %594 = vector.broadcast %593 : f32 to vector<64xf32> loc(#loc24)
      %595 = vector.fma %557, %591, %567 : vector<64xf32> loc(#loc24)
      %596 = memref.load %38[%57, %587] : memref<?x?xf32, strided<[?, 1]>> loc(#loc24)
      %597 = vector.broadcast %596 : f32 to vector<64xf32> loc(#loc24)
      %598 = vector.fma %557, %594, %570 : vector<64xf32> loc(#loc24)
      %599 = memref.load %38[%61, %587] : memref<?x?xf32, strided<[?, 1]>> loc(#loc24)
      %600 = vector.broadcast %599 : f32 to vector<64xf32> loc(#loc24)
      %601 = vector.fma %557, %597, %573 : vector<64xf32> loc(#loc24)
      %602 = memref.load %38[%65, %587] : memref<?x?xf32, strided<[?, 1]>> loc(#loc24)
      %603 = vector.broadcast %602 : f32 to vector<64xf32> loc(#loc24)
      %604 = vector.fma %557, %600, %576 : vector<64xf32> loc(#loc24)
      %605 = memref.load %38[%69, %587] : memref<?x?xf32, strided<[?, 1]>> loc(#loc24)
      %606 = vector.broadcast %605 : f32 to vector<64xf32> loc(#loc24)
      %607 = vector.fma %557, %603, %579 : vector<64xf32> loc(#loc24)
      %608 = memref.load %38[%73, %587] : memref<?x?xf32, strided<[?, 1]>> loc(#loc24)
      %609 = vector.broadcast %608 : f32 to vector<64xf32> loc(#loc24)
      %610 = vector.fma %557, %606, %582 : vector<64xf32> loc(#loc24)
      %611 = vector.fma %557, %609, %583 : vector<64xf32> loc(#loc24)
      %612 = arith.addi %41#0, %c21 : index loc(#loc24)
      %613 = vector.load %40[%612, %41#1] : memref<?x?xf32, strided<[?, 1]>>, vector<64xf32> loc(#loc24)
      %614 = arith.addi %41#0, %c84 : index loc(#loc24)
      memref.prefetch %40[%614, %41#1], read, locality<1>, data : memref<?x?xf32, strided<[?, 1]>> loc(#loc24)
      %615 = arith.addi %39#1, %c20 : index loc(#loc24)
      %616 = memref.load %38[%39#0, %615] : memref<?x?xf32, strided<[?, 1]>> loc(#loc24)
      %617 = vector.broadcast %616 : f32 to vector<64xf32> loc(#loc24)
      %618 = memref.load %38[%49, %615] : memref<?x?xf32, strided<[?, 1]>> loc(#loc24)
      %619 = vector.broadcast %618 : f32 to vector<64xf32> loc(#loc24)
      %620 = vector.fma %585, %617, %592 : vector<64xf32> loc(#loc24)
      %621 = memref.load %38[%53, %615] : memref<?x?xf32, strided<[?, 1]>> loc(#loc24)
      %622 = vector.broadcast %621 : f32 to vector<64xf32> loc(#loc24)
      %623 = vector.fma %585, %619, %595 : vector<64xf32> loc(#loc24)
      %624 = memref.load %38[%57, %615] : memref<?x?xf32, strided<[?, 1]>> loc(#loc24)
      %625 = vector.broadcast %624 : f32 to vector<64xf32> loc(#loc24)
      %626 = vector.fma %585, %622, %598 : vector<64xf32> loc(#loc24)
      %627 = memref.load %38[%61, %615] : memref<?x?xf32, strided<[?, 1]>> loc(#loc24)
      %628 = vector.broadcast %627 : f32 to vector<64xf32> loc(#loc24)
      %629 = vector.fma %585, %625, %601 : vector<64xf32> loc(#loc24)
      %630 = memref.load %38[%65, %615] : memref<?x?xf32, strided<[?, 1]>> loc(#loc24)
      %631 = vector.broadcast %630 : f32 to vector<64xf32> loc(#loc24)
      %632 = vector.fma %585, %628, %604 : vector<64xf32> loc(#loc24)
      %633 = memref.load %38[%69, %615] : memref<?x?xf32, strided<[?, 1]>> loc(#loc24)
      %634 = vector.broadcast %633 : f32 to vector<64xf32> loc(#loc24)
      %635 = vector.fma %585, %631, %607 : vector<64xf32> loc(#loc24)
      %636 = memref.load %38[%73, %615] : memref<?x?xf32, strided<[?, 1]>> loc(#loc24)
      %637 = vector.broadcast %636 : f32 to vector<64xf32> loc(#loc24)
      %638 = vector.fma %585, %634, %610 : vector<64xf32> loc(#loc24)
      %639 = vector.fma %585, %637, %611 : vector<64xf32> loc(#loc24)
      %640 = arith.addi %41#0, %c22 : index loc(#loc24)
      %641 = vector.load %40[%640, %41#1] : memref<?x?xf32, strided<[?, 1]>>, vector<64xf32> loc(#loc24)
      %642 = arith.addi %41#0, %c85 : index loc(#loc24)
      memref.prefetch %40[%642, %41#1], read, locality<1>, data : memref<?x?xf32, strided<[?, 1]>> loc(#loc24)
      %643 = arith.addi %39#1, %c21 : index loc(#loc24)
      %644 = memref.load %38[%39#0, %643] : memref<?x?xf32, strided<[?, 1]>> loc(#loc24)
      %645 = vector.broadcast %644 : f32 to vector<64xf32> loc(#loc24)
      %646 = memref.load %38[%49, %643] : memref<?x?xf32, strided<[?, 1]>> loc(#loc24)
      %647 = vector.broadcast %646 : f32 to vector<64xf32> loc(#loc24)
      %648 = vector.fma %613, %645, %620 : vector<64xf32> loc(#loc24)
      %649 = memref.load %38[%53, %643] : memref<?x?xf32, strided<[?, 1]>> loc(#loc24)
      %650 = vector.broadcast %649 : f32 to vector<64xf32> loc(#loc24)
      %651 = vector.fma %613, %647, %623 : vector<64xf32> loc(#loc24)
      %652 = memref.load %38[%57, %643] : memref<?x?xf32, strided<[?, 1]>> loc(#loc24)
      %653 = vector.broadcast %652 : f32 to vector<64xf32> loc(#loc24)
      %654 = vector.fma %613, %650, %626 : vector<64xf32> loc(#loc24)
      %655 = memref.load %38[%61, %643] : memref<?x?xf32, strided<[?, 1]>> loc(#loc24)
      %656 = vector.broadcast %655 : f32 to vector<64xf32> loc(#loc24)
      %657 = vector.fma %613, %653, %629 : vector<64xf32> loc(#loc24)
      %658 = memref.load %38[%65, %643] : memref<?x?xf32, strided<[?, 1]>> loc(#loc24)
      %659 = vector.broadcast %658 : f32 to vector<64xf32> loc(#loc24)
      %660 = vector.fma %613, %656, %632 : vector<64xf32> loc(#loc24)
      %661 = memref.load %38[%69, %643] : memref<?x?xf32, strided<[?, 1]>> loc(#loc24)
      %662 = vector.broadcast %661 : f32 to vector<64xf32> loc(#loc24)
      %663 = vector.fma %613, %659, %635 : vector<64xf32> loc(#loc24)
      %664 = memref.load %38[%73, %643] : memref<?x?xf32, strided<[?, 1]>> loc(#loc24)
      %665 = vector.broadcast %664 : f32 to vector<64xf32> loc(#loc24)
      %666 = vector.fma %613, %662, %638 : vector<64xf32> loc(#loc24)
      %667 = vector.fma %613, %665, %639 : vector<64xf32> loc(#loc24)
      %668 = arith.addi %41#0, %c23 : index loc(#loc24)
      %669 = vector.load %40[%668, %41#1] : memref<?x?xf32, strided<[?, 1]>>, vector<64xf32> loc(#loc24)
      %670 = arith.addi %41#0, %c86 : index loc(#loc24)
      memref.prefetch %40[%670, %41#1], read, locality<1>, data : memref<?x?xf32, strided<[?, 1]>> loc(#loc24)
      %671 = arith.addi %39#1, %c22 : index loc(#loc24)
      %672 = memref.load %38[%39#0, %671] : memref<?x?xf32, strided<[?, 1]>> loc(#loc24)
      %673 = vector.broadcast %672 : f32 to vector<64xf32> loc(#loc24)
      %674 = memref.load %38[%49, %671] : memref<?x?xf32, strided<[?, 1]>> loc(#loc24)
      %675 = vector.broadcast %674 : f32 to vector<64xf32> loc(#loc24)
      %676 = vector.fma %641, %673, %648 : vector<64xf32> loc(#loc24)
      %677 = memref.load %38[%53, %671] : memref<?x?xf32, strided<[?, 1]>> loc(#loc24)
      %678 = vector.broadcast %677 : f32 to vector<64xf32> loc(#loc24)
      %679 = vector.fma %641, %675, %651 : vector<64xf32> loc(#loc24)
      %680 = memref.load %38[%57, %671] : memref<?x?xf32, strided<[?, 1]>> loc(#loc24)
      %681 = vector.broadcast %680 : f32 to vector<64xf32> loc(#loc24)
      %682 = vector.fma %641, %678, %654 : vector<64xf32> loc(#loc24)
      %683 = memref.load %38[%61, %671] : memref<?x?xf32, strided<[?, 1]>> loc(#loc24)
      %684 = vector.broadcast %683 : f32 to vector<64xf32> loc(#loc24)
      %685 = vector.fma %641, %681, %657 : vector<64xf32> loc(#loc24)
      %686 = memref.load %38[%65, %671] : memref<?x?xf32, strided<[?, 1]>> loc(#loc24)
      %687 = vector.broadcast %686 : f32 to vector<64xf32> loc(#loc24)
      %688 = vector.fma %641, %684, %660 : vector<64xf32> loc(#loc24)
      %689 = memref.load %38[%69, %671] : memref<?x?xf32, strided<[?, 1]>> loc(#loc24)
      %690 = vector.broadcast %689 : f32 to vector<64xf32> loc(#loc24)
      %691 = vector.fma %641, %687, %663 : vector<64xf32> loc(#loc24)
      %692 = memref.load %38[%73, %671] : memref<?x?xf32, strided<[?, 1]>> loc(#loc24)
      %693 = vector.broadcast %692 : f32 to vector<64xf32> loc(#loc24)
      %694 = vector.fma %641, %690, %666 : vector<64xf32> loc(#loc24)
      %695 = vector.fma %641, %693, %667 : vector<64xf32> loc(#loc24)
      %696 = arith.addi %41#0, %c24 : index loc(#loc24)
      %697 = vector.load %40[%696, %41#1] : memref<?x?xf32, strided<[?, 1]>>, vector<64xf32> loc(#loc24)
      %698 = arith.addi %41#0, %c87 : index loc(#loc24)
      memref.prefetch %40[%698, %41#1], read, locality<1>, data : memref<?x?xf32, strided<[?, 1]>> loc(#loc24)
      %699 = arith.addi %39#1, %c23 : index loc(#loc24)
      %700 = memref.load %38[%39#0, %699] : memref<?x?xf32, strided<[?, 1]>> loc(#loc24)
      %701 = vector.broadcast %700 : f32 to vector<64xf32> loc(#loc24)
      %702 = memref.load %38[%49, %699] : memref<?x?xf32, strided<[?, 1]>> loc(#loc24)
      %703 = vector.broadcast %702 : f32 to vector<64xf32> loc(#loc24)
      %704 = vector.fma %669, %701, %676 : vector<64xf32> loc(#loc24)
      %705 = memref.load %38[%53, %699] : memref<?x?xf32, strided<[?, 1]>> loc(#loc24)
      %706 = vector.broadcast %705 : f32 to vector<64xf32> loc(#loc24)
      %707 = vector.fma %669, %703, %679 : vector<64xf32> loc(#loc24)
      %708 = memref.load %38[%57, %699] : memref<?x?xf32, strided<[?, 1]>> loc(#loc24)
      %709 = vector.broadcast %708 : f32 to vector<64xf32> loc(#loc24)
      %710 = vector.fma %669, %706, %682 : vector<64xf32> loc(#loc24)
      %711 = memref.load %38[%61, %699] : memref<?x?xf32, strided<[?, 1]>> loc(#loc24)
      %712 = vector.broadcast %711 : f32 to vector<64xf32> loc(#loc24)
      %713 = vector.fma %669, %709, %685 : vector<64xf32> loc(#loc24)
      %714 = memref.load %38[%65, %699] : memref<?x?xf32, strided<[?, 1]>> loc(#loc24)
      %715 = vector.broadcast %714 : f32 to vector<64xf32> loc(#loc24)
      %716 = vector.fma %669, %712, %688 : vector<64xf32> loc(#loc24)
      %717 = memref.load %38[%69, %699] : memref<?x?xf32, strided<[?, 1]>> loc(#loc24)
      %718 = vector.broadcast %717 : f32 to vector<64xf32> loc(#loc24)
      %719 = vector.fma %669, %715, %691 : vector<64xf32> loc(#loc24)
      %720 = memref.load %38[%73, %699] : memref<?x?xf32, strided<[?, 1]>> loc(#loc24)
      %721 = vector.broadcast %720 : f32 to vector<64xf32> loc(#loc24)
      %722 = vector.fma %669, %718, %694 : vector<64xf32> loc(#loc24)
      %723 = vector.fma %669, %721, %695 : vector<64xf32> loc(#loc24)
      %724 = arith.addi %41#0, %c25 : index loc(#loc24)
      %725 = vector.load %40[%724, %41#1] : memref<?x?xf32, strided<[?, 1]>>, vector<64xf32> loc(#loc24)
      %726 = arith.addi %41#0, %c88 : index loc(#loc24)
      memref.prefetch %40[%726, %41#1], read, locality<1>, data : memref<?x?xf32, strided<[?, 1]>> loc(#loc24)
      %727 = arith.addi %39#1, %c24 : index loc(#loc24)
      %728 = memref.load %38[%39#0, %727] : memref<?x?xf32, strided<[?, 1]>> loc(#loc24)
      %729 = vector.broadcast %728 : f32 to vector<64xf32> loc(#loc24)
      %730 = memref.load %38[%49, %727] : memref<?x?xf32, strided<[?, 1]>> loc(#loc24)
      %731 = vector.broadcast %730 : f32 to vector<64xf32> loc(#loc24)
      %732 = arith.addi %39#1, %c88 : index loc(#loc24)
      memref.prefetch %38[%39#0, %732], read, locality<3>, data : memref<?x?xf32, strided<[?, 1]>> loc(#loc24)
      %733 = vector.fma %697, %729, %704 : vector<64xf32> loc(#loc24)
      %734 = memref.load %38[%53, %727] : memref<?x?xf32, strided<[?, 1]>> loc(#loc24)
      %735 = vector.broadcast %734 : f32 to vector<64xf32> loc(#loc24)
      memref.prefetch %38[%49, %732], read, locality<3>, data : memref<?x?xf32, strided<[?, 1]>> loc(#loc24)
      %736 = vector.fma %697, %731, %707 : vector<64xf32> loc(#loc24)
      %737 = memref.load %38[%57, %727] : memref<?x?xf32, strided<[?, 1]>> loc(#loc24)
      %738 = vector.broadcast %737 : f32 to vector<64xf32> loc(#loc24)
      memref.prefetch %38[%53, %732], read, locality<3>, data : memref<?x?xf32, strided<[?, 1]>> loc(#loc24)
      %739 = vector.fma %697, %735, %710 : vector<64xf32> loc(#loc24)
      %740 = memref.load %38[%61, %727] : memref<?x?xf32, strided<[?, 1]>> loc(#loc24)
      %741 = vector.broadcast %740 : f32 to vector<64xf32> loc(#loc24)
      memref.prefetch %38[%57, %732], read, locality<3>, data : memref<?x?xf32, strided<[?, 1]>> loc(#loc24)
      %742 = vector.fma %697, %738, %713 : vector<64xf32> loc(#loc24)
      %743 = memref.load %38[%65, %727] : memref<?x?xf32, strided<[?, 1]>> loc(#loc24)
      %744 = vector.broadcast %743 : f32 to vector<64xf32> loc(#loc24)
      memref.prefetch %38[%61, %732], read, locality<3>, data : memref<?x?xf32, strided<[?, 1]>> loc(#loc24)
      %745 = vector.fma %697, %741, %716 : vector<64xf32> loc(#loc24)
      %746 = memref.load %38[%69, %727] : memref<?x?xf32, strided<[?, 1]>> loc(#loc24)
      %747 = vector.broadcast %746 : f32 to vector<64xf32> loc(#loc24)
      memref.prefetch %38[%65, %732], read, locality<3>, data : memref<?x?xf32, strided<[?, 1]>> loc(#loc24)
      %748 = vector.fma %697, %744, %719 : vector<64xf32> loc(#loc24)
      %749 = memref.load %38[%73, %727] : memref<?x?xf32, strided<[?, 1]>> loc(#loc24)
      %750 = vector.broadcast %749 : f32 to vector<64xf32> loc(#loc24)
      memref.prefetch %38[%69, %732], read, locality<3>, data : memref<?x?xf32, strided<[?, 1]>> loc(#loc24)
      %751 = vector.fma %697, %747, %722 : vector<64xf32> loc(#loc24)
      memref.prefetch %38[%73, %732], read, locality<3>, data : memref<?x?xf32, strided<[?, 1]>> loc(#loc24)
      %752 = vector.fma %697, %750, %723 : vector<64xf32> loc(#loc24)
      %753 = arith.addi %41#0, %c26 : index loc(#loc24)
      %754 = vector.load %40[%753, %41#1] : memref<?x?xf32, strided<[?, 1]>>, vector<64xf32> loc(#loc24)
      %755 = arith.addi %41#0, %c89 : index loc(#loc24)
      memref.prefetch %40[%755, %41#1], read, locality<1>, data : memref<?x?xf32, strided<[?, 1]>> loc(#loc24)
      %756 = arith.addi %39#1, %c25 : index loc(#loc24)
      %757 = memref.load %38[%39#0, %756] : memref<?x?xf32, strided<[?, 1]>> loc(#loc24)
      %758 = vector.broadcast %757 : f32 to vector<64xf32> loc(#loc24)
      %759 = memref.load %38[%49, %756] : memref<?x?xf32, strided<[?, 1]>> loc(#loc24)
      %760 = vector.broadcast %759 : f32 to vector<64xf32> loc(#loc24)
      %761 = vector.fma %725, %758, %733 : vector<64xf32> loc(#loc24)
      %762 = memref.load %38[%53, %756] : memref<?x?xf32, strided<[?, 1]>> loc(#loc24)
      %763 = vector.broadcast %762 : f32 to vector<64xf32> loc(#loc24)
      %764 = vector.fma %725, %760, %736 : vector<64xf32> loc(#loc24)
      %765 = memref.load %38[%57, %756] : memref<?x?xf32, strided<[?, 1]>> loc(#loc24)
      %766 = vector.broadcast %765 : f32 to vector<64xf32> loc(#loc24)
      %767 = vector.fma %725, %763, %739 : vector<64xf32> loc(#loc24)
      %768 = memref.load %38[%61, %756] : memref<?x?xf32, strided<[?, 1]>> loc(#loc24)
      %769 = vector.broadcast %768 : f32 to vector<64xf32> loc(#loc24)
      %770 = vector.fma %725, %766, %742 : vector<64xf32> loc(#loc24)
      %771 = memref.load %38[%65, %756] : memref<?x?xf32, strided<[?, 1]>> loc(#loc24)
      %772 = vector.broadcast %771 : f32 to vector<64xf32> loc(#loc24)
      %773 = vector.fma %725, %769, %745 : vector<64xf32> loc(#loc24)
      %774 = memref.load %38[%69, %756] : memref<?x?xf32, strided<[?, 1]>> loc(#loc24)
      %775 = vector.broadcast %774 : f32 to vector<64xf32> loc(#loc24)
      %776 = vector.fma %725, %772, %748 : vector<64xf32> loc(#loc24)
      %777 = memref.load %38[%73, %756] : memref<?x?xf32, strided<[?, 1]>> loc(#loc24)
      %778 = vector.broadcast %777 : f32 to vector<64xf32> loc(#loc24)
      %779 = vector.fma %725, %775, %751 : vector<64xf32> loc(#loc24)
      %780 = vector.fma %725, %778, %752 : vector<64xf32> loc(#loc24)
      %781 = arith.addi %41#0, %c27 : index loc(#loc24)
      %782 = vector.load %40[%781, %41#1] : memref<?x?xf32, strided<[?, 1]>>, vector<64xf32> loc(#loc24)
      %783 = arith.addi %41#0, %c90 : index loc(#loc24)
      memref.prefetch %40[%783, %41#1], read, locality<1>, data : memref<?x?xf32, strided<[?, 1]>> loc(#loc24)
      %784 = arith.addi %39#1, %c26 : index loc(#loc24)
      %785 = memref.load %38[%39#0, %784] : memref<?x?xf32, strided<[?, 1]>> loc(#loc24)
      %786 = vector.broadcast %785 : f32 to vector<64xf32> loc(#loc24)
      %787 = memref.load %38[%49, %784] : memref<?x?xf32, strided<[?, 1]>> loc(#loc24)
      %788 = vector.broadcast %787 : f32 to vector<64xf32> loc(#loc24)
      %789 = vector.fma %754, %786, %761 : vector<64xf32> loc(#loc24)
      %790 = memref.load %38[%53, %784] : memref<?x?xf32, strided<[?, 1]>> loc(#loc24)
      %791 = vector.broadcast %790 : f32 to vector<64xf32> loc(#loc24)
      %792 = vector.fma %754, %788, %764 : vector<64xf32> loc(#loc24)
      %793 = memref.load %38[%57, %784] : memref<?x?xf32, strided<[?, 1]>> loc(#loc24)
      %794 = vector.broadcast %793 : f32 to vector<64xf32> loc(#loc24)
      %795 = vector.fma %754, %791, %767 : vector<64xf32> loc(#loc24)
      %796 = memref.load %38[%61, %784] : memref<?x?xf32, strided<[?, 1]>> loc(#loc24)
      %797 = vector.broadcast %796 : f32 to vector<64xf32> loc(#loc24)
      %798 = vector.fma %754, %794, %770 : vector<64xf32> loc(#loc24)
      %799 = memref.load %38[%65, %784] : memref<?x?xf32, strided<[?, 1]>> loc(#loc24)
      %800 = vector.broadcast %799 : f32 to vector<64xf32> loc(#loc24)
      %801 = vector.fma %754, %797, %773 : vector<64xf32> loc(#loc24)
      %802 = memref.load %38[%69, %784] : memref<?x?xf32, strided<[?, 1]>> loc(#loc24)
      %803 = vector.broadcast %802 : f32 to vector<64xf32> loc(#loc24)
      %804 = vector.fma %754, %800, %776 : vector<64xf32> loc(#loc24)
      %805 = memref.load %38[%73, %784] : memref<?x?xf32, strided<[?, 1]>> loc(#loc24)
      %806 = vector.broadcast %805 : f32 to vector<64xf32> loc(#loc24)
      %807 = vector.fma %754, %803, %779 : vector<64xf32> loc(#loc24)
      %808 = vector.fma %754, %806, %780 : vector<64xf32> loc(#loc24)
      %809 = arith.addi %41#0, %c28 : index loc(#loc24)
      %810 = vector.load %40[%809, %41#1] : memref<?x?xf32, strided<[?, 1]>>, vector<64xf32> loc(#loc24)
      %811 = arith.addi %41#0, %c91 : index loc(#loc24)
      memref.prefetch %40[%811, %41#1], read, locality<1>, data : memref<?x?xf32, strided<[?, 1]>> loc(#loc24)
      %812 = arith.addi %39#1, %c27 : index loc(#loc24)
      %813 = memref.load %38[%39#0, %812] : memref<?x?xf32, strided<[?, 1]>> loc(#loc24)
      %814 = vector.broadcast %813 : f32 to vector<64xf32> loc(#loc24)
      %815 = memref.load %38[%49, %812] : memref<?x?xf32, strided<[?, 1]>> loc(#loc24)
      %816 = vector.broadcast %815 : f32 to vector<64xf32> loc(#loc24)
      %817 = vector.fma %782, %814, %789 : vector<64xf32> loc(#loc24)
      %818 = memref.load %38[%53, %812] : memref<?x?xf32, strided<[?, 1]>> loc(#loc24)
      %819 = vector.broadcast %818 : f32 to vector<64xf32> loc(#loc24)
      %820 = vector.fma %782, %816, %792 : vector<64xf32> loc(#loc24)
      %821 = memref.load %38[%57, %812] : memref<?x?xf32, strided<[?, 1]>> loc(#loc24)
      %822 = vector.broadcast %821 : f32 to vector<64xf32> loc(#loc24)
      %823 = vector.fma %782, %819, %795 : vector<64xf32> loc(#loc24)
      %824 = memref.load %38[%61, %812] : memref<?x?xf32, strided<[?, 1]>> loc(#loc24)
      %825 = vector.broadcast %824 : f32 to vector<64xf32> loc(#loc24)
      %826 = vector.fma %782, %822, %798 : vector<64xf32> loc(#loc24)
      %827 = memref.load %38[%65, %812] : memref<?x?xf32, strided<[?, 1]>> loc(#loc24)
      %828 = vector.broadcast %827 : f32 to vector<64xf32> loc(#loc24)
      %829 = vector.fma %782, %825, %801 : vector<64xf32> loc(#loc24)
      %830 = memref.load %38[%69, %812] : memref<?x?xf32, strided<[?, 1]>> loc(#loc24)
      %831 = vector.broadcast %830 : f32 to vector<64xf32> loc(#loc24)
      %832 = vector.fma %782, %828, %804 : vector<64xf32> loc(#loc24)
      %833 = memref.load %38[%73, %812] : memref<?x?xf32, strided<[?, 1]>> loc(#loc24)
      %834 = vector.broadcast %833 : f32 to vector<64xf32> loc(#loc24)
      %835 = vector.fma %782, %831, %807 : vector<64xf32> loc(#loc24)
      %836 = vector.fma %782, %834, %808 : vector<64xf32> loc(#loc24)
      %837 = arith.addi %41#0, %c29 : index loc(#loc24)
      %838 = vector.load %40[%837, %41#1] : memref<?x?xf32, strided<[?, 1]>>, vector<64xf32> loc(#loc24)
      %839 = arith.addi %41#0, %c92 : index loc(#loc24)
      memref.prefetch %40[%839, %41#1], read, locality<1>, data : memref<?x?xf32, strided<[?, 1]>> loc(#loc24)
      %840 = arith.addi %39#1, %c28 : index loc(#loc24)
      %841 = memref.load %38[%39#0, %840] : memref<?x?xf32, strided<[?, 1]>> loc(#loc24)
      %842 = vector.broadcast %841 : f32 to vector<64xf32> loc(#loc24)
      %843 = memref.load %38[%49, %840] : memref<?x?xf32, strided<[?, 1]>> loc(#loc24)
      %844 = vector.broadcast %843 : f32 to vector<64xf32> loc(#loc24)
      %845 = vector.fma %810, %842, %817 : vector<64xf32> loc(#loc24)
      %846 = memref.load %38[%53, %840] : memref<?x?xf32, strided<[?, 1]>> loc(#loc24)
      %847 = vector.broadcast %846 : f32 to vector<64xf32> loc(#loc24)
      %848 = vector.fma %810, %844, %820 : vector<64xf32> loc(#loc24)
      %849 = memref.load %38[%57, %840] : memref<?x?xf32, strided<[?, 1]>> loc(#loc24)
      %850 = vector.broadcast %849 : f32 to vector<64xf32> loc(#loc24)
      %851 = vector.fma %810, %847, %823 : vector<64xf32> loc(#loc24)
      %852 = memref.load %38[%61, %840] : memref<?x?xf32, strided<[?, 1]>> loc(#loc24)
      %853 = vector.broadcast %852 : f32 to vector<64xf32> loc(#loc24)
      %854 = vector.fma %810, %850, %826 : vector<64xf32> loc(#loc24)
      %855 = memref.load %38[%65, %840] : memref<?x?xf32, strided<[?, 1]>> loc(#loc24)
      %856 = vector.broadcast %855 : f32 to vector<64xf32> loc(#loc24)
      %857 = vector.fma %810, %853, %829 : vector<64xf32> loc(#loc24)
      %858 = memref.load %38[%69, %840] : memref<?x?xf32, strided<[?, 1]>> loc(#loc24)
      %859 = vector.broadcast %858 : f32 to vector<64xf32> loc(#loc24)
      %860 = vector.fma %810, %856, %832 : vector<64xf32> loc(#loc24)
      %861 = memref.load %38[%73, %840] : memref<?x?xf32, strided<[?, 1]>> loc(#loc24)
      %862 = vector.broadcast %861 : f32 to vector<64xf32> loc(#loc24)
      %863 = vector.fma %810, %859, %835 : vector<64xf32> loc(#loc24)
      %864 = vector.fma %810, %862, %836 : vector<64xf32> loc(#loc24)
      %865 = arith.addi %41#0, %c30 : index loc(#loc24)
      %866 = vector.load %40[%865, %41#1] : memref<?x?xf32, strided<[?, 1]>>, vector<64xf32> loc(#loc24)
      %867 = arith.addi %41#0, %c93 : index loc(#loc24)
      memref.prefetch %40[%867, %41#1], read, locality<1>, data : memref<?x?xf32, strided<[?, 1]>> loc(#loc24)
      %868 = arith.addi %39#1, %c29 : index loc(#loc24)
      %869 = memref.load %38[%39#0, %868] : memref<?x?xf32, strided<[?, 1]>> loc(#loc24)
      %870 = vector.broadcast %869 : f32 to vector<64xf32> loc(#loc24)
      %871 = memref.load %38[%49, %868] : memref<?x?xf32, strided<[?, 1]>> loc(#loc24)
      %872 = vector.broadcast %871 : f32 to vector<64xf32> loc(#loc24)
      %873 = vector.fma %838, %870, %845 : vector<64xf32> loc(#loc24)
      %874 = memref.load %38[%53, %868] : memref<?x?xf32, strided<[?, 1]>> loc(#loc24)
      %875 = vector.broadcast %874 : f32 to vector<64xf32> loc(#loc24)
      %876 = vector.fma %838, %872, %848 : vector<64xf32> loc(#loc24)
      %877 = memref.load %38[%57, %868] : memref<?x?xf32, strided<[?, 1]>> loc(#loc24)
      %878 = vector.broadcast %877 : f32 to vector<64xf32> loc(#loc24)
      %879 = vector.fma %838, %875, %851 : vector<64xf32> loc(#loc24)
      %880 = memref.load %38[%61, %868] : memref<?x?xf32, strided<[?, 1]>> loc(#loc24)
      %881 = vector.broadcast %880 : f32 to vector<64xf32> loc(#loc24)
      %882 = vector.fma %838, %878, %854 : vector<64xf32> loc(#loc24)
      %883 = memref.load %38[%65, %868] : memref<?x?xf32, strided<[?, 1]>> loc(#loc24)
      %884 = vector.broadcast %883 : f32 to vector<64xf32> loc(#loc24)
      %885 = vector.fma %838, %881, %857 : vector<64xf32> loc(#loc24)
      %886 = memref.load %38[%69, %868] : memref<?x?xf32, strided<[?, 1]>> loc(#loc24)
      %887 = vector.broadcast %886 : f32 to vector<64xf32> loc(#loc24)
      %888 = vector.fma %838, %884, %860 : vector<64xf32> loc(#loc24)
      %889 = memref.load %38[%73, %868] : memref<?x?xf32, strided<[?, 1]>> loc(#loc24)
      %890 = vector.broadcast %889 : f32 to vector<64xf32> loc(#loc24)
      %891 = vector.fma %838, %887, %863 : vector<64xf32> loc(#loc24)
      %892 = vector.fma %838, %890, %864 : vector<64xf32> loc(#loc24)
      %893 = arith.addi %41#0, %c31 : index loc(#loc24)
      %894 = vector.load %40[%893, %41#1] : memref<?x?xf32, strided<[?, 1]>>, vector<64xf32> loc(#loc24)
      %895 = arith.addi %41#0, %c94 : index loc(#loc24)
      memref.prefetch %40[%895, %41#1], read, locality<1>, data : memref<?x?xf32, strided<[?, 1]>> loc(#loc24)
      %896 = arith.addi %39#1, %c30 : index loc(#loc24)
      %897 = memref.load %38[%39#0, %896] : memref<?x?xf32, strided<[?, 1]>> loc(#loc24)
      %898 = vector.broadcast %897 : f32 to vector<64xf32> loc(#loc24)
      %899 = memref.load %38[%49, %896] : memref<?x?xf32, strided<[?, 1]>> loc(#loc24)
      %900 = vector.broadcast %899 : f32 to vector<64xf32> loc(#loc24)
      %901 = vector.fma %866, %898, %873 : vector<64xf32> loc(#loc24)
      %902 = memref.load %38[%53, %896] : memref<?x?xf32, strided<[?, 1]>> loc(#loc24)
      %903 = vector.broadcast %902 : f32 to vector<64xf32> loc(#loc24)
      %904 = vector.fma %866, %900, %876 : vector<64xf32> loc(#loc24)
      %905 = memref.load %38[%57, %896] : memref<?x?xf32, strided<[?, 1]>> loc(#loc24)
      %906 = vector.broadcast %905 : f32 to vector<64xf32> loc(#loc24)
      %907 = vector.fma %866, %903, %879 : vector<64xf32> loc(#loc24)
      %908 = memref.load %38[%61, %896] : memref<?x?xf32, strided<[?, 1]>> loc(#loc24)
      %909 = vector.broadcast %908 : f32 to vector<64xf32> loc(#loc24)
      %910 = vector.fma %866, %906, %882 : vector<64xf32> loc(#loc24)
      %911 = memref.load %38[%65, %896] : memref<?x?xf32, strided<[?, 1]>> loc(#loc24)
      %912 = vector.broadcast %911 : f32 to vector<64xf32> loc(#loc24)
      %913 = vector.fma %866, %909, %885 : vector<64xf32> loc(#loc24)
      %914 = memref.load %38[%69, %896] : memref<?x?xf32, strided<[?, 1]>> loc(#loc24)
      %915 = vector.broadcast %914 : f32 to vector<64xf32> loc(#loc24)
      %916 = vector.fma %866, %912, %888 : vector<64xf32> loc(#loc24)
      %917 = memref.load %38[%73, %896] : memref<?x?xf32, strided<[?, 1]>> loc(#loc24)
      %918 = vector.broadcast %917 : f32 to vector<64xf32> loc(#loc24)
      %919 = vector.fma %866, %915, %891 : vector<64xf32> loc(#loc24)
      %920 = vector.fma %866, %918, %892 : vector<64xf32> loc(#loc24)
      %921 = arith.addi %41#0, %c32 : index loc(#loc24)
      %922 = vector.load %40[%921, %41#1] : memref<?x?xf32, strided<[?, 1]>>, vector<64xf32> loc(#loc24)
      %923 = arith.addi %41#0, %c95 : index loc(#loc24)
      memref.prefetch %40[%923, %41#1], read, locality<1>, data : memref<?x?xf32, strided<[?, 1]>> loc(#loc24)
      %924 = arith.addi %39#1, %c31 : index loc(#loc24)
      %925 = memref.load %38[%39#0, %924] : memref<?x?xf32, strided<[?, 1]>> loc(#loc24)
      %926 = vector.broadcast %925 : f32 to vector<64xf32> loc(#loc24)
      %927 = memref.load %38[%49, %924] : memref<?x?xf32, strided<[?, 1]>> loc(#loc24)
      %928 = vector.broadcast %927 : f32 to vector<64xf32> loc(#loc24)
      %929 = vector.fma %894, %926, %901 : vector<64xf32> loc(#loc24)
      %930 = memref.load %38[%53, %924] : memref<?x?xf32, strided<[?, 1]>> loc(#loc24)
      %931 = vector.broadcast %930 : f32 to vector<64xf32> loc(#loc24)
      %932 = vector.fma %894, %928, %904 : vector<64xf32> loc(#loc24)
      %933 = memref.load %38[%57, %924] : memref<?x?xf32, strided<[?, 1]>> loc(#loc24)
      %934 = vector.broadcast %933 : f32 to vector<64xf32> loc(#loc24)
      %935 = vector.fma %894, %931, %907 : vector<64xf32> loc(#loc24)
      %936 = memref.load %38[%61, %924] : memref<?x?xf32, strided<[?, 1]>> loc(#loc24)
      %937 = vector.broadcast %936 : f32 to vector<64xf32> loc(#loc24)
      %938 = vector.fma %894, %934, %910 : vector<64xf32> loc(#loc24)
      %939 = memref.load %38[%65, %924] : memref<?x?xf32, strided<[?, 1]>> loc(#loc24)
      %940 = vector.broadcast %939 : f32 to vector<64xf32> loc(#loc24)
      %941 = vector.fma %894, %937, %913 : vector<64xf32> loc(#loc24)
      %942 = memref.load %38[%69, %924] : memref<?x?xf32, strided<[?, 1]>> loc(#loc24)
      %943 = vector.broadcast %942 : f32 to vector<64xf32> loc(#loc24)
      %944 = vector.fma %894, %940, %916 : vector<64xf32> loc(#loc24)
      %945 = memref.load %38[%73, %924] : memref<?x?xf32, strided<[?, 1]>> loc(#loc24)
      %946 = vector.broadcast %945 : f32 to vector<64xf32> loc(#loc24)
      %947 = vector.fma %894, %943, %919 : vector<64xf32> loc(#loc24)
      %948 = vector.fma %894, %946, %920 : vector<64xf32> loc(#loc24)
      %949 = arith.addi %41#0, %c33 : index loc(#loc24)
      %950 = vector.load %40[%949, %41#1] : memref<?x?xf32, strided<[?, 1]>>, vector<64xf32> loc(#loc24)
      %951 = arith.addi %41#0, %c96 : index loc(#loc24)
      memref.prefetch %40[%951, %41#1], read, locality<1>, data : memref<?x?xf32, strided<[?, 1]>> loc(#loc24)
      %952 = arith.addi %39#1, %c32 : index loc(#loc24)
      %953 = memref.load %38[%39#0, %952] : memref<?x?xf32, strided<[?, 1]>> loc(#loc24)
      %954 = vector.broadcast %953 : f32 to vector<64xf32> loc(#loc24)
      %955 = memref.load %38[%49, %952] : memref<?x?xf32, strided<[?, 1]>> loc(#loc24)
      %956 = vector.broadcast %955 : f32 to vector<64xf32> loc(#loc24)
      %957 = arith.addi %39#1, %c96 : index loc(#loc24)
      memref.prefetch %38[%39#0, %957], read, locality<3>, data : memref<?x?xf32, strided<[?, 1]>> loc(#loc24)
      %958 = vector.fma %922, %954, %929 : vector<64xf32> loc(#loc24)
      %959 = memref.load %38[%53, %952] : memref<?x?xf32, strided<[?, 1]>> loc(#loc24)
      %960 = vector.broadcast %959 : f32 to vector<64xf32> loc(#loc24)
      memref.prefetch %38[%49, %957], read, locality<3>, data : memref<?x?xf32, strided<[?, 1]>> loc(#loc24)
      %961 = vector.fma %922, %956, %932 : vector<64xf32> loc(#loc24)
      %962 = memref.load %38[%57, %952] : memref<?x?xf32, strided<[?, 1]>> loc(#loc24)
      %963 = vector.broadcast %962 : f32 to vector<64xf32> loc(#loc24)
      memref.prefetch %38[%53, %957], read, locality<3>, data : memref<?x?xf32, strided<[?, 1]>> loc(#loc24)
      %964 = vector.fma %922, %960, %935 : vector<64xf32> loc(#loc24)
      %965 = memref.load %38[%61, %952] : memref<?x?xf32, strided<[?, 1]>> loc(#loc24)
      %966 = vector.broadcast %965 : f32 to vector<64xf32> loc(#loc24)
      memref.prefetch %38[%57, %957], read, locality<3>, data : memref<?x?xf32, strided<[?, 1]>> loc(#loc24)
      %967 = vector.fma %922, %963, %938 : vector<64xf32> loc(#loc24)
      %968 = memref.load %38[%65, %952] : memref<?x?xf32, strided<[?, 1]>> loc(#loc24)
      %969 = vector.broadcast %968 : f32 to vector<64xf32> loc(#loc24)
      memref.prefetch %38[%61, %957], read, locality<3>, data : memref<?x?xf32, strided<[?, 1]>> loc(#loc24)
      %970 = vector.fma %922, %966, %941 : vector<64xf32> loc(#loc24)
      %971 = memref.load %38[%69, %952] : memref<?x?xf32, strided<[?, 1]>> loc(#loc24)
      %972 = vector.broadcast %971 : f32 to vector<64xf32> loc(#loc24)
      memref.prefetch %38[%65, %957], read, locality<3>, data : memref<?x?xf32, strided<[?, 1]>> loc(#loc24)
      %973 = vector.fma %922, %969, %944 : vector<64xf32> loc(#loc24)
      %974 = memref.load %38[%73, %952] : memref<?x?xf32, strided<[?, 1]>> loc(#loc24)
      %975 = vector.broadcast %974 : f32 to vector<64xf32> loc(#loc24)
      memref.prefetch %38[%69, %957], read, locality<3>, data : memref<?x?xf32, strided<[?, 1]>> loc(#loc24)
      %976 = vector.fma %922, %972, %947 : vector<64xf32> loc(#loc24)
      memref.prefetch %38[%73, %957], read, locality<3>, data : memref<?x?xf32, strided<[?, 1]>> loc(#loc24)
      %977 = vector.fma %922, %975, %948 : vector<64xf32> loc(#loc24)
      %978 = arith.addi %41#0, %c34 : index loc(#loc24)
      %979 = vector.load %40[%978, %41#1] : memref<?x?xf32, strided<[?, 1]>>, vector<64xf32> loc(#loc24)
      %980 = arith.addi %41#0, %c97 : index loc(#loc24)
      memref.prefetch %40[%980, %41#1], read, locality<1>, data : memref<?x?xf32, strided<[?, 1]>> loc(#loc24)
      %981 = arith.addi %39#1, %c33 : index loc(#loc24)
      %982 = memref.load %38[%39#0, %981] : memref<?x?xf32, strided<[?, 1]>> loc(#loc24)
      %983 = vector.broadcast %982 : f32 to vector<64xf32> loc(#loc24)
      %984 = memref.load %38[%49, %981] : memref<?x?xf32, strided<[?, 1]>> loc(#loc24)
      %985 = vector.broadcast %984 : f32 to vector<64xf32> loc(#loc24)
      %986 = vector.fma %950, %983, %958 : vector<64xf32> loc(#loc24)
      %987 = memref.load %38[%53, %981] : memref<?x?xf32, strided<[?, 1]>> loc(#loc24)
      %988 = vector.broadcast %987 : f32 to vector<64xf32> loc(#loc24)
      %989 = vector.fma %950, %985, %961 : vector<64xf32> loc(#loc24)
      %990 = memref.load %38[%57, %981] : memref<?x?xf32, strided<[?, 1]>> loc(#loc24)
      %991 = vector.broadcast %990 : f32 to vector<64xf32> loc(#loc24)
      %992 = vector.fma %950, %988, %964 : vector<64xf32> loc(#loc24)
      %993 = memref.load %38[%61, %981] : memref<?x?xf32, strided<[?, 1]>> loc(#loc24)
      %994 = vector.broadcast %993 : f32 to vector<64xf32> loc(#loc24)
      %995 = vector.fma %950, %991, %967 : vector<64xf32> loc(#loc24)
      %996 = memref.load %38[%65, %981] : memref<?x?xf32, strided<[?, 1]>> loc(#loc24)
      %997 = vector.broadcast %996 : f32 to vector<64xf32> loc(#loc24)
      %998 = vector.fma %950, %994, %970 : vector<64xf32> loc(#loc24)
      %999 = memref.load %38[%69, %981] : memref<?x?xf32, strided<[?, 1]>> loc(#loc24)
      %1000 = vector.broadcast %999 : f32 to vector<64xf32> loc(#loc24)
      %1001 = vector.fma %950, %997, %973 : vector<64xf32> loc(#loc24)
      %1002 = memref.load %38[%73, %981] : memref<?x?xf32, strided<[?, 1]>> loc(#loc24)
      %1003 = vector.broadcast %1002 : f32 to vector<64xf32> loc(#loc24)
      %1004 = vector.fma %950, %1000, %976 : vector<64xf32> loc(#loc24)
      %1005 = vector.fma %950, %1003, %977 : vector<64xf32> loc(#loc24)
      %1006 = arith.addi %41#0, %c35 : index loc(#loc24)
      %1007 = vector.load %40[%1006, %41#1] : memref<?x?xf32, strided<[?, 1]>>, vector<64xf32> loc(#loc24)
      %1008 = arith.addi %41#0, %c98 : index loc(#loc24)
      memref.prefetch %40[%1008, %41#1], read, locality<1>, data : memref<?x?xf32, strided<[?, 1]>> loc(#loc24)
      %1009 = arith.addi %39#1, %c34 : index loc(#loc24)
      %1010 = memref.load %38[%39#0, %1009] : memref<?x?xf32, strided<[?, 1]>> loc(#loc24)
      %1011 = vector.broadcast %1010 : f32 to vector<64xf32> loc(#loc24)
      %1012 = memref.load %38[%49, %1009] : memref<?x?xf32, strided<[?, 1]>> loc(#loc24)
      %1013 = vector.broadcast %1012 : f32 to vector<64xf32> loc(#loc24)
      %1014 = vector.fma %979, %1011, %986 : vector<64xf32> loc(#loc24)
      %1015 = memref.load %38[%53, %1009] : memref<?x?xf32, strided<[?, 1]>> loc(#loc24)
      %1016 = vector.broadcast %1015 : f32 to vector<64xf32> loc(#loc24)
      %1017 = vector.fma %979, %1013, %989 : vector<64xf32> loc(#loc24)
      %1018 = memref.load %38[%57, %1009] : memref<?x?xf32, strided<[?, 1]>> loc(#loc24)
      %1019 = vector.broadcast %1018 : f32 to vector<64xf32> loc(#loc24)
      %1020 = vector.fma %979, %1016, %992 : vector<64xf32> loc(#loc24)
      %1021 = memref.load %38[%61, %1009] : memref<?x?xf32, strided<[?, 1]>> loc(#loc24)
      %1022 = vector.broadcast %1021 : f32 to vector<64xf32> loc(#loc24)
      %1023 = vector.fma %979, %1019, %995 : vector<64xf32> loc(#loc24)
      %1024 = memref.load %38[%65, %1009] : memref<?x?xf32, strided<[?, 1]>> loc(#loc24)
      %1025 = vector.broadcast %1024 : f32 to vector<64xf32> loc(#loc24)
      %1026 = vector.fma %979, %1022, %998 : vector<64xf32> loc(#loc24)
      %1027 = memref.load %38[%69, %1009] : memref<?x?xf32, strided<[?, 1]>> loc(#loc24)
      %1028 = vector.broadcast %1027 : f32 to vector<64xf32> loc(#loc24)
      %1029 = vector.fma %979, %1025, %1001 : vector<64xf32> loc(#loc24)
      %1030 = memref.load %38[%73, %1009] : memref<?x?xf32, strided<[?, 1]>> loc(#loc24)
      %1031 = vector.broadcast %1030 : f32 to vector<64xf32> loc(#loc24)
      %1032 = vector.fma %979, %1028, %1004 : vector<64xf32> loc(#loc24)
      %1033 = vector.fma %979, %1031, %1005 : vector<64xf32> loc(#loc24)
      %1034 = arith.addi %41#0, %c36 : index loc(#loc24)
      %1035 = vector.load %40[%1034, %41#1] : memref<?x?xf32, strided<[?, 1]>>, vector<64xf32> loc(#loc24)
      %1036 = arith.addi %41#0, %c99 : index loc(#loc24)
      memref.prefetch %40[%1036, %41#1], read, locality<1>, data : memref<?x?xf32, strided<[?, 1]>> loc(#loc24)
      %1037 = arith.addi %39#1, %c35 : index loc(#loc24)
      %1038 = memref.load %38[%39#0, %1037] : memref<?x?xf32, strided<[?, 1]>> loc(#loc24)
      %1039 = vector.broadcast %1038 : f32 to vector<64xf32> loc(#loc24)
      %1040 = memref.load %38[%49, %1037] : memref<?x?xf32, strided<[?, 1]>> loc(#loc24)
      %1041 = vector.broadcast %1040 : f32 to vector<64xf32> loc(#loc24)
      %1042 = vector.fma %1007, %1039, %1014 : vector<64xf32> loc(#loc24)
      %1043 = memref.load %38[%53, %1037] : memref<?x?xf32, strided<[?, 1]>> loc(#loc24)
      %1044 = vector.broadcast %1043 : f32 to vector<64xf32> loc(#loc24)
      %1045 = vector.fma %1007, %1041, %1017 : vector<64xf32> loc(#loc24)
      %1046 = memref.load %38[%57, %1037] : memref<?x?xf32, strided<[?, 1]>> loc(#loc24)
      %1047 = vector.broadcast %1046 : f32 to vector<64xf32> loc(#loc24)
      %1048 = vector.fma %1007, %1044, %1020 : vector<64xf32> loc(#loc24)
      %1049 = memref.load %38[%61, %1037] : memref<?x?xf32, strided<[?, 1]>> loc(#loc24)
      %1050 = vector.broadcast %1049 : f32 to vector<64xf32> loc(#loc24)
      %1051 = vector.fma %1007, %1047, %1023 : vector<64xf32> loc(#loc24)
      %1052 = memref.load %38[%65, %1037] : memref<?x?xf32, strided<[?, 1]>> loc(#loc24)
      %1053 = vector.broadcast %1052 : f32 to vector<64xf32> loc(#loc24)
      %1054 = vector.fma %1007, %1050, %1026 : vector<64xf32> loc(#loc24)
      %1055 = memref.load %38[%69, %1037] : memref<?x?xf32, strided<[?, 1]>> loc(#loc24)
      %1056 = vector.broadcast %1055 : f32 to vector<64xf32> loc(#loc24)
      %1057 = vector.fma %1007, %1053, %1029 : vector<64xf32> loc(#loc24)
      %1058 = memref.load %38[%73, %1037] : memref<?x?xf32, strided<[?, 1]>> loc(#loc24)
      %1059 = vector.broadcast %1058 : f32 to vector<64xf32> loc(#loc24)
      %1060 = vector.fma %1007, %1056, %1032 : vector<64xf32> loc(#loc24)
      %1061 = vector.fma %1007, %1059, %1033 : vector<64xf32> loc(#loc24)
      %1062 = arith.addi %41#0, %c37 : index loc(#loc24)
      %1063 = vector.load %40[%1062, %41#1] : memref<?x?xf32, strided<[?, 1]>>, vector<64xf32> loc(#loc24)
      %1064 = arith.addi %41#0, %c100 : index loc(#loc24)
      memref.prefetch %40[%1064, %41#1], read, locality<1>, data : memref<?x?xf32, strided<[?, 1]>> loc(#loc24)
      %1065 = arith.addi %39#1, %c36 : index loc(#loc24)
      %1066 = memref.load %38[%39#0, %1065] : memref<?x?xf32, strided<[?, 1]>> loc(#loc24)
      %1067 = vector.broadcast %1066 : f32 to vector<64xf32> loc(#loc24)
      %1068 = memref.load %38[%49, %1065] : memref<?x?xf32, strided<[?, 1]>> loc(#loc24)
      %1069 = vector.broadcast %1068 : f32 to vector<64xf32> loc(#loc24)
      %1070 = vector.fma %1035, %1067, %1042 : vector<64xf32> loc(#loc24)
      %1071 = memref.load %38[%53, %1065] : memref<?x?xf32, strided<[?, 1]>> loc(#loc24)
      %1072 = vector.broadcast %1071 : f32 to vector<64xf32> loc(#loc24)
      %1073 = vector.fma %1035, %1069, %1045 : vector<64xf32> loc(#loc24)
      %1074 = memref.load %38[%57, %1065] : memref<?x?xf32, strided<[?, 1]>> loc(#loc24)
      %1075 = vector.broadcast %1074 : f32 to vector<64xf32> loc(#loc24)
      %1076 = vector.fma %1035, %1072, %1048 : vector<64xf32> loc(#loc24)
      %1077 = memref.load %38[%61, %1065] : memref<?x?xf32, strided<[?, 1]>> loc(#loc24)
      %1078 = vector.broadcast %1077 : f32 to vector<64xf32> loc(#loc24)
      %1079 = vector.fma %1035, %1075, %1051 : vector<64xf32> loc(#loc24)
      %1080 = memref.load %38[%65, %1065] : memref<?x?xf32, strided<[?, 1]>> loc(#loc24)
      %1081 = vector.broadcast %1080 : f32 to vector<64xf32> loc(#loc24)
      %1082 = vector.fma %1035, %1078, %1054 : vector<64xf32> loc(#loc24)
      %1083 = memref.load %38[%69, %1065] : memref<?x?xf32, strided<[?, 1]>> loc(#loc24)
      %1084 = vector.broadcast %1083 : f32 to vector<64xf32> loc(#loc24)
      %1085 = vector.fma %1035, %1081, %1057 : vector<64xf32> loc(#loc24)
      %1086 = memref.load %38[%73, %1065] : memref<?x?xf32, strided<[?, 1]>> loc(#loc24)
      %1087 = vector.broadcast %1086 : f32 to vector<64xf32> loc(#loc24)
      %1088 = vector.fma %1035, %1084, %1060 : vector<64xf32> loc(#loc24)
      %1089 = vector.fma %1035, %1087, %1061 : vector<64xf32> loc(#loc24)
      %1090 = arith.addi %41#0, %c38 : index loc(#loc24)
      %1091 = vector.load %40[%1090, %41#1] : memref<?x?xf32, strided<[?, 1]>>, vector<64xf32> loc(#loc24)
      %1092 = arith.addi %41#0, %c101 : index loc(#loc24)
      memref.prefetch %40[%1092, %41#1], read, locality<1>, data : memref<?x?xf32, strided<[?, 1]>> loc(#loc24)
      %1093 = arith.addi %39#1, %c37 : index loc(#loc24)
      %1094 = memref.load %38[%39#0, %1093] : memref<?x?xf32, strided<[?, 1]>> loc(#loc24)
      %1095 = vector.broadcast %1094 : f32 to vector<64xf32> loc(#loc24)
      %1096 = memref.load %38[%49, %1093] : memref<?x?xf32, strided<[?, 1]>> loc(#loc24)
      %1097 = vector.broadcast %1096 : f32 to vector<64xf32> loc(#loc24)
      %1098 = vector.fma %1063, %1095, %1070 : vector<64xf32> loc(#loc24)
      %1099 = memref.load %38[%53, %1093] : memref<?x?xf32, strided<[?, 1]>> loc(#loc24)
      %1100 = vector.broadcast %1099 : f32 to vector<64xf32> loc(#loc24)
      %1101 = vector.fma %1063, %1097, %1073 : vector<64xf32> loc(#loc24)
      %1102 = memref.load %38[%57, %1093] : memref<?x?xf32, strided<[?, 1]>> loc(#loc24)
      %1103 = vector.broadcast %1102 : f32 to vector<64xf32> loc(#loc24)
      %1104 = vector.fma %1063, %1100, %1076 : vector<64xf32> loc(#loc24)
      %1105 = memref.load %38[%61, %1093] : memref<?x?xf32, strided<[?, 1]>> loc(#loc24)
      %1106 = vector.broadcast %1105 : f32 to vector<64xf32> loc(#loc24)
      %1107 = vector.fma %1063, %1103, %1079 : vector<64xf32> loc(#loc24)
      %1108 = memref.load %38[%65, %1093] : memref<?x?xf32, strided<[?, 1]>> loc(#loc24)
      %1109 = vector.broadcast %1108 : f32 to vector<64xf32> loc(#loc24)
      %1110 = vector.fma %1063, %1106, %1082 : vector<64xf32> loc(#loc24)
      %1111 = memref.load %38[%69, %1093] : memref<?x?xf32, strided<[?, 1]>> loc(#loc24)
      %1112 = vector.broadcast %1111 : f32 to vector<64xf32> loc(#loc24)
      %1113 = vector.fma %1063, %1109, %1085 : vector<64xf32> loc(#loc24)
      %1114 = memref.load %38[%73, %1093] : memref<?x?xf32, strided<[?, 1]>> loc(#loc24)
      %1115 = vector.broadcast %1114 : f32 to vector<64xf32> loc(#loc24)
      %1116 = vector.fma %1063, %1112, %1088 : vector<64xf32> loc(#loc24)
      %1117 = vector.fma %1063, %1115, %1089 : vector<64xf32> loc(#loc24)
      %1118 = arith.addi %41#0, %c39 : index loc(#loc24)
      %1119 = vector.load %40[%1118, %41#1] : memref<?x?xf32, strided<[?, 1]>>, vector<64xf32> loc(#loc24)
      %1120 = arith.addi %41#0, %c102 : index loc(#loc24)
      memref.prefetch %40[%1120, %41#1], read, locality<1>, data : memref<?x?xf32, strided<[?, 1]>> loc(#loc24)
      %1121 = arith.addi %39#1, %c38 : index loc(#loc24)
      %1122 = memref.load %38[%39#0, %1121] : memref<?x?xf32, strided<[?, 1]>> loc(#loc24)
      %1123 = vector.broadcast %1122 : f32 to vector<64xf32> loc(#loc24)
      %1124 = memref.load %38[%49, %1121] : memref<?x?xf32, strided<[?, 1]>> loc(#loc24)
      %1125 = vector.broadcast %1124 : f32 to vector<64xf32> loc(#loc24)
      %1126 = vector.fma %1091, %1123, %1098 : vector<64xf32> loc(#loc24)
      %1127 = memref.load %38[%53, %1121] : memref<?x?xf32, strided<[?, 1]>> loc(#loc24)
      %1128 = vector.broadcast %1127 : f32 to vector<64xf32> loc(#loc24)
      %1129 = vector.fma %1091, %1125, %1101 : vector<64xf32> loc(#loc24)
      %1130 = memref.load %38[%57, %1121] : memref<?x?xf32, strided<[?, 1]>> loc(#loc24)
      %1131 = vector.broadcast %1130 : f32 to vector<64xf32> loc(#loc24)
      %1132 = vector.fma %1091, %1128, %1104 : vector<64xf32> loc(#loc24)
      %1133 = memref.load %38[%61, %1121] : memref<?x?xf32, strided<[?, 1]>> loc(#loc24)
      %1134 = vector.broadcast %1133 : f32 to vector<64xf32> loc(#loc24)
      %1135 = vector.fma %1091, %1131, %1107 : vector<64xf32> loc(#loc24)
      %1136 = memref.load %38[%65, %1121] : memref<?x?xf32, strided<[?, 1]>> loc(#loc24)
      %1137 = vector.broadcast %1136 : f32 to vector<64xf32> loc(#loc24)
      %1138 = vector.fma %1091, %1134, %1110 : vector<64xf32> loc(#loc24)
      %1139 = memref.load %38[%69, %1121] : memref<?x?xf32, strided<[?, 1]>> loc(#loc24)
      %1140 = vector.broadcast %1139 : f32 to vector<64xf32> loc(#loc24)
      %1141 = vector.fma %1091, %1137, %1113 : vector<64xf32> loc(#loc24)
      %1142 = memref.load %38[%73, %1121] : memref<?x?xf32, strided<[?, 1]>> loc(#loc24)
      %1143 = vector.broadcast %1142 : f32 to vector<64xf32> loc(#loc24)
      %1144 = vector.fma %1091, %1140, %1116 : vector<64xf32> loc(#loc24)
      %1145 = vector.fma %1091, %1143, %1117 : vector<64xf32> loc(#loc24)
      %1146 = arith.addi %41#0, %c40 : index loc(#loc24)
      %1147 = vector.load %40[%1146, %41#1] : memref<?x?xf32, strided<[?, 1]>>, vector<64xf32> loc(#loc24)
      %1148 = arith.addi %41#0, %c103 : index loc(#loc24)
      memref.prefetch %40[%1148, %41#1], read, locality<1>, data : memref<?x?xf32, strided<[?, 1]>> loc(#loc24)
      %1149 = arith.addi %39#1, %c39 : index loc(#loc24)
      %1150 = memref.load %38[%39#0, %1149] : memref<?x?xf32, strided<[?, 1]>> loc(#loc24)
      %1151 = vector.broadcast %1150 : f32 to vector<64xf32> loc(#loc24)
      %1152 = memref.load %38[%49, %1149] : memref<?x?xf32, strided<[?, 1]>> loc(#loc24)
      %1153 = vector.broadcast %1152 : f32 to vector<64xf32> loc(#loc24)
      %1154 = vector.fma %1119, %1151, %1126 : vector<64xf32> loc(#loc24)
      %1155 = memref.load %38[%53, %1149] : memref<?x?xf32, strided<[?, 1]>> loc(#loc24)
      %1156 = vector.broadcast %1155 : f32 to vector<64xf32> loc(#loc24)
      %1157 = vector.fma %1119, %1153, %1129 : vector<64xf32> loc(#loc24)
      %1158 = memref.load %38[%57, %1149] : memref<?x?xf32, strided<[?, 1]>> loc(#loc24)
      %1159 = vector.broadcast %1158 : f32 to vector<64xf32> loc(#loc24)
      %1160 = vector.fma %1119, %1156, %1132 : vector<64xf32> loc(#loc24)
      %1161 = memref.load %38[%61, %1149] : memref<?x?xf32, strided<[?, 1]>> loc(#loc24)
      %1162 = vector.broadcast %1161 : f32 to vector<64xf32> loc(#loc24)
      %1163 = vector.fma %1119, %1159, %1135 : vector<64xf32> loc(#loc24)
      %1164 = memref.load %38[%65, %1149] : memref<?x?xf32, strided<[?, 1]>> loc(#loc24)
      %1165 = vector.broadcast %1164 : f32 to vector<64xf32> loc(#loc24)
      %1166 = vector.fma %1119, %1162, %1138 : vector<64xf32> loc(#loc24)
      %1167 = memref.load %38[%69, %1149] : memref<?x?xf32, strided<[?, 1]>> loc(#loc24)
      %1168 = vector.broadcast %1167 : f32 to vector<64xf32> loc(#loc24)
      %1169 = vector.fma %1119, %1165, %1141 : vector<64xf32> loc(#loc24)
      %1170 = memref.load %38[%73, %1149] : memref<?x?xf32, strided<[?, 1]>> loc(#loc24)
      %1171 = vector.broadcast %1170 : f32 to vector<64xf32> loc(#loc24)
      %1172 = vector.fma %1119, %1168, %1144 : vector<64xf32> loc(#loc24)
      %1173 = vector.fma %1119, %1171, %1145 : vector<64xf32> loc(#loc24)
      %1174 = arith.addi %41#0, %c41 : index loc(#loc24)
      %1175 = vector.load %40[%1174, %41#1] : memref<?x?xf32, strided<[?, 1]>>, vector<64xf32> loc(#loc24)
      %1176 = arith.addi %41#0, %c104 : index loc(#loc24)
      memref.prefetch %40[%1176, %41#1], read, locality<1>, data : memref<?x?xf32, strided<[?, 1]>> loc(#loc24)
      %1177 = arith.addi %39#1, %c40 : index loc(#loc24)
      %1178 = memref.load %38[%39#0, %1177] : memref<?x?xf32, strided<[?, 1]>> loc(#loc24)
      %1179 = vector.broadcast %1178 : f32 to vector<64xf32> loc(#loc24)
      %1180 = memref.load %38[%49, %1177] : memref<?x?xf32, strided<[?, 1]>> loc(#loc24)
      %1181 = vector.broadcast %1180 : f32 to vector<64xf32> loc(#loc24)
      %1182 = arith.addi %39#1, %c104 : index loc(#loc24)
      memref.prefetch %38[%39#0, %1182], read, locality<3>, data : memref<?x?xf32, strided<[?, 1]>> loc(#loc24)
      %1183 = vector.fma %1147, %1179, %1154 : vector<64xf32> loc(#loc24)
      %1184 = memref.load %38[%53, %1177] : memref<?x?xf32, strided<[?, 1]>> loc(#loc24)
      %1185 = vector.broadcast %1184 : f32 to vector<64xf32> loc(#loc24)
      memref.prefetch %38[%49, %1182], read, locality<3>, data : memref<?x?xf32, strided<[?, 1]>> loc(#loc24)
      %1186 = vector.fma %1147, %1181, %1157 : vector<64xf32> loc(#loc24)
      %1187 = memref.load %38[%57, %1177] : memref<?x?xf32, strided<[?, 1]>> loc(#loc24)
      %1188 = vector.broadcast %1187 : f32 to vector<64xf32> loc(#loc24)
      memref.prefetch %38[%53, %1182], read, locality<3>, data : memref<?x?xf32, strided<[?, 1]>> loc(#loc24)
      %1189 = vector.fma %1147, %1185, %1160 : vector<64xf32> loc(#loc24)
      %1190 = memref.load %38[%61, %1177] : memref<?x?xf32, strided<[?, 1]>> loc(#loc24)
      %1191 = vector.broadcast %1190 : f32 to vector<64xf32> loc(#loc24)
      memref.prefetch %38[%57, %1182], read, locality<3>, data : memref<?x?xf32, strided<[?, 1]>> loc(#loc24)
      %1192 = vector.fma %1147, %1188, %1163 : vector<64xf32> loc(#loc24)
      %1193 = memref.load %38[%65, %1177] : memref<?x?xf32, strided<[?, 1]>> loc(#loc24)
      %1194 = vector.broadcast %1193 : f32 to vector<64xf32> loc(#loc24)
      memref.prefetch %38[%61, %1182], read, locality<3>, data : memref<?x?xf32, strided<[?, 1]>> loc(#loc24)
      %1195 = vector.fma %1147, %1191, %1166 : vector<64xf32> loc(#loc24)
      %1196 = memref.load %38[%69, %1177] : memref<?x?xf32, strided<[?, 1]>> loc(#loc24)
      %1197 = vector.broadcast %1196 : f32 to vector<64xf32> loc(#loc24)
      memref.prefetch %38[%65, %1182], read, locality<3>, data : memref<?x?xf32, strided<[?, 1]>> loc(#loc24)
      %1198 = vector.fma %1147, %1194, %1169 : vector<64xf32> loc(#loc24)
      %1199 = memref.load %38[%73, %1177] : memref<?x?xf32, strided<[?, 1]>> loc(#loc24)
      %1200 = vector.broadcast %1199 : f32 to vector<64xf32> loc(#loc24)
      memref.prefetch %38[%69, %1182], read, locality<3>, data : memref<?x?xf32, strided<[?, 1]>> loc(#loc24)
      %1201 = vector.fma %1147, %1197, %1172 : vector<64xf32> loc(#loc24)
      memref.prefetch %38[%73, %1182], read, locality<3>, data : memref<?x?xf32, strided<[?, 1]>> loc(#loc24)
      %1202 = vector.fma %1147, %1200, %1173 : vector<64xf32> loc(#loc24)
      %1203 = arith.addi %41#0, %c42 : index loc(#loc24)
      %1204 = vector.load %40[%1203, %41#1] : memref<?x?xf32, strided<[?, 1]>>, vector<64xf32> loc(#loc24)
      %1205 = arith.addi %41#0, %c105 : index loc(#loc24)
      memref.prefetch %40[%1205, %41#1], read, locality<1>, data : memref<?x?xf32, strided<[?, 1]>> loc(#loc24)
      %1206 = arith.addi %39#1, %c41 : index loc(#loc24)
      %1207 = memref.load %38[%39#0, %1206] : memref<?x?xf32, strided<[?, 1]>> loc(#loc24)
      %1208 = vector.broadcast %1207 : f32 to vector<64xf32> loc(#loc24)
      %1209 = memref.load %38[%49, %1206] : memref<?x?xf32, strided<[?, 1]>> loc(#loc24)
      %1210 = vector.broadcast %1209 : f32 to vector<64xf32> loc(#loc24)
      %1211 = vector.fma %1175, %1208, %1183 : vector<64xf32> loc(#loc24)
      %1212 = memref.load %38[%53, %1206] : memref<?x?xf32, strided<[?, 1]>> loc(#loc24)
      %1213 = vector.broadcast %1212 : f32 to vector<64xf32> loc(#loc24)
      %1214 = vector.fma %1175, %1210, %1186 : vector<64xf32> loc(#loc24)
      %1215 = memref.load %38[%57, %1206] : memref<?x?xf32, strided<[?, 1]>> loc(#loc24)
      %1216 = vector.broadcast %1215 : f32 to vector<64xf32> loc(#loc24)
      %1217 = vector.fma %1175, %1213, %1189 : vector<64xf32> loc(#loc24)
      %1218 = memref.load %38[%61, %1206] : memref<?x?xf32, strided<[?, 1]>> loc(#loc24)
      %1219 = vector.broadcast %1218 : f32 to vector<64xf32> loc(#loc24)
      %1220 = vector.fma %1175, %1216, %1192 : vector<64xf32> loc(#loc24)
      %1221 = memref.load %38[%65, %1206] : memref<?x?xf32, strided<[?, 1]>> loc(#loc24)
      %1222 = vector.broadcast %1221 : f32 to vector<64xf32> loc(#loc24)
      %1223 = vector.fma %1175, %1219, %1195 : vector<64xf32> loc(#loc24)
      %1224 = memref.load %38[%69, %1206] : memref<?x?xf32, strided<[?, 1]>> loc(#loc24)
      %1225 = vector.broadcast %1224 : f32 to vector<64xf32> loc(#loc24)
      %1226 = vector.fma %1175, %1222, %1198 : vector<64xf32> loc(#loc24)
      %1227 = memref.load %38[%73, %1206] : memref<?x?xf32, strided<[?, 1]>> loc(#loc24)
      %1228 = vector.broadcast %1227 : f32 to vector<64xf32> loc(#loc24)
      %1229 = vector.fma %1175, %1225, %1201 : vector<64xf32> loc(#loc24)
      %1230 = vector.fma %1175, %1228, %1202 : vector<64xf32> loc(#loc24)
      %1231 = arith.addi %41#0, %c43 : index loc(#loc24)
      %1232 = vector.load %40[%1231, %41#1] : memref<?x?xf32, strided<[?, 1]>>, vector<64xf32> loc(#loc24)
      %1233 = arith.addi %41#0, %c106 : index loc(#loc24)
      memref.prefetch %40[%1233, %41#1], read, locality<1>, data : memref<?x?xf32, strided<[?, 1]>> loc(#loc24)
      %1234 = arith.addi %39#1, %c42 : index loc(#loc24)
      %1235 = memref.load %38[%39#0, %1234] : memref<?x?xf32, strided<[?, 1]>> loc(#loc24)
      %1236 = vector.broadcast %1235 : f32 to vector<64xf32> loc(#loc24)
      %1237 = memref.load %38[%49, %1234] : memref<?x?xf32, strided<[?, 1]>> loc(#loc24)
      %1238 = vector.broadcast %1237 : f32 to vector<64xf32> loc(#loc24)
      %1239 = vector.fma %1204, %1236, %1211 : vector<64xf32> loc(#loc24)
      %1240 = memref.load %38[%53, %1234] : memref<?x?xf32, strided<[?, 1]>> loc(#loc24)
      %1241 = vector.broadcast %1240 : f32 to vector<64xf32> loc(#loc24)
      %1242 = vector.fma %1204, %1238, %1214 : vector<64xf32> loc(#loc24)
      %1243 = memref.load %38[%57, %1234] : memref<?x?xf32, strided<[?, 1]>> loc(#loc24)
      %1244 = vector.broadcast %1243 : f32 to vector<64xf32> loc(#loc24)
      %1245 = vector.fma %1204, %1241, %1217 : vector<64xf32> loc(#loc24)
      %1246 = memref.load %38[%61, %1234] : memref<?x?xf32, strided<[?, 1]>> loc(#loc24)
      %1247 = vector.broadcast %1246 : f32 to vector<64xf32> loc(#loc24)
      %1248 = vector.fma %1204, %1244, %1220 : vector<64xf32> loc(#loc24)
      %1249 = memref.load %38[%65, %1234] : memref<?x?xf32, strided<[?, 1]>> loc(#loc24)
      %1250 = vector.broadcast %1249 : f32 to vector<64xf32> loc(#loc24)
      %1251 = vector.fma %1204, %1247, %1223 : vector<64xf32> loc(#loc24)
      %1252 = memref.load %38[%69, %1234] : memref<?x?xf32, strided<[?, 1]>> loc(#loc24)
      %1253 = vector.broadcast %1252 : f32 to vector<64xf32> loc(#loc24)
      %1254 = vector.fma %1204, %1250, %1226 : vector<64xf32> loc(#loc24)
      %1255 = memref.load %38[%73, %1234] : memref<?x?xf32, strided<[?, 1]>> loc(#loc24)
      %1256 = vector.broadcast %1255 : f32 to vector<64xf32> loc(#loc24)
      %1257 = vector.fma %1204, %1253, %1229 : vector<64xf32> loc(#loc24)
      %1258 = vector.fma %1204, %1256, %1230 : vector<64xf32> loc(#loc24)
      %1259 = arith.addi %41#0, %c44 : index loc(#loc24)
      %1260 = vector.load %40[%1259, %41#1] : memref<?x?xf32, strided<[?, 1]>>, vector<64xf32> loc(#loc24)
      %1261 = arith.addi %41#0, %c107 : index loc(#loc24)
      memref.prefetch %40[%1261, %41#1], read, locality<1>, data : memref<?x?xf32, strided<[?, 1]>> loc(#loc24)
      %1262 = arith.addi %39#1, %c43 : index loc(#loc24)
      %1263 = memref.load %38[%39#0, %1262] : memref<?x?xf32, strided<[?, 1]>> loc(#loc24)
      %1264 = vector.broadcast %1263 : f32 to vector<64xf32> loc(#loc24)
      %1265 = memref.load %38[%49, %1262] : memref<?x?xf32, strided<[?, 1]>> loc(#loc24)
      %1266 = vector.broadcast %1265 : f32 to vector<64xf32> loc(#loc24)
      %1267 = vector.fma %1232, %1264, %1239 : vector<64xf32> loc(#loc24)
      %1268 = memref.load %38[%53, %1262] : memref<?x?xf32, strided<[?, 1]>> loc(#loc24)
      %1269 = vector.broadcast %1268 : f32 to vector<64xf32> loc(#loc24)
      %1270 = vector.fma %1232, %1266, %1242 : vector<64xf32> loc(#loc24)
      %1271 = memref.load %38[%57, %1262] : memref<?x?xf32, strided<[?, 1]>> loc(#loc24)
      %1272 = vector.broadcast %1271 : f32 to vector<64xf32> loc(#loc24)
      %1273 = vector.fma %1232, %1269, %1245 : vector<64xf32> loc(#loc24)
      %1274 = memref.load %38[%61, %1262] : memref<?x?xf32, strided<[?, 1]>> loc(#loc24)
      %1275 = vector.broadcast %1274 : f32 to vector<64xf32> loc(#loc24)
      %1276 = vector.fma %1232, %1272, %1248 : vector<64xf32> loc(#loc24)
      %1277 = memref.load %38[%65, %1262] : memref<?x?xf32, strided<[?, 1]>> loc(#loc24)
      %1278 = vector.broadcast %1277 : f32 to vector<64xf32> loc(#loc24)
      %1279 = vector.fma %1232, %1275, %1251 : vector<64xf32> loc(#loc24)
      %1280 = memref.load %38[%69, %1262] : memref<?x?xf32, strided<[?, 1]>> loc(#loc24)
      %1281 = vector.broadcast %1280 : f32 to vector<64xf32> loc(#loc24)
      %1282 = vector.fma %1232, %1278, %1254 : vector<64xf32> loc(#loc24)
      %1283 = memref.load %38[%73, %1262] : memref<?x?xf32, strided<[?, 1]>> loc(#loc24)
      %1284 = vector.broadcast %1283 : f32 to vector<64xf32> loc(#loc24)
      %1285 = vector.fma %1232, %1281, %1257 : vector<64xf32> loc(#loc24)
      %1286 = vector.fma %1232, %1284, %1258 : vector<64xf32> loc(#loc24)
      %1287 = arith.addi %41#0, %c45 : index loc(#loc24)
      %1288 = vector.load %40[%1287, %41#1] : memref<?x?xf32, strided<[?, 1]>>, vector<64xf32> loc(#loc24)
      %1289 = arith.addi %41#0, %c108 : index loc(#loc24)
      memref.prefetch %40[%1289, %41#1], read, locality<1>, data : memref<?x?xf32, strided<[?, 1]>> loc(#loc24)
      %1290 = arith.addi %39#1, %c44 : index loc(#loc24)
      %1291 = memref.load %38[%39#0, %1290] : memref<?x?xf32, strided<[?, 1]>> loc(#loc24)
      %1292 = vector.broadcast %1291 : f32 to vector<64xf32> loc(#loc24)
      %1293 = memref.load %38[%49, %1290] : memref<?x?xf32, strided<[?, 1]>> loc(#loc24)
      %1294 = vector.broadcast %1293 : f32 to vector<64xf32> loc(#loc24)
      %1295 = vector.fma %1260, %1292, %1267 : vector<64xf32> loc(#loc24)
      %1296 = memref.load %38[%53, %1290] : memref<?x?xf32, strided<[?, 1]>> loc(#loc24)
      %1297 = vector.broadcast %1296 : f32 to vector<64xf32> loc(#loc24)
      %1298 = vector.fma %1260, %1294, %1270 : vector<64xf32> loc(#loc24)
      %1299 = memref.load %38[%57, %1290] : memref<?x?xf32, strided<[?, 1]>> loc(#loc24)
      %1300 = vector.broadcast %1299 : f32 to vector<64xf32> loc(#loc24)
      %1301 = vector.fma %1260, %1297, %1273 : vector<64xf32> loc(#loc24)
      %1302 = memref.load %38[%61, %1290] : memref<?x?xf32, strided<[?, 1]>> loc(#loc24)
      %1303 = vector.broadcast %1302 : f32 to vector<64xf32> loc(#loc24)
      %1304 = vector.fma %1260, %1300, %1276 : vector<64xf32> loc(#loc24)
      %1305 = memref.load %38[%65, %1290] : memref<?x?xf32, strided<[?, 1]>> loc(#loc24)
      %1306 = vector.broadcast %1305 : f32 to vector<64xf32> loc(#loc24)
      %1307 = vector.fma %1260, %1303, %1279 : vector<64xf32> loc(#loc24)
      %1308 = memref.load %38[%69, %1290] : memref<?x?xf32, strided<[?, 1]>> loc(#loc24)
      %1309 = vector.broadcast %1308 : f32 to vector<64xf32> loc(#loc24)
      %1310 = vector.fma %1260, %1306, %1282 : vector<64xf32> loc(#loc24)
      %1311 = memref.load %38[%73, %1290] : memref<?x?xf32, strided<[?, 1]>> loc(#loc24)
      %1312 = vector.broadcast %1311 : f32 to vector<64xf32> loc(#loc24)
      %1313 = vector.fma %1260, %1309, %1285 : vector<64xf32> loc(#loc24)
      %1314 = vector.fma %1260, %1312, %1286 : vector<64xf32> loc(#loc24)
      %1315 = arith.addi %41#0, %c46 : index loc(#loc24)
      %1316 = vector.load %40[%1315, %41#1] : memref<?x?xf32, strided<[?, 1]>>, vector<64xf32> loc(#loc24)
      %1317 = arith.addi %41#0, %c109 : index loc(#loc24)
      memref.prefetch %40[%1317, %41#1], read, locality<1>, data : memref<?x?xf32, strided<[?, 1]>> loc(#loc24)
      %1318 = arith.addi %39#1, %c45 : index loc(#loc24)
      %1319 = memref.load %38[%39#0, %1318] : memref<?x?xf32, strided<[?, 1]>> loc(#loc24)
      %1320 = vector.broadcast %1319 : f32 to vector<64xf32> loc(#loc24)
      %1321 = memref.load %38[%49, %1318] : memref<?x?xf32, strided<[?, 1]>> loc(#loc24)
      %1322 = vector.broadcast %1321 : f32 to vector<64xf32> loc(#loc24)
      %1323 = vector.fma %1288, %1320, %1295 : vector<64xf32> loc(#loc24)
      %1324 = memref.load %38[%53, %1318] : memref<?x?xf32, strided<[?, 1]>> loc(#loc24)
      %1325 = vector.broadcast %1324 : f32 to vector<64xf32> loc(#loc24)
      %1326 = vector.fma %1288, %1322, %1298 : vector<64xf32> loc(#loc24)
      %1327 = memref.load %38[%57, %1318] : memref<?x?xf32, strided<[?, 1]>> loc(#loc24)
      %1328 = vector.broadcast %1327 : f32 to vector<64xf32> loc(#loc24)
      %1329 = vector.fma %1288, %1325, %1301 : vector<64xf32> loc(#loc24)
      %1330 = memref.load %38[%61, %1318] : memref<?x?xf32, strided<[?, 1]>> loc(#loc24)
      %1331 = vector.broadcast %1330 : f32 to vector<64xf32> loc(#loc24)
      %1332 = vector.fma %1288, %1328, %1304 : vector<64xf32> loc(#loc24)
      %1333 = memref.load %38[%65, %1318] : memref<?x?xf32, strided<[?, 1]>> loc(#loc24)
      %1334 = vector.broadcast %1333 : f32 to vector<64xf32> loc(#loc24)
      %1335 = vector.fma %1288, %1331, %1307 : vector<64xf32> loc(#loc24)
      %1336 = memref.load %38[%69, %1318] : memref<?x?xf32, strided<[?, 1]>> loc(#loc24)
      %1337 = vector.broadcast %1336 : f32 to vector<64xf32> loc(#loc24)
      %1338 = vector.fma %1288, %1334, %1310 : vector<64xf32> loc(#loc24)
      %1339 = memref.load %38[%73, %1318] : memref<?x?xf32, strided<[?, 1]>> loc(#loc24)
      %1340 = vector.broadcast %1339 : f32 to vector<64xf32> loc(#loc24)
      %1341 = vector.fma %1288, %1337, %1313 : vector<64xf32> loc(#loc24)
      %1342 = vector.fma %1288, %1340, %1314 : vector<64xf32> loc(#loc24)
      %1343 = arith.addi %41#0, %c47 : index loc(#loc24)
      %1344 = vector.load %40[%1343, %41#1] : memref<?x?xf32, strided<[?, 1]>>, vector<64xf32> loc(#loc24)
      %1345 = arith.addi %41#0, %c110 : index loc(#loc24)
      memref.prefetch %40[%1345, %41#1], read, locality<1>, data : memref<?x?xf32, strided<[?, 1]>> loc(#loc24)
      %1346 = arith.addi %39#1, %c46 : index loc(#loc24)
      %1347 = memref.load %38[%39#0, %1346] : memref<?x?xf32, strided<[?, 1]>> loc(#loc24)
      %1348 = vector.broadcast %1347 : f32 to vector<64xf32> loc(#loc24)
      %1349 = memref.load %38[%49, %1346] : memref<?x?xf32, strided<[?, 1]>> loc(#loc24)
      %1350 = vector.broadcast %1349 : f32 to vector<64xf32> loc(#loc24)
      %1351 = vector.fma %1316, %1348, %1323 : vector<64xf32> loc(#loc24)
      %1352 = memref.load %38[%53, %1346] : memref<?x?xf32, strided<[?, 1]>> loc(#loc24)
      %1353 = vector.broadcast %1352 : f32 to vector<64xf32> loc(#loc24)
      %1354 = vector.fma %1316, %1350, %1326 : vector<64xf32> loc(#loc24)
      %1355 = memref.load %38[%57, %1346] : memref<?x?xf32, strided<[?, 1]>> loc(#loc24)
      %1356 = vector.broadcast %1355 : f32 to vector<64xf32> loc(#loc24)
      %1357 = vector.fma %1316, %1353, %1329 : vector<64xf32> loc(#loc24)
      %1358 = memref.load %38[%61, %1346] : memref<?x?xf32, strided<[?, 1]>> loc(#loc24)
      %1359 = vector.broadcast %1358 : f32 to vector<64xf32> loc(#loc24)
      %1360 = vector.fma %1316, %1356, %1332 : vector<64xf32> loc(#loc24)
      %1361 = memref.load %38[%65, %1346] : memref<?x?xf32, strided<[?, 1]>> loc(#loc24)
      %1362 = vector.broadcast %1361 : f32 to vector<64xf32> loc(#loc24)
      %1363 = vector.fma %1316, %1359, %1335 : vector<64xf32> loc(#loc24)
      %1364 = memref.load %38[%69, %1346] : memref<?x?xf32, strided<[?, 1]>> loc(#loc24)
      %1365 = vector.broadcast %1364 : f32 to vector<64xf32> loc(#loc24)
      %1366 = vector.fma %1316, %1362, %1338 : vector<64xf32> loc(#loc24)
      %1367 = memref.load %38[%73, %1346] : memref<?x?xf32, strided<[?, 1]>> loc(#loc24)
      %1368 = vector.broadcast %1367 : f32 to vector<64xf32> loc(#loc24)
      %1369 = vector.fma %1316, %1365, %1341 : vector<64xf32> loc(#loc24)
      %1370 = vector.fma %1316, %1368, %1342 : vector<64xf32> loc(#loc24)
      %1371 = arith.addi %41#0, %c48 : index loc(#loc24)
      %1372 = vector.load %40[%1371, %41#1] : memref<?x?xf32, strided<[?, 1]>>, vector<64xf32> loc(#loc24)
      %1373 = arith.addi %41#0, %c111 : index loc(#loc24)
      memref.prefetch %40[%1373, %41#1], read, locality<1>, data : memref<?x?xf32, strided<[?, 1]>> loc(#loc24)
      %1374 = arith.addi %39#1, %c47 : index loc(#loc24)
      %1375 = memref.load %38[%39#0, %1374] : memref<?x?xf32, strided<[?, 1]>> loc(#loc24)
      %1376 = vector.broadcast %1375 : f32 to vector<64xf32> loc(#loc24)
      %1377 = memref.load %38[%49, %1374] : memref<?x?xf32, strided<[?, 1]>> loc(#loc24)
      %1378 = vector.broadcast %1377 : f32 to vector<64xf32> loc(#loc24)
      %1379 = vector.fma %1344, %1376, %1351 : vector<64xf32> loc(#loc24)
      %1380 = memref.load %38[%53, %1374] : memref<?x?xf32, strided<[?, 1]>> loc(#loc24)
      %1381 = vector.broadcast %1380 : f32 to vector<64xf32> loc(#loc24)
      %1382 = vector.fma %1344, %1378, %1354 : vector<64xf32> loc(#loc24)
      %1383 = memref.load %38[%57, %1374] : memref<?x?xf32, strided<[?, 1]>> loc(#loc24)
      %1384 = vector.broadcast %1383 : f32 to vector<64xf32> loc(#loc24)
      %1385 = vector.fma %1344, %1381, %1357 : vector<64xf32> loc(#loc24)
      %1386 = memref.load %38[%61, %1374] : memref<?x?xf32, strided<[?, 1]>> loc(#loc24)
      %1387 = vector.broadcast %1386 : f32 to vector<64xf32> loc(#loc24)
      %1388 = vector.fma %1344, %1384, %1360 : vector<64xf32> loc(#loc24)
      %1389 = memref.load %38[%65, %1374] : memref<?x?xf32, strided<[?, 1]>> loc(#loc24)
      %1390 = vector.broadcast %1389 : f32 to vector<64xf32> loc(#loc24)
      %1391 = vector.fma %1344, %1387, %1363 : vector<64xf32> loc(#loc24)
      %1392 = memref.load %38[%69, %1374] : memref<?x?xf32, strided<[?, 1]>> loc(#loc24)
      %1393 = vector.broadcast %1392 : f32 to vector<64xf32> loc(#loc24)
      %1394 = vector.fma %1344, %1390, %1366 : vector<64xf32> loc(#loc24)
      %1395 = memref.load %38[%73, %1374] : memref<?x?xf32, strided<[?, 1]>> loc(#loc24)
      %1396 = vector.broadcast %1395 : f32 to vector<64xf32> loc(#loc24)
      %1397 = vector.fma %1344, %1393, %1369 : vector<64xf32> loc(#loc24)
      %1398 = vector.fma %1344, %1396, %1370 : vector<64xf32> loc(#loc24)
      %1399 = arith.addi %41#0, %c49 : index loc(#loc24)
      %1400 = vector.load %40[%1399, %41#1] : memref<?x?xf32, strided<[?, 1]>>, vector<64xf32> loc(#loc24)
      %1401 = arith.addi %41#0, %c112 : index loc(#loc24)
      memref.prefetch %40[%1401, %41#1], read, locality<1>, data : memref<?x?xf32, strided<[?, 1]>> loc(#loc24)
      %1402 = arith.addi %39#1, %c48 : index loc(#loc24)
      %1403 = memref.load %38[%39#0, %1402] : memref<?x?xf32, strided<[?, 1]>> loc(#loc24)
      %1404 = vector.broadcast %1403 : f32 to vector<64xf32> loc(#loc24)
      %1405 = memref.load %38[%49, %1402] : memref<?x?xf32, strided<[?, 1]>> loc(#loc24)
      %1406 = vector.broadcast %1405 : f32 to vector<64xf32> loc(#loc24)
      %1407 = arith.addi %39#1, %c112 : index loc(#loc24)
      memref.prefetch %38[%39#0, %1407], read, locality<3>, data : memref<?x?xf32, strided<[?, 1]>> loc(#loc24)
      %1408 = vector.fma %1372, %1404, %1379 : vector<64xf32> loc(#loc24)
      %1409 = memref.load %38[%53, %1402] : memref<?x?xf32, strided<[?, 1]>> loc(#loc24)
      %1410 = vector.broadcast %1409 : f32 to vector<64xf32> loc(#loc24)
      memref.prefetch %38[%49, %1407], read, locality<3>, data : memref<?x?xf32, strided<[?, 1]>> loc(#loc24)
      %1411 = vector.fma %1372, %1406, %1382 : vector<64xf32> loc(#loc24)
      %1412 = memref.load %38[%57, %1402] : memref<?x?xf32, strided<[?, 1]>> loc(#loc24)
      %1413 = vector.broadcast %1412 : f32 to vector<64xf32> loc(#loc24)
      memref.prefetch %38[%53, %1407], read, locality<3>, data : memref<?x?xf32, strided<[?, 1]>> loc(#loc24)
      %1414 = vector.fma %1372, %1410, %1385 : vector<64xf32> loc(#loc24)
      %1415 = memref.load %38[%61, %1402] : memref<?x?xf32, strided<[?, 1]>> loc(#loc24)
      %1416 = vector.broadcast %1415 : f32 to vector<64xf32> loc(#loc24)
      memref.prefetch %38[%57, %1407], read, locality<3>, data : memref<?x?xf32, strided<[?, 1]>> loc(#loc24)
      %1417 = vector.fma %1372, %1413, %1388 : vector<64xf32> loc(#loc24)
      %1418 = memref.load %38[%65, %1402] : memref<?x?xf32, strided<[?, 1]>> loc(#loc24)
      %1419 = vector.broadcast %1418 : f32 to vector<64xf32> loc(#loc24)
      memref.prefetch %38[%61, %1407], read, locality<3>, data : memref<?x?xf32, strided<[?, 1]>> loc(#loc24)
      %1420 = vector.fma %1372, %1416, %1391 : vector<64xf32> loc(#loc24)
      %1421 = memref.load %38[%69, %1402] : memref<?x?xf32, strided<[?, 1]>> loc(#loc24)
      %1422 = vector.broadcast %1421 : f32 to vector<64xf32> loc(#loc24)
      memref.prefetch %38[%65, %1407], read, locality<3>, data : memref<?x?xf32, strided<[?, 1]>> loc(#loc24)
      %1423 = vector.fma %1372, %1419, %1394 : vector<64xf32> loc(#loc24)
      %1424 = memref.load %38[%73, %1402] : memref<?x?xf32, strided<[?, 1]>> loc(#loc24)
      %1425 = vector.broadcast %1424 : f32 to vector<64xf32> loc(#loc24)
      memref.prefetch %38[%69, %1407], read, locality<3>, data : memref<?x?xf32, strided<[?, 1]>> loc(#loc24)
      %1426 = vector.fma %1372, %1422, %1397 : vector<64xf32> loc(#loc24)
      memref.prefetch %38[%73, %1407], read, locality<3>, data : memref<?x?xf32, strided<[?, 1]>> loc(#loc24)
      %1427 = vector.fma %1372, %1425, %1398 : vector<64xf32> loc(#loc24)
      %1428 = arith.addi %41#0, %c50 : index loc(#loc24)
      %1429 = vector.load %40[%1428, %41#1] : memref<?x?xf32, strided<[?, 1]>>, vector<64xf32> loc(#loc24)
      %1430 = arith.addi %41#0, %c113 : index loc(#loc24)
      memref.prefetch %40[%1430, %41#1], read, locality<1>, data : memref<?x?xf32, strided<[?, 1]>> loc(#loc24)
      %1431 = arith.addi %39#1, %c49 : index loc(#loc24)
      %1432 = memref.load %38[%39#0, %1431] : memref<?x?xf32, strided<[?, 1]>> loc(#loc24)
      %1433 = vector.broadcast %1432 : f32 to vector<64xf32> loc(#loc24)
      %1434 = memref.load %38[%49, %1431] : memref<?x?xf32, strided<[?, 1]>> loc(#loc24)
      %1435 = vector.broadcast %1434 : f32 to vector<64xf32> loc(#loc24)
      %1436 = vector.fma %1400, %1433, %1408 : vector<64xf32> loc(#loc24)
      %1437 = memref.load %38[%53, %1431] : memref<?x?xf32, strided<[?, 1]>> loc(#loc24)
      %1438 = vector.broadcast %1437 : f32 to vector<64xf32> loc(#loc24)
      %1439 = vector.fma %1400, %1435, %1411 : vector<64xf32> loc(#loc24)
      %1440 = memref.load %38[%57, %1431] : memref<?x?xf32, strided<[?, 1]>> loc(#loc24)
      %1441 = vector.broadcast %1440 : f32 to vector<64xf32> loc(#loc24)
      %1442 = vector.fma %1400, %1438, %1414 : vector<64xf32> loc(#loc24)
      %1443 = memref.load %38[%61, %1431] : memref<?x?xf32, strided<[?, 1]>> loc(#loc24)
      %1444 = vector.broadcast %1443 : f32 to vector<64xf32> loc(#loc24)
      %1445 = vector.fma %1400, %1441, %1417 : vector<64xf32> loc(#loc24)
      %1446 = memref.load %38[%65, %1431] : memref<?x?xf32, strided<[?, 1]>> loc(#loc24)
      %1447 = vector.broadcast %1446 : f32 to vector<64xf32> loc(#loc24)
      %1448 = vector.fma %1400, %1444, %1420 : vector<64xf32> loc(#loc24)
      %1449 = memref.load %38[%69, %1431] : memref<?x?xf32, strided<[?, 1]>> loc(#loc24)
      %1450 = vector.broadcast %1449 : f32 to vector<64xf32> loc(#loc24)
      %1451 = vector.fma %1400, %1447, %1423 : vector<64xf32> loc(#loc24)
      %1452 = memref.load %38[%73, %1431] : memref<?x?xf32, strided<[?, 1]>> loc(#loc24)
      %1453 = vector.broadcast %1452 : f32 to vector<64xf32> loc(#loc24)
      %1454 = vector.fma %1400, %1450, %1426 : vector<64xf32> loc(#loc24)
      %1455 = vector.fma %1400, %1453, %1427 : vector<64xf32> loc(#loc24)
      %1456 = arith.addi %41#0, %c51 : index loc(#loc24)
      %1457 = vector.load %40[%1456, %41#1] : memref<?x?xf32, strided<[?, 1]>>, vector<64xf32> loc(#loc24)
      %1458 = arith.addi %41#0, %c114 : index loc(#loc24)
      memref.prefetch %40[%1458, %41#1], read, locality<1>, data : memref<?x?xf32, strided<[?, 1]>> loc(#loc24)
      %1459 = arith.addi %39#1, %c50 : index loc(#loc24)
      %1460 = memref.load %38[%39#0, %1459] : memref<?x?xf32, strided<[?, 1]>> loc(#loc24)
      %1461 = vector.broadcast %1460 : f32 to vector<64xf32> loc(#loc24)
      %1462 = memref.load %38[%49, %1459] : memref<?x?xf32, strided<[?, 1]>> loc(#loc24)
      %1463 = vector.broadcast %1462 : f32 to vector<64xf32> loc(#loc24)
      %1464 = vector.fma %1429, %1461, %1436 : vector<64xf32> loc(#loc24)
      %1465 = memref.load %38[%53, %1459] : memref<?x?xf32, strided<[?, 1]>> loc(#loc24)
      %1466 = vector.broadcast %1465 : f32 to vector<64xf32> loc(#loc24)
      %1467 = vector.fma %1429, %1463, %1439 : vector<64xf32> loc(#loc24)
      %1468 = memref.load %38[%57, %1459] : memref<?x?xf32, strided<[?, 1]>> loc(#loc24)
      %1469 = vector.broadcast %1468 : f32 to vector<64xf32> loc(#loc24)
      %1470 = vector.fma %1429, %1466, %1442 : vector<64xf32> loc(#loc24)
      %1471 = memref.load %38[%61, %1459] : memref<?x?xf32, strided<[?, 1]>> loc(#loc24)
      %1472 = vector.broadcast %1471 : f32 to vector<64xf32> loc(#loc24)
      %1473 = vector.fma %1429, %1469, %1445 : vector<64xf32> loc(#loc24)
      %1474 = memref.load %38[%65, %1459] : memref<?x?xf32, strided<[?, 1]>> loc(#loc24)
      %1475 = vector.broadcast %1474 : f32 to vector<64xf32> loc(#loc24)
      %1476 = vector.fma %1429, %1472, %1448 : vector<64xf32> loc(#loc24)
      %1477 = memref.load %38[%69, %1459] : memref<?x?xf32, strided<[?, 1]>> loc(#loc24)
      %1478 = vector.broadcast %1477 : f32 to vector<64xf32> loc(#loc24)
      %1479 = vector.fma %1429, %1475, %1451 : vector<64xf32> loc(#loc24)
      %1480 = memref.load %38[%73, %1459] : memref<?x?xf32, strided<[?, 1]>> loc(#loc24)
      %1481 = vector.broadcast %1480 : f32 to vector<64xf32> loc(#loc24)
      %1482 = vector.fma %1429, %1478, %1454 : vector<64xf32> loc(#loc24)
      %1483 = vector.fma %1429, %1481, %1455 : vector<64xf32> loc(#loc24)
      %1484 = arith.addi %41#0, %c52 : index loc(#loc24)
      %1485 = vector.load %40[%1484, %41#1] : memref<?x?xf32, strided<[?, 1]>>, vector<64xf32> loc(#loc24)
      %1486 = arith.addi %41#0, %c115 : index loc(#loc24)
      memref.prefetch %40[%1486, %41#1], read, locality<1>, data : memref<?x?xf32, strided<[?, 1]>> loc(#loc24)
      %1487 = arith.addi %39#1, %c51 : index loc(#loc24)
      %1488 = memref.load %38[%39#0, %1487] : memref<?x?xf32, strided<[?, 1]>> loc(#loc24)
      %1489 = vector.broadcast %1488 : f32 to vector<64xf32> loc(#loc24)
      %1490 = memref.load %38[%49, %1487] : memref<?x?xf32, strided<[?, 1]>> loc(#loc24)
      %1491 = vector.broadcast %1490 : f32 to vector<64xf32> loc(#loc24)
      %1492 = vector.fma %1457, %1489, %1464 : vector<64xf32> loc(#loc24)
      %1493 = memref.load %38[%53, %1487] : memref<?x?xf32, strided<[?, 1]>> loc(#loc24)
      %1494 = vector.broadcast %1493 : f32 to vector<64xf32> loc(#loc24)
      %1495 = vector.fma %1457, %1491, %1467 : vector<64xf32> loc(#loc24)
      %1496 = memref.load %38[%57, %1487] : memref<?x?xf32, strided<[?, 1]>> loc(#loc24)
      %1497 = vector.broadcast %1496 : f32 to vector<64xf32> loc(#loc24)
      %1498 = vector.fma %1457, %1494, %1470 : vector<64xf32> loc(#loc24)
      %1499 = memref.load %38[%61, %1487] : memref<?x?xf32, strided<[?, 1]>> loc(#loc24)
      %1500 = vector.broadcast %1499 : f32 to vector<64xf32> loc(#loc24)
      %1501 = vector.fma %1457, %1497, %1473 : vector<64xf32> loc(#loc24)
      %1502 = memref.load %38[%65, %1487] : memref<?x?xf32, strided<[?, 1]>> loc(#loc24)
      %1503 = vector.broadcast %1502 : f32 to vector<64xf32> loc(#loc24)
      %1504 = vector.fma %1457, %1500, %1476 : vector<64xf32> loc(#loc24)
      %1505 = memref.load %38[%69, %1487] : memref<?x?xf32, strided<[?, 1]>> loc(#loc24)
      %1506 = vector.broadcast %1505 : f32 to vector<64xf32> loc(#loc24)
      %1507 = vector.fma %1457, %1503, %1479 : vector<64xf32> loc(#loc24)
      %1508 = memref.load %38[%73, %1487] : memref<?x?xf32, strided<[?, 1]>> loc(#loc24)
      %1509 = vector.broadcast %1508 : f32 to vector<64xf32> loc(#loc24)
      %1510 = vector.fma %1457, %1506, %1482 : vector<64xf32> loc(#loc24)
      %1511 = vector.fma %1457, %1509, %1483 : vector<64xf32> loc(#loc24)
      %1512 = arith.addi %41#0, %c53 : index loc(#loc24)
      %1513 = vector.load %40[%1512, %41#1] : memref<?x?xf32, strided<[?, 1]>>, vector<64xf32> loc(#loc24)
      %1514 = arith.addi %41#0, %c116 : index loc(#loc24)
      memref.prefetch %40[%1514, %41#1], read, locality<1>, data : memref<?x?xf32, strided<[?, 1]>> loc(#loc24)
      %1515 = arith.addi %39#1, %c52 : index loc(#loc24)
      %1516 = memref.load %38[%39#0, %1515] : memref<?x?xf32, strided<[?, 1]>> loc(#loc24)
      %1517 = vector.broadcast %1516 : f32 to vector<64xf32> loc(#loc24)
      %1518 = memref.load %38[%49, %1515] : memref<?x?xf32, strided<[?, 1]>> loc(#loc24)
      %1519 = vector.broadcast %1518 : f32 to vector<64xf32> loc(#loc24)
      %1520 = vector.fma %1485, %1517, %1492 : vector<64xf32> loc(#loc24)
      %1521 = memref.load %38[%53, %1515] : memref<?x?xf32, strided<[?, 1]>> loc(#loc24)
      %1522 = vector.broadcast %1521 : f32 to vector<64xf32> loc(#loc24)
      %1523 = vector.fma %1485, %1519, %1495 : vector<64xf32> loc(#loc24)
      %1524 = memref.load %38[%57, %1515] : memref<?x?xf32, strided<[?, 1]>> loc(#loc24)
      %1525 = vector.broadcast %1524 : f32 to vector<64xf32> loc(#loc24)
      %1526 = vector.fma %1485, %1522, %1498 : vector<64xf32> loc(#loc24)
      %1527 = memref.load %38[%61, %1515] : memref<?x?xf32, strided<[?, 1]>> loc(#loc24)
      %1528 = vector.broadcast %1527 : f32 to vector<64xf32> loc(#loc24)
      %1529 = vector.fma %1485, %1525, %1501 : vector<64xf32> loc(#loc24)
      %1530 = memref.load %38[%65, %1515] : memref<?x?xf32, strided<[?, 1]>> loc(#loc24)
      %1531 = vector.broadcast %1530 : f32 to vector<64xf32> loc(#loc24)
      %1532 = vector.fma %1485, %1528, %1504 : vector<64xf32> loc(#loc24)
      %1533 = memref.load %38[%69, %1515] : memref<?x?xf32, strided<[?, 1]>> loc(#loc24)
      %1534 = vector.broadcast %1533 : f32 to vector<64xf32> loc(#loc24)
      %1535 = vector.fma %1485, %1531, %1507 : vector<64xf32> loc(#loc24)
      %1536 = memref.load %38[%73, %1515] : memref<?x?xf32, strided<[?, 1]>> loc(#loc24)
      %1537 = vector.broadcast %1536 : f32 to vector<64xf32> loc(#loc24)
      %1538 = vector.fma %1485, %1534, %1510 : vector<64xf32> loc(#loc24)
      %1539 = vector.fma %1485, %1537, %1511 : vector<64xf32> loc(#loc24)
      %1540 = arith.addi %41#0, %c54 : index loc(#loc24)
      %1541 = vector.load %40[%1540, %41#1] : memref<?x?xf32, strided<[?, 1]>>, vector<64xf32> loc(#loc24)
      %1542 = arith.addi %41#0, %c117 : index loc(#loc24)
      memref.prefetch %40[%1542, %41#1], read, locality<1>, data : memref<?x?xf32, strided<[?, 1]>> loc(#loc24)
      %1543 = arith.addi %39#1, %c53 : index loc(#loc24)
      %1544 = memref.load %38[%39#0, %1543] : memref<?x?xf32, strided<[?, 1]>> loc(#loc24)
      %1545 = vector.broadcast %1544 : f32 to vector<64xf32> loc(#loc24)
      %1546 = memref.load %38[%49, %1543] : memref<?x?xf32, strided<[?, 1]>> loc(#loc24)
      %1547 = vector.broadcast %1546 : f32 to vector<64xf32> loc(#loc24)
      %1548 = vector.fma %1513, %1545, %1520 : vector<64xf32> loc(#loc24)
      %1549 = memref.load %38[%53, %1543] : memref<?x?xf32, strided<[?, 1]>> loc(#loc24)
      %1550 = vector.broadcast %1549 : f32 to vector<64xf32> loc(#loc24)
      %1551 = vector.fma %1513, %1547, %1523 : vector<64xf32> loc(#loc24)
      %1552 = memref.load %38[%57, %1543] : memref<?x?xf32, strided<[?, 1]>> loc(#loc24)
      %1553 = vector.broadcast %1552 : f32 to vector<64xf32> loc(#loc24)
      %1554 = vector.fma %1513, %1550, %1526 : vector<64xf32> loc(#loc24)
      %1555 = memref.load %38[%61, %1543] : memref<?x?xf32, strided<[?, 1]>> loc(#loc24)
      %1556 = vector.broadcast %1555 : f32 to vector<64xf32> loc(#loc24)
      %1557 = vector.fma %1513, %1553, %1529 : vector<64xf32> loc(#loc24)
      %1558 = memref.load %38[%65, %1543] : memref<?x?xf32, strided<[?, 1]>> loc(#loc24)
      %1559 = vector.broadcast %1558 : f32 to vector<64xf32> loc(#loc24)
      %1560 = vector.fma %1513, %1556, %1532 : vector<64xf32> loc(#loc24)
      %1561 = memref.load %38[%69, %1543] : memref<?x?xf32, strided<[?, 1]>> loc(#loc24)
      %1562 = vector.broadcast %1561 : f32 to vector<64xf32> loc(#loc24)
      %1563 = vector.fma %1513, %1559, %1535 : vector<64xf32> loc(#loc24)
      %1564 = memref.load %38[%73, %1543] : memref<?x?xf32, strided<[?, 1]>> loc(#loc24)
      %1565 = vector.broadcast %1564 : f32 to vector<64xf32> loc(#loc24)
      %1566 = vector.fma %1513, %1562, %1538 : vector<64xf32> loc(#loc24)
      %1567 = vector.fma %1513, %1565, %1539 : vector<64xf32> loc(#loc24)
      %1568 = arith.addi %41#0, %c55 : index loc(#loc24)
      %1569 = vector.load %40[%1568, %41#1] : memref<?x?xf32, strided<[?, 1]>>, vector<64xf32> loc(#loc24)
      %1570 = arith.addi %41#0, %c118 : index loc(#loc24)
      memref.prefetch %40[%1570, %41#1], read, locality<1>, data : memref<?x?xf32, strided<[?, 1]>> loc(#loc24)
      %1571 = arith.addi %39#1, %c54 : index loc(#loc24)
      %1572 = memref.load %38[%39#0, %1571] : memref<?x?xf32, strided<[?, 1]>> loc(#loc24)
      %1573 = vector.broadcast %1572 : f32 to vector<64xf32> loc(#loc24)
      %1574 = memref.load %38[%49, %1571] : memref<?x?xf32, strided<[?, 1]>> loc(#loc24)
      %1575 = vector.broadcast %1574 : f32 to vector<64xf32> loc(#loc24)
      %1576 = vector.fma %1541, %1573, %1548 : vector<64xf32> loc(#loc24)
      %1577 = memref.load %38[%53, %1571] : memref<?x?xf32, strided<[?, 1]>> loc(#loc24)
      %1578 = vector.broadcast %1577 : f32 to vector<64xf32> loc(#loc24)
      %1579 = vector.fma %1541, %1575, %1551 : vector<64xf32> loc(#loc24)
      %1580 = memref.load %38[%57, %1571] : memref<?x?xf32, strided<[?, 1]>> loc(#loc24)
      %1581 = vector.broadcast %1580 : f32 to vector<64xf32> loc(#loc24)
      %1582 = vector.fma %1541, %1578, %1554 : vector<64xf32> loc(#loc24)
      %1583 = memref.load %38[%61, %1571] : memref<?x?xf32, strided<[?, 1]>> loc(#loc24)
      %1584 = vector.broadcast %1583 : f32 to vector<64xf32> loc(#loc24)
      %1585 = vector.fma %1541, %1581, %1557 : vector<64xf32> loc(#loc24)
      %1586 = memref.load %38[%65, %1571] : memref<?x?xf32, strided<[?, 1]>> loc(#loc24)
      %1587 = vector.broadcast %1586 : f32 to vector<64xf32> loc(#loc24)
      %1588 = vector.fma %1541, %1584, %1560 : vector<64xf32> loc(#loc24)
      %1589 = memref.load %38[%69, %1571] : memref<?x?xf32, strided<[?, 1]>> loc(#loc24)
      %1590 = vector.broadcast %1589 : f32 to vector<64xf32> loc(#loc24)
      %1591 = vector.fma %1541, %1587, %1563 : vector<64xf32> loc(#loc24)
      %1592 = memref.load %38[%73, %1571] : memref<?x?xf32, strided<[?, 1]>> loc(#loc24)
      %1593 = vector.broadcast %1592 : f32 to vector<64xf32> loc(#loc24)
      %1594 = vector.fma %1541, %1590, %1566 : vector<64xf32> loc(#loc24)
      %1595 = vector.fma %1541, %1593, %1567 : vector<64xf32> loc(#loc24)
      %1596 = arith.addi %41#0, %c56 : index loc(#loc24)
      %1597 = vector.load %40[%1596, %41#1] : memref<?x?xf32, strided<[?, 1]>>, vector<64xf32> loc(#loc24)
      %1598 = arith.addi %41#0, %c119 : index loc(#loc24)
      memref.prefetch %40[%1598, %41#1], read, locality<1>, data : memref<?x?xf32, strided<[?, 1]>> loc(#loc24)
      %1599 = arith.addi %39#1, %c55 : index loc(#loc24)
      %1600 = memref.load %38[%39#0, %1599] : memref<?x?xf32, strided<[?, 1]>> loc(#loc24)
      %1601 = vector.broadcast %1600 : f32 to vector<64xf32> loc(#loc24)
      %1602 = memref.load %38[%49, %1599] : memref<?x?xf32, strided<[?, 1]>> loc(#loc24)
      %1603 = vector.broadcast %1602 : f32 to vector<64xf32> loc(#loc24)
      %1604 = vector.fma %1569, %1601, %1576 : vector<64xf32> loc(#loc24)
      %1605 = memref.load %38[%53, %1599] : memref<?x?xf32, strided<[?, 1]>> loc(#loc24)
      %1606 = vector.broadcast %1605 : f32 to vector<64xf32> loc(#loc24)
      %1607 = vector.fma %1569, %1603, %1579 : vector<64xf32> loc(#loc24)
      %1608 = memref.load %38[%57, %1599] : memref<?x?xf32, strided<[?, 1]>> loc(#loc24)
      %1609 = vector.broadcast %1608 : f32 to vector<64xf32> loc(#loc24)
      %1610 = vector.fma %1569, %1606, %1582 : vector<64xf32> loc(#loc24)
      %1611 = memref.load %38[%61, %1599] : memref<?x?xf32, strided<[?, 1]>> loc(#loc24)
      %1612 = vector.broadcast %1611 : f32 to vector<64xf32> loc(#loc24)
      %1613 = vector.fma %1569, %1609, %1585 : vector<64xf32> loc(#loc24)
      %1614 = memref.load %38[%65, %1599] : memref<?x?xf32, strided<[?, 1]>> loc(#loc24)
      %1615 = vector.broadcast %1614 : f32 to vector<64xf32> loc(#loc24)
      %1616 = vector.fma %1569, %1612, %1588 : vector<64xf32> loc(#loc24)
      %1617 = memref.load %38[%69, %1599] : memref<?x?xf32, strided<[?, 1]>> loc(#loc24)
      %1618 = vector.broadcast %1617 : f32 to vector<64xf32> loc(#loc24)
      %1619 = vector.fma %1569, %1615, %1591 : vector<64xf32> loc(#loc24)
      %1620 = memref.load %38[%73, %1599] : memref<?x?xf32, strided<[?, 1]>> loc(#loc24)
      %1621 = vector.broadcast %1620 : f32 to vector<64xf32> loc(#loc24)
      %1622 = vector.fma %1569, %1618, %1594 : vector<64xf32> loc(#loc24)
      %1623 = vector.fma %1569, %1621, %1595 : vector<64xf32> loc(#loc24)
      %1624 = arith.addi %41#0, %c57 : index loc(#loc24)
      %1625 = vector.load %40[%1624, %41#1] : memref<?x?xf32, strided<[?, 1]>>, vector<64xf32> loc(#loc24)
      %1626 = arith.addi %41#0, %c120 : index loc(#loc24)
      memref.prefetch %40[%1626, %41#1], read, locality<1>, data : memref<?x?xf32, strided<[?, 1]>> loc(#loc24)
      %1627 = arith.addi %39#1, %c56 : index loc(#loc24)
      %1628 = memref.load %38[%39#0, %1627] : memref<?x?xf32, strided<[?, 1]>> loc(#loc24)
      %1629 = vector.broadcast %1628 : f32 to vector<64xf32> loc(#loc24)
      %1630 = memref.load %38[%49, %1627] : memref<?x?xf32, strided<[?, 1]>> loc(#loc24)
      %1631 = vector.broadcast %1630 : f32 to vector<64xf32> loc(#loc24)
      %1632 = arith.addi %39#1, %c120 : index loc(#loc24)
      memref.prefetch %38[%39#0, %1632], read, locality<3>, data : memref<?x?xf32, strided<[?, 1]>> loc(#loc24)
      %1633 = vector.fma %1597, %1629, %1604 : vector<64xf32> loc(#loc24)
      %1634 = memref.load %38[%53, %1627] : memref<?x?xf32, strided<[?, 1]>> loc(#loc24)
      %1635 = vector.broadcast %1634 : f32 to vector<64xf32> loc(#loc24)
      memref.prefetch %38[%49, %1632], read, locality<3>, data : memref<?x?xf32, strided<[?, 1]>> loc(#loc24)
      %1636 = vector.fma %1597, %1631, %1607 : vector<64xf32> loc(#loc24)
      %1637 = memref.load %38[%57, %1627] : memref<?x?xf32, strided<[?, 1]>> loc(#loc24)
      %1638 = vector.broadcast %1637 : f32 to vector<64xf32> loc(#loc24)
      memref.prefetch %38[%53, %1632], read, locality<3>, data : memref<?x?xf32, strided<[?, 1]>> loc(#loc24)
      %1639 = vector.fma %1597, %1635, %1610 : vector<64xf32> loc(#loc24)
      %1640 = memref.load %38[%61, %1627] : memref<?x?xf32, strided<[?, 1]>> loc(#loc24)
      %1641 = vector.broadcast %1640 : f32 to vector<64xf32> loc(#loc24)
      memref.prefetch %38[%57, %1632], read, locality<3>, data : memref<?x?xf32, strided<[?, 1]>> loc(#loc24)
      %1642 = vector.fma %1597, %1638, %1613 : vector<64xf32> loc(#loc24)
      %1643 = memref.load %38[%65, %1627] : memref<?x?xf32, strided<[?, 1]>> loc(#loc24)
      %1644 = vector.broadcast %1643 : f32 to vector<64xf32> loc(#loc24)
      memref.prefetch %38[%61, %1632], read, locality<3>, data : memref<?x?xf32, strided<[?, 1]>> loc(#loc24)
      %1645 = vector.fma %1597, %1641, %1616 : vector<64xf32> loc(#loc24)
      %1646 = memref.load %38[%69, %1627] : memref<?x?xf32, strided<[?, 1]>> loc(#loc24)
      %1647 = vector.broadcast %1646 : f32 to vector<64xf32> loc(#loc24)
      memref.prefetch %38[%65, %1632], read, locality<3>, data : memref<?x?xf32, strided<[?, 1]>> loc(#loc24)
      %1648 = vector.fma %1597, %1644, %1619 : vector<64xf32> loc(#loc24)
      %1649 = memref.load %38[%73, %1627] : memref<?x?xf32, strided<[?, 1]>> loc(#loc24)
      %1650 = vector.broadcast %1649 : f32 to vector<64xf32> loc(#loc24)
      memref.prefetch %38[%69, %1632], read, locality<3>, data : memref<?x?xf32, strided<[?, 1]>> loc(#loc24)
      %1651 = vector.fma %1597, %1647, %1622 : vector<64xf32> loc(#loc24)
      memref.prefetch %38[%73, %1632], read, locality<3>, data : memref<?x?xf32, strided<[?, 1]>> loc(#loc24)
      %1652 = vector.fma %1597, %1650, %1623 : vector<64xf32> loc(#loc24)
      %1653 = arith.addi %41#0, %c58 : index loc(#loc24)
      %1654 = vector.load %40[%1653, %41#1] : memref<?x?xf32, strided<[?, 1]>>, vector<64xf32> loc(#loc24)
      %1655 = arith.addi %41#0, %c121 : index loc(#loc24)
      memref.prefetch %40[%1655, %41#1], read, locality<1>, data : memref<?x?xf32, strided<[?, 1]>> loc(#loc24)
      %1656 = arith.addi %39#1, %c57 : index loc(#loc24)
      %1657 = memref.load %38[%39#0, %1656] : memref<?x?xf32, strided<[?, 1]>> loc(#loc24)
      %1658 = vector.broadcast %1657 : f32 to vector<64xf32> loc(#loc24)
      %1659 = memref.load %38[%49, %1656] : memref<?x?xf32, strided<[?, 1]>> loc(#loc24)
      %1660 = vector.broadcast %1659 : f32 to vector<64xf32> loc(#loc24)
      %1661 = vector.fma %1625, %1658, %1633 : vector<64xf32> loc(#loc24)
      %1662 = memref.load %38[%53, %1656] : memref<?x?xf32, strided<[?, 1]>> loc(#loc24)
      %1663 = vector.broadcast %1662 : f32 to vector<64xf32> loc(#loc24)
      %1664 = vector.fma %1625, %1660, %1636 : vector<64xf32> loc(#loc24)
      %1665 = memref.load %38[%57, %1656] : memref<?x?xf32, strided<[?, 1]>> loc(#loc24)
      %1666 = vector.broadcast %1665 : f32 to vector<64xf32> loc(#loc24)
      %1667 = vector.fma %1625, %1663, %1639 : vector<64xf32> loc(#loc24)
      %1668 = memref.load %38[%61, %1656] : memref<?x?xf32, strided<[?, 1]>> loc(#loc24)
      %1669 = vector.broadcast %1668 : f32 to vector<64xf32> loc(#loc24)
      %1670 = vector.fma %1625, %1666, %1642 : vector<64xf32> loc(#loc24)
      %1671 = memref.load %38[%65, %1656] : memref<?x?xf32, strided<[?, 1]>> loc(#loc24)
      %1672 = vector.broadcast %1671 : f32 to vector<64xf32> loc(#loc24)
      %1673 = vector.fma %1625, %1669, %1645 : vector<64xf32> loc(#loc24)
      %1674 = memref.load %38[%69, %1656] : memref<?x?xf32, strided<[?, 1]>> loc(#loc24)
      %1675 = vector.broadcast %1674 : f32 to vector<64xf32> loc(#loc24)
      %1676 = vector.fma %1625, %1672, %1648 : vector<64xf32> loc(#loc24)
      %1677 = memref.load %38[%73, %1656] : memref<?x?xf32, strided<[?, 1]>> loc(#loc24)
      %1678 = vector.broadcast %1677 : f32 to vector<64xf32> loc(#loc24)
      %1679 = vector.fma %1625, %1675, %1651 : vector<64xf32> loc(#loc24)
      %1680 = vector.fma %1625, %1678, %1652 : vector<64xf32> loc(#loc24)
      %1681 = arith.addi %41#0, %c59 : index loc(#loc24)
      %1682 = vector.load %40[%1681, %41#1] : memref<?x?xf32, strided<[?, 1]>>, vector<64xf32> loc(#loc24)
      %1683 = arith.addi %41#0, %c122 : index loc(#loc24)
      memref.prefetch %40[%1683, %41#1], read, locality<1>, data : memref<?x?xf32, strided<[?, 1]>> loc(#loc24)
      %1684 = arith.addi %39#1, %c58 : index loc(#loc24)
      %1685 = memref.load %38[%39#0, %1684] : memref<?x?xf32, strided<[?, 1]>> loc(#loc24)
      %1686 = vector.broadcast %1685 : f32 to vector<64xf32> loc(#loc24)
      %1687 = memref.load %38[%49, %1684] : memref<?x?xf32, strided<[?, 1]>> loc(#loc24)
      %1688 = vector.broadcast %1687 : f32 to vector<64xf32> loc(#loc24)
      %1689 = vector.fma %1654, %1686, %1661 : vector<64xf32> loc(#loc24)
      %1690 = memref.load %38[%53, %1684] : memref<?x?xf32, strided<[?, 1]>> loc(#loc24)
      %1691 = vector.broadcast %1690 : f32 to vector<64xf32> loc(#loc24)
      %1692 = vector.fma %1654, %1688, %1664 : vector<64xf32> loc(#loc24)
      %1693 = memref.load %38[%57, %1684] : memref<?x?xf32, strided<[?, 1]>> loc(#loc24)
      %1694 = vector.broadcast %1693 : f32 to vector<64xf32> loc(#loc24)
      %1695 = vector.fma %1654, %1691, %1667 : vector<64xf32> loc(#loc24)
      %1696 = memref.load %38[%61, %1684] : memref<?x?xf32, strided<[?, 1]>> loc(#loc24)
      %1697 = vector.broadcast %1696 : f32 to vector<64xf32> loc(#loc24)
      %1698 = vector.fma %1654, %1694, %1670 : vector<64xf32> loc(#loc24)
      %1699 = memref.load %38[%65, %1684] : memref<?x?xf32, strided<[?, 1]>> loc(#loc24)
      %1700 = vector.broadcast %1699 : f32 to vector<64xf32> loc(#loc24)
      %1701 = vector.fma %1654, %1697, %1673 : vector<64xf32> loc(#loc24)
      %1702 = memref.load %38[%69, %1684] : memref<?x?xf32, strided<[?, 1]>> loc(#loc24)
      %1703 = vector.broadcast %1702 : f32 to vector<64xf32> loc(#loc24)
      %1704 = vector.fma %1654, %1700, %1676 : vector<64xf32> loc(#loc24)
      %1705 = memref.load %38[%73, %1684] : memref<?x?xf32, strided<[?, 1]>> loc(#loc24)
      %1706 = vector.broadcast %1705 : f32 to vector<64xf32> loc(#loc24)
      %1707 = vector.fma %1654, %1703, %1679 : vector<64xf32> loc(#loc24)
      %1708 = vector.fma %1654, %1706, %1680 : vector<64xf32> loc(#loc24)
      %1709 = arith.addi %41#0, %c60 : index loc(#loc24)
      %1710 = vector.load %40[%1709, %41#1] : memref<?x?xf32, strided<[?, 1]>>, vector<64xf32> loc(#loc24)
      %1711 = arith.addi %41#0, %c123 : index loc(#loc24)
      memref.prefetch %40[%1711, %41#1], read, locality<1>, data : memref<?x?xf32, strided<[?, 1]>> loc(#loc24)
      %1712 = arith.addi %39#1, %c59 : index loc(#loc24)
      %1713 = memref.load %38[%39#0, %1712] : memref<?x?xf32, strided<[?, 1]>> loc(#loc24)
      %1714 = vector.broadcast %1713 : f32 to vector<64xf32> loc(#loc24)
      %1715 = memref.load %38[%49, %1712] : memref<?x?xf32, strided<[?, 1]>> loc(#loc24)
      %1716 = vector.broadcast %1715 : f32 to vector<64xf32> loc(#loc24)
      %1717 = vector.fma %1682, %1714, %1689 : vector<64xf32> loc(#loc24)
      %1718 = memref.load %38[%53, %1712] : memref<?x?xf32, strided<[?, 1]>> loc(#loc24)
      %1719 = vector.broadcast %1718 : f32 to vector<64xf32> loc(#loc24)
      %1720 = vector.fma %1682, %1716, %1692 : vector<64xf32> loc(#loc24)
      %1721 = memref.load %38[%57, %1712] : memref<?x?xf32, strided<[?, 1]>> loc(#loc24)
      %1722 = vector.broadcast %1721 : f32 to vector<64xf32> loc(#loc24)
      %1723 = vector.fma %1682, %1719, %1695 : vector<64xf32> loc(#loc24)
      %1724 = memref.load %38[%61, %1712] : memref<?x?xf32, strided<[?, 1]>> loc(#loc24)
      %1725 = vector.broadcast %1724 : f32 to vector<64xf32> loc(#loc24)
      %1726 = vector.fma %1682, %1722, %1698 : vector<64xf32> loc(#loc24)
      %1727 = memref.load %38[%65, %1712] : memref<?x?xf32, strided<[?, 1]>> loc(#loc24)
      %1728 = vector.broadcast %1727 : f32 to vector<64xf32> loc(#loc24)
      %1729 = vector.fma %1682, %1725, %1701 : vector<64xf32> loc(#loc24)
      %1730 = memref.load %38[%69, %1712] : memref<?x?xf32, strided<[?, 1]>> loc(#loc24)
      %1731 = vector.broadcast %1730 : f32 to vector<64xf32> loc(#loc24)
      %1732 = vector.fma %1682, %1728, %1704 : vector<64xf32> loc(#loc24)
      %1733 = memref.load %38[%73, %1712] : memref<?x?xf32, strided<[?, 1]>> loc(#loc24)
      %1734 = vector.broadcast %1733 : f32 to vector<64xf32> loc(#loc24)
      %1735 = vector.fma %1682, %1731, %1707 : vector<64xf32> loc(#loc24)
      %1736 = vector.fma %1682, %1734, %1708 : vector<64xf32> loc(#loc24)
      %1737 = arith.addi %41#0, %c61 : index loc(#loc24)
      %1738 = vector.load %40[%1737, %41#1] : memref<?x?xf32, strided<[?, 1]>>, vector<64xf32> loc(#loc24)
      %1739 = arith.addi %41#0, %c124 : index loc(#loc24)
      memref.prefetch %40[%1739, %41#1], read, locality<1>, data : memref<?x?xf32, strided<[?, 1]>> loc(#loc24)
      %1740 = arith.addi %39#1, %c60 : index loc(#loc24)
      %1741 = memref.load %38[%39#0, %1740] : memref<?x?xf32, strided<[?, 1]>> loc(#loc24)
      %1742 = vector.broadcast %1741 : f32 to vector<64xf32> loc(#loc24)
      %1743 = memref.load %38[%49, %1740] : memref<?x?xf32, strided<[?, 1]>> loc(#loc24)
      %1744 = vector.broadcast %1743 : f32 to vector<64xf32> loc(#loc24)
      %1745 = vector.fma %1710, %1742, %1717 : vector<64xf32> loc(#loc24)
      %1746 = memref.load %38[%53, %1740] : memref<?x?xf32, strided<[?, 1]>> loc(#loc24)
      %1747 = vector.broadcast %1746 : f32 to vector<64xf32> loc(#loc24)
      %1748 = vector.fma %1710, %1744, %1720 : vector<64xf32> loc(#loc24)
      %1749 = memref.load %38[%57, %1740] : memref<?x?xf32, strided<[?, 1]>> loc(#loc24)
      %1750 = vector.broadcast %1749 : f32 to vector<64xf32> loc(#loc24)
      %1751 = vector.fma %1710, %1747, %1723 : vector<64xf32> loc(#loc24)
      %1752 = memref.load %38[%61, %1740] : memref<?x?xf32, strided<[?, 1]>> loc(#loc24)
      %1753 = vector.broadcast %1752 : f32 to vector<64xf32> loc(#loc24)
      %1754 = vector.fma %1710, %1750, %1726 : vector<64xf32> loc(#loc24)
      %1755 = memref.load %38[%65, %1740] : memref<?x?xf32, strided<[?, 1]>> loc(#loc24)
      %1756 = vector.broadcast %1755 : f32 to vector<64xf32> loc(#loc24)
      %1757 = vector.fma %1710, %1753, %1729 : vector<64xf32> loc(#loc24)
      %1758 = memref.load %38[%69, %1740] : memref<?x?xf32, strided<[?, 1]>> loc(#loc24)
      %1759 = vector.broadcast %1758 : f32 to vector<64xf32> loc(#loc24)
      %1760 = vector.fma %1710, %1756, %1732 : vector<64xf32> loc(#loc24)
      %1761 = memref.load %38[%73, %1740] : memref<?x?xf32, strided<[?, 1]>> loc(#loc24)
      %1762 = vector.broadcast %1761 : f32 to vector<64xf32> loc(#loc24)
      %1763 = vector.fma %1710, %1759, %1735 : vector<64xf32> loc(#loc24)
      %1764 = vector.fma %1710, %1762, %1736 : vector<64xf32> loc(#loc24)
      %1765 = arith.addi %41#0, %c62 : index loc(#loc24)
      %1766 = vector.load %40[%1765, %41#1] : memref<?x?xf32, strided<[?, 1]>>, vector<64xf32> loc(#loc24)
      %1767 = arith.addi %41#0, %c125 : index loc(#loc24)
      memref.prefetch %40[%1767, %41#1], read, locality<1>, data : memref<?x?xf32, strided<[?, 1]>> loc(#loc24)
      %1768 = arith.addi %39#1, %c61 : index loc(#loc24)
      %1769 = memref.load %38[%39#0, %1768] : memref<?x?xf32, strided<[?, 1]>> loc(#loc24)
      %1770 = vector.broadcast %1769 : f32 to vector<64xf32> loc(#loc24)
      %1771 = memref.load %38[%49, %1768] : memref<?x?xf32, strided<[?, 1]>> loc(#loc24)
      %1772 = vector.broadcast %1771 : f32 to vector<64xf32> loc(#loc24)
      %1773 = vector.fma %1738, %1770, %1745 : vector<64xf32> loc(#loc24)
      %1774 = memref.load %38[%53, %1768] : memref<?x?xf32, strided<[?, 1]>> loc(#loc24)
      %1775 = vector.broadcast %1774 : f32 to vector<64xf32> loc(#loc24)
      %1776 = vector.fma %1738, %1772, %1748 : vector<64xf32> loc(#loc24)
      %1777 = memref.load %38[%57, %1768] : memref<?x?xf32, strided<[?, 1]>> loc(#loc24)
      %1778 = vector.broadcast %1777 : f32 to vector<64xf32> loc(#loc24)
      %1779 = vector.fma %1738, %1775, %1751 : vector<64xf32> loc(#loc24)
      %1780 = memref.load %38[%61, %1768] : memref<?x?xf32, strided<[?, 1]>> loc(#loc24)
      %1781 = vector.broadcast %1780 : f32 to vector<64xf32> loc(#loc24)
      %1782 = vector.fma %1738, %1778, %1754 : vector<64xf32> loc(#loc24)
      %1783 = memref.load %38[%65, %1768] : memref<?x?xf32, strided<[?, 1]>> loc(#loc24)
      %1784 = vector.broadcast %1783 : f32 to vector<64xf32> loc(#loc24)
      %1785 = vector.fma %1738, %1781, %1757 : vector<64xf32> loc(#loc24)
      %1786 = memref.load %38[%69, %1768] : memref<?x?xf32, strided<[?, 1]>> loc(#loc24)
      %1787 = vector.broadcast %1786 : f32 to vector<64xf32> loc(#loc24)
      %1788 = vector.fma %1738, %1784, %1760 : vector<64xf32> loc(#loc24)
      %1789 = memref.load %38[%73, %1768] : memref<?x?xf32, strided<[?, 1]>> loc(#loc24)
      %1790 = vector.broadcast %1789 : f32 to vector<64xf32> loc(#loc24)
      %1791 = vector.fma %1738, %1787, %1763 : vector<64xf32> loc(#loc24)
      %1792 = vector.fma %1738, %1790, %1764 : vector<64xf32> loc(#loc24)
      %1793 = arith.addi %41#0, %c63 : index loc(#loc24)
      %1794 = vector.load %40[%1793, %41#1] : memref<?x?xf32, strided<[?, 1]>>, vector<64xf32> loc(#loc24)
      %1795 = arith.addi %41#0, %c126 : index loc(#loc24)
      memref.prefetch %40[%1795, %41#1], read, locality<1>, data : memref<?x?xf32, strided<[?, 1]>> loc(#loc24)
      %1796 = arith.addi %39#1, %c62 : index loc(#loc24)
      %1797 = memref.load %38[%39#0, %1796] : memref<?x?xf32, strided<[?, 1]>> loc(#loc24)
      %1798 = vector.broadcast %1797 : f32 to vector<64xf32> loc(#loc24)
      %1799 = memref.load %38[%49, %1796] : memref<?x?xf32, strided<[?, 1]>> loc(#loc24)
      %1800 = vector.broadcast %1799 : f32 to vector<64xf32> loc(#loc24)
      %1801 = vector.fma %1766, %1798, %1773 : vector<64xf32> loc(#loc24)
      %1802 = memref.load %38[%53, %1796] : memref<?x?xf32, strided<[?, 1]>> loc(#loc24)
      %1803 = vector.broadcast %1802 : f32 to vector<64xf32> loc(#loc24)
      %1804 = vector.fma %1766, %1800, %1776 : vector<64xf32> loc(#loc24)
      %1805 = memref.load %38[%57, %1796] : memref<?x?xf32, strided<[?, 1]>> loc(#loc24)
      %1806 = vector.broadcast %1805 : f32 to vector<64xf32> loc(#loc24)
      %1807 = vector.fma %1766, %1803, %1779 : vector<64xf32> loc(#loc24)
      %1808 = memref.load %38[%61, %1796] : memref<?x?xf32, strided<[?, 1]>> loc(#loc24)
      %1809 = vector.broadcast %1808 : f32 to vector<64xf32> loc(#loc24)
      %1810 = vector.fma %1766, %1806, %1782 : vector<64xf32> loc(#loc24)
      %1811 = memref.load %38[%65, %1796] : memref<?x?xf32, strided<[?, 1]>> loc(#loc24)
      %1812 = vector.broadcast %1811 : f32 to vector<64xf32> loc(#loc24)
      %1813 = vector.fma %1766, %1809, %1785 : vector<64xf32> loc(#loc24)
      %1814 = memref.load %38[%69, %1796] : memref<?x?xf32, strided<[?, 1]>> loc(#loc24)
      %1815 = vector.broadcast %1814 : f32 to vector<64xf32> loc(#loc24)
      %1816 = vector.fma %1766, %1812, %1788 : vector<64xf32> loc(#loc24)
      %1817 = memref.load %38[%73, %1796] : memref<?x?xf32, strided<[?, 1]>> loc(#loc24)
      %1818 = vector.broadcast %1817 : f32 to vector<64xf32> loc(#loc24)
      %1819 = vector.fma %1766, %1815, %1791 : vector<64xf32> loc(#loc24)
      %1820 = vector.fma %1766, %1818, %1792 : vector<64xf32> loc(#loc24)
      %1821 = arith.addi %41#0, %c127 : index loc(#loc24)
      memref.prefetch %40[%1821, %41#1], read, locality<1>, data : memref<?x?xf32, strided<[?, 1]>> loc(#loc24)
      %1822 = arith.addi %39#1, %c63 : index loc(#loc24)
      %1823 = memref.load %38[%39#0, %1822] : memref<?x?xf32, strided<[?, 1]>> loc(#loc24)
      %1824 = vector.broadcast %1823 : f32 to vector<64xf32> loc(#loc24)
      %1825 = memref.load %38[%49, %1822] : memref<?x?xf32, strided<[?, 1]>> loc(#loc24)
      %1826 = vector.broadcast %1825 : f32 to vector<64xf32> loc(#loc24)
      %1827 = vector.fma %1794, %1824, %1801 : vector<64xf32> loc(#loc24)
      %1828 = memref.load %38[%53, %1822] : memref<?x?xf32, strided<[?, 1]>> loc(#loc24)
      %1829 = vector.broadcast %1828 : f32 to vector<64xf32> loc(#loc24)
      %1830 = vector.fma %1794, %1826, %1804 : vector<64xf32> loc(#loc24)
      %1831 = memref.load %38[%57, %1822] : memref<?x?xf32, strided<[?, 1]>> loc(#loc24)
      %1832 = vector.broadcast %1831 : f32 to vector<64xf32> loc(#loc24)
      %1833 = vector.fma %1794, %1829, %1807 : vector<64xf32> loc(#loc24)
      %1834 = memref.load %38[%61, %1822] : memref<?x?xf32, strided<[?, 1]>> loc(#loc24)
      %1835 = vector.broadcast %1834 : f32 to vector<64xf32> loc(#loc24)
      %1836 = vector.fma %1794, %1832, %1810 : vector<64xf32> loc(#loc24)
      %1837 = memref.load %38[%65, %1822] : memref<?x?xf32, strided<[?, 1]>> loc(#loc24)
      %1838 = vector.broadcast %1837 : f32 to vector<64xf32> loc(#loc24)
      %1839 = vector.fma %1794, %1835, %1813 : vector<64xf32> loc(#loc24)
      %1840 = memref.load %38[%69, %1822] : memref<?x?xf32, strided<[?, 1]>> loc(#loc24)
      %1841 = vector.broadcast %1840 : f32 to vector<64xf32> loc(#loc24)
      %1842 = vector.fma %1794, %1838, %1816 : vector<64xf32> loc(#loc24)
      %1843 = memref.load %38[%73, %1822] : memref<?x?xf32, strided<[?, 1]>> loc(#loc24)
      %1844 = vector.broadcast %1843 : f32 to vector<64xf32> loc(#loc24)
      %1845 = vector.fma %1794, %1841, %1819 : vector<64xf32> loc(#loc24)
      %1846 = vector.fma %1794, %1844, %1820 : vector<64xf32> loc(#loc24)
      %1847 = tt.advance %arg10, [%c0_i32, %c64_i32] : <tensor<8x64xf32>> loc(#loc25)
      %1848 = tt.advance %arg11, [%c64_i32, %c0_i32] : <tensor<64x64xf32>> loc(#loc26)
      scf.yield %1847, %1848, %1827, %1830, %1833, %1836, %1839, %1842, %1845, %1846 : !tt.ptr<tensor<8x64xf32>>, !tt.ptr<tensor<64x64xf32>>, vector<64xf32>, vector<64xf32>, vector<64xf32>, vector<64xf32>, vector<64xf32>, vector<64xf32>, vector<64xf32>, vector<64xf32> loc(#loc27)
    } loc(#loc21)
    %26 = vector.insert %25#2, %cst_0 [0] : vector<64xf32> into vector<8x64xf32> loc(#loc24)
    %27 = vector.insert %25#3, %26 [1] : vector<64xf32> into vector<8x64xf32> loc(#loc24)
    %28 = vector.insert %25#4, %27 [2] : vector<64xf32> into vector<8x64xf32> loc(#loc24)
    %29 = vector.insert %25#5, %28 [3] : vector<64xf32> into vector<8x64xf32> loc(#loc24)
    %30 = vector.insert %25#6, %29 [4] : vector<64xf32> into vector<8x64xf32> loc(#loc24)
    %31 = vector.insert %25#7, %30 [5] : vector<64xf32> into vector<8x64xf32> loc(#loc24)
    %32 = vector.insert %25#8, %31 [6] : vector<64xf32> into vector<8x64xf32> loc(#loc24)
    %33 = vector.insert %25#9, %32 [7] : vector<64xf32> into vector<8x64xf32> loc(#loc24)
    %34 = arith.extsi %arg8 : i32 to i64 loc(#loc28)
    %35 = tt.make_tensor_ptr %arg2, [%16, %20], [%34, %c1_i64], [%14, %15] {order = array<i32: 1, 0>} : <tensor<8x64xf32>> loc(#loc28)
    %36 = triton_cpu.extract_memref %35 : <tensor<8x64xf32>> -> memref<?x?xf32, strided<[?, 1]>> loc(#loc29)
    %37:2 = triton_cpu.extract_indices %35 : <tensor<8x64xf32>> -> index, index loc(#loc29)
    vector.transfer_write %33, %36[%37#0, %37#1] {in_bounds = [true, true]} : vector<8x64xf32>, memref<?x?xf32, strided<[?, 1]>> loc(#loc29)
    tt.return loc(#loc30)
  } loc(#loc)
} loc(#loc)
#loc1 = loc(unknown)
#loc2 = loc("/home/yuhao/T_RVV/benchmark/src/triton/matmul.py":45:24)
#loc3 = loc("/home/yuhao/triton-cpu/python/triton/language/standard.py":40:22)
#loc4 = loc("/home/yuhao/T_RVV/benchmark/src/triton/matmul.py":46:27)
#loc5 = loc("/home/yuhao/triton-cpu/python/triton/language/standard.py":40:28)
#loc6 = loc("/home/yuhao/T_RVV/benchmark/src/triton/matmul.py":47:27)
#loc7 = loc("/home/yuhao/T_RVV/benchmark/src/triton/matmul.py":48:38)
#loc8 = loc("/home/yuhao/T_RVV/benchmark/src/triton/matmul.py":49:22)
#loc9 = loc("/home/yuhao/T_RVV/benchmark/src/triton/matmul.py":50:29)
#loc10 = loc("/home/yuhao/T_RVV/benchmark/src/triton/matmul.py":51:35)
#loc11 = loc("/home/yuhao/T_RVV/benchmark/src/triton/matmul.py":51:48)
#loc12 = loc("/home/yuhao/T_RVV/benchmark/src/triton/matmul.py":52:33)
#loc13 = loc("/home/yuhao/T_RVV/benchmark/src/triton/matmul.py":52:27)
#loc14 = loc("/home/yuhao/T_RVV/benchmark/src/triton/matmul.py":53:19)
#loc15 = loc("/home/yuhao/T_RVV/benchmark/src/triton/matmul.py":53:40)
#loc16 = loc("/home/yuhao/T_RVV/benchmark/src/triton/matmul.py":63:33)
#loc17 = loc("/home/yuhao/T_RVV/benchmark/src/triton/matmul.py":64:33)
#loc18 = loc("/home/yuhao/T_RVV/benchmark/src/triton/matmul.py":67:39)
#loc19 = loc("/home/yuhao/T_RVV/benchmark/src/triton/matmul.py":70:39)
#loc20 = loc("/home/yuhao/T_RVV/benchmark/src/triton/matmul.py":79:33)
#loc21 = loc("/home/yuhao/T_RVV/benchmark/src/triton/matmul.py":79:22)
#loc22 = loc("/home/yuhao/T_RVV/benchmark/src/triton/matmul.py":83:20)
#loc23 = loc("/home/yuhao/T_RVV/benchmark/src/triton/matmul.py":84:20)
#loc24 = loc("/home/yuhao/T_RVV/benchmark/src/triton/matmul.py":86:35)
#loc25 = loc("/home/yuhao/T_RVV/benchmark/src/triton/matmul.py":89:48)
#loc26 = loc("/home/yuhao/T_RVV/benchmark/src/triton/matmul.py":90:48)
#loc27 = loc("/home/yuhao/T_RVV/benchmark/src/triton/matmul.py":88:8)
#loc28 = loc("/home/yuhao/T_RVV/benchmark/src/triton/matmul.py":102:81)
#loc29 = loc("/home/yuhao/T_RVV/benchmark/src/triton/matmul.py":103:29)
#loc30 = loc("/home/yuhao/T_RVV/benchmark/src/triton/matmul.py":99:4)
#loc31 = loc(callsite(#loc3 at #loc4))
#loc32 = loc(callsite(#loc5 at #loc4))
#loc33 = loc(callsite(#loc3 at #loc6))
#loc34 = loc(callsite(#loc5 at #loc6))
#loc35 = loc(callsite(#loc3 at #loc20))
#loc36 = loc(callsite(#loc5 at #loc20))
