// -----// IR Dump Before Inliner (inline) ('builtin.module' operation) //----- //
#loc = loc("/home/yuhao/T_RVV/benchmark/src/triton/matmul.py":20:0)
#loc64 = loc("/home/yuhao/triton-cpu/python/triton/language/standard.py":31:0)
module {
  tt.func public @matmul_kernel(%arg0: !tt.ptr<f32> {tt.divisibility = 16 : i32} loc("/home/yuhao/T_RVV/benchmark/src/triton/matmul.py":20:0), %arg1: !tt.ptr<f32> {tt.divisibility = 16 : i32} loc("/home/yuhao/T_RVV/benchmark/src/triton/matmul.py":20:0), %arg2: !tt.ptr<f32> {tt.divisibility = 16 : i32} loc("/home/yuhao/T_RVV/benchmark/src/triton/matmul.py":20:0), %arg3: i32 {tt.divisibility = 16 : i32} loc("/home/yuhao/T_RVV/benchmark/src/triton/matmul.py":20:0), %arg4: i32 {tt.divisibility = 16 : i32} loc("/home/yuhao/T_RVV/benchmark/src/triton/matmul.py":20:0), %arg5: i32 {tt.divisibility = 16 : i32} loc("/home/yuhao/T_RVV/benchmark/src/triton/matmul.py":20:0), %arg6: i32 {tt.divisibility = 16 : i32} loc("/home/yuhao/T_RVV/benchmark/src/triton/matmul.py":20:0), %arg7: i32 {tt.divisibility = 16 : i32} loc("/home/yuhao/T_RVV/benchmark/src/triton/matmul.py":20:0), %arg8: i32 {tt.divisibility = 16 : i32} loc("/home/yuhao/T_RVV/benchmark/src/triton/matmul.py":20:0)) attributes {noinline = false} {
    %0 = tt.get_program_id x : i32 loc(#loc1)
    %1 = tt.call @"cdiv__i32__(1,)cconstexpr_8_"(%arg3) : (i32) -> i32 loc(#loc2)
    %2 = tt.call @"cdiv__i32__(1,)cconstexpr_8_"(%arg4) : (i32) -> i32 loc(#loc3)
    %c4_i32 = arith.constant 4 : i32 loc(#loc4)
    %c4_i32_0 = arith.constant 4 : i32 loc(#loc4)
    %3 = arith.muli %c4_i32_0, %2 : i32 loc(#loc4)
    %4 = arith.divsi %0, %3 : i32 loc(#loc5)
    %c4_i32_1 = arith.constant 4 : i32 loc(#loc6)
    %c4_i32_2 = arith.constant 4 : i32 loc(#loc6)
    %5 = arith.muli %4, %c4_i32_2 : i32 loc(#loc6)
    %6 = arith.subi %1, %5 : i32 loc(#loc7)
    %c4_i32_3 = arith.constant 4 : i32 loc(#loc8)
    %7 = arith.minsi %6, %c4_i32_3 : i32 loc(#loc8)
    %8 = arith.remsi %0, %7 : i32 loc(#loc9)
    %9 = arith.addi %5, %8 : i32 loc(#loc10)
    %10 = arith.remsi %0, %3 : i32 loc(#loc11)
    %11 = arith.divsi %10, %7 : i32 loc(#loc12)
    %c8_i32 = arith.constant 8 : i32 loc(#loc13)
    %c8_i32_4 = arith.constant 8 : i32 loc(#loc13)
    %12 = arith.muli %9, %c8_i32_4 : i32 loc(#loc13)
    %13 = tt.make_range {end = 8 : i32, start = 0 : i32} : tensor<8xi32> loc(#loc14)
    %14 = tt.splat %12 : i32 -> tensor<8xi32> loc(#loc15)
    %15 = arith.addi %14, %13 : tensor<8xi32> loc(#loc15)
    %16 = tt.splat %arg3 : i32 -> tensor<8xi32> loc(#loc16)
    %17 = arith.remsi %15, %16 : tensor<8xi32> loc(#loc16)
    %c8_i32_5 = arith.constant 8 : i32 loc(#loc17)
    %c8_i32_6 = arith.constant 8 : i32 loc(#loc17)
    %18 = arith.muli %11, %c8_i32_6 : i32 loc(#loc17)
    %19 = tt.make_range {end = 8 : i32, start = 0 : i32} : tensor<8xi32> loc(#loc18)
    %20 = tt.splat %18 : i32 -> tensor<8xi32> loc(#loc19)
    %21 = arith.addi %20, %19 : tensor<8xi32> loc(#loc19)
    %22 = tt.splat %arg4 : i32 -> tensor<8xi32> loc(#loc20)
    %23 = arith.remsi %21, %22 : tensor<8xi32> loc(#loc20)
    %24 = tt.make_range {end = 8 : i32, start = 0 : i32} : tensor<8xi32> loc(#loc21)
    %25 = tt.expand_dims %17 {axis = 1 : i32} : tensor<8xi32> -> tensor<8x1xi32> loc(#loc22)
    %26 = tt.splat %arg6 : i32 -> tensor<8x1xi32> loc(#loc23)
    %27 = arith.muli %25, %26 : tensor<8x1xi32> loc(#loc23)
    %28 = tt.expand_dims %24 {axis = 0 : i32} : tensor<8xi32> -> tensor<1x8xi32> loc(#loc24)
    %c1_i32 = arith.constant 1 : i32 loc(#loc25)
    %c1_i32_7 = arith.constant 1 : i32 loc(#loc25)
    %cst = arith.constant dense<1> : tensor<1x8xi32> loc(#loc25)
    %29 = arith.muli %28, %cst : tensor<1x8xi32> loc(#loc25)
    %30 = tt.broadcast %27 : tensor<8x1xi32> -> tensor<8x8xi32> loc(#loc26)
    %31 = tt.broadcast %29 : tensor<1x8xi32> -> tensor<8x8xi32> loc(#loc26)
    %32 = arith.addi %30, %31 : tensor<8x8xi32> loc(#loc26)
    %33 = tt.splat %arg0 : !tt.ptr<f32> -> tensor<8x8x!tt.ptr<f32>> loc(#loc27)
    %34 = tt.addptr %33, %32 : tensor<8x8x!tt.ptr<f32>>, tensor<8x8xi32> loc(#loc27)
    %35 = tt.expand_dims %24 {axis = 1 : i32} : tensor<8xi32> -> tensor<8x1xi32> loc(#loc28)
    %36 = tt.splat %arg7 : i32 -> tensor<8x1xi32> loc(#loc29)
    %37 = arith.muli %35, %36 : tensor<8x1xi32> loc(#loc29)
    %38 = tt.expand_dims %23 {axis = 0 : i32} : tensor<8xi32> -> tensor<1x8xi32> loc(#loc30)
    %c1_i32_8 = arith.constant 1 : i32 loc(#loc31)
    %c1_i32_9 = arith.constant 1 : i32 loc(#loc31)
    %cst_10 = arith.constant dense<1> : tensor<1x8xi32> loc(#loc31)
    %39 = arith.muli %38, %cst_10 : tensor<1x8xi32> loc(#loc31)
    %40 = tt.broadcast %37 : tensor<8x1xi32> -> tensor<8x8xi32> loc(#loc32)
    %41 = tt.broadcast %39 : tensor<1x8xi32> -> tensor<8x8xi32> loc(#loc32)
    %42 = arith.addi %40, %41 : tensor<8x8xi32> loc(#loc32)
    %43 = tt.splat %arg1 : !tt.ptr<f32> -> tensor<8x8x!tt.ptr<f32>> loc(#loc33)
    %44 = tt.addptr %43, %42 : tensor<8x8x!tt.ptr<f32>>, tensor<8x8xi32> loc(#loc33)
    %45 = tt.call @"zeros____(0, 0)cconstexpr_8__(0, 1)cconstexpr_8__(1,)cconstexpr_fp32_"() : () -> tensor<8x8xf32> loc(#loc34)
    %46 = tt.call @"cdiv__i32__(1,)cconstexpr_8_"(%arg5) : (i32) -> i32 loc(#loc35)
    %c0_i32 = arith.constant 0 : i32 loc(#loc36)
    %c1_i32_11 = arith.constant 1 : i32 loc(#loc36)
    %47 = arith.bitcast %c0_i32 : i32 to i32 loc(#loc36)
    %48 = arith.bitcast %46 : i32 to i32 loc(#loc36)
    %49 = arith.bitcast %c1_i32_11 : i32 to i32 loc(#loc36)
    %50 = ub.poison : i32 loc(#loc36)
    %51:3 = scf.for %arg9 = %47 to %48 step %49 iter_args(%arg10 = %45, %arg11 = %34, %arg12 = %44) -> (tensor<8x8xf32>, tensor<8x8x!tt.ptr<f32>>, tensor<8x8x!tt.ptr<f32>>)  : i32 {
      %79 = tt.load %arg11 : tensor<8x8x!tt.ptr<f32>> loc(#loc37)
      %80 = tt.load %arg12 : tensor<8x8x!tt.ptr<f32>> loc(#loc38)
      %cst_19 = arith.constant 0.000000e+00 : f32 loc(#loc39)
      %cst_20 = arith.constant dense<0.000000e+00> : tensor<8x8xf32> loc(#loc39)
      %81 = tt.dot %79, %80, %cst_20, inputPrecision = tf32 : tensor<8x8xf32> * tensor<8x8xf32> -> tensor<8x8xf32> loc(#loc39)
      %82 = arith.addf %arg10, %81 : tensor<8x8xf32> loc(#loc40)
      %c8_i32_21 = arith.constant 8 : i32 loc(#loc41)
      %cst_22 = arith.constant dense<8> : tensor<8x8xi32> loc(#loc41)
      %83 = tt.addptr %arg11, %cst_22 : tensor<8x8x!tt.ptr<f32>>, tensor<8x8xi32> loc(#loc41)
      %c8_i32_23 = arith.constant 8 : i32 loc(#loc42)
      %c8_i32_24 = arith.constant 8 : i32 loc(#loc42)
      %84 = arith.muli %c8_i32_24, %arg7 : i32 loc(#loc42)
      %85 = tt.splat %84 : i32 -> tensor<8x8xi32> loc(#loc43)
      %86 = tt.addptr %arg12, %85 : tensor<8x8x!tt.ptr<f32>>, tensor<8x8xi32> loc(#loc43)
      scf.yield %82, %83, %86 : tensor<8x8xf32>, tensor<8x8x!tt.ptr<f32>>, tensor<8x8x!tt.ptr<f32>> loc(#loc44)
    } loc(#loc36)
    %c8_i32_12 = arith.constant 8 : i32 loc(#loc45)
    %c8_i32_13 = arith.constant 8 : i32 loc(#loc45)
    %52 = arith.muli %9, %c8_i32_13 : i32 loc(#loc45)
    %53 = tt.make_range {end = 8 : i32, start = 0 : i32} : tensor<8xi32> loc(#loc46)
    %54 = tt.splat %52 : i32 -> tensor<8xi32> loc(#loc47)
    %55 = arith.addi %54, %53 : tensor<8xi32> loc(#loc47)
    %c8_i32_14 = arith.constant 8 : i32 loc(#loc48)
    %c8_i32_15 = arith.constant 8 : i32 loc(#loc48)
    %56 = arith.muli %11, %c8_i32_15 : i32 loc(#loc48)
    %57 = tt.make_range {end = 8 : i32, start = 0 : i32} : tensor<8xi32> loc(#loc49)
    %58 = tt.splat %56 : i32 -> tensor<8xi32> loc(#loc50)
    %59 = arith.addi %58, %57 : tensor<8xi32> loc(#loc50)
    %60 = tt.expand_dims %55 {axis = 1 : i32} : tensor<8xi32> -> tensor<8x1xi32> loc(#loc51)
    %61 = tt.splat %arg8 : i32 -> tensor<8x1xi32> loc(#loc52)
    %62 = arith.muli %61, %60 : tensor<8x1xi32> loc(#loc52)
    %63 = tt.splat %arg2 : !tt.ptr<f32> -> tensor<8x1x!tt.ptr<f32>> loc(#loc53)
    %64 = tt.addptr %63, %62 : tensor<8x1x!tt.ptr<f32>>, tensor<8x1xi32> loc(#loc53)
    %65 = tt.expand_dims %59 {axis = 0 : i32} : tensor<8xi32> -> tensor<1x8xi32> loc(#loc54)
    %c1_i32_16 = arith.constant 1 : i32 loc(#loc55)
    %c1_i32_17 = arith.constant 1 : i32 loc(#loc55)
    %cst_18 = arith.constant dense<1> : tensor<1x8xi32> loc(#loc55)
    %66 = arith.muli %cst_18, %65 : tensor<1x8xi32> loc(#loc55)
    %67 = tt.broadcast %64 : tensor<8x1x!tt.ptr<f32>> -> tensor<8x8x!tt.ptr<f32>> loc(#loc56)
    %68 = tt.broadcast %66 : tensor<1x8xi32> -> tensor<8x8xi32> loc(#loc56)
    %69 = tt.addptr %67, %68 : tensor<8x8x!tt.ptr<f32>>, tensor<8x8xi32> loc(#loc56)
    %70 = tt.expand_dims %55 {axis = 1 : i32} : tensor<8xi32> -> tensor<8x1xi32> loc(#loc57)
    %71 = tt.splat %arg3 : i32 -> tensor<8x1xi32> loc(#loc58)
    %72 = arith.cmpi slt, %70, %71 : tensor<8x1xi32> loc(#loc58)
    %73 = tt.expand_dims %59 {axis = 0 : i32} : tensor<8xi32> -> tensor<1x8xi32> loc(#loc59)
    %74 = tt.splat %arg4 : i32 -> tensor<1x8xi32> loc(#loc60)
    %75 = arith.cmpi slt, %73, %74 : tensor<1x8xi32> loc(#loc60)
    %76 = tt.broadcast %72 : tensor<8x1xi1> -> tensor<8x8xi1> loc(#loc61)
    %77 = tt.broadcast %75 : tensor<1x8xi1> -> tensor<8x8xi1> loc(#loc61)
    %78 = arith.andi %76, %77 : tensor<8x8xi1> loc(#loc61)
    tt.store %69, %51#0, %78 : tensor<8x8x!tt.ptr<f32>> loc(#loc62)
    tt.return loc(#loc63)
  } loc(#loc)
  tt.func private @"cdiv__i32__(1,)cconstexpr_8_"(%arg0: i32 loc("/home/yuhao/triton-cpu/python/triton/language/standard.py":31:0)) -> i32 attributes {noinline = false} {
    %c8_i32 = arith.constant 8 : i32 loc(#loc65)
    %c8_i32_0 = arith.constant 8 : i32 loc(#loc65)
    %0 = arith.addi %arg0, %c8_i32_0 : i32 loc(#loc65)
    %c1_i32 = arith.constant 1 : i32 loc(#loc66)
    %c1_i32_1 = arith.constant 1 : i32 loc(#loc66)
    %1 = arith.subi %0, %c1_i32_1 : i32 loc(#loc66)
    %c8_i32_2 = arith.constant 8 : i32 loc(#loc67)
    %c8_i32_3 = arith.constant 8 : i32 loc(#loc67)
    %2 = arith.divsi %1, %c8_i32_3 : i32 loc(#loc67)
    tt.return %2 : i32 loc(#loc68)
  ^bb1:  // no predecessors
    %3 = ub.poison : i32 loc(#loc69)
    tt.return %3 : i32 loc(#loc69)
  } loc(#loc64)
  tt.func private @"zeros____(0, 0)cconstexpr_8__(0, 1)cconstexpr_8__(1,)cconstexpr_fp32_"() -> tensor<8x8xf32> attributes {noinline = false} {
    %cst = arith.constant 0.000000e+00 : f32 loc(#loc71)
    %cst_0 = arith.constant dense<0.000000e+00> : tensor<8x8xf32> loc(#loc71)
    tt.return %cst_0 : tensor<8x8xf32> loc(#loc72)
  ^bb1:  // no predecessors
    %0 = ub.poison : tensor<8x8xf32> loc(#loc73)
    tt.return %0 : tensor<8x8xf32> loc(#loc73)
  } loc(#loc70)
} loc(#loc)
#loc1 = loc("/home/yuhao/T_RVV/benchmark/src/triton/matmul.py":40:24)
#loc2 = loc("/home/yuhao/T_RVV/benchmark/src/triton/matmul.py":41:27)
#loc3 = loc("/home/yuhao/T_RVV/benchmark/src/triton/matmul.py":42:27)
#loc4 = loc("/home/yuhao/T_RVV/benchmark/src/triton/matmul.py":43:38)
#loc5 = loc("/home/yuhao/T_RVV/benchmark/src/triton/matmul.py":44:22)
#loc6 = loc("/home/yuhao/T_RVV/benchmark/src/triton/matmul.py":45:29)
#loc7 = loc("/home/yuhao/T_RVV/benchmark/src/triton/matmul.py":46:35)
#loc8 = loc("/home/yuhao/T_RVV/benchmark/src/triton/matmul.py":46:48)
#loc9 = loc("/home/yuhao/T_RVV/benchmark/src/triton/matmul.py":47:33)
#loc10 = loc("/home/yuhao/T_RVV/benchmark/src/triton/matmul.py":47:27)
#loc11 = loc("/home/yuhao/T_RVV/benchmark/src/triton/matmul.py":48:19)
#loc12 = loc("/home/yuhao/T_RVV/benchmark/src/triton/matmul.py":48:40)
#loc13 = loc("/home/yuhao/T_RVV/benchmark/src/triton/matmul.py":72:23)
#loc14 = loc("/home/yuhao/T_RVV/benchmark/src/triton/matmul.py":72:51)
#loc15 = loc("/home/yuhao/T_RVV/benchmark/src/triton/matmul.py":72:38)
#loc16 = loc("/home/yuhao/T_RVV/benchmark/src/triton/matmul.py":72:68)
#loc17 = loc("/home/yuhao/T_RVV/benchmark/src/triton/matmul.py":73:23)
#loc18 = loc("/home/yuhao/T_RVV/benchmark/src/triton/matmul.py":73:51)
#loc19 = loc("/home/yuhao/T_RVV/benchmark/src/triton/matmul.py":73:38)
#loc20 = loc("/home/yuhao/T_RVV/benchmark/src/triton/matmul.py":73:68)
#loc21 = loc("/home/yuhao/T_RVV/benchmark/src/triton/matmul.py":74:26)
#loc22 = loc("/home/yuhao/T_RVV/benchmark/src/triton/matmul.py":75:34)
#loc23 = loc("/home/yuhao/T_RVV/benchmark/src/triton/matmul.py":75:45)
#loc24 = loc("/home/yuhao/T_RVV/benchmark/src/triton/matmul.py":75:64)
#loc25 = loc("/home/yuhao/T_RVV/benchmark/src/triton/matmul.py":75:75)
#loc26 = loc("/home/yuhao/T_RVV/benchmark/src/triton/matmul.py":75:57)
#loc27 = loc("/home/yuhao/T_RVV/benchmark/src/triton/matmul.py":75:26)
#loc28 = loc("/home/yuhao/T_RVV/benchmark/src/triton/matmul.py":76:33)
#loc29 = loc("/home/yuhao/T_RVV/benchmark/src/triton/matmul.py":76:44)
#loc30 = loc("/home/yuhao/T_RVV/benchmark/src/triton/matmul.py":76:64)
#loc31 = loc("/home/yuhao/T_RVV/benchmark/src/triton/matmul.py":76:75)
#loc32 = loc("/home/yuhao/T_RVV/benchmark/src/triton/matmul.py":76:56)
#loc33 = loc("/home/yuhao/T_RVV/benchmark/src/triton/matmul.py":76:26)
#loc34 = loc("/home/yuhao/T_RVV/benchmark/src/triton/matmul.py":84:27)
#loc35 = loc("/home/yuhao/T_RVV/benchmark/src/triton/matmul.py":85:33)
#loc36 = loc("/home/yuhao/T_RVV/benchmark/src/triton/matmul.py":85:22)
#loc37 = loc("/home/yuhao/T_RVV/benchmark/src/triton/matmul.py":88:20)
#loc38 = loc("/home/yuhao/T_RVV/benchmark/src/triton/matmul.py":89:20)
#loc39 = loc("/home/yuhao/T_RVV/benchmark/src/triton/matmul.py":92:33)
#loc40 = loc("/home/yuhao/T_RVV/benchmark/src/triton/matmul.py":92:23)
#loc41 = loc("/home/yuhao/T_RVV/benchmark/src/triton/matmul.py":100:22)
#loc42 = loc("/home/yuhao/T_RVV/benchmark/src/triton/matmul.py":101:37)
#loc43 = loc("/home/yuhao/T_RVV/benchmark/src/triton/matmul.py":101:22)
#loc44 = loc("/home/yuhao/T_RVV/benchmark/src/triton/matmul.py":101:8)
#loc45 = loc("/home/yuhao/T_RVV/benchmark/src/triton/matmul.py":112:22)
#loc46 = loc("/home/yuhao/T_RVV/benchmark/src/triton/matmul.py":112:50)
#loc47 = loc("/home/yuhao/T_RVV/benchmark/src/triton/matmul.py":112:37)
#loc48 = loc("/home/yuhao/T_RVV/benchmark/src/triton/matmul.py":113:22)
#loc49 = loc("/home/yuhao/T_RVV/benchmark/src/triton/matmul.py":113:50)
#loc50 = loc("/home/yuhao/T_RVV/benchmark/src/triton/matmul.py":113:37)
#loc51 = loc("/home/yuhao/T_RVV/benchmark/src/triton/matmul.py":114:41)
#loc52 = loc("/home/yuhao/T_RVV/benchmark/src/triton/matmul.py":114:33)
#loc53 = loc("/home/yuhao/T_RVV/benchmark/src/triton/matmul.py":114:21)
#loc54 = loc("/home/yuhao/T_RVV/benchmark/src/triton/matmul.py":114:72)
#loc55 = loc("/home/yuhao/T_RVV/benchmark/src/triton/matmul.py":114:64)
#loc56 = loc("/home/yuhao/T_RVV/benchmark/src/triton/matmul.py":114:52)
#loc57 = loc("/home/yuhao/T_RVV/benchmark/src/triton/matmul.py":115:22)
#loc58 = loc("/home/yuhao/T_RVV/benchmark/src/triton/matmul.py":115:33)
#loc59 = loc("/home/yuhao/T_RVV/benchmark/src/triton/matmul.py":115:47)
#loc60 = loc("/home/yuhao/T_RVV/benchmark/src/triton/matmul.py":115:58)
#loc61 = loc("/home/yuhao/T_RVV/benchmark/src/triton/matmul.py":115:39)
#loc62 = loc("/home/yuhao/T_RVV/benchmark/src/triton/matmul.py":116:21)
#loc63 = loc("/home/yuhao/T_RVV/benchmark/src/triton/matmul.py":116:4)
#loc65 = loc("/home/yuhao/triton-cpu/python/triton/language/standard.py":40:16)
#loc66 = loc("/home/yuhao/triton-cpu/python/triton/language/standard.py":40:22)
#loc67 = loc("/home/yuhao/triton-cpu/python/triton/language/standard.py":40:28)
#loc68 = loc("/home/yuhao/triton-cpu/python/triton/language/standard.py":40:11)
#loc69 = loc("/home/yuhao/triton-cpu/python/triton/language/standard.py":40:4)
#loc70 = loc("/home/yuhao/triton-cpu/python/triton/language/standard.py":113:0)
#loc71 = loc("/home/yuhao/triton-cpu/python/triton/language/standard.py":122:31)
#loc72 = loc("/home/yuhao/triton-cpu/python/triton/language/standard.py":122:11)
#loc73 = loc("/home/yuhao/triton-cpu/python/triton/language/standard.py":122:4)


// -----// IR Dump Before Canonicalizer (canonicalize) ('tt.func' operation: @cdiv__i32__(1,)cconstexpr_8_) //----- //
#loc = loc("/home/yuhao/T_RVV/benchmark/src/triton/matmul.py":20:0)
#loc64 = loc("/home/yuhao/triton-cpu/python/triton/language/standard.py":31:0)
module {
  tt.func public @matmul_kernel(%arg0: !tt.ptr<f32> {tt.divisibility = 16 : i32} loc("/home/yuhao/T_RVV/benchmark/src/triton/matmul.py":20:0), %arg1: !tt.ptr<f32> {tt.divisibility = 16 : i32} loc("/home/yuhao/T_RVV/benchmark/src/triton/matmul.py":20:0), %arg2: !tt.ptr<f32> {tt.divisibility = 16 : i32} loc("/home/yuhao/T_RVV/benchmark/src/triton/matmul.py":20:0), %arg3: i32 {tt.divisibility = 16 : i32} loc("/home/yuhao/T_RVV/benchmark/src/triton/matmul.py":20:0), %arg4: i32 {tt.divisibility = 16 : i32} loc("/home/yuhao/T_RVV/benchmark/src/triton/matmul.py":20:0), %arg5: i32 {tt.divisibility = 16 : i32} loc("/home/yuhao/T_RVV/benchmark/src/triton/matmul.py":20:0), %arg6: i32 {tt.divisibility = 16 : i32} loc("/home/yuhao/T_RVV/benchmark/src/triton/matmul.py":20:0), %arg7: i32 {tt.divisibility = 16 : i32} loc("/home/yuhao/T_RVV/benchmark/src/triton/matmul.py":20:0), %arg8: i32 {tt.divisibility = 16 : i32} loc("/home/yuhao/T_RVV/benchmark/src/triton/matmul.py":20:0)) attributes {noinline = false} {
    %0 = tt.get_program_id x : i32 loc(#loc1)
    %1 = tt.call @"cdiv__i32__(1,)cconstexpr_8_"(%arg3) : (i32) -> i32 loc(#loc2)
    %2 = tt.call @"cdiv__i32__(1,)cconstexpr_8_"(%arg4) : (i32) -> i32 loc(#loc3)
    %c4_i32 = arith.constant 4 : i32 loc(#loc4)
    %c4_i32_0 = arith.constant 4 : i32 loc(#loc4)
    %3 = arith.muli %c4_i32_0, %2 : i32 loc(#loc4)
    %4 = arith.divsi %0, %3 : i32 loc(#loc5)
    %c4_i32_1 = arith.constant 4 : i32 loc(#loc6)
    %c4_i32_2 = arith.constant 4 : i32 loc(#loc6)
    %5 = arith.muli %4, %c4_i32_2 : i32 loc(#loc6)
    %6 = arith.subi %1, %5 : i32 loc(#loc7)
    %c4_i32_3 = arith.constant 4 : i32 loc(#loc8)
    %7 = arith.minsi %6, %c4_i32_3 : i32 loc(#loc8)
    %8 = arith.remsi %0, %7 : i32 loc(#loc9)
    %9 = arith.addi %5, %8 : i32 loc(#loc10)
    %10 = arith.remsi %0, %3 : i32 loc(#loc11)
    %11 = arith.divsi %10, %7 : i32 loc(#loc12)
    %c8_i32 = arith.constant 8 : i32 loc(#loc13)
    %c8_i32_4 = arith.constant 8 : i32 loc(#loc13)
    %12 = arith.muli %9, %c8_i32_4 : i32 loc(#loc13)
    %13 = tt.make_range {end = 8 : i32, start = 0 : i32} : tensor<8xi32> loc(#loc14)
    %14 = tt.splat %12 : i32 -> tensor<8xi32> loc(#loc15)
    %15 = arith.addi %14, %13 : tensor<8xi32> loc(#loc15)
    %16 = tt.splat %arg3 : i32 -> tensor<8xi32> loc(#loc16)
    %17 = arith.remsi %15, %16 : tensor<8xi32> loc(#loc16)
    %c8_i32_5 = arith.constant 8 : i32 loc(#loc17)
    %c8_i32_6 = arith.constant 8 : i32 loc(#loc17)
    %18 = arith.muli %11, %c8_i32_6 : i32 loc(#loc17)
    %19 = tt.make_range {end = 8 : i32, start = 0 : i32} : tensor<8xi32> loc(#loc18)
    %20 = tt.splat %18 : i32 -> tensor<8xi32> loc(#loc19)
    %21 = arith.addi %20, %19 : tensor<8xi32> loc(#loc19)
    %22 = tt.splat %arg4 : i32 -> tensor<8xi32> loc(#loc20)
    %23 = arith.remsi %21, %22 : tensor<8xi32> loc(#loc20)
    %24 = tt.make_range {end = 8 : i32, start = 0 : i32} : tensor<8xi32> loc(#loc21)
    %25 = tt.expand_dims %17 {axis = 1 : i32} : tensor<8xi32> -> tensor<8x1xi32> loc(#loc22)
    %26 = tt.splat %arg6 : i32 -> tensor<8x1xi32> loc(#loc23)
    %27 = arith.muli %25, %26 : tensor<8x1xi32> loc(#loc23)
    %28 = tt.expand_dims %24 {axis = 0 : i32} : tensor<8xi32> -> tensor<1x8xi32> loc(#loc24)
    %c1_i32 = arith.constant 1 : i32 loc(#loc25)
    %c1_i32_7 = arith.constant 1 : i32 loc(#loc25)
    %cst = arith.constant dense<1> : tensor<1x8xi32> loc(#loc25)
    %29 = arith.muli %28, %cst : tensor<1x8xi32> loc(#loc25)
    %30 = tt.broadcast %27 : tensor<8x1xi32> -> tensor<8x8xi32> loc(#loc26)
    %31 = tt.broadcast %29 : tensor<1x8xi32> -> tensor<8x8xi32> loc(#loc26)
    %32 = arith.addi %30, %31 : tensor<8x8xi32> loc(#loc26)
    %33 = tt.splat %arg0 : !tt.ptr<f32> -> tensor<8x8x!tt.ptr<f32>> loc(#loc27)
    %34 = tt.addptr %33, %32 : tensor<8x8x!tt.ptr<f32>>, tensor<8x8xi32> loc(#loc27)
    %35 = tt.expand_dims %24 {axis = 1 : i32} : tensor<8xi32> -> tensor<8x1xi32> loc(#loc28)
    %36 = tt.splat %arg7 : i32 -> tensor<8x1xi32> loc(#loc29)
    %37 = arith.muli %35, %36 : tensor<8x1xi32> loc(#loc29)
    %38 = tt.expand_dims %23 {axis = 0 : i32} : tensor<8xi32> -> tensor<1x8xi32> loc(#loc30)
    %c1_i32_8 = arith.constant 1 : i32 loc(#loc31)
    %c1_i32_9 = arith.constant 1 : i32 loc(#loc31)
    %cst_10 = arith.constant dense<1> : tensor<1x8xi32> loc(#loc31)
    %39 = arith.muli %38, %cst_10 : tensor<1x8xi32> loc(#loc31)
    %40 = tt.broadcast %37 : tensor<8x1xi32> -> tensor<8x8xi32> loc(#loc32)
    %41 = tt.broadcast %39 : tensor<1x8xi32> -> tensor<8x8xi32> loc(#loc32)
    %42 = arith.addi %40, %41 : tensor<8x8xi32> loc(#loc32)
    %43 = tt.splat %arg1 : !tt.ptr<f32> -> tensor<8x8x!tt.ptr<f32>> loc(#loc33)
    %44 = tt.addptr %43, %42 : tensor<8x8x!tt.ptr<f32>>, tensor<8x8xi32> loc(#loc33)
    %45 = tt.call @"zeros____(0, 0)cconstexpr_8__(0, 1)cconstexpr_8__(1,)cconstexpr_fp32_"() : () -> tensor<8x8xf32> loc(#loc34)
    %46 = tt.call @"cdiv__i32__(1,)cconstexpr_8_"(%arg5) : (i32) -> i32 loc(#loc35)
    %c0_i32 = arith.constant 0 : i32 loc(#loc36)
    %c1_i32_11 = arith.constant 1 : i32 loc(#loc36)
    %47 = arith.bitcast %c0_i32 : i32 to i32 loc(#loc36)
    %48 = arith.bitcast %46 : i32 to i32 loc(#loc36)
    %49 = arith.bitcast %c1_i32_11 : i32 to i32 loc(#loc36)
    %50 = ub.poison : i32 loc(#loc36)
    %51:3 = scf.for %arg9 = %47 to %48 step %49 iter_args(%arg10 = %45, %arg11 = %34, %arg12 = %44) -> (tensor<8x8xf32>, tensor<8x8x!tt.ptr<f32>>, tensor<8x8x!tt.ptr<f32>>)  : i32 {
      %79 = tt.load %arg11 : tensor<8x8x!tt.ptr<f32>> loc(#loc37)
      %80 = tt.load %arg12 : tensor<8x8x!tt.ptr<f32>> loc(#loc38)
      %cst_19 = arith.constant 0.000000e+00 : f32 loc(#loc39)
      %cst_20 = arith.constant dense<0.000000e+00> : tensor<8x8xf32> loc(#loc39)
      %81 = tt.dot %79, %80, %cst_20, inputPrecision = tf32 : tensor<8x8xf32> * tensor<8x8xf32> -> tensor<8x8xf32> loc(#loc39)
      %82 = arith.addf %arg10, %81 : tensor<8x8xf32> loc(#loc40)
      %c8_i32_21 = arith.constant 8 : i32 loc(#loc41)
      %cst_22 = arith.constant dense<8> : tensor<8x8xi32> loc(#loc41)
      %83 = tt.addptr %arg11, %cst_22 : tensor<8x8x!tt.ptr<f32>>, tensor<8x8xi32> loc(#loc41)
      %c8_i32_23 = arith.constant 8 : i32 loc(#loc42)
      %c8_i32_24 = arith.constant 8 : i32 loc(#loc42)
      %84 = arith.muli %c8_i32_24, %arg7 : i32 loc(#loc42)
      %85 = tt.splat %84 : i32 -> tensor<8x8xi32> loc(#loc43)
      %86 = tt.addptr %arg12, %85 : tensor<8x8x!tt.ptr<f32>>, tensor<8x8xi32> loc(#loc43)
      scf.yield %82, %83, %86 : tensor<8x8xf32>, tensor<8x8x!tt.ptr<f32>>, tensor<8x8x!tt.ptr<f32>> loc(#loc44)
    } loc(#loc36)
    %c8_i32_12 = arith.constant 8 : i32 loc(#loc45)
    %c8_i32_13 = arith.constant 8 : i32 loc(#loc45)
    %52 = arith.muli %9, %c8_i32_13 : i32 loc(#loc45)
    %53 = tt.make_range {end = 8 : i32, start = 0 : i32} : tensor<8xi32> loc(#loc46)
    %54 = tt.splat %52 : i32 -> tensor<8xi32> loc(#loc47)
    %55 = arith.addi %54, %53 : tensor<8xi32> loc(#loc47)
    %c8_i32_14 = arith.constant 8 : i32 loc(#loc48)
    %c8_i32_15 = arith.constant 8 : i32 loc(#loc48)
    %56 = arith.muli %11, %c8_i32_15 : i32 loc(#loc48)
    %57 = tt.make_range {end = 8 : i32, start = 0 : i32} : tensor<8xi32> loc(#loc49)
    %58 = tt.splat %56 : i32 -> tensor<8xi32> loc(#loc50)
    %59 = arith.addi %58, %57 : tensor<8xi32> loc(#loc50)
    %60 = tt.expand_dims %55 {axis = 1 : i32} : tensor<8xi32> -> tensor<8x1xi32> loc(#loc51)
    %61 = tt.splat %arg8 : i32 -> tensor<8x1xi32> loc(#loc52)
    %62 = arith.muli %61, %60 : tensor<8x1xi32> loc(#loc52)
    %63 = tt.splat %arg2 : !tt.ptr<f32> -> tensor<8x1x!tt.ptr<f32>> loc(#loc53)
    %64 = tt.addptr %63, %62 : tensor<8x1x!tt.ptr<f32>>, tensor<8x1xi32> loc(#loc53)
    %65 = tt.expand_dims %59 {axis = 0 : i32} : tensor<8xi32> -> tensor<1x8xi32> loc(#loc54)
    %c1_i32_16 = arith.constant 1 : i32 loc(#loc55)
    %c1_i32_17 = arith.constant 1 : i32 loc(#loc55)
    %cst_18 = arith.constant dense<1> : tensor<1x8xi32> loc(#loc55)
    %66 = arith.muli %cst_18, %65 : tensor<1x8xi32> loc(#loc55)
    %67 = tt.broadcast %64 : tensor<8x1x!tt.ptr<f32>> -> tensor<8x8x!tt.ptr<f32>> loc(#loc56)
    %68 = tt.broadcast %66 : tensor<1x8xi32> -> tensor<8x8xi32> loc(#loc56)
    %69 = tt.addptr %67, %68 : tensor<8x8x!tt.ptr<f32>>, tensor<8x8xi32> loc(#loc56)
    %70 = tt.expand_dims %55 {axis = 1 : i32} : tensor<8xi32> -> tensor<8x1xi32> loc(#loc57)
    %71 = tt.splat %arg3 : i32 -> tensor<8x1xi32> loc(#loc58)
    %72 = arith.cmpi slt, %70, %71 : tensor<8x1xi32> loc(#loc58)
    %73 = tt.expand_dims %59 {axis = 0 : i32} : tensor<8xi32> -> tensor<1x8xi32> loc(#loc59)
    %74 = tt.splat %arg4 : i32 -> tensor<1x8xi32> loc(#loc60)
    %75 = arith.cmpi slt, %73, %74 : tensor<1x8xi32> loc(#loc60)
    %76 = tt.broadcast %72 : tensor<8x1xi1> -> tensor<8x8xi1> loc(#loc61)
    %77 = tt.broadcast %75 : tensor<1x8xi1> -> tensor<8x8xi1> loc(#loc61)
    %78 = arith.andi %76, %77 : tensor<8x8xi1> loc(#loc61)
    tt.store %69, %51#0, %78 : tensor<8x8x!tt.ptr<f32>> loc(#loc62)
    tt.return loc(#loc63)
  } loc(#loc)
  tt.func private @"cdiv__i32__(1,)cconstexpr_8_"(%arg0: i32 loc("/home/yuhao/triton-cpu/python/triton/language/standard.py":31:0)) -> i32 attributes {noinline = false} {
    %c8_i32 = arith.constant 8 : i32 loc(#loc65)
    %c8_i32_0 = arith.constant 8 : i32 loc(#loc65)
    %0 = arith.addi %arg0, %c8_i32_0 : i32 loc(#loc65)
    %c1_i32 = arith.constant 1 : i32 loc(#loc66)
    %c1_i32_1 = arith.constant 1 : i32 loc(#loc66)
    %1 = arith.subi %0, %c1_i32_1 : i32 loc(#loc66)
    %c8_i32_2 = arith.constant 8 : i32 loc(#loc67)
    %c8_i32_3 = arith.constant 8 : i32 loc(#loc67)
    %2 = arith.divsi %1, %c8_i32_3 : i32 loc(#loc67)
    tt.return %2 : i32 loc(#loc68)
  ^bb1:  // no predecessors
    %3 = ub.poison : i32 loc(#loc69)
    tt.return %3 : i32 loc(#loc69)
  } loc(#loc64)
  tt.func private @"zeros____(0, 0)cconstexpr_8__(0, 1)cconstexpr_8__(1,)cconstexpr_fp32_"() -> tensor<8x8xf32> attributes {noinline = false} {
    %cst = arith.constant 0.000000e+00 : f32 loc(#loc71)
    %cst_0 = arith.constant dense<0.000000e+00> : tensor<8x8xf32> loc(#loc71)
    tt.return %cst_0 : tensor<8x8xf32> loc(#loc72)
  ^bb1:  // no predecessors
    %0 = ub.poison : tensor<8x8xf32> loc(#loc73)
    tt.return %0 : tensor<8x8xf32> loc(#loc73)
  } loc(#loc70)
} loc(#loc)
#loc1 = loc("/home/yuhao/T_RVV/benchmark/src/triton/matmul.py":40:24)
#loc2 = loc("/home/yuhao/T_RVV/benchmark/src/triton/matmul.py":41:27)
#loc3 = loc("/home/yuhao/T_RVV/benchmark/src/triton/matmul.py":42:27)
#loc4 = loc("/home/yuhao/T_RVV/benchmark/src/triton/matmul.py":43:38)
#loc5 = loc("/home/yuhao/T_RVV/benchmark/src/triton/matmul.py":44:22)
#loc6 = loc("/home/yuhao/T_RVV/benchmark/src/triton/matmul.py":45:29)
#loc7 = loc("/home/yuhao/T_RVV/benchmark/src/triton/matmul.py":46:35)
#loc8 = loc("/home/yuhao/T_RVV/benchmark/src/triton/matmul.py":46:48)
#loc9 = loc("/home/yuhao/T_RVV/benchmark/src/triton/matmul.py":47:33)
#loc10 = loc("/home/yuhao/T_RVV/benchmark/src/triton/matmul.py":47:27)
#loc11 = loc("/home/yuhao/T_RVV/benchmark/src/triton/matmul.py":48:19)
#loc12 = loc("/home/yuhao/T_RVV/benchmark/src/triton/matmul.py":48:40)
#loc13 = loc("/home/yuhao/T_RVV/benchmark/src/triton/matmul.py":72:23)
#loc14 = loc("/home/yuhao/T_RVV/benchmark/src/triton/matmul.py":72:51)
#loc15 = loc("/home/yuhao/T_RVV/benchmark/src/triton/matmul.py":72:38)
#loc16 = loc("/home/yuhao/T_RVV/benchmark/src/triton/matmul.py":72:68)
#loc17 = loc("/home/yuhao/T_RVV/benchmark/src/triton/matmul.py":73:23)
#loc18 = loc("/home/yuhao/T_RVV/benchmark/src/triton/matmul.py":73:51)
#loc19 = loc("/home/yuhao/T_RVV/benchmark/src/triton/matmul.py":73:38)
#loc20 = loc("/home/yuhao/T_RVV/benchmark/src/triton/matmul.py":73:68)
#loc21 = loc("/home/yuhao/T_RVV/benchmark/src/triton/matmul.py":74:26)
#loc22 = loc("/home/yuhao/T_RVV/benchmark/src/triton/matmul.py":75:34)
#loc23 = loc("/home/yuhao/T_RVV/benchmark/src/triton/matmul.py":75:45)
#loc24 = loc("/home/yuhao/T_RVV/benchmark/src/triton/matmul.py":75:64)
#loc25 = loc("/home/yuhao/T_RVV/benchmark/src/triton/matmul.py":75:75)
#loc26 = loc("/home/yuhao/T_RVV/benchmark/src/triton/matmul.py":75:57)
#loc27 = loc("/home/yuhao/T_RVV/benchmark/src/triton/matmul.py":75:26)
#loc28 = loc("/home/yuhao/T_RVV/benchmark/src/triton/matmul.py":76:33)
#loc29 = loc("/home/yuhao/T_RVV/benchmark/src/triton/matmul.py":76:44)
#loc30 = loc("/home/yuhao/T_RVV/benchmark/src/triton/matmul.py":76:64)
#loc31 = loc("/home/yuhao/T_RVV/benchmark/src/triton/matmul.py":76:75)
#loc32 = loc("/home/yuhao/T_RVV/benchmark/src/triton/matmul.py":76:56)
#loc33 = loc("/home/yuhao/T_RVV/benchmark/src/triton/matmul.py":76:26)
#loc34 = loc("/home/yuhao/T_RVV/benchmark/src/triton/matmul.py":84:27)
#loc35 = loc("/home/yuhao/T_RVV/benchmark/src/triton/matmul.py":85:33)
#loc36 = loc("/home/yuhao/T_RVV/benchmark/src/triton/matmul.py":85:22)
#loc37 = loc("/home/yuhao/T_RVV/benchmark/src/triton/matmul.py":88:20)
#loc38 = loc("/home/yuhao/T_RVV/benchmark/src/triton/matmul.py":89:20)
#loc39 = loc("/home/yuhao/T_RVV/benchmark/src/triton/matmul.py":92:33)
#loc40 = loc("/home/yuhao/T_RVV/benchmark/src/triton/matmul.py":92:23)
#loc41 = loc("/home/yuhao/T_RVV/benchmark/src/triton/matmul.py":100:22)
#loc42 = loc("/home/yuhao/T_RVV/benchmark/src/triton/matmul.py":101:37)
#loc43 = loc("/home/yuhao/T_RVV/benchmark/src/triton/matmul.py":101:22)
#loc44 = loc("/home/yuhao/T_RVV/benchmark/src/triton/matmul.py":101:8)
#loc45 = loc("/home/yuhao/T_RVV/benchmark/src/triton/matmul.py":112:22)
#loc46 = loc("/home/yuhao/T_RVV/benchmark/src/triton/matmul.py":112:50)
#loc47 = loc("/home/yuhao/T_RVV/benchmark/src/triton/matmul.py":112:37)
#loc48 = loc("/home/yuhao/T_RVV/benchmark/src/triton/matmul.py":113:22)
#loc49 = loc("/home/yuhao/T_RVV/benchmark/src/triton/matmul.py":113:50)
#loc50 = loc("/home/yuhao/T_RVV/benchmark/src/triton/matmul.py":113:37)
#loc51 = loc("/home/yuhao/T_RVV/benchmark/src/triton/matmul.py":114:41)
#loc52 = loc("/home/yuhao/T_RVV/benchmark/src/triton/matmul.py":114:33)
#loc53 = loc("/home/yuhao/T_RVV/benchmark/src/triton/matmul.py":114:21)
#loc54 = loc("/home/yuhao/T_RVV/benchmark/src/triton/matmul.py":114:72)
#loc55 = loc("/home/yuhao/T_RVV/benchmark/src/triton/matmul.py":114:64)
#loc56 = loc("/home/yuhao/T_RVV/benchmark/src/triton/matmul.py":114:52)
#loc57 = loc("/home/yuhao/T_RVV/benchmark/src/triton/matmul.py":115:22)
#loc58 = loc("/home/yuhao/T_RVV/benchmark/src/triton/matmul.py":115:33)
#loc59 = loc("/home/yuhao/T_RVV/benchmark/src/triton/matmul.py":115:47)
#loc60 = loc("/home/yuhao/T_RVV/benchmark/src/triton/matmul.py":115:58)
#loc61 = loc("/home/yuhao/T_RVV/benchmark/src/triton/matmul.py":115:39)
#loc62 = loc("/home/yuhao/T_RVV/benchmark/src/triton/matmul.py":116:21)
#loc63 = loc("/home/yuhao/T_RVV/benchmark/src/triton/matmul.py":116:4)
#loc65 = loc("/home/yuhao/triton-cpu/python/triton/language/standard.py":40:16)
#loc66 = loc("/home/yuhao/triton-cpu/python/triton/language/standard.py":40:22)
#loc67 = loc("/home/yuhao/triton-cpu/python/triton/language/standard.py":40:28)
#loc68 = loc("/home/yuhao/triton-cpu/python/triton/language/standard.py":40:11)
#loc69 = loc("/home/yuhao/triton-cpu/python/triton/language/standard.py":40:4)
#loc70 = loc("/home/yuhao/triton-cpu/python/triton/language/standard.py":113:0)
#loc71 = loc("/home/yuhao/triton-cpu/python/triton/language/standard.py":122:31)
#loc72 = loc("/home/yuhao/triton-cpu/python/triton/language/standard.py":122:11)
#loc73 = loc("/home/yuhao/triton-cpu/python/triton/language/standard.py":122:4)


// -----// IR Dump Before Canonicalizer (canonicalize) ('tt.func' operation: @zeros____(0, 0)cconstexpr_8__(0, 1)cconstexpr_8__(1,)cconstexpr_fp32_) //----- //
#loc = loc("/home/yuhao/T_RVV/benchmark/src/triton/matmul.py":20:0)
#loc64 = loc("/home/yuhao/triton-cpu/python/triton/language/standard.py":31:0)
module {
  tt.func public @matmul_kernel(%arg0: !tt.ptr<f32> {tt.divisibility = 16 : i32} loc("/home/yuhao/T_RVV/benchmark/src/triton/matmul.py":20:0), %arg1: !tt.ptr<f32> {tt.divisibility = 16 : i32} loc("/home/yuhao/T_RVV/benchmark/src/triton/matmul.py":20:0), %arg2: !tt.ptr<f32> {tt.divisibility = 16 : i32} loc("/home/yuhao/T_RVV/benchmark/src/triton/matmul.py":20:0), %arg3: i32 {tt.divisibility = 16 : i32} loc("/home/yuhao/T_RVV/benchmark/src/triton/matmul.py":20:0), %arg4: i32 {tt.divisibility = 16 : i32} loc("/home/yuhao/T_RVV/benchmark/src/triton/matmul.py":20:0), %arg5: i32 {tt.divisibility = 16 : i32} loc("/home/yuhao/T_RVV/benchmark/src/triton/matmul.py":20:0), %arg6: i32 {tt.divisibility = 16 : i32} loc("/home/yuhao/T_RVV/benchmark/src/triton/matmul.py":20:0), %arg7: i32 {tt.divisibility = 16 : i32} loc("/home/yuhao/T_RVV/benchmark/src/triton/matmul.py":20:0), %arg8: i32 {tt.divisibility = 16 : i32} loc("/home/yuhao/T_RVV/benchmark/src/triton/matmul.py":20:0)) attributes {noinline = false} {
    %0 = tt.get_program_id x : i32 loc(#loc1)
    %1 = tt.call @"cdiv__i32__(1,)cconstexpr_8_"(%arg3) : (i32) -> i32 loc(#loc2)
    %2 = tt.call @"cdiv__i32__(1,)cconstexpr_8_"(%arg4) : (i32) -> i32 loc(#loc3)
    %c4_i32 = arith.constant 4 : i32 loc(#loc4)
    %c4_i32_0 = arith.constant 4 : i32 loc(#loc4)
    %3 = arith.muli %c4_i32_0, %2 : i32 loc(#loc4)
    %4 = arith.divsi %0, %3 : i32 loc(#loc5)
    %c4_i32_1 = arith.constant 4 : i32 loc(#loc6)
    %c4_i32_2 = arith.constant 4 : i32 loc(#loc6)
    %5 = arith.muli %4, %c4_i32_2 : i32 loc(#loc6)
    %6 = arith.subi %1, %5 : i32 loc(#loc7)
    %c4_i32_3 = arith.constant 4 : i32 loc(#loc8)
    %7 = arith.minsi %6, %c4_i32_3 : i32 loc(#loc8)
    %8 = arith.remsi %0, %7 : i32 loc(#loc9)
    %9 = arith.addi %5, %8 : i32 loc(#loc10)
    %10 = arith.remsi %0, %3 : i32 loc(#loc11)
    %11 = arith.divsi %10, %7 : i32 loc(#loc12)
    %c8_i32 = arith.constant 8 : i32 loc(#loc13)
    %c8_i32_4 = arith.constant 8 : i32 loc(#loc13)
    %12 = arith.muli %9, %c8_i32_4 : i32 loc(#loc13)
    %13 = tt.make_range {end = 8 : i32, start = 0 : i32} : tensor<8xi32> loc(#loc14)
    %14 = tt.splat %12 : i32 -> tensor<8xi32> loc(#loc15)
    %15 = arith.addi %14, %13 : tensor<8xi32> loc(#loc15)
    %16 = tt.splat %arg3 : i32 -> tensor<8xi32> loc(#loc16)
    %17 = arith.remsi %15, %16 : tensor<8xi32> loc(#loc16)
    %c8_i32_5 = arith.constant 8 : i32 loc(#loc17)
    %c8_i32_6 = arith.constant 8 : i32 loc(#loc17)
    %18 = arith.muli %11, %c8_i32_6 : i32 loc(#loc17)
    %19 = tt.make_range {end = 8 : i32, start = 0 : i32} : tensor<8xi32> loc(#loc18)
    %20 = tt.splat %18 : i32 -> tensor<8xi32> loc(#loc19)
    %21 = arith.addi %20, %19 : tensor<8xi32> loc(#loc19)
    %22 = tt.splat %arg4 : i32 -> tensor<8xi32> loc(#loc20)
    %23 = arith.remsi %21, %22 : tensor<8xi32> loc(#loc20)
    %24 = tt.make_range {end = 8 : i32, start = 0 : i32} : tensor<8xi32> loc(#loc21)
    %25 = tt.expand_dims %17 {axis = 1 : i32} : tensor<8xi32> -> tensor<8x1xi32> loc(#loc22)
    %26 = tt.splat %arg6 : i32 -> tensor<8x1xi32> loc(#loc23)
    %27 = arith.muli %25, %26 : tensor<8x1xi32> loc(#loc23)
    %28 = tt.expand_dims %24 {axis = 0 : i32} : tensor<8xi32> -> tensor<1x8xi32> loc(#loc24)
    %c1_i32 = arith.constant 1 : i32 loc(#loc25)
    %c1_i32_7 = arith.constant 1 : i32 loc(#loc25)
    %cst = arith.constant dense<1> : tensor<1x8xi32> loc(#loc25)
    %29 = arith.muli %28, %cst : tensor<1x8xi32> loc(#loc25)
    %30 = tt.broadcast %27 : tensor<8x1xi32> -> tensor<8x8xi32> loc(#loc26)
    %31 = tt.broadcast %29 : tensor<1x8xi32> -> tensor<8x8xi32> loc(#loc26)
    %32 = arith.addi %30, %31 : tensor<8x8xi32> loc(#loc26)
    %33 = tt.splat %arg0 : !tt.ptr<f32> -> tensor<8x8x!tt.ptr<f32>> loc(#loc27)
    %34 = tt.addptr %33, %32 : tensor<8x8x!tt.ptr<f32>>, tensor<8x8xi32> loc(#loc27)
    %35 = tt.expand_dims %24 {axis = 1 : i32} : tensor<8xi32> -> tensor<8x1xi32> loc(#loc28)
    %36 = tt.splat %arg7 : i32 -> tensor<8x1xi32> loc(#loc29)
    %37 = arith.muli %35, %36 : tensor<8x1xi32> loc(#loc29)
    %38 = tt.expand_dims %23 {axis = 0 : i32} : tensor<8xi32> -> tensor<1x8xi32> loc(#loc30)
    %c1_i32_8 = arith.constant 1 : i32 loc(#loc31)
    %c1_i32_9 = arith.constant 1 : i32 loc(#loc31)
    %cst_10 = arith.constant dense<1> : tensor<1x8xi32> loc(#loc31)
    %39 = arith.muli %38, %cst_10 : tensor<1x8xi32> loc(#loc31)
    %40 = tt.broadcast %37 : tensor<8x1xi32> -> tensor<8x8xi32> loc(#loc32)
    %41 = tt.broadcast %39 : tensor<1x8xi32> -> tensor<8x8xi32> loc(#loc32)
    %42 = arith.addi %40, %41 : tensor<8x8xi32> loc(#loc32)
    %43 = tt.splat %arg1 : !tt.ptr<f32> -> tensor<8x8x!tt.ptr<f32>> loc(#loc33)
    %44 = tt.addptr %43, %42 : tensor<8x8x!tt.ptr<f32>>, tensor<8x8xi32> loc(#loc33)
    %45 = tt.call @"zeros____(0, 0)cconstexpr_8__(0, 1)cconstexpr_8__(1,)cconstexpr_fp32_"() : () -> tensor<8x8xf32> loc(#loc34)
    %46 = tt.call @"cdiv__i32__(1,)cconstexpr_8_"(%arg5) : (i32) -> i32 loc(#loc35)
    %c0_i32 = arith.constant 0 : i32 loc(#loc36)
    %c1_i32_11 = arith.constant 1 : i32 loc(#loc36)
    %47 = arith.bitcast %c0_i32 : i32 to i32 loc(#loc36)
    %48 = arith.bitcast %46 : i32 to i32 loc(#loc36)
    %49 = arith.bitcast %c1_i32_11 : i32 to i32 loc(#loc36)
    %50 = ub.poison : i32 loc(#loc36)
    %51:3 = scf.for %arg9 = %47 to %48 step %49 iter_args(%arg10 = %45, %arg11 = %34, %arg12 = %44) -> (tensor<8x8xf32>, tensor<8x8x!tt.ptr<f32>>, tensor<8x8x!tt.ptr<f32>>)  : i32 {
      %79 = tt.load %arg11 : tensor<8x8x!tt.ptr<f32>> loc(#loc37)
      %80 = tt.load %arg12 : tensor<8x8x!tt.ptr<f32>> loc(#loc38)
      %cst_19 = arith.constant 0.000000e+00 : f32 loc(#loc39)
      %cst_20 = arith.constant dense<0.000000e+00> : tensor<8x8xf32> loc(#loc39)
      %81 = tt.dot %79, %80, %cst_20, inputPrecision = tf32 : tensor<8x8xf32> * tensor<8x8xf32> -> tensor<8x8xf32> loc(#loc39)
      %82 = arith.addf %arg10, %81 : tensor<8x8xf32> loc(#loc40)
      %c8_i32_21 = arith.constant 8 : i32 loc(#loc41)
      %cst_22 = arith.constant dense<8> : tensor<8x8xi32> loc(#loc41)
      %83 = tt.addptr %arg11, %cst_22 : tensor<8x8x!tt.ptr<f32>>, tensor<8x8xi32> loc(#loc41)
      %c8_i32_23 = arith.constant 8 : i32 loc(#loc42)
      %c8_i32_24 = arith.constant 8 : i32 loc(#loc42)
      %84 = arith.muli %c8_i32_24, %arg7 : i32 loc(#loc42)
      %85 = tt.splat %84 : i32 -> tensor<8x8xi32> loc(#loc43)
      %86 = tt.addptr %arg12, %85 : tensor<8x8x!tt.ptr<f32>>, tensor<8x8xi32> loc(#loc43)
      scf.yield %82, %83, %86 : tensor<8x8xf32>, tensor<8x8x!tt.ptr<f32>>, tensor<8x8x!tt.ptr<f32>> loc(#loc44)
    } loc(#loc36)
    %c8_i32_12 = arith.constant 8 : i32 loc(#loc45)
    %c8_i32_13 = arith.constant 8 : i32 loc(#loc45)
    %52 = arith.muli %9, %c8_i32_13 : i32 loc(#loc45)
    %53 = tt.make_range {end = 8 : i32, start = 0 : i32} : tensor<8xi32> loc(#loc46)
    %54 = tt.splat %52 : i32 -> tensor<8xi32> loc(#loc47)
    %55 = arith.addi %54, %53 : tensor<8xi32> loc(#loc47)
    %c8_i32_14 = arith.constant 8 : i32 loc(#loc48)
    %c8_i32_15 = arith.constant 8 : i32 loc(#loc48)
    %56 = arith.muli %11, %c8_i32_15 : i32 loc(#loc48)
    %57 = tt.make_range {end = 8 : i32, start = 0 : i32} : tensor<8xi32> loc(#loc49)
    %58 = tt.splat %56 : i32 -> tensor<8xi32> loc(#loc50)
    %59 = arith.addi %58, %57 : tensor<8xi32> loc(#loc50)
    %60 = tt.expand_dims %55 {axis = 1 : i32} : tensor<8xi32> -> tensor<8x1xi32> loc(#loc51)
    %61 = tt.splat %arg8 : i32 -> tensor<8x1xi32> loc(#loc52)
    %62 = arith.muli %61, %60 : tensor<8x1xi32> loc(#loc52)
    %63 = tt.splat %arg2 : !tt.ptr<f32> -> tensor<8x1x!tt.ptr<f32>> loc(#loc53)
    %64 = tt.addptr %63, %62 : tensor<8x1x!tt.ptr<f32>>, tensor<8x1xi32> loc(#loc53)
    %65 = tt.expand_dims %59 {axis = 0 : i32} : tensor<8xi32> -> tensor<1x8xi32> loc(#loc54)
    %c1_i32_16 = arith.constant 1 : i32 loc(#loc55)
    %c1_i32_17 = arith.constant 1 : i32 loc(#loc55)
    %cst_18 = arith.constant dense<1> : tensor<1x8xi32> loc(#loc55)
    %66 = arith.muli %cst_18, %65 : tensor<1x8xi32> loc(#loc55)
    %67 = tt.broadcast %64 : tensor<8x1x!tt.ptr<f32>> -> tensor<8x8x!tt.ptr<f32>> loc(#loc56)
    %68 = tt.broadcast %66 : tensor<1x8xi32> -> tensor<8x8xi32> loc(#loc56)
    %69 = tt.addptr %67, %68 : tensor<8x8x!tt.ptr<f32>>, tensor<8x8xi32> loc(#loc56)
    %70 = tt.expand_dims %55 {axis = 1 : i32} : tensor<8xi32> -> tensor<8x1xi32> loc(#loc57)
    %71 = tt.splat %arg3 : i32 -> tensor<8x1xi32> loc(#loc58)
    %72 = arith.cmpi slt, %70, %71 : tensor<8x1xi32> loc(#loc58)
    %73 = tt.expand_dims %59 {axis = 0 : i32} : tensor<8xi32> -> tensor<1x8xi32> loc(#loc59)
    %74 = tt.splat %arg4 : i32 -> tensor<1x8xi32> loc(#loc60)
    %75 = arith.cmpi slt, %73, %74 : tensor<1x8xi32> loc(#loc60)
    %76 = tt.broadcast %72 : tensor<8x1xi1> -> tensor<8x8xi1> loc(#loc61)
    %77 = tt.broadcast %75 : tensor<1x8xi1> -> tensor<8x8xi1> loc(#loc61)
    %78 = arith.andi %76, %77 : tensor<8x8xi1> loc(#loc61)
    tt.store %69, %51#0, %78 : tensor<8x8x!tt.ptr<f32>> loc(#loc62)
    tt.return loc(#loc63)
  } loc(#loc)
  tt.func private @"cdiv__i32__(1,)cconstexpr_8_"(%arg0: i32 loc("/home/yuhao/triton-cpu/python/triton/language/standard.py":31:0)) -> i32 attributes {noinline = false} {
    %c8_i32 = arith.constant 8 : i32 loc(#loc65)
    %c7_i32 = arith.constant 7 : i32 loc(#loc66)
    %0 = arith.addi %arg0, %c7_i32 : i32 loc(#loc66)
    %1 = arith.divsi %0, %c8_i32 : i32 loc(#loc67)
    tt.return %1 : i32 loc(#loc68)
  } loc(#loc64)
  tt.func private @"zeros____(0, 0)cconstexpr_8__(0, 1)cconstexpr_8__(1,)cconstexpr_fp32_"() -> tensor<8x8xf32> attributes {noinline = false} {
    %cst = arith.constant 0.000000e+00 : f32 loc(#loc70)
    %cst_0 = arith.constant dense<0.000000e+00> : tensor<8x8xf32> loc(#loc70)
    tt.return %cst_0 : tensor<8x8xf32> loc(#loc71)
  ^bb1:  // no predecessors
    %0 = ub.poison : tensor<8x8xf32> loc(#loc72)
    tt.return %0 : tensor<8x8xf32> loc(#loc72)
  } loc(#loc69)
} loc(#loc)
#loc1 = loc("/home/yuhao/T_RVV/benchmark/src/triton/matmul.py":40:24)
#loc2 = loc("/home/yuhao/T_RVV/benchmark/src/triton/matmul.py":41:27)
#loc3 = loc("/home/yuhao/T_RVV/benchmark/src/triton/matmul.py":42:27)
#loc4 = loc("/home/yuhao/T_RVV/benchmark/src/triton/matmul.py":43:38)
#loc5 = loc("/home/yuhao/T_RVV/benchmark/src/triton/matmul.py":44:22)
#loc6 = loc("/home/yuhao/T_RVV/benchmark/src/triton/matmul.py":45:29)
#loc7 = loc("/home/yuhao/T_RVV/benchmark/src/triton/matmul.py":46:35)
#loc8 = loc("/home/yuhao/T_RVV/benchmark/src/triton/matmul.py":46:48)
#loc9 = loc("/home/yuhao/T_RVV/benchmark/src/triton/matmul.py":47:33)
#loc10 = loc("/home/yuhao/T_RVV/benchmark/src/triton/matmul.py":47:27)
#loc11 = loc("/home/yuhao/T_RVV/benchmark/src/triton/matmul.py":48:19)
#loc12 = loc("/home/yuhao/T_RVV/benchmark/src/triton/matmul.py":48:40)
#loc13 = loc("/home/yuhao/T_RVV/benchmark/src/triton/matmul.py":72:23)
#loc14 = loc("/home/yuhao/T_RVV/benchmark/src/triton/matmul.py":72:51)
#loc15 = loc("/home/yuhao/T_RVV/benchmark/src/triton/matmul.py":72:38)
#loc16 = loc("/home/yuhao/T_RVV/benchmark/src/triton/matmul.py":72:68)
#loc17 = loc("/home/yuhao/T_RVV/benchmark/src/triton/matmul.py":73:23)
#loc18 = loc("/home/yuhao/T_RVV/benchmark/src/triton/matmul.py":73:51)
#loc19 = loc("/home/yuhao/T_RVV/benchmark/src/triton/matmul.py":73:38)
#loc20 = loc("/home/yuhao/T_RVV/benchmark/src/triton/matmul.py":73:68)
#loc21 = loc("/home/yuhao/T_RVV/benchmark/src/triton/matmul.py":74:26)
#loc22 = loc("/home/yuhao/T_RVV/benchmark/src/triton/matmul.py":75:34)
#loc23 = loc("/home/yuhao/T_RVV/benchmark/src/triton/matmul.py":75:45)
#loc24 = loc("/home/yuhao/T_RVV/benchmark/src/triton/matmul.py":75:64)
#loc25 = loc("/home/yuhao/T_RVV/benchmark/src/triton/matmul.py":75:75)
#loc26 = loc("/home/yuhao/T_RVV/benchmark/src/triton/matmul.py":75:57)
#loc27 = loc("/home/yuhao/T_RVV/benchmark/src/triton/matmul.py":75:26)
#loc28 = loc("/home/yuhao/T_RVV/benchmark/src/triton/matmul.py":76:33)
#loc29 = loc("/home/yuhao/T_RVV/benchmark/src/triton/matmul.py":76:44)
#loc30 = loc("/home/yuhao/T_RVV/benchmark/src/triton/matmul.py":76:64)
#loc31 = loc("/home/yuhao/T_RVV/benchmark/src/triton/matmul.py":76:75)
#loc32 = loc("/home/yuhao/T_RVV/benchmark/src/triton/matmul.py":76:56)
#loc33 = loc("/home/yuhao/T_RVV/benchmark/src/triton/matmul.py":76:26)
#loc34 = loc("/home/yuhao/T_RVV/benchmark/src/triton/matmul.py":84:27)
#loc35 = loc("/home/yuhao/T_RVV/benchmark/src/triton/matmul.py":85:33)
#loc36 = loc("/home/yuhao/T_RVV/benchmark/src/triton/matmul.py":85:22)
#loc37 = loc("/home/yuhao/T_RVV/benchmark/src/triton/matmul.py":88:20)
#loc38 = loc("/home/yuhao/T_RVV/benchmark/src/triton/matmul.py":89:20)
#loc39 = loc("/home/yuhao/T_RVV/benchmark/src/triton/matmul.py":92:33)
#loc40 = loc("/home/yuhao/T_RVV/benchmark/src/triton/matmul.py":92:23)
#loc41 = loc("/home/yuhao/T_RVV/benchmark/src/triton/matmul.py":100:22)
#loc42 = loc("/home/yuhao/T_RVV/benchmark/src/triton/matmul.py":101:37)
#loc43 = loc("/home/yuhao/T_RVV/benchmark/src/triton/matmul.py":101:22)
#loc44 = loc("/home/yuhao/T_RVV/benchmark/src/triton/matmul.py":101:8)
#loc45 = loc("/home/yuhao/T_RVV/benchmark/src/triton/matmul.py":112:22)
#loc46 = loc("/home/yuhao/T_RVV/benchmark/src/triton/matmul.py":112:50)
#loc47 = loc("/home/yuhao/T_RVV/benchmark/src/triton/matmul.py":112:37)
#loc48 = loc("/home/yuhao/T_RVV/benchmark/src/triton/matmul.py":113:22)
#loc49 = loc("/home/yuhao/T_RVV/benchmark/src/triton/matmul.py":113:50)
#loc50 = loc("/home/yuhao/T_RVV/benchmark/src/triton/matmul.py":113:37)
#loc51 = loc("/home/yuhao/T_RVV/benchmark/src/triton/matmul.py":114:41)
#loc52 = loc("/home/yuhao/T_RVV/benchmark/src/triton/matmul.py":114:33)
#loc53 = loc("/home/yuhao/T_RVV/benchmark/src/triton/matmul.py":114:21)
#loc54 = loc("/home/yuhao/T_RVV/benchmark/src/triton/matmul.py":114:72)
#loc55 = loc("/home/yuhao/T_RVV/benchmark/src/triton/matmul.py":114:64)
#loc56 = loc("/home/yuhao/T_RVV/benchmark/src/triton/matmul.py":114:52)
#loc57 = loc("/home/yuhao/T_RVV/benchmark/src/triton/matmul.py":115:22)
#loc58 = loc("/home/yuhao/T_RVV/benchmark/src/triton/matmul.py":115:33)
#loc59 = loc("/home/yuhao/T_RVV/benchmark/src/triton/matmul.py":115:47)
#loc60 = loc("/home/yuhao/T_RVV/benchmark/src/triton/matmul.py":115:58)
#loc61 = loc("/home/yuhao/T_RVV/benchmark/src/triton/matmul.py":115:39)
#loc62 = loc("/home/yuhao/T_RVV/benchmark/src/triton/matmul.py":116:21)
#loc63 = loc("/home/yuhao/T_RVV/benchmark/src/triton/matmul.py":116:4)
#loc65 = loc(unknown)
#loc66 = loc("/home/yuhao/triton-cpu/python/triton/language/standard.py":40:22)
#loc67 = loc("/home/yuhao/triton-cpu/python/triton/language/standard.py":40:28)
#loc68 = loc("/home/yuhao/triton-cpu/python/triton/language/standard.py":40:11)
#loc69 = loc("/home/yuhao/triton-cpu/python/triton/language/standard.py":113:0)
#loc70 = loc("/home/yuhao/triton-cpu/python/triton/language/standard.py":122:31)
#loc71 = loc("/home/yuhao/triton-cpu/python/triton/language/standard.py":122:11)
#loc72 = loc("/home/yuhao/triton-cpu/python/triton/language/standard.py":122:4)


// -----// IR Dump Before Canonicalizer (canonicalize) ('tt.func' operation: @matmul_kernel) //----- //
#loc = loc("/home/yuhao/T_RVV/benchmark/src/triton/matmul.py":20:0)
#loc64 = loc("/home/yuhao/triton-cpu/python/triton/language/standard.py":31:0)
module {
  tt.func public @matmul_kernel(%arg0: !tt.ptr<f32> {tt.divisibility = 16 : i32} loc("/home/yuhao/T_RVV/benchmark/src/triton/matmul.py":20:0), %arg1: !tt.ptr<f32> {tt.divisibility = 16 : i32} loc("/home/yuhao/T_RVV/benchmark/src/triton/matmul.py":20:0), %arg2: !tt.ptr<f32> {tt.divisibility = 16 : i32} loc("/home/yuhao/T_RVV/benchmark/src/triton/matmul.py":20:0), %arg3: i32 {tt.divisibility = 16 : i32} loc("/home/yuhao/T_RVV/benchmark/src/triton/matmul.py":20:0), %arg4: i32 {tt.divisibility = 16 : i32} loc("/home/yuhao/T_RVV/benchmark/src/triton/matmul.py":20:0), %arg5: i32 {tt.divisibility = 16 : i32} loc("/home/yuhao/T_RVV/benchmark/src/triton/matmul.py":20:0), %arg6: i32 {tt.divisibility = 16 : i32} loc("/home/yuhao/T_RVV/benchmark/src/triton/matmul.py":20:0), %arg7: i32 {tt.divisibility = 16 : i32} loc("/home/yuhao/T_RVV/benchmark/src/triton/matmul.py":20:0), %arg8: i32 {tt.divisibility = 16 : i32} loc("/home/yuhao/T_RVV/benchmark/src/triton/matmul.py":20:0)) attributes {noinline = false} {
    %0 = tt.get_program_id x : i32 loc(#loc1)
    %1 = tt.call @"cdiv__i32__(1,)cconstexpr_8_"(%arg3) : (i32) -> i32 loc(#loc2)
    %2 = tt.call @"cdiv__i32__(1,)cconstexpr_8_"(%arg4) : (i32) -> i32 loc(#loc3)
    %c4_i32 = arith.constant 4 : i32 loc(#loc4)
    %c4_i32_0 = arith.constant 4 : i32 loc(#loc4)
    %3 = arith.muli %c4_i32_0, %2 : i32 loc(#loc4)
    %4 = arith.divsi %0, %3 : i32 loc(#loc5)
    %c4_i32_1 = arith.constant 4 : i32 loc(#loc6)
    %c4_i32_2 = arith.constant 4 : i32 loc(#loc6)
    %5 = arith.muli %4, %c4_i32_2 : i32 loc(#loc6)
    %6 = arith.subi %1, %5 : i32 loc(#loc7)
    %c4_i32_3 = arith.constant 4 : i32 loc(#loc8)
    %7 = arith.minsi %6, %c4_i32_3 : i32 loc(#loc8)
    %8 = arith.remsi %0, %7 : i32 loc(#loc9)
    %9 = arith.addi %5, %8 : i32 loc(#loc10)
    %10 = arith.remsi %0, %3 : i32 loc(#loc11)
    %11 = arith.divsi %10, %7 : i32 loc(#loc12)
    %c8_i32 = arith.constant 8 : i32 loc(#loc13)
    %c8_i32_4 = arith.constant 8 : i32 loc(#loc13)
    %12 = arith.muli %9, %c8_i32_4 : i32 loc(#loc13)
    %13 = tt.make_range {end = 8 : i32, start = 0 : i32} : tensor<8xi32> loc(#loc14)
    %14 = tt.splat %12 : i32 -> tensor<8xi32> loc(#loc15)
    %15 = arith.addi %14, %13 : tensor<8xi32> loc(#loc15)
    %16 = tt.splat %arg3 : i32 -> tensor<8xi32> loc(#loc16)
    %17 = arith.remsi %15, %16 : tensor<8xi32> loc(#loc16)
    %c8_i32_5 = arith.constant 8 : i32 loc(#loc17)
    %c8_i32_6 = arith.constant 8 : i32 loc(#loc17)
    %18 = arith.muli %11, %c8_i32_6 : i32 loc(#loc17)
    %19 = tt.make_range {end = 8 : i32, start = 0 : i32} : tensor<8xi32> loc(#loc18)
    %20 = tt.splat %18 : i32 -> tensor<8xi32> loc(#loc19)
    %21 = arith.addi %20, %19 : tensor<8xi32> loc(#loc19)
    %22 = tt.splat %arg4 : i32 -> tensor<8xi32> loc(#loc20)
    %23 = arith.remsi %21, %22 : tensor<8xi32> loc(#loc20)
    %24 = tt.make_range {end = 8 : i32, start = 0 : i32} : tensor<8xi32> loc(#loc21)
    %25 = tt.expand_dims %17 {axis = 1 : i32} : tensor<8xi32> -> tensor<8x1xi32> loc(#loc22)
    %26 = tt.splat %arg6 : i32 -> tensor<8x1xi32> loc(#loc23)
    %27 = arith.muli %25, %26 : tensor<8x1xi32> loc(#loc23)
    %28 = tt.expand_dims %24 {axis = 0 : i32} : tensor<8xi32> -> tensor<1x8xi32> loc(#loc24)
    %c1_i32 = arith.constant 1 : i32 loc(#loc25)
    %c1_i32_7 = arith.constant 1 : i32 loc(#loc25)
    %cst = arith.constant dense<1> : tensor<1x8xi32> loc(#loc25)
    %29 = arith.muli %28, %cst : tensor<1x8xi32> loc(#loc25)
    %30 = tt.broadcast %27 : tensor<8x1xi32> -> tensor<8x8xi32> loc(#loc26)
    %31 = tt.broadcast %29 : tensor<1x8xi32> -> tensor<8x8xi32> loc(#loc26)
    %32 = arith.addi %30, %31 : tensor<8x8xi32> loc(#loc26)
    %33 = tt.splat %arg0 : !tt.ptr<f32> -> tensor<8x8x!tt.ptr<f32>> loc(#loc27)
    %34 = tt.addptr %33, %32 : tensor<8x8x!tt.ptr<f32>>, tensor<8x8xi32> loc(#loc27)
    %35 = tt.expand_dims %24 {axis = 1 : i32} : tensor<8xi32> -> tensor<8x1xi32> loc(#loc28)
    %36 = tt.splat %arg7 : i32 -> tensor<8x1xi32> loc(#loc29)
    %37 = arith.muli %35, %36 : tensor<8x1xi32> loc(#loc29)
    %38 = tt.expand_dims %23 {axis = 0 : i32} : tensor<8xi32> -> tensor<1x8xi32> loc(#loc30)
    %c1_i32_8 = arith.constant 1 : i32 loc(#loc31)
    %c1_i32_9 = arith.constant 1 : i32 loc(#loc31)
    %cst_10 = arith.constant dense<1> : tensor<1x8xi32> loc(#loc31)
    %39 = arith.muli %38, %cst_10 : tensor<1x8xi32> loc(#loc31)
    %40 = tt.broadcast %37 : tensor<8x1xi32> -> tensor<8x8xi32> loc(#loc32)
    %41 = tt.broadcast %39 : tensor<1x8xi32> -> tensor<8x8xi32> loc(#loc32)
    %42 = arith.addi %40, %41 : tensor<8x8xi32> loc(#loc32)
    %43 = tt.splat %arg1 : !tt.ptr<f32> -> tensor<8x8x!tt.ptr<f32>> loc(#loc33)
    %44 = tt.addptr %43, %42 : tensor<8x8x!tt.ptr<f32>>, tensor<8x8xi32> loc(#loc33)
    %45 = tt.call @"zeros____(0, 0)cconstexpr_8__(0, 1)cconstexpr_8__(1,)cconstexpr_fp32_"() : () -> tensor<8x8xf32> loc(#loc34)
    %46 = tt.call @"cdiv__i32__(1,)cconstexpr_8_"(%arg5) : (i32) -> i32 loc(#loc35)
    %c0_i32 = arith.constant 0 : i32 loc(#loc36)
    %c1_i32_11 = arith.constant 1 : i32 loc(#loc36)
    %47 = arith.bitcast %c0_i32 : i32 to i32 loc(#loc36)
    %48 = arith.bitcast %46 : i32 to i32 loc(#loc36)
    %49 = arith.bitcast %c1_i32_11 : i32 to i32 loc(#loc36)
    %50 = ub.poison : i32 loc(#loc36)
    %51:3 = scf.for %arg9 = %47 to %48 step %49 iter_args(%arg10 = %45, %arg11 = %34, %arg12 = %44) -> (tensor<8x8xf32>, tensor<8x8x!tt.ptr<f32>>, tensor<8x8x!tt.ptr<f32>>)  : i32 {
      %79 = tt.load %arg11 : tensor<8x8x!tt.ptr<f32>> loc(#loc37)
      %80 = tt.load %arg12 : tensor<8x8x!tt.ptr<f32>> loc(#loc38)
      %cst_19 = arith.constant 0.000000e+00 : f32 loc(#loc39)
      %cst_20 = arith.constant dense<0.000000e+00> : tensor<8x8xf32> loc(#loc39)
      %81 = tt.dot %79, %80, %cst_20, inputPrecision = tf32 : tensor<8x8xf32> * tensor<8x8xf32> -> tensor<8x8xf32> loc(#loc39)
      %82 = arith.addf %arg10, %81 : tensor<8x8xf32> loc(#loc40)
      %c8_i32_21 = arith.constant 8 : i32 loc(#loc41)
      %cst_22 = arith.constant dense<8> : tensor<8x8xi32> loc(#loc41)
      %83 = tt.addptr %arg11, %cst_22 : tensor<8x8x!tt.ptr<f32>>, tensor<8x8xi32> loc(#loc41)
      %c8_i32_23 = arith.constant 8 : i32 loc(#loc42)
      %c8_i32_24 = arith.constant 8 : i32 loc(#loc42)
      %84 = arith.muli %c8_i32_24, %arg7 : i32 loc(#loc42)
      %85 = tt.splat %84 : i32 -> tensor<8x8xi32> loc(#loc43)
      %86 = tt.addptr %arg12, %85 : tensor<8x8x!tt.ptr<f32>>, tensor<8x8xi32> loc(#loc43)
      scf.yield %82, %83, %86 : tensor<8x8xf32>, tensor<8x8x!tt.ptr<f32>>, tensor<8x8x!tt.ptr<f32>> loc(#loc44)
    } loc(#loc36)
    %c8_i32_12 = arith.constant 8 : i32 loc(#loc45)
    %c8_i32_13 = arith.constant 8 : i32 loc(#loc45)
    %52 = arith.muli %9, %c8_i32_13 : i32 loc(#loc45)
    %53 = tt.make_range {end = 8 : i32, start = 0 : i32} : tensor<8xi32> loc(#loc46)
    %54 = tt.splat %52 : i32 -> tensor<8xi32> loc(#loc47)
    %55 = arith.addi %54, %53 : tensor<8xi32> loc(#loc47)
    %c8_i32_14 = arith.constant 8 : i32 loc(#loc48)
    %c8_i32_15 = arith.constant 8 : i32 loc(#loc48)
    %56 = arith.muli %11, %c8_i32_15 : i32 loc(#loc48)
    %57 = tt.make_range {end = 8 : i32, start = 0 : i32} : tensor<8xi32> loc(#loc49)
    %58 = tt.splat %56 : i32 -> tensor<8xi32> loc(#loc50)
    %59 = arith.addi %58, %57 : tensor<8xi32> loc(#loc50)
    %60 = tt.expand_dims %55 {axis = 1 : i32} : tensor<8xi32> -> tensor<8x1xi32> loc(#loc51)
    %61 = tt.splat %arg8 : i32 -> tensor<8x1xi32> loc(#loc52)
    %62 = arith.muli %61, %60 : tensor<8x1xi32> loc(#loc52)
    %63 = tt.splat %arg2 : !tt.ptr<f32> -> tensor<8x1x!tt.ptr<f32>> loc(#loc53)
    %64 = tt.addptr %63, %62 : tensor<8x1x!tt.ptr<f32>>, tensor<8x1xi32> loc(#loc53)
    %65 = tt.expand_dims %59 {axis = 0 : i32} : tensor<8xi32> -> tensor<1x8xi32> loc(#loc54)
    %c1_i32_16 = arith.constant 1 : i32 loc(#loc55)
    %c1_i32_17 = arith.constant 1 : i32 loc(#loc55)
    %cst_18 = arith.constant dense<1> : tensor<1x8xi32> loc(#loc55)
    %66 = arith.muli %cst_18, %65 : tensor<1x8xi32> loc(#loc55)
    %67 = tt.broadcast %64 : tensor<8x1x!tt.ptr<f32>> -> tensor<8x8x!tt.ptr<f32>> loc(#loc56)
    %68 = tt.broadcast %66 : tensor<1x8xi32> -> tensor<8x8xi32> loc(#loc56)
    %69 = tt.addptr %67, %68 : tensor<8x8x!tt.ptr<f32>>, tensor<8x8xi32> loc(#loc56)
    %70 = tt.expand_dims %55 {axis = 1 : i32} : tensor<8xi32> -> tensor<8x1xi32> loc(#loc57)
    %71 = tt.splat %arg3 : i32 -> tensor<8x1xi32> loc(#loc58)
    %72 = arith.cmpi slt, %70, %71 : tensor<8x1xi32> loc(#loc58)
    %73 = tt.expand_dims %59 {axis = 0 : i32} : tensor<8xi32> -> tensor<1x8xi32> loc(#loc59)
    %74 = tt.splat %arg4 : i32 -> tensor<1x8xi32> loc(#loc60)
    %75 = arith.cmpi slt, %73, %74 : tensor<1x8xi32> loc(#loc60)
    %76 = tt.broadcast %72 : tensor<8x1xi1> -> tensor<8x8xi1> loc(#loc61)
    %77 = tt.broadcast %75 : tensor<1x8xi1> -> tensor<8x8xi1> loc(#loc61)
    %78 = arith.andi %76, %77 : tensor<8x8xi1> loc(#loc61)
    tt.store %69, %51#0, %78 : tensor<8x8x!tt.ptr<f32>> loc(#loc62)
    tt.return loc(#loc63)
  } loc(#loc)
  tt.func private @"cdiv__i32__(1,)cconstexpr_8_"(%arg0: i32 loc("/home/yuhao/triton-cpu/python/triton/language/standard.py":31:0)) -> i32 attributes {noinline = false} {
    %c8_i32 = arith.constant 8 : i32 loc(#loc65)
    %c7_i32 = arith.constant 7 : i32 loc(#loc66)
    %0 = arith.addi %arg0, %c7_i32 : i32 loc(#loc66)
    %1 = arith.divsi %0, %c8_i32 : i32 loc(#loc67)
    tt.return %1 : i32 loc(#loc68)
  } loc(#loc64)
  tt.func private @"zeros____(0, 0)cconstexpr_8__(0, 1)cconstexpr_8__(1,)cconstexpr_fp32_"() -> tensor<8x8xf32> attributes {noinline = false} {
    %cst = arith.constant dense<0.000000e+00> : tensor<8x8xf32> loc(#loc70)
    tt.return %cst : tensor<8x8xf32> loc(#loc71)
  } loc(#loc69)
} loc(#loc)
#loc1 = loc("/home/yuhao/T_RVV/benchmark/src/triton/matmul.py":40:24)
#loc2 = loc("/home/yuhao/T_RVV/benchmark/src/triton/matmul.py":41:27)
#loc3 = loc("/home/yuhao/T_RVV/benchmark/src/triton/matmul.py":42:27)
#loc4 = loc("/home/yuhao/T_RVV/benchmark/src/triton/matmul.py":43:38)
#loc5 = loc("/home/yuhao/T_RVV/benchmark/src/triton/matmul.py":44:22)
#loc6 = loc("/home/yuhao/T_RVV/benchmark/src/triton/matmul.py":45:29)
#loc7 = loc("/home/yuhao/T_RVV/benchmark/src/triton/matmul.py":46:35)
#loc8 = loc("/home/yuhao/T_RVV/benchmark/src/triton/matmul.py":46:48)
#loc9 = loc("/home/yuhao/T_RVV/benchmark/src/triton/matmul.py":47:33)
#loc10 = loc("/home/yuhao/T_RVV/benchmark/src/triton/matmul.py":47:27)
#loc11 = loc("/home/yuhao/T_RVV/benchmark/src/triton/matmul.py":48:19)
#loc12 = loc("/home/yuhao/T_RVV/benchmark/src/triton/matmul.py":48:40)
#loc13 = loc("/home/yuhao/T_RVV/benchmark/src/triton/matmul.py":72:23)
#loc14 = loc("/home/yuhao/T_RVV/benchmark/src/triton/matmul.py":72:51)
#loc15 = loc("/home/yuhao/T_RVV/benchmark/src/triton/matmul.py":72:38)
#loc16 = loc("/home/yuhao/T_RVV/benchmark/src/triton/matmul.py":72:68)
#loc17 = loc("/home/yuhao/T_RVV/benchmark/src/triton/matmul.py":73:23)
#loc18 = loc("/home/yuhao/T_RVV/benchmark/src/triton/matmul.py":73:51)
#loc19 = loc("/home/yuhao/T_RVV/benchmark/src/triton/matmul.py":73:38)
#loc20 = loc("/home/yuhao/T_RVV/benchmark/src/triton/matmul.py":73:68)
#loc21 = loc("/home/yuhao/T_RVV/benchmark/src/triton/matmul.py":74:26)
#loc22 = loc("/home/yuhao/T_RVV/benchmark/src/triton/matmul.py":75:34)
#loc23 = loc("/home/yuhao/T_RVV/benchmark/src/triton/matmul.py":75:45)
#loc24 = loc("/home/yuhao/T_RVV/benchmark/src/triton/matmul.py":75:64)
#loc25 = loc("/home/yuhao/T_RVV/benchmark/src/triton/matmul.py":75:75)
#loc26 = loc("/home/yuhao/T_RVV/benchmark/src/triton/matmul.py":75:57)
#loc27 = loc("/home/yuhao/T_RVV/benchmark/src/triton/matmul.py":75:26)
#loc28 = loc("/home/yuhao/T_RVV/benchmark/src/triton/matmul.py":76:33)
#loc29 = loc("/home/yuhao/T_RVV/benchmark/src/triton/matmul.py":76:44)
#loc30 = loc("/home/yuhao/T_RVV/benchmark/src/triton/matmul.py":76:64)
#loc31 = loc("/home/yuhao/T_RVV/benchmark/src/triton/matmul.py":76:75)
#loc32 = loc("/home/yuhao/T_RVV/benchmark/src/triton/matmul.py":76:56)
#loc33 = loc("/home/yuhao/T_RVV/benchmark/src/triton/matmul.py":76:26)
#loc34 = loc("/home/yuhao/T_RVV/benchmark/src/triton/matmul.py":84:27)
#loc35 = loc("/home/yuhao/T_RVV/benchmark/src/triton/matmul.py":85:33)
#loc36 = loc("/home/yuhao/T_RVV/benchmark/src/triton/matmul.py":85:22)
#loc37 = loc("/home/yuhao/T_RVV/benchmark/src/triton/matmul.py":88:20)
#loc38 = loc("/home/yuhao/T_RVV/benchmark/src/triton/matmul.py":89:20)
#loc39 = loc("/home/yuhao/T_RVV/benchmark/src/triton/matmul.py":92:33)
#loc40 = loc("/home/yuhao/T_RVV/benchmark/src/triton/matmul.py":92:23)
#loc41 = loc("/home/yuhao/T_RVV/benchmark/src/triton/matmul.py":100:22)
#loc42 = loc("/home/yuhao/T_RVV/benchmark/src/triton/matmul.py":101:37)
#loc43 = loc("/home/yuhao/T_RVV/benchmark/src/triton/matmul.py":101:22)
#loc44 = loc("/home/yuhao/T_RVV/benchmark/src/triton/matmul.py":101:8)
#loc45 = loc("/home/yuhao/T_RVV/benchmark/src/triton/matmul.py":112:22)
#loc46 = loc("/home/yuhao/T_RVV/benchmark/src/triton/matmul.py":112:50)
#loc47 = loc("/home/yuhao/T_RVV/benchmark/src/triton/matmul.py":112:37)
#loc48 = loc("/home/yuhao/T_RVV/benchmark/src/triton/matmul.py":113:22)
#loc49 = loc("/home/yuhao/T_RVV/benchmark/src/triton/matmul.py":113:50)
#loc50 = loc("/home/yuhao/T_RVV/benchmark/src/triton/matmul.py":113:37)
#loc51 = loc("/home/yuhao/T_RVV/benchmark/src/triton/matmul.py":114:41)
#loc52 = loc("/home/yuhao/T_RVV/benchmark/src/triton/matmul.py":114:33)
#loc53 = loc("/home/yuhao/T_RVV/benchmark/src/triton/matmul.py":114:21)
#loc54 = loc("/home/yuhao/T_RVV/benchmark/src/triton/matmul.py":114:72)
#loc55 = loc("/home/yuhao/T_RVV/benchmark/src/triton/matmul.py":114:64)
#loc56 = loc("/home/yuhao/T_RVV/benchmark/src/triton/matmul.py":114:52)
#loc57 = loc("/home/yuhao/T_RVV/benchmark/src/triton/matmul.py":115:22)
#loc58 = loc("/home/yuhao/T_RVV/benchmark/src/triton/matmul.py":115:33)
#loc59 = loc("/home/yuhao/T_RVV/benchmark/src/triton/matmul.py":115:47)
#loc60 = loc("/home/yuhao/T_RVV/benchmark/src/triton/matmul.py":115:58)
#loc61 = loc("/home/yuhao/T_RVV/benchmark/src/triton/matmul.py":115:39)
#loc62 = loc("/home/yuhao/T_RVV/benchmark/src/triton/matmul.py":116:21)
#loc63 = loc("/home/yuhao/T_RVV/benchmark/src/triton/matmul.py":116:4)
#loc65 = loc(unknown)
#loc66 = loc("/home/yuhao/triton-cpu/python/triton/language/standard.py":40:22)
#loc67 = loc("/home/yuhao/triton-cpu/python/triton/language/standard.py":40:28)
#loc68 = loc("/home/yuhao/triton-cpu/python/triton/language/standard.py":40:11)
#loc69 = loc("/home/yuhao/triton-cpu/python/triton/language/standard.py":113:0)
#loc70 = loc("/home/yuhao/triton-cpu/python/triton/language/standard.py":122:31)
#loc71 = loc("/home/yuhao/triton-cpu/python/triton/language/standard.py":122:11)


// -----// IR Dump Before Canonicalizer (canonicalize) ('tt.func' operation: @matmul_kernel) //----- //
#loc = loc("/home/yuhao/T_RVV/benchmark/src/triton/matmul.py":20:0)
module {
  tt.func public @matmul_kernel(%arg0: !tt.ptr<f32> {tt.divisibility = 16 : i32} loc("/home/yuhao/T_RVV/benchmark/src/triton/matmul.py":20:0), %arg1: !tt.ptr<f32> {tt.divisibility = 16 : i32} loc("/home/yuhao/T_RVV/benchmark/src/triton/matmul.py":20:0), %arg2: !tt.ptr<f32> {tt.divisibility = 16 : i32} loc("/home/yuhao/T_RVV/benchmark/src/triton/matmul.py":20:0), %arg3: i32 {tt.divisibility = 16 : i32} loc("/home/yuhao/T_RVV/benchmark/src/triton/matmul.py":20:0), %arg4: i32 {tt.divisibility = 16 : i32} loc("/home/yuhao/T_RVV/benchmark/src/triton/matmul.py":20:0), %arg5: i32 {tt.divisibility = 16 : i32} loc("/home/yuhao/T_RVV/benchmark/src/triton/matmul.py":20:0), %arg6: i32 {tt.divisibility = 16 : i32} loc("/home/yuhao/T_RVV/benchmark/src/triton/matmul.py":20:0), %arg7: i32 {tt.divisibility = 16 : i32} loc("/home/yuhao/T_RVV/benchmark/src/triton/matmul.py":20:0), %arg8: i32 {tt.divisibility = 16 : i32} loc("/home/yuhao/T_RVV/benchmark/src/triton/matmul.py":20:0)) attributes {noinline = false} {
    %c1_i32 = arith.constant 1 : i32 loc(#loc1)
    %c0_i32 = arith.constant 0 : i32 loc(#loc1)
    %cst = arith.constant dense<8> : tensor<8x8xi32> loc(#loc1)
    %cst_0 = arith.constant dense<0.000000e+00> : tensor<8x8xf32> loc(#loc1)
    %c8_i32 = arith.constant 8 : i32 loc(#loc1)
    %c4_i32 = arith.constant 4 : i32 loc(#loc1)
    %0 = tt.get_program_id x : i32 loc(#loc2)
    %c8_i32_1 = arith.constant 8 : i32 loc(#loc67)
    %c7_i32 = arith.constant 7 : i32 loc(#loc68)
    %1 = arith.addi %arg3, %c7_i32 : i32 loc(#loc68)
    %2 = arith.divsi %1, %c8_i32_1 : i32 loc(#loc69)
    %c8_i32_2 = arith.constant 8 : i32 loc(#loc70)
    %c7_i32_3 = arith.constant 7 : i32 loc(#loc71)
    %3 = arith.addi %arg4, %c7_i32_3 : i32 loc(#loc71)
    %4 = arith.divsi %3, %c8_i32_2 : i32 loc(#loc72)
    %5 = arith.muli %4, %c4_i32 : i32 loc(#loc7)
    %6 = arith.divsi %0, %5 : i32 loc(#loc8)
    %7 = arith.muli %6, %c4_i32 : i32 loc(#loc9)
    %8 = arith.subi %2, %7 : i32 loc(#loc10)
    %9 = arith.minsi %8, %c4_i32 : i32 loc(#loc11)
    %10 = arith.remsi %0, %9 : i32 loc(#loc12)
    %11 = arith.addi %7, %10 : i32 loc(#loc13)
    %12 = arith.remsi %0, %5 : i32 loc(#loc14)
    %13 = arith.divsi %12, %9 : i32 loc(#loc15)
    %14 = arith.muli %11, %c8_i32 : i32 loc(#loc16)
    %15 = tt.make_range {end = 8 : i32, start = 0 : i32} : tensor<8xi32> loc(#loc17)
    %16 = tt.splat %14 : i32 -> tensor<8xi32> loc(#loc18)
    %17 = arith.addi %16, %15 : tensor<8xi32> loc(#loc18)
    %18 = tt.splat %arg3 : i32 -> tensor<8xi32> loc(#loc19)
    %19 = arith.remsi %17, %18 : tensor<8xi32> loc(#loc19)
    %20 = arith.muli %13, %c8_i32 : i32 loc(#loc20)
    %21 = tt.make_range {end = 8 : i32, start = 0 : i32} : tensor<8xi32> loc(#loc21)
    %22 = tt.splat %20 : i32 -> tensor<8xi32> loc(#loc22)
    %23 = arith.addi %22, %21 : tensor<8xi32> loc(#loc22)
    %24 = tt.splat %arg4 : i32 -> tensor<8xi32> loc(#loc23)
    %25 = arith.remsi %23, %24 : tensor<8xi32> loc(#loc23)
    %26 = tt.make_range {end = 8 : i32, start = 0 : i32} : tensor<8xi32> loc(#loc24)
    %27 = tt.expand_dims %19 {axis = 1 : i32} : tensor<8xi32> -> tensor<8x1xi32> loc(#loc25)
    %28 = tt.splat %arg6 : i32 -> tensor<8x1xi32> loc(#loc26)
    %29 = arith.muli %27, %28 : tensor<8x1xi32> loc(#loc26)
    %30 = tt.expand_dims %26 {axis = 0 : i32} : tensor<8xi32> -> tensor<1x8xi32> loc(#loc27)
    %31 = tt.broadcast %29 : tensor<8x1xi32> -> tensor<8x8xi32> loc(#loc28)
    %32 = tt.broadcast %30 : tensor<1x8xi32> -> tensor<8x8xi32> loc(#loc28)
    %33 = arith.addi %31, %32 : tensor<8x8xi32> loc(#loc28)
    %34 = tt.splat %arg0 : !tt.ptr<f32> -> tensor<8x8x!tt.ptr<f32>> loc(#loc29)
    %35 = tt.addptr %34, %33 : tensor<8x8x!tt.ptr<f32>>, tensor<8x8xi32> loc(#loc29)
    %36 = tt.expand_dims %26 {axis = 1 : i32} : tensor<8xi32> -> tensor<8x1xi32> loc(#loc30)
    %37 = tt.splat %arg7 : i32 -> tensor<8x1xi32> loc(#loc31)
    %38 = arith.muli %36, %37 : tensor<8x1xi32> loc(#loc31)
    %39 = tt.expand_dims %25 {axis = 0 : i32} : tensor<8xi32> -> tensor<1x8xi32> loc(#loc32)
    %40 = tt.broadcast %38 : tensor<8x1xi32> -> tensor<8x8xi32> loc(#loc33)
    %41 = tt.broadcast %39 : tensor<1x8xi32> -> tensor<8x8xi32> loc(#loc33)
    %42 = arith.addi %40, %41 : tensor<8x8xi32> loc(#loc33)
    %43 = tt.splat %arg1 : !tt.ptr<f32> -> tensor<8x8x!tt.ptr<f32>> loc(#loc34)
    %44 = tt.addptr %43, %42 : tensor<8x8x!tt.ptr<f32>>, tensor<8x8xi32> loc(#loc34)
    %cst_4 = arith.constant dense<0.000000e+00> : tensor<8x8xf32> loc(#loc73)
    %c8_i32_5 = arith.constant 8 : i32 loc(#loc74)
    %c7_i32_6 = arith.constant 7 : i32 loc(#loc75)
    %45 = arith.addi %arg5, %c7_i32_6 : i32 loc(#loc75)
    %46 = arith.divsi %45, %c8_i32_5 : i32 loc(#loc76)
    %47:3 = scf.for %arg9 = %c0_i32 to %46 step %c1_i32 iter_args(%arg10 = %cst_4, %arg11 = %35, %arg12 = %44) -> (tensor<8x8xf32>, tensor<8x8x!tt.ptr<f32>>, tensor<8x8x!tt.ptr<f32>>)  : i32 {
      %74 = tt.load %arg11 : tensor<8x8x!tt.ptr<f32>> loc(#loc39)
      %75 = tt.load %arg12 : tensor<8x8x!tt.ptr<f32>> loc(#loc40)
      %76 = tt.dot %74, %75, %cst_0, inputPrecision = tf32 : tensor<8x8xf32> * tensor<8x8xf32> -> tensor<8x8xf32> loc(#loc41)
      %77 = arith.addf %arg10, %76 : tensor<8x8xf32> loc(#loc42)
      %78 = tt.addptr %arg11, %cst : tensor<8x8x!tt.ptr<f32>>, tensor<8x8xi32> loc(#loc43)
      %79 = arith.muli %arg7, %c8_i32 : i32 loc(#loc44)
      %80 = tt.splat %79 : i32 -> tensor<8x8xi32> loc(#loc45)
      %81 = tt.addptr %arg12, %80 : tensor<8x8x!tt.ptr<f32>>, tensor<8x8xi32> loc(#loc45)
      scf.yield %77, %78, %81 : tensor<8x8xf32>, tensor<8x8x!tt.ptr<f32>>, tensor<8x8x!tt.ptr<f32>> loc(#loc46)
    } loc(#loc38)
    %48 = arith.muli %11, %c8_i32 : i32 loc(#loc47)
    %49 = tt.make_range {end = 8 : i32, start = 0 : i32} : tensor<8xi32> loc(#loc48)
    %50 = tt.splat %48 : i32 -> tensor<8xi32> loc(#loc49)
    %51 = arith.addi %50, %49 : tensor<8xi32> loc(#loc49)
    %52 = arith.muli %13, %c8_i32 : i32 loc(#loc50)
    %53 = tt.make_range {end = 8 : i32, start = 0 : i32} : tensor<8xi32> loc(#loc51)
    %54 = tt.splat %52 : i32 -> tensor<8xi32> loc(#loc52)
    %55 = arith.addi %54, %53 : tensor<8xi32> loc(#loc52)
    %56 = tt.expand_dims %51 {axis = 1 : i32} : tensor<8xi32> -> tensor<8x1xi32> loc(#loc53)
    %57 = tt.splat %arg8 : i32 -> tensor<8x1xi32> loc(#loc54)
    %58 = arith.muli %57, %56 : tensor<8x1xi32> loc(#loc54)
    %59 = tt.splat %arg2 : !tt.ptr<f32> -> tensor<8x1x!tt.ptr<f32>> loc(#loc55)
    %60 = tt.addptr %59, %58 : tensor<8x1x!tt.ptr<f32>>, tensor<8x1xi32> loc(#loc55)
    %61 = tt.expand_dims %55 {axis = 0 : i32} : tensor<8xi32> -> tensor<1x8xi32> loc(#loc56)
    %62 = tt.broadcast %60 : tensor<8x1x!tt.ptr<f32>> -> tensor<8x8x!tt.ptr<f32>> loc(#loc57)
    %63 = tt.broadcast %61 : tensor<1x8xi32> -> tensor<8x8xi32> loc(#loc57)
    %64 = tt.addptr %62, %63 : tensor<8x8x!tt.ptr<f32>>, tensor<8x8xi32> loc(#loc57)
    %65 = tt.expand_dims %51 {axis = 1 : i32} : tensor<8xi32> -> tensor<8x1xi32> loc(#loc58)
    %66 = tt.splat %arg3 : i32 -> tensor<8x1xi32> loc(#loc59)
    %67 = arith.cmpi slt, %65, %66 : tensor<8x1xi32> loc(#loc59)
    %68 = tt.expand_dims %55 {axis = 0 : i32} : tensor<8xi32> -> tensor<1x8xi32> loc(#loc60)
    %69 = tt.splat %arg4 : i32 -> tensor<1x8xi32> loc(#loc61)
    %70 = arith.cmpi slt, %68, %69 : tensor<1x8xi32> loc(#loc61)
    %71 = tt.broadcast %67 : tensor<8x1xi1> -> tensor<8x8xi1> loc(#loc62)
    %72 = tt.broadcast %70 : tensor<1x8xi1> -> tensor<8x8xi1> loc(#loc62)
    %73 = arith.andi %71, %72 : tensor<8x8xi1> loc(#loc62)
    tt.store %64, %47#0, %73 : tensor<8x8x!tt.ptr<f32>> loc(#loc63)
    tt.return loc(#loc64)
  } loc(#loc)
  tt.func private @"cdiv__i32__(1,)cconstexpr_8_"(i32) -> i32 attributes {noinline = false} loc(#loc65)
  tt.func private @"zeros____(0, 0)cconstexpr_8__(0, 1)cconstexpr_8__(1,)cconstexpr_fp32_"() -> tensor<8x8xf32> attributes {noinline = false} loc(#loc66)
} loc(#loc)
#loc1 = loc(unknown)
#loc2 = loc("/home/yuhao/T_RVV/benchmark/src/triton/matmul.py":40:24)
#loc3 = loc("/home/yuhao/T_RVV/benchmark/src/triton/matmul.py":41:27)
#loc4 = loc("/home/yuhao/triton-cpu/python/triton/language/standard.py":40:22)
#loc5 = loc("/home/yuhao/triton-cpu/python/triton/language/standard.py":40:28)
#loc6 = loc("/home/yuhao/T_RVV/benchmark/src/triton/matmul.py":42:27)
#loc7 = loc("/home/yuhao/T_RVV/benchmark/src/triton/matmul.py":43:38)
#loc8 = loc("/home/yuhao/T_RVV/benchmark/src/triton/matmul.py":44:22)
#loc9 = loc("/home/yuhao/T_RVV/benchmark/src/triton/matmul.py":45:29)
#loc10 = loc("/home/yuhao/T_RVV/benchmark/src/triton/matmul.py":46:35)
#loc11 = loc("/home/yuhao/T_RVV/benchmark/src/triton/matmul.py":46:48)
#loc12 = loc("/home/yuhao/T_RVV/benchmark/src/triton/matmul.py":47:33)
#loc13 = loc("/home/yuhao/T_RVV/benchmark/src/triton/matmul.py":47:27)
#loc14 = loc("/home/yuhao/T_RVV/benchmark/src/triton/matmul.py":48:19)
#loc15 = loc("/home/yuhao/T_RVV/benchmark/src/triton/matmul.py":48:40)
#loc16 = loc("/home/yuhao/T_RVV/benchmark/src/triton/matmul.py":72:23)
#loc17 = loc("/home/yuhao/T_RVV/benchmark/src/triton/matmul.py":72:51)
#loc18 = loc("/home/yuhao/T_RVV/benchmark/src/triton/matmul.py":72:38)
#loc19 = loc("/home/yuhao/T_RVV/benchmark/src/triton/matmul.py":72:68)
#loc20 = loc("/home/yuhao/T_RVV/benchmark/src/triton/matmul.py":73:23)
#loc21 = loc("/home/yuhao/T_RVV/benchmark/src/triton/matmul.py":73:51)
#loc22 = loc("/home/yuhao/T_RVV/benchmark/src/triton/matmul.py":73:38)
#loc23 = loc("/home/yuhao/T_RVV/benchmark/src/triton/matmul.py":73:68)
#loc24 = loc("/home/yuhao/T_RVV/benchmark/src/triton/matmul.py":74:26)
#loc25 = loc("/home/yuhao/T_RVV/benchmark/src/triton/matmul.py":75:34)
#loc26 = loc("/home/yuhao/T_RVV/benchmark/src/triton/matmul.py":75:45)
#loc27 = loc("/home/yuhao/T_RVV/benchmark/src/triton/matmul.py":75:64)
#loc28 = loc("/home/yuhao/T_RVV/benchmark/src/triton/matmul.py":75:57)
#loc29 = loc("/home/yuhao/T_RVV/benchmark/src/triton/matmul.py":75:26)
#loc30 = loc("/home/yuhao/T_RVV/benchmark/src/triton/matmul.py":76:33)
#loc31 = loc("/home/yuhao/T_RVV/benchmark/src/triton/matmul.py":76:44)
#loc32 = loc("/home/yuhao/T_RVV/benchmark/src/triton/matmul.py":76:64)
#loc33 = loc("/home/yuhao/T_RVV/benchmark/src/triton/matmul.py":76:56)
#loc34 = loc("/home/yuhao/T_RVV/benchmark/src/triton/matmul.py":76:26)
#loc35 = loc("/home/yuhao/triton-cpu/python/triton/language/standard.py":122:31)
#loc36 = loc("/home/yuhao/T_RVV/benchmark/src/triton/matmul.py":84:27)
#loc37 = loc("/home/yuhao/T_RVV/benchmark/src/triton/matmul.py":85:33)
#loc38 = loc("/home/yuhao/T_RVV/benchmark/src/triton/matmul.py":85:22)
#loc39 = loc("/home/yuhao/T_RVV/benchmark/src/triton/matmul.py":88:20)
#loc40 = loc("/home/yuhao/T_RVV/benchmark/src/triton/matmul.py":89:20)
#loc41 = loc("/home/yuhao/T_RVV/benchmark/src/triton/matmul.py":92:33)
#loc42 = loc("/home/yuhao/T_RVV/benchmark/src/triton/matmul.py":92:23)
#loc43 = loc("/home/yuhao/T_RVV/benchmark/src/triton/matmul.py":100:22)
#loc44 = loc("/home/yuhao/T_RVV/benchmark/src/triton/matmul.py":101:37)
#loc45 = loc("/home/yuhao/T_RVV/benchmark/src/triton/matmul.py":101:22)
#loc46 = loc("/home/yuhao/T_RVV/benchmark/src/triton/matmul.py":101:8)
#loc47 = loc("/home/yuhao/T_RVV/benchmark/src/triton/matmul.py":112:22)
#loc48 = loc("/home/yuhao/T_RVV/benchmark/src/triton/matmul.py":112:50)
#loc49 = loc("/home/yuhao/T_RVV/benchmark/src/triton/matmul.py":112:37)
#loc50 = loc("/home/yuhao/T_RVV/benchmark/src/triton/matmul.py":113:22)
#loc51 = loc("/home/yuhao/T_RVV/benchmark/src/triton/matmul.py":113:50)
#loc52 = loc("/home/yuhao/T_RVV/benchmark/src/triton/matmul.py":113:37)
#loc53 = loc("/home/yuhao/T_RVV/benchmark/src/triton/matmul.py":114:41)
#loc54 = loc("/home/yuhao/T_RVV/benchmark/src/triton/matmul.py":114:33)
#loc55 = loc("/home/yuhao/T_RVV/benchmark/src/triton/matmul.py":114:21)
#loc56 = loc("/home/yuhao/T_RVV/benchmark/src/triton/matmul.py":114:72)
#loc57 = loc("/home/yuhao/T_RVV/benchmark/src/triton/matmul.py":114:52)
#loc58 = loc("/home/yuhao/T_RVV/benchmark/src/triton/matmul.py":115:22)
#loc59 = loc("/home/yuhao/T_RVV/benchmark/src/triton/matmul.py":115:33)
#loc60 = loc("/home/yuhao/T_RVV/benchmark/src/triton/matmul.py":115:47)
#loc61 = loc("/home/yuhao/T_RVV/benchmark/src/triton/matmul.py":115:58)
#loc62 = loc("/home/yuhao/T_RVV/benchmark/src/triton/matmul.py":115:39)
#loc63 = loc("/home/yuhao/T_RVV/benchmark/src/triton/matmul.py":116:21)
#loc64 = loc("/home/yuhao/T_RVV/benchmark/src/triton/matmul.py":116:4)
#loc65 = loc("/home/yuhao/triton-cpu/python/triton/language/standard.py":31:0)
#loc66 = loc("/home/yuhao/triton-cpu/python/triton/language/standard.py":113:0)
#loc67 = loc(callsite(#loc1 at #loc3))
#loc68 = loc(callsite(#loc4 at #loc3))
#loc69 = loc(callsite(#loc5 at #loc3))
#loc70 = loc(callsite(#loc1 at #loc6))
#loc71 = loc(callsite(#loc4 at #loc6))
#loc72 = loc(callsite(#loc5 at #loc6))
#loc73 = loc(callsite(#loc35 at #loc36))
#loc74 = loc(callsite(#loc1 at #loc37))
#loc75 = loc(callsite(#loc4 at #loc37))
#loc76 = loc(callsite(#loc5 at #loc37))


// -----// IR Dump Before TritonCombineOps (triton-combine) ('builtin.module' operation) //----- //
#loc = loc("/home/yuhao/T_RVV/benchmark/src/triton/matmul.py":20:0)
module {
  tt.func public @matmul_kernel(%arg0: !tt.ptr<f32> {tt.divisibility = 16 : i32} loc("/home/yuhao/T_RVV/benchmark/src/triton/matmul.py":20:0), %arg1: !tt.ptr<f32> {tt.divisibility = 16 : i32} loc("/home/yuhao/T_RVV/benchmark/src/triton/matmul.py":20:0), %arg2: !tt.ptr<f32> {tt.divisibility = 16 : i32} loc("/home/yuhao/T_RVV/benchmark/src/triton/matmul.py":20:0), %arg3: i32 {tt.divisibility = 16 : i32} loc("/home/yuhao/T_RVV/benchmark/src/triton/matmul.py":20:0), %arg4: i32 {tt.divisibility = 16 : i32} loc("/home/yuhao/T_RVV/benchmark/src/triton/matmul.py":20:0), %arg5: i32 {tt.divisibility = 16 : i32} loc("/home/yuhao/T_RVV/benchmark/src/triton/matmul.py":20:0), %arg6: i32 {tt.divisibility = 16 : i32} loc("/home/yuhao/T_RVV/benchmark/src/triton/matmul.py":20:0), %arg7: i32 {tt.divisibility = 16 : i32} loc("/home/yuhao/T_RVV/benchmark/src/triton/matmul.py":20:0), %arg8: i32 {tt.divisibility = 16 : i32} loc("/home/yuhao/T_RVV/benchmark/src/triton/matmul.py":20:0)) attributes {noinline = false} {
    %c7_i32 = arith.constant 7 : i32 loc(#loc1)
    %c1_i32 = arith.constant 1 : i32 loc(#loc1)
    %c0_i32 = arith.constant 0 : i32 loc(#loc1)
    %cst = arith.constant dense<8> : tensor<8x8xi32> loc(#loc1)
    %cst_0 = arith.constant dense<0.000000e+00> : tensor<8x8xf32> loc(#loc1)
    %c8_i32 = arith.constant 8 : i32 loc(#loc1)
    %c4_i32 = arith.constant 4 : i32 loc(#loc1)
    %0 = tt.get_program_id x : i32 loc(#loc2)
    %1 = arith.addi %arg3, %c7_i32 : i32 loc(#loc63)
    %2 = arith.divsi %1, %c8_i32 : i32 loc(#loc64)
    %3 = arith.addi %arg4, %c7_i32 : i32 loc(#loc65)
    %4 = arith.divsi %3, %c8_i32 : i32 loc(#loc66)
    %5 = arith.muli %4, %c4_i32 : i32 loc(#loc7)
    %6 = arith.divsi %0, %5 : i32 loc(#loc8)
    %7 = arith.muli %6, %c4_i32 : i32 loc(#loc9)
    %8 = arith.subi %2, %7 : i32 loc(#loc10)
    %9 = arith.minsi %8, %c4_i32 : i32 loc(#loc11)
    %10 = arith.remsi %0, %9 : i32 loc(#loc12)
    %11 = arith.addi %7, %10 : i32 loc(#loc13)
    %12 = arith.remsi %0, %5 : i32 loc(#loc14)
    %13 = arith.divsi %12, %9 : i32 loc(#loc15)
    %14 = arith.muli %11, %c8_i32 : i32 loc(#loc16)
    %15 = tt.make_range {end = 8 : i32, start = 0 : i32} : tensor<8xi32> loc(#loc17)
    %16 = tt.splat %14 : i32 -> tensor<8xi32> loc(#loc18)
    %17 = arith.addi %16, %15 : tensor<8xi32> loc(#loc18)
    %18 = tt.splat %arg3 : i32 -> tensor<8xi32> loc(#loc19)
    %19 = arith.remsi %17, %18 : tensor<8xi32> loc(#loc19)
    %20 = arith.muli %13, %c8_i32 : i32 loc(#loc20)
    %21 = tt.make_range {end = 8 : i32, start = 0 : i32} : tensor<8xi32> loc(#loc21)
    %22 = tt.splat %20 : i32 -> tensor<8xi32> loc(#loc22)
    %23 = arith.addi %22, %21 : tensor<8xi32> loc(#loc22)
    %24 = tt.splat %arg4 : i32 -> tensor<8xi32> loc(#loc23)
    %25 = arith.remsi %23, %24 : tensor<8xi32> loc(#loc23)
    %26 = tt.make_range {end = 8 : i32, start = 0 : i32} : tensor<8xi32> loc(#loc24)
    %27 = tt.expand_dims %19 {axis = 1 : i32} : tensor<8xi32> -> tensor<8x1xi32> loc(#loc25)
    %28 = tt.splat %arg6 : i32 -> tensor<8x1xi32> loc(#loc26)
    %29 = arith.muli %27, %28 : tensor<8x1xi32> loc(#loc26)
    %30 = tt.expand_dims %26 {axis = 0 : i32} : tensor<8xi32> -> tensor<1x8xi32> loc(#loc27)
    %31 = tt.broadcast %29 : tensor<8x1xi32> -> tensor<8x8xi32> loc(#loc28)
    %32 = tt.broadcast %30 : tensor<1x8xi32> -> tensor<8x8xi32> loc(#loc28)
    %33 = arith.addi %31, %32 : tensor<8x8xi32> loc(#loc28)
    %34 = tt.splat %arg0 : !tt.ptr<f32> -> tensor<8x8x!tt.ptr<f32>> loc(#loc29)
    %35 = tt.addptr %34, %33 : tensor<8x8x!tt.ptr<f32>>, tensor<8x8xi32> loc(#loc29)
    %36 = tt.expand_dims %26 {axis = 1 : i32} : tensor<8xi32> -> tensor<8x1xi32> loc(#loc30)
    %37 = tt.splat %arg7 : i32 -> tensor<8x1xi32> loc(#loc31)
    %38 = arith.muli %36, %37 : tensor<8x1xi32> loc(#loc31)
    %39 = tt.expand_dims %25 {axis = 0 : i32} : tensor<8xi32> -> tensor<1x8xi32> loc(#loc32)
    %40 = tt.broadcast %38 : tensor<8x1xi32> -> tensor<8x8xi32> loc(#loc33)
    %41 = tt.broadcast %39 : tensor<1x8xi32> -> tensor<8x8xi32> loc(#loc33)
    %42 = arith.addi %40, %41 : tensor<8x8xi32> loc(#loc33)
    %43 = tt.splat %arg1 : !tt.ptr<f32> -> tensor<8x8x!tt.ptr<f32>> loc(#loc34)
    %44 = tt.addptr %43, %42 : tensor<8x8x!tt.ptr<f32>>, tensor<8x8xi32> loc(#loc34)
    %45 = arith.addi %arg5, %c7_i32 : i32 loc(#loc67)
    %46 = arith.divsi %45, %c8_i32 : i32 loc(#loc68)
    %47:3 = scf.for %arg9 = %c0_i32 to %46 step %c1_i32 iter_args(%arg10 = %cst_0, %arg11 = %35, %arg12 = %44) -> (tensor<8x8xf32>, tensor<8x8x!tt.ptr<f32>>, tensor<8x8x!tt.ptr<f32>>)  : i32 {
      %74 = tt.load %arg11 : tensor<8x8x!tt.ptr<f32>> loc(#loc37)
      %75 = tt.load %arg12 : tensor<8x8x!tt.ptr<f32>> loc(#loc38)
      %76 = tt.dot %74, %75, %cst_0, inputPrecision = tf32 : tensor<8x8xf32> * tensor<8x8xf32> -> tensor<8x8xf32> loc(#loc39)
      %77 = arith.addf %arg10, %76 : tensor<8x8xf32> loc(#loc40)
      %78 = tt.addptr %arg11, %cst : tensor<8x8x!tt.ptr<f32>>, tensor<8x8xi32> loc(#loc41)
      %79 = arith.muli %arg7, %c8_i32 : i32 loc(#loc42)
      %80 = tt.splat %79 : i32 -> tensor<8x8xi32> loc(#loc43)
      %81 = tt.addptr %arg12, %80 : tensor<8x8x!tt.ptr<f32>>, tensor<8x8xi32> loc(#loc43)
      scf.yield %77, %78, %81 : tensor<8x8xf32>, tensor<8x8x!tt.ptr<f32>>, tensor<8x8x!tt.ptr<f32>> loc(#loc44)
    } loc(#loc36)
    %48 = arith.muli %11, %c8_i32 : i32 loc(#loc45)
    %49 = tt.make_range {end = 8 : i32, start = 0 : i32} : tensor<8xi32> loc(#loc46)
    %50 = tt.splat %48 : i32 -> tensor<8xi32> loc(#loc47)
    %51 = arith.addi %50, %49 : tensor<8xi32> loc(#loc47)
    %52 = arith.muli %13, %c8_i32 : i32 loc(#loc48)
    %53 = tt.make_range {end = 8 : i32, start = 0 : i32} : tensor<8xi32> loc(#loc49)
    %54 = tt.splat %52 : i32 -> tensor<8xi32> loc(#loc50)
    %55 = arith.addi %54, %53 : tensor<8xi32> loc(#loc50)
    %56 = tt.expand_dims %51 {axis = 1 : i32} : tensor<8xi32> -> tensor<8x1xi32> loc(#loc51)
    %57 = tt.splat %arg8 : i32 -> tensor<8x1xi32> loc(#loc52)
    %58 = arith.muli %57, %56 : tensor<8x1xi32> loc(#loc52)
    %59 = tt.splat %arg2 : !tt.ptr<f32> -> tensor<8x1x!tt.ptr<f32>> loc(#loc53)
    %60 = tt.addptr %59, %58 : tensor<8x1x!tt.ptr<f32>>, tensor<8x1xi32> loc(#loc53)
    %61 = tt.expand_dims %55 {axis = 0 : i32} : tensor<8xi32> -> tensor<1x8xi32> loc(#loc54)
    %62 = tt.broadcast %60 : tensor<8x1x!tt.ptr<f32>> -> tensor<8x8x!tt.ptr<f32>> loc(#loc55)
    %63 = tt.broadcast %61 : tensor<1x8xi32> -> tensor<8x8xi32> loc(#loc55)
    %64 = tt.addptr %62, %63 : tensor<8x8x!tt.ptr<f32>>, tensor<8x8xi32> loc(#loc55)
    %65 = tt.expand_dims %51 {axis = 1 : i32} : tensor<8xi32> -> tensor<8x1xi32> loc(#loc56)
    %66 = tt.splat %arg3 : i32 -> tensor<8x1xi32> loc(#loc57)
    %67 = arith.cmpi slt, %65, %66 : tensor<8x1xi32> loc(#loc57)
    %68 = tt.expand_dims %55 {axis = 0 : i32} : tensor<8xi32> -> tensor<1x8xi32> loc(#loc58)
    %69 = tt.splat %arg4 : i32 -> tensor<1x8xi32> loc(#loc59)
    %70 = arith.cmpi slt, %68, %69 : tensor<1x8xi32> loc(#loc59)
    %71 = tt.broadcast %67 : tensor<8x1xi1> -> tensor<8x8xi1> loc(#loc60)
    %72 = tt.broadcast %70 : tensor<1x8xi1> -> tensor<8x8xi1> loc(#loc60)
    %73 = arith.andi %71, %72 : tensor<8x8xi1> loc(#loc60)
    tt.store %64, %47#0, %73 : tensor<8x8x!tt.ptr<f32>> loc(#loc61)
    tt.return loc(#loc62)
  } loc(#loc)
} loc(#loc)
#loc1 = loc(unknown)
#loc2 = loc("/home/yuhao/T_RVV/benchmark/src/triton/matmul.py":40:24)
#loc3 = loc("/home/yuhao/triton-cpu/python/triton/language/standard.py":40:22)
#loc4 = loc("/home/yuhao/T_RVV/benchmark/src/triton/matmul.py":41:27)
#loc5 = loc("/home/yuhao/triton-cpu/python/triton/language/standard.py":40:28)
#loc6 = loc("/home/yuhao/T_RVV/benchmark/src/triton/matmul.py":42:27)
#loc7 = loc("/home/yuhao/T_RVV/benchmark/src/triton/matmul.py":43:38)
#loc8 = loc("/home/yuhao/T_RVV/benchmark/src/triton/matmul.py":44:22)
#loc9 = loc("/home/yuhao/T_RVV/benchmark/src/triton/matmul.py":45:29)
#loc10 = loc("/home/yuhao/T_RVV/benchmark/src/triton/matmul.py":46:35)
#loc11 = loc("/home/yuhao/T_RVV/benchmark/src/triton/matmul.py":46:48)
#loc12 = loc("/home/yuhao/T_RVV/benchmark/src/triton/matmul.py":47:33)
#loc13 = loc("/home/yuhao/T_RVV/benchmark/src/triton/matmul.py":47:27)
#loc14 = loc("/home/yuhao/T_RVV/benchmark/src/triton/matmul.py":48:19)
#loc15 = loc("/home/yuhao/T_RVV/benchmark/src/triton/matmul.py":48:40)
#loc16 = loc("/home/yuhao/T_RVV/benchmark/src/triton/matmul.py":72:23)
#loc17 = loc("/home/yuhao/T_RVV/benchmark/src/triton/matmul.py":72:51)
#loc18 = loc("/home/yuhao/T_RVV/benchmark/src/triton/matmul.py":72:38)
#loc19 = loc("/home/yuhao/T_RVV/benchmark/src/triton/matmul.py":72:68)
#loc20 = loc("/home/yuhao/T_RVV/benchmark/src/triton/matmul.py":73:23)
#loc21 = loc("/home/yuhao/T_RVV/benchmark/src/triton/matmul.py":73:51)
#loc22 = loc("/home/yuhao/T_RVV/benchmark/src/triton/matmul.py":73:38)
#loc23 = loc("/home/yuhao/T_RVV/benchmark/src/triton/matmul.py":73:68)
#loc24 = loc("/home/yuhao/T_RVV/benchmark/src/triton/matmul.py":74:26)
#loc25 = loc("/home/yuhao/T_RVV/benchmark/src/triton/matmul.py":75:34)
#loc26 = loc("/home/yuhao/T_RVV/benchmark/src/triton/matmul.py":75:45)
#loc27 = loc("/home/yuhao/T_RVV/benchmark/src/triton/matmul.py":75:64)
#loc28 = loc("/home/yuhao/T_RVV/benchmark/src/triton/matmul.py":75:57)
#loc29 = loc("/home/yuhao/T_RVV/benchmark/src/triton/matmul.py":75:26)
#loc30 = loc("/home/yuhao/T_RVV/benchmark/src/triton/matmul.py":76:33)
#loc31 = loc("/home/yuhao/T_RVV/benchmark/src/triton/matmul.py":76:44)
#loc32 = loc("/home/yuhao/T_RVV/benchmark/src/triton/matmul.py":76:64)
#loc33 = loc("/home/yuhao/T_RVV/benchmark/src/triton/matmul.py":76:56)
#loc34 = loc("/home/yuhao/T_RVV/benchmark/src/triton/matmul.py":76:26)
#loc35 = loc("/home/yuhao/T_RVV/benchmark/src/triton/matmul.py":85:33)
#loc36 = loc("/home/yuhao/T_RVV/benchmark/src/triton/matmul.py":85:22)
#loc37 = loc("/home/yuhao/T_RVV/benchmark/src/triton/matmul.py":88:20)
#loc38 = loc("/home/yuhao/T_RVV/benchmark/src/triton/matmul.py":89:20)
#loc39 = loc("/home/yuhao/T_RVV/benchmark/src/triton/matmul.py":92:33)
#loc40 = loc("/home/yuhao/T_RVV/benchmark/src/triton/matmul.py":92:23)
#loc41 = loc("/home/yuhao/T_RVV/benchmark/src/triton/matmul.py":100:22)
#loc42 = loc("/home/yuhao/T_RVV/benchmark/src/triton/matmul.py":101:37)
#loc43 = loc("/home/yuhao/T_RVV/benchmark/src/triton/matmul.py":101:22)
#loc44 = loc("/home/yuhao/T_RVV/benchmark/src/triton/matmul.py":101:8)
#loc45 = loc("/home/yuhao/T_RVV/benchmark/src/triton/matmul.py":112:22)
#loc46 = loc("/home/yuhao/T_RVV/benchmark/src/triton/matmul.py":112:50)
#loc47 = loc("/home/yuhao/T_RVV/benchmark/src/triton/matmul.py":112:37)
#loc48 = loc("/home/yuhao/T_RVV/benchmark/src/triton/matmul.py":113:22)
#loc49 = loc("/home/yuhao/T_RVV/benchmark/src/triton/matmul.py":113:50)
#loc50 = loc("/home/yuhao/T_RVV/benchmark/src/triton/matmul.py":113:37)
#loc51 = loc("/home/yuhao/T_RVV/benchmark/src/triton/matmul.py":114:41)
#loc52 = loc("/home/yuhao/T_RVV/benchmark/src/triton/matmul.py":114:33)
#loc53 = loc("/home/yuhao/T_RVV/benchmark/src/triton/matmul.py":114:21)
#loc54 = loc("/home/yuhao/T_RVV/benchmark/src/triton/matmul.py":114:72)
#loc55 = loc("/home/yuhao/T_RVV/benchmark/src/triton/matmul.py":114:52)
#loc56 = loc("/home/yuhao/T_RVV/benchmark/src/triton/matmul.py":115:22)
#loc57 = loc("/home/yuhao/T_RVV/benchmark/src/triton/matmul.py":115:33)
#loc58 = loc("/home/yuhao/T_RVV/benchmark/src/triton/matmul.py":115:47)
#loc59 = loc("/home/yuhao/T_RVV/benchmark/src/triton/matmul.py":115:58)
#loc60 = loc("/home/yuhao/T_RVV/benchmark/src/triton/matmul.py":115:39)
#loc61 = loc("/home/yuhao/T_RVV/benchmark/src/triton/matmul.py":116:21)
#loc62 = loc("/home/yuhao/T_RVV/benchmark/src/triton/matmul.py":116:4)
#loc63 = loc(callsite(#loc3 at #loc4))
#loc64 = loc(callsite(#loc5 at #loc4))
#loc65 = loc(callsite(#loc3 at #loc6))
#loc66 = loc(callsite(#loc5 at #loc6))
#loc67 = loc(callsite(#loc3 at #loc35))
#loc68 = loc(callsite(#loc5 at #loc35))


// -----// IR Dump Before Canonicalizer (canonicalize) ('builtin.module' operation) //----- //
#loc = loc("/home/yuhao/T_RVV/benchmark/src/triton/matmul.py":20:0)
module {
  tt.func public @matmul_kernel(%arg0: !tt.ptr<f32> {tt.divisibility = 16 : i32} loc("/home/yuhao/T_RVV/benchmark/src/triton/matmul.py":20:0), %arg1: !tt.ptr<f32> {tt.divisibility = 16 : i32} loc("/home/yuhao/T_RVV/benchmark/src/triton/matmul.py":20:0), %arg2: !tt.ptr<f32> {tt.divisibility = 16 : i32} loc("/home/yuhao/T_RVV/benchmark/src/triton/matmul.py":20:0), %arg3: i32 {tt.divisibility = 16 : i32} loc("/home/yuhao/T_RVV/benchmark/src/triton/matmul.py":20:0), %arg4: i32 {tt.divisibility = 16 : i32} loc("/home/yuhao/T_RVV/benchmark/src/triton/matmul.py":20:0), %arg5: i32 {tt.divisibility = 16 : i32} loc("/home/yuhao/T_RVV/benchmark/src/triton/matmul.py":20:0), %arg6: i32 {tt.divisibility = 16 : i32} loc("/home/yuhao/T_RVV/benchmark/src/triton/matmul.py":20:0), %arg7: i32 {tt.divisibility = 16 : i32} loc("/home/yuhao/T_RVV/benchmark/src/triton/matmul.py":20:0), %arg8: i32 {tt.divisibility = 16 : i32} loc("/home/yuhao/T_RVV/benchmark/src/triton/matmul.py":20:0)) attributes {noinline = false} {
    %c7_i32 = arith.constant 7 : i32 loc(#loc1)
    %c1_i32 = arith.constant 1 : i32 loc(#loc1)
    %c0_i32 = arith.constant 0 : i32 loc(#loc1)
    %cst = arith.constant dense<8> : tensor<8x8xi32> loc(#loc1)
    %cst_0 = arith.constant dense<0.000000e+00> : tensor<8x8xf32> loc(#loc1)
    %c8_i32 = arith.constant 8 : i32 loc(#loc1)
    %c4_i32 = arith.constant 4 : i32 loc(#loc1)
    %0 = tt.get_program_id x : i32 loc(#loc2)
    %1 = arith.addi %arg3, %c7_i32 : i32 loc(#loc62)
    %2 = arith.divsi %1, %c8_i32 : i32 loc(#loc63)
    %3 = arith.addi %arg4, %c7_i32 : i32 loc(#loc64)
    %4 = arith.divsi %3, %c8_i32 : i32 loc(#loc65)
    %5 = arith.muli %4, %c4_i32 : i32 loc(#loc7)
    %6 = arith.divsi %0, %5 : i32 loc(#loc8)
    %7 = arith.muli %6, %c4_i32 : i32 loc(#loc9)
    %8 = arith.subi %2, %7 : i32 loc(#loc10)
    %9 = arith.minsi %8, %c4_i32 : i32 loc(#loc11)
    %10 = arith.remsi %0, %9 : i32 loc(#loc12)
    %11 = arith.addi %7, %10 : i32 loc(#loc13)
    %12 = arith.remsi %0, %5 : i32 loc(#loc14)
    %13 = arith.divsi %12, %9 : i32 loc(#loc15)
    %14 = arith.muli %11, %c8_i32 : i32 loc(#loc16)
    %15 = tt.make_range {end = 8 : i32, start = 0 : i32} : tensor<8xi32> loc(#loc17)
    %16 = tt.splat %14 : i32 -> tensor<8xi32> loc(#loc18)
    %17 = arith.addi %16, %15 : tensor<8xi32> loc(#loc18)
    %18 = tt.splat %arg3 : i32 -> tensor<8xi32> loc(#loc19)
    %19 = arith.remsi %17, %18 : tensor<8xi32> loc(#loc19)
    %20 = arith.muli %13, %c8_i32 : i32 loc(#loc20)
    %21 = tt.make_range {end = 8 : i32, start = 0 : i32} : tensor<8xi32> loc(#loc21)
    %22 = tt.splat %20 : i32 -> tensor<8xi32> loc(#loc22)
    %23 = arith.addi %22, %21 : tensor<8xi32> loc(#loc22)
    %24 = tt.splat %arg4 : i32 -> tensor<8xi32> loc(#loc23)
    %25 = arith.remsi %23, %24 : tensor<8xi32> loc(#loc23)
    %26 = tt.make_range {end = 8 : i32, start = 0 : i32} : tensor<8xi32> loc(#loc24)
    %27 = tt.expand_dims %19 {axis = 1 : i32} : tensor<8xi32> -> tensor<8x1xi32> loc(#loc25)
    %28 = tt.splat %arg6 : i32 -> tensor<8x1xi32> loc(#loc26)
    %29 = arith.muli %27, %28 : tensor<8x1xi32> loc(#loc26)
    %30 = tt.expand_dims %26 {axis = 0 : i32} : tensor<8xi32> -> tensor<1x8xi32> loc(#loc27)
    %31 = tt.broadcast %29 : tensor<8x1xi32> -> tensor<8x8xi32> loc(#loc28)
    %32 = tt.broadcast %30 : tensor<1x8xi32> -> tensor<8x8xi32> loc(#loc28)
    %33 = arith.addi %31, %32 : tensor<8x8xi32> loc(#loc28)
    %34 = tt.splat %arg0 : !tt.ptr<f32> -> tensor<8x8x!tt.ptr<f32>> loc(#loc29)
    %35 = tt.addptr %34, %33 : tensor<8x8x!tt.ptr<f32>>, tensor<8x8xi32> loc(#loc29)
    %36 = tt.expand_dims %26 {axis = 1 : i32} : tensor<8xi32> -> tensor<8x1xi32> loc(#loc30)
    %37 = tt.splat %arg7 : i32 -> tensor<8x1xi32> loc(#loc31)
    %38 = arith.muli %36, %37 : tensor<8x1xi32> loc(#loc31)
    %39 = tt.expand_dims %25 {axis = 0 : i32} : tensor<8xi32> -> tensor<1x8xi32> loc(#loc32)
    %40 = tt.broadcast %38 : tensor<8x1xi32> -> tensor<8x8xi32> loc(#loc33)
    %41 = tt.broadcast %39 : tensor<1x8xi32> -> tensor<8x8xi32> loc(#loc33)
    %42 = arith.addi %40, %41 : tensor<8x8xi32> loc(#loc33)
    %43 = tt.splat %arg1 : !tt.ptr<f32> -> tensor<8x8x!tt.ptr<f32>> loc(#loc34)
    %44 = tt.addptr %43, %42 : tensor<8x8x!tt.ptr<f32>>, tensor<8x8xi32> loc(#loc34)
    %45 = arith.addi %arg5, %c7_i32 : i32 loc(#loc66)
    %46 = arith.divsi %45, %c8_i32 : i32 loc(#loc67)
    %47:3 = scf.for %arg9 = %c0_i32 to %46 step %c1_i32 iter_args(%arg10 = %cst_0, %arg11 = %35, %arg12 = %44) -> (tensor<8x8xf32>, tensor<8x8x!tt.ptr<f32>>, tensor<8x8x!tt.ptr<f32>>)  : i32 {
      %74 = tt.load %arg11 : tensor<8x8x!tt.ptr<f32>> loc(#loc37)
      %75 = tt.load %arg12 : tensor<8x8x!tt.ptr<f32>> loc(#loc38)
      %76 = tt.dot %74, %75, %arg10, inputPrecision = tf32 : tensor<8x8xf32> * tensor<8x8xf32> -> tensor<8x8xf32> loc(#loc39)
      %77 = tt.addptr %arg11, %cst : tensor<8x8x!tt.ptr<f32>>, tensor<8x8xi32> loc(#loc40)
      %78 = arith.muli %arg7, %c8_i32 : i32 loc(#loc41)
      %79 = tt.splat %78 : i32 -> tensor<8x8xi32> loc(#loc42)
      %80 = tt.addptr %arg12, %79 : tensor<8x8x!tt.ptr<f32>>, tensor<8x8xi32> loc(#loc42)
      scf.yield %76, %77, %80 : tensor<8x8xf32>, tensor<8x8x!tt.ptr<f32>>, tensor<8x8x!tt.ptr<f32>> loc(#loc43)
    } loc(#loc36)
    %48 = arith.muli %11, %c8_i32 : i32 loc(#loc44)
    %49 = tt.make_range {end = 8 : i32, start = 0 : i32} : tensor<8xi32> loc(#loc45)
    %50 = tt.splat %48 : i32 -> tensor<8xi32> loc(#loc46)
    %51 = arith.addi %50, %49 : tensor<8xi32> loc(#loc46)
    %52 = arith.muli %13, %c8_i32 : i32 loc(#loc47)
    %53 = tt.make_range {end = 8 : i32, start = 0 : i32} : tensor<8xi32> loc(#loc48)
    %54 = tt.splat %52 : i32 -> tensor<8xi32> loc(#loc49)
    %55 = arith.addi %54, %53 : tensor<8xi32> loc(#loc49)
    %56 = tt.expand_dims %51 {axis = 1 : i32} : tensor<8xi32> -> tensor<8x1xi32> loc(#loc50)
    %57 = tt.splat %arg8 : i32 -> tensor<8x1xi32> loc(#loc51)
    %58 = arith.muli %57, %56 : tensor<8x1xi32> loc(#loc51)
    %59 = tt.splat %arg2 : !tt.ptr<f32> -> tensor<8x1x!tt.ptr<f32>> loc(#loc52)
    %60 = tt.addptr %59, %58 : tensor<8x1x!tt.ptr<f32>>, tensor<8x1xi32> loc(#loc52)
    %61 = tt.expand_dims %55 {axis = 0 : i32} : tensor<8xi32> -> tensor<1x8xi32> loc(#loc53)
    %62 = tt.broadcast %60 : tensor<8x1x!tt.ptr<f32>> -> tensor<8x8x!tt.ptr<f32>> loc(#loc54)
    %63 = tt.broadcast %61 : tensor<1x8xi32> -> tensor<8x8xi32> loc(#loc54)
    %64 = tt.addptr %62, %63 : tensor<8x8x!tt.ptr<f32>>, tensor<8x8xi32> loc(#loc54)
    %65 = tt.expand_dims %51 {axis = 1 : i32} : tensor<8xi32> -> tensor<8x1xi32> loc(#loc55)
    %66 = tt.splat %arg3 : i32 -> tensor<8x1xi32> loc(#loc56)
    %67 = arith.cmpi slt, %65, %66 : tensor<8x1xi32> loc(#loc56)
    %68 = tt.expand_dims %55 {axis = 0 : i32} : tensor<8xi32> -> tensor<1x8xi32> loc(#loc57)
    %69 = tt.splat %arg4 : i32 -> tensor<1x8xi32> loc(#loc58)
    %70 = arith.cmpi slt, %68, %69 : tensor<1x8xi32> loc(#loc58)
    %71 = tt.broadcast %67 : tensor<8x1xi1> -> tensor<8x8xi1> loc(#loc59)
    %72 = tt.broadcast %70 : tensor<1x8xi1> -> tensor<8x8xi1> loc(#loc59)
    %73 = arith.andi %71, %72 : tensor<8x8xi1> loc(#loc59)
    tt.store %64, %47#0, %73 : tensor<8x8x!tt.ptr<f32>> loc(#loc60)
    tt.return loc(#loc61)
  } loc(#loc)
} loc(#loc)
#loc1 = loc(unknown)
#loc2 = loc("/home/yuhao/T_RVV/benchmark/src/triton/matmul.py":40:24)
#loc3 = loc("/home/yuhao/triton-cpu/python/triton/language/standard.py":40:22)
#loc4 = loc("/home/yuhao/T_RVV/benchmark/src/triton/matmul.py":41:27)
#loc5 = loc("/home/yuhao/triton-cpu/python/triton/language/standard.py":40:28)
#loc6 = loc("/home/yuhao/T_RVV/benchmark/src/triton/matmul.py":42:27)
#loc7 = loc("/home/yuhao/T_RVV/benchmark/src/triton/matmul.py":43:38)
#loc8 = loc("/home/yuhao/T_RVV/benchmark/src/triton/matmul.py":44:22)
#loc9 = loc("/home/yuhao/T_RVV/benchmark/src/triton/matmul.py":45:29)
#loc10 = loc("/home/yuhao/T_RVV/benchmark/src/triton/matmul.py":46:35)
#loc11 = loc("/home/yuhao/T_RVV/benchmark/src/triton/matmul.py":46:48)
#loc12 = loc("/home/yuhao/T_RVV/benchmark/src/triton/matmul.py":47:33)
#loc13 = loc("/home/yuhao/T_RVV/benchmark/src/triton/matmul.py":47:27)
#loc14 = loc("/home/yuhao/T_RVV/benchmark/src/triton/matmul.py":48:19)
#loc15 = loc("/home/yuhao/T_RVV/benchmark/src/triton/matmul.py":48:40)
#loc16 = loc("/home/yuhao/T_RVV/benchmark/src/triton/matmul.py":72:23)
#loc17 = loc("/home/yuhao/T_RVV/benchmark/src/triton/matmul.py":72:51)
#loc18 = loc("/home/yuhao/T_RVV/benchmark/src/triton/matmul.py":72:38)
#loc19 = loc("/home/yuhao/T_RVV/benchmark/src/triton/matmul.py":72:68)
#loc20 = loc("/home/yuhao/T_RVV/benchmark/src/triton/matmul.py":73:23)
#loc21 = loc("/home/yuhao/T_RVV/benchmark/src/triton/matmul.py":73:51)
#loc22 = loc("/home/yuhao/T_RVV/benchmark/src/triton/matmul.py":73:38)
#loc23 = loc("/home/yuhao/T_RVV/benchmark/src/triton/matmul.py":73:68)
#loc24 = loc("/home/yuhao/T_RVV/benchmark/src/triton/matmul.py":74:26)
#loc25 = loc("/home/yuhao/T_RVV/benchmark/src/triton/matmul.py":75:34)
#loc26 = loc("/home/yuhao/T_RVV/benchmark/src/triton/matmul.py":75:45)
#loc27 = loc("/home/yuhao/T_RVV/benchmark/src/triton/matmul.py":75:64)
#loc28 = loc("/home/yuhao/T_RVV/benchmark/src/triton/matmul.py":75:57)
#loc29 = loc("/home/yuhao/T_RVV/benchmark/src/triton/matmul.py":75:26)
#loc30 = loc("/home/yuhao/T_RVV/benchmark/src/triton/matmul.py":76:33)
#loc31 = loc("/home/yuhao/T_RVV/benchmark/src/triton/matmul.py":76:44)
#loc32 = loc("/home/yuhao/T_RVV/benchmark/src/triton/matmul.py":76:64)
#loc33 = loc("/home/yuhao/T_RVV/benchmark/src/triton/matmul.py":76:56)
#loc34 = loc("/home/yuhao/T_RVV/benchmark/src/triton/matmul.py":76:26)
#loc35 = loc("/home/yuhao/T_RVV/benchmark/src/triton/matmul.py":85:33)
#loc36 = loc("/home/yuhao/T_RVV/benchmark/src/triton/matmul.py":85:22)
#loc37 = loc("/home/yuhao/T_RVV/benchmark/src/triton/matmul.py":88:20)
#loc38 = loc("/home/yuhao/T_RVV/benchmark/src/triton/matmul.py":89:20)
#loc39 = loc("/home/yuhao/T_RVV/benchmark/src/triton/matmul.py":92:33)
#loc40 = loc("/home/yuhao/T_RVV/benchmark/src/triton/matmul.py":100:22)
#loc41 = loc("/home/yuhao/T_RVV/benchmark/src/triton/matmul.py":101:37)
#loc42 = loc("/home/yuhao/T_RVV/benchmark/src/triton/matmul.py":101:22)
#loc43 = loc("/home/yuhao/T_RVV/benchmark/src/triton/matmul.py":101:8)
#loc44 = loc("/home/yuhao/T_RVV/benchmark/src/triton/matmul.py":112:22)
#loc45 = loc("/home/yuhao/T_RVV/benchmark/src/triton/matmul.py":112:50)
#loc46 = loc("/home/yuhao/T_RVV/benchmark/src/triton/matmul.py":112:37)
#loc47 = loc("/home/yuhao/T_RVV/benchmark/src/triton/matmul.py":113:22)
#loc48 = loc("/home/yuhao/T_RVV/benchmark/src/triton/matmul.py":113:50)
#loc49 = loc("/home/yuhao/T_RVV/benchmark/src/triton/matmul.py":113:37)
#loc50 = loc("/home/yuhao/T_RVV/benchmark/src/triton/matmul.py":114:41)
#loc51 = loc("/home/yuhao/T_RVV/benchmark/src/triton/matmul.py":114:33)
#loc52 = loc("/home/yuhao/T_RVV/benchmark/src/triton/matmul.py":114:21)
#loc53 = loc("/home/yuhao/T_RVV/benchmark/src/triton/matmul.py":114:72)
#loc54 = loc("/home/yuhao/T_RVV/benchmark/src/triton/matmul.py":114:52)
#loc55 = loc("/home/yuhao/T_RVV/benchmark/src/triton/matmul.py":115:22)
#loc56 = loc("/home/yuhao/T_RVV/benchmark/src/triton/matmul.py":115:33)
#loc57 = loc("/home/yuhao/T_RVV/benchmark/src/triton/matmul.py":115:47)
#loc58 = loc("/home/yuhao/T_RVV/benchmark/src/triton/matmul.py":115:58)
#loc59 = loc("/home/yuhao/T_RVV/benchmark/src/triton/matmul.py":115:39)
#loc60 = loc("/home/yuhao/T_RVV/benchmark/src/triton/matmul.py":116:21)
#loc61 = loc("/home/yuhao/T_RVV/benchmark/src/triton/matmul.py":116:4)
#loc62 = loc(callsite(#loc3 at #loc4))
#loc63 = loc(callsite(#loc5 at #loc4))
#loc64 = loc(callsite(#loc3 at #loc6))
#loc65 = loc(callsite(#loc5 at #loc6))
#loc66 = loc(callsite(#loc3 at #loc35))
#loc67 = loc(callsite(#loc5 at #loc35))


// -----// IR Dump Before TritonReorderBroadcast (triton-reorder-broadcast) ('builtin.module' operation) //----- //
#loc = loc("/home/yuhao/T_RVV/benchmark/src/triton/matmul.py":20:0)
module {
  tt.func public @matmul_kernel(%arg0: !tt.ptr<f32> {tt.divisibility = 16 : i32} loc("/home/yuhao/T_RVV/benchmark/src/triton/matmul.py":20:0), %arg1: !tt.ptr<f32> {tt.divisibility = 16 : i32} loc("/home/yuhao/T_RVV/benchmark/src/triton/matmul.py":20:0), %arg2: !tt.ptr<f32> {tt.divisibility = 16 : i32} loc("/home/yuhao/T_RVV/benchmark/src/triton/matmul.py":20:0), %arg3: i32 {tt.divisibility = 16 : i32} loc("/home/yuhao/T_RVV/benchmark/src/triton/matmul.py":20:0), %arg4: i32 {tt.divisibility = 16 : i32} loc("/home/yuhao/T_RVV/benchmark/src/triton/matmul.py":20:0), %arg5: i32 {tt.divisibility = 16 : i32} loc("/home/yuhao/T_RVV/benchmark/src/triton/matmul.py":20:0), %arg6: i32 {tt.divisibility = 16 : i32} loc("/home/yuhao/T_RVV/benchmark/src/triton/matmul.py":20:0), %arg7: i32 {tt.divisibility = 16 : i32} loc("/home/yuhao/T_RVV/benchmark/src/triton/matmul.py":20:0), %arg8: i32 {tt.divisibility = 16 : i32} loc("/home/yuhao/T_RVV/benchmark/src/triton/matmul.py":20:0)) attributes {noinline = false} {
    %c7_i32 = arith.constant 7 : i32 loc(#loc1)
    %c1_i32 = arith.constant 1 : i32 loc(#loc1)
    %c0_i32 = arith.constant 0 : i32 loc(#loc1)
    %cst = arith.constant dense<8> : tensor<8x8xi32> loc(#loc1)
    %cst_0 = arith.constant dense<0.000000e+00> : tensor<8x8xf32> loc(#loc1)
    %c8_i32 = arith.constant 8 : i32 loc(#loc1)
    %c4_i32 = arith.constant 4 : i32 loc(#loc1)
    %0 = tt.get_program_id x : i32 loc(#loc2)
    %1 = arith.addi %arg3, %c7_i32 : i32 loc(#loc62)
    %2 = arith.divsi %1, %c8_i32 : i32 loc(#loc63)
    %3 = arith.addi %arg4, %c7_i32 : i32 loc(#loc64)
    %4 = arith.divsi %3, %c8_i32 : i32 loc(#loc65)
    %5 = arith.muli %4, %c4_i32 : i32 loc(#loc7)
    %6 = arith.divsi %0, %5 : i32 loc(#loc8)
    %7 = arith.muli %6, %c4_i32 : i32 loc(#loc9)
    %8 = arith.subi %2, %7 : i32 loc(#loc10)
    %9 = arith.minsi %8, %c4_i32 : i32 loc(#loc11)
    %10 = arith.remsi %0, %9 : i32 loc(#loc12)
    %11 = arith.addi %7, %10 : i32 loc(#loc13)
    %12 = arith.remsi %0, %5 : i32 loc(#loc14)
    %13 = arith.divsi %12, %9 : i32 loc(#loc15)
    %14 = arith.muli %11, %c8_i32 : i32 loc(#loc16)
    %15 = tt.make_range {end = 8 : i32, start = 0 : i32} : tensor<8xi32> loc(#loc17)
    %16 = tt.splat %14 : i32 -> tensor<8xi32> loc(#loc18)
    %17 = arith.addi %16, %15 : tensor<8xi32> loc(#loc18)
    %18 = tt.splat %arg3 : i32 -> tensor<8xi32> loc(#loc19)
    %19 = arith.remsi %17, %18 : tensor<8xi32> loc(#loc19)
    %20 = arith.muli %13, %c8_i32 : i32 loc(#loc20)
    %21 = tt.make_range {end = 8 : i32, start = 0 : i32} : tensor<8xi32> loc(#loc21)
    %22 = tt.splat %20 : i32 -> tensor<8xi32> loc(#loc22)
    %23 = arith.addi %22, %21 : tensor<8xi32> loc(#loc22)
    %24 = tt.splat %arg4 : i32 -> tensor<8xi32> loc(#loc23)
    %25 = arith.remsi %23, %24 : tensor<8xi32> loc(#loc23)
    %26 = tt.make_range {end = 8 : i32, start = 0 : i32} : tensor<8xi32> loc(#loc24)
    %27 = tt.expand_dims %19 {axis = 1 : i32} : tensor<8xi32> -> tensor<8x1xi32> loc(#loc25)
    %28 = tt.splat %arg6 : i32 -> tensor<8x1xi32> loc(#loc26)
    %29 = arith.muli %27, %28 : tensor<8x1xi32> loc(#loc26)
    %30 = tt.expand_dims %26 {axis = 0 : i32} : tensor<8xi32> -> tensor<1x8xi32> loc(#loc27)
    %31 = tt.broadcast %29 : tensor<8x1xi32> -> tensor<8x8xi32> loc(#loc28)
    %32 = tt.broadcast %30 : tensor<1x8xi32> -> tensor<8x8xi32> loc(#loc28)
    %33 = arith.addi %31, %32 : tensor<8x8xi32> loc(#loc28)
    %34 = tt.splat %arg0 : !tt.ptr<f32> -> tensor<8x8x!tt.ptr<f32>> loc(#loc29)
    %35 = tt.addptr %34, %33 : tensor<8x8x!tt.ptr<f32>>, tensor<8x8xi32> loc(#loc29)
    %36 = tt.expand_dims %26 {axis = 1 : i32} : tensor<8xi32> -> tensor<8x1xi32> loc(#loc30)
    %37 = tt.splat %arg7 : i32 -> tensor<8x1xi32> loc(#loc31)
    %38 = arith.muli %36, %37 : tensor<8x1xi32> loc(#loc31)
    %39 = tt.expand_dims %25 {axis = 0 : i32} : tensor<8xi32> -> tensor<1x8xi32> loc(#loc32)
    %40 = tt.broadcast %38 : tensor<8x1xi32> -> tensor<8x8xi32> loc(#loc33)
    %41 = tt.broadcast %39 : tensor<1x8xi32> -> tensor<8x8xi32> loc(#loc33)
    %42 = arith.addi %40, %41 : tensor<8x8xi32> loc(#loc33)
    %43 = tt.splat %arg1 : !tt.ptr<f32> -> tensor<8x8x!tt.ptr<f32>> loc(#loc34)
    %44 = tt.addptr %43, %42 : tensor<8x8x!tt.ptr<f32>>, tensor<8x8xi32> loc(#loc34)
    %45 = arith.addi %arg5, %c7_i32 : i32 loc(#loc66)
    %46 = arith.divsi %45, %c8_i32 : i32 loc(#loc67)
    %47:3 = scf.for %arg9 = %c0_i32 to %46 step %c1_i32 iter_args(%arg10 = %cst_0, %arg11 = %35, %arg12 = %44) -> (tensor<8x8xf32>, tensor<8x8x!tt.ptr<f32>>, tensor<8x8x!tt.ptr<f32>>)  : i32 {
      %74 = tt.load %arg11 : tensor<8x8x!tt.ptr<f32>> loc(#loc37)
      %75 = tt.load %arg12 : tensor<8x8x!tt.ptr<f32>> loc(#loc38)
      %76 = tt.dot %74, %75, %arg10, inputPrecision = tf32 : tensor<8x8xf32> * tensor<8x8xf32> -> tensor<8x8xf32> loc(#loc39)
      %77 = tt.addptr %arg11, %cst : tensor<8x8x!tt.ptr<f32>>, tensor<8x8xi32> loc(#loc40)
      %78 = arith.muli %arg7, %c8_i32 : i32 loc(#loc41)
      %79 = tt.splat %78 : i32 -> tensor<8x8xi32> loc(#loc42)
      %80 = tt.addptr %arg12, %79 : tensor<8x8x!tt.ptr<f32>>, tensor<8x8xi32> loc(#loc42)
      scf.yield %76, %77, %80 : tensor<8x8xf32>, tensor<8x8x!tt.ptr<f32>>, tensor<8x8x!tt.ptr<f32>> loc(#loc43)
    } loc(#loc36)
    %48 = arith.muli %11, %c8_i32 : i32 loc(#loc44)
    %49 = tt.make_range {end = 8 : i32, start = 0 : i32} : tensor<8xi32> loc(#loc45)
    %50 = tt.splat %48 : i32 -> tensor<8xi32> loc(#loc46)
    %51 = arith.addi %50, %49 : tensor<8xi32> loc(#loc46)
    %52 = arith.muli %13, %c8_i32 : i32 loc(#loc47)
    %53 = tt.make_range {end = 8 : i32, start = 0 : i32} : tensor<8xi32> loc(#loc48)
    %54 = tt.splat %52 : i32 -> tensor<8xi32> loc(#loc49)
    %55 = arith.addi %54, %53 : tensor<8xi32> loc(#loc49)
    %56 = tt.expand_dims %51 {axis = 1 : i32} : tensor<8xi32> -> tensor<8x1xi32> loc(#loc50)
    %57 = tt.splat %arg8 : i32 -> tensor<8x1xi32> loc(#loc51)
    %58 = arith.muli %57, %56 : tensor<8x1xi32> loc(#loc51)
    %59 = tt.splat %arg2 : !tt.ptr<f32> -> tensor<8x1x!tt.ptr<f32>> loc(#loc52)
    %60 = tt.addptr %59, %58 : tensor<8x1x!tt.ptr<f32>>, tensor<8x1xi32> loc(#loc52)
    %61 = tt.expand_dims %55 {axis = 0 : i32} : tensor<8xi32> -> tensor<1x8xi32> loc(#loc53)
    %62 = tt.broadcast %60 : tensor<8x1x!tt.ptr<f32>> -> tensor<8x8x!tt.ptr<f32>> loc(#loc54)
    %63 = tt.broadcast %61 : tensor<1x8xi32> -> tensor<8x8xi32> loc(#loc54)
    %64 = tt.addptr %62, %63 : tensor<8x8x!tt.ptr<f32>>, tensor<8x8xi32> loc(#loc54)
    %65 = tt.expand_dims %51 {axis = 1 : i32} : tensor<8xi32> -> tensor<8x1xi32> loc(#loc55)
    %66 = tt.splat %arg3 : i32 -> tensor<8x1xi32> loc(#loc56)
    %67 = arith.cmpi slt, %65, %66 : tensor<8x1xi32> loc(#loc56)
    %68 = tt.expand_dims %55 {axis = 0 : i32} : tensor<8xi32> -> tensor<1x8xi32> loc(#loc57)
    %69 = tt.splat %arg4 : i32 -> tensor<1x8xi32> loc(#loc58)
    %70 = arith.cmpi slt, %68, %69 : tensor<1x8xi32> loc(#loc58)
    %71 = tt.broadcast %67 : tensor<8x1xi1> -> tensor<8x8xi1> loc(#loc59)
    %72 = tt.broadcast %70 : tensor<1x8xi1> -> tensor<8x8xi1> loc(#loc59)
    %73 = arith.andi %71, %72 : tensor<8x8xi1> loc(#loc59)
    tt.store %64, %47#0, %73 : tensor<8x8x!tt.ptr<f32>> loc(#loc60)
    tt.return loc(#loc61)
  } loc(#loc)
} loc(#loc)
#loc1 = loc(unknown)
#loc2 = loc("/home/yuhao/T_RVV/benchmark/src/triton/matmul.py":40:24)
#loc3 = loc("/home/yuhao/triton-cpu/python/triton/language/standard.py":40:22)
#loc4 = loc("/home/yuhao/T_RVV/benchmark/src/triton/matmul.py":41:27)
#loc5 = loc("/home/yuhao/triton-cpu/python/triton/language/standard.py":40:28)
#loc6 = loc("/home/yuhao/T_RVV/benchmark/src/triton/matmul.py":42:27)
#loc7 = loc("/home/yuhao/T_RVV/benchmark/src/triton/matmul.py":43:38)
#loc8 = loc("/home/yuhao/T_RVV/benchmark/src/triton/matmul.py":44:22)
#loc9 = loc("/home/yuhao/T_RVV/benchmark/src/triton/matmul.py":45:29)
#loc10 = loc("/home/yuhao/T_RVV/benchmark/src/triton/matmul.py":46:35)
#loc11 = loc("/home/yuhao/T_RVV/benchmark/src/triton/matmul.py":46:48)
#loc12 = loc("/home/yuhao/T_RVV/benchmark/src/triton/matmul.py":47:33)
#loc13 = loc("/home/yuhao/T_RVV/benchmark/src/triton/matmul.py":47:27)
#loc14 = loc("/home/yuhao/T_RVV/benchmark/src/triton/matmul.py":48:19)
#loc15 = loc("/home/yuhao/T_RVV/benchmark/src/triton/matmul.py":48:40)
#loc16 = loc("/home/yuhao/T_RVV/benchmark/src/triton/matmul.py":72:23)
#loc17 = loc("/home/yuhao/T_RVV/benchmark/src/triton/matmul.py":72:51)
#loc18 = loc("/home/yuhao/T_RVV/benchmark/src/triton/matmul.py":72:38)
#loc19 = loc("/home/yuhao/T_RVV/benchmark/src/triton/matmul.py":72:68)
#loc20 = loc("/home/yuhao/T_RVV/benchmark/src/triton/matmul.py":73:23)
#loc21 = loc("/home/yuhao/T_RVV/benchmark/src/triton/matmul.py":73:51)
#loc22 = loc("/home/yuhao/T_RVV/benchmark/src/triton/matmul.py":73:38)
#loc23 = loc("/home/yuhao/T_RVV/benchmark/src/triton/matmul.py":73:68)
#loc24 = loc("/home/yuhao/T_RVV/benchmark/src/triton/matmul.py":74:26)
#loc25 = loc("/home/yuhao/T_RVV/benchmark/src/triton/matmul.py":75:34)
#loc26 = loc("/home/yuhao/T_RVV/benchmark/src/triton/matmul.py":75:45)
#loc27 = loc("/home/yuhao/T_RVV/benchmark/src/triton/matmul.py":75:64)
#loc28 = loc("/home/yuhao/T_RVV/benchmark/src/triton/matmul.py":75:57)
#loc29 = loc("/home/yuhao/T_RVV/benchmark/src/triton/matmul.py":75:26)
#loc30 = loc("/home/yuhao/T_RVV/benchmark/src/triton/matmul.py":76:33)
#loc31 = loc("/home/yuhao/T_RVV/benchmark/src/triton/matmul.py":76:44)
#loc32 = loc("/home/yuhao/T_RVV/benchmark/src/triton/matmul.py":76:64)
#loc33 = loc("/home/yuhao/T_RVV/benchmark/src/triton/matmul.py":76:56)
#loc34 = loc("/home/yuhao/T_RVV/benchmark/src/triton/matmul.py":76:26)
#loc35 = loc("/home/yuhao/T_RVV/benchmark/src/triton/matmul.py":85:33)
#loc36 = loc("/home/yuhao/T_RVV/benchmark/src/triton/matmul.py":85:22)
#loc37 = loc("/home/yuhao/T_RVV/benchmark/src/triton/matmul.py":88:20)
#loc38 = loc("/home/yuhao/T_RVV/benchmark/src/triton/matmul.py":89:20)
#loc39 = loc("/home/yuhao/T_RVV/benchmark/src/triton/matmul.py":92:33)
#loc40 = loc("/home/yuhao/T_RVV/benchmark/src/triton/matmul.py":100:22)
#loc41 = loc("/home/yuhao/T_RVV/benchmark/src/triton/matmul.py":101:37)
#loc42 = loc("/home/yuhao/T_RVV/benchmark/src/triton/matmul.py":101:22)
#loc43 = loc("/home/yuhao/T_RVV/benchmark/src/triton/matmul.py":101:8)
#loc44 = loc("/home/yuhao/T_RVV/benchmark/src/triton/matmul.py":112:22)
#loc45 = loc("/home/yuhao/T_RVV/benchmark/src/triton/matmul.py":112:50)
#loc46 = loc("/home/yuhao/T_RVV/benchmark/src/triton/matmul.py":112:37)
#loc47 = loc("/home/yuhao/T_RVV/benchmark/src/triton/matmul.py":113:22)
#loc48 = loc("/home/yuhao/T_RVV/benchmark/src/triton/matmul.py":113:50)
#loc49 = loc("/home/yuhao/T_RVV/benchmark/src/triton/matmul.py":113:37)
#loc50 = loc("/home/yuhao/T_RVV/benchmark/src/triton/matmul.py":114:41)
#loc51 = loc("/home/yuhao/T_RVV/benchmark/src/triton/matmul.py":114:33)
#loc52 = loc("/home/yuhao/T_RVV/benchmark/src/triton/matmul.py":114:21)
#loc53 = loc("/home/yuhao/T_RVV/benchmark/src/triton/matmul.py":114:72)
#loc54 = loc("/home/yuhao/T_RVV/benchmark/src/triton/matmul.py":114:52)
#loc55 = loc("/home/yuhao/T_RVV/benchmark/src/triton/matmul.py":115:22)
#loc56 = loc("/home/yuhao/T_RVV/benchmark/src/triton/matmul.py":115:33)
#loc57 = loc("/home/yuhao/T_RVV/benchmark/src/triton/matmul.py":115:47)
#loc58 = loc("/home/yuhao/T_RVV/benchmark/src/triton/matmul.py":115:58)
#loc59 = loc("/home/yuhao/T_RVV/benchmark/src/triton/matmul.py":115:39)
#loc60 = loc("/home/yuhao/T_RVV/benchmark/src/triton/matmul.py":116:21)
#loc61 = loc("/home/yuhao/T_RVV/benchmark/src/triton/matmul.py":116:4)
#loc62 = loc(callsite(#loc3 at #loc4))
#loc63 = loc(callsite(#loc5 at #loc4))
#loc64 = loc(callsite(#loc3 at #loc6))
#loc65 = loc(callsite(#loc5 at #loc6))
#loc66 = loc(callsite(#loc3 at #loc35))
#loc67 = loc(callsite(#loc5 at #loc35))


// -----// IR Dump Before CSE (cse) ('builtin.module' operation) //----- //
#loc = loc("/home/yuhao/T_RVV/benchmark/src/triton/matmul.py":20:0)
module {
  tt.func public @matmul_kernel(%arg0: !tt.ptr<f32> {tt.divisibility = 16 : i32} loc("/home/yuhao/T_RVV/benchmark/src/triton/matmul.py":20:0), %arg1: !tt.ptr<f32> {tt.divisibility = 16 : i32} loc("/home/yuhao/T_RVV/benchmark/src/triton/matmul.py":20:0), %arg2: !tt.ptr<f32> {tt.divisibility = 16 : i32} loc("/home/yuhao/T_RVV/benchmark/src/triton/matmul.py":20:0), %arg3: i32 {tt.divisibility = 16 : i32} loc("/home/yuhao/T_RVV/benchmark/src/triton/matmul.py":20:0), %arg4: i32 {tt.divisibility = 16 : i32} loc("/home/yuhao/T_RVV/benchmark/src/triton/matmul.py":20:0), %arg5: i32 {tt.divisibility = 16 : i32} loc("/home/yuhao/T_RVV/benchmark/src/triton/matmul.py":20:0), %arg6: i32 {tt.divisibility = 16 : i32} loc("/home/yuhao/T_RVV/benchmark/src/triton/matmul.py":20:0), %arg7: i32 {tt.divisibility = 16 : i32} loc("/home/yuhao/T_RVV/benchmark/src/triton/matmul.py":20:0), %arg8: i32 {tt.divisibility = 16 : i32} loc("/home/yuhao/T_RVV/benchmark/src/triton/matmul.py":20:0)) attributes {noinline = false} {
    %c7_i32 = arith.constant 7 : i32 loc(#loc1)
    %c1_i32 = arith.constant 1 : i32 loc(#loc1)
    %c0_i32 = arith.constant 0 : i32 loc(#loc1)
    %cst = arith.constant dense<8> : tensor<8x8xi32> loc(#loc1)
    %cst_0 = arith.constant dense<0.000000e+00> : tensor<8x8xf32> loc(#loc1)
    %c8_i32 = arith.constant 8 : i32 loc(#loc1)
    %c4_i32 = arith.constant 4 : i32 loc(#loc1)
    %0 = tt.get_program_id x : i32 loc(#loc2)
    %1 = arith.addi %arg3, %c7_i32 : i32 loc(#loc62)
    %2 = arith.divsi %1, %c8_i32 : i32 loc(#loc63)
    %3 = arith.addi %arg4, %c7_i32 : i32 loc(#loc64)
    %4 = arith.divsi %3, %c8_i32 : i32 loc(#loc65)
    %5 = arith.muli %4, %c4_i32 : i32 loc(#loc7)
    %6 = arith.divsi %0, %5 : i32 loc(#loc8)
    %7 = arith.muli %6, %c4_i32 : i32 loc(#loc9)
    %8 = arith.subi %2, %7 : i32 loc(#loc10)
    %9 = arith.minsi %8, %c4_i32 : i32 loc(#loc11)
    %10 = arith.remsi %0, %9 : i32 loc(#loc12)
    %11 = arith.addi %7, %10 : i32 loc(#loc13)
    %12 = arith.remsi %0, %5 : i32 loc(#loc14)
    %13 = arith.divsi %12, %9 : i32 loc(#loc15)
    %14 = arith.muli %11, %c8_i32 : i32 loc(#loc16)
    %15 = tt.make_range {end = 8 : i32, start = 0 : i32} : tensor<8xi32> loc(#loc17)
    %16 = tt.splat %14 : i32 -> tensor<8xi32> loc(#loc18)
    %17 = arith.addi %16, %15 : tensor<8xi32> loc(#loc18)
    %18 = tt.splat %arg3 : i32 -> tensor<8xi32> loc(#loc19)
    %19 = arith.remsi %17, %18 : tensor<8xi32> loc(#loc19)
    %20 = arith.muli %13, %c8_i32 : i32 loc(#loc20)
    %21 = tt.make_range {end = 8 : i32, start = 0 : i32} : tensor<8xi32> loc(#loc21)
    %22 = tt.splat %20 : i32 -> tensor<8xi32> loc(#loc22)
    %23 = arith.addi %22, %21 : tensor<8xi32> loc(#loc22)
    %24 = tt.splat %arg4 : i32 -> tensor<8xi32> loc(#loc23)
    %25 = arith.remsi %23, %24 : tensor<8xi32> loc(#loc23)
    %26 = tt.make_range {end = 8 : i32, start = 0 : i32} : tensor<8xi32> loc(#loc24)
    %27 = tt.expand_dims %19 {axis = 1 : i32} : tensor<8xi32> -> tensor<8x1xi32> loc(#loc25)
    %28 = tt.splat %arg6 : i32 -> tensor<8x1xi32> loc(#loc26)
    %29 = arith.muli %27, %28 : tensor<8x1xi32> loc(#loc26)
    %30 = tt.expand_dims %26 {axis = 0 : i32} : tensor<8xi32> -> tensor<1x8xi32> loc(#loc27)
    %31 = tt.broadcast %29 : tensor<8x1xi32> -> tensor<8x8xi32> loc(#loc28)
    %32 = tt.broadcast %30 : tensor<1x8xi32> -> tensor<8x8xi32> loc(#loc28)
    %33 = arith.addi %31, %32 : tensor<8x8xi32> loc(#loc28)
    %34 = tt.splat %arg0 : !tt.ptr<f32> -> tensor<8x8x!tt.ptr<f32>> loc(#loc29)
    %35 = tt.addptr %34, %33 : tensor<8x8x!tt.ptr<f32>>, tensor<8x8xi32> loc(#loc29)
    %36 = tt.expand_dims %26 {axis = 1 : i32} : tensor<8xi32> -> tensor<8x1xi32> loc(#loc30)
    %37 = tt.splat %arg7 : i32 -> tensor<8x1xi32> loc(#loc31)
    %38 = arith.muli %36, %37 : tensor<8x1xi32> loc(#loc31)
    %39 = tt.expand_dims %25 {axis = 0 : i32} : tensor<8xi32> -> tensor<1x8xi32> loc(#loc32)
    %40 = tt.broadcast %38 : tensor<8x1xi32> -> tensor<8x8xi32> loc(#loc33)
    %41 = tt.broadcast %39 : tensor<1x8xi32> -> tensor<8x8xi32> loc(#loc33)
    %42 = arith.addi %40, %41 : tensor<8x8xi32> loc(#loc33)
    %43 = tt.splat %arg1 : !tt.ptr<f32> -> tensor<8x8x!tt.ptr<f32>> loc(#loc34)
    %44 = tt.addptr %43, %42 : tensor<8x8x!tt.ptr<f32>>, tensor<8x8xi32> loc(#loc34)
    %45 = arith.addi %arg5, %c7_i32 : i32 loc(#loc66)
    %46 = arith.divsi %45, %c8_i32 : i32 loc(#loc67)
    %47:3 = scf.for %arg9 = %c0_i32 to %46 step %c1_i32 iter_args(%arg10 = %cst_0, %arg11 = %35, %arg12 = %44) -> (tensor<8x8xf32>, tensor<8x8x!tt.ptr<f32>>, tensor<8x8x!tt.ptr<f32>>)  : i32 {
      %74 = tt.load %arg11 : tensor<8x8x!tt.ptr<f32>> loc(#loc37)
      %75 = tt.load %arg12 : tensor<8x8x!tt.ptr<f32>> loc(#loc38)
      %76 = tt.dot %74, %75, %arg10, inputPrecision = tf32 : tensor<8x8xf32> * tensor<8x8xf32> -> tensor<8x8xf32> loc(#loc39)
      %77 = tt.addptr %arg11, %cst : tensor<8x8x!tt.ptr<f32>>, tensor<8x8xi32> loc(#loc40)
      %78 = arith.muli %arg7, %c8_i32 : i32 loc(#loc41)
      %79 = tt.splat %78 : i32 -> tensor<8x8xi32> loc(#loc42)
      %80 = tt.addptr %arg12, %79 : tensor<8x8x!tt.ptr<f32>>, tensor<8x8xi32> loc(#loc42)
      scf.yield %76, %77, %80 : tensor<8x8xf32>, tensor<8x8x!tt.ptr<f32>>, tensor<8x8x!tt.ptr<f32>> loc(#loc43)
    } loc(#loc36)
    %48 = arith.muli %11, %c8_i32 : i32 loc(#loc44)
    %49 = tt.make_range {end = 8 : i32, start = 0 : i32} : tensor<8xi32> loc(#loc45)
    %50 = tt.splat %48 : i32 -> tensor<8xi32> loc(#loc46)
    %51 = arith.addi %50, %49 : tensor<8xi32> loc(#loc46)
    %52 = arith.muli %13, %c8_i32 : i32 loc(#loc47)
    %53 = tt.make_range {end = 8 : i32, start = 0 : i32} : tensor<8xi32> loc(#loc48)
    %54 = tt.splat %52 : i32 -> tensor<8xi32> loc(#loc49)
    %55 = arith.addi %54, %53 : tensor<8xi32> loc(#loc49)
    %56 = tt.expand_dims %51 {axis = 1 : i32} : tensor<8xi32> -> tensor<8x1xi32> loc(#loc50)
    %57 = tt.splat %arg8 : i32 -> tensor<8x1xi32> loc(#loc51)
    %58 = arith.muli %57, %56 : tensor<8x1xi32> loc(#loc51)
    %59 = tt.splat %arg2 : !tt.ptr<f32> -> tensor<8x1x!tt.ptr<f32>> loc(#loc52)
    %60 = tt.addptr %59, %58 : tensor<8x1x!tt.ptr<f32>>, tensor<8x1xi32> loc(#loc52)
    %61 = tt.expand_dims %55 {axis = 0 : i32} : tensor<8xi32> -> tensor<1x8xi32> loc(#loc53)
    %62 = tt.broadcast %60 : tensor<8x1x!tt.ptr<f32>> -> tensor<8x8x!tt.ptr<f32>> loc(#loc54)
    %63 = tt.broadcast %61 : tensor<1x8xi32> -> tensor<8x8xi32> loc(#loc54)
    %64 = tt.addptr %62, %63 : tensor<8x8x!tt.ptr<f32>>, tensor<8x8xi32> loc(#loc54)
    %65 = tt.expand_dims %51 {axis = 1 : i32} : tensor<8xi32> -> tensor<8x1xi32> loc(#loc55)
    %66 = tt.splat %arg3 : i32 -> tensor<8x1xi32> loc(#loc56)
    %67 = arith.cmpi slt, %65, %66 : tensor<8x1xi32> loc(#loc56)
    %68 = tt.expand_dims %55 {axis = 0 : i32} : tensor<8xi32> -> tensor<1x8xi32> loc(#loc57)
    %69 = tt.splat %arg4 : i32 -> tensor<1x8xi32> loc(#loc58)
    %70 = arith.cmpi slt, %68, %69 : tensor<1x8xi32> loc(#loc58)
    %71 = tt.broadcast %67 : tensor<8x1xi1> -> tensor<8x8xi1> loc(#loc59)
    %72 = tt.broadcast %70 : tensor<1x8xi1> -> tensor<8x8xi1> loc(#loc59)
    %73 = arith.andi %71, %72 : tensor<8x8xi1> loc(#loc59)
    tt.store %64, %47#0, %73 : tensor<8x8x!tt.ptr<f32>> loc(#loc60)
    tt.return loc(#loc61)
  } loc(#loc)
} loc(#loc)
#loc1 = loc(unknown)
#loc2 = loc("/home/yuhao/T_RVV/benchmark/src/triton/matmul.py":40:24)
#loc3 = loc("/home/yuhao/triton-cpu/python/triton/language/standard.py":40:22)
#loc4 = loc("/home/yuhao/T_RVV/benchmark/src/triton/matmul.py":41:27)
#loc5 = loc("/home/yuhao/triton-cpu/python/triton/language/standard.py":40:28)
#loc6 = loc("/home/yuhao/T_RVV/benchmark/src/triton/matmul.py":42:27)
#loc7 = loc("/home/yuhao/T_RVV/benchmark/src/triton/matmul.py":43:38)
#loc8 = loc("/home/yuhao/T_RVV/benchmark/src/triton/matmul.py":44:22)
#loc9 = loc("/home/yuhao/T_RVV/benchmark/src/triton/matmul.py":45:29)
#loc10 = loc("/home/yuhao/T_RVV/benchmark/src/triton/matmul.py":46:35)
#loc11 = loc("/home/yuhao/T_RVV/benchmark/src/triton/matmul.py":46:48)
#loc12 = loc("/home/yuhao/T_RVV/benchmark/src/triton/matmul.py":47:33)
#loc13 = loc("/home/yuhao/T_RVV/benchmark/src/triton/matmul.py":47:27)
#loc14 = loc("/home/yuhao/T_RVV/benchmark/src/triton/matmul.py":48:19)
#loc15 = loc("/home/yuhao/T_RVV/benchmark/src/triton/matmul.py":48:40)
#loc16 = loc("/home/yuhao/T_RVV/benchmark/src/triton/matmul.py":72:23)
#loc17 = loc("/home/yuhao/T_RVV/benchmark/src/triton/matmul.py":72:51)
#loc18 = loc("/home/yuhao/T_RVV/benchmark/src/triton/matmul.py":72:38)
#loc19 = loc("/home/yuhao/T_RVV/benchmark/src/triton/matmul.py":72:68)
#loc20 = loc("/home/yuhao/T_RVV/benchmark/src/triton/matmul.py":73:23)
#loc21 = loc("/home/yuhao/T_RVV/benchmark/src/triton/matmul.py":73:51)
#loc22 = loc("/home/yuhao/T_RVV/benchmark/src/triton/matmul.py":73:38)
#loc23 = loc("/home/yuhao/T_RVV/benchmark/src/triton/matmul.py":73:68)
#loc24 = loc("/home/yuhao/T_RVV/benchmark/src/triton/matmul.py":74:26)
#loc25 = loc("/home/yuhao/T_RVV/benchmark/src/triton/matmul.py":75:34)
#loc26 = loc("/home/yuhao/T_RVV/benchmark/src/triton/matmul.py":75:45)
#loc27 = loc("/home/yuhao/T_RVV/benchmark/src/triton/matmul.py":75:64)
#loc28 = loc("/home/yuhao/T_RVV/benchmark/src/triton/matmul.py":75:57)
#loc29 = loc("/home/yuhao/T_RVV/benchmark/src/triton/matmul.py":75:26)
#loc30 = loc("/home/yuhao/T_RVV/benchmark/src/triton/matmul.py":76:33)
#loc31 = loc("/home/yuhao/T_RVV/benchmark/src/triton/matmul.py":76:44)
#loc32 = loc("/home/yuhao/T_RVV/benchmark/src/triton/matmul.py":76:64)
#loc33 = loc("/home/yuhao/T_RVV/benchmark/src/triton/matmul.py":76:56)
#loc34 = loc("/home/yuhao/T_RVV/benchmark/src/triton/matmul.py":76:26)
#loc35 = loc("/home/yuhao/T_RVV/benchmark/src/triton/matmul.py":85:33)
#loc36 = loc("/home/yuhao/T_RVV/benchmark/src/triton/matmul.py":85:22)
#loc37 = loc("/home/yuhao/T_RVV/benchmark/src/triton/matmul.py":88:20)
#loc38 = loc("/home/yuhao/T_RVV/benchmark/src/triton/matmul.py":89:20)
#loc39 = loc("/home/yuhao/T_RVV/benchmark/src/triton/matmul.py":92:33)
#loc40 = loc("/home/yuhao/T_RVV/benchmark/src/triton/matmul.py":100:22)
#loc41 = loc("/home/yuhao/T_RVV/benchmark/src/triton/matmul.py":101:37)
#loc42 = loc("/home/yuhao/T_RVV/benchmark/src/triton/matmul.py":101:22)
#loc43 = loc("/home/yuhao/T_RVV/benchmark/src/triton/matmul.py":101:8)
#loc44 = loc("/home/yuhao/T_RVV/benchmark/src/triton/matmul.py":112:22)
#loc45 = loc("/home/yuhao/T_RVV/benchmark/src/triton/matmul.py":112:50)
#loc46 = loc("/home/yuhao/T_RVV/benchmark/src/triton/matmul.py":112:37)
#loc47 = loc("/home/yuhao/T_RVV/benchmark/src/triton/matmul.py":113:22)
#loc48 = loc("/home/yuhao/T_RVV/benchmark/src/triton/matmul.py":113:50)
#loc49 = loc("/home/yuhao/T_RVV/benchmark/src/triton/matmul.py":113:37)
#loc50 = loc("/home/yuhao/T_RVV/benchmark/src/triton/matmul.py":114:41)
#loc51 = loc("/home/yuhao/T_RVV/benchmark/src/triton/matmul.py":114:33)
#loc52 = loc("/home/yuhao/T_RVV/benchmark/src/triton/matmul.py":114:21)
#loc53 = loc("/home/yuhao/T_RVV/benchmark/src/triton/matmul.py":114:72)
#loc54 = loc("/home/yuhao/T_RVV/benchmark/src/triton/matmul.py":114:52)
#loc55 = loc("/home/yuhao/T_RVV/benchmark/src/triton/matmul.py":115:22)
#loc56 = loc("/home/yuhao/T_RVV/benchmark/src/triton/matmul.py":115:33)
#loc57 = loc("/home/yuhao/T_RVV/benchmark/src/triton/matmul.py":115:47)
#loc58 = loc("/home/yuhao/T_RVV/benchmark/src/triton/matmul.py":115:58)
#loc59 = loc("/home/yuhao/T_RVV/benchmark/src/triton/matmul.py":115:39)
#loc60 = loc("/home/yuhao/T_RVV/benchmark/src/triton/matmul.py":116:21)
#loc61 = loc("/home/yuhao/T_RVV/benchmark/src/triton/matmul.py":116:4)
#loc62 = loc(callsite(#loc3 at #loc4))
#loc63 = loc(callsite(#loc5 at #loc4))
#loc64 = loc(callsite(#loc3 at #loc6))
#loc65 = loc(callsite(#loc5 at #loc6))
#loc66 = loc(callsite(#loc3 at #loc35))
#loc67 = loc(callsite(#loc5 at #loc35))


// -----// IR Dump Before LoopInvariantCodeMotion (loop-invariant-code-motion) ('builtin.module' operation) //----- //
#loc = loc("/home/yuhao/T_RVV/benchmark/src/triton/matmul.py":20:0)
module {
  tt.func public @matmul_kernel(%arg0: !tt.ptr<f32> {tt.divisibility = 16 : i32} loc("/home/yuhao/T_RVV/benchmark/src/triton/matmul.py":20:0), %arg1: !tt.ptr<f32> {tt.divisibility = 16 : i32} loc("/home/yuhao/T_RVV/benchmark/src/triton/matmul.py":20:0), %arg2: !tt.ptr<f32> {tt.divisibility = 16 : i32} loc("/home/yuhao/T_RVV/benchmark/src/triton/matmul.py":20:0), %arg3: i32 {tt.divisibility = 16 : i32} loc("/home/yuhao/T_RVV/benchmark/src/triton/matmul.py":20:0), %arg4: i32 {tt.divisibility = 16 : i32} loc("/home/yuhao/T_RVV/benchmark/src/triton/matmul.py":20:0), %arg5: i32 {tt.divisibility = 16 : i32} loc("/home/yuhao/T_RVV/benchmark/src/triton/matmul.py":20:0), %arg6: i32 {tt.divisibility = 16 : i32} loc("/home/yuhao/T_RVV/benchmark/src/triton/matmul.py":20:0), %arg7: i32 {tt.divisibility = 16 : i32} loc("/home/yuhao/T_RVV/benchmark/src/triton/matmul.py":20:0), %arg8: i32 {tt.divisibility = 16 : i32} loc("/home/yuhao/T_RVV/benchmark/src/triton/matmul.py":20:0)) attributes {noinline = false} {
    %c7_i32 = arith.constant 7 : i32 loc(#loc1)
    %c1_i32 = arith.constant 1 : i32 loc(#loc1)
    %c0_i32 = arith.constant 0 : i32 loc(#loc1)
    %cst = arith.constant dense<8> : tensor<8x8xi32> loc(#loc1)
    %cst_0 = arith.constant dense<0.000000e+00> : tensor<8x8xf32> loc(#loc1)
    %c8_i32 = arith.constant 8 : i32 loc(#loc1)
    %c4_i32 = arith.constant 4 : i32 loc(#loc1)
    %0 = tt.get_program_id x : i32 loc(#loc2)
    %1 = arith.addi %arg3, %c7_i32 : i32 loc(#loc52)
    %2 = arith.divsi %1, %c8_i32 : i32 loc(#loc53)
    %3 = arith.addi %arg4, %c7_i32 : i32 loc(#loc54)
    %4 = arith.divsi %3, %c8_i32 : i32 loc(#loc55)
    %5 = arith.muli %4, %c4_i32 : i32 loc(#loc7)
    %6 = arith.divsi %0, %5 : i32 loc(#loc8)
    %7 = arith.muli %6, %c4_i32 : i32 loc(#loc9)
    %8 = arith.subi %2, %7 : i32 loc(#loc10)
    %9 = arith.minsi %8, %c4_i32 : i32 loc(#loc11)
    %10 = arith.remsi %0, %9 : i32 loc(#loc12)
    %11 = arith.addi %7, %10 : i32 loc(#loc13)
    %12 = arith.remsi %0, %5 : i32 loc(#loc14)
    %13 = arith.divsi %12, %9 : i32 loc(#loc15)
    %14 = arith.muli %11, %c8_i32 : i32 loc(#loc16)
    %15 = tt.make_range {end = 8 : i32, start = 0 : i32} : tensor<8xi32> loc(#loc17)
    %16 = tt.splat %14 : i32 -> tensor<8xi32> loc(#loc18)
    %17 = arith.addi %16, %15 : tensor<8xi32> loc(#loc18)
    %18 = tt.splat %arg3 : i32 -> tensor<8xi32> loc(#loc19)
    %19 = arith.remsi %17, %18 : tensor<8xi32> loc(#loc19)
    %20 = arith.muli %13, %c8_i32 : i32 loc(#loc20)
    %21 = tt.splat %20 : i32 -> tensor<8xi32> loc(#loc21)
    %22 = arith.addi %21, %15 : tensor<8xi32> loc(#loc21)
    %23 = tt.splat %arg4 : i32 -> tensor<8xi32> loc(#loc22)
    %24 = arith.remsi %22, %23 : tensor<8xi32> loc(#loc22)
    %25 = tt.expand_dims %19 {axis = 1 : i32} : tensor<8xi32> -> tensor<8x1xi32> loc(#loc23)
    %26 = tt.splat %arg6 : i32 -> tensor<8x1xi32> loc(#loc24)
    %27 = arith.muli %25, %26 : tensor<8x1xi32> loc(#loc24)
    %28 = tt.expand_dims %15 {axis = 0 : i32} : tensor<8xi32> -> tensor<1x8xi32> loc(#loc25)
    %29 = tt.broadcast %27 : tensor<8x1xi32> -> tensor<8x8xi32> loc(#loc26)
    %30 = tt.broadcast %28 : tensor<1x8xi32> -> tensor<8x8xi32> loc(#loc26)
    %31 = arith.addi %29, %30 : tensor<8x8xi32> loc(#loc26)
    %32 = tt.splat %arg0 : !tt.ptr<f32> -> tensor<8x8x!tt.ptr<f32>> loc(#loc27)
    %33 = tt.addptr %32, %31 : tensor<8x8x!tt.ptr<f32>>, tensor<8x8xi32> loc(#loc27)
    %34 = tt.expand_dims %15 {axis = 1 : i32} : tensor<8xi32> -> tensor<8x1xi32> loc(#loc28)
    %35 = tt.splat %arg7 : i32 -> tensor<8x1xi32> loc(#loc29)
    %36 = arith.muli %34, %35 : tensor<8x1xi32> loc(#loc29)
    %37 = tt.expand_dims %24 {axis = 0 : i32} : tensor<8xi32> -> tensor<1x8xi32> loc(#loc30)
    %38 = tt.broadcast %36 : tensor<8x1xi32> -> tensor<8x8xi32> loc(#loc31)
    %39 = tt.broadcast %37 : tensor<1x8xi32> -> tensor<8x8xi32> loc(#loc31)
    %40 = arith.addi %38, %39 : tensor<8x8xi32> loc(#loc31)
    %41 = tt.splat %arg1 : !tt.ptr<f32> -> tensor<8x8x!tt.ptr<f32>> loc(#loc32)
    %42 = tt.addptr %41, %40 : tensor<8x8x!tt.ptr<f32>>, tensor<8x8xi32> loc(#loc32)
    %43 = arith.addi %arg5, %c7_i32 : i32 loc(#loc56)
    %44 = arith.divsi %43, %c8_i32 : i32 loc(#loc57)
    %45:3 = scf.for %arg9 = %c0_i32 to %44 step %c1_i32 iter_args(%arg10 = %cst_0, %arg11 = %33, %arg12 = %42) -> (tensor<8x8xf32>, tensor<8x8x!tt.ptr<f32>>, tensor<8x8x!tt.ptr<f32>>)  : i32 {
      %62 = tt.load %arg11 : tensor<8x8x!tt.ptr<f32>> loc(#loc35)
      %63 = tt.load %arg12 : tensor<8x8x!tt.ptr<f32>> loc(#loc36)
      %64 = tt.dot %62, %63, %arg10, inputPrecision = tf32 : tensor<8x8xf32> * tensor<8x8xf32> -> tensor<8x8xf32> loc(#loc37)
      %65 = tt.addptr %arg11, %cst : tensor<8x8x!tt.ptr<f32>>, tensor<8x8xi32> loc(#loc38)
      %66 = arith.muli %arg7, %c8_i32 : i32 loc(#loc39)
      %67 = tt.splat %66 : i32 -> tensor<8x8xi32> loc(#loc40)
      %68 = tt.addptr %arg12, %67 : tensor<8x8x!tt.ptr<f32>>, tensor<8x8xi32> loc(#loc40)
      scf.yield %64, %65, %68 : tensor<8x8xf32>, tensor<8x8x!tt.ptr<f32>>, tensor<8x8x!tt.ptr<f32>> loc(#loc41)
    } loc(#loc34)
    %46 = tt.expand_dims %17 {axis = 1 : i32} : tensor<8xi32> -> tensor<8x1xi32> loc(#loc42)
    %47 = tt.splat %arg8 : i32 -> tensor<8x1xi32> loc(#loc43)
    %48 = arith.muli %47, %46 : tensor<8x1xi32> loc(#loc43)
    %49 = tt.splat %arg2 : !tt.ptr<f32> -> tensor<8x1x!tt.ptr<f32>> loc(#loc44)
    %50 = tt.addptr %49, %48 : tensor<8x1x!tt.ptr<f32>>, tensor<8x1xi32> loc(#loc44)
    %51 = tt.expand_dims %22 {axis = 0 : i32} : tensor<8xi32> -> tensor<1x8xi32> loc(#loc45)
    %52 = tt.broadcast %50 : tensor<8x1x!tt.ptr<f32>> -> tensor<8x8x!tt.ptr<f32>> loc(#loc46)
    %53 = tt.broadcast %51 : tensor<1x8xi32> -> tensor<8x8xi32> loc(#loc46)
    %54 = tt.addptr %52, %53 : tensor<8x8x!tt.ptr<f32>>, tensor<8x8xi32> loc(#loc46)
    %55 = tt.splat %arg3 : i32 -> tensor<8x1xi32> loc(#loc47)
    %56 = arith.cmpi slt, %46, %55 : tensor<8x1xi32> loc(#loc47)
    %57 = tt.splat %arg4 : i32 -> tensor<1x8xi32> loc(#loc48)
    %58 = arith.cmpi slt, %51, %57 : tensor<1x8xi32> loc(#loc48)
    %59 = tt.broadcast %56 : tensor<8x1xi1> -> tensor<8x8xi1> loc(#loc49)
    %60 = tt.broadcast %58 : tensor<1x8xi1> -> tensor<8x8xi1> loc(#loc49)
    %61 = arith.andi %59, %60 : tensor<8x8xi1> loc(#loc49)
    tt.store %54, %45#0, %61 : tensor<8x8x!tt.ptr<f32>> loc(#loc50)
    tt.return loc(#loc51)
  } loc(#loc)
} loc(#loc)
#loc1 = loc(unknown)
#loc2 = loc("/home/yuhao/T_RVV/benchmark/src/triton/matmul.py":40:24)
#loc3 = loc("/home/yuhao/triton-cpu/python/triton/language/standard.py":40:22)
#loc4 = loc("/home/yuhao/T_RVV/benchmark/src/triton/matmul.py":41:27)
#loc5 = loc("/home/yuhao/triton-cpu/python/triton/language/standard.py":40:28)
#loc6 = loc("/home/yuhao/T_RVV/benchmark/src/triton/matmul.py":42:27)
#loc7 = loc("/home/yuhao/T_RVV/benchmark/src/triton/matmul.py":43:38)
#loc8 = loc("/home/yuhao/T_RVV/benchmark/src/triton/matmul.py":44:22)
#loc9 = loc("/home/yuhao/T_RVV/benchmark/src/triton/matmul.py":45:29)
#loc10 = loc("/home/yuhao/T_RVV/benchmark/src/triton/matmul.py":46:35)
#loc11 = loc("/home/yuhao/T_RVV/benchmark/src/triton/matmul.py":46:48)
#loc12 = loc("/home/yuhao/T_RVV/benchmark/src/triton/matmul.py":47:33)
#loc13 = loc("/home/yuhao/T_RVV/benchmark/src/triton/matmul.py":47:27)
#loc14 = loc("/home/yuhao/T_RVV/benchmark/src/triton/matmul.py":48:19)
#loc15 = loc("/home/yuhao/T_RVV/benchmark/src/triton/matmul.py":48:40)
#loc16 = loc("/home/yuhao/T_RVV/benchmark/src/triton/matmul.py":72:23)
#loc17 = loc("/home/yuhao/T_RVV/benchmark/src/triton/matmul.py":72:51)
#loc18 = loc("/home/yuhao/T_RVV/benchmark/src/triton/matmul.py":72:38)
#loc19 = loc("/home/yuhao/T_RVV/benchmark/src/triton/matmul.py":72:68)
#loc20 = loc("/home/yuhao/T_RVV/benchmark/src/triton/matmul.py":73:23)
#loc21 = loc("/home/yuhao/T_RVV/benchmark/src/triton/matmul.py":73:38)
#loc22 = loc("/home/yuhao/T_RVV/benchmark/src/triton/matmul.py":73:68)
#loc23 = loc("/home/yuhao/T_RVV/benchmark/src/triton/matmul.py":75:34)
#loc24 = loc("/home/yuhao/T_RVV/benchmark/src/triton/matmul.py":75:45)
#loc25 = loc("/home/yuhao/T_RVV/benchmark/src/triton/matmul.py":75:64)
#loc26 = loc("/home/yuhao/T_RVV/benchmark/src/triton/matmul.py":75:57)
#loc27 = loc("/home/yuhao/T_RVV/benchmark/src/triton/matmul.py":75:26)
#loc28 = loc("/home/yuhao/T_RVV/benchmark/src/triton/matmul.py":76:33)
#loc29 = loc("/home/yuhao/T_RVV/benchmark/src/triton/matmul.py":76:44)
#loc30 = loc("/home/yuhao/T_RVV/benchmark/src/triton/matmul.py":76:64)
#loc31 = loc("/home/yuhao/T_RVV/benchmark/src/triton/matmul.py":76:56)
#loc32 = loc("/home/yuhao/T_RVV/benchmark/src/triton/matmul.py":76:26)
#loc33 = loc("/home/yuhao/T_RVV/benchmark/src/triton/matmul.py":85:33)
#loc34 = loc("/home/yuhao/T_RVV/benchmark/src/triton/matmul.py":85:22)
#loc35 = loc("/home/yuhao/T_RVV/benchmark/src/triton/matmul.py":88:20)
#loc36 = loc("/home/yuhao/T_RVV/benchmark/src/triton/matmul.py":89:20)
#loc37 = loc("/home/yuhao/T_RVV/benchmark/src/triton/matmul.py":92:33)
#loc38 = loc("/home/yuhao/T_RVV/benchmark/src/triton/matmul.py":100:22)
#loc39 = loc("/home/yuhao/T_RVV/benchmark/src/triton/matmul.py":101:37)
#loc40 = loc("/home/yuhao/T_RVV/benchmark/src/triton/matmul.py":101:22)
#loc41 = loc("/home/yuhao/T_RVV/benchmark/src/triton/matmul.py":101:8)
#loc42 = loc("/home/yuhao/T_RVV/benchmark/src/triton/matmul.py":114:41)
#loc43 = loc("/home/yuhao/T_RVV/benchmark/src/triton/matmul.py":114:33)
#loc44 = loc("/home/yuhao/T_RVV/benchmark/src/triton/matmul.py":114:21)
#loc45 = loc("/home/yuhao/T_RVV/benchmark/src/triton/matmul.py":114:72)
#loc46 = loc("/home/yuhao/T_RVV/benchmark/src/triton/matmul.py":114:52)
#loc47 = loc("/home/yuhao/T_RVV/benchmark/src/triton/matmul.py":115:33)
#loc48 = loc("/home/yuhao/T_RVV/benchmark/src/triton/matmul.py":115:58)
#loc49 = loc("/home/yuhao/T_RVV/benchmark/src/triton/matmul.py":115:39)
#loc50 = loc("/home/yuhao/T_RVV/benchmark/src/triton/matmul.py":116:21)
#loc51 = loc("/home/yuhao/T_RVV/benchmark/src/triton/matmul.py":116:4)
#loc52 = loc(callsite(#loc3 at #loc4))
#loc53 = loc(callsite(#loc5 at #loc4))
#loc54 = loc(callsite(#loc3 at #loc6))
#loc55 = loc(callsite(#loc5 at #loc6))
#loc56 = loc(callsite(#loc3 at #loc33))
#loc57 = loc(callsite(#loc5 at #loc33))


// -----// IR Dump Before SymbolDCE (symbol-dce) ('builtin.module' operation) //----- //
#loc = loc("/home/yuhao/T_RVV/benchmark/src/triton/matmul.py":20:0)
module {
  tt.func public @matmul_kernel(%arg0: !tt.ptr<f32> {tt.divisibility = 16 : i32} loc("/home/yuhao/T_RVV/benchmark/src/triton/matmul.py":20:0), %arg1: !tt.ptr<f32> {tt.divisibility = 16 : i32} loc("/home/yuhao/T_RVV/benchmark/src/triton/matmul.py":20:0), %arg2: !tt.ptr<f32> {tt.divisibility = 16 : i32} loc("/home/yuhao/T_RVV/benchmark/src/triton/matmul.py":20:0), %arg3: i32 {tt.divisibility = 16 : i32} loc("/home/yuhao/T_RVV/benchmark/src/triton/matmul.py":20:0), %arg4: i32 {tt.divisibility = 16 : i32} loc("/home/yuhao/T_RVV/benchmark/src/triton/matmul.py":20:0), %arg5: i32 {tt.divisibility = 16 : i32} loc("/home/yuhao/T_RVV/benchmark/src/triton/matmul.py":20:0), %arg6: i32 {tt.divisibility = 16 : i32} loc("/home/yuhao/T_RVV/benchmark/src/triton/matmul.py":20:0), %arg7: i32 {tt.divisibility = 16 : i32} loc("/home/yuhao/T_RVV/benchmark/src/triton/matmul.py":20:0), %arg8: i32 {tt.divisibility = 16 : i32} loc("/home/yuhao/T_RVV/benchmark/src/triton/matmul.py":20:0)) attributes {noinline = false} {
    %c7_i32 = arith.constant 7 : i32 loc(#loc1)
    %c1_i32 = arith.constant 1 : i32 loc(#loc1)
    %c0_i32 = arith.constant 0 : i32 loc(#loc1)
    %cst = arith.constant dense<8> : tensor<8x8xi32> loc(#loc1)
    %cst_0 = arith.constant dense<0.000000e+00> : tensor<8x8xf32> loc(#loc1)
    %c8_i32 = arith.constant 8 : i32 loc(#loc1)
    %c4_i32 = arith.constant 4 : i32 loc(#loc1)
    %0 = tt.get_program_id x : i32 loc(#loc2)
    %1 = arith.addi %arg3, %c7_i32 : i32 loc(#loc52)
    %2 = arith.divsi %1, %c8_i32 : i32 loc(#loc53)
    %3 = arith.addi %arg4, %c7_i32 : i32 loc(#loc54)
    %4 = arith.divsi %3, %c8_i32 : i32 loc(#loc55)
    %5 = arith.muli %4, %c4_i32 : i32 loc(#loc7)
    %6 = arith.divsi %0, %5 : i32 loc(#loc8)
    %7 = arith.muli %6, %c4_i32 : i32 loc(#loc9)
    %8 = arith.subi %2, %7 : i32 loc(#loc10)
    %9 = arith.minsi %8, %c4_i32 : i32 loc(#loc11)
    %10 = arith.remsi %0, %9 : i32 loc(#loc12)
    %11 = arith.addi %7, %10 : i32 loc(#loc13)
    %12 = arith.remsi %0, %5 : i32 loc(#loc14)
    %13 = arith.divsi %12, %9 : i32 loc(#loc15)
    %14 = arith.muli %11, %c8_i32 : i32 loc(#loc16)
    %15 = tt.make_range {end = 8 : i32, start = 0 : i32} : tensor<8xi32> loc(#loc17)
    %16 = tt.splat %14 : i32 -> tensor<8xi32> loc(#loc18)
    %17 = arith.addi %16, %15 : tensor<8xi32> loc(#loc18)
    %18 = tt.splat %arg3 : i32 -> tensor<8xi32> loc(#loc19)
    %19 = arith.remsi %17, %18 : tensor<8xi32> loc(#loc19)
    %20 = arith.muli %13, %c8_i32 : i32 loc(#loc20)
    %21 = tt.splat %20 : i32 -> tensor<8xi32> loc(#loc21)
    %22 = arith.addi %21, %15 : tensor<8xi32> loc(#loc21)
    %23 = tt.splat %arg4 : i32 -> tensor<8xi32> loc(#loc22)
    %24 = arith.remsi %22, %23 : tensor<8xi32> loc(#loc22)
    %25 = tt.expand_dims %19 {axis = 1 : i32} : tensor<8xi32> -> tensor<8x1xi32> loc(#loc23)
    %26 = tt.splat %arg6 : i32 -> tensor<8x1xi32> loc(#loc24)
    %27 = arith.muli %25, %26 : tensor<8x1xi32> loc(#loc24)
    %28 = tt.expand_dims %15 {axis = 0 : i32} : tensor<8xi32> -> tensor<1x8xi32> loc(#loc25)
    %29 = tt.broadcast %27 : tensor<8x1xi32> -> tensor<8x8xi32> loc(#loc26)
    %30 = tt.broadcast %28 : tensor<1x8xi32> -> tensor<8x8xi32> loc(#loc26)
    %31 = arith.addi %29, %30 : tensor<8x8xi32> loc(#loc26)
    %32 = tt.splat %arg0 : !tt.ptr<f32> -> tensor<8x8x!tt.ptr<f32>> loc(#loc27)
    %33 = tt.addptr %32, %31 : tensor<8x8x!tt.ptr<f32>>, tensor<8x8xi32> loc(#loc27)
    %34 = tt.expand_dims %15 {axis = 1 : i32} : tensor<8xi32> -> tensor<8x1xi32> loc(#loc28)
    %35 = tt.splat %arg7 : i32 -> tensor<8x1xi32> loc(#loc29)
    %36 = arith.muli %34, %35 : tensor<8x1xi32> loc(#loc29)
    %37 = tt.expand_dims %24 {axis = 0 : i32} : tensor<8xi32> -> tensor<1x8xi32> loc(#loc30)
    %38 = tt.broadcast %36 : tensor<8x1xi32> -> tensor<8x8xi32> loc(#loc31)
    %39 = tt.broadcast %37 : tensor<1x8xi32> -> tensor<8x8xi32> loc(#loc31)
    %40 = arith.addi %38, %39 : tensor<8x8xi32> loc(#loc31)
    %41 = tt.splat %arg1 : !tt.ptr<f32> -> tensor<8x8x!tt.ptr<f32>> loc(#loc32)
    %42 = tt.addptr %41, %40 : tensor<8x8x!tt.ptr<f32>>, tensor<8x8xi32> loc(#loc32)
    %43 = arith.addi %arg5, %c7_i32 : i32 loc(#loc56)
    %44 = arith.divsi %43, %c8_i32 : i32 loc(#loc57)
    %45 = arith.muli %arg7, %c8_i32 : i32 loc(#loc34)
    %46 = tt.splat %45 : i32 -> tensor<8x8xi32> loc(#loc35)
    %47:3 = scf.for %arg9 = %c0_i32 to %44 step %c1_i32 iter_args(%arg10 = %cst_0, %arg11 = %33, %arg12 = %42) -> (tensor<8x8xf32>, tensor<8x8x!tt.ptr<f32>>, tensor<8x8x!tt.ptr<f32>>)  : i32 {
      %64 = tt.load %arg11 : tensor<8x8x!tt.ptr<f32>> loc(#loc37)
      %65 = tt.load %arg12 : tensor<8x8x!tt.ptr<f32>> loc(#loc38)
      %66 = tt.dot %64, %65, %arg10, inputPrecision = tf32 : tensor<8x8xf32> * tensor<8x8xf32> -> tensor<8x8xf32> loc(#loc39)
      %67 = tt.addptr %arg11, %cst : tensor<8x8x!tt.ptr<f32>>, tensor<8x8xi32> loc(#loc40)
      %68 = tt.addptr %arg12, %46 : tensor<8x8x!tt.ptr<f32>>, tensor<8x8xi32> loc(#loc35)
      scf.yield %66, %67, %68 : tensor<8x8xf32>, tensor<8x8x!tt.ptr<f32>>, tensor<8x8x!tt.ptr<f32>> loc(#loc41)
    } loc(#loc36)
    %48 = tt.expand_dims %17 {axis = 1 : i32} : tensor<8xi32> -> tensor<8x1xi32> loc(#loc42)
    %49 = tt.splat %arg8 : i32 -> tensor<8x1xi32> loc(#loc43)
    %50 = arith.muli %49, %48 : tensor<8x1xi32> loc(#loc43)
    %51 = tt.splat %arg2 : !tt.ptr<f32> -> tensor<8x1x!tt.ptr<f32>> loc(#loc44)
    %52 = tt.addptr %51, %50 : tensor<8x1x!tt.ptr<f32>>, tensor<8x1xi32> loc(#loc44)
    %53 = tt.expand_dims %22 {axis = 0 : i32} : tensor<8xi32> -> tensor<1x8xi32> loc(#loc45)
    %54 = tt.broadcast %52 : tensor<8x1x!tt.ptr<f32>> -> tensor<8x8x!tt.ptr<f32>> loc(#loc46)
    %55 = tt.broadcast %53 : tensor<1x8xi32> -> tensor<8x8xi32> loc(#loc46)
    %56 = tt.addptr %54, %55 : tensor<8x8x!tt.ptr<f32>>, tensor<8x8xi32> loc(#loc46)
    %57 = tt.splat %arg3 : i32 -> tensor<8x1xi32> loc(#loc47)
    %58 = arith.cmpi slt, %48, %57 : tensor<8x1xi32> loc(#loc47)
    %59 = tt.splat %arg4 : i32 -> tensor<1x8xi32> loc(#loc48)
    %60 = arith.cmpi slt, %53, %59 : tensor<1x8xi32> loc(#loc48)
    %61 = tt.broadcast %58 : tensor<8x1xi1> -> tensor<8x8xi1> loc(#loc49)
    %62 = tt.broadcast %60 : tensor<1x8xi1> -> tensor<8x8xi1> loc(#loc49)
    %63 = arith.andi %61, %62 : tensor<8x8xi1> loc(#loc49)
    tt.store %56, %47#0, %63 : tensor<8x8x!tt.ptr<f32>> loc(#loc50)
    tt.return loc(#loc51)
  } loc(#loc)
} loc(#loc)
#loc1 = loc(unknown)
#loc2 = loc("/home/yuhao/T_RVV/benchmark/src/triton/matmul.py":40:24)
#loc3 = loc("/home/yuhao/triton-cpu/python/triton/language/standard.py":40:22)
#loc4 = loc("/home/yuhao/T_RVV/benchmark/src/triton/matmul.py":41:27)
#loc5 = loc("/home/yuhao/triton-cpu/python/triton/language/standard.py":40:28)
#loc6 = loc("/home/yuhao/T_RVV/benchmark/src/triton/matmul.py":42:27)
#loc7 = loc("/home/yuhao/T_RVV/benchmark/src/triton/matmul.py":43:38)
#loc8 = loc("/home/yuhao/T_RVV/benchmark/src/triton/matmul.py":44:22)
#loc9 = loc("/home/yuhao/T_RVV/benchmark/src/triton/matmul.py":45:29)
#loc10 = loc("/home/yuhao/T_RVV/benchmark/src/triton/matmul.py":46:35)
#loc11 = loc("/home/yuhao/T_RVV/benchmark/src/triton/matmul.py":46:48)
#loc12 = loc("/home/yuhao/T_RVV/benchmark/src/triton/matmul.py":47:33)
#loc13 = loc("/home/yuhao/T_RVV/benchmark/src/triton/matmul.py":47:27)
#loc14 = loc("/home/yuhao/T_RVV/benchmark/src/triton/matmul.py":48:19)
#loc15 = loc("/home/yuhao/T_RVV/benchmark/src/triton/matmul.py":48:40)
#loc16 = loc("/home/yuhao/T_RVV/benchmark/src/triton/matmul.py":72:23)
#loc17 = loc("/home/yuhao/T_RVV/benchmark/src/triton/matmul.py":72:51)
#loc18 = loc("/home/yuhao/T_RVV/benchmark/src/triton/matmul.py":72:38)
#loc19 = loc("/home/yuhao/T_RVV/benchmark/src/triton/matmul.py":72:68)
#loc20 = loc("/home/yuhao/T_RVV/benchmark/src/triton/matmul.py":73:23)
#loc21 = loc("/home/yuhao/T_RVV/benchmark/src/triton/matmul.py":73:38)
#loc22 = loc("/home/yuhao/T_RVV/benchmark/src/triton/matmul.py":73:68)
#loc23 = loc("/home/yuhao/T_RVV/benchmark/src/triton/matmul.py":75:34)
#loc24 = loc("/home/yuhao/T_RVV/benchmark/src/triton/matmul.py":75:45)
#loc25 = loc("/home/yuhao/T_RVV/benchmark/src/triton/matmul.py":75:64)
#loc26 = loc("/home/yuhao/T_RVV/benchmark/src/triton/matmul.py":75:57)
#loc27 = loc("/home/yuhao/T_RVV/benchmark/src/triton/matmul.py":75:26)
#loc28 = loc("/home/yuhao/T_RVV/benchmark/src/triton/matmul.py":76:33)
#loc29 = loc("/home/yuhao/T_RVV/benchmark/src/triton/matmul.py":76:44)
#loc30 = loc("/home/yuhao/T_RVV/benchmark/src/triton/matmul.py":76:64)
#loc31 = loc("/home/yuhao/T_RVV/benchmark/src/triton/matmul.py":76:56)
#loc32 = loc("/home/yuhao/T_RVV/benchmark/src/triton/matmul.py":76:26)
#loc33 = loc("/home/yuhao/T_RVV/benchmark/src/triton/matmul.py":85:33)
#loc34 = loc("/home/yuhao/T_RVV/benchmark/src/triton/matmul.py":101:37)
#loc35 = loc("/home/yuhao/T_RVV/benchmark/src/triton/matmul.py":101:22)
#loc36 = loc("/home/yuhao/T_RVV/benchmark/src/triton/matmul.py":85:22)
#loc37 = loc("/home/yuhao/T_RVV/benchmark/src/triton/matmul.py":88:20)
#loc38 = loc("/home/yuhao/T_RVV/benchmark/src/triton/matmul.py":89:20)
#loc39 = loc("/home/yuhao/T_RVV/benchmark/src/triton/matmul.py":92:33)
#loc40 = loc("/home/yuhao/T_RVV/benchmark/src/triton/matmul.py":100:22)
#loc41 = loc("/home/yuhao/T_RVV/benchmark/src/triton/matmul.py":101:8)
#loc42 = loc("/home/yuhao/T_RVV/benchmark/src/triton/matmul.py":114:41)
#loc43 = loc("/home/yuhao/T_RVV/benchmark/src/triton/matmul.py":114:33)
#loc44 = loc("/home/yuhao/T_RVV/benchmark/src/triton/matmul.py":114:21)
#loc45 = loc("/home/yuhao/T_RVV/benchmark/src/triton/matmul.py":114:72)
#loc46 = loc("/home/yuhao/T_RVV/benchmark/src/triton/matmul.py":114:52)
#loc47 = loc("/home/yuhao/T_RVV/benchmark/src/triton/matmul.py":115:33)
#loc48 = loc("/home/yuhao/T_RVV/benchmark/src/triton/matmul.py":115:58)
#loc49 = loc("/home/yuhao/T_RVV/benchmark/src/triton/matmul.py":115:39)
#loc50 = loc("/home/yuhao/T_RVV/benchmark/src/triton/matmul.py":116:21)
#loc51 = loc("/home/yuhao/T_RVV/benchmark/src/triton/matmul.py":116:4)
#loc52 = loc(callsite(#loc3 at #loc4))
#loc53 = loc(callsite(#loc5 at #loc4))
#loc54 = loc(callsite(#loc3 at #loc6))
#loc55 = loc(callsite(#loc5 at #loc6))
#loc56 = loc(callsite(#loc3 at #loc33))
#loc57 = loc(callsite(#loc5 at #loc33))


// -----// IR Dump Before ScalarizeUsingForOp (triton-cpu-scalarize) ('builtin.module' operation) //----- //
#loc = loc("/home/yuhao/T_RVV/benchmark/src/triton/matmul.py":20:0)
module {
  tt.func public @matmul_kernel(%arg0: !tt.ptr<f32> {tt.divisibility = 16 : i32} loc("/home/yuhao/T_RVV/benchmark/src/triton/matmul.py":20:0), %arg1: !tt.ptr<f32> {tt.divisibility = 16 : i32} loc("/home/yuhao/T_RVV/benchmark/src/triton/matmul.py":20:0), %arg2: !tt.ptr<f32> {tt.divisibility = 16 : i32} loc("/home/yuhao/T_RVV/benchmark/src/triton/matmul.py":20:0), %arg3: i32 {tt.divisibility = 16 : i32} loc("/home/yuhao/T_RVV/benchmark/src/triton/matmul.py":20:0), %arg4: i32 {tt.divisibility = 16 : i32} loc("/home/yuhao/T_RVV/benchmark/src/triton/matmul.py":20:0), %arg5: i32 {tt.divisibility = 16 : i32} loc("/home/yuhao/T_RVV/benchmark/src/triton/matmul.py":20:0), %arg6: i32 {tt.divisibility = 16 : i32} loc("/home/yuhao/T_RVV/benchmark/src/triton/matmul.py":20:0), %arg7: i32 {tt.divisibility = 16 : i32} loc("/home/yuhao/T_RVV/benchmark/src/triton/matmul.py":20:0), %arg8: i32 {tt.divisibility = 16 : i32} loc("/home/yuhao/T_RVV/benchmark/src/triton/matmul.py":20:0)) attributes {noinline = false} {
    %c7_i32 = arith.constant 7 : i32 loc(#loc1)
    %c1_i32 = arith.constant 1 : i32 loc(#loc1)
    %c0_i32 = arith.constant 0 : i32 loc(#loc1)
    %cst = arith.constant dense<8> : tensor<8x8xi32> loc(#loc1)
    %cst_0 = arith.constant dense<0.000000e+00> : tensor<8x8xf32> loc(#loc1)
    %c8_i32 = arith.constant 8 : i32 loc(#loc1)
    %c4_i32 = arith.constant 4 : i32 loc(#loc1)
    %0 = tt.get_program_id x : i32 loc(#loc2)
    %1 = arith.addi %arg3, %c7_i32 : i32 loc(#loc52)
    %2 = arith.divsi %1, %c8_i32 : i32 loc(#loc53)
    %3 = arith.addi %arg4, %c7_i32 : i32 loc(#loc54)
    %4 = arith.divsi %3, %c8_i32 : i32 loc(#loc55)
    %5 = arith.muli %4, %c4_i32 : i32 loc(#loc7)
    %6 = arith.divsi %0, %5 : i32 loc(#loc8)
    %7 = arith.muli %6, %c4_i32 : i32 loc(#loc9)
    %8 = arith.subi %2, %7 : i32 loc(#loc10)
    %9 = arith.minsi %8, %c4_i32 : i32 loc(#loc11)
    %10 = arith.remsi %0, %9 : i32 loc(#loc12)
    %11 = arith.addi %7, %10 : i32 loc(#loc13)
    %12 = arith.remsi %0, %5 : i32 loc(#loc14)
    %13 = arith.divsi %12, %9 : i32 loc(#loc15)
    %14 = arith.muli %11, %c8_i32 : i32 loc(#loc16)
    %15 = tt.make_range {end = 8 : i32, start = 0 : i32} : tensor<8xi32> loc(#loc17)
    %16 = tt.splat %14 : i32 -> tensor<8xi32> loc(#loc18)
    %17 = arith.addi %16, %15 : tensor<8xi32> loc(#loc18)
    %18 = tt.splat %arg3 : i32 -> tensor<8xi32> loc(#loc19)
    %19 = arith.remsi %17, %18 : tensor<8xi32> loc(#loc19)
    %20 = arith.muli %13, %c8_i32 : i32 loc(#loc20)
    %21 = tt.splat %20 : i32 -> tensor<8xi32> loc(#loc21)
    %22 = arith.addi %21, %15 : tensor<8xi32> loc(#loc21)
    %23 = tt.splat %arg4 : i32 -> tensor<8xi32> loc(#loc22)
    %24 = arith.remsi %22, %23 : tensor<8xi32> loc(#loc22)
    %25 = tt.expand_dims %19 {axis = 1 : i32} : tensor<8xi32> -> tensor<8x1xi32> loc(#loc23)
    %26 = tt.splat %arg6 : i32 -> tensor<8x1xi32> loc(#loc24)
    %27 = arith.muli %25, %26 : tensor<8x1xi32> loc(#loc24)
    %28 = tt.expand_dims %15 {axis = 0 : i32} : tensor<8xi32> -> tensor<1x8xi32> loc(#loc25)
    %29 = tt.broadcast %27 : tensor<8x1xi32> -> tensor<8x8xi32> loc(#loc26)
    %30 = tt.broadcast %28 : tensor<1x8xi32> -> tensor<8x8xi32> loc(#loc26)
    %31 = arith.addi %29, %30 : tensor<8x8xi32> loc(#loc26)
    %32 = tt.splat %arg0 : !tt.ptr<f32> -> tensor<8x8x!tt.ptr<f32>> loc(#loc27)
    %33 = tt.addptr %32, %31 : tensor<8x8x!tt.ptr<f32>>, tensor<8x8xi32> loc(#loc27)
    %34 = tt.expand_dims %15 {axis = 1 : i32} : tensor<8xi32> -> tensor<8x1xi32> loc(#loc28)
    %35 = tt.splat %arg7 : i32 -> tensor<8x1xi32> loc(#loc29)
    %36 = arith.muli %34, %35 : tensor<8x1xi32> loc(#loc29)
    %37 = tt.expand_dims %24 {axis = 0 : i32} : tensor<8xi32> -> tensor<1x8xi32> loc(#loc30)
    %38 = tt.broadcast %36 : tensor<8x1xi32> -> tensor<8x8xi32> loc(#loc31)
    %39 = tt.broadcast %37 : tensor<1x8xi32> -> tensor<8x8xi32> loc(#loc31)
    %40 = arith.addi %38, %39 : tensor<8x8xi32> loc(#loc31)
    %41 = tt.splat %arg1 : !tt.ptr<f32> -> tensor<8x8x!tt.ptr<f32>> loc(#loc32)
    %42 = tt.addptr %41, %40 : tensor<8x8x!tt.ptr<f32>>, tensor<8x8xi32> loc(#loc32)
    %43 = arith.addi %arg5, %c7_i32 : i32 loc(#loc56)
    %44 = arith.divsi %43, %c8_i32 : i32 loc(#loc57)
    %45 = arith.muli %arg7, %c8_i32 : i32 loc(#loc34)
    %46 = tt.splat %45 : i32 -> tensor<8x8xi32> loc(#loc35)
    %47:3 = scf.for %arg9 = %c0_i32 to %44 step %c1_i32 iter_args(%arg10 = %cst_0, %arg11 = %33, %arg12 = %42) -> (tensor<8x8xf32>, tensor<8x8x!tt.ptr<f32>>, tensor<8x8x!tt.ptr<f32>>)  : i32 {
      %64 = tt.load %arg11 : tensor<8x8x!tt.ptr<f32>> loc(#loc37)
      %65 = tt.load %arg12 : tensor<8x8x!tt.ptr<f32>> loc(#loc38)
      %66 = tt.dot %64, %65, %arg10, inputPrecision = tf32 : tensor<8x8xf32> * tensor<8x8xf32> -> tensor<8x8xf32> loc(#loc39)
      %67 = tt.addptr %arg11, %cst : tensor<8x8x!tt.ptr<f32>>, tensor<8x8xi32> loc(#loc40)
      %68 = tt.addptr %arg12, %46 : tensor<8x8x!tt.ptr<f32>>, tensor<8x8xi32> loc(#loc35)
      scf.yield %66, %67, %68 : tensor<8x8xf32>, tensor<8x8x!tt.ptr<f32>>, tensor<8x8x!tt.ptr<f32>> loc(#loc41)
    } loc(#loc36)
    %48 = tt.expand_dims %17 {axis = 1 : i32} : tensor<8xi32> -> tensor<8x1xi32> loc(#loc42)
    %49 = tt.splat %arg8 : i32 -> tensor<8x1xi32> loc(#loc43)
    %50 = arith.muli %49, %48 : tensor<8x1xi32> loc(#loc43)
    %51 = tt.splat %arg2 : !tt.ptr<f32> -> tensor<8x1x!tt.ptr<f32>> loc(#loc44)
    %52 = tt.addptr %51, %50 : tensor<8x1x!tt.ptr<f32>>, tensor<8x1xi32> loc(#loc44)
    %53 = tt.expand_dims %22 {axis = 0 : i32} : tensor<8xi32> -> tensor<1x8xi32> loc(#loc45)
    %54 = tt.broadcast %52 : tensor<8x1x!tt.ptr<f32>> -> tensor<8x8x!tt.ptr<f32>> loc(#loc46)
    %55 = tt.broadcast %53 : tensor<1x8xi32> -> tensor<8x8xi32> loc(#loc46)
    %56 = tt.addptr %54, %55 : tensor<8x8x!tt.ptr<f32>>, tensor<8x8xi32> loc(#loc46)
…
    %303 = llvm.inttoptr %302 : i64 to !llvm.ptr loc(#loc34)
    %304 = llvm.load %303 {alignment = 4 : i64} : !llvm.ptr -> vector<8xf32> loc(#loc34)
    %305 = llvm.extractvalue %243[5] : !llvm.array<8 x vector<8xi64>>  loc(#loc34)
    %306 = llvm.extractelement %305[%6 : i64] : vector<8xi64> loc(#loc34)
    %307 = llvm.inttoptr %306 : i64 to !llvm.ptr loc(#loc34)
    %308 = llvm.load %307 {alignment = 4 : i64} : !llvm.ptr -> vector<8xf32> loc(#loc34)
    %309 = llvm.extractvalue %243[6] : !llvm.array<8 x vector<8xi64>>  loc(#loc34)
    %310 = llvm.extractelement %309[%6 : i64] : vector<8xi64> loc(#loc34)
    %311 = llvm.inttoptr %310 : i64 to !llvm.ptr loc(#loc34)
    %312 = llvm.load %311 {alignment = 4 : i64} : !llvm.ptr -> vector<8xf32> loc(#loc34)
    %313 = llvm.extractvalue %243[7] : !llvm.array<8 x vector<8xi64>>  loc(#loc34)
    %314 = llvm.extractelement %313[%6 : i64] : vector<8xi64> loc(#loc34)
    %315 = llvm.inttoptr %314 : i64 to !llvm.ptr loc(#loc34)
    %316 = llvm.load %315 {alignment = 4 : i64} : !llvm.ptr -> vector<8xf32> loc(#loc34)
    %317 = llvm.mul %16, %3 : i64 loc(#loc31)
    %318 = llvm.add %317, %16 : i64 loc(#loc31)
    %319 = llvm.getelementptr %239[%318] : (!llvm.ptr, i64) -> !llvm.ptr, f32 loc(#loc31)
    llvm.store %256, %319 {alignment = 4 : i64} : vector<8xf32>, !llvm.ptr loc(#loc31)
    %320 = llvm.mul %22, %3 : i64 loc(#loc31)
    %321 = llvm.add %320, %16 : i64 loc(#loc31)
    %322 = llvm.getelementptr %239[%321] : (!llvm.ptr, i64) -> !llvm.ptr, f32 loc(#loc31)
    llvm.store %260, %322 {alignment = 4 : i64} : vector<8xf32>, !llvm.ptr loc(#loc31)
    %323 = llvm.mul %23, %3 : i64 loc(#loc31)
    %324 = llvm.add %323, %16 : i64 loc(#loc31)
    %325 = llvm.getelementptr %239[%324] : (!llvm.ptr, i64) -> !llvm.ptr, f32 loc(#loc31)
    llvm.store %264, %325 {alignment = 4 : i64} : vector<8xf32>, !llvm.ptr loc(#loc31)
    %326 = llvm.mul %24, %3 : i64 loc(#loc31)
    %327 = llvm.add %326, %16 : i64 loc(#loc31)
    %328 = llvm.getelementptr %239[%327] : (!llvm.ptr, i64) -> !llvm.ptr, f32 loc(#loc31)
    llvm.store %268, %328 {alignment = 4 : i64} : vector<8xf32>, !llvm.ptr loc(#loc31)
    %329 = llvm.mul %25, %3 : i64 loc(#loc31)
    %330 = llvm.add %329, %16 : i64 loc(#loc31)
    %331 = llvm.getelementptr %239[%330] : (!llvm.ptr, i64) -> !llvm.ptr, f32 loc(#loc31)
    llvm.store %272, %331 {alignment = 4 : i64} : vector<8xf32>, !llvm.ptr loc(#loc31)
    %332 = llvm.mul %26, %3 : i64 loc(#loc31)
    %333 = llvm.add %332, %16 : i64 loc(#loc31)
    %334 = llvm.getelementptr %239[%333] : (!llvm.ptr, i64) -> !llvm.ptr, f32 loc(#loc31)
    llvm.store %276, %334 {alignment = 4 : i64} : vector<8xf32>, !llvm.ptr loc(#loc31)
    %335 = llvm.mul %27, %3 : i64 loc(#loc31)
    %336 = llvm.add %335, %16 : i64 loc(#loc31)
    %337 = llvm.getelementptr %239[%336] : (!llvm.ptr, i64) -> !llvm.ptr, f32 loc(#loc31)
    llvm.store %280, %337 {alignment = 4 : i64} : vector<8xf32>, !llvm.ptr loc(#loc31)
    %338 = llvm.mul %28, %3 : i64 loc(#loc31)
    %339 = llvm.add %338, %16 : i64 loc(#loc31)
    %340 = llvm.getelementptr %239[%339] : (!llvm.ptr, i64) -> !llvm.ptr, f32 loc(#loc31)
    llvm.store %284, %340 {alignment = 4 : i64} : vector<8xf32>, !llvm.ptr loc(#loc31)
    %341 = llvm.getelementptr %240[%318] : (!llvm.ptr, i64) -> !llvm.ptr, f32 loc(#loc31)
    llvm.store %288, %341 {alignment = 4 : i64} : vector<8xf32>, !llvm.ptr loc(#loc31)
    %342 = llvm.getelementptr %240[%321] : (!llvm.ptr, i64) -> !llvm.ptr, f32 loc(#loc31)
    llvm.store %292, %342 {alignment = 4 : i64} : vector<8xf32>, !llvm.ptr loc(#loc31)
    %343 = llvm.getelementptr %240[%324] : (!llvm.ptr, i64) -> !llvm.ptr, f32 loc(#loc31)
    llvm.store %296, %343 {alignment = 4 : i64} : vector<8xf32>, !llvm.ptr loc(#loc31)
    %344 = llvm.getelementptr %240[%327] : (!llvm.ptr, i64) -> !llvm.ptr, f32 loc(#loc31)
    llvm.store %300, %344 {alignment = 4 : i64} : vector<8xf32>, !llvm.ptr loc(#loc31)
    %345 = llvm.getelementptr %240[%330] : (!llvm.ptr, i64) -> !llvm.ptr, f32 loc(#loc31)
    llvm.store %304, %345 {alignment = 4 : i64} : vector<8xf32>, !llvm.ptr loc(#loc31)
    %346 = llvm.getelementptr %240[%333] : (!llvm.ptr, i64) -> !llvm.ptr, f32 loc(#loc31)
    llvm.store %308, %346 {alignment = 4 : i64} : vector<8xf32>, !llvm.ptr loc(#loc31)
    %347 = llvm.getelementptr %240[%336] : (!llvm.ptr, i64) -> !llvm.ptr, f32 loc(#loc31)
    llvm.store %312, %347 {alignment = 4 : i64} : vector<8xf32>, !llvm.ptr loc(#loc31)
    %348 = llvm.getelementptr %240[%339] : (!llvm.ptr, i64) -> !llvm.ptr, f32 loc(#loc31)
    llvm.store %316, %348 {alignment = 4 : i64} : vector<8xf32>, !llvm.ptr loc(#loc31)
    %349 = llvm.load %341 {alignment = 4 : i64} : !llvm.ptr -> vector<8xf32> loc(#loc31)
    %350 = llvm.load %342 {alignment = 4 : i64} : !llvm.ptr -> vector<8xf32> loc(#loc31)
    %351 = llvm.load %319 : !llvm.ptr -> f32 loc(#loc31)
    %352 = llvm.insertelement %351, %1[%9 : i32] : vector<8xf32> loc(#loc31)
    %353 = llvm.shufflevector %352, %1 [0, 0, 0, 0, 0, 0, 0, 0] : vector<8xf32>  loc(#loc31)
    %354 = llvm.load %322 : !llvm.ptr -> f32 loc(#loc31)
    %355 = llvm.insertelement %354, %1[%9 : i32] : vector<8xf32> loc(#loc31)
    %356 = llvm.shufflevector %355, %1 [0, 0, 0, 0, 0, 0, 0, 0] : vector<8xf32>  loc(#loc31)
    %357 = llvm.intr.fmuladd(%349, %353, %244) : (vector<8xf32>, vector<8xf32>, vector<8xf32>) -> vector<8xf32> loc(#loc31)
    %358 = llvm.load %325 : !llvm.ptr -> f32 loc(#loc31)
    %359 = llvm.insertelement %358, %1[%9 : i32] : vector<8xf32> loc(#loc31)
    %360 = llvm.shufflevector %359, %1 [0, 0, 0, 0, 0, 0, 0, 0] : vector<8xf32>  loc(#loc31)
    %361 = llvm.intr.fmuladd(%349, %356, %245) : (vector<8xf32>, vector<8xf32>, vector<8xf32>) -> vector<8xf32> loc(#loc31)
    %362 = llvm.load %328 : !llvm.ptr -> f32 loc(#loc31)
    %363 = llvm.insertelement %362, %1[%9 : i32] : vector<8xf32> loc(#loc31)
    %364 = llvm.shufflevector %363, %1 [0, 0, 0, 0, 0, 0, 0, 0] : vector<8xf32>  loc(#loc31)
    %365 = llvm.intr.fmuladd(%349, %360, %246) : (vector<8xf32>, vector<8xf32>, vector<8xf32>) -> vector<8xf32> loc(#loc31)
    %366 = llvm.load %331 : !llvm.ptr -> f32 loc(#loc31)
    %367 = llvm.insertelement %366, %1[%9 : i32] : vector<8xf32> loc(#loc31)
    %368 = llvm.shufflevector %367, %1 [0, 0, 0, 0, 0, 0, 0, 0] : vector<8xf32>  loc(#loc31)
    %369 = llvm.intr.fmuladd(%349, %364, %247) : (vector<8xf32>, vector<8xf32>, vector<8xf32>) -> vector<8xf32> loc(#loc31)
    %370 = llvm.load %334 : !llvm.ptr -> f32 loc(#loc31)
    %371 = llvm.insertelement %370, %1[%9 : i32] : vector<8xf32> loc(#loc31)
    %372 = llvm.shufflevector %371, %1 [0, 0, 0, 0, 0, 0, 0, 0] : vector<8xf32>  loc(#loc31)
    %373 = llvm.intr.fmuladd(%349, %368, %248) : (vector<8xf32>, vector<8xf32>, vector<8xf32>) -> vector<8xf32> loc(#loc31)
    %374 = llvm.load %337 : !llvm.ptr -> f32 loc(#loc31)
    %375 = llvm.insertelement %374, %1[%9 : i32] : vector<8xf32> loc(#loc31)
    %376 = llvm.shufflevector %375, %1 [0, 0, 0, 0, 0, 0, 0, 0] : vector<8xf32>  loc(#loc31)
    %377 = llvm.intr.fmuladd(%349, %372, %249) : (vector<8xf32>, vector<8xf32>, vector<8xf32>) -> vector<8xf32> loc(#loc31)
    %378 = llvm.load %340 : !llvm.ptr -> f32 loc(#loc31)
    %379 = llvm.insertelement %378, %1[%9 : i32] : vector<8xf32> loc(#loc31)
    %380 = llvm.shufflevector %379, %1 [0, 0, 0, 0, 0, 0, 0, 0] : vector<8xf32>  loc(#loc31)
    %381 = llvm.intr.fmuladd(%349, %376, %250) : (vector<8xf32>, vector<8xf32>, vector<8xf32>) -> vector<8xf32> loc(#loc31)
    %382 = llvm.intr.fmuladd(%349, %380, %251) : (vector<8xf32>, vector<8xf32>, vector<8xf32>) -> vector<8xf32> loc(#loc31)
    %383 = llvm.load %343 {alignment = 4 : i64} : !llvm.ptr -> vector<8xf32> loc(#loc31)
    %384 = llvm.add %317, %22 : i64 loc(#loc31)
    %385 = llvm.getelementptr %239[%384] : (!llvm.ptr, i64) -> !llvm.ptr, f32 loc(#loc31)
    %386 = llvm.load %385 : !llvm.ptr -> f32 loc(#loc31)
    %387 = llvm.insertelement %386, %1[%9 : i32] : vector<8xf32> loc(#loc31)
    %388 = llvm.shufflevector %387, %1 [0, 0, 0, 0, 0, 0, 0, 0] : vector<8xf32>  loc(#loc31)
    %389 = llvm.add %320, %22 : i64 loc(#loc31)
    %390 = llvm.getelementptr %239[%389] : (!llvm.ptr, i64) -> !llvm.ptr, f32 loc(#loc31)
    %391 = llvm.load %390 : !llvm.ptr -> f32 loc(#loc31)
    %392 = llvm.insertelement %391, %1[%9 : i32] : vector<8xf32> loc(#loc31)
    %393 = llvm.shufflevector %392, %1 [0, 0, 0, 0, 0, 0, 0, 0] : vector<8xf32>  loc(#loc31)
    %394 = llvm.intr.fmuladd(%350, %388, %357) : (vector<8xf32>, vector<8xf32>, vector<8xf32>) -> vector<8xf32> loc(#loc31)
    %395 = llvm.add %323, %22 : i64 loc(#loc31)
    %396 = llvm.getelementptr %239[%395] : (!llvm.ptr, i64) -> !llvm.ptr, f32 loc(#loc31)
    %397 = llvm.load %396 : !llvm.ptr -> f32 loc(#loc31)
    %398 = llvm.insertelement %397, %1[%9 : i32] : vector<8xf32> loc(#loc31)
    %399 = llvm.shufflevector %398, %1 [0, 0, 0, 0, 0, 0, 0, 0] : vector<8xf32>  loc(#loc31)
    %400 = llvm.intr.fmuladd(%350, %393, %361) : (vector<8xf32>, vector<8xf32>, vector<8xf32>) -> vector<8xf32> loc(#loc31)
    %401 = llvm.add %326, %22 : i64 loc(#loc31)
    %402 = llvm.getelementptr %239[%401] : (!llvm.ptr, i64) -> !llvm.ptr, f32 loc(#loc31)
    %403 = llvm.load %402 : !llvm.ptr -> f32 loc(#loc31)
    %404 = llvm.insertelement %403, %1[%9 : i32] : vector<8xf32> loc(#loc31)
    %405 = llvm.shufflevector %404, %1 [0, 0, 0, 0, 0, 0, 0, 0] : vector<8xf32>  loc(#loc31)
    %406 = llvm.intr.fmuladd(%350, %399, %365) : (vector<8xf32>, vector<8xf32>, vector<8xf32>) -> vector<8xf32> loc(#loc31)
    %407 = llvm.add %329, %22 : i64 loc(#loc31)
    %408 = llvm.getelementptr %239[%407] : (!llvm.ptr, i64) -> !llvm.ptr, f32 loc(#loc31)
    %409 = llvm.load %408 : !llvm.ptr -> f32 loc(#loc31)
    %410 = llvm.insertelement %409, %1[%9 : i32] : vector<8xf32> loc(#loc31)
    %411 = llvm.shufflevector %410, %1 [0, 0, 0, 0, 0, 0, 0, 0] : vector<8xf32>  loc(#loc31)
    %412 = llvm.intr.fmuladd(%350, %405, %369) : (vector<8xf32>, vector<8xf32>, vector<8xf32>) -> vector<8xf32> loc(#loc31)
    %413 = llvm.add %332, %22 : i64 loc(#loc31)
    %414 = llvm.getelementptr %239[%413] : (!llvm.ptr, i64) -> !llvm.ptr, f32 loc(#loc31)
    %415 = llvm.load %414 : !llvm.ptr -> f32 loc(#loc31)
    %416 = llvm.insertelement %415, %1[%9 : i32] : vector<8xf32> loc(#loc31)
    %417 = llvm.shufflevector %416, %1 [0, 0, 0, 0, 0, 0, 0, 0] : vector<8xf32>  loc(#loc31)
    %418 = llvm.intr.fmuladd(%350, %411, %373) : (vector<8xf32>, vector<8xf32>, vector<8xf32>) -> vector<8xf32> loc(#loc31)
    %419 = llvm.add %335, %22 : i64 loc(#loc31)
    %420 = llvm.getelementptr %239[%419] : (!llvm.ptr, i64) -> !llvm.ptr, f32 loc(#loc31)
    %421 = llvm.load %420 : !llvm.ptr -> f32 loc(#loc31)
    %422 = llvm.insertelement %421, %1[%9 : i32] : vector<8xf32> loc(#loc31)
    %423 = llvm.shufflevector %422, %1 [0, 0, 0, 0, 0, 0, 0, 0] : vector<8xf32>  loc(#loc31)
    %424 = llvm.intr.fmuladd(%350, %417, %377) : (vector<8xf32>, vector<8xf32>, vector<8xf32>) -> vector<8xf32> loc(#loc31)
    %425 = llvm.add %338, %22 : i64 loc(#loc31)
    %426 = llvm.getelementptr %239[%425] : (!llvm.ptr, i64) -> !llvm.ptr, f32 loc(#loc31)
    %427 = llvm.load %426 : !llvm.ptr -> f32 loc(#loc31)
    %428 = llvm.insertelement %427, %1[%9 : i32] : vector<8xf32> loc(#loc31)
    %429 = llvm.shufflevector %428, %1 [0, 0, 0, 0, 0, 0, 0, 0] : vector<8xf32>  loc(#loc31)
    %430 = llvm.intr.fmuladd(%350, %423, %381) : (vector<8xf32>, vector<8xf32>, vector<8xf32>) -> vector<8xf32> loc(#loc31)
    %431 = llvm.intr.fmuladd(%350, %429, %382) : (vector<8xf32>, vector<8xf32>, vector<8xf32>) -> vector<8xf32> loc(#loc31)
    %432 = llvm.load %344 {alignment = 4 : i64} : !llvm.ptr -> vector<8xf32> loc(#loc31)
    %433 = llvm.add %317, %23 : i64 loc(#loc31)
    %434 = llvm.getelementptr %239[%433] : (!llvm.ptr, i64) -> !llvm.ptr, f32 loc(#loc31)
    %435 = llvm.load %434 : !llvm.ptr -> f32 loc(#loc31)
    %436 = llvm.insertelement %435, %1[%9 : i32] : vector<8xf32> loc(#loc31)
    %437 = llvm.shufflevector %436, %1 [0, 0, 0, 0, 0, 0, 0, 0] : vector<8xf32>  loc(#loc31)
    %438 = llvm.add %320, %23 : i64 loc(#loc31)
    %439 = llvm.getelementptr %239[%438] : (!llvm.ptr, i64) -> !llvm.ptr, f32 loc(#loc31)
    %440 = llvm.load %439 : !llvm.ptr -> f32 loc(#loc31)
    %441 = llvm.insertelement %440, %1[%9 : i32] : vector<8xf32> loc(#loc31)
    %442 = llvm.shufflevector %441, %1 [0, 0, 0, 0, 0, 0, 0, 0] : vector<8xf32>  loc(#loc31)
    %443 = llvm.intr.fmuladd(%383, %437, %394) : (vector<8xf32>, vector<8xf32>, vector<8xf32>) -> vector<8xf32> loc(#loc31)
    %444 = llvm.add %323, %23 : i64 loc(#loc31)
    %445 = llvm.getelementptr %239[%444] : (!llvm.ptr, i64) -> !llvm.ptr, f32 loc(#loc31)
    %446 = llvm.load %445 : !llvm.ptr -> f32 loc(#loc31)
    %447 = llvm.insertelement %446, %1[%9 : i32] : vector<8xf32> loc(#loc31)
    %448 = llvm.shufflevector %447, %1 [0, 0, 0, 0, 0, 0, 0, 0] : vector<8xf32>  loc(#loc31)
    %449 = llvm.intr.fmuladd(%383, %442, %400) : (vector<8xf32>, vector<8xf32>, vector<8xf32>) -> vector<8xf32> loc(#loc31)
    %450 = llvm.add %326, %23 : i64 loc(#loc31)
    %451 = llvm.getelementptr %239[%450] : (!llvm.ptr, i64) -> !llvm.ptr, f32 loc(#loc31)
    %452 = llvm.load %451 : !llvm.ptr -> f32 loc(#loc31)
    %453 = llvm.insertelement %452, %1[%9 : i32] : vector<8xf32> loc(#loc31)
    %454 = llvm.shufflevector %453, %1 [0, 0, 0, 0, 0, 0, 0, 0] : vector<8xf32>  loc(#loc31)
    %455 = llvm.intr.fmuladd(%383, %448, %406) : (vector<8xf32>, vector<8xf32>, vector<8xf32>) -> vector<8xf32> loc(#loc31)
    %456 = llvm.add %329, %23 : i64 loc(#loc31)
    %457 = llvm.getelementptr %239[%456] : (!llvm.ptr, i64) -> !llvm.ptr, f32 loc(#loc31)
    %458 = llvm.load %457 : !llvm.ptr -> f32 loc(#loc31)
    %459 = llvm.insertelement %458, %1[%9 : i32] : vector<8xf32> loc(#loc31)
    %460 = llvm.shufflevector %459, %1 [0, 0, 0, 0, 0, 0, 0, 0] : vector<8xf32>  loc(#loc31)
    %461 = llvm.intr.fmuladd(%383, %454, %412) : (vector<8xf32>, vector<8xf32>, vector<8xf32>) -> vector<8xf32> loc(#loc31)
    %462 = llvm.add %332, %23 : i64 loc(#loc31)
    %463 = llvm.getelementptr %239[%462] : (!llvm.ptr, i64) -> !llvm.ptr, f32 loc(#loc31)
    %464 = llvm.load %463 : !llvm.ptr -> f32 loc(#loc31)
    %465 = llvm.insertelement %464, %1[%9 : i32] : vector<8xf32> loc(#loc31)
    %466 = llvm.shufflevector %465, %1 [0, 0, 0, 0, 0, 0, 0, 0] : vector<8xf32>  loc(#loc31)
    %467 = llvm.intr.fmuladd(%383, %460, %418) : (vector<8xf32>, vector<8xf32>, vector<8xf32>) -> vector<8xf32> loc(#loc31)
    %468 = llvm.add %335, %23 : i64 loc(#loc31)
    %469 = llvm.getelementptr %239[%468] : (!llvm.ptr, i64) -> !llvm.ptr, f32 loc(#loc31)
    %470 = llvm.load %469 : !llvm.ptr -> f32 loc(#loc31)
    %471 = llvm.insertelement %470, %1[%9 : i32] : vector<8xf32> loc(#loc31)
    %472 = llvm.shufflevector %471, %1 [0, 0, 0, 0, 0, 0, 0, 0] : vector<8xf32>  loc(#loc31)
    %473 = llvm.intr.fmuladd(%383, %466, %424) : (vector<8xf32>, vector<8xf32>, vector<8xf32>) -> vector<8xf32> loc(#loc31)
    %474 = llvm.add %338, %23 : i64 loc(#loc31)
    %475 = llvm.getelementptr %239[%474] : (!llvm.ptr, i64) -> !llvm.ptr, f32 loc(#loc31)
    %476 = llvm.load %475 : !llvm.ptr -> f32 loc(#loc31)
    %477 = llvm.insertelement %476, %1[%9 : i32] : vector<8xf32> loc(#loc31)
    %478 = llvm.shufflevector %477, %1 [0, 0, 0, 0, 0, 0, 0, 0] : vector<8xf32>  loc(#loc31)
    %479 = llvm.intr.fmuladd(%383, %472, %430) : (vector<8xf32>, vector<8xf32>, vector<8xf32>) -> vector<8xf32> loc(#loc31)
    %480 = llvm.intr.fmuladd(%383, %478, %431) : (vector<8xf32>, vector<8xf32>, vector<8xf32>) -> vector<8xf32> loc(#loc31)
    %481 = llvm.load %345 {alignment = 4 : i64} : !llvm.ptr -> vector<8xf32> loc(#loc31)
    %482 = llvm.add %317, %24 : i64 loc(#loc31)
    %483 = llvm.getelementptr %239[%482] : (!llvm.ptr, i64) -> !llvm.ptr, f32 loc(#loc31)
    %484 = llvm.load %483 : !llvm.ptr -> f32 loc(#loc31)
    %485 = llvm.insertelement %484, %1[%9 : i32] : vector<8xf32> loc(#loc31)
    %486 = llvm.shufflevector %485, %1 [0, 0, 0, 0, 0, 0, 0, 0] : vector<8xf32>  loc(#loc31)
    %487 = llvm.add %320, %24 : i64 loc(#loc31)
    %488 = llvm.getelementptr %239[%487] : (!llvm.ptr, i64) -> !llvm.ptr, f32 loc(#loc31)
    %489 = llvm.load %488 : !llvm.ptr -> f32 loc(#loc31)
    %490 = llvm.insertelement %489, %1[%9 : i32] : vector<8xf32> loc(#loc31)
    %491 = llvm.shufflevector %490, %1 [0, 0, 0, 0, 0, 0, 0, 0] : vector<8xf32>  loc(#loc31)
    %492 = llvm.intr.fmuladd(%432, %486, %443) : (vector<8xf32>, vector<8xf32>, vector<8xf32>) -> vector<8xf32> loc(#loc31)
    %493 = llvm.add %323, %24 : i64 loc(#loc31)
    %494 = llvm.getelementptr %239[%493] : (!llvm.ptr, i64) -> !llvm.ptr, f32 loc(#loc31)
    %495 = llvm.load %494 : !llvm.ptr -> f32 loc(#loc31)
    %496 = llvm.insertelement %495, %1[%9 : i32] : vector<8xf32> loc(#loc31)
    %497 = llvm.shufflevector %496, %1 [0, 0, 0, 0, 0, 0, 0, 0] : vector<8xf32>  loc(#loc31)
    %498 = llvm.intr.fmuladd(%432, %491, %449) : (vector<8xf32>, vector<8xf32>, vector<8xf32>) -> vector<8xf32> loc(#loc31)
    %499 = llvm.add %326, %24 : i64 loc(#loc31)
    %500 = llvm.getelementptr %239[%499] : (!llvm.ptr, i64) -> !llvm.ptr, f32 loc(#loc31)
    %501 = llvm.load %500 : !llvm.ptr -> f32 loc(#loc31)
    %502 = llvm.insertelement %501, %1[%9 : i32] : vector<8xf32> loc(#loc31)
    %503 = llvm.shufflevector %502, %1 [0, 0, 0, 0, 0, 0, 0, 0] : vector<8xf32>  loc(#loc31)
    %504 = llvm.intr.fmuladd(%432, %497, %455) : (vector<8xf32>, vector<8xf32>, vector<8xf32>) -> vector<8xf32> loc(#loc31)
    %505 = llvm.add %329, %24 : i64 loc(#loc31)
    %506 = llvm.getelementptr %239[%505] : (!llvm.ptr, i64) -> !llvm.ptr, f32 loc(#loc31)
    %507 = llvm.load %506 : !llvm.ptr -> f32 loc(#loc31)
    %508 = llvm.insertelement %507, %1[%9 : i32] : vector<8xf32> loc(#loc31)
    %509 = llvm.shufflevector %508, %1 [0, 0, 0, 0, 0, 0, 0, 0] : vector<8xf32>  loc(#loc31)
    %510 = llvm.intr.fmuladd(%432, %503, %461) : (vector<8xf32>, vector<8xf32>, vector<8xf32>) -> vector<8xf32> loc(#loc31)
    %511 = llvm.add %332, %24 : i64 loc(#loc31)
    %512 = llvm.getelementptr %239[%511] : (!llvm.ptr, i64) -> !llvm.ptr, f32 loc(#loc31)
    %513 = llvm.load %512 : !llvm.ptr -> f32 loc(#loc31)
    %514 = llvm.insertelement %513, %1[%9 : i32] : vector<8xf32> loc(#loc31)
    %515 = llvm.shufflevector %514, %1 [0, 0, 0, 0, 0, 0, 0, 0] : vector<8xf32>  loc(#loc31)
    %516 = llvm.intr.fmuladd(%432, %509, %467) : (vector<8xf32>, vector<8xf32>, vector<8xf32>) -> vector<8xf32> loc(#loc31)
    %517 = llvm.add %335, %24 : i64 loc(#loc31)
    %518 = llvm.getelementptr %239[%517] : (!llvm.ptr, i64) -> !llvm.ptr, f32 loc(#loc31)
    %519 = llvm.load %518 : !llvm.ptr -> f32 loc(#loc31)
    %520 = llvm.insertelement %519, %1[%9 : i32] : vector<8xf32> loc(#loc31)
    %521 = llvm.shufflevector %520, %1 [0, 0, 0, 0, 0, 0, 0, 0] : vector<8xf32>  loc(#loc31)
    %522 = llvm.intr.fmuladd(%432, %515, %473) : (vector<8xf32>, vector<8xf32>, vector<8xf32>) -> vector<8xf32> loc(#loc31)
    %523 = llvm.add %338, %24 : i64 loc(#loc31)
    %524 = llvm.getelementptr %239[%523] : (!llvm.ptr, i64) -> !llvm.ptr, f32 loc(#loc31)
    %525 = llvm.load %524 : !llvm.ptr -> f32 loc(#loc31)
    %526 = llvm.insertelement %525, %1[%9 : i32] : vector<8xf32> loc(#loc31)
    %527 = llvm.shufflevector %526, %1 [0, 0, 0, 0, 0, 0, 0, 0] : vector<8xf32>  loc(#loc31)
    %528 = llvm.intr.fmuladd(%432, %521, %479) : (vector<8xf32>, vector<8xf32>, vector<8xf32>) -> vector<8xf32> loc(#loc31)
    %529 = llvm.intr.fmuladd(%432, %527, %480) : (vector<8xf32>, vector<8xf32>, vector<8xf32>) -> vector<8xf32> loc(#loc31)
    %530 = llvm.load %346 {alignment = 4 : i64} : !llvm.ptr -> vector<8xf32> loc(#loc31)
    %531 = llvm.add %317, %25 : i64 loc(#loc31)
    %532 = llvm.getelementptr %239[%531] : (!llvm.ptr, i64) -> !llvm.ptr, f32 loc(#loc31)
    %533 = llvm.load %532 : !llvm.ptr -> f32 loc(#loc31)
    %534 = llvm.insertelement %533, %1[%9 : i32] : vector<8xf32> loc(#loc31)
    %535 = llvm.shufflevector %534, %1 [0, 0, 0, 0, 0, 0, 0, 0] : vector<8xf32>  loc(#loc31)
    %536 = llvm.add %320, %25 : i64 loc(#loc31)
    %537 = llvm.getelementptr %239[%536] : (!llvm.ptr, i64) -> !llvm.ptr, f32 loc(#loc31)
    %538 = llvm.load %537 : !llvm.ptr -> f32 loc(#loc31)
    %539 = llvm.insertelement %538, %1[%9 : i32] : vector<8xf32> loc(#loc31)
    %540 = llvm.shufflevector %539, %1 [0, 0, 0, 0, 0, 0, 0, 0] : vector<8xf32>  loc(#loc31)
    %541 = llvm.intr.fmuladd(%481, %535, %492) : (vector<8xf32>, vector<8xf32>, vector<8xf32>) -> vector<8xf32> loc(#loc31)
    %542 = llvm.add %323, %25 : i64 loc(#loc31)
    %543 = llvm.getelementptr %239[%542] : (!llvm.ptr, i64) -> !llvm.ptr, f32 loc(#loc31)
    %544 = llvm.load %543 : !llvm.ptr -> f32 loc(#loc31)
    %545 = llvm.insertelement %544, %1[%9 : i32] : vector<8xf32> loc(#loc31)
    %546 = llvm.shufflevector %545, %1 [0, 0, 0, 0, 0, 0, 0, 0] : vector<8xf32>  loc(#loc31)
    %547 = llvm.intr.fmuladd(%481, %540, %498) : (vector<8xf32>, vector<8xf32>, vector<8xf32>) -> vector<8xf32> loc(#loc31)
    %548 = llvm.add %326, %25 : i64 loc(#loc31)
    %549 = llvm.getelementptr %239[%548] : (!llvm.ptr, i64) -> !llvm.ptr, f32 loc(#loc31)
    %550 = llvm.load %549 : !llvm.ptr -> f32 loc(#loc31)
    %551 = llvm.insertelement %550, %1[%9 : i32] : vector<8xf32> loc(#loc31)
    %552 = llvm.shufflevector %551, %1 [0, 0, 0, 0, 0, 0, 0, 0] : vector<8xf32>  loc(#loc31)
    %553 = llvm.intr.fmuladd(%481, %546, %504) : (vector<8xf32>, vector<8xf32>, vector<8xf32>) -> vector<8xf32> loc(#loc31)
    %554 = llvm.add %329, %25 : i64 loc(#loc31)
    %555 = llvm.getelementptr %239[%554] : (!llvm.ptr, i64) -> !llvm.ptr, f32 loc(#loc31)
    %556 = llvm.load %555 : !llvm.ptr -> f32 loc(#loc31)
    %557 = llvm.insertelement %556, %1[%9 : i32] : vector<8xf32> loc(#loc31)
    %558 = llvm.shufflevector %557, %1 [0, 0, 0, 0, 0, 0, 0, 0] : vector<8xf32>  loc(#loc31)
    %559 = llvm.intr.fmuladd(%481, %552, %510) : (vector<8xf32>, vector<8xf32>, vector<8xf32>) -> vector<8xf32> loc(#loc31)
    %560 = llvm.add %332, %25 : i64 loc(#loc31)
    %561 = llvm.getelementptr %239[%560] : (!llvm.ptr, i64) -> !llvm.ptr, f32 loc(#loc31)
    %562 = llvm.load %561 : !llvm.ptr -> f32 loc(#loc31)
    %563 = llvm.insertelement %562, %1[%9 : i32] : vector<8xf32> loc(#loc31)
    %564 = llvm.shufflevector %563, %1 [0, 0, 0, 0, 0, 0, 0, 0] : vector<8xf32>  loc(#loc31)
    %565 = llvm.intr.fmuladd(%481, %558, %516) : (vector<8xf32>, vector<8xf32>, vector<8xf32>) -> vector<8xf32> loc(#loc31)
    %566 = llvm.add %335, %25 : i64 loc(#loc31)
    %567 = llvm.getelementptr %239[%566] : (!llvm.ptr, i64) -> !llvm.ptr, f32 loc(#loc31)
    %568 = llvm.load %567 : !llvm.ptr -> f32 loc(#loc31)
    %569 = llvm.insertelement %568, %1[%9 : i32] : vector<8xf32> loc(#loc31)
    %570 = llvm.shufflevector %569, %1 [0, 0, 0, 0, 0, 0, 0, 0] : vector<8xf32>  loc(#loc31)
    %571 = llvm.intr.fmuladd(%481, %564, %522) : (vector<8xf32>, vector<8xf32>, vector<8xf32>) -> vector<8xf32> loc(#loc31)
    %572 = llvm.add %338, %25 : i64 loc(#loc31)
    %573 = llvm.getelementptr %239[%572] : (!llvm.ptr, i64) -> !llvm.ptr, f32 loc(#loc31)
    %574 = llvm.load %573 : !llvm.ptr -> f32 loc(#loc31)
    %575 = llvm.insertelement %574, %1[%9 : i32] : vector<8xf32> loc(#loc31)
    %576 = llvm.shufflevector %575, %1 [0, 0, 0, 0, 0, 0, 0, 0] : vector<8xf32>  loc(#loc31)
    %577 = llvm.intr.fmuladd(%481, %570, %528) : (vector<8xf32>, vector<8xf32>, vector<8xf32>) -> vector<8xf32> loc(#loc31)
    %578 = llvm.intr.fmuladd(%481, %576, %529) : (vector<8xf32>, vector<8xf32>, vector<8xf32>) -> vector<8xf32> loc(#loc31)
    %579 = llvm.load %347 {alignment = 4 : i64} : !llvm.ptr -> vector<8xf32> loc(#loc31)
    %580 = llvm.add %317, %26 : i64 loc(#loc31)
    %581 = llvm.getelementptr %239[%580] : (!llvm.ptr, i64) -> !llvm.ptr, f32 loc(#loc31)
    %582 = llvm.load %581 : !llvm.ptr -> f32 loc(#loc31)
    %583 = llvm.insertelement %582, %1[%9 : i32] : vector<8xf32> loc(#loc31)
    %584 = llvm.shufflevector %583, %1 [0, 0, 0, 0, 0, 0, 0, 0] : vector<8xf32>  loc(#loc31)
    %585 = llvm.add %320, %26 : i64 loc(#loc31)
    %586 = llvm.getelementptr %239[%585] : (!llvm.ptr, i64) -> !llvm.ptr, f32 loc(#loc31)
    %587 = llvm.load %586 : !llvm.ptr -> f32 loc(#loc31)
    %588 = llvm.insertelement %587, %1[%9 : i32] : vector<8xf32> loc(#loc31)
    %589 = llvm.shufflevector %588, %1 [0, 0, 0, 0, 0, 0, 0, 0] : vector<8xf32>  loc(#loc31)
    %590 = llvm.intr.fmuladd(%530, %584, %541) : (vector<8xf32>, vector<8xf32>, vector<8xf32>) -> vector<8xf32> loc(#loc31)
    %591 = llvm.add %323, %26 : i64 loc(#loc31)
    %592 = llvm.getelementptr %239[%591] : (!llvm.ptr, i64) -> !llvm.ptr, f32 loc(#loc31)
    %593 = llvm.load %592 : !llvm.ptr -> f32 loc(#loc31)
    %594 = llvm.insertelement %593, %1[%9 : i32] : vector<8xf32> loc(#loc31)
    %595 = llvm.shufflevector %594, %1 [0, 0, 0, 0, 0, 0, 0, 0] : vector<8xf32>  loc(#loc31)
    %596 = llvm.intr.fmuladd(%530, %589, %547) : (vector<8xf32>, vector<8xf32>, vector<8xf32>) -> vector<8xf32> loc(#loc31)
    %597 = llvm.add %326, %26 : i64 loc(#loc31)
    %598 = llvm.getelementptr %239[%597] : (!llvm.ptr, i64) -> !llvm.ptr, f32 loc(#loc31)
    %599 = llvm.load %598 : !llvm.ptr -> f32 loc(#loc31)
    %600 = llvm.insertelement %599, %1[%9 : i32] : vector<8xf32> loc(#loc31)
    %601 = llvm.shufflevector %600, %1 [0, 0, 0, 0, 0, 0, 0, 0] : vector<8xf32>  loc(#loc31)
    %602 = llvm.intr.fmuladd(%530, %595, %553) : (vector<8xf32>, vector<8xf32>, vector<8xf32>) -> vector<8xf32> loc(#loc31)
    %603 = llvm.add %329, %26 : i64 loc(#loc31)
    %604 = llvm.getelementptr %239[%603] : (!llvm.ptr, i64) -> !llvm.ptr, f32 loc(#loc31)
    %605 = llvm.load %604 : !llvm.ptr -> f32 loc(#loc31)
    %606 = llvm.insertelement %605, %1[%9 : i32] : vector<8xf32> loc(#loc31)
    %607 = llvm.shufflevector %606, %1 [0, 0, 0, 0, 0, 0, 0, 0] : vector<8xf32>  loc(#loc31)
    %608 = llvm.intr.fmuladd(%530, %601, %559) : (vector<8xf32>, vector<8xf32>, vector<8xf32>) -> vector<8xf32> loc(#loc31)
    %609 = llvm.add %332, %26 : i64 loc(#loc31)
    %610 = llvm.getelementptr %239[%609] : (!llvm.ptr, i64) -> !llvm.ptr, f32 loc(#loc31)
    %611 = llvm.load %610 : !llvm.ptr -> f32 loc(#loc31)
    %612 = llvm.insertelement %611, %1[%9 : i32] : vector<8xf32> loc(#loc31)
    %613 = llvm.shufflevector %612, %1 [0, 0, 0, 0, 0, 0, 0, 0] : vector<8xf32>  loc(#loc31)
    %614 = llvm.intr.fmuladd(%530, %607, %565) : (vector<8xf32>, vector<8xf32>, vector<8xf32>) -> vector<8xf32> loc(#loc31)
    %615 = llvm.add %335, %26 : i64 loc(#loc31)
    %616 = llvm.getelementptr %239[%615] : (!llvm.ptr, i64) -> !llvm.ptr, f32 loc(#loc31)
    %617 = llvm.load %616 : !llvm.ptr -> f32 loc(#loc31)
    %618 = llvm.insertelement %617, %1[%9 : i32] : vector<8xf32> loc(#loc31)
    %619 = llvm.shufflevector %618, %1 [0, 0, 0, 0, 0, 0, 0, 0] : vector<8xf32>  loc(#loc31)
    %620 = llvm.intr.fmuladd(%530, %613, %571) : (vector<8xf32>, vector<8xf32>, vector<8xf32>) -> vector<8xf32> loc(#loc31)
    %621 = llvm.add %338, %26 : i64 loc(#loc31)
    %622 = llvm.getelementptr %239[%621] : (!llvm.ptr, i64) -> !llvm.ptr, f32 loc(#loc31)
    %623 = llvm.load %622 : !llvm.ptr -> f32 loc(#loc31)
    %624 = llvm.insertelement %623, %1[%9 : i32] : vector<8xf32> loc(#loc31)
    %625 = llvm.shufflevector %624, %1 [0, 0, 0, 0, 0, 0, 0, 0] : vector<8xf32>  loc(#loc31)
    %626 = llvm.intr.fmuladd(%530, %619, %577) : (vector<8xf32>, vector<8xf32>, vector<8xf32>) -> vector<8xf32> loc(#loc31)
    %627 = llvm.intr.fmuladd(%530, %625, %578) : (vector<8xf32>, vector<8xf32>, vector<8xf32>) -> vector<8xf32> loc(#loc31)
    %628 = llvm.load %348 {alignment = 4 : i64} : !llvm.ptr -> vector<8xf32> loc(#loc31)
    %629 = llvm.add %317, %27 : i64 loc(#loc31)
    %630 = llvm.getelementptr %239[%629] : (!llvm.ptr, i64) -> !llvm.ptr, f32 loc(#loc31)
    %631 = llvm.load %630 : !llvm.ptr -> f32 loc(#loc31)
    %632 = llvm.insertelement %631, %1[%9 : i32] : vector<8xf32> loc(#loc31)
    %633 = llvm.shufflevector %632, %1 [0, 0, 0, 0, 0, 0, 0, 0] : vector<8xf32>  loc(#loc31)
    %634 = llvm.add %320, %27 : i64 loc(#loc31)
    %635 = llvm.getelementptr %239[%634] : (!llvm.ptr, i64) -> !llvm.ptr, f32 loc(#loc31)
    %636 = llvm.load %635 : !llvm.ptr -> f32 loc(#loc31)
    %637 = llvm.insertelement %636, %1[%9 : i32] : vector<8xf32> loc(#loc31)
    %638 = llvm.shufflevector %637, %1 [0, 0, 0, 0, 0, 0, 0, 0] : vector<8xf32>  loc(#loc31)
    %639 = llvm.intr.fmuladd(%579, %633, %590) : (vector<8xf32>, vector<8xf32>, vector<8xf32>) -> vector<8xf32> loc(#loc31)
    %640 = llvm.add %323, %27 : i64 loc(#loc31)
    %641 = llvm.getelementptr %239[%640] : (!llvm.ptr, i64) -> !llvm.ptr, f32 loc(#loc31)
    %642 = llvm.load %641 : !llvm.ptr -> f32 loc(#loc31)
    %643 = llvm.insertelement %642, %1[%9 : i32] : vector<8xf32> loc(#loc31)
    %644 = llvm.shufflevector %643, %1 [0, 0, 0, 0, 0, 0, 0, 0] : vector<8xf32>  loc(#loc31)
    %645 = llvm.intr.fmuladd(%579, %638, %596) : (vector<8xf32>, vector<8xf32>, vector<8xf32>) -> vector<8xf32> loc(#loc31)
    %646 = llvm.add %326, %27 : i64 loc(#loc31)
    %647 = llvm.getelementptr %239[%646] : (!llvm.ptr, i64) -> !llvm.ptr, f32 loc(#loc31)
    %648 = llvm.load %647 : !llvm.ptr -> f32 loc(#loc31)
    %649 = llvm.insertelement %648, %1[%9 : i32] : vector<8xf32> loc(#loc31)
    %650 = llvm.shufflevector %649, %1 [0, 0, 0, 0, 0, 0, 0, 0] : vector<8xf32>  loc(#loc31)
    %651 = llvm.intr.fmuladd(%579, %644, %602) : (vector<8xf32>, vector<8xf32>, vector<8xf32>) -> vector<8xf32> loc(#loc31)
    %652 = llvm.add %329, %27 : i64 loc(#loc31)
    %653 = llvm.getelementptr %239[%652] : (!llvm.ptr, i64) -> !llvm.ptr, f32 loc(#loc31)
    %654 = llvm.load %653 : !llvm.ptr -> f32 loc(#loc31)
    %655 = llvm.insertelement %654, %1[%9 : i32] : vector<8xf32> loc(#loc31)
    %656 = llvm.shufflevector %655, %1 [0, 0, 0, 0, 0, 0, 0, 0] : vector<8xf32>  loc(#loc31)
    %657 = llvm.intr.fmuladd(%579, %650, %608) : (vector<8xf32>, vector<8xf32>, vector<8xf32>) -> vector<8xf32> loc(#loc31)
    %658 = llvm.add %332, %27 : i64 loc(#loc31)
    %659 = llvm.getelementptr %239[%658] : (!llvm.ptr, i64) -> !llvm.ptr, f32 loc(#loc31)
    %660 = llvm.load %659 : !llvm.ptr -> f32 loc(#loc31)
    %661 = llvm.insertelement %660, %1[%9 : i32] : vector<8xf32> loc(#loc31)
    %662 = llvm.shufflevector %661, %1 [0, 0, 0, 0, 0, 0, 0, 0] : vector<8xf32>  loc(#loc31)
    %663 = llvm.intr.fmuladd(%579, %656, %614) : (vector<8xf32>, vector<8xf32>, vector<8xf32>) -> vector<8xf32> loc(#loc31)
    %664 = llvm.add %335, %27 : i64 loc(#loc31)
    %665 = llvm.getelementptr %239[%664] : (!llvm.ptr, i64) -> !llvm.ptr, f32 loc(#loc31)
    %666 = llvm.load %665 : !llvm.ptr -> f32 loc(#loc31)
    %667 = llvm.insertelement %666, %1[%9 : i32] : vector<8xf32> loc(#loc31)
    %668 = llvm.shufflevector %667, %1 [0, 0, 0, 0, 0, 0, 0, 0] : vector<8xf32>  loc(#loc31)
    %669 = llvm.intr.fmuladd(%579, %662, %620) : (vector<8xf32>, vector<8xf32>, vector<8xf32>) -> vector<8xf32> loc(#loc31)
    %670 = llvm.add %338, %27 : i64 loc(#loc31)
    %671 = llvm.getelementptr %239[%670] : (!llvm.ptr, i64) -> !llvm.ptr, f32 loc(#loc31)
    %672 = llvm.load %671 : !llvm.ptr -> f32 loc(#loc31)
    %673 = llvm.insertelement %672, %1[%9 : i32] : vector<8xf32> loc(#loc31)
    %674 = llvm.shufflevector %673, %1 [0, 0, 0, 0, 0, 0, 0, 0] : vector<8xf32>  loc(#loc31)
    %675 = llvm.intr.fmuladd(%579, %668, %626) : (vector<8xf32>, vector<8xf32>, vector<8xf32>) -> vector<8xf32> loc(#loc31)
    %676 = llvm.intr.fmuladd(%579, %674, %627) : (vector<8xf32>, vector<8xf32>, vector<8xf32>) -> vector<8xf32> loc(#loc31)
    %677 = llvm.add %317, %28 : i64 loc(#loc31)
    %678 = llvm.getelementptr %239[%677] : (!llvm.ptr, i64) -> !llvm.ptr, f32 loc(#loc31)
    %679 = llvm.load %678 : !llvm.ptr -> f32 loc(#loc31)
    %680 = llvm.insertelement %679, %1[%9 : i32] : vector<8xf32> loc(#loc31)
    %681 = llvm.shufflevector %680, %1 [0, 0, 0, 0, 0, 0, 0, 0] : vector<8xf32>  loc(#loc31)
    %682 = llvm.add %320, %28 : i64 loc(#loc31)
    %683 = llvm.getelementptr %239[%682] : (!llvm.ptr, i64) -> !llvm.ptr, f32 loc(#loc31)
    %684 = llvm.load %683 : !llvm.ptr -> f32 loc(#loc31)
    %685 = llvm.insertelement %684, %1[%9 : i32] : vector<8xf32> loc(#loc31)
    %686 = llvm.shufflevector %685, %1 [0, 0, 0, 0, 0, 0, 0, 0] : vector<8xf32>  loc(#loc31)
    %687 = llvm.intr.fmuladd(%628, %681, %639) : (vector<8xf32>, vector<8xf32>, vector<8xf32>) -> vector<8xf32> loc(#loc31)
    %688 = llvm.add %323, %28 : i64 loc(#loc31)
    %689 = llvm.getelementptr %239[%688] : (!llvm.ptr, i64) -> !llvm.ptr, f32 loc(#loc31)
    %690 = llvm.load %689 : !llvm.ptr -> f32 loc(#loc31)
    %691 = llvm.insertelement %690, %1[%9 : i32] : vector<8xf32> loc(#loc31)
    %692 = llvm.shufflevector %691, %1 [0, 0, 0, 0, 0, 0, 0, 0] : vector<8xf32>  loc(#loc31)
    %693 = llvm.intr.fmuladd(%628, %686, %645) : (vector<8xf32>, vector<8xf32>, vector<8xf32>) -> vector<8xf32> loc(#loc31)
    %694 = llvm.add %326, %28 : i64 loc(#loc31)
    %695 = llvm.getelementptr %239[%694] : (!llvm.ptr, i64) -> !llvm.ptr, f32 loc(#loc31)
    %696 = llvm.load %695 : !llvm.ptr -> f32 loc(#loc31)
    %697 = llvm.insertelement %696, %1[%9 : i32] : vector<8xf32> loc(#loc31)
    %698 = llvm.shufflevector %697, %1 [0, 0, 0, 0, 0, 0, 0, 0] : vector<8xf32>  loc(#loc31)
    %699 = llvm.intr.fmuladd(%628, %692, %651) : (vector<8xf32>, vector<8xf32>, vector<8xf32>) -> vector<8xf32> loc(#loc31)
    %700 = llvm.add %329, %28 : i64 loc(#loc31)
    %701 = llvm.getelementptr %239[%700] : (!llvm.ptr, i64) -> !llvm.ptr, f32 loc(#loc31)
    %702 = llvm.load %701 : !llvm.ptr -> f32 loc(#loc31)
    %703 = llvm.insertelement %702, %1[%9 : i32] : vector<8xf32> loc(#loc31)
    %704 = llvm.shufflevector %703, %1 [0, 0, 0, 0, 0, 0, 0, 0] : vector<8xf32>  loc(#loc31)
    %705 = llvm.intr.fmuladd(%628, %698, %657) : (vector<8xf32>, vector<8xf32>, vector<8xf32>) -> vector<8xf32> loc(#loc31)
    %706 = llvm.add %332, %28 : i64 loc(#loc31)
    %707 = llvm.getelementptr %239[%706] : (!llvm.ptr, i64) -> !llvm.ptr, f32 loc(#loc31)
    %708 = llvm.load %707 : !llvm.ptr -> f32 loc(#loc31)
    %709 = llvm.insertelement %708, %1[%9 : i32] : vector<8xf32> loc(#loc31)
    %710 = llvm.shufflevector %709, %1 [0, 0, 0, 0, 0, 0, 0, 0] : vector<8xf32>  loc(#loc31)
    %711 = llvm.intr.fmuladd(%628, %704, %663) : (vector<8xf32>, vector<8xf32>, vector<8xf32>) -> vector<8xf32> loc(#loc31)
    %712 = llvm.add %335, %28 : i64 loc(#loc31)
    %713 = llvm.getelementptr %239[%712] : (!llvm.ptr, i64) -> !llvm.ptr, f32 loc(#loc31)
    %714 = llvm.load %713 : !llvm.ptr -> f32 loc(#loc31)
    %715 = llvm.insertelement %714, %1[%9 : i32] : vector<8xf32> loc(#loc31)
    %716 = llvm.shufflevector %715, %1 [0, 0, 0, 0, 0, 0, 0, 0] : vector<8xf32>  loc(#loc31)
    %717 = llvm.intr.fmuladd(%628, %710, %669) : (vector<8xf32>, vector<8xf32>, vector<8xf32>) -> vector<8xf32> loc(#loc31)
    %718 = llvm.add %338, %28 : i64 loc(#loc31)
    %719 = llvm.getelementptr %239[%718] : (!llvm.ptr, i64) -> !llvm.ptr, f32 loc(#loc31)
    %720 = llvm.load %719 : !llvm.ptr -> f32 loc(#loc31)
    %721 = llvm.insertelement %720, %1[%9 : i32] : vector<8xf32> loc(#loc31)
    %722 = llvm.shufflevector %721, %1 [0, 0, 0, 0, 0, 0, 0, 0] : vector<8xf32>  loc(#loc31)
    %723 = llvm.intr.fmuladd(%628, %716, %675) : (vector<8xf32>, vector<8xf32>, vector<8xf32>) -> vector<8xf32> loc(#loc31)
    %724 = llvm.intr.fmuladd(%628, %722, %676) : (vector<8xf32>, vector<8xf32>, vector<8xf32>) -> vector<8xf32> loc(#loc31)
    %725 = llvm.extractvalue %21[0] : !llvm.array<8 x vector<8xi64>>  loc(#loc35)
    %726 = llvm.add %253, %725 : vector<8xi64> loc(#loc35)
    %727 = llvm.insertvalue %726, %5[0] : !llvm.array<8 x vector<8xi64>>  loc(#loc35)
    %728 = llvm.extractvalue %21[1] : !llvm.array<8 x vector<8xi64>>  loc(#loc35)
    %729 = llvm.add %257, %728 : vector<8xi64> loc(#loc35)
    %730 = llvm.insertvalue %729, %727[1] : !llvm.array<8 x vector<8xi64>>  loc(#loc35)
    %731 = llvm.extractvalue %21[2] : !llvm.array<8 x vector<8xi64>>  loc(#loc35)
    %732 = llvm.add %261, %731 : vector<8xi64> loc(#loc35)
    %733 = llvm.insertvalue %732, %730[2] : !llvm.array<8 x vector<8xi64>>  loc(#loc35)
    %734 = llvm.extractvalue %21[3] : !llvm.array<8 x vector<8xi64>>  loc(#loc35)
    %735 = llvm.add %265, %734 : vector<8xi64> loc(#loc35)
    %736 = llvm.insertvalue %735, %733[3] : !llvm.array<8 x vector<8xi64>>  loc(#loc35)
    %737 = llvm.extractvalue %21[4] : !llvm.array<8 x vector<8xi64>>  loc(#loc35)
    %738 = llvm.add %269, %737 : vector<8xi64> loc(#loc35)
    %739 = llvm.insertvalue %738, %736[4] : !llvm.array<8 x vector<8xi64>>  loc(#loc35)
    %740 = llvm.extractvalue %21[5] : !llvm.array<8 x vector<8xi64>>  loc(#loc35)
    %741 = llvm.add %273, %740 : vector<8xi64> loc(#loc35)
    %742 = llvm.insertvalue %741, %739[5] : !llvm.array<8 x vector<8xi64>>  loc(#loc35)
    %743 = llvm.extractvalue %21[6] : !llvm.array<8 x vector<8xi64>>  loc(#loc35)
    %744 = llvm.add %277, %743 : vector<8xi64> loc(#loc35)
    %745 = llvm.insertvalue %744, %742[6] : !llvm.array<8 x vector<8xi64>>  loc(#loc35)
    %746 = llvm.extractvalue %21[7] : !llvm.array<8 x vector<8xi64>>  loc(#loc35)
    %747 = llvm.add %281, %746 : vector<8xi64> loc(#loc35)
    %748 = llvm.insertvalue %747, %745[7] : !llvm.array<8 x vector<8xi64>>  loc(#loc35)
    %749 = llvm.mul %238, %118 : vector<8xi32> loc(#loc30)
    %750 = llvm.mul %238, %120 : vector<8xi32> loc(#loc30)
    %751 = llvm.mul %238, %122 : vector<8xi32> loc(#loc30)
    %752 = llvm.mul %238, %124 : vector<8xi32> loc(#loc30)
    %753 = llvm.mul %238, %126 : vector<8xi32> loc(#loc30)
    %754 = llvm.mul %238, %128 : vector<8xi32> loc(#loc30)
    %755 = llvm.mul %238, %130 : vector<8xi32> loc(#loc30)
    %756 = llvm.mul %238, %132 : vector<8xi32> loc(#loc30)
    %757 = llvm.sext %749 : vector<8xi32> to vector<8xi64> loc(#loc30)
    %758 = llvm.sext %750 : vector<8xi32> to vector<8xi64> loc(#loc30)
    %759 = llvm.sext %751 : vector<8xi32> to vector<8xi64> loc(#loc30)
    %760 = llvm.sext %752 : vector<8xi32> to vector<8xi64> loc(#loc30)
    %761 = llvm.sext %753 : vector<8xi32> to vector<8xi64> loc(#loc30)
    %762 = llvm.sext %754 : vector<8xi32> to vector<8xi64> loc(#loc30)
    %763 = llvm.sext %755 : vector<8xi32> to vector<8xi64> loc(#loc30)
    %764 = llvm.sext %756 : vector<8xi32> to vector<8xi64> loc(#loc30)
    %765 = llvm.add %285, %757 : vector<8xi64> loc(#loc30)
    %766 = llvm.insertvalue %765, %5[0] : !llvm.array<8 x vector<8xi64>>  loc(#loc30)
    %767 = llvm.add %289, %758 : vector<8xi64> loc(#loc30)
    %768 = llvm.insertvalue %767, %766[1] : !llvm.array<8 x vector<8xi64>>  loc(#loc30)
    %769 = llvm.add %293, %759 : vector<8xi64> loc(#loc30)
    %770 = llvm.insertvalue %769, %768[2] : !llvm.array<8 x vector<8xi64>>  loc(#loc30)
    %771 = llvm.add %297, %760 : vector<8xi64> loc(#loc30)
    %772 = llvm.insertvalue %771, %770[3] : !llvm.array<8 x vector<8xi64>>  loc(#loc30)
    %773 = llvm.add %301, %761 : vector<8xi64> loc(#loc30)
    %774 = llvm.insertvalue %773, %772[4] : !llvm.array<8 x vector<8xi64>>  loc(#loc30)
    %775 = llvm.add %305, %762 : vector<8xi64> loc(#loc30)
    %776 = llvm.insertvalue %775, %774[5] : !llvm.array<8 x vector<8xi64>>  loc(#loc30)
    %777 = llvm.add %309, %763 : vector<8xi64> loc(#loc30)
    %778 = llvm.insertvalue %777, %776[6] : !llvm.array<8 x vector<8xi64>>  loc(#loc30)
    %779 = llvm.add %313, %764 : vector<8xi64> loc(#loc30)
    %780 = llvm.insertvalue %779, %778[7] : !llvm.array<8 x vector<8xi64>>  loc(#loc30)
    %781 = llvm.add %241, %10 : i32 loc(#loc32)
    llvm.br ^bb1(%781, %748, %780, %687, %693, %699, %705, %711, %717, %723, %724 : i32, !llvm.array<8 x vector<8xi64>>, !llvm.array<8 x vector<8xi64>>, vector<8xf32>, vector<8xf32>, vector<8xf32>, vector<8xf32>, vector<8xf32>, vector<8xf32>, vector<8xf32>, vector<8xf32>) loc(#loc32)
  ^bb3:  // pred: ^bb1
    %782 = llvm.shufflevector %54, %54 [0] : vector<8xi32>  loc(#loc36)
    %783 = llvm.shufflevector %54, %54 [1] : vector<8xi32>  loc(#loc36)
    %784 = llvm.shufflevector %54, %54 [2] : vector<8xi32>  loc(#loc36)
    %785 = llvm.shufflevector %54, %54 [3] : vector<8xi32>  loc(#loc36)
    %786 = llvm.shufflevector %54, %54 [4] : vector<8xi32>  loc(#loc36)
    %787 = llvm.shufflevector %54, %54 [5] : vector<8xi32>  loc(#loc36)
    %788 = llvm.shufflevector %54, %54 [6] : vector<8xi32>  loc(#loc36)
    %789 = llvm.shufflevector %54, %54 [7] : vector<8xi32>  loc(#loc36)
    %790 = llvm.insertelement %arg3, %7[%9 : i32] : vector<1xi32> loc(#loc37)
    %791 = llvm.shufflevector %790, %790 [0] : vector<1xi32>  loc(#loc37)
    %792 = llvm.icmp "slt" %782, %791 : vector<1xi32> loc(#loc37)
    %793 = llvm.icmp "slt" %783, %791 : vector<1xi32> loc(#loc37)
    %794 = llvm.icmp "slt" %784, %791 : vector<1xi32> loc(#loc37)
    %795 = llvm.icmp "slt" %785, %791 : vector<1xi32> loc(#loc37)
    %796 = llvm.icmp "slt" %786, %791 : vector<1xi32> loc(#loc37)
    %797 = llvm.icmp "slt" %787, %791 : vector<1xi32> loc(#loc37)
    %798 = llvm.icmp "slt" %788, %791 : vector<1xi32> loc(#loc37)
    %799 = llvm.icmp "slt" %789, %791 : vector<1xi32> loc(#loc37)
    %800 = llvm.shufflevector %62, %62 [0, 0, 0, 0, 0, 0, 0, 0] : vector<8xi32>  loc(#loc38)
    %801 = llvm.icmp "slt" %61, %800 : vector<8xi32> loc(#loc38)
    %802 = llvm.extractelement %792[%6 : i64] : vector<1xi1> loc(#loc39)
    %803 = llvm.insertelement %802, %0[%9 : i32] : vector<8xi1> loc(#loc39)
    %804 = llvm.shufflevector %803, %0 [0, 0, 0, 0, 0, 0, 0, 0] : vector<8xi1>  loc(#loc39)
    %805 = llvm.extractelement %793[%6 : i64] : vector<1xi1> loc(#loc39)
    %806 = llvm.insertelement %805, %0[%9 : i32] : vector<8xi1> loc(#loc39)
    %807 = llvm.shufflevector %806, %0 [0, 0, 0, 0, 0, 0, 0, 0] : vector<8xi1>  loc(#loc39)
    %808 = llvm.extractelement %794[%6 : i64] : vector<1xi1> loc(#loc39)
    %809 = llvm.insertelement %808, %0[%9 : i32] : vector<8xi1> loc(#loc39)
    %810 = llvm.shufflevector %809, %0 [0, 0, 0, 0, 0, 0, 0, 0] : vector<8xi1>  loc(#loc39)
    %811 = llvm.extractelement %795[%6 : i64] : vector<1xi1> loc(#loc39)
    %812 = llvm.insertelement %811, %0[%9 : i32] : vector<8xi1> loc(#loc39)
    %813 = llvm.shufflevector %812, %0 [0, 0, 0, 0, 0, 0, 0, 0] : vector<8xi1>  loc(#loc39)
    %814 = llvm.extractelement %796[%6 : i64] : vector<1xi1> loc(#loc39)
    %815 = llvm.insertelement %814, %0[%9 : i32] : vector<8xi1> loc(#loc39)
    %816 = llvm.shufflevector %815, %0 [0, 0, 0, 0, 0, 0, 0, 0] : vector<8xi1>  loc(#loc39)
    %817 = llvm.extractelement %797[%6 : i64] : vector<1xi1> loc(#loc39)
    %818 = llvm.insertelement %817, %0[%9 : i32] : vector<8xi1> loc(#loc39)
    %819 = llvm.shufflevector %818, %0 [0, 0, 0, 0, 0, 0, 0, 0] : vector<8xi1>  loc(#loc39)
    %820 = llvm.extractelement %798[%6 : i64] : vector<1xi1> loc(#loc39)
    %821 = llvm.insertelement %820, %0[%9 : i32] : vector<8xi1> loc(#loc39)
    %822 = llvm.shufflevector %821, %0 [0, 0, 0, 0, 0, 0, 0, 0] : vector<8xi1>  loc(#loc39)
    %823 = llvm.extractelement %799[%6 : i64] : vector<1xi1> loc(#loc39)
    %824 = llvm.insertelement %823, %0[%9 : i32] : vector<8xi1> loc(#loc39)
    %825 = llvm.shufflevector %824, %0 [0, 0, 0, 0, 0, 0, 0, 0] : vector<8xi1>  loc(#loc39)
    %826 = llvm.and %804, %801 : vector<8xi1> loc(#loc39)
    %827 = llvm.and %807, %801 : vector<8xi1> loc(#loc39)
    %828 = llvm.and %810, %801 : vector<8xi1> loc(#loc39)
    %829 = llvm.and %813, %801 : vector<8xi1> loc(#loc39)
    %830 = llvm.and %816, %801 : vector<8xi1> loc(#loc39)
    %831 = llvm.and %819, %801 : vector<8xi1> loc(#loc39)
    %832 = llvm.and %822, %801 : vector<8xi1> loc(#loc39)
    %833 = llvm.and %825, %801 : vector<8xi1> loc(#loc39)
    %834 = llvm.mul %arg8, %51 : i32 loc(#loc40)
    %835 = llvm.getelementptr %arg2[%834] : (!llvm.ptr, i32) -> !llvm.ptr, f32 loc(#loc41)
    %836 = llvm.getelementptr %835[%58] : (!llvm.ptr, i32) -> !llvm.ptr, f32 loc(#loc42)
    llvm.intr.masked.store %244, %836, %826 {alignment = 4 : i32} : vector<8xf32>, vector<8xi1> into !llvm.ptr loc(#loc43)
    %837 = llvm.add %51, %10 : i32 loc(#loc16)
    %838 = llvm.mul %arg8, %837 : i32 loc(#loc40)
    %839 = llvm.getelementptr %arg2[%838] : (!llvm.ptr, i32) -> !llvm.ptr, f32 loc(#loc41)
    %840 = llvm.getelementptr %839[%58] : (!llvm.ptr, i32) -> !llvm.ptr, f32 loc(#loc42)
    llvm.intr.masked.store %245, %840, %827 {alignment = 4 : i32} : vector<8xf32>, vector<8xi1> into !llvm.ptr loc(#loc43)
    %841 = llvm.add %51, %17 : i32 loc(#loc16)
    %842 = llvm.mul %arg8, %841 : i32 loc(#loc40)
    %843 = llvm.getelementptr %arg2[%842] : (!llvm.ptr, i32) -> !llvm.ptr, f32 loc(#loc41)
    %844 = llvm.getelementptr %843[%58] : (!llvm.ptr, i32) -> !llvm.ptr, f32 loc(#loc42)
    llvm.intr.masked.store %246, %844, %828 {alignment = 4 : i32} : vector<8xf32>, vector<8xi1> into !llvm.ptr loc(#loc43)
    %845 = llvm.add %51, %18 : i32 loc(#loc16)
    %846 = llvm.mul %arg8, %845 : i32 loc(#loc40)
    %847 = llvm.getelementptr %arg2[%846] : (!llvm.ptr, i32) -> !llvm.ptr, f32 loc(#loc41)
    %848 = llvm.getelementptr %847[%58] : (!llvm.ptr, i32) -> !llvm.ptr, f32 loc(#loc42)
    llvm.intr.masked.store %247, %848, %829 {alignment = 4 : i32} : vector<8xf32>, vector<8xi1> into !llvm.ptr loc(#loc43)
    %849 = llvm.add %51, %13 : i32 loc(#loc16)
    %850 = llvm.mul %arg8, %849 : i32 loc(#loc40)
    %851 = llvm.getelementptr %arg2[%850] : (!llvm.ptr, i32) -> !llvm.ptr, f32 loc(#loc41)
    %852 = llvm.getelementptr %851[%58] : (!llvm.ptr, i32) -> !llvm.ptr, f32 loc(#loc42)
    llvm.intr.masked.store %248, %852, %830 {alignment = 4 : i32} : vector<8xf32>, vector<8xi1> into !llvm.ptr loc(#loc43)
    %853 = llvm.add %51, %19 : i32 loc(#loc16)
    %854 = llvm.mul %arg8, %853 : i32 loc(#loc40)
    %855 = llvm.getelementptr %arg2[%854] : (!llvm.ptr, i32) -> !llvm.ptr, f32 loc(#loc41)
    %856 = llvm.getelementptr %855[%58] : (!llvm.ptr, i32) -> !llvm.ptr, f32 loc(#loc42)
    llvm.intr.masked.store %249, %856, %831 {alignment = 4 : i32} : vector<8xf32>, vector<8xi1> into !llvm.ptr loc(#loc43)
    %857 = llvm.add %51, %20 : i32 loc(#loc16)
    %858 = llvm.mul %arg8, %857 : i32 loc(#loc40)
    %859 = llvm.getelementptr %arg2[%858] : (!llvm.ptr, i32) -> !llvm.ptr, f32 loc(#loc41)
    %860 = llvm.getelementptr %859[%58] : (!llvm.ptr, i32) -> !llvm.ptr, f32 loc(#loc42)
    llvm.intr.masked.store %250, %860, %832 {alignment = 4 : i32} : vector<8xf32>, vector<8xi1> into !llvm.ptr loc(#loc43)
    %861 = llvm.add %51, %11 : i32 loc(#loc16)
    %862 = llvm.mul %arg8, %861 : i32 loc(#loc40)
    %863 = llvm.getelementptr %arg2[%862] : (!llvm.ptr, i32) -> !llvm.ptr, f32 loc(#loc41)
    %864 = llvm.getelementptr %863[%58] : (!llvm.ptr, i32) -> !llvm.ptr, f32 loc(#loc42)
    llvm.intr.masked.store %251, %864, %833 {alignment = 4 : i32} : vector<8xf32>, vector<8xi1> into !llvm.ptr loc(#loc43)
    llvm.return loc(#loc44)
  } loc(#loc)
} loc(#loc)
#loc2 = loc("/home/yuhao/triton-cpu/python/triton/language/standard.py":40:22)
#loc3 = loc("/home/yuhao/T_RVV/benchmark/src/triton/matmul.py":41:27)
#loc4 = loc("/home/yuhao/triton-cpu/python/triton/language/standard.py":40:28)
#loc5 = loc("/home/yuhao/T_RVV/benchmark/src/triton/matmul.py":42:27)
#loc6 = loc("/home/yuhao/T_RVV/benchmark/src/triton/matmul.py":43:38)
#loc7 = loc("/home/yuhao/T_RVV/benchmark/src/triton/matmul.py":44:22)
#loc8 = loc("/home/yuhao/T_RVV/benchmark/src/triton/matmul.py":45:29)
#loc9 = loc("/home/yuhao/T_RVV/benchmark/src/triton/matmul.py":46:35)
#loc10 = loc("/home/yuhao/T_RVV/benchmark/src/triton/matmul.py":46:48)
#loc11 = loc("/home/yuhao/T_RVV/benchmark/src/triton/matmul.py":47:33)
#loc12 = loc("/home/yuhao/T_RVV/benchmark/src/triton/matmul.py":47:27)
#loc13 = loc("/home/yuhao/T_RVV/benchmark/src/triton/matmul.py":48:19)
#loc14 = loc("/home/yuhao/T_RVV/benchmark/src/triton/matmul.py":48:40)
#loc15 = loc("/home/yuhao/T_RVV/benchmark/src/triton/matmul.py":72:23)
#loc16 = loc("/home/yuhao/T_RVV/benchmark/src/triton/matmul.py":72:38)
#loc17 = loc("/home/yuhao/T_RVV/benchmark/src/triton/matmul.py":72:68)
#loc18 = loc("/home/yuhao/T_RVV/benchmark/src/triton/matmul.py":73:23)
#loc19 = loc("/home/yuhao/T_RVV/benchmark/src/triton/matmul.py":73:38)
#loc20 = loc("/home/yuhao/T_RVV/benchmark/src/triton/matmul.py":73:68)
#loc21 = loc("/home/yuhao/T_RVV/benchmark/src/triton/matmul.py":75:34)
#loc22 = loc("/home/yuhao/T_RVV/benchmark/src/triton/matmul.py":75:45)
#loc23 = loc("/home/yuhao/T_RVV/benchmark/src/triton/matmul.py":75:57)
#loc25 = loc("/home/yuhao/T_RVV/benchmark/src/triton/matmul.py":76:44)
#loc26 = loc("/home/yuhao/T_RVV/benchmark/src/triton/matmul.py":76:56)
#loc28 = loc("/home/yuhao/T_RVV/benchmark/src/triton/matmul.py":85:33)
#loc29 = loc("/home/yuhao/T_RVV/benchmark/src/triton/matmul.py":101:37)
#loc30 = loc("/home/yuhao/T_RVV/benchmark/src/triton/matmul.py":101:22)
#loc31 = loc("/home/yuhao/T_RVV/benchmark/src/triton/matmul.py":92:33)
#loc33 = loc("/home/yuhao/T_RVV/benchmark/src/triton/matmul.py":88:20)
#loc34 = loc("/home/yuhao/T_RVV/benchmark/src/triton/matmul.py":89:20)
#loc35 = loc("/home/yuhao/T_RVV/benchmark/src/triton/matmul.py":100:22)
#loc36 = loc("/home/yuhao/T_RVV/benchmark/src/triton/matmul.py":114:41)
#loc37 = loc("/home/yuhao/T_RVV/benchmark/src/triton/matmul.py":115:33)
#loc38 = loc("/home/yuhao/T_RVV/benchmark/src/triton/matmul.py":115:58)
#loc39 = loc("/home/yuhao/T_RVV/benchmark/src/triton/matmul.py":115:39)
#loc40 = loc("/home/yuhao/T_RVV/benchmark/src/triton/matmul.py":114:33)
#loc41 = loc("/home/yuhao/T_RVV/benchmark/src/triton/matmul.py":114:21)
#loc42 = loc("/home/yuhao/T_RVV/benchmark/src/triton/matmul.py":114:52)
#loc43 = loc("/home/yuhao/T_RVV/benchmark/src/triton/matmul.py":116:21)
#loc44 = loc("/home/yuhao/T_RVV/benchmark/src/triton/matmul.py":116:4)
#loc45 = loc(callsite(#loc2 at #loc3))
#loc46 = loc(callsite(#loc4 at #loc3))
#loc47 = loc(callsite(#loc2 at #loc5))
#loc48 = loc(callsite(#loc4 at #loc5))
#loc49 = loc(callsite(#loc4 at #loc28))


