#loc = loc("/home/yuhao/T_RVV/benchmark/src/triton/matmul.py":24:0)
module {
  tt.func public @matmul_kernel(%arg0: !tt.ptr<f32> {tt.divisibility = 16 : i32} loc("/home/yuhao/T_RVV/benchmark/src/triton/matmul.py":24:0), %arg1: !tt.ptr<f32> {tt.divisibility = 16 : i32} loc("/home/yuhao/T_RVV/benchmark/src/triton/matmul.py":24:0), %arg2: !tt.ptr<f32> {tt.divisibility = 16 : i32} loc("/home/yuhao/T_RVV/benchmark/src/triton/matmul.py":24:0), %arg3: i32 {tt.divisibility = 16 : i32} loc("/home/yuhao/T_RVV/benchmark/src/triton/matmul.py":24:0), %arg4: i32 {tt.divisibility = 16 : i32} loc("/home/yuhao/T_RVV/benchmark/src/triton/matmul.py":24:0), %arg5: i32 {tt.divisibility = 16 : i32} loc("/home/yuhao/T_RVV/benchmark/src/triton/matmul.py":24:0), %arg6: i32 {tt.divisibility = 16 : i32} loc("/home/yuhao/T_RVV/benchmark/src/triton/matmul.py":24:0), %arg7: i32 {tt.divisibility = 16 : i32} loc("/home/yuhao/T_RVV/benchmark/src/triton/matmul.py":24:0), %arg8: i32 {tt.divisibility = 16 : i32} loc("/home/yuhao/T_RVV/benchmark/src/triton/matmul.py":24:0)) attributes {noinline = false} {
    %cst = arith.constant dense<0.000000e+00> : vector<64xf32> loc(#loc1)
    %c127 = arith.constant 127 : index loc(#loc1)
    %c126 = arith.constant 126 : index loc(#loc1)
    %c125 = arith.constant 125 : index loc(#loc1)
    %c124 = arith.constant 124 : index loc(#loc1)
    %c123 = arith.constant 123 : index loc(#loc1)
    %c122 = arith.constant 122 : index loc(#loc1)
    %c121 = arith.constant 121 : index loc(#loc1)
    %c120 = arith.constant 120 : index loc(#loc1)
    %c119 = arith.constant 119 : index loc(#loc1)
    %c118 = arith.constant 118 : index loc(#loc1)
    %c117 = arith.constant 117 : index loc(#loc1)
    %c116 = arith.constant 116 : index loc(#loc1)
    %c115 = arith.constant 115 : index loc(#loc1)
    %c114 = arith.constant 114 : index loc(#loc1)
    %c113 = arith.constant 113 : index loc(#loc1)
    %c112 = arith.constant 112 : index loc(#loc1)
    %c111 = arith.constant 111 : index loc(#loc1)
    %c110 = arith.constant 110 : index loc(#loc1)
    %c109 = arith.constant 109 : index loc(#loc1)
    %c108 = arith.constant 108 : index loc(#loc1)
    %c107 = arith.constant 107 : index loc(#loc1)
    %c106 = arith.constant 106 : index loc(#loc1)
    %c105 = arith.constant 105 : index loc(#loc1)
    %c104 = arith.constant 104 : index loc(#loc1)
    %c103 = arith.constant 103 : index loc(#loc1)
    %c102 = arith.constant 102 : index loc(#loc1)
    %c101 = arith.constant 101 : index loc(#loc1)
    %c100 = arith.constant 100 : index loc(#loc1)
    %c99 = arith.constant 99 : index loc(#loc1)
    %c98 = arith.constant 98 : index loc(#loc1)
    %c97 = arith.constant 97 : index loc(#loc1)
    %c96 = arith.constant 96 : index loc(#loc1)
    %c95 = arith.constant 95 : index loc(#loc1)
    %c94 = arith.constant 94 : index loc(#loc1)
    %c93 = arith.constant 93 : index loc(#loc1)
    %c92 = arith.constant 92 : index loc(#loc1)
    %c91 = arith.constant 91 : index loc(#loc1)
    %c90 = arith.constant 90 : index loc(#loc1)
    %c89 = arith.constant 89 : index loc(#loc1)
    %c88 = arith.constant 88 : index loc(#loc1)
    %c87 = arith.constant 87 : index loc(#loc1)
    %c86 = arith.constant 86 : index loc(#loc1)
    %c85 = arith.constant 85 : index loc(#loc1)
    %c84 = arith.constant 84 : index loc(#loc1)
    %c83 = arith.constant 83 : index loc(#loc1)
    %c82 = arith.constant 82 : index loc(#loc1)
    %c81 = arith.constant 81 : index loc(#loc1)
    %c80 = arith.constant 80 : index loc(#loc1)
    %c79 = arith.constant 79 : index loc(#loc1)
    %c78 = arith.constant 78 : index loc(#loc1)
    %c77 = arith.constant 77 : index loc(#loc1)
    %c76 = arith.constant 76 : index loc(#loc1)
    %c75 = arith.constant 75 : index loc(#loc1)
    %c74 = arith.constant 74 : index loc(#loc1)
    %c73 = arith.constant 73 : index loc(#loc1)
    %c72 = arith.constant 72 : index loc(#loc1)
    %c71 = arith.constant 71 : index loc(#loc1)
    %c70 = arith.constant 70 : index loc(#loc1)
    %c69 = arith.constant 69 : index loc(#loc1)
    %c68 = arith.constant 68 : index loc(#loc1)
    %c67 = arith.constant 67 : index loc(#loc1)
    %c66 = arith.constant 66 : index loc(#loc1)
    %c65 = arith.constant 65 : index loc(#loc1)
    %c64 = arith.constant 64 : index loc(#loc1)
    %c63 = arith.constant 63 : index loc(#loc1)
    %c62 = arith.constant 62 : index loc(#loc1)
    %c61 = arith.constant 61 : index loc(#loc1)
    %c60 = arith.constant 60 : index loc(#loc1)
    %c59 = arith.constant 59 : index loc(#loc1)
    %c58 = arith.constant 58 : index loc(#loc1)
    %c57 = arith.constant 57 : index loc(#loc1)
    %c56 = arith.constant 56 : index loc(#loc1)
    %c55 = arith.constant 55 : index loc(#loc1)
    %c54 = arith.constant 54 : index loc(#loc1)
    %c53 = arith.constant 53 : index loc(#loc1)
    %c52 = arith.constant 52 : index loc(#loc1)
    %c51 = arith.constant 51 : index loc(#loc1)
    %c50 = arith.constant 50 : index loc(#loc1)
    %c49 = arith.constant 49 : index loc(#loc1)
    %c48 = arith.constant 48 : index loc(#loc1)
    %c47 = arith.constant 47 : index loc(#loc1)
    %c46 = arith.constant 46 : index loc(#loc1)
    %c45 = arith.constant 45 : index loc(#loc1)
    %c44 = arith.constant 44 : index loc(#loc1)
    %c43 = arith.constant 43 : index loc(#loc1)
    %c42 = arith.constant 42 : index loc(#loc1)
    %c41 = arith.constant 41 : index loc(#loc1)
    %c40 = arith.constant 40 : index loc(#loc1)
    %c39 = arith.constant 39 : index loc(#loc1)
    %c38 = arith.constant 38 : index loc(#loc1)
    %c37 = arith.constant 37 : index loc(#loc1)
    %c36 = arith.constant 36 : index loc(#loc1)
    %c35 = arith.constant 35 : index loc(#loc1)
    %c34 = arith.constant 34 : index loc(#loc1)
    %c33 = arith.constant 33 : index loc(#loc1)
    %c32 = arith.constant 32 : index loc(#loc1)
    %c31 = arith.constant 31 : index loc(#loc1)
    %c30 = arith.constant 30 : index loc(#loc1)
    %c29 = arith.constant 29 : index loc(#loc1)
    %c28 = arith.constant 28 : index loc(#loc1)
    %c27 = arith.constant 27 : index loc(#loc1)
    %c26 = arith.constant 26 : index loc(#loc1)
    %c25 = arith.constant 25 : index loc(#loc1)
    %c24 = arith.constant 24 : index loc(#loc1)
    %c23 = arith.constant 23 : index loc(#loc1)
    %c22 = arith.constant 22 : index loc(#loc1)
    %c21 = arith.constant 21 : index loc(#loc1)
    %c20 = arith.constant 20 : index loc(#loc1)
    %c19 = arith.constant 19 : index loc(#loc1)
    %c18 = arith.constant 18 : index loc(#loc1)
    %c17 = arith.constant 17 : index loc(#loc1)
    %c16 = arith.constant 16 : index loc(#loc1)
    %c15 = arith.constant 15 : index loc(#loc1)
    %c14 = arith.constant 14 : index loc(#loc1)
    %c13 = arith.constant 13 : index loc(#loc1)
    %c12 = arith.constant 12 : index loc(#loc1)
    %c11 = arith.constant 11 : index loc(#loc1)
    %c10 = arith.constant 10 : index loc(#loc1)
    %c9 = arith.constant 9 : index loc(#loc1)
    %c8 = arith.constant 8 : index loc(#loc1)
    %c7 = arith.constant 7 : index loc(#loc1)
    %c6 = arith.constant 6 : index loc(#loc1)
    %c5 = arith.constant 5 : index loc(#loc1)
    %c4 = arith.constant 4 : index loc(#loc1)
    %c3 = arith.constant 3 : index loc(#loc1)
    %c2 = arith.constant 2 : index loc(#loc1)
    %c1 = arith.constant 1 : index loc(#loc1)
    %c31_i32 = arith.constant 31 : i32 loc(#loc1)
    %cst_0 = arith.constant dense<0.000000e+00> : vector<128x64xf32> loc(#loc1)
    %c63_i32 = arith.constant 63 : i32 loc(#loc1)
    %c127_i32 = arith.constant 127 : i32 loc(#loc1)
    %c1_i32 = arith.constant 1 : i32 loc(#loc1)
    %c32_i32 = arith.constant 32 : i32 loc(#loc1)
    %c0_i32 = arith.constant 0 : i32 loc(#loc1)
    %c1_i64 = arith.constant 1 : i64 loc(#loc1)
    %c64_i32 = arith.constant 64 : i32 loc(#loc1)
    %c128_i32 = arith.constant 128 : i32 loc(#loc1)
    %c8_i32 = arith.constant 8 : i32 loc(#loc1)
    %0 = tt.get_program_id x : i32 loc(#loc2)
    %1 = arith.addi %arg3, %c127_i32 : i32 loc(#loc31)
    %2 = arith.divsi %1, %c128_i32 : i32 loc(#loc32)
    %3 = arith.addi %arg4, %c63_i32 : i32 loc(#loc33)
    %4 = arith.divsi %3, %c64_i32 : i32 loc(#loc34)
    %5 = arith.muli %4, %c8_i32 : i32 loc(#loc7)
    %6 = arith.divsi %0, %5 : i32 loc(#loc8)
    %7 = arith.muli %6, %c8_i32 : i32 loc(#loc9)
    %8 = arith.subi %2, %7 : i32 loc(#loc10)
    %9 = arith.minsi %8, %c8_i32 : i32 loc(#loc11)
    %10 = arith.remsi %0, %9 : i32 loc(#loc12)
    %11 = arith.addi %7, %10 : i32 loc(#loc13)
    %12 = arith.remsi %0, %5 : i32 loc(#loc14)
    %13 = arith.divsi %12, %9 : i32 loc(#loc15)
    %14 = arith.muli %11, %c128_i32 : i32 loc(#loc16)
    %15 = arith.muli %13, %c64_i32 : i32 loc(#loc17)
    %16 = arith.extsi %arg3 : i32 to i64 loc(#loc18)
    %17 = arith.extsi %arg5 : i32 to i64 loc(#loc18)
    %18 = arith.extsi %arg6 : i32 to i64 loc(#loc18)
    %19 = tt.make_tensor_ptr %arg0, [%16, %17], [%18, %c1_i64], [%14, %c0_i32] {order = array<i32: 1, 0>} : <tensor<128x32xf32>> loc(#loc18)
    %20 = arith.extsi %arg4 : i32 to i64 loc(#loc19)
    %21 = arith.extsi %arg7 : i32 to i64 loc(#loc19)
    %22 = tt.make_tensor_ptr %arg1, [%17, %20], [%21, %c1_i64], [%c0_i32, %15] {order = array<i32: 1, 0>} : <tensor<32x64xf32>> loc(#loc19)
    %23 = arith.addi %arg5, %c31_i32 : i32 loc(#loc35)
    %24 = arith.divsi %23, %c32_i32 : i32 loc(#loc36)
    %25:130 = scf.for %arg9 = %c0_i32 to %24 step %c1_i32 iter_args(%arg10 = %19, %arg11 = %22, %arg12 = %cst, %arg13 = %cst, %arg14 = %cst, %arg15 = %cst, %arg16 = %cst, %arg17 = %cst, %arg18 = %cst, %arg19 = %cst, %arg20 = %cst, %arg21 = %cst, %arg22 = %cst, %arg23 = %cst, %arg24 = %cst, %arg25 = %cst, %arg26 = %cst, %arg27 = %cst, %arg28 = %cst, %arg29 = %cst, %arg30 = %cst, %arg31 = %cst, %arg32 = %cst, %arg33 = %cst, %arg34 = %cst, %arg35 = %cst, %arg36 = %cst, %arg37 = %cst, %arg38 = %cst, %arg39 = %cst, %arg40 = %cst, %arg41 = %cst, %arg42 = %cst, %arg43 = %cst, %arg44 = %cst, %arg45 = %cst, %arg46 = %cst, %arg47 = %cst, %arg48 = %cst, %arg49 = %cst, %arg50 = %cst, %arg51 = %cst, %arg52 = %cst, %arg53 = %cst, %arg54 = %cst, %arg55 = %cst, %arg56 = %cst, %arg57 = %cst, %arg58 = %cst, %arg59 = %cst, %arg60 = %cst, %arg61 = %cst, %arg62 = %cst, %arg63 = %cst, %arg64 = %cst, %arg65 = %cst, %arg66 = %cst, %arg67 = %cst, %arg68 = %cst, %arg69 = %cst, %arg70 = %cst, %arg71 = %cst, %arg72 = %cst, %arg73 = %cst, %arg74 = %cst, %arg75 = %cst, %arg76 = %cst, %arg77 = %cst, %arg78 = %cst, %arg79 = %cst, %arg80 = %cst, %arg81 = %cst, %arg82 = %cst, %arg83 = %cst, %arg84 = %cst, %arg85 = %cst, %arg86 = %cst, %arg87 = %cst, %arg88 = %cst, %arg89 = %cst, %arg90 = %cst, %arg91 = %cst, %arg92 = %cst, %arg93 = %cst, %arg94 = %cst, %arg95 = %cst, %arg96 = %cst, %arg97 = %cst, %arg98 = %cst, %arg99 = %cst, %arg100 = %cst, %arg101 = %cst, %arg102 = %cst, %arg103 = %cst, %arg104 = %cst, %arg105 = %cst, %arg106 = %cst, %arg107 = %cst, %arg108 = %cst, %arg109 = %cst, %arg110 = %cst, %arg111 = %cst, %arg112 = %cst, %arg113 = %cst, %arg114 = %cst, %arg115 = %cst, %arg116 = %cst, %arg117 = %cst, %arg118 = %cst, %arg119 = %cst, %arg120 = %cst, %arg121 = %cst, %arg122 = %cst, %arg123 = %cst, %arg124 = %cst, %arg125 = %cst, %arg126 = %cst, %arg127 = %cst, %arg128 = %cst, %arg129 = %cst, %arg130 = %cst, %arg131 = %cst, %arg132 = %cst, %arg133 = %cst, %arg134 = %cst, %arg135 = %cst, %arg136 = %cst, %arg137 = %cst, %arg138 = %cst, %arg139 = %cst) -> (!tt.ptr<tensor<128x32xf32>>, !tt.ptr<tensor<32x64xf32>>, vector<64xf32>, vector<64xf32>, vector<64xf32>, vector<64xf32>, vector<64xf32>, vector<64xf32>, vector<64xf32>, vector<64xf32>, vector<64xf32>, vector<64xf32>, vector<64xf32>, vector<64xf32>, vector<64xf32>, vector<64xf32>, vector<64xf32>, vector<64xf32>, vector<64xf32>, vector<64xf32>, vector<64xf32>, vector<64xf32>, vector<64xf32>, vector<64xf32>, vector<64xf32>, vector<64xf32>, vector<64xf32>, vector<64xf32>, vector<64xf32>, vector<64xf32>, vector<64xf32>, vector<64xf32>, vector<64xf32>, vector<64xf32>, vector<64xf32>, vector<64xf32>, vector<64xf32>, vector<64xf32>, vector<64xf32>, vector<64xf32>, vector<64xf32>, vector<64xf32>, vector<64xf32>, vector<64xf32>, vector<64xf32>, vector<64xf32>, vector<64xf32>, vector<64xf32>, vector<64xf32>, vector<64xf32>, vector<64xf32>, vector<64xf32>, vector<64xf32>, vector<64xf32>, vector<64xf32>, vector<64xf32>, vector<64xf32>, vector<64xf32>, vector<64xf32>, vector<64xf32>, vector<64xf32>, vector<64xf32>, vector<64xf32>, vector<64xf32>, vector<64xf32>, vector<64xf32>, vector<64xf32>, vector<64xf32>, vector<64xf32>, vector<64xf32>, vector<64xf32>, vector<64xf32>, vector<64xf32>, vector<64xf32>, vector<64xf32>, vector<64xf32>, vector<64xf32>, vector<64xf32>, vector<64xf32>, vector<64xf32>, vector<64xf32>, vector<64xf32>, vector<64xf32>, vector<64xf32>, vector<64xf32>, vector<64xf32>, vector<64xf32>, vector<64xf32>, vector<64xf32>, vector<64xf32>, vector<64xf32>, vector<64xf32>, vector<64xf32>, vector<64xf32>, vector<64xf32>, vector<64xf32>, vector<64xf32>, vector<64xf32>, vector<64xf32>, vector<64xf32>, vector<64xf32>, vector<64xf32>, vector<64xf32>, vector<64xf32>, vector<64xf32>, vector<64xf32>, vector<64xf32>, vector<64xf32>, vector<64xf32>, vector<64xf32>, vector<64xf32>, vector<64xf32>, vector<64xf32>, vector<64xf32>, vector<64xf32>, vector<64xf32>, vector<64xf32>, vector<64xf32>, vector<64xf32>, vector<64xf32>, vector<64xf32>, vector<64xf32>, vector<64xf32>, vector<64xf32>, vector<64xf32>, vector<64xf32>, vector<64xf32>, vector<64xf32>, vector<64xf32>, vector<64xf32>)  : i32 {
      %158 = triton_cpu.extract_memref %arg10 : <tensor<128x32xf32>> -> memref<?x?xf32, strided<[?, 1]>> loc(#loc22)
      %159:2 = triton_cpu.extract_indices %arg10 : <tensor<128x32xf32>> -> index, index loc(#loc22)
      %160 = triton_cpu.extract_memref %arg11 : <tensor<32x64xf32>> -> memref<?x?xf32, strided<[?, 1]>> loc(#loc23)
      %161:2 = triton_cpu.extract_indices %arg11 : <tensor<32x64xf32>> -> index, index loc(#loc23)
      %162 = arith.addi %159#1, %c32 : index loc(#loc24)
      %163 = arith.addi %161#0, %c32 : index loc(#loc24)
      %164 = vector.load %160[%161#0, %161#1] : memref<?x?xf32, strided<[?, 1]>>, vector<64xf32> loc(#loc24)
      %165 = arith.addi %161#0, %c1 : index loc(#loc24)
      %166 = vector.load %160[%165, %161#1] : memref<?x?xf32, strided<[?, 1]>>, vector<64xf32> loc(#loc24)
      memref.prefetch %160[%163, %161#1], read, locality<1>, data : memref<?x?xf32, strided<[?, 1]>> loc(#loc24)
      %167 = memref.load %158[%159#0, %159#1] : memref<?x?xf32, strided<[?, 1]>> loc(#loc24)
      %168 = vector.broadcast %167 : f32 to vector<64xf32> loc(#loc24)
      %169 = arith.addi %159#0, %c1 : index loc(#loc24)
      %170 = memref.load %158[%169, %159#1] : memref<?x?xf32, strided<[?, 1]>> loc(#loc24)
      %171 = vector.broadcast %170 : f32 to vector<64xf32> loc(#loc24)
      memref.prefetch %158[%159#0, %162], read, locality<3>, data : memref<?x?xf32, strided<[?, 1]>> loc(#loc24)
      %172 = vector.fma %164, %168, %arg12 : vector<64xf32> loc(#loc24)
      %173 = arith.addi %159#0, %c2 : index loc(#loc24)
      %174 = memref.load %158[%173, %159#1] : memref<?x?xf32, strided<[?, 1]>> loc(#loc24)
      %175 = vector.broadcast %174 : f32 to vector<64xf32> loc(#loc24)
      memref.prefetch %158[%169, %162], read, locality<3>, data : memref<?x?xf32, strided<[?, 1]>> loc(#loc24)
      %176 = vector.fma %164, %171, %arg13 : vector<64xf32> loc(#loc24)
      %177 = arith.addi %159#0, %c3 : index loc(#loc24)
      %178 = memref.load %158[%177, %159#1] : memref<?x?xf32, strided<[?, 1]>> loc(#loc24)
      %179 = vector.broadcast %178 : f32 to vector<64xf32> loc(#loc24)
      memref.prefetch %158[%173, %162], read, locality<3>, data : memref<?x?xf32, strided<[?, 1]>> loc(#loc24)
      %180 = vector.fma %164, %175, %arg14 : vector<64xf32> loc(#loc24)
      %181 = arith.addi %159#0, %c4 : index loc(#loc24)
      %182 = memref.load %158[%181, %159#1] : memref<?x?xf32, strided<[?, 1]>> loc(#loc24)
      %183 = vector.broadcast %182 : f32 to vector<64xf32> loc(#loc24)
      memref.prefetch %158[%177, %162], read, locality<3>, data : memref<?x?xf32, strided<[?, 1]>> loc(#loc24)
      %184 = vector.fma %164, %179, %arg15 : vector<64xf32> loc(#loc24)
      %185 = arith.addi %159#0, %c5 : index loc(#loc24)
      %186 = memref.load %158[%185, %159#1] : memref<?x?xf32, strided<[?, 1]>> loc(#loc24)
      %187 = vector.broadcast %186 : f32 to vector<64xf32> loc(#loc24)
      memref.prefetch %158[%181, %162], read, locality<3>, data : memref<?x?xf32, strided<[?, 1]>> loc(#loc24)
      %188 = vector.fma %164, %183, %arg16 : vector<64xf32> loc(#loc24)
      %189 = arith.addi %159#0, %c6 : index loc(#loc24)
      %190 = memref.load %158[%189, %159#1] : memref<?x?xf32, strided<[?, 1]>> loc(#loc24)
      %191 = vector.broadcast %190 : f32 to vector<64xf32> loc(#loc24)
      memref.prefetch %158[%185, %162], read, locality<3>, data : memref<?x?xf32, strided<[?, 1]>> loc(#loc24)
      %192 = vector.fma %164, %187, %arg17 : vector<64xf32> loc(#loc24)
      %193 = arith.addi %159#0, %c7 : index loc(#loc24)
      %194 = memref.load %158[%193, %159#1] : memref<?x?xf32, strided<[?, 1]>> loc(#loc24)
      %195 = vector.broadcast %194 : f32 to vector<64xf32> loc(#loc24)
      memref.prefetch %158[%189, %162], read, locality<3>, data : memref<?x?xf32, strided<[?, 1]>> loc(#loc24)
      %196 = vector.fma %164, %191, %arg18 : vector<64xf32> loc(#loc24)
      %197 = arith.addi %159#0, %c8 : index loc(#loc24)
      %198 = memref.load %158[%197, %159#1] : memref<?x?xf32, strided<[?, 1]>> loc(#loc24)
      %199 = vector.broadcast %198 : f32 to vector<64xf32> loc(#loc24)
      memref.prefetch %158[%193, %162], read, locality<3>, data : memref<?x?xf32, strided<[?, 1]>> loc(#loc24)
      %200 = vector.fma %164, %195, %arg19 : vector<64xf32> loc(#loc24)
      %201 = arith.addi %159#0, %c9 : index loc(#loc24)
      %202 = memref.load %158[%201, %159#1] : memref<?x?xf32, strided<[?, 1]>> loc(#loc24)
      %203 = vector.broadcast %202 : f32 to vector<64xf32> loc(#loc24)
      memref.prefetch %158[%197, %162], read, locality<3>, data : memref<?x?xf32, strided<[?, 1]>> loc(#loc24)
      %204 = vector.fma %164, %199, %arg20 : vector<64xf32> loc(#loc24)
      %205 = arith.addi %159#0, %c10 : index loc(#loc24)
      %206 = memref.load %158[%205, %159#1] : memref<?x?xf32, strided<[?, 1]>> loc(#loc24)
      %207 = vector.broadcast %206 : f32 to vector<64xf32> loc(#loc24)
      memref.prefetch %158[%201, %162], read, locality<3>, data : memref<?x?xf32, strided<[?, 1]>> loc(#loc24)
      %208 = vector.fma %164, %203, %arg21 : vector<64xf32> loc(#loc24)
      %209 = arith.addi %159#0, %c11 : index loc(#loc24)
      %210 = memref.load %158[%209, %159#1] : memref<?x?xf32, strided<[?, 1]>> loc(#loc24)
      %211 = vector.broadcast %210 : f32 to vector<64xf32> loc(#loc24)
      memref.prefetch %158[%205, %162], read, locality<3>, data : memref<?x?xf32, strided<[?, 1]>> loc(#loc24)
      %212 = vector.fma %164, %207, %arg22 : vector<64xf32> loc(#loc24)
      %213 = arith.addi %159#0, %c12 : index loc(#loc24)
      %214 = memref.load %158[%213, %159#1] : memref<?x?xf32, strided<[?, 1]>> loc(#loc24)
      %215 = vector.broadcast %214 : f32 to vector<64xf32> loc(#loc24)
      memref.prefetch %158[%209, %162], read, locality<3>, data : memref<?x?xf32, strided<[?, 1]>> loc(#loc24)
      %216 = vector.fma %164, %211, %arg23 : vector<64xf32> loc(#loc24)
      %217 = arith.addi %159#0, %c13 : index loc(#loc24)
      %218 = memref.load %158[%217, %159#1] : memref<?x?xf32, strided<[?, 1]>> loc(#loc24)
      %219 = vector.broadcast %218 : f32 to vector<64xf32> loc(#loc24)
      memref.prefetch %158[%213, %162], read, locality<3>, data : memref<?x?xf32, strided<[?, 1]>> loc(#loc24)
      %220 = vector.fma %164, %215, %arg24 : vector<64xf32> loc(#loc24)
      %221 = arith.addi %159#0, %c14 : index loc(#loc24)
      %222 = memref.load %158[%221, %159#1] : memref<?x?xf32, strided<[?, 1]>> loc(#loc24)
      %223 = vector.broadcast %222 : f32 to vector<64xf32> loc(#loc24)
      memref.prefetch %158[%217, %162], read, locality<3>, data : memref<?x?xf32, strided<[?, 1]>> loc(#loc24)
      %224 = vector.fma %164, %219, %arg25 : vector<64xf32> loc(#loc24)
      %225 = arith.addi %159#0, %c15 : index loc(#loc24)
      %226 = memref.load %158[%225, %159#1] : memref<?x?xf32, strided<[?, 1]>> loc(#loc24)
      %227 = vector.broadcast %226 : f32 to vector<64xf32> loc(#loc24)
      memref.prefetch %158[%221, %162], read, locality<3>, data : memref<?x?xf32, strided<[?, 1]>> loc(#loc24)
      %228 = vector.fma %164, %223, %arg26 : vector<64xf32> loc(#loc24)
      %229 = arith.addi %159#0, %c16 : index loc(#loc24)
      %230 = memref.load %158[%229, %159#1] : memref<?x?xf32, strided<[?, 1]>> loc(#loc24)
      %231 = vector.broadcast %230 : f32 to vector<64xf32> loc(#loc24)
      memref.prefetch %158[%225, %162], read, locality<3>, data : memref<?x?xf32, strided<[?, 1]>> loc(#loc24)
      %232 = vector.fma %164, %227, %arg27 : vector<64xf32> loc(#loc24)
      %233 = arith.addi %159#0, %c17 : index loc(#loc24)
      %234 = memref.load %158[%233, %159#1] : memref<?x?xf32, strided<[?, 1]>> loc(#loc24)
      %235 = vector.broadcast %234 : f32 to vector<64xf32> loc(#loc24)
      memref.prefetch %158[%229, %162], read, locality<3>, data : memref<?x?xf32, strided<[?, 1]>> loc(#loc24)
      %236 = vector.fma %164, %231, %arg28 : vector<64xf32> loc(#loc24)
      %237 = arith.addi %159#0, %c18 : index loc(#loc24)
      %238 = memref.load %158[%237, %159#1] : memref<?x?xf32, strided<[?, 1]>> loc(#loc24)
      %239 = vector.broadcast %238 : f32 to vector<64xf32> loc(#loc24)
      memref.prefetch %158[%233, %162], read, locality<3>, data : memref<?x?xf32, strided<[?, 1]>> loc(#loc24)
      %240 = vector.fma %164, %235, %arg29 : vector<64xf32> loc(#loc24)
      %241 = arith.addi %159#0, %c19 : index loc(#loc24)
      %242 = memref.load %158[%241, %159#1] : memref<?x?xf32, strided<[?, 1]>> loc(#loc24)
      %243 = vector.broadcast %242 : f32 to vector<64xf32> loc(#loc24)
      memref.prefetch %158[%237, %162], read, locality<3>, data : memref<?x?xf32, strided<[?, 1]>> loc(#loc24)
      %244 = vector.fma %164, %239, %arg30 : vector<64xf32> loc(#loc24)
      %245 = arith.addi %159#0, %c20 : index loc(#loc24)
      %246 = memref.load %158[%245, %159#1] : memref<?x?xf32, strided<[?, 1]>> loc(#loc24)
      %247 = vector.broadcast %246 : f32 to vector<64xf32> loc(#loc24)
      memref.prefetch %158[%241, %162], read, locality<3>, data : memref<?x?xf32, strided<[?, 1]>> loc(#loc24)
      %248 = vector.fma %164, %243, %arg31 : vector<64xf32> loc(#loc24)
      %249 = arith.addi %159#0, %c21 : index loc(#loc24)
      %250 = memref.load %158[%249, %159#1] : memref<?x?xf32, strided<[?, 1]>> loc(#loc24)
      %251 = vector.broadcast %250 : f32 to vector<64xf32> loc(#loc24)
      memref.prefetch %158[%245, %162], read, locality<3>, data : memref<?x?xf32, strided<[?, 1]>> loc(#loc24)
      %252 = vector.fma %164, %247, %arg32 : vector<64xf32> loc(#loc24)
      %253 = arith.addi %159#0, %c22 : index loc(#loc24)
      %254 = memref.load %158[%253, %159#1] : memref<?x?xf32, strided<[?, 1]>> loc(#loc24)
      %255 = vector.broadcast %254 : f32 to vector<64xf32> loc(#loc24)
      memref.prefetch %158[%249, %162], read, locality<3>, data : memref<?x?xf32, strided<[?, 1]>> loc(#loc24)
      %256 = vector.fma %164, %251, %arg33 : vector<64xf32> loc(#loc24)
      %257 = arith.addi %159#0, %c23 : index loc(#loc24)
      %258 = memref.load %158[%257, %159#1] : memref<?x?xf32, strided<[?, 1]>> loc(#loc24)
      %259 = vector.broadcast %258 : f32 to vector<64xf32> loc(#loc24)
      memref.prefetch %158[%253, %162], read, locality<3>, data : memref<?x?xf32, strided<[?, 1]>> loc(#loc24)
      %260 = vector.fma %164, %255, %arg34 : vector<64xf32> loc(#loc24)
      %261 = arith.addi %159#0, %c24 : index loc(#loc24)
      %262 = memref.load %158[%261, %159#1] : memref<?x?xf32, strided<[?, 1]>> loc(#loc24)
      %263 = vector.broadcast %262 : f32 to vector<64xf32> loc(#loc24)
      memref.prefetch %158[%257, %162], read, locality<3>, data : memref<?x?xf32, strided<[?, 1]>> loc(#loc24)
      %264 = vector.fma %164, %259, %arg35 : vector<64xf32> loc(#loc24)
      %265 = arith.addi %159#0, %c25 : index loc(#loc24)
      %266 = memref.load %158[%265, %159#1] : memref<?x?xf32, strided<[?, 1]>> loc(#loc24)
      %267 = vector.broadcast %266 : f32 to vector<64xf32> loc(#loc24)
      memref.prefetch %158[%261, %162], read, locality<3>, data : memref<?x?xf32, strided<[?, 1]>> loc(#loc24)
      %268 = vector.fma %164, %263, %arg36 : vector<64xf32> loc(#loc24)
      %269 = arith.addi %159#0, %c26 : index loc(#loc24)
      %270 = memref.load %158[%269, %159#1] : memref<?x?xf32, strided<[?, 1]>> loc(#loc24)
      %271 = vector.broadcast %270 : f32 to vector<64xf32> loc(#loc24)
      memref.prefetch %158[%265, %162], read, locality<3>, data : memref<?x?xf32, strided<[?, 1]>> loc(#loc24)
      %272 = vector.fma %164, %267, %arg37 : vector<64xf32> loc(#loc24)
      %273 = arith.addi %159#0, %c27 : index loc(#loc24)
      %274 = memref.load %158[%273, %159#1] : memref<?x?xf32, strided<[?, 1]>> loc(#loc24)
      %275 = vector.broadcast %274 : f32 to vector<64xf32> loc(#loc24)
      memref.prefetch %158[%269, %162], read, locality<3>, data : memref<?x?xf32, strided<[?, 1]>> loc(#loc24)
      %276 = vector.fma %164, %271, %arg38 : vector<64xf32> loc(#loc24)
      %277 = arith.addi %159#0, %c28 : index loc(#loc24)
      %278 = memref.load %158[%277, %159#1] : memref<?x?xf32, strided<[?, 1]>> loc(#loc24)
      %279 = vector.broadcast %278 : f32 to vector<64xf32> loc(#loc24)
      memref.prefetch %158[%273, %162], read, locality<3>, data : memref<?x?xf32, strided<[?, 1]>> loc(#loc24)
      %280 = vector.fma %164, %275, %arg39 : vector<64xf32> loc(#loc24)
      %281 = arith.addi %159#0, %c29 : index loc(#loc24)
      %282 = memref.load %158[%281, %159#1] : memref<?x?xf32, strided<[?, 1]>> loc(#loc24)
      %283 = vector.broadcast %282 : f32 to vector<64xf32> loc(#loc24)
      memref.prefetch %158[%277, %162], read, locality<3>, data : memref<?x?xf32, strided<[?, 1]>> loc(#loc24)
      %284 = vector.fma %164, %279, %arg40 : vector<64xf32> loc(#loc24)
      %285 = arith.addi %159#0, %c30 : index loc(#loc24)
      %286 = memref.load %158[%285, %159#1] : memref<?x?xf32, strided<[?, 1]>> loc(#loc24)
      %287 = vector.broadcast %286 : f32 to vector<64xf32> loc(#loc24)
      memref.prefetch %158[%281, %162], read, locality<3>, data : memref<?x?xf32, strided<[?, 1]>> loc(#loc24)
      %288 = vector.fma %164, %283, %arg41 : vector<64xf32> loc(#loc24)
      %289 = arith.addi %159#0, %c31 : index loc(#loc24)
      %290 = memref.load %158[%289, %159#1] : memref<?x?xf32, strided<[?, 1]>> loc(#loc24)
      %291 = vector.broadcast %290 : f32 to vector<64xf32> loc(#loc24)
      memref.prefetch %158[%285, %162], read, locality<3>, data : memref<?x?xf32, strided<[?, 1]>> loc(#loc24)
      %292 = vector.fma %164, %287, %arg42 : vector<64xf32> loc(#loc24)
      %293 = arith.addi %159#0, %c32 : index loc(#loc24)
      %294 = memref.load %158[%293, %159#1] : memref<?x?xf32, strided<[?, 1]>> loc(#loc24)
      %295 = vector.broadcast %294 : f32 to vector<64xf32> loc(#loc24)
      memref.prefetch %158[%289, %162], read, locality<3>, data : memref<?x?xf32, strided<[?, 1]>> loc(#loc24)
      %296 = vector.fma %164, %291, %arg43 : vector<64xf32> loc(#loc24)
      %297 = arith.addi %159#0, %c33 : index loc(#loc24)
      %298 = memref.load %158[%297, %159#1] : memref<?x?xf32, strided<[?, 1]>> loc(#loc24)
      %299 = vector.broadcast %298 : f32 to vector<64xf32> loc(#loc24)
      memref.prefetch %158[%293, %162], read, locality<3>, data : memref<?x?xf32, strided<[?, 1]>> loc(#loc24)
      %300 = vector.fma %164, %295, %arg44 : vector<64xf32> loc(#loc24)
      %301 = arith.addi %159#0, %c34 : index loc(#loc24)
      %302 = memref.load %158[%301, %159#1] : memref<?x?xf32, strided<[?, 1]>> loc(#loc24)
      %303 = vector.broadcast %302 : f32 to vector<64xf32> loc(#loc24)
      memref.prefetch %158[%297, %162], read, locality<3>, data : memref<?x?xf32, strided<[?, 1]>> loc(#loc24)
      %304 = vector.fma %164, %299, %arg45 : vector<64xf32> loc(#loc24)
      %305 = arith.addi %159#0, %c35 : index loc(#loc24)
      %306 = memref.load %158[%305, %159#1] : memref<?x?xf32, strided<[?, 1]>> loc(#loc24)
      %307 = vector.broadcast %306 : f32 to vector<64xf32> loc(#loc24)
      memref.prefetch %158[%301, %162], read, locality<3>, data : memref<?x?xf32, strided<[?, 1]>> loc(#loc24)
      %308 = vector.fma %164, %303, %arg46 : vector<64xf32> loc(#loc24)
      %309 = arith.addi %159#0, %c36 : index loc(#loc24)
      %310 = memref.load %158[%309, %159#1] : memref<?x?xf32, strided<[?, 1]>> loc(#loc24)
      %311 = vector.broadcast %310 : f32 to vector<64xf32> loc(#loc24)
      memref.prefetch %158[%305, %162], read, locality<3>, data : memref<?x?xf32, strided<[?, 1]>> loc(#loc24)
      %312 = vector.fma %164, %307, %arg47 : vector<64xf32> loc(#loc24)
      %313 = arith.addi %159#0, %c37 : index loc(#loc24)
      %314 = memref.load %158[%313, %159#1] : memref<?x?xf32, strided<[?, 1]>> loc(#loc24)
      %315 = vector.broadcast %314 : f32 to vector<64xf32> loc(#loc24)
      memref.prefetch %158[%309, %162], read, locality<3>, data : memref<?x?xf32, strided<[?, 1]>> loc(#loc24)
      %316 = vector.fma %164, %311, %arg48 : vector<64xf32> loc(#loc24)
      %317 = arith.addi %159#0, %c38 : index loc(#loc24)
      %318 = memref.load %158[%317, %159#1] : memref<?x?xf32, strided<[?, 1]>> loc(#loc24)
      %319 = vector.broadcast %318 : f32 to vector<64xf32> loc(#loc24)
      memref.prefetch %158[%313, %162], read, locality<3>, data : memref<?x?xf32, strided<[?, 1]>> loc(#loc24)
      %320 = vector.fma %164, %315, %arg49 : vector<64xf32> loc(#loc24)
      %321 = arith.addi %159#0, %c39 : index loc(#loc24)
      %322 = memref.load %158[%321, %159#1] : memref<?x?xf32, strided<[?, 1]>> loc(#loc24)
      %323 = vector.broadcast %322 : f32 to vector<64xf32> loc(#loc24)
      memref.prefetch %158[%317, %162], read, locality<3>, data : memref<?x?xf32, strided<[?, 1]>> loc(#loc24)
      %324 = vector.fma %164, %319, %arg50 : vector<64xf32> loc(#loc24)
      %325 = arith.addi %159#0, %c40 : index loc(#loc24)
      %326 = memref.load %158[%325, %159#1] : memref<?x?xf32, strided<[?, 1]>> loc(#loc24)
      %327 = vector.broadcast %326 : f32 to vector<64xf32> loc(#loc24)
      memref.prefetch %158[%321, %162], read, locality<3>, data : memref<?x?xf32, strided<[?, 1]>> loc(#loc24)
      %328 = vector.fma %164, %323, %arg51 : vector<64xf32> loc(#loc24)
      %329 = arith.addi %159#0, %c41 : index loc(#loc24)
      %330 = memref.load %158[%329, %159#1] : memref<?x?xf32, strided<[?, 1]>> loc(#loc24)
      %331 = vector.broadcast %330 : f32 to vector<64xf32> loc(#loc24)
      memref.prefetch %158[%325, %162], read, locality<3>, data : memref<?x?xf32, strided<[?, 1]>> loc(#loc24)
      %332 = vector.fma %164, %327, %arg52 : vector<64xf32> loc(#loc24)
      %333 = arith.addi %159#0, %c42 : index loc(#loc24)
      %334 = memref.load %158[%333, %159#1] : memref<?x?xf32, strided<[?, 1]>> loc(#loc24)
      %335 = vector.broadcast %334 : f32 to vector<64xf32> loc(#loc24)
      memref.prefetch %158[%329, %162], read, locality<3>, data : memref<?x?xf32, strided<[?, 1]>> loc(#loc24)
      %336 = vector.fma %164, %331, %arg53 : vector<64xf32> loc(#loc24)
      %337 = arith.addi %159#0, %c43 : index loc(#loc24)
      %338 = memref.load %158[%337, %159#1] : memref<?x?xf32, strided<[?, 1]>> loc(#loc24)
      %339 = vector.broadcast %338 : f32 to vector<64xf32> loc(#loc24)
      memref.prefetch %158[%333, %162], read, locality<3>, data : memref<?x?xf32, strided<[?, 1]>> loc(#loc24)
      %340 = vector.fma %164, %335, %arg54 : vector<64xf32> loc(#loc24)
      %341 = arith.addi %159#0, %c44 : index loc(#loc24)
      %342 = memref.load %158[%341, %159#1] : memref<?x?xf32, strided<[?, 1]>> loc(#loc24)
      %343 = vector.broadcast %342 : f32 to vector<64xf32> loc(#loc24)
      memref.prefetch %158[%337, %162], read, locality<3>, data : memref<?x?xf32, strided<[?, 1]>> loc(#loc24)
      %344 = vector.fma %164, %339, %arg55 : vector<64xf32> loc(#loc24)
      %345 = arith.addi %159#0, %c45 : index loc(#loc24)
      %346 = memref.load %158[%345, %159#1] : memref<?x?xf32, strided<[?, 1]>> loc(#loc24)
      %347 = vector.broadcast %346 : f32 to vector<64xf32> loc(#loc24)
      memref.prefetch %158[%341, %162], read, locality<3>, data : memref<?x?xf32, strided<[?, 1]>> loc(#loc24)
      %348 = vector.fma %164, %343, %arg56 : vector<64xf32> loc(#loc24)
      %349 = arith.addi %159#0, %c46 : index loc(#loc24)
      %350 = memref.load %158[%349, %159#1] : memref<?x?xf32, strided<[?, 1]>> loc(#loc24)
      %351 = vector.broadcast %350 : f32 to vector<64xf32> loc(#loc24)
      memref.prefetch %158[%345, %162], read, locality<3>, data : memref<?x?xf32, strided<[?, 1]>> loc(#loc24)
      %352 = vector.fma %164, %347, %arg57 : vector<64xf32> loc(#loc24)
      %353 = arith.addi %159#0, %c47 : index loc(#loc24)
      %354 = memref.load %158[%353, %159#1] : memref<?x?xf32, strided<[?, 1]>> loc(#loc24)
      %355 = vector.broadcast %354 : f32 to vector<64xf32> loc(#loc24)
      memref.prefetch %158[%349, %162], read, locality<3>, data : memref<?x?xf32, strided<[?, 1]>> loc(#loc24)
      %356 = vector.fma %164, %351, %arg58 : vector<64xf32> loc(#loc24)
      %357 = arith.addi %159#0, %c48 : index loc(#loc24)
      %358 = memref.load %158[%357, %159#1] : memref<?x?xf32, strided<[?, 1]>> loc(#loc24)
      %359 = vector.broadcast %358 : f32 to vector<64xf32> loc(#loc24)
      memref.prefetch %158[%353, %162], read, locality<3>, data : memref<?x?xf32, strided<[?, 1]>> loc(#loc24)
      %360 = vector.fma %164, %355, %arg59 : vector<64xf32> loc(#loc24)
      %361 = arith.addi %159#0, %c49 : index loc(#loc24)
      %362 = memref.load %158[%361, %159#1] : memref<?x?xf32, strided<[?, 1]>> loc(#loc24)
      %363 = vector.broadcast %362 : f32 to vector<64xf32> loc(#loc24)
      memref.prefetch %158[%357, %162], read, locality<3>, data : memref<?x?xf32, strided<[?, 1]>> loc(#loc24)
      %364 = vector.fma %164, %359, %arg60 : vector<64xf32> loc(#loc24)
      %365 = arith.addi %159#0, %c50 : index loc(#loc24)
      %366 = memref.load %158[%365, %159#1] : memref<?x?xf32, strided<[?, 1]>> loc(#loc24)
      %367 = vector.broadcast %366 : f32 to vector<64xf32> loc(#loc24)
      memref.prefetch %158[%361, %162], read, locality<3>, data : memref<?x?xf32, strided<[?, 1]>> loc(#loc24)
      %368 = vector.fma %164, %363, %arg61 : vector<64xf32> loc(#loc24)
      %369 = arith.addi %159#0, %c51 : index loc(#loc24)
      %370 = memref.load %158[%369, %159#1] : memref<?x?xf32, strided<[?, 1]>> loc(#loc24)
      %371 = vector.broadcast %370 : f32 to vector<64xf32> loc(#loc24)
      memref.prefetch %158[%365, %162], read, locality<3>, data : memref<?x?xf32, strided<[?, 1]>> loc(#loc24)
      %372 = vector.fma %164, %367, %arg62 : vector<64xf32> loc(#loc24)
      %373 = arith.addi %159#0, %c52 : index loc(#loc24)
      %374 = memref.load %158[%373, %159#1] : memref<?x?xf32, strided<[?, 1]>> loc(#loc24)
      %375 = vector.broadcast %374 : f32 to vector<64xf32> loc(#loc24)
      memref.prefetch %158[%369, %162], read, locality<3>, data : memref<?x?xf32, strided<[?, 1]>> loc(#loc24)
      %376 = vector.fma %164, %371, %arg63 : vector<64xf32> loc(#loc24)
      %377 = arith.addi %159#0, %c53 : index loc(#loc24)
      %378 = memref.load %158[%377, %159#1] : memref<?x?xf32, strided<[?, 1]>> loc(#loc24)
      %379 = vector.broadcast %378 : f32 to vector<64xf32> loc(#loc24)
      memref.prefetch %158[%373, %162], read, locality<3>, data : memref<?x?xf32, strided<[?, 1]>> loc(#loc24)
      %380 = vector.fma %164, %375, %arg64 : vector<64xf32> loc(#loc24)
      %381 = arith.addi %159#0, %c54 : index loc(#loc24)
      %382 = memref.load %158[%381, %159#1] : memref<?x?xf32, strided<[?, 1]>> loc(#loc24)
      %383 = vector.broadcast %382 : f32 to vector<64xf32> loc(#loc24)
      memref.prefetch %158[%377, %162], read, locality<3>, data : memref<?x?xf32, strided<[?, 1]>> loc(#loc24)
      %384 = vector.fma %164, %379, %arg65 : vector<64xf32> loc(#loc24)
      %385 = arith.addi %159#0, %c55 : index loc(#loc24)
      %386 = memref.load %158[%385, %159#1] : memref<?x?xf32, strided<[?, 1]>> loc(#loc24)
      %387 = vector.broadcast %386 : f32 to vector<64xf32> loc(#loc24)
      memref.prefetch %158[%381, %162], read, locality<3>, data : memref<?x?xf32, strided<[?, 1]>> loc(#loc24)
      %388 = vector.fma %164, %383, %arg66 : vector<64xf32> loc(#loc24)
      %389 = arith.addi %159#0, %c56 : index loc(#loc24)
      %390 = memref.load %158[%389, %159#1] : memref<?x?xf32, strided<[?, 1]>> loc(#loc24)
      %391 = vector.broadcast %390 : f32 to vector<64xf32> loc(#loc24)
      memref.prefetch %158[%385, %162], read, locality<3>, data : memref<?x?xf32, strided<[?, 1]>> loc(#loc24)
      %392 = vector.fma %164, %387, %arg67 : vector<64xf32> loc(#loc24)
      %393 = arith.addi %159#0, %c57 : index loc(#loc24)
      %394 = memref.load %158[%393, %159#1] : memref<?x?xf32, strided<[?, 1]>> loc(#loc24)
      %395 = vector.broadcast %394 : f32 to vector<64xf32> loc(#loc24)
      memref.prefetch %158[%389, %162], read, locality<3>, data : memref<?x?xf32, strided<[?, 1]>> loc(#loc24)
      %396 = vector.fma %164, %391, %arg68 : vector<64xf32> loc(#loc24)
      %397 = arith.addi %159#0, %c58 : index loc(#loc24)
      %398 = memref.load %158[%397, %159#1] : memref<?x?xf32, strided<[?, 1]>> loc(#loc24)
      %399 = vector.broadcast %398 : f32 to vector<64xf32> loc(#loc24)
      memref.prefetch %158[%393, %162], read, locality<3>, data : memref<?x?xf32, strided<[?, 1]>> loc(#loc24)
      %400 = vector.fma %164, %395, %arg69 : vector<64xf32> loc(#loc24)
      %401 = arith.addi %159#0, %c59 : index loc(#loc24)
      %402 = memref.load %158[%401, %159#1] : memref<?x?xf32, strided<[?, 1]>> loc(#loc24)
      %403 = vector.broadcast %402 : f32 to vector<64xf32> loc(#loc24)
      memref.prefetch %158[%397, %162], read, locality<3>, data : memref<?x?xf32, strided<[?, 1]>> loc(#loc24)
      %404 = vector.fma %164, %399, %arg70 : vector<64xf32> loc(#loc24)
      %405 = arith.addi %159#0, %c60 : index loc(#loc24)
      %406 = memref.load %158[%405, %159#1] : memref<?x?xf32, strided<[?, 1]>> loc(#loc24)
      %407 = vector.broadcast %406 : f32 to vector<64xf32> loc(#loc24)
      memref.prefetch %158[%401, %162], read, locality<3>, data : memref<?x?xf32, strided<[?, 1]>> loc(#loc24)
      %408 = vector.fma %164, %403, %arg71 : vector<64xf32> loc(#loc24)
      %409 = arith.addi %159#0, %c61 : index loc(#loc24)
      %410 = memref.load %158[%409, %159#1] : memref<?x?xf32, strided<[?, 1]>> loc(#loc24)
      %411 = vector.broadcast %410 : f32 to vector<64xf32> loc(#loc24)
      memref.prefetch %158[%405, %162], read, locality<3>, data : memref<?x?xf32, strided<[?, 1]>> loc(#loc24)
      %412 = vector.fma %164, %407, %arg72 : vector<64xf32> loc(#loc24)
      %413 = arith.addi %159#0, %c62 : index loc(#loc24)
      %414 = memref.load %158[%413, %159#1] : memref<?x?xf32, strided<[?, 1]>> loc(#loc24)
      %415 = vector.broadcast %414 : f32 to vector<64xf32> loc(#loc24)
      memref.prefetch %158[%409, %162], read, locality<3>, data : memref<?x?xf32, strided<[?, 1]>> loc(#loc24)
      %416 = vector.fma %164, %411, %arg73 : vector<64xf32> loc(#loc24)
      %417 = arith.addi %159#0, %c63 : index loc(#loc24)
      %418 = memref.load %158[%417, %159#1] : memref<?x?xf32, strided<[?, 1]>> loc(#loc24)
      %419 = vector.broadcast %418 : f32 to vector<64xf32> loc(#loc24)
      memref.prefetch %158[%413, %162], read, locality<3>, data : memref<?x?xf32, strided<[?, 1]>> loc(#loc24)
      %420 = vector.fma %164, %415, %arg74 : vector<64xf32> loc(#loc24)
      %421 = arith.addi %159#0, %c64 : index loc(#loc24)
      %422 = memref.load %158[%421, %159#1] : memref<?x?xf32, strided<[?, 1]>> loc(#loc24)
      %423 = vector.broadcast %422 : f32 to vector<64xf32> loc(#loc24)
      memref.prefetch %158[%417, %162], read, locality<3>, data : memref<?x?xf32, strided<[?, 1]>> loc(#loc24)
      %424 = vector.fma %164, %419, %arg75 : vector<64xf32> loc(#loc24)
      %425 = arith.addi %159#0, %c65 : index loc(#loc24)
      %426 = memref.load %158[%425, %159#1] : memref<?x?xf32, strided<[?, 1]>> loc(#loc24)
      %427 = vector.broadcast %426 : f32 to vector<64xf32> loc(#loc24)
      memref.prefetch %158[%421, %162], read, locality<3>, data : memref<?x?xf32, strided<[?, 1]>> loc(#loc24)
      %428 = vector.fma %164, %423, %arg76 : vector<64xf32> loc(#loc24)
      %429 = arith.addi %159#0, %c66 : index loc(#loc24)
      %430 = memref.load %158[%429, %159#1] : memref<?x?xf32, strided<[?, 1]>> loc(#loc24)
      %431 = vector.broadcast %430 : f32 to vector<64xf32> loc(#loc24)
      memref.prefetch %158[%425, %162], read, locality<3>, data : memref<?x?xf32, strided<[?, 1]>> loc(#loc24)
      %432 = vector.fma %164, %427, %arg77 : vector<64xf32> loc(#loc24)
      %433 = arith.addi %159#0, %c67 : index loc(#loc24)
      %434 = memref.load %158[%433, %159#1] : memref<?x?xf32, strided<[?, 1]>> loc(#loc24)
      %435 = vector.broadcast %434 : f32 to vector<64xf32> loc(#loc24)
      memref.prefetch %158[%429, %162], read, locality<3>, data : memref<?x?xf32, strided<[?, 1]>> loc(#loc24)
      %436 = vector.fma %164, %431, %arg78 : vector<64xf32> loc(#loc24)
      %437 = arith.addi %159#0, %c68 : index loc(#loc24)
      %438 = memref.load %158[%437, %159#1] : memref<?x?xf32, strided<[?, 1]>> loc(#loc24)
      %439 = vector.broadcast %438 : f32 to vector<64xf32> loc(#loc24)
      memref.prefetch %158[%433, %162], read, locality<3>, data : memref<?x?xf32, strided<[?, 1]>> loc(#loc24)
      %440 = vector.fma %164, %435, %arg79 : vector<64xf32> loc(#loc24)
      %441 = arith.addi %159#0, %c69 : index loc(#loc24)
      %442 = memref.load %158[%441, %159#1] : memref<?x?xf32, strided<[?, 1]>> loc(#loc24)
      %443 = vector.broadcast %442 : f32 to vector<64xf32> loc(#loc24)
      memref.prefetch %158[%437, %162], read, locality<3>, data : memref<?x?xf32, strided<[?, 1]>> loc(#loc24)
      %444 = vector.fma %164, %439, %arg80 : vector<64xf32> loc(#loc24)
      %445 = arith.addi %159#0, %c70 : index loc(#loc24)
      %446 = memref.load %158[%445, %159#1] : memref<?x?xf32, strided<[?, 1]>> loc(#loc24)
      %447 = vector.broadcast %446 : f32 to vector<64xf32> loc(#loc24)
      memref.prefetch %158[%441, %162], read, locality<3>, data : memref<?x?xf32, strided<[?, 1]>> loc(#loc24)
      %448 = vector.fma %164, %443, %arg81 : vector<64xf32> loc(#loc24)
      %449 = arith.addi %159#0, %c71 : index loc(#loc24)
      %450 = memref.load %158[%449, %159#1] : memref<?x?xf32, strided<[?, 1]>> loc(#loc24)
      %451 = vector.broadcast %450 : f32 to vector<64xf32> loc(#loc24)
      memref.prefetch %158[%445, %162], read, locality<3>, data : memref<?x?xf32, strided<[?, 1]>> loc(#loc24)
      %452 = vector.fma %164, %447, %arg82 : vector<64xf32> loc(#loc24)
      %453 = arith.addi %159#0, %c72 : index loc(#loc24)
      %454 = memref.load %158[%453, %159#1] : memref<?x?xf32, strided<[?, 1]>> loc(#loc24)
      %455 = vector.broadcast %454 : f32 to vector<64xf32> loc(#loc24)
      memref.prefetch %158[%449, %162], read, locality<3>, data : memref<?x?xf32, strided<[?, 1]>> loc(#loc24)
      %456 = vector.fma %164, %451, %arg83 : vector<64xf32> loc(#loc24)
      %457 = arith.addi %159#0, %c73 : index loc(#loc24)
      %458 = memref.load %158[%457, %159#1] : memref<?x?xf32, strided<[?, 1]>> loc(#loc24)
      %459 = vector.broadcast %458 : f32 to vector<64xf32> loc(#loc24)
      memref.prefetch %158[%453, %162], read, locality<3>, data : memref<?x?xf32, strided<[?, 1]>> loc(#loc24)
      %460 = vector.fma %164, %455, %arg84 : vector<64xf32> loc(#loc24)
      %461 = arith.addi %159#0, %c74 : index loc(#loc24)
      %462 = memref.load %158[%461, %159#1] : memref<?x?xf32, strided<[?, 1]>> loc(#loc24)
      %463 = vector.broadcast %462 : f32 to vector<64xf32> loc(#loc24)
      memref.prefetch %158[%457, %162], read, locality<3>, data : memref<?x?xf32, strided<[?, 1]>> loc(#loc24)
      %464 = vector.fma %164, %459, %arg85 : vector<64xf32> loc(#loc24)
      %465 = arith.addi %159#0, %c75 : index loc(#loc24)
      %466 = memref.load %158[%465, %159#1] : memref<?x?xf32, strided<[?, 1]>> loc(#loc24)
      %467 = vector.broadcast %466 : f32 to vector<64xf32> loc(#loc24)
      memref.prefetch %158[%461, %162], read, locality<3>, data : memref<?x?xf32, strided<[?, 1]>> loc(#loc24)
      %468 = vector.fma %164, %463, %arg86 : vector<64xf32> loc(#loc24)
      %469 = arith.addi %159#0, %c76 : index loc(#loc24)
      %470 = memref.load %158[%469, %159#1] : memref<?x?xf32, strided<[?, 1]>> loc(#loc24)
      %471 = vector.broadcast %470 : f32 to vector<64xf32> loc(#loc24)
      memref.prefetch %158[%465, %162], read, locality<3>, data : memref<?x?xf32, strided<[?, 1]>> loc(#loc24)
      %472 = vector.fma %164, %467, %arg87 : vector<64xf32> loc(#loc24)
      %473 = arith.addi %159#0, %c77 : index loc(#loc24)
      %474 = memref.load %158[%473, %159#1] : memref<?x?xf32, strided<[?, 1]>> loc(#loc24)
      %475 = vector.broadcast %474 : f32 to vector<64xf32> loc(#loc24)
      memref.prefetch %158[%469, %162], read, locality<3>, data : memref<?x?xf32, strided<[?, 1]>> loc(#loc24)
      %476 = vector.fma %164, %471, %arg88 : vector<64xf32> loc(#loc24)
      %477 = arith.addi %159#0, %c78 : index loc(#loc24)
      %478 = memref.load %158[%477, %159#1] : memref<?x?xf32, strided<[?, 1]>> loc(#loc24)
      %479 = vector.broadcast %478 : f32 to vector<64xf32> loc(#loc24)
      memref.prefetch %158[%473, %162], read, locality<3>, data : memref<?x?xf32, strided<[?, 1]>> loc(#loc24)
      %480 = vector.fma %164, %475, %arg89 : vector<64xf32> loc(#loc24)
      %481 = arith.addi %159#0, %c79 : index loc(#loc24)
      %482 = memref.load %158[%481, %159#1] : memref<?x?xf32, strided<[?, 1]>> loc(#loc24)
      %483 = vector.broadcast %482 : f32 to vector<64xf32> loc(#loc24)
      memref.prefetch %158[%477, %162], read, locality<3>, data : memref<?x?xf32, strided<[?, 1]>> loc(#loc24)
      %484 = vector.fma %164, %479, %arg90 : vector<64xf32> loc(#loc24)
      %485 = arith.addi %159#0, %c80 : index loc(#loc24)
      %486 = memref.load %158[%485, %159#1] : memref<?x?xf32, strided<[?, 1]>> loc(#loc24)
      %487 = vector.broadcast %486 : f32 to vector<64xf32> loc(#loc24)
      memref.prefetch %158[%481, %162], read, locality<3>, data : memref<?x?xf32, strided<[?, 1]>> loc(#loc24)
      %488 = vector.fma %164, %483, %arg91 : vector<64xf32> loc(#loc24)
      %489 = arith.addi %159#0, %c81 : index loc(#loc24)
      %490 = memref.load %158[%489, %159#1] : memref<?x?xf32, strided<[?, 1]>> loc(#loc24)
      %491 = vector.broadcast %490 : f32 to vector<64xf32> loc(#loc24)
      memref.prefetch %158[%485, %162], read, locality<3>, data : memref<?x?xf32, strided<[?, 1]>> loc(#loc24)
      %492 = vector.fma %164, %487, %arg92 : vector<64xf32> loc(#loc24)
      %493 = arith.addi %159#0, %c82 : index loc(#loc24)
      %494 = memref.load %158[%493, %159#1] : memref<?x?xf32, strided<[?, 1]>> loc(#loc24)
      %495 = vector.broadcast %494 : f32 to vector<64xf32> loc(#loc24)
      memref.prefetch %158[%489, %162], read, locality<3>, data : memref<?x?xf32, strided<[?, 1]>> loc(#loc24)
      %496 = vector.fma %164, %491, %arg93 : vector<64xf32> loc(#loc24)
      %497 = arith.addi %159#0, %c83 : index loc(#loc24)
      %498 = memref.load %158[%497, %159#1] : memref<?x?xf32, strided<[?, 1]>> loc(#loc24)
      %499 = vector.broadcast %498 : f32 to vector<64xf32> loc(#loc24)
      memref.prefetch %158[%493, %162], read, locality<3>, data : memref<?x?xf32, strided<[?, 1]>> loc(#loc24)
      %500 = vector.fma %164, %495, %arg94 : vector<64xf32> loc(#loc24)
      %501 = arith.addi %159#0, %c84 : index loc(#loc24)
      %502 = memref.load %158[%501, %159#1] : memref<?x?xf32, strided<[?, 1]>> loc(#loc24)
      %503 = vector.broadcast %502 : f32 to vector<64xf32> loc(#loc24)
      memref.prefetch %158[%497, %162], read, locality<3>, data : memref<?x?xf32, strided<[?, 1]>> loc(#loc24)
      %504 = vector.fma %164, %499, %arg95 : vector<64xf32> loc(#loc24)
      %505 = arith.addi %159#0, %c85 : index loc(#loc24)
      %506 = memref.load %158[%505, %159#1] : memref<?x?xf32, strided<[?, 1]>> loc(#loc24)
      %507 = vector.broadcast %506 : f32 to vector<64xf32> loc(#loc24)
      memref.prefetch %158[%501, %162], read, locality<3>, data : memref<?x?xf32, strided<[?, 1]>> loc(#loc24)
      %508 = vector.fma %164, %503, %arg96 : vector<64xf32> loc(#loc24)
      %509 = arith.addi %159#0, %c86 : index loc(#loc24)
      %510 = memref.load %158[%509, %159#1] : memref<?x?xf32, strided<[?, 1]>> loc(#loc24)
      %511 = vector.broadcast %510 : f32 to vector<64xf32> loc(#loc24)
      memref.prefetch %158[%505, %162], read, locality<3>, data : memref<?x?xf32, strided<[?, 1]>> loc(#loc24)
      %512 = vector.fma %164, %507, %arg97 : vector<64xf32> loc(#loc24)
      %513 = arith.addi %159#0, %c87 : index loc(#loc24)
      %514 = memref.load %158[%513, %159#1] : memref<?x?xf32, strided<[?, 1]>> loc(#loc24)
      %515 = vector.broadcast %514 : f32 to vector<64xf32> loc(#loc24)
      memref.prefetch %158[%509, %162], read, locality<3>, data : memref<?x?xf32, strided<[?, 1]>> loc(#loc24)
      %516 = vector.fma %164, %511, %arg98 : vector<64xf32> loc(#loc24)
      %517 = arith.addi %159#0, %c88 : index loc(#loc24)
      %518 = memref.load %158[%517, %159#1] : memref<?x?xf32, strided<[?, 1]>> loc(#loc24)
      %519 = vector.broadcast %518 : f32 to vector<64xf32> loc(#loc24)
      memref.prefetch %158[%513, %162], read, locality<3>, data : memref<?x?xf32, strided<[?, 1]>> loc(#loc24)
      %520 = vector.fma %164, %515, %arg99 : vector<64xf32> loc(#loc24)
      %521 = arith.addi %159#0, %c89 : index loc(#loc24)
      %522 = memref.load %158[%521, %159#1] : memref<?x?xf32, strided<[?, 1]>> loc(#loc24)
      %523 = vector.broadcast %522 : f32 to vector<64xf32> loc(#loc24)
      memref.prefetch %158[%517, %162], read, locality<3>, data : memref<?x?xf32, strided<[?, 1]>> loc(#loc24)
      %524 = vector.fma %164, %519, %arg100 : vector<64xf32> loc(#loc24)
      %525 = arith.addi %159#0, %c90 : index loc(#loc24)
      %526 = memref.load %158[%525, %159#1] : memref<?x?xf32, strided<[?, 1]>> loc(#loc24)
      %527 = vector.broadcast %526 : f32 to vector<64xf32> loc(#loc24)
      memref.prefetch %158[%521, %162], read, locality<3>, data : memref<?x?xf32, strided<[?, 1]>> loc(#loc24)
      %528 = vector.fma %164, %523, %arg101 : vector<64xf32> loc(#loc24)
      %529 = arith.addi %159#0, %c91 : index loc(#loc24)
      %530 = memref.load %158[%529, %159#1] : memref<?x?xf32, strided<[?, 1]>> loc(#loc24)
      %531 = vector.broadcast %530 : f32 to vector<64xf32> loc(#loc24)
      memref.prefetch %158[%525, %162], read, locality<3>, data : memref<?x?xf32, strided<[?, 1]>> loc(#loc24)
      %532 = vector.fma %164, %527, %arg102 : vector<64xf32> loc(#loc24)
      %533 = arith.addi %159#0, %c92 : index loc(#loc24)
      %534 = memref.load %158[%533, %159#1] : memref<?x?xf32, strided<[?, 1]>> loc(#loc24)
      %535 = vector.broadcast %534 : f32 to vector<64xf32> loc(#loc24)
      memref.prefetch %158[%529, %162], read, locality<3>, data : memref<?x?xf32, strided<[?, 1]>> loc(#loc24)
      %536 = vector.fma %164, %531, %arg103 : vector<64xf32> loc(#loc24)
      %537 = arith.addi %159#0, %c93 : index loc(#loc24)
      %538 = memref.load %158[%537, %159#1] : memref<?x?xf32, strided<[?, 1]>> loc(#loc24)
      %539 = vector.broadcast %538 : f32 to vector<64xf32> loc(#loc24)
      memref.prefetch %158[%533, %162], read, locality<3>, data : memref<?x?xf32, strided<[?, 1]>> loc(#loc24)
      %540 = vector.fma %164, %535, %arg104 : vector<64xf32> loc(#loc24)
      %541 = arith.addi %159#0, %c94 : index loc(#loc24)
      %542 = memref.load %158[%541, %159#1] : memref<?x?xf32, strided<[?, 1]>> loc(#loc24)
      %543 = vector.broadcast %542 : f32 to vector<64xf32> loc(#loc24)
      memref.prefetch %158[%537, %162], read, locality<3>, data : memref<?x?xf32, strided<[?, 1]>> loc(#loc24)
      %544 = vector.fma %164, %539, %arg105 : vector<64xf32> loc(#loc24)
      %545 = arith.addi %159#0, %c95 : index loc(#loc24)
      %546 = memref.load %158[%545, %159#1] : memref<?x?xf32, strided<[?, 1]>> loc(#loc24)
      %547 = vector.broadcast %546 : f32 to vector<64xf32> loc(#loc24)
      memref.prefetch %158[%541, %162], read, locality<3>, data : memref<?x?xf32, strided<[?, 1]>> loc(#loc24)
      %548 = vector.fma %164, %543, %arg106 : vector<64xf32> loc(#loc24)
      %549 = arith.addi %159#0, %c96 : index loc(#loc24)
      %550 = memref.load %158[%549, %159#1] : memref<?x?xf32, strided<[?, 1]>> loc(#loc24)
      %551 = vector.broadcast %550 : f32 to vector<64xf32> loc(#loc24)
      memref.prefetch %158[%545, %162], read, locality<3>, data : memref<?x?xf32, strided<[?, 1]>> loc(#loc24)
      %552 = vector.fma %164, %547, %arg107 : vector<64xf32> loc(#loc24)
      %553 = arith.addi %159#0, %c97 : index loc(#loc24)
      %554 = memref.load %158[%553, %159#1] : memref<?x?xf32, strided<[?, 1]>> loc(#loc24)
      %555 = vector.broadcast %554 : f32 to vector<64xf32> loc(#loc24)
      memref.prefetch %158[%549, %162], read, locality<3>, data : memref<?x?xf32, strided<[?, 1]>> loc(#loc24)
      %556 = vector.fma %164, %551, %arg108 : vector<64xf32> loc(#loc24)
      %557 = arith.addi %159#0, %c98 : index loc(#loc24)
      %558 = memref.load %158[%557, %159#1] : memref<?x?xf32, strided<[?, 1]>> loc(#loc24)
      %559 = vector.broadcast %558 : f32 to vector<64xf32> loc(#loc24)
      memref.prefetch %158[%553, %162], read, locality<3>, data : memref<?x?xf32, strided<[?, 1]>> loc(#loc24)
      %560 = vector.fma %164, %555, %arg109 : vector<64xf32> loc(#loc24)
      %561 = arith.addi %159#0, %c99 : index loc(#loc24)
      %562 = memref.load %158[%561, %159#1] : memref<?x?xf32, strided<[?, 1]>> loc(#loc24)
      %563 = vector.broadcast %562 : f32 to vector<64xf32> loc(#loc24)
      memref.prefetch %158[%557, %162], read, locality<3>, data : memref<?x?xf32, strided<[?, 1]>> loc(#loc24)
      %564 = vector.fma %164, %559, %arg110 : vector<64xf32> loc(#loc24)
      %565 = arith.addi %159#0, %c100 : index loc(#loc24)
      %566 = memref.load %158[%565, %159#1] : memref<?x?xf32, strided<[?, 1]>> loc(#loc24)
      %567 = vector.broadcast %566 : f32 to vector<64xf32> loc(#loc24)
      memref.prefetch %158[%561, %162], read, locality<3>, data : memref<?x?xf32, strided<[?, 1]>> loc(#loc24)
      %568 = vector.fma %164, %563, %arg111 : vector<64xf32> loc(#loc24)
      %569 = arith.addi %159#0, %c101 : index loc(#loc24)
      %570 = memref.load %158[%569, %159#1] : memref<?x?xf32, strided<[?, 1]>> loc(#loc24)
      %571 = vector.broadcast %570 : f32 to vector<64xf32> loc(#loc24)
      memref.prefetch %158[%565, %162], read, locality<3>, data : memref<?x?xf32, strided<[?, 1]>> loc(#loc24)
      %572 = vector.fma %164, %567, %arg112 : vector<64xf32> loc(#loc24)
      %573 = arith.addi %159#0, %c102 : index loc(#loc24)
      %574 = memref.load %158[%573, %159#1] : memref<?x?xf32, strided<[?, 1]>> loc(#loc24)
      %575 = vector.broadcast %574 : f32 to vector<64xf32> loc(#loc24)
      memref.prefetch %158[%569, %162], read, locality<3>, data : memref<?x?xf32, strided<[?, 1]>> loc(#loc24)
      %576 = vector.fma %164, %571, %arg113 : vector<64xf32> loc(#loc24)
      %577 = arith.addi %159#0, %c103 : index loc(#loc24)
      %578 = memref.load %158[%577, %159#1] : memref<?x?xf32, strided<[?, 1]>> loc(#loc24)
      %579 = vector.broadcast %578 : f32 to vector<64xf32> loc(#loc24)
      memref.prefetch %158[%573, %162], read, locality<3>, data : memref<?x?xf32, strided<[?, 1]>> loc(#loc24)
      %580 = vector.fma %164, %575, %arg114 : vector<64xf32> loc(#loc24)
      %581 = arith.addi %159#0, %c104 : index loc(#loc24)
      %582 = memref.load %158[%581, %159#1] : memref<?x?xf32, strided<[?, 1]>> loc(#loc24)
      %583 = vector.broadcast %582 : f32 to vector<64xf32> loc(#loc24)
      memref.prefetch %158[%577, %162], read, locality<3>, data : memref<?x?xf32, strided<[?, 1]>> loc(#loc24)
      %584 = vector.fma %164, %579, %arg115 : vector<64xf32> loc(#loc24)
      %585 = arith.addi %159#0, %c105 : index loc(#loc24)
      %586 = memref.load %158[%585, %159#1] : memref<?x?xf32, strided<[?, 1]>> loc(#loc24)
      %587 = vector.broadcast %586 : f32 to vector<64xf32> loc(#loc24)
      memref.prefetch %158[%581, %162], read, locality<3>, data : memref<?x?xf32, strided<[?, 1]>> loc(#loc24)
      %588 = vector.fma %164, %583, %arg116 : vector<64xf32> loc(#loc24)
      %589 = arith.addi %159#0, %c106 : index loc(#loc24)
      %590 = memref.load %158[%589, %159#1] : memref<?x?xf32, strided<[?, 1]>> loc(#loc24)
      %591 = vector.broadcast %590 : f32 to vector<64xf32> loc(#loc24)
      memref.prefetch %158[%585, %162], read, locality<3>, data : memref<?x?xf32, strided<[?, 1]>> loc(#loc24)
      %592 = vector.fma %164, %587, %arg117 : vector<64xf32> loc(#loc24)
      %593 = arith.addi %159#0, %c107 : index loc(#loc24)
      %594 = memref.load %158[%593, %159#1] : memref<?x?xf32, strided<[?, 1]>> loc(#loc24)
      %595 = vector.broadcast %594 : f32 to vector<64xf32> loc(#loc24)
      memref.prefetch %158[%589, %162], read, locality<3>, data : memref<?x?xf32, strided<[?, 1]>> loc(#loc24)
      %596 = vector.fma %164, %591, %arg118 : vector<64xf32> loc(#loc24)
      %597 = arith.addi %159#0, %c108 : index loc(#loc24)
      %598 = memref.load %158[%597, %159#1] : memref<?x?xf32, strided<[?, 1]>> loc(#loc24)
      %599 = vector.broadcast %598 : f32 to vector<64xf32> loc(#loc24)
      memref.prefetch %158[%593, %162], read, locality<3>, data : memref<?x?xf32, strided<[?, 1]>> loc(#loc24)
      %600 = vector.fma %164, %595, %arg119 : vector<64xf32> loc(#loc24)
      %601 = arith.addi %159#0, %c109 : index loc(#loc24)
      %602 = memref.load %158[%601, %159#1] : memref<?x?xf32, strided<[?, 1]>> loc(#loc24)
      %603 = vector.broadcast %602 : f32 to vector<64xf32> loc(#loc24)
      memref.prefetch %158[%597, %162], read, locality<3>, data : memref<?x?xf32, strided<[?, 1]>> loc(#loc24)
      %604 = vector.fma %164, %599, %arg120 : vector<64xf32> loc(#loc24)
      %605 = arith.addi %159#0, %c110 : index loc(#loc24)
      %606 = memref.load %158[%605, %159#1] : memref<?x?xf32, strided<[?, 1]>> loc(#loc24)
      %607 = vector.broadcast %606 : f32 to vector<64xf32> loc(#loc24)
      memref.prefetch %158[%601, %162], read, locality<3>, data : memref<?x?xf32, strided<[?, 1]>> loc(#loc24)
      %608 = vector.fma %164, %603, %arg121 : vector<64xf32> loc(#loc24)
      %609 = arith.addi %159#0, %c111 : index loc(#loc24)
      %610 = memref.load %158[%609, %159#1] : memref<?x?xf32, strided<[?, 1]>> loc(#loc24)
      %611 = vector.broadcast %610 : f32 to vector<64xf32> loc(#loc24)
      memref.prefetch %158[%605, %162], read, locality<3>, data : memref<?x?xf32, strided<[?, 1]>> loc(#loc24)
      %612 = vector.fma %164, %607, %arg122 : vector<64xf32> loc(#loc24)
      %613 = arith.addi %159#0, %c112 : index loc(#loc24)
      %614 = memref.load %158[%613, %159#1] : memref<?x?xf32, strided<[?, 1]>> loc(#loc24)
      %615 = vector.broadcast %614 : f32 to vector<64xf32> loc(#loc24)
      memref.prefetch %158[%609, %162], read, locality<3>, data : memref<?x?xf32, strided<[?, 1]>> loc(#loc24)
      %616 = vector.fma %164, %611, %arg123 : vector<64xf32> loc(#loc24)
      %617 = arith.addi %159#0, %c113 : index loc(#loc24)
      %618 = memref.load %158[%617, %159#1] : memref<?x?xf32, strided<[?, 1]>> loc(#loc24)
      %619 = vector.broadcast %618 : f32 to vector<64xf32> loc(#loc24)
      memref.prefetch %158[%613, %162], read, locality<3>, data : memref<?x?xf32, strided<[?, 1]>> loc(#loc24)
      %620 = vector.fma %164, %615, %arg124 : vector<64xf32> loc(#loc24)
      %621 = arith.addi %159#0, %c114 : index loc(#loc24)
      %622 = memref.load %158[%621, %159#1] : memref<?x?xf32, strided<[?, 1]>> loc(#loc24)
      %623 = vector.broadcast %622 : f32 to vector<64xf32> loc(#loc24)
      memref.prefetch %158[%617, %162], read, locality<3>, data : memref<?x?xf32, strided<[?, 1]>> loc(#loc24)
      %624 = vector.fma %164, %619, %arg125 : vector<64xf32> loc(#loc24)
      %625 = arith.addi %159#0, %c115 : index loc(#loc24)
      %626 = memref.load %158[%625, %159#1] : memref<?x?xf32, strided<[?, 1]>> loc(#loc24)
      %627 = vector.broadcast %626 : f32 to vector<64xf32> loc(#loc24)
      memref.prefetch %158[%621, %162], read, locality<3>, data : memref<?x?xf32, strided<[?, 1]>> loc(#loc24)
      %628 = vector.fma %164, %623, %arg126 : vector<64xf32> loc(#loc24)
      %629 = arith.addi %159#0, %c116 : index loc(#loc24)
      %630 = memref.load %158[%629, %159#1] : memref<?x?xf32, strided<[?, 1]>> loc(#loc24)
      %631 = vector.broadcast %630 : f32 to vector<64xf32> loc(#loc24)
      memref.prefetch %158[%625, %162], read, locality<3>, data : memref<?x?xf32, strided<[?, 1]>> loc(#loc24)
      %632 = vector.fma %164, %627, %arg127 : vector<64xf32> loc(#loc24)
      %633 = arith.addi %159#0, %c117 : index loc(#loc24)
      %634 = memref.load %158[%633, %159#1] : memref<?x?xf32, strided<[?, 1]>> loc(#loc24)
      %635 = vector.broadcast %634 : f32 to vector<64xf32> loc(#loc24)
      memref.prefetch %158[%629, %162], read, locality<3>, data : memref<?x?xf32, strided<[?, 1]>> loc(#loc24)
      %636 = vector.fma %164, %631, %arg128 : vector<64xf32> loc(#loc24)
      %637 = arith.addi %159#0, %c118 : index loc(#loc24)
      %638 = memref.load %158[%637, %159#1] : memref<?x?xf32, strided<[?, 1]>> loc(#loc24)
      %639 = vector.broadcast %638 : f32 to vector<64xf32> loc(#loc24)
      memref.prefetch %158[%633, %162], read, locality<3>, data : memref<?x?xf32, strided<[?, 1]>> loc(#loc24)
      %640 = vector.fma %164, %635, %arg129 : vector<64xf32> loc(#loc24)
      %641 = arith.addi %159#0, %c119 : index loc(#loc24)
      %642 = memref.load %158[%641, %159#1] : memref<?x?xf32, strided<[?, 1]>> loc(#loc24)
      %643 = vector.broadcast %642 : f32 to vector<64xf32> loc(#loc24)
      memref.prefetch %158[%637, %162], read, locality<3>, data : memref<?x?xf32, strided<[?, 1]>> loc(#loc24)
      %644 = vector.fma %164, %639, %arg130 : vector<64xf32> loc(#loc24)
      %645 = arith.addi %159#0, %c120 : index loc(#loc24)
      %646 = memref.load %158[%645, %159#1] : memref<?x?xf32, strided<[?, 1]>> loc(#loc24)
      %647 = vector.broadcast %646 : f32 to vector<64xf32> loc(#loc24)
      memref.prefetch %158[%641, %162], read, locality<3>, data : memref<?x?xf32, strided<[?, 1]>> loc(#loc24)
      %648 = vector.fma %164, %643, %arg131 : vector<64xf32> loc(#loc24)
      %649 = arith.addi %159#0, %c121 : index loc(#loc24)
      %650 = memref.load %158[%649, %159#1] : memref<?x?xf32, strided<[?, 1]>> loc(#loc24)
      %651 = vector.broadcast %650 : f32 to vector<64xf32> loc(#loc24)
      memref.prefetch %158[%645, %162], read, locality<3>, data : memref<?x?xf32, strided<[?, 1]>> loc(#loc24)
      %652 = vector.fma %164, %647, %arg132 : vector<64xf32> loc(#loc24)
      %653 = arith.addi %159#0, %c122 : index loc(#loc24)
      %654 = memref.load %158[%653, %159#1] : memref<?x?xf32, strided<[?, 1]>> loc(#loc24)
      %655 = vector.broadcast %654 : f32 to vector<64xf32> loc(#loc24)
      memref.prefetch %158[%649, %162], read, locality<3>, data : memref<?x?xf32, strided<[?, 1]>> loc(#loc24)
      %656 = vector.fma %164, %651, %arg133 : vector<64xf32> loc(#loc24)
      %657 = arith.addi %159#0, %c123 : index loc(#loc24)
      %658 = memref.load %158[%657, %159#1] : memref<?x?xf32, strided<[?, 1]>> loc(#loc24)
      %659 = vector.broadcast %658 : f32 to vector<64xf32> loc(#loc24)
      memref.prefetch %158[%653, %162], read, locality<3>, data : memref<?x?xf32, strided<[?, 1]>> loc(#loc24)
      %660 = vector.fma %164, %655, %arg134 : vector<64xf32> loc(#loc24)
      %661 = arith.addi %159#0, %c124 : index loc(#loc24)
      %662 = memref.load %158[%661, %159#1] : memref<?x?xf32, strided<[?, 1]>> loc(#loc24)
      %663 = vector.broadcast %662 : f32 to vector<64xf32> loc(#loc24)
      memref.prefetch %158[%657, %162], read, locality<3>, data : memref<?x?xf32, strided<[?, 1]>> loc(#loc24)
      %664 = vector.fma %164, %659, %arg135 : vector<64xf32> loc(#loc24)
      %665 = arith.addi %159#0, %c125 : index loc(#loc24)
      %666 = memref.load %158[%665, %159#1] : memref<?x?xf32, strided<[?, 1]>> loc(#loc24)
      %667 = vector.broadcast %666 : f32 to vector<64xf32> loc(#loc24)
      memref.prefetch %158[%661, %162], read, locality<3>, data : memref<?x?xf32, strided<[?, 1]>> loc(#loc24)
      %668 = vector.fma %164, %663, %arg136 : vector<64xf32> loc(#loc24)
      %669 = arith.addi %159#0, %c126 : index loc(#loc24)
      %670 = memref.load %158[%669, %159#1] : memref<?x?xf32, strided<[?, 1]>> loc(#loc24)
      %671 = vector.broadcast %670 : f32 to vector<64xf32> loc(#loc24)
      memref.prefetch %158[%665, %162], read, locality<3>, data : memref<?x?xf32, strided<[?, 1]>> loc(#loc24)
      %672 = vector.fma %164, %667, %arg137 : vector<64xf32> loc(#loc24)
      %673 = arith.addi %159#0, %c127 : index loc(#loc24)
      %674 = memref.load %158[%673, %159#1] : memref<?x?xf32, strided<[?, 1]>> loc(#loc24)
      %675 = vector.broadcast %674 : f32 to vector<64xf32> loc(#loc24)
      memref.prefetch %158[%669, %162], read, locality<3>, data : memref<?x?xf32, strided<[?, 1]>> loc(#loc24)
      %676 = vector.fma %164, %671, %arg138 : vector<64xf32> loc(#loc24)
      memref.prefetch %158[%673, %162], read, locality<3>, data : memref<?x?xf32, strided<[?, 1]>> loc(#loc24)
      %677 = vector.fma %164, %675, %arg139 : vector<64xf32> loc(#loc24)
      %678 = arith.addi %161#0, %c2 : index loc(#loc24)
      %679 = vector.load %160[%678, %161#1] : memref<?x?xf32, strided<[?, 1]>>, vector<64xf32> loc(#loc24)
      %680 = arith.addi %161#0, %c33 : index loc(#loc24)
      memref.prefetch %160[%680, %161#1], read, locality<1>, data : memref<?x?xf32, strided<[?, 1]>> loc(#loc24)
      %681 = arith.addi %159#1, %c1 : index loc(#loc24)
      %682 = memref.load %158[%159#0, %681] : memref<?x?xf32, strided<[?, 1]>> loc(#loc24)
      %683 = vector.broadcast %682 : f32 to vector<64xf32> loc(#loc24)
      %684 = memref.load %158[%169, %681] : memref<?x?xf32, strided<[?, 1]>> loc(#loc24)
      %685 = vector.broadcast %684 : f32 to vector<64xf32> loc(#loc24)
      %686 = vector.fma %166, %683, %172 : vector<64xf32> loc(#loc24)
      %687 = memref.load %158[%173, %681] : memref<?x?xf32, strided<[?, 1]>> loc(#loc24)
      %688 = vector.broadcast %687 : f32 to vector<64xf32> loc(#loc24)
      %689 = vector.fma %166, %685, %176 : vector<64xf32> loc(#loc24)
      %690 = memref.load %158[%177, %681] : memref<?x?xf32, strided<[?, 1]>> loc(#loc24)
      %691 = vector.broadcast %690 : f32 to vector<64xf32> loc(#loc24)
      %692 = vector.fma %166, %688, %180 : vector<64xf32> loc(#loc24)
      %693 = memref.load %158[%181, %681] : memref<?x?xf32, strided<[?, 1]>> loc(#loc24)
      %694 = vector.broadcast %693 : f32 to vector<64xf32> loc(#loc24)
      %695 = vector.fma %166, %691, %184 : vector<64xf32> loc(#loc24)
      %696 = memref.load %158[%185, %681] : memref<?x?xf32, strided<[?, 1]>> loc(#loc24)
      %697 = vector.broadcast %696 : f32 to vector<64xf32> loc(#loc24)
      %698 = vector.fma %166, %694, %188 : vector<64xf32> loc(#loc24)
      %699 = memref.load %158[%189, %681] : memref<?x?xf32, strided<[?, 1]>> loc(#loc24)
      %700 = vector.broadcast %699 : f32 to vector<64xf32> loc(#loc24)
      %701 = vector.fma %166, %697, %192 : vector<64xf32> loc(#loc24)
      %702 = memref.load %158[%193, %681] : memref<?x?xf32, strided<[?, 1]>> loc(#loc24)
      %703 = vector.broadcast %702 : f32 to vector<64xf32> loc(#loc24)
      %704 = vector.fma %166, %700, %196 : vector<64xf32> loc(#loc24)
      %705 = memref.load %158[%197, %681] : memref<?x?xf32, strided<[?, 1]>> loc(#loc24)
      %706 = vector.broadcast %705 : f32 to vector<64xf32> loc(#loc24)
      %707 = vector.fma %166, %703, %200 : vector<64xf32> loc(#loc24)
      %708 = memref.load %158[%201, %681] : memref<?x?xf32, strided<[?, 1]>> loc(#loc24)
      %709 = vector.broadcast %708 : f32 to vector<64xf32> loc(#loc24)
      %710 = vector.fma %166, %706, %204 : vector<64xf32> loc(#loc24)
      %711 = memref.load %158[%205, %681] : memref<?x?xf32, strided<[?, 1]>> loc(#loc24)
      %712 = vector.broadcast %711 : f32 to vector<64xf32> loc(#loc24)
      %713 = vector.fma %166, %709, %208 : vector<64xf32> loc(#loc24)
      %714 = memref.load %158[%209, %681] : memref<?x?xf32, strided<[?, 1]>> loc(#loc24)
      %715 = vector.broadcast %714 : f32 to vector<64xf32> loc(#loc24)
      %716 = vector.fma %166, %712, %212 : vector<64xf32> loc(#loc24)
      %717 = memref.load %158[%213, %681] : memref<?x?xf32, strided<[?, 1]>> loc(#loc24)
      %718 = vector.broadcast %717 : f32 to vector<64xf32> loc(#loc24)
      %719 = vector.fma %166, %715, %216 : vector<64xf32> loc(#loc24)
      %720 = memref.load %158[%217, %681] : memref<?x?xf32, strided<[?, 1]>> loc(#loc24)
      %721 = vector.broadcast %720 : f32 to vector<64xf32> loc(#loc24)
      %722 = vector.fma %166, %718, %220 : vector<64xf32> loc(#loc24)
      %723 = memref.load %158[%221, %681] : memref<?x?xf32, strided<[?, 1]>> loc(#loc24)
      %724 = vector.broadcast %723 : f32 to vector<64xf32> loc(#loc24)
      %725 = vector.fma %166, %721, %224 : vector<64xf32> loc(#loc24)
      %726 = memref.load %158[%225, %681] : memref<?x?xf32, strided<[?, 1]>> loc(#loc24)
      %727 = vector.broadcast %726 : f32 to vector<64xf32> loc(#loc24)
      %728 = vector.fma %166, %724, %228 : vector<64xf32> loc(#loc24)
      %729 = memref.load %158[%229, %681] : memref<?x?xf32, strided<[?, 1]>> loc(#loc24)
      %730 = vector.broadcast %729 : f32 to vector<64xf32> loc(#loc24)
      %731 = vector.fma %166, %727, %232 : vector<64xf32> loc(#loc24)
      %732 = memref.load %158[%233, %681] : memref<?x?xf32, strided<[?, 1]>> loc(#loc24)
      %733 = vector.broadcast %732 : f32 to vector<64xf32> loc(#loc24)
      %734 = vector.fma %166, %730, %236 : vector<64xf32> loc(#loc24)
      %735 = memref.load %158[%237, %681] : memref<?x?xf32, strided<[?, 1]>> loc(#loc24)
      %736 = vector.broadcast %735 : f32 to vector<64xf32> loc(#loc24)
      %737 = vector.fma %166, %733, %240 : vector<64xf32> loc(#loc24)
      %738 = memref.load %158[%241, %681] : memref<?x?xf32, strided<[?, 1]>> loc(#loc24)
      %739 = vector.broadcast %738 : f32 to vector<64xf32> loc(#loc24)
      %740 = vector.fma %166, %736, %244 : vector<64xf32> loc(#loc24)
      %741 = memref.load %158[%245, %681] : memref<?x?xf32, strided<[?, 1]>> loc(#loc24)
      %742 = vector.broadcast %741 : f32 to vector<64xf32> loc(#loc24)
      %743 = vector.fma %166, %739, %248 : vector<64xf32> loc(#loc24)
      %744 = memref.load %158[%249, %681] : memref<?x?xf32, strided<[?, 1]>> loc(#loc24)
      %745 = vector.broadcast %744 : f32 to vector<64xf32> loc(#loc24)
      %746 = vector.fma %166, %742, %252 : vector<64xf32> loc(#loc24)
      %747 = memref.load %158[%253, %681] : memref<?x?xf32, strided<[?, 1]>> loc(#loc24)
      %748 = vector.broadcast %747 : f32 to vector<64xf32> loc(#loc24)
      %749 = vector.fma %166, %745, %256 : vector<64xf32> loc(#loc24)
      %750 = memref.load %158[%257, %681] : memref<?x?xf32, strided<[?, 1]>> loc(#loc24)
      %751 = vector.broadcast %750 : f32 to vector<64xf32> loc(#loc24)
      %752 = vector.fma %166, %748, %260 : vector<64xf32> loc(#loc24)
      %753 = memref.load %158[%261, %681] : memref<?x?xf32, strided<[?, 1]>> loc(#loc24)
      %754 = vector.broadcast %753 : f32 to vector<64xf32> loc(#loc24)
      %755 = vector.fma %166, %751, %264 : vector<64xf32> loc(#loc24)
      %756 = memref.load %158[%265, %681] : memref<?x?xf32, strided<[?, 1]>> loc(#loc24)
      %757 = vector.broadcast %756 : f32 to vector<64xf32> loc(#loc24)
      %758 = vector.fma %166, %754, %268 : vector<64xf32> loc(#loc24)
      %759 = memref.load %158[%269, %681] : memref<?x?xf32, strided<[?, 1]>> loc(#loc24)
      %760 = vector.broadcast %759 : f32 to vector<64xf32> loc(#loc24)
      %761 = vector.fma %166, %757, %272 : vector<64xf32> loc(#loc24)
      %762 = memref.load %158[%273, %681] : memref<?x?xf32, strided<[?, 1]>> loc(#loc24)
      %763 = vector.broadcast %762 : f32 to vector<64xf32> loc(#loc24)
      %764 = vector.fma %166, %760, %276 : vector<64xf32> loc(#loc24)
      %765 = memref.load %158[%277, %681] : memref<?x?xf32, strided<[?, 1]>> loc(#loc24)
      %766 = vector.broadcast %765 : f32 to vector<64xf32> loc(#loc24)
      %767 = vector.fma %166, %763, %280 : vector<64xf32> loc(#loc24)
      %768 = memref.load %158[%281, %681] : memref<?x?xf32, strided<[?, 1]>> loc(#loc24)
      %769 = vector.broadcast %768 : f32 to vector<64xf32> loc(#loc24)
      %770 = vector.fma %166, %766, %284 : vector<64xf32> loc(#loc24)
      %771 = memref.load %158[%285, %681] : memref<?x?xf32, strided<[?, 1]>> loc(#loc24)
      %772 = vector.broadcast %771 : f32 to vector<64xf32> loc(#loc24)
      %773 = vector.fma %166, %769, %288 : vector<64xf32> loc(#loc24)
      %774 = memref.load %158[%289, %681] : memref<?x?xf32, strided<[?, 1]>> loc(#loc24)
      %775 = vector.broadcast %774 : f32 to vector<64xf32> loc(#loc24)
      %776 = vector.fma %166, %772, %292 : vector<64xf32> loc(#loc24)
      %777 = memref.load %158[%293, %681] : memref<?x?xf32, strided<[?, 1]>> loc(#loc24)
      %778 = vector.broadcast %777 : f32 to vector<64xf32> loc(#loc24)
      %779 = vector.fma %166, %775, %296 : vector<64xf32> loc(#loc24)
      %780 = memref.load %158[%297, %681] : memref<?x?xf32, strided<[?, 1]>> loc(#loc24)
      %781 = vector.broadcast %780 : f32 to vector<64xf32> loc(#loc24)
      %782 = vector.fma %166, %778, %300 : vector<64xf32> loc(#loc24)
      %783 = memref.load %158[%301, %681] : memref<?x?xf32, strided<[?, 1]>> loc(#loc24)
      %784 = vector.broadcast %783 : f32 to vector<64xf32> loc(#loc24)
      %785 = vector.fma %166, %781, %304 : vector<64xf32> loc(#loc24)
      %786 = memref.load %158[%305, %681] : memref<?x?xf32, strided<[?, 1]>> loc(#loc24)
      %787 = vector.broadcast %786 : f32 to vector<64xf32> loc(#loc24)
      %788 = vector.fma %166, %784, %308 : vector<64xf32> loc(#loc24)
      %789 = memref.load %158[%309, %681] : memref<?x?xf32, strided<[?, 1]>> loc(#loc24)
      %790 = vector.broadcast %789 : f32 to vector<64xf32> loc(#loc24)
      %791 = vector.fma %166, %787, %312 : vector<64xf32> loc(#loc24)
      %792 = memref.load %158[%313, %681] : memref<?x?xf32, strided<[?, 1]>> loc(#loc24)
      %793 = vector.broadcast %792 : f32 to vector<64xf32> loc(#loc24)
      %794 = vector.fma %166, %790, %316 : vector<64xf32> loc(#loc24)
      %795 = memref.load %158[%317, %681] : memref<?x?xf32, strided<[?, 1]>> loc(#loc24)
      %796 = vector.broadcast %795 : f32 to vector<64xf32> loc(#loc24)
      %797 = vector.fma %166, %793, %320 : vector<64xf32> loc(#loc24)
      %798 = memref.load %158[%321, %681] : memref<?x?xf32, strided<[?, 1]>> loc(#loc24)
      %799 = vector.broadcast %798 : f32 to vector<64xf32> loc(#loc24)
      %800 = vector.fma %166, %796, %324 : vector<64xf32> loc(#loc24)
      %801 = memref.load %158[%325, %681] : memref<?x?xf32, strided<[?, 1]>> loc(#loc24)
      %802 = vector.broadcast %801 : f32 to vector<64xf32> loc(#loc24)
      %803 = vector.fma %166, %799, %328 : vector<64xf32> loc(#loc24)
      %804 = memref.load %158[%329, %681] : memref<?x?xf32, strided<[?, 1]>> loc(#loc24)
      %805 = vector.broadcast %804 : f32 to vector<64xf32> loc(#loc24)
      %806 = vector.fma %166, %802, %332 : vector<64xf32> loc(#loc24)
      %807 = memref.load %158[%333, %681] : memref<?x?xf32, strided<[?, 1]>> loc(#loc24)
      %808 = vector.broadcast %807 : f32 to vector<64xf32> loc(#loc24)
      %809 = vector.fma %166, %805, %336 : vector<64xf32> loc(#loc24)
      %810 = memref.load %158[%337, %681] : memref<?x?xf32, strided<[?, 1]>> loc(#loc24)
      %811 = vector.broadcast %810 : f32 to vector<64xf32> loc(#loc24)
      %812 = vector.fma %166, %808, %340 : vector<64xf32> loc(#loc24)
      %813 = memref.load %158[%341, %681] : memref<?x?xf32, strided<[?, 1]>> loc(#loc24)
      %814 = vector.broadcast %813 : f32 to vector<64xf32> loc(#loc24)
      %815 = vector.fma %166, %811, %344 : vector<64xf32> loc(#loc24)
      %816 = memref.load %158[%345, %681] : memref<?x?xf32, strided<[?, 1]>> loc(#loc24)
      %817 = vector.broadcast %816 : f32 to vector<64xf32> loc(#loc24)
      %818 = vector.fma %166, %814, %348 : vector<64xf32> loc(#loc24)
      %819 = memref.load %158[%349, %681] : memref<?x?xf32, strided<[?, 1]>> loc(#loc24)
      %820 = vector.broadcast %819 : f32 to vector<64xf32> loc(#loc24)
      %821 = vector.fma %166, %817, %352 : vector<64xf32> loc(#loc24)
      %822 = memref.load %158[%353, %681] : memref<?x?xf32, strided<[?, 1]>> loc(#loc24)
      %823 = vector.broadcast %822 : f32 to vector<64xf32> loc(#loc24)
      %824 = vector.fma %166, %820, %356 : vector<64xf32> loc(#loc24)
      %825 = memref.load %158[%357, %681] : memref<?x?xf32, strided<[?, 1]>> loc(#loc24)
      %826 = vector.broadcast %825 : f32 to vector<64xf32> loc(#loc24)
      %827 = vector.fma %166, %823, %360 : vector<64xf32> loc(#loc24)
      %828 = memref.load %158[%361, %681] : memref<?x?xf32, strided<[?, 1]>> loc(#loc24)
      %829 = vector.broadcast %828 : f32 to vector<64xf32> loc(#loc24)
      %830 = vector.fma %166, %826, %364 : vector<64xf32> loc(#loc24)
      %831 = memref.load %158[%365, %681] : memref<?x?xf32, strided<[?, 1]>> loc(#loc24)
      %832 = vector.broadcast %831 : f32 to vector<64xf32> loc(#loc24)
      %833 = vector.fma %166, %829, %368 : vector<64xf32> loc(#loc24)
      %834 = memref.load %158[%369, %681] : memref<?x?xf32, strided<[?, 1]>> loc(#loc24)
      %835 = vector.broadcast %834 : f32 to vector<64xf32> loc(#loc24)
      %836 = vector.fma %166, %832, %372 : vector<64xf32> loc(#loc24)
      %837 = memref.load %158[%373, %681] : memref<?x?xf32, strided<[?, 1]>> loc(#loc24)
      %838 = vector.broadcast %837 : f32 to vector<64xf32> loc(#loc24)
      %839 = vector.fma %166, %835, %376 : vector<64xf32> loc(#loc24)
      %840 = memref.load %158[%377, %681] : memref<?x?xf32, strided<[?, 1]>> loc(#loc24)
      %841 = vector.broadcast %840 : f32 to vector<64xf32> loc(#loc24)
      %842 = vector.fma %166, %838, %380 : vector<64xf32> loc(#loc24)
      %843 = memref.load %158[%381, %681] : memref<?x?xf32, strided<[?, 1]>> loc(#loc24)
      %844 = vector.broadcast %843 : f32 to vector<64xf32> loc(#loc24)
      %845 = vector.fma %166, %841, %384 : vector<64xf32> loc(#loc24)
      %846 = memref.load %158[%385, %681] : memref<?x?xf32, strided<[?, 1]>> loc(#loc24)
      %847 = vector.broadcast %846 : f32 to vector<64xf32> loc(#loc24)
      %848 = vector.fma %166, %844, %388 : vector<64xf32> loc(#loc24)
      %849 = memref.load %158[%389, %681] : memref<?x?xf32, strided<[?, 1]>> loc(#loc24)
      %850 = vector.broadcast %849 : f32 to vector<64xf32> loc(#loc24)
      %851 = vector.fma %166, %847, %392 : vector<64xf32> loc(#loc24)
      %852 = memref.load %158[%393, %681] : memref<?x?xf32, strided<[?, 1]>> loc(#loc24)
      %853 = vector.broadcast %852 : f32 to vector<64xf32> loc(#loc24)
      %854 = vector.fma %166, %850, %396 : vector<64xf32> loc(#loc24)
      %855 = memref.load %158[%397, %681] : memref<?x?xf32, strided<[?, 1]>> loc(#loc24)
      %856 = vector.broadcast %855 : f32 to vector<64xf32> loc(#loc24)
      %857 = vector.fma %166, %853, %400 : vector<64xf32> loc(#loc24)
      %858 = memref.load %158[%401, %681] : memref<?x?xf32, strided<[?, 1]>> loc(#loc24)
      %859 = vector.broadcast %858 : f32 to vector<64xf32> loc(#loc24)
      %860 = vector.fma %166, %856, %404 : vector<64xf32> loc(#loc24)
      %861 = memref.load %158[%405, %681] : memref<?x?xf32, strided<[?, 1]>> loc(#loc24)
      %862 = vector.broadcast %861 : f32 to vector<64xf32> loc(#loc24)
      %863 = vector.fma %166, %859, %408 : vector<64xf32> loc(#loc24)
      %864 = memref.load %158[%409, %681] : memref<?x?xf32, strided<[?, 1]>> loc(#loc24)
      %865 = vector.broadcast %864 : f32 to vector<64xf32> loc(#loc24)
      %866 = vector.fma %166, %862, %412 : vector<64xf32> loc(#loc24)
      %867 = memref.load %158[%413, %681] : memref<?x?xf32, strided<[?, 1]>> loc(#loc24)
      %868 = vector.broadcast %867 : f32 to vector<64xf32> loc(#loc24)
      %869 = vector.fma %166, %865, %416 : vector<64xf32> loc(#loc24)
      %870 = memref.load %158[%417, %681] : memref<?x?xf32, strided<[?, 1]>> loc(#loc24)
      %871 = vector.broadcast %870 : f32 to vector<64xf32> loc(#loc24)
      %872 = vector.fma %166, %868, %420 : vector<64xf32> loc(#loc24)
      %873 = memref.load %158[%421, %681] : memref<?x?xf32, strided<[?, 1]>> loc(#loc24)
      %874 = vector.broadcast %873 : f32 to vector<64xf32> loc(#loc24)
      %875 = vector.fma %166, %871, %424 : vector<64xf32> loc(#loc24)
      %876 = memref.load %158[%425, %681] : memref<?x?xf32, strided<[?, 1]>> loc(#loc24)
      %877 = vector.broadcast %876 : f32 to vector<64xf32> loc(#loc24)
      %878 = vector.fma %166, %874, %428 : vector<64xf32> loc(#loc24)
      %879 = memref.load %158[%429, %681] : memref<?x?xf32, strided<[?, 1]>> loc(#loc24)
      %880 = vector.broadcast %879 : f32 to vector<64xf32> loc(#loc24)
      %881 = vector.fma %166, %877, %432 : vector<64xf32> loc(#loc24)
      %882 = memref.load %158[%433, %681] : memref<?x?xf32, strided<[?, 1]>> loc(#loc24)
      %883 = vector.broadcast %882 : f32 to vector<64xf32> loc(#loc24)
      %884 = vector.fma %166, %880, %436 : vector<64xf32> loc(#loc24)
      %885 = memref.load %158[%437, %681] : memref<?x?xf32, strided<[?, 1]>> loc(#loc24)
      %886 = vector.broadcast %885 : f32 to vector<64xf32> loc(#loc24)
      %887 = vector.fma %166, %883, %440 : vector<64xf32> loc(#loc24)
      %888 = memref.load %158[%441, %681] : memref<?x?xf32, strided<[?, 1]>> loc(#loc24)
      %889 = vector.broadcast %888 : f32 to vector<64xf32> loc(#loc24)
      %890 = vector.fma %166, %886, %444 : vector<64xf32> loc(#loc24)
      %891 = memref.load %158[%445, %681] : memref<?x?xf32, strided<[?, 1]>> loc(#loc24)
      %892 = vector.broadcast %891 : f32 to vector<64xf32> loc(#loc24)
      %893 = vector.fma %166, %889, %448 : vector<64xf32> loc(#loc24)
      %894 = memref.load %158[%449, %681] : memref<?x?xf32, strided<[?, 1]>> loc(#loc24)
      %895 = vector.broadcast %894 : f32 to vector<64xf32> loc(#loc24)
      %896 = vector.fma %166, %892, %452 : vector<64xf32> loc(#loc24)
      %897 = memref.load %158[%453, %681] : memref<?x?xf32, strided<[?, 1]>> loc(#loc24)
      %898 = vector.broadcast %897 : f32 to vector<64xf32> loc(#loc24)
      %899 = vector.fma %166, %895, %456 : vector<64xf32> loc(#loc24)
      %900 = memref.load %158[%457, %681] : memref<?x?xf32, strided<[?, 1]>> loc(#loc24)
      %901 = vector.broadcast %900 : f32 to vector<64xf32> loc(#loc24)
      %902 = vector.fma %166, %898, %460 : vector<64xf32> loc(#loc24)
      %903 = memref.load %158[%461, %681] : memref<?x?xf32, strided<[?, 1]>> loc(#loc24)
      %904 = vector.broadcast %903 : f32 to vector<64xf32> loc(#loc24)
      %905 = vector.fma %166, %901, %464 : vector<64xf32> loc(#loc24)
      %906 = memref.load %158[%465, %681] : memref<?x?xf32, strided<[?, 1]>> loc(#loc24)
      %907 = vector.broadcast %906 : f32 to vector<64xf32> loc(#loc24)
      %908 = vector.fma %166, %904, %468 : vector<64xf32> loc(#loc24)
      %909 = memref.load %158[%469, %681] : memref<?x?xf32, strided<[?, 1]>> loc(#loc24)
      %910 = vector.broadcast %909 : f32 to vector<64xf32> loc(#loc24)
      %911 = vector.fma %166, %907, %472 : vector<64xf32> loc(#loc24)
      %912 = memref.load %158[%473, %681] : memref<?x?xf32, strided<[?, 1]>> loc(#loc24)
      %913 = vector.broadcast %912 : f32 to vector<64xf32> loc(#loc24)
      %914 = vector.fma %166, %910, %476 : vector<64xf32> loc(#loc24)
      %915 = memref.load %158[%477, %681] : memref<?x?xf32, strided<[?, 1]>> loc(#loc24)
      %916 = vector.broadcast %915 : f32 to vector<64xf32> loc(#loc24)
      %917 = vector.fma %166, %913, %480 : vector<64xf32> loc(#loc24)
      %918 = memref.load %158[%481, %681] : memref<?x?xf32, strided<[?, 1]>> loc(#loc24)
      %919 = vector.broadcast %918 : f32 to vector<64xf32> loc(#loc24)
      %920 = vector.fma %166, %916, %484 : vector<64xf32> loc(#loc24)
      %921 = memref.load %158[%485, %681] : memref<?x?xf32, strided<[?, 1]>> loc(#loc24)
      %922 = vector.broadcast %921 : f32 to vector<64xf32> loc(#loc24)
      %923 = vector.fma %166, %919, %488 : vector<64xf32> loc(#loc24)
      %924 = memref.load %158[%489, %681] : memref<?x?xf32, strided<[?, 1]>> loc(#loc24)
      %925 = vector.broadcast %924 : f32 to vector<64xf32> loc(#loc24)
      %926 = vector.fma %166, %922, %492 : vector<64xf32> loc(#loc24)
      %927 = memref.load %158[%493, %681] : memref<?x?xf32, strided<[?, 1]>> loc(#loc24)
      %928 = vector.broadcast %927 : f32 to vector<64xf32> loc(#loc24)
      %929 = vector.fma %166, %925, %496 : vector<64xf32> loc(#loc24)
      %930 = memref.load %158[%497, %681] : memref<?x?xf32, strided<[?, 1]>> loc(#loc24)
      %931 = vector.broadcast %930 : f32 to vector<64xf32> loc(#loc24)
      %932 = vector.fma %166, %928, %500 : vector<64xf32> loc(#loc24)
      %933 = memref.load %158[%501, %681] : memref<?x?xf32, strided<[?, 1]>> loc(#loc24)
      %934 = vector.broadcast %933 : f32 to vector<64xf32> loc(#loc24)
      %935 = vector.fma %166, %931, %504 : vector<64xf32> loc(#loc24)
      %936 = memref.load %158[%505, %681] : memref<?x?xf32, strided<[?, 1]>> loc(#loc24)
      %937 = vector.broadcast %936 : f32 to vector<64xf32> loc(#loc24)
      %938 = vector.fma %166, %934, %508 : vector<64xf32> loc(#loc24)
      %939 = memref.load %158[%509, %681] : memref<?x?xf32, strided<[?, 1]>> loc(#loc24)
      %940 = vector.broadcast %939 : f32 to vector<64xf32> loc(#loc24)
      %941 = vector.fma %166, %937, %512 : vector<64xf32> loc(#loc24)
      %942 = memref.load %158[%513, %681] : memref<?x?xf32, strided<[?, 1]>> loc(#loc24)
      %943 = vector.broadcast %942 : f32 to vector<64xf32> loc(#loc24)
      %944 = vector.fma %166, %940, %516 : vector<64xf32> loc(#loc24)
      %945 = memref.load %158[%517, %681] : memref<?x?xf32, strided<[?, 1]>> loc(#loc24)
      %946 = vector.broadcast %945 : f32 to vector<64xf32> loc(#loc24)
      %947 = vector.fma %166, %943, %520 : vector<64xf32> loc(#loc24)
      %948 = memref.load %158[%521, %681] : memref<?x?xf32, strided<[?, 1]>> loc(#loc24)
      %949 = vector.broadcast %948 : f32 to vector<64xf32> loc(#loc24)
      %950 = vector.fma %166, %946, %524 : vector<64xf32> loc(#loc24)
      %951 = memref.load %158[%525, %681] : memref<?x?xf32, strided<[?, 1]>> loc(#loc24)
      %952 = vector.broadcast %951 : f32 to vector<64xf32> loc(#loc24)
      %953 = vector.fma %166, %949, %528 : vector<64xf32> loc(#loc24)
      %954 = memref.load %158[%529, %681] : memref<?x?xf32, strided<[?, 1]>> loc(#loc24)
      %955 = vector.broadcast %954 : f32 to vector<64xf32> loc(#loc24)
      %956 = vector.fma %166, %952, %532 : vector<64xf32> loc(#loc24)
      %957 = memref.load %158[%533, %681] : memref<?x?xf32, strided<[?, 1]>> loc(#loc24)
      %958 = vector.broadcast %957 : f32 to vector<64xf32> loc(#loc24)
      %959 = vector.fma %166, %955, %536 : vector<64xf32> loc(#loc24)
      %960 = memref.load %158[%537, %681] : memref<?x?xf32, strided<[?, 1]>> loc(#loc24)
      %961 = vector.broadcast %960 : f32 to vector<64xf32> loc(#loc24)
      %962 = vector.fma %166, %958, %540 : vector<64xf32> loc(#loc24)
      %963 = memref.load %158[%541, %681] : memref<?x?xf32, strided<[?, 1]>> loc(#loc24)
      %964 = vector.broadcast %963 : f32 to vector<64xf32> loc(#loc24)
      %965 = vector.fma %166, %961, %544 : vector<64xf32> loc(#loc24)
      %966 = memref.load %158[%545, %681] : memref<?x?xf32, strided<[?, 1]>> loc(#loc24)
      %967 = vector.broadcast %966 : f32 to vector<64xf32> loc(#loc24)
      %968 = vector.fma %166, %964, %548 : vector<64xf32> loc(#loc24)
      %969 = memref.load %158[%549, %681] : memref<?x?xf32, strided<[?, 1]>> loc(#loc24)
      %970 = vector.broadcast %969 : f32 to vector<64xf32> loc(#loc24)
      %971 = vector.fma %166, %967, %552 : vector<64xf32> loc(#loc24)
      %972 = memref.load %158[%553, %681] : memref<?x?xf32, strided<[?, 1]>> loc(#loc24)
      %973 = vector.broadcast %972 : f32 to vector<64xf32> loc(#loc24)
      %974 = vector.fma %166, %970, %556 : vector<64xf32> loc(#loc24)
      %975 = memref.load %158[%557, %681] : memref<?x?xf32, strided<[?, 1]>> loc(#loc24)
      %976 = vector.broadcast %975 : f32 to vector<64xf32> loc(#loc24)
      %977 = vector.fma %166, %973, %560 : vector<64xf32> loc(#loc24)
      %978 = memref.load %158[%561, %681] : memref<?x?xf32, strided<[?, 1]>> loc(#loc24)
      %979 = vector.broadcast %978 : f32 to vector<64xf32> loc(#loc24)
      %980 = vector.fma %166, %976, %564 : vector<64xf32> loc(#loc24)
      %981 = memref.load %158[%565, %681] : memref<?x?xf32, strided<[?, 1]>> loc(#loc24)
      %982 = vector.broadcast %981 : f32 to vector<64xf32> loc(#loc24)
      %983 = vector.fma %166, %979, %568 : vector<64xf32> loc(#loc24)
      %984 = memref.load %158[%569, %681] : memref<?x?xf32, strided<[?, 1]>> loc(#loc24)
      %985 = vector.broadcast %984 : f32 to vector<64xf32> loc(#loc24)
      %986 = vector.fma %166, %982, %572 : vector<64xf32> loc(#loc24)
      %987 = memref.load %158[%573, %681] : memref<?x?xf32, strided<[?, 1]>> loc(#loc24)
      %988 = vector.broadcast %987 : f32 to vector<64xf32> loc(#loc24)
      %989 = vector.fma %166, %985, %576 : vector<64xf32> loc(#loc24)
      %990 = memref.load %158[%577, %681] : memref<?x?xf32, strided<[?, 1]>> loc(#loc24)
      %991 = vector.broadcast %990 : f32 to vector<64xf32> loc(#loc24)
      %992 = vector.fma %166, %988, %580 : vector<64xf32> loc(#loc24)
      %993 = memref.load %158[%581, %681] : memref<?x?xf32, strided<[?, 1]>> loc(#loc24)
      %994 = vector.broadcast %993 : f32 to vector<64xf32> loc(#loc24)
      %995 = vector.fma %166, %991, %584 : vector<64xf32> loc(#loc24)
      %996 = memref.load %158[%585, %681] : memref<?x?xf32, strided<[?, 1]>> loc(#loc24)
      %997 = vector.broadcast %996 : f32 to vector<64xf32> loc(#loc24)
      %998 = vector.fma %166, %994, %588 : vector<64xf32> loc(#loc24)
      %999 = memref.load %158[%589, %681] : memref<?x?xf32, strided<[?, 1]>> loc(#loc24)
      %1000 = vector.broadcast %999 : f32 to vector<64xf32> loc(#loc24)
      %1001 = vector.fma %166, %997, %592 : vector<64xf32> loc(#loc24)
      %1002 = memref.load %158[%593, %681] : memref<?x?xf32, strided<[?, 1]>> loc(#loc24)
      %1003 = vector.broadcast %1002 : f32 to vector<64xf32> loc(#loc24)
      %1004 = vector.fma %166, %1000, %596 : vector<64xf32> loc(#loc24)
      %1005 = memref.load %158[%597, %681] : memref<?x?xf32, strided<[?, 1]>> loc(#loc24)
      %1006 = vector.broadcast %1005 : f32 to vector<64xf32> loc(#loc24)
      %1007 = vector.fma %166, %1003, %600 : vector<64xf32> loc(#loc24)
      %1008 = memref.load %158[%601, %681] : memref<?x?xf32, strided<[?, 1]>> loc(#loc24)
      %1009 = vector.broadcast %1008 : f32 to vector<64xf32> loc(#loc24)
      %1010 = vector.fma %166, %1006, %604 : vector<64xf32> loc(#loc24)
      %1011 = memref.load %158[%605, %681] : memref<?x?xf32, strided<[?, 1]>> loc(#loc24)
      %1012 = vector.broadcast %1011 : f32 to vector<64xf32> loc(#loc24)
      %1013 = vector.fma %166, %1009, %608 : vector<64xf32> loc(#loc24)
      %1014 = memref.load %158[%609, %681] : memref<?x?xf32, strided<[?, 1]>> loc(#loc24)
      %1015 = vector.broadcast %1014 : f32 to vector<64xf32> loc(#loc24)
      %1016 = vector.fma %166, %1012, %612 : vector<64xf32> loc(#loc24)
      %1017 = memref.load %158[%613, %681] : memref<?x?xf32, strided<[?, 1]>> loc(#loc24)
      %1018 = vector.broadcast %1017 : f32 to vector<64xf32> loc(#loc24)
      %1019 = vector.fma %166, %1015, %616 : vector<64xf32> loc(#loc24)
      %1020 = memref.load %158[%617, %681] : memref<?x?xf32, strided<[?, 1]>> loc(#loc24)
      %1021 = vector.broadcast %1020 : f32 to vector<64xf32> loc(#loc24)
      %1022 = vector.fma %166, %1018, %620 : vector<64xf32> loc(#loc24)
      %1023 = memref.load %158[%621, %681] : memref<?x?xf32, strided<[?, 1]>> loc(#loc24)
      %1024 = vector.broadcast %1023 : f32 to vector<64xf32> loc(#loc24)
      %1025 = vector.fma %166, %1021, %624 : vector<64xf32> loc(#loc24)
      %1026 = memref.load %158[%625, %681] : memref<?x?xf32, strided<[?, 1]>> loc(#loc24)
      %1027 = vector.broadcast %1026 : f32 to vector<64xf32> loc(#loc24)
      %1028 = vector.fma %166, %1024, %628 : vector<64xf32> loc(#loc24)
      %1029 = memref.load %158[%629, %681] : memref<?x?xf32, strided<[?, 1]>> loc(#loc24)
      %1030 = vector.broadcast %1029 : f32 to vector<64xf32> loc(#loc24)
      %1031 = vector.fma %166, %1027, %632 : vector<64xf32> loc(#loc24)
      %1032 = memref.load %158[%633, %681] : memref<?x?xf32, strided<[?, 1]>> loc(#loc24)
      %1033 = vector.broadcast %1032 : f32 to vector<64xf32> loc(#loc24)
      %1034 = vector.fma %166, %1030, %636 : vector<64xf32> loc(#loc24)
      %1035 = memref.load %158[%637, %681] : memref<?x?xf32, strided<[?, 1]>> loc(#loc24)
      %1036 = vector.broadcast %1035 : f32 to vector<64xf32> loc(#loc24)
      %1037 = vector.fma %166, %1033, %640 : vector<64xf32> loc(#loc24)
      %1038 = memref.load %158[%641, %681] : memref<?x?xf32, strided<[?, 1]>> loc(#loc24)
      %1039 = vector.broadcast %1038 : f32 to vector<64xf32> loc(#loc24)
      %1040 = vector.fma %166, %1036, %644 : vector<64xf32> loc(#loc24)
      %1041 = memref.load %158[%645, %681] : memref<?x?xf32, strided<[?, 1]>> loc(#loc24)
      %1042 = vector.broadcast %1041 : f32 to vector<64xf32> loc(#loc24)
      %1043 = vector.fma %166, %1039, %648 : vector<64xf32> loc(#loc24)
      %1044 = memref.load %158[%649, %681] : memref<?x?xf32, strided<[?, 1]>> loc(#loc24)
      %1045 = vector.broadcast %1044 : f32 to vector<64xf32> loc(#loc24)
      %1046 = vector.fma %166, %1042, %652 : vector<64xf32> loc(#loc24)
      %1047 = memref.load %158[%653, %681] : memref<?x?xf32, strided<[?, 1]>> loc(#loc24)
      %1048 = vector.broadcast %1047 : f32 to vector<64xf32> loc(#loc24)
      %1049 = vector.fma %166, %1045, %656 : vector<64xf32> loc(#loc24)
      %1050 = memref.load %158[%657, %681] : memref<?x?xf32, strided<[?, 1]>> loc(#loc24)
      %1051 = vector.broadcast %1050 : f32 to vector<64xf32> loc(#loc24)
      %1052 = vector.fma %166, %1048, %660 : vector<64xf32> loc(#loc24)
      %1053 = memref.load %158[%661, %681] : memref<?x?xf32, strided<[?, 1]>> loc(#loc24)
      %1054 = vector.broadcast %1053 : f32 to vector<64xf32> loc(#loc24)
      %1055 = vector.fma %166, %1051, %664 : vector<64xf32> loc(#loc24)
      %1056 = memref.load %158[%665, %681] : memref<?x?xf32, strided<[?, 1]>> loc(#loc24)
      %1057 = vector.broadcast %1056 : f32 to vector<64xf32> loc(#loc24)
      %1058 = vector.fma %166, %1054, %668 : vector<64xf32> loc(#loc24)
      %1059 = memref.load %158[%669, %681] : memref<?x?xf32, strided<[?, 1]>> loc(#loc24)
      %1060 = vector.broadcast %1059 : f32 to vector<64xf32> loc(#loc24)
      %1061 = vector.fma %166, %1057, %672 : vector<64xf32> loc(#loc24)
      %1062 = memref.load %158[%673, %681] : memref<?x?xf32, strided<[?, 1]>> loc(#loc24)
      %1063 = vector.broadcast %1062 : f32 to vector<64xf32> loc(#loc24)
      %1064 = vector.fma %166, %1060, %676 : vector<64xf32> loc(#loc24)
      %1065 = vector.fma %166, %1063, %677 : vector<64xf32> loc(#loc24)
      %1066 = arith.addi %161#0, %c3 : index loc(#loc24)
      %1067 = vector.load %160[%1066, %161#1] : memref<?x?xf32, strided<[?, 1]>>, vector<64xf32> loc(#loc24)
      %1068 = arith.addi %161#0, %c34 : index loc(#loc24)
      memref.prefetch %160[%1068, %161#1], read, locality<1>, data : memref<?x?xf32, strided<[?, 1]>> loc(#loc24)
      %1069 = arith.addi %159#1, %c2 : index loc(#loc24)
      %1070 = memref.load %158[%159#0, %1069] : memref<?x?xf32, strided<[?, 1]>> loc(#loc24)
      %1071 = vector.broadcast %1070 : f32 to vector<64xf32> loc(#loc24)
      %1072 = memref.load %158[%169, %1069] : memref<?x?xf32, strided<[?, 1]>> loc(#loc24)
      %1073 = vector.broadcast %1072 : f32 to vector<64xf32> loc(#loc24)
      %1074 = vector.fma %679, %1071, %686 : vector<64xf32> loc(#loc24)
      %1075 = memref.load %158[%173, %1069] : memref<?x?xf32, strided<[?, 1]>> loc(#loc24)
      %1076 = vector.broadcast %1075 : f32 to vector<64xf32> loc(#loc24)
      %1077 = vector.fma %679, %1073, %689 : vector<64xf32> loc(#loc24)
      %1078 = memref.load %158[%177, %1069] : memref<?x?xf32, strided<[?, 1]>> loc(#loc24)
      %1079 = vector.broadcast %1078 : f32 to vector<64xf32> loc(#loc24)
      %1080 = vector.fma %679, %1076, %692 : vector<64xf32> loc(#loc24)
      %1081 = memref.load %158[%181, %1069] : memref<?x?xf32, strided<[?, 1]>> loc(#loc24)
      %1082 = vector.broadcast %1081 : f32 to vector<64xf32> loc(#loc24)
      %1083 = vector.fma %679, %1079, %695 : vector<64xf32> loc(#loc24)
      %1084 = memref.load %158[%185, %1069] : memref<?x?xf32, strided<[?, 1]>> loc(#loc24)
      %1085 = vector.broadcast %1084 : f32 to vector<64xf32> loc(#loc24)
      %1086 = vector.fma %679, %1082, %698 : vector<64xf32> loc(#loc24)
      %1087 = memref.load %158[%189, %1069] : memref<?x?xf32, strided<[?, 1]>> loc(#loc24)
      %1088 = vector.broadcast %1087 : f32 to vector<64xf32> loc(#loc24)
      %1089 = vector.fma %679, %1085, %701 : vector<64xf32> loc(#loc24)
      %1090 = memref.load %158[%193, %1069] : memref<?x?xf32, strided<[?, 1]>> loc(#loc24)
      %1091 = vector.broadcast %1090 : f32 to vector<64xf32> loc(#loc24)
      %1092 = vector.fma %679, %1088, %704 : vector<64xf32> loc(#loc24)
      %1093 = memref.load %158[%197, %1069] : memref<?x?xf32, strided<[?, 1]>> loc(#loc24)
      %1094 = vector.broadcast %1093 : f32 to vector<64xf32> loc(#loc24)
      %1095 = vector.fma %679, %1091, %707 : vector<64xf32> loc(#loc24)
      %1096 = memref.load %158[%201, %1069] : memref<?x?xf32, strided<[?, 1]>> loc(#loc24)
      %1097 = vector.broadcast %1096 : f32 to vector<64xf32> loc(#loc24)
      %1098 = vector.fma %679, %1094, %710 : vector<64xf32> loc(#loc24)
      %1099 = memref.load %158[%205, %1069] : memref<?x?xf32, strided<[?, 1]>> loc(#loc24)
      %1100 = vector.broadcast %1099 : f32 to vector<64xf32> loc(#loc24)
      %1101 = vector.fma %679, %1097, %713 : vector<64xf32> loc(#loc24)
      %1102 = memref.load %158[%209, %1069] : memref<?x?xf32, strided<[?, 1]>> loc(#loc24)
      %1103 = vector.broadcast %1102 : f32 to vector<64xf32> loc(#loc24)
      %1104 = vector.fma %679, %1100, %716 : vector<64xf32> loc(#loc24)
      %1105 = memref.load %158[%213, %1069] : memref<?x?xf32, strided<[?, 1]>> loc(#loc24)
      %1106 = vector.broadcast %1105 : f32 to vector<64xf32> loc(#loc24)
      %1107 = vector.fma %679, %1103, %719 : vector<64xf32> loc(#loc24)
      %1108 = memref.load %158[%217, %1069] : memref<?x?xf32, strided<[?, 1]>> loc(#loc24)
      %1109 = vector.broadcast %1108 : f32 to vector<64xf32> loc(#loc24)
      %1110 = vector.fma %679, %1106, %722 : vector<64xf32> loc(#loc24)
      %1111 = memref.load %158[%221, %1069] : memref<?x?xf32, strided<[?, 1]>> loc(#loc24)
      %1112 = vector.broadcast %1111 : f32 to vector<64xf32> loc(#loc24)
      %1113 = vector.fma %679, %1109, %725 : vector<64xf32> loc(#loc24)
      %1114 = memref.load %158[%225, %1069] : memref<?x?xf32, strided<[?, 1]>> loc(#loc24)
      %1115 = vector.broadcast %1114 : f32 to vector<64xf32> loc(#loc24)
      %1116 = vector.fma %679, %1112, %728 : vector<64xf32> loc(#loc24)
      %1117 = memref.load %158[%229, %1069] : memref<?x?xf32, strided<[?, 1]>> loc(#loc24)
      %1118 = vector.broadcast %1117 : f32 to vector<64xf32> loc(#loc24)
      %1119 = vector.fma %679, %1115, %731 : vector<64xf32> loc(#loc24)
      %1120 = memref.load %158[%233, %1069] : memref<?x?xf32, strided<[?, 1]>> loc(#loc24)
      %1121 = vector.broadcast %1120 : f32 to vector<64xf32> loc(#loc24)
      %1122 = vector.fma %679, %1118, %734 : vector<64xf32> loc(#loc24)
      %1123 = memref.load %158[%237, %1069] : memref<?x?xf32, strided<[?, 1]>> loc(#loc24)
      %1124 = vector.broadcast %1123 : f32 to vector<64xf32> loc(#loc24)
      %1125 = vector.fma %679, %1121, %737 : vector<64xf32> loc(#loc24)
      %1126 = memref.load %158[%241, %1069] : memref<?x?xf32, strided<[?, 1]>> loc(#loc24)
      %1127 = vector.broadcast %1126 : f32 to vector<64xf32> loc(#loc24)
      %1128 = vector.fma %679, %1124, %740 : vector<64xf32> loc(#loc24)
      %1129 = memref.load %158[%245, %1069] : memref<?x?xf32, strided<[?, 1]>> loc(#loc24)
      %1130 = vector.broadcast %1129 : f32 to vector<64xf32> loc(#loc24)
      %1131 = vector.fma %679, %1127, %743 : vector<64xf32> loc(#loc24)
      %1132 = memref.load %158[%249, %1069] : memref<?x?xf32, strided<[?, 1]>> loc(#loc24)
      %1133 = vector.broadcast %1132 : f32 to vector<64xf32> loc(#loc24)
      %1134 = vector.fma %679, %1130, %746 : vector<64xf32> loc(#loc24)
      %1135 = memref.load %158[%253, %1069] : memref<?x?xf32, strided<[?, 1]>> loc(#loc24)
      %1136 = vector.broadcast %1135 : f32 to vector<64xf32> loc(#loc24)
      %1137 = vector.fma %679, %1133, %749 : vector<64xf32> loc(#loc24)
      %1138 = memref.load %158[%257, %1069] : memref<?x?xf32, strided<[?, 1]>> loc(#loc24)
      %1139 = vector.broadcast %1138 : f32 to vector<64xf32> loc(#loc24)
      %1140 = vector.fma %679, %1136, %752 : vector<64xf32> loc(#loc24)
      %1141 = memref.load %158[%261, %1069] : memref<?x?xf32, strided<[?, 1]>> loc(#loc24)
      %1142 = vector.broadcast %1141 : f32 to vector<64xf32> loc(#loc24)
      %1143 = vector.fma %679, %1139, %755 : vector<64xf32> loc(#loc24)
      %1144 = memref.load %158[%265, %1069] : memref<?x?xf32, strided<[?, 1]>> loc(#loc24)
      %1145 = vector.broadcast %1144 : f32 to vector<64xf32> loc(#loc24)
      %1146 = vector.fma %679, %1142, %758 : vector<64xf32> loc(#loc24)
      %1147 = memref.load %158[%269, %1069] : memref<?x?xf32, strided<[?, 1]>> loc(#loc24)
      %1148 = vector.broadcast %1147 : f32 to vector<64xf32> loc(#loc24)
      %1149 = vector.fma %679, %1145, %761 : vector<64xf32> loc(#loc24)
      %1150 = memref.load %158[%273, %1069] : memref<?x?xf32, strided<[?, 1]>> loc(#loc24)
      %1151 = vector.broadcast %1150 : f32 to vector<64xf32> loc(#loc24)
      %1152 = vector.fma %679, %1148, %764 : vector<64xf32> loc(#loc24)
      %1153 = memref.load %158[%277, %1069] : memref<?x?xf32, strided<[?, 1]>> loc(#loc24)
      %1154 = vector.broadcast %1153 : f32 to vector<64xf32> loc(#loc24)
      %1155 = vector.fma %679, %1151, %767 : vector<64xf32> loc(#loc24)
      %1156 = memref.load %158[%281, %1069] : memref<?x?xf32, strided<[?, 1]>> loc(#loc24)
      %1157 = vector.broadcast %1156 : f32 to vector<64xf32> loc(#loc24)
      %1158 = vector.fma %679, %1154, %770 : vector<64xf32> loc(#loc24)
      %1159 = memref.load %158[%285, %1069] : memref<?x?xf32, strided<[?, 1]>> loc(#loc24)
      %1160 = vector.broadcast %1159 : f32 to vector<64xf32> loc(#loc24)
      %1161 = vector.fma %679, %1157, %773 : vector<64xf32> loc(#loc24)
      %1162 = memref.load %158[%289, %1069] : memref<?x?xf32, strided<[?, 1]>> loc(#loc24)
      %1163 = vector.broadcast %1162 : f32 to vector<64xf32> loc(#loc24)
      %1164 = vector.fma %679, %1160, %776 : vector<64xf32> loc(#loc24)
      %1165 = memref.load %158[%293, %1069] : memref<?x?xf32, strided<[?, 1]>> loc(#loc24)
      %1166 = vector.broadcast %1165 : f32 to vector<64xf32> loc(#loc24)
      %1167 = vector.fma %679, %1163, %779 : vector<64xf32> loc(#loc24)
      %1168 = memref.load %158[%297, %1069] : memref<?x?xf32, strided<[?, 1]>> loc(#loc24)
      %1169 = vector.broadcast %1168 : f32 to vector<64xf32> loc(#loc24)
      %1170 = vector.fma %679, %1166, %782 : vector<64xf32> loc(#loc24)
      %1171 = memref.load %158[%301, %1069] : memref<?x?xf32, strided<[?, 1]>> loc(#loc24)
      %1172 = vector.broadcast %1171 : f32 to vector<64xf32> loc(#loc24)
      %1173 = vector.fma %679, %1169, %785 : vector<64xf32> loc(#loc24)
      %1174 = memref.load %158[%305, %1069] : memref<?x?xf32, strided<[?, 1]>> loc(#loc24)
      %1175 = vector.broadcast %1174 : f32 to vector<64xf32> loc(#loc24)
      %1176 = vector.fma %679, %1172, %788 : vector<64xf32> loc(#loc24)
      %1177 = memref.load %158[%309, %1069] : memref<?x?xf32, strided<[?, 1]>> loc(#loc24)
      %1178 = vector.broadcast %1177 : f32 to vector<64xf32> loc(#loc24)
      %1179 = vector.fma %679, %1175, %791 : vector<64xf32> loc(#loc24)
      %1180 = memref.load %158[%313, %1069] : memref<?x?xf32, strided<[?, 1]>> loc(#loc24)
      %1181 = vector.broadcast %1180 : f32 to vector<64xf32> loc(#loc24)
      %1182 = vector.fma %679, %1178, %794 : vector<64xf32> loc(#loc24)
      %1183 = memref.load %158[%317, %1069] : memref<?x?xf32, strided<[?, 1]>> loc(#loc24)
      %1184 = vector.broadcast %1183 : f32 to vector<64xf32> loc(#loc24)
      %1185 = vector.fma %679, %1181, %797 : vector<64xf32> loc(#loc24)
      %1186 = memref.load %158[%321, %1069] : memref<?x?xf32, strided<[?, 1]>> loc(#loc24)
      %1187 = vector.broadcast %1186 : f32 to vector<64xf32> loc(#loc24)
      %1188 = vector.fma %679, %1184, %800 : vector<64xf32> loc(#loc24)
      %1189 = memref.load %158[%325, %1069] : memref<?x?xf32, strided<[?, 1]>> loc(#loc24)
      %1190 = vector.broadcast %1189 : f32 to vector<64xf32> loc(#loc24)
      %1191 = vector.fma %679, %1187, %803 : vector<64xf32> loc(#loc24)
      %1192 = memref.load %158[%329, %1069] : memref<?x?xf32, strided<[?, 1]>> loc(#loc24)
      %1193 = vector.broadcast %1192 : f32 to vector<64xf32> loc(#loc24)
      %1194 = vector.fma %679, %1190, %806 : vector<64xf32> loc(#loc24)
      %1195 = memref.load %158[%333, %1069] : memref<?x?xf32, strided<[?, 1]>> loc(#loc24)
      %1196 = vector.broadcast %1195 : f32 to vector<64xf32> loc(#loc24)
      %1197 = vector.fma %679, %1193, %809 : vector<64xf32> loc(#loc24)
      %1198 = memref.load %158[%337, %1069] : memref<?x?xf32, strided<[?, 1]>> loc(#loc24)
      %1199 = vector.broadcast %1198 : f32 to vector<64xf32> loc(#loc24)
      %1200 = vector.fma %679, %1196, %812 : vector<64xf32> loc(#loc24)
      %1201 = memref.load %158[%341, %1069] : memref<?x?xf32, strided<[?, 1]>> loc(#loc24)
      %1202 = vector.broadcast %1201 : f32 to vector<64xf32> loc(#loc24)
      %1203 = vector.fma %679, %1199, %815 : vector<64xf32> loc(#loc24)
      %1204 = memref.load %158[%345, %1069] : memref<?x?xf32, strided<[?, 1]>> loc(#loc24)
      %1205 = vector.broadcast %1204 : f32 to vector<64xf32> loc(#loc24)
      %1206 = vector.fma %679, %1202, %818 : vector<64xf32> loc(#loc24)
      %1207 = memref.load %158[%349, %1069] : memref<?x?xf32, strided<[?, 1]>> loc(#loc24)
      %1208 = vector.broadcast %1207 : f32 to vector<64xf32> loc(#loc24)
      %1209 = vector.fma %679, %1205, %821 : vector<64xf32> loc(#loc24)
      %1210 = memref.load %158[%353, %1069] : memref<?x?xf32, strided<[?, 1]>> loc(#loc24)
      %1211 = vector.broadcast %1210 : f32 to vector<64xf32> loc(#loc24)
      %1212 = vector.fma %679, %1208, %824 : vector<64xf32> loc(#loc24)
      %1213 = memref.load %158[%357, %1069] : memref<?x?xf32, strided<[?, 1]>> loc(#loc24)
      %1214 = vector.broadcast %1213 : f32 to vector<64xf32> loc(#loc24)
      %1215 = vector.fma %679, %1211, %827 : vector<64xf32> loc(#loc24)
      %1216 = memref.load %158[%361, %1069] : memref<?x?xf32, strided<[?, 1]>> loc(#loc24)
      %1217 = vector.broadcast %1216 : f32 to vector<64xf32> loc(#loc24)
      %1218 = vector.fma %679, %1214, %830 : vector<64xf32> loc(#loc24)
      %1219 = memref.load %158[%365, %1069] : memref<?x?xf32, strided<[?, 1]>> loc(#loc24)
      %1220 = vector.broadcast %1219 : f32 to vector<64xf32> loc(#loc24)
      %1221 = vector.fma %679, %1217, %833 : vector<64xf32> loc(#loc24)
      %1222 = memref.load %158[%369, %1069] : memref<?x?xf32, strided<[?, 1]>> loc(#loc24)
      %1223 = vector.broadcast %1222 : f32 to vector<64xf32> loc(#loc24)
      %1224 = vector.fma %679, %1220, %836 : vector<64xf32> loc(#loc24)
      %1225 = memref.load %158[%373, %1069] : memref<?x?xf32, strided<[?, 1]>> loc(#loc24)
      %1226 = vector.broadcast %1225 : f32 to vector<64xf32> loc(#loc24)
      %1227 = vector.fma %679, %1223, %839 : vector<64xf32> loc(#loc24)
      %1228 = memref.load %158[%377, %1069] : memref<?x?xf32, strided<[?, 1]>> loc(#loc24)
      %1229 = vector.broadcast %1228 : f32 to vector<64xf32> loc(#loc24)
      %1230 = vector.fma %679, %1226, %842 : vector<64xf32> loc(#loc24)
      %1231 = memref.load %158[%381, %1069] : memref<?x?xf32, strided<[?, 1]>> loc(#loc24)
      %1232 = vector.broadcast %1231 : f32 to vector<64xf32> loc(#loc24)
      %1233 = vector.fma %679, %1229, %845 : vector<64xf32> loc(#loc24)
      %1234 = memref.load %158[%385, %1069] : memref<?x?xf32, strided<[?, 1]>> loc(#loc24)
      %1235 = vector.broadcast %1234 : f32 to vector<64xf32> loc(#loc24)
      %1236 = vector.fma %679, %1232, %848 : vector<64xf32> loc(#loc24)
      %1237 = memref.load %158[%389, %1069] : memref<?x?xf32, strided<[?, 1]>> loc(#loc24)
      %1238 = vector.broadcast %1237 : f32 to vector<64xf32> loc(#loc24)
      %1239 = vector.fma %679, %1235, %851 : vector<64xf32> loc(#loc24)
      %1240 = memref.load %158[%393, %1069] : memref<?x?xf32, strided<[?, 1]>> loc(#loc24)
      %1241 = vector.broadcast %1240 : f32 to vector<64xf32> loc(#loc24)
      %1242 = vector.fma %679, %1238, %854 : vector<64xf32> loc(#loc24)
      %1243 = memref.load %158[%397, %1069] : memref<?x?xf32, strided<[?, 1]>> loc(#loc24)
      %1244 = vector.broadcast %1243 : f32 to vector<64xf32> loc(#loc24)
      %1245 = vector.fma %679, %1241, %857 : vector<64xf32> loc(#loc24)
      %1246 = memref.load %158[%401, %1069] : memref<?x?xf32, strided<[?, 1]>> loc(#loc24)
      %1247 = vector.broadcast %1246 : f32 to vector<64xf32> loc(#loc24)
      %1248 = vector.fma %679, %1244, %860 : vector<64xf32> loc(#loc24)
      %1249 = memref.load %158[%405, %1069] : memref<?x?xf32, strided<[?, 1]>> loc(#loc24)
      %1250 = vector.broadcast %1249 : f32 to vector<64xf32> loc(#loc24)
      %1251 = vector.fma %679, %1247, %863 : vector<64xf32> loc(#loc24)
      %1252 = memref.load %158[%409, %1069] : memref<?x?xf32, strided<[?, 1]>> loc(#loc24)
      %1253 = vector.broadcast %1252 : f32 to vector<64xf32> loc(#loc24)
      %1254 = vector.fma %679, %1250, %866 : vector<64xf32> loc(#loc24)
      %1255 = memref.load %158[%413, %1069] : memref<?x?xf32, strided<[?, 1]>> loc(#loc24)
      %1256 = vector.broadcast %1255 : f32 to vector<64xf32> loc(#loc24)
      %1257 = vector.fma %679, %1253, %869 : vector<64xf32> loc(#loc24)
      %1258 = memref.load %158[%417, %1069] : memref<?x?xf32, strided<[?, 1]>> loc(#loc24)
      %1259 = vector.broadcast %1258 : f32 to vector<64xf32> loc(#loc24)
      %1260 = vector.fma %679, %1256, %872 : vector<64xf32> loc(#loc24)
      %1261 = memref.load %158[%421, %1069] : memref<?x?xf32, strided<[?, 1]>> loc(#loc24)
      %1262 = vector.broadcast %1261 : f32 to vector<64xf32> loc(#loc24)
      %1263 = vector.fma %679, %1259, %875 : vector<64xf32> loc(#loc24)
      %1264 = memref.load %158[%425, %1069] : memref<?x?xf32, strided<[?, 1]>> loc(#loc24)
      %1265 = vector.broadcast %1264 : f32 to vector<64xf32> loc(#loc24)
      %1266 = vector.fma %679, %1262, %878 : vector<64xf32> loc(#loc24)
      %1267 = memref.load %158[%429, %1069] : memref<?x?xf32, strided<[?, 1]>> loc(#loc24)
      %1268 = vector.broadcast %1267 : f32 to vector<64xf32> loc(#loc24)
      %1269 = vector.fma %679, %1265, %881 : vector<64xf32> loc(#loc24)
      %1270 = memref.load %158[%433, %1069] : memref<?x?xf32, strided<[?, 1]>> loc(#loc24)
      %1271 = vector.broadcast %1270 : f32 to vector<64xf32> loc(#loc24)
      %1272 = vector.fma %679, %1268, %884 : vector<64xf32> loc(#loc24)
      %1273 = memref.load %158[%437, %1069] : memref<?x?xf32, strided<[?, 1]>> loc(#loc24)
      %1274 = vector.broadcast %1273 : f32 to vector<64xf32> loc(#loc24)
      %1275 = vector.fma %679, %1271, %887 : vector<64xf32> loc(#loc24)
      %1276 = memref.load %158[%441, %1069] : memref<?x?xf32, strided<[?, 1]>> loc(#loc24)
      %1277 = vector.broadcast %1276 : f32 to vector<64xf32> loc(#loc24)
      %1278 = vector.fma %679, %1274, %890 : vector<64xf32> loc(#loc24)
      %1279 = memref.load %158[%445, %1069] : memref<?x?xf32, strided<[?, 1]>> loc(#loc24)
      %1280 = vector.broadcast %1279 : f32 to vector<64xf32> loc(#loc24)
      %1281 = vector.fma %679, %1277, %893 : vector<64xf32> loc(#loc24)
      %1282 = memref.load %158[%449, %1069] : memref<?x?xf32, strided<[?, 1]>> loc(#loc24)
      %1283 = vector.broadcast %1282 : f32 to vector<64xf32> loc(#loc24)
      %1284 = vector.fma %679, %1280, %896 : vector<64xf32> loc(#loc24)
      %1285 = memref.load %158[%453, %1069] : memref<?x?xf32, strided<[?, 1]>> loc(#loc24)
      %1286 = vector.broadcast %1285 : f32 to vector<64xf32> loc(#loc24)
      %1287 = vector.fma %679, %1283, %899 : vector<64xf32> loc(#loc24)
      %1288 = memref.load %158[%457, %1069] : memref<?x?xf32, strided<[?, 1]>> loc(#loc24)
      %1289 = vector.broadcast %1288 : f32 to vector<64xf32> loc(#loc24)
      %1290 = vector.fma %679, %1286, %902 : vector<64xf32> loc(#loc24)
      %1291 = memref.load %158[%461, %1069] : memref<?x?xf32, strided<[?, 1]>> loc(#loc24)
      %1292 = vector.broadcast %1291 : f32 to vector<64xf32> loc(#loc24)
      %1293 = vector.fma %679, %1289, %905 : vector<64xf32> loc(#loc24)
      %1294 = memref.load %158[%465, %1069] : memref<?x?xf32, strided<[?, 1]>> loc(#loc24)
      %1295 = vector.broadcast %1294 : f32 to vector<64xf32> loc(#loc24)
      %1296 = vector.fma %679, %1292, %908 : vector<64xf32> loc(#loc24)
      %1297 = memref.load %158[%469, %1069] : memref<?x?xf32, strided<[?, 1]>> loc(#loc24)
      %1298 = vector.broadcast %1297 : f32 to vector<64xf32> loc(#loc24)
      %1299 = vector.fma %679, %1295, %911 : vector<64xf32> loc(#loc24)
      %1300 = memref.load %158[%473, %1069] : memref<?x?xf32, strided<[?, 1]>> loc(#loc24)
      %1301 = vector.broadcast %1300 : f32 to vector<64xf32> loc(#loc24)
      %1302 = vector.fma %679, %1298, %914 : vector<64xf32> loc(#loc24)
      %1303 = memref.load %158[%477, %1069] : memref<?x?xf32, strided<[?, 1]>> loc(#loc24)
      %1304 = vector.broadcast %1303 : f32 to vector<64xf32> loc(#loc24)
      %1305 = vector.fma %679, %1301, %917 : vector<64xf32> loc(#loc24)
      %1306 = memref.load %158[%481, %1069] : memref<?x?xf32, strided<[?, 1]>> loc(#loc24)
      %1307 = vector.broadcast %1306 : f32 to vector<64xf32> loc(#loc24)
      %1308 = vector.fma %679, %1304, %920 : vector<64xf32> loc(#loc24)
      %1309 = memref.load %158[%485, %1069] : memref<?x?xf32, strided<[?, 1]>> loc(#loc24)
      %1310 = vector.broadcast %1309 : f32 to vector<64xf32> loc(#loc24)
      %1311 = vector.fma %679, %1307, %923 : vector<64xf32> loc(#loc24)
      %1312 = memref.load %158[%489, %1069] : memref<?x?xf32, strided<[?, 1]>> loc(#loc24)
      %1313 = vector.broadcast %1312 : f32 to vector<64xf32> loc(#loc24)
      %1314 = vector.fma %679, %1310, %926 : vector<64xf32> loc(#loc24)
      %1315 = memref.load %158[%493, %1069] : memref<?x?xf32, strided<[?, 1]>> loc(#loc24)
      %1316 = vector.broadcast %1315 : f32 to vector<64xf32> loc(#loc24)
      %1317 = vector.fma %679, %1313, %929 : vector<64xf32> loc(#loc24)
      %1318 = memref.load %158[%497, %1069] : memref<?x?xf32, strided<[?, 1]>> loc(#loc24)
      %1319 = vector.broadcast %1318 : f32 to vector<64xf32> loc(#loc24)
      %1320 = vector.fma %679, %1316, %932 : vector<64xf32> loc(#loc24)
      %1321 = memref.load %158[%501, %1069] : memref<?x?xf32, strided<[?, 1]>> loc(#loc24)
      %1322 = vector.broadcast %1321 : f32 to vector<64xf32> loc(#loc24)
      %1323 = vector.fma %679, %1319, %935 : vector<64xf32> loc(#loc24)
      %1324 = memref.load %158[%505, %1069] : memref<?x?xf32, strided<[?, 1]>> loc(#loc24)
      %1325 = vector.broadcast %1324 : f32 to vector<64xf32> loc(#loc24)
      %1326 = vector.fma %679, %1322, %938 : vector<64xf32> loc(#loc24)
      %1327 = memref.load %158[%509, %1069] : memref<?x?xf32, strided<[?, 1]>> loc(#loc24)
      %1328 = vector.broadcast %1327 : f32 to vector<64xf32> loc(#loc24)
      %1329 = vector.fma %679, %1325, %941 : vector<64xf32> loc(#loc24)
      %1330 = memref.load %158[%513, %1069] : memref<?x?xf32, strided<[?, 1]>> loc(#loc24)
      %1331 = vector.broadcast %1330 : f32 to vector<64xf32> loc(#loc24)
      %1332 = vector.fma %679, %1328, %944 : vector<64xf32> loc(#loc24)
      %1333 = memref.load %158[%517, %1069] : memref<?x?xf32, strided<[?, 1]>> loc(#loc24)
      %1334 = vector.broadcast %1333 : f32 to vector<64xf32> loc(#loc24)
      %1335 = vector.fma %679, %1331, %947 : vector<64xf32> loc(#loc24)
      %1336 = memref.load %158[%521, %1069] : memref<?x?xf32, strided<[?, 1]>> loc(#loc24)
      %1337 = vector.broadcast %1336 : f32 to vector<64xf32> loc(#loc24)
      %1338 = vector.fma %679, %1334, %950 : vector<64xf32> loc(#loc24)
      %1339 = memref.load %158[%525, %1069] : memref<?x?xf32, strided<[?, 1]>> loc(#loc24)
      %1340 = vector.broadcast %1339 : f32 to vector<64xf32> loc(#loc24)
      %1341 = vector.fma %679, %1337, %953 : vector<64xf32> loc(#loc24)
      %1342 = memref.load %158[%529, %1069] : memref<?x?xf32, strided<[?, 1]>> loc(#loc24)
      %1343 = vector.broadcast %1342 : f32 to vector<64xf32> loc(#loc24)
      %1344 = vector.fma %679, %1340, %956 : vector<64xf32> loc(#loc24)
      %1345 = memref.load %158[%533, %1069] : memref<?x?xf32, strided<[?, 1]>> loc(#loc24)
      %1346 = vector.broadcast %1345 : f32 to vector<64xf32> loc(#loc24)
      %1347 = vector.fma %679, %1343, %959 : vector<64xf32> loc(#loc24)
      %1348 = memref.load %158[%537, %1069] : memref<?x?xf32, strided<[?, 1]>> loc(#loc24)
      %1349 = vector.broadcast %1348 : f32 to vector<64xf32> loc(#loc24)
      %1350 = vector.fma %679, %1346, %962 : vector<64xf32> loc(#loc24)
      %1351 = memref.load %158[%541, %1069] : memref<?x?xf32, strided<[?, 1]>> loc(#loc24)
      %1352 = vector.broadcast %1351 : f32 to vector<64xf32> loc(#loc24)
      %1353 = vector.fma %679, %1349, %965 : vector<64xf32> loc(#loc24)
      %1354 = memref.load %158[%545, %1069] : memref<?x?xf32, strided<[?, 1]>> loc(#loc24)
      %1355 = vector.broadcast %1354 : f32 to vector<64xf32> loc(#loc24)
      %1356 = vector.fma %679, %1352, %968 : vector<64xf32> loc(#loc24)
      %1357 = memref.load %158[%549, %1069] : memref<?x?xf32, strided<[?, 1]>> loc(#loc24)
      %1358 = vector.broadcast %1357 : f32 to vector<64xf32> loc(#loc24)
      %1359 = vector.fma %679, %1355, %971 : vector<64xf32> loc(#loc24)
      %1360 = memref.load %158[%553, %1069] : memref<?x?xf32, strided<[?, 1]>> loc(#loc24)
      %1361 = vector.broadcast %1360 : f32 to vector<64xf32> loc(#loc24)
      %1362 = vector.fma %679, %1358, %974 : vector<64xf32> loc(#loc24)
      %1363 = memref.load %158[%557, %1069] : memref<?x?xf32, strided<[?, 1]>> loc(#loc24)
      %1364 = vector.broadcast %1363 : f32 to vector<64xf32> loc(#loc24)
      %1365 = vector.fma %679, %1361, %977 : vector<64xf32> loc(#loc24)
      %1366 = memref.load %158[%561, %1069] : memref<?x?xf32, strided<[?, 1]>> loc(#loc24)
      %1367 = vector.broadcast %1366 : f32 to vector<64xf32> loc(#loc24)
      %1368 = vector.fma %679, %1364, %980 : vector<64xf32> loc(#loc24)
      %1369 = memref.load %158[%565, %1069] : memref<?x?xf32, strided<[?, 1]>> loc(#loc24)
      %1370 = vector.broadcast %1369 : f32 to vector<64xf32> loc(#loc24)
      %1371 = vector.fma %679, %1367, %983 : vector<64xf32> loc(#loc24)
      %1372 = memref.load %158[%569, %1069] : memref<?x?xf32, strided<[?, 1]>> loc(#loc24)
      %1373 = vector.broadcast %1372 : f32 to vector<64xf32> loc(#loc24)
      %1374 = vector.fma %679, %1370, %986 : vector<64xf32> loc(#loc24)
      %1375 = memref.load %158[%573, %1069] : memref<?x?xf32, strided<[?, 1]>> loc(#loc24)
      %1376 = vector.broadcast %1375 : f32 to vector<64xf32> loc(#loc24)
      %1377 = vector.fma %679, %1373, %989 : vector<64xf32> loc(#loc24)
      %1378 = memref.load %158[%577, %1069] : memref<?x?xf32, strided<[?, 1]>> loc(#loc24)
      %1379 = vector.broadcast %1378 : f32 to vector<64xf32> loc(#loc24)
      %1380 = vector.fma %679, %1376, %992 : vector<64xf32> loc(#loc24)
      %1381 = memref.load %158[%581, %1069] : memref<?x?xf32, strided<[?, 1]>> loc(#loc24)
      %1382 = vector.broadcast %1381 : f32 to vector<64xf32> loc(#loc24)
      %1383 = vector.fma %679, %1379, %995 : vector<64xf32> loc(#loc24)
      %1384 = memref.load %158[%585, %1069] : memref<?x?xf32, strided<[?, 1]>> loc(#loc24)
      %1385 = vector.broadcast %1384 : f32 to vector<64xf32> loc(#loc24)
      %1386 = vector.fma %679, %1382, %998 : vector<64xf32> loc(#loc24)
      %1387 = memref.load %158[%589, %1069] : memref<?x?xf32, strided<[?, 1]>> loc(#loc24)
      %1388 = vector.broadcast %1387 : f32 to vector<64xf32> loc(#loc24)
      %1389 = vector.fma %679, %1385, %1001 : vector<64xf32> loc(#loc24)
      %1390 = memref.load %158[%593, %1069] : memref<?x?xf32, strided<[?, 1]>> loc(#loc24)
      %1391 = vector.broadcast %1390 : f32 to vector<64xf32> loc(#loc24)
      %1392 = vector.fma %679, %1388, %1004 : vector<64xf32> loc(#loc24)
      %1393 = memref.load %158[%597, %1069] : memref<?x?xf32, strided<[?, 1]>> loc(#loc24)
      %1394 = vector.broadcast %1393 : f32 to vector<64xf32> loc(#loc24)
      %1395 = vector.fma %679, %1391, %1007 : vector<64xf32> loc(#loc24)
      %1396 = memref.load %158[%601, %1069] : memref<?x?xf32, strided<[?, 1]>> loc(#loc24)
      %1397 = vector.broadcast %1396 : f32 to vector<64xf32> loc(#loc24)
      %1398 = vector.fma %679, %1394, %1010 : vector<64xf32> loc(#loc24)
      %1399 = memref.load %158[%605, %1069] : memref<?x?xf32, strided<[?, 1]>> loc(#loc24)
      %1400 = vector.broadcast %1399 : f32 to vector<64xf32> loc(#loc24)
      %1401 = vector.fma %679, %1397, %1013 : vector<64xf32> loc(#loc24)
      %1402 = memref.load %158[%609, %1069] : memref<?x?xf32, strided<[?, 1]>> loc(#loc24)
      %1403 = vector.broadcast %1402 : f32 to vector<64xf32> loc(#loc24)
      %1404 = vector.fma %679, %1400, %1016 : vector<64xf32> loc(#loc24)
      %1405 = memref.load %158[%613, %1069] : memref<?x?xf32, strided<[?, 1]>> loc(#loc24)
      %1406 = vector.broadcast %1405 : f32 to vector<64xf32> loc(#loc24)
      %1407 = vector.fma %679, %1403, %1019 : vector<64xf32> loc(#loc24)
      %1408 = memref.load %158[%617, %1069] : memref<?x?xf32, strided<[?, 1]>> loc(#loc24)
      %1409 = vector.broadcast %1408 : f32 to vector<64xf32> loc(#loc24)
      %1410 = vector.fma %679, %1406, %1022 : vector<64xf32> loc(#loc24)
      %1411 = memref.load %158[%621, %1069] : memref<?x?xf32, strided<[?, 1]>> loc(#loc24)
      %1412 = vector.broadcast %1411 : f32 to vector<64xf32> loc(#loc24)
      %1413 = vector.fma %679, %1409, %1025 : vector<64xf32> loc(#loc24)
      %1414 = memref.load %158[%625, %1069] : memref<?x?xf32, strided<[?, 1]>> loc(#loc24)
      %1415 = vector.broadcast %1414 : f32 to vector<64xf32> loc(#loc24)
      %1416 = vector.fma %679, %1412, %1028 : vector<64xf32> loc(#loc24)
      %1417 = memref.load %158[%629, %1069] : memref<?x?xf32, strided<[?, 1]>> loc(#loc24)
      %1418 = vector.broadcast %1417 : f32 to vector<64xf32> loc(#loc24)
      %1419 = vector.fma %679, %1415, %1031 : vector<64xf32> loc(#loc24)
      %1420 = memref.load %158[%633, %1069] : memref<?x?xf32, strided<[?, 1]>> loc(#loc24)
      %1421 = vector.broadcast %1420 : f32 to vector<64xf32> loc(#loc24)
      %1422 = vector.fma %679, %1418, %1034 : vector<64xf32> loc(#loc24)
      %1423 = memref.load %158[%637, %1069] : memref<?x?xf32, strided<[?, 1]>> loc(#loc24)
      %1424 = vector.broadcast %1423 : f32 to vector<64xf32> loc(#loc24)
      %1425 = vector.fma %679, %1421, %1037 : vector<64xf32> loc(#loc24)
      %1426 = memref.load %158[%641, %1069] : memref<?x?xf32, strided<[?, 1]>> loc(#loc24)
      %1427 = vector.broadcast %1426 : f32 to vector<64xf32> loc(#loc24)
      %1428 = vector.fma %679, %1424, %1040 : vector<64xf32> loc(#loc24)
      %1429 = memref.load %158[%645, %1069] : memref<?x?xf32, strided<[?, 1]>> loc(#loc24)
      %1430 = vector.broadcast %1429 : f32 to vector<64xf32> loc(#loc24)
      %1431 = vector.fma %679, %1427, %1043 : vector<64xf32> loc(#loc24)
      %1432 = memref.load %158[%649, %1069] : memref<?x?xf32, strided<[?, 1]>> loc(#loc24)
      %1433 = vector.broadcast %1432 : f32 to vector<64xf32> loc(#loc24)
      %1434 = vector.fma %679, %1430, %1046 : vector<64xf32> loc(#loc24)
      %1435 = memref.load %158[%653, %1069] : memref<?x?xf32, strided<[?, 1]>> loc(#loc24)
      %1436 = vector.broadcast %1435 : f32 to vector<64xf32> loc(#loc24)
      %1437 = vector.fma %679, %1433, %1049 : vector<64xf32> loc(#loc24)
      %1438 = memref.load %158[%657, %1069] : memref<?x?xf32, strided<[?, 1]>> loc(#loc24)
      %1439 = vector.broadcast %1438 : f32 to vector<64xf32> loc(#loc24)
      %1440 = vector.fma %679, %1436, %1052 : vector<64xf32> loc(#loc24)
      %1441 = memref.load %158[%661, %1069] : memref<?x?xf32, strided<[?, 1]>> loc(#loc24)
      %1442 = vector.broadcast %1441 : f32 to vector<64xf32> loc(#loc24)
      %1443 = vector.fma %679, %1439, %1055 : vector<64xf32> loc(#loc24)
      %1444 = memref.load %158[%665, %1069] : memref<?x?xf32, strided<[?, 1]>> loc(#loc24)
      %1445 = vector.broadcast %1444 : f32 to vector<64xf32> loc(#loc24)
      %1446 = vector.fma %679, %1442, %1058 : vector<64xf32> loc(#loc24)
      %1447 = memref.load %158[%669, %1069] : memref<?x?xf32, strided<[?, 1]>> loc(#loc24)
      %1448 = vector.broadcast %1447 : f32 to vector<64xf32> loc(#loc24)
      %1449 = vector.fma %679, %1445, %1061 : vector<64xf32> loc(#loc24)
      %1450 = memref.load %158[%673, %1069] : memref<?x?xf32, strided<[?, 1]>> loc(#loc24)
      %1451 = vector.broadcast %1450 : f32 to vector<64xf32> loc(#loc24)
      %1452 = vector.fma %679, %1448, %1064 : vector<64xf32> loc(#loc24)
      %1453 = vector.fma %679, %1451, %1065 : vector<64xf32> loc(#loc24)
      %1454 = arith.addi %161#0, %c4 : index loc(#loc24)
      %1455 = vector.load %160[%1454, %161#1] : memref<?x?xf32, strided<[?, 1]>>, vector<64xf32> loc(#loc24)
      %1456 = arith.addi %161#0, %c35 : index loc(#loc24)
      memref.prefetch %160[%1456, %161#1], read, locality<1>, data : memref<?x?xf32, strided<[?, 1]>> loc(#loc24)
      %1457 = arith.addi %159#1, %c3 : index loc(#loc24)
      %1458 = memref.load %158[%159#0, %1457] : memref<?x?xf32, strided<[?, 1]>> loc(#loc24)
      %1459 = vector.broadcast %1458 : f32 to vector<64xf32> loc(#loc24)
      %1460 = memref.load %158[%169, %1457] : memref<?x?xf32, strided<[?, 1]>> loc(#loc24)
      %1461 = vector.broadcast %1460 : f32 to vector<64xf32> loc(#loc24)
      %1462 = vector.fma %1067, %1459, %1074 : vector<64xf32> loc(#loc24)
      %1463 = memref.load %158[%173, %1457] : memref<?x?xf32, strided<[?, 1]>> loc(#loc24)
      %1464 = vector.broadcast %1463 : f32 to vector<64xf32> loc(#loc24)
      %1465 = vector.fma %1067, %1461, %1077 : vector<64xf32> loc(#loc24)
      %1466 = memref.load %158[%177, %1457] : memref<?x?xf32, strided<[?, 1]>> loc(#loc24)
      %1467 = vector.broadcast %1466 : f32 to vector<64xf32> loc(#loc24)
      %1468 = vector.fma %1067, %1464, %1080 : vector<64xf32> loc(#loc24)
      %1469 = memref.load %158[%181, %1457] : memref<?x?xf32, strided<[?, 1]>> loc(#loc24)
      %1470 = vector.broadcast %1469 : f32 to vector<64xf32> loc(#loc24)
      %1471 = vector.fma %1067, %1467, %1083 : vector<64xf32> loc(#loc24)
      %1472 = memref.load %158[%185, %1457] : memref<?x?xf32, strided<[?, 1]>> loc(#loc24)
      %1473 = vector.broadcast %1472 : f32 to vector<64xf32> loc(#loc24)
      %1474 = vector.fma %1067, %1470, %1086 : vector<64xf32> loc(#loc24)
      %1475 = memref.load %158[%189, %1457] : memref<?x?xf32, strided<[?, 1]>> loc(#loc24)
      %1476 = vector.broadcast %1475 : f32 to vector<64xf32> loc(#loc24)
      %1477 = vector.fma %1067, %1473, %1089 : vector<64xf32> loc(#loc24)
      %1478 = memref.load %158[%193, %1457] : memref<?x?xf32, strided<[?, 1]>> loc(#loc24)
      %1479 = vector.broadcast %1478 : f32 to vector<64xf32> loc(#loc24)
      %1480 = vector.fma %1067, %1476, %1092 : vector<64xf32> loc(#loc24)
      %1481 = memref.load %158[%197, %1457] : memref<?x?xf32, strided<[?, 1]>> loc(#loc24)
      %1482 = vector.broadcast %1481 : f32 to vector<64xf32> loc(#loc24)
      %1483 = vector.fma %1067, %1479, %1095 : vector<64xf32> loc(#loc24)
      %1484 = memref.load %158[%201, %1457] : memref<?x?xf32, strided<[?, 1]>> loc(#loc24)
      %1485 = vector.broadcast %1484 : f32 to vector<64xf32> loc(#loc24)
      %1486 = vector.fma %1067, %1482, %1098 : vector<64xf32> loc(#loc24)
      %1487 = memref.load %158[%205, %1457] : memref<?x?xf32, strided<[?, 1]>> loc(#loc24)
      %1488 = vector.broadcast %1487 : f32 to vector<64xf32> loc(#loc24)
      %1489 = vector.fma %1067, %1485, %1101 : vector<64xf32> loc(#loc24)
      %1490 = memref.load %158[%209, %1457] : memref<?x?xf32, strided<[?, 1]>> loc(#loc24)
      %1491 = vector.broadcast %1490 : f32 to vector<64xf32> loc(#loc24)
      %1492 = vector.fma %1067, %1488, %1104 : vector<64xf32> loc(#loc24)
      %1493 = memref.load %158[%213, %1457] : memref<?x?xf32, strided<[?, 1]>> loc(#loc24)
      %1494 = vector.broadcast %1493 : f32 to vector<64xf32> loc(#loc24)
      %1495 = vector.fma %1067, %1491, %1107 : vector<64xf32> loc(#loc24)
      %1496 = memref.load %158[%217, %1457] : memref<?x?xf32, strided<[?, 1]>> loc(#loc24)
      %1497 = vector.broadcast %1496 : f32 to vector<64xf32> loc(#loc24)
      %1498 = vector.fma %1067, %1494, %1110 : vector<64xf32> loc(#loc24)
      %1499 = memref.load %158[%221, %1457] : memref<?x?xf32, strided<[?, 1]>> loc(#loc24)
      %1500 = vector.broadcast %1499 : f32 to vector<64xf32> loc(#loc24)
      %1501 = vector.fma %1067, %1497, %1113 : vector<64xf32> loc(#loc24)
      %1502 = memref.load %158[%225, %1457] : memref<?x?xf32, strided<[?, 1]>> loc(#loc24)
      %1503 = vector.broadcast %1502 : f32 to vector<64xf32> loc(#loc24)
      %1504 = vector.fma %1067, %1500, %1116 : vector<64xf32> loc(#loc24)
      %1505 = memref.load %158[%229, %1457] : memref<?x?xf32, strided<[?, 1]>> loc(#loc24)
      %1506 = vector.broadcast %1505 : f32 to vector<64xf32> loc(#loc24)
      %1507 = vector.fma %1067, %1503, %1119 : vector<64xf32> loc(#loc24)
      %1508 = memref.load %158[%233, %1457] : memref<?x?xf32, strided<[?, 1]>> loc(#loc24)
      %1509 = vector.broadcast %1508 : f32 to vector<64xf32> loc(#loc24)
      %1510 = vector.fma %1067, %1506, %1122 : vector<64xf32> loc(#loc24)
      %1511 = memref.load %158[%237, %1457] : memref<?x?xf32, strided<[?, 1]>> loc(#loc24)
      %1512 = vector.broadcast %1511 : f32 to vector<64xf32> loc(#loc24)
      %1513 = vector.fma %1067, %1509, %1125 : vector<64xf32> loc(#loc24)
      %1514 = memref.load %158[%241, %1457] : memref<?x?xf32, strided<[?, 1]>> loc(#loc24)
      %1515 = vector.broadcast %1514 : f32 to vector<64xf32> loc(#loc24)
      %1516 = vector.fma %1067, %1512, %1128 : vector<64xf32> loc(#loc24)
      %1517 = memref.load %158[%245, %1457] : memref<?x?xf32, strided<[?, 1]>> loc(#loc24)
      %1518 = vector.broadcast %1517 : f32 to vector<64xf32> loc(#loc24)
      %1519 = vector.fma %1067, %1515, %1131 : vector<64xf32> loc(#loc24)
      %1520 = memref.load %158[%249, %1457] : memref<?x?xf32, strided<[?, 1]>> loc(#loc24)
      %1521 = vector.broadcast %1520 : f32 to vector<64xf32> loc(#loc24)
      %1522 = vector.fma %1067, %1518, %1134 : vector<64xf32> loc(#loc24)
      %1523 = memref.load %158[%253, %1457] : memref<?x?xf32, strided<[?, 1]>> loc(#loc24)
      %1524 = vector.broadcast %1523 : f32 to vector<64xf32> loc(#loc24)
      %1525 = vector.fma %1067, %1521, %1137 : vector<64xf32> loc(#loc24)
      %1526 = memref.load %158[%257, %1457] : memref<?x?xf32, strided<[?, 1]>> loc(#loc24)
      %1527 = vector.broadcast %1526 : f32 to vector<64xf32> loc(#loc24)
      %1528 = vector.fma %1067, %1524, %1140 : vector<64xf32> loc(#loc24)
      %1529 = memref.load %158[%261, %1457] : memref<?x?xf32, strided<[?, 1]>> loc(#loc24)
      %1530 = vector.broadcast %1529 : f32 to vector<64xf32> loc(#loc24)
      %1531 = vector.fma %1067, %1527, %1143 : vector<64xf32> loc(#loc24)
      %1532 = memref.load %158[%265, %1457] : memref<?x?xf32, strided<[?, 1]>> loc(#loc24)
      %1533 = vector.broadcast %1532 : f32 to vector<64xf32> loc(#loc24)
      %1534 = vector.fma %1067, %1530, %1146 : vector<64xf32> loc(#loc24)
      %1535 = memref.load %158[%269, %1457] : memref<?x?xf32, strided<[?, 1]>> loc(#loc24)
      %1536 = vector.broadcast %1535 : f32 to vector<64xf32> loc(#loc24)
      %1537 = vector.fma %1067, %1533, %1149 : vector<64xf32> loc(#loc24)
      %1538 = memref.load %158[%273, %1457] : memref<?x?xf32, strided<[?, 1]>> loc(#loc24)
      %1539 = vector.broadcast %1538 : f32 to vector<64xf32> loc(#loc24)
      %1540 = vector.fma %1067, %1536, %1152 : vector<64xf32> loc(#loc24)
      %1541 = memref.load %158[%277, %1457] : memref<?x?xf32, strided<[?, 1]>> loc(#loc24)
      %1542 = vector.broadcast %1541 : f32 to vector<64xf32> loc(#loc24)
      %1543 = vector.fma %1067, %1539, %1155 : vector<64xf32> loc(#loc24)
      %1544 = memref.load %158[%281, %1457] : memref<?x?xf32, strided<[?, 1]>> loc(#loc24)
      %1545 = vector.broadcast %1544 : f32 to vector<64xf32> loc(#loc24)
      %1546 = vector.fma %1067, %1542, %1158 : vector<64xf32> loc(#loc24)
      %1547 = memref.load %158[%285, %1457] : memref<?x?xf32, strided<[?, 1]>> loc(#loc24)
      %1548 = vector.broadcast %1547 : f32 to vector<64xf32> loc(#loc24)
      %1549 = vector.fma %1067, %1545, %1161 : vector<64xf32> loc(#loc24)
      %1550 = memref.load %158[%289, %1457] : memref<?x?xf32, strided<[?, 1]>> loc(#loc24)
      %1551 = vector.broadcast %1550 : f32 to vector<64xf32> loc(#loc24)
      %1552 = vector.fma %1067, %1548, %1164 : vector<64xf32> loc(#loc24)
      %1553 = memref.load %158[%293, %1457] : memref<?x?xf32, strided<[?, 1]>> loc(#loc24)
      %1554 = vector.broadcast %1553 : f32 to vector<64xf32> loc(#loc24)
      %1555 = vector.fma %1067, %1551, %1167 : vector<64xf32> loc(#loc24)
      %1556 = memref.load %158[%297, %1457] : memref<?x?xf32, strided<[?, 1]>> loc(#loc24)
      %1557 = vector.broadcast %1556 : f32 to vector<64xf32> loc(#loc24)
      %1558 = vector.fma %1067, %1554, %1170 : vector<64xf32> loc(#loc24)
      %1559 = memref.load %158[%301, %1457] : memref<?x?xf32, strided<[?, 1]>> loc(#loc24)
      %1560 = vector.broadcast %1559 : f32 to vector<64xf32> loc(#loc24)
      %1561 = vector.fma %1067, %1557, %1173 : vector<64xf32> loc(#loc24)
      %1562 = memref.load %158[%305, %1457] : memref<?x?xf32, strided<[?, 1]>> loc(#loc24)
      %1563 = vector.broadcast %1562 : f32 to vector<64xf32> loc(#loc24)
      %1564 = vector.fma %1067, %1560, %1176 : vector<64xf32> loc(#loc24)
      %1565 = memref.load %158[%309, %1457] : memref<?x?xf32, strided<[?, 1]>> loc(#loc24)
      %1566 = vector.broadcast %1565 : f32 to vector<64xf32> loc(#loc24)
      %1567 = vector.fma %1067, %1563, %1179 : vector<64xf32> loc(#loc24)
      %1568 = memref.load %158[%313, %1457] : memref<?x?xf32, strided<[?, 1]>> loc(#loc24)
      %1569 = vector.broadcast %1568 : f32 to vector<64xf32> loc(#loc24)
      %1570 = vector.fma %1067, %1566, %1182 : vector<64xf32> loc(#loc24)
      %1571 = memref.load %158[%317, %1457] : memref<?x?xf32, strided<[?, 1]>> loc(#loc24)
      %1572 = vector.broadcast %1571 : f32 to vector<64xf32> loc(#loc24)
      %1573 = vector.fma %1067, %1569, %1185 : vector<64xf32> loc(#loc24)
      %1574 = memref.load %158[%321, %1457] : memref<?x?xf32, strided<[?, 1]>> loc(#loc24)
      %1575 = vector.broadcast %1574 : f32 to vector<64xf32> loc(#loc24)
      %1576 = vector.fma %1067, %1572, %1188 : vector<64xf32> loc(#loc24)
      %1577 = memref.load %158[%325, %1457] : memref<?x?xf32, strided<[?, 1]>> loc(#loc24)
      %1578 = vector.broadcast %1577 : f32 to vector<64xf32> loc(#loc24)
      %1579 = vector.fma %1067, %1575, %1191 : vector<64xf32> loc(#loc24)
      %1580 = memref.load %158[%329, %1457] : memref<?x?xf32, strided<[?, 1]>> loc(#loc24)
      %1581 = vector.broadcast %1580 : f32 to vector<64xf32> loc(#loc24)
      %1582 = vector.fma %1067, %1578, %1194 : vector<64xf32> loc(#loc24)
      %1583 = memref.load %158[%333, %1457] : memref<?x?xf32, strided<[?, 1]>> loc(#loc24)
      %1584 = vector.broadcast %1583 : f32 to vector<64xf32> loc(#loc24)
      %1585 = vector.fma %1067, %1581, %1197 : vector<64xf32> loc(#loc24)
      %1586 = memref.load %158[%337, %1457] : memref<?x?xf32, strided<[?, 1]>> loc(#loc24)
      %1587 = vector.broadcast %1586 : f32 to vector<64xf32> loc(#loc24)
      %1588 = vector.fma %1067, %1584, %1200 : vector<64xf32> loc(#loc24)
      %1589 = memref.load %158[%341, %1457] : memref<?x?xf32, strided<[?, 1]>> loc(#loc24)
      %1590 = vector.broadcast %1589 : f32 to vector<64xf32> loc(#loc24)
      %1591 = vector.fma %1067, %1587, %1203 : vector<64xf32> loc(#loc24)
      %1592 = memref.load %158[%345, %1457] : memref<?x?xf32, strided<[?, 1]>> loc(#loc24)
      %1593 = vector.broadcast %1592 : f32 to vector<64xf32> loc(#loc24)
      %1594 = vector.fma %1067, %1590, %1206 : vector<64xf32> loc(#loc24)
      %1595 = memref.load %158[%349, %1457] : memref<?x?xf32, strided<[?, 1]>> loc(#loc24)
      %1596 = vector.broadcast %1595 : f32 to vector<64xf32> loc(#loc24)
      %1597 = vector.fma %1067, %1593, %1209 : vector<64xf32> loc(#loc24)
      %1598 = memref.load %158[%353, %1457] : memref<?x?xf32, strided<[?, 1]>> loc(#loc24)
      %1599 = vector.broadcast %1598 : f32 to vector<64xf32> loc(#loc24)
      %1600 = vector.fma %1067, %1596, %1212 : vector<64xf32> loc(#loc24)
      %1601 = memref.load %158[%357, %1457] : memref<?x?xf32, strided<[?, 1]>> loc(#loc24)
      %1602 = vector.broadcast %1601 : f32 to vector<64xf32> loc(#loc24)
      %1603 = vector.fma %1067, %1599, %1215 : vector<64xf32> loc(#loc24)
      %1604 = memref.load %158[%361, %1457] : memref<?x?xf32, strided<[?, 1]>> loc(#loc24)
      %1605 = vector.broadcast %1604 : f32 to vector<64xf32> loc(#loc24)
      %1606 = vector.fma %1067, %1602, %1218 : vector<64xf32> loc(#loc24)
      %1607 = memref.load %158[%365, %1457] : memref<?x?xf32, strided<[?, 1]>> loc(#loc24)
      %1608 = vector.broadcast %1607 : f32 to vector<64xf32> loc(#loc24)
      %1609 = vector.fma %1067, %1605, %1221 : vector<64xf32> loc(#loc24)
      %1610 = memref.load %158[%369, %1457] : memref<?x?xf32, strided<[?, 1]>> loc(#loc24)
      %1611 = vector.broadcast %1610 : f32 to vector<64xf32> loc(#loc24)
      %1612 = vector.fma %1067, %1608, %1224 : vector<64xf32> loc(#loc24)
      %1613 = memref.load %158[%373, %1457] : memref<?x?xf32, strided<[?, 1]>> loc(#loc24)
      %1614 = vector.broadcast %1613 : f32 to vector<64xf32> loc(#loc24)
      %1615 = vector.fma %1067, %1611, %1227 : vector<64xf32> loc(#loc24)
      %1616 = memref.load %158[%377, %1457] : memref<?x?xf32, strided<[?, 1]>> loc(#loc24)
      %1617 = vector.broadcast %1616 : f32 to vector<64xf32> loc(#loc24)
      %1618 = vector.fma %1067, %1614, %1230 : vector<64xf32> loc(#loc24)
      %1619 = memref.load %158[%381, %1457] : memref<?x?xf32, strided<[?, 1]>> loc(#loc24)
      %1620 = vector.broadcast %1619 : f32 to vector<64xf32> loc(#loc24)
      %1621 = vector.fma %1067, %1617, %1233 : vector<64xf32> loc(#loc24)
      %1622 = memref.load %158[%385, %1457] : memref<?x?xf32, strided<[?, 1]>> loc(#loc24)
      %1623 = vector.broadcast %1622 : f32 to vector<64xf32> loc(#loc24)
      %1624 = vector.fma %1067, %1620, %1236 : vector<64xf32> loc(#loc24)
      %1625 = memref.load %158[%389, %1457] : memref<?x?xf32, strided<[?, 1]>> loc(#loc24)
      %1626 = vector.broadcast %1625 : f32 to vector<64xf32> loc(#loc24)
      %1627 = vector.fma %1067, %1623, %1239 : vector<64xf32> loc(#loc24)
      %1628 = memref.load %158[%393, %1457] : memref<?x?xf32, strided<[?, 1]>> loc(#loc24)
      %1629 = vector.broadcast %1628 : f32 to vector<64xf32> loc(#loc24)
      %1630 = vector.fma %1067, %1626, %1242 : vector<64xf32> loc(#loc24)
      %1631 = memref.load %158[%397, %1457] : memref<?x?xf32, strided<[?, 1]>> loc(#loc24)
      %1632 = vector.broadcast %1631 : f32 to vector<64xf32> loc(#loc24)
      %1633 = vector.fma %1067, %1629, %1245 : vector<64xf32> loc(#loc24)
      %1634 = memref.load %158[%401, %1457] : memref<?x?xf32, strided<[?, 1]>> loc(#loc24)
      %1635 = vector.broadcast %1634 : f32 to vector<64xf32> loc(#loc24)
      %1636 = vector.fma %1067, %1632, %1248 : vector<64xf32> loc(#loc24)
      %1637 = memref.load %158[%405, %1457] : memref<?x?xf32, strided<[?, 1]>> loc(#loc24)
      %1638 = vector.broadcast %1637 : f32 to vector<64xf32> loc(#loc24)
      %1639 = vector.fma %1067, %1635, %1251 : vector<64xf32> loc(#loc24)
      %1640 = memref.load %158[%409, %1457] : memref<?x?xf32, strided<[?, 1]>> loc(#loc24)
      %1641 = vector.broadcast %1640 : f32 to vector<64xf32> loc(#loc24)
      %1642 = vector.fma %1067, %1638, %1254 : vector<64xf32> loc(#loc24)
      %1643 = memref.load %158[%413, %1457] : memref<?x?xf32, strided<[?, 1]>> loc(#loc24)
      %1644 = vector.broadcast %1643 : f32 to vector<64xf32> loc(#loc24)
      %1645 = vector.fma %1067, %1641, %1257 : vector<64xf32> loc(#loc24)
      %1646 = memref.load %158[%417, %1457] : memref<?x?xf32, strided<[?, 1]>> loc(#loc24)
      %1647 = vector.broadcast %1646 : f32 to vector<64xf32> loc(#loc24)
      %1648 = vector.fma %1067, %1644, %1260 : vector<64xf32> loc(#loc24)
      %1649 = memref.load %158[%421, %1457] : memref<?x?xf32, strided<[?, 1]>> loc(#loc24)
      %1650 = vector.broadcast %1649 : f32 to vector<64xf32> loc(#loc24)
      %1651 = vector.fma %1067, %1647, %1263 : vector<64xf32> loc(#loc24)
      %1652 = memref.load %158[%425, %1457] : memref<?x?xf32, strided<[?, 1]>> loc(#loc24)
      %1653 = vector.broadcast %1652 : f32 to vector<64xf32> loc(#loc24)
      %1654 = vector.fma %1067, %1650, %1266 : vector<64xf32> loc(#loc24)
      %1655 = memref.load %158[%429, %1457] : memref<?x?xf32, strided<[?, 1]>> loc(#loc24)
      %1656 = vector.broadcast %1655 : f32 to vector<64xf32> loc(#loc24)
      %1657 = vector.fma %1067, %1653, %1269 : vector<64xf32> loc(#loc24)
      %1658 = memref.load %158[%433, %1457] : memref<?x?xf32, strided<[?, 1]>> loc(#loc24)
      %1659 = vector.broadcast %1658 : f32 to vector<64xf32> loc(#loc24)
      %1660 = vector.fma %1067, %1656, %1272 : vector<64xf32> loc(#loc24)
      %1661 = memref.load %158[%437, %1457] : memref<?x?xf32, strided<[?, 1]>> loc(#loc24)
      %1662 = vector.broadcast %1661 : f32 to vector<64xf32> loc(#loc24)
      %1663 = vector.fma %1067, %1659, %1275 : vector<64xf32> loc(#loc24)
      %1664 = memref.load %158[%441, %1457] : memref<?x?xf32, strided<[?, 1]>> loc(#loc24)
      %1665 = vector.broadcast %1664 : f32 to vector<64xf32> loc(#loc24)
      %1666 = vector.fma %1067, %1662, %1278 : vector<64xf32> loc(#loc24)
      %1667 = memref.load %158[%445, %1457] : memref<?x?xf32, strided<[?, 1]>> loc(#loc24)
      %1668 = vector.broadcast %1667 : f32 to vector<64xf32> loc(#loc24)
      %1669 = vector.fma %1067, %1665, %1281 : vector<64xf32> loc(#loc24)
      %1670 = memref.load %158[%449, %1457] : memref<?x?xf32, strided<[?, 1]>> loc(#loc24)
      %1671 = vector.broadcast %1670 : f32 to vector<64xf32> loc(#loc24)
      %1672 = vector.fma %1067, %1668, %1284 : vector<64xf32> loc(#loc24)
      %1673 = memref.load %158[%453, %1457] : memref<?x?xf32, strided<[?, 1]>> loc(#loc24)
      %1674 = vector.broadcast %1673 : f32 to vector<64xf32> loc(#loc24)
      %1675 = vector.fma %1067, %1671, %1287 : vector<64xf32> loc(#loc24)
      %1676 = memref.load %158[%457, %1457] : memref<?x?xf32, strided<[?, 1]>> loc(#loc24)
      %1677 = vector.broadcast %1676 : f32 to vector<64xf32> loc(#loc24)
      %1678 = vector.fma %1067, %1674, %1290 : vector<64xf32> loc(#loc24)
      %1679 = memref.load %158[%461, %1457] : memref<?x?xf32, strided<[?, 1]>> loc(#loc24)
      %1680 = vector.broadcast %1679 : f32 to vector<64xf32> loc(#loc24)
      %1681 = vector.fma %1067, %1677, %1293 : vector<64xf32> loc(#loc24)
      %1682 = memref.load %158[%465, %1457] : memref<?x?xf32, strided<[?, 1]>> loc(#loc24)
      %1683 = vector.broadcast %1682 : f32 to vector<64xf32> loc(#loc24)
      %1684 = vector.fma %1067, %1680, %1296 : vector<64xf32> loc(#loc24)
      %1685 = memref.load %158[%469, %1457] : memref<?x?xf32, strided<[?, 1]>> loc(#loc24)
      %1686 = vector.broadcast %1685 : f32 to vector<64xf32> loc(#loc24)
      %1687 = vector.fma %1067, %1683, %1299 : vector<64xf32> loc(#loc24)
      %1688 = memref.load %158[%473, %1457] : memref<?x?xf32, strided<[?, 1]>> loc(#loc24)
      %1689 = vector.broadcast %1688 : f32 to vector<64xf32> loc(#loc24)
      %1690 = vector.fma %1067, %1686, %1302 : vector<64xf32> loc(#loc24)
      %1691 = memref.load %158[%477, %1457] : memref<?x?xf32, strided<[?, 1]>> loc(#loc24)
      %1692 = vector.broadcast %1691 : f32 to vector<64xf32> loc(#loc24)
      %1693 = vector.fma %1067, %1689, %1305 : vector<64xf32> loc(#loc24)
      %1694 = memref.load %158[%481, %1457] : memref<?x?xf32, strided<[?, 1]>> loc(#loc24)
      %1695 = vector.broadcast %1694 : f32 to vector<64xf32> loc(#loc24)
      %1696 = vector.fma %1067, %1692, %1308 : vector<64xf32> loc(#loc24)
      %1697 = memref.load %158[%485, %1457] : memref<?x?xf32, strided<[?, 1]>> loc(#loc24)
      %1698 = vector.broadcast %1697 : f32 to vector<64xf32> loc(#loc24)
      %1699 = vector.fma %1067, %1695, %1311 : vector<64xf32> loc(#loc24)
      %1700 = memref.load %158[%489, %1457] : memref<?x?xf32, strided<[?, 1]>> loc(#loc24)
      %1701 = vector.broadcast %1700 : f32 to vector<64xf32> loc(#loc24)
      %1702 = vector.fma %1067, %1698, %1314 : vector<64xf32> loc(#loc24)
      %1703 = memref.load %158[%493, %1457] : memref<?x?xf32, strided<[?, 1]>> loc(#loc24)
      %1704 = vector.broadcast %1703 : f32 to vector<64xf32> loc(#loc24)
      %1705 = vector.fma %1067, %1701, %1317 : vector<64xf32> loc(#loc24)
      %1706 = memref.load %158[%497, %1457] : memref<?x?xf32, strided<[?, 1]>> loc(#loc24)
      %1707 = vector.broadcast %1706 : f32 to vector<64xf32> loc(#loc24)
      %1708 = vector.fma %1067, %1704, %1320 : vector<64xf32> loc(#loc24)
      %1709 = memref.load %158[%501, %1457] : memref<?x?xf32, strided<[?, 1]>> loc(#loc24)
      %1710 = vector.broadcast %1709 : f32 to vector<64xf32> loc(#loc24)
      %1711 = vector.fma %1067, %1707, %1323 : vector<64xf32> loc(#loc24)
      %1712 = memref.load %158[%505, %1457] : memref<?x?xf32, strided<[?, 1]>> loc(#loc24)
      %1713 = vector.broadcast %1712 : f32 to vector<64xf32> loc(#loc24)
      %1714 = vector.fma %1067, %1710, %1326 : vector<64xf32> loc(#loc24)
      %1715 = memref.load %158[%509, %1457] : memref<?x?xf32, strided<[?, 1]>> loc(#loc24)
      %1716 = vector.broadcast %1715 : f32 to vector<64xf32> loc(#loc24)
      %1717 = vector.fma %1067, %1713, %1329 : vector<64xf32> loc(#loc24)
      %1718 = memref.load %158[%513, %1457] : memref<?x?xf32, strided<[?, 1]>> loc(#loc24)
      %1719 = vector.broadcast %1718 : f32 to vector<64xf32> loc(#loc24)
      %1720 = vector.fma %1067, %1716, %1332 : vector<64xf32> loc(#loc24)
      %1721 = memref.load %158[%517, %1457] : memref<?x?xf32, strided<[?, 1]>> loc(#loc24)
      %1722 = vector.broadcast %1721 : f32 to vector<64xf32> loc(#loc24)
      %1723 = vector.fma %1067, %1719, %1335 : vector<64xf32> loc(#loc24)
      %1724 = memref.load %158[%521, %1457] : memref<?x?xf32, strided<[?, 1]>> loc(#loc24)
      %1725 = vector.broadcast %1724 : f32 to vector<64xf32> loc(#loc24)
      %1726 = vector.fma %1067, %1722, %1338 : vector<64xf32> loc(#loc24)
      %1727 = memref.load %158[%525, %1457] : memref<?x?xf32, strided<[?, 1]>> loc(#loc24)
      %1728 = vector.broadcast %1727 : f32 to vector<64xf32> loc(#loc24)
      %1729 = vector.fma %1067, %1725, %1341 : vector<64xf32> loc(#loc24)
      %1730 = memref.load %158[%529, %1457] : memref<?x?xf32, strided<[?, 1]>> loc(#loc24)
      %1731 = vector.broadcast %1730 : f32 to vector<64xf32> loc(#loc24)
      %1732 = vector.fma %1067, %1728, %1344 : vector<64xf32> loc(#loc24)
      %1733 = memref.load %158[%533, %1457] : memref<?x?xf32, strided<[?, 1]>> loc(#loc24)
      %1734 = vector.broadcast %1733 : f32 to vector<64xf32> loc(#loc24)
      %1735 = vector.fma %1067, %1731, %1347 : vector<64xf32> loc(#loc24)
      %1736 = memref.load %158[%537, %1457] : memref<?x?xf32, strided<[?, 1]>> loc(#loc24)
      %1737 = vector.broadcast %1736 : f32 to vector<64xf32> loc(#loc24)
      %1738 = vector.fma %1067, %1734, %1350 : vector<64xf32> loc(#loc24)
      %1739 = memref.load %158[%541, %1457] : memref<?x?xf32, strided<[?, 1]>> loc(#loc24)
      %1740 = vector.broadcast %1739 : f32 to vector<64xf32> loc(#loc24)
      %1741 = vector.fma %1067, %1737, %1353 : vector<64xf32> loc(#loc24)
      %1742 = memref.load %158[%545, %1457] : memref<?x?xf32, strided<[?, 1]>> loc(#loc24)
      %1743 = vector.broadcast %1742 : f32 to vector<64xf32> loc(#loc24)
      %1744 = vector.fma %1067, %1740, %1356 : vector<64xf32> loc(#loc24)
      %1745 = memref.load %158[%549, %1457] : memref<?x?xf32, strided<[?, 1]>> loc(#loc24)
      %1746 = vector.broadcast %1745 : f32 to vector<64xf32> loc(#loc24)
      %1747 = vector.fma %1067, %1743, %1359 : vector<64xf32> loc(#loc24)
      %1748 = memref.load %158[%553, %1457] : memref<?x?xf32, strided<[?, 1]>> loc(#loc24)
…
      %12322 = arith.addi %159#1, %c31 : index loc(#loc24)
      %12323 = memref.load %158[%159#0, %12322] : memref<?x?xf32, strided<[?, 1]>> loc(#loc24)
      %12324 = vector.broadcast %12323 : f32 to vector<64xf32> loc(#loc24)
      %12325 = memref.load %158[%169, %12322] : memref<?x?xf32, strided<[?, 1]>> loc(#loc24)
      %12326 = vector.broadcast %12325 : f32 to vector<64xf32> loc(#loc24)
      %12327 = vector.fma %11934, %12324, %11941 : vector<64xf32> loc(#loc24)
      %12328 = memref.load %158[%173, %12322] : memref<?x?xf32, strided<[?, 1]>> loc(#loc24)
      %12329 = vector.broadcast %12328 : f32 to vector<64xf32> loc(#loc24)
      %12330 = vector.fma %11934, %12326, %11944 : vector<64xf32> loc(#loc24)
      %12331 = memref.load %158[%177, %12322] : memref<?x?xf32, strided<[?, 1]>> loc(#loc24)
      %12332 = vector.broadcast %12331 : f32 to vector<64xf32> loc(#loc24)
      %12333 = vector.fma %11934, %12329, %11947 : vector<64xf32> loc(#loc24)
      %12334 = memref.load %158[%181, %12322] : memref<?x?xf32, strided<[?, 1]>> loc(#loc24)
      %12335 = vector.broadcast %12334 : f32 to vector<64xf32> loc(#loc24)
      %12336 = vector.fma %11934, %12332, %11950 : vector<64xf32> loc(#loc24)
      %12337 = memref.load %158[%185, %12322] : memref<?x?xf32, strided<[?, 1]>> loc(#loc24)
      %12338 = vector.broadcast %12337 : f32 to vector<64xf32> loc(#loc24)
      %12339 = vector.fma %11934, %12335, %11953 : vector<64xf32> loc(#loc24)
      %12340 = memref.load %158[%189, %12322] : memref<?x?xf32, strided<[?, 1]>> loc(#loc24)
      %12341 = vector.broadcast %12340 : f32 to vector<64xf32> loc(#loc24)
      %12342 = vector.fma %11934, %12338, %11956 : vector<64xf32> loc(#loc24)
      %12343 = memref.load %158[%193, %12322] : memref<?x?xf32, strided<[?, 1]>> loc(#loc24)
      %12344 = vector.broadcast %12343 : f32 to vector<64xf32> loc(#loc24)
      %12345 = vector.fma %11934, %12341, %11959 : vector<64xf32> loc(#loc24)
      %12346 = memref.load %158[%197, %12322] : memref<?x?xf32, strided<[?, 1]>> loc(#loc24)
      %12347 = vector.broadcast %12346 : f32 to vector<64xf32> loc(#loc24)
      %12348 = vector.fma %11934, %12344, %11962 : vector<64xf32> loc(#loc24)
      %12349 = memref.load %158[%201, %12322] : memref<?x?xf32, strided<[?, 1]>> loc(#loc24)
      %12350 = vector.broadcast %12349 : f32 to vector<64xf32> loc(#loc24)
      %12351 = vector.fma %11934, %12347, %11965 : vector<64xf32> loc(#loc24)
      %12352 = memref.load %158[%205, %12322] : memref<?x?xf32, strided<[?, 1]>> loc(#loc24)
      %12353 = vector.broadcast %12352 : f32 to vector<64xf32> loc(#loc24)
      %12354 = vector.fma %11934, %12350, %11968 : vector<64xf32> loc(#loc24)
      %12355 = memref.load %158[%209, %12322] : memref<?x?xf32, strided<[?, 1]>> loc(#loc24)
      %12356 = vector.broadcast %12355 : f32 to vector<64xf32> loc(#loc24)
      %12357 = vector.fma %11934, %12353, %11971 : vector<64xf32> loc(#loc24)
      %12358 = memref.load %158[%213, %12322] : memref<?x?xf32, strided<[?, 1]>> loc(#loc24)
      %12359 = vector.broadcast %12358 : f32 to vector<64xf32> loc(#loc24)
      %12360 = vector.fma %11934, %12356, %11974 : vector<64xf32> loc(#loc24)
      %12361 = memref.load %158[%217, %12322] : memref<?x?xf32, strided<[?, 1]>> loc(#loc24)
      %12362 = vector.broadcast %12361 : f32 to vector<64xf32> loc(#loc24)
      %12363 = vector.fma %11934, %12359, %11977 : vector<64xf32> loc(#loc24)
      %12364 = memref.load %158[%221, %12322] : memref<?x?xf32, strided<[?, 1]>> loc(#loc24)
      %12365 = vector.broadcast %12364 : f32 to vector<64xf32> loc(#loc24)
      %12366 = vector.fma %11934, %12362, %11980 : vector<64xf32> loc(#loc24)
      %12367 = memref.load %158[%225, %12322] : memref<?x?xf32, strided<[?, 1]>> loc(#loc24)
      %12368 = vector.broadcast %12367 : f32 to vector<64xf32> loc(#loc24)
      %12369 = vector.fma %11934, %12365, %11983 : vector<64xf32> loc(#loc24)
      %12370 = memref.load %158[%229, %12322] : memref<?x?xf32, strided<[?, 1]>> loc(#loc24)
      %12371 = vector.broadcast %12370 : f32 to vector<64xf32> loc(#loc24)
      %12372 = vector.fma %11934, %12368, %11986 : vector<64xf32> loc(#loc24)
      %12373 = memref.load %158[%233, %12322] : memref<?x?xf32, strided<[?, 1]>> loc(#loc24)
      %12374 = vector.broadcast %12373 : f32 to vector<64xf32> loc(#loc24)
      %12375 = vector.fma %11934, %12371, %11989 : vector<64xf32> loc(#loc24)
      %12376 = memref.load %158[%237, %12322] : memref<?x?xf32, strided<[?, 1]>> loc(#loc24)
      %12377 = vector.broadcast %12376 : f32 to vector<64xf32> loc(#loc24)
      %12378 = vector.fma %11934, %12374, %11992 : vector<64xf32> loc(#loc24)
      %12379 = memref.load %158[%241, %12322] : memref<?x?xf32, strided<[?, 1]>> loc(#loc24)
      %12380 = vector.broadcast %12379 : f32 to vector<64xf32> loc(#loc24)
      %12381 = vector.fma %11934, %12377, %11995 : vector<64xf32> loc(#loc24)
      %12382 = memref.load %158[%245, %12322] : memref<?x?xf32, strided<[?, 1]>> loc(#loc24)
      %12383 = vector.broadcast %12382 : f32 to vector<64xf32> loc(#loc24)
      %12384 = vector.fma %11934, %12380, %11998 : vector<64xf32> loc(#loc24)
      %12385 = memref.load %158[%249, %12322] : memref<?x?xf32, strided<[?, 1]>> loc(#loc24)
      %12386 = vector.broadcast %12385 : f32 to vector<64xf32> loc(#loc24)
      %12387 = vector.fma %11934, %12383, %12001 : vector<64xf32> loc(#loc24)
      %12388 = memref.load %158[%253, %12322] : memref<?x?xf32, strided<[?, 1]>> loc(#loc24)
      %12389 = vector.broadcast %12388 : f32 to vector<64xf32> loc(#loc24)
      %12390 = vector.fma %11934, %12386, %12004 : vector<64xf32> loc(#loc24)
      %12391 = memref.load %158[%257, %12322] : memref<?x?xf32, strided<[?, 1]>> loc(#loc24)
      %12392 = vector.broadcast %12391 : f32 to vector<64xf32> loc(#loc24)
      %12393 = vector.fma %11934, %12389, %12007 : vector<64xf32> loc(#loc24)
      %12394 = memref.load %158[%261, %12322] : memref<?x?xf32, strided<[?, 1]>> loc(#loc24)
      %12395 = vector.broadcast %12394 : f32 to vector<64xf32> loc(#loc24)
      %12396 = vector.fma %11934, %12392, %12010 : vector<64xf32> loc(#loc24)
      %12397 = memref.load %158[%265, %12322] : memref<?x?xf32, strided<[?, 1]>> loc(#loc24)
      %12398 = vector.broadcast %12397 : f32 to vector<64xf32> loc(#loc24)
      %12399 = vector.fma %11934, %12395, %12013 : vector<64xf32> loc(#loc24)
      %12400 = memref.load %158[%269, %12322] : memref<?x?xf32, strided<[?, 1]>> loc(#loc24)
      %12401 = vector.broadcast %12400 : f32 to vector<64xf32> loc(#loc24)
      %12402 = vector.fma %11934, %12398, %12016 : vector<64xf32> loc(#loc24)
      %12403 = memref.load %158[%273, %12322] : memref<?x?xf32, strided<[?, 1]>> loc(#loc24)
      %12404 = vector.broadcast %12403 : f32 to vector<64xf32> loc(#loc24)
      %12405 = vector.fma %11934, %12401, %12019 : vector<64xf32> loc(#loc24)
      %12406 = memref.load %158[%277, %12322] : memref<?x?xf32, strided<[?, 1]>> loc(#loc24)
      %12407 = vector.broadcast %12406 : f32 to vector<64xf32> loc(#loc24)
      %12408 = vector.fma %11934, %12404, %12022 : vector<64xf32> loc(#loc24)
      %12409 = memref.load %158[%281, %12322] : memref<?x?xf32, strided<[?, 1]>> loc(#loc24)
      %12410 = vector.broadcast %12409 : f32 to vector<64xf32> loc(#loc24)
      %12411 = vector.fma %11934, %12407, %12025 : vector<64xf32> loc(#loc24)
      %12412 = memref.load %158[%285, %12322] : memref<?x?xf32, strided<[?, 1]>> loc(#loc24)
      %12413 = vector.broadcast %12412 : f32 to vector<64xf32> loc(#loc24)
      %12414 = vector.fma %11934, %12410, %12028 : vector<64xf32> loc(#loc24)
      %12415 = memref.load %158[%289, %12322] : memref<?x?xf32, strided<[?, 1]>> loc(#loc24)
      %12416 = vector.broadcast %12415 : f32 to vector<64xf32> loc(#loc24)
      %12417 = vector.fma %11934, %12413, %12031 : vector<64xf32> loc(#loc24)
      %12418 = memref.load %158[%293, %12322] : memref<?x?xf32, strided<[?, 1]>> loc(#loc24)
      %12419 = vector.broadcast %12418 : f32 to vector<64xf32> loc(#loc24)
      %12420 = vector.fma %11934, %12416, %12034 : vector<64xf32> loc(#loc24)
      %12421 = memref.load %158[%297, %12322] : memref<?x?xf32, strided<[?, 1]>> loc(#loc24)
      %12422 = vector.broadcast %12421 : f32 to vector<64xf32> loc(#loc24)
      %12423 = vector.fma %11934, %12419, %12037 : vector<64xf32> loc(#loc24)
      %12424 = memref.load %158[%301, %12322] : memref<?x?xf32, strided<[?, 1]>> loc(#loc24)
      %12425 = vector.broadcast %12424 : f32 to vector<64xf32> loc(#loc24)
      %12426 = vector.fma %11934, %12422, %12040 : vector<64xf32> loc(#loc24)
      %12427 = memref.load %158[%305, %12322] : memref<?x?xf32, strided<[?, 1]>> loc(#loc24)
      %12428 = vector.broadcast %12427 : f32 to vector<64xf32> loc(#loc24)
      %12429 = vector.fma %11934, %12425, %12043 : vector<64xf32> loc(#loc24)
      %12430 = memref.load %158[%309, %12322] : memref<?x?xf32, strided<[?, 1]>> loc(#loc24)
      %12431 = vector.broadcast %12430 : f32 to vector<64xf32> loc(#loc24)
      %12432 = vector.fma %11934, %12428, %12046 : vector<64xf32> loc(#loc24)
      %12433 = memref.load %158[%313, %12322] : memref<?x?xf32, strided<[?, 1]>> loc(#loc24)
      %12434 = vector.broadcast %12433 : f32 to vector<64xf32> loc(#loc24)
      %12435 = vector.fma %11934, %12431, %12049 : vector<64xf32> loc(#loc24)
      %12436 = memref.load %158[%317, %12322] : memref<?x?xf32, strided<[?, 1]>> loc(#loc24)
      %12437 = vector.broadcast %12436 : f32 to vector<64xf32> loc(#loc24)
      %12438 = vector.fma %11934, %12434, %12052 : vector<64xf32> loc(#loc24)
      %12439 = memref.load %158[%321, %12322] : memref<?x?xf32, strided<[?, 1]>> loc(#loc24)
      %12440 = vector.broadcast %12439 : f32 to vector<64xf32> loc(#loc24)
      %12441 = vector.fma %11934, %12437, %12055 : vector<64xf32> loc(#loc24)
      %12442 = memref.load %158[%325, %12322] : memref<?x?xf32, strided<[?, 1]>> loc(#loc24)
      %12443 = vector.broadcast %12442 : f32 to vector<64xf32> loc(#loc24)
      %12444 = vector.fma %11934, %12440, %12058 : vector<64xf32> loc(#loc24)
      %12445 = memref.load %158[%329, %12322] : memref<?x?xf32, strided<[?, 1]>> loc(#loc24)
      %12446 = vector.broadcast %12445 : f32 to vector<64xf32> loc(#loc24)
      %12447 = vector.fma %11934, %12443, %12061 : vector<64xf32> loc(#loc24)
      %12448 = memref.load %158[%333, %12322] : memref<?x?xf32, strided<[?, 1]>> loc(#loc24)
      %12449 = vector.broadcast %12448 : f32 to vector<64xf32> loc(#loc24)
      %12450 = vector.fma %11934, %12446, %12064 : vector<64xf32> loc(#loc24)
      %12451 = memref.load %158[%337, %12322] : memref<?x?xf32, strided<[?, 1]>> loc(#loc24)
      %12452 = vector.broadcast %12451 : f32 to vector<64xf32> loc(#loc24)
      %12453 = vector.fma %11934, %12449, %12067 : vector<64xf32> loc(#loc24)
      %12454 = memref.load %158[%341, %12322] : memref<?x?xf32, strided<[?, 1]>> loc(#loc24)
      %12455 = vector.broadcast %12454 : f32 to vector<64xf32> loc(#loc24)
      %12456 = vector.fma %11934, %12452, %12070 : vector<64xf32> loc(#loc24)
      %12457 = memref.load %158[%345, %12322] : memref<?x?xf32, strided<[?, 1]>> loc(#loc24)
      %12458 = vector.broadcast %12457 : f32 to vector<64xf32> loc(#loc24)
      %12459 = vector.fma %11934, %12455, %12073 : vector<64xf32> loc(#loc24)
      %12460 = memref.load %158[%349, %12322] : memref<?x?xf32, strided<[?, 1]>> loc(#loc24)
      %12461 = vector.broadcast %12460 : f32 to vector<64xf32> loc(#loc24)
      %12462 = vector.fma %11934, %12458, %12076 : vector<64xf32> loc(#loc24)
      %12463 = memref.load %158[%353, %12322] : memref<?x?xf32, strided<[?, 1]>> loc(#loc24)
      %12464 = vector.broadcast %12463 : f32 to vector<64xf32> loc(#loc24)
      %12465 = vector.fma %11934, %12461, %12079 : vector<64xf32> loc(#loc24)
      %12466 = memref.load %158[%357, %12322] : memref<?x?xf32, strided<[?, 1]>> loc(#loc24)
      %12467 = vector.broadcast %12466 : f32 to vector<64xf32> loc(#loc24)
      %12468 = vector.fma %11934, %12464, %12082 : vector<64xf32> loc(#loc24)
      %12469 = memref.load %158[%361, %12322] : memref<?x?xf32, strided<[?, 1]>> loc(#loc24)
      %12470 = vector.broadcast %12469 : f32 to vector<64xf32> loc(#loc24)
      %12471 = vector.fma %11934, %12467, %12085 : vector<64xf32> loc(#loc24)
      %12472 = memref.load %158[%365, %12322] : memref<?x?xf32, strided<[?, 1]>> loc(#loc24)
      %12473 = vector.broadcast %12472 : f32 to vector<64xf32> loc(#loc24)
      %12474 = vector.fma %11934, %12470, %12088 : vector<64xf32> loc(#loc24)
      %12475 = memref.load %158[%369, %12322] : memref<?x?xf32, strided<[?, 1]>> loc(#loc24)
      %12476 = vector.broadcast %12475 : f32 to vector<64xf32> loc(#loc24)
      %12477 = vector.fma %11934, %12473, %12091 : vector<64xf32> loc(#loc24)
      %12478 = memref.load %158[%373, %12322] : memref<?x?xf32, strided<[?, 1]>> loc(#loc24)
      %12479 = vector.broadcast %12478 : f32 to vector<64xf32> loc(#loc24)
      %12480 = vector.fma %11934, %12476, %12094 : vector<64xf32> loc(#loc24)
      %12481 = memref.load %158[%377, %12322] : memref<?x?xf32, strided<[?, 1]>> loc(#loc24)
      %12482 = vector.broadcast %12481 : f32 to vector<64xf32> loc(#loc24)
      %12483 = vector.fma %11934, %12479, %12097 : vector<64xf32> loc(#loc24)
      %12484 = memref.load %158[%381, %12322] : memref<?x?xf32, strided<[?, 1]>> loc(#loc24)
      %12485 = vector.broadcast %12484 : f32 to vector<64xf32> loc(#loc24)
      %12486 = vector.fma %11934, %12482, %12100 : vector<64xf32> loc(#loc24)
      %12487 = memref.load %158[%385, %12322] : memref<?x?xf32, strided<[?, 1]>> loc(#loc24)
      %12488 = vector.broadcast %12487 : f32 to vector<64xf32> loc(#loc24)
      %12489 = vector.fma %11934, %12485, %12103 : vector<64xf32> loc(#loc24)
      %12490 = memref.load %158[%389, %12322] : memref<?x?xf32, strided<[?, 1]>> loc(#loc24)
      %12491 = vector.broadcast %12490 : f32 to vector<64xf32> loc(#loc24)
      %12492 = vector.fma %11934, %12488, %12106 : vector<64xf32> loc(#loc24)
      %12493 = memref.load %158[%393, %12322] : memref<?x?xf32, strided<[?, 1]>> loc(#loc24)
      %12494 = vector.broadcast %12493 : f32 to vector<64xf32> loc(#loc24)
      %12495 = vector.fma %11934, %12491, %12109 : vector<64xf32> loc(#loc24)
      %12496 = memref.load %158[%397, %12322] : memref<?x?xf32, strided<[?, 1]>> loc(#loc24)
      %12497 = vector.broadcast %12496 : f32 to vector<64xf32> loc(#loc24)
      %12498 = vector.fma %11934, %12494, %12112 : vector<64xf32> loc(#loc24)
      %12499 = memref.load %158[%401, %12322] : memref<?x?xf32, strided<[?, 1]>> loc(#loc24)
      %12500 = vector.broadcast %12499 : f32 to vector<64xf32> loc(#loc24)
      %12501 = vector.fma %11934, %12497, %12115 : vector<64xf32> loc(#loc24)
      %12502 = memref.load %158[%405, %12322] : memref<?x?xf32, strided<[?, 1]>> loc(#loc24)
      %12503 = vector.broadcast %12502 : f32 to vector<64xf32> loc(#loc24)
      %12504 = vector.fma %11934, %12500, %12118 : vector<64xf32> loc(#loc24)
      %12505 = memref.load %158[%409, %12322] : memref<?x?xf32, strided<[?, 1]>> loc(#loc24)
      %12506 = vector.broadcast %12505 : f32 to vector<64xf32> loc(#loc24)
      %12507 = vector.fma %11934, %12503, %12121 : vector<64xf32> loc(#loc24)
      %12508 = memref.load %158[%413, %12322] : memref<?x?xf32, strided<[?, 1]>> loc(#loc24)
      %12509 = vector.broadcast %12508 : f32 to vector<64xf32> loc(#loc24)
      %12510 = vector.fma %11934, %12506, %12124 : vector<64xf32> loc(#loc24)
      %12511 = memref.load %158[%417, %12322] : memref<?x?xf32, strided<[?, 1]>> loc(#loc24)
      %12512 = vector.broadcast %12511 : f32 to vector<64xf32> loc(#loc24)
      %12513 = vector.fma %11934, %12509, %12127 : vector<64xf32> loc(#loc24)
      %12514 = memref.load %158[%421, %12322] : memref<?x?xf32, strided<[?, 1]>> loc(#loc24)
      %12515 = vector.broadcast %12514 : f32 to vector<64xf32> loc(#loc24)
      %12516 = vector.fma %11934, %12512, %12130 : vector<64xf32> loc(#loc24)
      %12517 = memref.load %158[%425, %12322] : memref<?x?xf32, strided<[?, 1]>> loc(#loc24)
      %12518 = vector.broadcast %12517 : f32 to vector<64xf32> loc(#loc24)
      %12519 = vector.fma %11934, %12515, %12133 : vector<64xf32> loc(#loc24)
      %12520 = memref.load %158[%429, %12322] : memref<?x?xf32, strided<[?, 1]>> loc(#loc24)
      %12521 = vector.broadcast %12520 : f32 to vector<64xf32> loc(#loc24)
      %12522 = vector.fma %11934, %12518, %12136 : vector<64xf32> loc(#loc24)
      %12523 = memref.load %158[%433, %12322] : memref<?x?xf32, strided<[?, 1]>> loc(#loc24)
      %12524 = vector.broadcast %12523 : f32 to vector<64xf32> loc(#loc24)
      %12525 = vector.fma %11934, %12521, %12139 : vector<64xf32> loc(#loc24)
      %12526 = memref.load %158[%437, %12322] : memref<?x?xf32, strided<[?, 1]>> loc(#loc24)
      %12527 = vector.broadcast %12526 : f32 to vector<64xf32> loc(#loc24)
      %12528 = vector.fma %11934, %12524, %12142 : vector<64xf32> loc(#loc24)
      %12529 = memref.load %158[%441, %12322] : memref<?x?xf32, strided<[?, 1]>> loc(#loc24)
      %12530 = vector.broadcast %12529 : f32 to vector<64xf32> loc(#loc24)
      %12531 = vector.fma %11934, %12527, %12145 : vector<64xf32> loc(#loc24)
      %12532 = memref.load %158[%445, %12322] : memref<?x?xf32, strided<[?, 1]>> loc(#loc24)
      %12533 = vector.broadcast %12532 : f32 to vector<64xf32> loc(#loc24)
      %12534 = vector.fma %11934, %12530, %12148 : vector<64xf32> loc(#loc24)
      %12535 = memref.load %158[%449, %12322] : memref<?x?xf32, strided<[?, 1]>> loc(#loc24)
      %12536 = vector.broadcast %12535 : f32 to vector<64xf32> loc(#loc24)
      %12537 = vector.fma %11934, %12533, %12151 : vector<64xf32> loc(#loc24)
      %12538 = memref.load %158[%453, %12322] : memref<?x?xf32, strided<[?, 1]>> loc(#loc24)
      %12539 = vector.broadcast %12538 : f32 to vector<64xf32> loc(#loc24)
      %12540 = vector.fma %11934, %12536, %12154 : vector<64xf32> loc(#loc24)
      %12541 = memref.load %158[%457, %12322] : memref<?x?xf32, strided<[?, 1]>> loc(#loc24)
      %12542 = vector.broadcast %12541 : f32 to vector<64xf32> loc(#loc24)
      %12543 = vector.fma %11934, %12539, %12157 : vector<64xf32> loc(#loc24)
      %12544 = memref.load %158[%461, %12322] : memref<?x?xf32, strided<[?, 1]>> loc(#loc24)
      %12545 = vector.broadcast %12544 : f32 to vector<64xf32> loc(#loc24)
      %12546 = vector.fma %11934, %12542, %12160 : vector<64xf32> loc(#loc24)
      %12547 = memref.load %158[%465, %12322] : memref<?x?xf32, strided<[?, 1]>> loc(#loc24)
      %12548 = vector.broadcast %12547 : f32 to vector<64xf32> loc(#loc24)
      %12549 = vector.fma %11934, %12545, %12163 : vector<64xf32> loc(#loc24)
      %12550 = memref.load %158[%469, %12322] : memref<?x?xf32, strided<[?, 1]>> loc(#loc24)
      %12551 = vector.broadcast %12550 : f32 to vector<64xf32> loc(#loc24)
      %12552 = vector.fma %11934, %12548, %12166 : vector<64xf32> loc(#loc24)
      %12553 = memref.load %158[%473, %12322] : memref<?x?xf32, strided<[?, 1]>> loc(#loc24)
      %12554 = vector.broadcast %12553 : f32 to vector<64xf32> loc(#loc24)
      %12555 = vector.fma %11934, %12551, %12169 : vector<64xf32> loc(#loc24)
      %12556 = memref.load %158[%477, %12322] : memref<?x?xf32, strided<[?, 1]>> loc(#loc24)
      %12557 = vector.broadcast %12556 : f32 to vector<64xf32> loc(#loc24)
      %12558 = vector.fma %11934, %12554, %12172 : vector<64xf32> loc(#loc24)
      %12559 = memref.load %158[%481, %12322] : memref<?x?xf32, strided<[?, 1]>> loc(#loc24)
      %12560 = vector.broadcast %12559 : f32 to vector<64xf32> loc(#loc24)
      %12561 = vector.fma %11934, %12557, %12175 : vector<64xf32> loc(#loc24)
      %12562 = memref.load %158[%485, %12322] : memref<?x?xf32, strided<[?, 1]>> loc(#loc24)
      %12563 = vector.broadcast %12562 : f32 to vector<64xf32> loc(#loc24)
      %12564 = vector.fma %11934, %12560, %12178 : vector<64xf32> loc(#loc24)
      %12565 = memref.load %158[%489, %12322] : memref<?x?xf32, strided<[?, 1]>> loc(#loc24)
      %12566 = vector.broadcast %12565 : f32 to vector<64xf32> loc(#loc24)
      %12567 = vector.fma %11934, %12563, %12181 : vector<64xf32> loc(#loc24)
      %12568 = memref.load %158[%493, %12322] : memref<?x?xf32, strided<[?, 1]>> loc(#loc24)
      %12569 = vector.broadcast %12568 : f32 to vector<64xf32> loc(#loc24)
      %12570 = vector.fma %11934, %12566, %12184 : vector<64xf32> loc(#loc24)
      %12571 = memref.load %158[%497, %12322] : memref<?x?xf32, strided<[?, 1]>> loc(#loc24)
      %12572 = vector.broadcast %12571 : f32 to vector<64xf32> loc(#loc24)
      %12573 = vector.fma %11934, %12569, %12187 : vector<64xf32> loc(#loc24)
      %12574 = memref.load %158[%501, %12322] : memref<?x?xf32, strided<[?, 1]>> loc(#loc24)
      %12575 = vector.broadcast %12574 : f32 to vector<64xf32> loc(#loc24)
      %12576 = vector.fma %11934, %12572, %12190 : vector<64xf32> loc(#loc24)
      %12577 = memref.load %158[%505, %12322] : memref<?x?xf32, strided<[?, 1]>> loc(#loc24)
      %12578 = vector.broadcast %12577 : f32 to vector<64xf32> loc(#loc24)
      %12579 = vector.fma %11934, %12575, %12193 : vector<64xf32> loc(#loc24)
      %12580 = memref.load %158[%509, %12322] : memref<?x?xf32, strided<[?, 1]>> loc(#loc24)
      %12581 = vector.broadcast %12580 : f32 to vector<64xf32> loc(#loc24)
      %12582 = vector.fma %11934, %12578, %12196 : vector<64xf32> loc(#loc24)
      %12583 = memref.load %158[%513, %12322] : memref<?x?xf32, strided<[?, 1]>> loc(#loc24)
      %12584 = vector.broadcast %12583 : f32 to vector<64xf32> loc(#loc24)
      %12585 = vector.fma %11934, %12581, %12199 : vector<64xf32> loc(#loc24)
      %12586 = memref.load %158[%517, %12322] : memref<?x?xf32, strided<[?, 1]>> loc(#loc24)
      %12587 = vector.broadcast %12586 : f32 to vector<64xf32> loc(#loc24)
      %12588 = vector.fma %11934, %12584, %12202 : vector<64xf32> loc(#loc24)
      %12589 = memref.load %158[%521, %12322] : memref<?x?xf32, strided<[?, 1]>> loc(#loc24)
      %12590 = vector.broadcast %12589 : f32 to vector<64xf32> loc(#loc24)
      %12591 = vector.fma %11934, %12587, %12205 : vector<64xf32> loc(#loc24)
      %12592 = memref.load %158[%525, %12322] : memref<?x?xf32, strided<[?, 1]>> loc(#loc24)
      %12593 = vector.broadcast %12592 : f32 to vector<64xf32> loc(#loc24)
      %12594 = vector.fma %11934, %12590, %12208 : vector<64xf32> loc(#loc24)
      %12595 = memref.load %158[%529, %12322] : memref<?x?xf32, strided<[?, 1]>> loc(#loc24)
      %12596 = vector.broadcast %12595 : f32 to vector<64xf32> loc(#loc24)
      %12597 = vector.fma %11934, %12593, %12211 : vector<64xf32> loc(#loc24)
      %12598 = memref.load %158[%533, %12322] : memref<?x?xf32, strided<[?, 1]>> loc(#loc24)
      %12599 = vector.broadcast %12598 : f32 to vector<64xf32> loc(#loc24)
      %12600 = vector.fma %11934, %12596, %12214 : vector<64xf32> loc(#loc24)
      %12601 = memref.load %158[%537, %12322] : memref<?x?xf32, strided<[?, 1]>> loc(#loc24)
      %12602 = vector.broadcast %12601 : f32 to vector<64xf32> loc(#loc24)
      %12603 = vector.fma %11934, %12599, %12217 : vector<64xf32> loc(#loc24)
      %12604 = memref.load %158[%541, %12322] : memref<?x?xf32, strided<[?, 1]>> loc(#loc24)
      %12605 = vector.broadcast %12604 : f32 to vector<64xf32> loc(#loc24)
      %12606 = vector.fma %11934, %12602, %12220 : vector<64xf32> loc(#loc24)
      %12607 = memref.load %158[%545, %12322] : memref<?x?xf32, strided<[?, 1]>> loc(#loc24)
      %12608 = vector.broadcast %12607 : f32 to vector<64xf32> loc(#loc24)
      %12609 = vector.fma %11934, %12605, %12223 : vector<64xf32> loc(#loc24)
      %12610 = memref.load %158[%549, %12322] : memref<?x?xf32, strided<[?, 1]>> loc(#loc24)
      %12611 = vector.broadcast %12610 : f32 to vector<64xf32> loc(#loc24)
      %12612 = vector.fma %11934, %12608, %12226 : vector<64xf32> loc(#loc24)
      %12613 = memref.load %158[%553, %12322] : memref<?x?xf32, strided<[?, 1]>> loc(#loc24)
      %12614 = vector.broadcast %12613 : f32 to vector<64xf32> loc(#loc24)
      %12615 = vector.fma %11934, %12611, %12229 : vector<64xf32> loc(#loc24)
      %12616 = memref.load %158[%557, %12322] : memref<?x?xf32, strided<[?, 1]>> loc(#loc24)
      %12617 = vector.broadcast %12616 : f32 to vector<64xf32> loc(#loc24)
      %12618 = vector.fma %11934, %12614, %12232 : vector<64xf32> loc(#loc24)
      %12619 = memref.load %158[%561, %12322] : memref<?x?xf32, strided<[?, 1]>> loc(#loc24)
      %12620 = vector.broadcast %12619 : f32 to vector<64xf32> loc(#loc24)
      %12621 = vector.fma %11934, %12617, %12235 : vector<64xf32> loc(#loc24)
      %12622 = memref.load %158[%565, %12322] : memref<?x?xf32, strided<[?, 1]>> loc(#loc24)
      %12623 = vector.broadcast %12622 : f32 to vector<64xf32> loc(#loc24)
      %12624 = vector.fma %11934, %12620, %12238 : vector<64xf32> loc(#loc24)
      %12625 = memref.load %158[%569, %12322] : memref<?x?xf32, strided<[?, 1]>> loc(#loc24)
      %12626 = vector.broadcast %12625 : f32 to vector<64xf32> loc(#loc24)
      %12627 = vector.fma %11934, %12623, %12241 : vector<64xf32> loc(#loc24)
      %12628 = memref.load %158[%573, %12322] : memref<?x?xf32, strided<[?, 1]>> loc(#loc24)
      %12629 = vector.broadcast %12628 : f32 to vector<64xf32> loc(#loc24)
      %12630 = vector.fma %11934, %12626, %12244 : vector<64xf32> loc(#loc24)
      %12631 = memref.load %158[%577, %12322] : memref<?x?xf32, strided<[?, 1]>> loc(#loc24)
      %12632 = vector.broadcast %12631 : f32 to vector<64xf32> loc(#loc24)
      %12633 = vector.fma %11934, %12629, %12247 : vector<64xf32> loc(#loc24)
      %12634 = memref.load %158[%581, %12322] : memref<?x?xf32, strided<[?, 1]>> loc(#loc24)
      %12635 = vector.broadcast %12634 : f32 to vector<64xf32> loc(#loc24)
      %12636 = vector.fma %11934, %12632, %12250 : vector<64xf32> loc(#loc24)
      %12637 = memref.load %158[%585, %12322] : memref<?x?xf32, strided<[?, 1]>> loc(#loc24)
      %12638 = vector.broadcast %12637 : f32 to vector<64xf32> loc(#loc24)
      %12639 = vector.fma %11934, %12635, %12253 : vector<64xf32> loc(#loc24)
      %12640 = memref.load %158[%589, %12322] : memref<?x?xf32, strided<[?, 1]>> loc(#loc24)
      %12641 = vector.broadcast %12640 : f32 to vector<64xf32> loc(#loc24)
      %12642 = vector.fma %11934, %12638, %12256 : vector<64xf32> loc(#loc24)
      %12643 = memref.load %158[%593, %12322] : memref<?x?xf32, strided<[?, 1]>> loc(#loc24)
      %12644 = vector.broadcast %12643 : f32 to vector<64xf32> loc(#loc24)
      %12645 = vector.fma %11934, %12641, %12259 : vector<64xf32> loc(#loc24)
      %12646 = memref.load %158[%597, %12322] : memref<?x?xf32, strided<[?, 1]>> loc(#loc24)
      %12647 = vector.broadcast %12646 : f32 to vector<64xf32> loc(#loc24)
      %12648 = vector.fma %11934, %12644, %12262 : vector<64xf32> loc(#loc24)
      %12649 = memref.load %158[%601, %12322] : memref<?x?xf32, strided<[?, 1]>> loc(#loc24)
      %12650 = vector.broadcast %12649 : f32 to vector<64xf32> loc(#loc24)
      %12651 = vector.fma %11934, %12647, %12265 : vector<64xf32> loc(#loc24)
      %12652 = memref.load %158[%605, %12322] : memref<?x?xf32, strided<[?, 1]>> loc(#loc24)
      %12653 = vector.broadcast %12652 : f32 to vector<64xf32> loc(#loc24)
      %12654 = vector.fma %11934, %12650, %12268 : vector<64xf32> loc(#loc24)
      %12655 = memref.load %158[%609, %12322] : memref<?x?xf32, strided<[?, 1]>> loc(#loc24)
      %12656 = vector.broadcast %12655 : f32 to vector<64xf32> loc(#loc24)
      %12657 = vector.fma %11934, %12653, %12271 : vector<64xf32> loc(#loc24)
      %12658 = memref.load %158[%613, %12322] : memref<?x?xf32, strided<[?, 1]>> loc(#loc24)
      %12659 = vector.broadcast %12658 : f32 to vector<64xf32> loc(#loc24)
      %12660 = vector.fma %11934, %12656, %12274 : vector<64xf32> loc(#loc24)
      %12661 = memref.load %158[%617, %12322] : memref<?x?xf32, strided<[?, 1]>> loc(#loc24)
      %12662 = vector.broadcast %12661 : f32 to vector<64xf32> loc(#loc24)
      %12663 = vector.fma %11934, %12659, %12277 : vector<64xf32> loc(#loc24)
      %12664 = memref.load %158[%621, %12322] : memref<?x?xf32, strided<[?, 1]>> loc(#loc24)
      %12665 = vector.broadcast %12664 : f32 to vector<64xf32> loc(#loc24)
      %12666 = vector.fma %11934, %12662, %12280 : vector<64xf32> loc(#loc24)
      %12667 = memref.load %158[%625, %12322] : memref<?x?xf32, strided<[?, 1]>> loc(#loc24)
      %12668 = vector.broadcast %12667 : f32 to vector<64xf32> loc(#loc24)
      %12669 = vector.fma %11934, %12665, %12283 : vector<64xf32> loc(#loc24)
      %12670 = memref.load %158[%629, %12322] : memref<?x?xf32, strided<[?, 1]>> loc(#loc24)
      %12671 = vector.broadcast %12670 : f32 to vector<64xf32> loc(#loc24)
      %12672 = vector.fma %11934, %12668, %12286 : vector<64xf32> loc(#loc24)
      %12673 = memref.load %158[%633, %12322] : memref<?x?xf32, strided<[?, 1]>> loc(#loc24)
      %12674 = vector.broadcast %12673 : f32 to vector<64xf32> loc(#loc24)
      %12675 = vector.fma %11934, %12671, %12289 : vector<64xf32> loc(#loc24)
      %12676 = memref.load %158[%637, %12322] : memref<?x?xf32, strided<[?, 1]>> loc(#loc24)
      %12677 = vector.broadcast %12676 : f32 to vector<64xf32> loc(#loc24)
      %12678 = vector.fma %11934, %12674, %12292 : vector<64xf32> loc(#loc24)
      %12679 = memref.load %158[%641, %12322] : memref<?x?xf32, strided<[?, 1]>> loc(#loc24)
      %12680 = vector.broadcast %12679 : f32 to vector<64xf32> loc(#loc24)
      %12681 = vector.fma %11934, %12677, %12295 : vector<64xf32> loc(#loc24)
      %12682 = memref.load %158[%645, %12322] : memref<?x?xf32, strided<[?, 1]>> loc(#loc24)
      %12683 = vector.broadcast %12682 : f32 to vector<64xf32> loc(#loc24)
      %12684 = vector.fma %11934, %12680, %12298 : vector<64xf32> loc(#loc24)
      %12685 = memref.load %158[%649, %12322] : memref<?x?xf32, strided<[?, 1]>> loc(#loc24)
      %12686 = vector.broadcast %12685 : f32 to vector<64xf32> loc(#loc24)
      %12687 = vector.fma %11934, %12683, %12301 : vector<64xf32> loc(#loc24)
      %12688 = memref.load %158[%653, %12322] : memref<?x?xf32, strided<[?, 1]>> loc(#loc24)
      %12689 = vector.broadcast %12688 : f32 to vector<64xf32> loc(#loc24)
      %12690 = vector.fma %11934, %12686, %12304 : vector<64xf32> loc(#loc24)
      %12691 = memref.load %158[%657, %12322] : memref<?x?xf32, strided<[?, 1]>> loc(#loc24)
      %12692 = vector.broadcast %12691 : f32 to vector<64xf32> loc(#loc24)
      %12693 = vector.fma %11934, %12689, %12307 : vector<64xf32> loc(#loc24)
      %12694 = memref.load %158[%661, %12322] : memref<?x?xf32, strided<[?, 1]>> loc(#loc24)
      %12695 = vector.broadcast %12694 : f32 to vector<64xf32> loc(#loc24)
      %12696 = vector.fma %11934, %12692, %12310 : vector<64xf32> loc(#loc24)
      %12697 = memref.load %158[%665, %12322] : memref<?x?xf32, strided<[?, 1]>> loc(#loc24)
      %12698 = vector.broadcast %12697 : f32 to vector<64xf32> loc(#loc24)
      %12699 = vector.fma %11934, %12695, %12313 : vector<64xf32> loc(#loc24)
      %12700 = memref.load %158[%669, %12322] : memref<?x?xf32, strided<[?, 1]>> loc(#loc24)
      %12701 = vector.broadcast %12700 : f32 to vector<64xf32> loc(#loc24)
      %12702 = vector.fma %11934, %12698, %12316 : vector<64xf32> loc(#loc24)
      %12703 = memref.load %158[%673, %12322] : memref<?x?xf32, strided<[?, 1]>> loc(#loc24)
      %12704 = vector.broadcast %12703 : f32 to vector<64xf32> loc(#loc24)
      %12705 = vector.fma %11934, %12701, %12319 : vector<64xf32> loc(#loc24)
      %12706 = vector.fma %11934, %12704, %12320 : vector<64xf32> loc(#loc24)
      %12707 = tt.advance %arg10, [%c0_i32, %c32_i32] : <tensor<128x32xf32>> loc(#loc25)
      %12708 = tt.advance %arg11, [%c32_i32, %c0_i32] : <tensor<32x64xf32>> loc(#loc26)
      scf.yield %12707, %12708, %12327, %12330, %12333, %12336, %12339, %12342, %12345, %12348, %12351, %12354, %12357, %12360, %12363, %12366, %12369, %12372, %12375, %12378, %12381, %12384, %12387, %12390, %12393, %12396, %12399, %12402, %12405, %12408, %12411, %12414, %12417, %12420, %12423, %12426, %12429, %12432, %12435, %12438, %12441, %12444, %12447, %12450, %12453, %12456, %12459, %12462, %12465, %12468, %12471, %12474, %12477, %12480, %12483, %12486, %12489, %12492, %12495, %12498, %12501, %12504, %12507, %12510, %12513, %12516, %12519, %12522, %12525, %12528, %12531, %12534, %12537, %12540, %12543, %12546, %12549, %12552, %12555, %12558, %12561, %12564, %12567, %12570, %12573, %12576, %12579, %12582, %12585, %12588, %12591, %12594, %12597, %12600, %12603, %12606, %12609, %12612, %12615, %12618, %12621, %12624, %12627, %12630, %12633, %12636, %12639, %12642, %12645, %12648, %12651, %12654, %12657, %12660, %12663, %12666, %12669, %12672, %12675, %12678, %12681, %12684, %12687, %12690, %12693, %12696, %12699, %12702, %12705, %12706 : !tt.ptr<tensor<128x32xf32>>, !tt.ptr<tensor<32x64xf32>>, vector<64xf32>, vector<64xf32>, vector<64xf32>, vector<64xf32>, vector<64xf32>, vector<64xf32>, vector<64xf32>, vector<64xf32>, vector<64xf32>, vector<64xf32>, vector<64xf32>, vector<64xf32>, vector<64xf32>, vector<64xf32>, vector<64xf32>, vector<64xf32>, vector<64xf32>, vector<64xf32>, vector<64xf32>, vector<64xf32>, vector<64xf32>, vector<64xf32>, vector<64xf32>, vector<64xf32>, vector<64xf32>, vector<64xf32>, vector<64xf32>, vector<64xf32>, vector<64xf32>, vector<64xf32>, vector<64xf32>, vector<64xf32>, vector<64xf32>, vector<64xf32>, vector<64xf32>, vector<64xf32>, vector<64xf32>, vector<64xf32>, vector<64xf32>, vector<64xf32>, vector<64xf32>, vector<64xf32>, vector<64xf32>, vector<64xf32>, vector<64xf32>, vector<64xf32>, vector<64xf32>, vector<64xf32>, vector<64xf32>, vector<64xf32>, vector<64xf32>, vector<64xf32>, vector<64xf32>, vector<64xf32>, vector<64xf32>, vector<64xf32>, vector<64xf32>, vector<64xf32>, vector<64xf32>, vector<64xf32>, vector<64xf32>, vector<64xf32>, vector<64xf32>, vector<64xf32>, vector<64xf32>, vector<64xf32>, vector<64xf32>, vector<64xf32>, vector<64xf32>, vector<64xf32>, vector<64xf32>, vector<64xf32>, vector<64xf32>, vector<64xf32>, vector<64xf32>, vector<64xf32>, vector<64xf32>, vector<64xf32>, vector<64xf32>, vector<64xf32>, vector<64xf32>, vector<64xf32>, vector<64xf32>, vector<64xf32>, vector<64xf32>, vector<64xf32>, vector<64xf32>, vector<64xf32>, vector<64xf32>, vector<64xf32>, vector<64xf32>, vector<64xf32>, vector<64xf32>, vector<64xf32>, vector<64xf32>, vector<64xf32>, vector<64xf32>, vector<64xf32>, vector<64xf32>, vector<64xf32>, vector<64xf32>, vector<64xf32>, vector<64xf32>, vector<64xf32>, vector<64xf32>, vector<64xf32>, vector<64xf32>, vector<64xf32>, vector<64xf32>, vector<64xf32>, vector<64xf32>, vector<64xf32>, vector<64xf32>, vector<64xf32>, vector<64xf32>, vector<64xf32>, vector<64xf32>, vector<64xf32>, vector<64xf32>, vector<64xf32>, vector<64xf32>, vector<64xf32>, vector<64xf32>, vector<64xf32>, vector<64xf32>, vector<64xf32>, vector<64xf32>, vector<64xf32> loc(#loc27)
    } loc(#loc21)
    %26 = vector.insert %25#2, %cst_0 [0] : vector<64xf32> into vector<128x64xf32> loc(#loc24)
    %27 = vector.insert %25#3, %26 [1] : vector<64xf32> into vector<128x64xf32> loc(#loc24)
    %28 = vector.insert %25#4, %27 [2] : vector<64xf32> into vector<128x64xf32> loc(#loc24)
    %29 = vector.insert %25#5, %28 [3] : vector<64xf32> into vector<128x64xf32> loc(#loc24)
    %30 = vector.insert %25#6, %29 [4] : vector<64xf32> into vector<128x64xf32> loc(#loc24)
    %31 = vector.insert %25#7, %30 [5] : vector<64xf32> into vector<128x64xf32> loc(#loc24)
    %32 = vector.insert %25#8, %31 [6] : vector<64xf32> into vector<128x64xf32> loc(#loc24)
    %33 = vector.insert %25#9, %32 [7] : vector<64xf32> into vector<128x64xf32> loc(#loc24)
    %34 = vector.insert %25#10, %33 [8] : vector<64xf32> into vector<128x64xf32> loc(#loc24)
    %35 = vector.insert %25#11, %34 [9] : vector<64xf32> into vector<128x64xf32> loc(#loc24)
    %36 = vector.insert %25#12, %35 [10] : vector<64xf32> into vector<128x64xf32> loc(#loc24)
    %37 = vector.insert %25#13, %36 [11] : vector<64xf32> into vector<128x64xf32> loc(#loc24)
    %38 = vector.insert %25#14, %37 [12] : vector<64xf32> into vector<128x64xf32> loc(#loc24)
    %39 = vector.insert %25#15, %38 [13] : vector<64xf32> into vector<128x64xf32> loc(#loc24)
    %40 = vector.insert %25#16, %39 [14] : vector<64xf32> into vector<128x64xf32> loc(#loc24)
    %41 = vector.insert %25#17, %40 [15] : vector<64xf32> into vector<128x64xf32> loc(#loc24)
    %42 = vector.insert %25#18, %41 [16] : vector<64xf32> into vector<128x64xf32> loc(#loc24)
    %43 = vector.insert %25#19, %42 [17] : vector<64xf32> into vector<128x64xf32> loc(#loc24)
    %44 = vector.insert %25#20, %43 [18] : vector<64xf32> into vector<128x64xf32> loc(#loc24)
    %45 = vector.insert %25#21, %44 [19] : vector<64xf32> into vector<128x64xf32> loc(#loc24)
    %46 = vector.insert %25#22, %45 [20] : vector<64xf32> into vector<128x64xf32> loc(#loc24)
    %47 = vector.insert %25#23, %46 [21] : vector<64xf32> into vector<128x64xf32> loc(#loc24)
    %48 = vector.insert %25#24, %47 [22] : vector<64xf32> into vector<128x64xf32> loc(#loc24)
    %49 = vector.insert %25#25, %48 [23] : vector<64xf32> into vector<128x64xf32> loc(#loc24)
    %50 = vector.insert %25#26, %49 [24] : vector<64xf32> into vector<128x64xf32> loc(#loc24)
    %51 = vector.insert %25#27, %50 [25] : vector<64xf32> into vector<128x64xf32> loc(#loc24)
    %52 = vector.insert %25#28, %51 [26] : vector<64xf32> into vector<128x64xf32> loc(#loc24)
    %53 = vector.insert %25#29, %52 [27] : vector<64xf32> into vector<128x64xf32> loc(#loc24)
    %54 = vector.insert %25#30, %53 [28] : vector<64xf32> into vector<128x64xf32> loc(#loc24)
    %55 = vector.insert %25#31, %54 [29] : vector<64xf32> into vector<128x64xf32> loc(#loc24)
    %56 = vector.insert %25#32, %55 [30] : vector<64xf32> into vector<128x64xf32> loc(#loc24)
    %57 = vector.insert %25#33, %56 [31] : vector<64xf32> into vector<128x64xf32> loc(#loc24)
    %58 = vector.insert %25#34, %57 [32] : vector<64xf32> into vector<128x64xf32> loc(#loc24)
    %59 = vector.insert %25#35, %58 [33] : vector<64xf32> into vector<128x64xf32> loc(#loc24)
    %60 = vector.insert %25#36, %59 [34] : vector<64xf32> into vector<128x64xf32> loc(#loc24)
    %61 = vector.insert %25#37, %60 [35] : vector<64xf32> into vector<128x64xf32> loc(#loc24)
    %62 = vector.insert %25#38, %61 [36] : vector<64xf32> into vector<128x64xf32> loc(#loc24)
    %63 = vector.insert %25#39, %62 [37] : vector<64xf32> into vector<128x64xf32> loc(#loc24)
    %64 = vector.insert %25#40, %63 [38] : vector<64xf32> into vector<128x64xf32> loc(#loc24)
    %65 = vector.insert %25#41, %64 [39] : vector<64xf32> into vector<128x64xf32> loc(#loc24)
    %66 = vector.insert %25#42, %65 [40] : vector<64xf32> into vector<128x64xf32> loc(#loc24)
    %67 = vector.insert %25#43, %66 [41] : vector<64xf32> into vector<128x64xf32> loc(#loc24)
    %68 = vector.insert %25#44, %67 [42] : vector<64xf32> into vector<128x64xf32> loc(#loc24)
    %69 = vector.insert %25#45, %68 [43] : vector<64xf32> into vector<128x64xf32> loc(#loc24)
    %70 = vector.insert %25#46, %69 [44] : vector<64xf32> into vector<128x64xf32> loc(#loc24)
    %71 = vector.insert %25#47, %70 [45] : vector<64xf32> into vector<128x64xf32> loc(#loc24)
    %72 = vector.insert %25#48, %71 [46] : vector<64xf32> into vector<128x64xf32> loc(#loc24)
    %73 = vector.insert %25#49, %72 [47] : vector<64xf32> into vector<128x64xf32> loc(#loc24)
    %74 = vector.insert %25#50, %73 [48] : vector<64xf32> into vector<128x64xf32> loc(#loc24)
    %75 = vector.insert %25#51, %74 [49] : vector<64xf32> into vector<128x64xf32> loc(#loc24)
    %76 = vector.insert %25#52, %75 [50] : vector<64xf32> into vector<128x64xf32> loc(#loc24)
    %77 = vector.insert %25#53, %76 [51] : vector<64xf32> into vector<128x64xf32> loc(#loc24)
    %78 = vector.insert %25#54, %77 [52] : vector<64xf32> into vector<128x64xf32> loc(#loc24)
    %79 = vector.insert %25#55, %78 [53] : vector<64xf32> into vector<128x64xf32> loc(#loc24)
    %80 = vector.insert %25#56, %79 [54] : vector<64xf32> into vector<128x64xf32> loc(#loc24)
    %81 = vector.insert %25#57, %80 [55] : vector<64xf32> into vector<128x64xf32> loc(#loc24)
    %82 = vector.insert %25#58, %81 [56] : vector<64xf32> into vector<128x64xf32> loc(#loc24)
    %83 = vector.insert %25#59, %82 [57] : vector<64xf32> into vector<128x64xf32> loc(#loc24)
    %84 = vector.insert %25#60, %83 [58] : vector<64xf32> into vector<128x64xf32> loc(#loc24)
    %85 = vector.insert %25#61, %84 [59] : vector<64xf32> into vector<128x64xf32> loc(#loc24)
    %86 = vector.insert %25#62, %85 [60] : vector<64xf32> into vector<128x64xf32> loc(#loc24)
    %87 = vector.insert %25#63, %86 [61] : vector<64xf32> into vector<128x64xf32> loc(#loc24)
    %88 = vector.insert %25#64, %87 [62] : vector<64xf32> into vector<128x64xf32> loc(#loc24)
    %89 = vector.insert %25#65, %88 [63] : vector<64xf32> into vector<128x64xf32> loc(#loc24)
    %90 = vector.insert %25#66, %89 [64] : vector<64xf32> into vector<128x64xf32> loc(#loc24)
    %91 = vector.insert %25#67, %90 [65] : vector<64xf32> into vector<128x64xf32> loc(#loc24)
    %92 = vector.insert %25#68, %91 [66] : vector<64xf32> into vector<128x64xf32> loc(#loc24)
    %93 = vector.insert %25#69, %92 [67] : vector<64xf32> into vector<128x64xf32> loc(#loc24)
    %94 = vector.insert %25#70, %93 [68] : vector<64xf32> into vector<128x64xf32> loc(#loc24)
    %95 = vector.insert %25#71, %94 [69] : vector<64xf32> into vector<128x64xf32> loc(#loc24)
    %96 = vector.insert %25#72, %95 [70] : vector<64xf32> into vector<128x64xf32> loc(#loc24)
    %97 = vector.insert %25#73, %96 [71] : vector<64xf32> into vector<128x64xf32> loc(#loc24)
    %98 = vector.insert %25#74, %97 [72] : vector<64xf32> into vector<128x64xf32> loc(#loc24)
    %99 = vector.insert %25#75, %98 [73] : vector<64xf32> into vector<128x64xf32> loc(#loc24)
    %100 = vector.insert %25#76, %99 [74] : vector<64xf32> into vector<128x64xf32> loc(#loc24)
    %101 = vector.insert %25#77, %100 [75] : vector<64xf32> into vector<128x64xf32> loc(#loc24)
    %102 = vector.insert %25#78, %101 [76] : vector<64xf32> into vector<128x64xf32> loc(#loc24)
    %103 = vector.insert %25#79, %102 [77] : vector<64xf32> into vector<128x64xf32> loc(#loc24)
    %104 = vector.insert %25#80, %103 [78] : vector<64xf32> into vector<128x64xf32> loc(#loc24)
    %105 = vector.insert %25#81, %104 [79] : vector<64xf32> into vector<128x64xf32> loc(#loc24)
    %106 = vector.insert %25#82, %105 [80] : vector<64xf32> into vector<128x64xf32> loc(#loc24)
    %107 = vector.insert %25#83, %106 [81] : vector<64xf32> into vector<128x64xf32> loc(#loc24)
    %108 = vector.insert %25#84, %107 [82] : vector<64xf32> into vector<128x64xf32> loc(#loc24)
    %109 = vector.insert %25#85, %108 [83] : vector<64xf32> into vector<128x64xf32> loc(#loc24)
    %110 = vector.insert %25#86, %109 [84] : vector<64xf32> into vector<128x64xf32> loc(#loc24)
    %111 = vector.insert %25#87, %110 [85] : vector<64xf32> into vector<128x64xf32> loc(#loc24)
    %112 = vector.insert %25#88, %111 [86] : vector<64xf32> into vector<128x64xf32> loc(#loc24)
    %113 = vector.insert %25#89, %112 [87] : vector<64xf32> into vector<128x64xf32> loc(#loc24)
    %114 = vector.insert %25#90, %113 [88] : vector<64xf32> into vector<128x64xf32> loc(#loc24)
    %115 = vector.insert %25#91, %114 [89] : vector<64xf32> into vector<128x64xf32> loc(#loc24)
    %116 = vector.insert %25#92, %115 [90] : vector<64xf32> into vector<128x64xf32> loc(#loc24)
    %117 = vector.insert %25#93, %116 [91] : vector<64xf32> into vector<128x64xf32> loc(#loc24)
    %118 = vector.insert %25#94, %117 [92] : vector<64xf32> into vector<128x64xf32> loc(#loc24)
    %119 = vector.insert %25#95, %118 [93] : vector<64xf32> into vector<128x64xf32> loc(#loc24)
    %120 = vector.insert %25#96, %119 [94] : vector<64xf32> into vector<128x64xf32> loc(#loc24)
    %121 = vector.insert %25#97, %120 [95] : vector<64xf32> into vector<128x64xf32> loc(#loc24)
    %122 = vector.insert %25#98, %121 [96] : vector<64xf32> into vector<128x64xf32> loc(#loc24)
    %123 = vector.insert %25#99, %122 [97] : vector<64xf32> into vector<128x64xf32> loc(#loc24)
    %124 = vector.insert %25#100, %123 [98] : vector<64xf32> into vector<128x64xf32> loc(#loc24)
    %125 = vector.insert %25#101, %124 [99] : vector<64xf32> into vector<128x64xf32> loc(#loc24)
    %126 = vector.insert %25#102, %125 [100] : vector<64xf32> into vector<128x64xf32> loc(#loc24)
    %127 = vector.insert %25#103, %126 [101] : vector<64xf32> into vector<128x64xf32> loc(#loc24)
    %128 = vector.insert %25#104, %127 [102] : vector<64xf32> into vector<128x64xf32> loc(#loc24)
    %129 = vector.insert %25#105, %128 [103] : vector<64xf32> into vector<128x64xf32> loc(#loc24)
    %130 = vector.insert %25#106, %129 [104] : vector<64xf32> into vector<128x64xf32> loc(#loc24)
    %131 = vector.insert %25#107, %130 [105] : vector<64xf32> into vector<128x64xf32> loc(#loc24)
    %132 = vector.insert %25#108, %131 [106] : vector<64xf32> into vector<128x64xf32> loc(#loc24)
    %133 = vector.insert %25#109, %132 [107] : vector<64xf32> into vector<128x64xf32> loc(#loc24)
    %134 = vector.insert %25#110, %133 [108] : vector<64xf32> into vector<128x64xf32> loc(#loc24)
    %135 = vector.insert %25#111, %134 [109] : vector<64xf32> into vector<128x64xf32> loc(#loc24)
    %136 = vector.insert %25#112, %135 [110] : vector<64xf32> into vector<128x64xf32> loc(#loc24)
    %137 = vector.insert %25#113, %136 [111] : vector<64xf32> into vector<128x64xf32> loc(#loc24)
    %138 = vector.insert %25#114, %137 [112] : vector<64xf32> into vector<128x64xf32> loc(#loc24)
    %139 = vector.insert %25#115, %138 [113] : vector<64xf32> into vector<128x64xf32> loc(#loc24)
    %140 = vector.insert %25#116, %139 [114] : vector<64xf32> into vector<128x64xf32> loc(#loc24)
    %141 = vector.insert %25#117, %140 [115] : vector<64xf32> into vector<128x64xf32> loc(#loc24)
    %142 = vector.insert %25#118, %141 [116] : vector<64xf32> into vector<128x64xf32> loc(#loc24)
    %143 = vector.insert %25#119, %142 [117] : vector<64xf32> into vector<128x64xf32> loc(#loc24)
    %144 = vector.insert %25#120, %143 [118] : vector<64xf32> into vector<128x64xf32> loc(#loc24)
    %145 = vector.insert %25#121, %144 [119] : vector<64xf32> into vector<128x64xf32> loc(#loc24)
    %146 = vector.insert %25#122, %145 [120] : vector<64xf32> into vector<128x64xf32> loc(#loc24)
    %147 = vector.insert %25#123, %146 [121] : vector<64xf32> into vector<128x64xf32> loc(#loc24)
    %148 = vector.insert %25#124, %147 [122] : vector<64xf32> into vector<128x64xf32> loc(#loc24)
    %149 = vector.insert %25#125, %148 [123] : vector<64xf32> into vector<128x64xf32> loc(#loc24)
    %150 = vector.insert %25#126, %149 [124] : vector<64xf32> into vector<128x64xf32> loc(#loc24)
    %151 = vector.insert %25#127, %150 [125] : vector<64xf32> into vector<128x64xf32> loc(#loc24)
    %152 = vector.insert %25#128, %151 [126] : vector<64xf32> into vector<128x64xf32> loc(#loc24)
    %153 = vector.insert %25#129, %152 [127] : vector<64xf32> into vector<128x64xf32> loc(#loc24)
    %154 = arith.extsi %arg8 : i32 to i64 loc(#loc28)
    %155 = tt.make_tensor_ptr %arg2, [%16, %20], [%154, %c1_i64], [%14, %15] {order = array<i32: 1, 0>} : <tensor<128x64xf32>> loc(#loc28)
    %156 = triton_cpu.extract_memref %155 : <tensor<128x64xf32>> -> memref<?x?xf32, strided<[?, 1]>> loc(#loc29)
    %157:2 = triton_cpu.extract_indices %155 : <tensor<128x64xf32>> -> index, index loc(#loc29)
    vector.transfer_write %153, %156[%157#0, %157#1] {in_bounds = [true, true]} : vector<128x64xf32>, memref<?x?xf32, strided<[?, 1]>> loc(#loc29)
    tt.return loc(#loc30)
  } loc(#loc)
} loc(#loc)
#loc1 = loc(unknown)
#loc2 = loc("/home/yuhao/T_RVV/benchmark/src/triton/matmul.py":45:24)
#loc3 = loc("/home/yuhao/triton-cpu/python/triton/language/standard.py":40:22)
#loc4 = loc("/home/yuhao/T_RVV/benchmark/src/triton/matmul.py":46:27)
#loc5 = loc("/home/yuhao/triton-cpu/python/triton/language/standard.py":40:28)
#loc6 = loc("/home/yuhao/T_RVV/benchmark/src/triton/matmul.py":47:27)
#loc7 = loc("/home/yuhao/T_RVV/benchmark/src/triton/matmul.py":48:38)
#loc8 = loc("/home/yuhao/T_RVV/benchmark/src/triton/matmul.py":49:22)
#loc9 = loc("/home/yuhao/T_RVV/benchmark/src/triton/matmul.py":50:29)
#loc10 = loc("/home/yuhao/T_RVV/benchmark/src/triton/matmul.py":51:35)
#loc11 = loc("/home/yuhao/T_RVV/benchmark/src/triton/matmul.py":51:48)
#loc12 = loc("/home/yuhao/T_RVV/benchmark/src/triton/matmul.py":52:33)
#loc13 = loc("/home/yuhao/T_RVV/benchmark/src/triton/matmul.py":52:27)
#loc14 = loc("/home/yuhao/T_RVV/benchmark/src/triton/matmul.py":53:19)
#loc15 = loc("/home/yuhao/T_RVV/benchmark/src/triton/matmul.py":53:40)
#loc16 = loc("/home/yuhao/T_RVV/benchmark/src/triton/matmul.py":63:33)
#loc17 = loc("/home/yuhao/T_RVV/benchmark/src/triton/matmul.py":64:33)
#loc18 = loc("/home/yuhao/T_RVV/benchmark/src/triton/matmul.py":67:39)
#loc19 = loc("/home/yuhao/T_RVV/benchmark/src/triton/matmul.py":70:39)
#loc20 = loc("/home/yuhao/T_RVV/benchmark/src/triton/matmul.py":79:33)
#loc21 = loc("/home/yuhao/T_RVV/benchmark/src/triton/matmul.py":79:22)
#loc22 = loc("/home/yuhao/T_RVV/benchmark/src/triton/matmul.py":83:20)
#loc23 = loc("/home/yuhao/T_RVV/benchmark/src/triton/matmul.py":84:20)
#loc24 = loc("/home/yuhao/T_RVV/benchmark/src/triton/matmul.py":86:35)
#loc25 = loc("/home/yuhao/T_RVV/benchmark/src/triton/matmul.py":89:48)
#loc26 = loc("/home/yuhao/T_RVV/benchmark/src/triton/matmul.py":90:48)
#loc27 = loc("/home/yuhao/T_RVV/benchmark/src/triton/matmul.py":88:8)
#loc28 = loc("/home/yuhao/T_RVV/benchmark/src/triton/matmul.py":102:81)
#loc29 = loc("/home/yuhao/T_RVV/benchmark/src/triton/matmul.py":103:29)
#loc30 = loc("/home/yuhao/T_RVV/benchmark/src/triton/matmul.py":99:4)
#loc31 = loc(callsite(#loc3 at #loc4))
#loc32 = loc(callsite(#loc5 at #loc4))
#loc33 = loc(callsite(#loc3 at #loc6))
#loc34 = loc(callsite(#loc5 at #loc6))
#loc35 = loc(callsite(#loc3 at #loc20))
#loc36 = loc(callsite(#loc5 at #loc20))
