#loc = loc("/home/yuhao/T_RVV/benchmark/src/triton/matmul.py":24:0)
module {
  tt.func public @matmul_kernel(%arg0: !tt.ptr<f32> {tt.divisibility = 16 : i32} loc("/home/yuhao/T_RVV/benchmark/src/triton/matmul.py":24:0), %arg1: !tt.ptr<f32> {tt.divisibility = 16 : i32} loc("/home/yuhao/T_RVV/benchmark/src/triton/matmul.py":24:0), %arg2: !tt.ptr<f32> {tt.divisibility = 16 : i32} loc("/home/yuhao/T_RVV/benchmark/src/triton/matmul.py":24:0), %arg3: i32 {tt.divisibility = 16 : i32} loc("/home/yuhao/T_RVV/benchmark/src/triton/matmul.py":24:0), %arg4: i32 {tt.divisibility = 16 : i32} loc("/home/yuhao/T_RVV/benchmark/src/triton/matmul.py":24:0), %arg5: i32 {tt.divisibility = 16 : i32} loc("/home/yuhao/T_RVV/benchmark/src/triton/matmul.py":24:0), %arg6: i32 {tt.divisibility = 16 : i32} loc("/home/yuhao/T_RVV/benchmark/src/triton/matmul.py":24:0), %arg7: i32 {tt.divisibility = 16 : i32} loc("/home/yuhao/T_RVV/benchmark/src/triton/matmul.py":24:0), %arg8: i32 {tt.divisibility = 16 : i32} loc("/home/yuhao/T_RVV/benchmark/src/triton/matmul.py":24:0)) attributes {noinline = false} {
    %c63 = arith.constant 63 : index loc(#loc1)
    %c62 = arith.constant 62 : index loc(#loc1)
    %c61 = arith.constant 61 : index loc(#loc1)
    %c60 = arith.constant 60 : index loc(#loc1)
    %c59 = arith.constant 59 : index loc(#loc1)
    %c58 = arith.constant 58 : index loc(#loc1)
    %c57 = arith.constant 57 : index loc(#loc1)
    %c56 = arith.constant 56 : index loc(#loc1)
    %c55 = arith.constant 55 : index loc(#loc1)
    %c54 = arith.constant 54 : index loc(#loc1)
    %c53 = arith.constant 53 : index loc(#loc1)
    %c52 = arith.constant 52 : index loc(#loc1)
    %c51 = arith.constant 51 : index loc(#loc1)
    %c50 = arith.constant 50 : index loc(#loc1)
    %c49 = arith.constant 49 : index loc(#loc1)
    %c48 = arith.constant 48 : index loc(#loc1)
    %c47 = arith.constant 47 : index loc(#loc1)
    %c46 = arith.constant 46 : index loc(#loc1)
    %c45 = arith.constant 45 : index loc(#loc1)
    %c44 = arith.constant 44 : index loc(#loc1)
    %c43 = arith.constant 43 : index loc(#loc1)
    %c42 = arith.constant 42 : index loc(#loc1)
    %c41 = arith.constant 41 : index loc(#loc1)
    %c40 = arith.constant 40 : index loc(#loc1)
    %c39 = arith.constant 39 : index loc(#loc1)
    %c38 = arith.constant 38 : index loc(#loc1)
    %c37 = arith.constant 37 : index loc(#loc1)
    %c36 = arith.constant 36 : index loc(#loc1)
    %c35 = arith.constant 35 : index loc(#loc1)
    %c34 = arith.constant 34 : index loc(#loc1)
    %c33 = arith.constant 33 : index loc(#loc1)
    %c32 = arith.constant 32 : index loc(#loc1)
    %cst = arith.constant dense<0.000000e+00> : vector<64xf32> loc(#loc1)
    %c31 = arith.constant 31 : index loc(#loc1)
    %c30 = arith.constant 30 : index loc(#loc1)
    %c29 = arith.constant 29 : index loc(#loc1)
    %c28 = arith.constant 28 : index loc(#loc1)
    %c27 = arith.constant 27 : index loc(#loc1)
    %c26 = arith.constant 26 : index loc(#loc1)
    %c25 = arith.constant 25 : index loc(#loc1)
    %c24 = arith.constant 24 : index loc(#loc1)
    %c23 = arith.constant 23 : index loc(#loc1)
    %c22 = arith.constant 22 : index loc(#loc1)
    %c21 = arith.constant 21 : index loc(#loc1)
    %c20 = arith.constant 20 : index loc(#loc1)
    %c19 = arith.constant 19 : index loc(#loc1)
    %c18 = arith.constant 18 : index loc(#loc1)
    %c17 = arith.constant 17 : index loc(#loc1)
    %c16 = arith.constant 16 : index loc(#loc1)
    %c15 = arith.constant 15 : index loc(#loc1)
    %c14 = arith.constant 14 : index loc(#loc1)
    %c13 = arith.constant 13 : index loc(#loc1)
    %c12 = arith.constant 12 : index loc(#loc1)
    %c11 = arith.constant 11 : index loc(#loc1)
    %c10 = arith.constant 10 : index loc(#loc1)
    %c9 = arith.constant 9 : index loc(#loc1)
    %c8 = arith.constant 8 : index loc(#loc1)
    %c7 = arith.constant 7 : index loc(#loc1)
    %c6 = arith.constant 6 : index loc(#loc1)
    %c5 = arith.constant 5 : index loc(#loc1)
    %c4 = arith.constant 4 : index loc(#loc1)
    %c3 = arith.constant 3 : index loc(#loc1)
    %c2 = arith.constant 2 : index loc(#loc1)
    %c1 = arith.constant 1 : index loc(#loc1)
    %cst_0 = arith.constant dense<0.000000e+00> : vector<32x64xf32> loc(#loc1)
    %c63_i32 = arith.constant 63 : i32 loc(#loc1)
    %c31_i32 = arith.constant 31 : i32 loc(#loc1)
    %c1_i32 = arith.constant 1 : i32 loc(#loc1)
    %c0_i32 = arith.constant 0 : i32 loc(#loc1)
    %c1_i64 = arith.constant 1 : i64 loc(#loc1)
    %c64_i32 = arith.constant 64 : i32 loc(#loc1)
    %c32_i32 = arith.constant 32 : i32 loc(#loc1)
    %c8_i32 = arith.constant 8 : i32 loc(#loc1)
    %0 = tt.get_program_id x : i32 loc(#loc2)
    %1 = arith.addi %arg3, %c31_i32 : i32 loc(#loc31)
    %2 = arith.divsi %1, %c32_i32 : i32 loc(#loc32)
    %3 = arith.addi %arg4, %c63_i32 : i32 loc(#loc33)
    %4 = arith.divsi %3, %c64_i32 : i32 loc(#loc34)
    %5 = arith.muli %4, %c8_i32 : i32 loc(#loc7)
    %6 = arith.divsi %0, %5 : i32 loc(#loc8)
    %7 = arith.muli %6, %c8_i32 : i32 loc(#loc9)
    %8 = arith.subi %2, %7 : i32 loc(#loc10)
    %9 = arith.minsi %8, %c8_i32 : i32 loc(#loc11)
    %10 = arith.remsi %0, %9 : i32 loc(#loc12)
    %11 = arith.addi %7, %10 : i32 loc(#loc13)
    %12 = arith.remsi %0, %5 : i32 loc(#loc14)
    %13 = arith.divsi %12, %9 : i32 loc(#loc15)
    %14 = arith.muli %11, %c32_i32 : i32 loc(#loc16)
    %15 = arith.muli %13, %c64_i32 : i32 loc(#loc17)
    %16 = arith.extsi %arg3 : i32 to i64 loc(#loc18)
    %17 = arith.extsi %arg5 : i32 to i64 loc(#loc18)
    %18 = arith.extsi %arg6 : i32 to i64 loc(#loc18)
    %19 = tt.make_tensor_ptr %arg0, [%16, %17], [%18, %c1_i64], [%14, %c0_i32] {order = array<i32: 1, 0>} : <tensor<32x32xf32>> loc(#loc18)
    %20 = arith.extsi %arg4 : i32 to i64 loc(#loc19)
    %21 = arith.extsi %arg7 : i32 to i64 loc(#loc19)
    %22 = tt.make_tensor_ptr %arg1, [%17, %20], [%21, %c1_i64], [%c0_i32, %15] {order = array<i32: 1, 0>} : <tensor<32x64xf32>> loc(#loc19)
    %23 = arith.addi %arg5, %c31_i32 : i32 loc(#loc35)
    %24 = arith.divsi %23, %c32_i32 : i32 loc(#loc36)
    %25:34 = scf.for %arg9 = %c0_i32 to %24 step %c1_i32 iter_args(%arg10 = %19, %arg11 = %22, %arg12 = %cst, %arg13 = %cst, %arg14 = %cst, %arg15 = %cst, %arg16 = %cst, %arg17 = %cst, %arg18 = %cst, %arg19 = %cst, %arg20 = %cst, %arg21 = %cst, %arg22 = %cst, %arg23 = %cst, %arg24 = %cst, %arg25 = %cst, %arg26 = %cst, %arg27 = %cst, %arg28 = %cst, %arg29 = %cst, %arg30 = %cst, %arg31 = %cst, %arg32 = %cst, %arg33 = %cst, %arg34 = %cst, %arg35 = %cst, %arg36 = %cst, %arg37 = %cst, %arg38 = %cst, %arg39 = %cst, %arg40 = %cst, %arg41 = %cst, %arg42 = %cst, %arg43 = %cst) -> (!tt.ptr<tensor<32x32xf32>>, !tt.ptr<tensor<32x64xf32>>, vector<64xf32>, vector<64xf32>, vector<64xf32>, vector<64xf32>, vector<64xf32>, vector<64xf32>, vector<64xf32>, vector<64xf32>, vector<64xf32>, vector<64xf32>, vector<64xf32>, vector<64xf32>, vector<64xf32>, vector<64xf32>, vector<64xf32>, vector<64xf32>, vector<64xf32>, vector<64xf32>, vector<64xf32>, vector<64xf32>, vector<64xf32>, vector<64xf32>, vector<64xf32>, vector<64xf32>, vector<64xf32>, vector<64xf32>, vector<64xf32>, vector<64xf32>, vector<64xf32>, vector<64xf32>, vector<64xf32>, vector<64xf32>)  : i32 {
      %62 = triton_cpu.extract_memref %arg10 : <tensor<32x32xf32>> -> memref<?x?xf32, strided<[?, 1]>> loc(#loc22)
      %63:2 = triton_cpu.extract_indices %arg10 : <tensor<32x32xf32>> -> index, index loc(#loc22)
      %64 = triton_cpu.extract_memref %arg11 : <tensor<32x64xf32>> -> memref<?x?xf32, strided<[?, 1]>> loc(#loc23)
      %65:2 = triton_cpu.extract_indices %arg11 : <tensor<32x64xf32>> -> index, index loc(#loc23)
      %66 = arith.addi %63#1, %c32 : index loc(#loc24)
      %67 = arith.addi %65#0, %c32 : index loc(#loc24)
      %68 = vector.load %64[%65#0, %65#1] : memref<?x?xf32, strided<[?, 1]>>, vector<64xf32> loc(#loc24)
      %69 = arith.addi %65#0, %c1 : index loc(#loc24)
      %70 = vector.load %64[%69, %65#1] : memref<?x?xf32, strided<[?, 1]>>, vector<64xf32> loc(#loc24)
      memref.prefetch %64[%67, %65#1], read, locality<1>, data : memref<?x?xf32, strided<[?, 1]>> loc(#loc24)
      %71 = memref.load %62[%63#0, %63#1] : memref<?x?xf32, strided<[?, 1]>> loc(#loc24)
      %72 = vector.broadcast %71 : f32 to vector<64xf32> loc(#loc24)
      %73 = arith.addi %63#0, %c1 : index loc(#loc24)
      %74 = memref.load %62[%73, %63#1] : memref<?x?xf32, strided<[?, 1]>> loc(#loc24)
      %75 = vector.broadcast %74 : f32 to vector<64xf32> loc(#loc24)
      memref.prefetch %62[%63#0, %66], read, locality<3>, data : memref<?x?xf32, strided<[?, 1]>> loc(#loc24)
      %76 = vector.fma %68, %72, %arg12 : vector<64xf32> loc(#loc24)
      %77 = arith.addi %63#0, %c2 : index loc(#loc24)
      %78 = memref.load %62[%77, %63#1] : memref<?x?xf32, strided<[?, 1]>> loc(#loc24)
      %79 = vector.broadcast %78 : f32 to vector<64xf32> loc(#loc24)
      memref.prefetch %62[%73, %66], read, locality<3>, data : memref<?x?xf32, strided<[?, 1]>> loc(#loc24)
      %80 = vector.fma %68, %75, %arg13 : vector<64xf32> loc(#loc24)
      %81 = arith.addi %63#0, %c3 : index loc(#loc24)
      %82 = memref.load %62[%81, %63#1] : memref<?x?xf32, strided<[?, 1]>> loc(#loc24)
      %83 = vector.broadcast %82 : f32 to vector<64xf32> loc(#loc24)
      memref.prefetch %62[%77, %66], read, locality<3>, data : memref<?x?xf32, strided<[?, 1]>> loc(#loc24)
      %84 = vector.fma %68, %79, %arg14 : vector<64xf32> loc(#loc24)
      %85 = arith.addi %63#0, %c4 : index loc(#loc24)
      %86 = memref.load %62[%85, %63#1] : memref<?x?xf32, strided<[?, 1]>> loc(#loc24)
      %87 = vector.broadcast %86 : f32 to vector<64xf32> loc(#loc24)
      memref.prefetch %62[%81, %66], read, locality<3>, data : memref<?x?xf32, strided<[?, 1]>> loc(#loc24)
      %88 = vector.fma %68, %83, %arg15 : vector<64xf32> loc(#loc24)
      %89 = arith.addi %63#0, %c5 : index loc(#loc24)
      %90 = memref.load %62[%89, %63#1] : memref<?x?xf32, strided<[?, 1]>> loc(#loc24)
      %91 = vector.broadcast %90 : f32 to vector<64xf32> loc(#loc24)
      memref.prefetch %62[%85, %66], read, locality<3>, data : memref<?x?xf32, strided<[?, 1]>> loc(#loc24)
      %92 = vector.fma %68, %87, %arg16 : vector<64xf32> loc(#loc24)
      %93 = arith.addi %63#0, %c6 : index loc(#loc24)
      %94 = memref.load %62[%93, %63#1] : memref<?x?xf32, strided<[?, 1]>> loc(#loc24)
      %95 = vector.broadcast %94 : f32 to vector<64xf32> loc(#loc24)
      memref.prefetch %62[%89, %66], read, locality<3>, data : memref<?x?xf32, strided<[?, 1]>> loc(#loc24)
      %96 = vector.fma %68, %91, %arg17 : vector<64xf32> loc(#loc24)
      %97 = arith.addi %63#0, %c7 : index loc(#loc24)
      %98 = memref.load %62[%97, %63#1] : memref<?x?xf32, strided<[?, 1]>> loc(#loc24)
      %99 = vector.broadcast %98 : f32 to vector<64xf32> loc(#loc24)
      memref.prefetch %62[%93, %66], read, locality<3>, data : memref<?x?xf32, strided<[?, 1]>> loc(#loc24)
      %100 = vector.fma %68, %95, %arg18 : vector<64xf32> loc(#loc24)
      %101 = arith.addi %63#0, %c8 : index loc(#loc24)
      %102 = memref.load %62[%101, %63#1] : memref<?x?xf32, strided<[?, 1]>> loc(#loc24)
      %103 = vector.broadcast %102 : f32 to vector<64xf32> loc(#loc24)
      memref.prefetch %62[%97, %66], read, locality<3>, data : memref<?x?xf32, strided<[?, 1]>> loc(#loc24)
      %104 = vector.fma %68, %99, %arg19 : vector<64xf32> loc(#loc24)
      %105 = arith.addi %63#0, %c9 : index loc(#loc24)
      %106 = memref.load %62[%105, %63#1] : memref<?x?xf32, strided<[?, 1]>> loc(#loc24)
      %107 = vector.broadcast %106 : f32 to vector<64xf32> loc(#loc24)
      memref.prefetch %62[%101, %66], read, locality<3>, data : memref<?x?xf32, strided<[?, 1]>> loc(#loc24)
      %108 = vector.fma %68, %103, %arg20 : vector<64xf32> loc(#loc24)
      %109 = arith.addi %63#0, %c10 : index loc(#loc24)
      %110 = memref.load %62[%109, %63#1] : memref<?x?xf32, strided<[?, 1]>> loc(#loc24)
      %111 = vector.broadcast %110 : f32 to vector<64xf32> loc(#loc24)
      memref.prefetch %62[%105, %66], read, locality<3>, data : memref<?x?xf32, strided<[?, 1]>> loc(#loc24)
      %112 = vector.fma %68, %107, %arg21 : vector<64xf32> loc(#loc24)
      %113 = arith.addi %63#0, %c11 : index loc(#loc24)
      %114 = memref.load %62[%113, %63#1] : memref<?x?xf32, strided<[?, 1]>> loc(#loc24)
      %115 = vector.broadcast %114 : f32 to vector<64xf32> loc(#loc24)
      memref.prefetch %62[%109, %66], read, locality<3>, data : memref<?x?xf32, strided<[?, 1]>> loc(#loc24)
      %116 = vector.fma %68, %111, %arg22 : vector<64xf32> loc(#loc24)
      %117 = arith.addi %63#0, %c12 : index loc(#loc24)
      %118 = memref.load %62[%117, %63#1] : memref<?x?xf32, strided<[?, 1]>> loc(#loc24)
      %119 = vector.broadcast %118 : f32 to vector<64xf32> loc(#loc24)
      memref.prefetch %62[%113, %66], read, locality<3>, data : memref<?x?xf32, strided<[?, 1]>> loc(#loc24)
      %120 = vector.fma %68, %115, %arg23 : vector<64xf32> loc(#loc24)
      %121 = arith.addi %63#0, %c13 : index loc(#loc24)
      %122 = memref.load %62[%121, %63#1] : memref<?x?xf32, strided<[?, 1]>> loc(#loc24)
      %123 = vector.broadcast %122 : f32 to vector<64xf32> loc(#loc24)
      memref.prefetch %62[%117, %66], read, locality<3>, data : memref<?x?xf32, strided<[?, 1]>> loc(#loc24)
      %124 = vector.fma %68, %119, %arg24 : vector<64xf32> loc(#loc24)
      %125 = arith.addi %63#0, %c14 : index loc(#loc24)
      %126 = memref.load %62[%125, %63#1] : memref<?x?xf32, strided<[?, 1]>> loc(#loc24)
      %127 = vector.broadcast %126 : f32 to vector<64xf32> loc(#loc24)
      memref.prefetch %62[%121, %66], read, locality<3>, data : memref<?x?xf32, strided<[?, 1]>> loc(#loc24)
      %128 = vector.fma %68, %123, %arg25 : vector<64xf32> loc(#loc24)
      %129 = arith.addi %63#0, %c15 : index loc(#loc24)
      %130 = memref.load %62[%129, %63#1] : memref<?x?xf32, strided<[?, 1]>> loc(#loc24)
      %131 = vector.broadcast %130 : f32 to vector<64xf32> loc(#loc24)
      memref.prefetch %62[%125, %66], read, locality<3>, data : memref<?x?xf32, strided<[?, 1]>> loc(#loc24)
      %132 = vector.fma %68, %127, %arg26 : vector<64xf32> loc(#loc24)
      %133 = arith.addi %63#0, %c16 : index loc(#loc24)
      %134 = memref.load %62[%133, %63#1] : memref<?x?xf32, strided<[?, 1]>> loc(#loc24)
      %135 = vector.broadcast %134 : f32 to vector<64xf32> loc(#loc24)
      memref.prefetch %62[%129, %66], read, locality<3>, data : memref<?x?xf32, strided<[?, 1]>> loc(#loc24)
      %136 = vector.fma %68, %131, %arg27 : vector<64xf32> loc(#loc24)
      %137 = arith.addi %63#0, %c17 : index loc(#loc24)
      %138 = memref.load %62[%137, %63#1] : memref<?x?xf32, strided<[?, 1]>> loc(#loc24)
      %139 = vector.broadcast %138 : f32 to vector<64xf32> loc(#loc24)
      memref.prefetch %62[%133, %66], read, locality<3>, data : memref<?x?xf32, strided<[?, 1]>> loc(#loc24)
      %140 = vector.fma %68, %135, %arg28 : vector<64xf32> loc(#loc24)
      %141 = arith.addi %63#0, %c18 : index loc(#loc24)
      %142 = memref.load %62[%141, %63#1] : memref<?x?xf32, strided<[?, 1]>> loc(#loc24)
      %143 = vector.broadcast %142 : f32 to vector<64xf32> loc(#loc24)
      memref.prefetch %62[%137, %66], read, locality<3>, data : memref<?x?xf32, strided<[?, 1]>> loc(#loc24)
      %144 = vector.fma %68, %139, %arg29 : vector<64xf32> loc(#loc24)
      %145 = arith.addi %63#0, %c19 : index loc(#loc24)
      %146 = memref.load %62[%145, %63#1] : memref<?x?xf32, strided<[?, 1]>> loc(#loc24)
      %147 = vector.broadcast %146 : f32 to vector<64xf32> loc(#loc24)
      memref.prefetch %62[%141, %66], read, locality<3>, data : memref<?x?xf32, strided<[?, 1]>> loc(#loc24)
      %148 = vector.fma %68, %143, %arg30 : vector<64xf32> loc(#loc24)
      %149 = arith.addi %63#0, %c20 : index loc(#loc24)
      %150 = memref.load %62[%149, %63#1] : memref<?x?xf32, strided<[?, 1]>> loc(#loc24)
      %151 = vector.broadcast %150 : f32 to vector<64xf32> loc(#loc24)
      memref.prefetch %62[%145, %66], read, locality<3>, data : memref<?x?xf32, strided<[?, 1]>> loc(#loc24)
      %152 = vector.fma %68, %147, %arg31 : vector<64xf32> loc(#loc24)
      %153 = arith.addi %63#0, %c21 : index loc(#loc24)
      %154 = memref.load %62[%153, %63#1] : memref<?x?xf32, strided<[?, 1]>> loc(#loc24)
      %155 = vector.broadcast %154 : f32 to vector<64xf32> loc(#loc24)
      memref.prefetch %62[%149, %66], read, locality<3>, data : memref<?x?xf32, strided<[?, 1]>> loc(#loc24)
      %156 = vector.fma %68, %151, %arg32 : vector<64xf32> loc(#loc24)
      %157 = arith.addi %63#0, %c22 : index loc(#loc24)
      %158 = memref.load %62[%157, %63#1] : memref<?x?xf32, strided<[?, 1]>> loc(#loc24)
      %159 = vector.broadcast %158 : f32 to vector<64xf32> loc(#loc24)
      memref.prefetch %62[%153, %66], read, locality<3>, data : memref<?x?xf32, strided<[?, 1]>> loc(#loc24)
      %160 = vector.fma %68, %155, %arg33 : vector<64xf32> loc(#loc24)
      %161 = arith.addi %63#0, %c23 : index loc(#loc24)
      %162 = memref.load %62[%161, %63#1] : memref<?x?xf32, strided<[?, 1]>> loc(#loc24)
      %163 = vector.broadcast %162 : f32 to vector<64xf32> loc(#loc24)
      memref.prefetch %62[%157, %66], read, locality<3>, data : memref<?x?xf32, strided<[?, 1]>> loc(#loc24)
      %164 = vector.fma %68, %159, %arg34 : vector<64xf32> loc(#loc24)
      %165 = arith.addi %63#0, %c24 : index loc(#loc24)
      %166 = memref.load %62[%165, %63#1] : memref<?x?xf32, strided<[?, 1]>> loc(#loc24)
      %167 = vector.broadcast %166 : f32 to vector<64xf32> loc(#loc24)
      memref.prefetch %62[%161, %66], read, locality<3>, data : memref<?x?xf32, strided<[?, 1]>> loc(#loc24)
      %168 = vector.fma %68, %163, %arg35 : vector<64xf32> loc(#loc24)
      %169 = arith.addi %63#0, %c25 : index loc(#loc24)
      %170 = memref.load %62[%169, %63#1] : memref<?x?xf32, strided<[?, 1]>> loc(#loc24)
      %171 = vector.broadcast %170 : f32 to vector<64xf32> loc(#loc24)
      memref.prefetch %62[%165, %66], read, locality<3>, data : memref<?x?xf32, strided<[?, 1]>> loc(#loc24)
      %172 = vector.fma %68, %167, %arg36 : vector<64xf32> loc(#loc24)
      %173 = arith.addi %63#0, %c26 : index loc(#loc24)
      %174 = memref.load %62[%173, %63#1] : memref<?x?xf32, strided<[?, 1]>> loc(#loc24)
      %175 = vector.broadcast %174 : f32 to vector<64xf32> loc(#loc24)
      memref.prefetch %62[%169, %66], read, locality<3>, data : memref<?x?xf32, strided<[?, 1]>> loc(#loc24)
      %176 = vector.fma %68, %171, %arg37 : vector<64xf32> loc(#loc24)
      %177 = arith.addi %63#0, %c27 : index loc(#loc24)
      %178 = memref.load %62[%177, %63#1] : memref<?x?xf32, strided<[?, 1]>> loc(#loc24)
      %179 = vector.broadcast %178 : f32 to vector<64xf32> loc(#loc24)
      memref.prefetch %62[%173, %66], read, locality<3>, data : memref<?x?xf32, strided<[?, 1]>> loc(#loc24)
      %180 = vector.fma %68, %175, %arg38 : vector<64xf32> loc(#loc24)
      %181 = arith.addi %63#0, %c28 : index loc(#loc24)
      %182 = memref.load %62[%181, %63#1] : memref<?x?xf32, strided<[?, 1]>> loc(#loc24)
      %183 = vector.broadcast %182 : f32 to vector<64xf32> loc(#loc24)
      memref.prefetch %62[%177, %66], read, locality<3>, data : memref<?x?xf32, strided<[?, 1]>> loc(#loc24)
      %184 = vector.fma %68, %179, %arg39 : vector<64xf32> loc(#loc24)
      %185 = arith.addi %63#0, %c29 : index loc(#loc24)
      %186 = memref.load %62[%185, %63#1] : memref<?x?xf32, strided<[?, 1]>> loc(#loc24)
      %187 = vector.broadcast %186 : f32 to vector<64xf32> loc(#loc24)
      memref.prefetch %62[%181, %66], read, locality<3>, data : memref<?x?xf32, strided<[?, 1]>> loc(#loc24)
      %188 = vector.fma %68, %183, %arg40 : vector<64xf32> loc(#loc24)
      %189 = arith.addi %63#0, %c30 : index loc(#loc24)
      %190 = memref.load %62[%189, %63#1] : memref<?x?xf32, strided<[?, 1]>> loc(#loc24)
      %191 = vector.broadcast %190 : f32 to vector<64xf32> loc(#loc24)
      memref.prefetch %62[%185, %66], read, locality<3>, data : memref<?x?xf32, strided<[?, 1]>> loc(#loc24)
      %192 = vector.fma %68, %187, %arg41 : vector<64xf32> loc(#loc24)
      %193 = arith.addi %63#0, %c31 : index loc(#loc24)
      %194 = memref.load %62[%193, %63#1] : memref<?x?xf32, strided<[?, 1]>> loc(#loc24)
      %195 = vector.broadcast %194 : f32 to vector<64xf32> loc(#loc24)
      memref.prefetch %62[%189, %66], read, locality<3>, data : memref<?x?xf32, strided<[?, 1]>> loc(#loc24)
      %196 = vector.fma %68, %191, %arg42 : vector<64xf32> loc(#loc24)
      memref.prefetch %62[%193, %66], read, locality<3>, data : memref<?x?xf32, strided<[?, 1]>> loc(#loc24)
      %197 = vector.fma %68, %195, %arg43 : vector<64xf32> loc(#loc24)
      %198 = arith.addi %65#0, %c2 : index loc(#loc24)
      %199 = vector.load %64[%198, %65#1] : memref<?x?xf32, strided<[?, 1]>>, vector<64xf32> loc(#loc24)
      %200 = arith.addi %65#0, %c33 : index loc(#loc24)
      memref.prefetch %64[%200, %65#1], read, locality<1>, data : memref<?x?xf32, strided<[?, 1]>> loc(#loc24)
      %201 = arith.addi %63#1, %c1 : index loc(#loc24)
      %202 = memref.load %62[%63#0, %201] : memref<?x?xf32, strided<[?, 1]>> loc(#loc24)
      %203 = vector.broadcast %202 : f32 to vector<64xf32> loc(#loc24)
      %204 = memref.load %62[%73, %201] : memref<?x?xf32, strided<[?, 1]>> loc(#loc24)
      %205 = vector.broadcast %204 : f32 to vector<64xf32> loc(#loc24)
      %206 = vector.fma %70, %203, %76 : vector<64xf32> loc(#loc24)
      %207 = memref.load %62[%77, %201] : memref<?x?xf32, strided<[?, 1]>> loc(#loc24)
      %208 = vector.broadcast %207 : f32 to vector<64xf32> loc(#loc24)
      %209 = vector.fma %70, %205, %80 : vector<64xf32> loc(#loc24)
      %210 = memref.load %62[%81, %201] : memref<?x?xf32, strided<[?, 1]>> loc(#loc24)
      %211 = vector.broadcast %210 : f32 to vector<64xf32> loc(#loc24)
      %212 = vector.fma %70, %208, %84 : vector<64xf32> loc(#loc24)
      %213 = memref.load %62[%85, %201] : memref<?x?xf32, strided<[?, 1]>> loc(#loc24)
      %214 = vector.broadcast %213 : f32 to vector<64xf32> loc(#loc24)
      %215 = vector.fma %70, %211, %88 : vector<64xf32> loc(#loc24)
      %216 = memref.load %62[%89, %201] : memref<?x?xf32, strided<[?, 1]>> loc(#loc24)
      %217 = vector.broadcast %216 : f32 to vector<64xf32> loc(#loc24)
      %218 = vector.fma %70, %214, %92 : vector<64xf32> loc(#loc24)
      %219 = memref.load %62[%93, %201] : memref<?x?xf32, strided<[?, 1]>> loc(#loc24)
      %220 = vector.broadcast %219 : f32 to vector<64xf32> loc(#loc24)
      %221 = vector.fma %70, %217, %96 : vector<64xf32> loc(#loc24)
      %222 = memref.load %62[%97, %201] : memref<?x?xf32, strided<[?, 1]>> loc(#loc24)
      %223 = vector.broadcast %222 : f32 to vector<64xf32> loc(#loc24)
      %224 = vector.fma %70, %220, %100 : vector<64xf32> loc(#loc24)
      %225 = memref.load %62[%101, %201] : memref<?x?xf32, strided<[?, 1]>> loc(#loc24)
      %226 = vector.broadcast %225 : f32 to vector<64xf32> loc(#loc24)
      %227 = vector.fma %70, %223, %104 : vector<64xf32> loc(#loc24)
      %228 = memref.load %62[%105, %201] : memref<?x?xf32, strided<[?, 1]>> loc(#loc24)
      %229 = vector.broadcast %228 : f32 to vector<64xf32> loc(#loc24)
      %230 = vector.fma %70, %226, %108 : vector<64xf32> loc(#loc24)
      %231 = memref.load %62[%109, %201] : memref<?x?xf32, strided<[?, 1]>> loc(#loc24)
      %232 = vector.broadcast %231 : f32 to vector<64xf32> loc(#loc24)
      %233 = vector.fma %70, %229, %112 : vector<64xf32> loc(#loc24)
      %234 = memref.load %62[%113, %201] : memref<?x?xf32, strided<[?, 1]>> loc(#loc24)
      %235 = vector.broadcast %234 : f32 to vector<64xf32> loc(#loc24)
      %236 = vector.fma %70, %232, %116 : vector<64xf32> loc(#loc24)
      %237 = memref.load %62[%117, %201] : memref<?x?xf32, strided<[?, 1]>> loc(#loc24)
      %238 = vector.broadcast %237 : f32 to vector<64xf32> loc(#loc24)
      %239 = vector.fma %70, %235, %120 : vector<64xf32> loc(#loc24)
      %240 = memref.load %62[%121, %201] : memref<?x?xf32, strided<[?, 1]>> loc(#loc24)
      %241 = vector.broadcast %240 : f32 to vector<64xf32> loc(#loc24)
      %242 = vector.fma %70, %238, %124 : vector<64xf32> loc(#loc24)
      %243 = memref.load %62[%125, %201] : memref<?x?xf32, strided<[?, 1]>> loc(#loc24)
      %244 = vector.broadcast %243 : f32 to vector<64xf32> loc(#loc24)
      %245 = vector.fma %70, %241, %128 : vector<64xf32> loc(#loc24)
      %246 = memref.load %62[%129, %201] : memref<?x?xf32, strided<[?, 1]>> loc(#loc24)
      %247 = vector.broadcast %246 : f32 to vector<64xf32> loc(#loc24)
      %248 = vector.fma %70, %244, %132 : vector<64xf32> loc(#loc24)
      %249 = memref.load %62[%133, %201] : memref<?x?xf32, strided<[?, 1]>> loc(#loc24)
      %250 = vector.broadcast %249 : f32 to vector<64xf32> loc(#loc24)
      %251 = vector.fma %70, %247, %136 : vector<64xf32> loc(#loc24)
      %252 = memref.load %62[%137, %201] : memref<?x?xf32, strided<[?, 1]>> loc(#loc24)
      %253 = vector.broadcast %252 : f32 to vector<64xf32> loc(#loc24)
      %254 = vector.fma %70, %250, %140 : vector<64xf32> loc(#loc24)
      %255 = memref.load %62[%141, %201] : memref<?x?xf32, strided<[?, 1]>> loc(#loc24)
      %256 = vector.broadcast %255 : f32 to vector<64xf32> loc(#loc24)
      %257 = vector.fma %70, %253, %144 : vector<64xf32> loc(#loc24)
      %258 = memref.load %62[%145, %201] : memref<?x?xf32, strided<[?, 1]>> loc(#loc24)
      %259 = vector.broadcast %258 : f32 to vector<64xf32> loc(#loc24)
      %260 = vector.fma %70, %256, %148 : vector<64xf32> loc(#loc24)
      %261 = memref.load %62[%149, %201] : memref<?x?xf32, strided<[?, 1]>> loc(#loc24)
      %262 = vector.broadcast %261 : f32 to vector<64xf32> loc(#loc24)
      %263 = vector.fma %70, %259, %152 : vector<64xf32> loc(#loc24)
      %264 = memref.load %62[%153, %201] : memref<?x?xf32, strided<[?, 1]>> loc(#loc24)
      %265 = vector.broadcast %264 : f32 to vector<64xf32> loc(#loc24)
      %266 = vector.fma %70, %262, %156 : vector<64xf32> loc(#loc24)
      %267 = memref.load %62[%157, %201] : memref<?x?xf32, strided<[?, 1]>> loc(#loc24)
      %268 = vector.broadcast %267 : f32 to vector<64xf32> loc(#loc24)
      %269 = vector.fma %70, %265, %160 : vector<64xf32> loc(#loc24)
      %270 = memref.load %62[%161, %201] : memref<?x?xf32, strided<[?, 1]>> loc(#loc24)
      %271 = vector.broadcast %270 : f32 to vector<64xf32> loc(#loc24)
      %272 = vector.fma %70, %268, %164 : vector<64xf32> loc(#loc24)
      %273 = memref.load %62[%165, %201] : memref<?x?xf32, strided<[?, 1]>> loc(#loc24)
      %274 = vector.broadcast %273 : f32 to vector<64xf32> loc(#loc24)
      %275 = vector.fma %70, %271, %168 : vector<64xf32> loc(#loc24)
      %276 = memref.load %62[%169, %201] : memref<?x?xf32, strided<[?, 1]>> loc(#loc24)
      %277 = vector.broadcast %276 : f32 to vector<64xf32> loc(#loc24)
      %278 = vector.fma %70, %274, %172 : vector<64xf32> loc(#loc24)
      %279 = memref.load %62[%173, %201] : memref<?x?xf32, strided<[?, 1]>> loc(#loc24)
      %280 = vector.broadcast %279 : f32 to vector<64xf32> loc(#loc24)
      %281 = vector.fma %70, %277, %176 : vector<64xf32> loc(#loc24)
      %282 = memref.load %62[%177, %201] : memref<?x?xf32, strided<[?, 1]>> loc(#loc24)
      %283 = vector.broadcast %282 : f32 to vector<64xf32> loc(#loc24)
      %284 = vector.fma %70, %280, %180 : vector<64xf32> loc(#loc24)
      %285 = memref.load %62[%181, %201] : memref<?x?xf32, strided<[?, 1]>> loc(#loc24)
      %286 = vector.broadcast %285 : f32 to vector<64xf32> loc(#loc24)
      %287 = vector.fma %70, %283, %184 : vector<64xf32> loc(#loc24)
      %288 = memref.load %62[%185, %201] : memref<?x?xf32, strided<[?, 1]>> loc(#loc24)
      %289 = vector.broadcast %288 : f32 to vector<64xf32> loc(#loc24)
      %290 = vector.fma %70, %286, %188 : vector<64xf32> loc(#loc24)
      %291 = memref.load %62[%189, %201] : memref<?x?xf32, strided<[?, 1]>> loc(#loc24)
      %292 = vector.broadcast %291 : f32 to vector<64xf32> loc(#loc24)
      %293 = vector.fma %70, %289, %192 : vector<64xf32> loc(#loc24)
      %294 = memref.load %62[%193, %201] : memref<?x?xf32, strided<[?, 1]>> loc(#loc24)
      %295 = vector.broadcast %294 : f32 to vector<64xf32> loc(#loc24)
      %296 = vector.fma %70, %292, %196 : vector<64xf32> loc(#loc24)
      %297 = vector.fma %70, %295, %197 : vector<64xf32> loc(#loc24)
      %298 = arith.addi %65#0, %c3 : index loc(#loc24)
      %299 = vector.load %64[%298, %65#1] : memref<?x?xf32, strided<[?, 1]>>, vector<64xf32> loc(#loc24)
      %300 = arith.addi %65#0, %c34 : index loc(#loc24)
      memref.prefetch %64[%300, %65#1], read, locality<1>, data : memref<?x?xf32, strided<[?, 1]>> loc(#loc24)
      %301 = arith.addi %63#1, %c2 : index loc(#loc24)
      %302 = memref.load %62[%63#0, %301] : memref<?x?xf32, strided<[?, 1]>> loc(#loc24)
      %303 = vector.broadcast %302 : f32 to vector<64xf32> loc(#loc24)
      %304 = memref.load %62[%73, %301] : memref<?x?xf32, strided<[?, 1]>> loc(#loc24)
      %305 = vector.broadcast %304 : f32 to vector<64xf32> loc(#loc24)
      %306 = vector.fma %199, %303, %206 : vector<64xf32> loc(#loc24)
      %307 = memref.load %62[%77, %301] : memref<?x?xf32, strided<[?, 1]>> loc(#loc24)
      %308 = vector.broadcast %307 : f32 to vector<64xf32> loc(#loc24)
      %309 = vector.fma %199, %305, %209 : vector<64xf32> loc(#loc24)
      %310 = memref.load %62[%81, %301] : memref<?x?xf32, strided<[?, 1]>> loc(#loc24)
      %311 = vector.broadcast %310 : f32 to vector<64xf32> loc(#loc24)
      %312 = vector.fma %199, %308, %212 : vector<64xf32> loc(#loc24)
      %313 = memref.load %62[%85, %301] : memref<?x?xf32, strided<[?, 1]>> loc(#loc24)
      %314 = vector.broadcast %313 : f32 to vector<64xf32> loc(#loc24)
      %315 = vector.fma %199, %311, %215 : vector<64xf32> loc(#loc24)
      %316 = memref.load %62[%89, %301] : memref<?x?xf32, strided<[?, 1]>> loc(#loc24)
      %317 = vector.broadcast %316 : f32 to vector<64xf32> loc(#loc24)
      %318 = vector.fma %199, %314, %218 : vector<64xf32> loc(#loc24)
      %319 = memref.load %62[%93, %301] : memref<?x?xf32, strided<[?, 1]>> loc(#loc24)
      %320 = vector.broadcast %319 : f32 to vector<64xf32> loc(#loc24)
      %321 = vector.fma %199, %317, %221 : vector<64xf32> loc(#loc24)
      %322 = memref.load %62[%97, %301] : memref<?x?xf32, strided<[?, 1]>> loc(#loc24)
      %323 = vector.broadcast %322 : f32 to vector<64xf32> loc(#loc24)
      %324 = vector.fma %199, %320, %224 : vector<64xf32> loc(#loc24)
      %325 = memref.load %62[%101, %301] : memref<?x?xf32, strided<[?, 1]>> loc(#loc24)
      %326 = vector.broadcast %325 : f32 to vector<64xf32> loc(#loc24)
      %327 = vector.fma %199, %323, %227 : vector<64xf32> loc(#loc24)
      %328 = memref.load %62[%105, %301] : memref<?x?xf32, strided<[?, 1]>> loc(#loc24)
      %329 = vector.broadcast %328 : f32 to vector<64xf32> loc(#loc24)
      %330 = vector.fma %199, %326, %230 : vector<64xf32> loc(#loc24)
      %331 = memref.load %62[%109, %301] : memref<?x?xf32, strided<[?, 1]>> loc(#loc24)
      %332 = vector.broadcast %331 : f32 to vector<64xf32> loc(#loc24)
      %333 = vector.fma %199, %329, %233 : vector<64xf32> loc(#loc24)
      %334 = memref.load %62[%113, %301] : memref<?x?xf32, strided<[?, 1]>> loc(#loc24)
      %335 = vector.broadcast %334 : f32 to vector<64xf32> loc(#loc24)
      %336 = vector.fma %199, %332, %236 : vector<64xf32> loc(#loc24)
      %337 = memref.load %62[%117, %301] : memref<?x?xf32, strided<[?, 1]>> loc(#loc24)
      %338 = vector.broadcast %337 : f32 to vector<64xf32> loc(#loc24)
      %339 = vector.fma %199, %335, %239 : vector<64xf32> loc(#loc24)
      %340 = memref.load %62[%121, %301] : memref<?x?xf32, strided<[?, 1]>> loc(#loc24)
      %341 = vector.broadcast %340 : f32 to vector<64xf32> loc(#loc24)
      %342 = vector.fma %199, %338, %242 : vector<64xf32> loc(#loc24)
      %343 = memref.load %62[%125, %301] : memref<?x?xf32, strided<[?, 1]>> loc(#loc24)
      %344 = vector.broadcast %343 : f32 to vector<64xf32> loc(#loc24)
      %345 = vector.fma %199, %341, %245 : vector<64xf32> loc(#loc24)
      %346 = memref.load %62[%129, %301] : memref<?x?xf32, strided<[?, 1]>> loc(#loc24)
      %347 = vector.broadcast %346 : f32 to vector<64xf32> loc(#loc24)
      %348 = vector.fma %199, %344, %248 : vector<64xf32> loc(#loc24)
      %349 = memref.load %62[%133, %301] : memref<?x?xf32, strided<[?, 1]>> loc(#loc24)
      %350 = vector.broadcast %349 : f32 to vector<64xf32> loc(#loc24)
      %351 = vector.fma %199, %347, %251 : vector<64xf32> loc(#loc24)
      %352 = memref.load %62[%137, %301] : memref<?x?xf32, strided<[?, 1]>> loc(#loc24)
      %353 = vector.broadcast %352 : f32 to vector<64xf32> loc(#loc24)
      %354 = vector.fma %199, %350, %254 : vector<64xf32> loc(#loc24)
      %355 = memref.load %62[%141, %301] : memref<?x?xf32, strided<[?, 1]>> loc(#loc24)
      %356 = vector.broadcast %355 : f32 to vector<64xf32> loc(#loc24)
      %357 = vector.fma %199, %353, %257 : vector<64xf32> loc(#loc24)
      %358 = memref.load %62[%145, %301] : memref<?x?xf32, strided<[?, 1]>> loc(#loc24)
      %359 = vector.broadcast %358 : f32 to vector<64xf32> loc(#loc24)
      %360 = vector.fma %199, %356, %260 : vector<64xf32> loc(#loc24)
      %361 = memref.load %62[%149, %301] : memref<?x?xf32, strided<[?, 1]>> loc(#loc24)
      %362 = vector.broadcast %361 : f32 to vector<64xf32> loc(#loc24)
      %363 = vector.fma %199, %359, %263 : vector<64xf32> loc(#loc24)
      %364 = memref.load %62[%153, %301] : memref<?x?xf32, strided<[?, 1]>> loc(#loc24)
      %365 = vector.broadcast %364 : f32 to vector<64xf32> loc(#loc24)
      %366 = vector.fma %199, %362, %266 : vector<64xf32> loc(#loc24)
      %367 = memref.load %62[%157, %301] : memref<?x?xf32, strided<[?, 1]>> loc(#loc24)
      %368 = vector.broadcast %367 : f32 to vector<64xf32> loc(#loc24)
      %369 = vector.fma %199, %365, %269 : vector<64xf32> loc(#loc24)
      %370 = memref.load %62[%161, %301] : memref<?x?xf32, strided<[?, 1]>> loc(#loc24)
      %371 = vector.broadcast %370 : f32 to vector<64xf32> loc(#loc24)
      %372 = vector.fma %199, %368, %272 : vector<64xf32> loc(#loc24)
      %373 = memref.load %62[%165, %301] : memref<?x?xf32, strided<[?, 1]>> loc(#loc24)
      %374 = vector.broadcast %373 : f32 to vector<64xf32> loc(#loc24)
      %375 = vector.fma %199, %371, %275 : vector<64xf32> loc(#loc24)
      %376 = memref.load %62[%169, %301] : memref<?x?xf32, strided<[?, 1]>> loc(#loc24)
      %377 = vector.broadcast %376 : f32 to vector<64xf32> loc(#loc24)
      %378 = vector.fma %199, %374, %278 : vector<64xf32> loc(#loc24)
      %379 = memref.load %62[%173, %301] : memref<?x?xf32, strided<[?, 1]>> loc(#loc24)
      %380 = vector.broadcast %379 : f32 to vector<64xf32> loc(#loc24)
      %381 = vector.fma %199, %377, %281 : vector<64xf32> loc(#loc24)
      %382 = memref.load %62[%177, %301] : memref<?x?xf32, strided<[?, 1]>> loc(#loc24)
      %383 = vector.broadcast %382 : f32 to vector<64xf32> loc(#loc24)
      %384 = vector.fma %199, %380, %284 : vector<64xf32> loc(#loc24)
      %385 = memref.load %62[%181, %301] : memref<?x?xf32, strided<[?, 1]>> loc(#loc24)
      %386 = vector.broadcast %385 : f32 to vector<64xf32> loc(#loc24)
      %387 = vector.fma %199, %383, %287 : vector<64xf32> loc(#loc24)
      %388 = memref.load %62[%185, %301] : memref<?x?xf32, strided<[?, 1]>> loc(#loc24)
      %389 = vector.broadcast %388 : f32 to vector<64xf32> loc(#loc24)
      %390 = vector.fma %199, %386, %290 : vector<64xf32> loc(#loc24)
      %391 = memref.load %62[%189, %301] : memref<?x?xf32, strided<[?, 1]>> loc(#loc24)
      %392 = vector.broadcast %391 : f32 to vector<64xf32> loc(#loc24)
      %393 = vector.fma %199, %389, %293 : vector<64xf32> loc(#loc24)
      %394 = memref.load %62[%193, %301] : memref<?x?xf32, strided<[?, 1]>> loc(#loc24)
      %395 = vector.broadcast %394 : f32 to vector<64xf32> loc(#loc24)
      %396 = vector.fma %199, %392, %296 : vector<64xf32> loc(#loc24)
      %397 = vector.fma %199, %395, %297 : vector<64xf32> loc(#loc24)
      %398 = arith.addi %65#0, %c4 : index loc(#loc24)
      %399 = vector.load %64[%398, %65#1] : memref<?x?xf32, strided<[?, 1]>>, vector<64xf32> loc(#loc24)
      %400 = arith.addi %65#0, %c35 : index loc(#loc24)
      memref.prefetch %64[%400, %65#1], read, locality<1>, data : memref<?x?xf32, strided<[?, 1]>> loc(#loc24)
      %401 = arith.addi %63#1, %c3 : index loc(#loc24)
      %402 = memref.load %62[%63#0, %401] : memref<?x?xf32, strided<[?, 1]>> loc(#loc24)
      %403 = vector.broadcast %402 : f32 to vector<64xf32> loc(#loc24)
      %404 = memref.load %62[%73, %401] : memref<?x?xf32, strided<[?, 1]>> loc(#loc24)
      %405 = vector.broadcast %404 : f32 to vector<64xf32> loc(#loc24)
      %406 = vector.fma %299, %403, %306 : vector<64xf32> loc(#loc24)
      %407 = memref.load %62[%77, %401] : memref<?x?xf32, strided<[?, 1]>> loc(#loc24)
      %408 = vector.broadcast %407 : f32 to vector<64xf32> loc(#loc24)
      %409 = vector.fma %299, %405, %309 : vector<64xf32> loc(#loc24)
      %410 = memref.load %62[%81, %401] : memref<?x?xf32, strided<[?, 1]>> loc(#loc24)
      %411 = vector.broadcast %410 : f32 to vector<64xf32> loc(#loc24)
      %412 = vector.fma %299, %408, %312 : vector<64xf32> loc(#loc24)
      %413 = memref.load %62[%85, %401] : memref<?x?xf32, strided<[?, 1]>> loc(#loc24)
      %414 = vector.broadcast %413 : f32 to vector<64xf32> loc(#loc24)
      %415 = vector.fma %299, %411, %315 : vector<64xf32> loc(#loc24)
      %416 = memref.load %62[%89, %401] : memref<?x?xf32, strided<[?, 1]>> loc(#loc24)
      %417 = vector.broadcast %416 : f32 to vector<64xf32> loc(#loc24)
      %418 = vector.fma %299, %414, %318 : vector<64xf32> loc(#loc24)
      %419 = memref.load %62[%93, %401] : memref<?x?xf32, strided<[?, 1]>> loc(#loc24)
      %420 = vector.broadcast %419 : f32 to vector<64xf32> loc(#loc24)
      %421 = vector.fma %299, %417, %321 : vector<64xf32> loc(#loc24)
      %422 = memref.load %62[%97, %401] : memref<?x?xf32, strided<[?, 1]>> loc(#loc24)
      %423 = vector.broadcast %422 : f32 to vector<64xf32> loc(#loc24)
      %424 = vector.fma %299, %420, %324 : vector<64xf32> loc(#loc24)
      %425 = memref.load %62[%101, %401] : memref<?x?xf32, strided<[?, 1]>> loc(#loc24)
      %426 = vector.broadcast %425 : f32 to vector<64xf32> loc(#loc24)
      %427 = vector.fma %299, %423, %327 : vector<64xf32> loc(#loc24)
      %428 = memref.load %62[%105, %401] : memref<?x?xf32, strided<[?, 1]>> loc(#loc24)
      %429 = vector.broadcast %428 : f32 to vector<64xf32> loc(#loc24)
      %430 = vector.fma %299, %426, %330 : vector<64xf32> loc(#loc24)
      %431 = memref.load %62[%109, %401] : memref<?x?xf32, strided<[?, 1]>> loc(#loc24)
      %432 = vector.broadcast %431 : f32 to vector<64xf32> loc(#loc24)
      %433 = vector.fma %299, %429, %333 : vector<64xf32> loc(#loc24)
      %434 = memref.load %62[%113, %401] : memref<?x?xf32, strided<[?, 1]>> loc(#loc24)
      %435 = vector.broadcast %434 : f32 to vector<64xf32> loc(#loc24)
      %436 = vector.fma %299, %432, %336 : vector<64xf32> loc(#loc24)
      %437 = memref.load %62[%117, %401] : memref<?x?xf32, strided<[?, 1]>> loc(#loc24)
      %438 = vector.broadcast %437 : f32 to vector<64xf32> loc(#loc24)
      %439 = vector.fma %299, %435, %339 : vector<64xf32> loc(#loc24)
      %440 = memref.load %62[%121, %401] : memref<?x?xf32, strided<[?, 1]>> loc(#loc24)
      %441 = vector.broadcast %440 : f32 to vector<64xf32> loc(#loc24)
      %442 = vector.fma %299, %438, %342 : vector<64xf32> loc(#loc24)
      %443 = memref.load %62[%125, %401] : memref<?x?xf32, strided<[?, 1]>> loc(#loc24)
      %444 = vector.broadcast %443 : f32 to vector<64xf32> loc(#loc24)
      %445 = vector.fma %299, %441, %345 : vector<64xf32> loc(#loc24)
      %446 = memref.load %62[%129, %401] : memref<?x?xf32, strided<[?, 1]>> loc(#loc24)
      %447 = vector.broadcast %446 : f32 to vector<64xf32> loc(#loc24)
      %448 = vector.fma %299, %444, %348 : vector<64xf32> loc(#loc24)
      %449 = memref.load %62[%133, %401] : memref<?x?xf32, strided<[?, 1]>> loc(#loc24)
      %450 = vector.broadcast %449 : f32 to vector<64xf32> loc(#loc24)
      %451 = vector.fma %299, %447, %351 : vector<64xf32> loc(#loc24)
      %452 = memref.load %62[%137, %401] : memref<?x?xf32, strided<[?, 1]>> loc(#loc24)
      %453 = vector.broadcast %452 : f32 to vector<64xf32> loc(#loc24)
      %454 = vector.fma %299, %450, %354 : vector<64xf32> loc(#loc24)
      %455 = memref.load %62[%141, %401] : memref<?x?xf32, strided<[?, 1]>> loc(#loc24)
      %456 = vector.broadcast %455 : f32 to vector<64xf32> loc(#loc24)
      %457 = vector.fma %299, %453, %357 : vector<64xf32> loc(#loc24)
      %458 = memref.load %62[%145, %401] : memref<?x?xf32, strided<[?, 1]>> loc(#loc24)
      %459 = vector.broadcast %458 : f32 to vector<64xf32> loc(#loc24)
      %460 = vector.fma %299, %456, %360 : vector<64xf32> loc(#loc24)
      %461 = memref.load %62[%149, %401] : memref<?x?xf32, strided<[?, 1]>> loc(#loc24)
      %462 = vector.broadcast %461 : f32 to vector<64xf32> loc(#loc24)
      %463 = vector.fma %299, %459, %363 : vector<64xf32> loc(#loc24)
      %464 = memref.load %62[%153, %401] : memref<?x?xf32, strided<[?, 1]>> loc(#loc24)
      %465 = vector.broadcast %464 : f32 to vector<64xf32> loc(#loc24)
      %466 = vector.fma %299, %462, %366 : vector<64xf32> loc(#loc24)
      %467 = memref.load %62[%157, %401] : memref<?x?xf32, strided<[?, 1]>> loc(#loc24)
      %468 = vector.broadcast %467 : f32 to vector<64xf32> loc(#loc24)
      %469 = vector.fma %299, %465, %369 : vector<64xf32> loc(#loc24)
      %470 = memref.load %62[%161, %401] : memref<?x?xf32, strided<[?, 1]>> loc(#loc24)
      %471 = vector.broadcast %470 : f32 to vector<64xf32> loc(#loc24)
      %472 = vector.fma %299, %468, %372 : vector<64xf32> loc(#loc24)
      %473 = memref.load %62[%165, %401] : memref<?x?xf32, strided<[?, 1]>> loc(#loc24)
      %474 = vector.broadcast %473 : f32 to vector<64xf32> loc(#loc24)
      %475 = vector.fma %299, %471, %375 : vector<64xf32> loc(#loc24)
      %476 = memref.load %62[%169, %401] : memref<?x?xf32, strided<[?, 1]>> loc(#loc24)
      %477 = vector.broadcast %476 : f32 to vector<64xf32> loc(#loc24)
      %478 = vector.fma %299, %474, %378 : vector<64xf32> loc(#loc24)
      %479 = memref.load %62[%173, %401] : memref<?x?xf32, strided<[?, 1]>> loc(#loc24)
      %480 = vector.broadcast %479 : f32 to vector<64xf32> loc(#loc24)
      %481 = vector.fma %299, %477, %381 : vector<64xf32> loc(#loc24)
      %482 = memref.load %62[%177, %401] : memref<?x?xf32, strided<[?, 1]>> loc(#loc24)
      %483 = vector.broadcast %482 : f32 to vector<64xf32> loc(#loc24)
      %484 = vector.fma %299, %480, %384 : vector<64xf32> loc(#loc24)
      %485 = memref.load %62[%181, %401] : memref<?x?xf32, strided<[?, 1]>> loc(#loc24)
      %486 = vector.broadcast %485 : f32 to vector<64xf32> loc(#loc24)
      %487 = vector.fma %299, %483, %387 : vector<64xf32> loc(#loc24)
      %488 = memref.load %62[%185, %401] : memref<?x?xf32, strided<[?, 1]>> loc(#loc24)
      %489 = vector.broadcast %488 : f32 to vector<64xf32> loc(#loc24)
      %490 = vector.fma %299, %486, %390 : vector<64xf32> loc(#loc24)
      %491 = memref.load %62[%189, %401] : memref<?x?xf32, strided<[?, 1]>> loc(#loc24)
      %492 = vector.broadcast %491 : f32 to vector<64xf32> loc(#loc24)
      %493 = vector.fma %299, %489, %393 : vector<64xf32> loc(#loc24)
      %494 = memref.load %62[%193, %401] : memref<?x?xf32, strided<[?, 1]>> loc(#loc24)
      %495 = vector.broadcast %494 : f32 to vector<64xf32> loc(#loc24)
      %496 = vector.fma %299, %492, %396 : vector<64xf32> loc(#loc24)
      %497 = vector.fma %299, %495, %397 : vector<64xf32> loc(#loc24)
      %498 = arith.addi %65#0, %c5 : index loc(#loc24)
      %499 = vector.load %64[%498, %65#1] : memref<?x?xf32, strided<[?, 1]>>, vector<64xf32> loc(#loc24)
      %500 = arith.addi %65#0, %c36 : index loc(#loc24)
      memref.prefetch %64[%500, %65#1], read, locality<1>, data : memref<?x?xf32, strided<[?, 1]>> loc(#loc24)
      %501 = arith.addi %63#1, %c4 : index loc(#loc24)
      %502 = memref.load %62[%63#0, %501] : memref<?x?xf32, strided<[?, 1]>> loc(#loc24)
      %503 = vector.broadcast %502 : f32 to vector<64xf32> loc(#loc24)
      %504 = memref.load %62[%73, %501] : memref<?x?xf32, strided<[?, 1]>> loc(#loc24)
      %505 = vector.broadcast %504 : f32 to vector<64xf32> loc(#loc24)
      %506 = vector.fma %399, %503, %406 : vector<64xf32> loc(#loc24)
      %507 = memref.load %62[%77, %501] : memref<?x?xf32, strided<[?, 1]>> loc(#loc24)
      %508 = vector.broadcast %507 : f32 to vector<64xf32> loc(#loc24)
      %509 = vector.fma %399, %505, %409 : vector<64xf32> loc(#loc24)
      %510 = memref.load %62[%81, %501] : memref<?x?xf32, strided<[?, 1]>> loc(#loc24)
      %511 = vector.broadcast %510 : f32 to vector<64xf32> loc(#loc24)
      %512 = vector.fma %399, %508, %412 : vector<64xf32> loc(#loc24)
      %513 = memref.load %62[%85, %501] : memref<?x?xf32, strided<[?, 1]>> loc(#loc24)
      %514 = vector.broadcast %513 : f32 to vector<64xf32> loc(#loc24)
      %515 = vector.fma %399, %511, %415 : vector<64xf32> loc(#loc24)
      %516 = memref.load %62[%89, %501] : memref<?x?xf32, strided<[?, 1]>> loc(#loc24)
      %517 = vector.broadcast %516 : f32 to vector<64xf32> loc(#loc24)
      %518 = vector.fma %399, %514, %418 : vector<64xf32> loc(#loc24)
      %519 = memref.load %62[%93, %501] : memref<?x?xf32, strided<[?, 1]>> loc(#loc24)
      %520 = vector.broadcast %519 : f32 to vector<64xf32> loc(#loc24)
      %521 = vector.fma %399, %517, %421 : vector<64xf32> loc(#loc24)
      %522 = memref.load %62[%97, %501] : memref<?x?xf32, strided<[?, 1]>> loc(#loc24)
      %523 = vector.broadcast %522 : f32 to vector<64xf32> loc(#loc24)
      %524 = vector.fma %399, %520, %424 : vector<64xf32> loc(#loc24)
      %525 = memref.load %62[%101, %501] : memref<?x?xf32, strided<[?, 1]>> loc(#loc24)
      %526 = vector.broadcast %525 : f32 to vector<64xf32> loc(#loc24)
      %527 = vector.fma %399, %523, %427 : vector<64xf32> loc(#loc24)
      %528 = memref.load %62[%105, %501] : memref<?x?xf32, strided<[?, 1]>> loc(#loc24)
      %529 = vector.broadcast %528 : f32 to vector<64xf32> loc(#loc24)
      %530 = vector.fma %399, %526, %430 : vector<64xf32> loc(#loc24)
      %531 = memref.load %62[%109, %501] : memref<?x?xf32, strided<[?, 1]>> loc(#loc24)
      %532 = vector.broadcast %531 : f32 to vector<64xf32> loc(#loc24)
      %533 = vector.fma %399, %529, %433 : vector<64xf32> loc(#loc24)
      %534 = memref.load %62[%113, %501] : memref<?x?xf32, strided<[?, 1]>> loc(#loc24)
      %535 = vector.broadcast %534 : f32 to vector<64xf32> loc(#loc24)
      %536 = vector.fma %399, %532, %436 : vector<64xf32> loc(#loc24)
      %537 = memref.load %62[%117, %501] : memref<?x?xf32, strided<[?, 1]>> loc(#loc24)
      %538 = vector.broadcast %537 : f32 to vector<64xf32> loc(#loc24)
      %539 = vector.fma %399, %535, %439 : vector<64xf32> loc(#loc24)
      %540 = memref.load %62[%121, %501] : memref<?x?xf32, strided<[?, 1]>> loc(#loc24)
      %541 = vector.broadcast %540 : f32 to vector<64xf32> loc(#loc24)
      %542 = vector.fma %399, %538, %442 : vector<64xf32> loc(#loc24)
      %543 = memref.load %62[%125, %501] : memref<?x?xf32, strided<[?, 1]>> loc(#loc24)
      %544 = vector.broadcast %543 : f32 to vector<64xf32> loc(#loc24)
      %545 = vector.fma %399, %541, %445 : vector<64xf32> loc(#loc24)
      %546 = memref.load %62[%129, %501] : memref<?x?xf32, strided<[?, 1]>> loc(#loc24)
      %547 = vector.broadcast %546 : f32 to vector<64xf32> loc(#loc24)
      %548 = vector.fma %399, %544, %448 : vector<64xf32> loc(#loc24)
      %549 = memref.load %62[%133, %501] : memref<?x?xf32, strided<[?, 1]>> loc(#loc24)
      %550 = vector.broadcast %549 : f32 to vector<64xf32> loc(#loc24)
      %551 = vector.fma %399, %547, %451 : vector<64xf32> loc(#loc24)
      %552 = memref.load %62[%137, %501] : memref<?x?xf32, strided<[?, 1]>> loc(#loc24)
      %553 = vector.broadcast %552 : f32 to vector<64xf32> loc(#loc24)
      %554 = vector.fma %399, %550, %454 : vector<64xf32> loc(#loc24)
      %555 = memref.load %62[%141, %501] : memref<?x?xf32, strided<[?, 1]>> loc(#loc24)
      %556 = vector.broadcast %555 : f32 to vector<64xf32> loc(#loc24)
      %557 = vector.fma %399, %553, %457 : vector<64xf32> loc(#loc24)
      %558 = memref.load %62[%145, %501] : memref<?x?xf32, strided<[?, 1]>> loc(#loc24)
      %559 = vector.broadcast %558 : f32 to vector<64xf32> loc(#loc24)
      %560 = vector.fma %399, %556, %460 : vector<64xf32> loc(#loc24)
      %561 = memref.load %62[%149, %501] : memref<?x?xf32, strided<[?, 1]>> loc(#loc24)
      %562 = vector.broadcast %561 : f32 to vector<64xf32> loc(#loc24)
      %563 = vector.fma %399, %559, %463 : vector<64xf32> loc(#loc24)
      %564 = memref.load %62[%153, %501] : memref<?x?xf32, strided<[?, 1]>> loc(#loc24)
      %565 = vector.broadcast %564 : f32 to vector<64xf32> loc(#loc24)
      %566 = vector.fma %399, %562, %466 : vector<64xf32> loc(#loc24)
      %567 = memref.load %62[%157, %501] : memref<?x?xf32, strided<[?, 1]>> loc(#loc24)
      %568 = vector.broadcast %567 : f32 to vector<64xf32> loc(#loc24)
      %569 = vector.fma %399, %565, %469 : vector<64xf32> loc(#loc24)
      %570 = memref.load %62[%161, %501] : memref<?x?xf32, strided<[?, 1]>> loc(#loc24)
      %571 = vector.broadcast %570 : f32 to vector<64xf32> loc(#loc24)
      %572 = vector.fma %399, %568, %472 : vector<64xf32> loc(#loc24)
      %573 = memref.load %62[%165, %501] : memref<?x?xf32, strided<[?, 1]>> loc(#loc24)
      %574 = vector.broadcast %573 : f32 to vector<64xf32> loc(#loc24)
      %575 = vector.fma %399, %571, %475 : vector<64xf32> loc(#loc24)
      %576 = memref.load %62[%169, %501] : memref<?x?xf32, strided<[?, 1]>> loc(#loc24)
      %577 = vector.broadcast %576 : f32 to vector<64xf32> loc(#loc24)
      %578 = vector.fma %399, %574, %478 : vector<64xf32> loc(#loc24)
      %579 = memref.load %62[%173, %501] : memref<?x?xf32, strided<[?, 1]>> loc(#loc24)
      %580 = vector.broadcast %579 : f32 to vector<64xf32> loc(#loc24)
      %581 = vector.fma %399, %577, %481 : vector<64xf32> loc(#loc24)
      %582 = memref.load %62[%177, %501] : memref<?x?xf32, strided<[?, 1]>> loc(#loc24)
      %583 = vector.broadcast %582 : f32 to vector<64xf32> loc(#loc24)
      %584 = vector.fma %399, %580, %484 : vector<64xf32> loc(#loc24)
      %585 = memref.load %62[%181, %501] : memref<?x?xf32, strided<[?, 1]>> loc(#loc24)
      %586 = vector.broadcast %585 : f32 to vector<64xf32> loc(#loc24)
      %587 = vector.fma %399, %583, %487 : vector<64xf32> loc(#loc24)
      %588 = memref.load %62[%185, %501] : memref<?x?xf32, strided<[?, 1]>> loc(#loc24)
      %589 = vector.broadcast %588 : f32 to vector<64xf32> loc(#loc24)
      %590 = vector.fma %399, %586, %490 : vector<64xf32> loc(#loc24)
      %591 = memref.load %62[%189, %501] : memref<?x?xf32, strided<[?, 1]>> loc(#loc24)
      %592 = vector.broadcast %591 : f32 to vector<64xf32> loc(#loc24)
      %593 = vector.fma %399, %589, %493 : vector<64xf32> loc(#loc24)
      %594 = memref.load %62[%193, %501] : memref<?x?xf32, strided<[?, 1]>> loc(#loc24)
      %595 = vector.broadcast %594 : f32 to vector<64xf32> loc(#loc24)
      %596 = vector.fma %399, %592, %496 : vector<64xf32> loc(#loc24)
      %597 = vector.fma %399, %595, %497 : vector<64xf32> loc(#loc24)
      %598 = arith.addi %65#0, %c6 : index loc(#loc24)
      %599 = vector.load %64[%598, %65#1] : memref<?x?xf32, strided<[?, 1]>>, vector<64xf32> loc(#loc24)
      %600 = arith.addi %65#0, %c37 : index loc(#loc24)
      memref.prefetch %64[%600, %65#1], read, locality<1>, data : memref<?x?xf32, strided<[?, 1]>> loc(#loc24)
      %601 = arith.addi %63#1, %c5 : index loc(#loc24)
      %602 = memref.load %62[%63#0, %601] : memref<?x?xf32, strided<[?, 1]>> loc(#loc24)
      %603 = vector.broadcast %602 : f32 to vector<64xf32> loc(#loc24)
      %604 = memref.load %62[%73, %601] : memref<?x?xf32, strided<[?, 1]>> loc(#loc24)
      %605 = vector.broadcast %604 : f32 to vector<64xf32> loc(#loc24)
      %606 = vector.fma %499, %603, %506 : vector<64xf32> loc(#loc24)
      %607 = memref.load %62[%77, %601] : memref<?x?xf32, strided<[?, 1]>> loc(#loc24)
      %608 = vector.broadcast %607 : f32 to vector<64xf32> loc(#loc24)
      %609 = vector.fma %499, %605, %509 : vector<64xf32> loc(#loc24)
      %610 = memref.load %62[%81, %601] : memref<?x?xf32, strided<[?, 1]>> loc(#loc24)
      %611 = vector.broadcast %610 : f32 to vector<64xf32> loc(#loc24)
      %612 = vector.fma %499, %608, %512 : vector<64xf32> loc(#loc24)
      %613 = memref.load %62[%85, %601] : memref<?x?xf32, strided<[?, 1]>> loc(#loc24)
      %614 = vector.broadcast %613 : f32 to vector<64xf32> loc(#loc24)
      %615 = vector.fma %499, %611, %515 : vector<64xf32> loc(#loc24)
      %616 = memref.load %62[%89, %601] : memref<?x?xf32, strided<[?, 1]>> loc(#loc24)
      %617 = vector.broadcast %616 : f32 to vector<64xf32> loc(#loc24)
      %618 = vector.fma %499, %614, %518 : vector<64xf32> loc(#loc24)
      %619 = memref.load %62[%93, %601] : memref<?x?xf32, strided<[?, 1]>> loc(#loc24)
      %620 = vector.broadcast %619 : f32 to vector<64xf32> loc(#loc24)
      %621 = vector.fma %499, %617, %521 : vector<64xf32> loc(#loc24)
      %622 = memref.load %62[%97, %601] : memref<?x?xf32, strided<[?, 1]>> loc(#loc24)
      %623 = vector.broadcast %622 : f32 to vector<64xf32> loc(#loc24)
      %624 = vector.fma %499, %620, %524 : vector<64xf32> loc(#loc24)
      %625 = memref.load %62[%101, %601] : memref<?x?xf32, strided<[?, 1]>> loc(#loc24)
      %626 = vector.broadcast %625 : f32 to vector<64xf32> loc(#loc24)
      %627 = vector.fma %499, %623, %527 : vector<64xf32> loc(#loc24)
      %628 = memref.load %62[%105, %601] : memref<?x?xf32, strided<[?, 1]>> loc(#loc24)
      %629 = vector.broadcast %628 : f32 to vector<64xf32> loc(#loc24)
      %630 = vector.fma %499, %626, %530 : vector<64xf32> loc(#loc24)
      %631 = memref.load %62[%109, %601] : memref<?x?xf32, strided<[?, 1]>> loc(#loc24)
      %632 = vector.broadcast %631 : f32 to vector<64xf32> loc(#loc24)
      %633 = vector.fma %499, %629, %533 : vector<64xf32> loc(#loc24)
      %634 = memref.load %62[%113, %601] : memref<?x?xf32, strided<[?, 1]>> loc(#loc24)
      %635 = vector.broadcast %634 : f32 to vector<64xf32> loc(#loc24)
      %636 = vector.fma %499, %632, %536 : vector<64xf32> loc(#loc24)
      %637 = memref.load %62[%117, %601] : memref<?x?xf32, strided<[?, 1]>> loc(#loc24)
      %638 = vector.broadcast %637 : f32 to vector<64xf32> loc(#loc24)
      %639 = vector.fma %499, %635, %539 : vector<64xf32> loc(#loc24)
      %640 = memref.load %62[%121, %601] : memref<?x?xf32, strided<[?, 1]>> loc(#loc24)
      %641 = vector.broadcast %640 : f32 to vector<64xf32> loc(#loc24)
      %642 = vector.fma %499, %638, %542 : vector<64xf32> loc(#loc24)
      %643 = memref.load %62[%125, %601] : memref<?x?xf32, strided<[?, 1]>> loc(#loc24)
      %644 = vector.broadcast %643 : f32 to vector<64xf32> loc(#loc24)
      %645 = vector.fma %499, %641, %545 : vector<64xf32> loc(#loc24)
      %646 = memref.load %62[%129, %601] : memref<?x?xf32, strided<[?, 1]>> loc(#loc24)
      %647 = vector.broadcast %646 : f32 to vector<64xf32> loc(#loc24)
      %648 = vector.fma %499, %644, %548 : vector<64xf32> loc(#loc24)
      %649 = memref.load %62[%133, %601] : memref<?x?xf32, strided<[?, 1]>> loc(#loc24)
      %650 = vector.broadcast %649 : f32 to vector<64xf32> loc(#loc24)
      %651 = vector.fma %499, %647, %551 : vector<64xf32> loc(#loc24)
      %652 = memref.load %62[%137, %601] : memref<?x?xf32, strided<[?, 1]>> loc(#loc24)
      %653 = vector.broadcast %652 : f32 to vector<64xf32> loc(#loc24)
      %654 = vector.fma %499, %650, %554 : vector<64xf32> loc(#loc24)
      %655 = memref.load %62[%141, %601] : memref<?x?xf32, strided<[?, 1]>> loc(#loc24)
      %656 = vector.broadcast %655 : f32 to vector<64xf32> loc(#loc24)
      %657 = vector.fma %499, %653, %557 : vector<64xf32> loc(#loc24)
      %658 = memref.load %62[%145, %601] : memref<?x?xf32, strided<[?, 1]>> loc(#loc24)
      %659 = vector.broadcast %658 : f32 to vector<64xf32> loc(#loc24)
      %660 = vector.fma %499, %656, %560 : vector<64xf32> loc(#loc24)
      %661 = memref.load %62[%149, %601] : memref<?x?xf32, strided<[?, 1]>> loc(#loc24)
      %662 = vector.broadcast %661 : f32 to vector<64xf32> loc(#loc24)
      %663 = vector.fma %499, %659, %563 : vector<64xf32> loc(#loc24)
      %664 = memref.load %62[%153, %601] : memref<?x?xf32, strided<[?, 1]>> loc(#loc24)
      %665 = vector.broadcast %664 : f32 to vector<64xf32> loc(#loc24)
      %666 = vector.fma %499, %662, %566 : vector<64xf32> loc(#loc24)
      %667 = memref.load %62[%157, %601] : memref<?x?xf32, strided<[?, 1]>> loc(#loc24)
      %668 = vector.broadcast %667 : f32 to vector<64xf32> loc(#loc24)
      %669 = vector.fma %499, %665, %569 : vector<64xf32> loc(#loc24)
      %670 = memref.load %62[%161, %601] : memref<?x?xf32, strided<[?, 1]>> loc(#loc24)
      %671 = vector.broadcast %670 : f32 to vector<64xf32> loc(#loc24)
      %672 = vector.fma %499, %668, %572 : vector<64xf32> loc(#loc24)
      %673 = memref.load %62[%165, %601] : memref<?x?xf32, strided<[?, 1]>> loc(#loc24)
      %674 = vector.broadcast %673 : f32 to vector<64xf32> loc(#loc24)
      %675 = vector.fma %499, %671, %575 : vector<64xf32> loc(#loc24)
      %676 = memref.load %62[%169, %601] : memref<?x?xf32, strided<[?, 1]>> loc(#loc24)
      %677 = vector.broadcast %676 : f32 to vector<64xf32> loc(#loc24)
      %678 = vector.fma %499, %674, %578 : vector<64xf32> loc(#loc24)
      %679 = memref.load %62[%173, %601] : memref<?x?xf32, strided<[?, 1]>> loc(#loc24)
      %680 = vector.broadcast %679 : f32 to vector<64xf32> loc(#loc24)
      %681 = vector.fma %499, %677, %581 : vector<64xf32> loc(#loc24)
      %682 = memref.load %62[%177, %601] : memref<?x?xf32, strided<[?, 1]>> loc(#loc24)
      %683 = vector.broadcast %682 : f32 to vector<64xf32> loc(#loc24)
      %684 = vector.fma %499, %680, %584 : vector<64xf32> loc(#loc24)
      %685 = memref.load %62[%181, %601] : memref<?x?xf32, strided<[?, 1]>> loc(#loc24)
      %686 = vector.broadcast %685 : f32 to vector<64xf32> loc(#loc24)
      %687 = vector.fma %499, %683, %587 : vector<64xf32> loc(#loc24)
      %688 = memref.load %62[%185, %601] : memref<?x?xf32, strided<[?, 1]>> loc(#loc24)
      %689 = vector.broadcast %688 : f32 to vector<64xf32> loc(#loc24)
      %690 = vector.fma %499, %686, %590 : vector<64xf32> loc(#loc24)
      %691 = memref.load %62[%189, %601] : memref<?x?xf32, strided<[?, 1]>> loc(#loc24)
      %692 = vector.broadcast %691 : f32 to vector<64xf32> loc(#loc24)
      %693 = vector.fma %499, %689, %593 : vector<64xf32> loc(#loc24)
      %694 = memref.load %62[%193, %601] : memref<?x?xf32, strided<[?, 1]>> loc(#loc24)
      %695 = vector.broadcast %694 : f32 to vector<64xf32> loc(#loc24)
      %696 = vector.fma %499, %692, %596 : vector<64xf32> loc(#loc24)
      %697 = vector.fma %499, %695, %597 : vector<64xf32> loc(#loc24)
      %698 = arith.addi %65#0, %c7 : index loc(#loc24)
      %699 = vector.load %64[%698, %65#1] : memref<?x?xf32, strided<[?, 1]>>, vector<64xf32> loc(#loc24)
      %700 = arith.addi %65#0, %c38 : index loc(#loc24)
      memref.prefetch %64[%700, %65#1], read, locality<1>, data : memref<?x?xf32, strided<[?, 1]>> loc(#loc24)
      %701 = arith.addi %63#1, %c6 : index loc(#loc24)
      %702 = memref.load %62[%63#0, %701] : memref<?x?xf32, strided<[?, 1]>> loc(#loc24)
      %703 = vector.broadcast %702 : f32 to vector<64xf32> loc(#loc24)
      %704 = memref.load %62[%73, %701] : memref<?x?xf32, strided<[?, 1]>> loc(#loc24)
      %705 = vector.broadcast %704 : f32 to vector<64xf32> loc(#loc24)
      %706 = vector.fma %599, %703, %606 : vector<64xf32> loc(#loc24)
      %707 = memref.load %62[%77, %701] : memref<?x?xf32, strided<[?, 1]>> loc(#loc24)
      %708 = vector.broadcast %707 : f32 to vector<64xf32> loc(#loc24)
      %709 = vector.fma %599, %705, %609 : vector<64xf32> loc(#loc24)
      %710 = memref.load %62[%81, %701] : memref<?x?xf32, strided<[?, 1]>> loc(#loc24)
      %711 = vector.broadcast %710 : f32 to vector<64xf32> loc(#loc24)
      %712 = vector.fma %599, %708, %612 : vector<64xf32> loc(#loc24)
      %713 = memref.load %62[%85, %701] : memref<?x?xf32, strided<[?, 1]>> loc(#loc24)
      %714 = vector.broadcast %713 : f32 to vector<64xf32> loc(#loc24)
      %715 = vector.fma %599, %711, %615 : vector<64xf32> loc(#loc24)
      %716 = memref.load %62[%89, %701] : memref<?x?xf32, strided<[?, 1]>> loc(#loc24)
      %717 = vector.broadcast %716 : f32 to vector<64xf32> loc(#loc24)
      %718 = vector.fma %599, %714, %618 : vector<64xf32> loc(#loc24)
      %719 = memref.load %62[%93, %701] : memref<?x?xf32, strided<[?, 1]>> loc(#loc24)
      %720 = vector.broadcast %719 : f32 to vector<64xf32> loc(#loc24)
      %721 = vector.fma %599, %717, %621 : vector<64xf32> loc(#loc24)
      %722 = memref.load %62[%97, %701] : memref<?x?xf32, strided<[?, 1]>> loc(#loc24)
      %723 = vector.broadcast %722 : f32 to vector<64xf32> loc(#loc24)
      %724 = vector.fma %599, %720, %624 : vector<64xf32> loc(#loc24)
      %725 = memref.load %62[%101, %701] : memref<?x?xf32, strided<[?, 1]>> loc(#loc24)
      %726 = vector.broadcast %725 : f32 to vector<64xf32> loc(#loc24)
      %727 = vector.fma %599, %723, %627 : vector<64xf32> loc(#loc24)
      %728 = memref.load %62[%105, %701] : memref<?x?xf32, strided<[?, 1]>> loc(#loc24)
      %729 = vector.broadcast %728 : f32 to vector<64xf32> loc(#loc24)
      %730 = vector.fma %599, %726, %630 : vector<64xf32> loc(#loc24)
      %731 = memref.load %62[%109, %701] : memref<?x?xf32, strided<[?, 1]>> loc(#loc24)
      %732 = vector.broadcast %731 : f32 to vector<64xf32> loc(#loc24)
      %733 = vector.fma %599, %729, %633 : vector<64xf32> loc(#loc24)
      %734 = memref.load %62[%113, %701] : memref<?x?xf32, strided<[?, 1]>> loc(#loc24)
      %735 = vector.broadcast %734 : f32 to vector<64xf32> loc(#loc24)
      %736 = vector.fma %599, %732, %636 : vector<64xf32> loc(#loc24)
      %737 = memref.load %62[%117, %701] : memref<?x?xf32, strided<[?, 1]>> loc(#loc24)
      %738 = vector.broadcast %737 : f32 to vector<64xf32> loc(#loc24)
      %739 = vector.fma %599, %735, %639 : vector<64xf32> loc(#loc24)
      %740 = memref.load %62[%121, %701] : memref<?x?xf32, strided<[?, 1]>> loc(#loc24)
      %741 = vector.broadcast %740 : f32 to vector<64xf32> loc(#loc24)
      %742 = vector.fma %599, %738, %642 : vector<64xf32> loc(#loc24)
      %743 = memref.load %62[%125, %701] : memref<?x?xf32, strided<[?, 1]>> loc(#loc24)
      %744 = vector.broadcast %743 : f32 to vector<64xf32> loc(#loc24)
      %745 = vector.fma %599, %741, %645 : vector<64xf32> loc(#loc24)
      %746 = memref.load %62[%129, %701] : memref<?x?xf32, strided<[?, 1]>> loc(#loc24)
      %747 = vector.broadcast %746 : f32 to vector<64xf32> loc(#loc24)
      %748 = vector.fma %599, %744, %648 : vector<64xf32> loc(#loc24)
      %749 = memref.load %62[%133, %701] : memref<?x?xf32, strided<[?, 1]>> loc(#loc24)
      %750 = vector.broadcast %749 : f32 to vector<64xf32> loc(#loc24)
      %751 = vector.fma %599, %747, %651 : vector<64xf32> loc(#loc24)
      %752 = memref.load %62[%137, %701] : memref<?x?xf32, strided<[?, 1]>> loc(#loc24)
      %753 = vector.broadcast %752 : f32 to vector<64xf32> loc(#loc24)
      %754 = vector.fma %599, %750, %654 : vector<64xf32> loc(#loc24)
      %755 = memref.load %62[%141, %701] : memref<?x?xf32, strided<[?, 1]>> loc(#loc24)
      %756 = vector.broadcast %755 : f32 to vector<64xf32> loc(#loc24)
      %757 = vector.fma %599, %753, %657 : vector<64xf32> loc(#loc24)
      %758 = memref.load %62[%145, %701] : memref<?x?xf32, strided<[?, 1]>> loc(#loc24)
      %759 = vector.broadcast %758 : f32 to vector<64xf32> loc(#loc24)
      %760 = vector.fma %599, %756, %660 : vector<64xf32> loc(#loc24)
      %761 = memref.load %62[%149, %701] : memref<?x?xf32, strided<[?, 1]>> loc(#loc24)
      %762 = vector.broadcast %761 : f32 to vector<64xf32> loc(#loc24)
      %763 = vector.fma %599, %759, %663 : vector<64xf32> loc(#loc24)
      %764 = memref.load %62[%153, %701] : memref<?x?xf32, strided<[?, 1]>> loc(#loc24)
      %765 = vector.broadcast %764 : f32 to vector<64xf32> loc(#loc24)
      %766 = vector.fma %599, %762, %666 : vector<64xf32> loc(#loc24)
      %767 = memref.load %62[%157, %701] : memref<?x?xf32, strided<[?, 1]>> loc(#loc24)
      %768 = vector.broadcast %767 : f32 to vector<64xf32> loc(#loc24)
      %769 = vector.fma %599, %765, %669 : vector<64xf32> loc(#loc24)
      %770 = memref.load %62[%161, %701] : memref<?x?xf32, strided<[?, 1]>> loc(#loc24)
      %771 = vector.broadcast %770 : f32 to vector<64xf32> loc(#loc24)
      %772 = vector.fma %599, %768, %672 : vector<64xf32> loc(#loc24)
      %773 = memref.load %62[%165, %701] : memref<?x?xf32, strided<[?, 1]>> loc(#loc24)
      %774 = vector.broadcast %773 : f32 to vector<64xf32> loc(#loc24)
      %775 = vector.fma %599, %771, %675 : vector<64xf32> loc(#loc24)
      %776 = memref.load %62[%169, %701] : memref<?x?xf32, strided<[?, 1]>> loc(#loc24)
      %777 = vector.broadcast %776 : f32 to vector<64xf32> loc(#loc24)
      %778 = vector.fma %599, %774, %678 : vector<64xf32> loc(#loc24)
      %779 = memref.load %62[%173, %701] : memref<?x?xf32, strided<[?, 1]>> loc(#loc24)
      %780 = vector.broadcast %779 : f32 to vector<64xf32> loc(#loc24)
      %781 = vector.fma %599, %777, %681 : vector<64xf32> loc(#loc24)
      %782 = memref.load %62[%177, %701] : memref<?x?xf32, strided<[?, 1]>> loc(#loc24)
      %783 = vector.broadcast %782 : f32 to vector<64xf32> loc(#loc24)
      %784 = vector.fma %599, %780, %684 : vector<64xf32> loc(#loc24)
      %785 = memref.load %62[%181, %701] : memref<?x?xf32, strided<[?, 1]>> loc(#loc24)
      %786 = vector.broadcast %785 : f32 to vector<64xf32> loc(#loc24)
      %787 = vector.fma %599, %783, %687 : vector<64xf32> loc(#loc24)
      %788 = memref.load %62[%185, %701] : memref<?x?xf32, strided<[?, 1]>> loc(#loc24)
      %789 = vector.broadcast %788 : f32 to vector<64xf32> loc(#loc24)
      %790 = vector.fma %599, %786, %690 : vector<64xf32> loc(#loc24)
      %791 = memref.load %62[%189, %701] : memref<?x?xf32, strided<[?, 1]>> loc(#loc24)
      %792 = vector.broadcast %791 : f32 to vector<64xf32> loc(#loc24)
      %793 = vector.fma %599, %789, %693 : vector<64xf32> loc(#loc24)
      %794 = memref.load %62[%193, %701] : memref<?x?xf32, strided<[?, 1]>> loc(#loc24)
      %795 = vector.broadcast %794 : f32 to vector<64xf32> loc(#loc24)
      %796 = vector.fma %599, %792, %696 : vector<64xf32> loc(#loc24)
      %797 = vector.fma %599, %795, %697 : vector<64xf32> loc(#loc24)
      %798 = arith.addi %65#0, %c8 : index loc(#loc24)
      %799 = vector.load %64[%798, %65#1] : memref<?x?xf32, strided<[?, 1]>>, vector<64xf32> loc(#loc24)
      %800 = arith.addi %65#0, %c39 : index loc(#loc24)
      memref.prefetch %64[%800, %65#1], read, locality<1>, data : memref<?x?xf32, strided<[?, 1]>> loc(#loc24)
      %801 = arith.addi %63#1, %c7 : index loc(#loc24)
      %802 = memref.load %62[%63#0, %801] : memref<?x?xf32, strided<[?, 1]>> loc(#loc24)
      %803 = vector.broadcast %802 : f32 to vector<64xf32> loc(#loc24)
      %804 = memref.load %62[%73, %801] : memref<?x?xf32, strided<[?, 1]>> loc(#loc24)
      %805 = vector.broadcast %804 : f32 to vector<64xf32> loc(#loc24)
      %806 = vector.fma %699, %803, %706 : vector<64xf32> loc(#loc24)
      %807 = memref.load %62[%77, %801] : memref<?x?xf32, strided<[?, 1]>> loc(#loc24)
      %808 = vector.broadcast %807 : f32 to vector<64xf32> loc(#loc24)
      %809 = vector.fma %699, %805, %709 : vector<64xf32> loc(#loc24)
      %810 = memref.load %62[%81, %801] : memref<?x?xf32, strided<[?, 1]>> loc(#loc24)
      %811 = vector.broadcast %810 : f32 to vector<64xf32> loc(#loc24)
      %812 = vector.fma %699, %808, %712 : vector<64xf32> loc(#loc24)
      %813 = memref.load %62[%85, %801] : memref<?x?xf32, strided<[?, 1]>> loc(#loc24)
      %814 = vector.broadcast %813 : f32 to vector<64xf32> loc(#loc24)
      %815 = vector.fma %699, %811, %715 : vector<64xf32> loc(#loc24)
      %816 = memref.load %62[%89, %801] : memref<?x?xf32, strided<[?, 1]>> loc(#loc24)
      %817 = vector.broadcast %816 : f32 to vector<64xf32> loc(#loc24)
      %818 = vector.fma %699, %814, %718 : vector<64xf32> loc(#loc24)
      %819 = memref.load %62[%93, %801] : memref<?x?xf32, strided<[?, 1]>> loc(#loc24)
      %820 = vector.broadcast %819 : f32 to vector<64xf32> loc(#loc24)
      %821 = vector.fma %699, %817, %721 : vector<64xf32> loc(#loc24)
      %822 = memref.load %62[%97, %801] : memref<?x?xf32, strided<[?, 1]>> loc(#loc24)
      %823 = vector.broadcast %822 : f32 to vector<64xf32> loc(#loc24)
      %824 = vector.fma %699, %820, %724 : vector<64xf32> loc(#loc24)
      %825 = memref.load %62[%101, %801] : memref<?x?xf32, strided<[?, 1]>> loc(#loc24)
      %826 = vector.broadcast %825 : f32 to vector<64xf32> loc(#loc24)
      %827 = vector.fma %699, %823, %727 : vector<64xf32> loc(#loc24)
      %828 = memref.load %62[%105, %801] : memref<?x?xf32, strided<[?, 1]>> loc(#loc24)
      %829 = vector.broadcast %828 : f32 to vector<64xf32> loc(#loc24)
      %830 = vector.fma %699, %826, %730 : vector<64xf32> loc(#loc24)
      %831 = memref.load %62[%109, %801] : memref<?x?xf32, strided<[?, 1]>> loc(#loc24)
      %832 = vector.broadcast %831 : f32 to vector<64xf32> loc(#loc24)
      %833 = vector.fma %699, %829, %733 : vector<64xf32> loc(#loc24)
      %834 = memref.load %62[%113, %801] : memref<?x?xf32, strided<[?, 1]>> loc(#loc24)
      %835 = vector.broadcast %834 : f32 to vector<64xf32> loc(#loc24)
      %836 = vector.fma %699, %832, %736 : vector<64xf32> loc(#loc24)
      %837 = memref.load %62[%117, %801] : memref<?x?xf32, strided<[?, 1]>> loc(#loc24)
      %838 = vector.broadcast %837 : f32 to vector<64xf32> loc(#loc24)
      %839 = vector.fma %699, %835, %739 : vector<64xf32> loc(#loc24)
      %840 = memref.load %62[%121, %801] : memref<?x?xf32, strided<[?, 1]>> loc(#loc24)
      %841 = vector.broadcast %840 : f32 to vector<64xf32> loc(#loc24)
      %842 = vector.fma %699, %838, %742 : vector<64xf32> loc(#loc24)
      %843 = memref.load %62[%125, %801] : memref<?x?xf32, strided<[?, 1]>> loc(#loc24)
      %844 = vector.broadcast %843 : f32 to vector<64xf32> loc(#loc24)
      %845 = vector.fma %699, %841, %745 : vector<64xf32> loc(#loc24)
      %846 = memref.load %62[%129, %801] : memref<?x?xf32, strided<[?, 1]>> loc(#loc24)
      %847 = vector.broadcast %846 : f32 to vector<64xf32> loc(#loc24)
      %848 = vector.fma %699, %844, %748 : vector<64xf32> loc(#loc24)
      %849 = memref.load %62[%133, %801] : memref<?x?xf32, strided<[?, 1]>> loc(#loc24)
      %850 = vector.broadcast %849 : f32 to vector<64xf32> loc(#loc24)
      %851 = vector.fma %699, %847, %751 : vector<64xf32> loc(#loc24)
      %852 = memref.load %62[%137, %801] : memref<?x?xf32, strided<[?, 1]>> loc(#loc24)
      %853 = vector.broadcast %852 : f32 to vector<64xf32> loc(#loc24)
      %854 = vector.fma %699, %850, %754 : vector<64xf32> loc(#loc24)
      %855 = memref.load %62[%141, %801] : memref<?x?xf32, strided<[?, 1]>> loc(#loc24)
      %856 = vector.broadcast %855 : f32 to vector<64xf32> loc(#loc24)
      %857 = vector.fma %699, %853, %757 : vector<64xf32> loc(#loc24)
      %858 = memref.load %62[%145, %801] : memref<?x?xf32, strided<[?, 1]>> loc(#loc24)
      %859 = vector.broadcast %858 : f32 to vector<64xf32> loc(#loc24)
      %860 = vector.fma %699, %856, %760 : vector<64xf32> loc(#loc24)
      %861 = memref.load %62[%149, %801] : memref<?x?xf32, strided<[?, 1]>> loc(#loc24)
      %862 = vector.broadcast %861 : f32 to vector<64xf32> loc(#loc24)
      %863 = vector.fma %699, %859, %763 : vector<64xf32> loc(#loc24)
      %864 = memref.load %62[%153, %801] : memref<?x?xf32, strided<[?, 1]>> loc(#loc24)
      %865 = vector.broadcast %864 : f32 to vector<64xf32> loc(#loc24)
      %866 = vector.fma %699, %862, %766 : vector<64xf32> loc(#loc24)
      %867 = memref.load %62[%157, %801] : memref<?x?xf32, strided<[?, 1]>> loc(#loc24)
      %868 = vector.broadcast %867 : f32 to vector<64xf32> loc(#loc24)
      %869 = vector.fma %699, %865, %769 : vector<64xf32> loc(#loc24)
      %870 = memref.load %62[%161, %801] : memref<?x?xf32, strided<[?, 1]>> loc(#loc24)
      %871 = vector.broadcast %870 : f32 to vector<64xf32> loc(#loc24)
      %872 = vector.fma %699, %868, %772 : vector<64xf32> loc(#loc24)
      %873 = memref.load %62[%165, %801] : memref<?x?xf32, strided<[?, 1]>> loc(#loc24)
      %874 = vector.broadcast %873 : f32 to vector<64xf32> loc(#loc24)
      %875 = vector.fma %699, %871, %775 : vector<64xf32> loc(#loc24)
      %876 = memref.load %62[%169, %801] : memref<?x?xf32, strided<[?, 1]>> loc(#loc24)
      %877 = vector.broadcast %876 : f32 to vector<64xf32> loc(#loc24)
      %878 = vector.fma %699, %874, %778 : vector<64xf32> loc(#loc24)
      %879 = memref.load %62[%173, %801] : memref<?x?xf32, strided<[?, 1]>> loc(#loc24)
      %880 = vector.broadcast %879 : f32 to vector<64xf32> loc(#loc24)
      %881 = vector.fma %699, %877, %781 : vector<64xf32> loc(#loc24)
      %882 = memref.load %62[%177, %801] : memref<?x?xf32, strided<[?, 1]>> loc(#loc24)
      %883 = vector.broadcast %882 : f32 to vector<64xf32> loc(#loc24)
      %884 = vector.fma %699, %880, %784 : vector<64xf32> loc(#loc24)
      %885 = memref.load %62[%181, %801] : memref<?x?xf32, strided<[?, 1]>> loc(#loc24)
      %886 = vector.broadcast %885 : f32 to vector<64xf32> loc(#loc24)
      %887 = vector.fma %699, %883, %787 : vector<64xf32> loc(#loc24)
      %888 = memref.load %62[%185, %801] : memref<?x?xf32, strided<[?, 1]>> loc(#loc24)
      %889 = vector.broadcast %888 : f32 to vector<64xf32> loc(#loc24)
      %890 = vector.fma %699, %886, %790 : vector<64xf32> loc(#loc24)
      %891 = memref.load %62[%189, %801] : memref<?x?xf32, strided<[?, 1]>> loc(#loc24)
      %892 = vector.broadcast %891 : f32 to vector<64xf32> loc(#loc24)
      %893 = vector.fma %699, %889, %793 : vector<64xf32> loc(#loc24)
      %894 = memref.load %62[%193, %801] : memref<?x?xf32, strided<[?, 1]>> loc(#loc24)
      %895 = vector.broadcast %894 : f32 to vector<64xf32> loc(#loc24)
      %896 = vector.fma %699, %892, %796 : vector<64xf32> loc(#loc24)
      %897 = vector.fma %699, %895, %797 : vector<64xf32> loc(#loc24)
      %898 = arith.addi %65#0, %c9 : index loc(#loc24)
      %899 = vector.load %64[%898, %65#1] : memref<?x?xf32, strided<[?, 1]>>, vector<64xf32> loc(#loc24)
      %900 = arith.addi %65#0, %c40 : index loc(#loc24)
      memref.prefetch %64[%900, %65#1], read, locality<1>, data : memref<?x?xf32, strided<[?, 1]>> loc(#loc24)
      %901 = arith.addi %63#1, %c8 : index loc(#loc24)
      %902 = memref.load %62[%63#0, %901] : memref<?x?xf32, strided<[?, 1]>> loc(#loc24)
      %903 = vector.broadcast %902 : f32 to vector<64xf32> loc(#loc24)
      %904 = memref.load %62[%73, %901] : memref<?x?xf32, strided<[?, 1]>> loc(#loc24)
      %905 = vector.broadcast %904 : f32 to vector<64xf32> loc(#loc24)
      %906 = arith.addi %63#1, %c40 : index loc(#loc24)
      memref.prefetch %62[%63#0, %906], read, locality<3>, data : memref<?x?xf32, strided<[?, 1]>> loc(#loc24)
      %907 = vector.fma %799, %903, %806 : vector<64xf32> loc(#loc24)
      %908 = memref.load %62[%77, %901] : memref<?x?xf32, strided<[?, 1]>> loc(#loc24)
      %909 = vector.broadcast %908 : f32 to vector<64xf32> loc(#loc24)
      memref.prefetch %62[%73, %906], read, locality<3>, data : memref<?x?xf32, strided<[?, 1]>> loc(#loc24)
      %910 = vector.fma %799, %905, %809 : vector<64xf32> loc(#loc24)
      %911 = memref.load %62[%81, %901] : memref<?x?xf32, strided<[?, 1]>> loc(#loc24)
      %912 = vector.broadcast %911 : f32 to vector<64xf32> loc(#loc24)
      memref.prefetch %62[%77, %906], read, locality<3>, data : memref<?x?xf32, strided<[?, 1]>> loc(#loc24)
      %913 = vector.fma %799, %909, %812 : vector<64xf32> loc(#loc24)
      %914 = memref.load %62[%85, %901] : memref<?x?xf32, strided<[?, 1]>> loc(#loc24)
      %915 = vector.broadcast %914 : f32 to vector<64xf32> loc(#loc24)
      memref.prefetch %62[%81, %906], read, locality<3>, data : memref<?x?xf32, strided<[?, 1]>> loc(#loc24)
      %916 = vector.fma %799, %912, %815 : vector<64xf32> loc(#loc24)
      %917 = memref.load %62[%89, %901] : memref<?x?xf32, strided<[?, 1]>> loc(#loc24)
      %918 = vector.broadcast %917 : f32 to vector<64xf32> loc(#loc24)
      memref.prefetch %62[%85, %906], read, locality<3>, data : memref<?x?xf32, strided<[?, 1]>> loc(#loc24)
      %919 = vector.fma %799, %915, %818 : vector<64xf32> loc(#loc24)
      %920 = memref.load %62[%93, %901] : memref<?x?xf32, strided<[?, 1]>> loc(#loc24)
      %921 = vector.broadcast %920 : f32 to vector<64xf32> loc(#loc24)
      memref.prefetch %62[%89, %906], read, locality<3>, data : memref<?x?xf32, strided<[?, 1]>> loc(#loc24)
      %922 = vector.fma %799, %918, %821 : vector<64xf32> loc(#loc24)
      %923 = memref.load %62[%97, %901] : memref<?x?xf32, strided<[?, 1]>> loc(#loc24)
      %924 = vector.broadcast %923 : f32 to vector<64xf32> loc(#loc24)
      memref.prefetch %62[%93, %906], read, locality<3>, data : memref<?x?xf32, strided<[?, 1]>> loc(#loc24)
      %925 = vector.fma %799, %921, %824 : vector<64xf32> loc(#loc24)
      %926 = memref.load %62[%101, %901] : memref<?x?xf32, strided<[?, 1]>> loc(#loc24)
      %927 = vector.broadcast %926 : f32 to vector<64xf32> loc(#loc24)
      memref.prefetch %62[%97, %906], read, locality<3>, data : memref<?x?xf32, strided<[?, 1]>> loc(#loc24)
      %928 = vector.fma %799, %924, %827 : vector<64xf32> loc(#loc24)
      %929 = memref.load %62[%105, %901] : memref<?x?xf32, strided<[?, 1]>> loc(#loc24)
      %930 = vector.broadcast %929 : f32 to vector<64xf32> loc(#loc24)
      memref.prefetch %62[%101, %906], read, locality<3>, data : memref<?x?xf32, strided<[?, 1]>> loc(#loc24)
      %931 = vector.fma %799, %927, %830 : vector<64xf32> loc(#loc24)
      %932 = memref.load %62[%109, %901] : memref<?x?xf32, strided<[?, 1]>> loc(#loc24)
      %933 = vector.broadcast %932 : f32 to vector<64xf32> loc(#loc24)
      memref.prefetch %62[%105, %906], read, locality<3>, data : memref<?x?xf32, strided<[?, 1]>> loc(#loc24)
      %934 = vector.fma %799, %930, %833 : vector<64xf32> loc(#loc24)
      %935 = memref.load %62[%113, %901] : memref<?x?xf32, strided<[?, 1]>> loc(#loc24)
      %936 = vector.broadcast %935 : f32 to vector<64xf32> loc(#loc24)
      memref.prefetch %62[%109, %906], read, locality<3>, data : memref<?x?xf32, strided<[?, 1]>> loc(#loc24)
      %937 = vector.fma %799, %933, %836 : vector<64xf32> loc(#loc24)
      %938 = memref.load %62[%117, %901] : memref<?x?xf32, strided<[?, 1]>> loc(#loc24)
      %939 = vector.broadcast %938 : f32 to vector<64xf32> loc(#loc24)
      memref.prefetch %62[%113, %906], read, locality<3>, data : memref<?x?xf32, strided<[?, 1]>> loc(#loc24)
      %940 = vector.fma %799, %936, %839 : vector<64xf32> loc(#loc24)
      %941 = memref.load %62[%121, %901] : memref<?x?xf32, strided<[?, 1]>> loc(#loc24)
      %942 = vector.broadcast %941 : f32 to vector<64xf32> loc(#loc24)
      memref.prefetch %62[%117, %906], read, locality<3>, data : memref<?x?xf32, strided<[?, 1]>> loc(#loc24)
      %943 = vector.fma %799, %939, %842 : vector<64xf32> loc(#loc24)
      %944 = memref.load %62[%125, %901] : memref<?x?xf32, strided<[?, 1]>> loc(#loc24)
      %945 = vector.broadcast %944 : f32 to vector<64xf32> loc(#loc24)
      memref.prefetch %62[%121, %906], read, locality<3>, data : memref<?x?xf32, strided<[?, 1]>> loc(#loc24)
      %946 = vector.fma %799, %942, %845 : vector<64xf32> loc(#loc24)
      %947 = memref.load %62[%129, %901] : memref<?x?xf32, strided<[?, 1]>> loc(#loc24)
      %948 = vector.broadcast %947 : f32 to vector<64xf32> loc(#loc24)
      memref.prefetch %62[%125, %906], read, locality<3>, data : memref<?x?xf32, strided<[?, 1]>> loc(#loc24)
      %949 = vector.fma %799, %945, %848 : vector<64xf32> loc(#loc24)
      %950 = memref.load %62[%133, %901] : memref<?x?xf32, strided<[?, 1]>> loc(#loc24)
      %951 = vector.broadcast %950 : f32 to vector<64xf32> loc(#loc24)
      memref.prefetch %62[%129, %906], read, locality<3>, data : memref<?x?xf32, strided<[?, 1]>> loc(#loc24)
      %952 = vector.fma %799, %948, %851 : vector<64xf32> loc(#loc24)
      %953 = memref.load %62[%137, %901] : memref<?x?xf32, strided<[?, 1]>> loc(#loc24)
      %954 = vector.broadcast %953 : f32 to vector<64xf32> loc(#loc24)
      memref.prefetch %62[%133, %906], read, locality<3>, data : memref<?x?xf32, strided<[?, 1]>> loc(#loc24)
      %955 = vector.fma %799, %951, %854 : vector<64xf32> loc(#loc24)
      %956 = memref.load %62[%141, %901] : memref<?x?xf32, strided<[?, 1]>> loc(#loc24)
      %957 = vector.broadcast %956 : f32 to vector<64xf32> loc(#loc24)
      memref.prefetch %62[%137, %906], read, locality<3>, data : memref<?x?xf32, strided<[?, 1]>> loc(#loc24)
      %958 = vector.fma %799, %954, %857 : vector<64xf32> loc(#loc24)
      %959 = memref.load %62[%145, %901] : memref<?x?xf32, strided<[?, 1]>> loc(#loc24)
      %960 = vector.broadcast %959 : f32 to vector<64xf32> loc(#loc24)
      memref.prefetch %62[%141, %906], read, locality<3>, data : memref<?x?xf32, strided<[?, 1]>> loc(#loc24)
      %961 = vector.fma %799, %957, %860 : vector<64xf32> loc(#loc24)
      %962 = memref.load %62[%149, %901] : memref<?x?xf32, strided<[?, 1]>> loc(#loc24)
      %963 = vector.broadcast %962 : f32 to vector<64xf32> loc(#loc24)
      memref.prefetch %62[%145, %906], read, locality<3>, data : memref<?x?xf32, strided<[?, 1]>> loc(#loc24)
      %964 = vector.fma %799, %960, %863 : vector<64xf32> loc(#loc24)
      %965 = memref.load %62[%153, %901] : memref<?x?xf32, strided<[?, 1]>> loc(#loc24)
      %966 = vector.broadcast %965 : f32 to vector<64xf32> loc(#loc24)
      memref.prefetch %62[%149, %906], read, locality<3>, data : memref<?x?xf32, strided<[?, 1]>> loc(#loc24)
      %967 = vector.fma %799, %963, %866 : vector<64xf32> loc(#loc24)
      %968 = memref.load %62[%157, %901] : memref<?x?xf32, strided<[?, 1]>> loc(#loc24)
      %969 = vector.broadcast %968 : f32 to vector<64xf32> loc(#loc24)
      memref.prefetch %62[%153, %906], read, locality<3>, data : memref<?x?xf32, strided<[?, 1]>> loc(#loc24)
      %970 = vector.fma %799, %966, %869 : vector<64xf32> loc(#loc24)
      %971 = memref.load %62[%161, %901] : memref<?x?xf32, strided<[?, 1]>> loc(#loc24)
      %972 = vector.broadcast %971 : f32 to vector<64xf32> loc(#loc24)
      memref.prefetch %62[%157, %906], read, locality<3>, data : memref<?x?xf32, strided<[?, 1]>> loc(#loc24)
      %973 = vector.fma %799, %969, %872 : vector<64xf32> loc(#loc24)
      %974 = memref.load %62[%165, %901] : memref<?x?xf32, strided<[?, 1]>> loc(#loc24)
      %975 = vector.broadcast %974 : f32 to vector<64xf32> loc(#loc24)
      memref.prefetch %62[%161, %906], read, locality<3>, data : memref<?x?xf32, strided<[?, 1]>> loc(#loc24)
      %976 = vector.fma %799, %972, %875 : vector<64xf32> loc(#loc24)
      %977 = memref.load %62[%169, %901] : memref<?x?xf32, strided<[?, 1]>> loc(#loc24)
      %978 = vector.broadcast %977 : f32 to vector<64xf32> loc(#loc24)
      memref.prefetch %62[%165, %906], read, locality<3>, data : memref<?x?xf32, strided<[?, 1]>> loc(#loc24)
      %979 = vector.fma %799, %975, %878 : vector<64xf32> loc(#loc24)
      %980 = memref.load %62[%173, %901] : memref<?x?xf32, strided<[?, 1]>> loc(#loc24)
      %981 = vector.broadcast %980 : f32 to vector<64xf32> loc(#loc24)
      memref.prefetch %62[%169, %906], read, locality<3>, data : memref<?x?xf32, strided<[?, 1]>> loc(#loc24)
      %982 = vector.fma %799, %978, %881 : vector<64xf32> loc(#loc24)
      %983 = memref.load %62[%177, %901] : memref<?x?xf32, strided<[?, 1]>> loc(#loc24)
      %984 = vector.broadcast %983 : f32 to vector<64xf32> loc(#loc24)
      memref.prefetch %62[%173, %906], read, locality<3>, data : memref<?x?xf32, strided<[?, 1]>> loc(#loc24)
      %985 = vector.fma %799, %981, %884 : vector<64xf32> loc(#loc24)
      %986 = memref.load %62[%181, %901] : memref<?x?xf32, strided<[?, 1]>> loc(#loc24)
      %987 = vector.broadcast %986 : f32 to vector<64xf32> loc(#loc24)
      memref.prefetch %62[%177, %906], read, locality<3>, data : memref<?x?xf32, strided<[?, 1]>> loc(#loc24)
      %988 = vector.fma %799, %984, %887 : vector<64xf32> loc(#loc24)
      %989 = memref.load %62[%185, %901] : memref<?x?xf32, strided<[?, 1]>> loc(#loc24)
      %990 = vector.broadcast %989 : f32 to vector<64xf32> loc(#loc24)
      memref.prefetch %62[%181, %906], read, locality<3>, data : memref<?x?xf32, strided<[?, 1]>> loc(#loc24)
      %991 = vector.fma %799, %987, %890 : vector<64xf32> loc(#loc24)
      %992 = memref.load %62[%189, %901] : memref<?x?xf32, strided<[?, 1]>> loc(#loc24)
      %993 = vector.broadcast %992 : f32 to vector<64xf32> loc(#loc24)
      memref.prefetch %62[%185, %906], read, locality<3>, data : memref<?x?xf32, strided<[?, 1]>> loc(#loc24)
      %994 = vector.fma %799, %990, %893 : vector<64xf32> loc(#loc24)
      %995 = memref.load %62[%193, %901] : memref<?x?xf32, strided<[?, 1]>> loc(#loc24)
      %996 = vector.broadcast %995 : f32 to vector<64xf32> loc(#loc24)
      memref.prefetch %62[%189, %906], read, locality<3>, data : memref<?x?xf32, strided<[?, 1]>> loc(#loc24)
      %997 = vector.fma %799, %993, %896 : vector<64xf32> loc(#loc24)
      memref.prefetch %62[%193, %906], read, locality<3>, data : memref<?x?xf32, strided<[?, 1]>> loc(#loc24)
      %998 = vector.fma %799, %996, %897 : vector<64xf32> loc(#loc24)
      %999 = arith.addi %65#0, %c10 : index loc(#loc24)
      %1000 = vector.load %64[%999, %65#1] : memref<?x?xf32, strided<[?, 1]>>, vector<64xf32> loc(#loc24)
      %1001 = arith.addi %65#0, %c41 : index loc(#loc24)
      memref.prefetch %64[%1001, %65#1], read, locality<1>, data : memref<?x?xf32, strided<[?, 1]>> loc(#loc24)
      %1002 = arith.addi %63#1, %c9 : index loc(#loc24)
      %1003 = memref.load %62[%63#0, %1002] : memref<?x?xf32, strided<[?, 1]>> loc(#loc24)
      %1004 = vector.broadcast %1003 : f32 to vector<64xf32> loc(#loc24)
      %1005 = memref.load %62[%73, %1002] : memref<?x?xf32, strided<[?, 1]>> loc(#loc24)
      %1006 = vector.broadcast %1005 : f32 to vector<64xf32> loc(#loc24)
      %1007 = vector.fma %899, %1004, %907 : vector<64xf32> loc(#loc24)
      %1008 = memref.load %62[%77, %1002] : memref<?x?xf32, strided<[?, 1]>> loc(#loc24)
      %1009 = vector.broadcast %1008 : f32 to vector<64xf32> loc(#loc24)
      %1010 = vector.fma %899, %1006, %910 : vector<64xf32> loc(#loc24)
      %1011 = memref.load %62[%81, %1002] : memref<?x?xf32, strided<[?, 1]>> loc(#loc24)
      %1012 = vector.broadcast %1011 : f32 to vector<64xf32> loc(#loc24)
      %1013 = vector.fma %899, %1009, %913 : vector<64xf32> loc(#loc24)
      %1014 = memref.load %62[%85, %1002] : memref<?x?xf32, strided<[?, 1]>> loc(#loc24)
      %1015 = vector.broadcast %1014 : f32 to vector<64xf32> loc(#loc24)
      %1016 = vector.fma %899, %1012, %916 : vector<64xf32> loc(#loc24)
      %1017 = memref.load %62[%89, %1002] : memref<?x?xf32, strided<[?, 1]>> loc(#loc24)
      %1018 = vector.broadcast %1017 : f32 to vector<64xf32> loc(#loc24)
      %1019 = vector.fma %899, %1015, %919 : vector<64xf32> loc(#loc24)
      %1020 = memref.load %62[%93, %1002] : memref<?x?xf32, strided<[?, 1]>> loc(#loc24)
      %1021 = vector.broadcast %1020 : f32 to vector<64xf32> loc(#loc24)
      %1022 = vector.fma %899, %1018, %922 : vector<64xf32> loc(#loc24)
      %1023 = memref.load %62[%97, %1002] : memref<?x?xf32, strided<[?, 1]>> loc(#loc24)
      %1024 = vector.broadcast %1023 : f32 to vector<64xf32> loc(#loc24)
      %1025 = vector.fma %899, %1021, %925 : vector<64xf32> loc(#loc24)
      %1026 = memref.load %62[%101, %1002] : memref<?x?xf32, strided<[?, 1]>> loc(#loc24)
      %1027 = vector.broadcast %1026 : f32 to vector<64xf32> loc(#loc24)
      %1028 = vector.fma %899, %1024, %928 : vector<64xf32> loc(#loc24)
      %1029 = memref.load %62[%105, %1002] : memref<?x?xf32, strided<[?, 1]>> loc(#loc24)
      %1030 = vector.broadcast %1029 : f32 to vector<64xf32> loc(#loc24)
      %1031 = vector.fma %899, %1027, %931 : vector<64xf32> loc(#loc24)
      %1032 = memref.load %62[%109, %1002] : memref<?x?xf32, strided<[?, 1]>> loc(#loc24)
      %1033 = vector.broadcast %1032 : f32 to vector<64xf32> loc(#loc24)
      %1034 = vector.fma %899, %1030, %934 : vector<64xf32> loc(#loc24)
      %1035 = memref.load %62[%113, %1002] : memref<?x?xf32, strided<[?, 1]>> loc(#loc24)
      %1036 = vector.broadcast %1035 : f32 to vector<64xf32> loc(#loc24)
      %1037 = vector.fma %899, %1033, %937 : vector<64xf32> loc(#loc24)
      %1038 = memref.load %62[%117, %1002] : memref<?x?xf32, strided<[?, 1]>> loc(#loc24)
      %1039 = vector.broadcast %1038 : f32 to vector<64xf32> loc(#loc24)
      %1040 = vector.fma %899, %1036, %940 : vector<64xf32> loc(#loc24)
      %1041 = memref.load %62[%121, %1002] : memref<?x?xf32, strided<[?, 1]>> loc(#loc24)
      %1042 = vector.broadcast %1041 : f32 to vector<64xf32> loc(#loc24)
      %1043 = vector.fma %899, %1039, %943 : vector<64xf32> loc(#loc24)
      %1044 = memref.load %62[%125, %1002] : memref<?x?xf32, strided<[?, 1]>> loc(#loc24)
      %1045 = vector.broadcast %1044 : f32 to vector<64xf32> loc(#loc24)
      %1046 = vector.fma %899, %1042, %946 : vector<64xf32> loc(#loc24)
      %1047 = memref.load %62[%129, %1002] : memref<?x?xf32, strided<[?, 1]>> loc(#loc24)
      %1048 = vector.broadcast %1047 : f32 to vector<64xf32> loc(#loc24)
      %1049 = vector.fma %899, %1045, %949 : vector<64xf32> loc(#loc24)
      %1050 = memref.load %62[%133, %1002] : memref<?x?xf32, strided<[?, 1]>> loc(#loc24)
      %1051 = vector.broadcast %1050 : f32 to vector<64xf32> loc(#loc24)
      %1052 = vector.fma %899, %1048, %952 : vector<64xf32> loc(#loc24)
      %1053 = memref.load %62[%137, %1002] : memref<?x?xf32, strided<[?, 1]>> loc(#loc24)
      %1054 = vector.broadcast %1053 : f32 to vector<64xf32> loc(#loc24)
      %1055 = vector.fma %899, %1051, %955 : vector<64xf32> loc(#loc24)
      %1056 = memref.load %62[%141, %1002] : memref<?x?xf32, strided<[?, 1]>> loc(#loc24)
      %1057 = vector.broadcast %1056 : f32 to vector<64xf32> loc(#loc24)
      %1058 = vector.fma %899, %1054, %958 : vector<64xf32> loc(#loc24)
      %1059 = memref.load %62[%145, %1002] : memref<?x?xf32, strided<[?, 1]>> loc(#loc24)
      %1060 = vector.broadcast %1059 : f32 to vector<64xf32> loc(#loc24)
      %1061 = vector.fma %899, %1057, %961 : vector<64xf32> loc(#loc24)
      %1062 = memref.load %62[%149, %1002] : memref<?x?xf32, strided<[?, 1]>> loc(#loc24)
      %1063 = vector.broadcast %1062 : f32 to vector<64xf32> loc(#loc24)
      %1064 = vector.fma %899, %1060, %964 : vector<64xf32> loc(#loc24)
      %1065 = memref.load %62[%153, %1002] : memref<?x?xf32, strided<[?, 1]>> loc(#loc24)
      %1066 = vector.broadcast %1065 : f32 to vector<64xf32> loc(#loc24)
      %1067 = vector.fma %899, %1063, %967 : vector<64xf32> loc(#loc24)
      %1068 = memref.load %62[%157, %1002] : memref<?x?xf32, strided<[?, 1]>> loc(#loc24)
      %1069 = vector.broadcast %1068 : f32 to vector<64xf32> loc(#loc24)
      %1070 = vector.fma %899, %1066, %970 : vector<64xf32> loc(#loc24)
      %1071 = memref.load %62[%161, %1002] : memref<?x?xf32, strided<[?, 1]>> loc(#loc24)
      %1072 = vector.broadcast %1071 : f32 to vector<64xf32> loc(#loc24)
      %1073 = vector.fma %899, %1069, %973 : vector<64xf32> loc(#loc24)
      %1074 = memref.load %62[%165, %1002] : memref<?x?xf32, strided<[?, 1]>> loc(#loc24)
      %1075 = vector.broadcast %1074 : f32 to vector<64xf32> loc(#loc24)
      %1076 = vector.fma %899, %1072, %976 : vector<64xf32> loc(#loc24)
      %1077 = memref.load %62[%169, %1002] : memref<?x?xf32, strided<[?, 1]>> loc(#loc24)
      %1078 = vector.broadcast %1077 : f32 to vector<64xf32> loc(#loc24)
      %1079 = vector.fma %899, %1075, %979 : vector<64xf32> loc(#loc24)
      %1080 = memref.load %62[%173, %1002] : memref<?x?xf32, strided<[?, 1]>> loc(#loc24)
      %1081 = vector.broadcast %1080 : f32 to vector<64xf32> loc(#loc24)
      %1082 = vector.fma %899, %1078, %982 : vector<64xf32> loc(#loc24)
      %1083 = memref.load %62[%177, %1002] : memref<?x?xf32, strided<[?, 1]>> loc(#loc24)
      %1084 = vector.broadcast %1083 : f32 to vector<64xf32> loc(#loc24)
      %1085 = vector.fma %899, %1081, %985 : vector<64xf32> loc(#loc24)
      %1086 = memref.load %62[%181, %1002] : memref<?x?xf32, strided<[?, 1]>> loc(#loc24)
      %1087 = vector.broadcast %1086 : f32 to vector<64xf32> loc(#loc24)
      %1088 = vector.fma %899, %1084, %988 : vector<64xf32> loc(#loc24)
      %1089 = memref.load %62[%185, %1002] : memref<?x?xf32, strided<[?, 1]>> loc(#loc24)
      %1090 = vector.broadcast %1089 : f32 to vector<64xf32> loc(#loc24)
      %1091 = vector.fma %899, %1087, %991 : vector<64xf32> loc(#loc24)
      %1092 = memref.load %62[%189, %1002] : memref<?x?xf32, strided<[?, 1]>> loc(#loc24)
      %1093 = vector.broadcast %1092 : f32 to vector<64xf32> loc(#loc24)
      %1094 = vector.fma %899, %1090, %994 : vector<64xf32> loc(#loc24)
      %1095 = memref.load %62[%193, %1002] : memref<?x?xf32, strided<[?, 1]>> loc(#loc24)
      %1096 = vector.broadcast %1095 : f32 to vector<64xf32> loc(#loc24)
      %1097 = vector.fma %899, %1093, %997 : vector<64xf32> loc(#loc24)
      %1098 = vector.fma %899, %1096, %998 : vector<64xf32> loc(#loc24)
      %1099 = arith.addi %65#0, %c11 : index loc(#loc24)
      %1100 = vector.load %64[%1099, %65#1] : memref<?x?xf32, strided<[?, 1]>>, vector<64xf32> loc(#loc24)
      %1101 = arith.addi %65#0, %c42 : index loc(#loc24)
      memref.prefetch %64[%1101, %65#1], read, locality<1>, data : memref<?x?xf32, strided<[?, 1]>> loc(#loc24)
      %1102 = arith.addi %63#1, %c10 : index loc(#loc24)
      %1103 = memref.load %62[%63#0, %1102] : memref<?x?xf32, strided<[?, 1]>> loc(#loc24)
      %1104 = vector.broadcast %1103 : f32 to vector<64xf32> loc(#loc24)
      %1105 = memref.load %62[%73, %1102] : memref<?x?xf32, strided<[?, 1]>> loc(#loc24)
      %1106 = vector.broadcast %1105 : f32 to vector<64xf32> loc(#loc24)
      %1107 = vector.fma %1000, %1104, %1007 : vector<64xf32> loc(#loc24)
      %1108 = memref.load %62[%77, %1102] : memref<?x?xf32, strided<[?, 1]>> loc(#loc24)
      %1109 = vector.broadcast %1108 : f32 to vector<64xf32> loc(#loc24)
      %1110 = vector.fma %1000, %1106, %1010 : vector<64xf32> loc(#loc24)
      %1111 = memref.load %62[%81, %1102] : memref<?x?xf32, strided<[?, 1]>> loc(#loc24)
      %1112 = vector.broadcast %1111 : f32 to vector<64xf32> loc(#loc24)
      %1113 = vector.fma %1000, %1109, %1013 : vector<64xf32> loc(#loc24)
      %1114 = memref.load %62[%85, %1102] : memref<?x?xf32, strided<[?, 1]>> loc(#loc24)
      %1115 = vector.broadcast %1114 : f32 to vector<64xf32> loc(#loc24)
      %1116 = vector.fma %1000, %1112, %1016 : vector<64xf32> loc(#loc24)
      %1117 = memref.load %62[%89, %1102] : memref<?x?xf32, strided<[?, 1]>> loc(#loc24)
      %1118 = vector.broadcast %1117 : f32 to vector<64xf32> loc(#loc24)
      %1119 = vector.fma %1000, %1115, %1019 : vector<64xf32> loc(#loc24)
      %1120 = memref.load %62[%93, %1102] : memref<?x?xf32, strided<[?, 1]>> loc(#loc24)
      %1121 = vector.broadcast %1120 : f32 to vector<64xf32> loc(#loc24)
      %1122 = vector.fma %1000, %1118, %1022 : vector<64xf32> loc(#loc24)
      %1123 = memref.load %62[%97, %1102] : memref<?x?xf32, strided<[?, 1]>> loc(#loc24)
      %1124 = vector.broadcast %1123 : f32 to vector<64xf32> loc(#loc24)
      %1125 = vector.fma %1000, %1121, %1025 : vector<64xf32> loc(#loc24)
      %1126 = memref.load %62[%101, %1102] : memref<?x?xf32, strided<[?, 1]>> loc(#loc24)
      %1127 = vector.broadcast %1126 : f32 to vector<64xf32> loc(#loc24)
      %1128 = vector.fma %1000, %1124, %1028 : vector<64xf32> loc(#loc24)
      %1129 = memref.load %62[%105, %1102] : memref<?x?xf32, strided<[?, 1]>> loc(#loc24)
      %1130 = vector.broadcast %1129 : f32 to vector<64xf32> loc(#loc24)
      %1131 = vector.fma %1000, %1127, %1031 : vector<64xf32> loc(#loc24)
      %1132 = memref.load %62[%109, %1102] : memref<?x?xf32, strided<[?, 1]>> loc(#loc24)
      %1133 = vector.broadcast %1132 : f32 to vector<64xf32> loc(#loc24)
      %1134 = vector.fma %1000, %1130, %1034 : vector<64xf32> loc(#loc24)
      %1135 = memref.load %62[%113, %1102] : memref<?x?xf32, strided<[?, 1]>> loc(#loc24)
      %1136 = vector.broadcast %1135 : f32 to vector<64xf32> loc(#loc24)
      %1137 = vector.fma %1000, %1133, %1037 : vector<64xf32> loc(#loc24)
      %1138 = memref.load %62[%117, %1102] : memref<?x?xf32, strided<[?, 1]>> loc(#loc24)
      %1139 = vector.broadcast %1138 : f32 to vector<64xf32> loc(#loc24)
      %1140 = vector.fma %1000, %1136, %1040 : vector<64xf32> loc(#loc24)
      %1141 = memref.load %62[%121, %1102] : memref<?x?xf32, strided<[?, 1]>> loc(#loc24)
      %1142 = vector.broadcast %1141 : f32 to vector<64xf32> loc(#loc24)
      %1143 = vector.fma %1000, %1139, %1043 : vector<64xf32> loc(#loc24)
      %1144 = memref.load %62[%125, %1102] : memref<?x?xf32, strided<[?, 1]>> loc(#loc24)
      %1145 = vector.broadcast %1144 : f32 to vector<64xf32> loc(#loc24)
      %1146 = vector.fma %1000, %1142, %1046 : vector<64xf32> loc(#loc24)
      %1147 = memref.load %62[%129, %1102] : memref<?x?xf32, strided<[?, 1]>> loc(#loc24)
      %1148 = vector.broadcast %1147 : f32 to vector<64xf32> loc(#loc24)
      %1149 = vector.fma %1000, %1145, %1049 : vector<64xf32> loc(#loc24)
      %1150 = memref.load %62[%133, %1102] : memref<?x?xf32, strided<[?, 1]>> loc(#loc24)
      %1151 = vector.broadcast %1150 : f32 to vector<64xf32> loc(#loc24)
      %1152 = vector.fma %1000, %1148, %1052 : vector<64xf32> loc(#loc24)
      %1153 = memref.load %62[%137, %1102] : memref<?x?xf32, strided<[?, 1]>> loc(#loc24)
      %1154 = vector.broadcast %1153 : f32 to vector<64xf32> loc(#loc24)
      %1155 = vector.fma %1000, %1151, %1055 : vector<64xf32> loc(#loc24)
      %1156 = memref.load %62[%141, %1102] : memref<?x?xf32, strided<[?, 1]>> loc(#loc24)
      %1157 = vector.broadcast %1156 : f32 to vector<64xf32> loc(#loc24)
      %1158 = vector.fma %1000, %1154, %1058 : vector<64xf32> loc(#loc24)
      %1159 = memref.load %62[%145, %1102] : memref<?x?xf32, strided<[?, 1]>> loc(#loc24)
      %1160 = vector.broadcast %1159 : f32 to vector<64xf32> loc(#loc24)
      %1161 = vector.fma %1000, %1157, %1061 : vector<64xf32> loc(#loc24)
      %1162 = memref.load %62[%149, %1102] : memref<?x?xf32, strided<[?, 1]>> loc(#loc24)
      %1163 = vector.broadcast %1162 : f32 to vector<64xf32> loc(#loc24)
      %1164 = vector.fma %1000, %1160, %1064 : vector<64xf32> loc(#loc24)
      %1165 = memref.load %62[%153, %1102] : memref<?x?xf32, strided<[?, 1]>> loc(#loc24)
      %1166 = vector.broadcast %1165 : f32 to vector<64xf32> loc(#loc24)
      %1167 = vector.fma %1000, %1163, %1067 : vector<64xf32> loc(#loc24)
      %1168 = memref.load %62[%157, %1102] : memref<?x?xf32, strided<[?, 1]>> loc(#loc24)
      %1169 = vector.broadcast %1168 : f32 to vector<64xf32> loc(#loc24)
      %1170 = vector.fma %1000, %1166, %1070 : vector<64xf32> loc(#loc24)
      %1171 = memref.load %62[%161, %1102] : memref<?x?xf32, strided<[?, 1]>> loc(#loc24)
      %1172 = vector.broadcast %1171 : f32 to vector<64xf32> loc(#loc24)
      %1173 = vector.fma %1000, %1169, %1073 : vector<64xf32> loc(#loc24)
      %1174 = memref.load %62[%165, %1102] : memref<?x?xf32, strided<[?, 1]>> loc(#loc24)
      %1175 = vector.broadcast %1174 : f32 to vector<64xf32> loc(#loc24)
      %1176 = vector.fma %1000, %1172, %1076 : vector<64xf32> loc(#loc24)
      %1177 = memref.load %62[%169, %1102] : memref<?x?xf32, strided<[?, 1]>> loc(#loc24)
      %1178 = vector.broadcast %1177 : f32 to vector<64xf32> loc(#loc24)
      %1179 = vector.fma %1000, %1175, %1079 : vector<64xf32> loc(#loc24)
      %1180 = memref.load %62[%173, %1102] : memref<?x?xf32, strided<[?, 1]>> loc(#loc24)
      %1181 = vector.broadcast %1180 : f32 to vector<64xf32> loc(#loc24)
      %1182 = vector.fma %1000, %1178, %1082 : vector<64xf32> loc(#loc24)
      %1183 = memref.load %62[%177, %1102] : memref<?x?xf32, strided<[?, 1]>> loc(#loc24)
      %1184 = vector.broadcast %1183 : f32 to vector<64xf32> loc(#loc24)
      %1185 = vector.fma %1000, %1181, %1085 : vector<64xf32> loc(#loc24)
      %1186 = memref.load %62[%181, %1102] : memref<?x?xf32, strided<[?, 1]>> loc(#loc24)
      %1187 = vector.broadcast %1186 : f32 to vector<64xf32> loc(#loc24)
      %1188 = vector.fma %1000, %1184, %1088 : vector<64xf32> loc(#loc24)
      %1189 = memref.load %62[%185, %1102] : memref<?x?xf32, strided<[?, 1]>> loc(#loc24)
      %1190 = vector.broadcast %1189 : f32 to vector<64xf32> loc(#loc24)
      %1191 = vector.fma %1000, %1187, %1091 : vector<64xf32> loc(#loc24)
      %1192 = memref.load %62[%189, %1102] : memref<?x?xf32, strided<[?, 1]>> loc(#loc24)
      %1193 = vector.broadcast %1192 : f32 to vector<64xf32> loc(#loc24)
      %1194 = vector.fma %1000, %1190, %1094 : vector<64xf32> loc(#loc24)
      %1195 = memref.load %62[%193, %1102] : memref<?x?xf32, strided<[?, 1]>> loc(#loc24)
      %1196 = vector.broadcast %1195 : f32 to vector<64xf32> loc(#loc24)
      %1197 = vector.fma %1000, %1193, %1097 : vector<64xf32> loc(#loc24)
      %1198 = vector.fma %1000, %1196, %1098 : vector<64xf32> loc(#loc24)
      %1199 = arith.addi %65#0, %c12 : index loc(#loc24)
      %1200 = vector.load %64[%1199, %65#1] : memref<?x?xf32, strided<[?, 1]>>, vector<64xf32> loc(#loc24)
      %1201 = arith.addi %65#0, %c43 : index loc(#loc24)
      memref.prefetch %64[%1201, %65#1], read, locality<1>, data : memref<?x?xf32, strided<[?, 1]>> loc(#loc24)
      %1202 = arith.addi %63#1, %c11 : index loc(#loc24)
      %1203 = memref.load %62[%63#0, %1202] : memref<?x?xf32, strided<[?, 1]>> loc(#loc24)
      %1204 = vector.broadcast %1203 : f32 to vector<64xf32> loc(#loc24)
      %1205 = memref.load %62[%73, %1202] : memref<?x?xf32, strided<[?, 1]>> loc(#loc24)
      %1206 = vector.broadcast %1205 : f32 to vector<64xf32> loc(#loc24)
      %1207 = vector.fma %1100, %1204, %1107 : vector<64xf32> loc(#loc24)
      %1208 = memref.load %62[%77, %1202] : memref<?x?xf32, strided<[?, 1]>> loc(#loc24)
      %1209 = vector.broadcast %1208 : f32 to vector<64xf32> loc(#loc24)
      %1210 = vector.fma %1100, %1206, %1110 : vector<64xf32> loc(#loc24)
      %1211 = memref.load %62[%81, %1202] : memref<?x?xf32, strided<[?, 1]>> loc(#loc24)
      %1212 = vector.broadcast %1211 : f32 to vector<64xf32> loc(#loc24)
      %1213 = vector.fma %1100, %1209, %1113 : vector<64xf32> loc(#loc24)
      %1214 = memref.load %62[%85, %1202] : memref<?x?xf32, strided<[?, 1]>> loc(#loc24)
      %1215 = vector.broadcast %1214 : f32 to vector<64xf32> loc(#loc24)
      %1216 = vector.fma %1100, %1212, %1116 : vector<64xf32> loc(#loc24)
      %1217 = memref.load %62[%89, %1202] : memref<?x?xf32, strided<[?, 1]>> loc(#loc24)
      %1218 = vector.broadcast %1217 : f32 to vector<64xf32> loc(#loc24)
      %1219 = vector.fma %1100, %1215, %1119 : vector<64xf32> loc(#loc24)
      %1220 = memref.load %62[%93, %1202] : memref<?x?xf32, strided<[?, 1]>> loc(#loc24)
      %1221 = vector.broadcast %1220 : f32 to vector<64xf32> loc(#loc24)
      %1222 = vector.fma %1100, %1218, %1122 : vector<64xf32> loc(#loc24)
      %1223 = memref.load %62[%97, %1202] : memref<?x?xf32, strided<[?, 1]>> loc(#loc24)
      %1224 = vector.broadcast %1223 : f32 to vector<64xf32> loc(#loc24)
      %1225 = vector.fma %1100, %1221, %1125 : vector<64xf32> loc(#loc24)
      %1226 = memref.load %62[%101, %1202] : memref<?x?xf32, strided<[?, 1]>> loc(#loc24)
      %1227 = vector.broadcast %1226 : f32 to vector<64xf32> loc(#loc24)
      %1228 = vector.fma %1100, %1224, %1128 : vector<64xf32> loc(#loc24)
      %1229 = memref.load %62[%105, %1202] : memref<?x?xf32, strided<[?, 1]>> loc(#loc24)
      %1230 = vector.broadcast %1229 : f32 to vector<64xf32> loc(#loc24)
      %1231 = vector.fma %1100, %1227, %1131 : vector<64xf32> loc(#loc24)
      %1232 = memref.load %62[%109, %1202] : memref<?x?xf32, strided<[?, 1]>> loc(#loc24)
      %1233 = vector.broadcast %1232 : f32 to vector<64xf32> loc(#loc24)
      %1234 = vector.fma %1100, %1230, %1134 : vector<64xf32> loc(#loc24)
      %1235 = memref.load %62[%113, %1202] : memref<?x?xf32, strided<[?, 1]>> loc(#loc24)
      %1236 = vector.broadcast %1235 : f32 to vector<64xf32> loc(#loc24)
      %1237 = vector.fma %1100, %1233, %1137 : vector<64xf32> loc(#loc24)
      %1238 = memref.load %62[%117, %1202] : memref<?x?xf32, strided<[?, 1]>> loc(#loc24)
      %1239 = vector.broadcast %1238 : f32 to vector<64xf32> loc(#loc24)
      %1240 = vector.fma %1100, %1236, %1140 : vector<64xf32> loc(#loc24)
      %1241 = memref.load %62[%121, %1202] : memref<?x?xf32, strided<[?, 1]>> loc(#loc24)
      %1242 = vector.broadcast %1241 : f32 to vector<64xf32> loc(#loc24)
      %1243 = vector.fma %1100, %1239, %1143 : vector<64xf32> loc(#loc24)
      %1244 = memref.load %62[%125, %1202] : memref<?x?xf32, strided<[?, 1]>> loc(#loc24)
      %1245 = vector.broadcast %1244 : f32 to vector<64xf32> loc(#loc24)
      %1246 = vector.fma %1100, %1242, %1146 : vector<64xf32> loc(#loc24)
      %1247 = memref.load %62[%129, %1202] : memref<?x?xf32, strided<[?, 1]>> loc(#loc24)
      %1248 = vector.broadcast %1247 : f32 to vector<64xf32> loc(#loc24)
      %1249 = vector.fma %1100, %1245, %1149 : vector<64xf32> loc(#loc24)
      %1250 = memref.load %62[%133, %1202] : memref<?x?xf32, strided<[?, 1]>> loc(#loc24)
      %1251 = vector.broadcast %1250 : f32 to vector<64xf32> loc(#loc24)
      %1252 = vector.fma %1100, %1248, %1152 : vector<64xf32> loc(#loc24)
      %1253 = memref.load %62[%137, %1202] : memref<?x?xf32, strided<[?, 1]>> loc(#loc24)
      %1254 = vector.broadcast %1253 : f32 to vector<64xf32> loc(#loc24)
      %1255 = vector.fma %1100, %1251, %1155 : vector<64xf32> loc(#loc24)
      %1256 = memref.load %62[%141, %1202] : memref<?x?xf32, strided<[?, 1]>> loc(#loc24)
      %1257 = vector.broadcast %1256 : f32 to vector<64xf32> loc(#loc24)
      %1258 = vector.fma %1100, %1254, %1158 : vector<64xf32> loc(#loc24)
      %1259 = memref.load %62[%145, %1202] : memref<?x?xf32, strided<[?, 1]>> loc(#loc24)
      %1260 = vector.broadcast %1259 : f32 to vector<64xf32> loc(#loc24)
      %1261 = vector.fma %1100, %1257, %1161 : vector<64xf32> loc(#loc24)
      %1262 = memref.load %62[%149, %1202] : memref<?x?xf32, strided<[?, 1]>> loc(#loc24)
      %1263 = vector.broadcast %1262 : f32 to vector<64xf32> loc(#loc24)
      %1264 = vector.fma %1100, %1260, %1164 : vector<64xf32> loc(#loc24)
      %1265 = memref.load %62[%153, %1202] : memref<?x?xf32, strided<[?, 1]>> loc(#loc24)
      %1266 = vector.broadcast %1265 : f32 to vector<64xf32> loc(#loc24)
      %1267 = vector.fma %1100, %1263, %1167 : vector<64xf32> loc(#loc24)
      %1268 = memref.load %62[%157, %1202] : memref<?x?xf32, strided<[?, 1]>> loc(#loc24)
      %1269 = vector.broadcast %1268 : f32 to vector<64xf32> loc(#loc24)
      %1270 = vector.fma %1100, %1266, %1170 : vector<64xf32> loc(#loc24)
      %1271 = memref.load %62[%161, %1202] : memref<?x?xf32, strided<[?, 1]>> loc(#loc24)
      %1272 = vector.broadcast %1271 : f32 to vector<64xf32> loc(#loc24)
      %1273 = vector.fma %1100, %1269, %1173 : vector<64xf32> loc(#loc24)
      %1274 = memref.load %62[%165, %1202] : memref<?x?xf32, strided<[?, 1]>> loc(#loc24)
      %1275 = vector.broadcast %1274 : f32 to vector<64xf32> loc(#loc24)
      %1276 = vector.fma %1100, %1272, %1176 : vector<64xf32> loc(#loc24)
      %1277 = memref.load %62[%169, %1202] : memref<?x?xf32, strided<[?, 1]>> loc(#loc24)
      %1278 = vector.broadcast %1277 : f32 to vector<64xf32> loc(#loc24)
      %1279 = vector.fma %1100, %1275, %1179 : vector<64xf32> loc(#loc24)
      %1280 = memref.load %62[%173, %1202] : memref<?x?xf32, strided<[?, 1]>> loc(#loc24)
      %1281 = vector.broadcast %1280 : f32 to vector<64xf32> loc(#loc24)
      %1282 = vector.fma %1100, %1278, %1182 : vector<64xf32> loc(#loc24)
      %1283 = memref.load %62[%177, %1202] : memref<?x?xf32, strided<[?, 1]>> loc(#loc24)
      %1284 = vector.broadcast %1283 : f32 to vector<64xf32> loc(#loc24)
      %1285 = vector.fma %1100, %1281, %1185 : vector<64xf32> loc(#loc24)
      %1286 = memref.load %62[%181, %1202] : memref<?x?xf32, strided<[?, 1]>> loc(#loc24)
      %1287 = vector.broadcast %1286 : f32 to vector<64xf32> loc(#loc24)
      %1288 = vector.fma %1100, %1284, %1188 : vector<64xf32> loc(#loc24)
      %1289 = memref.load %62[%185, %1202] : memref<?x?xf32, strided<[?, 1]>> loc(#loc24)
      %1290 = vector.broadcast %1289 : f32 to vector<64xf32> loc(#loc24)
      %1291 = vector.fma %1100, %1287, %1191 : vector<64xf32> loc(#loc24)
      %1292 = memref.load %62[%189, %1202] : memref<?x?xf32, strided<[?, 1]>> loc(#loc24)
      %1293 = vector.broadcast %1292 : f32 to vector<64xf32> loc(#loc24)
      %1294 = vector.fma %1100, %1290, %1194 : vector<64xf32> loc(#loc24)
      %1295 = memref.load %62[%193, %1202] : memref<?x?xf32, strided<[?, 1]>> loc(#loc24)
      %1296 = vector.broadcast %1295 : f32 to vector<64xf32> loc(#loc24)
      %1297 = vector.fma %1100, %1293, %1197 : vector<64xf32> loc(#loc24)
      %1298 = vector.fma %1100, %1296, %1198 : vector<64xf32> loc(#loc24)
      %1299 = arith.addi %65#0, %c13 : index loc(#loc24)
      %1300 = vector.load %64[%1299, %65#1] : memref<?x?xf32, strided<[?, 1]>>, vector<64xf32> loc(#loc24)
      %1301 = arith.addi %65#0, %c44 : index loc(#loc24)
      memref.prefetch %64[%1301, %65#1], read, locality<1>, data : memref<?x?xf32, strided<[?, 1]>> loc(#loc24)
      %1302 = arith.addi %63#1, %c12 : index loc(#loc24)
      %1303 = memref.load %62[%63#0, %1302] : memref<?x?xf32, strided<[?, 1]>> loc(#loc24)
      %1304 = vector.broadcast %1303 : f32 to vector<64xf32> loc(#loc24)
      %1305 = memref.load %62[%73, %1302] : memref<?x?xf32, strided<[?, 1]>> loc(#loc24)
      %1306 = vector.broadcast %1305 : f32 to vector<64xf32> loc(#loc24)
      %1307 = vector.fma %1200, %1304, %1207 : vector<64xf32> loc(#loc24)
      %1308 = memref.load %62[%77, %1302] : memref<?x?xf32, strided<[?, 1]>> loc(#loc24)
      %1309 = vector.broadcast %1308 : f32 to vector<64xf32> loc(#loc24)
      %1310 = vector.fma %1200, %1306, %1210 : vector<64xf32> loc(#loc24)
      %1311 = memref.load %62[%81, %1302] : memref<?x?xf32, strided<[?, 1]>> loc(#loc24)
      %1312 = vector.broadcast %1311 : f32 to vector<64xf32> loc(#loc24)
      %1313 = vector.fma %1200, %1309, %1213 : vector<64xf32> loc(#loc24)
      %1314 = memref.load %62[%85, %1302] : memref<?x?xf32, strided<[?, 1]>> loc(#loc24)
      %1315 = vector.broadcast %1314 : f32 to vector<64xf32> loc(#loc24)
      %1316 = vector.fma %1200, %1312, %1216 : vector<64xf32> loc(#loc24)
      %1317 = memref.load %62[%89, %1302] : memref<?x?xf32, strided<[?, 1]>> loc(#loc24)
      %1318 = vector.broadcast %1317 : f32 to vector<64xf32> loc(#loc24)
      %1319 = vector.fma %1200, %1315, %1219 : vector<64xf32> loc(#loc24)
      %1320 = memref.load %62[%93, %1302] : memref<?x?xf32, strided<[?, 1]>> loc(#loc24)
      %1321 = vector.broadcast %1320 : f32 to vector<64xf32> loc(#loc24)
      %1322 = vector.fma %1200, %1318, %1222 : vector<64xf32> loc(#loc24)
      %1323 = memref.load %62[%97, %1302] : memref<?x?xf32, strided<[?, 1]>> loc(#loc24)
      %1324 = vector.broadcast %1323 : f32 to vector<64xf32> loc(#loc24)
      %1325 = vector.fma %1200, %1321, %1225 : vector<64xf32> loc(#loc24)
      %1326 = memref.load %62[%101, %1302] : memref<?x?xf32, strided<[?, 1]>> loc(#loc24)
      %1327 = vector.broadcast %1326 : f32 to vector<64xf32> loc(#loc24)
      %1328 = vector.fma %1200, %1324, %1228 : vector<64xf32> loc(#loc24)
      %1329 = memref.load %62[%105, %1302] : memref<?x?xf32, strided<[?, 1]>> loc(#loc24)
      %1330 = vector.broadcast %1329 : f32 to vector<64xf32> loc(#loc24)
      %1331 = vector.fma %1200, %1327, %1231 : vector<64xf32> loc(#loc24)
      %1332 = memref.load %62[%109, %1302] : memref<?x?xf32, strided<[?, 1]>> loc(#loc24)
      %1333 = vector.broadcast %1332 : f32 to vector<64xf32> loc(#loc24)
      %1334 = vector.fma %1200, %1330, %1234 : vector<64xf32> loc(#loc24)
      %1335 = memref.load %62[%113, %1302] : memref<?x?xf32, strided<[?, 1]>> loc(#loc24)
      %1336 = vector.broadcast %1335 : f32 to vector<64xf32> loc(#loc24)
      %1337 = vector.fma %1200, %1333, %1237 : vector<64xf32> loc(#loc24)
      %1338 = memref.load %62[%117, %1302] : memref<?x?xf32, strided<[?, 1]>> loc(#loc24)
      %1339 = vector.broadcast %1338 : f32 to vector<64xf32> loc(#loc24)
      %1340 = vector.fma %1200, %1336, %1240 : vector<64xf32> loc(#loc24)
      %1341 = memref.load %62[%121, %1302] : memref<?x?xf32, strided<[?, 1]>> loc(#loc24)
      %1342 = vector.broadcast %1341 : f32 to vector<64xf32> loc(#loc24)
      %1343 = vector.fma %1200, %1339, %1243 : vector<64xf32> loc(#loc24)
      %1344 = memref.load %62[%125, %1302] : memref<?x?xf32, strided<[?, 1]>> loc(#loc24)
      %1345 = vector.broadcast %1344 : f32 to vector<64xf32> loc(#loc24)
      %1346 = vector.fma %1200, %1342, %1246 : vector<64xf32> loc(#loc24)
      %1347 = memref.load %62[%129, %1302] : memref<?x?xf32, strided<[?, 1]>> loc(#loc24)
      %1348 = vector.broadcast %1347 : f32 to vector<64xf32> loc(#loc24)
      %1349 = vector.fma %1200, %1345, %1249 : vector<64xf32> loc(#loc24)
      %1350 = memref.load %62[%133, %1302] : memref<?x?xf32, strided<[?, 1]>> loc(#loc24)
      %1351 = vector.broadcast %1350 : f32 to vector<64xf32> loc(#loc24)
      %1352 = vector.fma %1200, %1348, %1252 : vector<64xf32> loc(#loc24)
      %1353 = memref.load %62[%137, %1302] : memref<?x?xf32, strided<[?, 1]>> loc(#loc24)
      %1354 = vector.broadcast %1353 : f32 to vector<64xf32> loc(#loc24)
      %1355 = vector.fma %1200, %1351, %1255 : vector<64xf32> loc(#loc24)
      %1356 = memref.load %62[%141, %1302] : memref<?x?xf32, strided<[?, 1]>> loc(#loc24)
      %1357 = vector.broadcast %1356 : f32 to vector<64xf32> loc(#loc24)
      %1358 = vector.fma %1200, %1354, %1258 : vector<64xf32> loc(#loc24)
      %1359 = memref.load %62[%145, %1302] : memref<?x?xf32, strided<[?, 1]>> loc(#loc24)
      %1360 = vector.broadcast %1359 : f32 to vector<64xf32> loc(#loc24)
      %1361 = vector.fma %1200, %1357, %1261 : vector<64xf32> loc(#loc24)
      %1362 = memref.load %62[%149, %1302] : memref<?x?xf32, strided<[?, 1]>> loc(#loc24)
      %1363 = vector.broadcast %1362 : f32 to vector<64xf32> loc(#loc24)
      %1364 = vector.fma %1200, %1360, %1264 : vector<64xf32> loc(#loc24)
      %1365 = memref.load %62[%153, %1302] : memref<?x?xf32, strided<[?, 1]>> loc(#loc24)
      %1366 = vector.broadcast %1365 : f32 to vector<64xf32> loc(#loc24)
      %1367 = vector.fma %1200, %1363, %1267 : vector<64xf32> loc(#loc24)
      %1368 = memref.load %62[%157, %1302] : memref<?x?xf32, strided<[?, 1]>> loc(#loc24)
      %1369 = vector.broadcast %1368 : f32 to vector<64xf32> loc(#loc24)
      %1370 = vector.fma %1200, %1366, %1270 : vector<64xf32> loc(#loc24)
      %1371 = memref.load %62[%161, %1302] : memref<?x?xf32, strided<[?, 1]>> loc(#loc24)
      %1372 = vector.broadcast %1371 : f32 to vector<64xf32> loc(#loc24)
      %1373 = vector.fma %1200, %1369, %1273 : vector<64xf32> loc(#loc24)
      %1374 = memref.load %62[%165, %1302] : memref<?x?xf32, strided<[?, 1]>> loc(#loc24)
      %1375 = vector.broadcast %1374 : f32 to vector<64xf32> loc(#loc24)
      %1376 = vector.fma %1200, %1372, %1276 : vector<64xf32> loc(#loc24)
      %1377 = memref.load %62[%169, %1302] : memref<?x?xf32, strided<[?, 1]>> loc(#loc24)
      %1378 = vector.broadcast %1377 : f32 to vector<64xf32> loc(#loc24)
      %1379 = vector.fma %1200, %1375, %1279 : vector<64xf32> loc(#loc24)
      %1380 = memref.load %62[%173, %1302] : memref<?x?xf32, strided<[?, 1]>> loc(#loc24)
      %1381 = vector.broadcast %1380 : f32 to vector<64xf32> loc(#loc24)
      %1382 = vector.fma %1200, %1378, %1282 : vector<64xf32> loc(#loc24)
      %1383 = memref.load %62[%177, %1302] : memref<?x?xf32, strided<[?, 1]>> loc(#loc24)
      %1384 = vector.broadcast %1383 : f32 to vector<64xf32> loc(#loc24)
      %1385 = vector.fma %1200, %1381, %1285 : vector<64xf32> loc(#loc24)
      %1386 = memref.load %62[%181, %1302] : memref<?x?xf32, strided<[?, 1]>> loc(#loc24)
      %1387 = vector.broadcast %1386 : f32 to vector<64xf32> loc(#loc24)
      %1388 = vector.fma %1200, %1384, %1288 : vector<64xf32> loc(#loc24)
      %1389 = memref.load %62[%185, %1302] : memref<?x?xf32, strided<[?, 1]>> loc(#loc24)
      %1390 = vector.broadcast %1389 : f32 to vector<64xf32> loc(#loc24)
      %1391 = vector.fma %1200, %1387, %1291 : vector<64xf32> loc(#loc24)
      %1392 = memref.load %62[%189, %1302] : memref<?x?xf32, strided<[?, 1]>> loc(#loc24)
      %1393 = vector.broadcast %1392 : f32 to vector<64xf32> loc(#loc24)
      %1394 = vector.fma %1200, %1390, %1294 : vector<64xf32> loc(#loc24)
      %1395 = memref.load %62[%193, %1302] : memref<?x?xf32, strided<[?, 1]>> loc(#loc24)
      %1396 = vector.broadcast %1395 : f32 to vector<64xf32> loc(#loc24)
      %1397 = vector.fma %1200, %1393, %1297 : vector<64xf32> loc(#loc24)
      %1398 = vector.fma %1200, %1396, %1298 : vector<64xf32> loc(#loc24)
      %1399 = arith.addi %65#0, %c14 : index loc(#loc24)
      %1400 = vector.load %64[%1399, %65#1] : memref<?x?xf32, strided<[?, 1]>>, vector<64xf32> loc(#loc24)
      %1401 = arith.addi %65#0, %c45 : index loc(#loc24)
      memref.prefetch %64[%1401, %65#1], read, locality<1>, data : memref<?x?xf32, strided<[?, 1]>> loc(#loc24)
      %1402 = arith.addi %63#1, %c13 : index loc(#loc24)
      %1403 = memref.load %62[%63#0, %1402] : memref<?x?xf32, strided<[?, 1]>> loc(#loc24)
      %1404 = vector.broadcast %1403 : f32 to vector<64xf32> loc(#loc24)
      %1405 = memref.load %62[%73, %1402] : memref<?x?xf32, strided<[?, 1]>> loc(#loc24)
      %1406 = vector.broadcast %1405 : f32 to vector<64xf32> loc(#loc24)
      %1407 = vector.fma %1300, %1404, %1307 : vector<64xf32> loc(#loc24)
      %1408 = memref.load %62[%77, %1402] : memref<?x?xf32, strided<[?, 1]>> loc(#loc24)
      %1409 = vector.broadcast %1408 : f32 to vector<64xf32> loc(#loc24)
      %1410 = vector.fma %1300, %1406, %1310 : vector<64xf32> loc(#loc24)
      %1411 = memref.load %62[%81, %1402] : memref<?x?xf32, strided<[?, 1]>> loc(#loc24)
      %1412 = vector.broadcast %1411 : f32 to vector<64xf32> loc(#loc24)
      %1413 = vector.fma %1300, %1409, %1313 : vector<64xf32> loc(#loc24)
      %1414 = memref.load %62[%85, %1402] : memref<?x?xf32, strided<[?, 1]>> loc(#loc24)
      %1415 = vector.broadcast %1414 : f32 to vector<64xf32> loc(#loc24)
      %1416 = vector.fma %1300, %1412, %1316 : vector<64xf32> loc(#loc24)
      %1417 = memref.load %62[%89, %1402] : memref<?x?xf32, strided<[?, 1]>> loc(#loc24)
      %1418 = vector.broadcast %1417 : f32 to vector<64xf32> loc(#loc24)
      %1419 = vector.fma %1300, %1415, %1319 : vector<64xf32> loc(#loc24)
      %1420 = memref.load %62[%93, %1402] : memref<?x?xf32, strided<[?, 1]>> loc(#loc24)
      %1421 = vector.broadcast %1420 : f32 to vector<64xf32> loc(#loc24)
      %1422 = vector.fma %1300, %1418, %1322 : vector<64xf32> loc(#loc24)
      %1423 = memref.load %62[%97, %1402] : memref<?x?xf32, strided<[?, 1]>> loc(#loc24)
      %1424 = vector.broadcast %1423 : f32 to vector<64xf32> loc(#loc24)
      %1425 = vector.fma %1300, %1421, %1325 : vector<64xf32> loc(#loc24)
      %1426 = memref.load %62[%101, %1402] : memref<?x?xf32, strided<[?, 1]>> loc(#loc24)
      %1427 = vector.broadcast %1426 : f32 to vector<64xf32> loc(#loc24)
      %1428 = vector.fma %1300, %1424, %1328 : vector<64xf32> loc(#loc24)
      %1429 = memref.load %62[%105, %1402] : memref<?x?xf32, strided<[?, 1]>> loc(#loc24)
      %1430 = vector.broadcast %1429 : f32 to vector<64xf32> loc(#loc24)
      %1431 = vector.fma %1300, %1427, %1331 : vector<64xf32> loc(#loc24)
      %1432 = memref.load %62[%109, %1402] : memref<?x?xf32, strided<[?, 1]>> loc(#loc24)
      %1433 = vector.broadcast %1432 : f32 to vector<64xf32> loc(#loc24)
      %1434 = vector.fma %1300, %1430, %1334 : vector<64xf32> loc(#loc24)
      %1435 = memref.load %62[%113, %1402] : memref<?x?xf32, strided<[?, 1]>> loc(#loc24)
      %1436 = vector.broadcast %1435 : f32 to vector<64xf32> loc(#loc24)
      %1437 = vector.fma %1300, %1433, %1337 : vector<64xf32> loc(#loc24)
      %1438 = memref.load %62[%117, %1402] : memref<?x?xf32, strided<[?, 1]>> loc(#loc24)
      %1439 = vector.broadcast %1438 : f32 to vector<64xf32> loc(#loc24)
      %1440 = vector.fma %1300, %1436, %1340 : vector<64xf32> loc(#loc24)
      %1441 = memref.load %62[%121, %1402] : memref<?x?xf32, strided<[?, 1]>> loc(#loc24)
      %1442 = vector.broadcast %1441 : f32 to vector<64xf32> loc(#loc24)
      %1443 = vector.fma %1300, %1439, %1343 : vector<64xf32> loc(#loc24)
      %1444 = memref.load %62[%125, %1402] : memref<?x?xf32, strided<[?, 1]>> loc(#loc24)
      %1445 = vector.broadcast %1444 : f32 to vector<64xf32> loc(#loc24)
      %1446 = vector.fma %1300, %1442, %1346 : vector<64xf32> loc(#loc24)
      %1447 = memref.load %62[%129, %1402] : memref<?x?xf32, strided<[?, 1]>> loc(#loc24)
      %1448 = vector.broadcast %1447 : f32 to vector<64xf32> loc(#loc24)
      %1449 = vector.fma %1300, %1445, %1349 : vector<64xf32> loc(#loc24)
      %1450 = memref.load %62[%133, %1402] : memref<?x?xf32, strided<[?, 1]>> loc(#loc24)
      %1451 = vector.broadcast %1450 : f32 to vector<64xf32> loc(#loc24)
      %1452 = vector.fma %1300, %1448, %1352 : vector<64xf32> loc(#loc24)
      %1453 = memref.load %62[%137, %1402] : memref<?x?xf32, strided<[?, 1]>> loc(#loc24)
      %1454 = vector.broadcast %1453 : f32 to vector<64xf32> loc(#loc24)
      %1455 = vector.fma %1300, %1451, %1355 : vector<64xf32> loc(#loc24)
      %1456 = memref.load %62[%141, %1402] : memref<?x?xf32, strided<[?, 1]>> loc(#loc24)
      %1457 = vector.broadcast %1456 : f32 to vector<64xf32> loc(#loc24)
      %1458 = vector.fma %1300, %1454, %1358 : vector<64xf32> loc(#loc24)
      %1459 = memref.load %62[%145, %1402] : memref<?x?xf32, strided<[?, 1]>> loc(#loc24)
      %1460 = vector.broadcast %1459 : f32 to vector<64xf32> loc(#loc24)
      %1461 = vector.fma %1300, %1457, %1361 : vector<64xf32> loc(#loc24)
      %1462 = memref.load %62[%149, %1402] : memref<?x?xf32, strided<[?, 1]>> loc(#loc24)
      %1463 = vector.broadcast %1462 : f32 to vector<64xf32> loc(#loc24)
      %1464 = vector.fma %1300, %1460, %1364 : vector<64xf32> loc(#loc24)
      %1465 = memref.load %62[%153, %1402] : memref<?x?xf32, strided<[?, 1]>> loc(#loc24)
      %1466 = vector.broadcast %1465 : f32 to vector<64xf32> loc(#loc24)
      %1467 = vector.fma %1300, %1463, %1367 : vector<64xf32> loc(#loc24)
      %1468 = memref.load %62[%157, %1402] : memref<?x?xf32, strided<[?, 1]>> loc(#loc24)
      %1469 = vector.broadcast %1468 : f32 to vector<64xf32> loc(#loc24)
      %1470 = vector.fma %1300, %1466, %1370 : vector<64xf32> loc(#loc24)
      %1471 = memref.load %62[%161, %1402] : memref<?x?xf32, strided<[?, 1]>> loc(#loc24)
      %1472 = vector.broadcast %1471 : f32 to vector<64xf32> loc(#loc24)
      %1473 = vector.fma %1300, %1469, %1373 : vector<64xf32> loc(#loc24)
      %1474 = memref.load %62[%165, %1402] : memref<?x?xf32, strided<[?, 1]>> loc(#loc24)
      %1475 = vector.broadcast %1474 : f32 to vector<64xf32> loc(#loc24)
      %1476 = vector.fma %1300, %1472, %1376 : vector<64xf32> loc(#loc24)
      %1477 = memref.load %62[%169, %1402] : memref<?x?xf32, strided<[?, 1]>> loc(#loc24)
      %1478 = vector.broadcast %1477 : f32 to vector<64xf32> loc(#loc24)
      %1479 = vector.fma %1300, %1475, %1379 : vector<64xf32> loc(#loc24)
      %1480 = memref.load %62[%173, %1402] : memref<?x?xf32, strided<[?, 1]>> loc(#loc24)
      %1481 = vector.broadcast %1480 : f32 to vector<64xf32> loc(#loc24)
      %1482 = vector.fma %1300, %1478, %1382 : vector<64xf32> loc(#loc24)
      %1483 = memref.load %62[%177, %1402] : memref<?x?xf32, strided<[?, 1]>> loc(#loc24)
      %1484 = vector.broadcast %1483 : f32 to vector<64xf32> loc(#loc24)
      %1485 = vector.fma %1300, %1481, %1385 : vector<64xf32> loc(#loc24)
      %1486 = memref.load %62[%181, %1402] : memref<?x?xf32, strided<[?, 1]>> loc(#loc24)
      %1487 = vector.broadcast %1486 : f32 to vector<64xf32> loc(#loc24)
      %1488 = vector.fma %1300, %1484, %1388 : vector<64xf32> loc(#loc24)
      %1489 = memref.load %62[%185, %1402] : memref<?x?xf32, strided<[?, 1]>> loc(#loc24)
      %1490 = vector.broadcast %1489 : f32 to vector<64xf32> loc(#loc24)
      %1491 = vector.fma %1300, %1487, %1391 : vector<64xf32> loc(#loc24)
      %1492 = memref.load %62[%189, %1402] : memref<?x?xf32, strided<[?, 1]>> loc(#loc24)
      %1493 = vector.broadcast %1492 : f32 to vector<64xf32> loc(#loc24)
      %1494 = vector.fma %1300, %1490, %1394 : vector<64xf32> loc(#loc24)
      %1495 = memref.load %62[%193, %1402] : memref<?x?xf32, strided<[?, 1]>> loc(#loc24)
      %1496 = vector.broadcast %1495 : f32 to vector<64xf32> loc(#loc24)
      %1497 = vector.fma %1300, %1493, %1397 : vector<64xf32> loc(#loc24)
      %1498 = vector.fma %1300, %1496, %1398 : vector<64xf32> loc(#loc24)
      %1499 = arith.addi %65#0, %c15 : index loc(#loc24)
      %1500 = vector.load %64[%1499, %65#1] : memref<?x?xf32, strided<[?, 1]>>, vector<64xf32> loc(#loc24)
      %1501 = arith.addi %65#0, %c46 : index loc(#loc24)
      memref.prefetch %64[%1501, %65#1], read, locality<1>, data : memref<?x?xf32, strided<[?, 1]>> loc(#loc24)
      %1502 = arith.addi %63#1, %c14 : index loc(#loc24)
      %1503 = memref.load %62[%63#0, %1502] : memref<?x?xf32, strided<[?, 1]>> loc(#loc24)
      %1504 = vector.broadcast %1503 : f32 to vector<64xf32> loc(#loc24)
      %1505 = memref.load %62[%73, %1502] : memref<?x?xf32, strided<[?, 1]>> loc(#loc24)
      %1506 = vector.broadcast %1505 : f32 to vector<64xf32> loc(#loc24)
      %1507 = vector.fma %1400, %1504, %1407 : vector<64xf32> loc(#loc24)
      %1508 = memref.load %62[%77, %1502] : memref<?x?xf32, strided<[?, 1]>> loc(#loc24)
      %1509 = vector.broadcast %1508 : f32 to vector<64xf32> loc(#loc24)
      %1510 = vector.fma %1400, %1506, %1410 : vector<64xf32> loc(#loc24)
      %1511 = memref.load %62[%81, %1502] : memref<?x?xf32, strided<[?, 1]>> loc(#loc24)
      %1512 = vector.broadcast %1511 : f32 to vector<64xf32> loc(#loc24)
      %1513 = vector.fma %1400, %1509, %1413 : vector<64xf32> loc(#loc24)
      %1514 = memref.load %62[%85, %1502] : memref<?x?xf32, strided<[?, 1]>> loc(#loc24)
      %1515 = vector.broadcast %1514 : f32 to vector<64xf32> loc(#loc24)
      %1516 = vector.fma %1400, %1512, %1416 : vector<64xf32> loc(#loc24)
      %1517 = memref.load %62[%89, %1502] : memref<?x?xf32, strided<[?, 1]>> loc(#loc24)
      %1518 = vector.broadcast %1517 : f32 to vector<64xf32> loc(#loc24)
      %1519 = vector.fma %1400, %1515, %1419 : vector<64xf32> loc(#loc24)
      %1520 = memref.load %62[%93, %1502] : memref<?x?xf32, strided<[?, 1]>> loc(#loc24)
      %1521 = vector.broadcast %1520 : f32 to vector<64xf32> loc(#loc24)
      %1522 = vector.fma %1400, %1518, %1422 : vector<64xf32> loc(#loc24)
      %1523 = memref.load %62[%97, %1502] : memref<?x?xf32, strided<[?, 1]>> loc(#loc24)
      %1524 = vector.broadcast %1523 : f32 to vector<64xf32> loc(#loc24)
      %1525 = vector.fma %1400, %1521, %1425 : vector<64xf32> loc(#loc24)
      %1526 = memref.load %62[%101, %1502] : memref<?x?xf32, strided<[?, 1]>> loc(#loc24)
      %1527 = vector.broadcast %1526 : f32 to vector<64xf32> loc(#loc24)
      %1528 = vector.fma %1400, %1524, %1428 : vector<64xf32> loc(#loc24)
      %1529 = memref.load %62[%105, %1502] : memref<?x?xf32, strided<[?, 1]>> loc(#loc24)
      %1530 = vector.broadcast %1529 : f32 to vector<64xf32> loc(#loc24)
      %1531 = vector.fma %1400, %1527, %1431 : vector<64xf32> loc(#loc24)
      %1532 = memref.load %62[%109, %1502] : memref<?x?xf32, strided<[?, 1]>> loc(#loc24)
      %1533 = vector.broadcast %1532 : f32 to vector<64xf32> loc(#loc24)
      %1534 = vector.fma %1400, %1530, %1434 : vector<64xf32> loc(#loc24)
      %1535 = memref.load %62[%113, %1502] : memref<?x?xf32, strided<[?, 1]>> loc(#loc24)
      %1536 = vector.broadcast %1535 : f32 to vector<64xf32> loc(#loc24)
      %1537 = vector.fma %1400, %1533, %1437 : vector<64xf32> loc(#loc24)
      %1538 = memref.load %62[%117, %1502] : memref<?x?xf32, strided<[?, 1]>> loc(#loc24)
      %1539 = vector.broadcast %1538 : f32 to vector<64xf32> loc(#loc24)
      %1540 = vector.fma %1400, %1536, %1440 : vector<64xf32> loc(#loc24)
      %1541 = memref.load %62[%121, %1502] : memref<?x?xf32, strided<[?, 1]>> loc(#loc24)
      %1542 = vector.broadcast %1541 : f32 to vector<64xf32> loc(#loc24)
      %1543 = vector.fma %1400, %1539, %1443 : vector<64xf32> loc(#loc24)
      %1544 = memref.load %62[%125, %1502] : memref<?x?xf32, strided<[?, 1]>> loc(#loc24)
      %1545 = vector.broadcast %1544 : f32 to vector<64xf32> loc(#loc24)
      %1546 = vector.fma %1400, %1542, %1446 : vector<64xf32> loc(#loc24)
      %1547 = memref.load %62[%129, %1502] : memref<?x?xf32, strided<[?, 1]>> loc(#loc24)
      %1548 = vector.broadcast %1547 : f32 to vector<64xf32> loc(#loc24)
      %1549 = vector.fma %1400, %1545, %1449 : vector<64xf32> loc(#loc24)
      %1550 = memref.load %62[%133, %1502] : memref<?x?xf32, strided<[?, 1]>> loc(#loc24)
      %1551 = vector.broadcast %1550 : f32 to vector<64xf32> loc(#loc24)
      %1552 = vector.fma %1400, %1548, %1452 : vector<64xf32> loc(#loc24)
      %1553 = memref.load %62[%137, %1502] : memref<?x?xf32, strided<[?, 1]>> loc(#loc24)
      %1554 = vector.broadcast %1553 : f32 to vector<64xf32> loc(#loc24)
      %1555 = vector.fma %1400, %1551, %1455 : vector<64xf32> loc(#loc24)
      %1556 = memref.load %62[%141, %1502] : memref<?x?xf32, strided<[?, 1]>> loc(#loc24)
      %1557 = vector.broadcast %1556 : f32 to vector<64xf32> loc(#loc24)
      %1558 = vector.fma %1400, %1554, %1458 : vector<64xf32> loc(#loc24)
      %1559 = memref.load %62[%145, %1502] : memref<?x?xf32, strided<[?, 1]>> loc(#loc24)
      %1560 = vector.broadcast %1559 : f32 to vector<64xf32> loc(#loc24)
      %1561 = vector.fma %1400, %1557, %1461 : vector<64xf32> loc(#loc24)
      %1562 = memref.load %62[%149, %1502] : memref<?x?xf32, strided<[?, 1]>> loc(#loc24)
      %1563 = vector.broadcast %1562 : f32 to vector<64xf32> loc(#loc24)
      %1564 = vector.fma %1400, %1560, %1464 : vector<64xf32> loc(#loc24)
      %1565 = memref.load %62[%153, %1502] : memref<?x?xf32, strided<[?, 1]>> loc(#loc24)
      %1566 = vector.broadcast %1565 : f32 to vector<64xf32> loc(#loc24)
      %1567 = vector.fma %1400, %1563, %1467 : vector<64xf32> loc(#loc24)
      %1568 = memref.load %62[%157, %1502] : memref<?x?xf32, strided<[?, 1]>> loc(#loc24)
      %1569 = vector.broadcast %1568 : f32 to vector<64xf32> loc(#loc24)
      %1570 = vector.fma %1400, %1566, %1470 : vector<64xf32> loc(#loc24)
      %1571 = memref.load %62[%161, %1502] : memref<?x?xf32, strided<[?, 1]>> loc(#loc24)
      %1572 = vector.broadcast %1571 : f32 to vector<64xf32> loc(#loc24)
      %1573 = vector.fma %1400, %1569, %1473 : vector<64xf32> loc(#loc24)
      %1574 = memref.load %62[%165, %1502] : memref<?x?xf32, strided<[?, 1]>> loc(#loc24)
      %1575 = vector.broadcast %1574 : f32 to vector<64xf32> loc(#loc24)
      %1576 = vector.fma %1400, %1572, %1476 : vector<64xf32> loc(#loc24)
      %1577 = memref.load %62[%169, %1502] : memref<?x?xf32, strided<[?, 1]>> loc(#loc24)
      %1578 = vector.broadcast %1577 : f32 to vector<64xf32> loc(#loc24)
      %1579 = vector.fma %1400, %1575, %1479 : vector<64xf32> loc(#loc24)
      %1580 = memref.load %62[%173, %1502] : memref<?x?xf32, strided<[?, 1]>> loc(#loc24)
      %1581 = vector.broadcast %1580 : f32 to vector<64xf32> loc(#loc24)
      %1582 = vector.fma %1400, %1578, %1482 : vector<64xf32> loc(#loc24)
      %1583 = memref.load %62[%177, %1502] : memref<?x?xf32, strided<[?, 1]>> loc(#loc24)
      %1584 = vector.broadcast %1583 : f32 to vector<64xf32> loc(#loc24)
      %1585 = vector.fma %1400, %1581, %1485 : vector<64xf32> loc(#loc24)
      %1586 = memref.load %62[%181, %1502] : memref<?x?xf32, strided<[?, 1]>> loc(#loc24)
      %1587 = vector.broadcast %1586 : f32 to vector<64xf32> loc(#loc24)
      %1588 = vector.fma %1400, %1584, %1488 : vector<64xf32> loc(#loc24)
      %1589 = memref.load %62[%185, %1502] : memref<?x?xf32, strided<[?, 1]>> loc(#loc24)
      %1590 = vector.broadcast %1589 : f32 to vector<64xf32> loc(#loc24)
      %1591 = vector.fma %1400, %1587, %1491 : vector<64xf32> loc(#loc24)
      %1592 = memref.load %62[%189, %1502] : memref<?x?xf32, strided<[?, 1]>> loc(#loc24)
      %1593 = vector.broadcast %1592 : f32 to vector<64xf32> loc(#loc24)
      %1594 = vector.fma %1400, %1590, %1494 : vector<64xf32> loc(#loc24)
      %1595 = memref.load %62[%193, %1502] : memref<?x?xf32, strided<[?, 1]>> loc(#loc24)
      %1596 = vector.broadcast %1595 : f32 to vector<64xf32> loc(#loc24)
      %1597 = vector.fma %1400, %1593, %1497 : vector<64xf32> loc(#loc24)
      %1598 = vector.fma %1400, %1596, %1498 : vector<64xf32> loc(#loc24)
      %1599 = arith.addi %65#0, %c16 : index loc(#loc24)
      %1600 = vector.load %64[%1599, %65#1] : memref<?x?xf32, strided<[?, 1]>>, vector<64xf32> loc(#loc24)
      %1601 = arith.addi %65#0, %c47 : index loc(#loc24)
      memref.prefetch %64[%1601, %65#1], read, locality<1>, data : memref<?x?xf32, strided<[?, 1]>> loc(#loc24)
      %1602 = arith.addi %63#1, %c15 : index loc(#loc24)
      %1603 = memref.load %62[%63#0, %1602] : memref<?x?xf32, strided<[?, 1]>> loc(#loc24)
      %1604 = vector.broadcast %1603 : f32 to vector<64xf32> loc(#loc24)
      %1605 = memref.load %62[%73, %1602] : memref<?x?xf32, strided<[?, 1]>> loc(#loc24)
      %1606 = vector.broadcast %1605 : f32 to vector<64xf32> loc(#loc24)
      %1607 = vector.fma %1500, %1604, %1507 : vector<64xf32> loc(#loc24)
      %1608 = memref.load %62[%77, %1602] : memref<?x?xf32, strided<[?, 1]>> loc(#loc24)
      %1609 = vector.broadcast %1608 : f32 to vector<64xf32> loc(#loc24)
      %1610 = vector.fma %1500, %1606, %1510 : vector<64xf32> loc(#loc24)
      %1611 = memref.load %62[%81, %1602] : memref<?x?xf32, strided<[?, 1]>> loc(#loc24)
      %1612 = vector.broadcast %1611 : f32 to vector<64xf32> loc(#loc24)
      %1613 = vector.fma %1500, %1609, %1513 : vector<64xf32> loc(#loc24)
      %1614 = memref.load %62[%85, %1602] : memref<?x?xf32, strided<[?, 1]>> loc(#loc24)
      %1615 = vector.broadcast %1614 : f32 to vector<64xf32> loc(#loc24)
      %1616 = vector.fma %1500, %1612, %1516 : vector<64xf32> loc(#loc24)
      %1617 = memref.load %62[%89, %1602] : memref<?x?xf32, strided<[?, 1]>> loc(#loc24)
      %1618 = vector.broadcast %1617 : f32 to vector<64xf32> loc(#loc24)
      %1619 = vector.fma %1500, %1615, %1519 : vector<64xf32> loc(#loc24)
      %1620 = memref.load %62[%93, %1602] : memref<?x?xf32, strided<[?, 1]>> loc(#loc24)
      %1621 = vector.broadcast %1620 : f32 to vector<64xf32> loc(#loc24)
      %1622 = vector.fma %1500, %1618, %1522 : vector<64xf32> loc(#loc24)
      %1623 = memref.load %62[%97, %1602] : memref<?x?xf32, strided<[?, 1]>> loc(#loc24)
      %1624 = vector.broadcast %1623 : f32 to vector<64xf32> loc(#loc24)
      %1625 = vector.fma %1500, %1621, %1525 : vector<64xf32> loc(#loc24)
      %1626 = memref.load %62[%101, %1602] : memref<?x?xf32, strided<[?, 1]>> loc(#loc24)
      %1627 = vector.broadcast %1626 : f32 to vector<64xf32> loc(#loc24)
      %1628 = vector.fma %1500, %1624, %1528 : vector<64xf32> loc(#loc24)
      %1629 = memref.load %62[%105, %1602] : memref<?x?xf32, strided<[?, 1]>> loc(#loc24)
      %1630 = vector.broadcast %1629 : f32 to vector<64xf32> loc(#loc24)
      %1631 = vector.fma %1500, %1627, %1531 : vector<64xf32> loc(#loc24)
      %1632 = memref.load %62[%109, %1602] : memref<?x?xf32, strided<[?, 1]>> loc(#loc24)
      %1633 = vector.broadcast %1632 : f32 to vector<64xf32> loc(#loc24)
      %1634 = vector.fma %1500, %1630, %1534 : vector<64xf32> loc(#loc24)
      %1635 = memref.load %62[%113, %1602] : memref<?x?xf32, strided<[?, 1]>> loc(#loc24)
      %1636 = vector.broadcast %1635 : f32 to vector<64xf32> loc(#loc24)
      %1637 = vector.fma %1500, %1633, %1537 : vector<64xf32> loc(#loc24)
      %1638 = memref.load %62[%117, %1602] : memref<?x?xf32, strided<[?, 1]>> loc(#loc24)
      %1639 = vector.broadcast %1638 : f32 to vector<64xf32> loc(#loc24)
      %1640 = vector.fma %1500, %1636, %1540 : vector<64xf32> loc(#loc24)
      %1641 = memref.load %62[%121, %1602] : memref<?x?xf32, strided<[?, 1]>> loc(#loc24)
      %1642 = vector.broadcast %1641 : f32 to vector<64xf32> loc(#loc24)
      %1643 = vector.fma %1500, %1639, %1543 : vector<64xf32> loc(#loc24)
      %1644 = memref.load %62[%125, %1602] : memref<?x?xf32, strided<[?, 1]>> loc(#loc24)
      %1645 = vector.broadcast %1644 : f32 to vector<64xf32> loc(#loc24)
      %1646 = vector.fma %1500, %1642, %1546 : vector<64xf32> loc(#loc24)
      %1647 = memref.load %62[%129, %1602] : memref<?x?xf32, strided<[?, 1]>> loc(#loc24)
      %1648 = vector.broadcast %1647 : f32 to vector<64xf32> loc(#loc24)
      %1649 = vector.fma %1500, %1645, %1549 : vector<64xf32> loc(#loc24)
      %1650 = memref.load %62[%133, %1602] : memref<?x?xf32, strided<[?, 1]>> loc(#loc24)
      %1651 = vector.broadcast %1650 : f32 to vector<64xf32> loc(#loc24)
      %1652 = vector.fma %1500, %1648, %1552 : vector<64xf32> loc(#loc24)
      %1653 = memref.load %62[%137, %1602] : memref<?x?xf32, strided<[?, 1]>> loc(#loc24)
      %1654 = vector.broadcast %1653 : f32 to vector<64xf32> loc(#loc24)
      %1655 = vector.fma %1500, %1651, %1555 : vector<64xf32> loc(#loc24)
      %1656 = memref.load %62[%141, %1602] : memref<?x?xf32, strided<[?, 1]>> loc(#loc24)
      %1657 = vector.broadcast %1656 : f32 to vector<64xf32> loc(#loc24)
      %1658 = vector.fma %1500, %1654, %1558 : vector<64xf32> loc(#loc24)
      %1659 = memref.load %62[%145, %1602] : memref<?x?xf32, strided<[?, 1]>> loc(#loc24)
      %1660 = vector.broadcast %1659 : f32 to vector<64xf32> loc(#loc24)
      %1661 = vector.fma %1500, %1657, %1561 : vector<64xf32> loc(#loc24)
      %1662 = memref.load %62[%149, %1602] : memref<?x?xf32, strided<[?, 1]>> loc(#loc24)
      %1663 = vector.broadcast %1662 : f32 to vector<64xf32> loc(#loc24)
      %1664 = vector.fma %1500, %1660, %1564 : vector<64xf32> loc(#loc24)
      %1665 = memref.load %62[%153, %1602] : memref<?x?xf32, strided<[?, 1]>> loc(#loc24)
      %1666 = vector.broadcast %1665 : f32 to vector<64xf32> loc(#loc24)
      %1667 = vector.fma %1500, %1663, %1567 : vector<64xf32> loc(#loc24)
      %1668 = memref.load %62[%157, %1602] : memref<?x?xf32, strided<[?, 1]>> loc(#loc24)
      %1669 = vector.broadcast %1668 : f32 to vector<64xf32> loc(#loc24)
      %1670 = vector.fma %1500, %1666, %1570 : vector<64xf32> loc(#loc24)
      %1671 = memref.load %62[%161, %1602] : memref<?x?xf32, strided<[?, 1]>> loc(#loc24)
      %1672 = vector.broadcast %1671 : f32 to vector<64xf32> loc(#loc24)
      %1673 = vector.fma %1500, %1669, %1573 : vector<64xf32> loc(#loc24)
      %1674 = memref.load %62[%165, %1602] : memref<?x?xf32, strided<[?, 1]>> loc(#loc24)
      %1675 = vector.broadcast %1674 : f32 to vector<64xf32> loc(#loc24)
      %1676 = vector.fma %1500, %1672, %1576 : vector<64xf32> loc(#loc24)
      %1677 = memref.load %62[%169, %1602] : memref<?x?xf32, strided<[?, 1]>> loc(#loc24)
      %1678 = vector.broadcast %1677 : f32 to vector<64xf32> loc(#loc24)
      %1679 = vector.fma %1500, %1675, %1579 : vector<64xf32> loc(#loc24)
      %1680 = memref.load %62[%173, %1602] : memref<?x?xf32, strided<[?, 1]>> loc(#loc24)
      %1681 = vector.broadcast %1680 : f32 to vector<64xf32> loc(#loc24)
      %1682 = vector.fma %1500, %1678, %1582 : vector<64xf32> loc(#loc24)
      %1683 = memref.load %62[%177, %1602] : memref<?x?xf32, strided<[?, 1]>> loc(#loc24)
      %1684 = vector.broadcast %1683 : f32 to vector<64xf32> loc(#loc24)
      %1685 = vector.fma %1500, %1681, %1585 : vector<64xf32> loc(#loc24)
      %1686 = memref.load %62[%181, %1602] : memref<?x?xf32, strided<[?, 1]>> loc(#loc24)
      %1687 = vector.broadcast %1686 : f32 to vector<64xf32> loc(#loc24)
      %1688 = vector.fma %1500, %1684, %1588 : vector<64xf32> loc(#loc24)
      %1689 = memref.load %62[%185, %1602] : memref<?x?xf32, strided<[?, 1]>> loc(#loc24)
      %1690 = vector.broadcast %1689 : f32 to vector<64xf32> loc(#loc24)
      %1691 = vector.fma %1500, %1687, %1591 : vector<64xf32> loc(#loc24)
      %1692 = memref.load %62[%189, %1602] : memref<?x?xf32, strided<[?, 1]>> loc(#loc24)
      %1693 = vector.broadcast %1692 : f32 to vector<64xf32> loc(#loc24)
      %1694 = vector.fma %1500, %1690, %1594 : vector<64xf32> loc(#loc24)
      %1695 = memref.load %62[%193, %1602] : memref<?x?xf32, strided<[?, 1]>> loc(#loc24)
      %1696 = vector.broadcast %1695 : f32 to vector<64xf32> loc(#loc24)
      %1697 = vector.fma %1500, %1693, %1597 : vector<64xf32> loc(#loc24)
      %1698 = vector.fma %1500, %1696, %1598 : vector<64xf32> loc(#loc24)
      %1699 = arith.addi %65#0, %c17 : index loc(#loc24)
      %1700 = vector.load %64[%1699, %65#1] : memref<?x?xf32, strided<[?, 1]>>, vector<64xf32> loc(#loc24)
      %1701 = arith.addi %65#0, %c48 : index loc(#loc24)
      memref.prefetch %64[%1701, %65#1], read, locality<1>, data : memref<?x?xf32, strided<[?, 1]>> loc(#loc24)
      %1702 = arith.addi %63#1, %c16 : index loc(#loc24)
      %1703 = memref.load %62[%63#0, %1702] : memref<?x?xf32, strided<[?, 1]>> loc(#loc24)
      %1704 = vector.broadcast %1703 : f32 to vector<64xf32> loc(#loc24)
      %1705 = memref.load %62[%73, %1702] : memref<?x?xf32, strided<[?, 1]>> loc(#loc24)
      %1706 = vector.broadcast %1705 : f32 to vector<64xf32> loc(#loc24)
      %1707 = arith.addi %63#1, %c48 : index loc(#loc24)
      memref.prefetch %62[%63#0, %1707], read, locality<3>, data : memref<?x?xf32, strided<[?, 1]>> loc(#loc24)
      %1708 = vector.fma %1600, %1704, %1607 : vector<64xf32> loc(#loc24)
      %1709 = memref.load %62[%77, %1702] : memref<?x?xf32, strided<[?, 1]>> loc(#loc24)
      %1710 = vector.broadcast %1709 : f32 to vector<64xf32> loc(#loc24)
      memref.prefetch %62[%73, %1707], read, locality<3>, data : memref<?x?xf32, strided<[?, 1]>> loc(#loc24)
      %1711 = vector.fma %1600, %1706, %1610 : vector<64xf32> loc(#loc24)
      %1712 = memref.load %62[%81, %1702] : memref<?x?xf32, strided<[?, 1]>> loc(#loc24)
      %1713 = vector.broadcast %1712 : f32 to vector<64xf32> loc(#loc24)
      memref.prefetch %62[%77, %1707], read, locality<3>, data : memref<?x?xf32, strided<[?, 1]>> loc(#loc24)
      %1714 = vector.fma %1600, %1710, %1613 : vector<64xf32> loc(#loc24)
      %1715 = memref.load %62[%85, %1702] : memref<?x?xf32, strided<[?, 1]>> loc(#loc24)
      %1716 = vector.broadcast %1715 : f32 to vector<64xf32> loc(#loc24)
      memref.prefetch %62[%81, %1707], read, locality<3>, data : memref<?x?xf32, strided<[?, 1]>> loc(#loc24)
      %1717 = vector.fma %1600, %1713, %1616 : vector<64xf32> loc(#loc24)
      %1718 = memref.load %62[%89, %1702] : memref<?x?xf32, strided<[?, 1]>> loc(#loc24)
      %1719 = vector.broadcast %1718 : f32 to vector<64xf32> loc(#loc24)
      memref.prefetch %62[%85, %1707], read, locality<3>, data : memref<?x?xf32, strided<[?, 1]>> loc(#loc24)
      %1720 = vector.fma %1600, %1716, %1619 : vector<64xf32> loc(#loc24)
      %1721 = memref.load %62[%93, %1702] : memref<?x?xf32, strided<[?, 1]>> loc(#loc24)
      %1722 = vector.broadcast %1721 : f32 to vector<64xf32> loc(#loc24)
      memref.prefetch %62[%89, %1707], read, locality<3>, data : memref<?x?xf32, strided<[?, 1]>> loc(#loc24)
      %1723 = vector.fma %1600, %1719, %1622 : vector<64xf32> loc(#loc24)
      %1724 = memref.load %62[%97, %1702] : memref<?x?xf32, strided<[?, 1]>> loc(#loc24)
      %1725 = vector.broadcast %1724 : f32 to vector<64xf32> loc(#loc24)
      memref.prefetch %62[%93, %1707], read, locality<3>, data : memref<?x?xf32, strided<[?, 1]>> loc(#loc24)
      %1726 = vector.fma %1600, %1722, %1625 : vector<64xf32> loc(#loc24)
      %1727 = memref.load %62[%101, %1702] : memref<?x?xf32, strided<[?, 1]>> loc(#loc24)
      %1728 = vector.broadcast %1727 : f32 to vector<64xf32> loc(#loc24)
      memref.prefetch %62[%97, %1707], read, locality<3>, data : memref<?x?xf32, strided<[?, 1]>> loc(#loc24)
      %1729 = vector.fma %1600, %1725, %1628 : vector<64xf32> loc(#loc24)
      %1730 = memref.load %62[%105, %1702] : memref<?x?xf32, strided<[?, 1]>> loc(#loc24)
      %1731 = vector.broadcast %1730 : f32 to vector<64xf32> loc(#loc24)
      memref.prefetch %62[%101, %1707], read, locality<3>, data : memref<?x?xf32, strided<[?, 1]>> loc(#loc24)
      %1732 = vector.fma %1600, %1728, %1631 : vector<64xf32> loc(#loc24)
      %1733 = memref.load %62[%109, %1702] : memref<?x?xf32, strided<[?, 1]>> loc(#loc24)
      %1734 = vector.broadcast %1733 : f32 to vector<64xf32> loc(#loc24)
      memref.prefetch %62[%105, %1707], read, locality<3>, data : memref<?x?xf32, strided<[?, 1]>> loc(#loc24)
      %1735 = vector.fma %1600, %1731, %1634 : vector<64xf32> loc(#loc24)
      %1736 = memref.load %62[%113, %1702] : memref<?x?xf32, strided<[?, 1]>> loc(#loc24)
      %1737 = vector.broadcast %1736 : f32 to vector<64xf32> loc(#loc24)
      memref.prefetch %62[%109, %1707], read, locality<3>, data : memref<?x?xf32, strided<[?, 1]>> loc(#loc24)
      %1738 = vector.fma %1600, %1734, %1637 : vector<64xf32> loc(#loc24)
      %1739 = memref.load %62[%117, %1702] : memref<?x?xf32, strided<[?, 1]>> loc(#loc24)
      %1740 = vector.broadcast %1739 : f32 to vector<64xf32> loc(#loc24)
      memref.prefetch %62[%113, %1707], read, locality<3>, data : memref<?x?xf32, strided<[?, 1]>> loc(#loc24)
      %1741 = vector.fma %1600, %1737, %1640 : vector<64xf32> loc(#loc24)
      %1742 = memref.load %62[%121, %1702] : memref<?x?xf32, strided<[?, 1]>> loc(#loc24)
      %1743 = vector.broadcast %1742 : f32 to vector<64xf32> loc(#loc24)
      memref.prefetch %62[%117, %1707], read, locality<3>, data : memref<?x?xf32, strided<[?, 1]>> loc(#loc24)
      %1744 = vector.fma %1600, %1740, %1643 : vector<64xf32> loc(#loc24)
      %1745 = memref.load %62[%125, %1702] : memref<?x?xf32, strided<[?, 1]>> loc(#loc24)
      %1746 = vector.broadcast %1745 : f32 to vector<64xf32> loc(#loc24)
      memref.prefetch %62[%121, %1707], read, locality<3>, data : memref<?x?xf32, strided<[?, 1]>> loc(#loc24)
      %1747 = vector.fma %1600, %1743, %1646 : vector<64xf32> loc(#loc24)
      %1748 = memref.load %62[%129, %1702] : memref<?x?xf32, strided<[?, 1]>> loc(#loc24)
      %1749 = vector.broadcast %1748 : f32 to vector<64xf32> loc(#loc24)
      memref.prefetch %62[%125, %1707], read, locality<3>, data : memref<?x?xf32, strided<[?, 1]>> loc(#loc24)
      %1750 = vector.fma %1600, %1746, %1649 : vector<64xf32> loc(#loc24)
      %1751 = memref.load %62[%133, %1702] : memref<?x?xf32, strided<[?, 1]>> loc(#loc24)
      %1752 = vector.broadcast %1751 : f32 to vector<64xf32> loc(#loc24)
      memref.prefetch %62[%129, %1707], read, locality<3>, data : memref<?x?xf32, strided<[?, 1]>> loc(#loc24)
      %1753 = vector.fma %1600, %1749, %1652 : vector<64xf32> loc(#loc24)
      %1754 = memref.load %62[%137, %1702] : memref<?x?xf32, strided<[?, 1]>> loc(#loc24)
      %1755 = vector.broadcast %1754 : f32 to vector<64xf32> loc(#loc24)
      memref.prefetch %62[%133, %1707], read, locality<3>, data : memref<?x?xf32, strided<[?, 1]>> loc(#loc24)
      %1756 = vector.fma %1600, %1752, %1655 : vector<64xf32> loc(#loc24)
      %1757 = memref.load %62[%141, %1702] : memref<?x?xf32, strided<[?, 1]>> loc(#loc24)
      %1758 = vector.broadcast %1757 : f32 to vector<64xf32> loc(#loc24)
      memref.prefetch %62[%137, %1707], read, locality<3>, data : memref<?x?xf32, strided<[?, 1]>> loc(#loc24)
      %1759 = vector.fma %1600, %1755, %1658 : vector<64xf32> loc(#loc24)
      %1760 = memref.load %62[%145, %1702] : memref<?x?xf32, strided<[?, 1]>> loc(#loc24)
      %1761 = vector.broadcast %1760 : f32 to vector<64xf32> loc(#loc24)
      memref.prefetch %62[%141, %1707], read, locality<3>, data : memref<?x?xf32, strided<[?, 1]>> loc(#loc24)
      %1762 = vector.fma %1600, %1758, %1661 : vector<64xf32> loc(#loc24)
      %1763 = memref.load %62[%149, %1702] : memref<?x?xf32, strided<[?, 1]>> loc(#loc24)
      %1764 = vector.broadcast %1763 : f32 to vector<64xf32> loc(#loc24)
      memref.prefetch %62[%145, %1707], read, locality<3>, data : memref<?x?xf32, strided<[?, 1]>> loc(#loc24)
      %1765 = vector.fma %1600, %1761, %1664 : vector<64xf32> loc(#loc24)
      %1766 = memref.load %62[%153, %1702] : memref<?x?xf32, strided<[?, 1]>> loc(#loc24)
      %1767 = vector.broadcast %1766 : f32 to vector<64xf32> loc(#loc24)
      memref.prefetch %62[%149, %1707], read, locality<3>, data : memref<?x?xf32, strided<[?, 1]>> loc(#loc24)
      %1768 = vector.fma %1600, %1764, %1667 : vector<64xf32> loc(#loc24)
      %1769 = memref.load %62[%157, %1702] : memref<?x?xf32, strided<[?, 1]>> loc(#loc24)
      %1770 = vector.broadcast %1769 : f32 to vector<64xf32> loc(#loc24)
      memref.prefetch %62[%153, %1707], read, locality<3>, data : memref<?x?xf32, strided<[?, 1]>> loc(#loc24)
      %1771 = vector.fma %1600, %1767, %1670 : vector<64xf32> loc(#loc24)
      %1772 = memref.load %62[%161, %1702] : memref<?x?xf32, strided<[?, 1]>> loc(#loc24)
      %1773 = vector.broadcast %1772 : f32 to vector<64xf32> loc(#loc24)
…
      %2757 = vector.fma %2602, %2753, %2657 : vector<64xf32> loc(#loc24)
      %2758 = memref.load %62[%141, %2704] : memref<?x?xf32, strided<[?, 1]>> loc(#loc24)
      %2759 = vector.broadcast %2758 : f32 to vector<64xf32> loc(#loc24)
      %2760 = vector.fma %2602, %2756, %2660 : vector<64xf32> loc(#loc24)
      %2761 = memref.load %62[%145, %2704] : memref<?x?xf32, strided<[?, 1]>> loc(#loc24)
      %2762 = vector.broadcast %2761 : f32 to vector<64xf32> loc(#loc24)
      %2763 = vector.fma %2602, %2759, %2663 : vector<64xf32> loc(#loc24)
      %2764 = memref.load %62[%149, %2704] : memref<?x?xf32, strided<[?, 1]>> loc(#loc24)
      %2765 = vector.broadcast %2764 : f32 to vector<64xf32> loc(#loc24)
      %2766 = vector.fma %2602, %2762, %2666 : vector<64xf32> loc(#loc24)
      %2767 = memref.load %62[%153, %2704] : memref<?x?xf32, strided<[?, 1]>> loc(#loc24)
      %2768 = vector.broadcast %2767 : f32 to vector<64xf32> loc(#loc24)
      %2769 = vector.fma %2602, %2765, %2669 : vector<64xf32> loc(#loc24)
      %2770 = memref.load %62[%157, %2704] : memref<?x?xf32, strided<[?, 1]>> loc(#loc24)
      %2771 = vector.broadcast %2770 : f32 to vector<64xf32> loc(#loc24)
      %2772 = vector.fma %2602, %2768, %2672 : vector<64xf32> loc(#loc24)
      %2773 = memref.load %62[%161, %2704] : memref<?x?xf32, strided<[?, 1]>> loc(#loc24)
      %2774 = vector.broadcast %2773 : f32 to vector<64xf32> loc(#loc24)
      %2775 = vector.fma %2602, %2771, %2675 : vector<64xf32> loc(#loc24)
      %2776 = memref.load %62[%165, %2704] : memref<?x?xf32, strided<[?, 1]>> loc(#loc24)
      %2777 = vector.broadcast %2776 : f32 to vector<64xf32> loc(#loc24)
      %2778 = vector.fma %2602, %2774, %2678 : vector<64xf32> loc(#loc24)
      %2779 = memref.load %62[%169, %2704] : memref<?x?xf32, strided<[?, 1]>> loc(#loc24)
      %2780 = vector.broadcast %2779 : f32 to vector<64xf32> loc(#loc24)
      %2781 = vector.fma %2602, %2777, %2681 : vector<64xf32> loc(#loc24)
      %2782 = memref.load %62[%173, %2704] : memref<?x?xf32, strided<[?, 1]>> loc(#loc24)
      %2783 = vector.broadcast %2782 : f32 to vector<64xf32> loc(#loc24)
      %2784 = vector.fma %2602, %2780, %2684 : vector<64xf32> loc(#loc24)
      %2785 = memref.load %62[%177, %2704] : memref<?x?xf32, strided<[?, 1]>> loc(#loc24)
      %2786 = vector.broadcast %2785 : f32 to vector<64xf32> loc(#loc24)
      %2787 = vector.fma %2602, %2783, %2687 : vector<64xf32> loc(#loc24)
      %2788 = memref.load %62[%181, %2704] : memref<?x?xf32, strided<[?, 1]>> loc(#loc24)
      %2789 = vector.broadcast %2788 : f32 to vector<64xf32> loc(#loc24)
      %2790 = vector.fma %2602, %2786, %2690 : vector<64xf32> loc(#loc24)
      %2791 = memref.load %62[%185, %2704] : memref<?x?xf32, strided<[?, 1]>> loc(#loc24)
      %2792 = vector.broadcast %2791 : f32 to vector<64xf32> loc(#loc24)
      %2793 = vector.fma %2602, %2789, %2693 : vector<64xf32> loc(#loc24)
      %2794 = memref.load %62[%189, %2704] : memref<?x?xf32, strided<[?, 1]>> loc(#loc24)
      %2795 = vector.broadcast %2794 : f32 to vector<64xf32> loc(#loc24)
      %2796 = vector.fma %2602, %2792, %2696 : vector<64xf32> loc(#loc24)
      %2797 = memref.load %62[%193, %2704] : memref<?x?xf32, strided<[?, 1]>> loc(#loc24)
      %2798 = vector.broadcast %2797 : f32 to vector<64xf32> loc(#loc24)
      %2799 = vector.fma %2602, %2795, %2699 : vector<64xf32> loc(#loc24)
      %2800 = vector.fma %2602, %2798, %2700 : vector<64xf32> loc(#loc24)
      %2801 = arith.addi %65#0, %c28 : index loc(#loc24)
      %2802 = vector.load %64[%2801, %65#1] : memref<?x?xf32, strided<[?, 1]>>, vector<64xf32> loc(#loc24)
      %2803 = arith.addi %65#0, %c59 : index loc(#loc24)
      memref.prefetch %64[%2803, %65#1], read, locality<1>, data : memref<?x?xf32, strided<[?, 1]>> loc(#loc24)
      %2804 = arith.addi %63#1, %c27 : index loc(#loc24)
      %2805 = memref.load %62[%63#0, %2804] : memref<?x?xf32, strided<[?, 1]>> loc(#loc24)
      %2806 = vector.broadcast %2805 : f32 to vector<64xf32> loc(#loc24)
      %2807 = memref.load %62[%73, %2804] : memref<?x?xf32, strided<[?, 1]>> loc(#loc24)
      %2808 = vector.broadcast %2807 : f32 to vector<64xf32> loc(#loc24)
      %2809 = vector.fma %2702, %2806, %2709 : vector<64xf32> loc(#loc24)
      %2810 = memref.load %62[%77, %2804] : memref<?x?xf32, strided<[?, 1]>> loc(#loc24)
      %2811 = vector.broadcast %2810 : f32 to vector<64xf32> loc(#loc24)
      %2812 = vector.fma %2702, %2808, %2712 : vector<64xf32> loc(#loc24)
      %2813 = memref.load %62[%81, %2804] : memref<?x?xf32, strided<[?, 1]>> loc(#loc24)
      %2814 = vector.broadcast %2813 : f32 to vector<64xf32> loc(#loc24)
      %2815 = vector.fma %2702, %2811, %2715 : vector<64xf32> loc(#loc24)
      %2816 = memref.load %62[%85, %2804] : memref<?x?xf32, strided<[?, 1]>> loc(#loc24)
      %2817 = vector.broadcast %2816 : f32 to vector<64xf32> loc(#loc24)
      %2818 = vector.fma %2702, %2814, %2718 : vector<64xf32> loc(#loc24)
      %2819 = memref.load %62[%89, %2804] : memref<?x?xf32, strided<[?, 1]>> loc(#loc24)
      %2820 = vector.broadcast %2819 : f32 to vector<64xf32> loc(#loc24)
      %2821 = vector.fma %2702, %2817, %2721 : vector<64xf32> loc(#loc24)
      %2822 = memref.load %62[%93, %2804] : memref<?x?xf32, strided<[?, 1]>> loc(#loc24)
      %2823 = vector.broadcast %2822 : f32 to vector<64xf32> loc(#loc24)
      %2824 = vector.fma %2702, %2820, %2724 : vector<64xf32> loc(#loc24)
      %2825 = memref.load %62[%97, %2804] : memref<?x?xf32, strided<[?, 1]>> loc(#loc24)
      %2826 = vector.broadcast %2825 : f32 to vector<64xf32> loc(#loc24)
      %2827 = vector.fma %2702, %2823, %2727 : vector<64xf32> loc(#loc24)
      %2828 = memref.load %62[%101, %2804] : memref<?x?xf32, strided<[?, 1]>> loc(#loc24)
      %2829 = vector.broadcast %2828 : f32 to vector<64xf32> loc(#loc24)
      %2830 = vector.fma %2702, %2826, %2730 : vector<64xf32> loc(#loc24)
      %2831 = memref.load %62[%105, %2804] : memref<?x?xf32, strided<[?, 1]>> loc(#loc24)
      %2832 = vector.broadcast %2831 : f32 to vector<64xf32> loc(#loc24)
      %2833 = vector.fma %2702, %2829, %2733 : vector<64xf32> loc(#loc24)
      %2834 = memref.load %62[%109, %2804] : memref<?x?xf32, strided<[?, 1]>> loc(#loc24)
      %2835 = vector.broadcast %2834 : f32 to vector<64xf32> loc(#loc24)
      %2836 = vector.fma %2702, %2832, %2736 : vector<64xf32> loc(#loc24)
      %2837 = memref.load %62[%113, %2804] : memref<?x?xf32, strided<[?, 1]>> loc(#loc24)
      %2838 = vector.broadcast %2837 : f32 to vector<64xf32> loc(#loc24)
      %2839 = vector.fma %2702, %2835, %2739 : vector<64xf32> loc(#loc24)
      %2840 = memref.load %62[%117, %2804] : memref<?x?xf32, strided<[?, 1]>> loc(#loc24)
      %2841 = vector.broadcast %2840 : f32 to vector<64xf32> loc(#loc24)
      %2842 = vector.fma %2702, %2838, %2742 : vector<64xf32> loc(#loc24)
      %2843 = memref.load %62[%121, %2804] : memref<?x?xf32, strided<[?, 1]>> loc(#loc24)
      %2844 = vector.broadcast %2843 : f32 to vector<64xf32> loc(#loc24)
      %2845 = vector.fma %2702, %2841, %2745 : vector<64xf32> loc(#loc24)
      %2846 = memref.load %62[%125, %2804] : memref<?x?xf32, strided<[?, 1]>> loc(#loc24)
      %2847 = vector.broadcast %2846 : f32 to vector<64xf32> loc(#loc24)
      %2848 = vector.fma %2702, %2844, %2748 : vector<64xf32> loc(#loc24)
      %2849 = memref.load %62[%129, %2804] : memref<?x?xf32, strided<[?, 1]>> loc(#loc24)
      %2850 = vector.broadcast %2849 : f32 to vector<64xf32> loc(#loc24)
      %2851 = vector.fma %2702, %2847, %2751 : vector<64xf32> loc(#loc24)
      %2852 = memref.load %62[%133, %2804] : memref<?x?xf32, strided<[?, 1]>> loc(#loc24)
      %2853 = vector.broadcast %2852 : f32 to vector<64xf32> loc(#loc24)
      %2854 = vector.fma %2702, %2850, %2754 : vector<64xf32> loc(#loc24)
      %2855 = memref.load %62[%137, %2804] : memref<?x?xf32, strided<[?, 1]>> loc(#loc24)
      %2856 = vector.broadcast %2855 : f32 to vector<64xf32> loc(#loc24)
      %2857 = vector.fma %2702, %2853, %2757 : vector<64xf32> loc(#loc24)
      %2858 = memref.load %62[%141, %2804] : memref<?x?xf32, strided<[?, 1]>> loc(#loc24)
      %2859 = vector.broadcast %2858 : f32 to vector<64xf32> loc(#loc24)
      %2860 = vector.fma %2702, %2856, %2760 : vector<64xf32> loc(#loc24)
      %2861 = memref.load %62[%145, %2804] : memref<?x?xf32, strided<[?, 1]>> loc(#loc24)
      %2862 = vector.broadcast %2861 : f32 to vector<64xf32> loc(#loc24)
      %2863 = vector.fma %2702, %2859, %2763 : vector<64xf32> loc(#loc24)
      %2864 = memref.load %62[%149, %2804] : memref<?x?xf32, strided<[?, 1]>> loc(#loc24)
      %2865 = vector.broadcast %2864 : f32 to vector<64xf32> loc(#loc24)
      %2866 = vector.fma %2702, %2862, %2766 : vector<64xf32> loc(#loc24)
      %2867 = memref.load %62[%153, %2804] : memref<?x?xf32, strided<[?, 1]>> loc(#loc24)
      %2868 = vector.broadcast %2867 : f32 to vector<64xf32> loc(#loc24)
      %2869 = vector.fma %2702, %2865, %2769 : vector<64xf32> loc(#loc24)
      %2870 = memref.load %62[%157, %2804] : memref<?x?xf32, strided<[?, 1]>> loc(#loc24)
      %2871 = vector.broadcast %2870 : f32 to vector<64xf32> loc(#loc24)
      %2872 = vector.fma %2702, %2868, %2772 : vector<64xf32> loc(#loc24)
      %2873 = memref.load %62[%161, %2804] : memref<?x?xf32, strided<[?, 1]>> loc(#loc24)
      %2874 = vector.broadcast %2873 : f32 to vector<64xf32> loc(#loc24)
      %2875 = vector.fma %2702, %2871, %2775 : vector<64xf32> loc(#loc24)
      %2876 = memref.load %62[%165, %2804] : memref<?x?xf32, strided<[?, 1]>> loc(#loc24)
      %2877 = vector.broadcast %2876 : f32 to vector<64xf32> loc(#loc24)
      %2878 = vector.fma %2702, %2874, %2778 : vector<64xf32> loc(#loc24)
      %2879 = memref.load %62[%169, %2804] : memref<?x?xf32, strided<[?, 1]>> loc(#loc24)
      %2880 = vector.broadcast %2879 : f32 to vector<64xf32> loc(#loc24)
      %2881 = vector.fma %2702, %2877, %2781 : vector<64xf32> loc(#loc24)
      %2882 = memref.load %62[%173, %2804] : memref<?x?xf32, strided<[?, 1]>> loc(#loc24)
      %2883 = vector.broadcast %2882 : f32 to vector<64xf32> loc(#loc24)
      %2884 = vector.fma %2702, %2880, %2784 : vector<64xf32> loc(#loc24)
      %2885 = memref.load %62[%177, %2804] : memref<?x?xf32, strided<[?, 1]>> loc(#loc24)
      %2886 = vector.broadcast %2885 : f32 to vector<64xf32> loc(#loc24)
      %2887 = vector.fma %2702, %2883, %2787 : vector<64xf32> loc(#loc24)
      %2888 = memref.load %62[%181, %2804] : memref<?x?xf32, strided<[?, 1]>> loc(#loc24)
      %2889 = vector.broadcast %2888 : f32 to vector<64xf32> loc(#loc24)
      %2890 = vector.fma %2702, %2886, %2790 : vector<64xf32> loc(#loc24)
      %2891 = memref.load %62[%185, %2804] : memref<?x?xf32, strided<[?, 1]>> loc(#loc24)
      %2892 = vector.broadcast %2891 : f32 to vector<64xf32> loc(#loc24)
      %2893 = vector.fma %2702, %2889, %2793 : vector<64xf32> loc(#loc24)
      %2894 = memref.load %62[%189, %2804] : memref<?x?xf32, strided<[?, 1]>> loc(#loc24)
      %2895 = vector.broadcast %2894 : f32 to vector<64xf32> loc(#loc24)
      %2896 = vector.fma %2702, %2892, %2796 : vector<64xf32> loc(#loc24)
      %2897 = memref.load %62[%193, %2804] : memref<?x?xf32, strided<[?, 1]>> loc(#loc24)
      %2898 = vector.broadcast %2897 : f32 to vector<64xf32> loc(#loc24)
      %2899 = vector.fma %2702, %2895, %2799 : vector<64xf32> loc(#loc24)
      %2900 = vector.fma %2702, %2898, %2800 : vector<64xf32> loc(#loc24)
      %2901 = arith.addi %65#0, %c29 : index loc(#loc24)
      %2902 = vector.load %64[%2901, %65#1] : memref<?x?xf32, strided<[?, 1]>>, vector<64xf32> loc(#loc24)
      %2903 = arith.addi %65#0, %c60 : index loc(#loc24)
      memref.prefetch %64[%2903, %65#1], read, locality<1>, data : memref<?x?xf32, strided<[?, 1]>> loc(#loc24)
      %2904 = arith.addi %63#1, %c28 : index loc(#loc24)
      %2905 = memref.load %62[%63#0, %2904] : memref<?x?xf32, strided<[?, 1]>> loc(#loc24)
      %2906 = vector.broadcast %2905 : f32 to vector<64xf32> loc(#loc24)
      %2907 = memref.load %62[%73, %2904] : memref<?x?xf32, strided<[?, 1]>> loc(#loc24)
      %2908 = vector.broadcast %2907 : f32 to vector<64xf32> loc(#loc24)
      %2909 = vector.fma %2802, %2906, %2809 : vector<64xf32> loc(#loc24)
      %2910 = memref.load %62[%77, %2904] : memref<?x?xf32, strided<[?, 1]>> loc(#loc24)
      %2911 = vector.broadcast %2910 : f32 to vector<64xf32> loc(#loc24)
      %2912 = vector.fma %2802, %2908, %2812 : vector<64xf32> loc(#loc24)
      %2913 = memref.load %62[%81, %2904] : memref<?x?xf32, strided<[?, 1]>> loc(#loc24)
      %2914 = vector.broadcast %2913 : f32 to vector<64xf32> loc(#loc24)
      %2915 = vector.fma %2802, %2911, %2815 : vector<64xf32> loc(#loc24)
      %2916 = memref.load %62[%85, %2904] : memref<?x?xf32, strided<[?, 1]>> loc(#loc24)
      %2917 = vector.broadcast %2916 : f32 to vector<64xf32> loc(#loc24)
      %2918 = vector.fma %2802, %2914, %2818 : vector<64xf32> loc(#loc24)
      %2919 = memref.load %62[%89, %2904] : memref<?x?xf32, strided<[?, 1]>> loc(#loc24)
      %2920 = vector.broadcast %2919 : f32 to vector<64xf32> loc(#loc24)
      %2921 = vector.fma %2802, %2917, %2821 : vector<64xf32> loc(#loc24)
      %2922 = memref.load %62[%93, %2904] : memref<?x?xf32, strided<[?, 1]>> loc(#loc24)
      %2923 = vector.broadcast %2922 : f32 to vector<64xf32> loc(#loc24)
      %2924 = vector.fma %2802, %2920, %2824 : vector<64xf32> loc(#loc24)
      %2925 = memref.load %62[%97, %2904] : memref<?x?xf32, strided<[?, 1]>> loc(#loc24)
      %2926 = vector.broadcast %2925 : f32 to vector<64xf32> loc(#loc24)
      %2927 = vector.fma %2802, %2923, %2827 : vector<64xf32> loc(#loc24)
      %2928 = memref.load %62[%101, %2904] : memref<?x?xf32, strided<[?, 1]>> loc(#loc24)
      %2929 = vector.broadcast %2928 : f32 to vector<64xf32> loc(#loc24)
      %2930 = vector.fma %2802, %2926, %2830 : vector<64xf32> loc(#loc24)
      %2931 = memref.load %62[%105, %2904] : memref<?x?xf32, strided<[?, 1]>> loc(#loc24)
      %2932 = vector.broadcast %2931 : f32 to vector<64xf32> loc(#loc24)
      %2933 = vector.fma %2802, %2929, %2833 : vector<64xf32> loc(#loc24)
      %2934 = memref.load %62[%109, %2904] : memref<?x?xf32, strided<[?, 1]>> loc(#loc24)
      %2935 = vector.broadcast %2934 : f32 to vector<64xf32> loc(#loc24)
      %2936 = vector.fma %2802, %2932, %2836 : vector<64xf32> loc(#loc24)
      %2937 = memref.load %62[%113, %2904] : memref<?x?xf32, strided<[?, 1]>> loc(#loc24)
      %2938 = vector.broadcast %2937 : f32 to vector<64xf32> loc(#loc24)
      %2939 = vector.fma %2802, %2935, %2839 : vector<64xf32> loc(#loc24)
      %2940 = memref.load %62[%117, %2904] : memref<?x?xf32, strided<[?, 1]>> loc(#loc24)
      %2941 = vector.broadcast %2940 : f32 to vector<64xf32> loc(#loc24)
      %2942 = vector.fma %2802, %2938, %2842 : vector<64xf32> loc(#loc24)
      %2943 = memref.load %62[%121, %2904] : memref<?x?xf32, strided<[?, 1]>> loc(#loc24)
      %2944 = vector.broadcast %2943 : f32 to vector<64xf32> loc(#loc24)
      %2945 = vector.fma %2802, %2941, %2845 : vector<64xf32> loc(#loc24)
      %2946 = memref.load %62[%125, %2904] : memref<?x?xf32, strided<[?, 1]>> loc(#loc24)
      %2947 = vector.broadcast %2946 : f32 to vector<64xf32> loc(#loc24)
      %2948 = vector.fma %2802, %2944, %2848 : vector<64xf32> loc(#loc24)
      %2949 = memref.load %62[%129, %2904] : memref<?x?xf32, strided<[?, 1]>> loc(#loc24)
      %2950 = vector.broadcast %2949 : f32 to vector<64xf32> loc(#loc24)
      %2951 = vector.fma %2802, %2947, %2851 : vector<64xf32> loc(#loc24)
      %2952 = memref.load %62[%133, %2904] : memref<?x?xf32, strided<[?, 1]>> loc(#loc24)
      %2953 = vector.broadcast %2952 : f32 to vector<64xf32> loc(#loc24)
      %2954 = vector.fma %2802, %2950, %2854 : vector<64xf32> loc(#loc24)
      %2955 = memref.load %62[%137, %2904] : memref<?x?xf32, strided<[?, 1]>> loc(#loc24)
      %2956 = vector.broadcast %2955 : f32 to vector<64xf32> loc(#loc24)
      %2957 = vector.fma %2802, %2953, %2857 : vector<64xf32> loc(#loc24)
      %2958 = memref.load %62[%141, %2904] : memref<?x?xf32, strided<[?, 1]>> loc(#loc24)
      %2959 = vector.broadcast %2958 : f32 to vector<64xf32> loc(#loc24)
      %2960 = vector.fma %2802, %2956, %2860 : vector<64xf32> loc(#loc24)
      %2961 = memref.load %62[%145, %2904] : memref<?x?xf32, strided<[?, 1]>> loc(#loc24)
      %2962 = vector.broadcast %2961 : f32 to vector<64xf32> loc(#loc24)
      %2963 = vector.fma %2802, %2959, %2863 : vector<64xf32> loc(#loc24)
      %2964 = memref.load %62[%149, %2904] : memref<?x?xf32, strided<[?, 1]>> loc(#loc24)
      %2965 = vector.broadcast %2964 : f32 to vector<64xf32> loc(#loc24)
      %2966 = vector.fma %2802, %2962, %2866 : vector<64xf32> loc(#loc24)
      %2967 = memref.load %62[%153, %2904] : memref<?x?xf32, strided<[?, 1]>> loc(#loc24)
      %2968 = vector.broadcast %2967 : f32 to vector<64xf32> loc(#loc24)
      %2969 = vector.fma %2802, %2965, %2869 : vector<64xf32> loc(#loc24)
      %2970 = memref.load %62[%157, %2904] : memref<?x?xf32, strided<[?, 1]>> loc(#loc24)
      %2971 = vector.broadcast %2970 : f32 to vector<64xf32> loc(#loc24)
      %2972 = vector.fma %2802, %2968, %2872 : vector<64xf32> loc(#loc24)
      %2973 = memref.load %62[%161, %2904] : memref<?x?xf32, strided<[?, 1]>> loc(#loc24)
      %2974 = vector.broadcast %2973 : f32 to vector<64xf32> loc(#loc24)
      %2975 = vector.fma %2802, %2971, %2875 : vector<64xf32> loc(#loc24)
      %2976 = memref.load %62[%165, %2904] : memref<?x?xf32, strided<[?, 1]>> loc(#loc24)
      %2977 = vector.broadcast %2976 : f32 to vector<64xf32> loc(#loc24)
      %2978 = vector.fma %2802, %2974, %2878 : vector<64xf32> loc(#loc24)
      %2979 = memref.load %62[%169, %2904] : memref<?x?xf32, strided<[?, 1]>> loc(#loc24)
      %2980 = vector.broadcast %2979 : f32 to vector<64xf32> loc(#loc24)
      %2981 = vector.fma %2802, %2977, %2881 : vector<64xf32> loc(#loc24)
      %2982 = memref.load %62[%173, %2904] : memref<?x?xf32, strided<[?, 1]>> loc(#loc24)
      %2983 = vector.broadcast %2982 : f32 to vector<64xf32> loc(#loc24)
      %2984 = vector.fma %2802, %2980, %2884 : vector<64xf32> loc(#loc24)
      %2985 = memref.load %62[%177, %2904] : memref<?x?xf32, strided<[?, 1]>> loc(#loc24)
      %2986 = vector.broadcast %2985 : f32 to vector<64xf32> loc(#loc24)
      %2987 = vector.fma %2802, %2983, %2887 : vector<64xf32> loc(#loc24)
      %2988 = memref.load %62[%181, %2904] : memref<?x?xf32, strided<[?, 1]>> loc(#loc24)
      %2989 = vector.broadcast %2988 : f32 to vector<64xf32> loc(#loc24)
      %2990 = vector.fma %2802, %2986, %2890 : vector<64xf32> loc(#loc24)
      %2991 = memref.load %62[%185, %2904] : memref<?x?xf32, strided<[?, 1]>> loc(#loc24)
      %2992 = vector.broadcast %2991 : f32 to vector<64xf32> loc(#loc24)
      %2993 = vector.fma %2802, %2989, %2893 : vector<64xf32> loc(#loc24)
      %2994 = memref.load %62[%189, %2904] : memref<?x?xf32, strided<[?, 1]>> loc(#loc24)
      %2995 = vector.broadcast %2994 : f32 to vector<64xf32> loc(#loc24)
      %2996 = vector.fma %2802, %2992, %2896 : vector<64xf32> loc(#loc24)
      %2997 = memref.load %62[%193, %2904] : memref<?x?xf32, strided<[?, 1]>> loc(#loc24)
      %2998 = vector.broadcast %2997 : f32 to vector<64xf32> loc(#loc24)
      %2999 = vector.fma %2802, %2995, %2899 : vector<64xf32> loc(#loc24)
      %3000 = vector.fma %2802, %2998, %2900 : vector<64xf32> loc(#loc24)
      %3001 = arith.addi %65#0, %c30 : index loc(#loc24)
      %3002 = vector.load %64[%3001, %65#1] : memref<?x?xf32, strided<[?, 1]>>, vector<64xf32> loc(#loc24)
      %3003 = arith.addi %65#0, %c61 : index loc(#loc24)
      memref.prefetch %64[%3003, %65#1], read, locality<1>, data : memref<?x?xf32, strided<[?, 1]>> loc(#loc24)
      %3004 = arith.addi %63#1, %c29 : index loc(#loc24)
      %3005 = memref.load %62[%63#0, %3004] : memref<?x?xf32, strided<[?, 1]>> loc(#loc24)
      %3006 = vector.broadcast %3005 : f32 to vector<64xf32> loc(#loc24)
      %3007 = memref.load %62[%73, %3004] : memref<?x?xf32, strided<[?, 1]>> loc(#loc24)
      %3008 = vector.broadcast %3007 : f32 to vector<64xf32> loc(#loc24)
      %3009 = vector.fma %2902, %3006, %2909 : vector<64xf32> loc(#loc24)
      %3010 = memref.load %62[%77, %3004] : memref<?x?xf32, strided<[?, 1]>> loc(#loc24)
      %3011 = vector.broadcast %3010 : f32 to vector<64xf32> loc(#loc24)
      %3012 = vector.fma %2902, %3008, %2912 : vector<64xf32> loc(#loc24)
      %3013 = memref.load %62[%81, %3004] : memref<?x?xf32, strided<[?, 1]>> loc(#loc24)
      %3014 = vector.broadcast %3013 : f32 to vector<64xf32> loc(#loc24)
      %3015 = vector.fma %2902, %3011, %2915 : vector<64xf32> loc(#loc24)
      %3016 = memref.load %62[%85, %3004] : memref<?x?xf32, strided<[?, 1]>> loc(#loc24)
      %3017 = vector.broadcast %3016 : f32 to vector<64xf32> loc(#loc24)
      %3018 = vector.fma %2902, %3014, %2918 : vector<64xf32> loc(#loc24)
      %3019 = memref.load %62[%89, %3004] : memref<?x?xf32, strided<[?, 1]>> loc(#loc24)
      %3020 = vector.broadcast %3019 : f32 to vector<64xf32> loc(#loc24)
      %3021 = vector.fma %2902, %3017, %2921 : vector<64xf32> loc(#loc24)
      %3022 = memref.load %62[%93, %3004] : memref<?x?xf32, strided<[?, 1]>> loc(#loc24)
      %3023 = vector.broadcast %3022 : f32 to vector<64xf32> loc(#loc24)
      %3024 = vector.fma %2902, %3020, %2924 : vector<64xf32> loc(#loc24)
      %3025 = memref.load %62[%97, %3004] : memref<?x?xf32, strided<[?, 1]>> loc(#loc24)
      %3026 = vector.broadcast %3025 : f32 to vector<64xf32> loc(#loc24)
      %3027 = vector.fma %2902, %3023, %2927 : vector<64xf32> loc(#loc24)
      %3028 = memref.load %62[%101, %3004] : memref<?x?xf32, strided<[?, 1]>> loc(#loc24)
      %3029 = vector.broadcast %3028 : f32 to vector<64xf32> loc(#loc24)
      %3030 = vector.fma %2902, %3026, %2930 : vector<64xf32> loc(#loc24)
      %3031 = memref.load %62[%105, %3004] : memref<?x?xf32, strided<[?, 1]>> loc(#loc24)
      %3032 = vector.broadcast %3031 : f32 to vector<64xf32> loc(#loc24)
      %3033 = vector.fma %2902, %3029, %2933 : vector<64xf32> loc(#loc24)
      %3034 = memref.load %62[%109, %3004] : memref<?x?xf32, strided<[?, 1]>> loc(#loc24)
      %3035 = vector.broadcast %3034 : f32 to vector<64xf32> loc(#loc24)
      %3036 = vector.fma %2902, %3032, %2936 : vector<64xf32> loc(#loc24)
      %3037 = memref.load %62[%113, %3004] : memref<?x?xf32, strided<[?, 1]>> loc(#loc24)
      %3038 = vector.broadcast %3037 : f32 to vector<64xf32> loc(#loc24)
      %3039 = vector.fma %2902, %3035, %2939 : vector<64xf32> loc(#loc24)
      %3040 = memref.load %62[%117, %3004] : memref<?x?xf32, strided<[?, 1]>> loc(#loc24)
      %3041 = vector.broadcast %3040 : f32 to vector<64xf32> loc(#loc24)
      %3042 = vector.fma %2902, %3038, %2942 : vector<64xf32> loc(#loc24)
      %3043 = memref.load %62[%121, %3004] : memref<?x?xf32, strided<[?, 1]>> loc(#loc24)
      %3044 = vector.broadcast %3043 : f32 to vector<64xf32> loc(#loc24)
      %3045 = vector.fma %2902, %3041, %2945 : vector<64xf32> loc(#loc24)
      %3046 = memref.load %62[%125, %3004] : memref<?x?xf32, strided<[?, 1]>> loc(#loc24)
      %3047 = vector.broadcast %3046 : f32 to vector<64xf32> loc(#loc24)
      %3048 = vector.fma %2902, %3044, %2948 : vector<64xf32> loc(#loc24)
      %3049 = memref.load %62[%129, %3004] : memref<?x?xf32, strided<[?, 1]>> loc(#loc24)
      %3050 = vector.broadcast %3049 : f32 to vector<64xf32> loc(#loc24)
      %3051 = vector.fma %2902, %3047, %2951 : vector<64xf32> loc(#loc24)
      %3052 = memref.load %62[%133, %3004] : memref<?x?xf32, strided<[?, 1]>> loc(#loc24)
      %3053 = vector.broadcast %3052 : f32 to vector<64xf32> loc(#loc24)
      %3054 = vector.fma %2902, %3050, %2954 : vector<64xf32> loc(#loc24)
      %3055 = memref.load %62[%137, %3004] : memref<?x?xf32, strided<[?, 1]>> loc(#loc24)
      %3056 = vector.broadcast %3055 : f32 to vector<64xf32> loc(#loc24)
      %3057 = vector.fma %2902, %3053, %2957 : vector<64xf32> loc(#loc24)
      %3058 = memref.load %62[%141, %3004] : memref<?x?xf32, strided<[?, 1]>> loc(#loc24)
      %3059 = vector.broadcast %3058 : f32 to vector<64xf32> loc(#loc24)
      %3060 = vector.fma %2902, %3056, %2960 : vector<64xf32> loc(#loc24)
      %3061 = memref.load %62[%145, %3004] : memref<?x?xf32, strided<[?, 1]>> loc(#loc24)
      %3062 = vector.broadcast %3061 : f32 to vector<64xf32> loc(#loc24)
      %3063 = vector.fma %2902, %3059, %2963 : vector<64xf32> loc(#loc24)
      %3064 = memref.load %62[%149, %3004] : memref<?x?xf32, strided<[?, 1]>> loc(#loc24)
      %3065 = vector.broadcast %3064 : f32 to vector<64xf32> loc(#loc24)
      %3066 = vector.fma %2902, %3062, %2966 : vector<64xf32> loc(#loc24)
      %3067 = memref.load %62[%153, %3004] : memref<?x?xf32, strided<[?, 1]>> loc(#loc24)
      %3068 = vector.broadcast %3067 : f32 to vector<64xf32> loc(#loc24)
      %3069 = vector.fma %2902, %3065, %2969 : vector<64xf32> loc(#loc24)
      %3070 = memref.load %62[%157, %3004] : memref<?x?xf32, strided<[?, 1]>> loc(#loc24)
      %3071 = vector.broadcast %3070 : f32 to vector<64xf32> loc(#loc24)
      %3072 = vector.fma %2902, %3068, %2972 : vector<64xf32> loc(#loc24)
      %3073 = memref.load %62[%161, %3004] : memref<?x?xf32, strided<[?, 1]>> loc(#loc24)
      %3074 = vector.broadcast %3073 : f32 to vector<64xf32> loc(#loc24)
      %3075 = vector.fma %2902, %3071, %2975 : vector<64xf32> loc(#loc24)
      %3076 = memref.load %62[%165, %3004] : memref<?x?xf32, strided<[?, 1]>> loc(#loc24)
      %3077 = vector.broadcast %3076 : f32 to vector<64xf32> loc(#loc24)
      %3078 = vector.fma %2902, %3074, %2978 : vector<64xf32> loc(#loc24)
      %3079 = memref.load %62[%169, %3004] : memref<?x?xf32, strided<[?, 1]>> loc(#loc24)
      %3080 = vector.broadcast %3079 : f32 to vector<64xf32> loc(#loc24)
      %3081 = vector.fma %2902, %3077, %2981 : vector<64xf32> loc(#loc24)
      %3082 = memref.load %62[%173, %3004] : memref<?x?xf32, strided<[?, 1]>> loc(#loc24)
      %3083 = vector.broadcast %3082 : f32 to vector<64xf32> loc(#loc24)
      %3084 = vector.fma %2902, %3080, %2984 : vector<64xf32> loc(#loc24)
      %3085 = memref.load %62[%177, %3004] : memref<?x?xf32, strided<[?, 1]>> loc(#loc24)
      %3086 = vector.broadcast %3085 : f32 to vector<64xf32> loc(#loc24)
      %3087 = vector.fma %2902, %3083, %2987 : vector<64xf32> loc(#loc24)
      %3088 = memref.load %62[%181, %3004] : memref<?x?xf32, strided<[?, 1]>> loc(#loc24)
      %3089 = vector.broadcast %3088 : f32 to vector<64xf32> loc(#loc24)
      %3090 = vector.fma %2902, %3086, %2990 : vector<64xf32> loc(#loc24)
      %3091 = memref.load %62[%185, %3004] : memref<?x?xf32, strided<[?, 1]>> loc(#loc24)
      %3092 = vector.broadcast %3091 : f32 to vector<64xf32> loc(#loc24)
      %3093 = vector.fma %2902, %3089, %2993 : vector<64xf32> loc(#loc24)
      %3094 = memref.load %62[%189, %3004] : memref<?x?xf32, strided<[?, 1]>> loc(#loc24)
      %3095 = vector.broadcast %3094 : f32 to vector<64xf32> loc(#loc24)
      %3096 = vector.fma %2902, %3092, %2996 : vector<64xf32> loc(#loc24)
      %3097 = memref.load %62[%193, %3004] : memref<?x?xf32, strided<[?, 1]>> loc(#loc24)
      %3098 = vector.broadcast %3097 : f32 to vector<64xf32> loc(#loc24)
      %3099 = vector.fma %2902, %3095, %2999 : vector<64xf32> loc(#loc24)
      %3100 = vector.fma %2902, %3098, %3000 : vector<64xf32> loc(#loc24)
      %3101 = arith.addi %65#0, %c31 : index loc(#loc24)
      %3102 = vector.load %64[%3101, %65#1] : memref<?x?xf32, strided<[?, 1]>>, vector<64xf32> loc(#loc24)
      %3103 = arith.addi %65#0, %c62 : index loc(#loc24)
      memref.prefetch %64[%3103, %65#1], read, locality<1>, data : memref<?x?xf32, strided<[?, 1]>> loc(#loc24)
      %3104 = arith.addi %63#1, %c30 : index loc(#loc24)
      %3105 = memref.load %62[%63#0, %3104] : memref<?x?xf32, strided<[?, 1]>> loc(#loc24)
      %3106 = vector.broadcast %3105 : f32 to vector<64xf32> loc(#loc24)
      %3107 = memref.load %62[%73, %3104] : memref<?x?xf32, strided<[?, 1]>> loc(#loc24)
      %3108 = vector.broadcast %3107 : f32 to vector<64xf32> loc(#loc24)
      %3109 = vector.fma %3002, %3106, %3009 : vector<64xf32> loc(#loc24)
      %3110 = memref.load %62[%77, %3104] : memref<?x?xf32, strided<[?, 1]>> loc(#loc24)
      %3111 = vector.broadcast %3110 : f32 to vector<64xf32> loc(#loc24)
      %3112 = vector.fma %3002, %3108, %3012 : vector<64xf32> loc(#loc24)
      %3113 = memref.load %62[%81, %3104] : memref<?x?xf32, strided<[?, 1]>> loc(#loc24)
      %3114 = vector.broadcast %3113 : f32 to vector<64xf32> loc(#loc24)
      %3115 = vector.fma %3002, %3111, %3015 : vector<64xf32> loc(#loc24)
      %3116 = memref.load %62[%85, %3104] : memref<?x?xf32, strided<[?, 1]>> loc(#loc24)
      %3117 = vector.broadcast %3116 : f32 to vector<64xf32> loc(#loc24)
      %3118 = vector.fma %3002, %3114, %3018 : vector<64xf32> loc(#loc24)
      %3119 = memref.load %62[%89, %3104] : memref<?x?xf32, strided<[?, 1]>> loc(#loc24)
      %3120 = vector.broadcast %3119 : f32 to vector<64xf32> loc(#loc24)
      %3121 = vector.fma %3002, %3117, %3021 : vector<64xf32> loc(#loc24)
      %3122 = memref.load %62[%93, %3104] : memref<?x?xf32, strided<[?, 1]>> loc(#loc24)
      %3123 = vector.broadcast %3122 : f32 to vector<64xf32> loc(#loc24)
      %3124 = vector.fma %3002, %3120, %3024 : vector<64xf32> loc(#loc24)
      %3125 = memref.load %62[%97, %3104] : memref<?x?xf32, strided<[?, 1]>> loc(#loc24)
      %3126 = vector.broadcast %3125 : f32 to vector<64xf32> loc(#loc24)
      %3127 = vector.fma %3002, %3123, %3027 : vector<64xf32> loc(#loc24)
      %3128 = memref.load %62[%101, %3104] : memref<?x?xf32, strided<[?, 1]>> loc(#loc24)
      %3129 = vector.broadcast %3128 : f32 to vector<64xf32> loc(#loc24)
      %3130 = vector.fma %3002, %3126, %3030 : vector<64xf32> loc(#loc24)
      %3131 = memref.load %62[%105, %3104] : memref<?x?xf32, strided<[?, 1]>> loc(#loc24)
      %3132 = vector.broadcast %3131 : f32 to vector<64xf32> loc(#loc24)
      %3133 = vector.fma %3002, %3129, %3033 : vector<64xf32> loc(#loc24)
      %3134 = memref.load %62[%109, %3104] : memref<?x?xf32, strided<[?, 1]>> loc(#loc24)
      %3135 = vector.broadcast %3134 : f32 to vector<64xf32> loc(#loc24)
      %3136 = vector.fma %3002, %3132, %3036 : vector<64xf32> loc(#loc24)
      %3137 = memref.load %62[%113, %3104] : memref<?x?xf32, strided<[?, 1]>> loc(#loc24)
      %3138 = vector.broadcast %3137 : f32 to vector<64xf32> loc(#loc24)
      %3139 = vector.fma %3002, %3135, %3039 : vector<64xf32> loc(#loc24)
      %3140 = memref.load %62[%117, %3104] : memref<?x?xf32, strided<[?, 1]>> loc(#loc24)
      %3141 = vector.broadcast %3140 : f32 to vector<64xf32> loc(#loc24)
      %3142 = vector.fma %3002, %3138, %3042 : vector<64xf32> loc(#loc24)
      %3143 = memref.load %62[%121, %3104] : memref<?x?xf32, strided<[?, 1]>> loc(#loc24)
      %3144 = vector.broadcast %3143 : f32 to vector<64xf32> loc(#loc24)
      %3145 = vector.fma %3002, %3141, %3045 : vector<64xf32> loc(#loc24)
      %3146 = memref.load %62[%125, %3104] : memref<?x?xf32, strided<[?, 1]>> loc(#loc24)
      %3147 = vector.broadcast %3146 : f32 to vector<64xf32> loc(#loc24)
      %3148 = vector.fma %3002, %3144, %3048 : vector<64xf32> loc(#loc24)
      %3149 = memref.load %62[%129, %3104] : memref<?x?xf32, strided<[?, 1]>> loc(#loc24)
      %3150 = vector.broadcast %3149 : f32 to vector<64xf32> loc(#loc24)
      %3151 = vector.fma %3002, %3147, %3051 : vector<64xf32> loc(#loc24)
      %3152 = memref.load %62[%133, %3104] : memref<?x?xf32, strided<[?, 1]>> loc(#loc24)
      %3153 = vector.broadcast %3152 : f32 to vector<64xf32> loc(#loc24)
      %3154 = vector.fma %3002, %3150, %3054 : vector<64xf32> loc(#loc24)
      %3155 = memref.load %62[%137, %3104] : memref<?x?xf32, strided<[?, 1]>> loc(#loc24)
      %3156 = vector.broadcast %3155 : f32 to vector<64xf32> loc(#loc24)
      %3157 = vector.fma %3002, %3153, %3057 : vector<64xf32> loc(#loc24)
      %3158 = memref.load %62[%141, %3104] : memref<?x?xf32, strided<[?, 1]>> loc(#loc24)
      %3159 = vector.broadcast %3158 : f32 to vector<64xf32> loc(#loc24)
      %3160 = vector.fma %3002, %3156, %3060 : vector<64xf32> loc(#loc24)
      %3161 = memref.load %62[%145, %3104] : memref<?x?xf32, strided<[?, 1]>> loc(#loc24)
      %3162 = vector.broadcast %3161 : f32 to vector<64xf32> loc(#loc24)
      %3163 = vector.fma %3002, %3159, %3063 : vector<64xf32> loc(#loc24)
      %3164 = memref.load %62[%149, %3104] : memref<?x?xf32, strided<[?, 1]>> loc(#loc24)
      %3165 = vector.broadcast %3164 : f32 to vector<64xf32> loc(#loc24)
      %3166 = vector.fma %3002, %3162, %3066 : vector<64xf32> loc(#loc24)
      %3167 = memref.load %62[%153, %3104] : memref<?x?xf32, strided<[?, 1]>> loc(#loc24)
      %3168 = vector.broadcast %3167 : f32 to vector<64xf32> loc(#loc24)
      %3169 = vector.fma %3002, %3165, %3069 : vector<64xf32> loc(#loc24)
      %3170 = memref.load %62[%157, %3104] : memref<?x?xf32, strided<[?, 1]>> loc(#loc24)
      %3171 = vector.broadcast %3170 : f32 to vector<64xf32> loc(#loc24)
      %3172 = vector.fma %3002, %3168, %3072 : vector<64xf32> loc(#loc24)
      %3173 = memref.load %62[%161, %3104] : memref<?x?xf32, strided<[?, 1]>> loc(#loc24)
      %3174 = vector.broadcast %3173 : f32 to vector<64xf32> loc(#loc24)
      %3175 = vector.fma %3002, %3171, %3075 : vector<64xf32> loc(#loc24)
      %3176 = memref.load %62[%165, %3104] : memref<?x?xf32, strided<[?, 1]>> loc(#loc24)
      %3177 = vector.broadcast %3176 : f32 to vector<64xf32> loc(#loc24)
      %3178 = vector.fma %3002, %3174, %3078 : vector<64xf32> loc(#loc24)
      %3179 = memref.load %62[%169, %3104] : memref<?x?xf32, strided<[?, 1]>> loc(#loc24)
      %3180 = vector.broadcast %3179 : f32 to vector<64xf32> loc(#loc24)
      %3181 = vector.fma %3002, %3177, %3081 : vector<64xf32> loc(#loc24)
      %3182 = memref.load %62[%173, %3104] : memref<?x?xf32, strided<[?, 1]>> loc(#loc24)
      %3183 = vector.broadcast %3182 : f32 to vector<64xf32> loc(#loc24)
      %3184 = vector.fma %3002, %3180, %3084 : vector<64xf32> loc(#loc24)
      %3185 = memref.load %62[%177, %3104] : memref<?x?xf32, strided<[?, 1]>> loc(#loc24)
      %3186 = vector.broadcast %3185 : f32 to vector<64xf32> loc(#loc24)
      %3187 = vector.fma %3002, %3183, %3087 : vector<64xf32> loc(#loc24)
      %3188 = memref.load %62[%181, %3104] : memref<?x?xf32, strided<[?, 1]>> loc(#loc24)
      %3189 = vector.broadcast %3188 : f32 to vector<64xf32> loc(#loc24)
      %3190 = vector.fma %3002, %3186, %3090 : vector<64xf32> loc(#loc24)
      %3191 = memref.load %62[%185, %3104] : memref<?x?xf32, strided<[?, 1]>> loc(#loc24)
      %3192 = vector.broadcast %3191 : f32 to vector<64xf32> loc(#loc24)
      %3193 = vector.fma %3002, %3189, %3093 : vector<64xf32> loc(#loc24)
      %3194 = memref.load %62[%189, %3104] : memref<?x?xf32, strided<[?, 1]>> loc(#loc24)
      %3195 = vector.broadcast %3194 : f32 to vector<64xf32> loc(#loc24)
      %3196 = vector.fma %3002, %3192, %3096 : vector<64xf32> loc(#loc24)
      %3197 = memref.load %62[%193, %3104] : memref<?x?xf32, strided<[?, 1]>> loc(#loc24)
      %3198 = vector.broadcast %3197 : f32 to vector<64xf32> loc(#loc24)
      %3199 = vector.fma %3002, %3195, %3099 : vector<64xf32> loc(#loc24)
      %3200 = vector.fma %3002, %3198, %3100 : vector<64xf32> loc(#loc24)
      %3201 = arith.addi %65#0, %c63 : index loc(#loc24)
      memref.prefetch %64[%3201, %65#1], read, locality<1>, data : memref<?x?xf32, strided<[?, 1]>> loc(#loc24)
      %3202 = arith.addi %63#1, %c31 : index loc(#loc24)
      %3203 = memref.load %62[%63#0, %3202] : memref<?x?xf32, strided<[?, 1]>> loc(#loc24)
      %3204 = vector.broadcast %3203 : f32 to vector<64xf32> loc(#loc24)
      %3205 = memref.load %62[%73, %3202] : memref<?x?xf32, strided<[?, 1]>> loc(#loc24)
      %3206 = vector.broadcast %3205 : f32 to vector<64xf32> loc(#loc24)
      %3207 = vector.fma %3102, %3204, %3109 : vector<64xf32> loc(#loc24)
      %3208 = memref.load %62[%77, %3202] : memref<?x?xf32, strided<[?, 1]>> loc(#loc24)
      %3209 = vector.broadcast %3208 : f32 to vector<64xf32> loc(#loc24)
      %3210 = vector.fma %3102, %3206, %3112 : vector<64xf32> loc(#loc24)
      %3211 = memref.load %62[%81, %3202] : memref<?x?xf32, strided<[?, 1]>> loc(#loc24)
      %3212 = vector.broadcast %3211 : f32 to vector<64xf32> loc(#loc24)
      %3213 = vector.fma %3102, %3209, %3115 : vector<64xf32> loc(#loc24)
      %3214 = memref.load %62[%85, %3202] : memref<?x?xf32, strided<[?, 1]>> loc(#loc24)
      %3215 = vector.broadcast %3214 : f32 to vector<64xf32> loc(#loc24)
      %3216 = vector.fma %3102, %3212, %3118 : vector<64xf32> loc(#loc24)
      %3217 = memref.load %62[%89, %3202] : memref<?x?xf32, strided<[?, 1]>> loc(#loc24)
      %3218 = vector.broadcast %3217 : f32 to vector<64xf32> loc(#loc24)
      %3219 = vector.fma %3102, %3215, %3121 : vector<64xf32> loc(#loc24)
      %3220 = memref.load %62[%93, %3202] : memref<?x?xf32, strided<[?, 1]>> loc(#loc24)
      %3221 = vector.broadcast %3220 : f32 to vector<64xf32> loc(#loc24)
      %3222 = vector.fma %3102, %3218, %3124 : vector<64xf32> loc(#loc24)
      %3223 = memref.load %62[%97, %3202] : memref<?x?xf32, strided<[?, 1]>> loc(#loc24)
      %3224 = vector.broadcast %3223 : f32 to vector<64xf32> loc(#loc24)
      %3225 = vector.fma %3102, %3221, %3127 : vector<64xf32> loc(#loc24)
      %3226 = memref.load %62[%101, %3202] : memref<?x?xf32, strided<[?, 1]>> loc(#loc24)
      %3227 = vector.broadcast %3226 : f32 to vector<64xf32> loc(#loc24)
      %3228 = vector.fma %3102, %3224, %3130 : vector<64xf32> loc(#loc24)
      %3229 = memref.load %62[%105, %3202] : memref<?x?xf32, strided<[?, 1]>> loc(#loc24)
      %3230 = vector.broadcast %3229 : f32 to vector<64xf32> loc(#loc24)
      %3231 = vector.fma %3102, %3227, %3133 : vector<64xf32> loc(#loc24)
      %3232 = memref.load %62[%109, %3202] : memref<?x?xf32, strided<[?, 1]>> loc(#loc24)
      %3233 = vector.broadcast %3232 : f32 to vector<64xf32> loc(#loc24)
      %3234 = vector.fma %3102, %3230, %3136 : vector<64xf32> loc(#loc24)
      %3235 = memref.load %62[%113, %3202] : memref<?x?xf32, strided<[?, 1]>> loc(#loc24)
      %3236 = vector.broadcast %3235 : f32 to vector<64xf32> loc(#loc24)
      %3237 = vector.fma %3102, %3233, %3139 : vector<64xf32> loc(#loc24)
      %3238 = memref.load %62[%117, %3202] : memref<?x?xf32, strided<[?, 1]>> loc(#loc24)
      %3239 = vector.broadcast %3238 : f32 to vector<64xf32> loc(#loc24)
      %3240 = vector.fma %3102, %3236, %3142 : vector<64xf32> loc(#loc24)
      %3241 = memref.load %62[%121, %3202] : memref<?x?xf32, strided<[?, 1]>> loc(#loc24)
      %3242 = vector.broadcast %3241 : f32 to vector<64xf32> loc(#loc24)
      %3243 = vector.fma %3102, %3239, %3145 : vector<64xf32> loc(#loc24)
      %3244 = memref.load %62[%125, %3202] : memref<?x?xf32, strided<[?, 1]>> loc(#loc24)
      %3245 = vector.broadcast %3244 : f32 to vector<64xf32> loc(#loc24)
      %3246 = vector.fma %3102, %3242, %3148 : vector<64xf32> loc(#loc24)
      %3247 = memref.load %62[%129, %3202] : memref<?x?xf32, strided<[?, 1]>> loc(#loc24)
      %3248 = vector.broadcast %3247 : f32 to vector<64xf32> loc(#loc24)
      %3249 = vector.fma %3102, %3245, %3151 : vector<64xf32> loc(#loc24)
      %3250 = memref.load %62[%133, %3202] : memref<?x?xf32, strided<[?, 1]>> loc(#loc24)
      %3251 = vector.broadcast %3250 : f32 to vector<64xf32> loc(#loc24)
      %3252 = vector.fma %3102, %3248, %3154 : vector<64xf32> loc(#loc24)
      %3253 = memref.load %62[%137, %3202] : memref<?x?xf32, strided<[?, 1]>> loc(#loc24)
      %3254 = vector.broadcast %3253 : f32 to vector<64xf32> loc(#loc24)
      %3255 = vector.fma %3102, %3251, %3157 : vector<64xf32> loc(#loc24)
      %3256 = memref.load %62[%141, %3202] : memref<?x?xf32, strided<[?, 1]>> loc(#loc24)
      %3257 = vector.broadcast %3256 : f32 to vector<64xf32> loc(#loc24)
      %3258 = vector.fma %3102, %3254, %3160 : vector<64xf32> loc(#loc24)
      %3259 = memref.load %62[%145, %3202] : memref<?x?xf32, strided<[?, 1]>> loc(#loc24)
      %3260 = vector.broadcast %3259 : f32 to vector<64xf32> loc(#loc24)
      %3261 = vector.fma %3102, %3257, %3163 : vector<64xf32> loc(#loc24)
      %3262 = memref.load %62[%149, %3202] : memref<?x?xf32, strided<[?, 1]>> loc(#loc24)
      %3263 = vector.broadcast %3262 : f32 to vector<64xf32> loc(#loc24)
      %3264 = vector.fma %3102, %3260, %3166 : vector<64xf32> loc(#loc24)
      %3265 = memref.load %62[%153, %3202] : memref<?x?xf32, strided<[?, 1]>> loc(#loc24)
      %3266 = vector.broadcast %3265 : f32 to vector<64xf32> loc(#loc24)
      %3267 = vector.fma %3102, %3263, %3169 : vector<64xf32> loc(#loc24)
      %3268 = memref.load %62[%157, %3202] : memref<?x?xf32, strided<[?, 1]>> loc(#loc24)
      %3269 = vector.broadcast %3268 : f32 to vector<64xf32> loc(#loc24)
      %3270 = vector.fma %3102, %3266, %3172 : vector<64xf32> loc(#loc24)
      %3271 = memref.load %62[%161, %3202] : memref<?x?xf32, strided<[?, 1]>> loc(#loc24)
      %3272 = vector.broadcast %3271 : f32 to vector<64xf32> loc(#loc24)
      %3273 = vector.fma %3102, %3269, %3175 : vector<64xf32> loc(#loc24)
      %3274 = memref.load %62[%165, %3202] : memref<?x?xf32, strided<[?, 1]>> loc(#loc24)
      %3275 = vector.broadcast %3274 : f32 to vector<64xf32> loc(#loc24)
      %3276 = vector.fma %3102, %3272, %3178 : vector<64xf32> loc(#loc24)
      %3277 = memref.load %62[%169, %3202] : memref<?x?xf32, strided<[?, 1]>> loc(#loc24)
      %3278 = vector.broadcast %3277 : f32 to vector<64xf32> loc(#loc24)
      %3279 = vector.fma %3102, %3275, %3181 : vector<64xf32> loc(#loc24)
      %3280 = memref.load %62[%173, %3202] : memref<?x?xf32, strided<[?, 1]>> loc(#loc24)
      %3281 = vector.broadcast %3280 : f32 to vector<64xf32> loc(#loc24)
      %3282 = vector.fma %3102, %3278, %3184 : vector<64xf32> loc(#loc24)
      %3283 = memref.load %62[%177, %3202] : memref<?x?xf32, strided<[?, 1]>> loc(#loc24)
      %3284 = vector.broadcast %3283 : f32 to vector<64xf32> loc(#loc24)
      %3285 = vector.fma %3102, %3281, %3187 : vector<64xf32> loc(#loc24)
      %3286 = memref.load %62[%181, %3202] : memref<?x?xf32, strided<[?, 1]>> loc(#loc24)
      %3287 = vector.broadcast %3286 : f32 to vector<64xf32> loc(#loc24)
      %3288 = vector.fma %3102, %3284, %3190 : vector<64xf32> loc(#loc24)
      %3289 = memref.load %62[%185, %3202] : memref<?x?xf32, strided<[?, 1]>> loc(#loc24)
      %3290 = vector.broadcast %3289 : f32 to vector<64xf32> loc(#loc24)
      %3291 = vector.fma %3102, %3287, %3193 : vector<64xf32> loc(#loc24)
      %3292 = memref.load %62[%189, %3202] : memref<?x?xf32, strided<[?, 1]>> loc(#loc24)
      %3293 = vector.broadcast %3292 : f32 to vector<64xf32> loc(#loc24)
      %3294 = vector.fma %3102, %3290, %3196 : vector<64xf32> loc(#loc24)
      %3295 = memref.load %62[%193, %3202] : memref<?x?xf32, strided<[?, 1]>> loc(#loc24)
      %3296 = vector.broadcast %3295 : f32 to vector<64xf32> loc(#loc24)
      %3297 = vector.fma %3102, %3293, %3199 : vector<64xf32> loc(#loc24)
      %3298 = vector.fma %3102, %3296, %3200 : vector<64xf32> loc(#loc24)
      %3299 = tt.advance %arg10, [%c0_i32, %c32_i32] : <tensor<32x32xf32>> loc(#loc25)
      %3300 = tt.advance %arg11, [%c32_i32, %c0_i32] : <tensor<32x64xf32>> loc(#loc26)
      scf.yield %3299, %3300, %3207, %3210, %3213, %3216, %3219, %3222, %3225, %3228, %3231, %3234, %3237, %3240, %3243, %3246, %3249, %3252, %3255, %3258, %3261, %3264, %3267, %3270, %3273, %3276, %3279, %3282, %3285, %3288, %3291, %3294, %3297, %3298 : !tt.ptr<tensor<32x32xf32>>, !tt.ptr<tensor<32x64xf32>>, vector<64xf32>, vector<64xf32>, vector<64xf32>, vector<64xf32>, vector<64xf32>, vector<64xf32>, vector<64xf32>, vector<64xf32>, vector<64xf32>, vector<64xf32>, vector<64xf32>, vector<64xf32>, vector<64xf32>, vector<64xf32>, vector<64xf32>, vector<64xf32>, vector<64xf32>, vector<64xf32>, vector<64xf32>, vector<64xf32>, vector<64xf32>, vector<64xf32>, vector<64xf32>, vector<64xf32>, vector<64xf32>, vector<64xf32>, vector<64xf32>, vector<64xf32>, vector<64xf32>, vector<64xf32>, vector<64xf32>, vector<64xf32> loc(#loc27)
    } loc(#loc21)
    %26 = vector.insert %25#2, %cst_0 [0] : vector<64xf32> into vector<32x64xf32> loc(#loc24)
    %27 = vector.insert %25#3, %26 [1] : vector<64xf32> into vector<32x64xf32> loc(#loc24)
    %28 = vector.insert %25#4, %27 [2] : vector<64xf32> into vector<32x64xf32> loc(#loc24)
    %29 = vector.insert %25#5, %28 [3] : vector<64xf32> into vector<32x64xf32> loc(#loc24)
    %30 = vector.insert %25#6, %29 [4] : vector<64xf32> into vector<32x64xf32> loc(#loc24)
    %31 = vector.insert %25#7, %30 [5] : vector<64xf32> into vector<32x64xf32> loc(#loc24)
    %32 = vector.insert %25#8, %31 [6] : vector<64xf32> into vector<32x64xf32> loc(#loc24)
    %33 = vector.insert %25#9, %32 [7] : vector<64xf32> into vector<32x64xf32> loc(#loc24)
    %34 = vector.insert %25#10, %33 [8] : vector<64xf32> into vector<32x64xf32> loc(#loc24)
    %35 = vector.insert %25#11, %34 [9] : vector<64xf32> into vector<32x64xf32> loc(#loc24)
    %36 = vector.insert %25#12, %35 [10] : vector<64xf32> into vector<32x64xf32> loc(#loc24)
    %37 = vector.insert %25#13, %36 [11] : vector<64xf32> into vector<32x64xf32> loc(#loc24)
    %38 = vector.insert %25#14, %37 [12] : vector<64xf32> into vector<32x64xf32> loc(#loc24)
    %39 = vector.insert %25#15, %38 [13] : vector<64xf32> into vector<32x64xf32> loc(#loc24)
    %40 = vector.insert %25#16, %39 [14] : vector<64xf32> into vector<32x64xf32> loc(#loc24)
    %41 = vector.insert %25#17, %40 [15] : vector<64xf32> into vector<32x64xf32> loc(#loc24)
    %42 = vector.insert %25#18, %41 [16] : vector<64xf32> into vector<32x64xf32> loc(#loc24)
    %43 = vector.insert %25#19, %42 [17] : vector<64xf32> into vector<32x64xf32> loc(#loc24)
    %44 = vector.insert %25#20, %43 [18] : vector<64xf32> into vector<32x64xf32> loc(#loc24)
    %45 = vector.insert %25#21, %44 [19] : vector<64xf32> into vector<32x64xf32> loc(#loc24)
    %46 = vector.insert %25#22, %45 [20] : vector<64xf32> into vector<32x64xf32> loc(#loc24)
    %47 = vector.insert %25#23, %46 [21] : vector<64xf32> into vector<32x64xf32> loc(#loc24)
    %48 = vector.insert %25#24, %47 [22] : vector<64xf32> into vector<32x64xf32> loc(#loc24)
    %49 = vector.insert %25#25, %48 [23] : vector<64xf32> into vector<32x64xf32> loc(#loc24)
    %50 = vector.insert %25#26, %49 [24] : vector<64xf32> into vector<32x64xf32> loc(#loc24)
    %51 = vector.insert %25#27, %50 [25] : vector<64xf32> into vector<32x64xf32> loc(#loc24)
    %52 = vector.insert %25#28, %51 [26] : vector<64xf32> into vector<32x64xf32> loc(#loc24)
    %53 = vector.insert %25#29, %52 [27] : vector<64xf32> into vector<32x64xf32> loc(#loc24)
    %54 = vector.insert %25#30, %53 [28] : vector<64xf32> into vector<32x64xf32> loc(#loc24)
    %55 = vector.insert %25#31, %54 [29] : vector<64xf32> into vector<32x64xf32> loc(#loc24)
    %56 = vector.insert %25#32, %55 [30] : vector<64xf32> into vector<32x64xf32> loc(#loc24)
    %57 = vector.insert %25#33, %56 [31] : vector<64xf32> into vector<32x64xf32> loc(#loc24)
    %58 = arith.extsi %arg8 : i32 to i64 loc(#loc28)
    %59 = tt.make_tensor_ptr %arg2, [%16, %20], [%58, %c1_i64], [%14, %15] {order = array<i32: 1, 0>} : <tensor<32x64xf32>> loc(#loc28)
    %60 = triton_cpu.extract_memref %59 : <tensor<32x64xf32>> -> memref<?x?xf32, strided<[?, 1]>> loc(#loc29)
    %61:2 = triton_cpu.extract_indices %59 : <tensor<32x64xf32>> -> index, index loc(#loc29)
    vector.transfer_write %57, %60[%61#0, %61#1] {in_bounds = [true, true]} : vector<32x64xf32>, memref<?x?xf32, strided<[?, 1]>> loc(#loc29)
    tt.return loc(#loc30)
  } loc(#loc)
} loc(#loc)
#loc1 = loc(unknown)
#loc2 = loc("/home/yuhao/T_RVV/benchmark/src/triton/matmul.py":45:24)
#loc3 = loc("/home/yuhao/triton-cpu/python/triton/language/standard.py":40:22)
#loc4 = loc("/home/yuhao/T_RVV/benchmark/src/triton/matmul.py":46:27)
#loc5 = loc("/home/yuhao/triton-cpu/python/triton/language/standard.py":40:28)
#loc6 = loc("/home/yuhao/T_RVV/benchmark/src/triton/matmul.py":47:27)
#loc7 = loc("/home/yuhao/T_RVV/benchmark/src/triton/matmul.py":48:38)
#loc8 = loc("/home/yuhao/T_RVV/benchmark/src/triton/matmul.py":49:22)
#loc9 = loc("/home/yuhao/T_RVV/benchmark/src/triton/matmul.py":50:29)
#loc10 = loc("/home/yuhao/T_RVV/benchmark/src/triton/matmul.py":51:35)
#loc11 = loc("/home/yuhao/T_RVV/benchmark/src/triton/matmul.py":51:48)
#loc12 = loc("/home/yuhao/T_RVV/benchmark/src/triton/matmul.py":52:33)
#loc13 = loc("/home/yuhao/T_RVV/benchmark/src/triton/matmul.py":52:27)
#loc14 = loc("/home/yuhao/T_RVV/benchmark/src/triton/matmul.py":53:19)
#loc15 = loc("/home/yuhao/T_RVV/benchmark/src/triton/matmul.py":53:40)
#loc16 = loc("/home/yuhao/T_RVV/benchmark/src/triton/matmul.py":63:33)
#loc17 = loc("/home/yuhao/T_RVV/benchmark/src/triton/matmul.py":64:33)
#loc18 = loc("/home/yuhao/T_RVV/benchmark/src/triton/matmul.py":67:39)
#loc19 = loc("/home/yuhao/T_RVV/benchmark/src/triton/matmul.py":70:39)
#loc20 = loc("/home/yuhao/T_RVV/benchmark/src/triton/matmul.py":79:33)
#loc21 = loc("/home/yuhao/T_RVV/benchmark/src/triton/matmul.py":79:22)
#loc22 = loc("/home/yuhao/T_RVV/benchmark/src/triton/matmul.py":83:20)
#loc23 = loc("/home/yuhao/T_RVV/benchmark/src/triton/matmul.py":84:20)
#loc24 = loc("/home/yuhao/T_RVV/benchmark/src/triton/matmul.py":86:35)
#loc25 = loc("/home/yuhao/T_RVV/benchmark/src/triton/matmul.py":89:48)
#loc26 = loc("/home/yuhao/T_RVV/benchmark/src/triton/matmul.py":90:48)
#loc27 = loc("/home/yuhao/T_RVV/benchmark/src/triton/matmul.py":88:8)
#loc28 = loc("/home/yuhao/T_RVV/benchmark/src/triton/matmul.py":102:81)
#loc29 = loc("/home/yuhao/T_RVV/benchmark/src/triton/matmul.py":103:29)
#loc30 = loc("/home/yuhao/T_RVV/benchmark/src/triton/matmul.py":99:4)
#loc31 = loc(callsite(#loc3 at #loc4))
#loc32 = loc(callsite(#loc5 at #loc4))
#loc33 = loc(callsite(#loc3 at #loc6))
#loc34 = loc(callsite(#loc5 at #loc6))
#loc35 = loc(callsite(#loc3 at #loc20))
#loc36 = loc(callsite(#loc5 at #loc20))
